code_/logs/epoch=99-step=1800.ckpt (torch, 245304 bytes, 63 tensors)

model.input_encoder.weight f4 [32, 1]
0	0x3e786d51	0.24260451
1	0x3f4cde12	0.8002635
2	0xbf821405	-1.016236
3	0x3ef22b7e	0.47298807
4	0xbf568f1e	-0.8381213
5	0x3f770a1e	0.9649981
6	0x3f174c82	0.59101117
7	0xbf7f03d9	-0.99615246
8	0x3eab74ef	0.3348765
9	0xbe990de5	-0.29893413
10	0x3f137ce4	0.5761244
11	0xbe607f52	-0.21923569
12	0xbd4d7a96	-0.050165735
13	0x3f26c3b9	0.651424
14	0x3eb843f2	0.35989338
15	0x3cd8eba6	0.026479553
16	0x3f43debc	0.7651174
17	0x3ec8114f	0.39075705
18	0xbd5181eb	-0.05114929
19	0x3f787488	0.9705281
20	0x3ea0be9e	0.3139543
21	0xbee493f9	-0.44644144
22	0xbf010c36	-0.5040926
23	0xbdb3bc33	-0.087761305
24	0xbea98486	-0.3310892
25	0xbf81621f	-1.0108069
26	0xbeab66d2	-0.33476883
27	0xbe13a56e	-0.14418575
28	0xbf4ddfc7	-0.8041958
29	0x3cfbf4e2	0.030756418
30	0x3e5a525f	0.21320485
31	0x3e8761e8	0.26441884

model.input_encoder.bias f4 [32]
0	0x3ea624f6	0.32450074
1	0xbf30b8bb	-0.69031876
2	0x3ee18bd6	0.44052
3	0xbc9935f8	-0.018702492
4	0x3f2fedfa	0.687225
5	0x3f0165b0	0.5054579
6	0x3f124fdc	0.57153106
7	0xbf38e240	-0.7222023
8	0x3e82bdcb	0.25535426
9	0xbf3bc042	-0.7334024
10	0xbf34895e	-0.70522106
11	0x3f305caf	0.68891424
12	0xbd0a0c4b	-0.03370313
13	0xbe4a45ab	-0.19753139
14	0xbf55f28b	-0.83573216
15	0xbf48c1cf	-0.7842073
16	0x3f35d043	0.7102091
17	0xbe50bfa9	-0.20385613
18	0xbe9b7cc5	-0.3036863
19	0x3f2cce03	0.6750185
20	0x3e4023fb	0.18763725
21	0x3f7120eb	0.94190854
22	0xbf5ec088	-0.8701253
23	0x3f1c1f08	0.6098485
24	0xbe08f4e8	-0.13374674
25	0xbe61be48	-0.22045243
26	0xbf185712	-0.5950786
27	0xbf4cce75	-0.8000253
28	0x3f413fa5	0.7548774
29	0x3e8e3d33	0.27781066
30	0x3f0ef417	0.558412
31	0x3f38511d	0.7199877

model.convs.0.1.convs.0.conv.weight f4 [32, 32, 1, 2]
0	0x3c94a222	0.018143717
1	0x3d1e8990	0.03870541
2	0xbdb27b98	-0.0871498
3	0x3e00af76	0.12566933
4	0x3c8a0770	0.01684925
5	0xbc940d4e	-0.01807275
6	0xbd5f7739	-0.05455706
7	0xbcc13bfa	-0.02358817
8	0xbe046a8f	-0.12931274
9	0xbdcef671	-0.10105599
10	0x3d95d178	0.073153436
11	0x3db60e60	0.088894606
12	0x3d6e4906	0.05817511
13	0xbc591343	-0.013249221
14	0xbdbcebb5	-0.09224645
15	0x3d4896c3	0.048971903
16	0xbd8cc940	-0.06874323
17	0x3d36710b	0.0445414
18	0x3ca72a3d	0.020405883
19	0xbdc88b1d	-0.09792159
20	0x3c778608	0.015107639
21	0x3dd947ad	0.10609374
22	0xbdfdc853	-0.123917244
23	0x3dabb890	0.08384812
24	0xbdfa2c29	-0.12215454
25	0x3cd7c9ab	0.02634128
26	0xbd1081b0	-0.03527993
27	0x3d847f7c	0.06469628
28	0x3d9ad020	0.07559228
29	0x3d99ca92	0.0750934
30	0x3de84c3b	0.11342665
31	0x3d8fde9e	0.07024883
32	0x3d67316f	0.056443628
33	0x3df83f08	0.12121397
34	0x3cd432e8	0.02590318
35	0xbce4a275	-0.027909497
36	0xbd2f2c24	-0.042766705
37	0x3e0324ff	0.12807082
38	0x3cd4888e	0.02594402
39	0xbc2b2dea	-0.0104479585
40	0x3df3f005	0.119110145
41	0xbd0096ba	-0.031393744
42	0x3c146f87	0.009059793
43	0x3db971ea	0.090549305
44	0x3d0be9a5	0.034158368
45	0xbd798371	-0.060916368
46	0xbdb45780	-0.08805752
47	0xbdad7757	-0.08470028
48	0xb96f3192	-0.00022811283
49	0xbc8b445f	-0.017000375
50	0xbd8b5a26	-0.06804304
51	0x3d3ba6e2	0.04581345
52	0xbdf62d44	-0.120203525
53	0x3d5b7291	0.053576056
54	0xbcc5ea97	-0.024159713
55	0xbde70320	-0.11279893
56	0xbd3fae6a	-0.046797194
57	0x3ce31901	0.027721884
58	0x3d71d492	0.059040613
59	0xbd9c1206	-0.07620625
60	0x3d50fec1	0.051024202
61	0x3deb32b1	0.11484278
62	0x3d9b30a6	0.07577638
63	0x3cd755b1	0.026285978
64	0x3da947a3	0.08265617
65	0xbdd64679	-0.1046266
66	0x3dae5f4e	0.08514272
67	0xbde90ddf	-0.11379599
68	0x3e155186	0.1458188
69	0xbd2fd651	-0.042928997
70	0xbd75dc24	-0.060024396
71	0xbd956049	-0.072937556
72	0xbdbc5996	-0.09196775
73	0x3ca0b68d	0.019618297
74	0x3d5cfc59	0.053951595
75	0x3dbd6c7a	0.09249206
76	0x3d393c98	0.045223802
77	0x3d4c3806	0.049858116
78	0x3d97a50a	0.074045256
79	0x3d4eaa4e	0.050455384
80	0xbd6d58e0	-0.057946086
81	0xbd8fc472	-0.07019891
82	0x3d1ec13b	0.038758498
83	0xbd1d1cb0	-0.038357437
84	0xbe155007	-0.1458131
85	0xbd603419	-0.054737184
86	0x3dd46ef8	0.10372728
87	0xbd7ae202	-0.061250694
88	0x3dd17ea4	0.10229233
89	0x3d2e0635	0.04248639
90	0xbd97c1d9	-0.074100204
91	0xbda79875	-0.08183376
92	0x3d206ded	0.039167333
93	0x3da863e6	0.08222179
94	0xbd8cb38e	-0.06870185
95	0x3cd32fec	0.025779687
96	0xbe05eff7	-0.1307982
97	0xbd9a6d6b	-0.07540401
98	0xbe100381	-0.14063837
99	0xbd5f3fd6	-0.054504238
100	0xbd1425ce	-0.036168866
101	0xbd86585d	-0.06559823
102	0x3d4e51cc	0.050370976
103	0x3dcf92ee	0.101354465
104	0x3c3a4ebc	0.011371311
105	0x3d9e200a	0.07720955
106	0x3d01c229	0.031679306
107	0x3de7244e	0.112862214
108	0x3cd92ee8	0.026511624
109	0x3c98c3f7	0.01864813
110	0x3d9f3490	0.077736974
111	0xbdb69097	-0.08914297
112	0x3dde2285	0.10846428
113	0x3cc518b5	0.024059633
114	0xbd64aae3	-0.055827033
115	0x3da6357c	0.0811567
116	0xbd3b82bd	-0.04577898
117	0xbd74c129	-0.059754524
118	0xbb428704	-0.0029682526
119	0xbba93d7b	-0.0051647997
120	0xbdc14ccc	-0.09438476
121	0x3e0ceab1	0.13761403
122	0xbc9b7c20	-0.018980086
123	0x3ccbe40c	0.024889015
124	0x3df5cc73	0.12001886
125	0x3c020580	0.007935882
126	0x3d84bc3c	0.06481215
127	0x3dec6401	0.11542512
128	0x3d9a2ad6	0.075277016
129	0x3e0a221c	0.13489574
130	0x3d454818	0.048164457
131	0xbd201b05	-0.039088268
132	0x3dcc2339	0.09967656
133	0xbe0a6bb8	-0.13517654
134	0x398e4f61	0.00027143492
135	0x3dba8093	0.09106555
136	0x3bbe5296	0.005808185
137	0x3d499e4c	0.04922323
138	0x3c186501	0.009301425
139	0xbdd34fd4	-0.103179604
140	0x3cc856f3	0.024455523
141	0x3c0b3c68	0.008498289
142	0xbde7f9f0	-0.11326969
143	0xbdb2e665	-0.087353505
144	0x3d66d578	0.056355923
145	0x3c913f64	0.017730422
146	0x3d2ba1fa	0.04190252
147	0x3d351d9b	0.044217687
148	0xbd8469ca	-0.0646549
149	0x3d9420fb	0.07232853
150	0x3d660170	0.056153715
151	0x3d9aae0a	0.075527266
152	0x3d1ba2a1	0.037996892
153	0xbdf2b38d	-0.11850653
154	0xbcaa2ba0	-0.020772755
155	0xbdb112e6	-0.08646183
156	0x3c0c8642	0.008576931
157	0xbcc7d8a4	-0.024395294
158	0x3d251b62	0.040309317
159	0x3dac1b83	0.08403685
160	0x3d3daeaa	0.04630915
161	0xbc358753	-0.011079627
162	0x3e03e63d	0.12880798
163	0xbd82c2eb	-0.06384834
164	0x3d8bf1be	0.06833218
165	0xbdf25553	-0.118326806
166	0x3df57546	0.11985259
167	0x3dad7dc0	0.084712505
168	0xbd949633	-0.07255211
169	0x3de75038	0.112945974
170	0xbe0c47c3	-0.1369925
171	0xbdd91076	-0.10598843
172	0x3d13393f	0.035943266
173	0x3be21e17	0.0069005596
174	0x3d9f0d87	0.07766252
175	0xbd8cb8a5	-0.06871156
176	0x3d4cb705	0.04997923
177	0xbe10137d	-0.14069934
178	0xbdcf8c82	-0.101342216
179	0xbce7b816	-0.028286021
180	0xbdb76c4a	-0.089562014
181	0xbd9205f7	-0.07130044
182	0x3da4f311	0.08054174
183	0xbdf261db	-0.11835071
184	0xbd4d7b42	-0.050166376
185	0x3cc5779a	0.024104882
186	0xbdea9683	-0.11454489
187	0x3d852c2b	0.06502565
188	0xbd6f7f06	-0.05847075
189	0x3d609ccc	0.054837033
190	0xbd44d4f5	-0.048054654
191	0xbd5ff312	-0.05467517
192	0x3df9a4b0	0.12189615
193	0xbd92dafe	-0.07170676
194	0xbde7f47d	-0.11325929
195	0x3e18dc5f	0.14927815
196	0x3dc33a5f	0.09532618
197	0xbdfd285a	-0.12361212
198	0xbd3c6473	-0.045994233
199	0x3e078848	0.13235581
200	0xbd319ac3	-0.043360483
201	0xbe0ff50e	-0.14058325
202	0xbcf1229c	-0.029435448
203	0x3d506b55	0.05088361
204	0x3a91e5d2	0.0011131114
205	0x3d70f404	0.05882646
206	0xbc5a4c12	-0.013323801
207	0xbdada748	-0.08479172
208	0xbd996381	-0.07489682
209	0x3d59a65f	0.05313718
210	0x3d67a1fe	0.056550972
211	0xbdef1d3f	-0.116755
212	0xbdcc9380	-0.09989071
213	0xbc18a313	-0.009316224
214	0x3d2b69f5	0.041849095
215	0x3ce37d93	0.02776984
216	0xbd9006fd	-0.07032583
217	0x3c4b91f0	0.012424931
218	0x3e057c49	0.13035692
219	0xbbf392e2	-0.0074332813
220	0x3d244faf	0.040115055
221	0xbd1def7e	-0.038558476
222	0x3dd4966e	0.10380255
223	0x3c43640f	0.011925711
224	0x3db33a68	0.087513745
225	0x3d0dd87f	0.034630295
226	0xbd46733a	-0.048449732
227	0xbc650da4	-0.013980303
228	0x3c8a3ade	0.016873773
229	0x3dcddd34	0.10051957
230	0xbc6f1a99	-0.014593744
231	0x3e073184	0.13202482
232	0x3db1ce70	0.08681953
233	0x3d910f73	0.07083025
234	0x3daf49d7	0.08559006
235	0x3da9ecde	0.08297132
236	0xbd835f56	-0.06414668
237	0x3dc7a297	0.097478084
238	0xbd3b1db3	-0.04568262
239	0x3d264b4a	0.040599145
240	0x3d403f9c	0.046935663
241	0x3cb24d4c	0.021765374
242	0xbd0584a0	-0.032597184
243	0x3daec56d	0.0853375
244	0xbba7348a	-0.0051026987
245	0x3da4b7db	0.0804288
246	0x3de81dae	0.11333786
247	0xbd44129f	-0.04786932
248	0xbd968050	-0.073486924
249	0x3a1231b7	0.0005576866
250	0x3dde06a3	0.108411096
251	0xbd0c3221	-0.034227494
252	0xbd6de16b	-0.058076303
253	0x3d09f46b	0.03368036
254	0xbd699189	-0.05702356
255	0x3d9e7281	0.07736684

model.convs.0.1.convs.0.conv.bias f4 [32]
0	0x3d9aad3e	0.075525746
1	0x3da29c24	0.07939938
2	0xbda8b1df	-0.08237051
3	0x3cd5040d	0.026002908
4	0x3c55b9d1	0.01304479
5	0x3df13175	0.11777011
6	0x3cc2c405	0.02377511
7	0x3d182c5a	0.037151672
8	0x3d123b9d	0.035701383
9	0xbc82b578	-0.015955672
10	0xbdc2cf14	-0.09512153
11	0xbd3443b3	-0.044009876
12	0x3e0c635c	0.13709778
13	0x3c0099c6	0.007849162
14	0xbd67c3fa	-0.056583382
15	0x3a35350f	0.00069125084
16	0x3dc3c7b7	0.09559577
17	0x3cfdcaee	0.030980553
18	0xbdbafe82	-0.09130575
19	0x3dd134e3	0.102151655
20	0xbdcf113d	-0.1011071
21	0xbd43c94c	-0.047799394
22	0x3da181d4	0.07886091
23	0x3d2c29eb	0.042032164
24	0x3dce572f	0.10075223
25	0x3daa825f	0.083256476
26	0xbd7335b6	-0.059377395
27	0x3dbe1cd1	0.0928284
28	0x3c881135	0.016609767
29	0xbdfc511b	-0.12320157
30	0x3db7b65c	0.08970329
31	0x3d80bb37	0.062857084

model.convs.0.1.convs.1.conv.weight f4 [32, 32, 1, 2]
0	0x3d1a5246	0.03767612
1	0x3dfb1f28	0.12261802
2	0x3c27517c	0.0102122985
3	0x3dc7bd39	0.09752888
4	0xbd708934	-0.058724597
5	0x3d6230c4	0.055222288
6	0x3d4645a5	0.048406262
7	0xbe18b69f	-0.14913414
8	0xbdded8f9	-0.10881228
9	0x3e26d927	0.16293775
10	0x3ddaa3a0	0.1067574
11	0x3df69b71	0.12041367
12	0xbdb5cfe1	-0.088775404
13	0x3dfd72b1	0.12375391
14	0xbd03890f	-0.03211313
15	0x3c6b49f6	0.014360895
16	0xbd2bbaf5	-0.041926343
17	0x3dc931b2	0.09823932
18	0x3a78ccaa	0.00094909465
19	0xbe351603	-0.17684178
20	0xbdfd8aa8	-0.12379962
21	0xbdcaef3c	-0.099089116
22	0x3d631f60	0.055449843
23	0x3ca0843f	0.01959431
24	0x3d3ea0b0	0.046539962
25	0xbd91f3e4	-0.071265966
26	0x3cf1e609	0.029528635
27	0x3b526ec1	0.0032109472
28	0xbdd6497a	-0.10463233
29	0xbd3bd6d3	-0.04585917
30	0x3cb61f7c	0.02223181
31	0xbdb51f0d	-0.08843813
32	0x3c9ef850	0.019405514
33	0x3db932e1	0.090429075
34	0xbdf1befb	-0.11804005
35	0x3d9885b1	0.074473746
36	0x3c09d570	0.008412704
37	0xbc482c50	-0.012217596
38	0xbe495d75	-0.19664557
39	0x3db40737	0.087904386
40	0xbdbb5fb6	-0.09149115
41	0xbdbfd425	-0.09366635
42	0xbd234cf2	-0.039868303
43	0xbda6bb71	-0.0814122
44	0x3dee6df8	0.116420686
45	0x3d84b0e3	0.06479051
46	0x3dff2b0b	0.12459382
47	0x3d95cb52	0.07314171
48	0xbde0cecd	-0.10976944
49	0xbd2bbac5	-0.041926164
50	0x3d794847	0.060859945
51	0xbd606bed	-0.054790426
52	0x3d9907ea	0.074722126
53	0xbee0c63a	-0.43901235
54	0x3da7222c	0.08160815
55	0xbe0817a9	-0.13290276
56	0x3dddb8b6	0.108262464
57	0xbdcfbcb2	-0.10143413
58	0xbd17a60f	-0.0370236
59	0xbd524d2f	-0.05134314
60	0xbccd144e	-0.025034096
61	0xbd530d4a	-0.051526345
62	0x3c062db7	0.00818961
63	0x3dae83ca	0.085212305
64	0x3cc4ed17	0.024038834
65	0xbdcd6e99	-0.100308605
66	0x3dd428dd	0.103593566
67	0x3dac51a1	0.08414007
68	0xbdfaba59	-0.12242574
69	0xbda328fc	-0.079668015
70	0xbdfee91b	-0.12446805
71	0x3cc41e43	0.023940211
72	0xbdfaf925	-0.12254552
73	0x3da38448	0.07984215
74	0xbc5390a2	-0.012912901
75	0x3c8d7106	0.017265808
76	0xbc818e51	-0.015814932
77	0x3dee6aea	0.11641486
78	0x3d8cc628	0.06873733
79	0x3d2f43a1	0.042789105
80	0xbdb0b235	-0.0862774
81	0x3d34cbaf	0.04413956
82	0xbcf0c511	-0.029390844
83	0xbcca0903	-0.0246625
84	0x3dd43e03	0.1036339
85	0xbd91fd80	-0.071284294
86	0x3dd0b967	0.10191613
87	0xbd0236b3	-0.031790446
88	0x3d600b30	0.05469817
89	0xbe029b90	-0.12754655
90	0xbda746b2	-0.08167781
91	0xbd9457be	-0.07243298
92	0x3c5c5481	0.013447882
93	0xbdb629b9	-0.08894677
94	0x3c6f05e1	0.014588804
95	0xbd623701	-0.055228237
96	0x3d16b8f2	0.03679747
97	0x3ca9a117	0.020706696
98	0xbd297b70	-0.041377485
99	0xbd80903b	-0.0627751
100	0xbdabd602	-0.08390428
101	0xbddadc4a	-0.10686548
102	0xbc8f2241	-0.017472388
103	0xbd82a581	-0.063792236
104	0xbe033dc0	-0.12816525
105	0xbd133cef	-0.035946783
106	0x3de1c09a	0.11023064
107	0xbde22f80	-0.11044216
108	0x3d9c6096	0.0763561
109	0xbcf7f3ac	-0.030267559
110	0x3d01cf9a	0.031692125
111	0xbdbc7bf0	-0.09203327
112	0x3bb72e93	0.005590269
113	0x3dc01def	0.093807094
114	0xbdc73e92	-0.09728731
115	0xbd14c732	-0.03632278
116	0xbcb07420	-0.021539748
117	0xbe079c4a	-0.13243213
118	0xbded98e9	-0.11601431
119	0xbc6e792d	-0.014555258
120	0xbd597790	-0.05309254
121	0x3bc18d8c	0.0059067663
122	0xbde11d01	-0.1099186
123	0xbdf6ebe6	-0.12056713
124	0x3bcf9c55	0.006335775
125	0xbc1f52d3	-0.009724337
126	0xbdd646db	-0.10462733
127	0xbde9fadc	-0.11424801
128	0xbc10330c	-0.008801233
129	0xbd8e8697	-0.06959265
130	0xbdd5b2e4	-0.10434511
131	0x3d178704	0.036993995
132	0x3d8c6a9d	0.06856272
133	0x3d860b66	0.06545143
134	0xbdc9d2e6	-0.09854679
135	0xbe09eb3a	-0.13468638
136	0x3cc11d19	0.023573445
137	0x3d2c5d08	0.04208091
138	0x3dabf06e	0.08395468
139	0x3e017621	0.12642719
140	0xbd634ce4	-0.05549325
141	0xbd5e63f7	-0.054294553
142	0xbd9b8ffe	-0.07595824
143	0xbd8e9b74	-0.06963244
144	0xbd5faa58	-0.05460581
145	0xbdc6d4f0	-0.09708583
146	0xbd33be46	-0.04388263
147	0x3d1f0a32	0.038828082
148	0xbca21c17	-0.019788785
149	0xbd155775	-0.03646036
150	0x3dfd23f5	0.12360374
151	0x3e065cbd	0.13121314
152	0x3de11a82	0.10991384
153	0xbd9c5047	-0.07632499
154	0x3dbdeb8a	0.09273441
155	0x3e0d521c	0.13800853
156	0x3dbe0c76	0.092797205
157	0x3ded9a10	0.11601651
158	0x3db29893	0.087205075
159	0xbcb31721	-0.021861615
160	0x3cd2fbd3	0.025754845
161	0xbd9a0580	-0.0752058
162	0x3e000341	0.12501241
163	0xbb9ba72e	-0.004750154
164	0x3dfa3c9e	0.12218593
165	0x3ca58720	0.020206034
166	0x3dcac8cd	0.09901581
167	0xbd2c5f60	-0.042083144
168	0xbe015ef3	-0.12633877
169	0x3b127d7f	0.0022352634
170	0xbd1c3b8c	-0.038142726
171	0x3e9c4dd6	0.30528134
172	0x3dd773fe	0.10520171
173	0xbdf9b1be	-0.12192105
174	0xbd94c411	-0.07263959
175	0xbcf07144	-0.029350884
176	0xbbaa9e21	-0.0052068387
177	0x3caa3dbd	0.020781392
178	0x3d99a1aa	0.07501538
179	0x3da60fac	0.08108458
180	0x3e081346	0.13288602
181	0x3e06ffe9	0.1318356
182	0xbd49d812	-0.049278326
183	0xbe68e5b1	-0.2274387
184	0x3dfea56e	0.12433897
185	0xbdd8c361	-0.105841406
186	0x3dd457ee	0.10368334
187	0xbdbd6021	-0.09246851
188	0x3dfe3527	0.12412482
189	0xbb184e54	-0.0023240047
190	0xbd6c8538	-0.057744235
191	0x3cf03ee5	0.029326865
192	0xbcca20d8	-0.024673864
193	0xbda33bf9	-0.07970423
194	0xbdf30a33	-0.1186718
195	0xbd82dea3	-0.06390121
196	0x3c814c09	0.015783327
197	0x3d361979	0.044457886
198	0xbda71561	-0.081583746
199	0x3d5c5876	0.0537953
200	0xbde9899b	-0.11403199
201	0x3dae854d	0.08521519
202	0xbd29dda5	-0.041471142
203	0x3d4d1d9a	0.05007706
204	0x3d87b456	0.06626193
205	0xbc8e6c58	-0.017385647
206	0xbd8d9baf	-0.0691446
207	0x3d540469	0.05176202
208	0xbdbe3e02	-0.09289171
209	0xbd9ee94c	-0.077593416
210	0xba1a8398	-0.0005894243
211	0xbd96e0cf	-0.073670976
212	0x3d89ef67	0.067351155
213	0xbd6acbe7	-0.057323363
214	0xbdfd6942	-0.12373592
215	0xbe1e2191	-0.15442492
216	0xbd2d3d38	-0.04229471
217	0xbda82b52	-0.08211388
218	0x3d8c76f2	0.068586245
219	0xbd271bda	-0.040798046
220	0xbe0f8884	-0.1401692
221	0xbd9197d4	-0.07109037
222	0x3da580f1	0.08081234
223	0xbcebf31b	-0.028802445
224	0xbd7f332b	-0.062304657
225	0xbdc00a4a	-0.093769625
226	0x3dbcdd71	0.09221924
227	0xbd90c1c9	-0.070682116
228	0xbceb5948	-0.028729096
229	0x3db67b5a	0.08910246
230	0xbdd804fc	-0.10547826
231	0x3d4146a5	0.047186513
232	0xbc9af6ac	-0.01891645
233	0xbd821983	-0.06352522
234	0xbddb42ff	-0.10706138
235	0xbc6252cb	-0.013813685
236	0xbc15ae56	-0.009135803
237	0xbdc90ac4	-0.098165065
238	0x3c60b8f6	0.013715973
239	0x3bed9520	0.007250443
240	0x3cea76f0	0.028621167
241	0xbd375034	-0.044754222
242	0x3dcfd43f	0.101479046
243	0xbc2c13fb	-0.010502811
244	0xbcf7daa0	-0.030255616
245	0x3dafb20b	0.08578881
246	0x3d4a6c41	0.049419645
247	0x3dc2b722	0.09507586
248	0x3c9b0a51	0.018925818
249	0xbdbb98cd	-0.09160004
250	0x3d920433	0.07129707
251	0x39ae379a	0.00033229293
252	0xbddb3453	-0.107033394
253	0xbda85c82	-0.082207695
254	0xbd6fbb35	-0.058528144
255	0x3bffbd1e	0.007804527

model.convs.0.1.convs.1.conv.bias f4 [32]
0	0x3bb6dd1f	0.005580559
1	0xbd17bff9	-0.037048314
2	0xbce7e2d6	-0.028306406
3	0xbc8d4d28	-0.017248705
4	0xbd38b5de	-0.045095317
5	0xbd8b5afc	-0.06804463
6	0x3cf6e707	0.03013946
7	0xbdae6aee	-0.08516489
8	0xbdd0567b	-0.10172745
9	0x3db8ca30	0.09022939
10	0x3e08ef24	0.13372475
11	0xbdffdd70	-0.12493408
12	0x3dea60a9	0.11444218
13	0x3bd5b8ad	0.006522259
14	0xb9cb9b1e	-0.0003883475
15	0x3d3ffb6e	0.04687064
16	0x3da351c4	0.0797458
17	0x3c9162c3	0.017747289
18	0xbce5acb3	-0.028036451
19	0xbdd243f0	-0.10266864
20	0x3d0140a6	0.031555794
21	0x3dd39c64	0.103325635
22	0x3d6b672e	0.057471447
23	0x3d92eea1	0.07174421
24	0xbdda1854	-0.106491715
25	0xbc4df7bc	-0.0125712715
26	0xbc23930f	-0.009983792
27	0xbc3bd489	-0.011464247
28	0xbd9b300a	-0.07577522
29	0x3d6ad03a	0.057327487
30	0xbdf6bbb4	-0.1204752
31	0xbdbe32fa	-0.09287067

model.convs.1.1.convs.0.conv.weight f4 [32, 32, 1, 2]
0	0xbc5babe7	-0.013407684
1	0x3de204f0	0.11036098
2	0xbda7b336	-0.08188479
3	0xbdaa191d	-0.08305571
4	0x3cc74755	0.024326006
5	0x3d0c3e9f	0.034239408
6	0xbddcdf0b	-0.107847296
7	0xbdf9aa84	-0.121907264
8	0x3d13a62e	0.036047153
9	0x3dcdae5c	0.10043022
10	0x3d15a903	0.036538135
11	0xbde691ec	-0.11258301
12	0xbde2c0fc	-0.11071965
13	0xbd975c0c	-0.073906034
14	0xbb4cc7b2	-0.0031246957
15	0xbddc5380	-0.10758114
16	0x3e065683	0.13118939
17	0xbd8d2f07	-0.068937354
18	0x3d1cd463	0.038288485
19	0xbde3e74e	-0.11128102
20	0xbcb0b507	-0.021570696
21	0x3d8052d8	0.06265801
22	0xbdc52e16	-0.09627931
23	0xbd9681d9	-0.07348985
24	0x3dbb319d	0.09140322
25	0x3d00bac9	0.031428132
26	0x3e09afbe	0.13445947
27	0xbd74d0c5	-0.05976941
28	0x3db52bed	0.08846269
29	0x3c8f9b84	0.01753021
30	0xbda967fe	-0.08271788
31	0xbd204886	-0.039131664
32	0x3df054e7	0.11734944
33	0x3daeab82	0.08528806
34	0x3d426650	0.047460854
35	0xbd9edf56	-0.07757442
36	0xbce95c8a	-0.028486509
37	0x3e0d1877	0.13778864
38	0x3dfaa51c	0.12238523
39	0xbdb85a7b	-0.09001633
40	0x3caab398	0.02083759
41	0xbe041798	-0.12899625
42	0xbdef4122	-0.11682345
43	0x3cc94f20	0.024573863
44	0xbd93193c	-0.071825475
45	0x3801552e	3.0835326e-05
46	0x3d850488	0.06495005
47	0xbc81db3f	-0.015851615
48	0xbe571fca	-0.2100822
49	0xbe3318a4	-0.17489868
50	0x3d87fe20	0.06640267
51	0x3c9cc61f	0.01913744
52	0xbe1802cd	-0.14844818
53	0xbe0ac9d5	-0.13553555
54	0xbdf0bf72	-0.11755265
55	0x3d9f3c18	0.07775134
56	0xbd882208	-0.06647116
57	0xbd4df660	-0.05028379
58	0xbdf157de	-0.117843375
59	0x3d0b4bd3	0.03400786
60	0x3c767358	0.0150421485
61	0xbd400b22	-0.046885617
62	0x3dd582f6	0.104253694
63	0x3de8e073	0.11370935
64	0xbbbd7910	-0.005782254
65	0x3c813125	0.015770504
66	0x3d2d52ef	0.04231542
67	0xbdc16f5d	-0.09445069
68	0xbd2efc73	-0.042721223
69	0x3d7de479	0.061985467
70	0xbd952db7	-0.0728411
71	0xbddbacb6	-0.10726301
72	0xbd95230d	-0.07282076
73	0x3d79c8a7	0.060982373
74	0x3de137ed	0.10996995
75	0xbca415c5	-0.020029912
76	0x3c301a14	0.010748405
77	0xbc9352ad	-0.017983759
78	0xbdddc2c9	-0.10828168
79	0x3d45bb39	0.048274253
80	0xba9de607	-0.0012046703
81	0xbc01d03c	-0.007923182
82	0x3dbd61f8	0.09247202
83	0xbbdcf3e6	-0.006742942
84	0xbd47c49c	-0.048771486
85	0x383b15ee	4.4604698e-05
86	0x3db4b7c5	0.08824114
87	0xbd894c79	-0.06704039
88	0xbde800e0	-0.11328292
89	0x3cd7deff	0.02635145
90	0xbda0db37	-0.07854312
91	0x3d66cd03	0.05634786
92	0x3e0fccec	0.14043015
93	0x3d590a13	0.052988123
94	0xbd9689a3	-0.07350471
95	0x3de0dc5f	0.109795325
96	0x3cf5e7d9	0.03001778
97	0x3d12d9c4	0.03585221
98	0x3d2244b0	0.039616287
99	0x3e10a138	0.14124
100	0xbd313af3	-0.04326911
101	0xbd99fdfb	-0.07519146
102	0xbd1dacd8	-0.038494915
103	0x3ddec1c5	0.10876802
104	0x3cf1af59	0.029502558
105	0x3defebb6	0.1171488
106	0xbe0e24ef	-0.13881277
107	0xbd9f0868	-0.07765275
108	0xbd369826	-0.044578694
109	0xbda266eb	-0.07929786
110	0x3db1635d	0.0866153
111	0x3da85be9	0.082206555
112	0x3d89f5cf	0.067363374
113	0x3e0286ee	0.12746784
114	0x3dd533ec	0.10410294
115	0x3db0f4e3	0.086404584
116	0xbc735766	-0.01485238
117	0x3ce785d4	0.028262056
118	0xbd049694	-0.032370165
119	0xbd0cf558	-0.034413666
120	0xbd63eed8	-0.0556477
121	0x3db87cf6	0.090082094
122	0xbd2c2a72	-0.042032667
123	0xbdc95e12	-0.098323956
124	0x3d39c223	0.04535116
125	0x3db4297b	0.08796974
126	0x3d0b7e41	0.034055952
127	0x3db59640	0.088665485
128	0x3e4b15a1	0.1983247
129	0x3d7923fc	0.060825333
130	0xbd8476d6	-0.06467979
131	0x3c492f1f	0.012279301
132	0x3e3528b4	0.17691308
133	0xbe26cb43	-0.16288476
134	0xbd6b1833	-0.057396125
135	0xbd0f66f9	-0.03501031
136	0x3bdbfae6	0.006713259
137	0x3d35cc5d	0.04438435
138	0xbe91c81f	-0.28472993
139	0x3e10dfe8	0.14147913
140	0xbd9bfcca	-0.07616575
141	0x3d62ba17	0.05535325
142	0x3e65be89	0.22435965
143	0xbdc581e3	-0.096439146
144	0xbeaab1b6	-0.33338708
145	0xbcae10f2	-0.021248315
146	0x3d199800	0.037498474
147	0x3d0c8ce4	0.03431405
148	0xbd05153b	-0.03249095
149	0xbbf87369	-0.0075821173
150	0xbd1d4511	-0.038395945
151	0xbd8e103f	-0.069366924
152	0xbe42ba6f	-0.19016431
153	0x3e58e3a3	0.21180587
154	0xbe3a6f2a	-0.18206468
155	0xbce30eef	-0.027717082
156	0xbdde6d3a	-0.10860677
157	0x3caea3d3	0.021318352
158	0xbdd39e1c	-0.10332891
159	0xbdee7a5d	-0.11644433
160	0xbd81d659	-0.06339712
161	0xbc6529cd	-0.013987017
162	0xbe8ca33b	-0.27468285
163	0x3d3fef5f	0.04685914
164	0xbde95e3d	-0.11394928
165	0xbe4a2edf	-0.19744442
166	0xbe96a19f	-0.29420182
167	0xbc1a9d5e	-0.009436933
168	0xbe8cf159	-0.27527884
169	0xbc684b7f	-0.014178156
170	0xbd029dc4	-0.03188874
171	0xbdcde236	-0.10052912
172	0x3dae85d2	0.08521618
173	0xbd8a927f	-0.06766223
174	0xbb58ad7b	-0.0033062387
175	0xbc165bb8	-0.009177141
176	0x3ee61dcb	0.44944605
177	0xbdb14c2f	-0.08657109
178	0x3e88c961	0.2671614
179	0x3cafa33c	0.02144014
180	0x3e9542ea	0.29152614
181	0xbe21eb25	-0.15812357
182	0x3dbdc37b	0.092658006
183	0x3d1c04a4	0.038090363
184	0x3d33c85f	0.04389226
185	0xbd13c43e	-0.036075823
186	0xbe427a1d	-0.18991895
187	0x3d3e0eb1	0.04640073
188	0x3c5ccb31	0.013476179
189	0x3d987918	0.07444972
190	0xbdf85409	-0.121254034
191	0x3dc47e59	0.095944114
192	0x3dd780de	0.10522626
193	0xbc2510e1	-0.010074825
194	0xbdfe33fd	-0.1241226
195	0xbd96cee0	-0.07363677
196	0x3c81cf66	0.015845966
197	0xbd62e84b	-0.055397313
198	0xbdf7019f	-0.12060856
199	0x3df570b3	0.11984386
200	0x3da1a790	0.07893288
201	0xbdeec0b0	-0.11657846
202	0xbdfcfd82	-0.1235304
203	0x3dbcdd69	0.09221918
204	0x3dbd9f53	0.09258904
205	0x3c092f35	0.008373071
206	0xbdcac23a	-0.09900327
207	0x3d680fa3	0.056655537
208	0x3db22cdb	0.08699962
209	0x3d505571	0.050862733
210	0x3def33a9	0.11679775
211	0x3e0cf9a1	0.13767101
212	0xbe0356f3	-0.12826137
213	0xbc66b64a	-0.014081547
214	0x3d0679e2	0.03283108
215	0xbc213779	-0.009839886
216	0x3b99eb5e	0.0046972474
217	0xbd295bca	-0.041347302
218	0xbc6567d4	-0.014001805
219	0x3c999184	0.018746145
220	0xbac183f1	-0.0014764053
221	0x3d0480d5	0.032349426
222	0x3df25a71	0.118336566
223	0xbdf1bb5d	-0.11803315
224	0xbdca4f5e	-0.09878419
225	0xbc2f7b92	-0.010710614
226	0xbe09244b	-0.13392751
227	0xbd332d29	-0.04374424
228	0x3d99f79a	0.075179294
229	0x3d0e51ab	0.034745853
230	0x3d472c3a	0.048626162
231	0xbda691fd	-0.08133314
232	0x3e00426e	0.12525341
233	0xbd79ee1c	-0.061018094
234	0x3dd6c5fa	0.1048698
235	0x3d90473b	0.07044836
236	0xbd0afff4	-0.033935502
237	0x3d6c2076	0.057648145
238	0x3d80fdd2	0.062984124
239	0x3d0becaa	0.034161247
240	0x3e09586a	0.13412634
241	0x3d541b4a	0.051783837
242	0x3d8f980a	0.07011421
243	0x3d180f14	0.037123755
244	0xbc5723e3	-0.013131115
245	0x3d970b57	0.0737521
246	0xbde49f27	-0.111631684
247	0x3d96fbaa	0.0737222
248	0xbd26e67c	-0.04074715
249	0x3dbcd198	0.09219664
250	0xbc51414e	-0.0127719175
251	0xbd25001f	-0.04028332
252	0xbd9954c8	-0.07486874
253	0x3dbe3c3a	0.09288831
254	0x3d58109c	0.052750215
255	0xbcaef483	-0.021356827

model.convs.1.1.convs.0.conv.bias f4 [32]
0	0x3d47e7d5	0.048805077
1	0xbbdd4c9d	-0.006753518
2	0x3d9725c4	0.0738025
3	0xbc64c7de	-0.013963668
4	0xbdaf776b	-0.08567699
5	0x3ac439e5	0.0014970867
6	0xbc281fe9	-0.010261514
7	0xbce7f7f4	-0.028316475
8	0xbd92f8a8	-0.07176334
9	0xbe0c6c48	-0.13713181
10	0x3d60a095	0.054840643
11	0xbd4f38cc	-0.050591275
12	0x3d667b4a	0.05626992
13	0x3d7220cc	0.05911331
14	0xbd1678d6	-0.036736332
15	0x3d98a014	0.074524075
16	0xbc62c30c	-0.013840448
17	0xbbbc5fdd	-0.0057487325
18	0x3d078011	0.033081118
19	0xbd9470bc	-0.07248065
20	0xbcfa816d	-0.030579293
21	0x3cbd39de	0.023098882
22	0xbca0df00	-0.019637585
23	0x3d6d0a73	0.057871293
24	0x3db69940	0.08915949
25	0x3d1aa6d5	0.03775676
26	0x3dcc21d3	0.09967389
27	0x3d594ccf	0.053051766
28	0x3d10b0a5	0.03532471
29	0xbd9ec281	-0.077519424
30	0xbd684c7c	-0.056713566
31	0xbd934827	-0.07191496

model.convs.1.1.convs.1.conv.weight f4 [32, 32, 1, 2]
0	0x3cb6b0b2	0.022301052
1	0xbd473aa4	-0.04863991
2	0xbdf87ffe	-0.121337876
3	0xbde6cb9f	-0.112693064
4	0xbd9a6401	-0.075386055
5	0x3dd2853e	0.1027932
6	0xbcb7ffcf	-0.022460846
7	0xbd63f08c	-0.055649325
8	0x3defe94e	0.11714421
9	0x3d3ee6a4	0.046606675
10	0xbe07e0c0	-0.13269329
11	0xbce73260	-0.028222263
12	0xbe027889	-0.12741293
13	0x3e1afd2d	0.15135641
14	0xbda4f7da	-0.080550864
15	0xbe4f19cb	-0.20224683
16	0x3c34f63c	0.011045035
17	0x3d865cbe	0.06560658
18	0xbda039be	-0.078235134
19	0xbe04c74c	-0.1296665
20	0xbd67dcd3	-0.05660708
21	0x3ddc2e5f	0.10751032
22	0x3d3a3cdf	0.045468207
23	0x3e0dba7d	0.13840671
24	0xbf38f713	-0.72252005
25	0xbebce76d	-0.36895314
26	0x3d996d28	0.07491523
27	0xbd6130c8	-0.054978162
28	0x3d8a7714	0.067609936
29	0xbc75cb5d	-0.015002099
30	0xbda25cc3	-0.07927849
31	0xbd526e0f	-0.05137449
32	0xbe0adf8c	-0.13561839
33	0x3dd5bad5	0.10436026
34	0x3dd70294	0.104985386
35	0xbd515225	-0.05110373
36	0x3e7614da	0.24031392
37	0x3e2c0239	0.16797723
38	0x3e150e2f	0.14556192
39	0xbca8e805	-0.020618448
40	0xbd14c786	-0.036323093
41	0x3cabe054	0.020980991
42	0x3de5b7af	0.112166755
43	0xbdd0e980	-0.102007866
44	0xbb4c351a	-0.003115958
45	0x3da39790	0.07987893
46	0xbcdfb7f1	-0.02730939
47	0x3e261db6	0.16222271
48	0x3da6cc73	0.08144464
49	0xbd7639f6	-0.06011387
50	0xbdfa4726	-0.12220602
51	0xbdb8185b	-0.089890204
52	0xbd1b5878	-0.037926167
53	0xbc263b37	-0.010145954
54	0xbe97d3c3	-0.2965375
55	0xbe9fd81f	-0.31219575
56	0x3d885a24	0.06657818
57	0x3dc32e6d	0.095303394
58	0xbe42683e	-0.18985078
59	0x3deef119	0.116670795
60	0xbdafb5c7	-0.08579593
61	0xbd4e7e7a	-0.050413586
62	0xbe831f07	-0.2560961
63	0xbe8d72e1	-0.27626708
64	0x3dc58729	0.096449204
65	0x3dabac4c	0.083824724
66	0xbc559349	-0.013035604
67	0xbd6c4050	-0.05767852
68	0xbe117845	-0.14206035
69	0x3ec4a47d	0.38406745
70	0x3d6da226	0.058015965
71	0xbdac2d78	-0.0840711
72	0x3dbc56c4	0.09196237
73	0x3d26ccfd	0.040722836
74	0x3d7646f7	0.06012627
75	0x3d7d454a	0.061833657
76	0x3dcc6e26	0.09981947
77	0xbdd0fefd	-0.10204885
78	0xbc7e9190	-0.0155376345
79	0x3d7d549d	0.06184827
80	0x3d36967f	0.044577118
81	0x3de7690b	0.11299332
82	0x3dd2b870	0.10289085
83	0xbd799833	-0.060936164
84	0x3bd0c31e	0.006370916
85	0x3d64928f	0.05580383
86	0x3d61c58d	0.05512004
87	0xbca0ff86	-0.019653093
88	0xbe8237cb	-0.25433192
89	0xbe86d333	-0.26333007
90	0x3ca0ebd8	0.019643709
91	0x3e19c09f	0.15014885
92	0xbdd13e0e	-0.10216914
93	0xbde8ee1b	-0.1137354
94	0xbdc91916	-0.09819238
95	0xbdbc2ca6	-0.091882035
96	0x3dc2debf	0.09515142
97	0x3cd62879	0.026142346
98	0x3bec285a	0.0072069587
99	0x3d87cc7a	0.06630798
100	0x3dbbb478	0.09165281
101	0x3d8f1dd8	0.06988114
102	0xbdd5c483	-0.10437872
103	0x3d14e0a0	0.03634703
104	0x3b9888a5	0.004654961
105	0xbdb5f49d	-0.08884547
106	0xbe13934a	-0.14411655
107	0xbd89b9c0	-0.06724882
108	0x3d944387	0.07239442
109	0x3d2dd048	0.04243496
110	0xbe05b091	-0.13055636
111	0xbcd802b1	-0.02636847
112	0xbdcc5eb3	-0.09979
113	0xbda0dc87	-0.07854562
114	0xbdd8bf34	-0.10583344
115	0xba4b0862	-0.00077450846
116	0xbcbb9ff5	-0.022903422
117	0x3c7aa91d	0.015299109
118	0x3d02b7b8	0.03191349
119	0x3dc6a342	0.09699108
120	0xbccf0aac	-0.025273643
121	0xbb07c3aa	-0.002071599
122	0xbda42a00	-0.08015823
123	0x3cd3725f	0.025811372
124	0xbc736d42	-0.014857592
125	0xbdc2fdd8	-0.09521073
126	0x3d7fe289	0.0624719
127	0x3d252a5d	0.040323604
128	0xbda2373e	-0.07920693
129	0xbdaaa29f	-0.08331799
130	0xbb4778dc	-0.0030437028
131	0x3d6e1c68	0.05813256
132	0x3d07f44b	0.03319196
133	0xbde255f1	-0.11051548
134	0x3e0d6296	0.13807139
135	0x3cabc00a	0.020965595
136	0xbde03db4	-0.10949269
137	0xbdb70c80	-0.08937931
138	0x3de51dc4	0.11187318
139	0x3c46b80d	0.012128842
140	0x3e00452f	0.12526391
141	0x3d956787	0.07295137
142	0x3ddbe3cb	0.107368074
143	0x3cc91cb2	0.024549816
144	0xbcc8488e	-0.02444866
145	0x3d441cd9	0.047879074
146	0x3de14549	0.10999543
147	0xbc87af1b	-0.016562989
148	0x3c4fb048	0.012676306
149	0xbdda5a37	-0.10661738
150	0x3d060c0c	0.032726333
151	0xbd6b263f	-0.05740952
152	0xbdb75e89	-0.08953578
153	0xbd48ff4c	-0.049071595
154	0xbdabb0cf	-0.08383333
155	0xbdbeac33	-0.09310188
156	0xbcebffee	-0.02880856
157	0x3db7e5b3	0.089793585
158	0x3d727543	0.05919386
159	0x3c139ab2	0.00900905
160	0xbdc2c8d4	-0.09510961
161	0x3c4f8141	0.012665094
162	0x3d98effe	0.0746765
163	0x3db291a6	0.087191865
164	0x3a13017f	0.0005607828
165	0xba840f09	-0.0010075282
166	0x3debd5ee	0.11515413
167	0x3df4e2fe	0.11957358
168	0xbde55e05	-0.111995734
169	0x3ce81734	0.028331377
170	0xbc965814	-0.018352546
171	0x3e0abc8e	0.1354849
172	0x3b6557eb	0.003499503
173	0x3b9a8086	0.004715028
174	0x3e0152c0	0.12629223
175	0x3dcca9f6	0.09993355
176	0xbd41faad	-0.047358204
177	0x3d316600	0.043310165
178	0xbd6e6eb4	-0.058211043
179	0x3dea634c	0.114447206
180	0xbe34c3c2	-0.176528
181	0x3e041c5e	0.12901446
182	0x3d0b2878	0.03397414
183	0x3dc7fc0a	0.097648695
184	0xbc7cb82e	-0.015424771
185	0x3e101344	0.14069849
186	0xbda85bd9	-0.082206436
187	0x3d0ed939	0.03487513
188	0xbc7dd253	-0.01549204
189	0xbdc90157	-0.09814709
190	0x3dcac560	0.099009275
191	0x3c1a3a50	0.009413317
192	0x3d437f9c	0.04772912
193	0x3d3f0205	0.046632785
194	0xbdc0fc4d	-0.094231226
195	0xbd79974c	-0.060935304
196	0xbeb2600f	-0.34838912
197	0xbe8aa33f	-0.27077672
198	0xbddfecf1	-0.10933865
199	0xbd211efc	-0.03933619
200	0xbdfb438a	-0.122687414
201	0xbca33aa4	-0.019925423
202	0x3df3b157	0.11899059
203	0x3dbd6791	0.09248269
204	0xbd15ec50	-0.03660232
205	0x3dae7179	0.08517737
206	0xbe107802	-0.1410828
207	0x3d84e582	0.06489088
208	0xbcb7c978	-0.022434935
209	0xbc71975e	-0.014745561
210	0x3e8828a9	0.2659352
211	0x3e36c4f8	0.17848575
212	0xbd4586d3	-0.04822428
213	0xbaf2c35d	-0.0018521358
214	0xbd4cf16b	-0.05003492
215	0xbd9dcb8e	-0.077048406
216	0x3c766066	0.015037632
217	0x3dae0bfe	0.08498381
218	0x3d6aa4e8	0.057286173
219	0x3deb2b92	0.1148292
220	0x3d8a6884	0.06758216
221	0xbcbcbdb1	-0.02303967
222	0xbe08b56c	-0.13350457
223	0x3d211c4c	0.039333627
224	0x3ccfe46a	0.025377471
225	0xbdcbff74	-0.09960833
226	0xbd0d9086	-0.034561656
227	0x3d95a649	0.07307107
228	0xbdfac883	-0.12245276
229	0xbda4b53d	-0.08042381
230	0x3d7da70f	0.061926898
231	0xbcc29df6	-0.023756962
232	0x3d9c4507	0.076303534
233	0x3ded2fe6	0.115814015
234	0xbed00eb1	-0.4063621
235	0x3e8ea30b	0.27858767
236	0x3cfa1e51	0.030532034
237	0x3de8b168	0.113619626
238	0x3c851746	0.01624645
239	0xbde8a16f	-0.11358916
240	0x3df1f997	0.118151836
241	0x3be65b96	0.007029961
242	0x3db12431	0.08649481
243	0xbda6cbcc	-0.0814434
244	0xbea5ad91	-0.32358983
245	0x3d6de8f3	0.058083486
246	0xbda1c810	-0.07899487
247	0xbd220b58	-0.0395616
248	0xbd0d2c7f	-0.034466263
249	0x3d4ffe6c	0.050779745
250	0x3cb6809a	0.022278119
251	0x3e092f0f	0.13396858
252	0x3cd63049	0.026146071
253	0x3da6a7fb	0.081375085
254	0x3e024025	0.12719782
255	0xbd1547a3	-0.03644527

model.convs.1.1.convs.1.conv.bias f4 [32]
0	0xbd8ce1de	-0.06879018
1	0xbc977796	-0.01848964
2	0x3da0bc7e	0.07848452
3	0xbc0c5ea0	-0.008567482
4	0xbdbdd178	-0.092684686
5	0xbda1ae96	-0.07894628
6	0x39a15844	0.00030774076
7	0x3dcb5012	0.099273816
8	0xbdd424f4	-0.10358611
9	0xbd824c32	-0.06362189
10	0xbdad474b	-0.08460864
11	0x3c9878f6	0.018612366
12	0xbe0b4b17	-0.13602863
13	0x3d86847a	0.06568237
14	0x3d4c66e2	0.049902804
15	0xbd7b3a54	-0.061334923
16	0xbcb8551f	-0.022501526
17	0x3dbb6dfd	0.09151838
18	0xbc0f24ec	-0.00873683
19	0xbd7b8cd2	-0.061413594
20	0x3d98799a	0.07445069
21	0x3c41a7d5	0.011819799
22	0x3dccb8e9	0.09996206
23	0xbdd000ad	-0.10156379
24	0x3c0ea40e	0.008706106
25	0x3cb8c5ca	0.02255525
26	0x3da7fc99	0.08202476
27	0xbdf528df	-0.11970686
28	0x3c8c0b77	0.01709531
29	0x3c476554	0.012170155
30	0x3d946895	0.0724651
31	0x3ddc58d6	0.107591316

model.convs.2.1.convs.0.conv.weight f4 [32, 32, 1, 2]
0	0x3dd8acd0	0.10579836
1	0xbdc265c8	-0.094920695
2	0xbdb58aaf	-0.088643424
3	0xbcf07fc2	-0.029357795
4	0x3d0602db	0.032717567
5	0x3ca0ad80	0.019613981
6	0xbd6eb3cc	-0.058276936
7	0x3d8c2004	0.06842044
8	0xbc814fe2	-0.015785161
9	0xbdaf8868	-0.08570939
10	0xbc3cde49	-0.011527606
11	0xbe072522	-0.13197759
12	0x3d5e78f2	0.05431456
13	0xbe0255f0	-0.12728095
14	0xbe04d562	-0.12972024
15	0x3d05ac07	0.03263476
16	0xbd0d6258	-0.034517616
17	0xbda3591f	-0.07975983
18	0x3d4fe2c6	0.050753377
19	0xbd3bcbf3	-0.045848798
20	0x3e14bb7e	0.14524648
21	0xbd827ad0	-0.06371081
22	0x3ca490f7	0.020088656
23	0x3dc5fc73	0.096672915
24	0x3d62fc6d	0.055416513
25	0x3d0f42ff	0.034976
26	0xbd528669	-0.051397715
27	0xbdffdda2	-0.12493445
28	0xbdbe5ea7	-0.09295397
29	0xbda6c943	-0.081438564
30	0x3cf7cf11	0.030250104
31	0x3df65f35	0.12029878
32	0xbc1f77df	-0.009733169
33	0xbd8a461b	-0.06751653
34	0x3d85cf48	0.065336764
35	0x3d16fb37	0.03686067
36	0xbdb5c58a	-0.08875568
37	0xbd8840ca	-0.066529825
38	0x3d91ce66	0.071194455
39	0xbd86a778	-0.06574911
40	0xbe446c08	-0.19181836
41	0xbd456f21	-0.048201684
42	0xbe0bdc77	-0.1365832
43	0x3cf31a60	0.029675663
44	0x3e1434f4	0.14473325
45	0x3ce24cac	0.02762445
46	0xbd32801d	-0.04357921
47	0xbd8f2abf	-0.06990575
48	0x3e2dc9fe	0.16971585
49	0x3e4b0a12	0.1982806
50	0x3cfec901	0.031101706
51	0xbd7d0c8f	-0.061779555
52	0xbd147d29	-0.036252175
53	0x3e2f70c3	0.17132859
54	0x3c99b8e6	0.018764924
55	0x3e08f552	0.13374832
56	0xbdcb15b0	-0.09916246
57	0x3dbdc553	0.09266152
58	0x3d73ef78	0.059554547
59	0xbcdad348	-0.026712075
60	0xbe34d88b	-0.1766073
61	0xbd930f42	-0.071806446
62	0xbde961ae	-0.11395584
63	0xbdcf9c7a	-0.101372674
64	0x3d8e0721	0.069349535
65	0xbe0a25c4	-0.13490969
66	0x3cf3f2a6	0.02977879
67	0xbc5aa8f4	-0.013345946
68	0x3d2d0568	0.042241484
69	0x3e3a9ca8	0.18223822
70	0x3d15f0af	0.036606487
71	0xbccecb82	-0.025243524
72	0xbd478eb2	-0.04872007
73	0x3cf9025c	0.030396633
74	0x3c8a2c05	0.016866693
75	0xbdf81f69	-0.12115366
76	0x3ce6f2f2	0.028192017
77	0xbe1c0a4f	-0.15238307
78	0x3cef444e	0.029207375
79	0x3b60f618	0.003432637
80	0x3d1ea177	0.038728204
81	0x3e4b6f51	0.19866683
82	0x3dfbad2c	0.12288889
83	0x3d990e1e	0.07473396
84	0xbcb46f3f	-0.022025703
85	0x3d83768f	0.06419098
86	0xbdaeac72	-0.08528985
87	0xbcce0e1f	-0.025153218
88	0x3dab1dd8	0.083553016
89	0xbd011317	-0.031512346
90	0x3ced37ec	0.02895733
91	0xbdf503ff	-0.11963653
92	0x3d47d925	0.04879107
93	0xbcd3f4cb	-0.025873562
94	0x3c92e8e0	0.01793331
95	0xbe3e42e2	-0.18580201
96	0xbd62cb06	-0.0553694
97	0xbe1cce6b	-0.15313117
98	0xbc74afd5	-0.0149345
99	0xbc8361b7	-0.016037805
100	0x3e68c714	0.22732192
101	0x3e3e3917	0.18576466
102	0x3e31298e	0.17301008
103	0xbd8d3c26	-0.06896238
104	0x3dabec92	0.083947316
105	0x3d84e021	0.06488062
106	0xbe10c73d	-0.14138503
107	0x3b9935bc	0.004675595
108	0x3c0730a1	0.00825134
109	0x3e108496	0.14113078
110	0xbd8f5122	-0.06997897
111	0x3d3d391a	0.046197034
112	0xbd809498	-0.06278342
113	0xbd38138d	-0.04494052
114	0x3d3b7b65	0.045771975
115	0x3d084e9a	0.033278085
116	0x3e1f6126	0.15564403
117	0x3dd91877	0.106003694
118	0x3d4171df	0.047227737
119	0x3d9fc655	0.07801501
120	0x3d0f64da	0.03500829
121	0x3d834b1a	0.06410809
122	0x3cf074e8	0.02935262
123	0x3c1a3db6	0.009414127
124	0x3c071648	0.008245058
125	0x3dd2a846	0.10286002
126	0xbd526238	-0.0513632
127	0xbe16d080	-0.14727974
128	0xbdcb9a2b	-0.099415146
129	0x3dcb3d74	0.09923831
130	0xbdb7f71d	-0.0898268
131	0x3ddcb51b	0.107767306
132	0x3c56e9e3	0.013117286
133	0xbde323d8	-0.11090821
134	0x3dbd179d	0.092330195
135	0x3d870f94	0.06594768
136	0xbde3546c	-0.111000866
137	0x3c4eb28e	0.012615813
138	0xbd46ef20	-0.04856789
139	0xbd10d469	-0.03535882
140	0xbdb3ec6f	-0.087853305
141	0xbd81a3be	-0.063300595
142	0x3bba5eba	0.005687562
143	0x3dd99b4c	0.10625324
144	0x3d9a34f0	0.07529628
145	0xbd90dbd1	-0.07073177
146	0xbdabf338	-0.08396
147	0xbe0c32c4	-0.1369124
148	0xb7cc47dd	-2.4352159e-05
149	0x3d3fb39e	0.046802156
150	0xbc150cd7	-0.0090973
151	0x3d2ab74e	0.04167872
152	0x3d8db1d8	0.06918687
153	0xbd135834	-0.03597279
154	0xbd5971f4	-0.05308719
155	0xbe02a3a2	-0.12757733
156	0x3bedabc2	0.007253141
157	0x3dac5366	0.084143445
158	0xbdc365ca	-0.09540899
159	0xbd01c8f4	-0.031685784
160	0x3d25f03a	0.0405123
161	0x3c5dcec4	0.013538066
162	0xbde4fd9d	-0.111811854
163	0xbd137e94	-0.036009386
164	0xbd9e87fe	-0.07740782
165	0xbce05afe	-0.027387138
166	0x3abb0e6a	0.0014271263
167	0x3c98e4a1	0.018663706
168	0xbbcb2546	-0.0061995117
169	0xbcfd6ecb	-0.03093662
170	0xbda878e7	-0.08226185
171	0xbb63b201	-0.003474355
172	0xbdba4944	-0.090960056
173	0x3d8b6b8e	0.06807624
174	0xbc09022a	-0.008362332
175	0xbd0de7cd	-0.03464489
176	0xbc19752f	-0.009366318
177	0xbdd8a581	-0.10578442
178	0xbdd9b61b	-0.10630437
179	0x3d642566	0.05569973
180	0x3dd33a71	0.10313881
181	0xbd8ecaf0	-0.06972301
182	0x3dee72c6	0.11642985
183	0x3da0a448	0.07843834
184	0xbdab5119	-0.083650775
185	0xbdac4c75	-0.084130205
186	0x3c806c88	0.015676752
187	0x3d1f04de	0.038823
188	0xbd958f22	-0.07302691
189	0x3ccfb1e3	0.025353378
190	0xbceac7ef	-0.028659789
191	0x3df14fed	0.11782823
192	0xbd3115a2	-0.04323352
193	0x3df6b793	0.12046733
194	0xbd74f1aa	-0.05980078
195	0xbd9521ab	-0.07281812
196	0xbcf82e93	-0.030295646
197	0xbd74b684	-0.059744373
198	0x3ca187b8	0.019718036
199	0x3d350cb4	0.044201568
200	0xbdc7a47e	-0.09748171
201	0x3d0d49a7	0.03449407
202	0xbe0f50f7	-0.1399573
203	0x3dc4452a	0.095835045
204	0x3d8f529a	0.06998177
205	0x3a1a3adc	0.00058834045
206	0x3d9d1237	0.0766949
207	0xbdcf76ff	-0.101301186
208	0xbba795d7	-0.005114298
209	0xbdfebcf6	-0.12438385
210	0x3d110754	0.03540738
211	0x3a6e3307	0.0009086583
212	0x3c352d53	0.011058169
213	0xbdc0cafa	-0.09413715
214	0xbd2b64b7	-0.041844096
215	0x3d41c85b	0.047310214
216	0x3e01269e	0.12612388
217	0x3dba0b79	0.090842195
218	0xbe06a856	-0.13150153
219	0x3d8f6fbb	0.07003733
220	0x3cde74ed	0.027155364
221	0xbd0d50c9	-0.03450087
222	0xbb05898b	-0.0020376171
223	0x3de5c512	0.11219229
224	0x3d22b9ab	0.039727848
225	0xbdf2a59e	-0.11847995
226	0xbddb6009	-0.107116766
227	0x3cc248da	0.023716379
228	0xbdbd98af	-0.09257638
229	0xbd61c403	-0.055118572
230	0x3db1fe15	0.086910404
231	0xbda29ade	-0.07939695
232	0xbdcdb2db	-0.100438796
233	0xbdbe35eb	-0.09287628
234	0x3d07a09b	0.03311215
235	0x3d96062b	0.07325395
236	0xbd9a6666	-0.07539062
237	0xbc5c0d7c	-0.013430949
238	0xbd99dd54	-0.07512918
239	0x3dfec310	0.12439549
240	0x3cb312d6	0.021859568
241	0x3ddfb9c1	0.109241016
242	0x3ca5fc1e	0.02026182
243	0x3d6eb12e	0.05827444
244	0x3dd6ea79	0.10493941
245	0x3e02c5ed	0.12770815
246	0x3d8850f3	0.06656065
247	0x3d95a626	0.07307081
248	0xbcc429e1	-0.02394575
249	0xbca3b2ea	-0.019982774
250	0xbd962fe2	-0.07333352
251	0x3e064b90	0.13114762
252	0xbb95b97a	-0.0045692297
253	0xbd9de899	-0.0771038
254	0x3dbe4f10	0.09292424
255	0xbd388119	-0.045044992

model.convs.2.1.convs.0.conv.bias f4 [32]
0	0x3d4fccc2	0.05073238
1	0x3d63705f	0.055527087
2	0x3dd83677	0.10557263
3	0xbbcb2ae5	-0.006200182
4	0x3d9ac61a	0.07557316
5	0x3c988e5f	0.018622575
6	0x3cd200c9	0.02563514
7	0xbd83c6c4	-0.06434396
8	0x3df35d8e	0.118830785
9	0x3da7af67	0.08187752
10	0xbd919544	-0.07108548
11	0xbdaa5274	-0.08316508
12	0x3d5a1383	0.053241264
13	0x3dff2e82	0.124600425
14	0x3c69b4f2	0.014264332
15	0xbdaf2a6d	-0.08553014
16	0xbdb2a6df	-0.087232344
17	0xbdde67c7	-0.10859638
18	0xbd8122f0	-0.06305492
19	0xbe11371a	-0.14181176
20	0xbbe22dbb	-0.006902424
21	0x3c133290	0.008984223
22	0xbdea2edc	-0.11434719
23	0xbdf9cdde	-0.12197469
24	0x3d834200	0.06409073
25	0xbdf10155	-0.11767832
26	0x3db21426	0.08695249
27	0x3cbc2e0c	0.022971176
28	0x3da0167f	0.07816791
29	0x3d912d34	0.070887
30	0x3dfcbcd7	0.12340706
31	0x3dddd482	0.10831548

model.convs.2.1.convs.1.conv.weight f4 [32, 32, 1, 2]
0	0x3c59aaf0	0.013285384
1	0xbc2f5240	-0.010700762
2	0xbd4ecbf8	-0.05048749
3	0xbd5d9026	-0.05409255
4	0xbdd50661	-0.10401607
5	0xbdccc234	-0.09997979
6	0xbddd805a	-0.10815497
7	0x3cc9ea7f	0.02464795
8	0x3d67b768	0.056571394
9	0xbddac69e	-0.106824145
10	0xbba9ed00	-0.0051857233
11	0x3c89c848	0.016819134
12	0x3dafa07a	0.0857553
13	0x3d588ba0	0.05286753
14	0x3d81bb06	0.063345
15	0x3d453f68	0.048156172
16	0x3d878377	0.06616872
17	0x3cb19bd0	0.021680743
18	0xbdd78d0c	-0.105249494
19	0x3d236054	0.039886788
20	0xbd66083c	-0.056160197
21	0xbd89edeb	-0.067348324
22	0xbde1cdff	-0.11025619
23	0x3caf8f1c	0.021430545
24	0x3d474042	0.048645265
25	0xbdaea49e	-0.08527492
26	0xbdccafd8	-0.09994477
27	0x3cfcb29c	0.030846886
28	0xbdad4414	-0.084602505
29	0xbdf21714	-0.11820808
30	0x3da7c45e	0.08191751
31	0xbbc6b1f7	-0.0060636955
32	0x3db02a8e	0.08601867
33	0x3cc88f82	0.024482492
34	0xbcdce8a0	-0.026966393
35	0xbd97bfd0	-0.07409632
36	0xbcbc3e85	-0.02297903
37	0xbdb25986	-0.087084815
38	0xbc62642d	-0.013817829
39	0xbdc8207a	-0.097718194
40	0x3d6b472d	0.057440925
41	0xbd5c4998	-0.053781122
42	0x3d949f40	0.07256937
43	0xbddaa542	-0.10676052
44	0x3d9af474	0.07566157
45	0x3d28be5c	0.041197166
46	0x3d5ca4b4	0.05386801
47	0xbde684d6	-0.11255805
48	0x3d848a88	0.06471735
49	0xbd5eabd5	-0.05436309
50	0xbc4e9910	-0.012609735
51	0xbb37a400	-0.0028021336
52	0x3da5bd47	0.080927424
53	0xbd975480	-0.07389164
54	0xbdb2a760	-0.087233305
55	0x3d78059f	0.060552236
56	0x3ca603c0	0.02026546
57	0xbdbfc244	-0.09363225
58	0x3dcaa398	0.09894484
59	0x3da5e08c	0.080994695
60	0xbd66d9ec	-0.05636017
61	0x3d042a74	0.03226705
62	0xbdb14014	-0.086548
63	0xbde17048	-0.11007744
64	0x3e39b4ab	0.18135326
65	0xbb75dcdb	-0.0037515673
66	0xbda7ecf3	-0.08199491
67	0x3e192780	0.14956474
68	0xbd7c3f69	-0.06158391
69	0x3d36e66c	0.04465334
70	0xbd8ca90e	-0.06868182
71	0x3c1cd31f	0.00957182
72	0xbc701683	-0.014653805
73	0xbd30c3f7	-0.043155637
74	0x3cc65fc6	0.02421559
75	0xbdc1ac88	-0.09456736
76	0x3db8c712	0.09022345
77	0x3dea2add	0.11433957
78	0x3de9a2b4	0.11407986
79	0xbd5113c8	-0.051044255
80	0xbcfdd423	-0.030984944
81	0x3df73871	0.12071312
82	0x3dfc3a7a	0.12315841
83	0x3bfcc247	0.0077135894
84	0x3c4fbecf	0.01267977
85	0xbdf43efa	-0.11926074
86	0x3c82959d	0.015940482
87	0xbdee8665	-0.116467275
88	0xbd42abfa	-0.04752729
89	0x3d1a19e7	0.03762236
90	0x3db66817	0.08906572
91	0x3db47a40	0.0881238
92	0x3db22873	0.08699121
93	0xbc86c99b	-0.016453555
94	0xbdc27767	-0.094954304
95	0x3d4ee298	0.050509065
96	0x3d3a71cf	0.045518693
97	0x3db08cbb	0.08620592
98	0x3c83eec5	0.016105065
99	0xbdf124d8	-0.117746055
100	0x3c833a24	0.016018935
101	0xbd330838	-0.04370901
102	0xbb0864f6	-0.002081213
103	0xbd98b6e0	-0.07456756
104	0x3d1ff3c6	0.03905084
105	0xbd895761	-0.06706119
106	0x3d8d1d10	0.06890309
107	0x3c4e4852	0.012590485
108	0x3dbaee38	0.09127468
109	0x3dc0eaa2	0.09419753
110	0x3dbf530e	0.09342013
111	0x3da9434e	0.082647905
112	0x3e835995	0.25654283
113	0xbe29cb1f	-0.16581391
114	0xbc1acb2e	-0.009447856
115	0xbd1acbf1	-0.03779215
116	0x3e029442	0.12751868
117	0xbe8bd998	-0.27314448
118	0x3da3ee7a	0.0800447
119	0x3d32fef7	0.043700185
120	0xbdc3c9d6	-0.095599815
121	0x3d3648b9	0.044502947
122	0xbd66bffe	-0.05633544
123	0xbda462c2	-0.08026649
124	0xbe1e44e5	-0.15455969
125	0xbe9b4491	-0.3032575
126	0xbd142ac2	-0.03617359
127	0xbddff784	-0.10935882
128	0x3c40bad9	0.011763298
129	0xbcd12c8b	-0.025533935
130	0x3cd39656	0.025828522
131	0xbd5468a3	-0.0518576
132	0xbdef55dc	-0.11686298
133	0xbde6f67e	-0.112774834
134	0xbc87ff1a	-0.016601134
135	0x3a48339f	0.00076370867
136	0x3dd82f34	0.10555878
137	0x3d88e3be	0.066840634
138	0x3dc99ef4	0.09844771
139	0x3d4aa1fd	0.04947089
140	0xbd92f851	-0.07176269
141	0x3cc0ed0f	0.023550538
142	0xbb49c600	-0.0030788183
143	0xbcc0fc30	-0.023557752
144	0xbd35f2cc	-0.044421002
145	0x3ce84588	0.028353468
146	0xbd1e12da	-0.038592197
147	0x3b596f0b	0.003317776
148	0xbd631717	-0.055441942
149	0xbdc58be5	-0.096458234
150	0xbd145b7e	-0.036220066
151	0xbd9ed193	-0.07754817
152	0xbb997eec	-0.0046843197
153	0xbdcc3080	-0.09970188
154	0xbdf0bcbf	-0.117547505
155	0x3dacd556	0.08439128
156	0x3d65495a	0.055978157
157	0x3c4219b6	0.01184695
158	0x3d754bfd	0.05988692
159	0x3d832b1d	0.064047076
160	0xbde6ea4b	-0.112751566
161	0x3ca762bf	0.020432828
162	0x3d694b9d	0.056956876
163	0xbe044890	-0.12918305
164	0xbe02f96e	-0.12790462
165	0xbdf16eec	-0.11788735
166	0x3d517e92	0.051146097
167	0xbe0207d4	-0.12698299
168	0x3da2cbf0	0.07949054
169	0x3da75b13	0.08171668
170	0x3d3c1ed2	0.04592783
171	0x3af76e59	0.0018877491
172	0xbc96a8e8	-0.018391088
173	0xbd9f34a6	-0.07773714
174	0xbdbe298e	-0.0928527
175	0x3deeece0	0.11666274
176	0xbd47cfd9	-0.048782203
177	0xbdc53333	-0.09628906
178	0xbde1ff8d	-0.110350706
179	0x3da58c6b	0.08083423
180	0xbcd6e0ee	-0.026230302
181	0xbd6ff69d	-0.058584798
182	0xbd75d1e5	-0.060014624
183	0x3dadba6e	0.08482824
184	0xbd5d3a9a	-0.054010965
185	0x3c06e098	0.008232258
186	0x3d2b9408	0.04188922
187	0xbd290711	-0.041266505
188	0xbd3a7aaf	-0.045527156
189	0xbd59385e	-0.05303227
190	0xbdaa35de	-0.083110556
191	0xbd662e95	-0.056196768
192	0xbd938e55	-0.07204882
193	0x3df8b42b	0.12143739
194	0x3d3e243b	0.04642127
195	0xbd3c1d54	-0.045926407
196	0x3daea1cd	0.08526955
197	0xbd7a2161	-0.06106699
198	0xbdc07879	-0.09397978
199	0xbc6a81e1	-0.014313192
200	0xbab995ae	-0.0014158988
201	0x3cab4887	0.020908607
202	0xbdec1a43	-0.115284465
203	0x3a1c84bd	0.0005970707
204	0xbd5734af	-0.052540477
205	0xbc2adcc0	-0.010428607
206	0x3da52e9a	0.08065529
207	0xbdee4220	-0.11633706
208	0xbdf7750e	-0.12082873
209	0x3dc64dfc	0.09682843
210	0xbdca705e	-0.098847136
211	0x3d0aca1f	0.033884164
212	0x3dd1f3d5	0.102515854
213	0xbdddb108	-0.10824782
214	0x3d306800	0.043067932
215	0x3d11c671	0.03558964
216	0xbad10d29	-0.0015949357
217	0xbe31f857	-0.1737989
218	0x3deec5dd	0.11658833
219	0xbc306659	-0.010766589
220	0x3d4fd141	0.05073667
221	0x3cb9b33b	0.022668472
222	0x3df092a9	0.11746723
223	0x3d825ba7	0.063651375
224	0x3c4ec7f6	0.012620917
225	0xbdf219f3	-0.11821356
226	0x3d3ff499	0.046864126
227	0x3cd0fe9b	0.02551203
228	0x3de10869	0.10987932
229	0xbcf50265	-0.029908368
230	0xbe2f26f3	-0.17104702
231	0xbd362d74	-0.04447694
232	0x3e0f0a2a	0.13968721
233	0x3e06fd84	0.13182646
234	0x3d9ccb36	0.07655947
235	0x3de6fd01	0.112787254
236	0x3de77a48	0.1130262
237	0xbd98d10e	-0.07461749
238	0x3c80421d	0.015656525
239	0xbd138d94	-0.03602369
240	0xbe050a45	-0.12992199
241	0x3d36d605	0.0446377
242	0xbd2554f9	-0.04036424
243	0x3ddbf9d5	0.10741011
244	0xbdb6e82d	-0.08931003
245	0x3e094433	0.13404922
246	0xbdb31362	-0.08743931
247	0x3c0635ee	0.008191569
248	0x3da5333a	0.08066411
249	0x3d35dfc2	0.044402845
250	0x3d23d82a	0.040001072
251	0x3c8db635	0.017298797
252	0xbd147a9b	-0.03624974
253	0x3c0ffb1a	0.008787895
254	0xbd1a74d9	-0.03770909
255	0x3cfbcac8	0.030736342

model.convs.2.1.convs.1.conv.bias f4 [32]
0	0xbdc30b10	-0.095235944
1	0xbdfbbe60	-0.122921705
2	0x3bcacf24	0.006189244
3	0x3d65532d	0.055987526
4	0xbd90f889	-0.07078654
5	0x3dbe39a8	0.09288341
6	0xbe2ef43c	-0.17085356
7	0x3cecdc80	0.028913736
8	0xbd8dc412	-0.06922163
9	0x3d5c4689	0.053778205
10	0x3d7f92da	0.062395908
11	0x3c496a9a	0.012293482
12	0x3d3367cd	0.043800164
13	0xbd0ad6fa	-0.033896424
14	0x3db2063f	0.086925976
15	0xbd13afeb	-0.03605644
16	0xbddf62ed	-0.109075405
17	0xbda704d8	-0.08155221
18	0x3d795d49	0.06087998
19	0x3d359610	0.044332564
20	0x3d2728c7	0.040810373
21	0x3dc76bdd	0.0973737
22	0xbd0614a0	-0.032734513
23	0x3e0357fd	0.12826534
24	0x3d9bfaf4	0.07616225
25	0xbd4cfc4b	-0.050045293
26	0xbcba9d0c	-0.022779964
27	0xbcb82a1e	-0.02248102
28	0x3c49934b	0.012303184
29	0x3dc737c7	0.097274356
30	0xbde73a12	-0.11290373
31	0xbde151ee	-0.11001955
