code_/logs/epoch=21-step=396.ckpt (torch, 249178 bytes, 63 tensors)

model.input_encoder.weight f4 [32, 1]
00000000: bf21 59bf 6848 09bf 03f5 6a3f 01cb 9bbe
00000010: abd3 44bf a7bf 28bd 787f 31bf cae2 52bf
00000020: feff a6be ed42 5abf 6837 79bf 4c7e 31be
00000030: eb0a fb3e 146f 63be ec85 c33e b316 47bd
00000040: 74ea 593e d4c9 523f 039c 7cbd 1ffb 17bf
00000050: a285 0bbf e4af 5dbf f91a 44bf 2d96 0bbe
00000060: 8d80 61bf b541 13bf 0148 cc3d 7250 253f
00000070: edc4 633f 7a54 08bf 6295 663f f1b4 1f3f
-0.8481712 -0.5362611 0.9178011 -0.30428317 -0.7688548 -0.0411984 -0.69335127 -0.823773
-0.32617182 -0.8525837 -0.9735017 -0.17333335 0.49031767 -0.22210342 0.38188112 -0.048605632
0.21280843 0.82339215 -0.061672222 -0.59367555 -0.5450078 -0.8659651 -0.76603657 -0.13631506
-0.8808678 -0.57522136 0.09974671 0.64575875 0.8897236 -0.532539 0.9007169 0.6238547

model.input_encoder.bias f4 [32]
00000000: b37e 5c3f de9b 403f 9e78 7b3d 4259 6abf
00000010: fd3e 3d3f 8755 bf3e 3333 e53e 7504 0e3f
00000020: 8d09 123f 5dc5 7dbf 0ec5 3fbd 5608 f83d
00000030: 013c 28bf 57fb 1fbe 6082 df3d 9d85 27be
00000040: d950 42be 8a9b 693f 895b 3a3f edaa 6f3f
00000050: 7606 eebb e753 913e 47e9 1a3e 5c55 583f
00000060: 5c4a 3e3f 42cb 4f3f e705 36bf 6125 42bf
00000070: 72ce 79be 84ac 533f 99d5 5a3e ae54 543f
0.8613083 0.75237834 0.061394326 -0.91542447 0.7392424 0.3736994 0.44765624 0.5547555
0.57045823 -0.9912928 -0.046818785 0.12110965 -0.6571656 -0.15623222 0.10913539 -0.16359563
-0.18976153 0.9125296 0.7279592 0.9362019 -0.007263954 0.28384325 0.1512805 0.8450525
0.74332213 0.8116952 -0.71102756 -0.75838286 -0.24395159 0.8268511 0.21370544 0.8294171

model.convs.0.1.convs.0.conv.weight f4 [32, 32, 1, 2]
00000000: 3154 d0bd 0a82 98bd 3414 06bd 9b69 5a3d
00000010: 7204 bf3d ea62 64bd 2c0c d43d 430e bf3d
00000020: 3cd6 303c 0175 9c3d fea4 1bba c677 c8bd
00000030: c42c c43c d236 c63d aacf 00bd 5a9e c43d
00000040: 8b92 b53d a85e a23c 4c4b 413d 1a63 bbbc
00000050: e566 69bd a6d1 09bd f2b3 f43c 999f 2cbd
00000060: 6368 78bd 96b9 043c a511 843d 875c da39
00000070: b43e d53c 5e39 d13d ad7d 8dbd f5aa 5e3d
00000080: eacc 93bc 3cdd 013e 143a c53d c9ee 4ebc
00000090: 0838 9f3d 3d0a 3ebd 8a4f d0bd 978f b7bc
000000a0: 56ad 8bbd 1bda 0dbe 407c 4d3d b693 c83d
000000b0: 8fbf babd e6a7 a4bd 6999 64bd 74f3 7dbc
000000c0: c5a8 bd3d d656 98bd 629a 813d 5800 7dbd
000000d0: 2a78 4cbd b187 c1bd 74f9 b4bd ecbc 743d
000000e0: 3c4d 713d 637d e3bd 690e 8c3c ab30 e83d
000000f0: c4eb 083e afb9 21bd 010b 823d 4e5e a2bd
00000100: d6c6 a23d 4bfa a1bd 744c 98bc 6586 21bd
00000110: 5487 d63d 419c f43d ca61 a3bc 482a fdbd
00000120: d5f9 db3c d202 d0bd cef0 7c3d 91df 753d
00000130: 07db 12be c565 ba3c 3de2 20bd 1a17 75bd
00000140: 499d ad3d 9729 a5bb 8bfc 99bc 035e eebc
00000150: ed95 a23d fa69 cbbd 00ad ba3d 5037 0bbe
00000160: 11aa ae3d e118 a83d ca83 b13d 7c27 d0bd
00000170: aa83 923d 1831 1dbc 5e86 933d 5ef3 dabd
00000180: ea05 2ebd cc32 a5bd e7aa bc3c 753c d4bc
00000190: c8d3 4c3b ad94 63bd 296c debd f756 2b3d
000001a0: 9009 8f3c 69d5 7bbd 2b3a fe3c a99f d6bd
000001b0: 0f0e 9a3d 9193 9fbd aa30 53bd d3db 32bd
000001c0: b655 5a3d 2196 9b3d 2de4 953d a649 023c
000001d0: 8759 8abb 0bb4 63bd 2a7a 6fbd ed45 a23d
000001e0: 7f1d 723d a937 c13d d558 743d e9fd fbbd
000001f0: a275 be3d 321e 8f3c 7431 97bd de08 85bc
00000200: a4cb f4bd 99d9 683d 19c1 b9bc 4a24 fa3c
00000210: b0e0 953d f99e 8c3d 6057 95bc 4c21 7dbd
00000220: 432a a4bd 3852 58bd 697b ad3d ac55 de3d
00000230: 453e f2bd 84f8 31bd 4b52 c3bd 8e36 a4bd
00000240: 3e0a b3bd 4c50 64bd f750 9d3d 139f d03d
00000250: 2245 ddbb 0c7c 3a3d f428 ecbd 5c1c cfbd
00000260: 2563 ae3d b135 723d 7306 5c3c 8c94 a2bd
00000270: 6ba5 cb3d 5b12 41bd 4f55 883d 75b1 94bc
00000280: 3598 87bd 5183 993d e394 3a3d 3a58 b2bc
00000290: 1008 77bd bfa2 0fbd f49d 513d b4e1 02be
000002a0: 6f15 01bd e732 8c3b a01c 70bc 7d99 b03d
000002b0: c39f e2bc 6b6a 973d c6c3 de3d 9eca 953c
000002c0: 458f dfbd 4135 1a3d 62c7 04be 7a7f c73d
000002d0: a696 50bd 6c81 12bd fc86 58bd b707 ea3d
000002e0: 3b44 b63d 4752 0b3e 8aec b5bc 2ae5 bebd
000002f0: 8e18 0d3c 14d4 893c 36be 15bc 9a23 e13d
00000300: 1de8 8c3d 4cf2 e7bc f6b1 0c3e 8008 f13d
00000310: 877d e2bc f3ae 95bd 6769 5b3c 2adc 993c
00000320: 6c3a 033e b7f5 9abd a7ec f73d 52b2 babd
00000330: b45f 983d 443f 243d f070 aabd 9d5b 953d
00000340: 2de8 86bd ff0c bbbd 5fd8 de3d 0b92 b2bd
00000350: 38dd 1ebd 1a17 e1bd 1e4b c5bd e008 8abd
00000360: c8ed 5ebd 3531 e4bc 8d5e 97bc aead 8ebc
00000370: 9c27 c4bd a98f 49bc b472 17bd b39c ca3d
00000380: 480d 19bd fd06 b1bd 27ef 32bb aeba be3d
00000390: c9fa a0bc a04a e33c b137 723d 29a1 f73d
000003a0: 4ae3 0f3d 9b4c 83bc 0cd1 c9bc 0dad cfbd
000003b0: d4ee d33d 19f2 83bd 7c28 0c3d 4560 483d
000003c0: f311 033e 956a 773d 8ac9 4bbd bb39 60bc
000003d0: 6c08 2bbd 93fe 8dbd e305 eebd 2e30 173d
000003e0: 8375 513b dd78 bdbd 4336 0e3e 26ec 923c
000003f0: f7d5 c93d 0509 ff3d a764 91bd de1b b3bd
-0.10172308 -0.07446678 -0.03273411 0.05332337 0.0932702 -0.055758394 0.10353884 0.09328892
0.010793265 0.07639504 -0.00059373665 -0.0978847 0.023947127 0.09678425 -0.031448044 0.09600516
0.088658415 0.019820526 0.04719095 -0.022874404 -0.056982893 -0.033647202 0.02987096 -0.04214439
-0.060646426 0.008100888 0.06448678 0.00041649138 0.026030876 0.1021602 -0.069087364 0.054362256
-0.018042047 0.1268205 0.09630218 -0.012630173 0.07774359 -0.046396483 -0.10171421 -0.022407336
-0.068201706 -0.13852732 0.050167322 0.097937986 -0.09118568 -0.080398366 -0.055810366 -0.015499938
0.09260706 -0.07438438 0.06328274 -0.061767906 -0.049919285 -0.09449709 -0.08836642 0.059750482
0.058911547 -0.111079 0.017096715 0.11337408 0.13371187 -0.039483722 0.06349755 -0.079281434
0.07948081 -0.07909068 -0.018591143 -0.03943481 0.104750305 0.119438656 -0.01994409 -0.1236158
0.026852528 -0.10156788 0.061753087 0.060027663 -0.14341365 0.022753606 -0.039278258 -0.059836484
0.084772654 -0.0050403583 -0.01879718 -0.029097563 0.07938752 -0.09932323 0.091150284 -0.13595319
0.08528531 0.0820787 0.08667715 -0.10163781 0.07154019 -0.009594224 0.07203363 -0.1069095
-0.04248611 -0.08066329 0.023030711 -0.025907734 0.003125416 -0.05556171 -0.10860474 0.041830983
0.017460614 -0.06148282 0.031033596 -0.104796715 0.07522213 -0.07791818 -0.05156008 -0.043666672
0.053304397 0.07596994 0.07318912 0.0079521295 -0.0042220983 -0.055591624 -0.058466114 0.079234935
0.05911016 0.094344445 0.05965503 -0.12304289 0.092997804 0.017470453 -0.07382479 -0.01623958
-0.11952904 0.056848142 -0.022675084 0.030534882 0.07318246 0.06866259 -0.01823014 -0.061799332
-0.08015873 -0.052812785 0.08470804 0.10856184 -0.11828283 -0.043449894 -0.095371805 -0.08018218
-0.08742188 -0.05574064 0.076814584 0.10186591 -0.006752626 0.045528457 -0.11531249 -0.10112831
0.08515004 0.059133235 0.013429272 -0.07938489 0.0994366 -0.047136646 0.06656896 -0.018151024
-0.06620828 0.0749575 0.045552146 -0.021770585 -0.060310423 -0.035067316 0.051176026 -0.12781411
-0.03151458 0.004278529 -0.014655262 0.086230256 -0.027664071 0.073933445 0.108771846 0.018285092
-0.10915998 0.037648443 -0.12966684 0.09741111 -0.05092492 -0.035767958 -0.052863106 0.11427253
0.08899733 0.13605605 -0.022207517 -0.09321053 0.008611811 0.01682476 -0.009139588 0.109931186
0.068802096 -0.028313778 0.13739762 0.11769199 -0.027647747 -0.073087595 0.013391829 0.01878174
0.12815255 -0.07566398 0.12105685 -0.09116043 0.07440129 0.040099397 -0.08322322 0.072928645
-0.06587253 -0.09133338 0.10881113 -0.08719262 -0.03878519 -0.109907344 -0.09633468 -0.06739974
-0.054425985 -0.027855495 -0.018477703 -0.017416801 -0.095778674 -0.012302318 -0.036974624 0.09893169
-0.03736618 -0.08643911 -0.002730319 0.0931295 -0.019650834 0.027745545 0.059135143 0.12091286
0.03512887 -0.01602774 -0.024635814 -0.10140429 0.10348287 -0.06442661 0.034218296 0.048919935
0.12799816 0.06040438 -0.04975275 -0.013685639 -0.04175608 -0.06933322 -0.116222166 0.036911182
0.0031960912 -0.092515685 0.13887887 0.01793487 0.09855264 0.12452892 -0.07099276 -0.087455496

model.convs.0.1.convs.0.conv.bias f4 [32]
00000000: e8cb 913d 62c8 05bd c376 7b3d dda1 c6bc
00000010: 6557 883d d186 42bd 3a5a c33d 0427 18bc
00000020: 2b9f 2c3c 487f f03d 75ac 20bd 6d98 8d3d
00000030: f873 d03d 5487 2c3d f930 cf3c 4fee b83b
00000040: 12a5 993d c5e3 62bd 9faf edbd 2425 d0bc
00000050: 14cf b3bd 49f8 d93d 4bf5 853d 3a2a bd3d
00000060: fbe3 b23d bb89 f0bc ec8d d7bd 157c 193d
00000070: c743 553d 02a8 b03d 385f 443a efc0 b8bc
0.0711897 -0.032661803 0.061392557 -0.024247104 0.06657294 -0.047491852 0.09538694 -0.009286646
0.0105359955 0.11743027 -0.039226968 0.069138385 0.10178369 0.042121246 0.025291907 0.005643643
0.07502188 -0.055393 -0.11605763 -0.025408335 -0.087797314 0.1064306 0.065409265 0.0923657
0.0873489 -0.02936255 -0.10525116 0.03747185 0.05206659 0.08625795 0.00074909953 -0.022552935

model.convs.0.1.convs.1.conv.weight f4 [32, 32, 1, 2]
00000000: d6df 9bbd 88c2 9ebd 6ded 9fbd 1b69 d43c
00000010: 8dbf 27bd b649 2fbd d0c9 d43d ef31 a1bd
00000020: ee63 9a3d 9941 59bc 8f26 19bc 41fd 883d
00000030: 9dad c43d be89 8dbd f33c 4abd e90e afbd
00000040: e04c b5bc a626 c9bd f2d1 883d e4e7 03bd
00000050: 4ee9 9c3d 1a5a d73d e5ee 043e 55b2 b1bd
00000060: cd0f b33d f0a0 b83d 8347 cdbd 5a78 c5bd
00000070: 8b77 a23d 435f df3c f282 9abd c431 3ebd
00000080: 7261 5a3d d911 763d 51c0 d23d 96b8 f9bd
00000090: 67e1 c53d 1e0a fb3d dd51 8ebd 86cb 993d
000000a0: 12a6 ed3c 52f0 613c c9c2 843d d22e 2fbd
000000b0: 4299 b43c 5337 ca3c acb6 e93d 20eb a43d
000000c0: 172c 4e3d c7be 75bd 7a59 c73d 8634 d93c
000000d0: 1451 90bd 184f 863b c96b a0bd aa74 b43c
000000e0: 9010 62bd 520f 11bd a359 c7bd baa2 063e
000000f0: e185 063e 1b34 d9bd 06e3 eb3d ff92 15be
00000100: 4d57 b6bd 8d5b dcbd ee81 af3d aa0b b1bc
00000110: 567f debd 3671 bfbd 7317 e2bd a279 303c
00000120: c6bb 383c 4ced a3bd 19a2 e9bd efd3 11be
00000130: 9aec c03d ddbb 0abd a6c5 c93d beee bbbd
00000140: 1a8d f2bd c50f c0bd fc29 393b 1b58 abbc
00000150: e433 a23d b171 9f3d b97a a5bd e811 1abd
00000160: 2215 fbbd 39ee 473c 2b4c 0abd 0182 073d
00000170: a64f 3036 f61b b33d 6ece afba 5ffa a13c
00000180: cb58 c73d 1203 4e3d a10c bbbd d9c7 f6bd
00000190: c6e3 8e3b 5b26 133d cf03 9ebd c2f1 1ebd
000001a0: c1a8 95bd e2b5 e23d 6a0a e8bd 5c4d af3d
000001b0: 0770 a9bd 0f43 d2bd c435 5cbc 46b4 043d
000001c0: ca5d 06be bf35 9b3d 3bd6 46bd f1b9 edbd
000001d0: 25d4 cd3d 7182 b5bb 937c e6bd 67ab 243d
000001e0: 1661 9c3c e58a 85bd 7641 8b3d 409f a3bd
000001f0: f46d d53d be56 7dbb b8fb b4bd a429 6c3c
00000200: 7076 9a3d 069a fbbd 1b81 7abd 965f a1bd
00000210: 0498 e6bd a3e8 f9bd 64cd 1fbd a566 2b3d
00000220: 12eb 803d 38c3 9ebd 6ac3 fbbd aa05 d9bd
00000230: 8cd8 04bd c8c1 92bd e323 c83d c4b4 37bd
00000240: 61ff 3e3d f622 73bd 22e2 fd3d 27cb abbd
00000250: 4e34 e4bd 4cc6 d7bd 0074 b8bb 136a dcbd
00000260: 5cc0 dc3d 556f 9ebd 1cf1 433d e010 3c3c
00000270: 6357 f5bd 5436 5dbd 38cf 10bd 2ac7 08bd
00000280: fec3 78bd 1668 bdbd 3ca6 8f3d ce45 85bd
00000290: 19c3 013d 3547 d4bd 3040 2a3d cbfa ab3d
000002a0: c6f5 efbd 4ad9 8e3d 2dcc 8a3d 96a7 e63d
000002b0: 6bd2 35bd 4e70 d5bd f227 d0bd 4f13 52bc
000002c0: 516c 34bd e0c4 3e3d 9d6b 04be 005f 843a
000002d0: 3619 b2bd fbbe 8ebd 71b3 e4bd 3455 cebd
000002e0: 6c7b 723d bc51 c83d f207 ebbd 98f9 b9bd
000002f0: f8ac 1e3d b4e1 d33d 401d 713d d87d a93c
00000300: f820 b13d a064 9a3d d17b 363b db07 58bd
00000310: 1386 843d 46da 1f3e 68d4 023d 03d0 6ebc
00000320: a851 123e a9e9 513c d282 30bd 2ba3 b13d
00000330: 601f f0bd 86f4 2a3d 5d4f a03d ee14 f9bd
00000340: 7ef1 a7bd 63dd cbbd 5600 e53b 28d9 86bd
00000350: 1a29 adbd e61b 543c 233a 893d f92d 32bd
00000360: 8b86 50bd 5381 29bd 4e65 a6bc 7ebf de3d
00000370: b02f 19bd 8c09 25bd 8426 35bc d8f3 dbbd
00000380: aed2 923d fd59 ddbc 6e35 6d3d 2d9d 8c3d
00000390: d6db 233d 0f38 64bd ed54 69bd 143e a43c
000003a0: 4a86 a63d 78d8 fb3d 93d0 823d 2f3f bb3d
000003b0: 0972 60bd ed4e 013d 2f2c e2bc 2406 84bd
000003c0: eb03 893d 4214 b6bd c23d 783d 8df0 6ebd
000003d0: 1509 f03c dfa0 e9bc 4048 af3d 9bdd f63d
000003e0: 2a6d f23d 4611 923d aafe cc3d 645d 8dbd
000003f0: 4694 b0bd 2b6d b13b 7f3f 263e 6613 033d
-0.07611053 -0.07751948 -0.07808957 0.025929024 -0.04095416 -0.042794906 0.10390055 -0.07870852
0.07538591 -0.013260269 -0.009347572 0.06688929 0.096034266 -0.06911038 -0.049374532 -0.08547766
-0.022131383 -0.09821825 0.06680669 -0.03220357 0.07661687 0.105152324 0.12981756 -0.08676592
0.08743248 0.090150714 -0.100234054 -0.09642096 0.07932957 0.027267104 -0.07544507 -0.04643418
0.053315587 0.060075615 0.10290588 -0.1219341 0.09662133 0.12257789 -0.06949208 0.07509522
0.029009853 0.013790207 0.06482465 -0.04276926 0.022045735 0.024684584 0.11411795 0.08052659
0.050335016 -0.059996393 0.09733863 0.026514303 -0.070467144 0.004098784 -0.078330584 0.022028286
-0.055191576 -0.035415 -0.09733894 0.13148013 0.13137008 -0.106056415 0.11517911 -0.14606856
-0.0890337 -0.107596494 0.08569704 -0.021612007 -0.10864131 -0.09347765 -0.11039629 0.010771187
0.011275237 -0.08004245 -0.11407871 -0.14241003 0.09420128 -0.033870567 0.098521516 -0.09176396
-0.11843319 -0.09378008 0.0028253784 -0.020916035 0.079200536 0.07785357 -0.08080048 -0.037614733
-0.1225989 0.012202793 -0.033764046 0.033082966 2.6272405e-06 0.087455675 -0.0013412961 0.019772707
0.09733733 0.050295897 -0.09133268 -0.12049837 0.004360649 0.03592525 -0.0771557 -0.038804777
-0.07307578 0.11069848 -0.11330111 0.08559677 -0.08273321 -0.10266697 -0.013440553 0.032398485
-0.13121715 0.07578611 -0.04854415 -0.11607731 0.10050229 -0.0055392315 -0.112542294 0.040202525
0.019089263 -0.06520633 0.06799595 -0.07989359 0.104213625 -0.0038656439 -0.08837074 0.014414225
0.075421214 -0.12285237 -0.06115828 -0.0787956 -0.112594634 -0.12202575 -0.039014235 0.041845936
0.06294836 -0.07752079 -0.12293132 -0.105967835 -0.032433078 -0.07165867 0.0977247 -0.044850126
0.046630267 -0.059359513 0.12396647 -0.083883576 -0.11142789 -0.10535869 -0.0056290627 -0.107624196
0.10778877 -0.07736079 0.04783736 0.011478633 -0.11979558 -0.05400689 -0.03535387 -0.033393063
-0.060733788 -0.092483684 0.070141286 -0.06507455 0.0316802 -0.10365144 0.04156512 0.08397444
-0.117167994 0.06975038 0.06777225 0.11262433 -0.044390123 -0.10421811 -0.10163869 -0.012821986
-0.04404861 0.046574473 -0.12931676 0.0010099113 -0.08696215 -0.069700204 -0.11167038 -0.10074845
0.059199736 0.097812146 -0.11476125 -0.09080809 0.038739175 0.10345784 0.058865786 0.02068989
0.086488664 0.07538724 0.0027844796 -0.052741867 0.06470885 0.15610608 0.031940848 -0.014575961
0.14288962 0.012812057 -0.04309351 0.086737 -0.11724734 0.041737102 0.07827637 -0.12162195
-0.08200358 -0.099543355 0.0069885654 -0.06584388 -0.08455105 0.012946105 0.06700542 -0.043500874
-0.05090956 -0.0413831 -0.020311978 0.10876368 -0.037398994 -0.040292308 -0.011056546 -0.10739869
0.0716909 -0.027020449 0.057912283 0.068659164 0.040004574 -0.055717524 -0.056965757 0.020049132
0.08131082 0.122971475 0.063874386 0.09142911 -0.054796252 0.03156941 -0.027608959 -0.06446484
0.066902004 -0.088905826 0.06060577 -0.058334876 0.029301206 -0.028519092 0.085587025 0.12053987
0.11837228 0.07132201 0.10009511 -0.069025785 -0.08622031 0.005414625 0.1623516 0.03200092

model.convs.0.1.convs.1.conv.bias f4 [32]
00000000: f7cb d23d 7795 a0bc 65c5 56bb 6add b5bd
00000010: 1574 8ebd 3379 4cbd ffd4 c63b 0cb4 d23d
00000020: b9ff 513c 8d0d ecbc 494a d73c dd7f 14bd
00000030: 942c b93d ac1e 96bc d4f5 ddbd e4c1 72bd
00000040: 27f1 d23d 0399 e63c d149 c83d 8ba4 ecbc
00000050: f1ca 993c 3a8d 153d 196f fbbd 2d45 1cbd
00000060: 7a91 adbc b7ce 593b df44 fc3d d3b1 8b3d
00000070: 1f8f 4e3d 376a 02be 3dea 65bd d674 243d
0.102928095 -0.01960252 -0.0032771465 -0.08880122 -0.06955735 -0.049920272 0.0060678716 0.102882475
0.012817317 -0.028815055 0.02628054 -0.036254752 0.09041706 -0.018325172 -0.108379036 -0.05926694
0.102999024 0.028149134 0.09779704 -0.028887054 0.018773528 0.036511637 -0.122770496 -0.03815191
-0.021187533 0.0033234784 0.123178236 0.06821027 0.05042946 -0.1273583 -0.05613159 0.040150486

model.convs.1.1.convs.0.conv.weight f4 [32, 32, 1, 2]
00000000: 9c0e b13d 8d39 fbbd 502d 9d3d 9d36 053d
00000010: 2516 533d 1ea0 a93d 990f ba3d 50b0 11bc
00000020: 124c d43d 1850 b33d f870 d8bd 8759 ec3b
00000030: 3d40 23bd 4ea4 543d a197 33bd 34f5 113c
00000040: 462c 05bd 9a12 773d f1bc bb3d ff77 903c
00000050: cf78 9e3d 11e3 d3bd 1c3b ebbd 3d7f 233d
00000060: f0fa 213d 0222 2b3d 69a1 a3bd 2a6f 27bd
00000070: 140e b03c be78 303d 99f6 91bc 6175 893c
00000080: 7925 96bb 6d55 ae3d ab51 ce3d 582f 9a3d
00000090: 859b 83bd 5391 80bd 12a1 bb3d 4457 08bd
000000a0: 4e25 9e3d 9f51 3bbd 8db7 9e3d 1fe7 b33d
000000b0: e11f cabd 6932 d5bd 4d0c b2bd 9255 cbbd
000000c0: cb04 e93d ef81 dabd d0c4 ae3d a428 cbbd
000000d0: 2e7f 1bbd 6f79 c43d 2fc0 a43c bf61 fd3d
000000e0: 46a9 9abd 3306 33bd f597 df3b f99e 4a3d
000000f0: 3f33 99bd 9bf6 9ebd abf6 3bbd b858 933d
00000100: 2dbb f93d ae68 d3bd 511a d3bd b605 f13d
00000110: 4b6d 8a3d b147 553d 02bc 8e3d 97b8 b73d
00000120: a8b4 833d 7380 1fbd b976 4c3c dc0f c6bd
00000130: e378 01bd 471a 4cbc b933 92bd 77a7 95bd
00000140: 6f4e dc3d 380b da3c 3cad 393d b9bb 053e
00000150: dd39 6bbd 7d1e 9cbc a5a1 66bc ecde c1bd
00000160: d255 a23d a4d7 e23d eae6 a43c 9537 cebd
00000170: fbbd 1dbd 1958 a93d c682 c93c 6ac1 2fbd
00000180: a8cc 0b3d 34a1 c4bd 4884 9fbc 6eb1 3c3d
00000190: 2806 613d 28e3 01bd 5bc1 043e f219 89bd
000001a0: 0353 9cbd 2c40 003e a871 b3bd 0d7a 873b
000001b0: eb1a 463d bc66 c93d c5d5 8dbd 1fa0 8abd
000001c0: f62e 85bd 84a1 98bd 33c4 c53d b2a8 b8bd
000001d0: 67a0 8bbb 1916 8a3d 1edc b9bd fed5 e0bd
000001e0: c94d af3d 7bed 1c3d 2fd3 f63d e4c5 d63d
000001f0: 3d10 813d 9f01 d3bd c276 323d a28e c1bd
00000200: 3d4c aebc 4ec7 963d 9d8c 98bc 3a39 813d
00000210: 93a7 0c3e f5ac 013e 80e8 093e 01b4 503d
00000220: 895f c13d 432d 62bd 98c7 823b 6bd9 7f3d
00000230: 7cde 44bd f01b 263d 0c41 7b3d 32eb 863d
00000240: 5a02 813d 1f15 d3bc 74d6 00bd 6a59 7cbd
00000250: 34ac 4dbc 7a65 c13d ef4c e5bd b083 f0bd
00000260: 46d3 61bd acf4 503c 2d6d e7bd eb0a 9cbd
00000270: 3001 ea3d 6d6a 60bb b322 8ebc 6d99 613d
00000280: 624e 25bc bdaf d0bd 3d29 7fbd 6130 af3d
00000290: 61ee 0abd 9693 833c 57c1 04be 43af 963d
000002a0: aebc 9a3d 750a 9a3d 5f7a c03c 07a8 efbd
000002b0: 569c f4bd 0d3c 553d 0e80 333d 1cf9 d6bc
000002c0: e17d 3b3d 751d 5c3c 6761 04bd 3546 0abe
000002d0: d9bd a93d c3e0 913c 84c2 853d caa0 e2bd
000002e0: 8185 e9bc ab69 043e 03f0 d2bd fd54 c13d
000002f0: 6e7d 67bd db43 e8bd 2d56 06be 6a54 73bd
00000300: 9ad9 58bc 0878 9fbd 4fe7 90bd 6e53 02be
00000310: c7c4 a1bd 4026 7e3c 5345 bebd dd43 a2bd
00000320: f965 bdbd 3496 c53d b92a 363d f3ee f8bb
00000330: 38f1 9fbd 53b8 94bd d7fb d3bd 8fb8 d6bd
00000340: dcdb c7bd 2ed0 733c 24b0 c73c 485b bc3d
00000350: 095e 34bd d505 09be 02ee e3bd 9af7 a5bd
00000360: 0c69 b6bc af8a 4d3d 4bd1 26bb b77a 28bd
00000370: 723f dabd 32a5 893d ea4e efbd 3564 013c
00000380: 4c69 a2bd 5fe8 af3d 24e7 323d 7ec8 9d3d
00000390: a441 9e3c a5df 27bb 3348 06be 32f6 35bd
000003a0: c675 9bbd 02ee b23c 2cbc 153d 92ba a13d
000003b0: 044d 823d 1cbd fbbd c0fd f6bd cb51 e53b
000003c0: 3f5c 493c 58a6 ab3d 69d4 f5bd e2be 9a3d
000003d0: 6832 ef3c 28db 5c3c 408e 2cbd 0222 d4bd
000003e0: 525f adbd 9a95 9c3d c4b3 c1bd e29e aebd
000003f0: 9cb9 dd3c 4830 bfbb fac7 be3b a7cd 2ebd
0.08645365 -0.12266836 0.07674658 0.032522786 0.05153479 0.08282493 0.09085006 -0.008892134
0.10366072 0.08755511 -0.10568422 0.007212821 -0.039856184 0.051914506 -0.043845776 0.008908559
-0.032512926 0.060320474 0.09166897 0.017635344 0.07737886 -0.10346044 -0.114858836 0.039916266
0.039545953 0.04178048 -0.07989771 -0.0408775 0.021491088 0.0430839 -0.017817782 0.016779603
-0.004582104 0.085123874 0.10074171 0.07528561 -0.06426147 -0.062777184 0.09161581 -0.033286348
0.07721959 -0.045732137 0.07749853 0.08784317 -0.09869362 -0.104100056 -0.086937524 -0.099284306
0.11377867 -0.10669314 0.08533633 -0.09919861 -0.037963085 0.09593474 0.020111172 0.12372159
-0.075518176 -0.043707084 0.0068235346 0.049468014 -0.074804775 -0.0776188 -0.045889538 0.07194656
0.12193904 -0.103227004 -0.10307754 0.117686674 0.06759127 0.052070323 0.069694534 0.089707546
0.06430942 -0.038940858 0.012479478 -0.09670994 -0.031609427 -0.012457437 -0.071387716 -0.07307332
0.107571475 0.026616678 0.045331225 0.13059892 -0.05742823 -0.019057507 -0.014076625 -0.09466347
0.07926525 0.110762864 0.02012964 -0.10069195 -0.038511258 0.082687564 0.02459849 -0.042909063
0.034130722 -0.096010596 -0.019472256 0.046067648 0.05493751 -0.031710774 0.12964384 -0.06694402
-0.07633021 0.1252448 -0.087619126 0.0041344226 0.048365515 0.09834048 -0.06925539 -0.06768822
-0.06503098 -0.07452682 0.09656563 -0.09016551 -0.004261065 0.06742496 -0.09075187 -0.10978316
0.08559758 0.038312417 0.12051999 0.104869634 0.06301925 -0.103030436 0.043570288 -0.09451033
-0.021276588 0.07362233 -0.018621737 0.06309743 0.137358 0.12663634 0.13467598 0.050952915
0.0944205 -0.055218946 0.0039910786 0.062463205 -0.04806374 0.040553987 0.06134133 0.06587829
0.06299277 -0.025766907 -0.03145452 -0.06160871 -0.012553263 0.09443183 -0.111963145 -0.117438674
-0.055133127 0.012753647 -0.113001205 -0.0761927 0.11426008 -0.0034243122 -0.01735053 0.05507796
-0.010089489 -0.101897694 -0.062295187 0.085541494 -0.033918742 0.016061585 -0.12964378 0.07357647
0.07555519 0.07521526 0.023495851 -0.117019705 -0.11943881 0.052059222 0.043823294 -0.026241831
0.045774344 0.0134347575 -0.032319453 -0.13503344 0.08288164 0.01780737 0.065312415 -0.11065824
-0.028506042 0.12930934 -0.10299685 0.09440038 -0.056516103 -0.113410674 -0.13118811 -0.059406675
-0.013235474 -0.07786566 -0.070753686 -0.12727138 -0.078988604 0.015512049 -0.09290566 -0.079231
-0.09247965 0.096477896 0.044474337 -0.0075968443 -0.07809681 -0.072617196 -0.10350769 -0.104844205
-0.09758732 0.014881177 0.024375983 0.09197098 -0.04403499 -0.13381131 -0.11129381 -0.08103867
-0.022266887 0.050181087 -0.0025454338 -0.041132655 -0.106566325 0.06720962 -0.116849735 0.007897426
-0.0793024 0.08589243 0.043677464 0.077042565 0.01931841 -0.002561548 -0.1311348 -0.044424243
-0.07590823 0.021842007 0.036556408 0.078969136 0.06362346 -0.12291929 -0.12060118 0.006998276
0.01229006 0.08381337 -0.12003405 0.07555939 0.02919884 0.013479985 -0.042127848 -0.10358049
-0.084654465 0.07645722 -0.09458116 -0.08526398 0.027066045 -0.005834613 0.005822179 -0.042676594

model.convs.1.1.convs.0.conv.bias f4 [32]
00000000: 9c24 5abd 7e1d 483d c066 b93d 4dba ffbd
00000010: eb91 d7bc bfcd e9bd 756f ddbd a515 c93d
00000020: b0b6 19bc cbfd d6bd 6028 3bbd 2230 11be
00000030: e282 fe3c c074 e63c fd9a ce3d 0212 2c3d
00000040: 9276 af3d d4a1 a2bd d9de 1c3c b4d3 8fbd
00000050: e36d 6cbc 42b5 a03c fd7a eabd c7d7 ef3d
00000060: a4ec 6a3d ec5c 0dbe a21a 163d 1e1c d93d
00000070: 3f6d 73bd 2bd0 573d 8572 8f3d 3027 ef3d
-0.05325757 0.04885625 0.09052801 -0.12486706 -0.026314696 -0.11416196 -0.10812274 0.098185815
-0.009381935 -0.10497626 -0.0456928 -0.14178517 0.03106827 0.028131843 0.100881554 0.04200936
0.08567537 -0.079410225 0.009574615 -0.07022801 -0.014430496 0.01961768 -0.114492394 0.11711078
0.057354584 -0.13804978 0.036646493 0.10601066 -0.059430357 0.05268876 0.07004265 0.11677396

model.convs.1.1.convs.1.conv.weight f4 [32, 32, 1, 2]
00000000: 9611 b1bc dd3c d8bd 1bf5 883d 9a04 353d
00000010: 2c61 463d 3532 a7bd 03fe 013d ffa2 f2bd
00000020: c374 90bc 03ed 7c3d 5834 0bbd b5a3 e33d
00000030: ef15 f73d a84d c53c a425 d33c c034 40bd
00000040: 8b9b 7cbd c6d0 ecbd 6f14 cb3c 482a 71bd
00000050: 1329 523c 150c d7bc 225d 1abe db6d bb3d
00000060: c67a a2bd 2c4f 133e 76d6 9d3d 704f a83a
00000070: 295c b6bc 9e50 903d e83f 8a3d 5cf2 d8bd
00000080: d235 913d fd4a 20bd 7081 e9bd f3c3 6dbc
00000090: 3374 dd3d 6825 f5bc 548f a53d 78da c4bd
000000a0: 1b77 8e3c 4e9c 113e aaaa c2bd 790b cdbc
000000b0: 9c50 8cbd 2517 0dbd 9682 9f3d fb32 ae3c
000000c0: f730 1abc 5ac8 c7bc 992c 7b3b f12f 5d3d
000000d0: c77e 36bd 4ca6 e03d 37c9 c7bd 06ef 343d
000000e0: 325f f83b d76a b0bd 0b48 eb3c 271d 38bd
000000f0: b0da 933d 2872 d5bc ed04 a83c 05a4 193d
00000100: c9d7 33bd 974d ae3d 08d0 98bd eeca b7bd
00000110: c25d 37bd 5b34 1fbc a87e b83d 0790 cbbd
00000120: 7b69 80bd 986a 913d 9f83 f7bc b12b 33bd
00000130: 9e3a a5bc cad4 b5bd 098f 05be af1c 0b3c
00000140: 14e1 dcbc 9a20 bd3d 4aa8 05be 43ed af3d
00000150: 2e98 64bc 9dac cf3c 3e93 d9bd e6e1 cd3d
00000160: 441f 6b3d f48d 2ab8 980c 16bd c73d f93d
00000170: 5841 01be 5248 30bd 7108 7c3c 620a c5bd
00000180: 208b 203c b618 ed3d 3c0e 0c3e f045 ccbd
00000190: 85e2 5d3c ae50 613d 82f7 a73d cd7e 4fbd
000001a0: 06e6 dabd dc8f 6e3d c6c0 26bd 8d92 fabc
000001b0: 0c41 4bbd 7d23 8cbd 4be1 96bd 2725 323d
000001c0: 3080 a43d efe3 d5bd 5317 db3d 9212 05be
000001d0: 1dc0 96bd c97c 873d d0e3 7d3b b698 a13b
000001e0: b20a 91bc c988 9abd d23d 873d e42b 1b3d
000001f0: bd19 0cbd 0adb bb3d 413c 763d 8ebc afbb
00000200: b4e0 603d 4a4f 72bb 93ed 913d 4a56 e03c
00000210: 81ac eebc 26b6 8abd 0315 cbbd 6c6a 8c3d
00000220: 5d69 1cbd b2ea b53d 09c5 f23d 77ae b3bc
00000230: 4988 8abc 07d1 de3c 2d19 f4bd 8bf2 0dbb
00000240: b69b a93d 2c85 023d 32da 0d3d 991f c8bd
00000250: 9929 953d 7612 08be 6dae a5bd fe90 f8bd
00000260: 1bdc 9cbc 9b0f dfbd c94b d7bc 3c5f dfbd
00000270: dbe0 c63d 4b96 e4bc 59fb 5abd 63e4 c43c
00000280: 8b71 583d 71a5 d93d 6589 cabd 62a5 9bbd
00000290: 5b57 d4bd 841b cd3c fa9b 2dbc b605 c1bd
000002a0: 47b3 143c 9cbe 63bd 1b17 50ba d2bb 08bd
000002b0: 79dd 10bc 0c69 d73d 1481 bfbd 331f c8bd
000002c0: d813 e83d 4236 2b3d c70d 343c 85dc 64bd
000002d0: 42b0 653d 00c8 323b 5be3 943d d451 86bd
000002e0: b867 413d 77bd adbc b1de 743d fa2e 783d
000002f0: bace b8bd 2845 a5bc 28ff a7bd 8369 6a3b
00000300: ce76 9b3d e3b9 5c3d 98e1 923d bfed fabc
00000310: b379 f8bc d3ca 853d 45bc 5cba 56dd e5bd
00000320: ffbd 57bc 6cba 103d ecb1 b73d 7970 e5bd
00000330: c388 473e d863 b8b8 04c0 4dbd bc0a 053e
00000340: 99a1 c33d 088f ae3d fc16 283c a6de cb3c
00000350: d820 80bb 2f8b 98bd ee3b 15bd 0b0c acbd
00000360: 3754 34bd 0e32 e0bc 301e 833d 2d3d 073c
00000370: 2534 393d 2efb 713d c42d 4fbc 93dc 33bd
00000380: b87d 973d 5604 203d 0de0 d0bc 6a52 11bd
00000390: c41e eebd 62d3 153e b356 6bbd c47f d03d
000003a0: a691 e1bd 14fe 84be 8429 68bd 4a06 423d
000003b0: 4884 6f3c 489b afbc 125f 753c 2767 aa3d
000003c0: 3339 e1bd 23d4 af3b ea23 f63d bab3 9dbd
000003d0: 031c 443c 5d18 84bc 6fa6 913c c366 3abd
000003e0: 7790 fd3d 8527 ac3d ac04 f1bc 297f 813d
000003f0: c85a df3d 8064 823a 434d 6ebd 65db f03d
-0.021614831 -0.10558484 0.06687375 0.04419384 0.048432514 -0.08163873 0.031736385 -0.11847495
-0.017633801 0.06174947 -0.033985466 0.11115209 0.120647304 0.024084881 0.025774784 -0.046925306
-0.061671775 -0.11563258 0.024790017 -0.058878213 0.012827176 -0.026250878 -0.1507459 0.09151813
-0.079335734 0.1438567 0.07706921 0.0012841057 -0.022260742 0.070466265 0.067504704 -0.105931014
0.070903435 -0.039134014 -0.11401641 -0.01451205 0.10813179 -0.029925063 0.08083978 -0.09611982
0.017390778 0.14219782 -0.09505208 -0.025029885 -0.068513125 -0.0344459 0.07788579 0.021264544
-0.009411088 -0.024387527 0.0038326143 0.0540008 -0.044554498 0.109692186 -0.097551756 0.044173263
0.0075797075 -0.08614128 0.028720876 -0.044949677 0.07219446 -0.02605541 0.020510161 0.037509937
-0.04390696 0.08510893 -0.07461554 -0.08974253 -0.04476715 -0.009717072 0.09008533 -0.099395804
-0.06270119 0.07100409 -0.030214129 -0.04374284 -0.020169552 -0.08878477 -0.13042845 0.008490725
-0.026962794 0.09234734 -0.13052478 0.08590176 -0.013952298 0.025350863 -0.10623787 0.10052852
0.057402864 -4.0663363e-05 -0.036633104 0.12169986 -0.12622583 -0.04303772 0.015382872 -0.09621121
0.009798795 0.11576979 0.13677305 -0.09974277 0.013542776 0.055008583 0.08201505 -0.050658036
-0.10688405 0.058242664 -0.040711187 -0.030587459 -0.04962258 -0.06842706 -0.0736719 0.043492462
0.08032262 -0.104438655 0.10697808 -0.12995365 -0.073608615 0.06615598 0.0038740523 0.0049315346
-0.017705295 -0.07545621 0.06603588 0.037883654 -0.034204233 0.09172638 0.060116056 -0.0053630536
0.054901794 -0.003697353 0.07125392 0.027384896 -0.02913499 -0.06773023 -0.09916117 0.06856236
-0.03818642 0.08882655 0.11853988 -0.021933777 -0.016910689 0.027199281 -0.119188644 -0.002165946
0.08281653 0.031865284 0.034631915 -0.09771652 0.07283325 -0.13288292 -0.0808991 -0.1213703
-0.019147923 -0.108916484 -0.026281254 -0.109068364 0.097108565 -0.027903697 -0.05346236 0.024034685
0.052842658 0.106272586 -0.09889487 -0.07599904 -0.10368224 0.025037535 -0.01059627 -0.094249174
0.009075946 -0.0556017 -0.00079380133 -0.033382244 -0.008841866 0.10518083 -0.093507916 -0.09771576
0.1133191 0.04179979 0.010989613 -0.055874366 0.056076296 0.0027279854 0.07269927 -0.06558576
0.047218055 -0.021208508 0.059782688 0.060591675 -0.09023805 -0.020174578 -0.08202964 0.0035768456
0.075910196 0.053888213 0.07171935 -0.030630944 -0.030331468 0.06532826 -0.00084203883 -0.11223857
-0.013167857 0.035334036 0.08969483 -0.11203093 0.19485764 -8.792401e-05 -0.05023195 0.12992376
0.09552307 0.08523375 0.010259386 0.02488644 -0.0039101653 -0.07448422 -0.036434107 -0.084007345
-0.044025626 -0.027367618 0.06402242 0.008254332 0.045215745 0.059077434 -0.012645189 -0.043911528
0.07397026 0.039066635 -0.02549746 -0.035478987 -0.11626962 0.14631417 -0.05745573 0.10180619
-0.11014108 -0.25975096 -0.056680217 0.04736928 0.014618941 -0.021436349 0.01497628 0.08320456
-0.10997238 0.005365865 0.12018569 -0.07700296 0.011969569 -0.016124899 0.017779557 -0.045508157
0.1238107 0.08405975 -0.029421173 0.06323082 0.10905987 0.0009948164 -0.05817915 0.11760596

model.convs.1.1.convs.1.conv.bias f4 [32]
00000000: c791 173d 0007 93bd f7fd 09bd c574 78bd
00000010: 6d36 313c d609 873c 30e6 7f3d 75b2 9cbd
00000020: f963 b5bd e721 1fbd 5ff9 bb3d 7b44 fe3b
00000030: dd4f aa3d 0e5a b93d c9d4 efbd cad9 8b3a
00000040: ce50 d63d c571 b13b 6878 8abd 251c 373d
00000050: c025 cabd b0b0 673d 9a0d 073d c782 0e3d
00000060: f891 94bc 5b60 ef3d a94a 2ab9 431b 8f3c
00000070: 71e1 823c 0fd9 8c3d 3d7e 65bd 10cb 993d
0.03700426 -0.071790695 -0.033689465 -0.060658235 0.010816199 0.016484182 0.062475383 -0.076512255
-0.08856959 -0.03885069 0.09178423 0.0077596284 0.08316014 0.0905038 -0.117105074 0.0010669765
0.10464631 0.0054151737 -0.06761247 0.044704575 -0.098704815 0.056564987 0.032971956 0.034792688
-0.01813601 0.116883 -0.00016240276 0.017469054 0.01597664 0.06877338 -0.056028593 0.07509434

model.convs.2.1.convs.0.conv.weight f4 [32, 32, 1, 2]
00000000: eb67 af3d eff4 d43d 215f 75bd 7f24 4ebb
00000010: 2a8b cabc db2d 9bbd c104 2a3d f695 b13c
00000020: 3151 b83d da14 41bd 4b8f cc3d 64df 3fbd
00000030: 9fb1 91bd 076a fabd 4f05 1dbd 8414 2cbd
00000040: 017f 65bc c214 8bbd e9b5 fc3d eded 5eb9
00000050: 1381 bd3d 6fc5 a6bd b260 f8b9 266c 6c3d
00000060: 95a2 343c fe48 2b3d b127 093e 81ff a93d
00000070: 8a19 233d 9bbb 8e3d 8767 96bd ec7f d03d
00000080: 90b3 f2bd aa0f cfbc c105 293d f7ab a4bd
00000090: 2c63 b93c 42e3 e93d 70b3 babd 9b42 e63d
000000a0: f93a 3b3d af52 12be e2bb 55bd 4f1e c8bd
000000b0: 0f59 7abc 9497 3a3d 1491 f53d dc91 e139
000000c0: a938 17bd ba39 60bd e5b9 8bbd f175 c83c
000000d0: fd09 6b3d 0735 703d e6a0 a8bd 2d89 f9bc
000000e0: 8998 e0bd 07d5 82bc 3d86 2bbd 9827 f7bd
000000f0: 8000 443d b93e ef3d cade a33d aac5 ccbd
00000100: 276c 3fbd 0af1 71bd e9a0 5f3d d8a1 093b
00000110: 90d2 d6bd db0e 6f3d 0807 9dbd 81c6 bfbd
00000120: 71b7 213d c640 50bd 3aef 56bd 2090 f9bd
00000130: 8a06 b8bd e933 a23c a25f 5dbd 6519 f03d
00000140: 3c40 b03d 4756 04be 7cf0 f83d c556 62bd
00000150: d102 883b 8c78 073d 1450 a3bd 829e 84bd
00000160: 8585 f3bd 94ee fabd 29b7 6c3d 7aa5 013e
00000170: 5048 0abe 82d2 a1bd 8e30 853d 2cd6 393b
00000180: 9cfe 393d d5b1 04be 1a6b b23d d7ef f43c
00000190: 96f2 bc3d 7f9f 9d3d 4d34 cebc 121f 86bd
000001a0: 71a4 1bbb 01bf 7fbd a4c6 1c3d c877 c3bd
000001b0: 0083 aebd 0332 083e d456 09be d7f3 fbbd
000001c0: 3f40 ddbd 4dd1 6abc 492e f6bd fb52 d93d
000001d0: 5f07 3b3d 9762 0a3d 2401 c43d d9e2 103c
000001e0: 6d60 c93c d5c2 0fbe 90e0 cf3d f121 993c
000001f0: 4f7a 003d b01c d8bc 8d87 cdbd 3749 a8bb
00000200: 0dcb 163d e218 90bd 6d11 fd3d a150 85bd
00000210: d163 71bc 5a8b 6a3d 4777 493d 75cb ac3c
00000220: 4e0b c73b e80d 96bd a75e 423d c7eb cebd
00000230: cd7e cabc 558a d33d 74a7 2b3c 2b5f 753d
00000240: e3af c63c 208a ec3d 40b6 163e e0e9 5a3c
00000250: 3dc9 1a3e 855b d0bb 174c 62bd c3d9 eabc
00000260: 76f6 35bd 9f85 0f3d 5df2 ebbb b76f 0b3d
00000270: 9ae0 e13b 36fb 5a3b 8e88 bb3d afc9 b03d
00000280: a538 003d bc1c 7fbd c4c0 0cbd 4a92 e4bd
00000290: 66cf 303c 6e8c e4bd ed41 d4bd 1262 be3d
000002a0: 3b38 893c 25f0 56bb 1c1a 753b dde2 983c
000002b0: 6a45 083e 6e83 0dba 97de a23d 67d1 c4bc
000002c0: bf42 fd3d 436c df3d d9bb 1abd 0dc2 503c
000002d0: 5897 553c 1086 00be 85d6 d1bd e90a 9b3d
000002e0: 23e5 2dbd 29e6 efbd 9d1f dcbd e69d b7bd
000002f0: 0eae b9bd ae77 a63d 3a29 12be 654e a73d
00000300: 12b1 c33d a121 cd3d 4b57 d73b 80a5 2d3d
00000310: 125c dd3d b21c c93c 9018 7d3d a38f bebd
00000320: f18b 273c 9b73 b93d ffcd bb3d ff72 cebd
00000330: c7fd ed3d 3d40 b2bd 97db bcbd 007f 1c3d
00000340: 0f42 9d3d d6e2 e03d bbd1 68bd 8789 9ebd
00000350: ad26 d9bd 5314 fdbd c161 16bd 7454 1bbd
00000360: 17c1 7abc 6b0f 923d eec0 e93d bbf8 a73d
00000370: eb58 0e3e c0b4 c43d 0188 e3bd 9bf4 903d
00000380: 543c 2dbc 3d3a 46bd ae2b a13d 5b46 083e
00000390: 29ab 3bbd c424 8a3d 8fca 5ebd 2301 703c
000003a0: fcf7 02be 61a2 803d 96a0 89bd 79ad a1bd
000003b0: f0e9 363d 9297 563d 4213 b13d b257 abbd
000003c0: 441d bebc efd5 bc3d 1e90 5e3d 4ed2 ed3d
000003d0: 3ff3 883d 41ef f53d 3f47 e0bd 1f77 9f3d
000003e0: 6700 0abd c9d0 4f3d c345 aabd 1406 e03c
000003f0: c744 ffbc 4aa8 2e3c bd82 9f3d a665 06bd
0.08564743 0.1039828 -0.059905175 -0.0031454859 -0.024724562 -0.075771056 0.04150844 0.021677952
0.08999861 -0.047139026 0.099882685 -0.0468439 -0.07113957 -0.12227254 -0.03833514 -0.042011753
-0.014007331 -0.067910686 0.12339384 -0.00021260204 0.092531346 -0.08143126 -0.0004737429 0.057720326
0.011025091 0.041817658 0.13394047 0.08300687 0.039819278 0.06969377 -0.07343965 0.10180649
-0.11850655 -0.025276024 0.041265253 -0.08040612 0.022630297 0.11420299 -0.09116256 0.11243173
0.045710538 -0.14289354 -0.052181132 -0.09771406 -0.015280022 0.045554712 0.11990562 0.00043024018
-0.03691927 -0.054742552 -0.06822566 0.024470301 0.057382572 0.05864432 -0.08233814 -0.030460918
-0.10966594 -0.01597072 -0.041876066 -0.12068099 0.04785204 0.11681885 0.08001478 -0.09998639
-0.046734 -0.059067763 0.054596815 0.0021001007 -0.1048938 0.058363777 -0.07667357 -0.093640335
0.039481584 -0.050843023 -0.052474238 -0.12185693 -0.08985622 0.019800143 -0.05404628 0.117235936
0.08606002 -0.12923537 0.12155244 -0.05525853 0.0041507264 0.033073947 -0.07974258 -0.064755455
-0.11890701 -0.122525364 0.057791863 0.1266078 -0.13504148 -0.07901479 0.06503402 0.0028356416
0.04540883 -0.12958463 0.08711834 0.02989952 0.09225957 0.07696437 -0.025171423 -0.06548895
-0.0023749138 -0.062438015 0.038275376 -0.09544331 -0.0852108 0.13300328 -0.13412029 -0.12302368
-0.108032696 -0.014332128 -0.12020547 0.106115304 0.045661326 0.03378543 0.0957053 0.008843147
0.024582112 -0.14039166 0.10150254 0.018692942 0.031366643 -0.026380867 -0.1003562 -0.005135681
0.036814738 -0.07035996 0.12356839 -0.06509519 -0.014733271 0.057261802 0.049186017 0.02109311
0.0060743457 -0.07326871 0.04745355 -0.10103565 -0.024718666 0.10329119 0.010476936 0.059905212
0.024253791 0.11549783 0.1471796 0.013361424 0.15115829 -0.006358566 -0.055248346 -0.02866829
-0.044424497 0.03503954 -0.007200523 0.034042086 0.0068932297 0.0033413894 0.09156905 0.08632218
0.03130402 -0.062283263 -0.034363523 -0.11160715 0.010791635 -0.11159597 -0.10364137 0.09296049
0.016750446 -0.0032796946 0.0037399596 0.018662864 0.1330773 -0.00053983077 0.07952612 -0.024025632
0.123662464 0.10909321 -0.0377768 0.012741578 0.013036571 -0.12551141 -0.102459945 0.0757044
-0.04245485 -0.117138214 -0.10748217 -0.089656636 -0.090664014 0.08128296 -0.14273539 0.081692494
0.09555258 0.1001618 0.0065716854 0.04239416 0.10808577 0.024549816 0.061791003 -0.0930474
0.010226236 0.09055253 0.0917015 -0.100805275 0.1162067 -0.08703659 -0.09221571 0.038207054
0.07678615 0.109807655 -0.05684064 -0.07741075 -0.1060308 -0.12357392 -0.03671432 -0.037922338
-0.015304825 0.07131847 0.114137515 0.082017384 0.13901107 0.09604788 -0.11109925 0.07077905
-0.010573465 -0.048395384 0.07869659 0.13308088 -0.045817528 0.06745294 -0.054392394 0.0146487085
-0.12789911 0.06280971 -0.067200825 -0.078944154 0.044656694 0.052390642 0.08646251 -0.08366336
-0.023207314 0.09220492 0.05433666 0.11612378 0.066870205 0.12008525 -0.10951089 0.077863924
-0.03369179 0.050736222 -0.08314087 0.027346648 -0.031160725 0.01066024 0.07788608 -0.032811783

model.convs.2.1.convs.0.conv.bias f4 [32]
00000000: c0ae d2bd 9f21 0d3d 60a4 3bbd 3655 0bbd
00000010: ff2c 4c3d a7ae d23c c2fa 073d 1d8b 06bd
00000020: 613b a93d c0f9 f03d 6420 91bd 384d 943d
00000030: b1fb 3c3d 978d 9dbd 1441 7fbd 845c 85bd
00000040: 4859 cdbd 37a8 d43b 4488 05be 35c4 7dbd
00000050: e343 80bd fbbb 25bc 186f 0b3d c03e f33c
00000060: e94c 013e 8948 febd e518 f8bd 5818 40bd
00000070: 4175 9a3d f0ab 003d 0f3e c7bd 590f dd3d
-0.10287237 0.03445589 -0.045811057 -0.03401681 0.0498476 0.025718046 0.033198126 -0.032847513
0.08263279 0.11766386 -0.07086256 0.07241291 0.04613847 -0.07693022 -0.062317923 -0.065117866
-0.10026795 0.0064897793 -0.13040262 -0.061954696 -0.06262948 -0.010115619 0.034041494 0.029693007
0.12626995 -0.12416179 -0.12114123 -0.046898216 0.07541896 0.031413972 -0.097286336 0.10793943

model.convs.2.1.convs.1.conv.weight f4 [32, 32, 1, 2]
00000000: e671 493e 222f 253d 0e87 b13d 9e5c f4bd
00000010: a26d 0cbe 4889 433b d0cd 5d3d 835b 983d
00000020: 83b0 6fbd dcad 5d3d 67fc a43d d3f2 16be
00000030: 0cec 723d c441 e33c 9aae 073e 9ca0 693e
00000040: 177a 28be 8d82 3cbe db17 ef3d 1ab3 b43d
00000050: 190c c4bd 5d8b 70bd a1af f4bd 4af0 ebbd
00000060: ab22 8abd 2e2f ae3d 474d b1bd 736a edbd
00000070: d030 ea3d 38e0 993c b7c4 d83d 42c1 c03c
00000080: 9f91 9dbd b99e 1e3e 8631 27bd 755c 8a3c
00000090: 3c32 1fbd 6875 b2bb 9093 acb9 7e58 99bd
000000a0: 34b5 633d 057a 7a3d 0baa 82bd dfe1 49bd
000000b0: 868c be3c 6fe5 05bd 1671 f3bd 5861 1bbe
000000c0: da77 5c3d a7e4 27be 2555 b63d afe8 10be
000000d0: 1c01 ad3d 39b4 7d3a e607 e03a 6a5c 8fbd
000000e0: 4265 07be 577c 52bd 1eb2 983e 9fcd 573d
000000f0: 94c2 a43d 5267 d83d d144 d3b9 cc3b 753d
00000100: 5093 0cbe b828 babd 0ca9 d13d bf9d 1ebd
00000110: 9a7e d73c 6a23 d4bd e3c1 943d 7e91 15ba
00000120: 4c0b 8b3c 4bee 69bd 4e8f 3a3b c823 82bc
00000130: 5191 3c3d 2e2b 14be 28c7 ebbd 2944 c53d
00000140: f95d 0a3c e785 00be f167 04be a138 75bc
00000150: 828d 4c3d 30ce 4cbd 2aec debd f73c 3e3d
00000160: f19b 403c fb0c 483d 95f2 d13d 7aa2 0e3d
00000170: e79e c0bd 9f99 79bc 7247 44bd b6f8 49bc
00000180: 99ea 93bd 7f67 95bb c7f4 c43d c429 b7bd
00000190: 35c4 84bb 699d a6bb f8e3 843d 5804 b8bd
000001a0: da98 e5bd 1eba 4cbd d49a 453c 23be 903d
000001b0: b1a2 42bd c274 ac3c 781e 143d 022c 2fbd
000001c0: 9ca4 cc3d d471 343d da55 3e3d ff4d babd
000001d0: e54a 573c b29a efbb 5f5e f1bd 52ef 01bd
000001e0: 267b a7bd b03e 9fbd a25d ccbd a6a5 94bd
000001f0: bf05 03bd 1af0 3b3d 7b1b 4b3d c41d a73d
00000200: e9ca c4bd 43b2 25bb d398 ebbd 19ff bc3c
00000210: d4fe c5bd 2a30 1b3d bcfe 2c3c d512 5f3d
00000220: 716d bcbc 2ba2 483c fab3 d63c 0242 c8bc
00000230: 7feb 98be 550d 77be 3efe f93d 0b71 b4ba
00000240: a0b7 bdbd 3fb4 57bc 6d2d cb3d 2f60 203c
00000250: 00dd 65bd 9acd f23d edc9 4c3d 3cd6 b73c
00000260: 8ddb 17bd 9ff0 0cbc 1376 abbb 31f5 e2bb
00000270: a046 47bc 7181 d8bd 2770 803c 2c3e 8b3d
00000280: 2c70 bbbc f0bb f1bc 9185 743d 9fca 97bd
00000290: 5490 793d 338b 0dbe a862 703d 3e9f 8fbd
000002a0: 34fe bfbd b6ce 4cbd 62be 973c 432b d6bd
000002b0: 0663 7fbd 95c7 ebbc 6d88 7fbc 8282 5a3d
000002c0: cd33 afbd 5f0d f33d 884d 513c 6ed4 ba3c
000002d0: 1cf0 723d 1646 973d a6b5 d73c 017d c3bd
000002e0: 2b51 f3bd 04ba 373d 37b0 c23d 8f4e 6bbd
000002f0: 868d 2e3d 0766 e23d 78cf f0bc fee5 2dbd
00000300: 72c2 7c3d f520 0b3d 20bf 89bc 01cf e0bd
00000310: 4d23 e2bc 604f a3bd 2698 cf3d 649c 133d
00000320: 7026 d93d eaf4 73bd 38ba cb3c 575c 013e
00000330: d73e 213e 995c cf3d 7015 b5bd a375 71bd
00000340: 6046 61bd 2399 7a3d 249a 073e 29d7 87bd
00000350: 5957 053d 313a c8bd 5853 3b3d 2cb9 9eba
00000360: e435 8cbd cdd9 2ebd a209 0638 f812 88bc
00000370: dbdb 013b 2340 563d 4ce1 e63d 5ca6 083e
00000380: 6809 a73d 2e73 b23d c784 c03d 9d79 c53c
00000390: 5514 edbc e2eb 97bc 5281 883c eb36 8abd
000003a0: a64f b4bb be86 d63d 57e3 22bc 56cd 183c
000003b0: 15d1 babd 2737 213d 2c6f a9bd 3944 9cbd
000003c0: 195a 0ebd 9bb5 d23d 42b4 ef3d fa4b 1cbc
000003d0: 7e47 b9bd 7cb5 c83d 6017 e33d 7197 91bd
000003e0: 2eb6 d4bc 2b26 45bd f8f4 34bc ec88 0d3c
000003f0: e9e3 a83d 4a22 e93d 54d5 30bd 1298 843c
0.19672355 0.040328152 0.08668338 -0.11931728 -0.13713697 0.0029836465 0.054151356 0.074393295
-0.058517944 0.054120883 0.080559544 -0.14741068 0.059307143 0.02774132 0.13250199 0.22815174
-0.16452824 -0.18409176 0.11674472 0.088232234 -0.0957262 -0.058726657 -0.11947561 -0.11520441
-0.06744894 0.085050926 -0.086573176 -0.11592569 0.114350915 0.018783674 0.105843954 0.023529653
-0.07693791 0.15490235 -0.040818714 0.01688979 -0.038866267 -0.005446125 -0.0003291634 -0.07487582
0.05559273 0.061151523 -0.06380089 -0.049287673 0.023260366 -0.032689508 -0.11886804 -0.15173852
0.053825237 -0.16395818 0.08902959 -0.14151262 0.08447477 0.00096780394 0.0017092198 -0.070000485
-0.1322222 -0.05138811 0.29823393 0.05268633 0.08044925 0.10566582 -0.00040296328 0.05987148
-0.1372807 -0.09089798 0.10237321 -0.038724657 0.026305486 -0.10358317 0.072635435 -0.0005705579
0.01697316 -0.05711202 0.0028466764 -0.015886202 0.046037022 -0.14469597 -0.115125954 0.09632141
0.008445256 -0.1255108 -0.12930275 -0.014967115 0.04993964 -0.050001323 -0.108848885 0.04644486
0.011755929 0.048840504 0.10251347 0.03482292 -0.09405308 -0.01523438 -0.047919698 -0.012327364
-0.0722248 -0.004559457 0.09617 -0.08943513 -0.00405171 -0.0050846827 0.06488794 -0.089852035
-0.11210795 -0.049982183 0.01206084 0.07067516 -0.047518436 0.021051768 0.03616187 -0.04276658
0.09992334 0.044053867 0.046468593 -0.09096908 0.013140415 -0.0073121423 -0.11785578 -0.031722374
-0.081777856 -0.077756286 -0.099787965 -0.072581574 -0.0319879 0.045883276 0.049586754 0.08159974
-0.096090145 -0.0025283254 -0.11503758 0.023070859 -0.09667745 0.03788773 0.01055878 0.05446132
-0.023001404 0.012245695 0.026208866 -0.024445537 -0.2986717 -0.2412618 0.12206696 -0.00137666
-0.09263539 -0.013165533 0.09920774 0.009788557 -0.056118965 0.11855622 0.04999726 0.022441022
-0.037074614 -0.00860229 -0.0052325814 -0.0069262017 -0.012162834 -0.10571564 0.015678478 0.06798968
-0.022880636 -0.02950856 0.05969769 -0.07411694 0.060928658 -0.13822632 0.058687836 -0.07012795
-0.09374657 -0.050001822 0.018523399 -0.1045747 -0.062350295 -0.028781692 -0.015596491 0.05334712
-0.08554802 0.11867785 0.012774833 0.022806372 0.059311017 0.07386415 0.026331734 -0.09545327
-0.11880716 0.044855133 0.095062666 -0.057447966 0.042615436 0.110546164 -0.029395804 -0.042455666
0.061708875 0.033966977 -0.016814768 -0.10976983 -0.027604723 -0.07974124 0.10136442 0.036037818
0.106030345 -0.05955974 0.02486907 0.12632881 0.15746628 0.101250835 -0.088419795 -0.058950078
-0.054998755 0.0611812 0.13242394 -0.066328354 0.032554004 -0.09776724 0.04573378 -0.0012109629
-0.06846216 -0.04268818 3.195706e-05 -0.016610608 0.0019814882 0.05230726 0.11273441 0.13344711
0.08156091 0.08713375 0.09400325 0.024105841 -0.02894036 -0.018545095 0.016663227 -0.06748756
-0.005502659 0.10474919 -0.009941897 0.0093263 -0.091219105 0.039359238 -0.082731575 -0.076302
-0.034753893 0.10288545 0.11704303 -0.009539599 -0.09046839 0.098002404 0.11088443 -0.07108963
-0.025965776 -0.048132103 -0.011044733 0.008638602 0.082465954 0.11383493 -0.043172196 0.016185794

model.convs.2.1.convs.1.conv.bias f4 [32]
00000000: 049a bcbd 279d d53b 250d a9bc 5126 4d3d
00000010: 7b0b 0b3c d3ab 3fbc 755e c63d e8e2 b9bc
00000020: ccb2 7a3d cca4 18be 4485 853c b51b 83bc
00000030: b3c8 d6bc aee1 813b bd18 9d3c 571d fa3d
00000040: c9d7 3cbd 0e1c 57bd f13e 033e 0bb9 913b
00000050: 47dc 2bbc e2d4 2fbd 86e8 8bbd c72d c03d
00000060: d6cb 013c 454c 56bb a644 aebd 340e 4d3c
00000070: 290f dabd 14b5 fa3d 2572 e53c fd09 d8bd
-0.09209064 0.006518978 -0.02063615 0.05008537 0.008486624 -0.011698681 0.09685985 -0.022691205
0.06120567 -0.14906615 0.016298898 -0.016004423 -0.026218748 0.0039636707 0.019176835 0.122126274
-0.046104226 -0.05251699 0.12816979 0.0044471077 -0.01048953 -0.04292763 -0.0683146 0.09383731
0.007922133 -0.0032699269 -0.085091874 0.012515593 -0.10647423 0.12241569 0.02800853 -0.1054878
