code_/logs/epoch=230-step=4158.ckpt (torch, 245304 bytes, 63 tensors)

model.input_encoder.weight f4 [32, 1]
-0.031415477 0.31049857 0.78279674 0.31838 0.60647005 0.751568 0.33270168 0.6113111
-0.24722014 0.5352747 -0.9670577 -0.3312864 -0.021476587 0.14707862 -0.3225562 0.37925705
0.124716684 0.5374866 -0.13056536 0.8674936 -0.27759486 -1.013903 0.90662163 0.24473591
0.5797583 -0.07353709 0.11892052 -0.2617012 0.5806326 1.0278285 0.775204 0.5689968
00000000: 84ad 00bd abf9 9e3e 5e65 483f b402 a33e
00000010: 9f41 1b3f c366 403f e057 aa3e e27e 1c3f
00000020: 4727 7dbe c307 093f 1891 77bf 5f9e a9be
00000030: abef afbc c79b 163e 1626 a5be fb2d c23e
00000040: 766b ff3d b998 093f edb2 05be 1014 5e3f
00000050: ea20 8ebe 93c7 81bf 5b18 683f 0d9c 7a3e
00000060: 0a6b 143f 9d9a 96bd 9a8c f33d b3fd 85be
00000070: 57a4 143f e28f 833f c573 463f c6a9 113f

model.input_encoder.bias f4 [32]
0.26087955 -0.4579333 -0.7377743 -0.8821262 -0.7916397 0.40916657 -0.13747925 0.8148739
-0.9147174 0.08775142 0.8673714 -0.25875193 0.301632 -0.21169378 0.67875826 0.37140906
0.3913601 0.55561215 -0.93388236 0.016351124 0.8313616 -0.6255151 -0.6954282 -0.32087168
0.11209734 0.76629484 -0.09731062 -0.48478907 -0.9481246 0.55084187 -0.74583936 0.30269116
00000000: 0192 853e 3c76 eabe c7de 3cbf 06d3 61bf
00000010: e6a8 4abf 487e d13e 5cc7 0cbe 939b 503f
00000020: eb2a 6abf 04b7 b33d 0d0c 5e3f 227b 84be
00000030: 826f 9a3e 41c6 58be 1ac3 2d3f 5429 be3e
00000040: 5a60 c83e 993c 0e3f ea12 6fbf cbf2 853c
00000050: 1dd4 543f c221 20bf 9507 32bf 4b49 a4be
00000060: 4a93 e53d e62b 443f ca4a c7bd 4636 f8be
00000070: 4bb8 72bf f903 0d3f 54ef 3ebf 56fa 9a3e

model.convs.0.1.convs.0.conv.weight f4 [32, 32, 1, 2]
-0.076600134 -0.01229526 0.10344176 -0.07270486 0.058496505 0.019808033 -0.09699316 0.11436944
-0.042603508 0.07098375 -0.045221224 0.06380965 0.11183417 -0.011339782 0.047473475 -0.07292113
0.058845844 -0.05974029 -0.07683818 0.09035721 0.044693705 0.012060973 -0.056163497 0.10548766
-0.13816088 0.08509411 0.080240056 0.07737154 0.011551945 -0.015081175 -0.025797103 -0.010690624
0.03111073 -0.03153082 -0.066205546 0.016092036 0.07071483 -0.028282203 -0.09350997 -0.08727932
0.03236718 -0.00062773254 0.003445681 -0.012818109 0.013443748 -0.060137793 0.10802045 0.053176653
0.07117183 -0.054911792 0.022757538 0.09146449 0.09270021 -0.0061990903 0.011261797 -0.07371798
0.0022472148 0.019263234 -0.077305816 -0.0140744895 0.08732067 -0.00038959328 -0.0055916035 0.02902779
0.09535319 -0.094419934 0.060244218 -0.014344889 -0.0151397735 -0.026433378 0.078925095 -0.053727273
-0.13877058 0.08549337 0.033857025 0.021876004 0.029352732 0.13213274 -0.07615732 -0.004659108
0.00824031 -0.025019309 -0.1109338 0.10749201 -0.014269288 -0.043810766 -0.056446366 -0.10787032
-0.06341305 0.087626696 -0.082366854 0.17186348 0.015759544 0.056770585 -0.020505715 -0.06457527
-0.0016287781 0.10632165 -0.010021805 0.16965623 0.017722014 -0.019018905 -0.10350131 0.05357857
-0.114914946 0.06492799 -0.026583916 -0.04554842 -0.13670632 0.1784283 -0.036353573 -0.013659055
-0.039755736 0.0787658 0.078575574 0.07825788 0.007963904 0.10850181 0.11441376 -0.11092456
0.03757978 0.09172237 -0.0415278 0.09223375 -0.046924304 -0.018245496 -0.13062313 0.07385709
-0.007653004 -0.008908069 0.21514204 -0.05995717 0.2320687 -0.035610102 0.013329936 -0.008744848
0.06569791 -0.11260027 -0.0026057996 -0.4524004 0.078402944 -0.22512232 -0.028574873 -0.1167746
0.0058777137 0.027601678 0.0037102394 -0.26963866 -0.06455992 0.19109152 -0.06396415 0.47658738
-0.13170674 -0.07756545 0.1707321 -0.011741559 -0.12939428 -0.04415945 0.08830394 -0.33400217
-0.04072685 -0.019095033 0.114191115 -0.22689855 -0.05906731 0.17977053 0.12966226 -0.309357
0.026609903 -0.08898298 -0.18133602 0.5147646 0.1024806 0.020218482 0.012300349 -0.017247744
0.1988451 -0.21872194 -0.016119651 -0.097097926 0.19926314 -0.21326663 -0.08537016 0.24324535
0.21336043 0.047184926 0.20908052 -0.47572297 -0.00472144 -0.04860112 0.20593303 -0.40743664
0.05228599 -0.09281711 -0.094750926 -0.09225248 0.030737195 0.08765555 0.06565689 -0.098798454
-0.019958107 0.10849958 -0.19726992 0.047216684 -0.01966492 -0.060397785 -0.04258223 0.04551075
-0.015117739 0.13987575 -0.061207294 -0.018735955 0.079414226 0.08138586 0.08546042 0.041077163
-0.0193502 -0.09924072 0.005124077 0.07094399 -0.040875923 -0.13076498 -0.12602082 -0.07682131
-0.13857244 -0.052947428 -0.10973306 0.023169482 -0.075819716 0.13195339 0.11285284 0.082400374
0.089952834 0.09311399 0.06933334 -0.027886797 0.021000162 -0.010020767 0.122379914 -0.0214873
0.041407876 -0.06324221 0.05440883 -0.11925004 -0.08425898 -0.0038939696 0.09718785 0.082174554
-0.032234356 0.06856705 -0.16454895 -0.06833772 0.033136368 -0.04447021 0.019719325 0.044959344
00000000: 88e0 9cbd 0f72 49bc 46d9 d33d 49e6 94bd
00000010: 089a 6f3d 7544 a23c 5aa4 c6bd 863a ea3d
00000020: 0481 2ebd ee5f 913d e439 39bd a2ae 823d
00000030: 5009 e53d 7eca 39bc 8c73 423d ac57 95bd
00000040: 5708 713d 3cb2 74bd 565d 9dbd 330d b93d
00000050: bf10 373d 639b 453c b20b 66bd ea09 d83d
00000060: 0c7a 0dbe d245 ae3d e654 a43d f874 9e3d
00000070: 5e44 3d3c 0817 77bc 7254 d3bc ba27 2fbc
00000080: eedb fe3c 7626 01bd c696 87bd 72d3 833c
00000090: f0d2 903d 14b0 e7bc 2882 bfbd 80bf b2bd
000000a0: 7393 043d 6b8e 24ba efd0 613b 0c03 52bc
000000b0: 2a43 5c3c 0c53 76bd d339 dd3d c3cf 593d
000000c0: 89c2 913d 30eb 60bd 046e ba3c bc51 bb3d
000000d0: 9cd9 bd3d bd21 cbbb 6683 383c 74f9 96bd
000000e0: 0246 133b eecd 9d3c 8352 9ebd b098 66bc
000000f0: 2ed5 b23d 5342 ccb9 c539 b7bb b0cb ed3c
00000100: 8948 c33d 3d5f c1bd a4c2 763d d306 6bbc
00000110: d00c 78bc d08a d8bc 7ba3 a13d 2111 5cbd
00000120: e019 0ebe 2617 af3d aaad 0a3d 4e35 b33c
00000130: 2475 f03c ce4d 073e 5ef8 9bbd 6eab 98bb
00000140: 5d02 073c 4bf5 ccbc 4331 e3bd c524 dc3d
00000150: bbc9 69bc eb72 33bd 4e34 67bd 1deb dcbd
00000160: b3de 81bd a075 b33d f4af a8bd fbfc 2f3e
00000170: 291a 813c 4688 683d 9afb a7bc 0a40 84bd
00000180: b97c d5ba 2abf d93d 7f32 24bc 5dba 2d3e
00000190: c22d 913c 89cd 9bbc 7ff8 d3bd 3475 5b3d
000001a0: 8758 ebbd f7f8 843d 83c6 d9bc fb90 3abd
000001b0: befc 0bbe e9b5 363e 7ce7 14bd 3bca 5fbc
000001c0: e9d6 22bd f74f a13d 3bec a03d ab45 a03d
000001d0: 097b 023c 3236 de3d c351 ea3d 6a2c e3bd
000001e0: 41ed 193d f0d8 bb3d 0e19 2abd 0ce5 bc3d
000001f0: b333 40bd 9477 95bc 12c2 05be 6342 973d
00000200: 0dc6 fabb 26f3 11bc 324e 5c3e a695 75bd
00000210: 6ba3 6d3e e6db 11bd ce65 5a3c 8d46 0fbc
00000220: a08c 863d f89a e6bd 10c6 2abb 06a1 e7be
00000230: b991 a03d 7786 66be da15 eabc 8627 efbd
00000240: d699 c03b ea1c e23c 7d27 733b 140e 8abe
00000250: fe37 84bd 7fad 433e a3ff 82bd 4303 f43e
00000260: 22de 06be a2da 9ebd 65d4 2e3e ab5f 40bc
00000270: ef7f 04be 8ae0 34bd b2d8 b43d 5502 abbe
00000280: 33d1 26bd 306d 9cbc 08dd e93d 1858 68be
00000290: 90f0 71bd c415 383e 2fc6 043e 0a64 9ebe
000002a0: 03fd d93c b53c b6bd 26b0 39be 9dc7 033f
000002b0: 59e1 d13d 3ba1 a53c 6787 493c 244b 8dbc
000002c0: 0d9e 4b3e a5f8 5fbe 5c0d 84bc 47db c6bd
000002d0: a30b 4c3e 9162 5abe 8dd6 aebd 4f15 793e
000002e0: 287b 5a3e fb44 413d 3419 563e f691 f3be
000002f0: 4fb6 9abb f811 47bd 1ce0 523e 899b d0be
00000300: d629 563d e616 bebd c60c c2bd deee bcbd
00000310: 92cc fb3c c184 b33d 1f77 863d d856 cabd
00000320: 2f7f a3bc 0735 de3d 2001 4abe 4866 413d
00000330: 5418 a1bc ab63 77bd b46a 2ebd 7b69 3a3d
00000340: 65b0 77bc 973b 0f3e 80b4 7abd 257c 99bc
00000350: eda3 a23d a1ad a63d df05 af3d 8740 283d
00000360: 5084 9ebc b83e cbbd e0e7 a73b 154b 913d
00000370: 836d 27bd 41e7 05be 9a0b 01be 7e54 9dbd
00000380: efe5 0dbe 67df 58bd babb e0bd edcd bd3c
00000390: 5e47 9bbd ca1e 073e 641f e73d 87c1 a83d
000003a0: 3139 b83d 8cb2 be3d a3fe 8d3d da72 e4bc
000003b0: 8808 ac3c 252e 24bc 52a2 fa3d 2206 b0bc
000003c0: 4e9b 293d 2285 81bd cbdb 5e3d 5d39 f4bd
000003d0: f98f acbd f831 7fbb 6c0a c73d 224b a83d
000003e0: 2c08 04bd e26c 8c3d 857f 28be a6f4 8bbd
000003f0: 00ba 073d 6526 36bd 6c8a a13c 4a27 383d

model.convs.0.1.convs.0.conv.bias f4 [32]
0.01564588 0.121983886 0.01755071 -0.015347534 0.051930025 0.09412499 0.12682357 0.059855383
-0.095679805 -0.06683835 0.022264594 -0.09100364 -0.07753789 -0.086044416 -0.0124592325 -0.0010400141
-0.12397191 0.011305868 0.011245772 0.05880981 0.030649511 0.040870454 0.075639434 0.03344192
0.026360856 -0.07245878 -0.07649009 -0.16423132 -0.030596105 0.00354869 -0.009299128 0.042756688
00000000: ca2b 803c b0d2 f93d 82c6 8f3c 3974 7bbc
00000010: 94b4 543d 9ac4 c03d 0ade 013e eb2a 753d
00000020: c6f3 c3bd 8be2 88bd 3d64 b63c 1e60 babd
00000030: 2fcc 9ebd 0e38 b0bd cf21 4cbc 1551 88ba
00000040: fce4 fdbd 3f3c 393c 3040 383c 8ee2 703d
00000050: af14 fb3c c767 273d d9e8 9a3d 65fa 083d
00000060: b9f2 d73c 4565 94bd d6a6 9cbd 412c 28be
00000070: afa4 fabc 2391 683b 5f5b 18bc a321 2f3d

model.convs.0.1.convs.1.conv.weight f4 [32, 32, 1, 2]
-0.0991758 0.11978002 0.022168325 0.08393412 -0.37885192 -0.031686157 0.072551325 -0.05733389
-0.056410402 0.10910909 0.037623603 -0.10840865 0.13251777 0.13389386 0.049895383 -0.092493445
0.0044560903 0.07786434 0.050460856 -0.052924618 -0.038776018 0.008487253 0.054823827 0.03021445
0.05260889 -0.021426985 -0.06620284 -0.027414972 -0.090324886 0.059142865 0.066749915 0.07207015
0.14574525 0.056903157 0.14254907 -0.10185071 -0.123170555 0.074527726 0.049093388 0.07139565
-0.115306206 -0.021461751 -0.049485248 -0.01208258 0.12251304 -0.041542992 0.06555761 0.04842679
0.08520972 -0.071026966 0.07990348 -0.045364484 0.08732999 0.07819794 -0.14275408 0.06302903
0.053681556 -0.07454934 -0.0021928826 -0.091071725 0.055671938 0.023742128 -0.09427261 0.08193479
-0.0012147501 -0.09408397 -0.091241956 0.13821666 -0.6626488 0.14911331 0.008696433 -0.05793824
-0.03840907 -0.024344862 -0.046440013 0.0657729 -0.483239 0.06197152 -0.19035502 0.0934623
-0.11958369 0.02757008 0.05099552 -0.104183234 -0.020106003 -0.04517308 0.13194105 0.10538022
-0.06246441 0.018081494 -0.09716567 -0.31725368 0.06835684 0.15881647 -0.17162633 -0.51175517
-0.49975267 0.0063265185 0.0019866196 0.00019340742 0.04481268 0.003445074 -0.2890563 -0.18147051
-0.021294521 0.07745579 0.09361065 -0.06838343 0.10756509 -0.03445665 -0.05130421 0.045682926
0.10224446 0.07307143 -0.027603308 0.11695068 0.052603237 -0.0627633 0.09392835 -0.042918514
0.0032081779 0.09509568 -0.4549291 0.2110064 -0.035499107 -0.038933612 -0.20317453 0.05503388
-0.11311729 0.095999874 -0.024712456 -0.047068615 -0.08647614 0.08646362 -0.71163213 0.4519821
-0.057252035 -0.11571127 0.06246057 -0.02669885 0.21951243 0.07041514 -0.050234724 0.13659303
-0.010612943 0.02428708 -0.0058708214 -0.055194106 -0.44879326 0.44954044 0.032331664 0.12201793
0.038429834 -0.06783564 0.031869683 -0.23555878 0.014195803 0.062558785 0.13809183 -0.09131837
0.06417196 0.013109709 0.13487579 -0.027429447 0.08429791 -0.06685664 0.09379082 0.11274379
-0.07106674 -0.11839499 -0.026171327 0.12010504 0.072996825 0.05275627 -0.07882839 0.14114879
0.034349326 0.016817437 0.10918981 -0.12738807 -0.06288285 -0.018855121 0.13986483 -0.19477366
0.0115267895 -0.05251254 0.09290377 0.06850244 0.015837636 0.038008373 0.05057108 -0.071881115
0.044740543 0.07254229 0.11192513 -0.028403062 0.23212987 -0.11895056 -0.063412264 0.1025453
0.08571479 0.105065525 0.023688355 0.098425485 0.15285479 -0.20843253 0.032869913 -0.04694809
-0.060630962 -0.097252965 -0.00041361628 -0.12683149 0.023325512 -0.12843707 0.08324048 0.107936084
0.009230294 0.0515881 -0.030470205 -0.41510496 -0.040244862 -0.035192266 -0.1131286 -0.006874742
-0.012065857 0.117031015 -0.047763485 0.0962554 0.052700296 -0.073244676 -0.115032725 0.0072412617
0.071273334 0.040391717 0.114246204 0.064281024 0.09891436 -0.15849066 -0.07327309 0.07191982
0.09933111 0.03402958 -0.009297564 0.12542184 0.012942005 0.08688146 0.06956816 -0.23083769
-0.021655967 -0.117562704 0.046718985 -0.049164083 -0.116840474 -0.05093943 0.06727939 -0.09725064
00000000: af1c cbbd 3a4f f53d 599a b53c a7e5 ab3d
00000010: e1f8 c1be 58c9 01bd ca95 943d f1d6 6abd
00000020: 980e 67bd 9674 df3d 351b 1a3d 5b05 debd
00000030: bdb2 073e 791b 093e 1a5f 4c3d 346d bdbd
00000040: 6504 923b 5777 9f3d 0bb0 4e3d 7cc7 58bd
00000050: 9ad3 1ebd 1f0e 0b3c f38e 603d 4b84 f73c
00000060: 6b7c 573d a587 afbc 5b95 87bd 5d95 e0bc
00000070: 41fc b8bd ca3f 723d 2eb4 883d 8499 933d
00000080: 3e3e 153e 4913 693d 62f8 113e 1b97 d0bd
00000090: d840 fcbd fea1 983d 2616 493d e237 923d
000000a0: a925 ecbd 8ed0 afbc 0bb1 4abd 03f6 45bc
000000b0: 1ee8 fa3d fc28 2abd 1143 863d 2b5b 463d
000000c0: 6f82 ae3d 9676 91bd 70a4 a33d 1cd0 39bd
000000d0: 11da b23d 3e26 a03d 202e 12be 5d15 813d
000000e0: 31e1 5b3d 53ad 98bd 77b6 0fbb d083 babd
000000f0: 4208 643d da7e c23c 0012 c1bd 6dcd a73d
00000100: 4038 9fba 19af c0bd 10dd babd ab88 0d3e
00000110: 5aa3 29bf 29b1 183e 7c7b 0e3c a650 6dbd
00000120: d452 1dbd e06e c7bc e237 3ebd f1b3 863d
00000130: 1a6b f7be d9d5 7d3d 6dec 42be 2a69 bf3d
00000140: 4be8 f4bd a6da e13c aee0 503d 055e d5bd
00000150: 58b5 a4bc 6807 39bd 8e1b 073e 96d1 d73d
00000160: aeda 7fbd a41f 943c cbfe c6bd 136f a2be
00000170: acfe 8b3d c9a0 223e d0be 2fbe 6302 03bf
00000180: 95df ffbe af4e cf3b f231 023b 69cd 4a39
00000190: 808d 373d c0c6 613b 30ff 93be 68d3 39be
000001a0: d971 aebc 24a1 9e3d f1b6 bf3d 9d0c 8cbd
000001b0: 164b dc3d 6b22 0dbd 5d24 52bd 051e 3b3d
000001c0: 8b65 d13d 79a6 953d 5520 e2bc d783 ef3d
000001d0: 7e76 573d 0c8a 80bd 825d c03d 53cb 2fbd
000001e0: 4b40 523b 86c1 c23d 78ec e8be 1012 583e
000001f0: 8367 11bd da78 1fbd fc0c 50be 356b 613d
00000200: 0aaa e7bd 959b c43d c771 cabc 05cb 40bd
00000210: 671a b1bd d713 b13d 862d 36bf 336a e73e
00000220: 1c81 6abd 08fa ecbd a8d6 7f3d 8cb7 dabc
00000230: dec7 603e d035 903d edc2 4dbd 0bdf 0b3e
00000240: e9e1 2dbc b3f5 c63c 0560 c0bb 3713 62bd
00000250: 3bc8 e5be 2a2a e63e 356e 043d 89e4 f93d
00000260: 9a68 1d3d 69ed 8abd c989 023d 5236 71be
00000270: 8395 683c d21e 803d f267 0d3e 2005 bbbd
00000280: 976c 833d 1bca 563c e11c 0a3e b8b3 e0bc
00000290: 62a4 ac3d 22ec 88bd 6715 c03d 37e6 e63d
000002a0: 708b 91bd 1379 f2bd 4065 d6bc a2f9 f53d
000002b0: 5c7f 953d f516 583d c770 a1bd 4f89 103e
000002c0: e1b1 0c3d b9c4 893c e89e df3d 0572 02be
000002d0: b9c8 80bd 0e76 9abc ba38 0f3e bf72 47be
000002e0: dcda 3c3c 6417 57bd 5544 be3d 024b 8c3d
000002f0: eebd 813c abae 1b3d 9f23 4f3d 6836 93bd
00000300: dc41 373d 0d91 943d 0139 e53d 8aad e8bc
00000310: 74b3 6d3e 5a9c f3bd 4ade 81bd 4503 d23d
00000320: 3c8b af3d 982c d73d 150e c23c 4d93 c93d
00000330: f785 1c3e 566f 55be 9aa2 063d a44c 40bd
00000340: 2c58 78bd 902c c7bd a3da d8b9 1de0 01be
00000350: 2515 bf3c 0285 03be fc79 aa3d 980d dd3d
00000360: a93a 173c 0b4e 533d a79c f9bc a388 d4be
00000370: ccd7 24bd c425 10bd f8af e7bd 8445 e1bb
00000380: dfaf 45bc f5ad ef3d a5a3 43bd 8d21 c53d
00000390: 44dc 573d 4e01 96bd 4796 ebbd 1b48 ed3b
000003a0: c1f7 913d c971 253d eaf9 e93d c5a5 833d
000003b0: 9d93 ca3d 604b 22be 3410 96bd b34a 933d
000003c0: 1c6e cb3d 9a62 0b3d cf54 18bc 956e 003e
000003d0: b40a 543c e8ee b13d c079 8e3d b760 6cbe
000003e0: db67 b1bc b7c4 f0bd 685c 3f3d 4760 49bd
000003f0: 0f4a efbd dda5 50bd c7c9 893d 582b c7bd

model.convs.0.1.convs.1.conv.bias f4 [32]
-0.008634559 0.14427435 -0.024198497 0.100070536 0.12970683 -0.03350865 -0.027477093 0.04879406
0.035916626 -0.0141677 0.03207276 0.072410084 0.045408394 -0.13225573 0.036233306 -0.26340196
-0.041930847 -0.019695256 0.06213229 0.026500657 -0.081582166 0.090923384 -0.007058976 0.1294266
-0.0039507747 -0.028617484 0.056771893 -0.012139584 -0.046335462 0.05045535 0.07331865 0.018408816
00000000: f777 0dbc a8bc 133e ed3b c6bc c8f1 cc3d
00000010: ded1 043e 5e40 09bd a417 e1bc 48dc 473d
00000020: 501d 133d a41f 68bc ba5e 033d bd4b 943d
00000030: 27fe 393d 0c6e 07be 6069 143d 9fdc 86be
00000040: aebf 2bbd f257 a1bc 6e7e 7e3d e817 d93c
00000050: 8d14 a7bd 0a36 ba3d fc4e e7bb 6888 043e
00000060: 8075 81bb 376f eabc a589 683d 1be5 46bc
00000070: 41ca 3dbd 45aa 4e3d 1728 963d 16ce 963c

model.convs.1.1.convs.0.conv.weight f4 [32, 32, 1, 2]
-0.10124276 0.0013550157 -0.08591585 -0.016452903 0.04865495 0.13489287 0.08462309 -0.06100537
-0.050989226 0.03827699 -0.0696454 -0.02131072 0.11327927 0.0118994815 0.04345781 -0.112470575
-0.01086719 0.09068943 -0.03217568 0.116451435 -0.042786825 0.0473678 0.09795337 0.045457084
0.10964188 -0.12129184 -0.057685524 0.015908495 0.07744962 -0.040299878 0.104123995 -0.037554055
0.07716098 0.070366606 0.112548366 0.057037473 0.15848474 -0.0063633383 -0.056184772 -0.011092604
0.13390446 0.089400284 -0.026136594 0.07869718 0.054801147 0.10194703 0.031144729 0.013160318
-0.051141843 0.03484537 0.02917688 -0.058620833 -0.12540509 -0.12192454 0.11758486 0.124499366
-0.048971064 0.11953597 0.05081127 0.050176807 0.09828563 -0.03993813 0.042034768 0.14338428
0.13458276 0.042238537 -0.2002793 0.06627447 -0.10533738 0.051890913 -0.16679472 -0.08880946
0.10933673 -0.03088321 -0.027257325 0.022020184 -0.05353366 0.15401955 0.13081644 0.10085527
-0.066687964 -0.026640031 0.110353336 0.15202565 -0.00965177 0.033239122 -0.01949782 -0.22311455
0.0066159894 0.05864475 0.088215955 0.15655227 0.09227104 0.0095279785 -0.07051364 -0.034786347
-0.058954008 -0.027149133 -0.09375311 0.028267702 0.009583152 0.060420144 0.05281121 -0.076410614
-0.08024987 0.04695372 0.0675099 -0.08930497 0.11924359 0.055144873 -0.18809895 0.020551106
-0.05513779 0.059014462 0.026732724 -0.030925853 0.06933711 0.011643279 0.08442312 0.022592874
0.06871595 0.010366186 -0.07950489 0.08368756 0.114768155 0.13412043 0.10420648 0.082503155
0.05024445 -0.030259673 -0.04607231 -0.06302385 0.104487196 -0.055234995 -0.12854746 0.023157496
0.08935991 0.09141427 0.047766037 0.07859485 -0.0020093818 -0.04533467 0.13741179 -0.07134709
-0.05445928 0.055053327 0.019009406 0.014939235 0.020832542 0.099064015 -0.27959886 -0.052086264
0.037672963 -0.06158511 0.03250114 -0.047724154 -0.0555488 0.015469227 -0.021602342 0.0036059837
0.10655898 -0.0042119054 0.15671258 -0.08651605 -0.079143345 0.07245022 -0.0013702507 -0.07312585
-0.08857711 0.08486698 0.06810857 0.16685523 -0.06707042 -0.129553 -0.08276254 -0.12942398
-0.005339355 0.0081304815 0.087827064 -0.112444274 -0.020954201 0.033666186 0.052614078 -0.07982193
0.055086326 0.007220602 -0.049315523 0.083985396 -0.10146769 -0.048563663 0.101943895 -0.07475994
0.08654725 0.004703066 -0.053516638 0.10743482 0.117251344 0.034192994 0.19833691 -0.0072054844
0.04563259 0.0043727537 0.0059438753 0.0026732348 -0.05049017 0.014801611 -0.0461001 -0.15435053
0.22143419 0.15745142 0.046024974 -0.14708287 -0.07568092 -0.065149136 0.22460072 0.13637368
-0.47642794 -0.55671185 0.068850756 0.052689984 -0.06460075 -0.23619442 -0.046553474 -0.10037739
-0.2260187 -0.10883496 -0.08127323 -0.087286025 0.30248687 0.23481187 0.0017524712 -0.003896654
-0.079805076 -0.20492634 0.07762095 -0.0074780453 0.08060148 0.10935494 0.17142043 -0.075891055
0.037412077 0.11096481 -0.007101451 -0.050015878 0.07789872 0.063557684 -0.0012580492 0.17158884
0.066196665 0.08020862 0.003130838 -0.023033964 -0.07122815 0.08250099 0.05807007 -0.1197991
00000000: 5d58 cfbd c89a b13a a6f4 afbd 3dc8 86bc
00000010: 6a4a 473d 5b21 0a3e df4e ad3d c4e0 79bd
00000020: 14da 50bd 55c8 1c3d 3fa2 8ebd d293 aebc
00000030: f6fe e73d 0bf6 423c d100 323d f956 e6bd
00000040: 4c0c 32bc 61bb b93d a5ca 03bd 177e ee3d
00000050: 3d41 2fbd bd04 423d c79b c83d 3531 3a3d
00000060: ec8b e03d db67 f8bd a847 6cbd 8852 823c
00000070: e89d 9e3d 7c11 25bd f63e d53d 48d2 19bd
00000080: 9306 9e3d 5e1c 903d c27f e63d 20a0 693d
00000090: d349 223e 8d83 d0bb 0122 66bd c1bd 35bc
000000a0: 401e 093e 7f17 b73d 691c d6bc fd2b a13d
000000b0: 2b77 603d 9bc9 d03d 3b23 ff3c 609e 573c
000000c0: 1c7a 51bd 05ba 0e3d 5a04 ef3c 661c 70bd
000000d0: 316a 00be 93b3 f9bd 55d0 f03d 86f9 fe3d
000000e0: e295 48bd 46cf f43d 7a1f 503d 3286 4d3d
000000f0: fa49 c93d 2a96 23bd a62c 2c3d 54d3 123e
00000100: 10d0 093e 5102 2d3d 0416 4dbe e9ba 873d
00000110: 20bb d7bd 918b 543d 3ccc 2abe bce1 b5bd
00000120: efeb df3d c9fe fcbc c14a dfbc ac63 b43c
00000130: 1c46 5bbd 4db7 1d3e bff4 053e 358d ce3d
00000140: b393 88bd 323c dabc ee00 e23d 9dac 1b3e
00000150: 7522 1ebc bf25 083d e4b9 9fbc 2478 64be
00000160: f1ca d83b 7a35 703d 91aa b43d 3d4f 203e
00000170: 99f8 bc3d 3d1b 1c3c 7569 90bd 217c 0ebd
00000180: c279 71bd dc67 debc a101 c0bd ab91 e73c
00000190: a702 1d3c 1d7b 773d 9150 583d 2b7d 9cbd
000001a0: 0b5a a4bd 8b52 403d a142 8a3d 86e5 b6bd
000001b0: fc35 f43d 97df 613d 039d 40be cb5a a83c
000001c0: 2ad8 61bd 26b9 713d 96fe da3c 3758 fdbc
000001d0: 9d00 8e3d 74c3 3e3c 07e6 ac3d b114 b93c
000001e0: f3ba 8c3d efd6 293c 76d3 a2bd 6264 ab3d
000001f0: 910b eb3d de56 093e 356a d53d 6af7 a83d
00000200: 20cd 4d3d 22e3 f7bc 52b6 3cbd a612 81bd
00000210: 62fd d53d 173e 62bd f2a1 03be cab4 bd3c
00000220: 5402 b73d 6837 bb3d 52a6 433d 56f6 a03d
00000230: d5af 03bb d9b0 39bd adb5 0c3e 6c1e 92bd
00000240: b210 5fbd 997f 613d 9db9 9b3c b1c3 743c
00000250: 02a9 aa3c 13e2 ca3d 9527 8fbe 6858 55bd
00000260: f74e 1a3d ab40 7cbd ea1f 053d 677a 43bd
00000270: 2387 63bd a472 7d3c 65f7 b0bc 5e52 6c3b
00000280: 983b da3d 0604 8abb 4379 203e 542f b1bd
00000290: e815 a2bd c860 943d fc99 b3ba 01c3 95bd
000002a0: ea67 b5bd bdce ad3d 827c 8b3d 19dc 2a3e
000002b0: 375c 89bd 8ba9 04be 687f a9bd b887 04be
000002c0: c2f5 aebb b635 053c adde b33d 2f49 e6bd
000002d0: 25a8 abbc 8ee5 093d dc81 573d ae79 a3bd
000002e0: 33a2 613d cd9a ec3b 13ff 49bd 8900 ac3d
000002f0: 4bce cfbd b1ea 46bd f6c7 d03d bd1b 99bd
00000300: af3f b13d 2d1c 9a3b 4334 5bbd c906 dc3d
00000310: 7921 f03d f40d 0c3d d518 4b3e fc1b ecbb
00000320: 3de9 3a3d 5149 8f3b d7c4 c23b 7031 2f3b
00000330: c8ce 4ebd 7582 723c 75d3 3cbd 110e 1ebe
00000340: a5bf 623e f23a 213e af84 3c3d e49c 16be
00000350: 99fe 9abd e96c 85bd bbfd 653e 8ba5 0b3e
00000360: 5dee f3be ab84 0ebf a001 8d3d 74d1 573d
00000370: 664d 84bd f3dc 71be dbae 3ebd a992 cdbd
00000380: 7271 67be dde4 debd 9472 a6bd 04c3 b2bd
00000390: 8fdf 9a3e 8672 703e 2db3 e53a 015f 7fbb
000003a0: d870 a3bd 36d8 51be bcf7 9e3d 640a f5bb
000003b0: 6412 a53d 7cf5 df3d d688 2f3e c56c 9bbd
000003c0: 683d 193d 8541 e33d 4ab3 e8bb 73dd 4cbd
000003d0: 5d89 9f3d 882a 823d 20e5 a4ba fcb4 2f3e
000003e0: 1e92 873d 6b44 a43d bf2e 4d3b b9b1 bcbc
000003f0: 10e0 91bd 47f6 a83d e2da 6d3d 3b59 f5bd

model.convs.1.1.convs.0.conv.bias f4 [32]
0.064105265 0.085254066 0.019001411 -0.31503057 -0.05933004 0.041168593 -0.10717885 0.007691589
-0.03869854 0.072083086 -0.100844115 -0.0049223155 0.13566951 0.11023899 0.08585286 0.06448354
-0.18104762 0.03345329 -0.012781314 0.07096592 0.020808613 -0.02362456 -0.120138854 -0.022110606
0.040902883 0.010435893 0.002661099 0.03794937 -0.0026118532 -0.12860717 0.060807373 0.07312221
00000000: 9f49 833d af99 ae3d d9a8 9b3c b04b a1be
00000010: 0e04 73bd 66a0 283d 9680 dbbd ba09 fc3b
00000020: 5c82 1ebd 4ca0 933d 5c87 cebd 604b a1bb
00000030: f3ec 0a3e fbc4 e13d a0d3 af3d f20f 843d
00000040: 8c64 39be 5106 093d b768 51bc 9556 913d
00000050: d376 aa3c 4b88 c1bc 5c0b f6bd 4d21 b5bc
00000060: c889 273d 4ffb 2a3c d565 2e3b cc70 1b3d
00000070: a02b 2bbb 99b1 03be 2711 793d 19c1 953d

model.convs.1.1.convs.1.conv.weight f4 [32, 32, 1, 2]
0.252284 -0.31606933 0.01438495 -0.17441475 0.15373796 -0.085869044 -0.4027172 0.05002843
0.21292068 0.019920139 -0.06653805 -0.099140294 -0.02727629 -0.03836185 -0.20599616 -0.617957
0.017389355 -0.07304548 0.07859023 -0.0024146673 -0.028421992 -0.070080325 -0.012584068 0.070860505
-0.10036092 0.19249067 -0.010360948 -0.44967112 -0.1782956 -0.22483984 -0.10575853 0.08631524
0.23773047 0.57618713 0.107184336 0.62761563 0.0041669016 -0.39130387 -0.7361318 0.47454023
0.023124717 -0.12667978 0.08003465 0.06567365 0.12556124 -0.10459663 -0.107496925 -0.0060661677
0.16003913 -0.04113899 0.18338925 -0.1422312 0.04824654 0.116274744 -0.09032597 -0.0047488473
0.03497819 -0.07752799 0.19494209 0.0518597 -0.19923085 -0.37528056 -0.16348848 0.32839006
-0.16526064 -0.07697384 -0.13382706 0.13528933 -0.015087851 -0.18650065 0.021264534 -0.04409449
0.4037566 -0.15467364 0.11729102 -0.11822014 0.089769125 -0.026181616 -0.037875477 0.02047587
0.32070997 0.000101164456 0.11522811 0.008116592 0.10097415 0.0942006 0.13682221 0.09545523
-0.3612033 0.24865991 -0.0076956037 0.09525297 0.0918569 -0.017609017 -0.101840205 0.1348587
-0.2684758 -0.13766433 -0.26068643 -0.21064255 -0.09982899 -0.0143869985 -0.8161492 0.27794233
-0.25573844 0.035914335 0.06947082 -0.16196024 -0.0021317701 0.020670641 -0.26895696 0.22262187
-0.040214356 0.13921121 -0.051479068 -0.087904975 -0.1716349 0.060126312 -0.77441686 0.2511373
0.099884056 -0.124835156 -0.09230019 0.11973794 0.607781 -0.7122028 0.8593688 0.36242992
-0.04866355 -0.0374366 -0.037554335 0.17603077 -0.001590179 0.049367953 -0.086996526 -0.23196569
0.13778391 0.23663116 0.12434983 0.14190651 0.120112605 0.12890966 -0.49730512 -0.12818554
0.06707123 0.005444375 0.0045635006 -0.051567156 -0.040645506 -0.014422456 0.041853733 -0.010843042
-0.11734523 0.24769714 -0.2706699 -0.17852801 -0.07786281 0.10385061 -0.11638111 -0.037196048
0.46885026 0.27732268 0.10387525 -0.5797212 -0.036576856 0.18706359 -0.58461434 -0.009793715
0.09065778 0.19835971 0.15223156 0.085695066 -0.06709137 -0.089992665 -0.029760506 0.1406388
0.024521297 0.106319934 0.008189946 0.04141171 -0.11563139 -0.08237457 -0.13559881 0.17092824
0.06453074 -0.09255705 0.029242894 0.11784565 0.034754943 -0.10630391 0.10762504 0.07176046
0.104167044 0.017854638 -0.06496134 -0.18758352 -0.12596071 0.11201002 -0.04431204 0.20188293
-0.58843577 -0.27820915 0.3094729 -0.1161337 0.090031385 0.0408435 0.11432719 0.001951002
-0.6379284 0.08365915 -0.6260341 -0.0004950651 -0.000423316 -0.16504517 0.10295487 -0.007888747
0.021890527 0.016149327 0.123772636 -0.04958143 0.020532945 -0.00028422565 -0.046973273 -0.06813186
0.06275741 -0.09947772 -0.12681018 0.2396633 0.11055483 0.0022996834 0.100147694 -0.07207315
-0.28137895 0.16417027 -0.059217185 -0.7884258 -0.019243043 -0.08170537 -0.07526997 -0.102504194
0.011711436 -0.54292 -0.019951211 0.104195185 -0.10156632 -0.19496183 0.05519681 0.093205534
0.039233312 -0.010520197 0.010055193 0.044444103 -0.7059956 -0.061439887 -0.11486431 0.070395656
00000000: 5e2b 813e d7d3 a1be daae 6b3c c899 32be
00000010: 7c6d 1d3e 1cdc afbd f330 cebe 9cea 4c3d
00000020: e107 5a3e 8f2f a33c 1a45 88bd 110a cbbd
00000030: 8772 dfbc 5121 1dbd a8f0 52be 6e32 1ebf
00000040: 1f74 8e3c de98 95bd eaf3 a03d 653f 1ebb
00000050: 3dd5 e8bc 4686 8fbd 682d 4ebc 501f 913d
00000060: 078a cdbd 461c 453e f7c0 29bc 4b3b e6be
00000070: 1f93 36be 6a3c 66be ee97 d8bd 0bc6 b03d
00000080: 9e6f 733e 0081 133f 7683 db3d 6bab 203f
00000090: 818a 883b fb58 c8be 2273 3cbf f0f6 f23e
000000a0: 0c70 bd3c 58b8 01be 35e9 a33d e87f 863d
000000b0: 2093 003e c236 d6bd 5927 dcbd b4c6 c6bb
000000c0: 4ce1 233e 5c81 28bd 64ca 3b3e 0ea5 11be
000000d0: 2a9e 453d 7421 ee3d d2fc b8bd 389c 9bbb
000000e0: 4a45 0f3d ffc6 9ebd e69e 473e d66a 543d
000000f0: 2c03 4cbe c624 c0be 8669 27be be22 a83e
00000100: 163a 29be 76a4 9dbd f609 09be 4989 0a3e
00000110: 0933 77bc 07fa 3ebe f632 ae3c 6d9c 34bd
00000120: 2fb9 ce3e c462 1ebe 4636 f03d 671d f2bd
00000130: e0d8 b73d d47a d6bc 5123 1bbd 03bd a73c
00000140: 1934 a43e 4128 d438 b7fc eb3d 74fb 043c
00000150: 89cb ce3d 3fec c03d 1f1b 0c3e 087e c33d
00000160: a4ef b8be b4a0 7e3e 672b fcbb fd13 c33d
00000170: 781f bc3d c940 90bc 9991 d0bd 6618 0a3e
00000180: a975 89be e1f7 0cbe b178 85be aeb2 57be
00000190: 2473 ccbd 72b7 6bbc 27ef 50bf 754e 8e3e
000001a0: 26f0 82be e91a 133d b846 8e3d e8d8 25be
000001b0: 2bb5 0bbb 7a55 a93c bab4 89be fdf6 633e
000001c0: cfb7 24bd 628d 0e3e b7db 52bd 8607 b4bd
000001d0: 0fc1 2fbe 0247 763d 2f40 46bf 1195 803e
000001e0: 0390 cc3d 93a9 ffbd e207 bdbd 2a39 f53d
000001f0: 8997 1b3f ec52 36bf 98ff 5b3f 6a90 b93e
00000200: 6e53 47bd 1f57 19bd 93d2 19bd 6941 343e
00000210: 8e6d d0ba 0d36 4a3d 3c2b b2bd 6a88 6dbe
00000220: 3a17 0d3e 704f 723e 20ab fe3d f14f 113e
00000230: 99fd f53d e500 043e c79e febe 1243 03be
00000240: a45c 893d ba66 b23b 6b89 953b 1538 53bd
00000250: e77b 26bd 2a4c 6cbc d26e 2b3d 04a7 31bc
00000260: b252 f0bd 52a4 7d3e 3f95 8abe 0cd0 36be
00000270: 8976 9fbd a1af d43d 3859 eebd e25a 18bd
00000280: 240d f03e 3dfd 8d3e 8cbc d43d 9c68 14bf
00000290: 9dd1 15bd 998d 3f3e 49a9 15bf d175 20bc
000002a0: c9aa b93d cf1e 4b3e 97e2 1b3e e580 af3d
000002b0: 3367 89bd 134e b8bd 4ecc f3bc 9e03 103e
000002c0: e3e0 c83c 44be d93d 202f 063c 539f 293d
000002d0: 26d0 ecbd 00b4 a8bd 6ada 0abe d007 2f3e
000002e0: b128 843d 8d8e bdbd cb8e ef3c 0f59 f13d
000002f0: 335b 0e3d ddb5 d9bd 846a dc3d 26f7 923d
00000300: 8855 d53d e443 923c 730a 85bd e515 40be
00000310: d8fb 00be 8265 e53d 8b80 35bd 66ba 4e3e
00000320: baa3 16bf 6e71 8ebe 3b73 9e3e 81d7 edbd
00000330: 6062 b83d 844b 273d 6024 ea3d c4b8 ff3a
00000340: 474f 23bf 7d55 ab3d c543 20bf 42c7 01ba
00000350: 83f0 ddb9 9a01 29be 01da d23d ce3f 01bc
00000360: c353 b33c 984b 843c 827c fd3d e615 4bbd
00000370: b534 a83c 1f04 95b9 0c67 40bd b788 8bbd
00000380: f586 803d faba cbbd 87da 01be 4c6a 753e
00000390: 926a e23d 49b6 163b 3c1a cd3d 169b 93bd
000003a0: e710 90be 401c 283e b88d 72bd 46d6 49bf
000003b0: 96a3 9dbc 2555 a7bd 2427 9abd b8ed d1bd
000003c0: 53e1 3f3c cefc 0abf b970 a3bc 4964 d53d
000003d0: 0102 d0bd 13a4 47be 0d16 623d 8be2 be3d
000003e0: 1cb3 203d e85c 2cbc 89be 243c 050b 363d
000003f0: 21bc 34bf 64a8 7bbd fb3d ebbd 992b 903d

model.convs.1.1.convs.1.conv.bias f4 [32]
-0.06621841 0.103129506 -0.018223034 -0.22487433 -0.05579654 0.06417005 -0.09201437 -0.1041857
0.036795795 0.0676102 -0.062001973 0.13375506 0.0063972375 0.11828066 -0.011361865 -0.036477085
0.039072856 0.059519876 0.116442665 0.042666078 -0.053743783 -0.097401895 -0.024628712 0.12998426
-0.041008137 0.012772435 0.07430117 -0.04161296 -0.28272262 0.0019071574 -0.058356486 -0.080778085
00000000: 859d 87bd 9035 d33d 7948 95bc 7545 66be
00000010: ea8a 64bd 966b 833d 0872 bcbd 505f d5bd
00000020: 30b7 163d 3777 8a3d c8f5 7dbd 16f7 083e
00000030: eb9f d13b 213d f23d 1e27 3abc ff68 15bd
00000040: dc0a 203d 1dcb 733d 7e79 ee3d a0c2 2e3d
00000050: 7122 5cbd a57a c7bd 27c2 c9bc 981a 053e
00000060: 26f8 27bd 7a43 513c 362b 983d 5a72 2abd
00000070: 05c1 90be 95f9 f93a 3607 6fbd fb6e a5bd

model.convs.2.1.convs.0.conv.weight f4 [32, 32, 1, 2]
-0.033633873 0.0077102403 -0.008373887 0.098822884 -0.097223096 0.08453521 -0.12155179 0.052880086
0.03059804 -0.060561173 0.090864725 -0.07485398 -0.10712532 -0.0260543 -0.019595293 -0.018161433
0.028550817 -0.075994655 -0.10282349 -0.022006348 0.018799279 0.09749669 -0.11646308 -0.117873706
0.12083481 -0.12487358 0.117803514 0.11584962 0.088804476 0.056008663 0.018975787 -0.019155571
0.13692091 0.07172212 0.100524 0.0905174 -0.049077027 -0.058564868 0.048452597 0.08092517
0.107306644 -0.06264973 -0.1272979 -0.0154203605 -0.08240186 0.13004184 -0.061075248 0.10141333
-0.06847451 0.07924212 -0.01578707 -0.11351973 -0.055717092 -0.11517703 0.07372433 -0.09184309
0.08020523 -0.033847444 0.0050529786 0.08655291 0.05371437 0.10975405 0.078938164 -0.08314881
0.06301542 -0.00024364279 -0.09957907 0.06822851 -0.15523337 -0.12552306 -0.020575827 0.09085726
0.064066574 0.039491165 -0.08053673 0.07281207 0.03854894 -0.10854346 -0.018718507 -0.10175351
-0.027634794 -0.089284025 0.14581932 0.08004024 0.1144799 0.008701809 0.07385219 0.0106063755
0.040652443 -0.10343631 0.012316753 -0.019814197 0.06144124 0.0024603957 -0.104176305 -0.09115336
0.10578304 -0.030432135 -0.085057996 0.097960055 -0.086656556 -0.09493365 -0.104623824 0.017947849
0.027287867 0.06672506 0.03593009 0.0564819 -0.09932445 0.039445847 0.020191278 0.0030506693
-0.11876604 -0.06352428 0.021711817 -0.025458515 0.004576705 -0.020789307 0.0036399197 -0.04790993
-0.0055599823 -0.09857586 -0.02451193 0.090716146 -0.1026186 -0.107317284 0.04288707 0.061837964
-0.1758897 -0.27068835 0.22929539 0.13966839 -0.100316554 0.08491801 0.06441561 0.05015188
0.056696635 0.028750716 -0.33550534 -0.045265768 -0.16816638 -0.083319046 0.00395709 0.06776876
0.15914686 0.17492399 -0.21474025 -0.0013821765 -0.05927374 -0.10094067 0.26211226 -0.21787198
0.09946749 0.1490935 -0.14918588 -0.0068599456 -0.26083744 -0.14579825 -0.18975185 -0.07105021
-0.018237518 0.23429169 0.050920736 0.0599734 -0.055435568 -0.030345224 -0.061281085 -0.0152716255
0.068655185 -0.10265089 0.11447098 -0.024777098 0.18424672 0.048005775 -0.26279253 0.03744162
-0.18933265 -0.110487826 0.046007607 -0.1217115 -0.2473824 0.039552853 0.19649614 0.15931763
0.071814165 -0.0153272115 -0.07761551 -0.06334564 0.040255185 0.15859598 0.17746349 -0.008580419
-0.036387276 -0.057070456 0.06628503 0.09349669 0.09992152 -0.05870689 0.06456959 0.0060936655
0.071953215 -0.119592704 0.007101327 0.1142393 0.09759718 0.018747075 -0.08853335 -0.07721382
0.065080665 -0.019108776 0.047205515 -0.010086291 0.04332613 -0.13489443 -0.04522673 -0.038720705
-0.026527513 0.008287244 -0.04416559 -0.047721557 0.1439175 -0.05157437 0.03052472 -0.030134115
0.08320765 0.120915644 -0.119370505 -0.07181857 0.21623139 0.08171921 0.11055883 0.0040383046
0.08452594 -0.023217266 -0.06177498 -0.03947059 0.04014977 -0.07938648 -0.14640121 -0.05848192
-0.094933726 0.07278421 0.017927332 -0.2122123 0.39798477 -0.06908186 -0.014801878 -0.1000299
0.109757975 -0.008815244 0.06202221 0.0033697805 0.0303807 0.046411864 -0.1133216 0.06347154
00000000: acc3 09bd 2fa6 fc3b a132 09bc a763 ca3d
00000010: e71c c7bd cc20 ad3d 25f0 f8bd ca98 583d
00000020: bea8 fa3c fe0e 78bd 4917 ba3d 0b4d 99bd
00000030: 8564 dbbd d46f d5bc 4f86 a0bc 49c7 94bc
00000040: 67e3 e93c 16a3 9bbd 1f95 d2bd a846 b4bc
00000050: f200 9a3c 58ac c73d 3284 eebd c567 f1bd
00000060: 3e78 f73d b8bd ffbd f842 f13d 9142 ed3d
00000070: 1fdf b53d 5769 653d 1c73 9b3c 25ec 9cbc
00000080: ff34 0c3e 0ce3 923d 87df cd3d 3061 b93d
00000090: fe04 49bd b7e1 6fbd 3b76 463d 18bc a53d
000000a0: 96c3 db3d 804e 80bd 615a 02be aea5 7cbc
000000b0: 4ec2 a8bd b029 053e 0a2a 7abd cbb1 cf3d
000000c0: 5d3c 8cbd b149 a23d e353 81bc 087d e8bd
000000d0: 9b37 64bd efe1 ebbd c8fc 963d 3b18 bcbd
000000e0: a442 a43d 9ea3 0abd 7593 a53b a742 b13d
000000f0: 9903 5c3d bbc6 e03d 55aa a13d ec49 aabd
00000100: 3b0e 813d 5d7a 7fb9 1df0 cbbd 64bb 8b3d
00000110: 7ff5 1ebe 1e89 00be a38e a8bc 5f13 ba3d
00000120: 5635 833d 7dc1 213d 71f0 a4bd 7f1e 953d
00000130: 7ee5 1d3d 094c debd 8e57 99bc 2564 d0bd
00000140: 5d62 e2bc 8bda b6bd a951 153e 23ec a33d
00000150: 7074 ea3d 0892 0e3c d13f 973d 5dc6 2d3c
00000160: 2d83 263d 6bd6 d3bd 35cc 493c 6251 a2bc
00000170: cfa9 7b3d 973e 213b 635a d5bd 9dae babd
00000180: c7a4 d83d d04c f9bc e332 aebd 489f c83d
00000190: fe78 b1bd 936c c2bd 0445 d6bd 5e07 933c
000001a0: ce8a df3c 26a7 883d 6e2b 133d 9159 673d
000001b0: 9e6a cbbd f891 213d 2e68 a53c bded 473b
000001c0: 9c3b f3bd 0519 82bd fbdc b13c 608e d0bc
000001d0: 2ff8 953b 564e aabc b88b 6e3b 343d 44bd
000001e0: 8330 b6bb 24e2 c9bd 3ecd c8bc 63c9 b93d
000001f0: b329 d2bd 2ac9 dbbd 5aaa 2f3d ce49 7d3d
00000200: 6e1c 34be aa97 8abe 69cc 6a3e 3b05 0f3e
00000210: c472 cdbd 7ee9 ad3d 55ec 833d 0f6c 4d3d
00000220: bb3a 683d 9f86 eb3c 5bc7 abbe 9968 39bd
00000230: cf33 2cbe 2da3 aabd 7aaa 813b 59ca 8a3d
00000240: 65f7 223e 461f 333e dee4 5bbe 262a b5ba
00000250: 05c9 72bd fbb9 cebd 9433 863e d519 5fbe
00000260: 9db5 cb3d f7ab 183e 2fc4 18be 65c9 e0bb
00000270: 7c8c 85be 234c 15be 4f4e 42be c682 91bd
00000280: d966 95bc 29ea 6f3e 4392 503d aba6 753d
00000290: 6810 63bd 8c96 f8bc e001 7bbd d735 7abc
000002a0: 179b 8c3d a13a d2bd c36f ea3d 57f9 cabc
000002b0: 2cab 3c3e b4a1 443d be8c 86be 625c 193d
000002c0: 6be0 41be 7147 e2bd 7972 3c3d e143 f9bd
000002d0: d051 7dbe 2c02 223d 4936 493e 2924 233e
000002e0: 4e13 933d fc1e 7bbc e1f4 9ebd 5cbb 81bd
000002f0: 9fe2 243d fc66 223e fdb8 353e e394 0cbc
00000300: d30a 15bd b6c2 69bd 72c0 873d 317b bf3d
00000310: a7a3 cc3d a376 70bd 103d 843d 5fad c73b
00000320: 355c 933d 05ed f4bd 40b2 e83b 4bf6 e93d
00000330: 08e1 c73d 7793 993c f950 b5bd 4722 9ebd
00000340: 0349 853d 028a 9cbc 925a 413d f840 25bc
00000350: bd76 313d c421 0abe aa3f 39bd 9a99 1ebd
00000360: 3a50 d9bc 38c7 073c fae6 34bd ae77 43bd
00000370: 1c5f 133e a63f 53bd fa0e fa3c d2db f6bc
00000380: c668 aa3d 9fa2 f73d 8678 f4bd 9d15 93bd
00000390: c36b 5d3e 675c a73d ab6c e23d c153 843b
000003a0: f01b ad3d 2332 bebc c307 7dbd eaab 21bd
000003b0: 1674 243d 6195 a2bd 33ea 15be bd8a 6fbd
000003c0: 9d6c c2bd e30f 953d 57dc 923c 2e4e 59be
000003d0: a9c4 cb3e ca7a 8dbd 9383 72bc 7adc ccbd
000003e0: cac8 e03d d06d 10bc 000b 7e3d 89d7 5c3b
000003f0: f2e0 f83c 5e1a 3e3d 2815 e8bd 5efd 813d

model.convs.2.1.convs.0.conv.bias f4 [32]
0.04170505 -0.029310169 -0.16077234 0.06221717 0.034932133 0.055158526 -0.025159733 -0.07925
0.024324816 0.0134109305 0.03282749 -0.04445454 0.060487516 -0.06484656 0.003689396 0.101312734
-0.04144083 -0.05713984 -0.034392353 0.033675298 0.042820863 0.16468053 -0.17792553 -0.1317041
-0.109841615 -0.12033442 -0.028764343 -0.031509034 0.0057039084 0.055667955 0.13589469 0.0060610785
00000000: ead2 2a3d e11b f0bc 81a1 24be 6ed7 7e3d
00000010: ff14 0f3d e8ed 613d c91b cebc d34d a2bd
00000020: d644 c73c 85b9 5b3c 1e76 063d f715 36bd
00000030: c2c1 773d 46ce 84bd cbc9 713b 0d7d cf3d
00000040: dcbd 29bd 770b 6abd ffde 0cbd 1cef 093d
00000050: ee64 2f3d 03a2 283e 1c32 36be 71dd 06be
00000060: a4f4 e0bd e471 f6bd 33a3 ebbc 9e0f 01bd
00000070: dae7 ba3b 1504 643d fa27 0b3e 039c c63b

model.convs.2.1.convs.1.conv.weight f4 [32, 32, 1, 2]
0.09110625 -0.06384633 -0.0048241983 -0.0013989387 0.042039506 -0.11992518 -0.0018578594 0.1447985
0.09424681 0.110159755 0.12766007 0.13626659 -0.008251452 0.07505106 0.04056048 0.021177974
0.10219648 0.06400171 -0.07709172 -0.111517094 0.039152607 0.100921184 -0.06482031 0.19232447
0.21700658 0.105319075 0.14959542 -0.05648915 -0.08351886 0.08506732 -0.026160002 0.10397348
-0.020574808 0.0720632 -0.05642377 0.114255466 -0.11855423 -0.08838167 -0.05330511 0.095632404
0.12753606 -0.023989035 0.15079014 -0.043910533 -0.11717981 -0.11161226 -0.05668808 -0.025888601
-0.15764003 0.04707002 -0.14485519 0.10422407 -0.01726534 0.046042386 -0.08853045 0.062086448
-0.0075291763 0.00058200053 -0.0025505016 0.04934791 -0.035909824 0.106337555 -0.05939298 -0.15934554
-0.06696549 -0.1283692 -0.26613736 -0.0009549598 0.17384249 0.0035543276 0.09236306 -0.04095222
0.000121193145 -0.00049767504 -0.101858474 0.058120165 -0.076327495 0.0060253977 -0.007135464 -0.05094635
-0.18846214 0.15358472 -0.14931944 0.102742925 0.08101718 0.013716458 0.06731752 0.07149742
0.18876731 0.13329488 0.082970604 -0.00886475 0.0947181 0.0015670747 0.12158647 -0.11967356
0.07263912 -0.16663012 0.17588596 0.0824367 0.3421219 0.027794657 -0.07635234 -0.057472717
-0.22500405 -0.06516159 0.10708177 0.1213738 -0.020381954 0.14613312 0.092993505 0.0071822167
0.29724348 0.16303521 0.08312987 0.21935286 -0.029138632 0.016856758 -0.041083775 -0.077099755
0.09904393 -0.07344968 0.03374045 0.002243043 -0.04223516 -0.024350164 0.055817276 0.1306805
-0.28707328 -0.017910888 0.0890686 0.12899393 -0.25658977 0.27547002 0.15029496 -0.06661279
0.050883282 0.03344204 0.06560543 -0.007771123 0.0542163 -0.20066093 -0.13631059 0.09561803
0.035536017 0.046402846 0.06584406 0.03477597 -0.100335054 0.0815078 -0.16386999 0.16997989
0.005335368 0.24525514 0.061333116 0.023520106 0.09879855 -0.046298776 -0.08799914 0.14889206
-0.021761639 0.15056421 -1.0173533 -0.12091024 0.2612579 0.54793864 0.09737582 -0.051228497
-0.013625008 0.03495581 0.19670467 -0.6376988 0.21232872 -0.01869135 0.2263263 0.04135525
-0.62434435 0.06572682 -0.34641305 0.0915609 -0.0013681262 -0.29714748 0.13311009 -0.14376704
0.07552851 -0.05951498 -0.021501182 0.10296106 0.12411184 -0.11645631 -0.23758148 -0.10375865
0.10031084 0.03839447 0.05667261 -0.05606392 0.03488935 0.14733516 -0.0205003 -0.10994189
0.06692041 0.14629684 0.012395049 0.09144852 0.12915546 -0.112489045 -0.14289421 0.03652305
-0.073755026 -0.021498248 0.04880186 0.086721726 0.13677718 -0.018540606 0.093108565 -0.40906394
-0.09301127 -0.03365849 -0.06661937 0.12399291 0.019617282 -0.026168235 -0.10958733 0.021504873
-0.056231428 0.12556593 -0.17254943 0.1185952 -0.19872646 0.12389094 0.12101907 0.114219725
0.02134743 -0.03256807 -0.036555536 -0.07662815 0.25284445 -0.030470306 -0.061343934 -0.47186404
-0.026033973 -0.20584145 0.070757546 -0.02139213 -0.0044799102 0.0444315 -0.04120407 -0.058435343
9.146568e-06 0.0023728472 -0.03625124 0.14187478 0.1510101 -0.062751465 -0.10138609 0.0324011
00000000: ea95 ba3d ddc1 82bd 4f14 9ebb 985c b7ba
00000010: 9e31 2c3d 559b f5bd 6b83 f3ba 0f46 143e
00000020: 7904 c13d 709b e13d 52b9 023e 7889 0b3e
00000030: 1931 07bc 5fb4 993d bf22 263d 6e7d ad3c
00000040: 634c d13d 5413 833d 44e2 9dbd 1363 e4bd
00000050: 7c5e 203d c4af ce3d 83c0 84bd b5f0 443e
00000060: f936 5e3e 87b1 d73d 8b2f 193e 2b61 67bd
00000070: f00b abbd c637 ae3d 804d d6bc 0cf0 d43d
00000080: 808c a8bc df95 933d 9c1c 67bd c5fe e93d
00000090: 8fcc f2bd 7301 b5bd 7656 5abd ecda c33d
000000a0: d098 023e a784 c4bc bb68 1a3e 88db 33bd
000000b0: f8fb efbd f894 e4bd c331 68bd 5514 d4bc
000000c0: 636c 21be 7ecc 403d eb54 14be 6e73 d53d
000000d0: 0b70 8dbc f196 3c3d 744f b5bd 5c4e 7e3d
000000e0: 4fb7 f6bb 6591 183a 5126 27bb 0921 4a3d
000000f0: 2e16 13bd 81c7 d93d 0e46 73bd 7a2b 23be
00000100: 3425 89bd 3773 03be 2843 88be 4456 7aba
00000110: c403 323e b9ef 683b d828 bd3d 84bd 27bd
00000120: 1329 fe38 6876 02ba 2d9b d0bd 690f 6e3d
00000130: 9751 9cbd b370 c53b 9cd0 e9bb 1fad 50bd
00000140: 38fc 40be 5045 1d3e 32e7 18be e26a d23d
00000150: 56ec a53d ffba 603c c5dd 893d 3d6d 923d
00000160: 384c 413e 747e 083e 7eec a93d 753d 11bc
00000170: 90fb c13d 4d66 cd3a 5402 f93d 6917 f5bd
00000180: d2c3 943d 16a1 2abe 731b 343e 93d4 a83d
00000190: 9a2a af3e 9fb1 e33c 9e5e 9cbd 8368 6bbd
000001a0: 7667 66be 7173 85bd b04d db3d d492 f83d
000001b0: 0ef8 a6bc eca3 153e 6173 be3d cd58 eb3b
000001c0: 4c30 983e b4f2 263e fe3f aa3d 099e 603e
000001d0: 24b4 eebc 2f17 8a3c 7647 28bd 7ae6 9dbd
000001e0: 8bd7 ca3d c96c 96bd 6d33 0a3d 0400 133b
000001f0: c6fe 2cbd ff79 c7bc a8a0 643d 1cd1 053e
00000200: 45fb 92be dbb9 92bc 9969 b63d fc16 043e
00000210: bc5f 83be 680a 8d3e ece6 193e 496c 88bd
00000220: fd6a 503d 85fa 083d 245c 863d e8a4 febb
00000230: e911 5e3d 0f7a 4dbe 0195 0bbe 63d3 c33d
00000240: 378e 113d e910 3e3d 40d9 863d 3f71 0e3d
00000250: 777c cdbd 90ed a63d 89cd 27be 350f 2e3e
00000260: 50d4 ae3b 2a24 7b3e 6f38 7b3d 3dad c03c
00000270: e556 ca3d c9a3 3dbd e538 b4bd 2977 183e
00000280: 7745 b2bc 812d 1a3e a238 82bf ca9f f7bd
00000290: 98c3 853e b545 0c3f f96c c73d f9d4 51bd
000002a0: 6d3b 5fbc d32d 0f3d f36c 493e 3b40 23bf
000002b0: b36c 593e 9a1e 99bc 15c2 673e 1f64 293d
000002c0: 08d5 1fbf c89b 863d 0d5d b1be 4884 bb3d
000002d0: b352 b3ba b723 98be 034e 083e ab37 13be
000002e0: b1ae 9a3d fbc5 73bd 3f23 b0bc 40dd d23d
000002f0: 592e fe3d a580 eebd 8f48 73be 6a7f d4bd
00000300: c56f cd3d 8543 1d3d 8a21 683d 48a3 65bd
00000310: 23e8 0e3d 07df 163e 3ff0 a7bc 3729 e1bd
00000320: 910d 893d d7ce 153e 9b14 4b3c 5d49 bb3d
00000330: 5441 043e a860 e6bd dc52 12be 3299 153d
00000340: e00c 97bd 181d b0bc 76e4 473d 299b b13d
00000350: 510f 0c3e 78e2 97bc b4af be3d d470 d1be
00000360: b17c bebd 7cdd 09bd bc6f 88bd ffef fd3d
00000370: 6cb4 a03c c45e d6bc 526f e0bd fd2a b03c
00000380: ed52 66bd 5b94 003e ccb0 30be 0ae2 f23d
00000390: f37e 4bbe 88ba fd3d d9d8 f73d 08ec e93d
000003a0: cee0 ae3c 1966 05bd 42bb 15bd 38ef 9cbd
000003b0: d474 813e dd9c f9bc c743 7bbd 2a98 f1be
000003c0: 3345 d5bc 1ac8 52be 55e9 903d 8c3e afbc
000003d0: 36cc 92bb cefd 353d 99c5 28bd e659 6fbd
000003e0: 3674 1937 c581 1b3b 2e7c 14bd 9f47 113e
000003f0: 64a2 1a3e d783 80bd 83a3 cfbd 04b7 043d

model.convs.2.1.convs.1.conv.bias f4 [32]
-0.087016895 -0.08774084 -0.022260008 0.026894756 -0.025546711 -0.046991035 0.09653709 -0.11260227
0.03904933 0.07128436 -0.04917226 -0.05914636 -0.024035761 0.058820248 -0.09673288 0.0021832646
-0.005047851 0.013856046 -0.092824504 0.08051664 -0.110133365 -0.05404607 -0.1252486 0.01985933
0.08478587 -0.1199689 0.05709968 -0.08829583 0.002686464 -0.08637631 -0.001179478 -0.07242102
00000000: ea35 b2bd 78b1 b3bd 9f5a b6bc 6452 dc3c
00000010: 5647 d1bc ac79 40bd 3db5 c53d 059c e6bd
00000020: 31f2 1f3d 89fd 913d da68 49bd 7443 72bd
00000030: a5e6 c4bc 80ed 703d e31b c6bd 1a15 0f3b
00000040: 7168 a5bb 7804 633c c61a bebd e8e5 a43d
00000050: 9a8d e1bd 695f 5dbd 2b41 00be 09b0 a23c
00000060: 37a4 ad3d 41b2 f5bd 5be1 693d 72d4 b4bd
00000070: 630f 303b 10e6 b0bd b798 9aba 7951 94bd

model.convs.3.1.convs.0.conv.weight f4 [32, 32, 1, 2]
-0.07127512 -0.09506331 0.010663365 0.047591064 0.020761741 -0.02081031 0.08370487 0.04398388
0.077664636 -0.0015495177 0.061679713 0.002499283 -0.012361918 -0.13089627 -0.019184547 0.08017522
-0.02965733 0.07994695 0.07719591 -0.065762416 0.043591324 -0.14915505 0.012783213 -0.12186337
0.016529055 -0.12305336 -0.13686807 0.08004005 0.10442289 -0.08142563 -0.099335276 -0.08548393
-0.054280546 0.09092097 -0.10714888 0.002609045 -0.0559971 -0.097677186 0.12158575 0.03775994
0.04439039 -0.048498575 0.13540946 -0.031739715 -0.044088013 0.070748456 0.005765269 -0.07668163
0.10575085 -0.038774014 -0.0124759255 -0.05032362 -0.06621083 0.01772186 0.12271502 0.13198714
0.015952306 -0.023214677 0.05377878 0.048548188 0.0013824671 0.06603271 -0.14011453 -0.12523474
-0.081347026 0.10034253 -0.026066242 0.044833653 0.08095934 0.026186477 0.08689364 -0.03784125
0.07078367 -0.0062030526 0.01612184 -0.05694437 0.09769391 -0.10035269 0.08733041 -0.16828851
0.12878828 0.11507732 -0.015754553 -0.09881112 0.10087469 0.04424883 -0.06618353 0.12922795
-0.16532029 -0.3131248 0.03952313 -0.0039332546 0.03487913 0.034337144 0.026852703 -0.11003715
-0.2564499 -0.091455966 0.1294944 -0.067445286 -0.086335145 -0.0077256127 0.09885466 -0.11453763
-0.042904764 0.10778609 -0.018855616 0.24315792 -0.007624662 -0.09711834 -0.0910946 -0.043707956
0.10194061 0.00018409555 0.0929539 -0.04905176 -0.017555332 0.041377738 0.083889164 0.112834096
0.124068126 -0.08231241 -0.031375352 -0.056765534 0.12572557 0.041128013 -0.08967063 -0.061479878
0.12155861 0.11133428 -0.043382227 -0.08995011 -0.09387399 -0.11886976 -0.07080652 0.05672854
0.05724314 -0.0019117603 0.07955104 0.045671202 0.05459965 -0.09144579 0.08776234 -0.023257447
-0.007161358 -0.026576633 0.11390876 -0.023958975 0.03999207 0.0059262784 -0.06208206 0.045032054
0.11491554 -0.10405558 -0.09406423 0.06782955 -0.050397974 -0.010738587 -0.007867871 0.047781684
0.04386103 -0.10622991 -0.07332634 0.1248256 -0.08208941 0.027944837 0.08414238 0.031920265
0.011567259 0.03482848 -0.06908286 -0.08972752 0.13732795 0.0056443796 0.032345086 -0.14749852
0.09438774 -0.015224786 -0.041345302 -0.0059773442 0.012222247 0.11954738 -0.08599432 0.044596143
0.055208176 0.024026252 0.07137199 -0.07658875 -0.043157127 0.08320783 0.074505225 0.16967559
-0.0038929987 0.07160531 -0.014640792 0.005283149 7.025244e-05 0.014466794 -0.07611659 -0.05190125
-0.029359002 0.039389167 0.0801001 -0.014359189 0.0762825 -0.08267051 -0.019176798 0.120112136
-0.07152728 0.07278707 0.044093456 -0.08630115 0.030645719 0.0072819144 0.08521168 -0.014914238
-0.07158855 -0.051241696 0.025357507 0.09176766 -0.114488974 0.043144837 -0.085700735 -0.098294474
-0.13501984 0.06012811 0.119241804 0.031720668 0.06880241 -0.007061264 0.1339664 0.024004446
0.040010635 0.0051478036 -0.023989126 -0.022071168 -0.05826041 -0.034336664 0.06966581 -0.034907065
0.05577769 0.0708043 -0.07190553 0.023724098 -0.098566204 0.11883332 -0.10927565 -0.07032729
-0.07956674 -0.018720495 -0.041297212 -0.08236019 -0.015484311 -0.031066455 0.089736305 -0.13923204
00000000: b1f8 91bd 8db0 c2bd 65b5 2e3c d9ee 423d
00000010: 8714 aa3c 627a aabc 756d ab3d 7128 343d
00000020: a30e 9f3d 3019 cbba dea3 7c3d 03cb 233b
00000030: a489 4abc ac09 06be e928 9dbc e832 a43d
00000040: eef3 f2bc 3abb a33d e418 9e3d 72ae 86bd
00000050: d18c 323d 1abc 18be ae70 513c 8193 f9bd
00000060: f167 873c 6603 fcbd 2527 0cbe 0aec a33d
00000070: abdb d53d 7bc2 a6bd 4b70 cbbd 3312 afbd
00000080: 4755 5ebd c634 ba3d df70 dbbd 83fc 2a3b
00000090: 375d 65bd fa0a c8bd f301 f93d 2baa 1a3d
000000a0: b3d2 353d 71a6 46bd c7a8 0a3e 8101 02bd
000000b0: a295 34bd 91e4 903d 95ea bc3b 420b 9dbd
000000c0: e793 d83d 80d1 1ebd d367 4cbc 2420 4ebd
000000d0: 8b99 87bd 6f2d 913c 0352 fb3d a327 073e
000000e0: 69ae 823c b52c bebc 2347 5c3d 77da 463d
000000f0: e633 b53a 283c 873d 2f7a 0fbe 893d 00be
00000100: 4599 a6bd 6280 cd3d df88 d5bc 7ea3 373d
00000110: 03ce a53d 0685 d63c 4bf5 b13d 6dff 1abd
00000120: 07f7 903d fa42 cbbb f311 843c 803e 69bd
00000130: bf13 c83d b685 cdbd 49da b23d d353 2cbe
00000140: 13e1 033e a8ad eb3d b10f 81bc 7c5d cabd
00000150: 6497 ce3d 433e 353d 3b8b 87bd 5554 043e
00000160: b949 29be e551 a0be 01e3 213d 88e2 80bb
00000170: 6bdd 0e3d 1ba5 0c3d 33fa db3c 285b e1bd
00000180: 674d 83be 444d bbbd 2e9a 043e c120 8abd
00000190: 7bd0 b0bd 2327 fdbb 5074 ca3d b492 eabd
000001a0: e8bc 2fbd f4be dc3d 1877 9abc 64fe 783e
000001b0: 4dd8 f9bb fbe5 c6bd ce8f babd 1d07 33bd
000001c0: 3dc6 d03d c609 4139 9d5e be3d 80ea 48bd
000001d0: 33d0 8fbc b47b 293d 15ce ab3d 9015 e73d
000001e0: 6e17 fe3d 6993 a8bd 7183 00bd fa82 68bd
000001f0: 34be 003e d975 283d 3ca5 b7bd 53d2 7bbd
00000200: b8f3 f83d 3a03 e43d 90b1 31bd c337 b8bd
00000210: 0241 c0bd fd71 f3bd 0203 91bd 305c 683d
00000220: c877 6a3d 0894 faba a8eb a23d ba11 3b3d
00000230: e2a3 5f3d ee47 bbbd bebc b33d 6786 bebc
00000240: d3a9 eabb 3db7 d9bc ff48 e93d 9d45 c4bc
00000250: bace 233d 3a31 c23b c249 7ebd 8873 383d
00000260: d758 eb3d 181b d5bd bfa4 c0bd 38ea 8a3d
00000270: 1b6e 4ebd e6f0 2fbc 3ee8 00bc bab6 433d
00000280: a0a7 333d 118f d9bd 1f2c 96bd 90a4 ff3d
00000290: 7e1e a8bd 92ec e43c d752 ac3d d3be 023d
000002a0: 9a84 3d3c 4fa8 0e3d 517b 8dbd 10c3 b7bd
000002b0: b39f 0c3e 7df4 b83b 487c 043d da09 17be
000002c0: 5c4e c13d 6171 79bc b159 29bd 99dd c3bb
000002d0: d23f 483c 42d5 f43d ca1d b0bd 72aa 363d
000002e0: f821 623d b4d2 c43c 7a2b 923d 90da 9cbd
000002f0: 87c5 30bd de68 aa3d 3296 983d 70bf 2d3e
00000300: ae21 7fbb cea5 923d efdf 6fbc 441e ad3b
00000310: 7e54 9338 2206 6d3c 04e3 9bbd 6896 54bd
00000320: 4a82 f0bc 8956 213d 850b a43d ce42 6bbc
00000330: 003a 9c3d 284f a9bd a918 9dbc 5afd f53d
00000340: e57c 92bd 6311 953d 579b 343d a8be b0bd
00000350: bb0c fb3c 209d ee3b 7683 ae3d d95a 74bc
00000360: 059d 92bd d0e2 51bd 8cba cf3c aff0 bb3d
00000370: 3279 eabd a4b8 303d de83 afbd 9d4e c9bd
00000380: a442 0abe e548 763d 0c35 f43d 88ed 013d
00000390: 47e8 8c3d 2d62 e7bb 7d2e 093e f9a4 c43c
000003a0: 31e2 233d e8ae a83b d884 c4bc 98ce b4bc
000003b0: 78a2 6ebd 9aa4 0cbd f3ac 8e3d b6fa 0ebd
000003c0: 2677 643d d801 913d 3543 93bd 0a59 c23c
000003d0: 14dd c9bd e25e f33d e9cb dfbd c107 90bd
000003e0: e3f3 a2bd b95b 99bc 4427 29bd 76ac a8bd
000003f0: e8b1 7dbc 147f febc abc7 b73d d892 0ebe
