code_/logs/epoch=0-step=37.ckpt (torch, 245240 bytes, 63 tensors)

model.input_encoder.weight f4 [32, 1]
00000000: 6825 c2be 5107 0d3f 14e2 463f b071 0d3f
00000010: 2b81 cbbe 0553 ff3e f7e9 dd3b e4e8 713e
00000020: 9a24 cabe 41d9 743f a47b 21bf 3674 32bf
00000030: 5c36 02bf 9b9a 7fbf 5c9f c0be 3b6f 7abf
00000040: a757 193f 816e 653f ddc1 423f 16c5 c5bd
00000050: 426f 583e 6c1f 123e e46a 7d3e 1990 51bf
00000060: 05e0 d13e 7b71 813f d1ec 12be 18d9 7a3e
00000070: 1fe0 50bf 11c0 213e f817 653f dc9e 0d3f
-0.37919164 0.5508929 0.7768872 0.552516 -0.39746985 0.49868026 0.0067722755 0.23623997
-0.3948105 0.95644003 -0.63079286 -0.69708574 -0.50864196 -0.99845284 -0.37621582 -0.97825974
0.5989937 0.8962174 0.7607706 -0.09656732 0.21136191 0.14269799 0.24747807 -0.818605
0.40991226 1.0112756 -0.14348151 0.24496877 -0.8159198 0.15795924 0.894897 0.55320525

model.input_encoder.bias f4 [32]
00000000: f110 b43e 23b0 1fbf a9ec 623e 0ab8 59be
00000010: df61 77bf 13b9 163f c769 063f db5c a6be
00000020: 0672 5cbf 5049 49bf 2ecc 7b3f 63cd 793e
00000030: 6a71 49bf e48e 793e 6d60 19bf 5cfe 0abf
00000040: 1e07 c1be 5f9c 333f e83a 7bbf 9b07 23bf
00000050: 7e73 0dbf b5ad 0cbf 4379 753f dd5a 693f
00000060: e5cd 55bf 54ce 18bf 0211 acbe 0691 2bbf
00000070: 5a5a 333f 69b2 e0be 7e2b 3d3f c488 e93e
0.35169175 -0.6237814 0.22160591 -0.21261612 -0.96633714 0.5887615 0.52505153 -0.32492718
-0.86111486 -0.7862749 0.9835843 0.24394755 -0.7868868 0.24370915 -0.5991276 -0.5429437
-0.37700742 0.7016048 -0.9813676 -0.6368348 -0.5525435 -0.54952556 0.95888156 0.9115427
-0.83517295 -0.5968983 -0.33606726 -0.67018163 0.7005974 -0.43886116 0.7389449 0.45612156

model.convs.0.1.convs.0.conv.weight f4 [32, 32, 1, 2]
00000000: ef2e e8bb a4d6 f93d 47d3 42bd 6083 fa3d
00000010: 8934 3c3d 7d7a 5e3d 649e de3d 958a 933d
00000020: b206 b3bd bd23 f43d a3a2 243d 9ebe 123d
00000030: 9826 9f3d a41f d33c e61b 1a3d 423c 9bbd
00000040: 7b87 fdbd e7e0 adbc 760c bfbd 3823 203d
00000050: ae40 573c 261a af3d 2c92 633d 65bf 70bc
00000060: 2d5f d83d 9f06 833d 62a8 673d 057e 51bd
00000070: 6ac7 67bd 8020 963d a5c5 cbbd 7545 2b3d
00000080: d272 c7bd 59b5 f93c 0840 afbb 61e4 f53d
00000090: 5fd2 c9bd 21db 98bd 5d91 a43c 4e68 f5bd
000000a0: eae2 153d 20de e43d 4293 edbd a1a8 9e3c
000000b0: 4096 bebd 98ed f73d 4315 febc a771 9bbd
000000c0: 3c73 f93c ca48 df3d f30a 9fbd c9fe e1bd
000000d0: 5fca e1bd aeec b2bd aadc 56bd 1a5a a23d
000000e0: f936 923d a3b4 a0bd 9a18 f53c 10c3 b13d
000000f0: 3ea1 823d 0fed 063e b4e6 b93d 7c02 c2bc
00000100: ff20 d23d 794e 9dbd d55e 39bd 7e46 b03d
00000110: b46b 753d 9c8e c0bd 8468 f73c 0f4e b2bd
00000120: 083b e1bd 4bee 973d 3cfc a23d eb0d 40bd
00000130: f2b0 58bd cc78 533d 3583 833d 39c0 73bc
00000140: 9114 90bd 0288 ac3d c172 b13d 8028 91bd
00000150: 2119 0c3d 787e ca3d 1f03 f83d 4443 a33c
00000160: cea2 823d eff8 aabd 3ebc 993d 2211 f33d
00000170: b394 fb3d 9d90 a73d 1335 d7bd b37d cabc
00000180: 6bd1 063c e81c 0ebe 7c67 c83d 7625 54bc
00000190: 2ff5 9e3d 29f3 eb3b 1650 18bd 57e3 b9bc
000001a0: c4eb a2bd 025f 82bd 2710 51bd 0808 9dbd
000001b0: db89 cbbd e821 bc3c 1dca d8bd 0966 a4bc
000001c0: 7997 d2bd 8aab babd 1568 e43c 3d94 08be
000001d0: 0259 e83d 8c56 83bd 54a8 0e3d 96ea 203d
000001e0: 50e6 e7bd 15e5 d7bb a8b4 b9bd e7e4 01be
000001f0: 9566 86bd 930d 87bc 0f00 4e3d e5b8 aa3d
00000200: 5fea 88bc 2f5c bebd cac4 74bc 5a79 053e
00000210: 7c25 173d 363e d23d c1de 653c ecce cebd
00000220: 1b8f e33d 5dfc 883c a860 acbd ce16 9b3d
00000230: d3fe 4abc a46f 363d cfd2 86bc b8d7 d93d
00000240: 99b1 86bd ccba 943c 5aed 113d 7eff fa3d
00000250: dbc6 b03d 17e0 b23d 1bb8 b73d 1d98 07be
00000260: 55ab 8abc 5cb6 42bd d438 02be 4a9e 9a3c
00000270: 74b5 8e3d 556c 3a3d a208 49bd 62b9 fb3c
00000280: 3aa1 e23d b6d9 f63d 7205 033e 8513 95bd
00000290: 5ea9 5abd 2515 dc3d 4956 423b c9d6 65bd
000002a0: bd80 c8bc e25a 873b 1d73 a4bc 251a e93d
000002b0: 0de6 093e fc60 0e3d 275c 7b3c 0777 05bd
000002c0: af59 10bd 1445 c63c e2dd 1d3d 0075 e93d
000002d0: 031d 94bd 6128 edbd 4016 893d b013 113e
000002e0: 04d3 06bd 35de 613d 1191 01bd 092e d93d
000002f0: c87b 7cbd e7b2 aabd cd29 52bd db53 b0bd
00000300: 9cf9 663c ac64 cf3c e144 173d 9905 c73d
00000310: 2898 173b 8578 bf3a a538 96bd b2b6 c2bd
00000320: 6738 1c3d 5520 4abd 3a4f d5bd 4ca4 65bd
00000330: b8a5 43bd 5ce3 423d dc59 e4bd 1c42 acbd
00000340: a73b acbd 18fc 61bd 62f3 70bd b70a debd
00000350: ed7b a93c 6ab2 2d3d f621 523d 9699 cd3c
00000360: 8c3d ddbd c051 cdbd 4f4d 8bbc 6935 953d
00000370: 48b8 bbbd ce25 763c 1899 303d 7413 d6bb
00000380: 7209 ca3c eff9 09bc 049c 843c 1476 10bd
00000390: 4383 92bd 6ee2 873d c9ef 543c 50ce 28bd
000003a0: f243 e13c 4eb9 93bd 6232 453c 8678 833d
000003b0: 9bd5 ed3d 946a cebb d5d3 e7bd 6609 bf3d
000003c0: 9d3c d8bc c048 73bd 16e7 d03d c725 72bd
000003d0: 28ec c2bc 0410 a33d d8a6 e7bd 6c41 9bbd
000003e0: d6ca bebc 85b1 1d3b c1cf 273d e0e7 9b3d
000003f0: ffe4 303d 0576 de3d 74b8 85bc e127 a7bd
-0.007085673 0.121991426 -0.04756477 0.12232089 0.04594854 0.054316033 0.10870054 0.07204167
-0.087415114 0.11920879 0.040194165 0.035826318 0.07771033 0.025771923 0.037624262 -0.07579853
-0.123793565 -0.021225406 -0.093285486 0.039096087 0.013137979 0.08549909 0.055559322 -0.0146940695
0.10565028 0.06397747 0.056557067 -0.051145572 -0.05658666 0.07330418 -0.09949807 0.041814286
-0.09738697 0.030481981 -0.0053482093 0.120064504 -0.09854578 -0.074636705 0.020088846 -0.11982785
0.036593355 0.111751795 -0.11600353 0.019367518 -0.09306002 0.12105864 -0.031015998 -0.07590037
0.030450456 0.10902555 -0.0776576 -0.110349245 -0.11024927 -0.08736549 -0.052456535 0.07927342
0.071393915 -0.07846954 0.029918958 0.08679783 0.06378411 0.13176368 0.09077206 -0.023682825
0.102602 -0.07680983 -0.045256454 0.08607195 0.059917167 -0.094022006 0.030201204 -0.08706295
-0.109975874 0.07418498 0.07958266 -0.046888273 -0.052903123 0.051628873 0.0642151 -0.014877372
-0.07035173 0.08424379 0.08664466 -0.07087803 0.034203652 0.09887403 0.1210997 0.019929536
0.06378709 -0.083482616 0.075066075 0.11868502 0.122842215 0.0818188 -0.1050817 -0.024718141
0.00822864 -0.13878214 0.09785363 -0.0129483845 0.07761609 0.007200618 -0.03718575 -0.022691412
-0.07955125 -0.063657776 -0.051040795 -0.076675475 -0.09938403 0.022965387 -0.10585425 -0.020068185
-0.10282797 -0.0911475 0.027881661 -0.13337798 0.11345102 -0.06412992 0.0348285 0.03928622
-0.113232255 -0.006588588 -0.090676606 -0.12684976 -0.06562535 -0.016485965 0.050293025 0.08336047
-0.01671332 -0.092949264 -0.014939496 0.13034573 0.036900982 0.10265772 0.014030159 -0.10098061
0.111112796 0.016721899 -0.08416873 0.07572709 -0.012389856 0.044540063 -0.016457943 0.10636848
-0.06576843 0.018155478 0.035626747 0.122557625 0.08631679 0.08734148 0.08970662 -0.1324162
-0.0169274 -0.047537193 -0.1271699 0.018874306 0.06968203 0.04551347 -0.0490805 0.030728046
0.11065908 0.12053244 0.12795046 -0.07279114 -0.053384177 0.107462205 0.002965348 -0.05611304
-0.02447545 0.004130707 -0.020074422 0.1138194 0.13466664 0.03476046 0.015341795 -0.032584216
-0.03524178 0.02420286 0.038541682 0.11399269 -0.07232096 -0.11579967 0.06693697 0.14167666
-0.032916084 0.055143554 -0.031632487 0.10604484 -0.061641484 -0.08334904 -0.051309396 -0.08609744
0.014097597 0.025316559 0.036930922 0.097178645 0.0023131464 0.0014608061 -0.07335023 -0.095075026
0.038139727 -0.04934724 -0.10415502 -0.05606489 -0.047765464 0.047580108 -0.11149952 -0.08411047
-0.08409815 -0.055172056 -0.058825858 -0.108418874 0.020688975 0.042406477 0.05130192 0.02509765
-0.10802755 -0.10025358 -0.017004637 0.07285578 -0.09166008 0.015023662 0.04311475 -0.0065330807
0.024662707 -0.008421405 0.016187675 -0.035268858 -0.071539424 0.06634985 0.012996622 -0.04121238
0.02749822 -0.072130784 0.012035938 0.064194724 0.11613008 -0.006299326 -0.11319701 0.093279645
-0.02639609 -0.05939555 0.10200326 -0.05911806 -0.023794249 0.07962039 -0.1131112 -0.075808376
-0.02329008 0.0024062109 0.040969614 0.07612586 0.043187138 0.10862354 -0.016323306 -0.08161903

model.convs.0.1.convs.0.conv.bias f4 [32]
00000000: af05 cbbc d45a cb3d 01d2 40bc f350 d3bc
00000010: e9c5 ac3b cd99 a83d 46e2 fb3d 24cd 243d
00000020: ad0f 49bc 1045 ee3d 6dfa a8bd 2a73 c7bc
00000030: ed67 fabb e3a0 7ebd 1991 70bc 9b34 ccbc
00000040: 6bfd 3e3c 69b2 bd3d 78fc bdbd f68f 403d
00000050: da0f 8c3b 4264 c0bd 6a18 12bd 2be3 d23d
00000060: fb67 2abd b23c 67bd 6031 163c bd36 5abc
00000070: a151 973d 4456 c7bc f6b5 b9b9 a849 ba3d
-0.024782984 0.099294335 -0.011768819 -0.025795436 0.005272616 0.0823246 0.122990176 0.0402347
-0.012271804 0.116342664 -0.0825089 -0.024346907 -0.0076417834 -0.062165152 -0.0146830315 -0.024927428
0.011657099 0.09262545 -0.0927667 0.04701229 0.0042743506 -0.09394123 -0.035667814 0.10297235
-0.04160307 -0.056454368 0.009167045 -0.013318715 0.07388616 -0.024333127 -0.0003542152 0.0909608

model.convs.0.1.convs.1.conv.weight f4 [32, 32, 1, 2]
00000000: 5f2b bf3c 2107 013d 0dc3 e0bd 76a8 a3bd
00000010: 8024 803d 2a6a c3bd 869c 06be 1514 e53c
00000020: ff21 4f3d 6993 993d 0138 7e3d a429 5ebd
00000030: c23b 26bd 1173 c63d 96fd 923d 9bbb c2bd
00000040: 409d 9dbd 8a55 e23d 5bc2 993c a3f8 5ebc
00000050: e691 d4bd 5dab 043d 1d2c 823d d603 efbd
00000060: 6b58 df3d c25f 7dbd 40b4 a43d b617 5fbd
00000070: 87e6 b33d 5082 b8bd 3f4a d83b 8d5b 9ebd
00000080: 3b1d 313c d038 183c d828 f9bd 9a86 893d
00000090: be4b e8bd 2532 0e3d bb59 dabc 12f5 afbd
000000a0: d790 453d 6fbb 04be bc97 43bd 4f68 83bc
000000b0: f887 913c 3592 46bd 6f35 9bbd c879 0fbd
000000c0: 0a3b b1bd 951f c73d 9ed0 ed3d 8ec8 2f3d
000000d0: ebd6 ab3d 8ac1 d43b b0ca 44bd daf5 5a3d
000000e0: 3f71 84bd 5abb e83d 53e6 e4bd 570f 103e
000000f0: 28c8 2fbd f083 a4bd c5dd cebb 1e9c e83c
00000100: c6a1 ccbd d40a 52bc 8c16 b73c 1f98 0f3d
00000110: 25e2 e3bd 4c3f ed3b aa08 8d3d 10c9 5b3d
00000120: 3fa4 873d cfc9 8b3d 598a cdbd f489 a5bc
00000130: c7c9 ecbd 8b68 c43d a6d6 dc3b 61a2 75bc
00000140: a7b9 9f3d e6c0 7dbd 99dd 853d aebc 34bd
00000150: 2786 583d 2158 a5bc a1d9 fbbd 64c1 92bd
00000160: 4f9f 3dbb de71 34bd fe19 3e3d fbd7 c13d
00000170: b664 4a3d c357 b23d 3b55 edbd dc66 b1bd
00000180: 83a9 4fbd b8af b5bd a308 a03d 3502 d3bd
00000190: 5dbf 5ebd 084c d03c feb6 26bd 088e a73d
000001a0: 36e6 4d3d ad27 123d eb22 123d 9f49 7ebd
000001b0: 4b93 19bc b3b4 c2bd df3c 5f3c 44f9 883d
000001c0: d5e3 84bd 01d0 363d b6cd 9cbc b3c6 25bd
000001d0: 326e 0e3c 7a22 e7bd 2fea 3aba 4f58 193b
000001e0: d345 903d 3e7c 05be 6ec9 2fbd 9597 9f3d
000001f0: ed2a 71bd e292 bbbd 82a6 a6bd 7b64 14bd
00000200: a988 363d 0233 a43d 69e0 e73d 4e70 44bd
00000210: a155 483d c208 05bd a526 acba cf93 8abd
00000220: 2dfa eb3b 030e 8cbd b921 14bb b07c c93d
00000230: eab0 35bd 91cc fc3d abfc 3b3d 951d 0e3d
00000240: 115e 55bc 882b 1cbd 8c3f bfba d235 b03d
00000250: 447a b13d faff 37bd 7fa5 0d3d 5c40 a53d
00000260: 867d 7cbc d9da 87bd 8a66 b4bd 3a41 cb3d
00000270: dcb7 2fbd 855a 923d d041 d1bd 6554 063e
00000280: 4327 053e 874e dd3d 3c6a a73d 0cc9 273d
00000290: e89e 8c3d d7c0 a2bd 052a adbc a92c cfbd
000002a0: fd20 e2bd da8b 02bc a60e 9bbd f491 403d
000002b0: 4059 86bd b4c3 ee3d bc02 8ebd 5936 663d
000002c0: 4f01 50bd ecf5 b73d 5745 a4bd faf4 92bd
000002d0: d6df dbbd 0e10 e0bd b637 9dbd 76c1 97bd
000002e0: 35b3 a33d 419c 4f3b bbc6 92bd 37c1 d73d
000002f0: 91bb 88bd cd3c a33d 3fd1 3bbd 051c 63bc
00000300: de96 eebd 0c25 9fbc 8277 50bd b904 91bd
00000310: 807e 473d 12d5 febc 2cac 5f3d a5a1 c43c
00000320: c5e7 383d 3781 623d 907e 253d 27e8 d83c
00000330: e214 583d 5f03 563d c412 c23d 810c be3d
00000340: eb6e a5bc 27d4 29bd 2ea7 02be 58d8 e5bd
00000350: 2f99 14bd dfb3 8bbd 6d87 e5bd f09f 133d
00000360: 64f2 85bd 65e9 a73d 6f96 ef3d 5768 3bbd
00000370: cd09 823d 7609 c73b 3815 8fbd 7e8e d93c
00000380: 65bc c5bd e014 01be 7c53 bd3d c702 43bb
00000390: e316 d93d aaed 0dbd e87c bfbd 93b0 9d3c
000003a0: 6a2c 20bd a6cd 793d 7951 54bd 3839 a63d
000003b0: 7669 b43d 4eee a53d 6c95 7f3d d6c8 40bd
000003c0: e99d 973d 4241 41bd 01df de3c cf47 a1bd
000003d0: e2cb 203d e720 b73d 4e66 b03d c8a3 783d
000003e0: 2fbe 7c3d 7a81 6b3a b085 dd3d 9a8c c2bd
000003f0: d52f 463d 4f49 1cbd 0991 bd3d ef30 24bd
0.02333611 0.03150094 -0.10974703 -0.07991116 0.06256962 -0.095417336 -0.13145646 0.027963677
0.05056953 0.074988194 0.06206513 -0.05423893 -0.040584333 0.09689916 0.07177274 -0.09508439
-0.07696009 0.110514715 0.018769434 -0.013609084 -0.103793904 0.032389987 0.0635607 -0.116706535
0.10905536 -0.0618589 0.080421925 -0.054465972 0.08784204 -0.0900923 0.0066006477 -0.07732306
0.010810192 0.009290889 -0.121659935 0.06715126 -0.11342572 0.03471579 -0.026654115 -0.08591665
0.048233833 -0.12962125 -0.047752127 -0.01604095 0.01776503 -0.048479278 -0.07578551 -0.03502825
-0.08653839 0.09722821 0.11612056 0.042915873 0.08390602 0.006492798 -0.04804486 0.05345712
-0.064669125 0.113638595 -0.11176743 0.14068352 -0.042915493 -0.080329776 -0.006313058 0.028394755
-0.09991793 -0.012819964 0.022349618 0.035057183 -0.11127118 0.0072402116 0.06886418 0.053658545
0.06623124 0.06825601 -0.10036153 -0.020207383 -0.115619235 0.095902525 0.0067394553 -0.014992327
0.07799082 -0.06195154 0.06536407 -0.04412525 0.052862313 -0.020183625 -0.12297369 -0.071657926
-0.0028934067 -0.044053905 0.046411507 0.09465023 0.04941245 0.087081455 -0.11588522 -0.08662197
-0.05069877 -0.08871406 0.07814147 -0.10303155 -0.054381717 0.02542688 -0.04070186 0.08181387
0.050268374 0.03568237 0.03567783 -0.06208193 -0.009373496 -0.09507122 0.013625353 0.06688169
-0.06488768 0.04463196 -0.01914106 -0.040472697 0.008693265 -0.11285873 -0.0007130233 0.0023398583
0.07044568 -0.13035676 -0.042916708 0.07792584 -0.058878828 -0.09158875 -0.081372276 -0.03622864
0.044563923 0.080175415 0.113221 -0.047958665 0.048909787 -0.032479055 -0.0013134076 -0.067664735
0.007201454 -0.0683861 -0.0022603108 0.098382354 -0.04435817 0.123437054 0.04589526 0.03469618
-0.013022915 -0.038127452 -0.0014591082 0.086040154 0.086658984 -0.044921853 0.034581657 0.08068916
-0.0154107865 -0.06633539 -0.0880862 0.0992455 -0.04289995 0.071461715 -0.10217631 0.13118131
0.13003258 0.108059935 0.081745595 0.040963218 0.068662465 -0.079469375 -0.0211382 -0.1011594
-0.11041448 -0.0079679135 -0.07571153 0.04701419 -0.06559992 0.11658421 -0.06934115 0.056204174
-0.050782498 0.08982453 -0.08021038 -0.07175632 -0.10736053 -0.10940562 -0.07676642 -0.074099466
0.079931654 0.0031678828 -0.07166811 0.105349 -0.066764005 0.07970581 -0.04585385 -0.013861661
-0.116498694 -0.019426845 -0.05089522 -0.07080979 0.048704624 -0.03110746 0.054607555 0.02400286
0.045142908 0.05529901 0.040403903 0.026477886 0.05275429 0.05224931 0.094762355 0.09279729
-0.020194491 -0.04146209 -0.12759086 -0.11222905 -0.0362789 -0.06821417 -0.11207471 0.0360412
-0.06540373 0.08198813 0.11698615 -0.045753803 0.063495256 0.006074126 -0.06986469 0.026557203
-0.09655074 -0.1260562 0.09244439 -0.0029756294 0.106000684 -0.034650482 -0.09349996 0.019249236
-0.039104857 0.060987137 -0.05183551 0.08116382 0.088091776 0.08102094 0.06239836 -0.047066532
0.07403166 -0.047181375 0.027205946 -0.078750245 0.039256938 0.089418225 0.08613263 0.06070307
0.06170481 0.0008983832 0.108165145 -0.09499474 0.04838546 -0.03815585 0.09256179 -0.04008573

model.convs.0.1.convs.1.conv.bias f4 [32]
00000000: 2317 bcbc b516 913d 5169 f93d 3477 b1bc
00000010: 2499 aebc af86 bd3d d77b 66bd 72a2 dabd
00000020: 7d22 de3d ebc8 a63d 520c bf3d b778 fdbb
00000030: b086 933d 669d f23d 8c00 e83a 4601 e53d
00000040: 5db6 e5bc 7c57 973d be90 333d df26 4d3d
00000050: c4f9 663d 051b 2f3d bf79 e7bd 82cb 843d
00000060: 3252 293d 6fec f63c 8d6c 0f3d 8e0e a9bd
00000070: faa6 50bd ec29 c8bd ff25 f8bd 7db1 8e3c
-0.022960251 0.07084409 0.12178291 -0.021663286 -0.021313258 0.092542045 -0.056270447 -0.10675515
0.10846422 0.08143791 0.09328522 -0.0077353376 0.07203424 0.118464276 0.0017700358 0.111818835
-0.02804106 0.07389733 0.04383921 0.0500859 0.05639054 0.042750377 -0.11302518 0.064841285
0.041338153 0.030142037 0.03501563 -0.08254729 -0.05094049 -0.09773621 -0.12116622 0.017418617

model.convs.1.1.convs.0.conv.weight f4 [32, 32, 1, 2]
00000000: 923e 843d 978f 77bd 1767 03be f216 9c3c
00000010: f578 45bb 8af1 ef3d e2f3 a4bb ba63 b5bd
00000020: b1b4 d9bd 9f02 b53c 7136 fbbc 17c4 9fbd
00000030: e202 a2bc 45bc 8c3d f0a1 06be f65e a23d
00000040: a42e 45bd 4cf8 6cbd 444d 933d ec4d dfbc
00000050: 81a8 433d 0c3b 8abd af49 60bd 97f3 923c
00000060: 98fc 0cbe aedb 813d a427 883d ff9e dd3d
00000070: 508a a8bd e017 af3c 6264 a73d fd52 f6bc
00000080: 1f5b a0bd ccb7 633d 72e1 7ebd 68c8 d63d
00000090: 68cb cc3c af49 29bd 8d8f bd3d acce 78bc
000000a0: 8bb5 87bd 9810 ae3d dbc3 ecbd 7885 e0bd
000000b0: 48f8 97bd 2824 bbbd dd10 553d 3e5c ef3c
000000c0: 7e9c b1bd 28f0 d73d 5d4f 9ebd 515e 2ebd
000000d0: 73ae 75bd ffc6 33bd e038 c23d a3ba bb3d
000000e0: 8891 42bd 02e4 b1bd 36c7 55ba 671c 0fbd
000000f0: fb1b 003e 64c2 b03d a3bc 4a3d 5505 ea3c
00000100: d751 a9bd c1af 673d f6a9 8bbc ba46 d33b
00000110: 2341 09bc 87d6 9dbc 2683 08be fb01 fd3c
00000120: 7225 3dbd 6af2 df3d 9656 833d 90fa 9abd
00000130: 6334 1bba cd48 44bc ccb7 543c 92cd b33c
00000140: 458f ccbd 1bf1 4e3d 641d eabd 6879 96bc
00000150: 01b1 313d 126f f1bd 796b c3bc 61d4 c2bd
00000160: a93f 96bd fab9 e4bd 3857 db3d f7f3 47bd
00000170: 4e64 78bd f24d e93d a828 d63d 7f6c b2bc
00000180: 547e db3c 4064 a33d 03cf b1bd 46e8 e23c
00000190: b156 81bc 372d de3c 1569 adbd 5834 cd3d
000001a0: 6244 14bb 7aa2 51bd 606e a5bd fda2 143d
000001b0: a0b3 da3c 9233 d7bc b694 eb3c a3aa 873c
000001c0: 3f88 183d a6d5 b93d 952f 023d 3ce6 a6bd
000001d0: 6733 4dbd e7c9 8f3d d3c5 bdbc 8aea 503c
000001e0: d7b7 c2bc c997 62bd 4d3e babd 5355 14bc
000001f0: 592f d43d f2fb 40bd 634d b6bd 53cb dbbd
00000200: e812 363d 6a0b dabd 20b1 83bb 2948 ea3d
00000210: 868c 04be e080 7c3c 6d79 183d bb0b 14bc
00000220: 0671 f43d 0f00 b1bd e4b2 ad3d a720 df3d
00000230: df4a e63d f25f 8f3d 4657 a93d 0db9 553c
00000240: e15a 02bd ed54 3abc fab0 c63b 765b a2bd
00000250: 3803 ac3d c8a5 4cbd 0ffb 6b3c 786b 223d
00000260: f702 8d3d c10b 18bc 377a 023e 3f87 87bc
00000270: 8ac7 6f3d 91a6 c53d 28e5 ceb9 fc8c db3d
00000280: 7fa9 b93d dbf2 9b3d dc68 e4bd 4e73 00be
00000290: 93d2 d4bb e07e 2d3d d6d4 24bd 1008 25bc
000002a0: 73dd 283d 285a 9c3d a83f d6bd 92ae 993c
000002b0: 83be 38bd f306 3bbd d551 173d dbc0 513c
000002c0: b2d9 403d e15d 273d 02ca 143d 3276 a2bd
000002d0: 92e5 b8bc 7cbd fd3d 52d2 973c cb4f ccbd
000002e0: 720e 993d 8824 71bd 1acc 803c c362 c7bd
000002f0: 715d edbd 7e71 963d e665 a43d 80a5 d33d
00000300: 7219 4cbd 7381 8dbd 4832 97bd 053a f43b
00000310: 530a 703d f00a 99bd 1ab9 b53d 7ba8 48bc
00000320: cfb5 b33d 9811 983d 53bd adbc b614 e83d
00000330: fbf2 ca3b 1e7c 943d 5283 d8bd cd5e 88bd
00000340: cb0f c7bd 732a 463d 6a31 2e3d 6038 543d
00000350: 67a3 a83d 0808 d03d 5dcd 80bd 232a 62bc
00000360: 6395 7b3d 43ff 813d bd04 08bd 2891 c4bd
00000370: 6e4a f13d 55bb ae3d 2276 e43d 6e02 d43c
00000380: f78d a0bd b958 a3bd dd04 f13d 017d b13c
00000390: 878d 00be e091 f6bc cede 8fbd bad7 43bd
000003a0: 3805 b93c a13d d5bd 6280 97bd 9676 3a3d
000003b0: c654 00bd 8049 ec3c ebd2 0a3c cf0b cc3d
000003c0: 72e0 b43b 2f7d 62bd c400 b2bd e181 84bd
000003d0: 5bcf 193d d047 8a3d dd37 20bd 2f60 ed3d
000003e0: 971e 8b3d 8da0 ef3d f8c8 e9bd 49ff 8e3d
000003f0: 0ee0 7b3d e3f8 0c3d eb18 ee3d 0823 21bd
0.06457247 -0.060439672 -0.12832294 0.01905391 -0.003013191 0.11715992 -0.005033956 -0.08856912
-0.10630167 0.022095976 -0.030665608 -0.07801073 -0.019776765 0.06871847 -0.13147712 0.079282686
-0.048140183 -0.05785398 0.071924716 -0.027258836 0.04776812 -0.067495435 -0.05475777 0.017938418
-0.13768232 0.06340729 0.06648186 0.10821342 -0.08229506 0.02137369 0.081734434 -0.030068869
-0.0782988 0.055595204 -0.06222672 0.10487443 0.024999335 -0.041330036 0.09255896 -0.015185993
-0.066264234 0.08499259 -0.11560794 -0.10962957 -0.07420403 -0.09137756 0.052018035 0.02921879
-0.08672427 0.10543853 -0.07729981 -0.042570416 -0.05998082 -0.04389095 0.09483504 0.091664575
-0.04750207 -0.08686067 -0.000815499 -0.034939196 0.12510674 0.08630827 0.049496304 0.028566996
-0.08267563 0.056564096 -0.017048817 0.0064476402 -0.008377346 -0.019267334 -0.13331279 0.030884733
-0.04617829 0.10934909 0.06412999 -0.07567322 -0.0005920587 -0.011980248 0.012983274 0.02194861
-0.09988264 0.050522905 -0.11431387 -0.018368438 0.043381695 -0.11788763 -0.023854958 -0.09513164
-0.07336361 -0.11168285 0.10709995 -0.048816647 -0.060642533 0.1139182 0.10456973 -0.02178025
0.026793636 0.079781055 -0.086820625 0.027698647 -0.015788408 0.02712117 -0.084673084 0.100197494
-0.0022623767 -0.05118034 -0.08077693 0.03628825 0.02669698 -0.026269708 0.028757434 0.016560858
0.03723931 0.09073953 0.03178366 -0.081493825 -0.05009785 0.07020932 -0.023165619 0.012751231
-0.023769302 -0.055320535 -0.09093914 -0.009053546 0.10360593 -0.047115274 -0.08901479 -0.107321404
0.044451624 -0.10646708 -0.0040189177 0.11439545 -0.1294423 0.015411586 0.037225176 -0.009036
0.1193562 -0.08642589 0.08481386 0.108949 0.11244749 0.07000722 0.08268599 0.013044608
-0.03182495 -0.011372787 0.0060635777 -0.07927601 0.083990514 -0.04996279 0.014403119 0.03965327
0.06885331 -0.009280146 0.12741934 -0.016543983 0.058539905 0.09650911 -0.00039462117 0.1072025
0.09065532 0.076146804 -0.11152813 -0.12543985 -0.006494829 0.042357326 -0.04024204 -0.010072723
0.041226815 0.076343834 -0.1046136 0.01876 -0.04510356 -0.045660924 0.036943275 0.012802328
0.04708261 0.040861014 0.036325462 -0.079327 -0.022570405 0.12389657 0.018532906 -0.09976157
0.07473458 -0.05887273 0.015722323 -0.09735634 -0.11590088 0.07345866 0.08027248 0.10334301
-0.049828954 -0.06909456 -0.07382637 0.0074532055 0.058603596 -0.07472789 0.08873196 -0.0122472
0.087749116 0.07425231 -0.02120844 0.11332075 0.0061935163 0.07250236 -0.10571922 -0.06658707
-0.09719809 0.048380326 0.042527594 0.051811576 0.082342915 0.10157782 -0.0628917 -0.0138039915
0.061421763 0.063475154 -0.033207644 -0.09597999 0.117817745 0.085318245 0.111553445 0.025880065
-0.07839578 -0.07975907 0.11768506 0.021666052 -0.12553988 -0.030098855 -0.070249185 -0.047813155
0.022585496 -0.104121454 -0.07397534 0.04552325 -0.031330846 0.028843641 0.008473138 0.0996319
0.00551992 -0.055295166 -0.08691552 -0.06470085 0.037551265 0.067519784 -0.039115775 0.11590611
0.06792944 0.117005445 -0.11415285 0.069822855 0.061492972 0.034417044 0.116258465 -0.03934005

model.convs.1.1.convs.0.conv.bias f4 [32]
00000000: 1178 b73d c50c b83d ed0b f33d 00b6 583c
00000010: 937a 863d 9c63 6b3d fc1f 923c e4ca e03d
00000020: c77c cd3d 5f8f f93d c077 dfbc c48b 013e
00000030: bbef 953d 0cbf 0ebc 00fb 613d dbbb 8f3d
00000040: e40a 77bd 85d6 4fbd 3d9e dcbd 60bc 9f3d
00000050: 35ec e73d 171b b13d 0af8 abbd 2ff5 e6bb
00000060: bb02 71bd 9863 92bc 21b0 e4bd 2091 833d
00000070: a206 81bd 62a8 d33d 0877 f9bd d0ac 10bd
0.08958448 0.089868106 0.11867509 0.013226986 0.06566348 0.05746804 0.017837517 0.10976198
0.10033565 0.12185549 -0.027278781 0.12650973 0.073211156 -0.008712541 0.055171013 0.070182525
-0.06031312 -0.05074169 -0.10772369 0.077996016 0.1132435 0.08647745 -0.08396919 -0.007048271
-0.058840495 -0.017869756 -0.111664064 0.06424165 -0.06300093 0.10334851 -0.121809065 -0.035321057

model.convs.1.1.convs.1.conv.weight f4 [32, 32, 1, 2]
00000000: 8a13 223d d762 9a3d 50e1 c5bd 903d dc3d
00000010: 4bb8 dfbd 7c60 b93c e938 b0bd d4c4 9dbd
00000020: 30c8 9d3d 73d9 0d3d a6bd 203c c665 653d
00000030: c4eb ef3d 97f6 f33d 0ecf 6cbd ff1e 28bd
00000040: 8fa8 07be ca86 c1bc bcbd 60bc d71b 0b3e
00000050: a1c8 823b c59d 043e 880f 8f3d 3542 473d
00000060: 822b dd3d 3fcb 953d 92b9 0f3d c843 e13c
00000070: 3cdb 0a3e c0be 0f3d 6297 b83d 9780 a33d
00000080: c4b5 353d b2da 9b3d 21f1 9b3d a945 abbd
00000090: 2336 ad3d f404 5fbd 148d 89bd a578 b03a
000000a0: 0375 64bd ddf1 cebb 7b50 5c3d d449 febd
000000b0: d702 dfbd 0b97 ba3c ef74 183d 4ebe 883d
000000c0: 6e13 b83c 593a ae3d 6c50 30bc 5f98 96bd
000000d0: 46a6 803d 9066 b7bd 68cf a5bd df74 0c3d
000000e0: a749 283d 3192 82bd 735f 0abe 6a62 f2bd
000000f0: f426 883d 4f89 7abc 96e8 80bd 9572 6ebd
00000100: c9b7 babd d767 b8bb 0793 993c ee6a 883d
00000110: 1ba7 96bd 00dd 333d db46 efbc 10a7 87bc
00000120: 9512 adbb 5cae 443d e9eb 8e3c d53d 38bd
00000130: e4dc 8bbc 716a 14bd e3e7 a1bd c6e1 d83d
00000140: 901f 5fbc 3202 cabd 0340 033d 6a14 033d
00000150: 2920 7ebd 3000 35bd 5bb6 8abd 03c4 dabd
00000160: 8c47 a43d aa1e 35bd 7cf1 bb3d e6fa dfbb
00000170: e888 ba3d 4932 cebd 43a4 223d de28 893b
00000180: d584 6f3d 37e2 40bc 782e 913d 4e8f f5bd
00000190: b1af 033e ae9c cc3d 44ec 7fbc 7678 bf3d
000001a0: a532 83bd 6a4f 723d 7a74 b0bd 25b6 303d
000001b0: d36c 103c 32e5 8fbb 9725 693d 6039 5dbd
000001c0: ff9b c93c 7b44 4bbd 175c 54bd 7af9 07be
000001d0: af98 b33d 3d20 ab3d d1ab dabc fff7 353d
000001e0: 64ab bf3d 6a69 75bd 18ae 12bd 2ee3 8ebc
000001f0: e048 d13b 8c5f 5bbd 7632 ae3d bd01 14be
00000200: 5054 b1bc 1acd cd3d 8ef1 c93d 6674 0b3e
00000210: 5159 c9bd ad7c c6bd 2461 2e3d e773 923d
00000220: d4ff ebbc d774 873d 43c4 9fbc 8492 bfbd
00000230: ca70 323c 1d6b ac3b 1424 8cbd 093f d53d
00000240: b7bf 013e 6f59 7cbd f80c 7a3d cc94 eabd
00000250: 1e27 bfbd 37b6 7d3d 637c b93d 2184 f3bd
00000260: 0c50 5cbd 2adf a7bd fc0b b53d 881f 9a3d
00000270: b2b3 0dbe b2e8 a2bd ec26 e8bd 9176 dd3d
00000280: 8c5a 7d3d 9326 ccbd 631e 89bd 11a4 f53d
00000290: 4750 d8bd 3bf2 f1bd 2fb5 d4bd 5c47 7c3d
000002a0: 1f85 86bd 96b1 743d 8c38 cb3c b991 ff3c
000002b0: 12af 423c 0340 83bc 4f01 ce3d 7224 31bd
000002c0: a916 e4bc 8597 67bd cf23 2bbd 5d1a d2bd
000002d0: 0796 c63d 75df e3bd f98b 87bd e838 ce3d
000002e0: a2eb 433b e4d5 8dbd 63dc 9ebd 1cbf 28bd
000002f0: 00c3 c4bd 0038 423c c117 0c3c 70b8 0b3d
00000300: 5b57 fbbd aea0 80bd 12dc e7bd 202b adbd
00000310: 3e66 b9bd 6454 0b3c 020d cfbd 160b ea3d
00000320: 9d32 a83d 2628 ab3d 0562 cc3b b95e eb3b
00000330: cb95 ba3d 8aee fdbc 3a53 ef3d 5ff4 15bd
00000340: 1409 1dbd 8811 a43c c448 91bd 021b 383d
00000350: 56e8 883d 428c a33d 777f 32bd 0cd6 0e3e
00000360: 0e65 e7bd 732f 84bc 4672 0abd 546b cc3d
00000370: 74af 993d 3263 cabd e143 dc3d 339b 0b3d
00000380: e346 a83b c2f0 b93c 6bf8 473d 90d5 5e3c
00000390: 884f ee3d c707 49bd 3235 093e b4bd c8bc
000003a0: 6359 85bd 962b 69bd 1331 f0bd da4d 54bd
000003b0: ee1b c93b 4c10 cf3c a07c a03b e6ef 893d
000003c0: 0908 88bd 8dfd 98bd c310 d1bd 86f6 65bc
000003d0: a650 d73d 5a27 9d3c 5031 97bd b7c8 8c3c
000003e0: 3945 b7bd 2c79 eabc 2f9a dabb 16f8 06be
000003f0: da66 df3d 0a8a 473d 7523 d63d a075 dbbb
0.039569415 0.075383835 -0.096621156 0.107539296 -0.10923823 0.022629015 -0.08604605 -0.077035576
0.07704198 0.034631204 0.009810841 0.05600526 0.117148906 0.11912268 -0.05781465 -0.041045185
-0.13247894 -0.023623843 -0.013717111 0.13584839 0.003991202 0.1295081 0.06985384 0.048647124
0.10799314 0.07314157 0.035089083 0.02749814 0.13560194 0.035094023 0.09013249 0.07983511
0.0443628 0.07610072 0.07614351 -0.08362896 0.084575914 -0.054448083 -0.06716362 0.0013463689
-0.055775654 -0.0063154534 0.05378769 -0.12416425 -0.108892135 0.022777101 0.03722089 0.06676923
0.022470202 0.08507223 -0.010761362 -0.07353281 0.06281714 -0.08955109 -0.080962 0.034291144
0.041085865 -0.0637554 -0.13512973 -0.11835177 0.06648055 -0.015291526 -0.06294362 -0.058214743
-0.091170855 -0.005627613 0.018746866 0.0666102 -0.073560916 0.043911934 -0.029208591 -0.016559154
-0.005281756 0.048017845 0.017446475 -0.044980843 -0.017073102 -0.036234323 -0.07905557 0.10589938
-0.013618365 -0.098637 0.03204347 0.03200189 -0.06204239 -0.044189632 -0.06773063 -0.106819175
0.08021459 -0.044218697 0.09176919 -0.0068353293 0.09108144 -0.10068185 0.039707433 0.00418578
0.058476288 -0.011772684 0.07088941 -0.11990224 0.1285999 0.09990822 -0.015620295 0.09349148
-0.06406144 0.059157766 -0.08615966 0.043142457 0.008815008 -0.004391336 0.056920614 -0.054009795
0.024610518 -0.049625855 -0.051845636 -0.13278762 0.087693565 0.08355758 -0.026693257 0.04442596
0.09358862 -0.059914984 -0.03581056 -0.017442312 0.006386861 -0.053557917 0.085057184 -0.14453788
-0.021646649 0.10048886 0.09860526 0.13618621 -0.09831489 -0.09691749 0.04257311 0.07151013
-0.028808512 0.06614082 -0.019502765 -0.093541175 0.010891149 0.0052617923 -0.06842819 0.104124136
0.1267079 -0.061608728 0.061047524 -0.11454162 -0.09333633 0.06194135 0.09056928 -0.11890436
-0.053787276 -0.08196862 0.088401765 0.07525545 -0.1383808 -0.07954539 -0.11335549 0.1081363
0.06185393 -0.09968295 -0.06695249 0.11994184 -0.10562187 -0.1181378 -0.103861205 0.06159149
-0.065683596 0.05973967 0.024807237 0.031197416 0.01188256 -0.016021734 0.10058843 -0.043247648
-0.027842836 -0.056540985 -0.041782197 -0.10258935 0.09696584 -0.111266054 -0.066184945 0.10069448
0.0029895087 -0.06925562 -0.07756879 -0.04119788 -0.09607506 0.011854172 0.008550585 0.03411144
-0.12272521 -0.06280647 -0.11321272 -0.08455491 -0.09052704 0.008504007 -0.10109903 0.11427896
0.08212779 0.08357267 0.006237271 0.0071829227 0.09110602 -0.030997533 0.11685796 -0.036610004
-0.038338736 0.02002789 -0.07093957 0.04494763 0.066849396 0.079857364 -0.04357859 0.1394884
-0.112985715 -0.016135907 -0.033800386 0.09981409 0.07504168 -0.09882201 0.107551344 0.034083556
0.0051354035 0.02269781 0.048820894 0.013600722 0.11636263 -0.049079683 0.13399199 -0.02450452
-0.0651119 -0.056926332 -0.1172811 -0.051832058 0.0061373627 0.025276326 0.004897669 0.0673521
-0.066421576 -0.07470236 -0.10208275 -0.014035827 0.10513429 0.019183803 -0.073824525 0.017185552
-0.0894875 -0.028622232 -0.006671212 -0.13180575 0.10908289 0.04871563 0.10455982 -0.0066973716

model.convs.1.1.convs.1.conv.bias f4 [32]
00000000: cf2b 3cbc b17a cabd 32b1 493d 2903 8b3d
00000010: 2a77 3c3d b6ca 773c 7bdd 0e3b 249b b7bd
00000020: 2d71 b2bc ff48 b63d ab44 b63d 4415 e63a
00000030: 867a 003e d01c ce3c 61f2 b13d 1711 833d
00000040: 39c2 51bd 87a0 853b dc3f 143d aa47 81bd
00000050: a3d0 3b3d 050a 7dbd 2505 4f3d f67a 663d
00000060: 21ea 9a3c 60ac adbd a7a3 d7bd 5a29 013d
00000070: e07a b53c 87d8 60bd 9b71 bf3b e00c 61bd
-0.011485054 -0.09886683 0.049241252 0.06787712 0.04601208 0.015124014 0.0021799493 -0.089651376
-0.021782482 0.08900642 0.08899816 0.0017553945 0.12546739 0.025160223 0.08688808 0.06399744
-0.051210616 0.0040779742 0.036193714 -0.06312497 0.04585327 -0.061777133 0.050542016 0.05626961
0.01891047 -0.084801435 -0.10529261 0.031533577 0.022153318 -0.054893997 0.0058424002 -0.05494392

model.convs.2.1.convs.0.conv.weight f4 [32, 32, 1, 2]
00000000: 80fc 843d 61ca cbbd 635b 183d 5708 8a3d
00000010: 96e3 e43c 3701 05be 6573 19bd 2d1f c1bd
00000020: d634 d9bd b5a6 933d 871c 963c c807 a63c
00000030: acb9 48bd 27cc c23d a2aa 5bbc 9bc3 8abd
00000040: b749 65bd 9fb8 45bd 8fd4 b6bd fd80 c3bd
00000050: 48d2 b3bd 420c b73c 0d56 743a 8d77 bdbd
00000060: 8cc2 903d 32a3 c0bd 4944 25bd ae19 b43d
00000070: 7cab df3d d12a e23d c8b3 a63d 0386 0cbb
00000080: ad6b a7bd 83c7 a43d e1f2 16bd 8599 a83d
00000090: c5ed 81bd c4a4 023d 8976 9fbd 947d 08be
000000a0: e261 f3bd 2664 413c bf43 e4bd 830b a0bd
000000b0: 54dd cbbc 85d0 ee3a 2954 093e a04c 82bd
000000c0: 0ce4 773d 5357 253c d2ab 8d3d 5808 0e3d
000000d0: 0af2 e83c a361 5e3d 7d8b 473d 8076 e3bd
000000e0: 6db8 d93c 8b1d 1e3d 8162 0c3c 2178 10be
000000f0: 2364 c7bd 0a5e 133d f4bd 72bd 66a3 be3d
00000100: a675 2fbd c06f 133d ba3e 8fbd e31a 343d
00000110: a03b 66bd f4a6 9a3c a7c9 193d 0afa d53d
00000120: d6c0 cebc e770 ba3d 22c7 b3bd eabe 7fbd
00000130: f3d3 68bd 83f1 4e3d 4370 f4bc 0094 dc3d
00000140: cfbb bdbc 066e 6fbd e321 d63c bce3 97bc
00000150: 90d4 013e 9ad7 6c3d e6d1 57bc 864e 2f3d
00000160: 519a d23d fb7f d93d f62b aa3d 3082 2d3d
00000170: e6d4 0fbd 1c22 483d 0202 dbbd 49e0 053e
00000180: f9d6 df3d d64a 06bc 8acc b13c 9c98 ef3d
00000190: 7132 3bbd df53 bf3d 23a1 f83d 4329 cfbd
000001a0: 3b55 39bd 895b 1fbd 1752 06be 7a20 d23c
000001b0: 37de 913d c96b 3e3d 1f20 76bd c906 e9bd
000001c0: 0ecc 74bd 4e58 21bc 2e53 0abc bed4 1b3d
000001d0: 7656 89bd 293f e5bd 6c84 8f3d b567 a1bd
000001e0: 1dcc 1a3d fb6c c7bc b3be c9bd b0a8 eebd
000001f0: af2a ba3d 4aed 02be 85a5 0abe 8640 aabc
00000200: a5ad 41bd d9a7 d73d 122c 01be 4ad5 09be
00000210: bf18 d1bd e7be a43d 9abf e63d ea44 e7bc
00000220: 626e c33d 46a1 ac3d 436a c63d aafd 3bbd
00000230: 40c3 bd3d 98a4 cabd 43d9 dbbc 6f22 d43c
00000240: ce6c 00be 2fb6 c43d 8e99 eb3c 443a 4fbd
00000250: a084 0b3e 3b62 bf3d e209 b3bd a4bc 15bd
00000260: 205f 9f3d b049 d8bc facf 2e3d dfee 2b3d
00000270: ad9c b93c 3c02 9a3d dc0c de3d b8b5 b6bd
00000280: d40e c2bc f8d1 6fbc 7779 95bd 8146 a7bd
00000290: 716f 773c cb77 9bbc 402d c33d b4ab b1bd
000002a0: b809 503d 4f88 c1bd 10bb 7bbd 6c9e eb3d
000002b0: b17c 563d 0dc5 c93d d3fb 923d d844 f3bb
000002c0: e253 99bd 0276 d23d e8a7 0ebe 4210 9abc
000002d0: c004 6fbd 835e 9ebd d65f b7bd 7b09 6a3b
000002e0: 6d04 a6bb 7385 36bd de6e ebbd 19d3 01be
000002f0: 4f13 9e3d 5168 913b 727d 7b3d 2b46 a5bd
00000300: 70db 063d 00eb b23d c3fd c93d 6c1a 9e3c
00000310: a487 c83d e072 97bd a9f6 5fbd b150 57bd
00000320: 453d 9c3d 199a c6bd 3433 003e 2c0d 41bc
00000330: dafb 69bd 8bf4 75bd a62f 5a3d 7864 0bbd
00000340: 4889 063d 34e0 dbb7 4517 bf3c 3a32 fabc
00000350: 3b54 56bd a83b bebd 8957 da3d 711e 033e
00000360: 80a6 ee3d a248 083e aa32 8a3c c2d4 1b3d
00000370: aadd 77bd 2107 81bd c560 0bbd 19df 94bd
00000380: 1984 b2bd 0f55 bcbd 0da0 e73c 9a1c babd
00000390: 179f 83bd 65bf ab3c 1a34 063d 847b 63bd
000003a0: 8c8a ad3d 53f7 31bb 2cf0 4fbd 7fb1 b4bd
000003b0: a763 ddbd c715 febc 9f56 e7bd 2f28 a6bc
000003c0: 2e4b df3b 7c9f fe3c 8104 f2bc 0c46 91bd
000003d0: a288 c8bb ec90 eebd 6fb8 d23d 6e92 f8bd
000003e0: e5f3 eebc ea65 ab3d cb0c d6bd 454e f53b
000003f0: 1749 543d 99a7 8f3d 255b c5bd d053 fcba
0.06493473 -0.0995071 0.03719653 0.06739872 0.027940553 -0.12988745 -0.037463564 -0.094297744
-0.10605781 0.07209531 0.01832415 0.020267382 -0.049005195 0.09511595 -0.013407381 -0.0677559
-0.055978503 -0.04827177 -0.08927261 -0.09546087 -0.08780342 0.022344712 0.0009320684 -0.09251318
0.07068357 -0.09406127 -0.040348325 0.087939605 0.1092138 0.11043323 0.08139759 -0.0021442182
-0.081748344 0.08045866 -0.03685272 0.082324065 -0.06344179 0.031895414 -0.07786281 -0.13329154
-0.11883904 0.011803662 -0.11145734 -0.07814696 -0.02488581 0.0018220103 0.13411011 -0.06362271
0.060520217 0.0100916205 0.06917538 0.034675926 0.028435726 0.054292332 0.04871701 -0.111065865
0.026577199 0.038602393 0.008568407 -0.14108326 -0.097358964 0.035978355 -0.059263185 0.093085095
-0.042836808 0.035995245 -0.06994386 0.043970954 -0.056209207 0.018878438 0.037545826 0.10448082
-0.025238436 0.09103566 -0.08778216 -0.06243793 -0.056842756 0.050523292 -0.029838687 0.10770416
-0.023160843 -0.058454536 0.026139205 -0.01854121 0.12678742 0.0578228 -0.013172602 0.042799495
0.1028334 0.106201135 0.08309166 0.042360485 -0.035115145 0.048860654 -0.10693742 0.13073839
0.10929675 -0.008196553 0.021703977 0.1169903 -0.0457024 0.09342169 0.121401094 -0.10115292
-0.045247298 -0.038905654 -0.13117252 0.025650252 0.07122462 0.04648951 -0.060089227 -0.11378247
-0.059764914 -0.009847714 -0.008442683 0.038044684 -0.06705944 -0.111936875 0.07007679 -0.07881109
0.037792314 -0.024343958 -0.09850826 -0.11653268 0.090901725 -0.12785831 -0.13539703 -0.02078272
-0.04728474 0.10530061 -0.12614468 -0.1346027 -0.10209798 0.08044224 0.11267014 -0.028231103
0.09542538 0.08429198 0.096882366 -0.04589621 0.092657566 -0.09894675 -0.026836997 0.025895325
-0.12541506 0.09605061 0.028759744 -0.050592676 0.13624811 0.09344908 -0.08742119 -0.036556855
0.077818155 -0.026402324 0.04267881 0.041975852 0.022657717 0.075199574 0.108422965 -0.08921379
-0.023688711 -0.014637463 -0.07298558 -0.081677444 0.015102253 -0.01897802 0.09530115 -0.08675328
0.05079052 -0.09449827 -0.061457694 0.11504826 0.05236501 0.098520376 0.07176938 -0.0074239783
-0.074867025 0.102764145 -0.13931239 -0.01880658 -0.05835414 -0.077328704 -0.08953826 0.0035711217
-0.0050664456 -0.04456086 -0.114957556 -0.12678184 0.077185266 0.0044374843 0.06139893 -0.08070024
0.032924116 0.08736229 0.09862854 0.019299708 0.097914964 -0.073949575 -0.054678593 -0.052567188
0.07628874 -0.096973605 0.12519532 -0.011782926 -0.05712495 -0.060047667 0.053268097 -0.03403136
0.032845765 -2.6211237e-05 0.023326525 -0.030541528 -0.052326422 -0.09288722 0.10661227 0.12804581
0.11652851 0.13308957 0.016869862 0.0380447 -0.06051413 -0.06300188 -0.034027833 -0.07269115
-0.08716602 -0.09195911 0.02827456 -0.090874866 -0.06426828 0.020965287 0.03276453 -0.055537716
0.08473691 -0.0027155473 -0.050766155 -0.08822917 -0.10810023 -0.031016244 -0.112958185 -0.020282833
0.006814382 0.031081907 -0.029543163 -0.070934385 -0.0061198035 -0.116487354 0.10289084 -0.12137304
-0.029169032 0.08369048 -0.10451659 0.007486137 0.051827516 0.070143886 -0.09636525 -0.0019251052

model.convs.2.1.convs.0.conv.bias f4 [32]
00000000: f527 733c faa1 693c d4a8 1abc 5fe7 44bd
00000010: a7e6 883d e04d 893c e802 9cbd 94d2 94bd
00000020: ebf4 21bd f04c d7bd a443 02be 8cc9 dc3d
00000030: effb d13d fa72 89bd 88bf bfbb 29df 8fbd
00000040: 8e94 8abd f3ad 633d dc16 0dbd 713b 21bd
00000050: a18b 4cbb 97f0 56bc 534c d8bd 9642 4b3c
00000060: 8015 c13d 4bdb adbd 923b 9fbd 2957 993c
00000070: 756e d93c 21d4 94bd 7030 e33d 325e 4bbd
0.0148410695 0.01425981 -0.009439666 -0.048072215 0.066846184 0.016760767 -0.07617742 -0.07266727
-0.039540213 -0.105127215 -0.12721115 0.107806295 0.10253131 -0.06711383 -0.0058516897 -0.07024986
-0.06766616 0.055585813 -0.03444563 -0.03936333 -0.0031211155 -0.0131188845 -0.10561433 0.012406012
0.09427929 -0.084890924 -0.07775034 0.018718319 0.026541928 -0.07267023 0.11093223 -0.04965038

model.convs.2.1.convs.1.conv.weight f4 [32, 32, 1, 2]
00000000: 4277 b0bd 94f5 e9bb 5774 7bbd a0d1 c5bd
00000010: e178 ad3d 6e36 83bc c486 83bd c841 99bd
00000020: 77de 86bc 8d8e ea3d dcad dbbd 2979 eb3b
00000030: ba5e f33c b122 a73d 4889 54bd ca8a 813d
00000040: d277 9bbc 1c3b 8cbd cbb1 393d 1c46 523d
00000050: 394f bdbd 2a90 893d b149 cdbd ebe9 4ebb
00000060: de2c 913d 0892 7d3d bf3b b73c 9938 a13d
00000070: ee81 04bd c85b 873c b73d a33d b816 d1bd
00000080: d5a7 853d bffe 033e f541 1abd d6a4 e53d
00000090: 8cc0 0cbd 27a6 00be 854b dfbd ceb4 b8bd
000000a0: 317c 94bd cb62 873d 172e f4bd b20c 863d
000000b0: 90ca 9dbd 1046 28bd a585 bebb 4396 943d
000000c0: 214f b4bd f8a5 043d def0 893d c52f 9fbb
000000d0: f897 d63d 40e9 8ebb 2983 e83d 67df e83b
000000e0: 3335 01bd 00b3 d33d ea5e d23c f56f a83d
000000f0: 12f5 bdbc 0769 fc3d 533a e93d 0f2c 343d
00000100: 687b 083c 1bd5 b9bc 11b1 2c3d 2ef9 b33b
00000110: facf e7bd fadd bd3d 6e45 023e 9304 88bd
00000120: 4e10 3dbd b144 143e a1cd c0bd 6970 82bd
00000130: 872c 8cbb dd27 883d d8fb cebd 79ee 303d
00000140: ed0e 92bc 922d a9bd 1093 023e fcb0 3dbd
00000150: a2b3 14bd ee00 db3d b2a0 2ebd 14d2 cf3d
00000160: 6184 9e3d 3334 aebd 975b aabd 8ec1 b6bd
00000170: 1cd7 303d 8171 aebb 0396 07be 2ee6 4fbd
00000180: e2ff db3c 416d 973d b967 973d 1c95 ddbd
00000190: 51c3 9dbd c92f cb3c 08e6 04be 201f c43d
000001a0: f711 dc3d 5041 83bd 2ea8 4b3d 403f 0abd
000001b0: 68c1 2d3d 9c07 ebbd 8b26 9cbd 088e e43d
000001c0: a0d7 eabd 6275 c3bd 4a49 99bd 023d f0bd
000001d0: aa54 bdbd a06f fa3c 3928 c33d 3f68 d63d
000001e0: 4c61 443d 2edf 4d3d 8013 743d daff 853d
000001f0: a917 4cbd 16ae d33d 9f69 99bd f6f3 003e
00000200: 6b54 d6bc 67a2 83bd c0e9 b0bd d4a3 8c3d
00000210: 5ed2 003e 0a76 183a 4cc4 873d 4b53 d03d
00000220: c260 5a3d 7301 033e 8d33 3e3d 55f9 c7bd
00000230: d95c b13d 1872 9dbd d542 7dbd e7ca f33d
00000240: 69ca 863d eef5 003e 5112 63bd 4cdf a63d
00000250: db5d d93b 572b 32ba e46b 773d de75 923d
00000260: 268a dfbd e898 c8bd 957b ce3d f42e c6bd
00000270: c1f1 2cbc 7667 773c ba71 f93d 18d3 b3bd
00000280: b8b2 7b3c 3735 c9bc 1ecd 803d 6162 343a
00000290: 3eb9 11bd 809c 003e cd29 1c3c 4380 e4bd
000002a0: 0c86 71bd b203 f53d 4330 073d 8cfe ee3d
000002b0: 0d01 dabd 2c77 69bd 942d 6a3d 796f 22bc
000002c0: c869 5cbd 0381 b4bd 6ece d2bd b195 9ebd
000002d0: 2848 ba3c 005e 643a 3e7d af3d ca80 013c
000002e0: d618 113e 691a c03c bb38 c13d 395c 79bd
000002f0: 16b8 9c3d 0d4d d13d 253b cdbd 0db3 28bd
00000300: c138 ec3d a5cc b33d 816b 67bd fa65 8c3d
00000310: 7cbc 46bd af4d f1bc e83d 943d 78d8 c0bd
00000320: 3808 e2bc 7fb5 0f3e 03c9 d5bd 1cc2 c5bd
00000330: 87db 20bd 5451 ba3d 5de0 a2bd 1f9c 633d
00000340: d358 d43d 575f a3bd e597 c1bd bcdf d93d
00000350: 77f4 203d 5609 94bd e8cb 3abd 5274 d2bc
00000360: 43d2 ca3d 8e57 693c dce7 ce3d ecd2 e63d
00000370: 8f08 e23d 1f4a 823d 990a a1bb f18f 1f3d
00000380: 39a1 5bbd da07 c63c 8bbe f73d 7b67 bebd
00000390: df68 bd3c c3c8 03be 3988 703c c0ac d8bd
000003a0: 9ab4 ed3d 3d67 d43d 0b31 c03d 44ba 0bbe
000003b0: b2c1 053e bcd8 da3b 8666 72bb 2029 90bd
000003c0: 6db9 143c 1d56 e7bc d817 9c3d 7ffb f53c
000003d0: 8ee9 a43d 545b 243d cfdb ae3d 1dee f0bd
000003e0: 33f2 a5bd 7ce9 b63c bc33 91bd a3b5 62bb
000003f0: 817a 59bb a7cc 00bd 6dba 50bd 3f3c ed3d
-0.086164966 -0.007139871 -0.061390247 -0.096591234 0.084703214 -0.016017165 -0.06422189 -0.0748325
-0.016463501 0.11452971 -0.107265204 0.0071860743 0.029708255 0.08160914 -0.051888734 0.063253
-0.018978033 -0.06847212 0.045335572 0.051336393 -0.09243626 0.0671695 -0.10023821 -0.0031572531
0.07088636 0.061906844 0.022367356 0.07872123 -0.032350473 0.016523257 0.079707555 -0.102094114
0.06526152 0.12890147 -0.037660558 0.112130806 -0.034363315 -0.12563382 -0.10903076 -0.09018861
-0.0725025 0.0661064 -0.119228534 0.0654539 -0.07704651 -0.04108244 -0.0058142715 0.07255223
-0.08804155 0.032384843 0.06735395 -0.0048579895 0.104782045 -0.0043613017 0.11353142 0.0071067098
-0.031544875 0.10336876 0.025680024 0.08224479 -0.023188148 0.1232472 0.113880776 0.04398733
0.008330204 -0.022684624 0.04216105 0.005492351 -0.11318965 0.09270854 0.12721798 -0.066414975
-0.046158127 0.14479329 -0.094142206 -0.06369097 -0.004277769 0.06648228 -0.10106629 0.043196175
-0.017829383 -0.08260645 0.12751412 -0.046311364 -0.036304124 0.10693537 -0.04263372 0.10147491
0.07740093 -0.0850605 -0.083182506 -0.089236364 0.043173894 -0.0053235893 -0.13240819 -0.050756626
0.026855413 0.073938854 0.073928304 -0.10819456 -0.07703269 0.02480306 -0.12978375 0.09576249
0.10745614 -0.06408942 0.049720936 -0.033751726 0.042420775 -0.11476061 -0.07624539 0.11159903
-0.114669085 -0.09543873 -0.07484682 -0.11730386 -0.09244664 0.030570805 0.09529156 0.10469102
0.047944352 0.05026167 0.05958891 0.065429404 -0.04982725 0.10335939 -0.07490849 0.12593064
-0.0261633 -0.0642746 -0.08638334 0.06867185 0.12580249 0.0005815929 0.066292375 0.10172137
0.05331493 0.12793522 0.04643588 -0.09764353 0.086602874 -0.07687777 -0.061831314 0.11903935
0.065815754 0.12593815 -0.05543739 0.08148059 0.006633503 -0.0006796619 0.060405627 0.07151388
-0.109150216 -0.097947896 0.10082165 -0.09676924 -0.0105556855 0.015100351 0.12179895 -0.08780497
0.015362434 -0.024561508 0.06289123 0.00068811147 -0.03557705 0.125597 0.00953145 -0.111572765
-0.058965728 0.119635954 0.03300501 0.11669645 -0.10644732 -0.056998417 0.057172373 -0.009914272
-0.05381182 -0.088136695 -0.102932796 -0.07743395 0.022739485 0.0008711517 0.0856881 0.007904241
0.1416963 0.023450093 0.094346486 -0.060878966 0.07652299 0.102197744 -0.100210465 -0.04118638
0.115342624 0.08779267 -0.056499008 0.06855388 -0.048519596 -0.029455988 0.0723837 -0.09416288
-0.02759181 0.14034079 -0.104387306 -0.09656164 -0.039271858 0.09097543 -0.0795295 0.05556881
0.103685044 -0.07977169 -0.094528 0.10638377 0.03929564 -0.07228343 -0.045604616 -0.025690231
0.099033855 0.014242066 0.101028174 0.11270699 0.11036789 0.06361794 -0.0049145934 0.038955633
-0.05362055 0.024173666 0.1209689 -0.09297081 0.023121295 -0.12869553 0.0146809155 -0.105798244
0.11606713 0.10371254 0.09384354 -0.13645273 0.1306217 0.006678669 -0.0036987378 -0.07039094
0.009077412 -0.028239304 0.07621735 0.03002715 0.080523595 0.04012616 0.08538019 -0.117641665
-0.081028365 0.02232813 -0.07089946 -0.0034593127 -0.003318459 -0.03144517 -0.05095904 0.11583757

model.convs.2.1.convs.1.conv.bias f4 [32]
00000000: aa4c cfbd adab b63d e825 093e 2227 843d
00000010: 1c01 52bd 6150 af3d fd7f 89bd f6f6 b4bd
00000020: d831 143d 12f7 90bd 4930 e6bd d008 25bd
00000030: 918b ecbc 0d3f 403d d976 f5bc 09aa c7bd
00000040: 9c98 afbd 919a b6bd fede 06bd e11a 8ebd
00000050: c002 0dbd ea98 163d a357 58bd 470d b83d
00000060: a369 9fbd 68a5 f5bd a013 063d cdb7 ccbb
00000070: 141c 263d 74f4 8e3c f186 92bd 56fd 583c
-0.101220444 0.08919463 0.13393366 0.064527765 -0.05127059 0.08560253 -0.06713865 -0.088361666
0.036180347 -0.07078375 -0.112396784 -0.040291607 -0.028875144 0.04693513 -0.029963898 -0.097492285
-0.0857403 -0.089162 -0.032927506 -0.069387205 -0.03442645 0.036766924 -0.052817952 0.089869075
-0.077838205 -0.11994439 0.03273356 -0.0062474967 0.04055412 0.017450549 -0.07154644 0.013243994
