code/logs/epoch=1-step=386.ckpt (torch, 76945 bytes, 18 tensors)

model.encoder.rnn.weight_ih_l0 f4 [128, 1]
0	0xbe651e46	-0.2237483
1	0xbe84d4ec	-0.25943696
2	0x3d8e6e3e	0.06954621
3	0xbe23b54d	-0.1598713
4	0xbe1e4a1b	-0.15457956
5	0xbdb76b29	-0.08955986
6	0xbe84d912	-0.25946862
7	0x3d32b210	0.043626845
8	0xbdcfe6e6	-0.10151462
9	0x3d95e668	0.07319337
10	0x3deeefe0	0.11666846
11	0xbcf73bf2	-0.030179951
12	0xbd156135	-0.036469657
13	0xbd7bc84e	-0.061470322
14	0x3db3a476	0.08771603
15	0x3dddd8ae	0.10832344
16	0x3de3d9fd	0.11125562
17	0xbdf7f5c2	-0.121074215
18	0x3d56605f	0.052338
19	0x3d71d9cc	0.059045598
20	0xbb354d3b	-0.002766444
21	0xbdbd8454	-0.09253755
22	0x3ddb8d1c	0.10720274
23	0x3c822d56	0.015890758
24	0x3d3eb921	0.04656327
25	0xbe040c56	-0.12895331
26	0xbde8a441	-0.11359454
27	0xbdb6fa5c	-0.08934471
28	0xbe55ce1e	-0.20879409
29	0xbdc866e0	-0.09785247
30	0xbe4bdb77	-0.19907938
31	0x3d2fbba3	0.042903554
32	0xbe850875	-0.25983015
33	0xbe713154	-0.23553973
34	0x3d737e78	0.059446782
35	0x3cde3425	0.027124474
36	0xbe344c9a	-0.17607346
37	0x3e303020	0.17205858
38	0xbe321b96	-0.17393336
39	0xbe5cd998	-0.2156738
40	0x3add3486	0.0016876615
41	0xbdcfb3f6	-0.10141747
42	0x3e0ed6d3	0.13949136
43	0x3db43acd	0.08800278
44	0x3e2d54c1	0.16926862
45	0x3e1aeb5a	0.15128842
46	0x3b011ab5	0.0019699757
47	0x3dd0348a	0.10166271
48	0xbd80606a	-0.062683895
49	0x3e32777f	0.17428397
50	0xbe5e0840	-0.21682835
51	0xbe5ed52f	-0.2176101
52	0x3dc83177	0.0977506
53	0xbe2e35d1	-0.17012717
54	0x3dc9a86d	0.09846578
55	0xbe3777fd	-0.17916866
56	0xbe1e105a	-0.15435925
57	0x3e318e02	0.17339328
58	0xbe4d19d9	-0.20029391
59	0x3dbe2960	0.092852354
60	0xbe8009a9	-0.2500737
61	0xbe1a7a67	-0.15085755
62	0xbe6906c3	-0.22756486
63	0xbe89c60b	-0.26908907
64	0x3e0974f3	0.13423519
65	0x3e25ec7d	0.16203494
66	0x3c5e4546	0.013566321
67	0x3d59a894	0.053139284
68	0x3d8452e0	0.0646112
69	0xbe27b43b	-0.16377346
70	0xbc893408	-0.016748443
71	0x3de0e34d	0.10980854
72	0xbcb59b43	-0.022168761
73	0x3e6dcf2e	0.23223564
74	0xbdaddc7a	-0.08489318
75	0x3d2a4eea	0.041579165
76	0xbda8d958	-0.0824458
77	0x3daaee70	0.083462596
78	0x3c818ad5	0.01581327
79	0xbe0d16d9	-0.13778247
80	0xbd71dcdb	-0.059048515
81	0xbe20e00a	-0.15710464
82	0x3dd5fa6f	0.10448157
83	0x3e25ca23	0.1619039
84	0xbdcbbead	-0.09948478
85	0x3dc8d2c0	0.09805822
86	0xbd3894cd	-0.045063782
87	0x3e5cdced	0.21568651
88	0xbdea3993	-0.11436763
89	0xbdf94e22	-0.12173106
90	0xbe6381a5	-0.22217424
91	0x3ddc0b72	0.107443705
92	0xbc9d98f5	-0.019237975
93	0x3d3a1a9a	0.045435525
94	0x3d30d0d1	0.043167893
95	0xbe8106ff	-0.2520065
96	0xbe0ba0ca	-0.13635555
97	0xbe4c00f0	-0.19922233
98	0xbde75e8d	-0.11297331
99	0xbd7ee7f4	-0.062232926
100	0x3d2604b4	0.04053183
101	0x3ddf22e8	0.1089533
102	0xbd9a5f70	-0.075377345
103	0x3dbbd9c4	0.09172395
104	0xbe77ce7a	-0.24199858
105	0xbd967024	-0.07345608
106	0x3e4d9603	0.20076756
107	0xbe593572	-0.21211794
108	0x3def7dce	0.11693917
109	0xbd4668fd	-0.04843997
110	0xbe05f3f0	-0.13081336
111	0xbaec91df	-0.0018048844
112	0xbbb36d38	-0.0054756664
113	0xbb02b36c	-0.001994337
114	0x3c186c0d	0.009303105
115	0xbe030980	-0.12796593
116	0x3d70bda2	0.058774598
117	0x3db20dd8	0.08694047
118	0xbdef4ff5	-0.116851725
119	0x3c69dec9	0.0142743075
120	0xbd18960d	-0.037252475
121	0x3d31f19b	0.043443304
122	0x3c8a8bda	0.01691239
123	0xbd509c1b	-0.050930124
124	0xbe099a56	-0.1343778
125	0x3cea5ad8	0.02860777
126	0xbe37c37d	-0.17945667
127	0xbe5d8fa3	-0.21636824

model.encoder.rnn.weight_hh_l0 f4 [128, 32]
0	0xbc677281	-0.014126421
1	0xbd775983	-0.0603881
2	0xbd769624	-0.06020178
3	0x3e18db73	0.14927463
4	0x3e4d3b14	0.20042068
5	0x3dd6a8eb	0.10481437
6	0xbe0f34db	-0.13985007
7	0x3d5cbbef	0.053890165
8	0xbe515041	-0.2044077
9	0x3d336f39	0.043807242
10	0x3e1139d6	0.14182219
11	0xbe1494c1	-0.1450987
12	0x3dcf6c22	0.101280466
13	0xbe269402	-0.16267398
14	0x3d283f60	0.041076064
15	0xbdfb3579	-0.122660585
16	0x3e51862b	0.20461337
17	0x3e57382e	0.21017525
18	0xbe326fa7	-0.17425404
19	0x3d9af879	0.07566924
20	0x3e326f79	0.17425336
21	0xbdf8f0f6	-0.12155335
22	0xbe09067e	-0.13381383
23	0xbe392bee	-0.18083164
24	0x3e6e037b	0.23243515
25	0x3d603a74	0.054743245
26	0xbca6b9c2	-0.020352248
27	0x3c1ae1fc	0.009453293
28	0xbd70435d	-0.058657993
29	0xbda3a858	-0.079910934
30	0xbd212c04	-0.039348617
31	0x3df9bd78	0.121943414
32	0xbb5a8dc8	-0.0033348668
33	0xbd5171cb	-0.051133912
34	0x3e39de41	0.1815119
35	0xbd4a88cf	-0.049446877
36	0xbd734302	-0.059390076
37	0xbe012c19	-0.12614478
38	0xbe26f42e	-0.16304085
39	0x3d90670c	0.07050905
40	0x3dfdf1fb	0.1239967
41	0xbc186d0a	-0.009303341
42	0xbc97f653	-0.018550074
43	0x3ce4bd2d	0.027922237
44	0xbd6b12c3	-0.05739094
45	0xbd39b866	-0.04534187
46	0xbd0500e2	-0.032471545
47	0xbd4343b0	-0.047671974
48	0x3cbe25c1	0.023211362
49	0xbdb81a38	-0.08989376
50	0xbc7198f5	-0.01474594
51	0xbe04ad92	-0.12956837
52	0xbd67c422	-0.05658353
53	0xbdbe5868	-0.09294206
54	0x3e0ff556	0.14058432
55	0xbd799df6	-0.06094166
56	0x3dff7dc0	0.12475157
57	0xbd753360	-0.05986345
58	0x3e280306	0.16407403
59	0x3e15d288	0.14631093
60	0xbe481e50	-0.19542813
61	0xbe4c3828	-0.19943297
62	0xbd7bf103	-0.061509144
63	0xbb95e442	-0.0045743296
64	0x3d7d127b	0.061785202
65	0xbde6c826	-0.11268644
66	0x3df2b486	0.11850838
67	0x3dcdb01e	0.10043357
68	0xbe12eed4	-0.14348918
69	0x3e0f4487	0.13990985
70	0xbdfffc53	-0.12499299
71	0xbe1d92ac	-0.15387982
72	0x3d39e430	0.045383632
73	0x3e1775ec	0.14791077
74	0x3e160c03	0.1465302
75	0xbe4189a1	-0.18900158
76	0xbd4b82e2	-0.049685366
77	0x3d16a8fb	0.036782246
78	0xbe2e49cd	-0.1702034
79	0x3d7b1ea0	0.061308503
80	0xbddae423	-0.10688045
81	0x3db04a34	0.08607903
82	0xbe3bc2d8	-0.18336046
83	0x3daea793	0.08528056
84	0x3e5d5db7	0.2161778
85	0xbdda92b2	-0.10672511
86	0xbdf21777	-0.11820882
87	0xbe131eac	-0.14367169
88	0xbc719500	-0.014744997
89	0x3d1321ae	0.03592079
90	0x3b12a3b7	0.0022375414
91	0xbe51d2dd	-0.20490594
92	0x3da31691	0.079632886
93	0xbd415bea	-0.047206797
94	0xbe507a80	-0.2035923
95	0x3de1ced5	0.11025778
96	0xbdf63da6	-0.12023477
97	0x3ca2e066	0.019882392
98	0xbdd68a6a	-0.10475619
99	0x3dd22996	0.10261838
100	0xbccb828d	-0.024842525
101	0xbde77c71	-0.11303032
102	0x3ce87ebd	0.028380746
103	0x3df4fb94	0.11962047
104	0xbe152efd	-0.14568706
105	0xbd149d41	-0.03628278
106	0x3dc84a3d	0.09779785
107	0xbe42cee7	-0.1902424
108	0x3dce91ae	0.1008638
109	0x3da2b45a	0.079445556
110	0xbdaeda9d	-0.08537791
111	0xbe171324	-0.14753395
112	0x3d19fd50	0.037595093
113	0xbd8d377b	-0.06895348
114	0x3e024c7d	0.1272449
115	0xbc4d267a	-0.012521381
116	0xbd39c1b1	-0.045350734
117	0x3e258900	0.16165543
118	0xbe2380d8	-0.15967119
119	0xbd3e9369	-0.0465273
120	0x3e5432c6	0.20722494
121	0x3d27f149	0.04100159
122	0x3e2e8ae9	0.17045178
123	0x3b8ac9ba	0.0042354735
124	0x3e24b8b2	0.1608608
125	0xbd874818	-0.06605548
126	0x3dcca24a	0.09991892
127	0x3e58cf54	0.2117284
128	0xbe326d6b	-0.17424552
129	0x3db21f27	0.08697348
130	0xbd1636be	-0.0366733
131	0xb9e909e8	-0.00044448604
132	0xbdedb06d	-0.11605916
133	0x3e1c1514	0.15242416
134	0xbe0528b5	-0.1300381
135	0x3e55664a	0.20839801
136	0xbe06e562	-0.1317344
137	0xbc126b47	-0.00893671
138	0xbdcccffe	-0.10000609
139	0xbddb05fb	-0.106945
140	0x3e2225e3	0.15834765
141	0x3d6837d9	0.056693885
142	0x3da3c024	0.07995632
143	0x3e5bd3d2	0.21467522
144	0x3d14c555	0.036321003
145	0x3e43fd83	0.19139676
146	0x3e3aca64	0.18241268
147	0xbdf26e48	-0.11837441
148	0xbe029bd9	-0.12754764
149	0xbe50fe18	-0.20409429
150	0x3e03d9f9	0.12876119
151	0x3d6a8585	0.05725624
152	0x3d21bd74	0.039487317
153	0xbdcc38fd	-0.09971807
154	0x3dfd3b03	0.12364771
155	0xbdcdd0f5	-0.10049621
156	0xbdf8c909	-0.121477194
157	0x3d32f7e5	0.043693442
158	0x3bc1be7e	0.005912601
159	0x3df4d601	0.119548805
160	0xbd0663c1	-0.032809976
161	0xbe327327	-0.1742674
162	0x3e32e181	0.17468835
163	0x3b9de72c	0.0048188176
164	0x3e48e2c1	0.1961775
165	0xbd517723	-0.05113901
166	0xbe0f7a38	-0.14011467
167	0x3d10abfc	0.035320267
168	0xbe36f209	-0.17865767
169	0xbda14832	-0.07875098
170	0xbd55c5f9	-0.052190755
171	0xbd4cfbc3	-0.050044786
172	0xbc71dc92	-0.014762061
173	0x3e2cf20f	0.16889213
174	0x3e0d582c	0.13803166
175	0x3e0b8c0c	0.13627642
176	0xbd2a580f	-0.041587885
177	0xbe3c8421	-0.18409778
178	0xbdb37f46	-0.0876451
179	0x3d94ccc0	0.072656155
180	0x3d8cd3fc	0.0687637
181	0xbdb1ff3c	-0.0869126
182	0x3a2c4e5c	0.0006572956
183	0xbd191272	-0.037371106
184	0x3cd2554b	0.025675436
185	0x3db49f1e	0.08819412
186	0x3e11dd08	0.14244473
187	0xbe289260	-0.16462088
188	0xbe423e8e	-0.18969175
189	0x3e028fe7	0.12750207
190	0x3d2acca2	0.04169906
191	0x3e2065cb	0.15663831
192	0x3d46c433	0.048526954
193	0x3e1059d3	0.14096765
194	0xbdf80826	-0.12110929
195	0xbd747a54	-0.059686974
196	0x3d93e842	0.07222034
197	0xbdb92ab6	-0.090413496
198	0xbe323eb8	-0.17406738
199	0x3d4d0c91	0.050060812
200	0xbe0330e6	-0.12811622
201	0x3da90f83	0.08254912
202	0xbdf65bcb	-0.12029227
203	0xbd4d8ac4	-0.050181165
204	0xbc778321	-0.015106947
205	0x3cf06e1a	0.029349376
206	0xbd8628e3	-0.06550767
207	0x3da35dc6	0.0797687
208	0xbd89c746	-0.067274615
209	0xbcd3757b	-0.025812855
210	0xbd90b151	-0.070650704
211	0xbceda922	-0.029011313
212	0x3d8af51b	0.067850314
213	0xbdd0122c	-0.10159716
214	0x3e1c2063	0.1524673
215	0xbdeef3f4	-0.11667624
216	0x3e4b6bff	0.19865416
217	0x3e06b4cb	0.13154905
218	0xbdb35870	-0.087571025
219	0x3d3e3117	0.046433534
220	0xbd0c8ebe	-0.034315817
221	0x3c8c68c0	0.017139792
222	0x3dd38243	0.1032758
223	0x3e2c5d73	0.16832523
224	0xbd97ddab	-0.07415327
225	0x3d21053d	0.039311636
226	0x3e46c52c	0.19411153
227	0xbdcaad0f	-0.098962896
228	0xbdb04b2e	-0.086080894
229	0x3b922f99	0.0044612405
230	0xbdafb3be	-0.08579205
231	0xbdf5d064	-0.12002638
232	0x3c1cd840	0.009573042
233	0x3e29b2b7	0.1657208
234	0xbc060ce5	-0.008181785
235	0x3b8ab42f	0.0042329053
236	0xbe4b6a43	-0.19864754
237	0x3d658c09	0.05604175
238	0x3c449936	0.011999419
239	0x3e0d96e2	0.13827088
240	0xbdc42244	-0.09576848
241	0x3cd5c072	0.026092742
242	0xbcac9d50	-0.021071106
243	0xbd97cb0a	-0.074117735
244	0xbdec5f06	-0.11541562
245	0xbe1852fd	-0.14875408
246	0x3d3919f4	0.045190766
247	0xbd546a36	-0.051859103
248	0x3e2fd210	0.17169976
249	0x3d6d4ded	0.057935644
250	0x3d1f1ad1	0.038843933
251	0x3e28fd80	0.16502953
252	0xb9a21c4b	-0.00030920128
253	0x3d46ebd4	0.048564747
254	0x3d452f7f	0.048141
255	0x3d9a4ccf	0.07534181

model.encoder.rnn.bias_ih_l0 f4 [128]
0	0xbc427b72	-0.011870252
1	0x3ae4630f	0.0017424541
2	0xbe140b49	-0.1445743
3	0xbce723e3	-0.028215354
4	0x3db28592	0.08716883
5	0xbdb750c8	-0.08950955
6	0xbe2177c9	-0.1576835
7	0xbdf61611	-0.120159276
8	0xbe35f219	-0.17768134
9	0x3da4c37d	0.08045099
10	0xbe18e864	-0.149324
11	0x3c330fd9	0.010929071
12	0x3dd0903e	0.10183762
13	0x3db8dfbf	0.09027051
14	0x3db82119	0.08990688
15	0x3e137b45	0.14402492
16	0x3d8eadf6	0.06966774
17	0xbb851158	-0.0040609054
18	0xbdcd464b	-0.10023173
19	0x3d8d960e	0.06913386
20	0xbe1374e2	-0.14400056
21	0xbc5ccd79	-0.013476723
22	0x3d1fb51a	0.03899107
23	0x3debd5bb	0.11515375
24	0xbdb2d1f1	-0.087314494
25	0x3d90ec76	0.07076351
26	0x3e268845	0.1626292
27	0x3e13604a	0.143922
28	0x3e3c59de	0.18393657
29	0x3db400ed	0.08789239
30	0x3cad5d09	0.021162527
31	0x3e37ed51	0.17961623
32	0xbcb1f697	-0.021724029
33	0xbd021ea6	-0.03176751
34	0xbda30083	-0.07959082
35	0x3d07b45c	0.03313099
36	0x3c93f706	0.018062126
37	0x3e38e1ac	0.18054837
38	0xbd12b2da	-0.035815097
39	0xbdebde30	-0.11516988
40	0x3d87b490	0.066262364
41	0x3ce971c2	0.028496627
42	0x3d38fc17	0.045162287
43	0xbdd2a8f8	-0.102861345
44	0xbdd70010	-0.10498059
45	0xbca88ff1	-0.02057645
46	0xbdd27db6	-0.10277884
47	0x3c9f9c95	0.019483844
48	0xbe11efa7	-0.14251576
49	0xbe19ba8f	-0.15012573
50	0x3dc90062	0.09814526
51	0xbdf4eb0e	-0.119588956
52	0xbd92f6d0	-0.07175982
53	0x3c102842	0.008798661
54	0xbd558850	-0.05213195
55	0x3e0879f0	0.13327765
56	0xbdd40862	-0.103531614
57	0xbd783510	-0.06059748
58	0xbd35fce7	-0.04443064
59	0xbe355c57	-0.17711006
60	0xbdedee05	-0.11617664
61	0x3e4a5f80	0.19762993
62	0x3cad7729	0.021174984
63	0x3cea49d8	0.028599665
64	0xbc76ba9c	-0.01505914
65	0xbc95dfc7	-0.018295182
66	0x3e0a2422	0.13490346
67	0x3e1a234e	0.1505253
68	0x3e60c63c	0.2195062
69	0x3e06390c	0.13107699
70	0xbdcb77a2	-0.099349275
71	0x3c213c27	0.009841002
72	0x3d86e18f	0.06585991
73	0xbdb2f483	-0.08738043
74	0x3d917285	0.07101921
75	0x3b440bca	0.0029914253
76	0x3d480b3b	0.048838835
77	0xbcbbef67	-0.022941304
78	0x3e54b119	0.20770682
79	0x3d9d109a	0.07669182
80	0xbdb9fc28	-0.09081298
81	0x3dc8b874	0.09800807
82	0x3c9a68dd	0.01884883
83	0xbda41937	-0.08012622
84	0x3d343b06	0.0440016
85	0x3da8ee3c	0.082485646
86	0x3c1da59a	0.009622002
87	0x3d5e2712	0.05423648
88	0xbddfaaa9	-0.10921223
89	0x3e1eb84b	0.1549999
90	0x3e3a0a49	0.18167986
91	0xbd0dc43a	-0.034610964
92	0xbe2918c6	-0.16513357
93	0xbd51a12f	-0.051179107
94	0x3e033621	0.12813617
95	0x3e343b01	0.17600633
96	0x3df53691	0.11973298
97	0x3e39bd23	0.18138556
98	0x3d6aeae0	0.0573529
99	0xbdd412e6	-0.10355167
100	0x3dcd25af	0.10016953
101	0x3e14e806	0.14541635
102	0x3e31dced	0.17369433
103	0xbdb921f4	-0.09039679
104	0xbe39c94f	-0.181432
105	0xbc918552	-0.017763767
106	0xbd3610d7	-0.044449653
107	0xbdd26622	-0.102733865
108	0xbd0d7724	-0.03453745
109	0x3c5bc01d	0.013412503
110	0xbcc5c194	-0.024140157
111	0x3cce993a	0.025219548
112	0x3c2b5266	0.010456657
113	0x3e17ed3f	0.14836596
114	0xbd4506f4	-0.048102334
115	0xbdfef165	-0.12448386
116	0x3d5ad4ec	0.053425714
117	0x3e07fc2b	0.13279788
118	0x3d6f48a8	0.0584189
119	0x3d3a82fa	0.045535065
120	0x3d29be14	0.04144104
121	0x3d7b4016	0.061340414
122	0x3dd2f204	0.10300067
123	0xbd428a28	-0.047495037
124	0x3ab788b9	0.0014002539
125	0xbdcbec8a	-0.099572256
126	0x3d8d9b20	0.06914353
127	0x3da309ec	0.07960877

model.encoder.rnn.bias_hh_l0 f4 [128]
0	0xbbb67e04	-0.0055692215
1	0x3d466b29	0.04844204
2	0x3e0677a9	0.13131584
3	0x3e12258b	0.14272134
4	0x3e0f3d0d	0.13988133
5	0x3e516b77	0.20451151
6	0xbcf60552	-0.030031834
7	0x3d873925	0.06602696
8	0xbe23e367	-0.16004716
9	0x3e36fb26	0.17869243
10	0xbe0f64c8	-0.14003289
11	0xbd9e94a3	-0.07743194
12	0x3de74fdb	0.11294528
13	0xbdfdeda5	-0.12398843
14	0x3e214d03	0.15752034
15	0x3e0ada3b	0.13559811
16	0xbc158e01	-0.009128095
17	0xbd9d67a9	-0.07685787
18	0xbdb765f3	-0.08954992
19	0x3ae1565f	0.0017191878
20	0x3cbb497c	0.022862189
21	0xbc82f375	-0.01598523
22	0xbd491030	-0.049087703
23	0xbe0b5e51	-0.13610198
24	0x3d333cc1	0.04375911
25	0x3dd33376	0.1031255
26	0xbde014a6	-0.109414384
27	0xbdcc81c1	-0.09985686
28	0xbd0fabcb	-0.035075944
29	0x3ced7143	0.028984671
30	0xbdd60411	-0.10449994
31	0x3e45317a	0.19257155
32	0x3e0ed2d2	0.13947609
33	0x3dc38159	0.095461555
34	0xbc45c81d	-0.0120716365
35	0x3d895e47	0.06707435
36	0x3ddc1abb	0.10747286
37	0x3d7e67e2	0.06211079
38	0x3dd361e8	0.103214085
39	0xbd37b389	-0.044848952
40	0x3df2b14d	0.11850224
41	0x3cd3fefd	0.025878424
42	0xbcc751a0	-0.024330914
43	0xbd078afc	-0.03309153
44	0x3d95acf7	0.07308381
45	0xbd84f001	-0.064910896
46	0x3e3dc2be	0.1853132
47	0xbe09dac1	-0.13462354
48	0xbe19a089	-0.15002646
49	0x3e32df62	0.17468026
50	0x3d33cac6	0.04389455
51	0x3e1b89ee	0.15189335
52	0x3e49792d	0.19675131
53	0xbd547961	-0.05187357
54	0xbcc63237	-0.024193866
55	0x3e33cf9d	0.17559667
56	0xbdaa2871	-0.08308495
57	0xbcf8fe58	-0.030394718
58	0xbd80186e	-0.062546596
59	0xbd7fc791	-0.06244618
60	0x3d1fbe6e	0.038999967
61	0x3d759dd4	0.05996497
62	0xbd5f2d1a	-0.05448637
63	0x3e5502d3	0.20801859
64	0xbd83a9db	-0.06428882
65	0xbe28b847	-0.16476546
66	0x3d1cfbb1	0.03832597
67	0x3dcd4fcd	0.100249864
68	0xbc80f16a	-0.015740115
69	0x3d611c8b	0.05495886
70	0x3e3c2e70	0.1837709
71	0x3df8b9cc	0.12144813
72	0xbdfc6804	-0.12324527
73	0x3db2b969	0.087267704
74	0xbd506dc5	-0.050885934
75	0x3e2963f4	0.16542035
76	0xbdb69f47	-0.089170985
77	0x3e00704c	0.12542838
78	0xbd4e00da	-0.05029378
79	0x3d887d65	0.06664542
80	0xbcabc796	-0.020969193
81	0xbd74c992	-0.059762545
82	0x3e22c9eb	0.15897338
83	0xbdbdef12	-0.09274115
84	0xbe41d374	-0.18928319
85	0xbe52a86f	-0.20572065
86	0x3e01fc29	0.12693848
87	0xbd883e88	-0.06652552
88	0x3d97726d	0.07394872
89	0xbdc22a8e	-0.09480773
90	0x3dcfa84d	0.10139523
91	0x3e27adf7	0.16374956
92	0xbe23664d	-0.15956993
93	0xbd3dd4e2	-0.0463456
94	0x3e0ec208	0.13941205
95	0xbde9e4ef	-0.11420619
96	0xbd220c2e	-0.039562397
97	0x3dbc9d1c	0.09209654
98	0xbdd217da	-0.102584556
99	0xbdeee957	-0.116656
100	0xbd583069	-0.052780543
101	0xbe02440e	-0.12721273
102	0xbda4bcf9	-0.08043856
103	0x3d4ddcb9	0.050259326
104	0x3e116912	0.14200237
105	0x3e4b19c0	0.19834042
106	0x3d9b09a2	0.07570197
107	0x3de2da02	0.11076738
108	0xbe2f6610	-0.17128778
109	0x3d274c55	0.04084428
110	0x3dfbb0a8	0.12289554
111	0xbe3b3cef	-0.18284963
112	0xbd66555d	-0.056233753
113	0xbcd4e6c5	-0.025988946
114	0xbded3204	-0.11581805
115	0xbd211bb7	-0.03933307
116	0x3e4afe22	0.19823506
117	0xbccc246a	-0.024919707
118	0xbcda1461	-0.026621046
119	0xbd4020e1	-0.046906356
120	0x3c50056f	0.012696608
121	0x3e337010	0.17523217
122	0xbde9c3d1	-0.11414302
123	0xbe43de0d	-0.19127674
124	0x3d5feae7	0.05466738
125	0xbc6e0e27	-0.014529741
126	0x3df40094	0.11914173
127	0x3c73e5be	0.014886318

model.encoder.readout.weight f4 [24, 32]
0	0x3d8e057c	0.0693464
1	0x3dfb6bad	0.12276397
2	0xba0b9806	-0.00053250825
3	0xbe3aaa9c	-0.18229145
4	0x3c26b6dc	0.010175433
5	0xbdbcd2f7	-0.09219926
6	0xbdf3ac18	-0.11898059
7	0xbdeb162d	-0.11478839
8	0x3c25dda0	0.01012364
9	0xbc85af95	-0.016319076
10	0xbda6224e	-0.08112012
11	0xbe375fac	-0.1790759
12	0xbdcce253	-0.100041054
13	0x3dda1442	0.10648395
14	0xbd90226f	-0.07037818
15	0xbd096dea	-0.033552088
16	0x3bae555d	0.0053202347
17	0x3dadde59	0.08489675
18	0xbe1d986f	-0.1539018
19	0xbdc80124	-0.097658426
20	0x3ca9b241	0.02071488
21	0x3dc043c0	0.09387922
22	0xbd34bba8	-0.044124275
23	0xbd9929f6	-0.074787065
24	0x3ce94e64	0.028479762
25	0x3dacb5f2	0.08433141
26	0x3c47595c	0.012167301
27	0x3b920631	0.0044563045
28	0x3de84105	0.113405265
29	0xbd0469fe	-0.032327645
30	0xbe47a085	-0.19494827
31	0xbe458ebe	-0.19292733
32	0xbd4ff093	-0.05076654
33	0xbd04644b	-0.03232221
34	0xbcef98c5	-0.02924765
35	0xbd93cc51	-0.07216705
36	0xbc672ae6	-0.014109349
37	0x3cf7d56c	0.030253135
38	0x3cd73cdb	0.026274135
39	0x3d927e78	0.07153028
40	0x3dc2c757	0.09510677
41	0x3d12e70d	0.03586488
42	0xbd67ebf9	-0.056621525
43	0x3e06a1a2	0.13147596
44	0x3ba77d6d	0.0051113875
45	0xbd460b75	-0.04835077
46	0x3cb5692c	0.022144876
47	0xbde84230	-0.11340749
48	0xbdac0429	-0.08399231
49	0x3c2d15ff	0.010564326
50	0xbdbc23fc	-0.09186551
51	0x3d7eadc7	0.062177446
52	0xbe141fe4	-0.1446529
53	0xbcccc29d	-0.024995143
54	0xbd08b0ba	-0.033371665
55	0x3e155d15	0.14586289
56	0xbe1ace9a	-0.15117875
57	0xbe0dcb81	-0.13847162
58	0xbe47af42	-0.1950045
59	0xbda5126d	-0.08060155
60	0x3df07518	0.11741084
61	0x3c8a1eca	0.016860384
62	0x3bcf96f2	0.0063351328
63	0x3d2a8d28	0.041638523
64	0xbc825f36	-0.01591454
65	0xbc3e7284	-0.011623982
66	0xbdac3cc2	-0.08410026
67	0x3dea8851	0.114517815
68	0xbe084482	-0.13307384
69	0xbddf0d4e	-0.108912095
70	0x3cc92d0b	0.024557611
71	0xbd96ef0e	-0.07369815
72	0x3dbdfa87	0.092763
73	0x3d20ceb5	0.03925963
74	0xbd312cdd	-0.043255676
75	0xbd9ec502	-0.0775242
76	0xbdca6d9f	-0.0988419
77	0x3d76dbb8	0.060268134
78	0x3d1fbb9a	0.03899727
79	0x3dc6a431	0.09699286
80	0x3c979fb2	0.018508766
81	0xbb9cfdad	-0.0047909827
82	0xbd7511a8	-0.05983129
83	0x3d983084	0.074311286
84	0x3ca19a7c	0.019726984
85	0x3c84dd28	0.016218737
86	0xbc4fc6c1	-0.012681664
87	0x3de94fa1	0.11392141
88	0xbd695d7f	-0.05697393
89	0x3d33b78e	0.043876223
90	0xbdea7530	-0.11448133
91	0xbdba4d5b	-0.09096786
92	0x3e2113b5	0.15730174
93	0xbc0b023c	-0.008484419
94	0xbd016066	-0.031586073
95	0xbdbf15ae	-0.09330307
96	0xbe156fa2	-0.14593366
97	0x3e0f4a1e	0.13993117
98	0x3dc8c636	0.09803431
99	0xbdd34ddd	-0.103175856
100	0xbe0a2a4f	-0.13492702
101	0xbdb59ca0	-0.088677645
102	0x3e096995	0.13419183
103	0x3df9caaf	0.12196862
104	0x3dffa5b0	0.12482774
105	0xbe1fd3eb	-0.15608184
106	0xbde368b4	-0.11103955
107	0x3e109d2b	0.14122455
108	0x3e12f79b	0.14352266
109	0x3de4be45	0.111691035
110	0x3dc1e946	0.094683215
111	0xbe4343c4	-0.1906882
112	0x3ba40c43	0.0050063445
113	0xbe305353	-0.17219286
114	0xbdfea6cb	-0.12434157
115	0x3e40717d	0.18793292
116	0x3d8bee29	0.06832535
117	0xbdc25cf1	-0.094903834
118	0x3dc66ade	0.09688352
119	0x3ded8369	0.1159733
120	0xbde01e39	-0.109432645
121	0xbb404329	-0.0029336906
122	0x3dd6f768	0.10496408
123	0xbc63d4e1	-0.013905735
124	0xbe023807	-0.12716685
125	0x3e0d0bc4	0.1377402
126	0x3ca2537c	0.0198152
127	0xbe00886d	-0.12552042
128	0xbde71dbd	-0.11284969
129	0x3ded74f4	0.11594573
130	0xbd927759	-0.0715167
131	0x3dec3f4d	0.11535511
132	0x3dffe137	0.12494128
133	0x3d828879	0.06373686
134	0xbdeb3835	-0.1148533
135	0x3c2788d4	0.010225493
136	0xbcd40162	-0.025879566
137	0x3e5b6480	0.21425056
138	0xbd0cded2	-0.034392186
139	0x3d936af9	0.07198138
140	0xbc31bd3b	-0.010848339
141	0xbd9bf8e9	-0.07615835
142	0xbe0153b8	-0.12629592
143	0x3ccdf26e	0.025140014
144	0xbe30fac8	-0.17283165
145	0xbc280dae	-0.010257168
146	0x3d74a0ba	0.059723593
147	0x3cc32893	0.023823058
148	0xbe1b0652	-0.1513913
149	0xbdbef417	-0.093239
150	0x3d80a0ef	0.06280696
151	0x3d912158	0.07086438
152	0xbded03c8	-0.11572987
153	0xbd19bb91	-0.037532393
154	0xba0a24b4	-0.00052697514
155	0xbdcb2d1a	-0.09920712
156	0x3df6db0d	0.12053499
157	0x3dfce412	0.123481885
158	0xbc9dbd46	-0.019255292
159	0xbd6c2527	-0.05765262
160	0x3e5fc663	0.21853022
161	0x3abdf2be	0.0014491898
162	0xbd99c96e	-0.07509123
163	0xbcf2110d	-0.029549146
164	0xbd423b85	-0.047420043
165	0xbc513b52	-0.012770491
166	0xbc69ee7e	-0.014278052
167	0x3cadbba2	0.021207634
168	0x3dc4aad8	0.09602898
169	0x3dae9501	0.08524514
170	0xbd86541b	-0.065590106
171	0x3e0a5701	0.13509752
172	0xbd6ecc18	-0.058300108
173	0x3c949aba	0.018140186
174	0x3c1e12bd	0.009648022
175	0xbdcbcfc0	-0.099517345
176	0x3c9b163d	0.018931502
177	0xbe586f92	-0.2113631
178	0x3e060a7e	0.1308994
179	0x3db6c50a	0.08924301
180	0x3e1e6b01	0.15470506
181	0x3e366965	0.17813642
182	0xbe2fb146	-0.17157468
183	0xbde9f44a	-0.114235476
184	0xbe4212ce	-0.18952486
185	0x3ceb6d07	0.028738512
186	0xbcd7b681	-0.026332142
187	0x3d5661f9	0.052339528
188	0x3dfd79f2	0.12376775
189	0xbddc8b88	-0.10768801
190	0xbd4d007e	-0.050049298
191	0xbe1c6a02	-0.15274814
192	0xbda1e21e	-0.079044566
193	0xbdd1a9e7	-0.102374844
194	0x3d9b2c76	0.075768396
195	0x3b70e245	0.003675596
196	0x3ccfc19d	0.025360877
197	0xbe0a42d9	-0.13502063
198	0xbe510138	-0.20410621
199	0xbd1bf47d	-0.03807496
200	0x3d53582f	0.05159777
201	0xbdb0c6e8	-0.08631688
202	0x3d4f5628	0.050619274
203	0xbe6221bc	-0.22083181
204	0x3d9a85b9	0.07545037
205	0x3e224f7b	0.15850632
206	0xbe60e9e2	-0.21964219
207	0xbe2a82dd	-0.16651483
208	0xbbe8b13f	-0.0071012075
209	0xbc52eff1	-0.012874589
210	0xbe36907c	-0.17828554
211	0xbd3e0703	-0.046393406
212	0x3e3a9ff8	0.18225086
213	0x3e116cf0	0.14201713
214	0x3da17c96	0.07885091
215	0x3e7223cd	0.2364647
216	0xbe0ae265	-0.13562925
217	0xbd1175cc	-0.03551273
218	0xbdc02568	-0.09382135
219	0xbd9b6ffb	-0.07589718
220	0x3d178f41	0.037001852
221	0x3e0d1ad4	0.13779765
222	0x3cb5356c	0.0221202
223	0xbe18c123	-0.14917426
224	0x3e2fea25	0.17179163
225	0x3d8205c7	0.06348758
226	0xbc166ca2	-0.0091811735
227	0xbe318ccc	-0.17338866
228	0x3d32186e	0.04348033
229	0xbe48595d	-0.1956534
230	0xbe072df8	-0.1320113
231	0x3e1962a9	0.14979042
232	0x3c8691dc	0.016426973
233	0x3da78ce5	0.081811704
234	0x3df841ba	0.12121911
235	0xbda69d44	-0.08135465
236	0xbdcb2e12	-0.099208966
237	0xbc987dd4	-0.018614687
238	0x3cfebaed	0.031094993
239	0xbc6cea9d	-0.014460233
240	0x3cb6723f	0.022271274
241	0xbd88f58b	-0.066874586
242	0x3e202988	0.15640843
243	0x3e23ad86	0.15984163
244	0x3da15dba	0.07879205
245	0xbde25e13	-0.110530995
246	0xbd2a22b2	-0.041536994
247	0xbdecb7e9	-0.115585156
248	0xbe3a339d	-0.18183751
249	0xbdf042b3	-0.11731472
250	0x3c930a54	0.01794926
251	0xbdfd3da7	-0.12365275
252	0x3cb24878	0.021763071
253	0x3dba224e	0.09088574
254	0x3c8f06d6	0.017459314
255	0x3c10e5e2	0.008843871

model.encoder.readout.bias f4 [24]
0	0x3ddc9138	0.10769886
1	0xbdfdbf87	-0.123900466
2	0x3d4a8915	0.049447138
3	0xbe0b1e0b	-0.13585679
4	0xbe148163	-0.14502482
5	0xbd129931	-0.035790626
6	0x3e00f570	0.12593627
7	0xbca52a4c	-0.02016177
8	0xbe07ad91	-0.13249804
9	0xbdec76cd	-0.11546097
10	0x3d7164b2	0.05893392
11	0xbe0cf8ae	-0.13766739
12	0xbd66dacc	-0.056361005
13	0x3db15458	0.086586654
14	0x3db75142	0.089510456
15	0x3de96d91	0.11397851
16	0xbdf13389	-0.11777408
17	0x3d9aa48d	0.07550917
18	0xbdfcc90a	-0.12343033
19	0xbe275fd4	-0.1634515
20	0xbc0793c2	-0.008274974
21	0x3d8fdd3a	0.070246175
22	0xbdf7f4e8	-0.12107259
23	0x3d8be5dd	0.06830952

exp_avg f4 [128, 1]
0	0x392b192f	0.00016317212
1	0x39b89f73	0.00035214014
2	0xb8df74ec	-0.00010655247
3	0xb80f7652	-3.420405e-05
4	0xb951fc6a	-0.00020025825
5	0xb9f3d166	-0.00046504586
6	0xb7d5dd37	-2.549459e-05
7	0x3935bb70	0.00017331331
8	0x3603b99d	1.9628562e-06
9	0x39874b8c	0.00025805493
10	0xb7cd8f82	-2.450473e-05
11	0x39357aea	0.00017307294
12	0xb912b475	-0.0001399087
13	0x38c76111	9.5071395e-05
14	0xb8da7d66	-0.00010418407
15	0x383488ed	4.3042866e-05
16	0xb7b2b670	-2.1304208e-05
17	0x39a044a9	0.00030568734
18	0xb83b39c7	-4.4638084e-05
19	0xb8bb28f1	-8.924481e-05
20	0x36c3c6cc	5.834596e-06
21	0x38160442	3.5766752e-05
22	0xb876983b	-5.8792746e-05
23	0x39c2ad1b	0.00037131537
24	0xb8b9a835	-8.8528184e-05
25	0xb981205c	-0.00024628907
26	0x389810a9	7.251028e-05
27	0x37e41866	2.719108e-05
28	0xb989609b	-0.00026202653
29	0xb9414ca6	-0.00018434468
30	0xb9a30842	-0.00031095935
31	0x39fbc0d8	0.0004801813
32	0x38d250b2	0.00010028611
33	0x393786e7	0.00017502495
34	0xb916ef6b	-0.00014394305
35	0xb86b37d9	-5.608038e-05
36	0xb99b64e5	-0.00029639076
37	0xba921497	-0.0011145052
38	0xb7bed0e0	-2.274703e-05
39	0x38bf5796	9.123904e-05
40	0xb6ad3221	-5.1616375e-06
41	0x393ee8c1	0.0001820652
42	0xb96f9032	-0.00022846533
43	0x391f6876	0.00015202336
44	0xb9253f89	-0.00015759295
45	0x3806f47b	3.217578e-05
46	0xb8dd42e8	-0.000105505635
47	0xb880d494	-6.1431114e-05
48	0xb8eb9f5b	-0.000112353555
49	0xb97d97c5	-0.00024184499
50	0xb92dd16b	-0.0001657658
51	0xb8bc743e	-8.9861904e-05
52	0xb876d4df	-5.8849222e-05
53	0xb7955ca3	-1.7805321e-05
54	0xb85a8511	-5.2099178e-05
55	0x39bebe05	0.000363812
56	0xb8a6e27b	-7.957682e-05
57	0xb9c4b8fb	-0.00037521854
58	0x39068717	0.00012829561
59	0x37a28964	1.9375882e-05
60	0xb95cc3a2	-0.00021053714
61	0xb91dd705	-0.00015052788
62	0xb98b1b54	-0.00026532507
63	0x39bdb665	0.00036184784
64	0x3a9be2d8	0.0011893166
65	0x3b2acc53	0.0026061728
66	0xbaa7e4f6	-0.0012809325
67	0xb9f54cff	-0.00046787408
68	0xba55637e	-0.00081401307
69	0xbb67da7f	-0.0035378037
70	0xb9c24a9e	-0.00037058158
71	0x39ba78ac	0.00035566592
72	0x39d1bb47	0.0004000312
73	0x3ad3bc35	0.0016154113
74	0xba8a8647	-0.0010568582
75	0x39e354f5	0.00043360112
76	0xbad3e36e	-0.0016165802
77	0x3a0d9f0c	0.0005402423
78	0xbaa2d25a	-0.0012422309
79	0xba8a4c8d	-0.0010551378
80	0xb99294a6	-0.00027958042
81	0xbabbca10	-0.0014327187
82	0xba3bbd6d	-0.00071617105
83	0x3ad58d4e	0.0016292722
84	0xb9987052	-0.00029075384
85	0x39f62a6c	0.00046952383
86	0xba524d67	-0.0008022398
87	0x3aa37cc8	0.0012473101
88	0xbae0a1ee	-0.0017138103
89	0xbb286c32	-0.0025699255
90	0xbaae850a	-0.0013314795
91	0xb974817e	-0.00023317893
92	0x3a7b50e5	0.00095869444
93	0x3ad54915	0.001627239
94	0xba58765a	-0.0008257382
95	0xbaa0e41b	-0.0012275012
96	0x38ea55c1	0.000111739624
97	0x396fa16e	0.00022852953
98	0xb91754e0	-0.000144321
99	0xb7e13541	-2.6846888e-05
100	0xb9728ec6	-0.00023132106
101	0xba78334e	-0.0009468094
102	0x37242144	9.782907e-06
103	0x38e9627d	0.00011128651
104	0xb400a648	-1.1981422e-07
105	0xb759cb73	-1.2981577e-05
106	0xb8dcc508	-0.000105271174
107	0x39a48482	0.00031379244
108	0xb9db150c	-0.00041786616
109	0x3913f8a9	0.00014111646
110	0x3907f324	0.0001296518
111	0x3a092a27	0.00052324164
112	0xba292494	-0.0006452289
113	0x38b4f9bb	8.629585e-05
114	0x380b07a5	3.3147302e-05
115	0xb9b066ec	-0.0003364602
116	0xb924d04c	-0.00015717855
117	0xb6e0c25e	-6.6983475e-06
118	0xb8f4ca4c	-0.000116725074
119	0x398b6b93	0.00026592295
120	0x37bc6aa0	2.2460998e-05
121	0xb9c96ea3	-0.00038420138
122	0x3836e78b	4.3607823e-05
123	0x3887aec6	6.469856e-05
124	0xb957c242	-0.00020576364
125	0xb91f2337	-0.0001517654
126	0xb98709be	-0.00025756465
127	0x39d9c650	0.0004153722

exp_avg_sq f4 [128, 1]
0	0x35df4d02	1.6637207e-06
1	0x36c1806f	5.7668e-06
2	0x34947566	2.7652567e-07
3	0x350e9143	5.3110506e-07
4	0x3580afb9	9.587885e-07
5	0x36255678	2.4637247e-06
6	0x33cecc51	9.6297875e-08
7	0x34e1dedd	4.207167e-07
8	0x3499abea	2.8623555e-07
9	0x36008c2c	1.9155077e-06
10	0x3457be0c	2.0092574e-07
11	0x34a50659	3.0738263e-07
12	0x35a03281	1.1935628e-06
13	0x335c1d87	5.1249597e-08
14	0x3460906f	2.091417e-07
15	0x335bdb64	5.1189446e-08
16	0x34682074	2.161849e-07
17	0x35f90622	1.8553731e-06
18	0x35af1f58	1.3047638e-06
19	0x35de3500	1.6555714e-06
20	0x3481f708	2.420786e-07
21	0x349333a7	2.7418466e-07
22	0x34d89993	4.0344875e-07
23	0x3625091d	2.459222e-06
24	0x3614c680	2.216926e-06
25	0x360cfffc	2.1010628e-06
26	0x35dfc5e1	1.6672385e-06
27	0x3466d902	2.1499366e-07
28	0x36185402	2.2698664e-06
29	0x35f3e903	1.8172726e-06
30	0x35c01dd6	1.4313798e-06
31	0x364d388a	3.058029e-06
32	0x35ea20e1	1.7443928e-06
33	0x36dba190	6.545517e-06
34	0x343b091b	1.7419045e-07
35	0x352195b2	6.019501e-07
36	0x35a2876c	1.2109354e-06
37	0x3616d6fb	2.2476877e-06
38	0x339fd71e	7.443144e-08
39	0x343b00c6	1.7416014e-07
40	0x34353f38	1.6879937e-07
41	0x361244a6	2.1795654e-06
42	0x34d7d876	4.0204367e-07
43	0x348e5f81	2.651905e-07
44	0x35981c85	1.1333183e-06
45	0x3310211b	3.3557722e-08
46	0x351afb4c	5.7735156e-07
47	0x34402ecd	1.789842e-07
48	0x34329036	1.6630005e-07
49	0x35aaecd5	1.2734914e-06
50	0x353b710f	6.982745e-07
51	0x35ceb2b2	1.5400203e-06
52	0x3487f26b	2.5322092e-07
53	0x3489896d	2.561823e-07
54	0x34a14d5e	3.004488e-07
55	0x35f637e2	1.8344692e-06
56	0x359d57f6	1.1723012e-06
57	0x35e2091d	1.6840964e-06
58	0x35cefe40	1.5422193e-06
59	0x34358c61	1.6908008e-07
60	0x3605168b	1.9831666e-06
61	0x36154521	2.2242968e-06
62	0x359ecc6f	1.1831415e-06
63	0x3699ac08	4.5797824e-06
64	0x38a176eb	7.6992284e-05
65	0x38f66ca0	0.00011750427
66	0x37aa3d37	2.0294085e-05
67	0x381668f9	3.586055e-05
68	0x37ad68c8	2.0672e-05
69	0x388a5299	6.595738e-05
70	0x37026d78	7.7740915e-06
71	0x369d93af	4.6961572e-06
72	0x36aef8a7	5.214551e-06
73	0x38a59d8d	7.897159e-05
74	0x37527cd9	1.2546044e-05
75	0x365063b5	3.1052452e-06
76	0x3850599c	4.967452e-05
77	0x35a612b2	1.2373405e-06
78	0x3820a897	3.8303984e-05
79	0x3725774e	9.862544e-06
80	0x36cbce4a	6.0738867e-06
81	0x382220b5	3.865427e-05
82	0x37ce9af9	2.4629278e-05
83	0x38580f63	5.1512743e-05
84	0x368b31a2	4.148301e-06
85	0x37a393cf	1.9499943e-05
86	0x37eeb43b	2.8455737e-05
87	0x38346594	4.3009946e-05
88	0x385c8916	5.257976e-05
89	0x38bcd290	9.003759e-05
90	0x3802c779	3.118019e-05
91	0x373dca86	1.13124315e-05
92	0x3839435a	4.4170163e-05
93	0x388f3d0d	6.830143e-05
94	0x3786e052	1.6078502e-05
95	0x3954cb3c	0.00020293606
96	0x35ee57d8	1.7757948e-06
97	0x36e780a6	6.899313e-06
98	0x34887be3	2.5422113e-07
99	0x353ab051	6.9546974e-07
100	0x35f0260a	1.7892464e-06
101	0x361ec721	2.3659743e-06
102	0x33b48ba5	8.4073044e-08
103	0x34c72bec	3.7098596e-07
104	0x34757f0a	2.286362e-07
105	0x3694ab4c	4.4306853e-06
106	0x343eeb08	1.7780633e-07
107	0x3551f092	7.8208643e-07
108	0x360435be	1.9700815e-06
109	0x33791539	5.7994132e-08
110	0x35833dc9	9.778242e-07
111	0x351e799b	5.9036546e-07
112	0x356287ce	8.438918e-07
113	0x35b79f0c	1.3680851e-06
114	0x35dc171f	1.6398006e-06
115	0x36418c5f	2.8840948e-06
116	0x34855ae3	2.483931e-07
117	0x34aab590	3.1797072e-07
118	0x34cfeaf1	3.8727697e-07
119	0x36683ec1	3.4607222e-06
120	0x3645e733	2.9489863e-06
121	0x35c139b2	1.4396412e-06
122	0x36003718	1.9105555e-06
123	0x34eb3515	4.3810783e-07
124	0x364fc5fe	3.096065e-06
125	0x36950fec	4.4423996e-06
126	0x35b47ed6	1.3447959e-06
127	0x36a25d6f	4.8388533e-06

exp_avg f4 [128, 32]
0	0xb897fe31	-7.247588e-05
1	0xb8dd5037	-0.000105530424
2	0x387767f1	5.8986192e-05
3	0x38bba132	8.94688e-05
4	0x396ed47d	0.00022776607
5	0x39232b67	0.0001556106
6	0x38974aef	7.2141986e-05
7	0x390cae9a	0.00013416485
8	0xb8908116	-6.890499e-05
9	0xb638cb30	-2.7536407e-06
10	0xb86dbd05	-5.668124e-05
11	0x3933fd6c	0.00017165177
12	0xb83b2c3a	-4.4625463e-05
13	0x36996c51	4.572365e-06
14	0x3906e29c	0.00012863654
15	0x372eb5ed	1.0413566e-05
16	0xb840e869	-4.5992816e-05
17	0xb7aba73c	-2.0462663e-05
18	0x390df1a7	0.0001353683
19	0xb8b12447	-8.446775e-05
20	0xb90f2d3b	-0.00013654392
21	0xb8a8f607	-8.0566904e-05
22	0x388f1b93	6.8239075e-05
23	0xb76266e3	-1.3494605e-05
24	0x3724e7e3	9.829152e-06
25	0x3824db1d	3.9304712e-05
26	0x38dc3768	0.00010500738
27	0x38695e9a	5.5639634e-05
28	0xb93b9fed	-0.00017893287
29	0xb8d9b962	-0.000103818966
30	0x3949d3dc	0.00019247778
31	0xb7d80c2f	-2.575488e-05
32	0xb92f5f3a	-0.00016724775
33	0xb984e467	-0.00025347175
34	0x39072065	0.00012886671
35	0x3953991a	0.00020179563
36	0x3a040d3d	0.0005037373
37	0x39b73d4d	0.00034950153
38	0x392c23b2	0.00016416496
39	0x399a4ed8	0.00029431912
40	0xb92896b1	-0.00016077865
41	0xb7d8fb70	-2.5866291e-05
42	0xb9045fee	-0.00012624238
43	0x39c52214	0.00037600158
44	0xb8aa300b	-8.1151804e-05
45	0xb599b9b2	-1.1453433e-06
46	0x3993bca3	0.0002817857
47	0x3787897d	1.6157277e-05
48	0xb8bdb83a	-9.046537e-05
49	0xb80feb5c	-3.4313052e-05
50	0x399a51f7	0.00029434238
51	0xb946d8a8	-0.00018963462
52	0xb9999a2e	-0.00029297307
53	0xb93a5155	-0.00017768641
54	0x391fb996	0.00015232558
55	0xb861c9ac	-5.3832002e-05
56	0x382bddc9	4.097613e-05
57	0x38bfe04a	9.149367e-05
58	0x3977305b	0.0002357377
59	0x38f43f21	0.00011646585
60	0xb9cbc7b8	-0.0003886798
61	0xb9858b1a	-0.00025471376
62	0x39dbfc17	0.00041958757
63	0xb7a872be	-2.0080592e-05
64	0xb820c91c	-3.833427e-05
65	0xb873d468	-5.8133533e-05
66	0x37cf9d9d	2.4749717e-05
67	0x3821670e	3.848137e-05
68	0x38bdfe6a	9.0596106e-05
69	0x3891d3d2	6.9535934e-05
70	0x380ad452	3.3099503e-05
71	0x384533e8	4.70168e-05
72	0xb7f8b4c1	-2.9648074e-05
73	0xb7b47950	-2.1514163e-05
74	0xb783c3f4	-1.5707665e-05
75	0x388aa71b	6.6114786e-05
76	0xb6e694cf	-6.8718577e-06
77	0xb6a3d1ad	-4.882188e-06
78	0x38569695	5.1161816e-05
79	0x3758a1c0	1.2912264e-05
80	0xb7206bc0	-9.561831e-06
81	0x36b3f648	5.3632866e-06
82	0x384dd749	4.907631e-05
83	0xb83da271	-4.5212397e-05
84	0xb8390852	-4.4115186e-05
85	0xb8260da5	-3.959019e-05
86	0x37fe27f8	3.0297771e-05
87	0xb7c8b1a0	-2.3924571e-05
88	0x37810e73	1.5384727e-05
89	0x37e29561	2.701086e-05
90	0x3877337d	5.893734e-05
91	0x3794d370	1.7741433e-05
92	0xb8a2b8de	-7.759196e-05
93	0xb856427f	-5.1083505e-05
94	0x38ac9631	8.2295745e-05
95	0x371cd363	9.347542e-06
96	0xb840624b	-4.586791e-05
97	0xb894e0d7	-7.0990696e-05
98	0x3801cbed	3.0945917e-05
99	0x384b6929	4.849691e-05
100	0x38f55c60	0.000116997166
101	0x38b2bf78	8.523365e-05
102	0x382b4a86	4.0838982e-05
103	0x38868ab2	6.415452e-05
104	0xb81eccd1	-3.7860886e-05
105	0xb7c5f466	-2.3598037e-05
106	0xb7f21ef3	-2.886306e-05
107	0x38b481ad	8.607223e-05
108	0xb77c03c5	-1.5021248e-05
109	0xb699575b	-4.569925e-06
110	0x388b2368	6.6346314e-05
111	0x3730924e	1.0524482e-05
112	0xb7821f64	-1.5511825e-05
113	0x35a517f0	1.2300425e-06
114	0x38887bc5	6.508039e-05
115	0xb864d730	-5.4559845e-05
116	0xb882311c	-6.2080304e-05
117	0xb84b2bea	-4.843987e-05
118	0x381f11ab	3.792501e-05
119	0xb7da1fab	-2.6002372e-05
120	0x378bdbab	1.6672382e-05
121	0x37f4e97e	2.9195795e-05
122	0x3894355e	7.06713e-05
123	0x37c7e4b0	2.382914e-05
124	0xb8cb74b9	-9.7015356e-05
125	0xb888e4b8	-6.5275875e-05
126	0x38d8d824	0.00010339942
127	0x36c272ca	5.7950137e-06
128	0xb8bf7f98	-9.131356e-05
129	0xb911f5d2	-0.00013919853
130	0x382e75ec	4.1594656e-05
131	0x38974d50	7.214642e-05
132	0x3935b3db	0.00017328507
133	0x39069765	0.00012835635
134	0x389276aa	6.9839254e-05
135	0x38b637ed	8.688853e-05
136	0xb88c544c	-6.691422e-05
137	0xb899d78f	-7.3357594e-05
138	0xb84463c4	-4.6822955e-05
139	0x390065bf	0.00012244935
140	0xb69feccd	-4.7661365e-06
141	0xb7a47c8a	-1.9608317e-05
142	0x38c9d5e1	9.624265e-05
143	0x37279fef	9.991213e-06
144	0xb7159a88	-8.917072e-06
145	0x3783c797	1.5709358e-05
146	0x38ba118b	8.872439e-05
147	0xb8c429a9	-9.353768e-05
148	0xb8a13854	-7.68757e-05
149	0xb8a528f9	-7.875445e-05
150	0x387c4a4a	6.015067e-05
151	0xb89f9399	-7.609203e-05
152	0x385483da	5.0667535e-05
153	0x385c7408	5.256015e-05
154	0x38fee67b	0.00012154594
155	0x37c22cec	2.314752e-05
156	0xb9140fb4	-0.0001412023
157	0xb9000b8d	-0.00012211334
158	0x3920dd95	0.00015341335
159	0x388b5a00	6.6448e-05
160	0xb89b1cbf	-7.39633e-05
161	0xb8ea4083	-0.00011170006
162	0x382ffb7c	4.1957464e-05
163	0x388da1c5	6.753536e-05
164	0x392e15f6	0.00016602114
165	0x3944ab60	0.00018755859
166	0x3884adc2	6.3266154e-05
167	0x388995fa	6.5606044e-05
168	0xb87664dd	-5.8744907e-05
169	0xb89b26d9	-7.398212e-05
170	0x3827c1d5	3.9996423e-05
171	0x38f08694	0.00011469159
172	0x3834f2ef	4.3141594e-05
173	0xb84db8c3	-4.904788e-05
174	0x38b0c604	8.429217e-05
175	0x387a2e3e	5.964771e-05
176	0x37d6a8b0	2.558934e-05
177	0x3863f25e	5.434674e-05
178	0x38a0e649	7.6722885e-05
179	0xb8cea0b4	-9.852779e-05
180	0xb824de09	-3.9307433e-05
181	0xb8b3ffd1	-8.583035e-05
182	0x386c9ca1	5.6412657e-05
183	0xb89d75d2	-7.508289e-05
184	0x388ac6fa	6.617415e-05
185	0x38c9e767	9.627529e-05
186	0x38f950fc	0.0001188833
187	0x37a1c816	1.9285868e-05
188	0xb90c7883	-0.00013396335
189	0xb900a599	-0.00012268721
190	0x391a49e7	0.00014714115
191	0x37d20917	2.5038184e-05
192	0xb800262e	-3.0553136e-05
193	0xb83db415	-4.5228826e-05
194	0x374ef7a8	1.2336219e-05
195	0x37b98c0f	2.2118938e-05
196	0x3840c51b	4.5959936e-05
197	0x3812e54d	3.5022666e-05
198	0x37b732fa	2.1839038e-05
199	0x37b0d9d7	2.1082275e-05
200	0xb7aa074d	-2.0268979e-05
201	0xb7c2019b	-2.312735e-05
202	0xb70d247f	-8.412752e-06
203	0x37fcc273	3.0131288e-05
204	0x36c67ac9	5.915154e-06
205	0xb6c22423	-5.7858574e-06
206	0x37d34d27	2.5189087e-05
207	0x364fd980	3.0972005e-06
208	0xb4b2dd7e	-3.331624e-07
209	0x3714f407	8.8783045e-06
210	0x37bb7a0c	2.234897e-05
211	0xb7e03e13	-2.6731786e-05
212	0xb78f03f7	-1.7048775e-05
213	0xb7b53857	-2.1603117e-05
214	0x378f15ad	1.7057022e-05
215	0xb7e476d6	-2.7235055e-05
216	0x37959ca5	1.7835127e-05
217	0x378ff453	1.71607e-05
218	0x38164d42	3.583474e-05
219	0x36a90bc4	5.037962e-06
220	0xb8229d41	-3.8770264e-05
221	0xb816b4dd	-3.593123e-05
222	0x382e03bf	4.148832e-05
223	0x3810ec26	3.4552206e-05
224	0x369ac260	4.612186e-06
225	0x36b081d9	5.260325e-06
226	0xb6d96a5c	-6.479486e-06
227	0xb702e0f2	-7.800978e-06
228	0xb7ed4c95	-2.8288263e-05
229	0xb7534ce1	-1.259448e-05
230	0xb6aae411	-5.0929452e-06
231	0xb78fed83	-1.7157528e-05
232	0x36137953	2.1975327e-06
233	0xb5ccf14f	-1.5269414e-06
234	0x37b2a6de	2.1296957e-05
235	0xb7d6499b	-2.5545063e-05
236	0x37b46a97	2.1507307e-05
237	0xb6f64919	-7.339881e-06
238	0xb79ff4c0	-1.9068248e-05
239	0xb66abed9	-3.4979805e-06
240	0x374b77bd	1.2127622e-05
241	0x373608bd	1.085008e-05
242	0xb792465f	-1.7437325e-05
243	0x37637354	1.3557106e-05
244	0x37c1a774	2.308537e-05
245	0x376d4340	1.4141959e-05
246	0xb7117d00	-8.671777e-06
247	0xb68cc74f	-4.1955277e-06
248	0x3716266a	8.949641e-06
249	0x351fd8bd	5.954751e-07
250	0xb7a6ea14	-1.9897743e-05
251	0xb7146b78	-8.846509e-06
252	0x37f21342	2.8857616e-05
253	0x3585573d	9.934662e-07
254	0xb7f840d5	-2.9594094e-05
255	0x38009009	3.065172e-05

exp_avg_sq f4 [128, 32]
0	0x34bda69b	3.5325215e-07
1	0x3576cf42	9.194374e-07
2	0x33a11965	7.501766e-08
3	0x34699294	2.1753141e-07
4	0x358181c3	9.649015e-07
5	0x35272c15	6.2276496e-07
6	0x34672864	2.1528245e-07
7	0x34870f23	2.5156723e-07
8	0x345272da	1.9599557e-07
9	0x348250ae	2.427309e-07
10	0x337a9096	5.833916e-08
11	0x34ef65ab	4.4591192e-07
12	0x3234ef5c	1.0531803e-08
13	0x32c825cd	2.3300254e-08
14	0x3499f58c	2.867713e-07
15	0x319b13e4	4.513355e-09
16	0x31787af7	3.6158647e-09
17	0x32e3dd6d	2.652697e-08
18	0x347292db	2.2591432e-07
19	0x34a3b65f	3.0493808e-07
20	0x34586f96	2.0157162e-07
21	0x345c47a1	2.0515155e-07
22	0x340bd020	1.3021099e-07
23	0x34ba10ac	3.465733e-07
24	0x340e4a35	1.3251777e-07
25	0x340dd65c	1.3209632e-07
26	0x350fe6da	5.3607585e-07
27	0x32a661b3	1.9369372e-08
28	0x352c2dbd	6.414155e-07
29	0x35240482	6.110132e-07
30	0x354a6cae	7.5409014e-07
31	0x34eab410	4.371691e-07
32	0x359920e6	1.1408963e-06
33	0x365245c3	3.1333045e-06
34	0x34a5af5f	3.0861244e-07
35	0x354805fb	7.451451e-07
36	0x365bedf7	3.2772057e-06
37	0x360eeec7	2.1298636e-06
38	0x353c6342	7.0179897e-07
39	0x3566f3d3	8.603649e-07
40	0x35323dc8	6.640007e-07
41	0x355f5093	8.3191225e-07
42	0x3457247f	2.0036713e-07
43	0x35c9479c	1.4996508e-06
44	0x3317725e	3.5261444e-08
45	0x33b1c2ef	8.277663e-08
46	0x357f0e46	9.5015673e-07
47	0x33511697	4.868215e-08
48	0x32ac976c	2.0092294e-08
49	0x33b892fe	8.5949054e-08
50	0x354db8c7	7.663734e-07
51	0x3588d33c	1.0194267e-06
52	0x353f1c47	7.1194194e-07
53	0x353863d4	6.869061e-07
54	0x34efadcc	4.4643673e-07
55	0x359996c7	1.144327e-06
56	0x34ea94ea	4.3694246e-07
57	0x34eef113	4.450636e-07
58	0x35ef2aff	1.7819401e-06
59	0x33958dd4	6.9641516e-08
60	0x36145533	2.210331e-06
61	0x3608f1bd	2.040629e-06
62	0x362bf18b	2.5621582e-06
63	0x35b54549	1.3505716e-06
64	0x3395040d	6.93909e-08
65	0x344b3e8c	1.8928603e-07
66	0x32b34c6c	2.0873095e-08
67	0x335c51d8	5.1297178e-08
68	0x346823fb	2.1619773e-07
69	0x34108910	1.3460908e-07
70	0x3340a52e	4.4853714e-08
71	0x338446c5	6.159602e-08
72	0x33371a04	4.263167e-08
73	0x334cbb7d	4.766797e-08
74	0x327c5e6a	1.4689798e-08
75	0x33d9f7f1	1.014995e-07
76	0x3105ff60	1.9499211e-09
77	0x31958603	4.351706e-09
78	0x3385e70a	6.235321e-08
79	0x30f4cbb9	1.7811238e-09
80	0x31278077	2.4374722e-09
81	0x319f53de	4.6370436e-09
82	0x33668eaf	5.3680818e-08
83	0x33862dbc	6.24818e-08
84	0x3370a457	5.602882e-08
85	0x3341129f	4.495325e-08
86	0x330310c9	3.051608e-08
87	0x338f5a43	6.675375e-08
88	0x32d6220e	2.4928365e-08
89	0x32e79791	2.6960864e-08
90	0x33e934a0	1.08594804e-07
91	0x31d856ea	6.2963084e-09
92	0x341c9e7f	1.4586293e-07
93	0x34068741	1.2528928e-07
94	0x343469a2	1.6802235e-07
95	0x33a526d3	7.690473e-08
96	0x33c05140	8.955476e-08
97	0x34839ab9	2.4513227e-07
98	0x32d3bbe5	2.4649077e-08
99	0x33889209	6.359557e-08
100	0x3494365a	2.7606694e-07
101	0x3437f89d	1.7133648e-07
102	0x33778a40	5.7634907e-08
103	0x33aa2fba	7.924923e-08
104	0x336788b9	5.3908227e-08
105	0x3385930e	6.220044e-08
106	0x32aa26d1	1.9808256e-08
107	0x340d0248	1.3132478e-07
108	0x316cbe46	3.4450678e-09
109	0x31b9f4a5	5.4120215e-09
110	0x33acb8d0	8.042991e-08
111	0x3138899e	2.685375e-09
112	0x31548574	3.092592e-09
113	0x31d97306	6.328608e-09
114	0x33952a8e	6.946094e-08
115	0x33abf372	8.0070905e-08
116	0x3397afee	7.063487e-08
117	0x336f5cc8	5.5730908e-08
118	0x331fd142	3.721039e-08
119	0x33b9e10c	8.6556696e-08
120	0x330c0617	3.260183e-08
121	0x3311cae7	3.3944982e-08
122	0x3415f596	1.396605e-07
123	0x32090f94	7.977992e-09
124	0x34460845	1.8443195e-07
125	0x342d93e3	1.6165681e-07
126	0x3464cfdf	2.1309778e-07
127	0x33d9d0fa	1.01428625e-07
128	0x344c00c0	1.8999253e-07
129	0x35109014	5.385384e-07
130	0x337d991d	5.904541e-08
131	0x3410e6ee	1.3495057e-07
132	0x3522f75c	6.070966e-07
133	0x34c86d6f	3.7332526e-07
134	0x340267e8	1.2144994e-07
135	0x343be362	1.7498454e-07
136	0x3400e1e9	1.2003115e-07
137	0x34180267	1.4156977e-07
138	0x334bf464	4.7486893e-08
139	0x34994ff2	2.855664e-07
140	0x321c3e1e	9.094519e-09
141	0x32621cf9	1.3161519e-08
142	0x3437360f	1.706287e-07
143	0x32115d9c	8.461395e-09
144	0x32054c32	7.758944e-09
145	0x324fbfd5	1.2092603e-08
146	0x342195a9	1.504874e-07
147	0x34368efb	1.7002087e-07
148	0x342740b4	1.5576626e-07
149	0x33fe182b	1.1832193e-07
150	0x33aa98d6	7.9440426e-08
151	0x344a3de9	1.8835239e-07
152	0x339db5dd	7.343963e-08
153	0x339b1cf7	7.2230186e-08
154	0x349b3347	2.890831e-07
155	0x3289655e	1.5994996e-08
156	0x34d4c7ce	3.9633454e-07
157	0x34bdd7f1	3.536111e-07
158	0x34f6e65c	4.598868e-07
159	0x345c7ede	2.053525e-07
160	0x344fa894	1.9339706e-07
161	0x350dc6c1	5.281582e-07
162	0x336c6d30	5.5047337e-08
163	0x3406da34	1.2559104e-07
164	0x351e5c1b	5.899362e-07
165	0x34ce1bb4	3.8390647e-07
166	0x34038c1a	1.2251294e-07
167	0x342e13d6	1.6212229e-07
168	0x3402f34f	1.2195709e-07
169	0x341d5da6	1.4655834e-07
170	0x33511ab1	4.868588e-08
171	0x34913c15	2.705207e-07
172	0x32730f58	1.414795e-08
173	0x3299b51d	1.7893905e-08
174	0x342f6d38	1.6337879e-07
175	0x327330df	1.4155574e-08
176	0x31e00d81	6.5207932e-09
177	0x328534eb	1.5507302e-08
178	0x34174753	1.4088918e-07
179	0x3435b4b5	1.692268e-07
180	0x3412c652	1.3669458e-07
181	0x33ff093c	1.18760425e-07
182	0x33a5f433	7.727831e-08
183	0x3457cd1a	2.0098051e-07
184	0x33b1f5fb	8.2869484e-08
185	0x33ab26da	7.969875e-08
186	0x3498fce4	2.8496208e-07
187	0x325853e4	1.2591929e-08
188	0x34c6dd5b	3.704143e-07
189	0x34c49ed8	3.662342e-07
190	0x34ec7dfd	4.4050094e-07
191	0x3463ec68	2.1227027e-07
192	0x32a4acc7	1.9170683e-08
193	0x336ee364	5.5620504e-08
194	0x31ca685c	5.890838e-09
195	0x3269d3b1	1.3610518e-08
196	0x336fa399	5.5795315e-08
197	0x331e129d	3.680417e-08
198	0x3247fe9b	1.1641215e-08
199	0x3280c669	1.4991388e-08
200	0x3243bb9e	1.1393153e-08
201	0x328f2916	1.6666075e-08
202	0x317428b4	3.552981e-09
203	0x32d0e326	2.4317682e-08
204	0x306c2337	8.5906343e-10
205	0x30b3fb86	1.3095451e-09
206	0x32833ea9	1.5278902e-08
207	0x2fefae29	4.3597595e-10
208	0x2fd35d00	3.8446757e-10
209	0x30aa8500	1.2406929e-09
210	0x32585434	1.2592e-08
211	0x3299575c	1.785127e-08
212	0x325a7804	1.27165585e-08
213	0x3251f90f	1.22220305e-08
214	0x320c759e	8.175816e-09
215	0x32b42e57	2.097583e-08
216	0x32083ebd	7.930507e-09
217	0x320de12c	8.258478e-09
218	0x32fcb50f	2.9418997e-08
219	0x30bfe8b4	1.3963217e-09
220	0x33223591	3.7767283e-08
221	0x3314206e	3.448843e-08
222	0x333b43e3	4.3601073e-08
223	0x32beb6a2	2.2201963e-08
224	0x3328a1ca	3.9262694e-08
225	0x33ffd80d	1.1913662e-07
226	0x3287525c	1.5753521e-08
227	0x33086ecd	3.176574e-08
228	0x34170add	1.4066923e-07
229	0x33b555c0	8.444067e-08
230	0x32d41fa6	2.469444e-08
231	0x33387909	4.295092e-08
232	0x32ecfd44	2.7589188e-08
233	0x33153886	3.4743174e-08
234	0x326e62e4	1.3875908e-08
235	0x338b3f30	6.4841856e-08
236	0x31909d7b	4.208855e-09
237	0x3156b06c	3.1241383e-09
238	0x331f5f27	3.7106613e-08
239	0x31079946	1.9732211e-09
240	0x314f6129	3.0177694e-09
241	0x3138d62c	2.6897267e-09
242	0x3316a51b	3.507476e-08
243	0x331c7f75	3.6437502e-08
244	0x33340ab5	4.1919254e-08
245	0x32e9d637	2.7222184e-08
246	0x32a1a2c9	1.8816893e-08
247	0x33353e2a	4.2198884e-08
248	0x329695e9	1.753047e-08
249	0x328c3078	1.6320186e-08
250	0x33750eca	5.705696e-08
251	0x3190cc7c	4.2141988e-09
252	0x33bf06c1	8.895359e-08
253	0x33a6307f	7.738799e-08
254	0x33dd0433	1.0291878e-07
255	0x3320ee4b	3.746963e-08

exp_avg f4 [128]
0	0x3a69a0fe	0.00089122343
1	0x3afd6dc8	0.0019335086
2	0x39c7a670	0.00038080243
3	0x39fecd68	0.00048599695
4	0x3a1c5a25	0.00059643603
5	0x3a06696b	0.0005127403
6	0x392637f5	0.00015851839
7	0xb934ef95	-0.00017255389
8	0x39a1cca3	0.0003086078
9	0x3a056049	0.0005087895
10	0x385d93d5	5.2828185e-05
11	0xb9d32ed8	-0.00040279957
12	0x37a222f3	1.932818e-05
13	0x3877b870	5.906116e-05
14	0x38ec83ee	0.00011277931
15	0x380f93db	3.4231558e-05
16	0xb8790a72	-5.9375954e-05
17	0x3925edbb	0.00015824188
18	0x39614c86	0.0002148618
19	0x3a5174ab	0.0007990102
20	0xb94cc5ff	-0.00019528715
21	0x3956cce4	0.00020484958
22	0x39fe022b	0.0004844827
23	0x3a175330	0.0005772589
24	0x39fbac78	0.0004800295
25	0x3a114d26	0.0005542807
26	0x3a317412	0.000676931
27	0xb60b161d	-2.0725486e-06
28	0x3a753bcf	0.00093549205
29	0x3a8a2495	0.0010539467
30	0x3a60030a	0.0008545375
31	0x3a1b40d4	0.0005922441
32	0x3a3f0102	0.0007286222
33	0x3af3aec2	0.0018591511
34	0x3990e75f	0.00027638205
35	0x39f60fac	0.00046932453
36	0x3a4a405d	0.00077152794
37	0x3a0ea63b	0.00054416404
38	0x390d7f98	0.0001349434
39	0xb91af1f5	-0.0001477672
40	0x396df35c	0.0002269274
41	0x39e10d07	0.0004292505
42	0xb70c8cf6	-8.37747e-06
43	0xb9b16617	-0.00033836134
44	0xb8dec10a	-0.00010621741
45	0x3821cfaa	3.8578793e-05
46	0x392ccdeb	0.00016479909
47	0x38620a15	5.389199e-05
48	0xb88e65be	-6.7900386e-05
49	0x380d4fa8	3.3691205e-05
50	0x397185dd	0.00023033419
51	0x3a56efed	0.0008199204
52	0xb95eb477	-0.00021238798
53	0x395ccaff	0.00021056457
54	0x39d61b9d	0.00040837834
55	0x3a07e513	0.0005183976
56	0x39bca159	0.00035978368
57	0x39ee8599	0.00045494435
58	0x3a2c055b	0.00065620773
59	0xb72f5619	-1.0450859e-05
60	0x3a7d3596	0.0009659169
61	0x3a8c7ffb	0.0010719293
62	0x3a530441	0.0008049645
63	0x3a1aa2e3	0.0005898906
64	0xbbeb7a74	-0.0071862284
65	0xbc392ee2	-0.011302682
66	0x3b6fc003	0.0036582954
67	0x3b8fb10e	0.0043851202
68	0x3b2b0d0d	0.0026100308
69	0x3ae3c087	0.0017376103
70	0x3a8484bf	0.0010110362
71	0xba9e9730	-0.0012099501
72	0xbadeb14a	-0.0016990092
73	0xbc233e68	-0.009963609
74	0xba62dd24	-0.00086541683
75	0xbadd9563	-0.0016905483
76	0x3bdaf2c6	0.006681773
77	0xb56d5ddd	-8.842597e-07
78	0x399dd942	0.00030107243
79	0x39d9d44a	0.00041547633
80	0x3ae95620	0.0017802157
81	0x3bb8e71e	0.0056427857
82	0x3aaabe7c	0.001302674
83	0xbbb764e2	-0.005596743
84	0x3adc2989	0.0016797046
85	0xbacc1ddf	-0.0015572867
86	0x3b9a0d36	0.004701282
87	0xbbea41a2	-0.0071489373
88	0x3bc5ba57	0.0060341763
89	0x3c09a119	0.008400225
90	0x3b7b1dfb	0.003831743
91	0x39d2781e	0.00040143816
92	0xbb7dc60e	-0.0038722786
93	0xbc012d73	-0.007884371
94	0x3b2b9b04	0.0026184926
95	0x3c82dfee	0.015975919
96	0x3a5b2029	0.0008358979
97	0x3aef68ae	0.001826545
98	0x39bb9244	0.00035776396
99	0x3a0fcd95	0.0005485651
100	0x3a68c411	0.0008879314
101	0x3a1afa4c	0.0005911931
102	0x3918380a	0.00014516726
103	0xb9366049	-0.00017392742
104	0x398ee8b3	0.00027257725
105	0x3a1d82ec	0.00060085836
106	0x376c3fe3	1.4081571e-05
107	0xb9d43189	-0.00040472698
108	0xb80be3b0	-3.3352233e-05
109	0x387009ee	5.7229707e-05
110	0x393301c9	0.00017071435
111	0x382a3cc1	4.058774e-05
112	0xb8bfb22b	-9.140776e-05
113	0x38d274d3	0.000100353405
114	0x397bba0f	0.00024006538
115	0x3a7f1656	0.00097308063
116	0xb9350529	-0.00017263427
117	0x39609f1a	0.00021421575
118	0x39f8621c	0.00047375343
119	0x3a0ec86f	0.0005446737
120	0x3a07e84e	0.00051844574
121	0x39e9af4e	0.00044571835
122	0x3a356770	0.00069200154
123	0x36c13d4e	5.758985e-06
124	0x3a96ba5c	0.0011499631
125	0x3aacf49e	0.001319546
126	0x3a548fc5	0.00081085815
127	0x3a5bcfe5	0.0008385166
