code/logs/epoch=1-step=200.ckpt (torch, 67921 bytes, 15 tensors)

model.encoder.rnn.weight_ih_l0 f4 [128, 1]
000000 9f 1a 2c be 1b 42 8a 3d da 8a be 3c 03 e2 51 be
       -0.1680703 0.0675089 0.023259569 -0.20496373
000010 40 c6 c4 bd f6 4a 87 3e fa 32 17 3e 84 7a 07 3d
       -0.09608126 0.26424378 0.1476554 0.033075824
000020 07 b6 69 3d db 03 60 3d d9 6e 6c bd 37 2b f1 bc
       0.05705836 0.054691177 -0.0577229 -0.029439552
000030 88 e9 25 b9 27 ac 2d 3e a3 e4 f6 bc 5b d7 30 3e
       -0.00015822623 0.16960202 -0.03013832 0.17269652
000040 45 ca 6b 3e bf 9b b5 3d 72 cb 13 be 73 89 81 3d
       0.23026378 0.08867597 -0.14433077 0.063250445
000050 a3 8f b7 3e 3c 09 7c bb 12 e2 d0 bd ae 26 6e bd
       0.35851774 -0.0038457653 -0.101993695 -0.058142357
000060 48 eb 0f 3e d5 c8 97 3e 50 a1 6e be 35 7e bd bd
       0.14054596 0.2964541 -0.23303723 -0.09252588
000070 b1 71 37 bd ef 10 a5 3d 20 29 27 3e 3a a2 53 3e
       -0.04478616 0.080598705 0.16324282 0.20667353
000080 94 8c 1f be 94 0e d3 bc 1c a0 0c 3e 1b c2 14 be
       -0.1558097 -0.025763787 0.13732952 -0.1452717
000090 29 11 b3 3d 16 07 75 bc 76 93 86 bd 28 bd 9e bb
       0.087435074 -0.014955303 -0.06571095 -0.0048443265
0000a0 f5 84 c0 3d ae 6e a4 3d e4 13 3b 3e 1d d3 a1 3c
       0.094003595 0.08028923 0.18269306 0.019753987
0000b0 be 84 4d be 7d b0 3e 3e b7 59 83 3e cf c4 2e 3d
       -0.20070168 0.18622012 0.25654384 0.04266816
0000c0 bb 60 8d 3e 24 91 5e bd 55 20 8e bd 54 06 1d 3c
       0.27612862 -0.054337636 -0.069397606 0.009584028
0000d0 35 af 9b 3e 90 ea 86 3d 06 67 63 be e4 e3 9c 3d
       0.3040711 0.06587708 -0.22207269 0.07660654
0000e0 63 7d c4 3d 2e 99 9e 3e ad a5 37 be a2 57 5d bd
       0.09594228 0.30976242 -0.17934294 -0.05403865
0000f0 bc 83 14 3e 3a 47 89 bd 12 21 11 3e 95 ec 33 3d
       0.14503378 -0.067030385 0.14172772 0.043926794
000100 98 14 24 be 40 fd 33 be 76 61 ff 3d 65 b0 da 3d
       -0.16023481 -0.17577076 0.12469761 0.10678176
000110 98 24 c1 3d 34 d7 82 be 6c f7 2f 3e 6f d6 95 be
       0.09430808 -0.25554812 0.17184228 -0.29265162
000120 8a 5b 89 3e cb f3 21 3e ef e6 91 3e f9 c0 72 3e
       0.2682765 0.15815656 0.284965 0.23706426
000130 0d a9 c2 bd de 9e 90 3d 3e 17 4d 3d 3e 9b 8b be
       -0.095049 0.070615515 0.050070994 -0.27266878
000140 64 d3 8a 3e 20 2a 3b be a5 47 89 3e 7a 10 a8 3d
       0.27114403 -0.18277788 0.26812473 0.08206268
000150 da 82 cf bd 47 1c 77 3e 68 c4 9d 3d 40 40 80 be
       -0.1013238 0.2413188 0.07703477 -0.2504902
000160 c1 9f 7e 3e 70 3a 44 be 6a 98 56 3c da f9 04 be
       0.24865629 -0.19162917 0.013097862 -0.12985936
000170 56 7f ed bd 4f 01 26 3d 6c 19 67 bd 53 f0 a3 bd
       -0.11596553 0.04052859 -0.05642073 -0.080048226
000180 ff 7e 75 be c6 9e 2b bd 5a 36 2e bd d8 1a 04 be
       -0.23974226 -0.041899465 -0.042532302 -0.12900865
000190 68 bc b4 3c 63 90 9b 3d e0 c4 19 3d 5a e8 4e 3e
       0.022062495 0.07595899 0.03754127 0.20205823
0001a0 b9 f1 76 3e 58 fc 28 3e a7 ba 7e 3e 0b 4f 7e 3e
       0.24115647 0.16502512 0.2487589 0.2483484
0001b0 6e 36 96 be 23 f1 9b 3e da 2c 6f 3e ec 72 78 3e
       -0.29338402 0.3045741 0.23356953 0.24262589
0001c0 f3 24 48 3e a9 23 29 3d ff aa 24 be d2 5c 64 be
       0.19545345 0.041293774 -0.16080855 -0.22301033
0001d0 63 28 02 3e e9 80 7b 3e 62 6a d1 bc 9c e2 81 3d
       0.12710719 0.24560894 -0.025563423 0.063420504
0001e0 50 95 48 3d 66 b0 a2 3e a2 9c e3 bd ac 70 d0 bd
       0.04897052 0.31775206 -0.1111386 -0.101777405
0001f0 6c ec d9 3d bd f1 79 3d 0a 5d 84 3d 25 4b 08 3e
       0.10640797 0.061021555 0.06463058 0.13309915

model.encoder.rnn.weight_hh_l0 f4 [128, 32]
000000 73 a0 ac 3b 49 a5 82 3e 9d 27 b1 3d 83 98 f8 3d
       0.0052681505 0.25516728 0.08650134 0.12138464
000010 05 22 95 bd 03 42 f4 3c 5d 9f bf 3c c3 72 44 3e
       -0.07281879 0.029816633 0.02339142 0.19184403
000020 4a 8b c5 bc 56 6a 34 3d 89 db d7 bc 2a e9 df bd
       -0.02411427 0.044046722 -0.0263498 -0.109331444
000030 66 e7 df ba 33 47 d0 bd 06 10 a4 bc b9 6e 27 3c
       -0.0017082512 -0.1016983 -0.020027172 0.010219269
000040 7c 2c 53 3e c9 7b 4c 3d 96 a0 6a be de 7e 60 3d
       0.20622438 0.04992274 -0.22912821 0.05480849
000050 eb 48 7e be 40 74 07 bd c2 4d d5 3d a6 fa 2b bd
       -0.24832503 -0.03306985 0.10415222 -0.041987084
000060 18 7f c5 bd 0d 4e b7 3c 44 68 b8 3c 93 49 9c 3d
       -0.09643382 0.022376085 0.022510655 0.07631221
000070 73 ef 53 3d 6c dc 30 be 31 cf 12 bd b8 0a 0d be
       0.05174203 -0.17271584 -0.035842124 -0.1377362
000080 4c 79 2a bd 3f 4a 65 bd a9 f6 ab 3d 91 86 25 3e
       -0.041619584 -0.05597901 0.08396656 0.16164614
000090 3e 7d 92 3c 11 c3 6d 3d 13 ac 30 be 97 f9 97 bd
       0.017881986 0.058047358 -0.17253141 -0.07420652
0000a0 09 36 3e 3d 70 21 4a 3e ff 1d 33 be 4d c0 05 be
       0.04643825 0.19739318 -0.17491911 -0.13061638
0000b0 4d 1a e4 bd 53 4a b4 bd 6c 0c 46 3d e8 34 1a 3e
       -0.11137829 -0.08803239 0.04835169 0.15059245
0000c0 36 3b 2d bc 7e 1c d8 bc 99 ad 14 3d 1a 0e 46 bd
       -0.010573199 -0.026380774 0.036298368 -0.048353292
0000d0 e8 27 ee bc a9 32 f0 3d 03 c0 3e bd 85 81 b8 3d
       -0.029071763 0.11728413 -0.046569835 0.09009079
0000e0 13 88 e5 bd b8 73 37 bc ae d7 06 be 97 4d 40 3e
       -0.11207595 -0.011197023 -0.13168213 0.18779598
0000f0 0d 7f 0c 3e a8 1f fc bc a8 98 0b 3e 5e 71 07 3e
       0.13720341 -0.030776814 0.13632452 0.1322684
000100 b0 ad 74 bd 17 f2 d4 3c d5 ab 10 be 28 91 5e 3e
       -0.059735954 0.025994344 -0.14128049 0.2173506
000110 83 6a 91 bd 79 10 c7 bd 06 fa 6f 3d 5f dc dc 3d
       -0.071003936 -0.09719939 0.05858805 0.1078422
000120 19 1a 5f 3e 13 6b f8 3d bb 83 aa bd de e5 7b bd
       0.21787299 0.12129798 -0.08325907 -0.061498515
000130 22 5f f5 bd 70 c5 67 bd 85 da 8d be de 6c f7 3d
       -0.11981036 -0.056584775 -0.2770578 0.12081312
000140 b7 9b 01 3e c0 9d ea 3d eb 4f 5b be 66 bd 4f be
       0.12657057 0.1145587 -0.21417205 -0.20287094
000150 ad 01 de bd 99 3d c9 bc 1f c9 4b 3e 28 1a 25 3e
       -0.108401634 -0.024565505 0.1990094 0.16123259
000160 64 a7 2c 3e 21 e3 77 be bc 07 5c be 56 c4 11 3e
       0.1686073 -0.24207737 -0.21487325 0.14235052
000170 da d1 6f bd e2 75 a4 bd 74 cd 9b bc d7 cf 6d bd
       -0.05854974 -0.08030297 -0.019018866 -0.05805954
000180 b7 ea 00 3e 0d cd 7a 3d d3 b4 d7 bd b2 b2 0d 3c
       0.12589537 0.061230708 -0.10532536 0.008648561
000190 cf a2 38 be e2 31 bf 3d 06 ac c8 bd c9 65 bf bc
       -0.18030857 0.09335686 -0.09798436 -0.023363965
0001a0 18 70 d1 3d 76 27 f4 bd a2 0e d0 bd ed f7 fb 3d
       0.10226458 -0.11921589 -0.10159041 0.123031475
0001b0 2f 24 1d be b4 69 3a 3e 5b 4a 3e be 0a 59 f9 3d
       -0.15345834 0.18204385 -0.18583052 0.12175186
0001c0 60 67 3f be 14 c6 43 3b 8b ab 7e bd 8d a6 b9 bc
       -0.18691778 0.0029872702 -0.062175315 -0.022662425
0001d0 e0 f3 7d be c7 16 04 be 12 89 dd 3d 2d 69 a5 bd
       -0.24800062 -0.12899314 0.1081716 -0.08076701
0001e0 28 3b a4 bc f3 f3 f0 3d 02 6c 8a 3d 2b 6f 4e 3e
       -0.02004774 0.117652796 0.06758882 0.20159595
0001f0 8d 56 2c 3e 2d 71 59 bd bc 30 0e 3e cb eb 42 be
       0.16829892 -0.05308645 0.13885778 -0.1903526
000200 99 d3 4e 3d 7c d2 1d 3c 61 b2 7d bd ce 42 c9 bd
       0.050494764 0.009632703 -0.061937694 -0.09827195
000210 4d e3 bc 3d 78 7a 8e 3d 8f 7d 18 be ca 3b 01 3e
       0.09223042 0.06956953 -0.14891647 0.12620464
000220 38 38 d3 3d 6b fe 12 be 38 21 d0 bd 89 8a 9b bc
       0.10313457 -0.14354865 -0.10162586 -0.018986957
000230 1f 8d 2d 3e de 9e 63 3c 29 70 51 be 0c b1 b2 bc
       0.16948365 0.013892857 -0.20452942 -0.021812938
000240 93 83 86 3d 10 c8 14 3e d6 5e 16 3e ec f0 24 be
       0.065680645 0.14529443 0.14684615 -0.1610753
000250 2d 18 5b be 89 c2 e8 bc b2 ff 18 be 8b 61 b1 bd
       -0.21395941 -0.028413074 -0.1494129 -0.08661183
000260 e2 f6 88 bd d8 a3 26 bd d9 ea 2e 3e 98 17 26 3e
       -0.06687714 -0.040683597 0.17081775 0.16219938
000270 95 8d d4 bd 7b 96 96 bd 51 01 fe 3d 23 c0 66 bc
       -0.10378567 -0.073529206 0.12402595 -0.014083895
000280 e4 ca 6d 3d af ac 09 3d e4 b3 89 bd 7f 56 8e 3e
       0.05805482 0.03361195 -0.067237645 0.27800366
000290 57 37 15 be 0a 70 98 3d a0 b9 b0 3d 2a fc f6 3d
       -0.14571892 0.07443245 0.08629155 0.12059815
0002a0 d6 4a 21 3e 7a 02 98 bd f6 db 8f 3d 5a b5 af bd
       0.15751204 -0.07422347 0.07024376 -0.08579512
0002b0 aa a2 57 bd 85 63 94 3d 90 3b c2 bd 5b ee 9d bd
       -0.052645363 0.07245544 -0.09484017 -0.07711478
0002c0 6e 97 8d 3c 6a 28 77 3e 43 4f 0a be 8e 82 ac bd
       0.017284121 0.2413651 -0.13506798 -0.08423339
0002d0 41 35 02 be 58 42 e6 3a 23 f2 ee 3d 48 f6 56 3e
       -0.12715627 0.0017567379 0.11667278 0.20992386
0002e0 1a a7 e2 bc 2e fe 27 3d 6d 0f 35 be 6e fd 59 be
       -0.02766757 0.04101389 -0.17681666 -0.21288082
0002f0 b0 d9 df b9 b7 15 05 be 3d fe 81 3d 71 f1 73 3d
       -0.00042696064 -0.12996565 0.0634732 0.05955643
000300 ee 28 61 3e d7 c5 32 3e 6f 12 94 3d 9c d4 21 3e
       0.2198827 0.17458282 0.072300784 0.1580376
000310 d1 99 fc bd 69 17 c4 3b 5a ac d2 3d 83 67 0d 3e
       -0.12334026 0.005984236 0.1028678 0.13809018
000320 27 10 9b 3d db 91 a1 3e 9f 1f c2 3d aa d7 9c 3d
       0.0757144 0.3155659 0.094786875 0.07658322
000330 61 78 96 be 14 3d 87 3e 71 32 64 be 62 7f 74 3d
       -0.29388717 0.26413786 -0.22284867 0.059691794
000340 02 b0 5c 3e d7 7d a5 3c 22 ab 7f be 36 53 0a be
       0.21551517 0.020201607 -0.24967626 -0.13508305
000350 7f 0d 74 be 2d b9 6e 3e af 2e fb 3d c2 71 32 3e
       -0.23833273 0.23312826 0.122647636 0.17426208
000360 fc 4e 72 3e 45 c5 77 be f9 f4 8f bc bd 37 9f bd
       0.23662943 -0.24196346 -0.017572867 -0.07774303
000370 82 d6 f8 ba ce fb 46 be fd 11 46 be 60 d3 9a be
       -0.0018984827 -0.19431993 -0.193428 -0.3023939
000380 20 59 9f 3c 60 5e 22 3e 35 a5 49 3d 96 28 44 3d
       0.019451678 0.15856314 0.04922982 0.04789027
000390 f7 59 1b be 64 85 54 bd 6a 92 ef 3c aa 26 44 be
       -0.15171038 -0.051885024 0.02924462 -0.19155374
0003a0 58 0e 61 3e d4 2a b8 3e ec 18 a2 bc 81 4f 73 3e
       0.21978128 0.35970175 -0.019787274 0.23760797
0003b0 b6 6f 22 be 25 15 e8 3d cc 51 91 be 97 91 e3 bd
       -0.15862927 0.11332158 -0.2838272 -0.111117534
0003c0 8a 87 92 3e 25 cc 3f bd 72 6a c4 bc ce bf 92 ba
       0.28619033 -0.046825547 -0.023976538 -0.0011196078
0003d0 84 0b ba be a7 6a 10 3e a0 e7 13 3e 94 d1 ff bd
       -0.3633691 0.14103185 0.14443827 -0.12491146
0003e0 0d 8c 71 3e 64 09 23 be 1f 15 92 bd 9b 0e 9c 3d
       0.23588581 -0.15921551 -0.07132935 0.07619973
0003f0 c4 a0 64 3d 52 2f 67 be e7 d2 96 bd 86 bc 8a be
       0.05581738 -0.22576645 -0.07364445 -0.27096957

model.encoder.rnn.bias_ih_l0 f4 [128]
000000 d2 29 f5 bc 73 17 1f 3e 05 9a 71 3e aa c6 b0 bd
       -0.029927168 0.15536289 0.2359391 -0.08631642
000010 01 89 d6 3c 08 d4 21 3e 6f d4 16 3e 4b ae 3c bd
       0.026188375 0.1580354 0.14729474 -0.046064656
000020 2a e1 77 bd b4 63 a1 bd 9f 62 58 3d 40 81 63 3e
       -0.060517468 -0.07880345 0.052828427 0.22217274
000030 38 f3 39 3e 34 d4 6b bd 64 de bf bd 49 87 18 3e
       0.18159187 -0.05757542 -0.093685895 0.14895357
000040 97 c3 23 bd 69 85 41 3e 27 28 69 3e c0 6c 6b 3d
       -0.03998145 0.18898548 0.22769223 0.05747676
000050 09 1f 5d 3e fd 25 7a 3e 71 bd f2 3c 73 d0 a9 bc
       0.2159387 0.24428554 0.029631348 -0.02072928
000060 6a 63 83 3e 60 77 f2 3d 77 52 9e bb f1 92 96 3d
       0.25661784 0.11839175 -0.004831608 0.073522456
000070 5a f5 86 bc 96 e2 e5 3d ab 0f fe bd e5 a3 af bd
       -0.016474415 0.112248585 -0.12405332 -0.08576182
000080 e2 b7 76 bc f8 1f d7 bc 56 76 1d 3e d5 0f 7c 3e
       -0.0150584895 -0.026260361 0.15377173 0.24615414
000090 bd b6 09 3e ba 9b 5b 3d 48 34 17 3e ad b1 a2 bc
       0.13448615 0.05361531 0.14766037 -0.019860113
0000a0 fc 78 40 3e 58 b5 e6 bd 05 dc 0c 3e 3e 4c d8 bd
       0.18796152 -0.11265057 0.13755806 -0.10561417
0000b0 f1 74 0c 3c b3 7a 56 3e 7f a1 46 bd 02 3a 05 be
       0.008572803 0.20945244 -0.04849386 -0.1301041
0000c0 73 ed a7 bc 1c ae 0f 3e 9e cf 36 3d 90 54 04 be
       -0.020498967 0.14031261 0.044631593 -0.12922883
0000d0 71 67 25 be 0b 8d 4e bd 2c 47 bc bd ab 4a 51 3e
       -0.16152741 -0.050427478 -0.091932625 0.2043864
0000e0 05 47 42 3d 5f 42 2a bd 53 14 1d 3d 95 8b 93 bd
       0.04743101 -0.041567203 0.03834946 -0.072043575
0000f0 5e 6b 4b bc 7d 3a 22 3d ca df 9a 3d 9c 93 42 be
       -0.012415735 0.03960656 0.075622156 -0.19001621
000100 73 a3 2a 3e 74 3e 1c 3e ab a3 a4 3d 17 30 af 3d
       0.16663913 0.15258199 0.0803903 0.08554094
000110 b8 d8 dd 39 53 6a db bd 8e 1e 93 3d 09 90 00 3e
       0.00042313873 -0.10713639 0.07183562 0.12554945
000120 bd 7d 51 bd 9c 41 5a 3d d0 25 ff 3d 76 f3 03 bd
       -0.051145304 0.053285226 0.12458384 -0.032214604
000130 2d d4 d9 bd 75 66 49 3d 93 7f b3 bd ff c9 ff bc
       -0.106361724 0.049169976 -0.08764567 -0.031224249
000140 d3 e9 f6 3d 7b dc 61 3d 8e 17 09 be cf 4e 4c be
       0.12056317 0.055141907 -0.13387892 -0.19951938
000150 d1 64 1a be c6 15 29 3d 94 34 a9 3c 4f 03 3a 3e
       -0.15077521 0.04128053 0.020654954 0.18165325
000160 12 bd 84 3d d9 16 1b bd a1 1c 1c be 7a 97 a3 3d
       0.06481375 -0.037863586 -0.15245296 0.07987876
000170 43 0b fb bc 84 e6 d2 bc 61 db 44 bd 92 1b d1 bd
       -0.030645018 -0.025744684 -0.04806078 -0.10210337
000180 f1 37 d9 3d c9 fd b7 3d b9 46 34 3d c7 77 28 3c
       0.10606373 0.089839526 0.04401276 0.010282463
000190 2b 8a 18 bd d8 61 41 3e e4 a9 8a 3e f7 ec 94 3e
       -0.037241142 0.1888498 0.2708274 0.2908704
0001a0 9e 85 fe 3d ba 84 59 bd 15 fb ed 3d ee 76 c4 3d
       0.12427829 -0.053105094 0.11620156 0.095929965
0001b0 c3 e7 97 bd 14 0c f8 3d ef 4e 39 bd 24 a8 54 3e
       -0.07417252 0.12111679 -0.045241293 0.20767266
0001c0 95 43 58 bd bc 39 b1 3d b2 11 6b 3e 2f 92 f4 bd
       -0.052798826 0.0865359 0.22955969 -0.11941945
0001d0 09 1d d8 3d 18 f6 9e bd ac 74 e7 bd 0a c4 3e 3e
       0.10552413 -0.077617824 -0.1130155 0.1862947
0001e0 47 f6 a2 3e 94 2f 0e 3e ef c9 f8 bd b4 b4 0a 3e
       0.3182852 0.13885337 -0.12147891 0.13545495
0001f0 96 61 7e 3e d7 ee 90 3b 9d 20 4d 3e 5c 93 a9 3d
       0.24841914 0.004423003 0.20031972 0.0828006

model.encoder.rnn.bias_hh_l0 f4 [128]
000000 ee 26 9d bd 9d 95 24 3e e3 20 a9 3d 8c 20 cc bb
       -0.07673441 0.16072698 0.08258226 -0.006229466
000010 b1 e9 33 bd bb 94 33 ba 7b b0 60 3e 1e 88 6a bc
       -0.043924037 -0.00068504707 0.21942322 -0.014314679
000020 9a b3 64 3c 06 53 1c 3e 31 b7 32 3e 6e 0b 69 bc
       0.013958836 0.15266046 0.17452694 -0.014223916
000030 3d 6e 1c 3e 42 53 6d 3e c1 f6 ba ba 23 1f ab bc
       0.15276428 0.23176292 -0.0014264212 -0.02088887
000040 92 33 bd 3d db 9f 43 3e 3e c9 35 3d 0f 4c da 3d
       0.09238352 0.19103949 0.044381373 0.10659038
000050 17 e0 30 3e 72 39 52 bd f5 30 fe 3d ac db 49 bd
       0.17272983 -0.051324315 0.124116816 -0.04928176
000060 cc 81 4e 3e af 0f 74 3e 7a 1d 45 3e 17 bb 2e 3b
       0.20166701 0.23834108 0.19249526 0.0026661807
000070 50 f7 18 3e a3 8a 01 3e bd 70 fd 3d f3 91 19 be
       0.14938092 0.12650542 0.12375019 -0.14997081
000080 e9 3e 1f bd be d2 b2 3d 73 9a 65 3e c4 f2 6f bd
       -0.038878355 0.08731602 0.22422199 -0.05858113
000090 09 2a b0 3a 6e 62 36 3e 65 67 ab 3d 17 dc 29 3e
       0.0013440262 0.17810985 0.0836933 0.16587864
0000a0 0d b0 04 be 94 3c 95 bd 59 c8 e7 bd 1d 54 05 bd
       -0.12957783 -0.07286945 -0.1131751 -0.03255092
0000b0 e4 3c f8 3d d6 f6 51 3d f8 27 8a 3d aa ec b8 bd
       0.12120989 0.05126079 0.06745905 -0.09029515
0000c0 5f ee 90 bd b6 9f ec 3d b9 f0 24 bd 76 cd 55 3e
       -0.07076716 0.115539 -0.040268634 0.20879158
0000d0 75 a2 93 3a ca f1 b5 bc 80 b3 50 3e ef 9d 44 3e
       0.0011263626 -0.02221002 0.20380974 0.19200872
0000e0 e3 f9 fd 3d 16 10 71 bd 46 aa d2 3d 88 fd 31 be
       0.12401178 -0.05885323 0.10286383 -0.17381871
0000f0 d9 0f eb bd ec c5 ec bc 12 9b ad bd d9 3a 95 bd
       -0.11477632 -0.02890297 -0.08476843 -0.07286615
000100 1c b9 a1 3d 28 60 fa 3c c3 8e 33 be 03 43 5f 3e
       0.07896635 0.030563429 -0.17534928 0.21802907
000110 45 d3 23 bd 83 5f ae 3c 96 6d 19 be ff 4e b4 bd
       -0.039996404 0.021285778 -0.1498321 -0.0880413
000120 84 08 8e 3d c6 97 21 3e 92 91 92 bc 53 6e 23 3e
       0.06935218 0.15780553 -0.017891679 0.15960054
000130 f0 80 67 be 2e f3 80 3d fb 4b ac bd 31 5c 0e bd
       -0.2260778 0.06296383 -0.084129296 -0.03475589
000140 44 9b ff 3d 83 3b c0 3c 0e 91 3c be da 30 92 3d
       0.124807864 0.023465877 -0.18414709 0.07138224
000150 c3 e5 bf 3d 37 f8 2d 3e 1a f1 18 3e e1 78 a5 bc
       0.093699954 0.16989218 0.14935723 -0.020199241
000160 57 ad 3e 3c 2a 8d 85 3d 66 34 44 3c cc 8f 52 bd
       0.011638007 0.065210655 0.011975383 -0.051406667
000170 f0 c0 11 3e 22 01 06 bd d0 3f 86 3d a9 58 53 3d
       0.14233756 -0.032715924 0.0655514 0.051598225
000180 c5 7b 11 3e fa f8 d5 bd 40 6d 6a 3e d3 3a 62 3d
       0.1420737 -0.10447879 0.22893238 0.05523188
000190 eb 96 10 bd 52 67 48 bd 2a 4b 92 3e 80 19 40 3e
       -0.035300177 -0.04892666 0.2857297 0.18759727
0001a0 16 a9 6d 3e 43 ca 1d 3e b6 16 63 3d 22 79 4e bd
       0.23209032 0.15409188 0.05544158 -0.05040849
0001b0 59 38 5a 3d 56 f7 25 3e 53 8d f1 bd 2e 7d 64 3e
       0.053276394 0.16207632 -0.117945336 0.22313377
0001c0 88 ea 69 3e 71 3d cc 3d f5 7f 30 3d d2 40 ef 39
       0.22843373 0.099726565 0.04309078 0.00045633927
0001d0 33 fe 4a 3e e5 08 91 3d 6c 01 e9 3d 4a 65 34 3e
       0.19823532 0.070817746 0.11377224 0.17616764
0001e0 e6 71 9e ba 7f f7 8a 3e 44 a5 cc 3d 9b f7 db bd
       -0.0012088388 0.2714195 0.099924594 -0.10740586
0001f0 8c 2a 4d bc 22 ae 95 3d 9f 90 c4 3d 8a 7c 96 bd
       -0.012522351 0.07308604 0.09597897 -0.07347973

model.encoder.readout.weight f4 [1, 32]
000000 e6 c7 e3 bd 14 23 a7 bd 26 f8 94 3e 67 73 d5 3b
       -0.11122112 -0.081609875 0.29095572 0.006514001
000010 bd d9 ad 3c 7c b1 82 be 3a aa 8d 3e 93 6d 61 be
       0.02122199 -0.25526035 0.27668935 -0.22014455
000020 9e 4a 46 3e 98 ff 01 3e da b2 37 3e bb 9d 9d 3e
       0.19364402 0.12695158 0.1793932 0.307844
000030 55 ad 0c 3e 5f 70 3d 3e b2 76 27 bd 1a f3 8a be
       0.13737996 0.18499897 -0.04088468 -0.27138597
000040 c0 62 3d 3e 7e b0 61 be 95 30 1e 3e 2d 4b e6 3d
       0.18494701 -0.22039983 0.1544822 0.112448074
000050 90 e5 3a be bf 5e 7b 3e 9d b1 0c bd 05 15 53 be
       -0.18251634 0.24547862 -0.034349073 -0.20613487
000060 7f aa 8f 3e eb 0d f4 bd 21 3e 1e 3e 90 8a fc 3a
       0.28059766 -0.11916717 0.15453388 0.0019267369
000070 d0 04 85 be 4c 65 c4 bc 2e a0 40 be 87 a3 7f be
       -0.25980234 -0.023974083 -0.18811104 -0.24964724

exp_avg f4 [128, 1]
000000 9c c9 ca 3a e6 46 e5 ba 64 cb 2c bb 50 44 0a 3b
       0.0015471461 -0.0017492443 -0.0026366347 0.0021097846
000010 42 d8 a4 ba 96 02 46 bb 9c 9c 3f 3a 61 ba 2b ba
       -0.0012576657 -0.0030213944 0.00073094084 -0.0006550905
000020 cf 1b e5 ba f4 98 5b b9 6f da 3f bb b4 ec 36 bb
       -0.0017479601 -0.00020942447 -0.0029274484 -0.0027912082
000030 c8 71 d0 3a a2 62 b7 ba 8b a6 ee ba 0b 5f 13 bb
       0.001590305 -0.0013991187 -0.0018207593 -0.002248707
000040 8c 3c 74 bb 96 3f 17 bb a9 2f 2a bb 6a cf 87 b8
       -0.0037267534 -0.0023078672 -0.002596835 -6.4759355e-05
000050 3e d9 dd bb 71 9d 8f bb ff 9b f0 3b 64 0b 62 bb
       -0.006770282 -0.004382782 0.007342815 -0.0034491653
000060 f2 bf 94 bb 9c de 6d bb f1 ff 68 3b 72 33 74 3a
       -0.004539483 -0.0036296016 0.0035552944 0.0009315527
000070 79 77 27 bb a3 1b 16 bb ec 9b 8f bb 6b b7 f6 bb
       -0.002555339 -0.0022904656 -0.004382601 -0.0075291893
000080 9d e4 3b 3b 09 17 17 bb d6 96 c5 bb 37 a2 3b 3b
       0.00286702 -0.0023054502 -0.006029944 0.0028630623
000090 06 e3 77 ba 67 a9 3c bc 85 10 8a bb a8 dd a0 bb
       -0.00094561314 -0.011514998 -0.004213395 -0.004909236
0000a0 c0 8b 92 bb 80 db 02 bb 79 8e 3a bb 19 57 da bb
       -0.004472226 -0.0019967258 -0.0028466268 -0.006663215
0000b0 7e 50 07 3b 73 b0 90 bb b5 86 85 bb ff c3 fd bb
       0.0020647342 -0.0044155656 -0.004074896 -0.007744312
0000c0 04 89 a5 bb 4e b3 fa bb 9a 8a 84 39 8c 1b 8c 3a
       -0.005051734 -0.0076507693 0.00025280268 0.0010689362
0000d0 8e da 3d bc d0 24 e8 bb f2 c2 16 3c f4 d1 ac bb
       -0.011587752 -0.0070844665 0.009201752 -0.005274052
0000e0 11 49 0e bc 79 38 03 bc 5a 51 88 3b 25 19 25 3a
       -0.008684413 -0.00800907 0.0041600885 0.00062979973
0000f0 68 78 ef ba 9f 65 17 bb d7 db 99 bb 17 ac 0e bc
       -0.0018270137 -0.0023101342 -0.0046953964 -0.008708022
000100 32 c0 f2 3b e0 e4 66 bc 98 f1 76 bb 7e e2 cb 3b
       0.0074081654 -0.014092654 -0.0037680622 0.0062220683
000110 49 74 f5 3b 6f 80 4d 3c 5d 0b 8c bd cf a7 92 3c
       0.007490669 0.012542828 -0.06838105 0.017902283
000120 5d 8e 0d ba 9b 27 ba 3a 1b 95 0e bc cb cc 9d bb
       -0.0005399937 0.0014202477 -0.008702542 -0.004815673
000130 cb 61 bc bb 17 ed 55 bb bc 79 9c 3c 95 9a cc 3c
       -0.0057489625 -0.0032642537 0.019101016 0.024976054
000140 44 a1 08 bd 01 cc a6 3c df 30 ca bb 07 3d 4a bc
       -0.03335692 0.020360949 -0.0061703767 -0.012343652
000150 ac fd 67 3d d4 41 d3 bc 7a 55 ad 3c 9c 8c 88 bc
       0.056638405 -0.025788225 0.021158922 -0.01666861
000160 22 66 93 bd 98 bd 31 3d 6b a1 bf bc 8b 80 35 bc
       -0.07197215 0.0433937 -0.0233924 -0.01107801
000170 d1 8d 68 3d e0 5a f6 3c 57 24 84 3d 66 3d 51 3d
       0.05677587 0.03007263 0.06452244 0.051083945
000180 df 5c db 3b 50 99 7e bb f8 1e 7c bc b8 16 88 3b
       0.0066944207 -0.0038848706 -0.015388243 0.004153099
000190 0a ac 76 ba 34 f5 55 bc 5f ca 0d 3a b3 af 03 ba
       -0.0009409791 -0.013058949 0.0005408879 -0.00050234346
0001a0 18 05 04 bc 7f e9 15 bc 18 49 8e bb d6 f9 a3 bb
       -0.008057855 -0.009149908 -0.0043422095 -0.005004148
0001b0 2b 50 78 3c 28 42 1e bc ea c4 23 bc 33 24 1a bb
       0.015155832 -0.009659328 -0.009995678 -0.0023520112
0001c0 34 ee 3b bc 72 9c 7c bb 8a 5a 40 38 42 ec 8c 3a
       -0.011470366 -0.0038545397 4.586069e-05 0.0010751563
0001d0 27 b0 a9 bc b1 be 9c bc 5f 43 74 3c 31 12 d7 bb
       -0.020713879 -0.019133897 0.014908641 -0.006563448
0001e0 29 40 66 bc 1d b1 1c bc 25 52 38 3c 46 27 8a 3a
       -0.014053383 -0.0095637115 0.0112500535 0.0010540269
0001f0 62 e0 7b bb 30 66 56 bb aa 73 21 bc 6d 41 7d bc
       -0.0038433303 -0.0032714717 -0.009854237 -0.015457493

exp_avg_sq f4 [128, 1]
000000 21 b3 ac 37 67 0b d4 37 ed 08 de 37 00 e7 ce 36
       2.0587411e-05 2.5277679e-05 2.6468619e-05 6.1661704e-06
000010 ba 06 c3 35 49 c1 81 38 28 8d ce 36 28 bd 14 38
       1.453059e-06 6.1872015e-05 6.155711e-06 3.5462115e-05
000020 a9 9d 5f 38 4c 51 c7 37 b6 93 41 38 a6 5a 5f 39
       5.3314176e-05 2.3760505e-05 4.6152352e-05 0.00021300706
000030 41 f8 a0 38 39 ca ba 37 f6 10 68 36 f5 4a 43 38
       7.6756354e-05 2.2267095e-05 3.4580567e-06 4.6561432e-05
000040 4f 3f 86 37 35 9c 85 37 e5 ae 90 37 00 98 00 37
       1.6003525e-05 1.5927575e-05 1.724758e-05 7.664785e-06
000050 ab 0c 96 36 42 ad eb 38 e0 c9 9e 37 8f e8 52 38
       4.471823e-06 0.00011237945 1.8929073e-05 5.028449e-05
000060 31 22 d1 37 47 9b 0f 36 21 85 f5 37 d6 50 19 36
       2.4930663e-05 2.1399044e-06 2.9268269e-05 2.284583e-06
000070 83 72 0f 38 78 a5 a2 35 bf 5f ad 36 39 7d ce 37
       3.4200504e-05 1.2118098e-06 5.166948e-06 2.4615425e-05
000080 92 02 98 37 32 17 12 38 ee 65 37 38 39 bb 97 36
       1.8121009e-05 3.4830715e-05 4.372553e-05 4.5219463e-06
000090 a8 66 89 35 23 fc 1b 39 d8 a4 0e 38 eb 7f 45 38
       1.0237172e-06 0.0001487588 3.400896e-05 4.7087593e-05
0000a0 ad 9b 89 38 21 33 e7 37 e3 32 32 38 e6 2d 4d 39
       6.561666e-05 2.7561155e-05 4.24859e-05 0.00019567422
0000b0 ee 57 05 39 68 d6 84 38 8c 08 4d 36 dd b9 d1 38
       0.00012716625 6.334187e-05 3.0552355e-06 0.00010000516
0000c0 02 79 ec 37 7b 80 1b 38 54 66 2d 38 52 5f 12 37
       2.8189741e-05 3.7074537e-05 4.1341715e-05 8.724472e-06
0000d0 71 e9 4b 37 83 e9 f9 38 5b c5 74 37 d9 4c 6b 38
       1.2154095e-05 0.0001191674 1.4589484e-05 5.6099936e-05
0000e0 35 a2 75 38 f5 33 22 37 3f 84 ee 37 f0 e9 99 35
       5.856362e-05 9.66805e-06 2.8433393e-05 1.1467473e-06
0000f0 11 53 02 38 69 b0 94 35 36 4b cb 36 e1 dc 41 38
       3.1071777e-05 1.1078201e-06 6.058627e-06 4.6220495e-05
000100 90 9f 6d 3a 2d ed 6f 3b 12 6b d0 3c be d1 9e 39
       0.0009064609 0.0036609874 0.02544168 0.00030292379
000110 37 83 95 39 16 c7 b3 3b 75 70 a1 3c c3 ce 9b 3b
       0.00028517257 0.0054863794 0.019706944 0.0047548725
000120 48 8d 88 3b 00 73 f1 39 a1 5b 45 3b 6f d0 1a 3c
       0.0041672327 0.00046052784 0.003011443 0.0094491085
000130 30 0a 77 3b cf 33 00 3c 95 54 1e 3a 3b 62 1b 3c
       0.0037695281 0.007824852 0.00060398254 0.009483869
000140 cc 40 76 3a 5a 4d 00 3c 39 29 2d 3b 87 97 c7 3a
       0.0009393811 0.007830942 0.0026422276 0.0015227654
000150 21 de 00 3b b2 34 f3 3a 4f 7c c1 3a a7 78 1a 3c
       0.001966365 0.0018555133 0.0014761778 0.00942818
000160 4b fb 8a 3b 83 74 3a 3a 26 e8 56 3b f9 34 00 3a
       0.0042413822 0.00071126985 0.003279218 0.0004890706
000170 5f a8 2a 3c 9a c1 04 3a 1c be 35 3b b9 c0 82 3b
       0.010416119 0.0005064249 0.0027731722 0.0039902595
000180 29 44 be 37 d8 1c 40 38 97 f8 9b 38 a9 8d df 36
       2.2681505e-05 4.580323e-05 7.4372794e-05 6.6624093e-06
000190 12 d2 ac 35 c2 2b d0 39 7c 23 ef 38 4b dc 81 37
       1.2876137e-06 0.00039705454 0.000114030176 1.548058e-05
0001a0 92 94 dc 38 53 58 5a 38 37 6b 43 38 48 1f 65 39
       0.00010518091 5.205751e-05 4.6591475e-05 0.00021850795
0001b0 c1 b3 8b 39 93 f8 b7 38 a4 79 38 37 52 90 3b 38
       0.00026646073 8.7724206e-05 1.0995576e-05 4.4718683e-05
0001c0 33 fe 28 39 da a4 95 38 e8 71 20 38 43 c4 42 37
       0.00016116425 7.13558e-05 3.8253056e-05 1.1608997e-05
0001d0 3c 8e 98 38 db 97 8e 39 65 2e d0 37 6a e6 72 38
       7.274418e-05 0.00027197492 2.4817136e-05 5.7911886e-05
0001e0 57 05 c3 39 2a 33 21 37 1a 93 52 38 ee f2 22 36
       0.00037197277 9.60826e-06 5.02049e-05 2.4281285e-06
0001f0 f2 c7 51 38 ed e0 14 36 6d a7 31 38 08 97 f9 38
       5.0015697e-05 2.2184643e-06 4.2356016e-05 0.00011901377

exp_avg f4 [128, 32]
000000 3a 41 a8 b9 d5 66 dc 38 60 f5 29 ba 72 19 90 b9
       -0.00032092055 0.000105095714 -0.0006483402 -0.0002748478
000010 78 19 52 39 3e 61 a2 3a 90 09 5e b9 14 7d af 39
       0.00020036648 0.00123886 -0.00021175132 0.00033471792
000020 a9 f1 97 ba d8 36 98 ba 8b 06 84 ba 83 e1 77 ba
       -0.0011592406 -0.0011613024 -0.0010072751 -0.0009455906
000030 23 03 93 39 c8 5c 82 ba 53 28 ca 3a 24 19 5f 3a
       0.00028040362 -0.0009945864 0.0015423395 0.0008510521
000040 86 c3 87 ba d3 8c 2f 3a e2 d9 69 b9 56 09 9c b9
       -0.0010357953 0.00066967047 -0.00022301779 -0.00029761594
000050 1b 0e d1 3a c2 3c d2 ba e2 19 15 b9 a7 7f 4c 3a
       0.0015949638 -0.0016039836 -0.0001421939 0.0007801004
000060 ab bb a6 ba 07 ed 91 3a f9 be 41 39 99 11 c3 38
       -0.0012720724 0.0011133262 0.00018477057 9.3016024e-05
000070 23 de 8d 39 5d 45 e2 39 81 cb 73 3a ac ac 9c 3a
       0.0002705912 0.0004315776 0.0009300039 0.0011953316
000080 a7 0e 51 3a 75 f7 cb 39 68 b4 b0 b9 de fe 0d 3a
       0.00079749007 0.00038903547 -0.0003370375 0.00054167013
000090 0c 7d 4a b9 6d ba 29 39 37 b0 2f ba 68 23 01 3a
       -0.00019310805 0.00016186545 -0.0006701978 0.00049262354
0000a0 51 58 3d b9 08 d1 58 39 ea ad cb b9 6e 02 b2 b9
       -0.00018057345 0.00020677235 -0.00038848753 -0.00033952616
0000b0 a6 d2 37 ba 35 5d 86 38 74 ae 34 b9 2f 0a d5 39
       -0.0007012285 6.406979e-05 -0.00017231127 0.00040634113
0000c0 e5 e1 1e b9 af 29 d2 39 11 d0 30 ba 75 4f 7c b9
       -0.00015152206 0.00040085378 -0.00067448715 -0.00024062193
0000d0 c0 ca 1e b9 0e 09 fe 38 70 75 1e 3a c6 89 01 3a
       -0.00015143584 0.000121133504 0.0006044721 0.00049414893
0000e0 83 2a 83 b9 c0 3e 2f b9 89 6c e1 b9 aa 79 87 b8
       -0.0002501794 -0.00016712677 -0.0004299621 -6.459963e-05
0000f0 4e 68 d5 39 0b 12 97 b8 90 d0 38 39 f2 cf 99 38
       0.0004070424 -7.203602e-05 0.00017625303 7.334341e-05
000100 f8 b6 fb 39 f5 82 4e 39 dd 27 ba b9 91 33 aa 39
       0.00048010773 0.00019694476 -0.00035506385 0.00032463347
000110 90 11 dd b8 e9 54 ab 38 de 0d de b9 da 61 e4 39
       -0.000105413725 8.169731e-05 -0.00042353472 0.00043560454
000120 0d 61 15 b9 da 2a b2 38 6e f5 75 b9 0a 05 8e b9
       -0.00014245902 8.495683e-05 -0.0002345645 -0.00027088105
000130 f4 e0 c7 b9 b0 7e 71 b8 43 be 4e b8 71 a5 98 39
       -0.0003812384 -5.7576864e-05 -4.9291422e-05 0.00029114963
000140 4f 31 34 b8 8e 7b 8e 39 ea ee a2 b9 ab 6f da b8
       -4.2961266e-05 0.00027176406 -0.00031077053 -0.0001041585
000150 32 64 1f b9 93 c7 48 38 51 d0 c3 39 52 7d ce 39
       -0.00015200747 4.7869584e-05 0.00037348506 0.00039384753
000160 0d a2 0c b9 e6 15 e8 b8 75 b3 6d b9 17 6a d8 b7
       -0.00013411809 -0.00011066701 -0.00022668934 -2.5798608e-05
000170 a6 af b6 39 16 84 08 b7 72 39 f9 38 75 6b b8 38
       0.00034844613 -8.136985e-06 0.00011883945 8.793819e-05
000180 f2 2c 44 ba d8 df c1 b9 6d e0 16 38 64 28 fb b9
       -0.0007483504 -0.00036978605 3.59718e-05 -0.00047904544
000190 6b f0 72 39 05 30 62 38 8e 11 0b 3a 98 a4 c5 b9
       0.00023168481 5.392732e-05 0.0005305045 -0.000376974
0001a0 ee 2d fb b7 f4 65 c4 b9 75 22 71 39 db c3 59 37
       -2.994292e-05 -0.00037459994 0.00022996387 1.2979809e-05
0001b0 0a c6 2c 3a a0 b4 92 b9 cd b3 0c 3a 5e b1 75 b9
       0.00065907894 -0.00027981866 0.00053673686 -0.00023431095
0001c0 b6 e8 c3 38 ba 95 49 b9 8f 14 32 3a 8c 6a 2d 39
       9.3416704e-05 -0.00019224631 0.00067932246 0.00016538257
0001d0 0f b8 a5 39 78 3c ca b9 c4 ac e3 b9 d2 d6 46 b9
       0.00031608387 -0.00038573495 -0.00043425534 -0.00018962778
0001e0 4b 56 35 38 17 60 ee 38 5c cd e6 39 df 79 47 38
       4.323413e-05 0.000113666225 0.00044022023 4.75588e-05
0001f0 1b 3e 81 b9 3e 15 56 39 de 76 8d 38 4a 94 80 39
       -0.0002465107 0.00020416544 6.745545e-05 0.00024524546
000200 4e f6 de 38 36 84 13 39 a8 cc 8d b9 0b 47 48 38
       0.00010631663 0.00014068265 -0.00027046097 4.774988e-05
000210 19 fe 08 37 37 09 c9 39 b8 dc 67 b9 71 2a 68 39
       8.165393e-06 0.00038344573 -0.00022112101 0.00022141055
000220 f4 1f be b9 33 b7 8d b9 ec e3 c1 b9 ef 3d b8 b9
       -0.0003626343 -0.0002703011 -0.00036981644 -0.0003514136
000230 1a 3f ae b8 7c 53 8e b9 e2 1a c8 39 a3 26 b2 39
       -8.30872e-05 -0.0002714655 0.00038167002 0.00033979592
000240 0e 30 aa b9 84 4a 9f 39 eb bd 79 b9 52 1b 29 b9
       -0.0003246073 0.00030382362 -0.0002381724 -0.00016127274
000250 ec 54 d6 39 24 98 e0 b9 a3 84 e0 38 a4 0b b3 39
       0.00040880532 -0.00042837963 0.00010705858 0.00034150213
000260 5f 26 da b9 97 b6 8d 39 87 17 48 b8 ae 6e aa 37
       -0.0004160879 0.00027029656 -4.7705627e-05 2.0317118e-05
000270 de 9d 2c 39 aa c5 e4 38 27 19 9c 39 ae 9c b6 39
       0.00016462008 0.00010908705 0.0002977338 0.0003483048
000280 7f 5e 47 ba f3 0f c3 b9 ea df 66 b9 2c 89 ef b9
       -0.00076053286 -0.0003720518 -0.00022017924 -0.00045687833
000290 dc 25 86 39 b7 d6 47 b5 c2 57 08 3a cd a9 7a b9
       0.0002558668 -7.444573e-07 0.0005201065 -0.00023905114
0002a0 03 f0 a6 b8 46 93 eb b9 c1 70 72 39 02 55 84 b7
       -7.9602025e-05 -0.0004493242 0.00023120923 -1.5775211e-05
0002b0 69 c3 23 3a fa 6a c6 b9 47 0c 1f 3a 0e 57 80 b9
       0.0006247075 -0.00037845207 0.0006067198 -0.00024478923
0002c0 85 14 72 39 7e dc f7 b8 a1 10 44 3a f1 94 7a 39
       0.00023086563 -0.00011818948 0.00074792845 0.00023897343
0002d0 f4 d2 aa 39 e4 6b a9 b9 72 fa e9 b9 58 2b 84 37
       0.000325821 -0.00032314577 -0.0004462782 1.575581e-05
0002e0 84 74 bf 38 35 f7 30 39 3b 47 ea 39 85 59 61 38
       9.1292924e-05 0.0001687676 0.0004468503 5.3727552e-05
0002f0 c8 95 c4 b6 0c 5f 86 39 5b 14 45 39 ff 43 bd 39
       -5.858692e-06 0.00025629287 0.00018794967 0.0003609955
000300 a3 6a b3 b9 a0 3e 8d 38 6e 9c 0e ba 95 4a 9e b9
       -0.0003422099 6.735069e-05 -0.000544018 -0.00030191676
000310 53 c9 3a 39 44 00 8e 3a c2 98 f1 b8 43 6b ad 39
       0.00017813341 0.0010833819 -0.00011520229 0.00033077048
000320 21 e1 89 ba 5e 46 8e ba 18 15 75 ba 57 ec 42 ba
       -0.0010519364 -0.0010854711 -0.00093491515 -0.000743573
000330 7f 97 94 39 4c e0 66 ba fe fa ac 3a 17 bf 46 3a
       0.00028341633 -0.00088072265 0.001319736 0.0007581575
000340 fd 39 7f ba 30 80 0b 3a f6 7d 51 b9 e4 9d 50 b9
       -0.0009736119 0.00053215306 -0.00019978717 -0.00019895245
000350 74 7e c0 3a 48 82 b8 ba 59 55 86 b9 fb 05 2b 3a
       0.0014686123 -0.0014076913 -0.0002562206 0.00065240235
000360 7b f8 93 ba 12 0d 9b 3a 22 9e 32 39 94 27 d2 38
       -0.0011289263 0.0011829457 0.00017034312 0.00010020952
000370 46 e8 86 39 f8 27 b7 39 1a c8 4f 3a 23 f4 83 3a
       0.0002573153 0.0003493426 0.0007926241 0.0010067265
000380 30 b0 82 ba 3c 05 12 b9 41 3b 37 ba c1 d5 56 ba
       -0.0009970721 -0.00013925595 -0.00069897255 -0.0008195304
000390 46 df c3 39 ea 4a cc 3a 75 b6 4d 39 da e8 c0 39
       0.0003735965 0.0015586291 0.00019618294 0.00036794582
0003a0 dd 3a ce ba de 5f f2 ba 96 4f a6 ba 01 5b 76 ba
       -0.0015734095 -0.0018491705 -0.0012688513 -0.0009397716
0003b0 51 30 62 3a c1 28 bb ba 83 ce 08 3b 37 90 81 3a
       0.00086284155 -0.0014279113 0.0020875044 0.0009884898
0003c0 0d 2a bd ba be 1c 1a 3a 0d 39 cb 38 1f 5b 9f b8
       -0.0014432088 0.00058789167 9.690421e-05 -7.5986834e-05
0003d0 c1 ee 19 3b ee 2d 10 bb eb df 5e ba fe 0a 4b 3a
       0.0023488256 -0.0022000032 -0.00085019943 0.00077454734
0003e0 e9 97 d1 ba 26 59 07 3b 71 3b 09 3a 82 4a 63 39
       -0.0015990707 0.0020652502 0.0005234993 0.00021676163
0003f0 8e c1 7f 39 47 fb 0e 3a 3c 8d 90 3a c8 76 c3 3a
       0.000243908 0.00054543134 0.0011028419 0.0014912719

exp_avg_sq f4 [128, 32]
000000 e3 6f 12 36 a3 2e b0 35 93 4e 1f 35 6c 2a 8d 35
       2.1820822e-06 1.3126595e-06 5.9346456e-07 1.0517665e-06
000010 03 98 44 34 d8 8f a5 34 e0 d4 1f 35 bf fc 0a 35
       1.8309224e-07 3.0838305e-07 5.954189e-07 5.17768e-07
000020 11 17 92 34 c2 b2 15 35 36 aa e9 34 b3 27 9d 34
       2.7211402e-07 5.576695e-07 4.3523477e-07 2.9272414e-07
000030 00 cc 20 36 ee 49 86 34 ce 75 09 35 57 db ce 34
       2.3960602e-06 2.5013236e-07 5.1207905e-07 3.853008e-07
000040 40 fa b1 34 88 f7 90 35 d5 52 39 36 7d 80 37 35
       3.31509e-07 1.0800877e-06 2.7615363e-06 6.835979e-07
000050 49 5f ed 34 6b 1c 16 35 1a f7 c1 35 65 45 c7 35
       4.421402e-07 5.592071e-07 1.4451537e-06 1.4846852e-06
000060 a7 fb af 34 99 3a 14 35 d0 a3 1c 35 6e 1e 80 33
       3.277939e-07 5.521957e-07 5.835291e-07 5.9659996e-08
000070 f9 97 92 34 ae ff ce 33 0d 2d 19 34 78 e4 16 34
       2.7305194e-07 9.6391304e-08 1.4265625e-07 1.4052955e-07
000080 e6 80 79 36 c2 99 24 36 e2 9c 90 35 08 5a ee 35
       3.717892e-06 2.4527403e-06 1.0774495e-06 1.7758584e-06
000090 3d 38 b5 34 90 8c 99 34 5a f4 88 35 e4 16 7a 35
       3.3754796e-07 2.8600743e-07 1.0203905e-06 9.316557e-07
0000a0 27 df 94 34 4e aa 45 35 6a 2c 1e 35 ce 87 c6 34
       2.7729513e-07 7.3636045e-07 5.892422e-07 3.6979185e-07
0000b0 cf 2c 8d 36 82 06 87 34 6a a1 29 35 11 6d 18 35
       4.207344e-06 2.5150445e-07 6.3192294e-07 5.6783125e-07
0000c0 00 7b d1 34 c8 03 00 36 0e 86 ae 36 89 2d a0 35
       3.9018778e-07 1.9075687e-06 5.20121e-06 1.1934181e-06
0000d0 3a 87 d7 34 a5 cf 11 35 65 a4 18 36 24 f1 34 36
       4.014526e-07 5.431887e-07 2.2745455e-06 2.6962452e-06
0000e0 ae 8c a0 34 e4 38 38 35 d5 68 8a 35 34 86 b8 33
       2.990468e-07 6.862813e-07 1.0312311e-06 8.592579e-08
0000f0 12 b8 14 35 39 5e 45 34 df 58 37 34 2d 4a b2 33
       5.5402154e-07 1.8381333e-07 1.7075534e-07 8.3022634e-08
000100 cf ab 17 36 7a ff c9 35 96 75 49 35 68 09 8e 35
       2.260076e-06 1.505002e-06 7.5049445e-07 1.0582562e-06
000110 24 e6 53 34 e2 3e 41 35 fa 00 55 35 d1 10 71 35
       1.9734631e-07 7.198961e-07 7.9350104e-07 8.980397e-07
000120 82 67 4d 35 91 5f 36 35 45 52 7b 35 69 e3 4a 35
       7.6519075e-07 6.793935e-07 9.3624504e-07 7.558179e-07
000130 18 11 34 36 7c a1 59 35 0a ca 42 35 4f 43 62 35
       2.683204e-06 8.107379e-07 7.256464e-07 8.428951e-07
000140 b1 92 5c 35 cd eb bc 35 ab 92 58 36 98 b4 53 35
       8.216985e-07 1.4075719e-06 3.227188e-06 7.8866424e-07
000150 f9 c2 3f 35 42 22 8d 35 4f 42 b7 35 5b 8f f1 35
       7.143677e-07 1.0515289e-06 1.3653861e-06 1.7997621e-06
000160 76 ed 50 35 bb dc 74 35 5a a3 2a 35 81 0e 33 33
       7.783159e-07 9.121829e-07 6.3567643e-07 4.1689876e-08
000170 1b 93 ce 34 0b 4b db 33 ef 12 85 34 99 9b 11 35
       3.8477523e-07 1.02116324e-07 2.4786956e-07 5.4243134e-07
000180 e0 b9 c1 34 72 d2 0c 34 1b 8a 58 33 1e 09 6a 34
       3.6084293e-07 1.3115076e-07 5.0417025e-08 2.1796265e-07
000190 6b 5c f8 32 65 2f 1e 34 ce 59 e3 33 ca 77 88 33
       2.8913027e-08 1.4732139e-07 1.05868466e-07 6.354783e-08
0001a0 97 6a f8 33 86 4e 5e 34 74 66 e1 33 19 3e 8e 33
       1.15677885e-07 2.0703928e-07 1.0496015e-07 6.623686e-08
0001b0 3c b7 db 34 e1 f1 e4 33 3e 7d 79 34 3b a1 94 33
       4.092525e-07 1.0661075e-07 2.3235495e-07 6.921115e-08
0001c0 56 a8 23 34 1f 31 b2 33 ac af 97 34 c8 ab 7c 33
       1.5241798e-07 8.297706e-08 2.825376e-07 5.8829556e-08
0001d0 38 c7 61 34 0a a6 a8 34 ab 96 8f 34 cc b8 05 34
       2.1027233e-07 3.1413248e-07 2.674545e-07 1.2453819e-07
0001e0 a9 49 03 34 e3 61 48 34 fe d0 f0 33 7b b6 eb 32
       1.2227123e-07 1.8662062e-07 1.1213886e-07 2.7440583e-08
0001f0 ce 63 1a 33 1c f9 ca 32 4f da e1 32 bf 4d 9d 33
       3.594669e-08 2.3629177e-08 2.6292723e-08 7.325024e-08
000200 84 e2 27 34 d1 66 cc 33 7c 59 45 33 a5 62 a6 33
       1.5635493e-07 9.5181925e-08 4.5949022e-08 7.747921e-08
000210 4a b4 62 32 ca 79 b4 32 e0 09 44 33 36 ca 1d 33
       1.3195924e-08 2.1010141e-08 4.5643787e-08 3.673832e-08
000220 d0 f2 ac 32 1c 84 25 33 40 83 05 33 2a 0c bc 32
       2.0133854e-08 3.853721e-08 3.1085847e-08 2.1891612e-08
000230 67 3f 3b 34 45 ad 8a 32 5f 7c 08 33 14 4d fa 32
       1.7438798e-07 1.6144108e-08 3.1778082e-08 2.9138882e-08
000240 20 ff e1 32 57 f8 a1 33 9f 7f 50 34 8d 48 5a 33
       2.6309465e-08 7.5423195e-08 1.9417938e-07 5.0823065e-08
000250 c1 66 0a 33 05 cb 17 33 ec 1d e2 33 6d ad e0 33
       3.2224083e-08 3.5342072e-08 1.0529388e-07 1.0462359e-07
000260 b4 e4 bd 32 36 63 3e 33 c8 a0 38 33 41 af 4b 31
       2.2106498e-08 4.4328054e-08 4.2987068e-08 2.9640008e-09
000270 b7 0d c0 32 8d 18 c8 31 57 3b 42 32 c3 fa 25 32
       2.2357979e-08 5.823557e-09 1.13057785e-08 9.661281e-09
000280 91 6a 80 35 a9 30 1b 35 66 79 b1 34 4d f1 79 35
       9.567758e-07 5.781281e-07 3.3057148e-07 9.311087e-07
000290 ae 30 e8 33 54 4d 2d 36 05 33 d3 34 54 44 d7 34
       1.0812197e-07 2.582402e-06 3.9338934e-07 4.0096586e-07
0002a0 5a 11 f5 35 73 7e ab 35 27 d2 ef 35 0a 22 b6 35
       1.8258972e-06 1.2777294e-06 1.786805e-06 1.3569963e-06
0002b0 2a dc 42 36 67 bc d1 35 57 52 a1 35 0f 28 98 35
       2.9036405e-06 1.5626546e-06 1.2019399e-06 1.1336541e-06
0002c0 db 2c 2b 36 f0 db 3c 35 a1 36 a3 35 0c fb ab 34
       2.5507095e-06 7.035551e-07 1.2160345e-06 3.2033893e-07
0002d0 35 d0 91 35 d3 fd 7a 36 c5 e1 5a 35 72 e2 2b 35
       1.0863938e-06 3.7400648e-06 8.1539866e-07 6.4031985e-07
0002e0 c9 46 1a 36 fd 71 46 35 71 5a 14 35 5d 84 7a 34
       2.298899e-06 7.392662e-07 5.5265906e-07 2.3331218e-07
0002f0 00 9d a9 34 d3 70 dd 33 fb 66 cc 34 8b 6d 78 35
       3.1592936e-07 1.0311637e-07 3.807289e-07 9.2546605e-07
000300 79 9c d7 35 47 da 7d 35 1b ee d2 34 44 22 5d 35
       1.6064288e-06 9.456748e-07 3.9288793e-07 8.237878e-07
000310 c8 4f 18 34 83 1b d7 34 ed b7 c2 34 e1 87 a5 34
       1.4185127e-07 4.0066888e-07 3.626914e-07 3.083251e-07
000320 1c dc af 34 44 5c 16 35 fc 9c a2 34 cc 34 83 34
       3.275644e-07 5.601362e-07 3.0289073e-07 2.4439066e-07
000330 31 b9 0d 36 0b 19 c5 34 40 5e 1e 35 7c 6a 86 34
       2.1118433e-06 3.671233e-07 5.899674e-07 2.5036923e-07
000340 33 6f 0f 35 ba 8c 39 35 6b b6 0a 36 97 21 f4 34
       5.343347e-07 6.9122655e-07 2.0669784e-06 4.5472981e-07
000350 9c ab 0e 35 8f 32 45 35 e6 cf 86 35 84 10 75 35
       5.3148847e-07 7.346179e-07 1.0044284e-06 9.1293646e-07
000360 2f 53 d0 34 7d 27 12 35 74 9f 02 35 aa 05 9b 32
       3.8803543e-07 5.44467e-07 4.866081e-07 1.804695e-08
000370 cb d6 7a 34 12 85 a6 33 cd 6c 0a 34 d9 61 81 34
       2.3361206e-07 7.754183e-08 1.2891833e-07 2.4099316e-07
000380 5f 85 d6 35 4e 06 77 35 ed a1 e7 34 7d fd 68 35
       1.5983059e-06 9.2023845e-07 4.314492e-07 8.679561e-07
000390 c1 a2 14 34 3f 15 b4 35 e4 dc 05 35 42 56 0e 35
       1.3842784e-07 1.3417229e-06 4.98678e-07 5.3024644e-07
0003a0 55 c2 a3 35 32 46 7a 35 60 f5 98 35 3e 35 61 35
       1.2201004e-06 9.3234405e-07 1.1396296e-06 8.389651e-07
0003b0 eb b9 23 36 c3 2c a5 35 23 b8 7d 35 12 ad 5f 35
       2.4397111e-06 1.2306485e-06 9.45178e-07 8.3325824e-07
0003c0 de 59 cb 35 45 71 69 35 8b 08 0d 36 ce 98 01 35
       1.5150833e-06 8.696409e-07 2.101561e-06 4.8278605e-07
0003d0 0b 48 8a 35 87 32 0a 36 6e 71 89 35 14 b2 87 35
       1.0302768e-06 2.0593013e-06 1.0240308e-06 1.0110111e-06
0003e0 97 d4 ab 35 78 eb 80 35 7c a8 0e 35 10 7e 8e 33
       1.2802365e-06 9.605274e-07 5.31443e-07 6.635321e-08
0003f0 96 39 87 34 01 19 bc 33 7f ba 8a 34 d4 1c 37 35
       2.518761e-07 8.7589804e-08 2.5840197e-07 6.8214763e-07

exp_avg f4 [128]
000000 b4 f7 34 bb 4d a2 bc 3a d3 3c 0e 3a 8a a4 17 bb
       -0.0027613463 0.0014391631 0.00054259336 -0.0023138844
000010 06 05 ac b9 b5 fa ec ba bd a1 13 bb 01 5b 86 bb
       -0.0003281014 -0.0018080088 -0.0022526823 -0.004100204
000020 15 02 23 bb 96 a3 49 bb e4 dc 26 bb 03 0a 8a b9
       -0.0024873067 -0.003076767 -0.002546125 -0.0002632887
000030 fa e8 b8 ba 33 05 81 ba 23 ef e6 ba 1c 37 6b bb
       -0.0014107518 -0.0009843468 -0.0017618876 -0.0035891002
000040 bf 74 a4 bb 3c 8b 8d 37 7d 0f a8 ba 60 d3 d8 39
       -0.0050188 1.6873346e-05 -0.0012821999 0.00041356217
000050 8a ce 3b ba a9 22 3f bb 57 03 68 bb b8 2a c3 3a
       -0.00071642606 -0.0029164946 -0.0035402381 0.001489005
000060 81 90 b4 bb e6 62 16 bb 05 d3 8a ba 23 2d bd 38
       -0.0055103903 -0.0022947132 -0.0010591453 9.02063e-05
000070 0e b6 26 bb a2 4d 43 ba 16 91 8b ba 88 ed 30 ba
       -0.0025438103 -0.0007450228 -0.0010648097 -0.0006749262
000080 d8 75 13 ba 51 52 a2 3a 36 9d 40 3b ae e8 0f bb
       -0.0005625165 0.0012384151 0.002939058 -0.0021958756
000090 50 0e 8a 37 0f 72 b4 3b cb 18 a2 3b cb 0b b0 3b
       1.6457547e-05 0.005506761 0.004946803 0.0053724996
0000a0 60 a6 88 3b b1 b2 04 bb 1c 87 b6 3b b5 fd d2 3b
       0.004170224 -0.002024811 0.0055703055 0.0064389356
0000b0 79 ec 0d bb df d6 1a ba e5 e5 c8 ba ea f4 f2 3b
       -0.0021655841 -0.0005906652 -0.0015327303 0.00741445
0000c0 c8 99 2e 3b 40 68 8e 3b aa e7 7b 3b f6 fe d4 39
       0.0026641954 0.0043459237 0.0038437643 0.00040625752
0000d0 ca a5 29 3a 3d 42 cc 3a a4 31 32 bb 96 cf a9 3b
       0.0006471543 0.0015583705 -0.0027190233 0.005182217
0000e0 62 2d ab 3b 57 c8 15 3a e4 ff 73 b9 be 57 a3 b8
       0.005223916 0.0005713752 -0.00023269613 -7.788789e-05
0000f0 16 b3 14 3b 69 bb a4 b9 90 96 a5 3a 86 5f b4 3a
       0.0022689751 -0.0003142015 0.0012633372 0.0013761378
000100 85 ee b8 bb bc 15 a3 ba 97 2c 00 39 d5 2a 4f bc
       -0.005643668 -0.001244239 0.00012223642 -0.012644489
000110 05 37 d3 3a 0f 43 e7 3b 52 d4 ba bb 7f a3 a4 3b
       0.001611442 0.0070575546 -0.00570158 0.005024373
000120 c7 fd 80 bc 71 9e 8f bc 4f 6b 1c bc 8d a9 a0 bb
       -0.01574601 -0.017531605 -0.009547069 -0.0049030245
000130 b9 dc 0b 3c fc d8 a0 bc a3 b0 c8 3b 56 8b 99 3b
       0.008536511 -0.019634716 0.0061245724 0.0046857996
000140 8b 6b fa bb f0 a2 1f 3b 92 18 27 3a 81 3f 3f 3b
       -0.0076422147 0.0024358593 0.00063742057 0.0029182138
000150 f6 d2 8b 3b 1d f2 8e bc 1f 51 a0 bc 00 12 48 3b
       0.004267092 -0.017449433 -0.019569932 0.0030528307
000160 f9 b8 24 bb c3 79 54 bb 7c ab df 3b 81 fb b4 3b
       -0.0025134666 -0.0032421208 0.0068258625 0.0055231457
000170 03 21 00 3b e7 76 34 3b 04 02 31 3c 3b ba 16 3c
       0.0019550927 0.0027536692 0.010803703 0.009199674
000180 55 fd b6 ba c3 27 11 3b 7a 51 09 38 e4 d3 3c bb
       -0.0013960997 0.0022148944 3.2739226e-05 -0.002881282
000190 92 e6 88 b9 46 67 3d bb 67 c8 5e bb 73 9c 73 bb
       -0.0002611173 -0.0028900667 -0.003399396 -0.0037172108
0001a0 7e 1e d9 ba 04 c1 59 bb e8 c5 15 bb fa 97 99 b9
       -0.0016564874 -0.0033226619 -0.0022853557 -0.00029295665
0001b0 59 43 03 39 6a 64 8f b9 30 c8 05 bb 43 c5 3e bb
       0.00012518223 -0.000273499 -0.002041351 -0.0029109276
0001c0 10 1f bc bb 73 1c be b9 8a 7c 9e ba db 8d 6b 3a
       -0.0057410076 -0.0003626082 -0.0012091559 0.00089856767
0001d0 aa 63 7d bb c6 22 cd ba b6 93 af bb 27 26 39 3a
       -0.003866414 -0.0015650622 -0.0053581847 0.0007062875
0001e0 58 d1 ff bb 89 90 2e bb bf 80 78 ba 7a 70 d2 38
       -0.007806938 -0.0026636443 -0.0009479634 0.00010034531
0001f0 9a af 44 bb 22 80 89 ba 08 0f c1 ba 50 55 72 ba
       -0.0030011893 -0.0010490457 -0.0014729211 -0.000924428

exp_avg_sq f4 [128]
000000 01 01 1c 38 a1 7e a3 38 87 7d 51 38 94 d9 e6 36
       3.7194233e-05 7.796032e-05 4.994639e-05 6.8798636e-06
000010 d8 09 36 36 17 cf ab 38 8f d0 34 38 b7 39 72 38
       2.7125843e-06 8.192489e-05 4.310958e-05 5.7751047e-05
000020 62 1c a7 38 df 31 00 38 ce bf 83 38 72 86 12 39
       7.968467e-05 3.0564024e-05 6.282293e-05 0.0001397373
000030 79 31 0d 38 de 75 44 38 57 be 34 37 89 1d ef 38
       3.3663095e-05 4.6839814e-05 1.0773153e-05 0.000114019094
000040 20 70 d2 37 2d 6a 73 38 04 dd 6b 38 2e 6b 82 37
       2.5086163e-05 5.80346e-05 5.6234203e-05 1.5547117e-05
000050 03 9d 04 36 0f a6 8d 38 f6 da c8 37 93 43 59 39
       1.9760926e-06 6.754335e-05 2.394382e-05 0.00020719906
000060 57 1d fd 37 41 33 2a 36 8b b0 0c 37 e2 5a 8f 36
       3.0173613e-05 2.5361808e-06 8.385755e-06 4.2723123e-06
000070 5f 30 97 37 15 22 0a 36 36 c6 47 36 66 27 0d 37
       1.8023127e-05 2.058344e-06 2.9768685e-06 8.413428e-06
000080 6a 51 f5 37 33 16 d4 38 cd b5 da 38 27 51 d4 36
       2.9244187e-05 0.00010113083 0.00010428913 6.3275397e-06
000090 ce ae 1f 36 cb 05 f1 38 ee 47 9c 38 44 17 32 38
       2.3794596e-06 0.000114928545 7.4520576e-05 4.2460175e-05
0000a0 a0 66 a9 38 f8 f5 fc 37 3a d1 9a 38 0a e4 03 39
       8.0776634e-05 3.015528e-05 7.382264e-05 0.00012578085
0000b0 0f 32 80 38 97 1d 94 38 7a 1c 0a 37 db 09 af 38
       6.11284e-05 7.0627015e-05 8.232071e-06 8.346486e-05
0000c0 81 3a e8 37 0a 46 b4 38 f5 cc c0 38 ba aa 85 37
       2.7683798e-05 8.596115e-05 9.19345e-05 1.5934336e-05
0000d0 4c 8c 11 36 2f 3c 89 38 cf f3 db 37 57 f3 75 39
       2.1688347e-06 6.543879e-05 2.6220367e-05 0.00023455672
0000e0 ca 2b 36 38 ea a4 04 36 d2 a2 24 37 83 d6 54 36
       4.3432963e-05 1.9765525e-06 9.813071e-06 3.1715324e-06
0000f0 84 31 61 37 64 05 1e 36 c9 c9 5b 36 09 bb d4 36
       1.3422574e-05 2.3546972e-06 3.2750997e-06 6.339866e-06
000100 b1 cc 37 3a db a8 a8 3b d9 21 c9 3c b9 7c e4 39
       0.00070113974 0.0051470823 0.024552273 0.00043580474
000110 49 f9 1f 3a 98 f7 f9 3b 85 bd 92 3c 5d 39 b0 3b
       0.0006102515 0.0076283924 0.017912636 0.005377932
000120 6b 81 e1 3b f2 f6 e6 3a 2f 03 be 3b 8f c9 40 3c
       0.006881883 0.0017621203 0.0057987194 0.011766805
000130 0e ba 72 3b 3a e9 1b 3c d3 f5 9d 39 5f 4b 20 3c
       0.0037037167 0.009516055 0.00030128527 0.009783595
000140 62 49 98 3a b3 80 f1 3b a7 9d 44 3b 1a 22 ba 3a
       0.001161855 0.0073700785 0.0030001195 0.0014200837
000150 75 1e 61 3a 88 90 03 3b 5f 7a 25 3b 2c 6a 5b 3c
       0.00085876073 0.002007516 0.002524994 0.013392013
000160 cf a0 1d 3b e2 49 e3 39 51 98 d2 3a 4f 6a 6c 3a
       0.0024052148 0.0004335186 0.0016067122 0.0009018527
000170 a8 47 75 3b 41 fe 5e 3a 5f 2d b6 3a cb 03 c2 3a
       0.0037426744 0.0008506515 0.001389902 0.0014802156
000180 df 7d d0 37 08 55 0b 39 15 6c 8a 38 67 9c 04 37
       2.4854146e-05 0.0001328775 6.6004846e-05 7.904228e-06
000190 bc 19 3a 36 b8 a5 01 39 1d 1c 4e 38 bc 23 19 38
       2.773114e-06 0.00012364134 4.914041e-05 3.6511323e-05
0001a0 54 8d 80 38 10 55 19 38 08 2e 8b 38 36 05 33 39
       6.12984e-05 3.6557263e-05 6.6366105e-05 0.00017072711
0001b0 1f 85 b1 38 8f eb 51 38 7e 70 62 37 82 a7 b0 38
       8.4648134e-05 5.0048864e-05 1.3496841e-05 8.423535e-05
0001c0 f9 04 1c 38 0b a9 ad 38 5a ef a1 38 8d 19 a2 37
       3.719793e-05 8.2807695e-05 7.721661e-05 1.9323803e-05
0001d0 ed ef ad 36 ee cc bc 38 13 dd 13 38 af ea 30 39
       5.183733e-06 9.00271e-05 3.5253423e-05 0.00016872094
0001e0 75 4d 89 38 f1 9d 28 36 62 87 39 37 04 62 a1 36
       6.5470966e-05 2.5125885e-06 1.1058381e-05 4.8095844e-06
0001f0 fa 0e 9a 37 84 cc 25 36 f2 79 4d 36 32 14 15 37
       1.8365205e-05 2.470596e-06 3.0618362e-06 8.885794e-06
