code/logs/epoch=8-step=1746.ckpt (torch, 72145 bytes, 18 tensors)

model.encoder.rnn.weight_ih_l0 f4 [128, 1]
00000000: e534 a0be 4b20 203c 265b 2ebe b428 d33d
00000010: 2601 6bbe 3930 c23d 8e41 c8be ed55 9c3c
00000020: 2def 88be 94f9 58bd 2c59 59bc 206a a5be
00000030: cd2d 1fbe 30d7 4cbe 9fa5 23be 96aa f6bc
00000040: 2860 abbd 4e06 453e 9565 6b3d 280a 85be
00000050: bbc3 bebd c930 20bc 1fce 4cbe 4b93 a83c
00000060: 36e2 d43d 1b3d 5c3d 0968 fcbd 86db a6be
00000070: 33ab 433e 1f57 043e 93a8 61be 3f9e b83d
00000080: bf58 31be 5433 0a3e 87ef 403e 9bac 1a3d
00000090: 0027 8cbd c435 e33d fee0 82bd 6893 2b3e
000000a0: a595 143e b91b 31be 9700 bb3d ac77 b1bd
000000b0: 67a2 03bd 7930 8dbd e194 95bc a0da ab3e
000000c0: a586 183e 66e8 203e 1d33 393e c120 7d3e
000000d0: b963 e0bd 5d59 77be 86a8 1d3e 8dca 13be
000000e0: 78e9 e73e 8018 383e 6fba 2dbe 5536 6b3e
000000f0: f18f 793e 705b 29be 72c0 6e3e 6fca 82be
00000100: af00 4f3e 860d cdbd 0276 c63d 9d47 d33c
00000110: d8dc 9b3d 5072 af3e 18cc 9ebe 9f90 c3bd
00000120: 7462 30be 65ce 383d 7f93 263e f2e9 9ebe
00000130: a034 c2bd c912 a8be 79ed d63d 4ba9 55bd
00000140: a378 92bd a801 0fbe 6207 f23d f682 e2bd
00000150: 2604 5abe 0b40 1fbe b483 0abe 59b7 013e
00000160: ccca b73b e505 f7bd 8be7 d23c fd10 373e
00000170: 956c 033e 5e7a 153e ab5b 88be d475 433e
00000180: 771b 8fbe b788 893e 8289 b53c d74c 563d
00000190: 97e6 28be 3000 35be 8b3f 42be 2a9c 9b3d
000001a0: a90b 08bd 421f 07be 8b71 5d3e c3fd c0be
000001b0: 2d74 9d3d 1382 3a3d 742c 75be 2727 a0bd
000001c0: f513 f9bc 605b b93d ac18 0abe bf16 fd3d
000001d0: ce3f 40be d90a 483d 74b8 8bbc 9904 b2be
000001e0: 50b8 783e f44a fc3c f38c acbe 8907 45bd
000001f0: 6b79 533e 5330 bc3d bfe3 30bd 2eb9 bcbd
-0.31290355 0.009773324 -0.17026958 0.10310498 -0.22949657 0.09481854 -0.39112514 0.019083941
-0.26744977 -0.05297239 -0.013265889 -0.3230753 -0.15544815 -0.20003963 -0.15981148 -0.030110639
-0.0836795 0.19240686 0.057469923 -0.2598431 -0.093146764 -0.009777256 -0.20000504 0.020578047
0.10394709 0.053769212 -0.12324531 -0.32589358 0.19108276 0.12923859 -0.22036962 0.09014558
-0.1731901 0.13496143 0.18841372 0.037762266 -0.06843376 0.11094239 -0.0639057 0.1675545
0.1451021 -0.17295732 0.09130972 -0.08665404 -0.0321373 -0.06894011 -0.018259468 0.33565235
0.14895113 0.15713653 0.18085904 0.24719526 -0.109565206 -0.24155183 0.15396318 -0.14432736
0.4529531 0.17978096 -0.1696565 0.22969945 0.24371316 -0.16538787 0.233156 -0.2554507
0.20215105 -0.10012345 0.09690477 0.025790984 0.07610482 0.342669 -0.31015086 -0.09549069
-0.17225057 0.04511871 0.16267203 -0.3103786 -0.09482694 -0.32826832 0.10494513 -0.052163403
-0.07151916 -0.13965476 0.118178144 -0.11060135 -0.21290645 -0.15551774 -0.13526803 0.12667598
0.005608892 -0.12061671 0.025745174 0.17877574 0.1283439 0.1459746 -0.26632437 0.19087917
-0.27950642 0.26862118 0.022160295 0.052319374 -0.16494213 -0.17675853 -0.18969552 0.07598145
-0.033214245 -0.13195518 0.21625344 -0.37693605 0.076881744 0.045534205 -0.23942739 -0.07819968
-0.030405024 0.090506315 -0.13485974 0.12357854 -0.1877434 0.04883847 -0.017055728 -0.34769133
0.2428906 0.03079746 -0.33701286 -0.04810289 0.20651786 0.091889046 -0.043185946 -0.09215008

model.encoder.rnn.weight_hh_l0 f4 [128, 32]
00000000: a6e8 e43b dedd 223e 429e 173e 4c9c e4bd
00000010: 485e 8ebd fa07 493d 1285 b43d 1965 27be
00000020: 28c5 543e 8d57 d1bd db44 643d 3c98 df3d
00000030: e347 b33c 6dc9 793e f1b8 b3bd b3d6 283e
00000040: 2839 dd3d f718 4d3e e267 00be 2e45 313e
00000050: 0b3b 77bb 0f8d 00be a1e7 7ebc 8932 3d3e
00000060: b8b3 1c3e d05f 76bd 6cd0 0dbe 6b4a 3f3d
00000070: f48a 12be ce49 0fbe 9bec 47bd 253b cbbd
00000080: b120 4fbe 856a d5bd a8f9 c5ba 6d80 063e
00000090: 53ab fbbc 87d1 dabd 2e32 b63d 8465 613d
000000a0: f757 bc3c 60f0 fdbd cd60 133e 9f39 df3c
000000b0: 65a3 383e 6d47 4e3e 6beb 33bc e6df 58be
000000c0: e3a9 2bbe 78d4 7e3b f2f2 93bb 763a 82be
000000d0: a1e5 96bd 7a4f c3bd 4b2b 283d 6d78 e83d
000000e0: 08a6 95be 03a9 6cbe 8e77 bfbd ecc1 2e3e
000000f0: 5831 1c3e 831b 403d 4d47 a23b bc2f 19be
00000100: 893d c1bc 1ab7 8b3d 360b 6a3e f946 f3bc
00000110: f7c7 d8bd 6859 0ebe e807 ae3d 4178 ae3d
00000120: 3ebf 3abe 9235 1cbe bcd2 08be 3200 163e
00000130: 4553 183e 583c 933d 54c8 2dbe 6353 79be
00000140: e107 81bd 81a5 3ebe b262 b43d f61a bcbe
00000150: e388 f5bb 65a3 9c3c b668 8fbd eb1a d73d
00000160: c130 97be f1f9 75bd e397 87bc dece 8ebc
00000170: 9c07 3c3d e5ab 183c 8374 b4bd 3189 833d
00000180: 1613 c93c b582 333e bafb a4bd 8051 0bbe
00000190: e325 143e 8b14 d03d 83e2 643c b99d be3c
000001a0: a1ae 17bd 9487 5b3b 3873 9bbd 7ed5 b33d
000001b0: c159 ad3d 745e cfbd d7a1 e93d 50e8 7e3e
000001c0: 05e3 3b3e eec3 0abe 2e63 bf3c 20bf 0ebd
000001d0: d18c 3c3e 5231 143d 2f07 a7bd 3625 6bbd
000001e0: 2a4a 0e3e f9b5 083e f938 b33d ba8b 843d
000001f0: 7170 d2bd 734f 1ebe 87dd b63c 6a7c dc3c
00000200: 45a7 3dbe 645e 38bd 18fe a83d e804 243d
00000210: bec1 22be 8f74 15be 1829 05bc 0a13 333e
00000220: 2cae 2f3e ce3b a1bd 9f64 59be 2499 d1bc
00000230: 4ae6 d2bb d15e ce3d afe8 083e b12e eb3d
00000240: 5389 1e3e 4e63 493e cbff 673b 19a0 3fbd
00000250: 2384 b3bd 0136 693d 0d3d b63d 848b 85bd
00000260: 9e13 72bd e822 6c3d 2eae 08bc 98b0 c3bd
00000270: 4cd3 773d de78 12be a7e2 3ebd 8c5f 053e
00000280: 828c 1e3d 8302 b9be 6580 72bd d44a a7bd
00000290: c4e3 5bbd ef5c ec3c 0c4e 913d 2938 923e
000002a0: 5917 2abd d4be b53c 719f d73e 2812 443d
000002b0: 3e6d 60be b02d e4be 0523 9d3e 466e b9be
000002c0: 7762 22be da3a eb3d 281d 3ebd 000a d53d
000002d0: a9ea 87bd 2d12 a03d 44ab eebd 0029 4f3e
000002e0: fbe1 d0be b4a5 e83d 8142 1fbd a20e 373e
000002f0: 2378 ab3d f1fd f63e 06a8 39be f2d6 513e
00000300: 1b87 57be 8f66 b53a d487 973c ba53 bb3c
00000310: 8b35 03bd 0dc1 c4bd 0948 bcbc 1a9a 663c
00000320: f6e8 5a3e 4f7e 833d 85c8 05be e9cc 263e
00000330: 2a31 033d 3dff 273e e619 73bd 0bc4 be3d
00000340: 235a 74bc 107d 80bc 84e1 69be d68b 093d
00000350: 4a91 893d efcb 123d f834 b03d 3b1a 8a3c
00000360: d0b7 a8bd aec2 503e 870b 2fbc 35c2 fdbc
00000370: 1170 bbbb 8ddf ffbc 5c82 f93c 0b39 4c3e
00000380: f657 3cbd 0498 88bd 8f4e 543d f65b 923b
00000390: fb10 f1bc e9ee 2d3b 653f 6f3d 8f77 05bd
000003a0: bcc6 55bd bbe0 00be 57d5 b6bd 0aa8 a53c
000003b0: add9 30bd a9f9 373e 8d22 7b3d d03f 03be
000003c0: 757a 443e 6c9c 633e 8206 86bd a163 3e3e
000003d0: c9b4 0c3e 859b 4a3e 6c56 773d d17d 903d
000003e0: 8603 223e 1b3b 89bd 11d0 153e 70a6 6dbe
000003f0: 9220 f73c 8f4f 123e e51f e9bd 90f0 f4bd
0.0069857417 0.15904948 0.14806464 -0.11162624 -0.069515765 0.049079873 0.08814444 -0.1634716
0.20778334 -0.10221777 0.05572973 0.10917708 0.021884864 0.24393244 -0.08775509 0.16488151
0.10801917 0.20029055 -0.12539628 0.17311546 -0.0037724401 -0.1255381 -0.015558154 0.18476309
0.15302932 -0.060149968 -0.13849038 0.04670183 -0.14310819 -0.13992998 -0.04880963 -0.0992339
-0.20227315 -0.104207076 -0.0015104311 0.13134928 -0.030721342 -0.106844954 0.0889629 0.055028453
0.022991164 -0.123993635 0.14392395 0.027249156 0.1803108 0.20144434 -0.010981421 -0.2117916
-0.16764025 0.0038883965 -0.0045150453 -0.25435227 -0.07368017 -0.09536643 0.041056912 0.113510944
-0.29228234 -0.23111348 -0.09348975 0.17066163 0.15253198 0.046901237 0.0049523474 -0.14959615
-0.023588913 0.06822033 0.22855839 -0.029696928 -0.10585015 -0.13901293 0.08497602 0.0851903
-0.18237016 -0.1525481 -0.13361639 0.14648512 0.14875515 0.07189244 -0.1697095 -0.24348216
-0.06300331 -0.18617822 0.08807887 -0.3673932 -0.007493125 0.019120881 -0.07002394 0.10503181
-0.29529384 -0.060052816 -0.016551917 -0.017432626 0.045905694 0.009318327 -0.08811285 0.064226516
0.024545234 0.1753033 -0.080558255 -0.13605309 0.14467578 0.10160168 0.01397002 0.023268567
-0.037031773 0.003349756 -0.075903356 0.08780955 0.08464385 -0.101254374 0.114078216 0.24893308
0.1834832 -0.13551304 0.023362722 -0.03485024 0.18413092 0.036179848 -0.08155667 -0.057408534
0.13895479 0.13350667 0.08751101 0.06471963 -0.10275353 -0.15459995 0.02232243 0.026914794
-0.1852084 -0.045011893 0.082515895 0.04004374 -0.1589422 -0.14595245 -0.008127473 0.17487732
0.17156285 -0.07872735 -0.2122979 -0.025585718 -0.006436144 0.100766785 0.13370012 0.11483515
0.15482073 0.19666788 0.0035400267 -0.04678354 -0.087654375 0.056936268 0.08898363 -0.06520751
-0.05910074 0.057650477 -0.008342309 -0.09555167 0.060504243 -0.1430392 -0.04660287 0.1302473
0.038708217 -0.3613473 -0.059204478 -0.08168569 -0.05368401 0.028852908 0.070949644 0.28558472
-0.041526172 0.02218572 0.42113832 0.047868878 -0.21916673 -0.44566107 0.3069078 -0.36216944
-0.15857874 0.114858344 -0.046414524 0.10402298 -0.06636555 0.07815967 -0.1165376 0.20230484
-0.4079741 0.1135973 -0.038881782 0.17876676 0.08372524 0.48240617 -0.18130502 0.20492151
-0.21047632 0.0013839769 0.018497385 0.022867072 -0.032033484 -0.09607134 -0.022983568 0.014074827
0.2137793 0.06420576 -0.13064773 0.16289105 0.03202931 0.1640596 -0.05935087 0.09314736
-0.014914068 -0.015684634 -0.22839934 0.033580624 0.06717165 0.035839017 0.08603853 0.01685821
-0.082381845 0.20386764 -0.010683901 -0.030976394 -0.0057201465 -0.031234527 0.030457668 0.19943635
-0.045982324 -0.0666962 0.05183273 0.004466529 -0.029427042 0.0026540107 0.058410067 -0.032584723
-0.05219148 -0.12585728 -0.0892741 0.020221729 -0.04317634 0.17966332 0.061312247 -0.12817311
0.19187339 0.22227639 -0.0654421 0.18592693 0.13740839 0.19785888 0.060385153 0.070552476
0.15821657 -0.067007266 0.14630152 -0.23208022 0.030166898 0.14288162 -0.113830365 -0.11959946

model.encoder.rnn.bias_ih_l0 f4 [128]
00000000: cb9b a6bd 01e4 27be b3dc 14be 536a 133c
00000010: 7550 17be 9e83 bbbd d021 babd 67c8 0cbe
00000020: 92ff 703d ae32 293e 18c7 513d 5d58 69bd
00000030: 733c c6bd 3e40 183e 7649 f53d 5151 c9bc
00000040: d766 3ebd 8277 42bc 1549 733d c7cb 99bd
00000050: f288 a43d 2f28 30bd 59fb 553e c7ce ad3c
00000060: 06bf a63d bcdd 183e f008 acbc c6d8 d63c
00000070: 0a62 f63d d8a4 b4bb 3faf 4cbd 9d31 a1bd
00000080: 4ea4 a3bd c4b6 01bd 09e8 bcbd 265c dfbc
00000090: 2b98 533e f9f6 bcbd d19a a03d 3f9f 153b
000000a0: fc9e 4b3d 3a31 043e 8ec9 593d ea86 db3c
000000b0: caf0 20bd 536a 6f3d 1b99 8f3c e4ca 4b3a
000000c0: 154a bd3d 162a 123e d024 37bc c17b 853c
000000d0: 9b63 d03d 6ad5 33bd 9b4b 533e 0273 123d
000000e0: 95d0 8fbd 842e 2fbd 8b78 05be 25e7 ed3d
000000f0: 9e8b 0bbe 66b2 0d3c ca6e 93bd a64b 883e
00000100: 3fcd 29bd f2d1 94bd 1328 0fbd 3e44 a03d
00000110: 11f9 5f3b 6e49 0bbe 0642 b0bd 1047 1dbd
00000120: 0b11 b43d dba4 e13d 3655 dc39 c24c c13b
00000130: f296 5f3d a8a4 03be f521 063d e624 3f3d
00000140: d6e8 a83d 2c00 dc3d 02ed bcbd ef29 f1bc
00000150: 4b2c 1cbe 0cc0 0a3e 1501 be3d e2dc 323e
00000160: d8c9 97bc fdbf f3bc f338 c6bd 149a 9dbd
00000170: 7c19 993d 5550 ba3d 5860 51bd a834 333e
00000180: b6a1 1c3e 8b24 3f3e 4fe4 05be 8c8c 7e3d
00000190: f351 f83d 349a 3dbd 7dbc 793d 1280 933c
000001a0: 9161 d53b ef0c 4e3d c415 123e a3f4 92bd
000001b0: 2913 8a3d edbf 993b 1f88 f7bc 0786 493c
000001c0: f1ba f33d 5bc2 1ebd 5c2b 613d d3d2 8abd
000001d0: 72ed 073e 8566 c8bd 0ee9 75bc 8772 86bb
000001e0: a79b 40bd fd10 53bd e80f 0b3d 3022 05be
000001f0: 01bf dcbd 0b58 633e d455 553e cecb 453e
-0.08135184 -0.1639557 -0.14537315 0.008997518 -0.14776786 -0.09155963 -0.090884805 -0.13748322
0.05883748 0.16523239 0.05121526 -0.056969035 -0.096794985 0.14868256 0.11976902 -0.024574907
-0.046484794 -0.011869313 0.05939587 -0.075095706 0.08033933 -0.043007072 0.20896663 0.021216763
0.081419036 0.14928335 -0.021000355 0.026226413 0.12030418 -0.005512815 -0.049971815 -0.07870791
-0.07990323 -0.03166844 -0.09223945 -0.02726562 0.20663516 -0.09226794 0.07842029 0.0022830514
0.049712166 0.12909403 0.053170733 0.02679773 -0.039292134 0.058451008 0.017529061 0.00077740685
0.09242646 0.14273867 -0.01117821 0.016294362 0.10175248 -0.0439047 0.2063431 0.03575421
-0.07022206 -0.04276897 -0.13034265 0.11616353 -0.13627478 0.0086484905 -0.07198866 0.26620215
-0.041455504 -0.072666064 -0.034950327 0.07825516 0.0034175555 -0.1360223 -0.08606343 -0.03839785
0.08792313 0.11017772 0.00042025157 0.005899043 0.054587312 -0.1285578 0.032747228 0.04666605
0.08247535 0.1074222 -0.09224893 -0.02943894 -0.15251271 0.13549823 0.0927755 0.17467073
-0.018528864 -0.029754633 -0.09678831 -0.07695404 0.07475564 0.09097353 -0.05111727 0.17500556
0.15296063 0.18666284 -0.13075374 0.062145755 0.121250056 -0.046289638 0.060970772 0.018005405
0.006511875 0.050305303 0.14266115 -0.07175567 0.06741936 0.004692069 -0.030216275 0.012300021
0.119008906 -0.03875957 0.05497299 -0.06778493 0.13274172 -0.09785179 -0.015009178 -0.004103008
-0.04702344 -0.051529873 0.033950716 -0.13001323 -0.107786186 0.22201554 0.20833522 0.19316027

model.encoder.rnn.bias_hh_l0 f4 [128]
00000000: 40c1 953d a5cb 3abd 7413 f83d 8ffc 023e
00000010: 2ec6 8f3b f419 bdbd 4b76 c53d ad8f f5bd
00000020: 7005 90bd 13c3 313c 5d8a 4f3e 04c5 6a3c
00000030: 7d04 e53d 4a2b 603e 469a 263e 3afc fcbd
00000040: 6b56 c63c 1c64 cb3d 9331 c0bd 586e 113e
00000050: 2324 08be 6624 dd3d a94f 2c3e 71bf 06be
00000060: 473e ecbd eb59 b6bd 04ba b0bd c701 0b3e
00000070: fca8 853d 8068 b13c e02c cbbc de41 743e
00000080: aded 503e fe12 0dbe df9b 9c3d 4de9 2f3d
00000090: 8ffa 123e c726 3c3d 049f adbd e618 0e3e
000000a0: 4469 bdbd b2bb 353d 7ea9 4d3e cf0f cabd
000000b0: f022 1e3e 3fbb 7c3e a018 08bd 057e fcbd
000000c0: d678 67bb dc13 063c bd36 ddbd fff4 a0bc
000000d0: 78fb 9d3d 6654 df3d 8c80 9fbd 1dc3 753d
000000e0: bac3 9ebb d586 12be d48f 0e3e f82b 99bc
000000f0: 447d d43d d92e 8d3c 7042 383e d830 0ebd
00000100: fd47 02be c228 b03d 6fd2 413e ed4b 233e
00000110: d247 3bbe fafa 70bd 37cc c23d 0f5c 50bd
00000120: 104d a73d 21b7 05be 2689 f23d 0338 55bc
00000130: 42bf 863d 9c0b 2a3d 2879 0dbd 4679 5cbc
00000140: 33e6 3a3d 926b 3e3e 7762 10be afc0 6f3d
00000150: b3f7 263e f2ac 173c d572 dd3d 788d f13d
00000160: b26a 273d 498c ccbd 5b13 4c3d bcd9 32be
00000170: be0a 573d ab92 51bd d2ee 4dbd 8ecb dabc
00000180: cc51 8ebc ab22 edbd 98ee 713d ef9f ddbd
00000190: f217 a83d 72d3 693e b6d6 a23d 683d a23d
000001a0: 6ab2 01be 05b1 053d 9d39 c03d 1169 1d3e
000001b0: 8281 003e a061 1e3d 1734 113e 1f1f 143e
000001c0: 53d5 c4bc 2d1c 703d 5342 0c3e 4177 50bd
000001d0: afee 58bc de11 853d a91e 193e 13e3 03bd
000001e0: f92f 91bd 7874 12bc d20a 34bc f3d9 093e
000001f0: 729a 4b3e fc56 8d3c 4691 163e af2d e03c
0.0731225 -0.045604367 0.121130854 0.12791656 0.0043876385 -0.09233466 0.09641703 -0.119902946
-0.07032287 0.010849732 0.20267625 0.014329199 0.11182497 0.21891513 0.16269788 -0.12352796
0.02421113 0.09931204 -0.093844555 0.14202249 -0.13295035 0.10797958 0.16827263 -0.13158967
-0.11535316 -0.08903869 -0.0862923 0.13574897 0.06526372 0.021656275 -0.024801672 0.23853251
0.20403166 -0.13776776 0.076469176 0.042947102 0.14353393 0.04593542 -0.084775954 0.13876686
-0.092485934 0.044368453 0.20084187 -0.098662965 0.15443015 0.24680804 -0.03322661 -0.12328724
-0.0035319827 0.008183446 -0.10801456 -0.019648073 0.077139795 0.109047696 -0.0778819 0.060000528
-0.00484511 -0.14309247 0.13922054 -0.018697724 0.10375455 0.017234253 0.17994094 -0.03471455
-0.12722774 0.08601524 0.1892793 0.15946932 -0.18289116 -0.0588331 0.09511607 -0.050869044
0.081689954 -0.1305814 0.11842565 -0.0130138425 0.06579448 0.041514978 -0.03453937 -0.013456648
0.04562969 0.18595722 -0.14100061 0.058533367 0.16305427 0.009257542 0.10812918 0.11794561
0.040873237 -0.09987695 0.049823146 -0.17465872 0.05250048 -0.051165264 -0.050276585 -0.02670839
-0.017372988 -0.11578878 0.05906543 -0.108215205 0.08207692 0.22834566 0.07951109 0.079218686
-0.12665716 0.032639522 0.09385989 0.15372111 0.12549403 0.03866732 0.14180027 0.14464997
-0.024027502 0.05862062 0.13697176 -0.05089498 -0.0132405 0.064975485 0.14953102 -0.032198977
-0.07089228 -0.008938901 -0.010988908 0.13462047 0.19883135 0.017253391 0.14703855 0.027365534

model.encoder.readout.weight f4 [12, 32]
00000000: 90a6 cb3d fde7 1dbe d0e0 793e f682 993d
00000010: 5140 84bb e151 2cbd b62a 16bc c463 dd3d
00000020: 3b4a 5dbe bab3 10bd 6a24 88bd 0c0e ebbd
00000030: 9cb5 04be d205 2e3d b0c5 2b3d 9d99 34be
00000040: 7e2b 123e 0898 153d c910 f4bc 3c93 0bbe
00000050: 83c3 41bd 9a8c ba3c d29d a53d ac4f febd
00000060: 6e41 113d c30e 473d 78d0 2d3e 4673 c43c
00000070: 56eb 01bc 3e78 253e e01f 38be 1000 df3d
00000080: fc80 2b3e c0b4 21be dc84 cdbd bbcb 1cbe
00000090: aed8 dd3d 8291 e23d 451d ae3d 17de 023e
000000a0: 0ce9 84bd def2 cc3d 937e 023e 8bf8 6dbc
000000b0: c9a2 24bd f923 debd 3b0a d8bd 3f7f 90bc
000000c0: 0b9f ec3c c224 f33d ff66 e93d 2eae a6be
000000d0: 5399 f13d 59c3 1bbe 32f5 f4bc ce20 b8bd
000000e0: 09f3 42be c351 6ebd dd7a 1f3c e7a2 953c
000000f0: e76c 9ebc 03bb d83d fa1e bfbd 3e72 1c3e
00000100: 9a53 1b3e be2f 1abe c0b1 c23d 10e6 b4bd
00000110: 3664 9f3c e991 c1bd 582e 85bd 8e29 85bd
00000120: a7a4 36be 6a0a f13d a8c1 b73d bab4 25be
00000130: 3aa6 e6bd 5f28 c7bd 8ee5 91bd 36d7 8b3b
00000140: e982 e4bd 9eab 903d 3cd6 533d 2b37 43be
00000150: 2436 903d 2896 9e3d 8902 eb3c e665 d2bc
00000160: a448 f0bc 0dba 1fbd 10e9 023d 468c 253e
00000170: 1e4c 6ebc cf2c a43d e30e cd3c 2e89 f7bd
00000180: 3b5e 223d f9f6 2bbd d90f c5bd 43e1 9abd
00000190: 448e 0ebd 6196 5f3e 3efb ebbd aec5 8fbd
000001a0: b352 23be b69b 01be 9cb3 f43d 3d9e 23be
000001b0: ed50 1e3d 0f6a b6bd 9cd3 abbd af71 e83c
000001c0: 82c9 ffbb d2e0 2bbe 7250 67bd 173d d1bd
000001d0: 1127 42be 6b18 f03d 49e2 46be f8ad 3bbc
000001e0: 6a6e 2abe 0203 83bd 50ad 643d 5073 05be
000001f0: 42b0 b4bd fdfe 23be 6f10 8dbc cc9a d6bc
00000200: 5208 9dbd 8535 91bd b39e 043e ac84 cabd
00000210: fb80 0a3e d107 c53c 47ef bdbb a52a 2bbe
00000220: 8857 86bd d75e ea3c a517 cebd d00d ffbb
00000230: d074 c33d 8522 41be 6cc3 c7bd ebd1 3e3d
00000240: a0a8 c3bd 86da bdbd 1577 1a3e 89b3 e23c
00000250: 5077 4fbe 8938 16bd 6867 1dbe 454c 073e
00000260: 88ab 29be 284a 3fbe f3ce 943c 850c 2cbd
00000270: 92e8 043e 2dfd 72bd b9f6 95bd 6392 0c3e
00000280: 8f76 593e 9c4e c33d 4d5b 05be f55f f8bc
00000290: 7b53 e1bc 53da a33d 8237 9fbd 36fa 813d
000002a0: 42f6 ddbd b2c8 313e 8dc5 ddbb a6d2 24be
000002b0: e420 f83c 8d58 84bd f2b9 2a3e 56d0 8abc
000002c0: 19d9 f93d e0ab 2dbe 53c6 96bc fdf8 8bbe
000002d0: 8fa4 43be e64f 3a3d a180 3a3c 64d6 d8bd
000002e0: 3c88 c6bd 7a05 0cbe f74e 0d3e 45b3 49bb
000002f0: bc47 ac3d d34a 3cbe 79cc 803d 1899 66be
00000300: 2049 b3bd d7ef 4a3c beaa 03be 638f bdbd
00000310: 59f9 513e 03ea c63d 9333 8cbe 2c51 55bc
00000320: a4a5 b9bd 4624 0cbe ea42 1abe f0d1 55be
00000330: c904 abbc ec66 c33d 9b3c 04bd 9749 0bbd
00000340: 75d0 43be 179f 48be 37a4 fcbd d978 27be
00000350: d096 38be cb1e 15be eaac 3ebe 8fcf 303c
00000360: 6c26 08be e48f 44bd 8448 6abd 797b 643e
00000370: 3369 36be a824 993d fb18 183d b56e 223c
00000380: 1a01 85bd 762e 40bd 737c 183e dba6 9d3d
00000390: 1e39 0e3e bd2f 81bd 7bf1 0fbe 57b5 05be
000003a0: fc68 4f3d 6da2 f4bd 2af7 9fbc 89b9 dcbd
000003b0: 7f62 8c3d 57fc 27bc 08f6 2e3e eb31 acbd
000003c0: 2585 603c 132d 06be 54f2 c83d e334 7fbd
000003d0: 7961 70bc a878 04be d0d9 783c cb38 ae3c
000003e0: f3ac 3abe 20d2 4dbe a666 5dbd 2abc 513c
000003f0: 8f4d 3ebc f34f 143e 88be 3ebe b651 013d
0.09943879 -0.15420528 0.24402165 0.07495682 -0.0040359874 -0.042070273 -0.0091654565 0.108100444
-0.21610348 -0.03532765 -0.066475704 -0.114772886 -0.12959903 0.04248602 0.041936576 -0.17636724
0.14274403 0.03652194 -0.02979316 -0.13630384 -0.047305595 0.022772122 0.080867425 -0.1241754
0.03546279 0.048598062 0.16974056 0.023980748 -0.007929644 0.1615915 -0.1798091 0.10888684
0.16748422 -0.15791607 -0.100351065 -0.15312092 0.10832344 0.1106291 0.085016765 0.12780033
-0.06489763 0.10007261 0.12743597 -0.014524589 -0.040194307 -0.10846705 -0.10548826 -0.0176388
0.028884431 0.11872245 0.11396598 -0.32554764 0.117968224 -0.15211238 -0.029902074 -0.08990632
-0.19038023 -0.058183443 0.009733883 0.018266154 -0.019339038 0.10582545 -0.0933208 0.15277955
0.1516861 -0.15057275 0.09506559 -0.088329434 0.019456964 -0.09451658 -0.0650298 -0.065020666
-0.17836247 0.117695644 0.08972484 -0.16182223 -0.11262174 -0.09724497 -0.07123862 0.0042675985
-0.11157782 0.070639834 0.05171798 -0.19064014 0.070415765 0.07743484 0.028687732 -0.025683355
-0.029331513 -0.03899579 0.031960547 0.16166791 -0.014544515 0.08016359 0.025031513 -0.12086712
0.039640646 -0.04198358 -0.09622163 -0.075624965 -0.034803644 0.21834709 -0.1152253 -0.07020126
-0.15949516 -0.12657055 0.1194832 -0.15978332 0.038651396 -0.08906948 -0.08389971 0.028374521
-0.007806004 -0.16784981 -0.056473203 -0.1021673 -0.18960215 0.11723407 -0.19422258 -0.011455052
-0.16643682 -0.06397058 0.055829346 -0.1303227 -0.08822681 -0.16015239 -0.01721975 -0.02619686
-0.076676026 -0.07090286 0.12951164 -0.098885864 0.13525765 0.024051579 -0.0057963463 -0.16715486
-0.06559664 0.028609676 -0.100631036 -0.007783629 0.095437646 -0.18860824 -0.09754071 0.046586912
-0.09553647 -0.09270196 0.15084489 0.0276735 -0.20260358 -0.03667501 -0.15371478 0.13212688
-0.1656934 -0.18680632 0.018165087 -0.042004127 0.12979344 -0.05932348 -0.07322449 0.13727717
0.21236633 0.09536478 -0.1302311 -0.030319193 -0.027505627 0.080006264 -0.07774259 0.06346552
-0.108379856 0.17361715 -0.0067679347 -0.16095981 0.030289121 -0.06462202 0.16672495 -0.016945045
0.12199611 -0.16960096 -0.018405115 -0.273384 -0.19105743 0.045486353 0.011383207 -0.10587767
-0.096939534 -0.13673964 0.13799654 -0.003077702 0.0841212 -0.18387918 0.06289 -0.22519338
-0.08754182 0.012386284 -0.12858102 -0.092558645 0.20505275 0.09712603 -0.27383098 -0.013019841
-0.090647966 -0.13685712 -0.15064588 -0.20880866 -0.020876305 0.09541115 -0.03228436 -0.034005728
-0.19122489 -0.19591938 -0.12336009 -0.16354693 -0.1802628 -0.14562528 -0.18620649 0.010791673
-0.13295907 -0.047988787 -0.057198063 0.22312726 -0.17813568 0.07477695 0.0371332 0.00991409
-0.06494351 -0.04691931 0.14891224 0.07697841 0.13888976 -0.063079335 -0.14056961 -0.13057457
0.05063723 -0.11945043 -0.019527037 -0.107775755 0.06854724 -0.010253034 0.17086041 -0.084079586
0.013703619 -0.13103132 0.098118454 -0.062306296 -0.014671677 -0.12936652 0.015188649 0.021267315
-0.18230037 -0.20099688 -0.05405297 0.012801209 -0.011615171 0.14483623 -0.1862737 0.031572066

model.encoder.readout.bias f4 [12]
00000000: 9afb 1bbe 7683 fdbd 7583 a1bd c546 80bd
00000010: d299 e8bd 0ba8 db3d b17f f23d d3a0 28be
00000020: 66bc 84bc 00eb 38be 7612 d3bd b99e 15be
-0.15232697 -0.1237859 -0.078864016 -0.06263498 -0.11357464 0.10725411 0.118407615 -0.164676
-0.016203117 -0.18058395 -0.103062555 -0.14611329

exp_avg f4 [128, 1]
00000000: 896b bd39 ad81 24ba 431a 5bba 5231 d039
00000010: 5f58 0139 34e1 f039 2189 b339 0090 793a
00000020: f8f5 98ba ebdf 84b9 3a29 19ba aa35 e239
00000030: f9f4 8cba b4be e439 d4e4 cdb9 57d7 a3ba
00000040: 93e7 8cba 757e e8ba b3f1 85ba 23a6 3cbb
00000050: 0068 133a 11a7 abb9 f65e abba 5810 8e39
00000060: 7f19 1239 f5d1 87ba 852c 99b7 c45b 6eba
00000070: 3643 1cb9 b9d9 e638 a2d2 acba a43e c1b8
00000080: 0044 c539 3f4e 55ba 16a4 2dba 9e3f c739
00000090: f26e 8639 df8f 68b8 7cf5 7d39 6dc1 443a
000000a0: 39e1 32ba af80 beb8 34e7 9cb9 0356 bd39
000000b0: ca2f 12ba b861 dbb8 cef4 1cb9 1b11 5dba
000000c0: 4f8a 26ba e9c5 00bb 6153 39ba 72d5 03ba
000000d0: 408c e939 cdf9 a9b8 88ea 6dba 439a b339
000000e0: e232 6fb8 6e75 6bba e265 8837 1ddb 07ba
000000f0: 80d8 02b8 5af4 5a38 9b0a afba 91f9 3db8
00000100: 4a47 21bb bee0 733b 48d6 3abb 3859 603b
00000110: e959 84bb 932f d5ba 80a2 793b 2d9f 51bc
00000120: 71f4 bc3b cd57 45bb 04f4 ccba 1075 2c3b
00000130: 23d3 8f3b deb5 b83b 3a51 45bb a919 043c
00000140: 5c6b b23b 1baf bb3c 7fd7 d3bb 1b77 c33c
00000150: dab1 083b 4207 333a d3db f53b 8a2a 303a
00000160: fe5a 5b3d 1554 c83b 4622 c8ba d3bb b6bb
00000170: d76f 8439 0ef4 06ba 706f 6c3b ecea 6236
00000180: 73bc d039 75df 0bba 2e08 7aba a453 e939
00000190: f8b0 7139 f97e 4439 6669 b639 9579 143a
000001a0: d391 6eba c197 00ba 8f88 39ba 125f d239
000001b0: bdc0 4fba ff15 7f39 7116 13ba 7c95 01bb
000001c0: ba56 87ba 992c 0ebb 1333 07bb 1a42 24ba
000001d0: 17cd 3c3a af5e 86b9 445d 90ba 8d3d 6e3a
000001e0: 4d55 8ab9 9ee8 baba 8ba6 4cb8 a144 76ba
000001f0: 4977 e9b9 8b4b cd38 fbc9 b9ba 1da5 81b8
0.0003612901 -0.0006275427 -0.00083581003 0.00039709598 0.0001233532 0.00045944157 0.0003424371 0.0009520054
-0.0011669984 -0.00025343834 -0.000584263 0.00043146062 -0.001075416 0.00043629634 -0.00039271137 -0.0012500089
-0.0010750167 -0.0017737882 -0.0010219127 -0.0028785549 0.0005623102 -0.00032740136 -0.0013074565 0.00027096528
0.00013933143 -0.0010362255 -1.8259752e-05 -0.00090926536 -0.00014902357 0.00011007809 -0.0013185332 -9.214625e-05
0.00037625432 -0.0008136965 -0.0006623877 0.00038003636 0.00025641132 -5.54471e-05 0.0002421941 0.00075056293
-0.0006823722 -9.083875e-05 -0.00029926898 0.00036112973 -0.0005576579 -0.00010460935 -0.00014968516 -0.000843303
-0.0006353007 -0.0019649214 -0.00070696144 -0.0005029059 0.00044545718 -8.105077e-05 -0.00090757804 0.00034256474
-5.702943e-05 -0.0008982037 1.6259906e-05 -0.0005182492 -3.1196047e-05 5.220282e-05 -0.0013354601 -4.529354e-05
-0.0024609142 0.0037212814 -0.002850907 0.0034232866 -0.0040390384 -0.0016264789 0.0038091242 -0.012794298
0.0057664444 -0.0030112148 -0.0015636687 0.0026314892 0.004389183 0.0056369146 -0.003010823 0.0080627585
0.005444927 0.022910645 -0.006464898 0.023860505 0.002085796 0.00068293896 0.0075030117 0.0006720206
0.053553574 0.006113539 -0.0015269003 -0.0055765896 0.0002526033 -0.00051480613 0.0036077164 3.3813367e-06
0.00039813257 -0.0005335727 -0.0009537962 0.0004450354 0.00023049477 0.00018739318 0.00034792273 0.0005663869
-0.0009100709 -0.00049054256 -0.0007077539 0.00040125154 -0.00079251436 0.00024326889 -0.0005610949 -0.0019772938
-0.0010325529 -0.0021694063 -0.0020629808 -0.00062659534 0.00072021916 -0.00025629016 -0.0011014123 0.0009088151
-0.00026384965 -0.0014259999 -4.8792495e-05 -0.0009394382 -0.00044530098 9.789233e-05 -0.0014174575 -6.181954e-05

exp_avg_sq f4 [128, 1]
00000000: 67a0 0936 0b11 9236 5bbe f335 2528 c935
00000010: c58e 3936 65cb 2b35 75c6 6237 e0db 2737
00000020: d9fd 6636 5d6a 9135 bd4d 1536 678a 8536
00000030: dacb e836 6874 e836 d1d3 9436 608b a436
00000040: 4f51 dd36 41a2 eb36 34fd b936 30b5 1838
00000050: 826d ba36 9c2d fb33 db70 8f37 48bc 7235
00000060: 823e 8c37 c24a 5b36 36f4 6235 9944 b936
00000070: 985d ef34 ef04 2436 18da e536 f21a 5634
00000080: 9646 4c36 dc68 b536 c273 8b35 0dd6 0236
00000090: 20ec 5736 ea5f 8735 589e 0f37 cb43 9236
000000a0: ccff d235 88f8 8935 66bb 5a35 72be 1536
000000b0: a420 fc35 b0a8 d336 b0f2 fa35 9547 2c36
000000c0: aaf0 1836 ec76 d936 b6ad 5a36 c248 0437
000000d0: bdd1 9836 309e 1433 1d69 2037 4e62 9035
000000e0: c9b7 0b37 3436 5936 b3e6 1b35 9943 5636
000000f0: 5b1c d734 5a67 f135 3a22 ad36 7658 6f34
00000100: de50 9d38 9c6a c038 2a03 5837 1c10 9538
00000110: 581a 4639 c0fd 9d37 b2bb 4439 7488 3b3a
00000120: e581 9438 7b7f bd38 0e37 7c38 22a9 6f38
00000130: 01d7 c738 7c7b 123a 719a 0e39 f89c 5f39
00000140: b041 4c39 5c69 0e3b aa60 6a39 6414 373b
00000150: d3e0 db38 afb8 9936 a3af b539 586c 7736
00000160: 5b87 963c 9a82 2d39 7905 2838 b2e4 f838
00000170: 5384 4a37 44ea 0b39 3d29 6238 302e a637
00000180: c37a 2636 810e 5b36 b6e4 0436 8dcc 2136
00000190: 06a2 4836 0de6 1136 8fe1 6037 158b bf36
000001a0: 9cf6 0536 b271 e435 4d24 5d36 03c9 7536
000001b0: aa2e 6836 fda2 4037 98df d236 e319 2c37
000001c0: 3dfa af36 bc7d 9137 7a00 8737 a018 f236
000001d0: f6f0 f636 86e0 bf33 6d54 5b37 3975 a436
000001e0: f499 fc36 2421 0937 eba9 3e35 360e 9936
000001f0: 1770 3135 dfde 8936 8fb4 e836 a9d1 8835
2.0507957e-06 4.353123e-06 1.8160312e-06 1.4987351e-06 2.765025e-06 6.399844e-07 1.3516857e-05 1.0005169e-05
3.442043e-06 1.0834298e-06 2.224798e-06 3.979821e-06 6.9378702e-06 6.9276903e-06 4.4354024e-06 4.9038063e-06
6.595779e-06 7.0224346e-06 5.5429064e-06 3.6408368e-05 5.5559804e-06 1.16963946e-07 1.709948e-05 9.042601e-07
1.6718408e-05 3.2677058e-06 8.4546934e-07 5.5214155e-06 4.4585317e-07 2.4440776e-06 6.8501213e-06 1.9940106e-07
3.0439455e-06 5.4064276e-06 1.0389997e-06 1.9496104e-06 3.217494e-06 1.0086198e-06 8.5603315e-06 4.359031e-06
1.5720666e-06 1.0279628e-06 8.148403e-07 2.2313584e-06 1.8784963e-06 6.307928e-06 1.8697083e-06 2.5671663e-06
2.278985e-06 6.4809483e-06 3.2585644e-06 7.884753e-06 4.5543698e-06 3.4602806e-08 9.561217e-06 1.0757446e-06
8.327836e-06 3.236707e-06 5.807771e-07 3.1927832e-06 4.0067502e-07 1.7985979e-06 5.1597863e-06 2.2290791e-07
7.501406e-05 9.175131e-05 1.287534e-05 7.107874e-05 0.00018892565 1.883402e-05 0.00018761939 0.0007153817
7.081385e-05 9.0359674e-05 6.0132756e-05 5.7139558e-05 9.529107e-05 0.00055878586 0.00013599709 0.00021325413
0.00019479427 0.002173028 0.00022351989 0.0027935738 0.000104846105 4.5812553e-06 0.0003465387 3.6868933e-06
0.01837509 0.00016547219 4.0059418e-05 0.00011868159 1.2070947e-05 0.00013343344 5.3921005e-05 1.981025e-05
2.4807384e-06 3.2641985e-06 1.980266e-06 2.4109934e-06 2.9896632e-06 2.174059e-06 1.3403957e-05 5.708435e-06
1.996209e-06 1.7020413e-06 3.2952696e-06 3.662485e-06 3.4597856e-06 1.14820405e-05 6.2845174e-06 1.0258026e-05
5.244538e-06 1.7343897e-05 1.6093476e-05 7.2150287e-06 7.359423e-06 8.934971e-08 1.3073074e-05 4.9012274e-06
7.5281077e-06 8.1735525e-06 7.102778e-07 4.5614097e-06 6.610075e-07 4.108864e-06 6.9351586e-06 1.0193809e-06

exp_avg f4 [128, 32]
00000000: 1b44 2439 7cee 0537 5814 60b8 785e 93b8
00000010: c802 0a39 a214 2038 8a57 0db9 76e2 be38
00000020: aa7b 16b8 96ac d538 aaaf dab7 802e 0bb9
00000030: e16d 7cb8 b866 6db8 40c8 b038 0013 f7b6
00000040: a0f4 c2b8 f57f 4ab9 8b33 7038 1d28 75b8
00000050: f53c 1eb9 210f 93b7 7a6c 14b9 8caf d1b8
00000060: 2d92 37b8 f8be de34 bc36 f038 a9d8 0339
00000070: 00a4 f037 1cc6 d637 ae15 d737 5962 fcb7
00000080: 84da 20b7 de17 8b38 69d8 3eb8 8969 e4b6
00000090: 7b17 21b7 4ffa a6b8 9f36 2937 efaa 12b8
000000a0: 02b6 6738 bbfb 04b8 6900 c1b8 3564 fa36
000000b0: 1fcd 0738 f732 a637 83a3 23b7 4ae0 9b38
000000c0: feb0 2938 5fa6 c538 3b66 a4b8 938c a238
000000d0: 2fb5 5d37 1d08 bab5 549a 5e38 bc67 dfb6
000000e0: e556 d238 6255 9338 5249 78b6 01cd 3bb8
000000f0: ccc2 c6b8 d46d 2bb8 4236 6038 b6d4 38b7
00000100: f3a4 41b7 d0d2 d038 987d 94b8 8969 e8b7
00000110: 1160 26b7 ff8e fdb8 2a7a 9737 a41b 2ab8
00000120: ea4a 9e38 0dca 2fb8 3166 2ab9 6434 4637
00000130: 883a 5038 86a0 5938 5244 d5b7 8e95 d738
00000140: 6478 6e38 308b fc38 008e f0b8 3334 de38
00000150: 146e d237 ec41 78b6 8af3 9738 89c1 0bb8
00000160: cd41 eb38 7db3 d938 8b92 16b7 4727 7db8
00000170: e92b 2fb9 c418 aeb8 a2b4 b838 7cb9 4ab8
00000180: 19da 5638 8681 88b7 3795 68b6 7cc5 5db7
00000190: 4120 3538 41d4 0438 f023 41b8 b167 0738
000001a0: 97ac c5b7 c292 2538 d446 b337 3939 3cb8
000001b0: ba19 dab7 5bc9 e2b7 7cc7 0238 798e 93b7
000001c0: 8a64 24b8 beef b6b8 5457 0b38 ee3a 21b8
000001d0: f32c 60b8 2419 c4b6 0c13 6eb8 b871 c7b7
000001e0: 4759 f8b7 0a18 98b7 ef4c 1f38 f17f 5338
000001f0: dab6 2838 fdf0 e337 8e4e cab6 4458 7a35
00000200: 1207 5339 886d cf37 00c1 a0b8 12ba ddb8
00000210: ad7d 3539 f074 0238 b3e4 31b9 7462 0339
00000220: dc85 39b8 7c46 0c39 cc58 86b8 3e54 2eb9
00000230: e719 99b8 bd40 37b8 ba9f d638 a891 c3b6
00000240: ded6 fcb8 d7f5 86b9 87af 9238 8a3f abb8
00000250: bc4b 47b9 d929 c3b7 da7d 3fb9 c14c 15b9
00000260: a601 89b8 6141 0537 f967 1739 96cb 2839
00000270: 33d2 6037 e9a8 4337 6481 6438 fbdb 81b8
00000280: 099b 3f38 84dd 5037 e189 dbb7 f61e c6b7
00000290: 4a3a 2c38 7132 b1b6 f67d cfb7 70b7 5536
000002a0: b354 d5b6 4203 e937 1ee2 47b8 629c 07b8
000002b0: 0a1c 86b6 2d41 5337 6cbb 0f37 4cc5 7b37
000002c0: 40b1 ccb7 726b 8db8 02db 0937 68e2 ccb7
000002d0: 3736 35b8 8e56 f9b7 b072 03b8 a777 72b8
000002e0: 4734 be37 8d75 6636 a47e 0b38 5533 1738
000002f0: e9a6 5737 238e 6ab6 f05c 0138 cb27 e2b7
00000300: 5256 a639 e25d e837 5010 ecb8 ec2b 14b9
00000310: eb5d 8839 f721 7c37 5bc5 93b9 2400 4139
00000320: 7071 51b8 2ed5 4a39 93c9 82b8 a720 8db9
00000330: 90be 00b9 c0e4 1cb9 dbb6 4839 2208 7636
00000340: a0d9 31b9 beeb aeb9 f502 bf38 7d1f d6b8
00000350: b4a8 9db9 e2e3 88b7 5ec8 8bb9 26b7 45b9
00000360: 3f85 67b8 4e3b a637 ffd2 8139 b872 6c39
00000370: 152b 4e38 138b 7838 1515 7138 c00a d4b7
00000380: 15f8 c937 6eec 6238 7ef5 3db8 5384 4bb8
00000390: c635 eb37 8d5f 25b8 c29c 40b7 3ab7 90b7
000003a0: d978 3b37 7888 b7b6 092e e9b8 972c 13b7
000003b0: 4c51 3737 b024 db37 4f20 afb6 2fda 5a38
000003c0: e653 2a37 50d5 b436 39d6 42b8 8b01 8337
000003d0: 136e 57b7 cc2a 06b8 a0a4 12b7 e38e 80b8
000003e0: e07a 2b38 e394 1838 3d2b b636 68b7 4437
000003f0: 046c cab8 54b8 4fb8 1d33 7738 a3f5 39b8
0.0001566563 7.982944e-06 -5.342471e-05 -7.0271024e-05 0.00013161742 3.816619e-05 -0.00013479419 9.102088e-05
-3.5877958e-05 0.00010188778 -2.6069425e-05 -0.00013273396 -6.0183815e-05 -5.6600868e-05 8.4296335e-05 -7.3633855e-06
-9.296206e-05 -0.00019311889 5.7268462e-05 -5.844991e-05 -0.00015090762 -1.753081e-05 -0.0001415479 -9.998595e-05
-4.3766737e-05 4.148967e-07 0.00011454287 0.00012573846 2.8686598e-05 2.560304e-05 2.5640093e-05 -3.0086538e-05
-9.58762e-06 6.632482e-05 -4.5501078e-05 -6.8072154e-06 -9.601815e-06 -7.9621204e-05 1.0085902e-05 -3.4968307e-05
5.52442e-05 -3.1705695e-05 -9.2030336e-05 7.4622462e-06 3.2377542e-05 1.9812474e-05 -9.753628e-06 7.432753e-05
4.0457577e-05 9.424681e-05 -7.839171e-05 7.750946e-05 1.3214812e-05 -1.3860441e-06 5.3072654e-05 -6.657994e-06
0.00010029766 7.02541e-05 -3.6997558e-06 -4.47752e-05 -9.4776595e-05 -4.0871862e-05 5.3456293e-05 -1.101678e-05
-1.1542102e-05 9.95748e-05 -7.0805836e-05 -2.7705699e-05 -9.916738e-06 -0.00012090615 1.805749e-05 -4.05569e-05
7.547981e-05 -4.1911426e-05 -0.00016250533 1.1813918e-05 4.9645576e-05 5.188633e-05 -2.5423393e-05 0.000102798556
5.6855744e-05 0.00012042222 -0.00011470541 0.00010595508 2.508521e-05 -3.6993251e-06 7.245604e-05 -3.3320426e-05
0.000112179296 0.000103807986 -8.974816e-06 -6.035648e-05 -0.00016705658 -8.3015795e-05 8.807449e-05 -4.83333e-05
5.1224695e-05 -1.6272777e-05 -3.4657548e-06 -1.3218607e-05 4.31838e-05 3.166893e-05 -4.6048255e-05 3.228308e-05
-2.3564598e-05 3.9475744e-05 2.1371445e-05 -4.4875986e-05 -2.5999605e-05 -2.7035063e-05 3.11802e-05 -1.759011e-05
-3.919428e-05 -8.723092e-05 3.3221513e-05 -3.8440274e-05 -5.3447624e-05 -5.844182e-06 -5.676136e-05 -2.3775603e-05
-2.9605477e-05 -1.8131006e-05 3.7980204e-05 5.0425475e-05 4.0224615e-05 2.7172728e-05 -6.029214e-06 9.32607e-07
0.00020125162 2.4727327e-05 -7.6653436e-05 -0.000105727595 0.00017308323 3.110332e-05 -0.00016965232 0.0001252981
-4.4232103e-05 0.00013377698 -6.4061576e-05 -0.00016625316 -7.300433e-05 -4.3690892e-05 0.000102340666 -5.8284095e-06
-0.000120563185 -0.00025741637 6.994517e-05 -8.1657505e-05 -0.00019006332 -2.3265298e-05 -0.00018262063 -0.0001423834
-6.532976e-05 7.94264e-06 0.00014439215 0.0001609757 1.3400381e-05 1.1662233e-05 5.447994e-05 -6.192174e-05
4.5682336e-05 1.2449342e-05 -2.617104e-05 -2.3617857e-05 4.106228e-05 -5.280883e-06 -2.4734978e-05 3.1846248e-06
-6.357755e-06 2.7777282e-05 -4.7655885e-05 -3.233215e-05 -3.9967754e-06 1.2591755e-05 8.567102e-06 1.5006703e-05
-2.4401234e-05 -6.743417e-05 8.216828e-06 -2.4424124e-05 -4.3204254e-05 -2.9723418e-05 -3.1339645e-05 -5.780873e-05
2.2674109e-05 3.4341094e-06 3.3258126e-05 3.6049012e-05 1.285386e-05 -3.4951452e-06 3.084255e-05 -2.695983e-05
0.000317263 2.7700273e-05 -0.000112563954 -0.00014130742 0.00026009916 1.50282785e-05 -0.00028185066 0.00018405967
-4.993513e-05 0.00019343637 -6.236429e-05 -0.00026917944 -0.00012278021 -0.00014962535 0.00019141605 3.666159e-06
-0.00016961107 -0.00033363508 9.1081405e-05 -0.0001021018 -0.00030071067 -1.631858e-05 -0.0002666143 -0.00018855612
-5.5198787e-05 1.9816358e-05 0.00024762002 0.0002254945 4.915435e-05 5.925733e-05 5.747851e-05 -2.5277375e-05
2.407659e-05 5.410279e-05 -4.5289744e-05 -4.8522208e-05 2.8039223e-05 -3.9428054e-05 -1.148059e-05 -1.725146e-05
1.1174206e-05 -5.469712e-06 -0.000111188805 -8.772265e-06 1.0926578e-05 2.6123918e-05 -5.2191676e-06 5.217845e-05
1.0152324e-05 5.389251e-06 -4.6452715e-05 1.5617135e-05 -1.2840627e-05 -3.1987947e-05 -8.740608e-06 -6.13013e-05
4.0884013e-05 3.6378286e-05 5.4290563e-06 1.1725213e-05 -9.65223e-05 -4.9524315e-05 5.8936992e-05 -4.4336204e-05

exp_avg_sq f4 [128, 32]
00000000: 5756 4335 1204 1332 9215 1534 6425 5634
00000010: 18b0 0a35 aad4 0333 52ac fc34 c88c eb33
00000020: 0e64 be33 6aab bc34 4346 9133 4694 cd34
00000030: 66a4 f833 e80d e633 99e6 5334 9ff8 3b31
00000040: 6091 8a34 e0d7 9335 4915 f633 dc1a 0d34
00000050: caae 2c35 86b9 1533 a72a 2135 c2e6 cb34
00000060: 40ed 0433 1e3b 2632 14e0 a934 875d 1b35
00000070: 1c66 f632 60aa 2033 154d 2c33 175b a833
00000080: 864b bd32 b257 8933 a53d 3b33 5195 2f33
00000090: 72e1 be32 76f4 2733 91f4 5232 1bd5 b631
000000a0: 3c6c 0932 c598 8632 cb38 a034 668d ff31
000000b0: 30f4 5332 a93c fd33 a38d a232 c32f b732
000000c0: 5a10 5c32 d3c6 ab33 8805 be32 db31 f632
000000d0: 1fc1 bc32 9906 a132 40e4 e632 6394 fb33
000000e0: 82c9 5733 5d7f ac32 45c4 fc31 c97d 1c33
000000f0: b9a1 7c33 cc11 a433 18ec b333 20d5 df33
00000100: e276 8632 afb8 9f32 fd8b 5e32 a93b 5e32
00000110: bcdb 5a32 4b8d 7832 de71 1632 cb08 6131
00000120: 9db7 a031 01aa 2032 2d85 8633 1e20 f531
00000130: 7d2d b531 2915 ab32 4c34 d831 4e1d f331
00000140: 2a5e 1732 d6b3 1e33 e7ff 4b32 aa49 2e32
00000150: 7e25 8632 de69 7f31 c338 8d32 d96c d532
00000160: 6104 6b32 7ea8 2332 e4ac e631 cd9f 9c32
00000170: 50c9 e932 6dd4 9832 ee64 9f32 436b 9e32
00000180: 303d 2234 c29a 7232 4213 3a33 7c0b 8b33
00000190: 0a84 f533 26e0 8c32 b90e b433 06ce b332
000001a0: 23e1 c332 10cc a933 7e01 fc33 421a 9a33
000001b0: 9b4b dd32 03a8 5c33 6c45 2033 1486 8331
000001c0: d7e2 7b33 226a 9134 c52d fd32 78d4 3633
000001d0: 8808 1334 56ef 9032 013b 0834 655c 1b34
000001e0: b52d 1132 062f da31 e7bb 8433 405f 1634
000001f0: 78b9 c532 9ebe 0233 c5df 1333 314c 8233
00000200: 7ae1 9e35 91f5 c032 d782 8a34 4a2c c634
00000210: 4ae6 6835 90e1 3b33 cc5d 4035 7bb6 4234
00000220: 37f4 2034 e860 2035 7a6a 5434 51fd 2135
00000230: 8810 3b34 305a 3734 f5ea 9d34 55f2 8c31
00000240: a569 e734 3fc1 0036 ac57 4934 2a45 8434
00000250: ad71 8e35 1f13 a033 be85 8435 b1a4 4935
00000260: e9cc 5d33 55a6 9432 f375 0a35 22cc 8435
00000270: ae66 3b33 622f 8833 429f d333 e80b 5334
00000280: 2849 3433 621f 4a31 e540 0232 d3d0 4132
00000290: a340 f332 0fbc af31 e1c2 f832 05c6 ec31
000002a0: 0c09 bb31 69a6 9732 10ec 5332 5bd7 be32
000002b0: af2e 0e32 94d6 5432 81e0 6032 9c41 cb30
000002c0: c0ed 7332 3277 7c33 c5c3 1632 9410 f931
000002d0: 23ee 1233 7f26 0e31 770a 1833 b588 a532
000002e0: 68ea ce31 22c9 ff30 c685 9732 3b26 0933
000002f0: 75fc b631 5cda d331 bfd4 8a31 d83c cf31
00000300: 29b5 2a36 ced1 9033 f788 c934 dc15 0f35
00000310: 3b2b e435 6800 4534 c1b0 0b36 335e ea34
00000320: e479 8534 649d 9e35 66eb 5135 2b38 cd35
00000330: b374 0b35 6fb5 8f35 9e42 8b35 783f 2433
00000340: 408d 6435 bd39 5c36 f31d cf34 7e16 c434
00000350: 039e 1a36 6965 c833 4153 0b36 37e2 8835
00000360: 1789 1534 93ae de32 dc33 a335 a6fb e735
00000370: 2bf8 8134 95fe f434 3771 3334 5689 b134
00000380: fb43 b132 0758 d131 28f9 d231 c9e3 3b32
00000390: 2520 8132 547b 3d32 64b8 6732 227b 3032
000003a0: 4960 9a31 5ab8 2b32 0b3f 1933 0ee2 2a32
000003b0: d141 d131 cfd0 6432 b731 0e32 a497 7a31
000003c0: a820 1c32 5ecb 2933 15d4 3532 d067 cd31
000003d0: 2975 9632 3dd6 8f31 e5e7 ad32 30f0 9d32
000003e0: 37a6 af31 4c1f 9131 5004 1832 52f8 a632
000003f0: 8268 a532 7af1 5e32 673d fd31 b250 3c32
7.27688e-07 8.557452e-09 1.3884554e-07 1.9943906e-07 5.1665256e-07 3.069423e-08 4.7064037e-07 1.0968648e-07
8.865764e-08 3.514245e-07 6.764869e-08 3.829211e-07 1.1578304e-07 1.0712739e-07 1.9734797e-07 2.7353406e-09
2.5810277e-07 1.1015181e-06 1.14591394e-07 1.314142e-07 6.4329345e-07 3.48605e-08 6.003924e-07 3.7979595e-07
3.0949423e-08 9.675913e-09 3.164174e-07 5.78781e-07 2.8684603e-08 3.7407858e-08 4.0116976e-08 7.839679e-08
2.203684e-08 6.395511e-08 4.3595396e-08 4.0881165e-08 2.2221432e-08 3.9105053e-08 1.2279217e-08 5.3211244e-09
7.999059e-09 1.5669125e-08 2.9843645e-07 7.437552e-09 1.2337338e-08 1.17922646e-07 1.8923691e-08 2.1325723e-08
1.2809403e-08 7.998974e-08 2.2121426e-08 2.866084e-08 2.1973902e-08 1.8745867e-08 2.687932e-08 1.171509e-07
5.024186e-08 2.0081353e-08 7.3564785e-09 3.643598e-08 5.8820408e-08 7.640082e-08 8.378282e-08 1.0423014e-07
1.5653715e-08 1.859402e-08 1.295393e-08 1.2935666e-08 1.2739232e-08 1.4467626e-08 8.7570395e-09 3.2746807e-09
4.6774873e-09 9.35188e-09 6.264086e-08 7.1340898e-09 5.2729647e-09 1.9916643e-08 6.292373e-09 7.0755624e-09
8.810767e-09 3.69508e-08 1.1874341e-08 1.0144882e-08 1.5616703e-08 3.7167562e-09 1.6440373e-08 2.4845962e-08
1.3679796e-08 9.526159e-09 6.7135364e-09 1.823346e-08 2.7216316e-08 1.7791729e-08 1.8555934e-08 1.8442398e-08
1.5109686e-07 1.4121442e-08 4.3324015e-08 6.474781e-08 1.1432719e-07 1.6400076e-08 8.384581e-08 2.0932031e-08
2.2803368e-08 7.9067945e-08 1.1734936e-07 7.17596e-08 2.5762168e-08 5.1375547e-08 3.7316042e-08 3.8278447e-09
5.86468e-08 2.7085576e-07 2.947389e-08 4.2568416e-08 1.3693545e-07 1.6872644e-08 1.2687453e-07 1.4469113e-07
8.450503e-09 6.349981e-09 6.180908e-08 1.400449e-07 2.301816e-08 3.044135e-08 3.4429622e-08 6.067456e-08
1.183754e-06 2.2463412e-08 2.5799702e-07 3.6912598e-07 8.676185e-07 4.374448e-08 7.1662066e-07 1.8134044e-07
1.4990006e-07 5.974566e-07 1.9782775e-07 6.03458e-07 1.7421746e-07 1.7076013e-07 2.9414483e-07 4.1020862e-09
4.310397e-07 1.918597e-06 1.8751479e-07 2.463724e-07 1.0612908e-06 7.454059e-08 9.87369e-07 7.511799e-07
5.1641937e-08 1.7305107e-08 5.1580645e-07 9.894177e-07 4.3632717e-08 6.3416124e-08 9.854422e-08 1.9655238e-07
4.197605e-08 2.9412708e-09 7.581751e-09 1.128156e-08 2.8318317e-08 5.11455e-09 2.895962e-08 6.891016e-09
5.443445e-09 1.7654388e-08 1.2335491e-08 2.2216843e-08 8.2761025e-09 1.23888135e-08 1.3089562e-08 1.4788841e-09
1.419852e-08 5.878173e-08 8.775662e-09 7.2487385e-09 3.4209858e-08 2.0685602e-09 3.5399776e-08 1.9270695e-08
6.022038e-09 1.8610857e-09 1.7639547e-08 3.193257e-08 5.325598e-09 6.165733e-09 4.040515e-09 6.03141e-09
2.5437423e-06 6.743686e-08 3.7538823e-07 5.330346e-07 1.6999905e-06 1.8347203e-07 2.0815498e-06 4.3654435e-07
2.4861868e-07 1.1817724e-06 7.8201117e-07 1.5290037e-06 5.1951355e-07 1.0707134e-06 1.0375695e-06 3.824195e-08
8.5142165e-07 3.2816163e-06 3.8578546e-07 3.652421e-07 2.3039763e-06 9.331672e-08 2.0761074e-06 1.0198627e-06
1.392658e-07 2.5923589e-08 1.215954e-06 1.728408e-06 2.4208688e-07 4.5633774e-07 1.6711861e-07 3.3068744e-07
2.0636426e-08 6.092708e-09 6.14013e-09 1.0936625e-08 1.5032194e-08 1.10292895e-08 1.3487895e-08 1.02725455e-08
4.4929362e-09 9.995427e-09 3.5680426e-08 9.946701e-09 6.090183e-09 1.3318824e-08 8.276792e-09 3.6465986e-09
9.08782e-09 3.953334e-08 1.05838085e-08 5.9780874e-09 1.7515577e-08 4.186204e-09 2.0245304e-08 1.838643e-08
5.1120668e-09 4.2236135e-09 8.848545e-09 1.9437866e-08 1.9256053e-08 1.2977006e-08 7.3702497e-09 1.0961388e-08

exp_avg f4 [128]
00000000: 94ef 3aba c93c a437 4573 f8b8 b39c 1fb9
00000010: b2e5 88ba 0536 95b9 7f16 b7ba 585b 5bb6
00000020: 5111 18ba d69e ebb9 4273 a739 497c 8eba
00000030: 7f48 feb9 908b 8739 1862 06ba 3f34 bbb9
00000040: 34d8 27ba 0a34 dfba 7e97 0bba ee7d b6ba
00000050: c06b 89ba 1d39 d038 f22e a1ba bb0a 7938
00000060: 1953 47ba ef77 5db9 f013 b8b9 1920 19ba
00000070: 9d3b 4939 ed11 9139 1436 c6b7 8939 033a
00000080: 32ed 62ba 6355 9ab8 2eef c4b8 0eb6 30b9
00000090: 942d 94ba 36a7 e4b8 9c62 adba 7c58 0738
000000a0: b1ed d5b9 5880 e6b9 d753 9739 dbd6 64ba
000000b0: 3c09 b2b9 7f17 5d39 9098 02ba 767f 95b9
000000c0: 8563 05ba ffc6 fcba 0477 cab9 b47d 5dba
000000d0: 2862 85ba 13f6 e437 0b89 a2ba 8f65 89b8
000000e0: 32fc 02ba 333c 4bb9 baf0 90b9 79bc 11ba
000000f0: 43ab 5539 157a 9839 7409 9b38 4c31 f039
00000100: 837f bb3b 1381 80bb 982b d439 96e9 cdba
00000110: cd04 f23b 24a0 713b 1dff 4bbc c63c e039
00000120: 4707 5bbb 1dac 5f3b 58cb ba3b b948 f4bb
00000130: af9b 82bb 996a afbc 60a2 273c 121e ffb9
00000140: 3952 09bb c85f 363a 7979 143a 89a4 e438
00000150: ea79 e6bb e209 8039 9916 b0bb efb0 d738
00000160: 18b4 c93b 848e ec3a c120 803b 398f 3d3a
00000170: e0f1 173a 7e10 cd3b 1869 bfbb a8aa 4e3b
00000180: 5293 52ba 1038 3237 ee30 f4b8 679f 1fb9
00000190: e6ee 88ba 923a 60b9 804e d9ba 6dac fcb7
000001a0: bd26 13ba 95d8 0cba d46a b539 940f 91ba
000001b0: bd33 ceb9 23f0 3639 abca 28ba 907f fbb9
000001c0: 0801 25ba 0202 1ebb c393 3bba 56a7 9fba
000001d0: 31a3 9fba 9776 f838 97c5 bfba bf18 5639
000001e0: f374 5cba a008 a9b9 3afd afb9 11e3 42ba
000001f0: 343b 1539 6af9 9239 98b0 89b7 fcb7 033a
-0.0007131037 1.9578629e-05 -0.00011847032 -0.00015221797 -0.0010444431 -0.00028459742 -0.0013968496 -3.2686712e-06
-0.000580092 -0.00044941035 0.00031938596 -0.001087078 -0.0004850067 0.0002585319 -0.00051263114 -0.00035706346
-0.0006402761 -0.0017029059 -0.00053250033 -0.0013923028 -0.0010484383 9.928851e-05 -0.0012297316 5.937622e-05
-0.000760363 -0.00021120881 -0.0003511007 -0.000584127 0.00019191061 0.0002766991 -2.3628621e-05 0.0005005827
-0.00086565607 -7.359197e-05 -9.390559e-05 -0.00016852489 -0.0011305087 -0.00010903033 -0.001322824 3.2268916e-05
-0.0004080362 -0.00043964642 0.0002886343 -0.0008729526 -0.00033957686 0.00021084955 -0.000498184 -0.0002851446
-0.0005088377 -0.001928538 -0.00038617116 -0.0008449212 -0.0010176348 2.7294305e-05 -0.0012400461 -6.551586e-05
-0.00049966865 -0.00019382015 -0.00027645176 -0.00055593956 0.00020377063 0.00029082657 7.392737e-05 0.00045813096
0.0057219877 -0.003921637 0.0004046827 -0.0015709873 0.007385826 0.0036869133 -0.01245096 0.0004276989
-0.0033421086 0.0034129687 0.00570051 -0.0074549583 -0.003985844 -0.021413134 0.010231584 -0.00048659794
-0.002095355 0.00069570215 0.0005663853 0.00010902534 -0.0070335763 0.00024421426 -0.0053737876 0.00010284955
0.006155502 0.0018047844 0.0039101546 0.00072311197 0.0005796235 0.0062580695 -0.0058413856 0.0031534825
-0.00080328167 1.062268e-05 -0.000116439405 -0.00015222804 -0.0010447174 -0.00021384124 -0.0016579181 -3.0121033e-05
-0.00056133774 -0.00053728494 0.00034602603 -0.0011067265 -0.0003932993 0.0001744633 -0.0006438891 -0.00047969492
-0.0006294404 -0.0024110083 -0.0007155502 -0.0012180607 -0.0012179372 0.000118476506 -0.001463103 0.00020417849
-0.0008409761 -0.00032240618 -0.0003356727 -0.0007434348 0.00014231802 0.00028033118 -1.6413906e-05 0.0005024669

exp_avg_sq f4 [128]
00000000: c1d7 5f37 c0d4 f635 e06a 1735 914f 7136
00000010: e57e cb37 0890 9735 136d 1a38 148b 5f35
00000020: 3357 2a36 46d5 b536 fe81 a436 bc68 9037
00000030: e8d0 1a36 3439 1a37 ef00 9336 33b9 1335
00000040: 487b 9836 a9e5 0238 ff04 5236 2811 7637
00000050: 33bd 1438 b0ef b334 ea02 9d37 ee53 b935
00000060: 4217 d236 0483 e734 0597 ae36 8b1c fa36
00000070: 5653 9734 ad1c a435 ac19 5736 d247 1636
00000080: 9ed5 b537 a4a5 dc35 b56d 1135 ae42 8636
00000090: b50f 0238 2cfe 1135 e4a9 1938 7cdd 1835
000000a0: 4798 2336 97ed f936 7441 9a36 142a 5737
000000b0: 326e c735 02dd 7137 d3a6 8736 c20a d334
000000c0: 2fdb 8536 0513 1438 16b6 ec35 3188 8437
000000d0: f945 1238 97e9 2f34 4595 d637 6994 2236
000000e0: 4045 6f36 4f0e e534 e081 8a36 01bd 4b37
000000f0: c145 a334 d228 a535 aa93 5536 3a48 0636
00000100: 7bdc 513a b554 2c3a 918b 3838 7fbd 7539
00000110: 4c23 c83a dbcd 3939 497e 403b 3941 6e39
00000120: 85a4 c439 2f13 253a bb61 653a 22cc 5f3a
00000130: 99ba c939 fd78 023c cc13 fe3a 7ae6 9239
00000140: 2b2d b839 4595 463a 46d1 6139 ccf1 b13a
00000150: 7f24 bf3a 93b7 cd37 afdc ab3a c1a4 6737
00000160: 3eb0 2a3b b19d 5138 276f e339 9b79 b839
00000170: a2b4 c438 3f5d d23a 6e7f 183a a57a af39
00000180: 59c7 8637 6bad bd35 04d0 2d35 b1db 8836
00000190: 6920 cf37 8685 7435 be74 3d38 497a 1835
000001a0: 4289 4b36 c921 f136 5857 d836 f520 8737
000001b0: 1331 e335 4528 aa37 ec01 c336 d260 5235
000001c0: 04b7 9d36 ae8b 6338 9903 4d36 a8cb b037
000001d0: adc4 4338 7387 d534 b2c9 0838 8545 3436
000001e0: c2af d236 8354 2f35 a42e 9236 0107 8137
000001f0: 6fb4 c634 821d a835 4ec3 2436 be8c 2536
1.334207e-05 1.8390347e-06 5.6407407e-07 3.5958112e-06 2.4258576e-05 1.1292295e-06 3.6818044e-05 8.327636e-07
2.538273e-06 5.4190486e-06 4.902714e-06 1.7214908e-05 2.3069388e-06 9.192434e-06 4.38105e-06 5.503127e-07
4.544305e-06 3.1208303e-05 3.1295347e-06 1.4666737e-05 3.5462155e-05 3.3515744e-07 1.8717215e-05 1.3808001e-06
6.2611953e-06 4.312243e-07 5.203185e-06 7.4539034e-06 2.8186577e-07 1.2227298e-06 3.205244e-06 2.2393547e-06
2.1676355e-05 1.6439485e-06 5.4176354e-07 4.0012737e-06 3.1009044e-05 5.438658e-07 3.6636266e-05 5.6946715e-07
2.437753e-06 7.4484374e-06 4.5971774e-06 1.2824796e-05 1.4858726e-06 1.4416177e-05 4.0427344e-06 3.930964e-07
3.989225e-06 3.5303663e-05 1.7636364e-06 1.5799045e-05 3.487428e-05 1.6383125e-07 2.5580297e-05 2.4226267e-06
3.5654084e-06 4.2664985e-07 4.12784e-06 1.2143749e-05 3.041187e-07 1.2305338e-06 3.1825425e-06 2.0009597e-06
0.00080055714 0.00065739016 4.3999e-05 0.00023435614 0.0015269308 0.00017719662 0.0029372147 0.00022721746
0.0003750661 0.0006297109 0.000875022 0.0008537193 0.00038476734 0.007963416 0.0019384562 0.00028019008
0.00035128868 0.00075753435 0.00021535633 0.0013576089 0.001458302 2.4523388e-05 0.0013112033 1.3807033e-05
0.002604499 4.9976345e-05 0.0004337963 0.00035185818 9.379654e-05 0.0016049518 0.00058173283 0.00033469978
1.6066873e-05 1.4132069e-06 6.4750225e-07 4.0786913e-06 2.4691415e-05 9.1091385e-07 4.5169836e-05 5.680236e-07
3.0329252e-06 7.186293e-06 6.44747e-06 1.61086e-05 1.69271e-06 2.0284331e-05 5.8116766e-06 7.837199e-07
4.7002704e-06 5.4251104e-05 3.0549475e-06 2.107567e-05 4.667479e-05 3.9772894e-07 3.261277e-05 2.6862556e-06
6.2789486e-06 6.531556e-07 4.3565688e-06 1.538126e-05 3.7011657e-07 1.2525563e-06 2.4551587e-06 2.4668839e-06
