code/logs/epoch=1-step=1588.ckpt (torch, 217711 bytes, 84 tensors)

model.upscale.weight f4 [32, 1]
-0.7651646 0.4846648 -0.52548766 0.42946416 -0.29079875 -0.5267078 0.63449013 0.7206162
0.6688953 0.72947055 0.31211096 0.8507361 -0.9900294 -0.46633068 -0.6923176 -0.6690519
0.6122262 -0.5569392 0.7862396 0.79169434 0.046978883 -0.2146415 0.094877794 0.32603413
-0.62003195 -0.10075569 0.6482529 0.033957444 0.24325578 -0.46282208 0.60956997 0.60189754
00000000: d4e1 43bf fc25 f83e 5c86 06bf bae2 db3e
00000010: 93e3 94be 53d6 06bf f26d 223f 4e7a 383f
00000020: b93c 2b3f 95be 3a3f 02cd 9f3e d7c9 593f
00000030: 9172 7dbf e5c2 eebe ba3b 31bf fc46 2bbf
00000040: dbba 1c3f 9193 0ebf 0047 493f 7bac 4a3f
00000050: ee6c 403d fbca 5bbe 4a4f c23d f2ed a63e
00000060: 6aba 1ebf 0059 cebd e7f3 253f f616 0b3d
00000070: 0b18 793e 04f7 ecbe c70c 1c3f f515 1a3f

model.upscale.bias f4 [32]
-0.15744287 0.20020317 0.079961106 0.90813535 0.8053428 0.23625629 0.15412399 0.5337523
0.4881513 -0.028882405 0.24036239 -0.13125537 -0.14498107 0.4984487 0.15825324 -0.39548755
0.42272165 0.17378005 0.4709808 -0.7786895 0.8483803 0.40498722 0.099217005 -0.75428075
-0.5263458 -0.99278605 -0.31627575 -0.79551226 -0.7235827 0.70484114 -0.68572456 -0.89365363
00000000: b438 21be 0f02 4d3e a6c2 a33d 8f7b 683f
00000010: f22a 4e3f 2bed 713e aed2 1d3e fea3 083f
00000020: f8ee f93e cb9a ecbc 8f21 763e cf67 06be
00000030: eb75 14be ab34 ff3e 230d 223e 587d cabe
00000040: f96e d83e 66f3 313e 6524 f13e 3258 47bf
00000050: 742f 593f 7c5a cf3e 4932 cb3d 8b18 41bf
00000060: 99be 06bf 3a27 7ebf e5ee a1be b1a6 4bbf
00000070: b73c 39bf 7870 343f a58b 2fbf 7cc6 64bf

model.spatialSeq1.0.msg_mlp.0.weight f4 [16, 64]
0.15705162 0.060419444 -0.05859051 0.11022189 -0.052343603 0.029836742 -0.015104729 -0.14846735
-0.10283937 -0.11822571 -0.060532827 0.084120564 -0.08531624 0.015288321 0.099701464 0.009976558
-0.14562756 -0.048957102 0.0703366 0.039823897 0.011063763 -0.04677849 -0.11141241 -0.10292729
-0.1115566 -0.05725521 0.10257719 0.08466257 -0.04139386 0.10337282 0.11556252 0.042732812
-0.025717864 -0.039550334 0.10914257 0.036008004 0.06491344 -0.042058572 -0.14798221 -0.039246593
-0.047968898 -0.11761801 -0.026035096 -0.10038962 0.14431301 0.08988721 -0.044357333 0.1871836
-0.109461494 0.06686791 -0.026114728 0.072987646 -0.04351755 -0.05276552 0.104126714 0.1014654
0.15546742 0.03115271 0.16553468 0.09700565 0.05601421 0.052527115 -0.031307615 0.051630955
0.07122957 -0.06285955 0.050089024 0.020515941 -0.1102617 -0.07043642 0.08237592 0.038733367
0.089248054 -0.05146678 -0.06826132 0.11097035 0.080420546 0.026508123 -0.06764471 0.18642454
0.1003421 0.03117914 0.080084816 -0.074226856 -0.03474794 -0.07565604 0.110086694 0.016999293
0.12555142 0.026561365 0.105490774 -0.12794538 0.06889844 0.0708083 -0.01777638 0.017230988
-0.093248546 -0.05349473 0.06074907 -0.09301202 0.06823523 0.02962801 0.09928664 -0.06469461
0.106461614 0.12576918 0.009868089 -0.09273155 -0.16937554 -0.076475814 0.04684928 0.00048578362
0.0333279 -0.10846367 0.06568837 -0.04960278 -0.09984286 0.0060240068 -0.028363628 -0.029658254
-0.031876016 0.0612033 -0.007187208 -0.15980624 -0.040075473 -0.124071285 -0.11929379 0.09335282
0.022808833 0.08707311 0.07050337 0.038917683 0.066217884 -0.030630888 -0.13347119 -0.05837574
-0.014046698 0.034315888 0.012030396 -0.07488188 0.11808963 0.08554748 -0.015892345 -0.060157888
0.09374715 -0.007879661 -0.065939255 -0.05777322 0.01732655 -0.024443943 -0.0443934 -0.03237747
-0.13307025 -0.008538544 0.09549722 -0.03915647 0.03191262 -0.038137805 0.06523885 0.109791085
0.03656377 -0.057974573 0.12314887 -0.10345101 -0.019193953 -0.053382777 0.04332083 -0.09901066
-0.047445063 0.053600207 0.092383794 0.081401154 0.096446365 -0.066965535 -0.06740684 -0.069364175
-0.06677413 0.044850763 -0.0095684 -0.015672341 0.10948764 -0.02336157 -0.020683976 -0.06071667
0.014449973 0.07091054 0.08902306 -0.005141487 0.12446553 -0.07218584 -0.04057625 0.14668429
0.07565346 -0.10045242 -0.027392538 0.11288442 0.09361342 -0.02534594 0.02860561 0.06910403
-0.001854058 -0.06665937 0.097330324 0.036579557 0.0048049907 -0.071782045 0.09873931 0.08408995
0.07861766 0.03717796 0.13457322 0.0052595707 -0.11328356 -0.032549288 0.03729437 0.10030141
0.050844576 0.007453367 -0.09673254 0.0024808154 -0.07969595 0.06024197 0.08626696 0.050660387
-0.08534172 -0.06101017 0.07532459 -0.092070684 0.027299186 0.028485863 -0.051192097 0.1415905
0.019126283 0.029000586 0.09386834 -0.092178896 0.056718342 -0.14096211 -0.016439682 -0.026174998
-0.0043075974 -0.05965973 -0.0052552624 0.025962757 -0.07166746 -0.030941673 0.109541506 -0.13282348
-0.03491283 -0.05510716 -0.06259703 0.08890885 -0.02840617 -0.094974324 -0.113881186 0.065974854
00000000: 24d2 203e 617a 773d 9afc 6fbd 04bc e13d
00000010: 3f66 56bd 2f6c f43c d379 77bc d307 18be
00000020: 739d d2bd 5220 f2bd 45f1 77bd 6747 ac3d
00000030: 48ba aebd de7b 7a3c 4830 cc3d b874 233c
00000040: 641f 15be 3e87 48bd a30c 903d 621e 233d
00000050: c944 353c cd9a 3fbd 312c e4bd 8bcb d2bd
00000060: c977 e4bd 7084 6abd fd13 d23d 9263 ad3d
00000070: 9c8c 29bd 21b5 d33d 0bac ec3d 9a08 2f3d
00000080: 45ae d2bc 88ff 21bd 2486 df3d 217d 133d
00000090: 56f1 843d 9c45 2cbd a688 17be 09c1 20bd
000000a0: 097b 44bd b6e1 f0bd 8e47 d5bc 1399 cdbd
000000b0: cac6 133e c916 b83d 09b0 35bd 0fad 3f3e
000000c0: 592d e0bd 0bf2 883d 8eee d5bc 8c7a 953d
000000d0: 753f 32bd a820 58bd 6340 d53d 17cd cf3d
000000e0: da32 1f3e f833 ff3c ec81 293e e6aa c63d
000000f0: 286f 653d ac26 573d 6a3c 00bd fb7a 533d
00000100: cfe0 913d 82bc 80bd 262a 4d3d 0c11 a83c
00000110: e3d0 e1bd f840 90bd b5b4 a83d e1a6 1e3d
00000120: afc7 b63d d5ce 52bd 97cc 8bbd 6c44 e33d
00000130: 87b3 a43d 9027 d93c 4f89 8abd 13e6 3e3e
00000140: 2980 cd3d 656b ff3c 8203 a43d 4004 98bd
00000150: db53 0ebd 8ef1 9abd 2275 e13d 1a42 8b3c
00000160: 8d90 003e 3897 d93c 8c0b d83d 1d04 03be
00000170: a01a 8d3d f103 913d c59f 91bc 0028 8d3c
00000180: 18f9 bebd 4a1d 5bbd 04d4 783d 167d bebd
00000190: eabe 8b3d 71b6 f23c cb56 cb3d 9c7e 84bd
000001a0: 8c08 da3d a3c9 003e c4ad 213c 0aea bdbd
000001b0: c870 2dbe 5a9f 9cbd 08e5 3f3d c6b0 fe39
000001c0: d682 083d 3322 debd a087 863d 492c 4bbd
000001d0: 6a7a ccbd 0865 c53b d75a e8bc def5 f2bc
000001e0: 6d90 02bd 50b0 7a3d ac82 ebbb 3fa4 23be
000001f0: 2e26 24bd 1619 febd 4d50 f4bd c32f bf3d
00000200: 97d9 ba3c 6353 b23d 1264 903d 2668 1f3d
00000210: 3e9d 873d a1ed fabc acac 08be 661b 6fbd
00000220: 1f24 66bc d18e 0c3d 231b 453c ac5b 99bd
00000230: fad8 f13d 8433 af3d aa30 82bc 1e68 76bd
00000240: 81fe bf3d b219 01bc 290b 87bd 9da3 6cbd
00000250: 69f0 8d3c aa3e c8bc dbd5 35bd 3d9e 04bd
00000260: 9143 08be 40e5 0bbc 0c94 c33d 8962 20bd
00000270: cfb6 023d 6336 1cbd f29b 853d 26da e03d
00000280: e4c3 153d bf76 6dbd 7a35 fc3d 20de d3bd
00000290: a33c 9dbc e6a7 5abd 2f71 313d 1ac6 cabd
000002a0: c155 42bd e48b 5b3d b733 bd3d a6b5 a63d
000002b0: ac85 c53d 3a25 89bd 990c 8abd ce0e 8ebd
000002c0: e0c0 88bd 6fb5 373d c7c4 1cbc 4863 80bc
000002d0: 0e3b e03d c360 bfbc 7171 a9bc 0bb2 78bd
000002e0: 94bf 6c3c 8c39 913d b951 b63d eb79 a8bb
000002f0: c9e7 fe3d 2bd6 93bd 4833 26bd 6834 163e
00000300: 34f0 9a3d 00ba cdbd 5166 e0bc f22f e73d
00000310: 65b8 bf3d 4aa2 cfbc 5056 ea3c 6a86 8d3d
00000320: dd03 f3ba b584 88bd 1f55 c73d 72d4 153d
00000330: 2f73 9d3b 7702 93bd d637 ca3d 5a37 ac3d
00000340: 4c02 a13d eb47 183d 90cd 093e 7a58 ac3b
00000350: 3601 e8bd 6752 05bd fbc1 183d d36a cd3d
00000360: 6742 503d 603b f43b b61b c6bd 2d95 223b
00000370: a137 a3bd 49c0 763d bbac b03d 4481 4f3d
00000380: a4c7 aebd cde5 79bd c743 9a3d 8e8f bcbd
00000390: 8ba2 df3c 2f5b e93c ceae 51bd 1afd 103e
000003a0: b9ae 9c3c a392 ed3c 0b3e c03d 4ac8 bcbd
000003b0: 7e51 683d 5f58 10be 83ac 86bc f36c d6bc
000003c0: bf26 8dbb c35d 74bd 5634 acbb d9af d43c
000003d0: 64c6 92bd 6479 fdbc 4c57 e03d e102 08be
000003e0: c100 0fbd 0cb8 61bd df32 80bd d815 b63d
000003f0: 0eb4 e8bc e681 c2bd 8a3a e9bd d31d 873d

model.spatialSeq1.0.msg_mlp.0.bias f4 [16]
-0.014603316 -0.061689246 -0.025165087 -0.07497665 0.08917438 -0.07609445 0.06428696 0.035300776
-0.041871384 -0.015726764 0.11197372 0.039271347 -0.05068601 -0.04246718 -0.12419785 -0.08228269
00000000: bf42 6fbc ddad 7cbd 0327 cebc 5c8d 99bd
00000010: 0fa1 b63d 68d7 9bbd e2a8 833d 8c97 103d
00000020: 5481 2bbd 6ad5 80bc 7a52 e53d feda 203d
00000030: 229c 4fbd 11f2 2dbd 715b febd d483 a8bd

model.spatialSeq1.0.msg_mlp.2.weight f4 [32, 16]
-0.009554228 0.12337528 0.11361556 -0.048330855 0.094103314 -0.0072055934 -0.07299899 0.08735324
0.14301412 -0.14919512 -0.2334561 0.24185257 0.043363325 0.2332793 0.22419423 0.014244289
-0.08508926 0.13595544 0.040315945 0.15840226 -0.054387923 -0.13059172 -0.18341911 0.12599945
0.027459875 0.05436604 0.003014777 -0.20729105 -0.24303325 -0.0075143347 -0.18603966 0.027643422
0.19025418 -0.16306208 -0.07011543 0.17570202 -0.13125254 0.028699398 0.083005436 0.063772395
0.11057037 0.068356656 0.14250313 -0.17057432 -0.1986645 -0.02054102 -0.0737528 0.20989774
-0.1063253 -0.019739771 -0.12629107 -0.20287459 0.24341774 -0.013152229 0.09728342 -0.21542397
0.14296325 -0.006733677 0.0342771 0.07568107 0.025258567 0.20023352 -0.16361393 -0.2572436
-0.11902933 -0.026064415 -0.18667333 -0.1696344 0.07192615 -0.030356238 0.2306433 -0.16050045
-0.17643283 0.19819707 -0.20174277 -0.19476691 0.018008262 0.21108148 -0.076428935 -0.0009343177
0.19443433 -0.18984547 0.16831486 -0.2511372 -0.027421577 -0.15998104 -0.0028756876 0.16358095
-0.108395234 0.21463752 -0.12696663 0.13349016 -0.08107535 -0.03147111 0.18275937 -0.012399157
0.05502661 -0.030420752 -0.04022122 -0.115067914 -0.07336211 0.23843773 -0.12637134 0.026100745
0.12961508 -0.12559737 0.0856992 -0.10694446 0.1408901 0.13484018 -0.18088263 -0.20283072
0.06518335 0.020376671 0.27185866 0.06939594 0.04486394 0.0053760447 0.24122624 -0.07180887
-0.060087666 0.032246016 0.15416044 -0.030588884 -0.16139919 0.208949 0.053416558 0.14195807
0.21224064 0.16944785 0.19233307 0.21810675 0.09116477 0.22178984 0.2527805 0.12982762
-0.11756629 0.15603226 -0.15029237 0.16713582 0.16878663 0.19156137 0.050799295 0.011799873
-0.26053405 -0.053220645 -0.06794473 -0.13191496 0.057714608 -0.07760939 0.09339741 0.08228789
-0.010382278 -0.00017360561 -0.2218327 0.05601802 -0.13191697 -0.12891057 0.100250594 0.13940723
-0.1363717 0.076954074 -0.04877181 0.04098653 0.1344584 0.22042519 0.08705841 -0.080630824
0.088831194 -0.111757025 -0.1537446 -0.08770343 0.26961672 0.096207336 0.1665411 0.08796443
0.08099483 -0.19236125 0.19327766 -0.1186153 0.18804286 0.058723334 0.15842006 0.15149273
0.10140295 -0.23788226 -0.14496954 -0.16773139 0.08101097 0.025935061 0.12865491 0.07073688
0.14074537 -0.24883126 0.04586694 0.048849232 0.041633353 -0.16045101 -0.025421271 0.16553703
-0.26163086 -0.24035265 0.03822953 -0.21252243 -0.037730657 -0.09242771 0.011192326 0.16731423
0.1368238 -0.031420134 -0.23097605 0.13801748 0.22875564 0.0840161 0.08445123 -0.05814978
0.031569775 0.08778347 -0.20018019 0.124382265 -0.11196967 -0.19846812 0.14798582 -0.2472439
-0.06567824 0.2365304 0.014549851 0.12940383 0.073579885 -0.064718634 0.15167761 0.04553001
-0.08749627 -0.08999506 0.06088475 0.08859326 0.14553075 -0.0011451533 0.063702896 -0.091850996
-0.10359441 0.20710653 -0.04845193 0.0768513 0.009825142 0.20720279 0.25312886 0.053568456
0.061477598 0.0051517366 -0.23311295 -0.090202905 0.025163185 0.09203271 0.19616398 0.1940827
00000000: 5689 1cbc 2eac fc3d 46af e83d 93f6 45bd
00000010: 3db9 c03d e61c ecbb 7f80 95bd 41e6 b23d
00000020: 4b72 123e 9bc6 18be 1e0f 6fbe 33a8 773e
00000030: be9d 313d c5e0 6e3e 2c93 653e e160 693c
00000040: 4743 aebd e737 0b3e 5522 253d 3434 223e
00000050: dfc5 5ebd d6b9 05be 38d2 3bbe 0006 013e
00000060: 88f3 e03c edae 5e3d 9193 453b 1b44 54be
00000070: b5dd 78be cf3a f6bb 2e81 3ebe 7574 e23c
00000080: fed1 423e bff9 26be ae98 8fbd 3beb 333e
00000090: 1167 06be 001b eb3c c1fe a93d 1a9b 823d
000000a0: b872 e23d 93fe 8b3d 57ec 113e 09ab 2ebe
000000b0: b56e 4bbe a445 a8bc b50b 97bd 6fef 563e
000000c0: 14c1 d9bd 4db5 a1bc 7252 01be 5bbe 4fbe
000000d0: 8042 793e 727c 57bc 883c c73d 1a98 5cbe
000000e0: f564 123e 2da6 dcbb 2566 0c3d adfe 9a3d
000000f0: 0eeb ce3c 040a 4d3e 698a 27be 6fb5 83be
00000100: a6c5 f3bd 0a85 d5bc 4b27 3fbe a4b4 2dbe
00000110: 044e 933d a5ad f8bc c22d 6c3e 3b5a 24be
00000120: cfaa 34be 2cf4 4a3e a895 4ebe fa70 47be
00000130: 1086 933c be25 583e c686 9cbd 00ed 74ba
00000140: cb19 473e da66 42be bb5a 2c3e 0e95 80be
00000150: 37a3 e0bc 12d2 23be 0876 3cbb c481 273e
00000160: 52fe ddbd f0c9 5b3e 8a03 02be a5b1 083e
00000170: d50a a6bd dae7 00bd 4625 3b3e d525 4bbc
00000180: 9563 613d f134 f9bc 02bf 24bd baa8 ebbd
00000190: e03e 96bd 0529 743e 7d67 01be 3bd1 d53c
000001a0: d1b9 043e 999c 00be 1083 af3d b205 dbbd
000001b0: 7f45 103e 8b13 0a3e 4c39 39be dbb2 4fbe
000001c0: d97e 853d faec a63c 0f31 8b3e 751f 8e3d
000001d0: 40c3 373d 8829 b03b 0304 773e 8710 93bd
000001e0: 7c1e 76bd 6614 043d 3cdc 1d3e 8a95 fabc
000001f0: d445 25be baf6 553e 52cb 5a3d 755d 113e
00000200: 9c55 593e bd83 2d3e f6f2 443e 6057 5f3e
00000210: 98b4 ba3d e01c 633e 726c 813e 88f1 043e
00000220: 98c6 f0bd ecc6 1f3e 3ee6 19be a725 2b3e
00000230: 67d6 2c3e aa28 443e ec12 503d 4154 413c
00000240: b864 85be e4fd 59bd 9b26 8bbd b714 07be
00000250: 2766 6c3d acf1 9ebd 2447 bf3d 8e86 a83d
00000260: 6e1a 2abc e709 36b9 1c28 63be 2773 653d
00000270: 3e15 07be 2201 04be 2f50 cd3d c5c0 0e3e
00000280: 06a5 0bbe 199a 9d3d f3c4 47bd 7ee1 273d
00000290: 76af 093e 24b7 613e ae4b b23d c621 a5bd
000002a0: 21ed b53d dee0 e4bd 396f 1dbe db9d b3bd
000002b0: 340b 8a3e 5a08 c53d c089 2a3e b226 b43d
000002c0: 9ee0 a53d 59fa 44be 94ea 453e 94ec f2bd
000002d0: 4f8e 403e e187 703d de38 223e e920 1b3e
000002e0: 5aac cf3d 6897 73be e572 14be c7c1 2bbe
000002f0: 14e9 a53d c475 d43c 1dbe 033e 7fde 903d
00000300: 8e1f 103e 9fcd 7ebe f9de 3b3d 2216 483d
00000310: bc87 2a3d 454d 24be 4540 d0bc 8a82 293e
00000320: 7bf4 85be 011f 76be 9196 1c3d 7b9f 59be
00000330: 768b 1abd bd4a bdbd 0560 373c 6c54 2b3e
00000340: 8a1b 0c3e 66b2 00bd fc84 6cbe 7454 0d3e
00000350: eb3e 6a3e a210 ac3d c4f4 ac3d 772e 6ebd
00000360: 4f4f 013d d2c7 b33d 09fc 4cbe 21bc fe3d
00000370: 5b50 e5bd 3a3b 4bbe 9889 173e 812d 7dbe
00000380: 5082 86bd 0635 723e 8062 6e3c 7082 043e
00000390: 0db1 963d 348b 84bd 6051 1b3e ad7d 3a3d
000003a0: 3f31 b3bd 544f b8bd 4a62 793d 6270 b53d
000003b0: 0306 153e f818 96ba aa76 823d 601c bcbd
000003c0: 4e29 d4bd bc13 543e 8875 46bd 3764 9d3d
000003d0: a2f9 203c f82c 543e 1b9a 813e 996a 5b3d
000003e0: efcf 7b3d e6cf a83b 29b5 6ebe 4dbc b8bd
000003f0: 0623 ce3c a57b bc3d 36df 483e 9ebd 463e

model.spatialSeq1.0.msg_mlp.2.bias f4 [32]
0.18257536 0.087655246 0.094051436 -0.1959774 0.0234897 0.21691403 -0.2630061 -0.15376905
-0.118259 -0.11828424 -0.036067165 -0.22251728 -0.0151115805 0.05285738 -0.15292503 -0.20501806
0.12340107 0.11146567 -0.109162465 -0.014589087 -0.06854078 0.23177472 0.03857946 0.22421178
-0.23256834 -0.18634349 -0.11990173 0.14466426 0.22519366 -0.19037421 -0.089238666 -0.11488886
00000000: 09f5 3a3e 9884 b33d 0a9e c03d 4dae 48be
00000010: 796d c03c b61e 5e3e bca8 86be a275 1dbe
00000020: c631 f2bd 023f f2bd 2abb 13bd 92db 63be
00000030: 9096 77bc fb80 583d 6198 1cbe 41f0 51be
00000040: b3b9 fc3d 1d48 e43d 9290 dfbd 1107 6fbc
00000050: 1c5f 8cbd 5a56 6d3e 7f05 1e3d c697 653e
00000060: 6526 6ebe d4d0 3ebe 0a8f f5bd de22 143e
00000070: 2b99 663e 75f1 42be c3c2 b6bd da4a ebbd

model.spatialSeq1.0.gate_mlp.0.weight f4 [1, 32]
-0.17368472 0.16188388 -0.1109945 0.14783235 0.07648814 0.15390347 -0.05510658 -0.053946055
0.021180661 -0.01365038 -0.155321 -0.015522456 -0.119299926 0.044240583 -0.15206578 -0.05054812
-0.001075877 -0.013664722 -0.010595873 -0.020594863 0.1399871 -0.054718193 -0.078701176 -0.012120652
0.07576974 0.038239237 0.014837737 0.16365474 0.042254865 0.088871576 0.112184584 0.1573916
00000000: 68da 31be e3c4 253e 1651 e3bd 5d61 173e
00000010: d0a5 9c3d df98 1d3e 70b7 61bd 8af6 5cbd
00000020: 1183 ad3c d8a5 5fbc 780c 1fbe e651 7ebc
00000030: 8553 f4bd 9d35 353d 22b7 1bbe 8c0b 4fbd
00000040: 7104 8dba 00e2 5fbc 509a 2dbc 8fb6 a8bc
00000050: c758 0f3e 2f20 60bd 152e a1bd b395 46bc
00000060: 2a2d 9b3d bfa0 1c3d fb19 733c 1c95 273e
00000070: 7013 2d3d 4d02 b63d 08c1 e53d 432b 213e

model.spatialSeq1.0.update_mlp.0.weight f4 [32, 64]
0.041011672 0.12768091 -0.060473394 0.065327406 -0.10440446 -0.11611163 -0.10801611 0.021126488
0.03882348 0.017693507 -0.06581596 0.0093313195 -0.07806381 -0.026083212 -0.07860848 -0.105195984
-0.07930738 -0.09848075 -0.0851887 0.08320229 0.03765911 0.10491125 0.0019932424 -0.030517189
-0.11734888 -0.07954416 -0.061607838 0.080783606 0.06642978 0.08627023 -0.07544655 -0.10564957
-0.07387398 0.13652164 0.086287126 0.03574098 0.04534028 -0.052790213 -0.008603687 0.023504307
0.0078016743 0.11666925 0.10663315 -0.044286992 -0.041523866 -0.0768715 0.00090717303 0.28234866
0.12708177 -0.053793952 0.14264454 0.03835843 -0.020135246 0.014054223 -0.06972552 -0.13684295
0.091352016 -0.11791548 0.051755503 -0.09241765 -0.120344006 -0.05323071 0.048107654 -0.11124368
-0.09873509 0.07662424 -0.06803551 0.08498274 0.01653661 0.097891875 0.06568702 0.11388636
-0.07983555 0.10276993 -0.029593058 0.113591716 -0.053331003 0.06371116 0.130012 0.063744925
-0.030265914 0.118340984 -0.04692767 -0.011660337 0.05446461 -0.062126383 -0.039566882 -0.10021302
0.12553322 0.037267245 -0.034850422 -0.036744006 0.08348443 -0.07702648 -0.09215716 -0.014696234
-0.099582046 0.05560163 -0.029446974 0.13271916 -0.03311119 -0.1755176 0.053302377 0.10417537
0.045428157 0.08303868 0.08029307 0.08213778 -0.10151377 -0.11853377 0.014058426 -0.056903306
0.005990051 0.04262462 0.15246531 0.05745992 -0.11912125 -0.049019992 0.015990147 -0.08758397
-0.09917288 -0.0061421245 0.13362807 0.06975 -0.12695225 -0.071576886 0.018147469 0.041165292
-0.14628069 -0.044590835 -0.029764228 0.115074754 0.014836837 0.07464387 0.038373273 0.03812273
-0.015316584 0.015879173 -0.010163875 0.056361496 -0.057638448 -0.039913382 0.15334478 -0.021514036
-0.10387203 -0.09609803 0.017834391 0.09989137 0.18730637 0.0760908 -0.17317218 -0.20369549
-0.11019249 0.08038861 0.013826969 -0.035615586 -0.12928046 -0.106112175 -0.054577455 0.11223972
-0.11512341 0.13279599 -0.09348012 0.01065114 -0.083154134 -0.18087459 0.090188496 0.1124096
0.11898061 -0.039505705 0.17631237 -0.0122817345 -0.10422361 -0.13027011 -0.17188299 -0.13457687
0.17465216 -0.17249209 0.18633178 0.10140575 -0.08788955 -0.17290303 0.043968625 0.1185179
-0.18632822 0.0446565 -0.059114948 -0.028333912 0.05799476 -0.010601609 0.092926286 -0.009159444
0.015473352 -0.027754623 0.03816994 0.12418557 -0.08187803 -0.025530845 0.05531368 0.04203305
-0.11095976 -0.061351802 -0.051211003 0.06495879 -0.15340619 0.0048905504 0.08594801 -0.009582694
0.11584372 0.083762504 0.08323904 -0.0016412069 0.04675663 -0.11354022 -0.004953204 0.13014938
-0.07873636 -0.0069119255 0.12975909 -0.03142397 0.04456384 0.022630267 0.07566076 -0.09326831
-0.029199298 -0.07908473 -0.08459821 0.059966408 0.11991098 0.13450436 -0.054679118 0.019595772
0.005265084 -0.09434708 -0.01124373 0.003104937 -0.046015177 0.017152034 -0.033151332 -0.063580856
-0.06386979 0.00144579 0.06669383 0.112300806 -0.05242024 -0.008465724 0.06533193 0.105502345
-0.06272598 0.007767126 -0.090464436 0.11277251 0.0023473776 0.0065915375 -0.062125117 0.083735615
00000000: dbfb 273d c9be 023e f3b2 77bd 60ca 853d
00000010: 01d2 d5bd efcb edbd 8d37 ddbd 7511 ad3c
00000020: 5f05 1f3d f9f1 903c 85ca 86bd 64e2 183c
00000030: ebdf 9fbd 76ac d5bc 7cfd a0bd fe70 d7bd
00000040: e86b a2bd 47b0 c9bd 6a77 aebd f665 aa3d
00000050: 7040 1a3d b6db d63d 0fa1 023b 2fff f9bc
00000060: 9c54 f0bd 0ce8 a2bd 8058 7cbd e071 a53d
00000070: 560c 883d 72ae b03d b983 9abd cd5e d8bd
00000080: 3e4b 97bd 54cc 0b3e 4eb7 b03d 2265 123d
00000090: bbb6 393d 8d3a 58bd 7bf6 0cbc 1b8c c03c
000000a0: 30a5 ff3b 4af0 ee3d 7b62 da3d 4766 35bd
000000b0: ee14 2abd ce6e 9dbd 5acf 6d3a 0190 903e
000000c0: b921 023e 0c57 5cbd 6911 123e bb1d 1d3d
000000d0: acf2 a4bc af43 663c 41cc 8ebd 8f20 0cbe
000000e0: c416 bb3d ac7d f1bd 94fd 533d 7745 bdbd
000000f0: eb76 f6bd 7208 5abd 880c 453d bad3 e3bd
00000100: 9f35 cabd 2bed 9c3d 3456 8bbd 6e0b ae3d
00000110: c977 873c 897b c83d eb86 863d 403d e93d
00000120: d280 a3bd 0b79 d23d 246d f2bc c6a2 e83d
00000130: 9c71 5abd ff7a 823d de21 053e b38c 823d
00000140: 39f0 f7bc c25c f23d 3a37 40bd 000b 3fbc
00000150: 4816 5f3d 3c78 7ebd e210 22bd 7c3c cdbd
00000160: c88b 003e 8aa5 183d 51bf 0ebd e280 16bd
00000170: e3f9 aa3d 0fc0 9dbd e5bc bcbd 79c8 70bc
00000180: acf1 cbbd 89be 633d c83a f1bc 88e7 073e
00000190: 999f 07bd e3ba 33be 9853 5a3d e559 d53d
000001a0: e012 3a3d 2f10 aa3d b170 a43d da37 a83d
000001b0: 74e6 cfbd d5c1 f2bd 5055 663c 7113 69bd
000001c0: 3148 c43b 2797 2e3d de1f 1c3e 185b 6b3d
000001d0: d8f5 f3bd 30c9 48bd c5fd 823c 395f b3bd
000001e0: 271b cbbd e043 c9bb ccd5 083e 17d9 8e3d
000001f0: c5ff 01be e796 92bd 00aa 943c f09c 283d
00000200: 9bca 15be e1a4 36bd 1cd4 f3bc 50ac eb3d
00000210: 3416 733c e3de 983d 4b2d 1d3d 9426 1c3d
00000220: 69f2 7abc 0a15 823c 6286 26bc 50db 663d
00000230: 4b16 6cbd 377c 23bd 6a06 1d3e 343e b0bc
00000240: dcba d4bd 0bcf c4bd 6e19 923c d993 cc3d
00000250: 3ecd 3f3e 7ed5 9b3d 0c54 31be 8d95 50be
00000260: 9aac e1bd c9a2 a43d 838a 623c a6e1 11bd
00000270: 1962 04be 5751 d9bd 9c8c 5fbd f0dd e53d
00000280: d3c5 ebbd acfb 073e 8172 bfbd 1e82 2e3c
00000290: b74c aabd 3037 39be bfb4 b83d 0137 e63d
000002a0: 1bac f33d bcd0 21bd 3b8b 343e 5439 49bc
000002b0: 3073 d5bd 8765 05be 1802 30be 85ce 09be
000002c0: 04d8 323e c4a1 30be c2cd 3e3e d1ad cf3d
000002d0: 70ff b3bd 7e0d 31be 7218 343d 83b9 f23d
000002e0: d3cc 3ebe bce9 363d 8422 72bd 851c e8bc
000002f0: ea8b 6d3d 5fb2 2dbc 2350 be3d 7e11 16bc
00000300: f183 7d3c aa5d e3bc 1558 1c3d 0155 fe3d
00000310: abaf a7bd 1026 d1bc 9990 623d d92a 2c3d
00000320: df3e e3bd 074c 7bbd a1c2 51bd 1d09 853d
00000330: 8316 1dbe e940 a03b 8305 b03d bb00 1dbc
00000340: 793f ed3d ad8b ab3d 3b79 aa3d c41d d7ba
00000350: e183 3f3d c687 e8bd 7d4e a2bb e145 053e
00000360: 8740 a1bd 6f7d e2bb 91df 043e 6cb6 00bd
00000370: 9388 363d 1c63 b93c 07f4 9a3d 7503 bfbd
00000380: 5e33 efbc 2df7 a1bd d441 adbd 569f 753d
00000390: e393 f53d 83bb 093e 36f7 5fbd 5087 a03c
000003a0: ba86 ac3b 0b39 c1bd 9f37 38bc 337c 4b3b
000003b0: 697a 3cbd 6c82 8c3c b1c9 07bd ae36 82bd
000003c0: 2ace 82bd aa80 bd3a c696 883d f7fd e53d
000003d0: 9bb6 56bd d2b3 0abc bfcc 853d 9d11 d83d
000003e0: 7b76 80bd 6083 fe3b 6b45 b9bd 46f5 e63d
000003f0: 76d6 193b d3fd d73b e876 7ebd 947d ab3d

model.spatialSeq1.0.update_mlp.0.bias f4 [32]
0.0025089027 -0.06585714 -0.07955612 0.12295101 -0.010091692 -0.011056098 -0.05138626 -0.09621546
0.0799624 -0.076232076 0.09084062 0.13382939 -0.068132274 -0.009863443 0.026218098 0.11344199
0.04586588 -0.07200482 0.11762779 -0.017511442 -0.009259927 0.0546935 -0.020985741 0.0044936584
0.032749176 -0.04475795 -0.009208639 0.031751517 -0.13361032 0.03241465 -0.06484407 -0.046281733
00000000: 676c 243b 1ce0 86bd 52ee a2bd bdcd fb3d
00000010: a057 25bc a324 35bc 667a 52bd 9c0c c5bd
00000020: 54c3 a33d 901f 9cbd a60a ba3d 920a 093e
00000030: ef88 8bbd 479a 21bc 56c7 d63c 4654 e83d
00000040: dcdd 3b3d 4377 93bd d7e6 f03d 2874 8fbc
00000050: f3b6 17bc 4b06 603d 4aea abbc 8a3f 933b
00000060: 0024 063d 1d54 37bd d5df 16bc e10d 023d
00000070: 25d1 08be 39c5 043d f8cc 84bd ea91 3dbd

model.spatialSeq1.0.update_mlp.2.weight f4 [32, 32]
-0.0833937 0.06153613 -0.13674337 0.048517343 -0.1932419 0.12036743 -0.13328198 0.0042176545
-0.012357922 0.05779851 -0.18515332 -0.10229221 0.13934143 0.15995748 0.12925428 -0.0843403
-0.11884528 -0.07084883 -0.04917867 0.060058407 0.069975115 0.15158774 -0.19503976 -0.193409
0.023730725 0.16829158 0.08886975 0.13991885 -0.021754947 -0.008192381 -0.042923965 -0.15411158
-0.16127218 -0.04811923 0.17109142 0.068116605 -0.060509745 -0.09787951 -0.035518322 -0.12275628
-0.17118087 -0.08006908 0.11408278 -0.12481022 0.004667071 0.097073935 0.017684301 -0.17768468
0.03286862 0.091664456 0.08574441 0.0033672403 -0.16091028 0.041835092 0.027643971 -0.052320864
0.12247671 0.021261502 0.15929723 0.093665406 0.045486342 -0.0022599471 0.09444148 -0.07473896
0.013851727 -0.19379464 -0.04151799 -0.13458118 -0.19579159 -0.16966683 -0.117541015 -0.08453782
-0.06115761 0.0057878783 -0.06303087 0.013060504 -0.039480634 0.09278115 0.032857414 0.16985777
-0.015945526 -0.13483487 0.021267716 0.16051327 0.014415832 0.17475155 -0.12548408 -0.14543465
0.08173085 0.17497158 0.12379192 -0.11006219 -0.029986035 0.023894848 -0.10861308 -0.16429333
0.17535762 -0.12240518 0.05964544 -0.034973197 -0.013274649 0.08055308 -0.118062414 0.1549008
-0.14825249 -0.12860619 -0.16355525 0.07177468 0.13382211 0.17232797 0.13589165 -0.07879899
-0.099880606 0.09744821 -4.9998744e-05 0.042582978 -0.18894376 -0.007549514 -0.16660015 0.045473397
-0.09382244 0.008324244 0.041798603 0.030409046 -0.12755728 0.150126 0.10906307 0.021048613
0.010875593 -0.144223 -0.09996902 0.16801615 -0.0072763287 -0.07028559 -0.04687339 0.06209468
0.12549312 0.17571214 0.13876636 0.12563938 -0.006982629 -0.08339375 0.10866898 0.061765943
0.07303596 -0.0036917336 0.16923273 -0.12910591 0.03550801 -0.04656869 -0.06668851 0.100823104
0.1081391 -0.05911607 0.030675523 0.16082734 -0.05031961 0.040272087 -0.025303254 0.13810925
-0.16306637 -0.084803484 0.17054863 -0.06743281 0.08507755 -0.026166135 0.15807685 -0.21389584
0.12045639 -0.10186081 -0.076354325 0.18623695 -0.039811566 0.02472162 -0.13015355 -0.059606142
-0.20087284 0.10286911 -0.1335113 -0.01972246 -0.0034165985 0.036140673 -0.08444633 0.1360443
-0.072495274 -0.028824322 0.18011722 -0.08860324 -0.13622332 0.12071035 -0.050303362 0.09928437
0.16808967 0.15922725 -0.15177676 -0.029626973 -0.02179522 0.15242818 0.16153502 -0.11454457
-0.07212819 0.11332935 -0.054035485 -0.094941296 0.100866154 0.075542 0.12923518 -0.0429392
-0.047349397 0.13554595 -0.11436953 0.17815119 0.1239731 -0.046814933 -0.18263273 -0.13807137
0.12107082 0.12938851 0.030027345 0.04921101 -0.06829997 -0.107078835 -0.18711089 0.12423012
0.041759025 0.10164095 -0.15573107 0.05584932 -0.062251054 0.029721899 0.17872268 -0.03333254
0.15484689 -0.0007732237 -0.17722802 0.009820794 -0.07113357 -0.08224673 -0.1412327 -0.07365701
0.009630808 0.14442605 0.02166553 -0.07779653 -0.18595257 -0.060031496 -0.12753154 -0.14562052
-0.046075314 -0.08952636 0.021347847 -0.079572104 -0.14312944 -0.08853027 -0.09711619 -0.21938017
00000000: 51ca aabd 4f0d 7c3d 7406 0cbe 1fba 463d
00000010: 34e1 45be 3383 f63d 127b 08be 4034 8a3b
00000020: e278 4abc 21be 6c3d d598 3dbe 947e d1bd
00000030: 85af 0e3e e5cb 233e 3c5b 043e 9bba acbd
00000040: 2765 f3bd 3119 91bd 936f 49bd ceff 753d
00000050: 1d4f 8f3d d139 1b3e 81b8 47be 020d 46be
00000060: f066 c23c a154 2c3e 5801 b63d e346 0f3e
00000070: 6e37 b2bc 5639 06bc 0ad1 2fbd 6dcf 1dbe
00000080: 8924 25be ab18 45bd 9732 2f3e b880 8b3d
00000090: 11d9 77bd 0d75 c8bd a97b 11bd a567 fbbd
000000a0: 0a4a 2fbe 42fb a3bd 3ca4 e93d 809c ffbd
000000b0: 3bee 983b b3ce c63d abde 903c f9f2 35be
000000c0: 3fa1 063d 93ba bb3d c49a af3d ebac 5c3b
000000d0: aac5 24be 465b 2b3d 9c75 e23c 674e 56bd
000000e0: 12d5 fa3d 9a2c ae3c d01e 233e a6d3 bf3d
000000f0: e34f 3a3d 9f1b 14bb 896a c13d bd10 99bd
00000100: 5bf2 623c 1a72 46be c50e 2abd a6cf 09be
00000110: 977d 48be 24bd 2dbe 58b9 f0bd 2a22 adbd
00000120: 6780 7abd 3ea8 bd3b 5416 81bd b9fb 553c
00000130: 72b6 21bd 0b04 be3d 7f95 063d 32ef 2d3e
00000140: 31a0 82bc 2712 0abe a239 ae3c 975d 243e
00000150: 6230 6c3c 12f2 323e e67e 00be d2ec 14be
00000160: 8162 a73d c02b 333e 9e86 fd3d 4968 e1bd
00000170: 46a5 f5bc 21bf c33c 8970 debd 833c 28be
00000180: f390 333e 91af fabd c74e 743d 0e40 0fbd
00000190: ea7d 59bc 03f9 a43d b5ca f1bd 519e 1e3e
000001a0: 80cf 17be 57b1 03be 077b 27be 9afe 923d
000001b0: aa08 093e be76 303e 2e27 0b3e 5d61 a1bd
000001c0: 348e ccbd ed92 c73d beb5 51b8 7d6b 2e3d
000001d0: 797a 41be ea61 f7bb 3b99 2abe 5042 3a3d
000001e0: fb25 c0bd 6962 083c 0335 2b3d 641c f93c
000001f0: 609e 02be a1ba 193e 755c df3d 246e ac3c
00000200: 8b2f 323c 32af 13be 8fbc ccbd 6d0c 2c3e
00000210: 456e eebb e4f1 8fbd 50fe 3fbd fe56 7e3d
00000220: 4581 003e e2ed 333e c518 0e3e 9ca7 003e
00000230: 8ace e4bb 58ca aabd d88d de3d 49fe 7c3d
00000240: e193 953d 03f1 71bb 584b 2d3e 5734 04be
00000250: d970 113d d0be 3ebd fc93 88bd 587c ce3d
00000260: 0878 dd3d b123 72bd 3c4b fb3c ecaf 243e
00000270: ef1b 4ebd 58f4 243d c548 cfbc 836c 0d3e
00000280: dffa 26be 73ad adbd 4da4 2e3e 371a 8abd
00000290: 233d ae3d 5d5a d6bc e6de 213e 8307 5bbe
000002a0: d7b1 f63d 669c d0bd a85f 9cbd e6b4 3e3e
000002b0: 7411 23bd ff84 ca3c f946 05be 9225 74bd
000002c0: 9cb1 4dbe 0aad d23d 30b7 08be ff90 a1bc
000002d0: 03e9 5fbb 3e08 143d 33f2 acbd 324f 0b3e
000002e0: 6778 94bd fc20 ecbc a670 383e 9e75 b5bd
000002f0: 207e 0bbe fd36 f73d e60a 4ebd 9b55 cb3d
00000300: b31f 2c3e 780c 233e 5e6b 1bbe 44b4 f2bc
00000310: e48b b2bc 2216 1c3e 7069 253e 5896 eabd
00000320: f2b7 93bd 3819 e83d 5054 5dbd 9570 c2bd
00000330: ea92 ce3d c4b5 9a3d 3a56 043e 04e1 2fbd
00000340: 71f1 41bd 8fcc 0a3e 923a eabd 446d 363e
00000350: 9ce5 fd3d 04c1 3fbd 1304 3bbe 9562 0dbe
00000360: faf3 f73d 6c7e 043e e8fb f53c 7c91 493d
00000370: dbe0 8bbd 264c dbbd ff99 3fbe 5c6c fe3d
00000380: 830b 2b3d 2129 d03d f777 1fbe 42c2 643d
00000390: f6fa 7ebd 577b f33c 1403 373e b487 08bd
000003a0: 2f90 1e3e 2ab2 4aba 437b 35be 65e7 203c
000003b0: 7aae 91bd f970 a8bd 4e9f 10be 7dd9 96bd
000003c0: 89ca 1d3c 6ce4 133e e97b b13c ca53 9fbd
000003d0: 5a6a 3ebe 96e3 75bd a197 02be 8c1d 15be
000003e0: 78b9 3cbd 9959 b7bd aee1 ae3c b3f6 a2bd
000003f0: 8690 12be 5c4f b5bd dae4 c6bd 32a5 60be

model.spatialSeq1.0.update_mlp.2.bias f4 [32]
-0.028261263 0.06647985 0.14284898 0.105284944 0.05975545 0.10721362 -0.09313886 -0.13263305
-0.089428104 0.105580606 0.13867311 0.1183404 -0.14654715 -0.0763293 -0.01696301 0.027151482
0.14289291 0.15279174 -0.03460113 0.13164683 0.15097427 0.0070380606 -0.12439472 0.012786894
0.07805081 -0.09132873 -0.018653583 0.17835128 -0.036494248 0.10451173 0.093370155 -0.09874107
00000000: 2a84 e7bc 9626 883d 0147 123e a29f d73d
00000010: 21c2 743d d092 db3d 96bf bebd f5d0 07be
00000020: 1526 b7bd a53a d83d 5300 0e3e 745c f23d
00000030: 7510 16be 8952 9cbd 03f6 8abc c96c de3c
00000040: 8552 123e 7075 1c3e eab9 0dbd 6dce 063e
00000050: 0099 1a3e 889f e63b a9c2 febd 1f80 513c
00000060: 1ad9 9f3d 8f0a bbbd 66cf 98bc b8a1 363e
00000070: fe7a 15bd 3f0a d63d da38 bf3d c238 cabd

model.temporalSeq.0.attention.in_proj_weight f4 [96, 32]
-0.24702422 0.10483673 -0.29910457 -0.19128734 -0.34157145 0.019966096 -0.24663343 -0.098023295
-0.13723837 0.027022569 0.0920572 -0.22409745 -0.3484396 -0.14075431 -0.19176379 -0.21186332
0.07216658 -0.13082771 0.15901701 -0.16074365 0.047080863 -0.11520499 -0.056852143 -0.26817533
-0.11671752 0.17145501 -0.06642802 -0.1413545 -0.016168468 0.0071517923 0.056161027 0.0491245
-0.1623215 0.0021821929 -0.23051547 -0.2636426 -0.17698404 -0.17107545 -0.11576424 0.16285537
0.188829 0.14238495 -0.025655651 -0.11059772 -0.27323055 -0.40561497 -0.064178 -0.14205842
0.15157187 -0.061566103 -0.11110873 0.07830104 -0.17287493 -0.21697009 -0.034777056 -0.2103867
-0.38448972 -0.09466023 -0.10711359 0.21819162 0.0011252107 -0.32709545 -0.08204761 -0.048234217
-0.22667922 0.20558994 -0.321772 0.06227714 -0.012217518 0.08204434 -0.10217744 0.2232395
0.03806947 0.12352415 0.17987281 -0.1579844 -0.23458666 -0.18459566 -0.14311877 0.04941359
0.19796889 -0.093307994 0.113161124 -0.042168204 -0.067609146 -0.16325352 -0.15288146 -0.21098979
-0.1984931 -0.05888203 -0.02849293 0.015192152 -0.18725695 0.14013362 -0.13444805 -0.2230634
-0.120434836 -0.1655128 -0.12891358 -0.19329755 0.21274307 -0.06779749 -0.014494996 0.035198912
-0.1415922 -0.14779627 -0.06923386 -0.1619109 0.026625482 0.03164112 -0.04154152 -0.020231338
-0.18145299 -0.1653763 -0.010100059 -0.12959535 -0.19098574 0.12022694 -0.0730783 -0.08026533
0.09378053 0.13861366 -0.15350167 0.18057719 0.021389553 0.13411263 -0.008794544 0.078362055
-0.0037468465 0.056677844 0.10385308 -0.0014426049 -0.22048524 0.23906818 0.056071658 0.12185848
-0.02938497 -0.10576268 0.072654195 -0.12151593 0.1791426 -0.09977927 -0.19521469 -0.041404866
-0.07859992 -0.23500356 0.17029354 -0.03807995 0.17678808 0.14481065 0.23268 0.015198358
-0.056587536 0.14701322 0.024687758 -0.059868865 -0.14787517 0.11451552 -0.12760796 0.066967644
0.071316026 -0.15094902 -0.12951258 0.077481 0.162747 -0.11327802 0.13896759 0.0013510638
0.17018582 -0.20273553 -0.206637 -0.09522913 -0.0078014 -0.040086884 -0.17520748 0.09582854
-0.09753597 0.10440961 -0.05682945 -0.1955704 -0.04714823 0.14958474 -0.10470991 -0.01837857
-0.10746395 -0.011034551 -0.17217529 0.07409216 0.096268356 -0.070301555 -0.0008236247 -0.062445987
-0.20634094 0.18136014 -0.022072969 -0.06941451 -0.17955455 0.054949 -0.098480314 -0.1827198
0.18213585 0.14306507 0.092013724 0.18313627 0.0917788 0.058377974 -0.028951338 -0.12189839
-0.079137 -0.0866546 -0.2182163 -0.17999211 0.10843618 0.11326355 -0.14760894 -0.041145355
0.09101263 -0.014220919 -0.0819774 -0.14341372 0.05677317 0.05011331 0.17096639 0.069986545
-0.2672808 0.14266129 -0.029577551 -0.24893726 -0.16535692 -0.15957169 -0.093001135 -0.23503259
0.13803972 0.058732215 0.108964294 0.110858 0.09878503 0.10481318 0.17428142 -0.04439148
0.15462235 0.09356465 -0.19402337 0.12307623 -0.2300959 -0.12044164 0.022946116 -0.1752839
0.06162473 0.045596447 0.16213652 0.008336767 0.18261121 -0.047203176 0.14038128 0.12579797
00000000: ebf3 7cbe a4b4 d63d 3c24 99be d4e0 43be
00000010: 74e2 aebe f08f a33c 798d 7cbe 70c0 c8bd
00000020: 3788 0cbe 6f5e dd3c 7c88 bc3d cd79 65be
00000030: ad66 b2be e621 10be ba5d 44be b3f2 58be
00000040: 12cc 933d b3f7 05be 5bd5 223e fc99 24be
00000050: ddd7 403d 98f0 ebbd cbdd 68bd 474e 89be
00000060: 9809 efbd e791 2f3e 6a0b 88bd 3cbf 10be
00000070: bc73 84bc 9559 ea3b 1b09 663d c636 493d
00000080: 9b37 26be 1f03 0f3b 3f0c 6cbe 2afc 86be
00000090: 4e3b 35be 672e 2fbe cd15 edbd 8fc3 263e
000000a0: 645c 413e 5ccd 113e cd2b d2bc 0f81 e2bd
000000b0: e0e4 8bbe c4ac cfbe c16f 83bd c377 11be
000000c0: a835 1b3e bd2c 7cbd f98c e3bd 4c5c a03d
000000d0: 2006 31be 682d 5ebe 6372 0ebd 9c6f 57be
000000e0: d6db c4be 39dd c1bd 5f5e dbbd a06d 5f3e
000000f0: ce7b 933a 0e79 a7be 9408 a8bd 3e91 45bd
00000100: 991e 68be 2b86 523e 4dbf a4be 5016 7f3d
00000110: fc2b 48bc dd06 a83d 6842 d1bd e598 643e
00000120: bcee 1b3d 3bfa fc3d 9430 383e aac6 21be
00000130: 7c37 70be a506 3dbe ba8d 12be e865 4a3d
00000140: 5bb8 4a3e 4318 bfbd 05c1 e73d 91b8 2cbd
00000150: aa76 8abd ee2b 27be f58c 1cbe b50d 58be
00000160: c641 4bbe 492e 71bd 016a e9bc 81e8 783c
00000170: 49c0 3fbe 307f 0f3e c0ac 09be bb6a 64be
00000180: 8aa6 f6bd 307c 29be ec01 04be cbef 45be
00000190: 52d9 593e 69d9 8abd 6b7c 6dbc bc2c 103d
000001a0: 8cfd 10be e857 17be 7bca 8dbd f9cb 25be
000001b0: af1d da3c 1e9a 013d 7127 2abd 31bc a5bc
000001c0: d0ce 39be 6858 29be b87a 25bc a5b4 04be
000001d0: c491 43be 8b39 f63d 13aa 95bd 2662 a4bd
000001e0: 0210 c03d bdf0 0d3e 8b2f 1dbe 3ae9 383e
000001f0: 2539 af3c d254 093e fe16 10bc 497c a03d
00000200: a78d 75bb 0727 683d ecb0 d43d ca15 bdba
00000210: e2c6 61be 4ace 743e 65ab 653d f090 f93d
00000220: c0b8 f0bc 1b9a d8bd b9cb 943d 58dd f8bd
00000230: 2871 373e 1359 ccbd 5ce6 47be 2698 29bd
00000240: fff8 a0bd c6a4 70be 6e61 2e3e b9f9 1bbd
00000250: ef07 353e 3e49 143e aa43 6e3e 8902 793c
00000260: 55c8 67bd a28a 163e fb3d ca3c 0e39 75bd
00000270: 976c 17be 1d87 ea3d a9ab 02be 5526 893d
00000280: 230e 923d 6192 1abe f29e 04be 5cae 9e3d
00000290: 26a7 263e 4efe e7bd 854d 0e3e 2e16 b13a
000002a0: 3145 2e3e e799 4fbe a698 53be 7d07 c3bd
000002b0: e3a2 ffbb 2532 24bd 9769 33be c141 c43d
000002c0: f0c0 c7bd b5d4 d53d ffc5 68bd 9b43 48be
000002d0: 811e 41bd be2c 193e 2672 d6bd a88e 96bc
000002e0: 0f16 dcbd 43ca 34bc b84e 30be a1bd 973d
000002f0: 5828 c53d 43fa 8fbd 85e8 57ba 5dc7 7fbd
00000300: 0a4b 53be 79b6 393e 5fd2 b4bc 3229 8ebd
00000310: 26dd 37be 3412 613d 0cb0 c9bd e61a 3bbe
00000320: d281 3a3e a67f 123e b171 bc3d 1388 3b3e
00000330: 86f6 bb3d be1d 6f3d 5b2b edbc dda5 f9bd
00000340: 9412 a2bd f877 b1bd 1874 5fbe da4f 38be
00000350: ca13 de3d b8f6 e73d cc26 17be 0888 28bd
00000360: d464 ba3d dcfe 68bc c4e3 a7bd 0cdb 12be
00000370: fc8a 683d 9d43 4d3d d011 2f3e 1b55 8f3d
00000380: 07d9 88be cd15 123e 9f4c f2bc 69e9 7ebe
00000390: 5353 29be c366 23be 6177 bebd 62ac 70be
000003a0: 495a 0d3e 3191 703d ac28 df3d 8509 e33d
000003b0: ce4f ca3d 4ba8 d63d d476 323e d7d3 35bd
000003c0: 5255 1e3e d39e bf3d 10ae 46be 640f fc3d
000003d0: 429e 6bbe 1baa f6bd 7ef9 bb3c 9f7d 33be
000003e0: 366a 7c3d 57c3 3a3d 1e07 263e ef96 083c
000003f0: 6ffe 3a3e 1e58 41bd 1cc0 0f3e 2fd1 003e

model.temporalSeq.0.attention.in_proj_bias f4 [96]
-0.08719782 -0.063642435 -0.00622226 -0.06360156 0.065513656 0.057748143 0.011284659 -0.08387288
-0.05095341 0.07449507 -0.025516083 0.0430707 0.013270554 0.06500897 0.043529317 0.025480574
0.0368121 0.10164052 0.06022101 0.06936917 -0.08754799 0.008310481 0.06880841 0.10703431
0.043223873 -0.025294464 0.005111789 -0.044072226 -0.040339664 0.030818563 -0.0053736228 0.007672944
0.037804835 0.017143557 -0.009187872 0.04473243 -0.0040923855 -0.007432115 -0.0036603862 0.0005772661
0.0009827798 -0.008011232 0.0006555459 -0.0030126905 -0.0032898337 0.0003975631 -0.0039409003 -0.00016643284
0.0007568123 0.0076801614 0.0018260962 0.0054203034 0.009154721 -0.00015439796 -0.0021393807 -0.0041030734
-0.00528789 -0.0010598914 -0.004998258 -0.0012174101 0.0017510105 -0.00111075 0.00027791277 0.002401
-0.004142861 0.026086176 0.007290633 0.004658445 -4.003288e-05 -0.019066187 -0.0001553084 0.0061792424
-0.0024403462 0.029101811 -0.020352095 0.0058641955 0.018388769 -0.004108488 0.024181372 0.013559207
0.01967644 0.020818314 -0.020055024 0.0041173045 0.018171243 -0.009926867 0.02763035 -0.011076807
0.012312758 0.0022228423 -0.0004883492 0.012838789 0.006535296 -0.008772129 0.039912872 -0.0112956
00000000: c594 b2bd f756 82bd 1ae4 cbbb 8941 82bd
00000010: 062c 863d 5189 6c3d 4ae3 383c 8bc5 abbd
00000020: 86b4 50bd df90 983d 1b07 d1bc e76a 303d
00000030: bd6c 593c 6c23 853d cc4b 323d a3bc d03c
00000040: 49c8 163d e828 d03d 4eaa 763d 6c11 8e3d
00000050: 5c4c b3bd af28 083c 6ceb 8c3d ce34 db3d
00000060: 840b 313d 5636 cfbc cb80 a73b 1485 34bd
00000070: 343b 25bd 3677 fc3c 3715 b0bb 526d fb3b
00000080: 3ed9 1a3d a570 8c3c ba88 16bc 5a39 373d
00000090: 6b19 86bb 1989 f3bb 17e3 6fbb ac53 173a
000000a0: 9ed0 803a 8b41 03bc f1d8 2b3a 8f70 45bb
000000b0: 409a 57bb 0470 d039 ab22 81bb 7a84 2eb9
000000c0: d064 463a dda9 fb3b 9f59 ef3a cd9c b13b
000000d0: affd 153c e3e5 21b9 da34 0cbb 1373 86bb
000000e0: 0946 adbb 0eec 8aba 6dc8 a3bb 8191 9fba
000000f0: 2a82 e53a 9696 91ba d2b4 9139 185a 1d3b
00000100: d6c0 87bb adb2 d53c 43e6 ee3b dea5 983b
00000110: fae8 27b8 b130 9cbc 48da 22b9 3e7b ca3b
00000120: 37ee 1fbb ec66 ee3c 70b9 a6bc 7028 c03b
00000130: 0ba4 963c 7fa0 86bb 0318 c63c 7027 5e3c
00000140: 7c30 a13c 2b8b aa3c 6f4a a4bc 74ea 863b
00000150: dcdb 943c 4ca4 22bc 0b59 e23c 7f7b 35bc
00000160: 73bb 493c 1bad 113b 8f04 00ba c959 523c
00000170: 0926 d63b fab8 0fbc ae7b 233d 2e11 39bc

model.temporalSeq.0.attention.out_proj.weight f4 [32, 32]
0.10940116 -0.14898695 -0.009649404 0.16037303 0.059045404 0.16701908 0.15175015 -0.15911444
0.10818221 0.119237304 0.14067447 -0.04678478 -0.051658586 -0.16838011 -0.09029054 -0.1843147
-0.028197095 -0.14188637 -0.018919926 -0.08647032 0.064691305 0.13182873 -0.11513699 0.0625188
0.0725239 -0.09351135 0.15132004 -0.1305159 0.052794803 0.054862592 -0.09436151 0.090436585
0.09842388 0.03876567 0.11030977 -0.06917522 0.0017240023 -0.06573996 0.1894591 -0.032806017
-0.025376532 -0.13870084 0.03455074 -0.17008719 -0.06219121 -0.02432063 0.07827922 0.12153788
-0.015062887 -0.15272965 0.051523957 0.08180068 0.1385892 -0.10422884 -0.13228899 0.082776
0.0133628 0.0662171 -0.07293805 -0.038193945 -0.1615114 -0.029722119 0.2558312 -0.18032862
-0.027122173 0.13387622 0.18437079 -0.06494149 -0.17814723 -0.033750705 0.058678344 -0.09996566
0.06765518 -0.032386325 -0.035454422 0.105485015 -0.0016452812 0.037987307 0.048838343 0.005928836
-0.14985104 0.077543445 0.04056155 0.16376612 0.024725799 0.060646825 -0.1677122 -0.11051524
-0.021783384 0.14171292 0.16005695 -0.10026662 0.11551602 0.1705609 -0.12566473 -0.0214153
-0.05133158 -0.07400926 0.13368452 0.011892852 0.046300344 -0.14421311 -0.14469121 0.08924293
-0.13372217 0.015647307 -0.03664586 0.18875253 -0.09848278 0.16846536 -0.15643029 0.07820766
0.08345045 0.10742664 -0.115427986 -0.022592776 -0.0451918 -0.21250667 0.14679898 -0.07907104
0.10828017 0.0011100245 0.07435563 0.16893505 0.12093314 0.0125603415 0.10293728 0.015591937
0.0026148579 -0.10116356 0.11180506 -0.15827483 -0.114925765 0.049956348 -0.015308562 0.13414273
0.17039546 0.070378736 0.05401304 -0.13619314 0.032033876 -0.102779485 -0.06456462 0.10198318
-0.21794766 -0.09543205 0.11612239 0.15728877 0.12571436 -0.13678023 -0.16726582 0.15066212
-0.12813492 -0.07869589 -0.014729711 -0.057678882 -0.090037726 0.09783699 0.08522455 -0.05266553
0.020508686 -0.17341834 -0.07818388 -0.14684792 -0.12089762 -0.043618005 -0.0718373 0.16311617
-0.08384375 -0.1213979 0.122775 0.16700421 0.06627791 0.1382861 0.060401432 0.062857926
0.11492827 -0.06728779 -0.048461005 -0.1504316 -0.04958268 0.055443697 -0.010488841 0.09628417
0.052697886 0.10421489 0.0025873743 -0.005998159 0.1751521 0.007375287 -0.09445162 -0.0075272103
0.011115948 0.18660302 0.16159151 -0.0142533 -0.033294782 -0.0714254 -0.14152262 0.16296585
-0.18837804 0.055942815 0.009729898 0.043088198 -0.13073912 -0.17182976 0.033516828 -0.11928135
0.20533524 0.032553576 -0.09563975 -0.013270841 -0.16879877 0.1884876 0.15145868 0.026842987
-0.16422865 0.014951579 0.01110287 0.018867608 -0.07119937 0.10185658 -0.044697333 0.07112301
-0.13428046 0.12557063 -0.05270637 -0.04399185 -0.015231324 0.11937092 0.026183696 -0.036892213
0.07826837 0.084622845 0.089942716 0.1306721 -0.03366405 0.16877721 -0.115310445 0.17761381
-0.072804086 -0.10281185 0.15401374 0.029446186 0.16074806 0.010461495 -0.052778143 -0.16709343
0.011416855 -0.047152113 0.09748896 0.18391666 0.001114565 -0.02466028 0.09330744 0.15661794
00000000: b70d e03d 0990 18be 8918 1ebc d438 243e
00000010: 98d9 713d 0d07 2b3e 6464 1b3e e5ee 22be
00000020: a28e dd3d b032 f43d f80c 103e 66a1 3fbd
00000030: f497 53bd d66b 2cbe 3fea b8bd febc 3cbe
00000040: 98fd e6bc a94a 11be f6fd 9abc 5a17 b1bd
00000050: e07c 843d 1cfe 063e f1cc ebbd db09 803d
00000060: 6987 943d e182 bfbd a4f3 1a3e f6a5 05be
00000070: 5d3f 583d 99b7 603d 9b40 c1bd d136 b93d
00000080: 7692 c93d c0c8 1e3d 17ea e13d bdab 8dbd
00000090: ebf7 e13a aca2 86bd 9101 423e 9a5f 06bd
000000a0: 72e2 cfbc 9807 0ebe 1485 0d3d 562b 2ebe
000000b0: 36bc 7ebd 0f3c c7bc db50 a03d dae8 f83d
000000c0: 54ca 76bc 2965 1cbe c90a 533d 1d87 a73d
000000d0: 54ea 0d3e ee75 d5bd c476 07be 7786 a93d
000000e0: a5ef 5a3c d59c 873d 8b60 95bd 4171 1cbd
000000f0: 3f63 25be cd7b f3bc 4ffc 823e 11a8 38be
00000100: 522f debc d916 093e b2cb 3c3e 0b00 85bd
00000110: 3a6c 36be 2e3e 0abd b458 703d ccba ccbd
00000120: cd8e 8a3d 86a7 04bd a838 11bd 8708 d83d
00000130: 7aa6 d7ba 9498 1b3d b70a 483d ae46 c23b
00000140: 8d72 19be 19cf 9e3d de23 263d 4eb2 273e
00000150: c28d ca3c ce68 783d bfbc 2bbe d055 e2bd
00000160: 1173 b2bc 311d 113e f8e5 233e 9658 cdbd
00000170: aa93 ec3d 84a7 2e3e 41ae 00be 246f afbc
00000180: 1041 52bd 2b92 97bd 98e4 083e 3dda 423c
00000190: 6ea5 3d3d 9aac 13be ef29 14be ffc4 b63d
000001a0: 77ee 08be c82e 803c f819 16bd 5848 413e
000001b0: 57b1 c9bd 2f82 2c3e 432f 20be 562b a03d
000001c0: 12e8 aa3d 8002 dc3d 8265 ecbd 7c14 b9bc
000001d0: 091b 39bd 599b 59be 7952 163e ffef a1bd
000001e0: fec1 dd3d 3e7e 913a c447 983d 4ffd 2c3e
000001f0: cbab f73d e4c9 4d3c c8d0 d23d 5375 7f3c
00000200: 095e 2b3b d72e cfbd 0dfa e43d cc12 22be
00000210: 335e ebbd 079f 4c3d c3d0 7abc b65c 093e
00000220: 267c 2e3e ba22 903d c73c 5d3d 3776 0bbe
00000230: f435 033d 0d7e d2bd 753a 84bd 8fdc d03d
00000240: ac2d 5fbe e171 c3bd 93d1 ed3d 4f10 213e
00000250: 44bb 003e 1e10 0cbe bb47 2bbe 2c47 1a3e
00000260: cd35 03be 502b a1bd e354 71bc b140 6cbd
00000270: b365 b8bd c35e c83d 358a ae3d d0b7 57bd
00000280: d501 a83c 9494 31be df1e a0bd 4d5f 16be
00000290: 2c99 f7bd cba8 32bd 6f1f 93bd ed07 273e
000002a0: 46b6 abbd 769f f8bd 7671 fb3d 2703 2b3e
000002b0: b6bc 873d df9a 0d3e 7e67 773d a8bb 803d
000002c0: 835f eb3d 2ece 89bd 0c7f 46bd be0a 1abe
000002d0: 3517 4bbd ee18 633d 63d9 2bbc a330 c53d
000002e0: bdd9 573d 9e6e d53d f090 293b 348c c4bb
000002f0: 125b 333e 64ac f13b da6f c1bd d1a6 f6bb
00000300: aa1f 363c dd14 3f3e 3f78 253e ac86 69bc
00000310: 1c60 08bd 7b47 92bd 4eeb 10be 85e0 263e
00000320: 2ce6 40be 4b24 653d 266a 1f3c 407d 303d
00000330: 7ae0 05be 24f4 2fbe f148 093d c849 f4bd
00000340: 6743 523e e656 053d c6de c3bd f16d 59bc
00000350: 96d9 2cbe e502 413e fc17 1b3e d3e5 db3c
00000360: 8e2b 28be 78f7 743c d0e8 353c 3e90 9a3c
00000370: fad0 91bd 2f9a d03d 8d14 37bd f1a8 913d
00000380: d180 09be 9695 003e a2e2 57bd cc30 34bd
00000390: ce8c 79bc be78 f43d 317f d63c 4a1c 17bd
000003a0: 2b4b a03d be4e ad3d e333 b83d e8ce 053e
000003b0: 51e3 09bd efd3 2c3e e227 ecbd 65e0 353e
000003c0: 4f1a 95bd 058f d2bd c7b5 1d3e 2139 f13c
000003d0: 249b 243e b166 2b3c e52d 58bd 8a1a 2bbe
000003e0: c30d 3b3c 9322 41bd 4ba8 c73d a654 3c3e
000003f0: 9816 923a 5b04 cabc f917 bf3d 7460 203e

model.temporalSeq.0.attention.out_proj.bias f4 [32]
-0.02096267 -0.0070997276 -0.0045094015 0.009180611 -0.019943431 0.011417538 0.009762329 0.006691204
0.0329004 0.015461251 0.0076931072 -0.010857048 -0.009206111 -0.010397298 0.004431804 0.018647783
0.0011114171 -0.0005980667 -0.032789797 0.0211471 -0.009923583 0.0058893654 0.014494261 -0.028198456
0.035883583 0.001961593 -0.005486682 -0.014770052 -0.01721374 0.051261436 -0.003043549 -0.0069665983
00000000: e8b9 abbc d5a4 e8bb 9ac3 93bb 466a 163c
00000010: 6860 a3bc a010 3b3c 2df2 1f3c e341 db3b
00000020: 92c2 063d 3051 7d3c 7616 fc3b c3e1 31bc
00000030: 3ad5 16bc 6e59 2abc ab38 913b 3cc3 983c
00000040: f8ac 913a 94c7 1cba 984e 06bd af3c ad3c
00000050: 8696 22bc 94fb c03b 5679 6d3c 7300 e7bc
00000060: aafa 123d 128e 003b a0c9 b3bb 17fe 71bc
00000070: d403 8dbc 83f7 513d 4776 47bb 1048 e4bb
