code/logs/epoch=5-step=1164.ckpt (torch, 72145 bytes, 18 tensors)

model.encoder.rnn.weight_ih_l0 f4 [128, 1]
000000 7c 2a 0c bd 8c b4 08 3e 44 d7 52 3e 43 8e e6 be
       -0.034220204 0.13350123 0.2058993 -0.45030412
000010 bd 7d 53 be a8 ff 9f be 08 0a ab 3d 23 69 73 be
       -0.20653434 -0.31249738 0.08351523 -0.23770575
000020 31 5b 0c 3e 45 53 06 3d da 83 93 be 4d 77 c4 bd
       0.13706662 0.032794256 -0.28811532 -0.09593067
000030 e1 f8 dc bd 38 00 b9 bd 0e b2 a8 3d 84 ea 97 3d
       -0.107896574 -0.09033245 0.08237086 0.07417777
000040 39 78 44 be e5 12 fe bd 1e 7d 0a 3e 95 42 51 be
       -0.19186486 -0.124059476 0.13524291 -0.20435555
000050 cb 24 a0 be 62 98 b0 3d f0 0a dc bd a3 66 c8 ba
       -0.3127807 0.08622815 -0.10744274 -0.0015289377
000060 a4 d3 24 3e 09 93 96 be e7 1d 6a 3d 2f 68 31 be
       0.1609636 -0.29409054 0.057157423 -0.17324899
000070 25 de 34 3e a6 a0 84 be 0f be 28 3e e7 62 d4 bd
       0.17662866 -0.25903815 0.16478752 -0.103704266
000080 dd e6 2c be d3 db 18 be f8 cc c4 3d b7 3f a2 be
       -0.16884942 -0.14927606 0.09609407 -0.31689236
000090 e8 11 ad 3a 1d 4a 7b be 6b 87 b5 bd 07 da 80 be
       0.0013204189 -0.2453999 -0.088637196 -0.25166342
0000a0 cf 7d b6 bd ee 6e 08 be 7b d0 a3 be c8 7e d7 bd
       -0.08910715 -0.13323566 -0.31994995 -0.105222285
0000b0 88 74 07 3c 03 da 15 be 06 ff 85 3e 60 2e 54 be
       0.008267529 -0.14633946 0.2617113 -0.20720816
0000c0 c9 7f 95 3d 78 3d 20 be c9 f7 89 bd c2 b6 99 3e
       0.07299764 -0.15648448 -0.067367144 0.30022246
0000d0 21 17 c7 3c cc 73 11 3e 29 0c a9 3d c8 dc 25 3e
       0.02430302 0.14204329 0.082542725 0.16197503
0000e0 40 48 da 3e 44 a5 d5 be a3 cb 6e be be 37 8e bd
       0.42633247 -0.4172765 -0.23319869 -0.06944226
0000f0 3a 89 56 3e 01 38 30 bd 1f 75 c5 bc c1 44 0c be
       0.20950785 -0.04302216 -0.0241037 -0.13698103
000100 db 93 80 bd 08 18 b2 bd 5c 39 27 be 97 dd 9b 3e
       -0.06278201 -0.0869599 -0.16330475 0.30442497
000110 8d 8f a1 3d db ec 37 3e 85 50 f1 3d 95 36 61 be
       0.07888708 0.17961447 0.11782936 -0.21993478
000120 d6 50 7f be 70 bb 8b 3d 5d 81 21 be bf f2 cf bc
       -0.2493318 0.0682286 -0.15772004 -0.025384305
000130 63 62 53 bd 2f 55 5f 3e 3d ee 9c 3d 0a 17 0b 3d
       -0.0516075 0.21809839 0.07662628 0.03395752
000140 19 f2 27 be e1 f7 15 3e 5b da 89 be 0f 5b 0e 3e
       -0.16400947 0.1464534 -0.26924405 0.13901924
000150 76 94 5a be dc e7 06 3e 9e ea 87 bd c6 74 99 3d
       -0.21345696 0.13174385 -0.066365466 0.07492976
000160 da 90 9e 3d a9 9b 75 3e be 68 c9 3d cf 36 4e bd
       0.07742472 0.23985161 0.09834431 -0.05034524
000170 7c ad ad 3d c7 0e be 3d fa 15 37 3e 59 15 26 bd
       0.08480355 0.09280162 0.17879477 -0.040547702
000180 4f 96 be be ad 99 7f bd 41 6d d1 3d ca 0f a8 bd
       -0.3722405 -0.062402416 0.10225917 -0.082061365
000190 ce 0b e8 bd 73 22 46 be 2f 02 05 be 12 b3 3e be
       -0.113303766 -0.19349079 -0.12989114 -0.18622997
0001a0 08 75 43 3d 28 60 c0 bd f7 ac 79 be fe 3a 3d be
       0.04771903 -0.0939334 -0.24382387 -0.18479535
0001b0 3b 54 b3 bd 0a 41 9f bd ba d4 f9 bc ef 9d 35 3d
       -0.087563 -0.07776077 -0.030496944 0.04434007
0001c0 9e a7 8a 3b b5 41 06 3b 7a 91 6a 3e 5d c0 34 3e
       0.0042314073 0.0020485942 0.22907057 0.17651506
0001d0 5f e7 95 be 63 ab 4f bd c0 0b 98 be 32 32 f4 bd
       -0.29278085 -0.050700556 -0.29696465 -0.119236365
0001e0 ff bc 41 3e 51 64 a5 be 20 82 cf bd da 9e 7d bd
       0.18919753 -0.32303098 -0.10132241 -0.06191907
0001f0 da 1d b6 3e 88 0b 88 bd 1d fb f5 bd 93 28 3c be
       0.3556965 -0.066428244 -0.12010787 -0.18374853

model.encoder.rnn.weight_hh_l0 f4 [128, 32]
000000 56 21 75 bd b7 7e dc 3d e3 11 26 bd 3f cb e7 3d
       -0.059846245 0.107663564 -0.0405444 0.11318063
000010 31 fa a1 bd 0c 0d 49 3d a6 24 5f 3c 5f b6 fa bd
       -0.07909048 0.049084708 0.0136195775 -0.12241816
000020 10 41 76 3d 44 91 63 be f5 1f 0f 3e 30 7c ca bd
       0.060120642 -0.22223383 0.13977034 -0.09886968
000030 a1 54 ac 3d 12 87 b1 bd 0f e8 2c be 13 81 6e bd
       0.08414579 -0.08668341 -0.16885398 -0.058228564
000040 4c 94 72 3d f9 24 7c bc 2e ee 19 be e9 a9 34 bd
       0.05922346 -0.015389674 -0.15032265 -0.04410735
000050 21 28 65 bd 89 22 03 bb f8 ac 90 bc 75 b1 c6 3d
       -0.055946473 -0.0020009598 -0.017660603 0.09701816
000060 62 43 dc bd f6 75 e0 bd da 19 db 3c 4f 1e 18 be
       -0.1075504 -0.10959999 0.026745725 -0.14855312
000070 b5 9b 80 be 19 67 1a be e8 24 59 3e 77 bf 3f bc
       -0.25118795 -0.15078391 0.21205485 -0.011703364
000080 4e 9c 1c 3d f6 8f 5e bd 64 5b 95 bb 26 ca 61 be
       0.038235 -0.05433651 -0.0045580138 -0.2204977
000090 0f 2f 16 be a6 fe 10 3e 14 34 43 bc ff 2a 15 3e
       -0.14666389 0.1415964 -0.011914272 0.14567183
0000a0 57 18 cb 3d 8d 10 65 3e e1 23 77 3d ab 5a 05 3e
       0.09916752 0.22369595 0.06033695 0.13022868
0000b0 45 13 38 bd c4 b5 57 bc 60 66 08 be 4c 75 93 3d
       -0.04494025 -0.013165895 -0.13320303 0.07200107
0000c0 53 bd 0a 3c 43 39 37 be 4f aa 43 be 19 d6 53 bd
       0.00846799 -0.17892937 -0.19107936 -0.05171785
0000d0 e4 ae 9b bd 43 d0 5e 3d f3 e6 9f 3c 85 4c e4 bd
       -0.07601717 0.054397833 0.019519305 -0.111474074
0000e0 e9 6b ed bd af 06 3c 3c 1b bb 8f 3d 3a 45 7c 3c
       -0.11592848 0.011476203 0.070181094 0.015397364
0000f0 1c 06 43 be d4 4f ad bd a2 64 4f 3c 28 d4 72 bd
       -0.190453 -0.08462492 0.01265827 -0.05928436
000100 b5 1d ed 3d 59 fa b7 3d c4 7a 70 bd 8d 94 13 3e
       0.11577932 0.08983297 -0.05871083 0.14412136
000110 04 6a 3f 3e 5b 50 b5 3c d2 21 62 3e f6 a1 53 be
       0.18692786 0.022133043 0.22083214 -0.20667252
000120 a8 1a e2 bd 3b 8e 86 3d ee 0b dd 3d 05 94 c8 bd
       -0.110402405 0.06570097 0.10793291 -0.097938575
000130 a9 fc 75 bd 14 e7 19 3e 74 af b4 bd 04 07 ac 3c
       -0.06005541 0.15029556 -0.088225275 0.020999439
000140 fa b4 dc 3d c9 d9 e2 bd 4f 30 13 be 2f 29 23 3d
       0.10776706 -0.110766955 -0.14373897 0.039834198
000150 dd 33 93 3d 5f 6e 3d be 2d 14 0a bd 66 29 ef 3c
       0.071876265 -0.18499134 -0.033710647 0.029194545
000160 a3 95 10 3d 90 6a ae 3b 00 97 02 3e 41 5b 11 3a
       0.035298955 0.005322762 0.12752914 0.0005544909
000170 29 27 04 be b1 3e eb 3d 32 2c 2d 3e 6c 56 a7 3d
       -0.12905563 0.11486567 0.1691139 0.081707805
000180 46 94 74 ba ff 63 25 bd ae 35 0e 3e 9c b3 a3 bd
       -0.0009329956 -0.040378567 0.13887665 -0.07993242
000190 04 b0 62 3d cf 30 c8 bd 5f 77 de bd 17 48 6b 3d
       0.055343643 -0.097749345 -0.10862612 0.057441797
0001a0 1c 8d 06 3e 76 ec 4f be 5d 0d 00 3e ba 66 0f bd
       0.13139766 -0.20305046 0.12505098 -0.035010077
0001b0 4f c3 8f 3d 44 36 98 bd 6b b5 b6 bd 97 a9 89 3d
       0.07019674 -0.07432225 -0.089213215 0.067218
0001c0 f6 bd 0e 3d 30 5e 60 be a3 62 68 3e 17 c3 6b be
       0.03484913 -0.2191093 0.22693877 -0.2302364
0001d0 c9 a7 ee 3d 9c 88 27 be db b9 ed bd 80 0c 1c be
       0.11653096 -0.16360706 -0.11607715 -0.15239143
0001e0 3f 51 ac bc c0 37 02 be bc 7f 52 bd c0 cc 38 be
       -0.021034835 -0.1271658 -0.05139135 -0.18046856
0001f0 5b bd 7a bd e7 b4 07 be 1f 2d 95 be 1a 47 f3 bd
       -0.06121574 -0.13252603 -0.29135987 -0.11878796
000200 11 15 38 be 4d e9 1e 3e 29 5e 5a 3e c1 fc 85 3d
       -0.17976786 0.15518685 0.21324982 0.065423496
000210 d3 b6 09 3e b4 62 b6 bd aa 27 ff 3c a5 76 27 be
       0.13448648 -0.08905545 0.031146843 -0.16353853
000220 01 5c 03 3c 03 b6 75 3e 8d 38 74 3d cc 4a 18 be
       0.008017541 0.23995213 0.059624244 -0.14872283
000230 c8 bf b5 3d 82 69 8d be dc 52 f2 bd e0 22 1f be
       0.0887447 -0.2761956 -0.118322104 -0.15540648
000240 a9 6d ab bd ec 18 6f bd b3 a1 9d 3e 39 f8 e8 3d
       -0.083705254 -0.058373377 0.3078743 0.1137547
000250 76 f6 86 3d 98 63 e3 3d 86 fb 4f bd d3 dc 4c be
       0.065899774 0.111029804 -0.05077698 -0.20006113
000260 35 40 2c be a0 11 6e bc 8b ca ae bd c6 a4 f6 bc
       -0.16821368 -0.014530569 -0.08534726 -0.030107867
000270 f6 fe 46 3e 84 7c 44 3d f9 0f 43 bd ef d0 d0 3d
       0.19433197 0.04797031 -0.047622655 0.10196101
000280 b6 bd b3 3d 2e ea 0e bc 0c 6f e7 bd 03 2d 92 3d
       0.08776419 -0.008722825 -0.113004774 0.071374916
000290 5a 1a c7 bd 9a d1 36 3d 67 4e 3d bc d9 bf 28 3e
       -0.09721823 0.044633485 -0.011554337 0.16479434
0002a0 26 b5 1b 3e 4f 0b 11 bc 7e 5a 2f 3e e3 32 77 bd
       0.15205821 -0.008852794 0.17124364 -0.060351264
0002b0 e9 1d fa 3d f6 26 9f 3c fb 98 0c bd 5c fa db 3d
       0.12212736 0.019427758 -0.03432558 0.10741112
0002c0 8a 8d 2b 3e 8a f3 95 bd fc 54 38 3e 80 72 22 3e
       0.16753212 -0.07321842 0.18001169 0.15863991
0002d0 02 a6 b7 3d 80 bd f9 3d f4 57 0a be 42 e9 22 3e
       0.0896721 0.121943474 -0.13510114 0.15909293
0002e0 f3 c7 f8 bd c3 1a 81 bb 25 f9 e4 3d e9 4f 1d bd
       -0.12147512 -0.003939958 0.11180333 -0.038406286
0002f0 cc 93 6b 3d 05 b4 1a 3e 93 38 7f be 2c b8 30 be
       0.057513997 0.15107735 -0.24923925 -0.17257756
000300 de b8 33 3d 0b 39 a5 bd 4a 30 c6 bd fc df d7 bd
       0.043877475 -0.08067521 -0.09677179 -0.105407685
000310 ab 5c 09 bd 66 c6 fc 3d 15 2f a8 bd cc a1 9f 3d
       -0.03353564 0.12342529 -0.08212105 0.07794532
000320 b1 e0 54 be a0 b6 84 be 24 ad 52 3c 21 2a 42 3d
       -0.20788838 -0.25920582 0.012858663 0.04740346
000330 c7 68 ab bd a2 0d 9f 3c 50 f6 62 3e 2c 93 45 3d
       -0.08369594 0.01941568 0.22164273 0.048236057
000340 d6 6d 8c be 78 44 af 3d 89 76 81 be b6 6f 41 3e
       -0.27427548 0.08557981 -0.25285748 0.1889027
000350 3f 15 80 3d 7a 97 d3 3d 1e 90 74 be 78 bb 03 3e
       0.06254052 0.10331626 -0.23883101 0.12864482
000360 8c d9 51 3e a3 02 9f bc 26 a0 4a ba ef ac 42 be
       0.20493144 -0.019410437 -0.00077295525 -0.19011281
000370 54 19 96 bd 32 73 c7 bd a6 0c 3a 3e ab dc 76 bd
       -0.0732905 -0.09738769 0.18168887 -0.06026904
000380 60 1a 6a bd 20 dc ae bc 00 bc bc bb ec fb c2 3c
       -0.05715406 -0.021345198 -0.005759716 0.023801766
000390 85 e9 a4 3b fd 97 88 bc 2c 79 3d 3e 12 cd 0b 3e
       0.0050327205 -0.016674036 0.18503255 0.13652447
0003a0 95 ae 1e 3d be ec ca 3b 8a 70 5a 3e 92 cc f0 3d
       0.038740713 0.0061927726 0.21331993 0.11757769
0003b0 15 3a 2b bd 5c 79 a6 be be 27 28 be b6 e2 57 3e
       -0.04180344 -0.32514465 -0.1642141 0.21082577
0003c0 e3 ad f9 bd e5 08 01 3e 6b 65 36 3d fb 7b 0f be
       -0.121913694 0.12601049 0.044530313 -0.14012139
0003d0 b4 f7 98 bc 99 37 f8 bc db 1f 9b bc cd 63 99 bd
       -0.018672802 -0.030299949 -0.018936088 -0.074897386
0003e0 c6 39 0e be a2 68 8c bc 0b 1b 9c bd 27 0c d5 bc
       -0.13889226 -0.017139737 -0.076223455 -0.026006771
0003f0 c1 be ec bd 5b 57 07 3d a9 80 7a 3d 49 a2 bf 3d
       -0.11559821 0.033042293 0.061157856 0.09357125

model.encoder.rnn.bias_ih_l0 f4 [128]
000000 ff 79 3c 3e 83 77 40 3e 1d 66 96 3d 9e 46 23 3e
       0.18405913 0.1879559 0.07343695 0.15944907
000010 e6 24 bf bd 23 b9 62 bd bd 8d 98 bd b1 22 16 3e
       -0.0933321 -0.05535234 -0.074489094 0.14661671
000020 80 14 49 3e 0a 93 1f 3c 30 81 8c bd fb 87 08 3e
       0.19636726 0.009739647 -0.06860578 0.13333122
000030 67 cf b4 bc 54 0f dd 3d e1 54 2b 3e ec 49 11 be
       -0.022071553 0.10793939 0.16731597 -0.14188355
000040 98 6f 0a be f5 89 c6 bd 18 82 6c 3c 89 ac 48 3c
       -0.13519132 -0.09694282 0.014435314 0.012248167
000050 07 d0 99 3c d8 90 13 3e 04 3b 58 3e 7c 90 c6 bd
       0.018775953 0.14410722 0.21116263 -0.09695527
000060 49 54 00 3e 28 99 08 3e 30 4e 49 3e 7d c9 18 be
       0.12532152 0.13339674 0.19658732 -0.14920612
000070 2c 27 30 3d d7 d9 22 3e 92 3a a2 3d f5 df 04 3e
       0.043006107 0.15903412 0.07921328 0.12976058
000080 ac 31 5b bd 37 1b 8d 3d 8d 61 c3 3d 90 fa 4d 3e
       -0.053514168 0.068899564 0.09540091 0.20115113
000090 ed 50 cb ba b6 2d 79 bd 8e 4d 92 bd b9 50 1f bd
       -0.0015511789 -0.06083461 -0.07143699 -0.038895342
0000a0 77 7f 85 bc fe 22 34 3e bd c1 ca bd 7d 45 09 3e
       -0.016296132 0.17591473 -0.09900234 0.13405414
0000b0 0b 27 04 3e a6 d7 52 3e d7 2c 10 3e 2b ff 7a 3c
       0.12905519 0.20590076 0.14079605 0.015319626
0000c0 da fc e4 bd a0 6d a7 bd 21 0d d6 bc 85 67 37 3e
       -0.1118104 -0.08175206 -0.026129307 0.17910583
0000d0 2f c1 98 bc 0b 4b ad bd 89 d6 4f 3e 62 fe 01 3e
       -0.018646805 -0.08461579 0.20296682 0.12694696
0000e0 4a 15 0d 3e 93 38 22 3e 26 2f 83 3d d2 5b 25 3d
       0.13777652 0.15841894 0.06405477 0.04037077
0000f0 2c 94 b0 3d 67 f0 b4 3c 20 50 25 3b 16 1d ea 3d
       0.086220115 0.022087289 0.002522476 0.11431329
000100 88 7b f8 bd d8 4a 16 3e 56 2e cc bd 24 68 ea bb
       -0.12132937 0.14676988 -0.099697754 -0.007153528
000110 36 81 0c be 00 e9 24 be d4 5f a9 3d 57 83 96 3d
       -0.13721165 -0.16104507 0.08270231 0.0734927
000120 36 1a d8 bd 6d fb 03 be 44 58 3e 3e 2d c7 49 be
       -0.10551874 -0.1288888 0.18588358 -0.19704886
000130 89 7e 72 3c 98 43 82 3d f3 0c 3c be 18 3c 49 3d
       0.014800676 0.06360549 -0.18364315 0.049129575
000140 4f 09 ec bd dd 93 30 be 47 32 04 bb 16 9a da bc
       -0.11525213 -0.17243905 -0.002017157 -0.026684802
000150 41 dc 1c 3e 2a 97 f1 bd 13 2d 4f 3e 63 a9 b5 3d
       0.15318395 -0.117964104 0.20232038 0.088701986
000160 c9 75 12 3c ae 83 72 3d df 01 8d bc ae f5 e8 3d
       0.008939215 0.05920761 -0.017212806 0.11374985
000170 f9 28 05 be ca 8b b7 bd 89 3a 0c 3d 14 8f 51 3d
       -0.13003911 -0.089622095 0.03423551 0.05116184
000180 b1 34 21 3d c5 9b 26 3c 7a 35 a2 3d 90 cb 16 3e
       0.03935689 0.010168974 0.07920356 0.1472609
000190 e3 c1 a3 3d d7 fd 9e 3d 9d da aa bd bd 24 aa bd
       0.07995965 0.0776326 -0.083424784 -0.083077885
0001a0 d8 b4 56 3e 96 6d 30 3e 96 ce 03 be c7 66 59 bd
       0.20967424 0.17229304 -0.12871775 -0.05307653
0001b0 d3 ba 0c 3e fe 8c 0e 3e 89 97 80 bb 09 66 bd bd
       0.13743143 0.13920972 -0.0039243144 -0.09247977
0001c0 4e 1b e4 bd e9 bc 3b 3e c2 61 e3 bd 63 5a fe 3d
       -0.111380205 0.18333782 -0.1110263 0.12419584
0001d0 04 f6 e0 3c 89 20 dc bc 2e 61 8c bd 39 48 8a bd
       0.02746106 -0.026870983 -0.06854473 -0.06752057
0001e0 f1 1f 7c bc 09 55 f2 bc 7f 63 4f 3d 01 15 74 bd
       -0.015388475 -0.029581564 0.050631996 -0.059590343
0001f0 4c ec 07 3e c4 46 c8 3d b7 13 ba 3b 42 8c 03 3e
       0.13273734 0.097791225 0.0056786197 0.12846473

model.encoder.rnn.bias_hh_l0 f4 [128]
000000 b7 8d 6e 3d 96 f4 aa bc 18 7b f9 3d 35 ab 2e bc
       0.05824062 -0.02086858 0.121816814 -0.010660936
000010 82 34 01 3e fd 26 06 3e e2 0f e3 bc 81 21 04 3e
       0.12617686 0.1310081 -0.027717534 0.12903406
000020 d6 7e a0 3c 14 57 19 3e 4c cd 23 be 74 48 a3 bd
       0.01959173 0.14974624 -0.15996283 -0.07972804
000030 96 10 4a 3e 9c bb e6 3a 3e 39 1d bd 7b cc 5d bd
       0.1973289 0.0017603519 -0.03838467 -0.054150086
000040 48 9f ac bb da b4 19 bc 82 c8 52 bb 42 35 e5 bd
       -0.0052680112 -0.009381497 -0.003216297 -0.11191799
000050 0b 62 d6 3d 94 c6 3e bd ec 58 7e bc d8 d1 47 3e
       0.10467919 -0.046576098 -0.01552413 0.19513643
000060 4a e6 ef bd d9 92 03 be ea 79 0f 3e 90 c0 b9 bd
       -0.11713846 -0.12848987 0.1401135 -0.090699315
000070 d2 d3 ea bd 90 e3 75 bd 97 04 b1 3d 5e 3a de bd
       -0.11466183 -0.060031474 0.086434536 -0.108509764
000080 f3 22 21 3e 31 92 9b bc 23 fa 99 bd b1 c8 38 bc
       0.15735988 -0.018990608 -0.07518413 -0.011278317
000090 6d 96 30 be e4 84 14 bd 0d 17 2f be b3 62 d5 3a
       -0.17244883 -0.036259547 -0.17098637 0.0016280025
0000a0 18 cc d2 bd 20 f1 0b 3c 31 bc 13 3d e0 f7 a6 bd
       -0.10292834 0.008541375 0.036068145 -0.08152747
0000b0 13 30 ba bd 0e 06 7f 3e f6 35 43 bd b4 11 8e 3d
       -0.09091201 0.24904653 -0.047658883 0.0693697
0000c0 90 12 23 3e 04 c0 02 be 26 86 09 3e 19 4f bd 3d
       0.1592505 -0.1276856 0.1343008 0.09243602
0000d0 98 b7 8c 3d 0f c4 5c bd f3 12 52 3e 0e 93 52 3b
       0.06870955 -0.053897914 0.20515041 0.0032131108
0000e0 92 91 d3 3d 7e 59 de bd 9f 20 05 be dd ed 92 3d
       0.103305 -0.10856913 -0.13000725 0.07174275
0000f0 8d 45 20 bd c7 df 66 bd 44 d2 90 bd b0 2a 47 3b
       -0.03912883 -0.056365754 -0.07071355 0.0030390434
000100 66 24 4e 3e fb fa 08 3e 5f ed bc bd 0f 31 bd bc
       0.20131072 0.13376991 -0.092249624 -0.023094682
000110 52 76 e5 bd c2 e4 fe bd 99 b9 83 bd 6f ce 0e 3e
       -0.112042084 -0.12445976 -0.06431884 0.13945936
000120 7c f0 2e be ee 8f ae 3d b5 d6 1a be 44 52 54 bd
       -0.17083925 0.08523546 -0.15120967 -0.051836267
000130 d6 74 42 be 3b 4f 24 3c 7c e3 80 bd 26 60 30 3e
       -0.18989882 0.010028656 -0.06293389 0.17224178
000140 b3 f5 56 3e 71 02 d2 3a 86 ac dd bd 15 16 25 be
       0.20992164 0.0016022456 -0.10823922 -0.16121705
000150 9c b3 cb 3b ef 7d 97 bd 7c 99 e2 bd 7f 08 1a be
       0.0062164795 -0.07397067 -0.11064431 -0.15042304
000160 45 19 cf bd a8 ef cd 3d b2 9e 8b bd d4 c9 1f be
       -0.10112242 0.100554764 -0.06817378 -0.15604335
000170 55 ff 04 be 2d 1b 37 be f4 33 03 be 8a 12 65 3d
       -0.12988026 -0.1788146 -0.12812787 0.055925883
000180 b3 3f 13 3d 52 06 0e 3e 6e 56 93 3d 87 fb e1 bd
       0.03594942 0.13869599 0.071942195 -0.11034303
000190 2b 08 1d be d7 3f 5d 3d f7 c5 1e 3e 52 cb 46 3e
       -0.15335147 0.05401596 0.15505205 0.19413498
0001a0 ae 4b e5 bd 3c 66 a6 bd 8f 5e ce 3d 7c 94 17 3c
       -0.111960754 -0.081249684 0.10076629 0.00925171
0001b0 be ec 45 3e 6e 60 72 bb d9 c9 da 3d 67 0e 8d bd
       0.19328591 -0.0036983746 0.10683031 -0.06887513
0001c0 24 a1 2a bc c7 79 f7 3d b8 31 d5 bd b8 0f 36 bc
       -0.0104143955 0.12083774 -0.10409874 -0.011112146
0001d0 70 b4 4f 3e 75 06 03 3e 18 e2 03 be 6e 90 ad bd
       0.20283675 0.12795432 -0.12879217 -0.084748134
0001e0 ef 1a 92 3d 24 1d 52 bd b1 b5 23 3e 4c 06 52 3d
       0.071340434 -0.051297322 0.15987279 0.051275536
0001f0 75 8e 3e be 3f e2 50 3d 7d e5 e4 bd 78 6f dc 3d
       -0.1860903 0.050997015 -0.11176584 0.107634485

model.encoder.readout.weight f4 [12, 32]
000000 23 92 39 3d 84 69 2e be f0 21 bb 3d 0e a0 7b 3d
       0.045305382 -0.17032439 0.091373324 0.061431937
000010 ba 43 f5 3d 2b 85 e5 3d 3e 36 8a bd 78 da bd 3d
       0.119758084 0.112070404 -0.06748627 0.09270185
000020 99 89 83 be 9e d0 c4 3d 13 30 ef bd 06 16 c0 bd
       -0.25690916 0.09610103 -0.11679091 -0.09379201
000030 54 a2 b6 3d eb 32 83 bb bc aa e4 bd 65 07 63 bd
       0.089176804 -0.0040038726 -0.111653775 -0.055426974
000040 82 f0 0c 3e da 95 0b 3d b7 b4 5c bb 55 1a 83 3e
       0.13763621 0.034078456 -0.003367705 0.25606027
000050 92 25 97 3d 0d 27 33 3e e1 94 fa bd e3 ca d4 3c
       0.07380213 0.17495365 -0.12235428 0.02597565
000060 c1 df 90 3c 0e 87 24 3e 92 84 26 3e a4 d2 18 3d
       0.01768482 0.16067144 0.16261509 0.037310258
000070 ef 66 2a be 8d 16 ca 3d e9 e1 8b bd 0f 4d a4 bd
       -0.16640829 0.098675825 -0.06830198 -0.0802251
000080 dc b2 33 be 75 b8 08 3d 9f e4 5f bd f0 aa fe 3d
       -0.17548698 0.033379037 -0.05466139 0.124349475
000090 0b 9b f2 3d 6e 93 79 3d 8e 84 b2 3c 01 2b 39 be
       0.11845978 0.060931616 0.021791723 -0.18082811
0000a0 31 45 55 3d f7 af 87 3d 6a 34 c0 3d 61 ea f0 3b
       0.05206794 0.066253595 0.09384997 0.007352159
0000b0 2b a4 5d 3e 7c bf a2 bd 8c 2f 0f 3e bd 6a de bd
       0.21644656 -0.07946679 0.13982981 -0.108602025
0000c0 f8 53 01 3d 42 58 63 3d 13 eb 3c bd fd 11 97 3e
       0.03157422 0.05550409 -0.04612262 0.2950591
0000d0 f4 2d 47 3d 0b 31 cf bd a4 ab 2d be 5f ba 7f bd
       0.04862781 -0.10116776 -0.16960007 -0.062433597
0000e0 ef f2 83 3e 6d 01 a4 3d f8 f1 3b bd 99 91 19 3e
       0.2577128 0.080080844 -0.045885056 0.14996947
0000f0 75 81 b9 bd d8 59 da 3c de b1 68 3d 34 85 40 bd
       -0.09057895 0.026654169 0.056810252 -0.047002032
000100 48 1b 66 bd fd b7 a9 bd 84 e9 05 3e ce f3 26 3e
       -0.05617836 -0.08287046 0.1307736 0.16303942
000110 49 ba 74 bd 83 d3 c4 bc 02 7f 77 bc 8d df 28 be
       -0.059747968 -0.024026638 -0.015105965 -0.16491528
000120 a0 d3 e2 bd e5 de 8c 3d b0 f6 35 3d 17 0a 95 3d
       -0.110755205 0.06878451 0.044424713 0.07277315
000130 b7 06 92 bd 24 b0 69 bd b8 4c 07 3e 86 91 84 3d
       -0.07130187 -0.057052746 0.1321286 0.06473069
000140 59 35 4a bb 59 ed de 3d 31 59 04 3d 16 2c 2b 3e
       -0.0030854552 0.10885114 0.032311622 0.16716036
000150 e4 05 3a be df 3d 46 3e 12 eb 5f be cb 6a b7 bd
       -0.1816631 0.1935954 -0.21867016 -0.08955916
000160 2f e2 69 3c c8 43 ee bd dd 51 91 3d d2 0c 3d bd
       0.014275118 -0.11634022 0.07095692 -0.046154805
000170 8a c9 23 3d 9e 1b bc 3d 09 b5 c3 bd 32 bc 13 be
       0.039987125 0.09184955 -0.09556014 -0.1442726
000180 80 fe aa 3c 16 51 ef bd 91 13 07 bd 83 5a 70 3d
       0.020873308 -0.11685388 -0.032977644 0.05868007
000190 59 35 83 bd 74 48 48 3e 00 d4 22 3e a6 17 ae bd
       -0.0640666 0.19558889 0.15901184 -0.08500604
0001a0 d2 36 2f 3e d6 3a 8f bd 1b 4a 07 be f8 81 00 3e
       0.17110756 -0.06993644 -0.13211863 0.12549579
0001b0 5c 3b 19 3e 08 53 85 3d ec dc 9d 3d a4 1b 32 be
       0.1496405 0.065099776 0.07708153 -0.17393357
0001c0 48 d9 0d be 05 db 04 3c df 37 37 bd 21 e9 a6 bd
       -0.13852417 0.008108859 -0.044731017 -0.081499346
0001d0 85 1e 0c 3d f9 bc f3 3d da 60 20 be e1 9f 53 3e
       0.034208793 0.11901278 -0.15661946 0.20666458
0001e0 f3 aa 45 3d 84 77 c7 bd fc 04 54 3e e4 c0 c7 3d
       0.048258733 -0.09739593 0.20705026 0.09753588
0001f0 b2 4b 89 3d 3e 35 97 bc 2d 05 07 be 20 95 08 3e
       0.06703891 -0.018458005 -0.13185568 0.13338137
000200 d5 46 96 3d 1f 71 3c be 04 14 39 3d 6a 09 07 be
       0.07337729 -0.18402527 0.045185104 -0.13187185
000210 a3 1e 3d bd 9a b8 26 3e ec 2a 0c 3e 55 d8 3f be
       -0.046171796 0.16281357 0.13688248 -0.18734868
000220 a0 f2 f0 bd 9a a4 35 3e 5b 83 e9 bd 04 3a 6b 3d
       -0.11765027 0.17738572 -0.11402007 0.057428375
000230 8c 5a 1d bd 71 f5 0a 3e 09 15 12 3e 90 98 68 3d
       -0.03841643 0.13570191 0.14265837 0.05678612
000240 41 96 0e be 7a ae 3f 3d e7 7e 06 bc 68 d2 80 3d
       -0.13924505 0.046797253 -0.008208967 0.06290132
000250 e9 a6 c0 bd 98 d2 23 bd e2 1c 8a 3d b4 3c f9 bd
       -0.094068356 -0.03999576 0.0674379 -0.12169781
000260 51 c5 47 3e 8e b5 ef 3c 76 af 2d 3e de ea 0a be
       0.19508864 0.029261377 0.16961464 -0.13566157
000270 6e 75 32 bd 25 03 37 3c eb 66 f7 bd 0e 97 77 bc
       -0.04356902 0.011170183 -0.12080177 -0.015111698
000280 40 9d c7 bd 8c cb 8c 3d 94 97 9e 3d 72 56 f9 3d
       -0.0974679 0.06874761 0.07743755 0.12174691
000290 9b b3 60 bd 43 10 ea bb 34 fa 82 3e e5 ac 11 be
       -0.054858785 -0.007143052 0.25581515 -0.1422611
0002a0 11 86 92 bd c3 f7 1d bd 59 eb 7a bd e7 b4 b9 bd
       -0.071544774 -0.038566362 -0.0612596 -0.090677075
0002b0 86 a9 b1 bd ee a4 54 bd 33 06 52 3e 62 3d 17 be
       -0.08674912 -0.0519151 0.20510177 -0.1476951
0002c0 51 55 63 3d df 37 dd bb 2c 24 c6 bd 65 7a 11 bd
       0.055501286 -0.006751045 -0.09674868 -0.035517115
0002d0 3d 47 89 bd f9 3d 9f 3d b5 c8 29 3c b1 37 45 bb
       -0.06703041 0.07775492 0.010362794 -0.003009301
0002e0 45 93 28 3d 15 6e ce bc d5 d6 ee 3d 53 8c be bd
       0.041156072 -0.025198976 0.1166207 -0.093041085
0002f0 54 66 68 3d 9d 6a 01 3e 4e e5 a0 3d ec f9 ee bd
       0.056738213 0.12638326 0.078562364 -0.116687626
000300 ab a8 82 3c 68 71 f5 bb 0b 10 cb bb 1e b5 53 3e
       0.015949568 -0.0074903257 -0.006196981 0.2067456
000310 f3 1d 8d bd 12 aa 38 3e bd 78 a7 3d ac 64 ab bd
       -0.06890478 0.18033627 0.08177326 -0.08368811
000320 03 b4 9a bc 8d 3b a3 3c 3b 30 27 bd 73 e9 25 be
       -0.018884664 0.019925857 -0.04081748 -0.16202335
000330 42 b8 ac bd 38 12 63 3d 47 0b 30 3e b0 a7 17 be
       -0.08433582 0.055437297 0.17191802 -0.14810061
000340 db 0a 49 bc b3 59 33 3e bd 63 d4 bd c5 d0 0f bd
       -0.012270655 0.17514686 -0.10370586 -0.035111208
000350 1d f2 4f 3d 12 71 53 3e 81 1c 92 3d f6 ea 40 3e
       0.050768007 0.20648602 0.07134343 0.1883963
000360 51 79 8e bd 7c bf c4 bd 89 33 01 be 5f 46 f8 bd
       -0.06956733 -0.09606835 -0.12617315 -0.12122797
000370 34 f4 31 3d 8b a4 03 3e e0 4f 81 bd 39 ed 1b 3e
       0.04344578 0.12855737 -0.06314063 0.15227212
000380 64 04 26 3d c3 70 44 be 3c 03 30 bd e5 9f b2 3d
       0.04053153 -0.1918364 -0.042971835 0.08721904
000390 d4 33 24 be 84 e0 1e 3e e5 ee 07 be 0a 9f 9d bc
       -0.16035396 0.15515333 -0.13274725 -0.019240875
0003a0 e7 3b a8 bd 0d e6 00 3e 44 7e cf bd 69 6c 9c bd
       -0.082145505 0.12587757 -0.10131505 -0.07637865
0003b0 75 51 9f 3d 1f dc 87 3d ea 78 d7 3d 4d 76 fb 3c
       0.077792086 0.06633782 0.105211094 0.030696059
0003c0 a1 0f 49 3d d1 25 90 bd a0 01 2d bd f1 ba 3b 3d
       0.04908717 -0.07038463 -0.042237878 0.045832578
0003d0 2d f5 c2 bd 9e c8 56 3e d7 6e c7 bd 2d 10 8d 3d
       -0.0951942 0.20974967 -0.09737938 0.06887851
0003e0 f5 49 ee 3d fb fa 95 3c 97 8d 14 bd 8e 72 24 3e
       0.116352 0.018308153 -0.036267843 0.16059324
0003f0 4b 94 b1 bc f6 f5 03 3e a0 d3 9f 3d 19 0c 5d 3c
       -0.021677157 0.12886795 0.07804036 0.013491654

model.encoder.readout.bias f4 [12]
000000 03 ad dd bd 3b 85 89 3d ca 94 08 3d 5d 08 9d 3d
       -0.10824015 0.06714865 0.03334502 0.07667611
000010 d5 b4 4c bc 46 99 74 bd 7e 34 d2 bd 6b a3 3b bd
       -0.012494286 -0.059716485 -0.10263918 -0.045810144
000020 25 d9 1d bd 9d 56 df bd cd 3d 06 be 40 8f a0 bc
       -0.038537163 -0.10905192 -0.13109513 -0.019599557

exp_avg f4 [128, 1]
000000 2e 23 68 38 17 8e 31 b9 6e 1b 56 b9 f4 8e 41 3a
       5.5345874e-05 -0.00016932968 -0.00020418849 0.00073836674
000010 fc 16 79 38 f0 96 ec 39 5c a9 96 35 fe 2f e4 39
       5.9387632e-05 0.00045125885 1.1225161e-06 0.00043523306
000020 51 87 99 b8 94 51 80 b9 12 5c cb 39 f9 8b 05 b6
       -7.320813e-05 -0.00024474843 0.00038787775 -1.990002e-06
000030 36 56 1e b8 4c 0e 8e 3a 47 b2 0e 39 e9 a7 42 37
       -3.7750426e-05 0.0010838001 0.00013608589 1.1602396e-05
000040 89 97 91 39 95 5d 86 39 99 bd 86 38 88 d9 b1 3a
       0.00027769458 0.00025628196 6.424933e-05 0.0013568858
000050 e4 83 6f 3a 0a 02 27 39 ad 9d af 39 17 60 e8 39
       0.00091367797 0.0001592712 0.0003349608 0.0004432208
000060 d9 59 49 ba fa 80 1a 37 61 61 90 39 bc cc 59 37
       -0.000768093 9.209145e-06 0.00027538373 1.2981876e-05
000070 70 58 a5 b9 5f b0 be 39 a2 63 9f 38 67 8d 0e b6
       -0.00031537144 0.0003637103 7.600269e-05 -2.1241956e-06
000080 89 31 52 38 26 8b 92 b9 33 25 79 b9 ac 8e e6 39
       5.0114035e-05 -0.00027950964 -0.00023760348 0.00043975317
000090 56 cc 8c 37 6c 25 ad 39 1f cf 0f b9 de 2c dc 39
       1.6784452e-05 0.00033025013 -0.00013714701 0.000419951
0000a0 bb d4 99 b8 3f 0f 94 b9 8d 8f 82 39 c2 bc b2 37
       -7.335233e-05 -0.0002824012 0.00024902486 2.130715e-05
0000b0 55 42 4c 38 f1 d3 2b 3a 3d d2 f7 b9 9f 30 64 38
       4.8699167e-05 0.0006554714 -0.0004726815 5.4404718e-05
0000c0 a4 26 92 38 25 10 1e 39 75 f4 ae b8 45 b5 49 39
       6.96902e-05 0.00015074069 -8.3425e-05 0.00019236382
0000d0 47 e2 0a 3a 6c a2 20 39 8d 5d 47 39 5f db 8e 39
       0.0005298 0.00015319296 0.0001901297 0.00027247795
0000e0 de 1a 8d ba 4e 6d 13 b7 2a 95 91 39 a5 fc 19 b8
       -0.0010765453 -8.787332e-06 0.0002776769 -3.6713336e-05
0000f0 b6 ea d7 b9 a1 f0 9c 39 6c 43 e5 b7 69 3f 21 b7
       -0.0004118287 0.0002993392 -2.7330323e-05 -9.611112e-06
000100 cc 55 82 39 7e be 00 bb a1 cd 9e 3a 28 13 29 bb
       0.00024859456 -0.0019644792 0.0012115726 -0.0025798772
000110 bd 05 c4 b9 72 11 b1 ba 7f 7a fd 38 00 68 ec 3a
       -0.0003738831 -0.0013509227 0.00012086797 0.0018036366
000120 50 43 c0 39 67 63 f4 39 d1 3a 12 3b a9 fc 04 b9
       0.00036671245 0.00046613367 0.002231289 -0.00012682624
000130 ed 8d ed b9 7b ff 6d bb d9 94 55 3b 04 d9 40 39
       -0.00045309906 -0.0036315608 0.003258994 0.00018391391
000140 a5 f6 16 3a 97 1d fb b9 d4 6e 0d 3b 7d 8e 23 3b
       0.0005758799 -0.00047896497 0.0021580951 0.0024956756
000150 99 b4 b3 3a ac 77 b6 3a 40 f0 47 39 ca 94 ee b8
       0.0013710439 0.0013921163 0.00019067619 -0.000113764385
000160 dc 0d f6 3b 9e 78 10 ba c7 8d ef 39 67 83 a2 3a
       0.0075089764 -0.00055111374 0.00045691265 0.001239878
000170 af 2e 9e bb 99 5e 3d ba bc 5a 7f ba a2 31 47 39
       -0.0048273425 -0.0007223874 -0.00097409985 0.00018996609
000180 5a 02 8a 38 69 e9 07 b9 db 4e f1 b9 75 39 62 3a
       6.580791e-05 -0.00012961555 -0.00046025854 0.00086297776
000190 a3 53 55 38 6a 5d 0e 3a 33 d0 43 b9 6c 97 30 3a
       5.086105e-05 0.000543079 -0.0001867421 0.0006736431
0001a0 a6 21 c6 b7 60 1c b2 b9 bd f1 c7 39 16 4a 11 38
       -2.3619108e-05 -0.00033971947 0.00038136347 3.4639692e-05
0001b0 9f 7d a2 38 8c 20 97 3a cf 06 fa 37 68 31 ce 37
       7.748161e-05 0.0011530085 2.9805493e-05 2.458012e-05
0001c0 64 e8 79 39 e1 a7 57 39 34 14 11 b9 d1 ec 41 39
       0.00023833063 0.00020566538 -0.00013835804 0.00018494135
0001d0 d4 6c 63 3a bd ad 2a b9 ea 45 cd 39 fc 1d 34 39
       0.00086755794 -0.00016277186 0.00039152737 0.00017177308
0001e0 c0 25 0e ba 2f c3 f6 b6 35 89 c6 39 4f 51 c7 b7
       -0.00054224953 -7.3540937e-06 0.0003786773 -2.376051e-05
0001f0 41 f6 07 b9 c1 3f f2 39 0d ca 25 b9 5e a8 48 b7
       -0.0001296634 0.00046205337 -0.00015810896 -1.196013e-05

exp_avg_sq f4 [128, 1]
000000 e3 51 02 34 7d d8 d4 35 80 e5 7b 34 4c 55 6a 36
       1.2136984e-07 1.5858237e-06 2.3459688e-07 3.4918367e-06
000010 e4 04 c6 34 16 5a 01 36 a5 05 30 34 ce e2 11 36
       3.6883932e-07 1.9274935e-06 1.6393331e-07 2.1738701e-06
000020 f7 f1 46 35 73 c5 d5 34 35 79 67 35 9d c5 68 35
       7.4112853e-07 3.9818005e-07 8.6230585e-07 8.67143e-07
000030 bb cd ee 35 52 3c 3f 37 5a 05 e7 36 b1 60 47 35
       1.7792257e-06 1.1398532e-05 6.8849595e-06 7.427398e-07
000040 f6 87 87 35 06 3f 62 35 d4 3e 17 36 ab 22 97 37
       1.0097854e-06 8.428327e-07 2.2537324e-06 1.8016746e-05
000050 9a c3 e4 36 39 38 8a 34 57 59 19 36 1b 98 85 36
       6.8177005e-06 2.574541e-07 2.285078e-06 3.9814163e-06
000060 44 3b 53 36 d5 76 39 33 84 46 13 36 15 2e 9e 34
       3.1475947e-06 4.3181746e-08 2.1945752e-06 2.9463322e-07
000070 ee 72 03 36 82 cb 92 36 b4 0e 0c 35 60 19 4f 34
       1.958742e-06 4.3748305e-06 5.217546e-07 1.9287609e-07
000080 21 fc 45 34 29 f2 1b 36 4a d5 e1 34 bc 7a 3e 36
       1.8438779e-07 2.3237756e-06 4.2064704e-07 2.8383647e-06
000090 60 2c 8f 34 54 9e e7 35 f1 4b 73 34 9f ca 56 36
       2.6668113e-07 1.7256921e-06 2.2658766e-07 3.2006426e-06
0000a0 27 39 1a 35 6e d9 d2 34 57 3c 1f 35 20 43 86 35
       5.745264e-07 3.927375e-07 5.931992e-07 1.0003314e-06
0000b0 fc b0 26 36 d9 5a d7 36 ae 92 1b 37 4d 3d 1d 35
       2.4838946e-06 6.4180754e-06 9.2728715e-06 5.857626e-07
0000c0 dc e5 2d 35 0c aa ed 34 4b c8 87 36 07 2c a9 36
       6.478201e-07 4.4268415e-07 4.0466307e-06 5.041718e-06
0000d0 e6 70 c4 36 98 7a 93 35 6c 95 3f 36 ff 75 75 36
       5.8543983e-06 1.0988033e-06 2.8548193e-06 3.6576528e-06
0000e0 07 26 06 36 bc 29 97 32 70 11 31 36 6a 71 0d 34
       1.998969e-06 1.7597692e-08 2.6385205e-06 1.3172908e-07
0000f0 a0 7f 3b 36 f5 7e 90 36 39 c5 ab 34 26 0e 2b 34
       2.793946e-06 4.306314e-06 3.199473e-07 1.5930763e-07
000100 46 63 43 37 0c e2 55 39 23 f9 fc 37 e8 a3 27 39
       1.164602e-05 0.00020397472 3.0156754e-05 0.00015987421
000110 3c f9 47 37 91 9f 5c 38 d3 50 54 37 17 64 84 38
       1.1919354e-05 5.2600695e-05 1.2655003e-05 6.312894e-05
000120 25 91 c7 37 b8 e3 3b 38 c0 f2 ab 38 65 33 1d 38
       2.3790237e-05 4.4796354e-05 8.199131e-05 3.747958e-05
000130 07 53 92 38 58 9f 28 3a cf a0 bd 39 1b 4e a8 37
       6.9772876e-05 0.00064324355 0.000361687 2.0063531e-05
000140 53 14 7f 37 f9 a2 c2 37 2c bf 81 38 a2 8d b4 39
       1.52039165e-05 2.3202492e-05 6.186808e-05 0.000344378
000150 f9 9f 06 39 c5 a8 9d 38 e7 f9 f3 38 16 94 3b 39
       0.0001283883 7.517779e-05 0.00011633691 0.00017888876
000160 f5 06 e1 3a 81 73 9f 37 f8 79 56 39 0a a3 3d 38
       0.0017168211 1.9008063e-05 0.00020454067 4.5212953e-05
000170 1b e2 da 39 12 84 ad 38 36 53 fe 37 3e 09 ef 37
       0.00041748662 8.273883e-05 3.0317908e-05 2.8495324e-05
000180 00 e6 78 34 ae 47 35 36 d5 5a 70 35 f5 92 a9 36
       2.3180473e-07 2.7012825e-06 8.9539145e-07 5.0537005e-06
000190 43 f8 ee 34 90 01 27 36 cd 6c 15 35 c9 3a 8d 36
       4.451159e-07 2.4885849e-06 5.566515e-07 4.208971e-06
0001a0 0a 7b da 35 3b 0e 1f 35 60 45 4b 35 1b 78 98 35
       1.6278075e-06 5.9252824e-07 7.5724347e-07 1.1359838e-06
0001b0 72 a5 0b 36 fa a8 87 37 d7 dd 7e 37 f1 78 94 35
       2.0808916e-06 1.617194e-05 1.5191231e-05 1.1062058e-06
0001c0 21 d4 7c 35 d3 a5 06 35 c4 48 ac 36 d2 fd 72 36
       9.4186004e-07 5.0160196e-07 5.1344705e-06 3.6208553e-06
0001d0 0c 45 ed 36 61 74 55 36 22 8d 90 36 39 b4 0a 37
       7.0711885e-06 3.1807215e-06 4.3079644e-06 8.267402e-06
0001e0 cb a1 6f 36 0f cc 56 33 f0 31 92 36 a9 4a 51 34
       3.5707951e-06 5.0011348e-08 4.3569526e-06 1.9491803e-07
0001f0 43 c8 c8 35 92 68 b2 36 af 8e 6d 35 bd ae 2f 34
       1.4959445e-06 5.316987e-06 8.849701e-07 1.6361714e-07

exp_avg f4 [128, 32]
000000 d2 84 e5 b5 cf b4 00 b7 96 0e 0f 37 95 74 ba 37
       -1.7100485e-06 -7.671492e-06 8.52686e-06 2.2227216e-05
000010 97 35 2c 37 3c b0 23 37 b4 ab 55 b6 95 b5 53 b7
       1.0264476e-05 9.75659e-06 -3.1839418e-06 -1.2618858e-05
000020 01 89 fe b5 07 94 9b b7 e4 0d b7 b6 a6 50 27 37
       -1.8964348e-06 -1.854637e-05 -5.455442e-06 9.972753e-06
000030 b4 19 57 37 47 d0 ac 37 c8 3d 35 37 ea b3 e4 b6
       1.2820983e-05 2.0600984e-05 1.0802825e-05 -6.8158743e-06
000040 8c 43 9c b6 e3 ac 02 37 53 ff 62 36 77 f1 67 b6
       -4.657026e-06 7.788857e-06 3.3825243e-06 -3.4562233e-06
000050 0d 7a a3 b7 16 c6 9a b6 f9 15 91 b7 28 cb 80 36
       -1.9487949e-05 -4.612618e-06 -1.7295579e-05 3.8383478e-06
000060 a9 c7 5b 36 f0 cd 67 37 29 9b 1a 37 e6 bd 01 b7
       3.274976e-06 1.38166215e-05 9.215241e-06 -7.733213e-06
000070 1d 16 a4 b5 d4 18 25 37 44 9f 53 36 51 25 e9 b6
       -1.2225388e-06 9.840547e-06 3.1534155e-06 -6.9482853e-06
000080 0f 92 f2 36 66 58 f4 34 44 dd f8 37 67 3f d5 38
       7.2291655e-06 4.551286e-07 2.9666939e-05 0.00010168441
000090 3a 2c 1f 38 b4 92 15 38 bc a0 b6 b7 22 25 07 b8
       3.7949743e-05 3.5660996e-05 -2.1770938e-05 -3.222109e-05
0000a0 65 5a 07 b8 f1 90 af b8 a4 e9 a7 b7 0c f7 da 37
       -3.2270695e-05 -8.371648e-05 -2.0016749e-05 2.6102665e-05
0000b0 b9 e5 a0 37 e0 79 e3 38 a0 d3 74 b5 41 d4 21 b7
       1.918046e-05 0.000108469045 -9.120504e-07 -9.645767e-06
0000c0 a4 c0 fc b6 12 2e cf 37 99 62 37 36 80 ed 00 b8
       -7.5326116e-06 2.4697776e-05 2.7326516e-06 -3.0738767e-05
0000d0 98 30 96 b8 c7 72 cc b7 76 24 50 b8 82 a5 f3 36
       -7.161609e-05 -2.4372142e-05 -4.962502e-05 7.261232e-06
0000e0 97 17 6b b7 f8 a0 9b 38 d4 da a3 37 ae 08 28 b8
       -1.4012584e-05 7.420959e-05 1.9533014e-05 -4.0062405e-05
0000f0 b9 6a 95 37 de 69 8a 37 10 a7 e7 37 19 17 af b7
       1.781188e-05 1.650018e-05 2.761514e-05 -2.0872381e-05
000100 d2 8e c7 34 8e e1 10 b7 eb ef bc 37 04 2c e6 b6
       3.7170554e-07 -8.635585e-06 2.2523067e-05 -6.8596582e-06
000110 46 f2 44 36 05 4d 93 35 f9 66 a3 b5 18 02 aa 36
       2.9347298e-06 1.0974769e-06 -1.2174415e-06 5.0666386e-06
000120 e0 e7 b2 37 88 1f 83 36 f2 81 62 36 92 c2 b4 36
       2.1327229e-05 3.907775e-06 3.3752262e-06 5.387069e-06
000130 bd 31 33 37 02 6c 67 b7 fa 40 61 37 bd bf f1 b6
       1.0680812e-05 -1.37938205e-05 1.3426174e-05 -7.204681e-06
000140 4a b3 bf 36 35 84 1d b6 4c 49 9c 37 54 4f 1b 36
       5.7131156e-06 -2.3471778e-06 1.863078e-05 2.3142975e-06
000150 5b 99 81 36 89 8d c3 36 a8 82 44 36 0a dd e9 b5
       3.8623525e-06 5.8279297e-06 2.9282328e-06 -1.7424184e-06
000160 52 f7 ae 37 81 94 de b6 1a fd de b5 a3 47 77 36
       2.0857584e-05 -6.6334037e-06 -1.6613951e-06 3.6847566e-06
000170 d0 df 95 36 23 4d 8a 36 7e ee 01 b7 e0 c0 0a b5
       4.4666012e-06 4.1217004e-06 -7.7445275e-06 -5.1689676e-07
000180 f5 dd 9a b8 8a e2 0b b9 8b 70 98 b8 4b 07 05 39
       -7.384635e-05 -0.00013340465 -7.2688876e-05 0.00012686585
000190 f7 74 e8 38 5d 78 05 39 3e ed 77 37 e4 da 3d b9
       0.000110844085 0.00012728707 1.47775845e-05 -0.00018105988
0001a0 b0 1a c4 b7 f5 fc 4a b8 41 89 7a b8 23 b0 dd 38
       -2.3377448e-05 -4.8396138e-05 -5.9732472e-05 0.00010570909
0001b0 75 4b e2 38 98 3a ea 38 3b e3 33 39 92 9f 9f b8
       0.00010790575 0.000111689034 0.0001715542 -7.611433e-05
0001c0 ff 4c dc b8 d9 35 e7 38 60 e5 93 b8 8f bb 8e 38
       -0.00010504759 0.00011024968 -7.052231e-05 6.806023e-05
0001d0 dc 23 40 b9 a8 a0 ec 37 be 70 24 b9 62 98 94 38
       -0.00018323906 2.8208204e-05 -0.00015682259 7.0855735e-05
0001e0 bf 86 37 38 d0 5c 6a 38 5f f3 03 39 89 b1 54 b7
       4.3756092e-05 5.5876386e-05 0.00012583796 -1.267752e-05
0001f0 ec fd 2d 37 62 e5 1d 39 9c c4 9d 38 fb c1 81 b8
       1.0370724e-05 0.00015058139 7.522965e-05 -6.187331e-05
000200 70 a7 63 b6 75 95 fb b6 20 93 ac b6 c9 a7 bc 37
       -3.3923097e-06 -7.497782e-06 -5.143127e-06 2.2489477e-05
000210 74 f0 4a 37 62 77 6e 37 9e cc 07 36 13 45 7f b7
       1.2096123e-05 1.4213701e-05 2.023567e-06 -1.5215267e-05
000220 e8 56 39 b7 d9 d7 53 b7 1a f9 ec b6 5e 2c 08 37
       -1.1047094e-05 -1.2626836e-05 -7.0623473e-06 8.116562e-06
000230 8d 4b a6 36 e1 1c cc 37 f3 85 37 37 d7 d5 8b b6
       4.955981e-06 2.4332143e-05 1.09388375e-05 -4.167417e-06
000240 ef f5 16 b7 64 7f 35 37 0d a4 1e b7 83 b2 a2 36
       -8.997958e-06 1.0818101e-05 -9.45573e-06 4.8487577e-06
000250 f0 99 b4 b7 11 0a 68 36 e7 a9 6f b7 73 07 d1 36
       -2.1529355e-05 3.4576553e-06 -1.4285069e-05 6.2295526e-06
000260 fd e4 bb 36 4a 46 8c 37 31 ef 27 37 65 0e d7 b6
       5.599692e-06 1.6722031e-05 1.0009667e-05 -6.409175e-06
000270 d9 13 ac b6 c8 2b 2a 37 ee 1a 2e 37 73 ef cb b6
       -5.12831e-06 1.0142983e-05 1.0377478e-05 -6.077747e-06
000280 83 a4 cd b7 34 93 63 b8 51 ab 35 b8 82 f1 02 39
       -2.4514511e-05 -5.425811e-05 -4.3313314e-05 0.00012487735
000290 c3 c7 94 38 7d 27 9f 38 b9 fe 03 34 20 f2 d7 b8
       7.0943985e-05 7.589066e-05 1.2292993e-07 -0.00010297098
0002a0 4e 15 67 b8 65 4d ab b8 64 10 2a b8 58 50 70 38
       -5.5094533e-05 -8.168331e-05 -4.0546423e-05 5.7295285e-05
0002b0 01 b1 51 38 b3 91 0d 39 5d 36 9c 38 da 4a 15 b8
       4.999433e-05 0.00013501085 7.4487856e-05 -3.559408e-05
0002c0 6e 61 7d b8 6e 35 8b 38 7a f5 53 b8 d1 fa 9b 37
       -6.041064e-05 6.6379886e-05 -5.0534938e-05 1.8594235e-05
0002d0 9c 9e 06 b9 4e 4e a5 b6 bc 5c e1 b8 83 7e 31 38
       -0.00012838322 -4.926499e-06 -0.00010746109 4.231791e-05
0002e0 28 1f 1c 37 86 97 a4 38 97 76 94 38 17 95 10 b8
       9.305579e-06 7.848353e-05 7.079279e-05 -3.4471126e-05
0002f0 7b 06 04 b7 66 d8 9b 38 a2 0a 78 38 05 df 2e b8
       -7.869322e-06 7.431283e-05 5.913771e-05 -4.1692536e-05
000300 83 df 11 b6 2b 8f 01 36 a9 15 9a 36 89 af ac 36
       -2.1736785e-06 1.9305833e-06 4.592079e-06 5.1464344e-06
000310 6a ac f9 35 6f cd 3c 36 9f 25 df b6 26 2a 7d b6
       1.8602125e-06 2.813376e-06 -6.6502976e-06 -3.7724471e-06
000320 9d 2f 80 35 e7 3a 05 b6 8a fe 18 b6 d7 fd a5 35
       9.5506e-07 -1.985283e-06 -2.2797926e-06 1.2367335e-06
000330 67 ed d1 35 a6 7c cf 35 fe 16 1b b7 33 9d 5a 35
       1.5640807e-06 1.5458979e-06 -9.244073e-06 8.1440083e-07
000340 f8 70 2b 36 37 34 87 35 6c f4 6c 36 7b c7 67 b7
       2.5546742e-06 1.007348e-06 3.5309013e-06 -1.3815118e-05
000350 68 e7 a8 b6 f3 6f e2 b6 2c 97 33 b6 2b aa 38 b6
       -5.0337294e-06 -6.7483575e-06 -2.6761072e-06 -2.7517187e-06
000360 98 09 99 b7 38 3f 45 36 6b 95 c8 b4 75 25 95 b5
       -1.8243489e-05 2.9392086e-06 -3.736162e-07 -1.1112267e-06
000370 6c f7 dd 37 c4 29 cd 35 fa 1b c3 b4 78 78 47 b5
       2.6460468e-05 1.5285846e-06 -3.6341936e-07 -7.430858e-07
000380 71 7f ad b7 8a 85 53 b8 65 5a 2e b8 dc 31 0f 39
       -2.0682552e-05 -5.0430688e-05 -4.156902e-05 0.00013656117
000390 c3 d7 9f 38 80 75 a5 38 e3 a9 9c b6 25 13 d9 b8
       7.6218996e-05 7.889699e-05 -4.6689397e-06 -0.00010350932
0003a0 8f d4 85 b8 1c d6 d0 b8 21 94 32 b8 a6 4a 7a 38
       -6.381526e-05 -9.958094e-05 -4.2576463e-05 5.9674167e-05
0003b0 c8 21 55 38 4c 91 22 39 af 14 92 38 94 60 10 b8
       5.081462e-05 0.00015503651 6.965675e-05 -3.442222e-05
0003c0 53 fc 7d b8 87 40 91 38 34 43 59 b8 84 dd 36 37
       -6.0554896e-05 6.926158e-05 -5.179942e-05 1.0899621e-05
0003d0 1c ef 0f b9 48 37 35 b7 69 42 f2 b8 e6 0a 33 38
       -0.00013726618 -1.0801312e-05 -0.00011551829 4.2687076e-05
0003e0 00 74 3f 36 c3 89 c6 38 9e b6 97 38 7d a3 31 b8
       2.8528739e-06 9.467036e-05 7.234256e-05 -4.235235e-05
0003f0 73 48 87 b6 b7 76 9b 38 c2 e1 84 38 67 ad 3c b8
       -4.0317477e-06 7.413088e-05 6.336301e-05 -4.4984186e-05

exp_avg_sq f4 [128, 32]
000000 5f af a8 32 f3 6d 36 33 da 04 f1 30 db 13 51 32
       1.9637524e-08 4.2475175e-08 1.7536437e-09 1.2169916e-08
000010 8b 34 89 32 bf 7e c1 32 24 bd fb 2e 70 1b 61 33
       1.5972793e-08 2.2525795e-08 1.14477566e-10 5.241185e-08
000020 3c 4a 3c 32 6a 21 f5 30 32 d2 8d 31 d9 a0 c1 32
       1.0959919e-08 1.7835593e-09 4.1275365e-09 2.2541302e-08
000030 be 3e 2c 33 13 eb 17 32 44 a9 9a 33 78 2c a2 32
       4.0103934e-08 8.8428065e-09 7.201973e-08 1.8879504e-08
000040 2f 3a 7d 32 ca 77 87 32 71 bb fc 30 8f 4b dc 31
       1.4739768e-08 1.5770542e-08 1.8388687e-09 6.4114327e-09
000050 c8 ab 2a 33 bf 46 e2 2f 6a 5d 0c 33 da da 0e 32
       3.9737444e-08 4.115943e-10 3.268125e-08 8.315249e-09
000060 95 4c bd 31 37 95 0f 31 49 25 03 33 cc b1 9f 30
       5.5093303e-09 2.0894058e-09 3.0534725e-08 1.1619306e-09
000070 d5 98 65 31 80 61 38 33 fb b2 55 31 e4 1b 0f 32
       3.341076e-09 4.2929514e-08 3.1097318e-09 8.330037e-09
000080 48 95 d4 34 b2 11 73 35 66 c7 f8 32 53 28 98 34
       3.9596694e-07 9.0550304e-07 2.8961676e-08 2.8341546e-07
000090 ca 86 bb 34 81 73 f0 34 25 92 bd 30 a3 3d 95 35
       3.4929536e-07 4.4787524e-07 1.3793097e-09 1.1119304e-06
0000a0 52 85 92 34 7d 98 48 33 db 64 b8 33 fa 6a 07 35
       2.7291622e-07 4.6704816e-08 8.586513e-08 5.044709e-07
0000b0 55 80 78 35 4f 08 39 34 28 ff d4 35 2a ac de 34
       9.2573947e-07 1.723249e-07 1.5869491e-06 4.1475988e-07
0000c0 2b b7 a1 34 17 f5 b4 34 79 79 10 33 27 06 0a 34
       3.012186e-07 3.370594e-07 3.363809e-08 1.285449e-07
0000d0 8c db 5b 35 06 0c 0d 32 a3 f8 47 35 e1 63 27 34
       8.190334e-07 8.210014e-09 7.449509e-07 1.5589423e-07
0000e0 da 71 15 34 6f 7f 44 33 d8 c8 1e 35 e9 a6 f0 32
       1.3918125e-07 4.5750706e-08 5.915185e-07 2.801558e-08
0000f0 1b 07 6a 33 aa 01 77 35 62 81 73 33 3f 4f 29 34
       5.4488833e-08 9.201709e-07 5.669552e-08 1.5768181e-07
000100 4e 91 48 31 24 1c d4 31 20 79 d8 31 d4 d6 9b 31
       2.9186427e-09 6.1732113e-09 6.3001977e-09 4.535517e-09
000110 ae d8 70 31 de 46 83 31 4b f2 56 2f b7 51 07 32
       3.5047765e-09 3.8206585e-09 1.9549266e-10 7.876614e-09
000120 c3 65 15 32 d8 b1 0c 31 c4 24 46 30 90 f5 5d 31
       8.696079e-09 2.0473774e-09 7.208423e-10 3.2299319e-09
000130 64 df eb 31 64 bf 22 32 e2 aa 2b 32 43 26 3a 31
       6.8647967e-09 9.473158e-09 9.992364e-09 2.7088312e-09
000140 89 1c 2b 31 d9 f3 40 31 64 6a c2 31 05 7d d1 30
       2.4899995e-09 2.8078289e-09 5.6582383e-09 1.5242284e-09
000150 8a 60 f3 31 8b d2 84 30 1b 6a a2 31 49 0e da 30
       7.083206e-09 9.664104e-10 4.7268833e-09 1.5865648e-09
000160 a5 bf a7 30 de 59 bd 30 45 ab 9d 31 f0 e9 8b 30
       1.2205318e-09 1.3777102e-09 4.5887725e-09 1.018007e-09
000170 99 41 72 31 62 fa e8 31 4e 43 5f 31 4a f7 ea 30
       3.5252923e-09 6.780554e-09 3.248903e-09 1.7096025e-09
000180 5c 1f 18 34 f6 4d be 34 f9 cb 75 33 04 88 8c 34
       1.4167512e-07 3.5446982e-07 5.722902e-08 2.6175996e-07
000190 f6 a9 51 34 a9 c5 87 34 b5 8c 55 30 81 58 12 35
       1.9526473e-07 2.5289526e-07 7.7688905e-10 5.451803e-07
0001a0 d9 08 b8 33 46 72 35 33 6e c9 58 33 2d 3f 6a 34
       8.569777e-08 4.2246278e-08 5.047462e-08 2.1815931e-07
0001b0 16 1b a7 34 aa 6f 69 34 b3 f8 28 35 68 40 29 34
       3.1125882e-07 2.1740439e-07 6.294678e-07 1.5762782e-07
0001c0 39 38 2a 34 48 dd 47 34 76 08 80 33 5d 84 9b 33
       1.5852937e-07 1.8613821e-07 5.9620035e-08 7.241827e-08
0001d0 8f e4 04 35 f8 b6 73 31 68 a4 c0 34 62 b9 bd 33
       4.950643e-07 3.546516e-09 3.5882408e-07 8.834719e-08
0001e0 a5 48 75 33 92 65 fd 32 52 26 99 34 e6 fb 6f 32
       5.7109578e-08 2.9499265e-08 2.8526352e-07 1.3968906e-08
0001f0 4e ec cb 32 b0 58 d5 34 e0 a4 b1 33 e9 e3 a0 33
       2.373977e-08 3.973887e-07 8.2721954e-08 7.492037e-08
000200 d2 85 59 33 ad cf f7 33 e1 d7 21 31 33 a8 1b 33
       5.064596e-08 1.153961e-07 2.3551296e-09 3.6241726e-08
000210 0b 7f 6a 33 55 e9 9d 33 01 43 ca 2f 56 47 21 34
       5.4597916e-08 7.353325e-08 3.6791195e-10 1.5020245e-07
000220 1e 08 f0 32 27 d3 e3 30 54 d7 49 32 e0 14 8d 33
       2.7943369e-08 1.6576437e-09 1.17487e-08 6.569621e-08
000230 93 6d dc 33 4c 1d 52 32 c6 29 49 34 4c 85 50 33
       1.026448e-07 1.223027e-08 1.8734781e-07 4.8550007e-08
000240 14 b5 29 33 6c 6e 4c 33 c7 96 15 31 47 f6 af 32
       3.951307e-08 4.759788e-08 2.176806e-09 2.0484675e-08
000250 cf 77 00 34 50 ed 95 31 b8 78 a9 33 0a ab a7 32
       1.1964515e-07 4.36345e-09 7.8916344e-08 1.9519138e-08
000260 37 69 86 32 bc 28 85 31 f1 06 a6 33 a6 55 c2 30
       1.56475e-08 3.8754404e-09 7.73124e-08 1.41397e-09
000270 6f 78 6d 32 6e 51 06 34 b9 59 38 32 cc e6 bc 32
       1.3822599e-08 1.2509346e-07 1.073061e-08 2.1991035e-08
000280 4d 10 8d 34 70 8d 26 35 e2 3d 12 32 14 a4 6f 34
       2.6275157e-07 6.204564e-07 8.512389e-09 2.2318301e-07
000290 b7 f9 94 34 8c a9 c3 34 66 15 3e 30 c2 2d 5c 35
       2.774884e-07 3.6444942e-07 6.9152006e-10 8.2022973e-07
0002a0 95 66 0d 34 57 96 6d 32 89 bb 8b 33 16 45 c3 34
       1.3168967e-07 1.3829399e-08 6.506804e-08 3.6371847e-07
0002b0 99 92 1e 35 65 cd b9 33 69 b4 8d 35 29 3e 95 34
       5.9072914e-07 8.652095e-08 1.0557825e-06 2.779864e-07
0002c0 a8 c6 6e 34 ea d0 8c 34 38 c7 48 32 44 28 e6 33
       2.2237748e-07 2.6229037e-07 1.1686829e-08 1.0717534e-07
0002d0 f3 5f 2b 35 14 71 00 32 23 67 07 35 f3 bb f4 33
       6.384209e-07 7.476292e-09 5.04415e-07 1.1396323e-07
0002e0 00 01 c2 33 43 88 c8 32 b1 61 e3 34 a7 67 0c 32
       9.034011e-08 2.3345029e-08 4.2353125e-07 8.17264e-09
0002f0 07 07 0c 33 ce 89 30 35 86 d5 51 33 7b fc f8 33
       3.260268e-08 6.576564e-07 4.8855803e-08 1.1594326e-07
000300 36 74 93 2f 0d 1c fb 2f c3 48 4c 31 b3 3b 50 2f
       2.6821717e-10 4.5676565e-10 2.9727267e-09 1.8938699e-10
000310 67 2e cb 2f 82 50 a1 2f aa 78 11 30 63 ae c5 2f
       3.6958456e-10 2.9342934e-10 5.2922167e-10 3.5958e-10
000320 a9 13 0c 31 1b a5 cc 2e 22 c2 08 2e 73 d2 7b 2f
       2.0383857e-09 9.3061746e-11 3.1095244e-11 2.2903084e-10
000330 81 ad 85 30 ec 02 79 30 9a cb 92 30 fb f2 8a 2f
       9.726336e-10 9.0589825e-10 1.0680765e-09 2.5274702e-10
000340 bf 79 f7 2f 92 c4 88 2f 6f 25 36 31 e6 39 f5 30
       4.5015544e-10 2.4877927e-10 2.6505764e-09 1.7842552e-09
000350 9f a0 7f 2f 0c 8f b4 30 02 88 3e 2f 15 44 af 2f
       2.3249179e-10 1.313738e-09 1.7328719e-10 3.188069e-10
000360 15 2e 19 31 b0 4e 88 2f ac 44 ae 2f a0 b9 a5 2e
       2.2290625e-09 2.4794167e-10 3.169921e-10 7.536305e-11
000370 9d bf 0c 31 7d ae 4e 30 69 06 05 30 03 7c cd 2f
       2.04816e-09 7.5190326e-10 4.839423e-10 3.7377398e-10
000380 cd df ad 34 31 75 4a 35 5f 60 10 32 c3 f6 7b 34
       3.2386598e-07 7.54214e-07 8.403815e-09 2.3465968e-07
000390 88 c2 ae 34 e0 7e e9 34 64 e4 5f 30 98 b1 82 35
       3.2551566e-07 4.3491946e-07 8.145149e-10 9.737441e-07
0003a0 c6 e7 42 34 e3 ba 6b 32 f4 5d a0 33 7d bd e8 34
       1.8151977e-07 1.3721293e-08 7.4676706e-08 4.3351238e-07
0003b0 29 62 40 35 08 04 b4 33 3e a6 a9 35 60 63 b3 34
       7.1668416e-07 8.3826365e-08 1.2639864e-06 3.3413653e-07
0003c0 e7 b8 8b 34 9a 0f a4 34 29 bf 4b 32 34 d8 09 34
       2.6025302e-07 3.0558732e-07 1.185962e-08 1.2837774e-07
0003d0 87 2e 46 35 4b 2e 3a 32 eb 67 19 35 1e e6 0b 34
       7.3828454e-07 1.0837151e-08 5.714816e-07 1.30291e-07
0003e0 35 bb e3 33 1f 5b d0 32 ad b0 05 35 33 a6 40 32
       1.0604564e-07 2.4255824e-08 4.980346e-07 1.121366e-08
0003f0 fb 58 54 33 f5 a7 54 35 6a 79 64 33 0d d4 12 34
       4.9441024e-08 7.9220564e-07 5.3195812e-08 1.3674453e-07
