code/logs/epoch=2-step=72.ckpt (torch, 249178 bytes, 63 tensors)

model.input_encoder.weight f4 [32, 1]
0.73420745 -0.85922444 0.08987782 -0.71394014 0.8616812 0.0625516 -0.065897465 0.77166533
0.27661136 1.0079101 0.03840536 -0.3238135 -0.22691344 -0.9759809 0.67829645 0.30872527
0.45253456 -0.5243627 -0.26014882 0.1036615 0.022459043 -0.9329396 -0.85239077 -0.36968654
-0.2042976 -0.93438834 0.762171 0.07821965 -0.9123756 0.42134133 -0.20875578 0.64422566
00000000: 05f5 3b3f 22f6 5bbf dd11 b83d c8c4 36bf
00000010: 2497 5c3f 0e1b 803d 40f5 86bd dc8b 453f
00000020: 01a0 8d3e 3303 813f f04e 1d3d e2ca a5be
00000030: ff5b 68be e2d9 79bf d6a4 2d3f 3d11 9e3e
00000040: 9cb2 e73e a23c 06bf 3a32 85be 7b4c d43d
00000050: 07fc b73c 21d5 6ebf 4836 5abf 8e47 bdbe
00000060: 6433 51be 1334 6fbf a31d 433f a031 a03d
00000070: 7391 69bf 0dba d73e 13c4 55be f9eb 243f

model.input_encoder.bias f4 [32]
-0.35524163 0.44334567 -0.9552154 0.12321544 -0.31832018 -0.87486833 -0.19143443 0.7257085
0.37238747 -0.93941945 0.2625895 -0.35821536 0.37952608 -0.23107287 -0.087625645 0.63244736
0.27123436 0.93814826 -0.41293794 -0.018006818 0.44753745 -0.5667566 0.17935143 -0.9623814
0.6511927 -0.9331097 0.8020942 -1.0020826 0.3912848 -0.89523447 -0.15066871 0.30305278
00000000: 3be2 b5be 34fe e23e ff88 74bf 6058 fc3d
00000010: ddfa a2be 5ff7 5fbf 6307 44be 08c8 393f
00000020: 92a9 be3e cb7d 70bf 2272 863e 0168 b7be
00000030: 3e51 c23e 5e9e 6cbe 1375 b3bd 12e8 213f
00000040: 3bdf 8a3e 7c2a 703f 9a6c d3be 0983 93bc
00000050: a123 e53e f616 11bf e7a7 373e a15e 76bf
00000060: 91b4 263f 47e0 6ebf 0c56 4d3f 3e44 80bf
00000070: 7b56 c83e 162e 65bf e648 1abe bc29 9b3e

model.convs.0.1.convs.0.conv.weight f4 [32, 32, 1, 2]
-0.016657466 0.08619012 -0.114431605 -0.05853566 0.061894428 0.10806721 -0.0035305836 -0.12701021
0.07026885 0.046456877 -0.039385874 0.10943173 0.034255825 0.011428848 -0.08477169 -0.05075113
0.036727753 -0.08793366 0.08162446 -0.0079785045 -0.05626972 -0.09786742 0.05217576 0.054951012
-0.02929572 -0.037015975 -0.050192937 0.045619547 0.11766883 -0.040706597 -0.05744034 -0.06150363
0.06245096 -0.099599674 0.07428673 -0.08798166 -0.006932796 0.08004646 -0.1234516 0.07634994
0.1257036 -0.06884955 0.081390165 -0.017039726 0.107213594 0.08475289 0.05845466 -0.10132509
-0.04275343 -0.018831972 0.0918065 -0.050275587 0.0872146 0.09564235 0.123020105 -0.09765252
-0.0091632595 0.018906068 0.027007105 -0.050543133 0.0777017 0.020056138 0.06477424 0.09665586
-0.03435661 -0.0025890395 0.12390968 -0.08728371 0.0029064699 0.03889595 0.011351797 0.10226143
-0.070767745 0.086278565 0.05254378 0.010594219 -0.11094875 -0.005254239 0.01513164 0.13222574
0.027726904 0.09083869 0.07093176 0.090150885 0.046097133 0.13294646 0.037684366 0.07342012
0.036769178 -0.04417128 0.007509264 0.09702235 -0.04273774 -0.14582095 0.09739435 0.0067536025
-0.029230792 -0.06267512 0.11401057 -0.07180752 0.083264485 0.029854057 0.025618697 -0.09810848
-0.00537783 0.018654164 -0.046080306 -0.110576525 -0.079981536 0.055728942 -0.12541558 -0.10488237
0.06224977 -0.08776034 -0.055588428 -0.060369924 0.12669274 -0.044475406 -0.0031257214 0.10481513
0.07919023 0.14641197 -0.06017577 -0.034964185 0.09633749 0.004195094 0.060150333 -0.032622457
0.021912342 0.08543215 0.08438587 -0.091082394 -0.024244456 -0.056144867 0.08112014 -0.100879356
-0.06367711 0.019620175 0.049412634 -0.0061676186 -0.048117757 0.07773341 0.012712794 -0.017533083
-0.03061837 0.10546276 0.042637806 0.107478835 0.11588673 -0.0014105096 -0.08271566 0.113061935
-0.11005326 -0.09264465 0.0051491903 -0.025848085 -0.03523786 -0.067547984 0.0632707 0.06418392
-0.08855957 -0.08283528 -0.07101608 -0.028878424 0.025829924 -0.053761784 0.10777517 -0.052842353
-0.11868818 -0.016012143 -0.13672641 -0.036075667 0.011214009 -0.040290646 0.08193751 -0.009578964
-0.08422567 -0.037903357 -0.03142502 0.0018627188 -0.07482703 0.04809928 0.048947617 0.088489644
0.08237912 0.021807844 0.0073474348 0.033119608 -0.09283343 -0.03778445 0.00025385595 0.10824041
-0.11385099 -0.0058320663 0.12302286 0.07631878 -0.055503365 -0.0048906994 -0.012124751 -0.091491915
0.023382898 -0.019302044 -0.11468297 -0.01651206 0.0924808 0.006195415 -0.05532661 0.088351555
0.03875516 0.08484894 -0.05313206 -0.00082563714 -0.10158423 0.030068105 0.09500941 0.10530814
0.1237851 -0.109180406 -0.05320194 -0.0036840434 0.027312595 -0.07679082 0.09281092 -0.016694853
0.012890342 -0.026092947 0.12839234 0.069953 -0.073338084 0.112570696 -0.037452955 -0.11882724
-0.035426326 -0.11122084 0.097397506 0.048787832 0.10092725 0.09200329 0.0023064066 -0.123984374
0.03775885 -0.07935481 -0.11953712 -0.008888266 0.050431747 -0.07613727 -0.06060205 -0.0014099925
-0.092251785 0.10680719 0.10720795 -0.008103518 0.09992747 0.083719105 -0.073664226 0.04140225
00000000: 3d75 88bc 7284 b03d 1e5b eabd 17c3 6fbd
00000010: 0385 7d3d 5752 dd3d 5d61 67bb f70e 02be
00000020: 1de9 8f3d 9149 3e3d 1553 21bd be1d e03d
00000030: d64f 0c3d 1040 3b3c c89c adbd 6be0 4fbd
00000040: d76f 163d 9016 b4bd ba2a a73d 46b8 02bc
00000050: 147b 66bd b76e c8bd 40b6 553d 5014 613d
00000060: 94fd efbc 109e 17bd 1c97 4dbd 90db 3a3d
00000070: 5bfc f03d f6bb 26bd 9046 6bbd 3beb 7bbd
00000080: 94cc 7f3d eafa cbbd a423 983d bb2f b4bd
00000090: 822c e3bb 66ef a33d 31d4 fcbd 5b5d 9c3d
000000a0: 72b8 003e fe00 8dbd e3af a63d e596 8bbc
000000b0: cd92 db3d ec92 ad3d 276e 6f3d 8783 cfbd
000000c0: 381e 2fbd 8245 9abc 0c05 bc3d c6ed 4dbd
000000d0: 919d b23d 23e0 c33d f7f1 fb3d 0bfe c7bd
000000e0: 7f21 16bc e6e0 9a3c 013e dd3c 5106 4fbd
000000f0: 1222 9f3d c54c a43c 5ba8 843d 82f3 c53d
00000100: 84b9 0cbd e0ac 29bb 5cc4 fd3d cdc1 b2bd
00000110: 797a 3e3b 5c51 1f3d e3fc 393c 716e d13d
00000120: aeee 90bd d1b2 b03d 2638 573d 6093 2d3c
00000130: 1939 e3bd c02b acbb b3ea 773c 2f66 073e
00000140: 8823 e33c a309 ba3d ac44 913d 07a1 b83d
00000150: 59d0 3c3d 1e23 083e ec5a 1a3d 4a5d 963d
00000160: 479b 163d f2ec 34bd 4610 f63b a7b3 c63d
00000170: c50d 2fbd 1652 15be b076 c73d 534d dd3b
00000180: 6a75 efbc d05b 80bd 607e e93d d20f 93bd
00000190: 9286 aa3d 7f90 f43c 4dde d13c 19ed c8bd
000001a0: 8238 b0bb 9ed0 983c b4be 3cbd f275 e2bd
000001b0: 5ccd a3bd 0844 643d f16c 00be 91cc d6bd
000001c0: 9df9 7e3d b1bb b3bd b1b0 63bd 7446 77bd
000001d0: bebb 013e d82b 36bd e7d8 4cbb 51a9 d63d
000001e0: 7d2e a23d 05ed 153e de7a 76bd 9b36 0fbd
000001f0: 974c c53d 0077 893b 3260 763d 209f 05bd
00000200: 8381 b33c 0df7 ae3d 80d2 ac3d 6889 babd
00000210: 4f9c c6bc 29f8 65bd 5122 a63d d699 cebd
00000220: 2569 82bd 7dba a03c e764 4a3d bc19 cabb
00000230: 2017 45bd b232 9f3d 5349 503c 8aa1 8fbc
00000240: 60d3 fabc dcfc d73d fba4 2e3d dd1d dc3d
00000250: 0656 ed3d d9e0 b8ba d466 a9bd 048d e73d
00000260: 9b63 e1bd 7abc bdbd 8aba a83b 5dbf d3bc
00000270: 9355 10bd 9956 8abd 1294 813d dc72 833d
00000280: b85e b5bd 8ba5 a9bd e170 91bd 7292 ecbc
00000290: 4799 d33c 5135 5cbd 3ab9 dc3d 3971 58bd
000002a0: ca12 f3bd e62b 83bc 0202 0cbe 14c4 13bd
000002b0: f6ba 373c ce07 25bd dace a73d 16f1 1cbc
000002c0: 827e acbd 8d40 1bbd 86b7 00bd 7926 f43a
000002d0: ea3e 99bd c003 453d 4c7d 483d 0f3a b53d
000002e0: 62b6 a83d 5da6 b23c c0c2 f03b 6da8 073d
000002f0: 741f bebd dec3 1abd f817 8539 26ad dd3d
00000300: b52a e9bd eb1a bfbb 69f3 fb3d 054d 9c3d
00000310: 7f57 63bd 2942 a0bb e4a6 46bc 1d60 bbbd
00000320: 7e8d bf3c 521f 9ebc e8de eabd 4d44 87bc
00000330: 9366 bd3d e802 cb3b 289e 62bd a9f1 b43d
00000340: bbbd 1e3d 48c5 ad3d 01a1 59bd 926f 58ba
00000350: 650b d0bd 6351 f63c 4b94 c23d cbab d73d
00000360: 0b83 fd3d fa99 dfbd 47ea 59bd fe6f 71bb
00000370: aabe df3c 8144 9dbd a713 be3d a5c3 88bc
00000380: 0332 533c e0c0 d5bc 4879 033e 8543 8f3d
00000390: 4732 96bd 778b e63d 4568 19bd b25b f3bd
000003a0: 321b 11bd c0c7 e3bd 5878 c73d c0d5 473d
000003b0: f2b2 ce3d 396c bc3d 1527 173b 85eb fdbd
000003c0: 06a9 1a3d c684 a2bd e1cf f4bd 17a0 11bc
000003d0: 8591 4e3d dbed 9bbd db39 78bd 7fcf b8ba
000003e0: 81ee bcbd babd da3d d78f db3d 9ec4 04bc
000003f0: c6a6 cc3d ec74 ab3d 45dd 96bd 6895 293d

model.convs.0.1.convs.0.conv.bias f4 [32]
-0.046830934 0.041686084 -0.05156651 -0.11245478 -0.09675493 -0.056706186 0.019364586 0.07396525
0.033808094 0.10161097 -0.10176089 0.1252902 -0.100427024 -0.034760937 0.022066576 0.018726509
-0.024214283 0.11657703 0.06313147 0.07596698 0.082818136 0.08655016 0.041664463 0.040778533
-0.112224385 -0.1254757 -0.05928425 -0.10839723 -0.06787005 -0.08454109 0.06579893 -0.026443845
00000000: cbd1 3fbd 07bf 2a3d 6837 53bd b14e e6bd
00000010: 7327 c6bd bf44 68bd 7ba2 9e3c 187b 973d
00000020: 5b7a 0a3d 6a19 d03d 0368 d0bd 134c 003e
00000030: afac cdbd 7c61 0ebd f7c4 b43c 5668 993c
00000040: 085d c6bc f0bf ee3d 124b 813d 9394 9b3d
00000050: 8e9c a93d 3641 b13d 5ba8 2a3d 6407 273d
00000060: e6d5 e5bd b47c 00be 0bd4 72bd 5eff ddbd
00000070: 74ff 8abd e123 adbd 97c1 863d c3a0 d8bc

model.convs.0.1.convs.1.conv.weight f4 [32, 32, 1, 2]
0.0055841384 -0.06620019 0.075342976 0.08816984 0.056007724 0.089158215 0.013206207 -0.09692978
-0.021524888 -0.08577588 0.0021890544 -0.07083229 -0.07942852 0.120996535 0.0823872 0.11576273
0.09160612 0.0012694258 0.11352642 0.053413976 -0.11058585 0.062725805 -0.09096722 0.07088399
0.046412945 0.0018449374 -0.040073205 -0.07992772 0.09734616 -0.03354375 0.051391777 0.019373393
-0.037834905 -0.0040018354 -0.099291995 0.10200619 0.12752809 0.09390742 -0.06773958 0.019181795
0.08091335 0.04776704 0.058203246 -0.03853387 0.08520085 0.017475901 -0.08413288 0.07812226
0.06975183 -0.0035744421 -0.099923246 0.088564835 0.12908453 0.01808223 -0.015916131 0.024514616
-0.0062983586 0.0738197 0.07137685 -0.054259405 -0.06143048 0.024352651 0.091657765 0.046003662
0.09555101 0.015708186 -0.08337348 0.103691176 0.045764435 0.011174325 -0.10340154 0.012354942
0.06041807 0.091518626 -0.11116601 -0.045347255 -0.04593575 0.004040373 -0.052448444 -0.06789774
0.099519685 -0.0650014 -0.021608777 -0.0690869 0.12214713 0.008648324 0.11539936 0.06935423
-0.053064853 -0.04728277 -0.028072685 -0.12354654 -0.10131324 -0.013480977 -0.08848326 0.08341109
-0.07089555 -0.034984913 -0.112068094 0.07959257 0.03984575 -0.03618288 -0.112956434 0.05454612
-0.003639286 -0.014384444 -0.035598785 0.02776958 0.063515045 0.07162761 0.087980315 0.06972602
0.08105346 0.055665813 -0.1172571 0.08154751 -0.06193339 -0.106703304 -0.020046663 -0.11119661
-0.053447355 0.05561767 -0.057622973 0.069077335 0.040244088 -0.101141766 -0.03215396 0.054804146
0.007543996 -0.028791858 -0.014081436 0.09297602 0.063594185 -0.08845015 -0.012615572 0.09079982
0.10010769 0.051380504 -0.045686454 0.055766527 0.02738034 0.009289859 0.0024968062 0.103068516
0.10115208 -0.05569841 -0.102987155 -0.094144456 -0.08238018 -0.06379617 0.032917526 0.075527884
0.03800854 0.044566195 -0.11982686 0.09119062 0.093824156 -0.102554455 0.0039416566 -0.0064271763
0.068261534 0.012690346 -0.020568969 0.051808957 0.013432502 0.06051025 -0.1038811 -0.12169448
-0.08681739 0.09845636 0.07173598 -0.051710095 0.09104034 -0.12610635 -0.013699909 0.019485053
-0.09891898 0.09003853 0.07304618 -0.015751228 -0.028067945 -0.12358648 -0.0077737733 -0.13802102
0.038283184 0.11660075 0.0011258255 -0.039004505 0.068507545 -0.008166005 -0.09859461 0.017545704
-0.0013301244 0.09250237 -0.12241334 0.04767857 0.02597812 0.08711531 -0.054903332 -0.008254095
-0.06976653 -0.032870974 -0.054083113 -0.004300164 -0.09303265 -0.0012999972 0.0061627827 0.057630375
0.00246877 -0.09685904 -0.07665942 0.04567875 -0.10746332 -0.066264585 -0.010905301 0.04956056
-0.056679133 0.08782465 0.028921409 -0.052012965 -0.081769615 -0.06403298 -0.009295466 0.07811035
-0.04739477 0.039665423 -0.024268856 0.09474246 -0.13493559 0.08318203 0.05896462 0.0012534185
-0.069490485 0.09437653 0.021031756 0.08084196 0.102942325 -0.108273074 0.072181106 -0.03009627
-0.018609151 0.02742233 -0.041670505 -0.037669126 0.00080981536 -0.01291316 -0.09562118 0.05874257
0.108934514 -0.047357354 -0.058904964 -0.0023360366 -0.07638229 -0.026561098 0.0076089767 0.081599675
00000000: 26fb b63b f793 87bd 6b4d 9a3d 6492 b43d
00000010: 5b68 653d 9598 b63d d95e 583c 1f83 c6bd
00000020: f654 b0bc 44ab afbd 3d76 0f3b 8510 91bd
00000030: 6bab a2bd 08cd f73d 9fba a83d 0315 ed3d
00000040: fd9b bb3d dd62 a63a 8a80 e83d 9dc8 5a3d
00000050: d67a e2bd 6376 803d 064d babd a02b 913d
00000060: 801b 3e3d d4d1 f13a cd23 24bd 25b1 a3bd
00000070: 6c5d c73d 2c65 09bd 2f80 523d f3b4 9e3c
00000080: c6f8 1abd d421 83bb 9a59 cbbd 9fe8 d03d
00000090: b996 023e 8952 c03d 0dbb 8abd 2423 9d3c
000000a0: e6b5 a53d 5fa7 433d 8766 6e3d b1d5 1dbd
000000b0: c97d ae3d 9f29 8f3c dc4d acbd 90fe 9f3d
000000c0: 0cda 8e3d 3041 6abb 8fa4 ccbd 7b61 b53d
000000d0: bc2e 043e 2f21 943c 8c62 82bc e0d2 c83c
000000e0: 7662 cebb c82e 973d 072e 923d 1c3f 5ebd
000000f0: 879e 7bbd 367f c73c 11b7 bb3d 566e 3c3d
00000100: 3fb0 c33d 74ae 803c b7bf aabd 0a5c d43d
00000110: 7d73 3b3d 8414 373c 30c4 d3bd 626c 4a3c
00000120: f078 773d 1e6e bb3d 01ab e3bd 0bbe 39bd
00000130: 2027 3cbd 1b65 843b 2ed4 56bd f80d 8bbd
00000140: fad0 cb3d 741f 85bd e404 b1bc 6f7d 8dbd
00000150: 4628 fa3d b3b1 0d3c 8056 ec3d 9709 8e3d
00000160: 885a 59bd 94ab 41bd b0f8 e5bc f805 fdbd
00000170: 517d cfbd 51df 5cbc b636 b5bd 6fd3 aa3d
00000180: b031 91bd 574c 0fbd f583 e5bd 6e01 a33d
00000190: 4c35 233d 8034 14bd b455 e7bd c16b 5f3d
000001a0: 1681 6ebb bbac 6bbc 08d0 11bd 087d e33c
000001b0: 2d14 823d 7fb1 923d 062f b43d 84cc 8e3d
000001c0: 5bff a53d d601 643d 7e24 f0bd 6202 a73d
000001d0: dead 7dbd 4387 dabd e638 a4bc 0cbb e3bd
000001e0: 9deb 5abd 5bcf 633d 1106 6cbd 6b78 8d3d
000001f0: fcd6 243d 6a23 cfbd dfb3 03bd 507a 603d
00000200: a033 f73b e7dc ebbc d3b5 66bc 366a be3d
00000210: ab3d 823d 5a25 b5bd 8bb1 4ebc 42f5 b93d
00000220: 4305 cd3d 5d74 523d b821 3bbd 716b 643d
00000230: bc4c e03c 7e34 183c 75a1 233b 9615 d33d
00000240: d228 cf3d 0424 64bd eeea d2bd cfce c0bd
00000250: f1b6 a8bd 91a7 82bd 87d4 063d 5dae 9a3d
00000260: d8ae 1b3d 0b8b 363d c967 f5bd 26c2 ba3d
00000270: e126 c03d 1208 d2bd 0329 813b 109b d2bb
00000280: b4cc 8b3d 2beb 4f3c 4180 a8bc a135 543d
00000290: ff13 5c3c 99d9 773d 9dbf d4bd f53a f9bd
000002a0: 51cd b1bd 7da3 c93d 50ea 923d f7cd 53bd
000002b0: 5c73 ba3d 0622 01be 9575 60bc 1e9f 9f3c
000002c0: 0996 cabd 1f66 b83d 3c99 953d b808 81bc
000002d0: bfee e5bc e91a fdbd 23bb febb 6255 0dbe
000002e0: d4ce 1c3d 60cc ee3d 6f90 933a 30c3 1fbd
000002f0: af4d 8c3d b5ca 05bc f9eb c9bd 02bc 8f3c
00000300: 9257 aeba e271 bd3d d8b3 fabd 9b4a 433d
00000310: 11d0 d43c 8369 b23d 51e2 60bd 2f3c 07bc
00000320: c1e1 8ebd b7a3 06bd 4186 5dbd 64e8 8cbb
00000330: e787 bebd ab64 aaba 2bf1 c93b d40d 6c3d
00000340: 16cb 213b 085e c6bd 9dff 9cbd a419 3b3d
00000350: bb15 dcbd bab5 87bd 26ac 32bc 0400 4b3d
00000360: 6128 68bd 69dd b33d 97ec ec3c 8c0b 55bd
00000370: d476 a7bd b923 83bd 034c 18bc 52f8 9f3d
00000380: 0521 42bd 3678 223d 7bcf c6bc 5608 c23d
00000390: 8e2c 0abe 575b aa3d e384 713d bf49 a43a
000003a0: 0751 8ebd 7b48 c13d ca4a ac3c 7890 a53d
000003b0: 6dd3 d23d 46be ddbd b0d3 933d 748c f6bc
000003c0: 3872 98bc cba4 e03c b1ae 2abd f14a 1abd
000003d0: ca49 543a b891 53bc 0ad5 c3bd 0d9c 703d
000003e0: 0f19 df3d c9f9 41bd 5546 71bd 3118 19bb
000003f0: 516e 9cbd a996 d9bc b954 f93b bb1d a73d

model.convs.0.1.convs.1.conv.bias f4 [32]
0.07031125 -0.019049149 0.003906857 0.044756327 0.12805802 0.11583821 0.11870446 -0.061278097
0.06072358 0.0005052698 0.0579846 0.088038534 -0.109699994 0.03538467 -0.062015306 -0.058102448
-0.03893523 0.043961488 0.06860913 -0.05858475 0.006392807 -0.022274317 0.03672132 -0.13525327
0.03130194 0.009663205 0.06357623 -0.060225733 0.05986263 0.12761195 0.05994636 -0.051168583
00000000: 58ff 8f3d f60c 9cbc 1805 803b 6952 373d
00000010: a421 033e 953c ed3d 531b f33d befe 7abd
00000020: 4ab9 783d 1574 043a 4381 6d3d 8c4d b43d
00000030: 64aa e0bd 84ef 103d c303 7ebd d5fc 6dbd
00000040: 8c7a 1fbd f610 343d f282 8c3d 90f6 6fbd
00000050: c07a d13b a178 b6bc 1869 163d d57f 0abe
00000060: 7736 003d 6b52 1e3c 4134 823d 42af 76bd
00000070: 8432 753d b5ac 023e 508a 753d 2696 51bd

model.convs.1.1.convs.0.conv.weight f4 [32, 32, 1, 2]
-0.06673957 0.106529415 -0.094671175 -0.118076906 -0.0839176 -0.001774509 -0.08067096 0.025703825
-0.0046754703 -0.1115344 -0.014836401 -0.12645742 0.045693778 -0.004496683 -0.042326033 -0.08638178
0.12781179 0.017216757 -0.058774326 -0.07439018 0.10886868 -0.08560901 0.04019135 -0.113409705
0.044362865 -0.03000053 -0.037171826 -0.13025233 -0.06402941 0.08852666 -0.045391902 0.016684622
-0.10708186 -0.0839826 0.030048968 -0.10179129 0.05724946 -0.059518334 -0.02912435 -0.07125846
0.051742233 0.12250777 -0.051004205 -0.0664923 -0.07889441 -0.083561 0.07250153 -0.1392506
0.0077425647 0.116924115 -0.11529429 -0.048475128 0.11720065 -0.05712376 -0.02876847 -0.028917661
-0.055629365 -0.06289213 -0.053958256 0.020127352 -0.0038656525 -0.10599661 0.08063067 -0.08451112
-0.026124947 0.03147561 0.08986454 -0.0383013 0.06714599 -0.04482728 0.09215152 -0.065777145
-0.11587089 -0.11362983 0.11158313 0.071117945 -0.008575443 -0.03807562 0.06944846 -0.057064567
-0.10722095 -0.018305128 -0.10422569 -0.08933807 -0.08656727 -0.013924625 -0.047388397 -0.031891774
-0.009403514 0.10837935 0.01407474 -0.0047965557 -0.025515858 0.025470572 0.07398747 -0.07455995
-0.096051976 -0.11105619 0.08136112 -0.107080944 -0.0065819095 0.027083201 -0.016699681 -0.056678884
-0.015772311 -0.116797216 -0.011737115 0.061486833 0.014428278 -0.10801903 0.059745405 0.07854513
-0.1142789 -0.06246086 0.11705452 0.092443265 -0.11936278 0.10671927 0.046413947 0.016815536
0.12249615 0.07688452 -0.10571613 0.0042343005 -0.1027754 0.00403684 -0.0025730042 0.061925076
-0.1028497 0.03615702 -0.12300569 -0.0470768 -0.042636137 -0.015079507 -0.07329744 -0.030793289
-0.037163116 -0.049526446 0.048699483 0.078322105 -0.017660309 0.1013389 0.09289849 0.029817589
0.119671896 -0.1251656 -0.06799325 0.05235352 -0.040170383 -0.03612096 -0.0028123609 0.033193614
-0.10917036 -0.13375777 0.035773557 -0.032436416 -0.08553301 -0.0693948 -0.06653704 -0.10021696
-0.06498527 0.09584047 -0.026914895 -0.12564658 -0.043352563 0.049239367 -0.04172693 -0.07985016
-0.07041927 0.101806626 -0.07658765 0.08563679 -0.074388616 0.0445747 -0.101954214 -0.0004629538
-0.09754234 0.09861166 0.029371051 -0.0059426385 -0.034917675 0.10124103 0.07317523 -0.068492405
-0.11958129 -0.07689744 -0.11235106 0.07480833 0.115675636 0.06679341 0.04284641 -0.122958034
0.0014397451 -0.1294443 -0.0047133933 -0.0783356 0.024463495 -0.09408509 -0.05569712 -0.037274897
0.01749727 0.09218565 0.07233982 0.10703756 0.10228561 -0.09883645 0.07148044 -0.12017604
0.07676513 -0.015713172 -0.03691026 -0.0595946 -0.037214495 -0.07287538 0.04608293 -0.08508625
-0.0549917 0.08002521 0.018762682 0.12662983 -0.104983166 -0.01562707 -0.091722645 0.03103945
-0.0037147542 0.092804864 -0.11385977 0.11044349 -0.059534866 0.012228939 -0.12680233 -0.13613409
-0.0041289693 0.10759071 -0.039384227 -0.051583923 0.13029628 -0.021018162 0.08222468 -0.086198986
0.021170435 0.09196045 0.11435029 -0.06504376 -0.036896013 -0.022723556 0.09416038 -0.030127482
-0.012436644 0.0060735727 0.004886978 -0.086849116 -0.09281243 0.11393621 0.08544981 -0.12381037
00000000: c1ae 88bd 182c da3d f6e2 c1bd 4ed2 f1bd
00000010: fedc abbd a496 e8ba d136 a5bd d490 d23c
00000020: b034 99bb 266c e4bd 6014 73bc 0e7e 01be
00000030: 6629 3b3d e958 93bb 105e 2dbd eee8 b0bd
00000040: 18e1 023e 280a 8d3c 59bd 70bd e159 98bd
00000050: 8bf6 de3d c753 afbd af9f 243d 5943 e8bd
00000060: d6b5 353d acc3 f5bc 7c41 18bd de60 05be
00000070: da21 83bd 774d b53d dcec 39bd 30ae 883c
00000080: bc4d dbbd 12ff abbd 4129 f63c f477 d0bd
00000090: 697e 6a3d 7fc9 73bd 3096 eebc f5ef 91bd
000000a0: aaef 533d 5be5 fa3d c9e9 50bd 1d2d 88bd
000000b0: 6493 a1bd 0822 abbd af7b 943d b697 0ebe
000000c0: 57b5 fd3b e975 ef3d 6a1f ecbd db8d 46bd
000000d0: e506 f03d 9bfa 69bd dbab ebbc bbe4 ecbc
000000e0: 9edb 63bd 97cd 80bd 5503 5dbd 1ee2 a43c
000000f0: e356 7dbb c014 d9bd b121 a53d 2b14 adbd
00000100: fc03 d6bc 92ec 003d e60a b83d d3e1 1cbd
00000110: d683 893d cf9c 37bd f0b9 bc3d 2bb6 86bd
00000120: b84d edbd c2b6 e8bd b285 e43d 49a6 913d
00000130: 0480 0cbc 2ef5 1bbd ff3a 8e3d 89bc 69bd
00000140: a896 dbbd a3f4 95bc 4774 d5bd e1f6 b6bd
00000150: 2e4a b1bd 1c24 64bc 561a 42bd f3a0 02bd
00000160: 3211 1abc fef5 dd3d bd99 663c 6d2c 9dbb
00000170: a206 d1bc a9a7 d03c be86 973d e3b2 98bd
00000180: e6b6 c4bd 6e71 e3bd a9a0 a63d 414d dbbd
00000190: 0fad d7bb 97dd dd3c c5cd 88bc 1e28 68bd
000001a0: ef34 81bc 6133 efbd 074d 40bc 9ed9 7b3d
000001b0: 9664 6c3c 1539 ddbd 99b7 743d 45dc a03d
000001c0: 0e0b eabd f5d6 7fbd 48ba ef3d e552 bd3d
000001d0: 7974 f4bd a28f da3d 8d1c 3e3d bcc0 893c
000001e0: 43df fa3d a275 9d3d b381 d8bd e3bf 8a3b
000001f0: e97b d2bd 7847 843b d99f 28bb 26a5 7d3d
00000200: dda2 d2bd 6219 143d 68ea fbbd 9ad3 40bd
00000210: 3ba3 2ebd 0910 77bc f81c 96bd 3542 fcbc
00000220: 5a38 18bd 3edc 4abd 1c79 473d 5767 a03d
00000230: 5aac 90bc c58a cf3d 9041 be3d 0444 f43c
00000240: 8a16 f53d 692b 00be 0c40 8bbd a570 563d
00000250: b389 24bd 92f3 13bd 964f 38bb 07f6 073d
00000260: b694 dfbd ccf7 08be 4b87 123d 0cdc 04bd
00000270: ee2b afbd dc1e 8ebd 9244 88bd 8d3e cdbd
00000280: ff16 85bd 0248 c43d a07c dcbc 7fa9 00be
00000290: 7592 31bd 38af 493d dbe9 2abd 7b88 a3bd
000002a0: fa37 90bd fe7f d03d fcd9 9cbd 5762 af3d
000002b0: 0f59 98bd f693 363d 5fcd d0bd 9bb8 f2b9
000002c0: 47c4 c7bd e9f4 c93d 8f9b f03c 77ba c2bb
000002d0: d605 0fbd 7557 cf3d e5dc 953d bf45 8cbd
000002e0: 09e7 f4bd 687c 9dbd 5018 e6bd 1c35 993d
000002f0: 59e7 ec3d fcca 883d b87f 2f3d 6cd1 fbbd
00000300: d4b5 bc3a 0c8d 04be cf72 9abb 6a6e a0bd
00000310: ab67 c83c afaf c0bd aa22 64bd 90ad 18bd
00000320: 6f56 8f3c d4cb bc3d e626 943d 8236 db3d
00000330: 1e7b d13d c46a cabd 5664 923d db1e f6bd
00000340: 0937 9d3d e9b8 80bc 362f 17bd 7819 74bd
00000350: 3a6e 18bd b03f 95bd 74c1 3c3d b341 aebd
00000360: fa3e 61bd 42e4 a33d 32b4 993c 40ab 013e
00000370: 6a01 d7bd 5704 80bc 15d9 bbbd 7246 fe3c
00000380: 3c73 73bb 7a10 be3d 502f e9bd 3230 e23d
00000390: d5da 73bd e35b 483c 78d8 01be bc66 0bbe
000003a0: 4e4c 87bb 8558 dc3d 5b51 21bd aa49 53bd
000003b0: 636c 053e 482e acbc 6a65 a83d 1889 b0bd
000003c0: 9f6d ad3c c355 bc3d 7c30 ea3d aa35 85bd
000003d0: 4620 17bd c026 babc 28d7 c03d e9cd f6bc
000003e0: 11c3 4bbc d204 c73b f122 a03b f3dd b1bd
000003f0: 7114 bebd 6357 e93d 4f00 af3d 4b90 fdbd

model.convs.1.1.convs.0.conv.bias f4 [32]
-0.025141148 0.031880107 -0.06663545 -0.0066023516 0.02714996 0.1318858 0.09312864 -0.0384021
-0.0371301 -0.06903921 0.07496224 0.046919353 -0.0143169 -0.12920046 0.030728351 -0.08403915
0.05449056 -0.11659043 0.114665054 0.107661694 0.054499894 0.13940793 0.0873757 0.059058674
0.035593495 0.10888083 -0.002994992 -0.0053434763 0.10002391 -0.06867108 0.07887153 0.05570365
00000000: cff4 cdbc b794 023d 2b78 88bd 8a58 d8bb
00000010: 9869 de3c 120d 073e 3aba be3d 854b 1dbd
00000020: bb15 18bd 6e64 8dbd ce85 993d 822e 403d
00000030: 6e91 6abc 204d 04be 06ba fb3c b81c acbd
00000040: 7e31 5f3d f7c6 eebd 83d5 ea3d bc7d dc3d
00000050: 483b 5f3d f4c0 0e3e 08f2 b23d 82e7 713d
00000060: 7cca 113d eafc de3d a147 44bb 5418 afbb
00000070: 56d9 cc3d 6ca3 8cbd 6687 a13d 8329 643d

model.convs.1.1.convs.1.conv.weight f4 [32, 32, 1, 2]
-0.050846092 0.124599904 -0.124616556 0.021630172 0.06187422 -0.065573625 0.0108591495 -0.093347564
-0.08521103 0.14051954 0.07580098 -0.021160265 -0.0432937 -0.06617142 0.06953485 -0.04538735
0.06275451 0.010030754 0.10708529 -0.016805094 -0.036345907 0.12414787 0.016759655 0.04373873
0.113121204 -0.07752068 0.06323898 -0.08277353 -0.1156104 -0.09688582 -0.02250334 -0.06136093
0.0822114 -0.122759864 0.064250775 0.069800675 -0.13370876 0.08163113 0.09026043 -0.12580934
0.07455692 0.101926275 0.12705918 0.10942825 0.010442178 0.10748836 0.07753276 -0.100455254
0.063140355 0.09139251 0.049772345 0.0062517496 -0.030411677 0.10202891 0.07296997 0.13096493
-0.08772283 0.13084133 0.06167395 -0.04305358 0.00065843516 0.040165838 -0.09221532 0.066880405
-0.03357599 -0.093776844 0.136106 -0.065064594 0.061448533 -0.106639795 0.023161408 -0.047059737
-0.12949313 0.002075504 -0.1412662 -0.13209942 -0.021478243 -0.0903714 -0.08147844 -0.11054419
0.058368742 0.03811422 0.0025883792 0.10921773 0.064294055 0.02479434 -0.0028216229 -0.07556666
0.0064785085 0.10847369 0.08181425 0.057150148 -0.04975341 -0.019563243 -0.11463023 -0.13658327
0.07298737 -0.003236437 0.029551152 -0.0901292 0.06697625 0.056255296 0.043201946 0.11395437
-0.009733119 -0.12510478 -0.12908433 0.07394812 -0.1121232 -0.02096968 -0.028671343 -0.13265431
-0.097649574 -0.09635489 0.0021174129 -0.046751004 0.009894406 0.05419628 0.04952227 -0.08617465
0.0746439 0.039614495 0.059690017 0.11484055 0.0061128633 0.078654535 0.06603706 0.015400704
-0.14663248 -0.059825946 -0.041466493 -0.1133056 0.02095757 0.023840424 0.021764632 -0.021263767
0.013842479 0.071465015 0.017025352 0.07876791 -0.13794805 0.04247164 0.048474435 0.039408553
-0.035237823 -0.010855345 0.044582408 -0.037869245 0.018309904 -0.03743295 0.07290843 0.050324064
-0.02514196 0.08584706 -0.05025854 -0.06947094 0.020576991 -0.14341182 -0.0389484 -0.020009354
-0.10925532 -0.08404719 -0.09212206 0.037965707 -0.0028383385 0.11007339 0.00951667 0.10878131
0.026879588 -0.10358708 -0.095368266 0.0035210608 0.13143453 0.1073892 0.09594772 0.024740227
0.12521683 0.08858442 0.046655603 -0.031027898 0.036790423 0.079232275 -0.081242435 -0.07019565
-0.057262212 0.046927698 0.0031561833 0.09473032 0.08180361 0.069806285 -0.029443664 0.07519265
0.10769952 -0.07877499 -0.10342515 -0.04608904 -0.11936479 -0.08680763 0.044487756 -0.068814605
0.112353235 -0.12662567 0.045835495 0.029107885 -0.08263142 0.056481384 0.057602365 0.09973167
-0.023757303 -0.048874084 -0.13874863 0.04453207 0.05355995 0.02860157 0.105326064 -0.0066055753
0.09696391 -0.11003407 -0.08654823 0.08740822 -0.036669165 -0.0036893368 -0.002397342 0.060025476
-0.0023428777 0.051447153 0.050994005 -0.033195507 0.10359639 0.012476885 -0.028533166 -0.08518962
0.043676507 -0.1000935 0.060627867 0.042021137 0.02948355 -0.036885973 -0.00083358027 0.04789924
-0.09513973 -0.049911145 -0.12194411 -0.042039514 -0.020060308 -0.0991363 -0.0881135 0.07353386
0.031440273 0.061579287 0.10127058 0.024317669 -0.04639062 -0.012539877 -0.08751385 -0.117062934
00000000: fe43 50bd 3c2e ff3d f736 ffbd c231 b13c
00000010: d26f 7d3d 774b 86bd 93ea 313c 022d bfbd
00000020: 1f83 aebd 5be4 0f3e 8b3d 9b3d 4b58 adbc
00000030: bc54 31bd e284 87bd 4a68 8e3d 16e8 39bd
00000040: 7085 803d 0858 243c 884f db3d d6aa 89bc
00000050: 72df 14bd 3d41 fe3d 8b4b 893c 6227 333d
00000060: 17ac e73d 2ac3 9ebd 7083 813d 2b85 a9bd
00000070: 25c5 ecbd 136c c6bd ed58 b8bc 9955 7bbd
00000080: 735e a83d 8669 fbbd e995 833d a8f3 8e3d
00000090: f3ea 08be 392e a73d 76da b83d 2ad4 00be
000000a0: 4cb1 983d b9be d03d cd1b 023e eb1b e03d
000000b0: ab15 2b3c db22 dc3d 7fc9 9e3d 7cbb cdbd
000000c0: bb4f 813d ff2b bb3d 16de 4b3d 7adb cc3b
000000d0: e921 f9bc 88f4 d03d 4871 953d ac1b 063e
000000e0: 07a8 b3bd 45fb 053e d39d 7c3d f358 30bd
000000f0: d69a 2c3a ef84 243d 63db bcbd 98f8 883d
00000100: fa86 09bd 130e c0bd 5f5f 0b3e 9640 85bd
00000110: 75b1 7b3d f765 dabd febc bd3c b6c1 40bd
00000120: d999 04be 2e05 083b 16a8 10be 1245 07be
00000130: 24f3 afbc a414 b9bd 2bde a6bd fe64 e2bd
00000140: 1014 6f3d a81d 1c3d cca1 293b 8cad df3d
00000150: 9aac 833d 801d cb3c faea 38bb b1c2 9abd
00000160: ab49 d43b 7427 de3d 3b8e a73d 4616 6a3d
00000170: 3bca 4bbd 1843 a0bc 41c3 eabd 7cdc 0bbe
00000180: 677a 953d 671a 54bb 4215 f23c a895 b8bd
00000190: d82a 893d f46b 663d 86f4 303d e960 e93d
000001a0: a977 1fbc 781b 00be af2e 04be 1d72 973d
000001b0: d9a0 e5bd 9bc8 abbc 2ae0 eabc 88d6 07be
000001c0: 80fc c7bd b655 c5bd 4bc4 0a3b fb7d 3fbd
000001d0: 261c 223c ebfc 5d3d ddd7 4a3d 567c b0bd
000001e0: e7de 983d cf42 223d 857d 743d 8631 eb3d
000001f0: 6a4e c83b a115 a13d 703e 873d 3c53 7c3c
00000200: d326 16be 0d0c 75bd c5d8 29bd c40c e8bd
00000210: 36af ab3c fe4c c33c be4b b23c 5a31 aebc
00000220: 91cb 623c 405c 923d c078 8b3c 1251 a13d
00000230: 4142 0dbe bef6 2d3d 218d 463d dd6a 213d
00000240: 8955 10bd 9eda 31bc 0b9c 363d c81c 1bbd
00000250: a7fe 953c 4b53 19bd 0451 953d 9b20 4e3d
00000260: 83f6 cdbc 95d0 af3d e6db 4dbd c846 8ebd
00000270: 1491 a83c 8cda 12be 5c88 1fbd a8ea a3bc
00000280: 41c1 dfbd ef20 acbd 7eaa bcbd ee81 1b3d
00000290: 6b03 3abb 286e e13d cfeb 1b3c bcc8 de3d
000002a0: 9532 dc3c 7725 d4bd 7050 c3bd 99c1 663b
000002b0: c696 063e deee db3d 3d80 c43d 04ac ca3c
000002c0: d738 003e c06b b53d f219 3f3d 382e febc
000002d0: 8eb1 163d 8844 a23d 6f62 a6bd bdc2 8fbd
000002e0: c88b 6abd 4237 403d f8d7 4e3b f801 c23d
000002f0: a788 a73d 99f6 8e3d d733 f1bc 9bfe 993d
00000300: 9191 dc3d c854 a1bd 91d0 d3bd dcc7 3cbd
00000310: 8775 f4bd 33c8 b1bd cb38 363d acee 8cbd
00000320: 7419 e63d 29aa 01be 00be 3b3d a973 ee3c
00000330: a93a a9bd 0659 673d 75f0 6b3d 1e40 cc3d
00000340: ad9e c2bc 3130 48bd 1f14 0ebe 4367 363d
00000350: ae61 5b3d d74d ea3c 31b5 d73d 9573 d8bb
00000360: 0495 c63d 8b59 e1bd 3340 b1bd 1503 b33d
00000370: 6832 16bd cdc8 71bb b91c 1dbb 46dd 753d
00000380: f78a 19bb 40ba 523d 17df 503d 03f8 07bd
00000390: 582a d43d d96b 4c3c 63be e9bc e577 aebd
000003a0: 23e6 323d d2fd ccbd ed54 783d 5b1e 2c3d
000003b0: 7c87 f13c bf15 17bd a084 5aba fe31 443d
000003c0: 9ed8 c2bd a16f 4cbd d5bd f9bd a031 2cbd
000003d0: 8455 a4bc f907 cbbd da74 b4bd ec98 963d
000003e0: 84c7 003d 903a 7c3d f366 cf3d d935 c73c
000003f0: 1704 3ebd 0e74 4dbc 763a b3bd b1be efbd

model.convs.1.1.convs.1.conv.bias f4 [32]
-0.07906877 0.10449382 -0.0086872745 -0.008477985 0.0973969 -0.08645708 -0.10529077 0.101369835
-0.13381194 -0.05002993 0.07944149 0.055964127 -0.05671886 -0.035001684 0.06943239 0.07812599
-0.0788616 -0.009713529 -0.008919051 -0.0870839 -0.06465943 0.10812113 -0.046464484 -0.12039628
0.09583683 0.06583136 0.09266191 -0.03751028 0.09495644 -0.032753658 -0.0052641 0.0392681
00000000: cfee a1bd db00 d63d 1255 0ebc 3fe7 0abc
00000010: 0778 c73d 6910 b1bd b0a2 d7bd fd9a cf3d
00000020: ff05 09be 2fec 4cbd 38b2 a23d a43a 653d
00000030: 0952 68bd ed5d 0fbd 9232 8e3d 8500 a03d
00000040: 3182 a1bd 7e25 1fbc 3621 12bc 0b59 b2bd
00000050: 2a6c 84bd 9c6e dd3d 8b51 3ebd 5392 f6bd
00000060: 1a46 c43d 98d2 863d 87c5 bd3d 61a4 19bd
00000070: 8678 c23d b328 06bd 797e acbb 96d7 203d

model.convs.2.1.convs.0.conv.weight f4 [32, 32, 1, 2]
0.039456658 -0.08808637 -0.044094034 -0.03647938 0.052365247 -0.035390444 -0.07629968 -0.045488242
0.12106807 -0.074461274 -0.011809278 -0.033309314 -0.06288835 -0.10449761 0.064953476 -0.10777394
0.035446946 0.11456371 0.118832506 -0.112131774 0.03140745 -0.01448582 -0.019170737 0.091460414
0.08365612 -0.09569154 0.100026265 -0.032760933 -0.08548864 -0.11699165 0.09061679 0.09250929
0.09783628 0.03805138 -0.08156037 0.0066579776 -0.058374316 -0.00489574 -0.084385715 -0.07649487
-0.03994138 -0.11171611 0.027294679 -0.033583164 -0.09670415 0.11203467 0.029593756 0.060851317
0.030223608 0.039403513 0.013018507 -0.025336256 0.09344769 0.027210625 0.018608978 -0.0028260804
-0.08628962 -0.09694721 0.085768886 0.075059965 0.009728314 0.023202458 0.013613827 -0.08962845
-0.05850669 0.08995943 0.08325522 -0.0849549 0.05621111 0.062219452 -0.109725505 0.07530233
-0.09934057 0.11365488 -0.14487235 -0.03053156 -0.10481715 -0.06654118 -0.039396588 -0.006921642
-0.033413604 -0.058179855 -0.14701866 0.049570225 0.018878603 -0.060434595 0.11314855 0.018679518
-0.090844825 -0.0699334 -0.058909487 -0.112330385 -0.031904817 -0.04535423 0.12212659 0.14437124
-0.1109793 -0.075349845 -0.0816329 -0.032901213 -0.08545357 -0.027532807 -0.0781873 0.10605573
0.09700295 -0.07955794 0.006869751 -0.049490765 -0.047190085 -0.019956265 -0.029272957 0.05753872
0.01889532 -0.08657353 -0.017865805 -0.07013099 0.036681112 -0.03637698 -0.13150857 -0.011989233
0.010077093 -0.06692414 -0.00184927 -0.067752115 0.120902136 0.0773796 0.10530142 0.10307282
0.057738196 0.11010732 -0.022468746 -0.0316763 0.12686823 0.11864702 0.07311902 -0.018824523
0.048033934 -0.028026454 -0.028793555 -0.08010698 0.005397201 -0.013300306 0.049919937 -0.13073704
-0.031588916 -0.059571736 0.06320667 -0.07287397 0.10486531 0.022043245 0.0828904 0.07066812
-0.08781421 -0.051196482 -0.0805485 -0.07527189 0.09797119 -0.12026959 -0.034673743 -0.10146399
-0.108557515 0.022215731 -0.014523941 0.029163536 0.023430733 -0.0068406146 -0.100646555 -0.1336249
0.08471267 -0.06139376 0.027679862 -0.086604685 0.102322176 0.105301134 -0.06892497 -0.08224504
0.023158574 -0.13867646 0.025184443 -0.017320232 0.01686583 -0.021827487 0.04114713 0.13578309
0.025423305 0.0030579264 -0.11960224 0.11260698 -0.018259278 0.06031199 0.074125156 0.05865569
-0.100397974 -0.0002648604 -0.025802005 0.041042905 0.006184659 0.05078107 0.08845498 -0.018524362
0.079790376 0.038379557 0.004034093 0.005741892 -0.10030568 -0.049696025 0.08083647 0.026691029
0.0038505197 -0.01695474 -0.0060774945 0.0537397 -0.10550674 0.13714218 -0.043248944 -0.06616015
0.098184876 -0.017143957 -0.051745094 -0.092993066 -0.10169022 0.09636568 0.08499672 -0.064671166
-0.0461936 0.06583074 0.016437966 0.09151125 0.034165613 -0.10107383 0.04911899 0.09957764
0.029953511 0.11516323 -0.012459045 -0.06227215 0.058316074 0.1088534 0.08821619 0.019085309
0.026426662 0.0874043 -0.022312991 -0.0006288799 0.022785373 0.068324886 -0.12555073 0.05561205
-0.090558894 0.08065224 0.02967065 -0.012888595 -0.112473294 -0.018494627 -0.08911825 -0.0007465403
00000000: 4e9d 213d a066 b4bd f29b 34bd 676b 15bd
00000010: f17c 563d 92f5 10bd 0243 9cbd e151 3abd
00000020: 89f2 f73d 277f 98bd b47b 41bc 596f 08bd
00000030: 9bcb 80bd d802 d6bd 5406 853d 95b8 dcbd
00000040: d130 113d 61a0 ea3d 755e f33d 58a5 e5bd
00000050: 19a5 003d ef55 6dbc f30b 9dbc 994f bb3d
00000060: e653 ab3d edf9 c3bd 92da cc3d 5430 06bd
00000070: ab14 afbd 5199 efbd 4c95 b93d 8375 bd3d
00000080: 635e c83d c4db 1b3d 2009 a7bd 2a2b da3b
00000090: e819 6fbd 726c a0bb 6bd2 acbd 58a9 9cbd
000000a0: 9399 23bd 6acb e4bd 1799 df3c 808e 09bd
000000b0: d30c c6bd 6f72 e53d 9b6e f23c 3b3f 793d
000000c0: 8097 f73c 9465 213d 934b 553c fb8d cfbc
000000d0: 8161 bf3d d1e8 de3c db71 983c c335 39bb
000000e0: 9db8 b0bd 428c c6bd 99a7 af3d 0ab9 993d
000000f0: 8263 1f3c 1513 be3c 870c 5f3c 1f8f b7bd
00000100: b6a4 6fbd a63c b83d b681 aa3d d6fc adbd
00000110: 9f3d 663d d3d9 7e3d c4b7 e0bd 1c38 9a3d
00000120: 1273 cbbd e4c3 e83d 6b59 14be 521d fabc
00000130: 60aa d6bd be46 88bd 515e 21bd f1ce e2bb
00000140: b4dc 08bd 004e 6ebd 0f8c 16be 260a 4b3d
00000150: 4da7 9a3c 448a 77bd 6dba e73d ca05 993c
00000160: da0c babd 3e39 8fbd 134b 71bd 790d e6bd
00000170: a0ae 02bd 5bc5 39bd 811d fa3d 0ed6 133e
00000180: 1e49 e3bd 0551 9abd 262f a7bd 6cc3 06bd
00000190: 4802 afbd 7b8c e1bc aa20 a0bd bf33 d93d
000001a0: 7ca9 c63d 46ef a2bd a61b e13b d4b6 4abd
000001b0: 644a 41bd 527b a3bc d7cd efbc b9ad 6b3d
000001c0: 5cca 9a3c 774d b1bd 4f5b 92bc d6a0 8fbd
000001d0: ef3e 163d 0700 15bd 2faa 06be 7d6e 44bc
000001e0: 641a 253c 860f 89bd 3463 f2ba 9fc1 8abd
000001f0: 8a9b f73d 3279 9e3d 45a8 d73d d817 d33d
00000200: e37e 6c3d f27f e13d 6010 b8bc 02bf 01bd
00000210: bfe9 013e 35fd f23d 6dbf 953d e335 9abc
00000220: 3bbf 443d bc97 e5bc 76e0 ebbc 210f a4bd
00000230: 01db b03b 87e9 59bc d978 4c3d eedf 05be
00000240: 6163 01bd 7e01 74bd 8072 813d f33e 95bd
00000250: a0c3 d63d 0994 b43c 71c2 a93d 73ba 903d
00000260: f0d7 b3bd 67b3 51bd 9df6 a4bd 2628 9abd
00000270: 1fa5 c83d e74f f6bd 0e06 0ebd 5acc cfbd
00000280: 6753 debd c4fd b53c d3f5 6dbc 5ee8 ee3c
00000290: cff1 bf3c 3c27 e0bb c81f cebd f7d4 08be
000002a0: d67d ad3d 0678 7bbd e1c0 e23c cc5d b1bd
000002b0: 4a8e d13d 1fa8 d73d 8928 8dbd 1670 a8bd
000002c0: 0db7 bd3c 3401 0ebe 9b4f ce3c 29e3 8dbc
000002d0: 362a 8a3c 8fcf b2bc e589 283d b90a 0b3e
000002e0: 8944 d03c 7e67 483b 05f2 f4bd 7d9e e63d
000002f0: 7b94 95bc b509 773d eece 973d f340 703d
00000300: 749d cdbd f6dc 8ab9 ba5e d3bc 9b1c 283d
00000310: aea8 ca3b d0ff 4f3d e227 b53d 67c0 97bc
00000320: 2369 a33d e233 1d3d 6d30 843b 7b26 bc3b
00000330: 106d cdbd 0f8e 4bbd 978d a53d 25a7 da3c
00000340: 0059 7c3b abe4 8abc b825 c7bb 291e 5c3d
00000350: eb13 d8bd 006f 0c3e ce25 31bd f97e 87bd
00000360: 2715 c93d 7c71 8cbc aaf2 53bd 2673 bebd
00000370: f642 d0bd 5f5b c53d c312 ae3d 5172 84bd
00000380: 8035 3dbd 44d2 863d eaa8 863c 406a bb3d
00000390: 3ef1 0b3d ccff cebd fe30 493d 5def cb3d
000003a0: 1161 f53c b3da eb3d 0621 4cbc 1511 7fbd
000003b0: d6dc 6e3d 88ee de3d b1aa b43d cb58 9c3c
000003c0: ba7c d83c 0701 b33d bcc9 b6bc 6adb 24ba
000003d0: 64a8 ba3c ebed 8b3d 5f90 00be 76c9 633d
000003e0: f176 b9bd 002d a53d dd0f f33c b02a 53bc
000003f0: 6658 e6bd 0b82 97bc a183 b6bd 79b3 43ba

model.convs.2.1.convs.0.conv.bias f4 [32]
-0.075388536 0.05305806 -0.0717479 -0.09135329 -0.11014421 -0.089237526 -0.031176323 -0.060480427
-0.08748761 0.07855925 0.03086213 0.10543465 0.06856358 -0.07850495 -0.07210403 0.01835572
-0.09609827 -0.09036784 0.10711608 0.05552961 -0.018253164 -0.049976833 -0.049505588 -0.009011908
0.1351566 -0.092069484 -0.031635728 0.08075438 0.029043013 0.100868054 0.068473116 -0.08371975
00000000: 4e65 9abd 6953 593d 90f0 92bd 6f17 bbbd
00000010: 4a93 e1bd 2ac2 b6bd 7d65 ffbc 53ba 77bd
00000020: b42c b3bd ace3 a03d 94d2 fc3c 1fee d73d
00000030: 106b 8c3d 34c7 a0bd 47ab 93bd bc5e 963c
00000040: 2bcf c4bd c612 b9bd ad5f db3d 0473 633d
00000050: a987 95bc 82b4 4cbd 5fc6 4abd afa6 13bc
00000060: 7e66 0a3e ed8e bcbd 7794 01bd 8d62 a53d
00000070: 9deb ed3c e993 ce3d a23b 8c3d 4375 abbd

model.convs.2.1.convs.1.conv.weight f4 [32, 32, 1, 2]
0.00787577 0.068355754 -0.043065354 0.08407822 -0.06883811 -0.085708104 0.025771195 0.07986742
0.010158108 0.028709957 0.064750716 0.05445614 -0.07886467 -0.043295242 0.079081014 -0.06307058
-0.098506734 0.01908986 -0.061205927 -0.03892638 -0.03209172 0.09126291 0.02673572 -0.099926345
-0.044457242 -0.116170816 0.08661005 0.057401255 0.043980613 -0.039012004 0.074546315 0.04909229
-0.06667449 -0.09175632 -0.086065255 0.006512195 -0.0444713 -0.09326851 0.030450525 0.007086472
0.009255358 0.10131028 -0.07771155 -0.0031075478 0.010952996 -0.04651992 0.026758507 0.025338039
-0.07182646 -0.10397023 -0.017600164 -0.07019442 0.017114045 -0.056106668 -0.054350752 -0.05825084
0.073922426 -0.03443187 -0.107049555 0.100544535 0.04216929 -0.04550607 0.045312196 0.021453634
0.039144788 -0.0072928644 0.08903599 0.049933802 -0.084757395 0.098240174 -0.041928966 0.10182157
0.06355236 -0.07352758 -0.12272571 0.03651944 0.09886839 0.1091851 0.1260392 -0.04474452
-0.109756276 0.040187944 0.04408225 0.10371903 0.105693914 0.005374959 -0.0993777 0.027053785
0.038135435 0.111215934 -0.018203637 -0.0023146588 -0.0616427 -0.02774207 -0.022184083 -0.0145752
-0.09683464 0.017122978 -0.050691113 -0.06376971 0.027976444 0.01562764 -0.0042587854 0.008356305
-0.097517565 0.030040776 0.09696703 0.033700027 -0.04408798 -0.012286478 0.07586445 0.103723116
-0.04032621 0.043134857 0.13088088 -0.007218616 0.058752574 0.0331566 0.10274329 0.06255618
0.04991617 0.087409526 -0.067736916 0.09314527 0.01952887 -0.11515187 -0.038060136 0.061729252
-0.01307936 -0.076207876 -0.014429534 0.08416031 0.11337002 0.0998444 0.03977514 -0.013149583
0.12525849 -0.060844723 -0.10980454 -0.075165115 0.112985365 0.108230084 0.08206731 -0.10510762
-0.012203097 0.06124919 0.10675722 0.0067344317 0.037069693 0.10528536 -0.04542811 -0.04939595
0.1277909 -0.11229973 -0.042209625 0.108216174 0.008435162 -0.14462872 -0.116021015 -0.021040551
-0.012444898 -0.048373196 0.026020888 -0.04548091 -0.024545876 -0.10293623 0.08457602 -0.101641215
-0.062287148 0.035532773 0.08334748 0.05269195 -0.13373426 0.09064803 0.003948769 -0.09364528
-0.10288975 0.051036254 0.014868476 -0.09418892 -0.013027875 0.025562996 0.055172462 -0.08396737
-0.037935533 0.03191336 0.10451636 0.088989116 -0.00029852582 0.0736619 -0.07403739 -0.07621035
0.014092328 0.1086792 0.09322012 0.11210149 -0.04570775 -0.04232265 -0.060486134 -0.060518943
0.106216386 0.024911385 0.09487698 0.075037576 -0.13590027 -0.078460224 0.060183365 -0.12469738
0.0011165049 -0.02553556 0.0077483044 0.0711345 0.072293006 -0.12759355 -0.11182815 -0.10779269
-0.051169828 0.11520859 -0.0024603656 0.10460051 -0.12116845 -0.12889361 0.005506069 -0.039162256
-0.04744234 -0.11232982 -0.0039043452 0.052900787 0.07254067 0.071266435 -0.07673909 0.07424875
-0.010841814 0.067273304 -0.07610684 -0.102938816 -0.036066987 -0.07373485 -0.014631304 -0.050463524
-0.10134974 0.029045487 -0.06701833 -0.12989627 0.07359435 0.088316076 0.032088004 -0.08088843
-0.11874377 -0.003825849 -0.03926345 -0.04255582 0.046164397 0.09741144 0.032093346 -0.118679896
00000000: 6009 013c 1afe 8b3d 4c65 30bd 3431 ac3d
00000010: fffa 8cbd bb87 afbd 1d1e d33c 8891 a33d
00000020: 316e 263c 2531 eb3c 069c 843d 670d 5f3d
00000030: cd83 a1bd 5a56 31bd 3af5 a13d 262b 81bd
00000040: e6bd c9bd 5762 9c3c 11b3 7abd 4571 1fbd
00000050: 9b72 03bd 0ce8 ba3d de04 db3c 2fa6 ccbd
00000060: cc18 36bd f7ea edbd 9c60 b13d 941d 6b3d
00000070: 0425 343d 0dcb 1fbd bdab 983d ff14 493d
00000080: a38c 88bd bdea bbbd fb42 b0bd 4064 d53b
00000090: 8a27 36bd 9003 bfbd 6173 f93c a335 e83b
000000a0: c9a3 173c c47b cf3d 3c27 9fbd 00a8 4bbb
000000b0: 3274 333c ac8b 3ebd a834 db3c b891 cf3c
000000c0: c019 93bd 58ee d4bd 382e 90bc 18c2 8fbd
000000d0: c132 8c3c 1bd0 65bd e59e 5ebd 6f98 6ebd
000000e0: a464 973d 6f08 0dbd cc3c dbbd 4bea cd3d
000000f0: b5b9 2c3d 9364 3abd 4899 393d 88bf af3c
00000100: 4956 203d fbf8 eebb 8058 b63d 6387 4c3d
00000110: 4995 adbd 2532 c93d b5bd 2bbd d487 d03d
00000120: bd27 823d a195 96bd 9e57 fbbd 6995 153d
00000130: 837b ca3d 709c df3d 6c10 013e 0846 37bd
00000140: e6c7 e0bd 1d9c 243d 978f 343d a56a d43d
00000150: 0d76 d83d 6d20 b03b 8986 cbbd e69f dd3c
00000160: e733 1c3d 2ec5 e33d cb1f 95bc 88b1 17bb
00000170: 0e7d 7cbd 5643 e3bc 65bb b5bc d2cc 6ebc
00000180: 3d51 c6bd 7d45 8c3c 7ca1 4fbd b299 82bd
00000190: db2e e53c 8905 803c 488d 8bbb e2e8 083c
000001a0: 4ab7 c7bd 1318 f63c a696 c63d 0a09 0a3d
000001b0: 9995 34bd 394d 49bc d25e 9b3d c96c d43d
000001c0: 192d 25bd 2dae 303d a305 063e 248a ecbb
000001d0: 8aa6 703d 37cf 073d 136b d23d 741d 803d
000001e0: e674 4c3d c403 b33d a7b9 8abd f3c2 be3d
000001f0: 02fb 9f3c bed4 ebbd f2e4 1bbd d0d7 7c3d
00000200: d04a 56bc e012 9cbd da69 6cbc 3e5c ac3d
00000210: 8b2e e83d 397b cc3d 42eb 223d 5971 57bc
00000220: c343 003e 5138 79bd 34e1 e0bd 2bf0 99bd
00000230: df64 e73d bca7 dd3d e812 a83d aa42 d7bd
00000240: 80ef 47bc 6ee0 7a3d 88a3 da3d 82ac dc3b
00000250: 64d6 173d da9f d73d d312 3abd 6853 4abd
00000260: 9edb 023e 67fd e5bd 00e4 2cbd 71a0 dd3d
00000270: a233 0a3c 8d19 14be 6d9c edbd 3c5d acbc
00000280: afe5 4bbc f922 46bd c229 d53c 314a 3abd
00000290: 6f14 c9bc 3bd0 d2bd 3136 ad3d 4529 d0bd
000002a0: cf20 7fbd d08a 113d 15b2 aa3d 84d3 573d
000002b0: a2f1 08be ada5 b93d ad64 813b 19c9 bfbd
000002c0: dcb7 d2bd 640b 513d e99a 733c 1fe6 c0bd
000002d0: de72 55bc 7d69 d13c 85fc 613d 16f7 abbd
000002e0: 4a62 1bbd 95b7 023d ac0c d63d ed3f b63d
000002f0: 7583 9cb9 0ddc 963d eaa0 97bd 2c14 9cbd
00000300: 82e3 663c 3393 de3d 31ea be3d 7795 e53d
00000310: 0d38 3bbd 845a 2dbd 4fc0 77bd b6e2 77bd
00000320: fa87 d93d f612 cc3c dd4e c23d 4dad 993d
00000330: 7129 0bbe c1af a0bd d582 763d 5761 ffbd
00000340: b057 923a f32f d1bc 7de5 fd3b f7ae 913d
00000350: 5b0e 943d e2a7 02be 2806 e5bd 6ac2 dcbd
00000360: 7497 51bd 7bf2 eb3d 163e 21bb cb38 d63d
00000370: 2a27 f8bd b0fc 03be 416c b43b 9a68 20bd
00000380: e652 42bd 2d0d e6bd 0be0 7fbb 7fae 583d
00000390: 3490 943d 23f4 913d 6229 9dbd bb0f 983d
000003a0: dda1 31bc 96c6 893d e7dd 9bbd 96d1 d2bd
000003b0: faba 13bd 4c02 97bd 23b8 6fbc d7b2 4ebd
000003c0: 7490 cfbd cdf0 ed3c e840 89bd 8703 05be
000003d0: a2b8 963d 0fdf b43d b66e 033d d5a8 a5bd
000003e0: ef2f f3bd 18bb 7abb b6d2 20bd 034f 2ebd
000003f0: e116 3d3d a67f c73d 5074 033d 720e f3bd

model.convs.2.1.convs.1.conv.bias f4 [32]
-0.026392084 0.09538038 0.11473661 -0.027102292 0.01162617 0.08745521 0.11030723 0.030181924
-0.06364825 -0.120064706 -0.12395611 0.054625712 0.03543946 0.10247455 -0.10072952 0.089174785
0.0008990421 0.08867871 0.019842349 -0.04903602 -0.04529037 -0.122713886 0.03357798 0.06928389
-0.06526395 0.0023785448 -0.08486732 -0.084906675 -0.10870064 -0.10765752 0.0026225436 0.06703232
00000000: 3634 d8bc ca56 c33d 07fb ea3d a005 debc
00000010: b17b 3e3c b81b b33d c2e8 e13d 1540 f73c
00000020: 045a 82bd 7ce4 f5bd b3dc fdbd 36bf 5f3d
00000030: f828 113d 2dde d13d 474b cebd 45a1 b63d
00000040: b2ad 6b3a 2f9d b53d 6c8c a23c fed9 48bd
00000050: 6582 39bd 6b51 fbbd 1089 093d b6e4 8d3d
00000060: 1ba9 85bd 5ce1 1b3b ebce adbd 8de3 adbd
00000070: 719e debd 8c7b dcbd fbde 2b3b 3e48 893d
