code/logs/epoch=0-step=18.ckpt (torch, 249178 bytes, 63 tensors)

model.input_encoder.weight f4 [32, 1]
0	0xbe36f96a	-0.17868581
1	0x3f380c9f	0.7189426
2	0x3de3c976	0.1112241
3	0xbf01fd22	-0.50776875
4	0xbe435ced	-0.19078417
5	0xbf5e6f90	-0.8688898
6	0xbf4ed751	-0.80797297
7	0x3e885263	0.26625356
8	0xbf3bb385	-0.733208
9	0x3e880243	0.26564226
10	0x3f07ff47	0.531239
11	0xbf408635	-0.75204784
12	0x3e8828fc	0.2659377
13	0xbf25332f	-0.64531225
14	0x3d9b885f	0.0759437
15	0xbf336633	-0.7007782
16	0x3e8606b0	0.26176977
17	0x3ec4e3aa	0.38454944
18	0xbf2f8294	-0.6855862
19	0xbf742bf0	-0.95379543
20	0x3ed03c3d	0.40670958
21	0x3de46220	0.11151528
22	0xbf405606	-0.7513126
23	0xbf4e1e17	-0.80514663
24	0x3df05ac9	0.11736066
25	0xbf21e11f	-0.6323413
26	0x3eaac21c	0.3335122
27	0xbf38d6b1	-0.72202593
28	0x3f039752	0.5140277
29	0xbeec1bf1	-0.46115068
30	0xbf7a26b8	-0.9771533
31	0xbf5e34e7	-0.8679947

model.input_encoder.bias f4 [32]
0	0xbf1ee273	-0.62064284
1	0xbf57cf20	-0.8430042
2	0xbf63282e	-0.88733184
3	0xbf13aea0	-0.5768833
4	0xbe8b6338	-0.27224135
5	0xbf217ab6	-0.6307787
6	0xbf2e779a	-0.6815125
7	0xbe018fbe	-0.1265249
8	0x3f2a1665	0.6644042
9	0x3eef8beb	0.46786436
10	0xbe99279d	-0.29913035
11	0x3db06931	0.08613814
12	0x3f773d30	0.9657774
13	0xbc7f4f31	-0.015582846
14	0xbeeeea16	-0.46662968
15	0x3ed37598	0.41300654
16	0x3edf3063	0.43591604
17	0x3f48433e	0.78227603
18	0x3c93e78a	0.018054742
19	0xbf7358a1	-0.9505711
20	0xbf0f37ee	-0.55944717
21	0x3e5166c1	0.20449354
22	0x3da5a74e	0.080885515
23	0x3ee71754	0.45134985
24	0xbf4bc179	-0.7959209
25	0xbdc2bc6a	-0.095085934
26	0x3f796271	0.97415835
27	0x3cd6c182	0.026215319
28	0x3ea5c52e	0.32377
29	0x3e4bf50f	0.19917701
30	0x3f6856c2	0.9075738
31	0xbeb40a91	-0.35164312

model.convs.0.1.convs.0.conv.weight f4 [32, 32, 1, 2]
0	0xbd9b26c5	-0.07575754
1	0xbdf7b62d	-0.12095294
2	0xbda96ee6	-0.08273105
3	0x3d9f27a8	0.07771236
4	0x3d21cdc3	0.03950287
5	0xbcb7c4cf	-0.022432713
6	0x3d9b577a	0.07585044
7	0x3db66aa2	0.08907057
8	0x3d73f98f	0.05956417
9	0x3de2f715	0.110822834
10	0xbd601262	-0.05470503
11	0x3d98738d	0.074439146
12	0xbc931f69	-0.017959313
13	0xbc7cc3f0	-0.0154275745
14	0x3d5471b6	0.051866256
15	0x3dc414a7	0.095742516
16	0xbdc107ab	-0.09425291
17	0x3c395e87	0.011314041
18	0x3d0a559e	0.033773057
19	0x3d4ef806	0.050529502
20	0x3d458bd6	0.04822906
21	0x3daa2835	0.0830845
22	0x3dc2bfa5	0.095092095
23	0x3da18d5c	0.0788829
24	0x3df996e8	0.12186986
25	0x3cef1bb8	0.029188022
26	0x3d8f40a2	0.069947496
27	0xbd8f06f2	-0.069837466
28	0x3cc503f8	0.024049744
29	0x3c8385fa	0.016055096
30	0xbc5750e1	-0.013141842
31	0x3c5126d7	0.012765608
32	0xbdb8332b	-0.089941345
33	0xbd830672	-0.06397714
34	0xbb349faa	-0.0027560988
35	0xbaab0ef4	-0.0013050721
36	0x3dc097c6	0.094039485
37	0xbd1e5365	-0.03865375
38	0xbd0ca0c6	-0.034333013
39	0x3cb5e235	0.02220259
40	0x3dd2f94d	0.103014566
41	0xbde39ae6	-0.11113529
42	0x3d8b20f9	0.067933984
43	0x3de0b8a1	0.10972715
44	0x3dd79180	0.10525799
45	0x3ca45967	0.020062162
46	0x3d2656e7	0.04061022
47	0x3bf1da92	0.007380792
48	0xbdcb5c99	-0.09929771
49	0x3ca48704	0.020083912
50	0x3dbee20f	0.09320461
51	0xbddaa7f3	-0.10676565
52	0xbdd424f1	-0.103586085
53	0x3da57f3f	0.08080911
54	0xbb2fb157	-0.0026808584
55	0x3c88428f	0.0166333
56	0xbd60282f	-0.054725822
57	0xbd8ffb45	-0.07030348
58	0x3c1601f2	0.009155737
59	0x3df761fb	0.12079235
60	0xbd539193	-0.051652502
61	0x3de15768	0.110029995
62	0x3c889ced	0.01667639
63	0x3de7dabf	0.113210194
64	0x3dac242c	0.08405337
65	0x3d793d42	0.060849436
66	0x3bc4e0e8	0.006008256
67	0xbdeb37aa	-0.114852265
68	0xbcdf6b81	-0.027272942
69	0x3c61ab96	0.013773819
70	0xbdac7e64	-0.084225446
71	0xbe03826d	-0.12842722
72	0x3cac346f	0.021021096
73	0xbc1f05d5	-0.00970598
74	0x3d0c3d37	0.034238067
75	0x3d1c7b4c	0.038203523
76	0xbdc4c0a0	-0.09607053
77	0x3d27d2d2	0.04097254
78	0xbbb0a3d4	-0.0053906236
79	0x3d1595f2	0.036519952
80	0x3e07b911	0.13254191
81	0xbdd98881	-0.10621739
82	0x3aa67b4c	0.001270154
83	0x3d560bf6	0.0522575
84	0xbd8ce62e	-0.06879841
85	0xbd80f618	-0.06296939
86	0xbcf91340	-0.030404687
87	0x3d6667cf	0.056251343
88	0x3daec702	0.085340515
89	0x3dbbc140	0.09167719
90	0xbce2cd4c	-0.027685784
91	0xbdeacb0d	-0.1146451
92	0xbd25a6ba	-0.040442206
93	0x3dba7e49	0.09106118
94	0xbd2985b5	-0.04138728
95	0x3d66defc	0.056365
96	0xbc395193	-0.011310953
97	0x3c7f1456	0.015568813
98	0xbdce2618	-0.100658596
99	0x3dbfe20f	0.09369289
100	0x3ccd7df5	0.025084475
101	0xbd35da7e	-0.044397824
102	0x3d85fb96	0.06542127
103	0xbd6a0f03	-0.057143223
104	0xbdd916df	-0.106000654
105	0xbc653ba8	-0.013991274
106	0xbdce8514	-0.100839764
107	0xbd78c104	-0.06073095
108	0xbb2bf675	-0.002623943
109	0xbc464945	-0.01210243
110	0xbda500db	-0.08056804
111	0xbdcddf1e	-0.10052322
112	0xbd40eac4	-0.04709889
113	0x3c607771	0.013700352
114	0x3cbaf4ea	0.022821862
115	0xbd5640e1	-0.052307967
116	0x3d83e548	0.06440216
117	0xbdafc8d3	-0.08583226
118	0x3d49cdac	0.04926841
119	0xbc6ba75d	-0.014383164
120	0xbc9c434b	-0.019075057
121	0xbce8426b	-0.028351983
122	0x3d8ffc2d	0.070305206
123	0xbc30c22f	-0.0107884845
124	0xbd81643f	-0.063179485
125	0xbc837176	-0.016045313
126	0xbd8bf9d2	-0.06834759
127	0xbc0ee974	-0.008722652
128	0xbd0ae2f6	-0.033907853
129	0x3d2c5e15	0.04208191
130	0xbdd581cf	-0.1042515
131	0xbd80892a	-0.06276162
132	0x3dd01b47	0.10161453
133	0x3d952a61	0.07283474
134	0x3d13eca6	0.036114357
135	0x3dec9dfd	0.115535714
136	0x3d72fb2a	0.05932156
137	0xbdc0c4f9	-0.094125696
138	0x3d62d482	0.055378444
139	0x3db44495	0.088021435
140	0xbd980bae	-0.07424103
141	0x3d9ff19f	0.078097574
142	0x3cc4c8eb	0.024021586
143	0xbdc0cc81	-0.09414006
144	0x3ca69f6b	0.020339688
145	0xbdb65353	-0.089026116
146	0x3da4cf04	0.080472976
147	0xbd43f49a	-0.047840692
148	0x3d77d546	0.060506128
149	0x3dc022b4	0.09381619
150	0x3d056ca0	0.032574296
151	0x3c1bea7a	0.009516353
152	0xbd9dd88d	-0.077073194
153	0x3c802e6c	0.015647136
154	0x3d1e2a6b	0.03861467
155	0x3de82d02	0.113367096
156	0x3cbd01a4	0.023072071
157	0xbd1e6631	-0.038671676
158	0x3b162513	0.0022910282
159	0x3d98c1d2	0.07458843
160	0xbc4779ab	-0.012175004
161	0xbcae9722	-0.0213123
162	0xbdd0c0d8	-0.10193032
163	0xbdfe0e95	-0.12405125
164	0xbd8ab4c2	-0.06772758
165	0x3be7f34e	0.0070785647
166	0xbd63c5ee	-0.055608682
167	0xbd267a1d	-0.0406438
168	0xbde6a68a	-0.112622336
169	0x3e003ea4	0.12523896
170	0xbdef0454	-0.116707474
171	0xbe0381f7	-0.12842546
172	0xbd8cb407	-0.06870275
173	0xbd4ac676	-0.049505673
174	0x3dcfe869	0.101517506
175	0x3d1bc83f	0.038032766
176	0x3d60191a	0.05471144
177	0xbd813482	-0.06308843
178	0xbd629212	-0.055315085
179	0x3dee75f2	0.1164359
180	0xbd19d59a	-0.037557222
181	0x3d03cee7	0.03217974
182	0x3d195180	0.03743124
183	0x3df0e277	0.11761945
184	0xbdd5795a	-0.104235366
185	0x3d920261	0.0712936
186	0x3dd61545	0.104532756
187	0xbde07f59	-0.1096179
188	0x3d4fc77a	0.050727345
189	0xbde09446	-0.10965781
190	0x3dc73310	0.09726536
191	0xbc4fcf15	-0.01268365
192	0x3cf119a0	0.029431164
193	0xbd330d53	-0.04371388
194	0xbdf07397	-0.11740797
195	0xbe0bd706	-0.13656244
196	0xbda01dfa	-0.078182176
197	0xbcf21c9c	-0.029554658
198	0x3dd89e54	0.10577074
199	0xbc48066a	-0.0122085605
200	0x3d25f080	0.04051256
201	0xbd83bf8e	-0.064330205
202	0xbdca76b0	-0.09885919
203	0x3d0a3a60	0.033747077
204	0xbb56d50a	-0.003278079
205	0xbdef3423	-0.11679866
206	0x3dd15ac5	0.10222391
207	0x3d0b342e	0.03398531
208	0x3d5327bc	0.051551566
209	0x3d0a7e27	0.033811715
210	0xbd57bcfb	-0.05267046
211	0x3d158bc1	0.036510233
212	0x3dbca38e	0.09210883
213	0xbde72558	-0.1128642
214	0xbdca6544	-0.09882596
215	0xbde1bb95	-0.110221066
216	0xbd662e88	-0.05619672
217	0x3bb9f744	0.0056752283
218	0xbd82d778	-0.06388754
219	0x39f561a5	0.00046802792
220	0xbce3c1a4	-0.027802296
221	0xbd26d627	-0.040731575
222	0x3d821739	0.063520856
223	0xbc057af6	-0.008146992
224	0x3d11230f	0.035433825
225	0xbdae02e3	-0.08496644
226	0xbd4cc757	-0.049994793
227	0x39a4ce1b	0.00031434078
228	0x3dd0c5a3	0.10193946
229	0x3d9c5408	0.07633215
230	0xbdc5c717	-0.09657114
231	0x3d606750	0.054786026
232	0x3d8af486	0.067849204
233	0xbc30635a	-0.010765875
234	0xbcbd84cc	-0.023134612
235	0x3d77a68e	0.060461573
236	0xbdbc9e62	-0.092098966
237	0xbc9de21d	-0.019272858
238	0xbd7aab19	-0.061198328
239	0x3c9a690f	0.018848924
240	0xbd06f835	-0.032951552
241	0xbd75d8e7	-0.060021307
242	0xbcdd91c0	-0.027047038
243	0x3ca22d16	0.01979689
244	0xbd44a09e	-0.04800474
245	0x3d09d15f	0.033646937
246	0x3b5f61a3	0.0034085296
247	0x3e01cf20	0.12676668
248	0x3d9f39f8	0.077747285
249	0xbdff04eb	-0.1245211
250	0x3d210bf0	0.039318025
251	0x3e0c858f	0.13722824
252	0xbdae5914	-0.08513084
253	0xbdcd629a	-0.100285724
254	0x3cc53da9	0.024077253
255	0x3dfe57f3	0.12419119

model.convs.0.1.convs.0.conv.bias f4 [32]
0	0x3c582adb	0.013193811
1	0x3d3f4928	0.046700627
2	0xbd0f5dc4	-0.03500153
3	0xbd3a998d	-0.045556594
4	0x3d55a89f	0.052162763
5	0x3cbe6a83	0.023244148
6	0x3de05316	0.109533474
7	0xbc98a1f4	-0.018631913
8	0x3dc23c4f	0.09484159
9	0xbdcba6fb	-0.09943958
10	0x3d2f1c7f	0.042751785
11	0xbd9d08c6	-0.07667689
12	0xbe072616	-0.13198122
13	0x3c9adf1d	0.018905217
14	0x3af1d46f	0.0018450151
15	0xbdbfed87	-0.093714766
16	0x3d9a2541	0.07526637
17	0x3df26900	0.118364334
18	0xbcf1f9eb	-0.029538115
19	0xbd74312a	-0.0596172
20	0x3dcd18d2	0.100145
21	0xbdf7c445	-0.12097982
22	0x3dcffadc	0.101552695
23	0x3d555784	0.052085415
24	0x3cfc1f2d	0.030776585
25	0x3d1df67f	0.038565155
26	0x3d882f4f	0.066496484
27	0xbc2e2dca	-0.010631034
28	0xbdb23179	-0.087008424
29	0xbbba686e	-0.0056887185
30	0x3dc4ca6a	0.0960892
31	0xbd984223	-0.074344896

model.convs.0.1.convs.1.conv.weight f4 [32, 32, 1, 2]
0	0x3d2e166e	0.04250186
1	0xbc5990e4	-0.0132791735
2	0x3d132f52	0.0359338
3	0x3dac1c44	0.08403829
4	0xbd2d0fb4	-0.042251304
5	0xbcb2ee31	-0.021842094
6	0x3de96c20	0.11397576
7	0x3dcb61ae	0.0993074
8	0x3c1fd4f1	0.009755359
9	0x3d9d2c3e	0.07674454
10	0x3dda4ab3	0.10658779
11	0xbdfcfb74	-0.123526484
12	0xbdaa732f	-0.08322751
13	0xbd53c8de	-0.051705234
14	0xbd9f0b3a	-0.07765813
15	0xbdda7af9	-0.106679864
16	0x3caf7ed6	0.021422785
17	0xbda50c05	-0.08058933
18	0xbd88023b	-0.066410504
19	0xbcea7ab4	-0.028622963
20	0x3c9d2fc2	0.019187812
21	0xbc2b436b	-0.010453085
22	0xbd7d5494	-0.061848238
23	0xbd73f405	-0.059558887
24	0x3d05d6bb	0.032675486
25	0xbd6c8d14	-0.05775173
26	0xbd51429e	-0.05108892
27	0xbdb7b900	-0.08970833
28	0x3da2d10a	0.07950027
29	0x3df5c4ff	0.12000465
30	0x3d987a95	0.07445256
31	0x3d699cd4	0.05703433
32	0xbcade2f9	-0.021226393
33	0xbde07c77	-0.1096124
34	0xbb8f256c	-0.0043684747
35	0x3db8cdb2	0.09023608
36	0xbd937114	-0.07199302
37	0x3dc84d87	0.09780412
38	0xbcca3a6e	-0.024686065
39	0x3be7a561	0.0070692752
40	0x3dbd5842	0.092453495
41	0xbdef77cd	-0.11692772
42	0xbde7d0cb	-0.11319121
43	0x3db3cf48	0.0877977
44	0xbd9c5b70	-0.07634628
45	0xbdfbb8b0	-0.12291086
46	0xbd004e6b	-0.031324785
47	0xbdf2b084	-0.11850074
48	0xbc92d109	-0.017921941
49	0xbcd19008	-0.025581375
50	0x3cc59776	0.024120074
51	0xbdea7ff7	-0.114501886
52	0xbd6010c4	-0.05470349
53	0x3d19d72a	0.037558712
54	0xbcb7acea	-0.022421319
55	0xbd8a518f	-0.06753837
56	0x3df3f1a7	0.11911326
57	0x3d2ba50d	0.04190545
58	0x3db71480	0.08939457
59	0x3d174914	0.036934927
60	0x3cf9e1bf	0.030503152
61	0x3ba04d52	0.00489203
62	0xbdf16891	-0.117875226
63	0xbdc06592	-0.09394373
64	0x3d08942a	0.033344425
65	0xbc312056	-0.010810932
66	0x3d27e46c	0.040989324
67	0xbd32b39e	-0.043628328
68	0x3c2fe121	0.010734827
69	0xbd086ad3	-0.033305
70	0xbcc14ed2	-0.023597155
71	0xbd35374c	-0.04424219
72	0x3d8d92dc	0.06912777
73	0xbda63b1d	-0.08116744
74	0x3d2780db	0.04089437
75	0xbd41afb1	-0.047286693
76	0xbdf20598	-0.11817473
77	0x3dcc8f7d	0.09988306
78	0xbdc2967c	-0.09501359
79	0xbde9a958	-0.11409253
80	0xbda90a2b	-0.082538925
81	0xbcc2415a	-0.023712803
82	0xbb5328dd	-0.0032220401
83	0x3dd79bd9	0.105277725
84	0x3d3bd891	0.04586083
85	0x3de54d7c	0.111964196
86	0xbdffc945	-0.12489561
87	0xbdd45569	-0.10367853
88	0x3dc38d6c	0.095484585
89	0xbd440c48	-0.047863275
90	0x3dbbca05	0.091693915
91	0xbdf376ea	-0.118879154
92	0xbd423d3b	-0.047421675
93	0xbdae1ebb	-0.08501955
94	0x3d6aaebe	0.057295553
95	0xbe0692a1	-0.13141872
96	0xbd0d5204	-0.034502044
97	0x3d23b7ea	0.039970316
98	0x3abd50ef	0.0014443676
99	0xbd749d38	-0.059720248
100	0xbd7879d2	-0.060663052
101	0xbddc99fd	-0.107715584
102	0xbd36243c	-0.04446815
103	0x3cbdbcd7	0.023161335
104	0x3dc0c77f	0.09413051
105	0x3d30e52e	0.043187313
106	0x3aa8e69e	0.0012886112
107	0x3ddc8cd9	0.10769052
108	0x3d581e54	0.0527633
109	0xbdcf3a02	-0.10118486
110	0x3de0f05d	0.10983346
111	0x3d955abf	0.07292699
112	0xbdc47ec6	-0.095944926
113	0x3ddbdb45	0.10735182
114	0xbde4cc83	-0.1117182
115	0xbbd11520	-0.006380692
116	0xbded2df7	-0.11581033
117	0xbbcd50f5	-0.0062657543
118	0x3cb15c9f	0.02165061
119	0xbd706eee	-0.05869954
120	0x3c0c145e	0.008549778
121	0xbd3dc8df	-0.046334144
122	0x3d107160	0.035264373
123	0x3c4d9cd2	0.012549596
124	0xbe05ecd6	-0.13078627
125	0x3d89029f	0.06689953
126	0xbdcc7824	-0.099838525
127	0x3d88f924	0.06688145
128	0x3d1d646e	0.038425855
129	0x3d0f859b	0.035039525
130	0x3dc715a1	0.09720922
131	0x3c5dfce0	0.01354906
132	0x3d498108	0.04919532
133	0x3d9a5462	0.07535626
134	0xbda01253	-0.07815995
135	0x3db10a74	0.08644572
136	0xbd864e42	-0.06557895
137	0x3ddf21af	0.108950965
138	0xbc08552c	-0.008321088
139	0xbdc9a6ad	-0.09846244
140	0x3dab9df7	0.08379739
141	0x3df12f5f	0.117766134
142	0x3b78d380	0.003796786
143	0x3ddd2364	0.10797766
144	0x3dbc1f5e	0.0918567
145	0xbda3958d	-0.07987509
146	0xbdbdc9fc	-0.09267041
147	0x3dc5868c	0.096448034
148	0xbc86467f	-0.016391037
149	0x3ac2ca80	0.0014861375
150	0x3d19fda9	0.037595425
151	0xbdb75e0e	-0.089534864
152	0x3b61ee59	0.0034474342
153	0xbdd363d6	-0.103217766
154	0xbd2cf412	-0.04222495
155	0x3d021dc8	0.031766683
156	0xbd84240c	-0.06452188
157	0x3da88a88	0.08229548
158	0x3decb6a0	0.115582705
159	0x3d03cc5f	0.032177325
160	0xbc8f70bf	-0.017509816
161	0xbdedc790	-0.11610329
162	0xbd88b5e3	-0.06675317
163	0xbdb8b2e3	-0.09018495
164	0x3b93faca	0.0045159804
165	0x3c994a2c	0.018712126
166	0xbd9a592d	-0.0753654
167	0xbdf1b863	-0.11802747
168	0xbdebd8ca	-0.115159586
169	0xbd6a0a12	-0.05713851
170	0xbdce02dc	-0.10059139
171	0xbd2c69fe	-0.04209327
172	0xbdf55392	-0.119788304
173	0x3d9c8124	0.07641819
174	0xbcf21abc	-0.029553764
175	0xbdbc923a	-0.09207578
176	0x3d79a71a	0.060950376
177	0xbd0419a5	-0.03225102
178	0x3d7bee28	0.06150642
179	0xbda9fc50	-0.08300078
180	0x3b2c9fde	0.0026340405
181	0x3d27fdf9	0.04101369
182	0xbdcf56e8	-0.10123998
183	0xbd5f0f08	-0.054457694
184	0x3d0de677	0.034643617
185	0xbd60b330	-0.054858387
186	0x3d74e686	0.059790157
187	0xbc3dc81c	-0.011583354
188	0xbdd06457	-0.10175388
189	0xbd2bc101	-0.04193211
190	0xbd9402e5	-0.072271146
191	0xbd96a8b5	-0.07356397
192	0xbd23a657	-0.039953556
193	0x3db87ca4	0.09008148
194	0xbde69b10	-0.112600446
195	0xbcc09d35	-0.023512462
196	0xbdd6c96c	-0.10487637
197	0xbdf6a77d	-0.120436646
198	0xbe0913e3	-0.13386492
199	0x3d5618bb	0.05226968
200	0x3b4f8d6f	0.0031669994
201	0x3d9a6c74	0.07540217
202	0xbdd8e9b7	-0.105914526
203	0xbdbd8ab6	-0.09254973
204	0x3c174b77	0.009234301
205	0xbdc57aac	-0.096425384
206	0xbd97e7a3	-0.07417228
207	0xbc09485d	-0.008379069
208	0xbde0e580	-0.10981274
209	0xbd212ff5	-0.039352376
210	0x3b35883e	0.0027699615
211	0x3dbcd53a	0.09220357
212	0x3d68c956	0.056832634
213	0x3c5e34f6	0.013562432
214	0x3d1a5479	0.037678216
215	0x3db2bc02	0.08727266
216	0xbd728644	-0.059210077
217	0xbc9a6284	-0.018845804
218	0x3b4e84a4	0.0031512165
219	0xbd18e8ad	-0.037331272
220	0xbdd4bad8	-0.103872
221	0xbd110d68	-0.035413176
222	0x3d0b3558	0.03398642
223	0x3dd172f5	0.102270044
224	0x3d89620e	0.067081556
225	0xbe03393f	-0.12814806
226	0x3aacab9a	0.00131737
227	0x3db4132d	0.0879272
228	0x3deb54c3	0.114907764
229	0x3d7a1d24	0.061062947
230	0x3d9f2036	0.077698156
231	0x3da613b3	0.08109226
232	0x3db0e1c6	0.08636813
233	0x3d32e56d	0.04367583
234	0xbd3a8a44	-0.045542017
235	0xbe078767	-0.13235246
236	0xbc6ada87	-0.014334328
237	0xbcb40754	-0.02197615
238	0xbd30a705	-0.043128032
239	0x3dc8f4a8	0.098122895
240	0xbdf2be1e	-0.11852668
241	0xbd9d6dc9	-0.076869555
242	0x3aafeada	0.0013421432
243	0xbd4001e7	-0.046876814
244	0x3d277fd7	0.040893402
245	0x3d330249	0.04370335
246	0xbdb05143	-0.086092494
247	0xbcc3ef08	-0.02391769
248	0xbe08709c	-0.13324207
249	0xbd771b6d	-0.06032889
250	0x3d2b2c44	0.041790262
251	0x3dde0a24	0.10841778
252	0x3cfaef5d	0.030631715
253	0xbd6db7e3	-0.058036696
254	0x3d3ad890	0.045616686
255	0xbd7cd38c	-0.061725184

model.convs.0.1.convs.1.conv.bias f4 [32]
0	0x3de7b888	0.113144934
1	0x3d9d5407	0.076820426
2	0x3d831600	0.064006805
3	0x3dcbc154	0.09948984
4	0x3d8bfa6d	0.06834874
5	0x3d89a9c6	0.06721835
6	0x3d8444de	0.06458448
7	0xbd9cac6c	-0.07650074
8	0xbd456b9e	-0.048198335
9	0xbe0482ad	-0.12940474
10	0xbdddccbd	-0.10830066
11	0xbdded3f8	-0.108802736
12	0x3dac2c7e	0.08406924
13	0xbcef9196	-0.029244225
14	0x3d5c85cc	0.053838536
15	0x3d23c98d	0.039987136
16	0xb9c04903	-0.00036675492
17	0x3dd9dafd	0.10637472
18	0xbdaa8330	-0.08325803
19	0x3d1cb311	0.03825671
20	0xbc0bf018	-0.0085411295
21	0x3d97ad56	0.07406108
22	0x3cad7e40	0.021178365
23	0xbcebf708	-0.028804317
24	0x3dfb6741	0.122755535
25	0x3dae673a	0.08515783
26	0x3dc9de9e	0.09856914
27	0x3d24eee6	0.040266894
28	0x3d038d85	0.032117385
29	0x3c4775c1	0.012174071
30	0xbddbb2f1	-0.1072749
31	0xbdc53bf9	-0.096305795

model.convs.1.1.convs.0.conv.weight f4 [32, 32, 1, 2]
0	0xbcbd8091	-0.023132594
1	0xbd406047	-0.046966817
2	0x3d69c4e9	0.057072554
3	0x3d3a9707	0.045554187
4	0x3db6157d	0.08890817
5	0xbdf62e7a	-0.120205835
6	0xbcf3e452	-0.029771958
7	0xbd42bef7	-0.0475454
8	0x3d86c0cc	0.06579742
9	0xbdc6c2e3	-0.097051404
10	0x3dcc1e7e	0.099667534
11	0xbdb19219	-0.08670444
12	0xbdae9ad1	-0.08525623
13	0xbcf053c9	-0.029336827
14	0x3ca701a4	0.020386524
15	0x3c8e4427	0.017366482
16	0xbd865ad0	-0.0656029
17	0x3b4a7ac3	0.0030895926
18	0xbd002f28	-0.03129497
19	0x3dde60e1	0.10858322
20	0xbcb1102d	-0.021614159
21	0xbda2658a	-0.07929523
22	0x3c817423	0.015802449
23	0xbd04b342	-0.032397516
24	0x3cae6962	0.021290485
25	0xbd8998ab	-0.06718572
26	0x3dc9b51e	0.098489985
27	0xbd869b77	-0.06572621
28	0x3d168117	0.036744203
29	0xbda93a24	-0.082630426
30	0x3db5d5eb	0.08878692
31	0x3d95ca4f	0.07313978
32	0x3dac3481	0.08408452
33	0x3cf8ea42	0.03038514
34	0x3dafb2ae	0.08579002
35	0x39a7bf57	0.00031995281
36	0x3c9c901e	0.01911169
37	0x3d84d57f	0.06486034
38	0x3d555963	0.0520872
39	0x3ce44d6e	0.027868953
40	0xbd477252	-0.04869301
41	0xbdf16b5e	-0.11788057
42	0xbc502497	-0.012704036
43	0xbd65458b	-0.055974524
44	0xbd19ea8a	-0.03757719
45	0xbd92e75b	-0.07173034
46	0xbdd9e2d6	-0.10638969
47	0x3d80298c	0.062579244
48	0xbdf31808	-0.11869818
49	0x3dbc940a	0.09207924
50	0x3d163d88	0.036679775
51	0x3d651ab3	0.055933665
52	0x3dcb40a4	0.099244386
53	0x3d55395b	0.05205665
54	0xbd8ffe5f	-0.07030939
55	0x3d6ae24d	0.057344723
56	0x3c214ea2	0.009845408
57	0x3d964092	0.073365346
58	0xbd86aa4c	-0.0657545
59	0x3dbcf426	0.09226255
60	0xbd31a40a	-0.04336933
61	0x3df59179	0.11990637
62	0x3dc03b06	0.09386258
63	0xbd78c7b4	-0.060737327
64	0xbd82262d	-0.06354938
65	0x3dad3e68	0.08459169
66	0xbcaa5afa	-0.020795334
67	0x3d1f7ebd	0.038939226
68	0x3d41b071	0.04728741
69	0xbdb31191	-0.08743585
70	0x3c3c5ccf	0.011496737
71	0x3ba53314	0.0050414894
72	0x3dddbee7	0.10827427
73	0xbdcb7168	-0.0993374
74	0xbcfe2f88	-0.031028524
75	0x3c47d8b5	0.012197663
76	0xbd537505	-0.05162527
77	0x3c65d9b7	0.014028958
78	0x3dad9392	0.084754124
79	0xbde6bea2	-0.11266829
80	0x3dacc5b1	0.08436144
81	0x3cd98937	0.026554687
82	0xbd8febe4	-0.070274144
83	0xbd8e0120	-0.06933808
84	0x3c8eb672	0.017420981
85	0x3d895084	0.0670481
86	0xbd946018	-0.07244891
87	0xbc6dbed6	-0.014510831
88	0x3d990d9e	0.074733004
89	0xbced9603	-0.029002195
90	0x3d81e746	0.0634294
91	0x3da70c65	0.08156661
92	0x3d70b825	0.058769364
93	0x3d0abbd6	0.03387054
94	0xbcf17d6c	-0.029478751
95	0xbdf1ea4c	-0.11812267
96	0xbcb2037d	-0.021730179
97	0x3db19384	0.086707145
98	0x3d182e3d	0.03715347
99	0xbdaee14a	-0.08539064
100	0xbdce98b7	-0.10087722
101	0x3c8ad1b2	0.016945694
102	0x3d366759	0.044532154
103	0x3d46032b	0.048342865
104	0x3d936da9	0.071986504
105	0x3dce3c4c	0.100700945
106	0xbdaf768f	-0.08567535
107	0x3d7cd606	0.061727546
108	0x3d90eb9f	0.07076191
109	0x3ddc746f	0.107643954
110	0xbd104cc3	-0.035229456
111	0xbde7fe50	-0.11327803
112	0xbd53f84b	-0.051750463
113	0x3dc6c18f	0.09704887
114	0x3d7ed510	0.06221491
115	0x3d515606	0.05110743
116	0x3c4923b2	0.012276577
117	0xbdef56ca	-0.116864756
118	0x3d68ffac	0.056884453
119	0xbc96718e	-0.018364694
120	0xbd6ccf7d	-0.057815064
121	0xbd9f1871	-0.07768334
122	0x3ca30d6b	0.01990386
123	0x3b1f4117	0.0024300271
124	0xbdd359ef	-0.10319888
125	0x3df619c9	0.12016637
126	0xbcce2326	-0.025163244
127	0x3dece427	0.11566954
128	0x3dcdbed6	0.10046165
129	0x3d39b3bf	0.045337435
130	0xbb3062a1	-0.0026914256
131	0xbc84f605	-0.016230593
132	0x3e03befb	0.12865822
133	0x3d8dd260	0.069248915
134	0xbda6cc14	-0.081443936
135	0xbdc6f999	-0.09715576
136	0x3dae4604	0.08509448
137	0x3dd2b13c	0.10287711
138	0xbcb41084	-0.021980532
139	0xbdd7b5bf	-0.10532712
140	0xbce2dde2	-0.027693693
141	0xbd29fb58	-0.041499466
142	0xbdae6acd	-0.085164644
143	0x3d5f159e	0.054463975
144	0x3c33268b	0.010934482
145	0xbd576ac6	-0.05259206
146	0x3d98a9ac	0.07454237
147	0x3d812b31	0.06307066
148	0x3dd33e4c	0.103146166
149	0xbd9e3601	-0.07725144
150	0xbd3a9228	-0.04554954
151	0xbbb6d7f1	-0.0055799414
152	0x3d66089a	0.056160547
153	0x3dcae10f	0.09906208
154	0xbd804e86	-0.06264977
155	0x3dcc3fde	0.09973119
156	0xbdab5cf1	-0.083673365
157	0x3de4e7ef	0.1117705
158	0xbc4663e9	-0.012108781
159	0x3dd713ee	0.10501848
160	0x3d5e9932	0.054345317
161	0xbdaa33a7	-0.08310633
162	0x3d27acec	0.040936396
163	0x3d5a590c	0.053307578
164	0x3dae7bfe	0.085197434
165	0xbd55eb0a	-0.052226104
166	0x3ddd9818	0.10820025
167	0x3ddc3d31	0.10753859
168	0x3d5c51a6	0.053788804
169	0x3d75d46b	0.06001703
170	0xbdd7bd76	-0.10534184
171	0xbd17a2e9	-0.037020598
172	0x3dd6468e	0.10462676
173	0xbd49e008	-0.04928592
174	0x3d3366fb	0.04379938
175	0x3bcffa2f	0.006346963
176	0xbdd3c801	-0.10340882
177	0xbdbd7ae2	-0.09251954
178	0xbd6043e5	-0.05475225
179	0xbce3f907	-0.027828706
180	0x3c1422df	0.009041517
181	0x3d57a90c	0.05265145
182	0xbc4e56b9	-0.0125939185
183	0x3de0d285	0.109776534
184	0xbc92b029	-0.017906265
185	0xbd6be365	-0.057589907
186	0x3da5e650	0.08100569
187	0x3d8deb69	0.069296665
188	0xbd1c859c	-0.038213357
189	0xbde2c7c1	-0.11073256
190	0x3db5c369	0.08875162
191	0x3d9ae4e3	0.07563188
192	0xbdb826eb	-0.08991798
193	0x3c68a879	0.014200323
194	0xbde4e41a	-0.111763194
195	0xbcbb4db9	-0.02286421
196	0x3db488c2	0.08815147
197	0x3d9efc2d	0.077629425
198	0x3d39af89	0.04533342
199	0xbcbf089d	-0.023319537
200	0x3d77d64e	0.06050711
201	0xbd0d59a1	-0.034509305
202	0xbde705a8	-0.11280376
203	0xbdd369ca	-0.10322912
204	0xbd7371a0	-0.059434533
205	0x3cac3508	0.021021381
206	0x3dd24984	0.10267928
207	0x3cb70a4a	0.022343773
208	0x3dbf6da7	0.093470864
209	0xbd5beb97	-0.053691473
210	0x3e0163f2	0.12635782
211	0xbb51b84d	-0.003200072
212	0xbd7cccfc	-0.061718926
213	0xbddba8c1	-0.10725547
214	0x3db7ea0b	0.08980187
215	0x3d69ad7f	0.057050224
216	0x3d72b6b0	0.059256256
217	0x3caf8328	0.021424845
218	0xbdea0bc8	-0.11428028
219	0xbdfd26c6	-0.12360911
220	0xbdafcc7d	-0.08583925
221	0x3d9f3af3	0.077749155
222	0xbcfd8e85	-0.030951748
223	0x3d1fd194	0.03901823
224	0x3dfcf489	0.12351329
225	0x3dbf35e2	0.09336449
226	0xbd9735b7	-0.07383292
227	0xbdb2488e	-0.08705245
228	0x3d3918f0	0.045189798
229	0xbd9119b3	-0.0708498
230	0xbd6d2ddc	-0.057905063
231	0xbd6cfce4	-0.057858363
232	0x3df7248d	0.120675184
233	0x3d1ed3f3	0.03877635
234	0xbd4d6cc8	-0.05015257
235	0xbc2a3dc6	-0.0103907045
236	0xbdee6a36	-0.11641352
237	0xbde46527	-0.11152106
238	0x3c175ae7	0.009237981
239	0x3d6f892b	0.058480423
240	0x3c4415ab	0.011968057
241	0xbb574811	-0.0032849351
242	0x3d8401ac	0.064456314
243	0xbbc9d011	-0.0061588367
244	0x3b9b8c24	0.0047469307
245	0xbdd42575	-0.10358707
246	0xbd33a3cb	-0.043857377
247	0x3c8d3ffe	0.017242428
248	0xbd180384	-0.037112728
249	0x3c5a60a9	0.01332871
250	0x3d1151c3	0.035478365
251	0xbdd4e5b1	-0.10395373
252	0xbdd894ed	-0.1057528
253	0x3dd0a686	0.10188012
254	0xbda35ddb	-0.07976886
255	0x3d1e628f	0.03866821

model.convs.1.1.convs.0.conv.bias f4 [32]
0	0xbc60335b	-0.013684119
1	0x3cd5b0af	0.026085226
2	0xbccde07c	-0.025131457
3	0xbdb05151	-0.0860926
4	0x3da5487a	0.080704644
5	0x3d756b16	0.05991658
6	0x3ca6ffb1	0.020385595
7	0x3d421dbd	0.047391642
8	0x3cb1ccb4	0.021704055
9	0x3c99985e	0.018749412
10	0x3cc11264	0.02356834
11	0xbdf43dfd	-0.11925886
12	0xbd9c32a0	-0.076268435
13	0x3d3b5439	0.045734618
14	0x3d348922	0.044076093
15	0xbe05bde0	-0.13060713
16	0xbd059bd6	-0.03261932
17	0x3daae1b6	0.08343832
18	0x3cffb801	0.03121567
19	0x3c8965f4	0.016772248
20	0xbd9ba3b8	-0.07599586
21	0x3dde0f6e	0.10842787
22	0xbdc05b90	-0.09392464
23	0xbdd6b851	-0.10484374
24	0x3dca6750	0.098829865
25	0x3dfd951d	0.12381957
26	0x3db21648	0.08695656
27	0x3e001e96	0.12511668
28	0x3e092a68	0.13395083
29	0x3c46ee57	0.012141786
30	0xbd336b28	-0.043803364
31	0x3c276989	0.010218033

model.convs.1.1.convs.1.conv.weight f4 [32, 32, 1, 2]
0	0xbd8f694f	-0.07002508
1	0x3d604383	0.054751884
2	0x3d0f5d39	0.035001013
3	0x3d08a3f9	0.0333595
4	0xbd2c52cb	-0.042071145
5	0xbddb5ff0	-0.10711658
6	0x3a17ca47	0.00057903345
7	0x3d476684	0.04868175
8	0x3c548139	0.012970262
9	0xbdfec10f	-0.12439167
10	0x3da0d604	0.0785332
11	0x3de3e968	0.11128503
12	0xbd2dcd66	-0.04243221
13	0xbd47c4f7	-0.048771825
14	0x3ddc2672	0.1074952
15	0xbda61d1f	-0.08111023
16	0xbac0881f	-0.0014689005
17	0x3db2064d	0.08692608
18	0xbe079e26	-0.13243923
19	0xbbb8f47d	-0.0056443796
20	0x3dcd4bb5	0.100242056
21	0x3dd92ccf	0.1060425
22	0xbc108f77	-0.008823267
23	0xbd6de4fd	-0.05807971
24	0x3d8a551d	0.06754515
25	0x3c4c2ba5	0.012461578
26	0x3cb52bf0	0.022115678
27	0x3da20289	0.0791064
28	0xbd0b2ca7	-0.03397813
29	0xbdf748f9	-0.12074465
30	0x3d0372da	0.032091953
31	0xbd5d8787	-0.054084327
32	0x3c81b607	0.015833868
33	0xbbe644c3	-0.00702724
34	0xbdbe6810	-0.09297192
35	0x3d70f658	0.05882868
36	0x3d017031	0.031601135
37	0xbd022de1	-0.031782035
38	0x3dbb24e6	0.09137897
39	0x3d7fac94	0.062420443
40	0x3d524027	0.05133071
41	0x3dc4a4f0	0.09601772
42	0x3d5515b4	0.05202265
43	0x3db00dfc	0.08596417
44	0x3d5051f1	0.050859395
45	0x3da4aaef	0.080404155
46	0x3d06f503	0.032948505
47	0xbc89c1e5	-0.016816089
48	0xbd5927f4	-0.053016618
49	0x3dd5e735	0.1044449
50	0x3dd310c3	0.103059314
51	0xbde173e3	-0.11008432
52	0xbdc7c70b	-0.09754761
53	0x3cbbf246	0.022942673
54	0xbd8d7089	-0.0690623
55	0x3ded6386	0.11591248
56	0xbd543b37	-0.051814284
57	0xbd4f7fde	-0.050659053
58	0xbdb23e79	-0.08703322
59	0xb99932f7	-0.00029220406
60	0x3dd66e7e	0.104702935
61	0xbc465183	-0.012104395
62	0x3da07a0d	0.07835779
63	0x3d021630	0.03175944
64	0x3dc8f1ee	0.098117694
65	0xbe0e19c8	-0.13877022
66	0x3ca438ab	0.020046553
67	0x3d5cbcf3	0.053891134
68	0x3be1f4e7	0.0068956497
69	0x3dd4d4a0	0.103921175
70	0xbd19f68c	-0.03758864
71	0xbce17b29	-0.027524548
72	0xbd3df402	-0.046375282
73	0xbd1ca5ee	-0.03824418
74	0xbd9a52e7	-0.075353436
75	0x3d95c09d	0.07312129
76	0xbd500d7b	-0.050794106
77	0xbd21b3db	-0.039478164
78	0xbc910d10	-0.017706424
79	0xbb3f2e45	-0.0029171866
80	0xbd8d1cf2	-0.068902865
81	0x3cced62b	0.025248608
82	0x3cf3dfe8	0.029769853
83	0xbdf21e68	-0.11822206
84	0xbd9726e0	-0.07380462
85	0xbdd27505	-0.10276226
86	0xbdf735d6	-0.12070815
87	0x3d80b964	0.062853605
88	0xbd559c7e	-0.052151196
89	0xbd6d8006	-0.05798342
90	0x3d85cc62	0.065331236
91	0xbd7fd7f2	-0.0624618
92	0xbd655b89	-0.055995498
93	0x3d3f8b7b	0.04676388
94	0xbc2cb112	-0.010540264
95	0x3dca18eb	0.09868034
96	0x3dd0fd18	0.10204524
97	0x3dcdcca8	0.10048801
98	0xbcf3784e	-0.029720452
99	0xbd9666be	-0.07343815
100	0xbdbe5665	-0.09293822
101	0x3cee9feb	0.02912899
102	0x3d9d6e6c	0.07687077
103	0x3d0821c8	0.03323534
104	0xbd8c4bd3	-0.068504
105	0xbc2d782d	-0.010587734
106	0x3d075689	0.03304151
107	0x3cb45eaf	0.022017805
108	0x3ccff4cb	0.025385281
109	0x3d89c1df	0.06726431
110	0xbdf92758	-0.12165707
111	0x3dda3954	0.10655466
112	0xbd848abf	-0.06471776
113	0xbc881538	-0.01661168
114	0x3bcd4708	0.006264571
115	0x3d80c4b7	0.062875204
116	0x3d8ed190	0.069735646
117	0xbc64e2df	-0.013970106
118	0x3c5e9391	0.013584987
119	0x3d8e8e19	0.06960697
120	0x3d6741cf	0.056459244
121	0xbe0636c6	-0.13106832
122	0x3db9f7c6	0.09080462
123	0x3d84905a	0.064728454
124	0x3c24665f	0.010034173
125	0x3dc7f172	0.09762849
126	0xbdcbdbde	-0.09954046
127	0xbe02b23a	-0.127633
128	0xbc3f3ba1	-0.0116719315
129	0x3d3dddcf	0.04635411
130	0xbdbce08c	-0.092225164
131	0x3bcc8829	0.0062418175
132	0xbdcfcd58	-0.10146588
133	0xbd08a6b4	-0.033362105
134	0x3dad2707	0.084547095
135	0x3dcdab32	0.100424185
136	0xbd81adf5	-0.06332008
137	0x3d737157	0.05943426
138	0xbb6a4ee5	-0.0035752591
139	0x3ca5db10	0.020246059
140	0x3c2decbd	0.010615525
141	0xbd51d281	-0.051226143
142	0xbdcc1d5c	-0.09966537
143	0xbc1105da	-0.008851493
144	0x3dd39020	0.10330224
145	0x3dd49831	0.10380591
146	0x3cb5b905	0.02218295
147	0xbdc94ef1	-0.0982951
148	0xbcb31b9d	-0.021863753
149	0x3d5e7dbb	0.054319125
150	0x3d24eb93	0.040263724
151	0x3d9284c2	0.07154228
152	0xbd3ba6df	-0.045813438
153	0xbd745d2c	-0.059659168
154	0xbde18469	-0.11011583
155	0x3d9384d7	0.072030716
156	0xbda142ce	-0.0787407
157	0x3e02844c	0.1274578
158	0xbd2c773a	-0.04210589
159	0xbc3fac13	-0.011698741
160	0xbca2388f	-0.01980236
161	0x3d8f10ce	0.06985627
162	0x3d378332	0.044802852
163	0xbd87594f	-0.06608831
164	0x3df84db8	0.12124199
165	0xbd9f9d24	-0.07793644
166	0x3d96cd6c	0.073634
167	0xbd5674d2	-0.052357502
168	0xbdb5dcc9	-0.08880002
169	0x3ddc7074	0.10763636
170	0x3ca28386	0.019838106
171	0xbcc96c7d	-0.024587864
172	0x3d916866	0.070999905
173	0xbdb8adbe	-0.09017514
174	0x3c3a4934	0.011369992
175	0xbda97f3f	-0.082762234
176	0xbd0dfbcb	-0.034663957
177	0x3cbef02d	0.023307884
178	0xbbae989c	-0.005328251
179	0xbd9273d8	-0.07151002
180	0x3da0eae1	0.078572996
181	0xbbdccb90	-0.0067381337
182	0x3d6cec2c	0.05784242
183	0xbbea6bb0	-0.0071539506
184	0xbc8fa331	-0.01753387
185	0x3d9ac7ff	0.075576775
186	0xbafccf9f	-0.001928795
187	0x3ce8a003	0.028396612
188	0xbd9f0a9a	-0.07765694
189	0x3db0e505	0.08637432
190	0x3d70975e	0.058738105
191	0xbd7a847b	-0.0611615
192	0xbd9dc23d	-0.07703064
193	0x3dc6af17	0.097013645
194	0x3d27ad7a	0.040936925
195	0xbd76a810	-0.06021887
196	0x3d15be02	0.03655816
197	0xbd81cb4b	-0.06337603
198	0xbd0fff33	-0.035155486
199	0xbd22a20b	-0.039705317
200	0x3c4adec4	0.012382213
201	0x3cd00e78	0.025397524
202	0x3d30abde	0.043132655
203	0x3d63ec03	0.055645
204	0xbdb8b819	-0.09019489
205	0x3dcd5fb8	0.100280225
206	0x3dc8eb1b	0.09810468
207	0x3d6db498	0.058033556
208	0x3d7ff6af	0.062491115
209	0x3dae8c8a	0.085228994
210	0xbd8b46ee	-0.06800638
211	0x3db709ee	0.08937441
212	0xbe03d705	-0.12874992
213	0xbd6a92e2	-0.057268985
214	0x3dc1b95a	0.09459181
215	0xbd39acd4	-0.045330837
216	0xbdf21f69	-0.11822397
217	0x3d7bf8b5	0.061516482
218	0xbde90ed8	-0.11379784
219	0x3db8616d	0.090029575
220	0x3d487d9f	0.048947927
221	0xbd79303b	-0.06083701
222	0x3dee8ca4	0.11647919
223	0xbcd9400a	-0.026519794
224	0xbc833420	-0.016016066
225	0x3c74a60d	0.014932168
226	0xbdb784c7	-0.08960872
227	0x3dd2efef	0.1029967
228	0xbc9bd9b0	-0.0190247
229	0xbad75864	-0.0016429541
230	0xbcf0e6d9	-0.029406952
231	0xbcdc5e3a	-0.0269004
232	0xbe059fab	-0.1304919
233	0xbd2629c6	-0.040567182
234	0xbd582620	-0.052770734
235	0xbd97a290	-0.07404053
236	0x3dc694b7	0.09696334
237	0xbda25d0d	-0.07927904
238	0xbd894d7b	-0.06704231
239	0xbd60b258	-0.05485758
240	0x3d9405db	0.07227679
241	0xbdba6b95	-0.09102551
242	0xbcba8ea1	-0.022773089
243	0xbd1efbce	-0.03881436
244	0x3d3a2c94	0.04545267
245	0x3dcd3f83	0.100218795
246	0x3d740190	0.059571803
247	0xbd41c692	-0.047308512
248	0xbd33adff	-0.043867107
249	0xbe0003f2	-0.12501505
250	0xbd9c2e10	-0.07625973
251	0x3dec923d	0.1155133
252	0xbca5f986	-0.020260584
253	0x3d9d478b	0.07679661
254	0x3d8f4ec4	0.06997445
255	0x3d88e9b0	0.06685197

model.convs.1.1.convs.1.conv.bias f4 [32]
0	0x3daaf767	0.083479695
1	0xbdbc673e	-0.091993794
2	0x3d399f51	0.04531795
3	0xbde5bfa7	-0.112181954
4	0x3c9c656a	0.019091327
5	0x3dee1cd4	0.11626592
6	0x3dd70e9e	0.10500835
7	0xbc901303	-0.01758719
8	0xbd07a543	-0.03311659
9	0xbd62de51	-0.0553878
10	0x3dc694cf	0.09696352
11	0x3de614dd	0.11234448
12	0xbd9234fa	-0.07139011
13	0xbdc36821	-0.095413454
14	0xbdef353d	-0.11680076
15	0x3dfc8e06	0.12331776
16	0xbd666b13	-0.056254458
17	0xb93b7f38	-0.00017881102
18	0xbd0b1a5e	-0.033960693
19	0xbde93020	-0.11386132
20	0x3d208ee5	0.039198775
21	0x3db4bd4e	0.088251695
22	0x3ce0fdba	0.027464736
23	0xbd34f362	-0.04417742
24	0xbacfa992	-0.0015843383
25	0x3d733311	0.059374873
26	0x3d095416	0.033527456
27	0xbd3d47e9	-0.046211157
28	0xbde72824	-0.11286953
29	0xbd5dc726	-0.054145
30	0xbd840f66	-0.064482495
31	0x3dc2d222	0.09512736

model.convs.2.1.convs.0.conv.weight f4 [32, 32, 1, 2]
0	0xbcf8e18a	-0.030380983
1	0xbdd45092	-0.1036693
2	0x3d921ff1	0.071349986
3	0x3ce2805b	0.027649095
4	0x3c2a5363	0.0103958575
5	0x3d6ac7d7	0.05731949
6	0x3df78fb3	0.12087955
7	0xbd2a5897	-0.041588392
8	0xbc8de4c8	-0.017321005
9	0xbdb43427	-0.0879901
10	0xbca62cb1	-0.020284982
11	0xbced0e53	-0.028937494
12	0x3b8730ee	0.004125706
13	0x3d1ff6dd	0.039053787
14	0x3db2bb01	0.087270744
15	0x3dea78f9	0.11448855
16	0x3c3dc18e	0.011581792
17	0xbdfcb838	-0.123398244
18	0x3c1ea619	0.009683155
19	0xbda10747	-0.07862716
20	0x3ade99f1	0.0016983134
21	0xbd0f134d	-0.034930516
22	0x3de25592	0.110514775
23	0x3dd146b9	0.102185674
24	0x3b40722a	0.0029364922
25	0xbd139613	-0.036031794
26	0xbd089e42	-0.03335405
27	0xbdee4ce1	-0.11635757
28	0x3d53cbf9	0.051708195
29	0xbcbdba54	-0.023160137
30	0x3d8914e1	0.066934355
31	0xbbf4dd5d	-0.0074726776
32	0xbd5aec6b	-0.053448122
33	0xbbccc6e9	-0.006249298
34	0x3c244ca6	0.01002804
35	0xbdb427eb	-0.08796676
36	0x3c8bbfbe	0.017059203
37	0xbd732d8c	-0.05936961
38	0xbda653fa	-0.08121486
39	0xbd2eaa93	-0.04264314
40	0xbd71b09c	-0.05900632
41	0x3dc480e8	0.095948994
42	0x3ce124be	0.02748334
43	0x3dd05c18	0.101738155
44	0x3d9290e2	0.071565405
45	0x3d0a0ff1	0.03370661
46	0xbc204359	-0.009781682
47	0x3d4c2aea	0.049845614
48	0x3d9b54e6	0.075845525
49	0x3de48a17	0.11159151
50	0xbdfc4926	-0.123186395
51	0x3da8e5d0	0.08246958
52	0x3cce2d15	0.025167981
53	0x3d4c1229	0.049822006
54	0xbb5f4837	-0.0034070143
55	0x3d863a9b	0.06554147
56	0xbcfbf769	-0.030757623
57	0xbd6cfb7f	-0.057857033
58	0x3cb0233f	0.021501182
59	0xbc18e9ed	-0.009333116
60	0xbbb3534b	-0.005472576
61	0x3d194971	0.037423555
62	0xbc8bbded	-0.017058337
63	0x3de55678	0.11198133
64	0xbde81d75	-0.113337435
65	0x3d9abeda	0.07555933
66	0xbce0c17c	-0.02743601
67	0xbd9eccab	-0.07753881
68	0xbdcd0c07	-0.1001206
69	0xbcb7f55e	-0.022455867
70	0xbdb7735f	-0.08957552
71	0x3d7b884c	0.06140928
72	0xbde1cf2e	-0.110258445
73	0xbd181e3a	-0.0371382
74	0x3cc81bdc	0.024427347
75	0xbdbd5c3e	-0.092461094
76	0xbe09ac02	-0.13444522
77	0xbdec654e	-0.1154276
78	0x3c18dd1a	0.0093300585
79	0x3cacb965	0.021084497
80	0xbd46f97f	-0.04857778
81	0x3d79266e	0.060827665
82	0x3dfbc996	0.12294309
83	0xbdab49b8	-0.0836367
84	0x3db3f4f0	0.087869525
85	0x3d975302	0.07388879
86	0xbdbe6a9b	-0.09297677
87	0x3dc00688	0.09376246
88	0x3d8727e4	0.065994054
89	0x3d09cbd9	0.03364167
90	0xbd4a5777	-0.04939982
91	0xbdec864a	-0.11549051
92	0xbd7179a9	-0.058953915
93	0xbb8072e1	-0.0039199446
94	0xbd7f7955	-0.06237157
95	0xbbd2eee1	-0.006437168
96	0xbc0ca57b	-0.0085843755
97	0x3be4a29a	0.0069773914
98	0x3d0e8723	0.034796845
99	0xbde09c7b	-0.10967346
100	0x3df7a8d1	0.12092746
101	0x3dc4aee1	0.09603668
102	0x3dc099b3	0.09404316
103	0x3d94e500	0.07270241
104	0x3c81cf31	0.015845867
105	0x3d74458e	0.059636645
106	0xbd2bbb8b	-0.0419269
107	0x3ca23b4f	0.019803671
108	0xbcc00b8f	-0.023443012
109	0xbd94b0f3	-0.07260313
110	0x3c9df5ff	0.01928234
111	0xbd2c7ec1	-0.04211307
112	0x3d87b89b	0.066270076
113	0xbd2cc2eb	-0.042178076
114	0x3bca267a	0.0061691375
115	0xbd2475fc	-0.04015158
116	0xbd57205b	-0.05252109
117	0x3e079a86	0.1324254
118	0xbdfb36ba	-0.12266298
119	0x3d086c76	0.03330656
120	0xbdcef9f9	-0.10106272
121	0x3dec33c5	0.11533312
122	0x3d82ed84	0.06392959
123	0x3da853ad	0.08219085
124	0xbcb0d754	-0.021587051
125	0x3db95ff2	0.09051503
126	0xbd4d8f70	-0.05018562
127	0xbd6d3aa6	-0.05791726
128	0xbc7f099a	-0.015566254
129	0xbc7642b9	-0.015030556
130	0xbdb218ff	-0.08696174
131	0x3dd8aa3c	0.10579345
132	0x3db44989	0.08803088
133	0x3dbc6f68	0.092009366
134	0xbbc195e5	-0.0059077614
135	0xbde6fc0d	-0.112785436
136	0xbde62b4e	-0.112387285
137	0x3db757a1	0.08952261
138	0x3da07da2	0.078364626
139	0x3dfc8b80	0.12331295
140	0x3db9e9c2	0.09077789
141	0x3df4de2e	0.1195644
142	0xbd907039	-0.07052655
143	0xbe09f7d9	-0.13473453
144	0x3bab5323	0.0052284165
145	0x3bd031f3	0.0063536107
146	0x3db74681	0.089489944
147	0xbda2d8b6	-0.079514906
148	0xbe05cd41	-0.1306658
149	0xbdc090de	-0.09402631
150	0xbde4bfe1	-0.111694105
151	0xbda9a1b1	-0.08282793
152	0x3d9f2e4c	0.07772502
153	0x3d1fb4d0	0.038990796
154	0x3dd53b13	0.10411658
155	0x3d2793b7	0.040912356
156	0xbcf2c6ac	-0.02963575
157	0x3cff4b6c	0.031163894
158	0xbdd6b782	-0.1048422
159	0xbd22f3db	-0.03978334
160	0x3ddb3457	0.107033424
161	0x3da7b9fa	0.08189769
162	0xbdb69890	-0.08915818
163	0xbd9eaedf	-0.07748198
164	0xbdc38eb2	-0.09548701
165	0x3d70dffc	0.05880736
166	0xbd30a502	-0.043126114
167	0xbd338bb7	-0.043834414
168	0x3db4f7f4	0.08836356
169	0x3d33395f	0.043755885
170	0x3d9ddb8e	0.07707892
171	0x3daaf2d5	0.08347098
172	0x3d976e48	0.07394081
173	0xbd432b05	-0.04764845
174	0xbdc97f22	-0.09838702
175	0x3d7aaad3	0.061198067
176	0x3dd53b65	0.10411719
177	0x3d7f994b	0.06240205
178	0xbd16bd28	-0.036801487
179	0x3cc9a5f2	0.024615262
180	0xbcad6c7c	-0.021169893
181	0x3dae39c6	0.08507113
182	0x3bdb5b48	0.006694231
183	0xbbb218e8	-0.005435098
184	0xbd9124c9	-0.07087094
185	0x3d8f0fbb	0.06985422
186	0x3dbcf87c	0.09227082
187	0x3ddc5347	0.107580714
188	0xbd8e1f3d	-0.06939552
189	0x3dc41369	0.09574015
190	0xbd5dc7ac	-0.0541455
191	0xbd318bf0	-0.043346345
192	0x3caa6133	0.020798301
193	0xbdd96a7f	-0.10616016
194	0xba904c38	-0.0011009043
195	0x3c62ce4e	0.013843132
196	0xbd8c5ef7	-0.068540506
197	0x3dcf3995	0.10118405
198	0xbd7ae969	-0.061257754
199	0x3db58deb	0.08864959
200	0x3c772fbe	0.015087066
201	0x3b8fede9	0.004392375
202	0x3d4914b2	0.049092002
203	0x3df4f210	0.11960232
204	0x3cc42532	0.023943517
205	0xbc4539d1	-0.01203771
206	0x3d83447d	0.064095475
207	0xbd05e3ed	-0.03268807
208	0x3d44611d	0.047944177
209	0xbd9b963a	-0.07597013
210	0xbd293eb2	-0.041319557
211	0xbd302629	-0.043005142
212	0x3d3b17c4	0.04567696
213	0xbd91c683	-0.07117941
214	0xbcc3a13c	-0.023880593
215	0x3d71da77	0.059046235
216	0xbde4ee49	-0.11178262
217	0xbc8a2147	-0.016861571
218	0xbcff7deb	-0.031187972
219	0xbdb0a68c	-0.08625516
220	0x3dd4a2ff	0.103826515
221	0xbcef34b0	-0.029199928
222	0xbce5b345	-0.028039584
223	0xbd8fcde9	-0.07021696
224	0x3c4031bf	0.01173061
225	0x3d32c902	0.043648727
226	0x3cecc1d1	0.028901013
227	0xbd91332b	-0.07089838
228	0x3d7c95c5	0.06166627
229	0x3db25a03	0.087085746
230	0x3d5aa5d6	0.05338081
231	0xbd659e13	-0.056058954
232	0x3da7fc43	0.08202412
233	0x3d855efb	0.06512257
234	0xbcc65fc5	-0.024215588
235	0xbd30625a	-0.043062545
236	0x3ccc4ec1	0.024939897
237	0x3b85c277	0.00408202
238	0xbdce18a8	-0.100632966
239	0xbcc2741f	-0.023737011
240	0x3d445079	0.047928307
241	0xbd238e7b	-0.0399308
242	0xbda98424	-0.08277157
243	0xbc86565f	-0.016398607
244	0x3d30cbb4	0.043163016
245	0xbc5d53c9	-0.0135087455
246	0xbda18506	-0.078867
247	0x3d5f183b	0.054466467
248	0x3db95b01	0.09050561
249	0xbcdadca4	-0.026716538
250	0xbdf37569	-0.118876286
251	0x3de84247	0.113407664
252	0x3dc58f6b	0.096464954
253	0x3cf97cac	0.030454956
254	0x3da90150	0.082522035
255	0x3d1b058c	0.037847087

model.convs.2.1.convs.0.conv.bias f4 [32]
0	0xbc535d91	-0.012900726
1	0x3dcc67fa	0.099807695
2	0xbdcbafd8	-0.09945649
3	0xbd1de37b	-0.03854702
4	0x3d81e606	0.063427016
5	0x3ddfc5c8	0.10926396
6	0xbda68609	-0.08131034
7	0xbdb27d80	-0.087153435
8	0x3c5133b1	0.012768672
9	0xbdce08d2	-0.10060276
10	0xbdda732e	-0.106665
11	0x3b2aea72	0.0026079682
12	0x3d0ce365	0.034396548
13	0x3d2b80ab	0.041870754
14	0x3d8d464d	0.068981744
15	0xbbcc4e39	-0.006234911
16	0xbc8f149a	-0.017465878
17	0x3d8489d9	0.06471605
18	0xbbb0d36f	-0.0053962986
19	0xbd0ac437	-0.03387853
20	0x3d9c9b4f	0.0764681
21	0xbd59829c	-0.053103074
22	0x3c6278c2	0.013822736
23	0x3b9c7400	0.0047745705
24	0x3d97327b	0.07382675
25	0x3dc284d1	0.09497989
26	0xbe016c39	-0.1263894
27	0xbd504353	-0.050845455
28	0x3dcaf3b9	0.09909768
29	0xbda8c079	-0.08239836
30	0xbdec4b43	-0.115377925
31	0xbcb11eb8	-0.021621093

model.convs.2.1.convs.1.conv.weight f4 [32, 32, 1, 2]
0	0x3caa8fc4	0.020820506
1	0x3d85eee4	0.065397054
2	0x3cecffbc	0.028930537
3	0xbe0a202b	-0.13488834
4	0xbcb35ddc	-0.021895342
5	0xbdd64f6a	-0.10464366
6	0xbdc72812	-0.0972444
7	0xbc7b1f09	-0.015327224
8	0xbbd57b36	-0.006514932
9	0xbde77930	-0.113024116
10	0x3d54940c	0.051899
11	0xbd9a09b3	-0.07521381
12	0xbda1a22b	-0.07892259
13	0xbcb05075	-0.02152274
14	0xbc3271cf	-0.010891392
15	0xbd149aa7	-0.0362803
16	0x3cdf25a4	0.027239628
17	0x3d969cc2	0.07354118
18	0x3c45a5dc	0.01206347
19	0x3dc7afb9	0.09750313
20	0xbdd0e83b	-0.102005444
21	0x3db27a8f	0.087147824
22	0x3d4baa0b	0.049722712
23	0xbd166d84	-0.036725536
24	0xbca0ac9b	-0.019613555
25	0xbc95e809	-0.01829912
26	0xbd1dbf45	-0.038512487
27	0x3d49c0e4	0.04925622
28	0xbca24e55	-0.019812742
29	0xbd4a3b02	-0.04937268
30	0xbdabff1d	-0.08398268
31	0xbdf8b3b4	-0.12143651
32	0xbe081a9e	-0.13291404
33	0xbd98389b	-0.07432672
34	0xbd9e0bc5	-0.077170886
35	0xbdc043b4	-0.09387913
36	0xbdb273ca	-0.08713491
37	0x3c785ae2	0.015158387
38	0x3bb4e283	0.0055201664
39	0x3c8d5084	0.017250307
40	0x3cff7f7d	0.03118872
41	0x3c60b9e5	0.013716196
42	0xbde16d28	-0.11007148
43	0xbd4c80c9	-0.049927507
44	0xbdff466c	-0.12464604
45	0xbd955755	-0.07292048
46	0x3d9db351	0.077002175
47	0x3d7abc73	0.061214875
48	0x3d91d8d9	0.071214385
49	0xbc812319	-0.015763806
50	0xbc9c3a38	-0.01907073
51	0xbd913979	-0.0709104
52	0xbdb00508	-0.0859471
53	0x3d95ba8f	0.07310974
54	0x3c58c7e0	0.013231248
55	0xbd04d4b7	-0.032429423
56	0x3dcc58fa	0.099779084
57	0x3dc4bb5b	0.09606048
58	0x3d593880	0.0530324
59	0xbd696b64	-0.05698718
60	0xbcfb9ee2	-0.03071541
61	0xbd767177	-0.060166802
62	0x3d3d06f7	0.04614922
63	0x3ce86d6a	0.028372485
64	0xbc5b6f15	-0.013393183
65	0x3cdf33e9	0.027246432
66	0x3d24c8dd	0.04023062
67	0xbbdb341d	-0.006689562
68	0x3d970123	0.07373264
69	0xbdc9f8ef	-0.098619334
70	0x3da803be	0.08203839
71	0x3dddd52e	0.108316764
72	0x3d630430	0.055423915
73	0x3daa76b0	0.08323419
74	0xbd0ba923	-0.03409685
75	0xbdc2384d	-0.09483395
76	0xbc2bc3ef	-0.010483726
77	0xbdc07054	-0.09396425
78	0xbcd502ed	-0.026002372
79	0x3ca4c6b5	0.020114282
80	0xbd96839d	-0.07349322
81	0x3d5b714d	0.05357485
82	0xbe07647a	-0.13221923
83	0xbdccb0be	-0.099946484
84	0x3d897211	0.067112096
85	0x3cc90901	0.024540426
86	0xbdf5403f	-0.119751446
87	0x3c4aea38	0.012384944
88	0xbdcca599	-0.09992523
89	0xbdee93fe	-0.11649321
90	0xbdb86f56	-0.09005611
91	0xbde71d79	-0.11284918
92	0x3b6629c8	0.0035120118
93	0x3c8c0bdc	0.017095499
94	0xbcf21825	-0.029552529
95	0x3d03904e	0.03212004
96	0x3c0299e2	0.007971259
97	0xbe036666	-0.1283203
98	0x3bdf4c42	0.0068145106
99	0xbdeb3c7c	-0.11486146
100	0xbdb69ba5	-0.089164056
101	0x3dda98fa	0.10673709
102	0x3b9140bb	0.0044327653
103	0x3da0c6e5	0.07850436
104	0x3db096fa	0.086225465
105	0xbd86d90f	-0.065843694
106	0xbd784264	-0.06061019
107	0x3c063796	0.008191964
108	0xbd99854a	-0.07496126
109	0x3dd4570e	0.10368167
110	0x3da1be9e	0.078976855
111	0xbd6d1d35	-0.057889182
112	0x3b34bb61	0.0027577507
113	0x3d1e10be	0.038590185
114	0x3c9dffe0	0.01928705
115	0xbd6e1aab	-0.0581309
116	0xbb5060e4	-0.0031796033
117	0xbda1e0e6	-0.07904224
118	0x3badc3bc	0.0053028744
119	0x3dbe8f01	0.093046196
120	0xbd1c88cb	-0.038216393
121	0x3d15fb86	0.036616825
122	0x3db08a3d	0.08620117
123	0x3c196c43	0.0093641905
124	0x3c8ec224	0.017426558
125	0x3cb8a749	0.022540705
126	0xbb930301	-0.004486442
127	0xbda78a57	-0.08180683
128	0x3cd4e6d1	0.025988968
129	0xbe038e65	-0.12847288
130	0xbd14d6db	-0.036337715
131	0xbda53da3	-0.08068397
132	0xbdbab9ea	-0.091174915
133	0xbd2b9c1b	-0.04189692
134	0x3d934ef9	0.07192797
135	0x3dc64ff0	0.096832156
136	0xbd629c2a	-0.05532471
137	0xbc3e0091	-0.011596815
138	0x3de7c0f9	0.113161035
139	0x3dd7a5a4	0.1052964
140	0xbd0f2962	-0.034951575
141	0x3dc3cc24	0.09560421
142	0xbddb5499	-0.10709495
143	0xbdd57105	-0.104219474
144	0xbd4b593b	-0.049645644
145	0x3d6a06f5	0.05713554
146	0xbdc6e0a7	-0.09710818
147	0x3d4c3940	0.049859285
148	0x3c8d4964	0.01724691
149	0x3d2bc068	0.04193154
150	0x39e5d1ec	0.00043834688
151	0x3cc20f9a	0.02368908
152	0xbd992ea1	-0.07479597
153	0xbdb146b5	-0.086560644
154	0x3d351dae	0.044217758
155	0xbc9baa01	-0.019001963
156	0xbdc28cd4	-0.09499517
157	0x3d8143cb	0.063117586
158	0xbddc6097	-0.107606106
159	0x3cf93526	0.030420851
160	0x3e00d41c	0.12580913
161	0xbdec3ff0	-0.115356326
162	0xbd9a73c4	-0.07541612
163	0x3d2e8b49	0.0426133
164	0x3d98d712	0.074628964
165	0xbd7a66e6	-0.061133288
166	0xbb98a14e	-0.004657901
167	0xbda4827e	-0.08032702
168	0x3da1d2f6	0.07901566
169	0x3cfe357a	0.031031359
170	0x3dcf63bf	0.10126447
171	0x3d52808b	0.05139212
172	0x3d567df8	0.052366227
173	0x3de506c1	0.11182929
174	0xbd9cc5d8	-0.07654923
175	0xbbf089ec	-0.0073406603
176	0x3d88920a	0.0666848
177	0x3d675964	0.056481734
178	0xbc1562ce	-0.009117795
179	0x3db2d624	0.0873225
180	0x3ca8c11e	0.020599898
181	0x3d9c724c	0.07638988
182	0xbaaa79c8	-0.0013006264
183	0x3c2add1a	0.010428691
184	0x3d60a3a2	0.054843552
185	0x3d676193	0.05648954
186	0xbd305c78	-0.043056935
187	0xbdc383ab	-0.09546598
188	0x3d6e8eac	0.05824153
189	0x3bc2e58a	0.0059477733
190	0x3d83fd43	0.0644479
191	0xbddfa064	-0.10919264
192	0xbaa42f49	-0.0012526299
193	0x3d6c1c94	0.05764444
194	0x3d8233b6	0.06357519
195	0xbd773bd5	-0.060359795
196	0x3c6d4f7c	0.014484283
197	0x3c6018b0	0.013677761
198	0xbdf38930	-0.11891401
199	0xbd136ddc	-0.035993442
200	0x3dac5274	0.08414164
201	0xbcf250fd	-0.029579634
202	0xbcf08a78	-0.029362902
203	0xbc5e027c	-0.013550397
204	0xbdc969d1	-0.09834636
205	0xbdb3949f	-0.087685816
206	0xbd8e5abd	-0.06950901
207	0xbcadc17f	-0.02121043
208	0x3d726810	0.059181273
209	0x3d044c6e	0.03229945
210	0xba2418bc	-0.0006259789
211	0xbcd131ff	-0.025536535
212	0xbd962ae2	-0.07332398
213	0x3d527e7b	0.051390152
214	0xbdeeecc0	-0.1166625
215	0x3c039640	0.008031428
216	0xbc947367	-0.018121434
217	0x3ddc01d4	0.10742536
218	0x38ae06c2	8.298225e-05
219	0x3c91bc2b	0.01778992
220	0x3dcb6f12	0.09933294
221	0x3db29db8	0.08721489
222	0xbd801fac	-0.06256041
223	0xbd338180	-0.043824673
224	0x3de3fcfd	0.11132238
225	0xbdd42dd1	-0.10360301
226	0xbdab2b60	-0.083578825
227	0x3cde36e1	0.027125778
228	0xbd84eba5	-0.06490258
229	0xbdc9759a	-0.09836884
230	0xbdf4bb8a	-0.11949833
231	0x3d56c645	0.05243518
232	0xbdb16be9	-0.0866316
233	0xbdd51f70	-0.10406387
234	0x3d4721e6	0.048616312
235	0xbcaa72d5	-0.02080671
236	0xbd8620ad	-0.06549201
237	0x3dc09e89	0.09405238
238	0xbe058fef	-0.13043188
239	0x3cc077f1	0.023494693
240	0x3db2da99	0.087331004
241	0xbd1a726b	-0.037706774
242	0xbd413888	-0.047173053
243	0xbd9feaaa	-0.078084305
244	0xbdf55f77	-0.11981099
245	0x3dee419b	0.11633607
246	0xbcd8e258	-0.026475117
247	0xbca08527	-0.019594742
248	0x3c655d4b	0.013999294
249	0x3c4d139c	0.012516882
250	0xbcff29d4	-0.031147875
251	0xbd3a2b86	-0.045451663
252	0xbd971f96	-0.073790714
253	0xbd00ea7c	-0.03147362
254	0x3c0c91b5	0.008579661
255	0x3d840843	0.06446888

model.convs.2.1.convs.1.conv.bias f4 [32]
0	0x3db0ccd6	0.08632819
1	0xbcfdf74c	-0.03100171
2	0x3d390c0e	0.045177512
3	0xbdfbd713	-0.122968815
4	0x3d3d424d	0.046205807
5	0xbc89393f	-0.01675093
6	0xbdd54c33	-0.104149245
7	0x3db3d0a8	0.087800324
8	0xbcf91350	-0.030404717
9	0x3df004a4	0.11719635
10	0x3dcca1f2	0.09991826
11	0x3d0d62cd	0.034518052
12	0x3d31122b	0.043230217
13	0xbc18206a	-0.009285072
14	0x3d04c659	0.03241572
15	0x3d8a7529	0.06760628
16	0xbdc644b2	-0.09681071
17	0xbc0e7354	-0.008694489
18	0x3d9e7289	0.077366896
19	0x3debec3b	0.11519667
20	0xbca9f76e	-0.020747866
21	0x3e00874b	0.1255161
22	0x3d868a92	0.06569399
23	0xbdd9aab8	-0.10628265
24	0xbd8166c5	-0.0631843
25	0x3d64f92b	0.055901688
26	0xbdfd08d1	-0.12355197
27	0x3d3d2d12	0.04618556
28	0xbd1f8d52	-0.038953133
29	0x3d17f642	0.037100084
30	0x3b0e1ec6	0.0021685823
31	0x3daf19e9	0.08549864
