code/logs/epoch=40-step=7954.ckpt (torch, 72145 bytes, 18 tensors)

model.encoder.rnn.weight_ih_l0 f4 [128, 1]
0	0x3e944736	0.2896058
1	0xbe47d65a	-0.19515362
2	0xbddc124a	-0.10745676
3	0x3eeeb58c	0.46622884
4	0xbe82f5a7	-0.25578043
5	0x3c190a06	0.009340769
6	0xbef936e5	-0.48674694
7	0xbea64830	-0.3247695
8	0x3eaf3523	0.34220228
9	0x3e450149	0.19238771
10	0x3e2fe784	0.1717816
11	0x3dfe923d	0.124302365
12	0x3d834e66	0.06411438
13	0xbee36b0b	-0.44417605
14	0xbe9e2870	-0.30890226
15	0xbeb3b5b8	-0.35099578
16	0xbe3ae9ca	-0.18253246
17	0xbecbbf80	-0.3979454
18	0xbef2b0d4	-0.47400534
19	0x3f58e6ab	0.8472697
20	0xbe4c6f68	-0.19964373
21	0xbdb559f0	-0.08855045
22	0xbf4ea4d1	-0.8072024
23	0xbe3f46db	-0.18679373
24	0x3d836dfb	0.064174615
25	0xbe246175	-0.16052802
26	0xbf013ac9	-0.50480324
27	0xbea4e7fe	-0.32208246
28	0x3ef5b53a	0.47989827
29	0xbe30636a	-0.17225423
30	0x3daad491	0.08341325
31	0xbeb6ec5a	-0.35727197
32	0x3ed8d549	0.42350224
33	0xbe5f65e6	-0.21816215
34	0x3e3ce0bc	0.18445104
35	0x3e85ca47	0.26130888
36	0xbce6bd28	-0.028166369
37	0x3e880f2d	0.26574078
38	0x3e589869	0.2115189
39	0xbe34fe2b	-0.17675082
40	0x3efc2595	0.49247423
41	0x3e6b87a0	0.23000956
42	0x3bd47dbd	0.0064847157
43	0xbe1096ef	-0.14120077
44	0x3e698c2d	0.22807379
45	0xbe95c1dd	-0.29249468
46	0xbd533387	-0.051562812
47	0x3e42af9d	0.19012304
48	0xbdacb45e	-0.0843284
49	0x3e206d35	0.15666659
50	0xbea02681	-0.31279376
51	0x3f26ebf1	0.6520377
52	0xbdf86bd2	-0.1212994
53	0xbdd436f3	-0.10362043
54	0xbe284e89	-0.16436209
55	0xbd7e770e	-0.06212526
56	0x3e506eb1	0.20354725
57	0x3f552c11	0.83270365
58	0xbdaab481	-0.0833521
59	0xbe4649d3	-0.19364099
60	0x3f32c190	0.698266
61	0xbd2d0115	-0.04223736
62	0x3ea0668d	0.3132824
63	0x3e2dd8af	0.1697719
64	0x3df271f6	0.118381426
65	0xbe7b7c24	-0.24559075
66	0x3dcd3b82	0.10021116
67	0xbe04342e	-0.1291053
68	0xbdd2e786	-0.10298066
69	0xbc24ca96	-0.010058066
70	0xbefe8185	-0.4970819
71	0x3e93b0a2	0.28845698
72	0x3dd9006c	0.105957836
73	0xbdc78ede	-0.09744047
74	0xbdba49ac	-0.09096083
75	0x3da9f252	0.08298172
76	0xbe38f009	-0.18060316
77	0xbecda0bf	-0.40161702
78	0x3db85eaf	0.090024345
79	0xbe9ee7b2	-0.31036144
80	0xbe744d42	-0.23857597
81	0xbee5fde5	-0.4492027
82	0xbef77803	-0.4833375
83	0x3e2c3380	0.1681652
84	0xbe5700d4	-0.2099641
85	0xbdd10ad1	-0.10207141
86	0x3ee2834d	0.442408
87	0x3cac7aa7	0.021054579
88	0xbd8a0ba1	-0.06740499
89	0xbd35718b	-0.044297736
90	0xbee60b69	-0.4493058
91	0x3eae52cd	0.34047547
92	0x3e4ccecd	0.20000763
93	0xbe2156df	-0.15755795
94	0xbd3d082c	-0.04615037
95	0xbeb3fee2	-0.35155398
96	0x3f030853	0.51184577
97	0xbe0b2758	-0.13589227
98	0xbe1478d7	-0.14499222
99	0x3ea528c2	0.32257658
100	0x3e9da042	0.3078633
101	0x3f18b2db	0.5964791
102	0xbd1a395c	-0.03765236
103	0xbea9988e	-0.33124202
104	0xbdbb6415	-0.091499485
105	0x3ec34580	0.38138962
106	0xbc8b1abe	-0.016980525
107	0xbe2cfbf9	-0.16892995
108	0xbd26ef6a	-0.040755667
109	0xbe84e3d9	-0.25955084
110	0xbe82b58c	-0.25529134
111	0x3f45161e	0.76986873
112	0x3dea92d0	0.114537835
113	0xbd8e558a	-0.06949909
114	0xbeb11f4e	-0.34594196
115	0x3ed1bba3	0.40963468
116	0x3f0a55cb	0.5403716
117	0xbe81488b	-0.25250658
118	0xbf38a425	-0.72125465
119	0xbe0136c8	-0.12618554
120	0x3e5926e7	0.21206246
121	0x3e89c7cd	0.26910248
122	0x3ef600bc	0.48047435
123	0xbefa76a1	-0.48918632
124	0x3e3242c6	0.17408285
125	0x3e89941d	0.26870814
126	0x3e4b6e4f	0.19866298
127	0xbe20ed3b	-0.15715496

model.encoder.rnn.weight_hh_l0 f4 [128, 32]
0	0x3ec3187c	0.38104618
1	0x3c265cb7	0.010153941
2	0x3e112e79	0.14177884
3	0xbe44f088	-0.1923238
4	0xbec955c2	-0.3932324
5	0x3e3c3adf	0.18381833
6	0x3de80071	0.11328209
7	0xbe2ea01c	-0.17053264
8	0x3edf6732	0.4363342
9	0xbe36fe81	-0.17870523
10	0xbe0ea717	-0.13930927
11	0x3e47af13	0.1950038
12	0x3d9a14b2	0.075234786
13	0x3e846296	0.25856465
14	0xbe5e6288	-0.21717274
15	0xbed56a20	-0.4168253
16	0x3dac4ffd	0.08413694
17	0xbe53849f	-0.2065606
18	0x3e086f6b	0.13323753
19	0x3ea97bce	0.33102268
20	0xbe745cf5	-0.23863585
21	0x3e761b80	0.24033928
22	0xbea66078	-0.32495475
23	0x3e7046c2	0.23464492
24	0x3e33be9a	0.17553177
25	0x3c850dea	0.016241986
26	0x3d13bc4d	0.03606825
27	0xbe6ccb65	-0.23124464
28	0x3f2eb18a	0.68239653
29	0x3c6ea055	0.014564593
30	0x3ec4ff43	0.38476
31	0x3ddf0aa4	0.108907014
32	0xbe183140	-0.14862537
33	0xbe2c46f9	-0.16823949
34	0x3e8a6d3f	0.27036473
35	0xbe33a4e4	-0.1754337
36	0xbeb2297f	-0.34797284
37	0xbb013822	-0.0019717296
38	0x3e019d4e	0.12657663
39	0x3e3ce7eb	0.18447845
40	0x3e808423	0.25100812
41	0x3cb7ce3d	0.02243721
42	0xbe98d5fb	-0.29850754
43	0xbe8a63f8	-0.27029395
44	0x3e8ab5d7	0.27091858
45	0xbd768bdf	-0.060191985
46	0x3def1ab5	0.11675016
47	0x3dbca345	0.09210829
48	0x3e0bcd24	0.13652474
49	0x3e2b1fc8	0.16711342
50	0x3ea3fed9	0.3203037
51	0xbd2c8284	-0.042116657
52	0x3eeafe60	0.45897198
53	0xbe66348a	-0.2248098
54	0x3e22f346	0.15913114
55	0x3e385535	0.18001254
56	0x3e2a86a6	0.16652927
57	0xbdd05d69	-0.101740666
58	0x3d72e11b	0.05929671
59	0xbd1c3449	-0.0381358
60	0xbd13e845	-0.03611018
61	0x3d907017	0.070526294
62	0x3eb76496	0.35818928
63	0xbc4c2815	-0.012460728
64	0xbc715631	-0.014730022
65	0x3e51a69b	0.20473711
66	0x3dacaad2	0.08431019
67	0x3e49cbc3	0.19706635
68	0xbd87e04e	-0.066345796
69	0x399e0c1c	0.0003014513
70	0x3e6a91e4	0.22907215
71	0x3d19c4ec	0.037541315
72	0x3e95b0b4	0.29236376
73	0x3cb468f5	0.022022704
74	0x3e1fe24b	0.15613668
75	0xbd825deb	-0.0636557
76	0x3e50b354	0.20380908
77	0x3d6a954c	0.057271287
78	0x3de5a3ef	0.112129085
79	0x3bff0050	0.0077820197
80	0xbd36c848	-0.044624597
81	0x3d8de847	0.06929069
82	0x3df131e8	0.11777097
83	0xbe0b4f00	-0.13604355
84	0xbdab6629	-0.08369095
85	0xbe2d3f64	-0.16918713
86	0x3d2e5d89	0.04256967
87	0xbe0b81ff	-0.13623808
88	0xbcc5c7a6	-0.024143051
89	0x3cf8e799	0.030383872
90	0x3e83742b	0.25674567
91	0xbc7568e5	-0.014978622
92	0x3e6dfa65	0.23240049
93	0x3cd64a80	0.026158571
94	0xbbb5861b	-0.0055396683
95	0xbd34224a	-0.043978013
96	0x3dcb45de	0.099254355
97	0xbe18c5aa	-0.14919153
98	0x3e6b07ff	0.22952269
99	0xbbad408b	-0.005287235
100	0xbce57e5a	-0.02801435
101	0x3e843e0d	0.2582859
102	0x3cc3d955	0.023907343
103	0xbcb13834	-0.021633245
104	0x3c4eb948	0.012617417
105	0x3ed3bc89	0.41354778
106	0x3e56830f	0.20948432
107	0x3e0830fd	0.13299938
108	0x3d2e378f	0.042533454
109	0x3d37f161	0.04490793
110	0x3db17ab9	0.086659856
111	0xbe31d768	-0.17367327
112	0xbe0da4f4	-0.13832456
113	0x3d118480	0.035526752
114	0xbd73e796	-0.05954703
115	0x3dfb845c	0.12281105
116	0xbe797636	-0.243615
117	0x3df0f7cf	0.11766016
118	0x3e656a39	0.22403802
119	0x3e080a66	0.13285217
120	0x3ee6d3e0	0.45083523
121	0x3dacbb3d	0.0843415
122	0x3b5b9ea3	0.0033511303
123	0x3e02aa14	0.12760192
124	0xbf0b6450	-0.5444994
125	0x3cdc7e09	0.026915567
126	0x3e8adc12	0.27121025
127	0x3da6ecf3	0.08150663
128	0xbc96a23d	-0.018387908
129	0x3dd46459	0.10370702
130	0x3e40a43b	0.18812649
131	0xbe82bfed	-0.25537053
132	0xbf044a64	-0.5167601
133	0x3e56e9b5	0.2098759
134	0x3dc5f548	0.09665924
135	0xbdc05c5a	-0.09392615
136	0x3edfc07b	0.43701538
137	0xbd62e63e	-0.055395357
138	0xbc9b4f75	-0.018958787
139	0x3e96ee91	0.29478887
140	0x3e817396	0.25283498
141	0xbdee8a5c	-0.11647484
142	0x3e3c9de7	0.1841961
143	0xbe468f35	-0.19390567
144	0xbe634370	-0.22193694
145	0xbe9ee53d	-0.3103427
146	0xbf09798e	-0.537011
147	0x3d8e2aa3	0.06941726
148	0xbec4c887	-0.3843424
149	0x3d2a5f19	0.0415946
150	0x3e498c2a	0.19682375
151	0x3d21c13d	0.039490927
152	0x3eca9351	0.39565518
153	0xbea8cbd0	-0.32967997
154	0x3d829a14	0.06377044
155	0xbe2e6d17	-0.17033802
156	0x3eaa6790	0.33282137
157	0xbe46ed9e	-0.19426581
158	0x3f14002b	0.57812756
159	0x3d146793	0.03623159
160	0xbe5b19c5	-0.21396549
161	0x3d235844	0.0398791
162	0xbe57dfef	-0.21081518
163	0xbd2d3bf0	-0.04229349
164	0x3dfa0633	0.12208214
165	0xbe9c2414	-0.30496275
166	0x3e7356aa	0.23763528
167	0xbe393330	-0.18085933
168	0x3e3f287b	0.18667786
169	0xbe15673d	-0.14590164
170	0x3d9a0d8e	0.075221166
171	0x3e265e8c	0.16247004
172	0x3e648fc1	0.22320463
173	0x3e9e514f	0.3092141
174	0xbdfef84a	-0.12449701
175	0x3e8556bf	0.26042745
176	0x3e72ab8e	0.23698255
177	0xbe3c2b5a	-0.18375912
178	0xbc0cf1e0	-0.008602589
179	0x3e95ef2d	0.2928404
180	0x3e5e25ea	0.2169415
181	0xbe2a5d21	-0.16637088
182	0xbe5966e3	-0.21230654
183	0xbd3f7694	-0.046743944
184	0xbdd22e8d	-0.10262785
185	0x3e022604	0.12709814
186	0x3aaae52b	0.0013038268
187	0xbeaf646e	-0.3425631
188	0xbd840d15	-0.06447808
189	0x3e0d3813	0.13790922
190	0xbd9b3375	-0.07578174
191	0x3d86276e	0.06550489
192	0x3f57f032	0.84350884
193	0xbda9c717	-0.082899265
194	0x3e2111c6	0.15729436
195	0x3e979025	0.2960216
196	0xbe1d128f	-0.15339111
197	0x3f1ec443	0.6201822
198	0xbdd44641	-0.10364962
199	0xbd42bc91	-0.047543112
200	0xbe0173ad	-0.12641783
201	0x3d2d50c2	0.042313345
202	0xbe487525	-0.19575937
203	0xbe0f1224	-0.13971764
204	0xbe3a4775	-0.18191321
205	0x3e10f42d	0.14155646
206	0xbc9e723b	-0.019341579
207	0x3e20af71	0.15691926
208	0xbe199be8	-0.1500088
209	0xbd548e0c	-0.05189328
210	0xbd5eabfe	-0.054363243
211	0xbd8ad37c	-0.06778619
212	0xbe90c3a6	-0.28274268
213	0x3e7ef6bc	0.24898809
214	0x3dd37a04	0.10326007
215	0xbd1faf87	-0.038985755
216	0x3efda8a3	0.49542722
217	0xbf378765	-0.7169097
218	0x3e7887e0	0.24270582
219	0x3df588b9	0.119889684
220	0x3d466310	0.048434317
221	0xbe18c6e6	-0.14919624
222	0x3efae81d	0.49005213
223	0xbccaca29	-0.0247546
224	0x3e61d442	0.22053626
225	0x3e1faf79	0.15594281
226	0x3d701407	0.05861285
227	0x3e1484fd	0.14503856
228	0x3e2219d1	0.1583016
229	0x3d1ff5d7	0.03905281
230	0x3ea4604f	0.32104728
231	0x3d519dee	0.051176004
232	0xbd9ddbd1	-0.07707942
233	0xba2bd7fd	-0.0006555317
234	0xbe8868c7	-0.2664244
235	0x3dcb88d6	0.09938209
236	0x3e1ac57c	0.15114397
237	0xbdb417fa	-0.08793636
238	0x3da5afcd	0.08090172
239	0x3c042967	0.008066512
240	0x3c3b5a05	0.011435037
241	0x3e87789b	0.26459202
242	0x3d740f31	0.0595848
243	0xbcee18eb	-0.029064616
244	0xbd036de4	-0.03208722
245	0x3df686fd	0.12037466
246	0x3e382bf6	0.1798552
247	0xbdd8c7e1	-0.10584999
248	0x3d64343f	0.05571389
249	0xbe1ab0b1	-0.15106465
250	0x3da28c40	0.07936907
251	0xbbeb7898	-0.0071860068
252	0x3eb0e202	0.3454743
253	0x3dcb8f14	0.09939399
254	0x3e378d2a	0.17924944
255	0x3db006fc	0.08595082

model.encoder.rnn.bias_ih_l0 f4 [128]
0	0x3db875b4	0.09006825
1	0x3e2d8eb0	0.16948962
2	0x3dd72621	0.105053194
3	0xbc3c447a	-0.011490935
4	0xb91a1865	-0.00014695672
5	0xbdbee36c	-0.09320721
6	0x3df00cfa	0.11721225
7	0xbe04105a	-0.12896863
8	0xbd4aac42	-0.049480684
9	0xbe4c04bd	-0.19923683
10	0xbdc98740	-0.0984025
11	0x3de65b7b	0.11247917
12	0x3e234823	0.15945487
13	0x3d2325f6	0.039831124
14	0x3e077966	0.13229904
15	0x3da7723d	0.08176086
16	0x3e05819c	0.13037723
17	0xbd4355b5	-0.04768916
18	0x3e382b37	0.17985235
19	0x3d9e4b5e	0.07729219
20	0xbd3d0df8	-0.0461559
21	0x3e487da2	0.19579175
22	0xbd58382e	-0.052787952
23	0x3c099672	0.008397685
24	0xbe7af798	-0.24508512
25	0x3b277d88	0.0025557
26	0x3e24203b	0.1602792
27	0xbe0d4365	-0.1379524
28	0xbb887296	-0.0041640503
29	0x3d62092c	0.05518453
30	0x3e423673	0.18966083
31	0xbdcd3ee2	-0.100217596
32	0xbc8cc032	-0.01718149
33	0xbe0d4aa9	-0.13798012
34	0x3e5a6f04	0.21331412
35	0xbe771713	-0.24129896
36	0xbca3c5fc	-0.019991867
37	0x3d12a503	0.0358019
38	0x3ec1fc52	0.37887818
39	0x3e0c4592	0.13698414
40	0xbe914072	-0.2836948
41	0x3df5bd96	0.11999051
42	0x3e4cff2c	0.20019215
43	0x3e0d3217	0.13788639
44	0x3d83298c	0.06404409
45	0xbbac3484	-0.005255284
46	0x3e1b7075	0.15179618
47	0xbd8e8814	-0.069595486
48	0xbe1e3ecc	-0.15453643
49	0xbe83c234	-0.25734103
50	0xbd8222df	-0.063543074
51	0x3d6249c1	0.05524612
52	0x3e312253	0.1729825
53	0xbc6837d4	-0.014173467
54	0xbe247184	-0.16058928
55	0xbd8e9948	-0.0696283
56	0xbdcdc434	-0.100471884
57	0x3e64dd7b	0.22350113
58	0x3cb3085f	0.021854578
59	0xbceae77d	-0.028674835
60	0x3e2f029d	0.1709084
61	0x3e331b7e	0.17490956
62	0x3e149d36	0.14513096
63	0xbdb1a9e5	-0.08674983
64	0xb9ef157f	-0.00045601648
65	0x3dae0384	0.08496764
66	0xbdeb4107	-0.11487012
67	0x3e0eefcc	0.13958663
68	0x3e2af713	0.16695814
69	0xbde29c2a	-0.11064942
70	0x3d161805	0.036644
71	0x3c8154a4	0.01578743
72	0xbdac51bf	-0.08414029
73	0xbd73ebe6	-0.059551142
74	0xbdbbd1f7	-0.09170907
75	0xbe14bd66	-0.14525375
76	0xbbea1081	-0.0071430807
77	0xbc7e2f87	-0.015514261
78	0xbd59c645	-0.0531676
79	0x3e53781f	0.20651291
80	0xbba00907	-0.0048838886
81	0x3e3f9704	0.18709952
82	0x3e290a65	0.16507871
83	0xbc126d48	-0.0089371875
84	0x3e75c07b	0.23999207
85	0x3e0caa78	0.13736904
86	0x3dcebc9b	0.100945674
87	0xbda782bb	-0.08179232
88	0xbcc26186	-0.023728143
89	0x3bbc7c42	0.0057521174
90	0x3da5e94c	0.081011385
91	0xbe1745bc	-0.14772695
92	0xbe8b1990	-0.2716794
93	0x3dcb62b5	0.09930936
94	0xbe174399	-0.1477188
95	0x3dc65731	0.09684599
96	0x3d9bd00f	0.076080434
97	0xbd16211d	-0.036652673
98	0xbc81b812	-0.015834842
99	0x3c241d7e	0.010016797
100	0xbe7245f4	-0.23659497
101	0x3d09969c	0.033590898
102	0x3cf7194c	0.03016343
103	0x3dcda332	0.10040893
104	0x3c38d36f	0.011280878
105	0xbdb0c88d	-0.08632002
106	0x3cc1a229	0.023636894
107	0x3e228740	0.15871906
108	0x3d130ef6	0.03590294
109	0xbd942251	-0.07233108
110	0xbd856bc0	-0.06514692
111	0x3e13f9b8	0.14450729
112	0x3daa177a	0.08305259
113	0xbdc70daa	-0.09719403
114	0x3d6740bb	0.056458216
115	0x3b9328f4	0.004490966
116	0xbe27a446	-0.16371259
117	0x3ce3ef10	0.027823955
118	0xbb7e6107	-0.0038815157
119	0xbdd8a46d	-0.10578237
120	0x3d4d5067	0.050125506
121	0xbd7ab312	-0.06120593
122	0xbb3446f5	-0.0027508114
123	0xbdaeb479	-0.08530516
124	0xbaecb845	-0.0018060288
125	0x3e0fd096	0.14044413
126	0xbb87e13f	-0.0041467245
127	0x3e24d7bf	0.16097926

model.encoder.rnn.bias_hh_l0 f4 [128]
0	0x3dc50956	0.09620921
1	0xbd90fb9b	-0.0707924
2	0x3d628dbb	0.055310946
3	0xbce7c0b4	-0.02829013
4	0xbd69bd4f	-0.057065304
5	0x3e268b2f	0.16264032
6	0x3e96ec29	0.2947705
7	0x3e0499a1	0.1294923
8	0x3dacb07a	0.08432098
9	0xbe1865e8	-0.14882624
10	0x3e396256	0.18103918
11	0x3e3c45c0	0.18385983
12	0x3e8bc066	0.27295226
13	0x3e536ff6	0.20648178
14	0xbe325fa3	-0.17419295
15	0x3d8cc530	0.06873548
16	0xbddd289f	-0.107987635
17	0xbd514566	-0.051091574
18	0x3e195bca	0.14976421
19	0x3cee56a3	0.029094046
20	0xbda33cb7	-0.07970565
21	0xbc4ef31b	-0.012631203
22	0xbdbabeac	-0.09118399
23	0xbe2a7d37	-0.16649328
24	0xbd6523cd	-0.055942345
25	0x3c999432	0.018747423
26	0x3e65f468	0.22456515
27	0xbd89ee6e	-0.0673493
28	0xbe48f049	-0.19622912
29	0x3dc1dac0	0.094655514
30	0x3e402280	0.1876316
31	0xbd2ca493	-0.042149138
32	0xbd0749df	-0.033029433
33	0x3e21faf9	0.15818395
34	0x3dca5474	0.098793894
35	0x3bb644c8	0.0055623986
36	0x3d0c5c65	0.0342678
37	0x3df6e3a8	0.12055141
38	0x3ef3702c	0.47546518
39	0x3e0b3c62	0.13597253
40	0xbe2b6698	-0.16738355
41	0x3e0666ab	0.13125102
42	0x3dd64a0e	0.104633436
43	0xbd74be46	-0.05975177
44	0x3d788aa1	0.06067908
45	0xbdb09b01	-0.08623315
46	0x3dc52d38	0.096277654
47	0xbdbd7c28	-0.092521966
48	0xbe733d22	-0.23753789
49	0x3d29a616	0.041418158
50	0xbe368b1c	-0.17826504
51	0x3d6b589a	0.057457544
52	0x3e05956a	0.13045278
53	0x3e6315d6	0.22176298
54	0xbd29c4a8	-0.04144731
55	0xbe9880cf	-0.29785773
56	0xbe1fec0b	-0.15617387
57	0x3ea66ed6	0.32506436
58	0xbe5ee39b	-0.21766512
59	0xbddd8217	-0.10815828
60	0xbdc45c1e	-0.095878825
61	0x3e47bd5e	0.19505832
62	0xbd7711b8	-0.060319632
63	0x3cdb0246	0.026734482
64	0xbd624b00	-0.055247307
65	0xbc3fd941	-0.011709512
66	0xbd85fd7f	-0.06542491
67	0x3e46e173	0.1942194
68	0xbcdf3ce0	-0.027250707
69	0xbd9f8ca2	-0.077904955
70	0xbe225584	-0.15852934
71	0xbdd78ac3	-0.105245136
72	0xbd8f29c6	-0.069903895
73	0xbce72cce	-0.028219607
74	0x3e39a0e8	0.18127787
75	0xbddbfcd9	-0.10741586
76	0xbe174a5e	-0.14774463
77	0x3d7a8ddc	0.061170444
78	0x3cedc6ba	0.029025424
79	0x3e2440ce	0.16040346
80	0xbd325dae	-0.04354637
81	0x3de4691e	0.11152862
82	0x3e0f2a52	0.13980988
83	0xbbecb2d0	-0.0072234645
84	0x3d48be15	0.0490094
85	0xbe21900f	-0.1577761
86	0xbe230b38	-0.15922248
87	0xbe083a6a	-0.13303533
88	0xbda18119	-0.078859515
89	0x3e0ee970	0.13956237
90	0x3d8a755c	0.06760666
91	0x3dd20725	0.10255269
92	0xbe1737d7	-0.14767395
93	0x3e149559	0.14510097
94	0xbdb40687	-0.087903075
95	0xbd3b6af8	-0.04575631
96	0xbd54c08b	-0.051941436
97	0xbe308784	-0.17239195
98	0xbdc4e544	-0.096140414
99	0x3bef6c1f	0.00730659
100	0xbd3d4f4a	-0.046218194
101	0x3d0d9997	0.034570303
102	0x3e139a72	0.14414385
103	0x3da0403a	0.0782475
104	0x3d146b7d	0.03623532
105	0xbd548991	-0.051889006
106	0x3de3841f	0.111091845
107	0xbdeff56e	-0.11716734
108	0x3e88cbc6	0.26717967
109	0x3d057c70	0.032589376
110	0x3cfe7956	0.031063717
111	0xbe0e13b4	-0.13874704
112	0x3cc722a6	0.024308514
113	0xbdc4902f	-0.09597813
114	0x3e4ab31e	0.1979489
115	0x3b85073e	0.004059701
116	0xbdf85fef	-0.12127673
117	0x3d6fe024	0.058563367
118	0xbd970e65	-0.073757924
119	0xbd931115	-0.071809925
120	0x3a127065	0.0005586206
121	0x3b1add02	0.0023630266
122	0x3d941979	0.07231421
123	0xbcadb712	-0.021205459
124	0x3e38e630	0.1805656
125	0xbe11fb86	-0.14256105
126	0x3d9fa289	0.07794673
127	0xbdc6d38c	-0.09708318

model.encoder.readout.weight f4 [12, 32]
0	0x3df92ef5	0.121671595
1	0xbe4c05a9	-0.19924034
2	0xbd480d6c	-0.048840925
3	0xbdd63435	-0.104591765
4	0xbcd7126d	-0.026253903
5	0x3dbb7c52	0.091545716
6	0xbcaf80b4	-0.021423675
7	0xbdddbacc	-0.10826644
8	0x3ec26693	0.37968883
9	0x3e2f1e52	0.1710141
10	0x3a2995be	0.00064691517
11	0x3df532ce	0.11972581
12	0xbda63fb3	-0.081176184
13	0xbe6ce344	-0.2313357
14	0x3e3fd186	0.1873227
15	0xbe0bd94f	-0.13657115
16	0xbc8776d1	-0.016536148
17	0xbed2a787	-0.41143438
18	0xbe0faa60	-0.14029837
19	0xbda2a057	-0.07940739
20	0xbdac2da8	-0.08407146
21	0x3dc5b1c0	0.09653044
22	0x3e5c2600	0.21498871
23	0x3c52f2fa	0.012875313
24	0x3e02bda1	0.1276765
25	0x3c36003d	0.011108455
26	0xbc59af38	-0.013286404
27	0x3e0ce7a9	0.13760246
28	0x3e41954c	0.18904608
29	0xbcb22af6	-0.021749001
30	0x3e17b27c	0.1481418
31	0x3dfb8214	0.1228067
32	0x3bee0371	0.007263594
33	0xbd4e4cbe	-0.050366156
34	0x3db3364e	0.08750592
35	0x3d72c04a	0.059265412
36	0xbe4a7b76	-0.19773659
37	0xbce67756	-0.028133076
38	0xbdd7fc56	-0.10546176
39	0xbcfa9aae	-0.030591335
40	0x3e877b45	0.26461235
41	0xbd726a3a	-0.059183337
42	0xbe253425	-0.16133173
43	0xbdb050c9	-0.086091585
44	0xbe029fc5	-0.1275626
45	0x3c91fa07	0.017819418
46	0xbdd74ae8	-0.10512334
47	0xbce8ffe8	-0.028442338
48	0xbdf0519a	-0.11734314
49	0xbe9b9899	-0.3038986
50	0xbe07eab5	-0.13273127
51	0x3d8a5db3	0.06756153
52	0xbd961cf2	-0.0732974
53	0x3e6e7784	0.23287779
54	0xbc34dc89	-0.011038908
55	0xbd7b3b18	-0.061335653
56	0x3ddbf651	0.107403405
57	0xbca3475f	-0.019931493
58	0xbddb5797	-0.10710066
59	0x3e28a271	0.16468216
60	0x3dca4aa7	0.0987752
61	0x3d40efc8	0.047103673
62	0x3de3b821	0.11119104
63	0xbdd9d5a9	-0.106364556
64	0x3e76af68	0.2409035
65	0xbe6d4662	-0.2317138
66	0x3d966539	0.073435254
67	0x3dbbf08f	0.09176742
68	0xbe8091c5	-0.25111213
69	0xbb8d3719	-0.0043095467
70	0xbe181ebc	-0.14855474
71	0x3cf5769c	0.029963784
72	0x3ef694a8	0.4816029
73	0xbda79ee8	-0.08184606
74	0xbc9b626d	-0.018967832
75	0x3d974832	0.07386817
76	0x3d07bd8f	0.03313976
77	0xbd82c7dc	-0.063857764
78	0xbd2802ba	-0.041018225
79	0xbdd30fe7	-0.103057675
80	0x3c47859a	0.012177849
81	0xbe87d538	-0.2652986
82	0xbea8aef9	-0.32945994
83	0xbdc5c757	-0.09657162
84	0xbd064cae	-0.03278797
85	0x3e4903ff	0.1963043
86	0x3df25bd7	0.11833923
87	0xbd75e86e	-0.060036115
88	0x3e2362f1	0.15955712
89	0x3e1ee7e8	0.15518153
90	0x3db92837	0.090408735
91	0x3cbe88c3	0.023258572
92	0x3d158e10	0.036512434
93	0xbe05ccad	-0.13066359
94	0x3da59f35	0.08087007
95	0x3dbd049d	0.092293955
96	0x3d3edcd7	0.046597328
97	0x3e036e33	0.12835006
98	0xbd410127	-0.04712024
99	0xbdca887e	-0.09889315
100	0xbd2ee6d9	-0.042700622
101	0x3e0c8e10	0.13726068
102	0xbde85715	-0.113447346
103	0x3d878571	0.06617249
104	0x3ed4f3b0	0.4159217
105	0xbd9108d8	-0.07081765
106	0x3d24f447	0.040272024
107	0xbd4cde12	-0.05001647
108	0x3d92596a	0.07145961
109	0xbd6f56ad	-0.05843227
110	0xbe09bc73	-0.13450794
111	0x3dec002c	0.1152347
112	0xbe268f5e	-0.16265628
113	0xbe9c7abd	-0.30562392
114	0xbe8b81e5	-0.2724754
115	0xbcc92bfc	-0.024557106
116	0xbe1f1f18	-0.15539205
117	0x3e18fd2d	0.14940329
118	0x3e413b92	0.1887038
119	0x3d8b4a70	0.06801307
120	0x3e3efd5a	0.18651333
121	0xbe283600	-0.1642685
122	0xbe2ea39d	-0.17054601
123	0x3d567797	0.052360144
124	0x3e25f5a9	0.16206993
125	0x3c208bc6	0.00979895
126	0x3dbff96a	0.09373744
127	0x3e2ec406	0.17066965
128	0x3c770990	0.0150779635
129	0x3dd8a7a8	0.10578853
130	0x3d7b6fcd	0.06138592
131	0xbd6e2564	-0.058141127
132	0xbe6f028d	-0.23340817
133	0xbcbaa6e9	-0.022784667
134	0xbcdf8001	-0.027282717
135	0xbd1388d1	-0.03601915
136	0x3ea1d207	0.3160555
137	0x3d594374	0.053042844
138	0xbd5b6013	-0.05355842
139	0xbca75be3	-0.020429557
140	0x3b29e9ab	0.002592663
141	0xbdd87128	-0.10568458
142	0x3d946d9e	0.0724747
143	0x3e39de94	0.18151313
144	0xbc61347c	-0.013745423
145	0xbf080eae	-0.531474
146	0xbe4fa408	-0.20277417
147	0xbd4bc2f7	-0.04974648
148	0xbdd6a8d5	-0.10481421
149	0xbdc2a903	-0.09504893
150	0xbc83a3e8	-0.016069368
151	0xbe16cdb9	-0.14726914
152	0x3aafafb9	0.001340381
153	0xbd48e7b9	-0.049049113
154	0xbea9f713	-0.33196315
155	0x3de0d0fd	0.10977361
156	0x3e8ed79d	0.27898875
157	0xbdb42b06	-0.087972686
158	0x3e1d8f2f	0.15386651
159	0x3e20e73b	0.15713207
160	0x3ea57b93	0.32320842
161	0x3d94c00e	0.07263194
162	0x3e0a4453	0.13502626
163	0xbd51569a	-0.05110798
164	0xbdf0160b	-0.11722954
165	0xbd2970bc	-0.041367278
166	0xbe19eda4	-0.15032059
167	0x3c977ad1	0.01849118
168	0x3e37da7c	0.17954439
169	0x3d136232	0.03598232
170	0x3c84b16e	0.016197886
171	0x3e094191	0.13403918
172	0xbd8ed8e5	-0.06974963
173	0x3d102e28	0.035200268
174	0xbe14e93e	-0.145421
175	0x3dee28da	0.116288856
176	0xbc4ee41f	-0.0126276305
177	0xbefd0668	-0.4941895
178	0xbe85bf1d	-0.2612237
179	0xbe1942e3	-0.14966922
180	0xbdacda51	-0.08440078
181	0x3d089cb1	0.033352558
182	0xbd724471	-0.059147302
183	0x3c438d3b	0.011935527
184	0x3e60d538	0.21956336
185	0x3da59a22	0.08086039
186	0xbe10ee68	-0.14153445
187	0x3e676fc2	0.22601226
188	0x3d854b8e	0.065085515
189	0x3e20f2e6	0.15717658
190	0x3dd2ddfb	0.10296246
191	0x3d528bbc	0.051402792
192	0x3e6a4d0d	0.22880955
193	0x3bf838cd	0.0075751306
194	0x3e16d175	0.14728339
195	0xbe250de7	-0.16118585
196	0xbd335519	-0.043782327
197	0x3e35716d	0.1771905
198	0x3dbc9143	0.09207394
199	0x3e7f6a7b	0.24942963
200	0x3e3155aa	0.17317834
201	0x3e339ee9	0.17541088
202	0xbc88e0b7	-0.016708715
203	0x3e590dba	0.21196643
204	0x3e3dcde3	0.18535571
205	0xbd56a4c2	-0.05240322
206	0xbd592572	-0.053014226
207	0x3cc7bf99	0.024383353
208	0xbdb0b6c8	-0.08628613
209	0xbe98e234	-0.2986008
210	0xbe1a25b1	-0.1505344
211	0xbdbd3e51	-0.092404015
212	0x3dc0ff3f	0.09423684
213	0xbd2316ae	-0.03981655
214	0x3e269f9d	0.16271825
215	0x3b547a5f	0.0032421572
216	0x3be900d6	0.0071106954
217	0xbd1f589a	-0.038902856
218	0xbecc36f6	-0.39885682
219	0x3cf10067	0.029419137
220	0x3db63ecf	0.088986985
221	0xbd155a26	-0.036462925
222	0x3e1e683a	0.15469447
223	0x3e12385a	0.14279309
224	0x3d5c839c	0.05383645
225	0xbdc9dc60	-0.09856486
226	0xbb932f77	-0.0044917422
227	0xbd76fad6	-0.06029781
228	0xbcf10337	-0.029420478
229	0xbdda248b	-0.10651501
230	0x3c3c5ef2	0.011497246
231	0xbc03d721	-0.008046896
232	0x3e5684a0	0.2094903
233	0xbc59ec86	-0.0133010205
234	0xbe15d995	-0.14633782
235	0xbd03c221	-0.032167558
236	0xbe07a645	-0.1324702
237	0xbe4d08ec	-0.20022935
238	0x3afc66bb	0.001925669
239	0x3d991e39	0.07476468
240	0x3db9428e	0.090458974
241	0xbed4c814	-0.41558897
242	0xbe54e9d1	-0.20792319
243	0xbd206b54	-0.039164856
244	0x3c99931f	0.01874691
245	0xbe0e0ae9	-0.1387135
246	0xbc2d0694	-0.01056065
247	0x3dc1f6fa	0.09470935
248	0x3dd92803	0.10603335
249	0xbdeb7524	-0.11496952
250	0xbe2422d2	-0.16028908
251	0x3c3f788e	0.011686457
252	0x3e4040b4	0.18774682
253	0xbd6521d4	-0.055940464
254	0x3dd66e09	0.10470206
255	0x3e71364e	0.23555872

model.encoder.readout.bias f4 [12]
0	0xbb9a7048	-0.004713092
1	0xbdb0688f	-0.08613693
2	0xbd2606ce	-0.040533833
3	0xbd0be889	-0.03415731
4	0xbca9be3f	-0.0207206
5	0xbdb4a078	-0.088196695
6	0x3d2aea4b	0.041727345
7	0xbd9a0b10	-0.07521641
8	0xbdf8b04f	-0.12143003
9	0x3d891187	0.06692796
10	0xbd0bd246	-0.03413608
11	0xbdd32bb3	-0.10311069

exp_avg f4 [128, 1]
0	0x3a87d8d6	0.0010364305
1	0xb9d8ef6f	-0.00041377122
2	0x39b98f38	0.00035392656
3	0xb986593d	-0.0002562496
4	0x3a953adb	0.0011385338
5	0xb90414e3	-0.00012596282
6	0xb9e89883	-0.00044364118
7	0x38f4caf3	0.00011672629
8	0x3707d43b	8.096041e-06
9	0x38e880d6	0.000110866196
10	0x398bc541	0.00026659112
11	0xb935070c	-0.0001726413
12	0xb9e0d0d2	-0.00042880193
13	0x370567a0	7.951545e-06
14	0x3865c7d7	5.478397e-05
15	0xbb78fd58	-0.0037992802
16	0xb99a7246	-0.0002945831
17	0x3abc96ca	0.00143882
18	0xbab9ae77	-0.0014166374
19	0xb71671f3	-8.967228e-06
20	0x3aa33b9d	0.0012453679
21	0xb9ad1605	-0.00033013537
22	0x38a58bf7	7.8938836e-05
23	0x385b8885	5.2340813e-05
24	0xba33e9ee	-0.00068631663
25	0x39ffe6cb	0.00048809344
26	0xbacbaa4f	-0.0015538427
27	0xb9884e1f	-0.00025998146
28	0xba263004	-0.00063395523
29	0xba0629dd	-0.00051179325
30	0x397b66e8	0.00023975561
31	0xba1f3785	-0.00060736417
32	0x3a9016b3	0.0010993093
33	0xb88a95aa	-6.60823e-05
34	0xb854be0c	-5.0721734e-05
35	0xb911ef2e	-0.00013917379
36	0x3a25cebb	0.0006325056
37	0xb9b66ba7	-0.00034793952
38	0xb9d360dd	-0.00040317225
39	0x38a7c0df	7.9991056e-05
40	0x3a00ebda	0.0004917957
41	0xb9cbd30f	-0.00038876428
42	0x39249b70	0.00015698164
43	0xb9d01f8c	-0.00039696356
44	0xb9b0ffb8	-0.0003375986
45	0x384c3158	4.8683345e-05
46	0x379e6649	1.8882698e-05
47	0xbae46efb	-0.0017428094
48	0xb8169673	-3.5902904e-05
49	0x3a23d5e2	0.00062498276
50	0xb987a88e	-0.0002587479
51	0x3a6091f2	0.00085666694
52	0x3ab34f18	0.0013680188
53	0xb93047de	-0.0001681144
54	0x37902f8f	1.7188284e-05
55	0x37a19b0d	1.9264897e-05
56	0xbaa6c17f	-0.0012722461
57	0xb88ca56a	-6.706531e-05
58	0xba1427d4	-0.0005651687
59	0xb889c2bd	-6.568942e-05
60	0xb9ea8b3a	-0.0004473569
61	0xb9ebd9c8	-0.00044984953
62	0x38e4d595	0.0001091167
63	0xb9cc5f5f	-0.0003898097
64	0x3c548efc	0.012973543
65	0x38be6965	9.079537e-05
66	0x3999b845	0.00029319726
67	0xbc4184b5	-0.011811425
68	0xbb690d8d	-0.0035561055
69	0x3c0f213d	0.008735952
70	0x3ae058b0	0.0017116275
71	0xb896f938	-7.198978e-05
72	0x3cf0e073	0.0294039
73	0x3a656fc4	0.0008752311
74	0xbab7b28f	-0.0014015007
75	0x3a42cf2d	0.00074313843
76	0x3a5030b7	0.00079418294
77	0x3a332996	0.0006834505
78	0x39dd8012	0.00042247825
79	0x3cb56f3c	0.022147767
80	0x3a8e1dec	0.0010842658
81	0x3bd33c45	0.0064463937
82	0x3c1eac7a	0.009684676
83	0x3be3e487	0.006954733
84	0xba8336a3	-0.001001079
85	0x3ac5b6f2	0.0015084429
86	0xba4b6ef9	-0.00077603717
87	0x3941f5ba	0.00018497455
88	0x3bccccee	0.0062500155
89	0x3b3386aa	0.0027393498
90	0x3bbcdddd	0.005763753
91	0xbaa6022a	-0.001266544
92	0x3c4d5d7b	0.0125344945
93	0xba65d913	-0.00087680033
94	0x3c133d01	0.008986712
95	0x3aa19847	0.0012328707
96	0x3a32edbe	0.00068255875
97	0xb9dcc546	-0.0004210865
98	0x3a6ce833	0.0009037286
99	0xb8f0d3a5	-0.00011483514
100	0x3a1549b0	0.0005694879
101	0xb87babdd	-6.0003124e-05
102	0xba5d6151	-0.0008444982
103	0x3945d409	0.00018866373
104	0x3967ee08	0.0002211855
105	0x394dee81	0.00019639173
106	0x3a6c6456	0.0009017637
107	0xba032d5b	-0.0005004012
108	0xb59274ba	-1.091182e-06
109	0xb606760e	-2.0036273e-06
110	0x383e76b3	4.5410077e-05
111	0xb9e2e376	-0.0004327555
112	0xb9be2488	-0.00036266842
113	0x388d9c56	6.752524e-05
114	0xbab9607f	-0.0014143138
115	0x3992be01	0.00027988854
116	0x3a0dee9a	0.00054142775
117	0xb9c92340	-0.0003836397
118	0x38b81f8b	8.779679e-05
119	0x3847b947	4.761785e-05
120	0xba08d40a	-0.00052195846
121	0x380c776d	3.3489825e-05
122	0xba0f7e4f	-0.00054738385
123	0xb96da6ad	-0.00022664173
124	0xb9e22b15	-0.00043138178
125	0xb923db9e	-0.00015626705
126	0x3a7a3498	0.000954458
127	0xba456a4e	-0.0007530794

exp_avg_sq f4 [128, 1]
0	0x379065f7	1.7213619e-05
1	0x36d9f875	6.496028e-06
2	0x38833ea1	6.258232e-05
3	0x3691cc65	4.3451314e-06
4	0x3881db68	6.192067e-05
5	0x382c2624	4.1043517e-05
6	0x37dee26c	2.6569898e-05
7	0x37b21749	2.1230097e-05
8	0x36c6f09d	5.928871e-06
9	0x37768987	1.4694763e-05
10	0x37027538	7.775896e-06
11	0x36391f5a	2.7585397e-06
12	0x36f038f4	7.1591876e-06
13	0x3687d873	4.0485115e-06
14	0x363088dc	2.6305706e-06
15	0x3a153c3d	0.0005692875
16	0x37c6878d	2.366656e-05
17	0x391f62af	0.00015200184
18	0x389b5f96	7.40878e-05
19	0x350209b6	4.8442905e-07
20	0x39171bb6	0.00014410805
21	0x366e940a	3.5550934e-06
22	0x358dd41b	1.056705e-06
23	0x34d47506	3.9573223e-07
24	0x37df211c	2.659909e-05
25	0x3883170c	6.2508596e-05
26	0x375ed618	1.3282079e-05
27	0x36855431	3.97351e-06
28	0x37399daa	1.1063568e-05
29	0x37839a0b	1.5688149e-05
30	0x3857848e	5.1383446e-05
31	0x375ebe54	1.3276545e-05
32	0x36ee7243	7.1062545e-06
33	0x353ec85a	7.1072066e-07
34	0x37807098	1.531122e-05
35	0x36624d87	3.3721751e-06
36	0x370e5949	8.484648e-06
37	0x367ee878	3.7984264e-06
38	0x36bdc51d	5.655586e-06
39	0x368ca7a4	4.191841e-06
40	0x3882fe70	6.246276e-05
41	0x3788db5b	1.6314609e-05
42	0x36a7f6be	5.0057124e-06
43	0x36a9021b	5.0368376e-06
44	0x362e2890	2.595163e-06
45	0x35cb7faf	1.5161839e-06
46	0x350cb08a	5.241096e-07
47	0x3900ee37	0.00012295773
48	0x368a5080	4.122092e-06
49	0x38962ce8	7.160922e-05
50	0x37957000	1.7814338e-05
51	0x369ee56f	4.7354765e-06
52	0x37e823b8	2.7673188e-05
53	0x359b5338	1.157262e-06
54	0x3474ffcf	2.2817333e-07
55	0x338c681a	6.538194e-08
56	0x382b22a5	4.0801842e-05
57	0x350be081	5.210823e-07
58	0x3704f5f8	7.925082e-06
59	0x36072c46	2.0142338e-06
60	0x3780c6ea	1.5351416e-05
61	0x3680e77c	3.8416456e-06
62	0x380d8e66	3.374964e-05
63	0x369aa9af	4.6093114e-06
64	0x3bc7f6a0	0.006102398
65	0x373753f9	1.0927201e-05
66	0x3a260ca8	0.00063342834
67	0x3ba82db2	0.0051324004
68	0x3adbf898	0.0016782461
69	0x3c21f366	0.009884691
70	0x3a1901ea	0.0005836772
71	0x384f857b	4.947696e-05
72	0x3d33a0a5	0.043854374
73	0x3c155afd	0.009115932
74	0x3a371fc1	0.00069856277
75	0x39bfe1af	0.00036598506
76	0x387dec4f	6.053998e-05
77	0x38d5cdd4	0.0001019497
78	0x3845592b	4.7051504e-05
79	0x3d448518	0.04797849
80	0x37274fef	9.972587e-06
81	0x3aeb253d	0.0017940175
82	0x3abb9aab	0.0014313062
83	0x3acf470b	0.0015814019
84	0x3a0a4006	0.00052738225
85	0x389c1303	7.442201e-05
86	0x372a62d6	1.0155802e-05
87	0x37d231ff	2.5057232e-05
88	0x3b33a269	0.0027410036
89	0x3bbdc25d	0.005790992
90	0x39951ec6	0.00028442423
91	0x38c37814	9.320691e-05
92	0x3ce086c9	0.02740802
93	0x39d36230	0.00040318212
94	0x3c879f97	0.01655559
95	0x390d6a67	0.00013486446
96	0x3747c2cc	1.1906679e-05
97	0x36b141bc	5.2826636e-06
98	0x392583c1	0.00015784708
99	0x364a4749	3.014184e-06
100	0x3602dd9b	1.95005e-06
101	0x356c0739	8.792736e-07
102	0x383cc0fb	4.500242e-05
103	0x379b8c86	1.8542876e-05
104	0x39184262	0.00014520579
105	0x3586072c	9.985865e-07
106	0x37fce73c	3.0148418e-05
107	0x374a4829	1.2056939e-05
108	0x3861ea14	5.3862183e-05
109	0x36a88b53	5.0230096e-06
110	0x3623e6a7	2.442315e-06
111	0x3590244f	1.0739403e-06
112	0x368458da	3.9442502e-06
113	0x3849bc28	4.809737e-05
114	0x38bb23fa	8.923556e-05
115	0x36c3cb2c	5.835105e-06
116	0x3683af82	3.924536e-06
117	0x36e8ef0c	6.9419675e-06
118	0x3585b70d	9.962547e-07
119	0x34c9ae4b	3.7565982e-07
120	0x37539b9e	1.26128125e-05
121	0x3708ac68	8.146373e-06
122	0x364d6a33	3.0609197e-06
123	0x36791496	3.7115874e-06
124	0x3802a948	3.115207e-05
125	0x35d9986a	1.6212118e-06
126	0x38730627	5.7941445e-05
127	0x37663e51	1.37235775e-05

exp_avg f4 [128, 32]
0	0x3904e575	0.0001267398
1	0xb891c522	-6.950858e-05
2	0x38b78435	8.7507455e-05
3	0x394756dd	0.00019010478
4	0x37f1ecca	2.8839702e-05
5	0x38b9ac62	8.853596e-05
6	0xb953a407	-0.00020183633
7	0x38ae34ae	8.306779e-05
8	0xb84f2fa5	-4.939702e-05
9	0x384e3c60	4.9170456e-05
10	0xb92d4ec1	-0.00016527904
11	0xb79497ab	-1.77136e-05
12	0xb9a936ed	-0.00032275115
13	0xb86b1e9e	-5.605688e-05
14	0x381d43a2	3.7494705e-05
15	0x38e5d47c	0.00010959149
16	0xb88011c4	-6.106825e-05
17	0xb8659ad9	-5.4742068e-05
18	0x37b13e45	2.112904e-05
19	0x3907a0a0	0.00012934441
20	0xb87b0397	-5.9846407e-05
21	0xb8726a7d	-5.779647e-05
22	0x37dda4fd	2.6422082e-05
23	0xb6bc5dbf	-5.61375e-06
24	0xb88c2153	-6.681927e-05
25	0xb918fc5a	-0.00014589858
26	0xb891168e	-6.91834e-05
27	0x38133b97	3.510303e-05
28	0xb8aee1b1	-8.339005e-05
29	0xb88bb612	-6.66195e-05
30	0xb93bd736	-0.00017913882
31	0xb8b4bc5f	-8.618156e-05
32	0xb7d2dab5	-2.5135794e-05
33	0x34cf7764	3.8643623e-07
34	0xb526e79f	-6.217687e-07
35	0x372d42f3	1.0327191e-05
36	0x36dbadaf	6.546928e-06
37	0x37c2bd73	2.3214821e-05
38	0xb6b1413b	-5.282605e-06
39	0xb6c6ad1d	-5.921013e-06
40	0x36816ef9	3.8574185e-06
41	0x382b45e5	4.083467e-05
42	0x36fe0cdb	7.5712865e-06
43	0xb7f089b7	-2.8674358e-05
44	0x370a42df	8.241011e-06
45	0x368d466a	4.2103247e-06
46	0xb5e3c714	-1.6970757e-06
47	0x38896281	6.551017e-05
48	0x377262e5	1.444735e-05
49	0xb72106de	-9.597947e-06
50	0x379b31d0	1.8500636e-05
51	0xb85835ed	-5.1548635e-05
52	0x37a46b4b	1.9600286e-05
53	0xb56c73bd	-8.808527e-07
54	0xb715ce1b	-8.92908e-06
55	0xb6020b5e	-1.9378126e-06
56	0x378b50b6	1.6607675e-05
57	0xb7451da6	-1.1749018e-05
58	0x36e1bcef	6.7275173e-06
59	0xb695feb4	-4.4701974e-06
60	0xb8388af6	-4.3998436e-05
61	0x365a6584	3.2543621e-06
62	0xb742d441	-1.161272e-05
63	0xb6ed20fc	-7.0669903e-06
64	0x384754ac	4.7524154e-05
65	0x37979f44	1.8074767e-05
66	0xb7642b5d	-1.3599955e-05
67	0x38403b3f	4.5831544e-05
68	0xb7d7b2cf	-2.5713261e-05
69	0xb80d38be	-3.3669865e-05
70	0x38e03c6b	0.00010692406
71	0xb80aa803	-3.3058237e-05
72	0x36f01d11	7.155941e-06
73	0xb78029ba	-1.527822e-05
74	0x37299a9a	1.0109181e-05
75	0x38e4689a	0.00010891371
76	0x38a2ab01	7.756614e-05
77	0x38042653	3.1506945e-05
78	0xb781a5f8	-1.5455284e-05
79	0xb956cdf5	-0.00020485355
80	0xb7a20cc5	-1.9317851e-05
81	0xb7c1668d	-2.3055147e-05
82	0xb8b12546	-8.4469604e-05
83	0x39450107	0.00018787767
84	0xb8b8f048	-8.8185596e-05
85	0x35cd4928	1.5294981e-06
86	0xb5b9b560	-1.3836361e-06
87	0x377490b0	1.4577221e-05
88	0xb73cccc1	-1.1253346e-05
89	0xb81a2964	-3.675501e-05
90	0xb7a5d8d6	-1.9770505e-05
91	0xb79a7f17	-1.8417411e-05
92	0x38bba610	8.9477864e-05
93	0xb71f375e	-9.49003e-06
94	0x38e4c4fe	0.0001090858
95	0x381283fd	3.4932036e-05
96	0x37ff58ed	3.0439778e-05
97	0x371be773	9.292608e-06
98	0xb71b2045	-9.246233e-06
99	0xb7bb2e64	-2.231374e-05
100	0xb68dfc22	-4.2314796e-06
101	0xb65a21c6	-3.250419e-06
102	0x380fd99f	3.4296532e-05
103	0xb748d7e4	-1.1971195e-05
104	0x37b12b67	2.1120255e-05
105	0xb7838737	-1.5679381e-05
106	0x36f9e599	7.447507e-06
107	0x370046a8	7.6458455e-06
108	0x381249e1	3.4877918e-05
109	0x376de709	1.4180093e-05
110	0xb6d7b854	-6.428958e-06
111	0x37d8ebb5	2.5858966e-05
112	0x374be536	1.215311e-05
113	0x364b91da	3.0334254e-06
114	0x37999e72	1.8312803e-05
115	0x37afb044	2.0943706e-05
116	0x3682cddd	3.8982676e-06
117	0x36ad4397	5.1636703e-06
118	0xb69732d3	-4.5060674e-06
119	0x3624d29d	2.4560497e-06
120	0x375795c6	1.28498705e-05
121	0x37aab005	2.0347545e-05
122	0x37c8895b	2.3905819e-05
123	0xb6fc08ff	-7.5112325e-06
124	0x386603e5	5.48399e-05
125	0x375c78d8	1.3141158e-05
126	0x37bd7475	2.2584785e-05
127	0x374c9b7a	1.2195547e-05
128	0x38a1ba31	7.711759e-05
129	0xb8763fbd	-5.871033e-05
130	0x38b015cb	8.396393e-05
131	0x38d1813e	9.98997e-05
132	0x37ca2d40	2.4101348e-05
133	0x38bb120e	8.920218e-05
134	0xb970e04c	-0.0002297174
135	0x38bf17c9	9.11202e-05
136	0x377fcdec	1.5247129e-05
137	0xb8871e1b	-6.442909e-05
138	0xb90d025b	-0.00013447685
139	0xb836856b	-4.3516437e-05
140	0xb9913d34	-0.00027702155
141	0xb8975d6c	-7.217642e-05
142	0x38373a08	4.3684646e-05
143	0x38a78b92	7.9891775e-05
144	0xb8712717	-5.7495283e-05
145	0xb856b518	-5.1190233e-05
146	0xb7935257	-1.7562108e-05
147	0xb817742d	-3.6109403e-05
148	0xb7954589	-1.7794564e-05
149	0xb7e1f59d	-2.6936463e-05
150	0x37c78add	2.3787312e-05
151	0xb736c73a	-1.0894431e-05
152	0xb872bcae	-5.7873018e-05
153	0xb89d425c	-7.498704e-05
154	0xb8a3bae6	-7.807258e-05
155	0x383747f4	4.369761e-05
156	0x3716a589	8.979238e-06
157	0xb87bc1c0	-6.0023507e-05
158	0xb91ccdfd	-0.00014954056
159	0xb8b80dbf	-8.776364e-05
160	0xb7456313	-1.17651825e-05
161	0x3817a6b3	3.6156456e-05
162	0xb81dd4c6	-3.7629878e-05
163	0x38a2c628	7.7616714e-05
164	0xb81b25b4	-3.6989994e-05
165	0xb87e2580	-6.0593244e-05
166	0x39074612	0.00012900706
167	0xb86ec518	-5.692718e-05
168	0xb735844b	-1.0819243e-05
169	0xb7c5eabc	-2.3593537e-05
170	0x3847c12a	4.7625195e-05
171	0x39270be2	0.00015930788
172	0x38dd4213	0.000105504085
173	0x3846f462	4.7434478e-05
174	0xb7a2c663	-1.9404286e-05
175	0xb9b9878e	-0.00035386946
176	0xb806b304	-3.211481e-05
177	0x361376bf	2.1973826e-06
178	0xb8ebcb57	-0.00011243548
179	0x3911b820	0.0001389687
180	0xb8f3db0f	-0.00011627946
181	0x36c349dc	5.8200512e-06
182	0xb664b03d	-3.4077232e-06
183	0x37573cb6	1.2829134e-05
184	0xb7bdcc99	-2.2625829e-05
185	0xb83d2df5	-4.5103912e-05
186	0xb78baa45	-1.664938e-05
187	0xb7f87947	-2.9620378e-05
188	0x387dcd61	6.0511175e-05
189	0x370d8eac	8.437473e-06
190	0x3919ad65	0.00014655812
191	0x383122ae	4.2232386e-05
192	0xb7964dda	-1.7917646e-05
193	0x382552de	3.941624e-05
194	0xb82b8214	-4.089072e-05
195	0xb7e5303c	-2.7321388e-05
196	0xb7bdd293	-2.2628612e-05
197	0xb816725c	-3.5869292e-05
198	0x3909c4e1	0.00013138681
199	0xb82dff6e	-4.14843e-05
200	0x37fde58a	3.0266838e-05
201	0x381a718d	3.6822214e-05
202	0x38368ac3	4.3521413e-05
203	0x38298e77	4.042542e-05
204	0x3912059f	0.00013925739
205	0x3819ec39	3.6698042e-05
206	0xb75fe295	-1.3344591e-05
207	0xb88e587f	-6.787571e-05
208	0x381786e1	3.612682e-05
209	0x377864e8	1.4805446e-05
210	0x375eea21	1.32867435e-05
211	0x3852f375	5.029464e-05
212	0xb7095dde	-8.1876915e-06
213	0x378d7a4d	1.686546e-05
214	0xb8403b0a	-4.583135e-05
215	0x3782cc9e	1.559249e-05
216	0x37eb585f	2.8055334e-05
217	0x38302fc5	4.200616e-05
218	0x3811ee91	3.4792876e-05
219	0xb7c70137	-2.3723214e-05
220	0x384123ab	4.6048004e-05
221	0x380cf1f5	3.360394e-05
222	0x38c51137	9.3968985e-05
223	0x38414ee0	4.6088244e-05
224	0xb60337ee	-1.9553077e-06
225	0xb6906e51	-4.304377e-06
226	0x37daec9f	2.609781e-05
227	0x3753b630	1.2618999e-05
228	0xb7d6311a	-2.5533653e-05
229	0x37a15e72	1.9236675e-05
230	0x37ad3a40	2.0650332e-05
231	0x36c1e45f	5.778434e-06
232	0x37fa9d80	2.9875664e-05
233	0x370006a7	7.630943e-06
234	0xb6d959b7	-6.477548e-06
235	0x38370a2e	4.364008e-05
236	0x37e66169	2.7463497e-05
237	0xb6d6a298	-6.3966254e-06
238	0x366991a4	3.480448e-06
239	0xb89518d6	-7.1095e-05
240	0xb73bc729	-1.1192439e-05
241	0xb7a7ab0b	-1.99876e-05
242	0xb828e919	-4.027141e-05
243	0x38680e26	5.5326287e-05
244	0xb7fdd76e	-3.0260268e-05
245	0xb7156971	-8.905642e-06
246	0x3758b042	1.29156415e-05
247	0x37088851	8.13797e-06
248	0x37234901	9.732555e-06
249	0xb821dcf7	-3.859118e-05
250	0xb7982518	-1.8137085e-05
251	0x36e5a55c	6.843982e-06
252	0x37426a54	1.15880575e-05
253	0xb76c91e8	-1.4100668e-05
254	0x38aa3d1d	8.117615e-05
255	0x372b18d0	1.0198171e-05

exp_avg_sq f4 [128, 32]
0	0x342ef4f0	1.629412e-07
1	0x32ab86b9	1.9968285e-08
2	0x333028f2	4.1015433e-08
3	0x338072fd	5.981381e-08
4	0x32a4b200	1.9173058e-08
5	0x339933e0	7.134054e-08
6	0x35167f74	5.6064823e-07
7	0x33547293	4.94643e-08
8	0x32f597e1	2.859082e-08
9	0x332514df	3.843604e-08
10	0x338b10ff	6.4757835e-08
11	0x34090cf8	1.2763837e-07
12	0x34d91140	4.043195e-07
13	0x33883011	6.341737e-08
14	0x32a1e981	1.8849052e-08
15	0x344bd49c	1.8983195e-07
16	0x32cb6284	2.367711e-08
17	0x328d4bc5	1.6449016e-08
18	0x334cd3fc	4.769025e-08
19	0x35358f38	6.7636165e-07
20	0x3352ee49	4.9111154e-08
21	0x31d1f7ea	6.110885e-09
22	0x323351e3	1.043779e-08
23	0x3253074e	1.2283477e-08
24	0x3370008c	5.5879852e-08
25	0x33b0fc6e	8.241555e-08
26	0x33679654	5.39206e-08
27	0x329377e3	1.716757e-08
28	0x349e9d7f	2.9544387e-07
29	0x3315917f	3.4824094e-08
30	0x3512d50a	5.469925e-07
31	0x3336ac2e	4.2531774e-08
32	0x34058f73	1.2438777e-07
33	0x315ef007	3.2441692e-09
34	0x32804465	1.4932263e-08
35	0x3391e611	6.7939375e-08
36	0x31d1de94	6.1080048e-09
37	0x32be8e55	2.2183636e-08
38	0x3353f017	4.9345626e-08
39	0x32169640	8.765312e-09
40	0x328a5230	1.6102689e-08
41	0x32a70a74	1.9446112e-08
42	0x33810d13	6.009409e-08
43	0x31f2c781	7.065808e-09
44	0x3417fdd6	1.4155316e-07
45	0x3175050c	3.5655061e-09
46	0x31112c17	2.112534e-09
47	0x32f2c40d	2.8261661e-08
48	0x32826cfa	1.5183549e-08
49	0x32b357f1	2.0878334e-08
50	0x320595cb	7.775678e-09
51	0x34267f6e	1.5506313e-07
52	0x32e5e261	2.6762054e-08
53	0x32046900	7.7072855e-09
54	0x30ed6e74	1.7275412e-09
55	0x2fdc40e8	4.0063886e-10
56	0x3235ba6d	1.0577975e-08
57	0x32d8fd31	2.5260848e-08
58	0x32618c79	1.31286635e-08
59	0x3102c560	1.9029684e-09
60	0x33b5c547	8.464354e-08
61	0x31dbb7d6	6.3946386e-09
62	0x3307d91c	3.1629597e-08
63	0x32042520	7.6918525e-09
64	0x354e2bcb	7.680471e-07
65	0x3403dde6	1.2281052e-07
66	0x3550ff8e	7.785792e-07
67	0x34be54b3	3.5451885e-07
68	0x32e7d6e8	2.6989667e-08
69	0x35203584	5.968252e-07
70	0x3597d2dc	1.1311745e-06
71	0x3513d0a1	5.506536e-07
72	0x338e4c62	6.626284e-08
73	0x340273bd	1.2149299e-07
74	0x353ce599	7.0369566e-07
75	0x3427ba54	1.5620873e-07
76	0x35d0e6b4	1.5564351e-06
77	0x34b100ad	3.296931e-07
78	0x33b50f58	8.43126e-08
79	0x343dc74f	1.7674505e-07
80	0x3437163d	1.7051293e-07
81	0x342533e1	1.5385696e-07
82	0x349bcd42	2.9020345e-07
83	0x357ce3db	9.420889e-07
84	0x3457e6e1	2.0107429e-07
85	0x32f3783e	2.8343603e-08
86	0x349c5cd9	2.912482e-07
87	0x32d5519f	2.483358e-08
88	0x344d019a	1.9092695e-07
89	0x35387b55	6.8724813e-07
90	0x3476a127	2.2969162e-07
91	0x3454bfa9	1.9813764e-07
92	0x3526a2cb	6.2076714e-07
93	0x35009ea7	4.7914585e-07
94	0x3578ca3c	9.268149e-07
95	0x33abdf54	8.003431e-08
96	0x3393829e	6.86898e-08
97	0x31966a20	4.3776396e-09
98	0x31f68404	7.1745507e-09
99	0x32f13dfe	2.8084283e-08
100	0x3021b277	5.882507e-10
101	0x31c60790	5.763418e-09
102	0x332e32ce	4.055874e-08
103	0x32021f92	7.574174e-09
104	0x31d7fddf	6.2861854e-09
105	0x329531b9	1.7368494e-08
106	0x32f95ec5	2.9030511e-08
107	0x30c62af4	1.4418604e-09
108	0x340233a2	1.2125977e-07
109	0x319ca2b1	4.5586934e-09
110	0x30f9df5b	1.8180616e-09
111	0x3294d3f8	1.732586e-08
112	0x3288f867	1.5945444e-08
113	0x3202c05a	7.610732e-09
114	0x32018fd2	7.541489e-09
115	0x34219256	1.504753e-07
116	0x326fa66b	1.394947e-08
117	0x3169a85f	3.400167e-09
118	0x30ba04dc	1.3534662e-09
119	0x2fab045a	3.110781e-10
120	0x32973032	1.760063e-08
121	0x323689f3	1.062516e-08
122	0x32adc7a0	2.023063e-08
123	0x30fe36d6	1.8496518e-09
124	0x331bef0c	3.630616e-08
125	0x31a8a6da	4.9084123e-09
126	0x334edcc1	4.8163887e-08
127	0x31b54b58	5.276359e-09
128	0x355f7dca	8.325702e-07
129	0x32246ca9	9.570763e-09
130	0x33818d90	6.032781e-08
131	0x3461530f	2.0984974e-07
132	0x334795a2	4.646939e-08
133	0x33c288e2	9.058728e-08
134	0x3487924c	2.5252155e-07
135	0x32fd7b72	2.9509213e-08
136	0x3466f265	2.1508602e-07
137	0x34881879	2.534978e-07
138	0x349f7cfb	2.9706993e-07
139	0x3384f29e	6.190861e-08
140	0x352c181b	6.411007e-07
141	0x32c829a3	2.3301999e-08
142	0x321f25b1	9.263588e-09
143	0x34539d77	1.9708192e-07
144	0x33876aeb	6.3058756e-08
145	0x3378c507	5.7921195e-08
146	0x3305dd7e	3.116792e-08
147	0x359559b7	1.1127476e-06
148	0x342c52a3	1.6048811e-07
149	0x32869fab	1.5672262e-08
150	0x32025da2	7.5882856e-09
151	0x3180e6e9	3.7515417e-09
152	0x34047dc5	1.2339213e-07
153	0x33f70fef	1.1504732e-07
154	0x3313d26a	3.4417475e-08
155	0x320b02fa	8.091542e-09
156	0x355790c2	8.030439e-07
157	0x334f1414	4.8214204e-08
158	0x348aaf83	2.5832205e-07
159	0x32e625ec	2.6792769e-08
160	0x3610cd00	2.1576998e-06
161	0x3360fffb	5.2386877e-08
162	0x34a282e2	3.027008e-07
163	0x35e0020f	1.66899e-06
164	0x33693b34	5.4303385e-08
165	0x34d7d3a5	4.0200862e-07
166	0x357fd42e	9.5303665e-07
167	0x34191d63	1.4259926e-07
168	0x348f05bd	2.664e-07
169	0x34261a06	1.5469422e-07
170	0x35b01370	1.3118679e-06
171	0x341d2373	1.4634661e-07
172	0x365200c2	3.129288e-06
173	0x3342c342	4.534673e-08
174	0x3327c49c	3.9061533e-08
175	0x34fc249c	4.6965295e-07
176	0x34867ef0	2.5051804e-07
177	0x34694b1a	2.1727138e-07
178	0x3425f488	1.5455782e-07
179	0x361e9ac9	2.3633932e-06
180	0x3522fee4	6.072062e-07
181	0x33968077	7.008287e-08
182	0x32e8885d	2.7070366e-08
183	0x31a6f7b7	4.8593978e-09
184	0x348fbaef	2.6771838e-07
185	0x35391cb9	6.895967e-07
186	0x343fe2ba	1.7870744e-07
187	0x32b352e4	2.0876037e-08
188	0x35be722e	1.4189334e-06
189	0x3456691f	1.9968546e-07
190	0x352c5e3f	6.421214e-07
191	0x33e6d565	1.0749026e-07
192	0x34c241e0	3.6183246e-07
193	0x3388c281	6.3683736e-08
194	0x34b65db2	3.3968314e-07
195	0x33c74c7a	9.2805706e-08
196	0x338e2e49	6.6208095e-08
197	0x349b27e0	2.8900013e-07
198	0x365c6179	3.2839291e-06
199	0x350213d0	4.8457605e-07
200	0x340c92a8	1.3091869e-07
201	0x3386230b	6.2462355e-08
202	0x343a3014	1.734009e-07
203	0x3515e6a2	5.584244e-07
204	0x35b7a01b	1.3681159e-06
205	0x3526170e	6.187337e-07
206	0x34225365	1.5117764e-07
207	0x34f79d02	4.6121573e-07
208	0x3383ac70	6.131529e-08
209	0x338fc82b	6.695367e-08
210	0x348ad07d	2.5856198e-07
211	0x3516356e	5.5957105e-07
212	0x344b1152	1.891215e-07
213	0x320f2ffd	8.334607e-09
214	0x3447c87e	1.8606258e-07
215	0x33915677	6.7678165e-08
216	0x341d8d74	1.4673225e-07
217	0x34d4c999	3.963476e-07
218	0x33d49d4d	9.900632e-08
219	0x34876abe	2.5223375e-07
220	0x359af1f5	1.1544313e-06
221	0x34624c12	2.1075564e-07
222	0x35efe9a6	1.7874888e-06
223	0x33156ce8	3.4790816e-08
224	0x342170aa	1.503528e-07
225	0x334902e4	4.680159e-08
226	0x346c57b7	2.2011123e-07
227	0x33ed7600	1.10576366e-07
228	0x32493c9f	1.17135235e-08
229	0x3419dd5d	1.4329767e-07
230	0x352ec834	6.5111385e-07
231	0x346b4c2f	2.1913796e-07
232	0x331d012f	3.6555488e-08
233	0x335dee43	5.167227e-08
234	0x3424a662	1.533422e-07
235	0x3372cbff	5.653055e-08
236	0x35162615	5.593477e-07
237	0x34301870	1.6400168e-07
238	0x332be053	4.001806e-08
239	0x33aead03	8.133977e-08
240	0x3361ba93	5.2556583e-08
241	0x334555e6	4.594576e-08
242	0x33c8bea1	9.347901e-08
243	0x34abb55e	3.1983194e-07
244	0x3333cd90	4.1863643e-08
245	0x3213f7a9	8.6128376e-09
246	0x33c87f15	9.336342e-08
247	0x322121fc	9.379161e-09
248	0x33afbacd	8.1830514e-08
249	0x341e36c6	1.4734823e-07
250	0x33cf1897	9.6436615e-08
251	0x33b32f5f	8.343954e-08
252	0x343a4b8b	1.7350082e-07
253	0x34021897	1.2116139e-07
254	0x34d2c8e8	3.9261727e-07
255	0x32e3936e	2.6493321e-08

exp_avg f4 [128]
0	0x3a013ece	0.0004930318
1	0xb82d9918	-4.1388994e-05
2	0xb9c22f1c	-0.00037037663
3	0xb8e6b915	-0.00011001729
4	0x3a09075c	0.0005227232
5	0xb9d648ea	-0.00040871586
6	0xba251331	-0.000629711
7	0xb98c5a45	-0.00026770137
8	0x39808490	0.0002451283
9	0x3937b9cf	0.00017521459
10	0x38f11e58	0.000114974275
11	0x39200abe	0.00015262791
12	0xb8cd59aa	-9.791863e-05
13	0xb9b72d05	-0.00034938022
14	0xb7dc98f8	-2.6297275e-05
15	0xba7a4adc	-0.0009547898
16	0xb950b829	-0.00019905031
17	0xb9d8f0e5	-0.0004137821
18	0xba491cb7	-0.00076718203
19	0xb925af0e	-0.00015800839
20	0x3a06d904	0.0005144032
21	0xb93c9013	-0.00017982749
22	0xb901fa98	-0.00012395752
23	0x389ae6b2	7.3862626e-05
24	0x371aaff0	9.220079e-06
25	0x3696a874	4.489959e-06
26	0xba962c7f	-0.0011457353
27	0xba05faa6	-0.0005110897
28	0xb8d8c6e8	-0.00010336732
29	0xb88794f2	-6.465045e-05
30	0x3a033360	0.0005004909
31	0xb9a69797	-0.0003177493
32	0x39febe94	0.00048588647
33	0x382053ae	3.8224905e-05
34	0xba03f9b4	-0.0005034462
35	0xb8594523	-5.180122e-05
36	0x394cfea5	0.00019549819
37	0xb9c26634	-0.0003707871
38	0xba046ca6	-0.000505159
39	0xb9a33a59	-0.00031133255
40	0x38f9fdfa	0.00011920552
41	0xb76bdbfc	-1.4058311e-05
42	0x380dfc09	3.3851746e-05
43	0x388f31f2	6.8280744e-05
44	0xb8856de5	-6.362404e-05
45	0xb9b333c7	-0.00034180118
46	0xb8860db0	-6.3921674e-05
47	0xba02a24a	-0.00049832894
48	0xb885475b	-6.355225e-05
49	0xb99ac0d0	-0.00029516825
50	0xb91bbf2e	-0.00014853172
51	0x38fa9cad	0.00011950112
52	0x3a02958f	0.00049813924
53	0xb8627b44	-5.39974e-05
54	0xb8d052a9	-9.9336095e-05
55	0x3811b8d2	3.474282e-05
56	0xb9093f80	-0.00013088994
57	0x3813b1b9	3.521305e-05
58	0xba207caf	-0.0006122095
59	0xb9b1cb66	-0.00033911614
60	0x385fe893	5.3383945e-05
61	0xb7e40b57	-2.7184999e-05
62	0x39f365be	0.00046424376
63	0xb8e9a061	-0.00011140179
64	0x3b810900	0.0039378405
65	0x3a377ef6	0.00069998147
66	0xba786080	-0.0009474829
67	0xbbb1a8ed	-0.005421749
68	0xb8087a97	-3.2539097e-05
69	0x3b0a9b0d	0.0021149546
70	0xba47b42b	-0.00076180947
71	0xb81a4433	-3.6779977e-05
72	0x3bb62422	0.0055585066
73	0xbb05372e	-0.002032708
74	0x3a2614c9	0.00063354947
75	0xb7bfef82	-2.2880504e-05
76	0x3a3305c8	0.00068291696
77	0xb9872bf7	-0.00025781963
78	0xb7ae39cb	-2.0769328e-05
79	0x3b9acdf4	0.0047242586
80	0x3a4c489f	0.0007792804
81	0x3b5d9da0	0.0033815876
82	0x3ba05cab	0.0048938594
83	0x3b336aad	0.0027376816
84	0x3a5bba30	0.0008381931
85	0x3ae133c1	0.0017181562
86	0xba163a1b	-0.0005730704
87	0xba13c302	-0.00056366634
88	0xb8e7959f	-0.000110428075
89	0x3bbbd7f8	0.0057325326
90	0x3b18e403	0.0023329265
91	0x395ffb65	0.00021360589
92	0x3bb4b63d	0.0055148886
93	0x3a2f4ffe	0.000668764
94	0x3aad87d5	0.0013239334
95	0xbaaad282	-0.0013032707
96	0x3989abec	0.00026258768
97	0xb7883cba	-1.6240741e-05
98	0xb9f2c43b	-0.0004630404
99	0xb830108d	-4.1977084e-05
100	0x399f45ac	0.00030378753
101	0xb9ab30f7	-0.00032652143
102	0xbab7cc70	-0.0014022719
103	0xb99d25fb	-0.0002997367
104	0x39a33e21	0.00031136072
105	0x390ea039	0.00013601863
106	0x39957e05	0.00028513386
107	0x391ba51b	0.00014843458
108	0xb774dc8d	-1.4594884e-05
109	0xb9f83008	-0.00047338032
110	0xb8103aea	-3.4387143e-05
111	0xb99727c8	-0.00028830604
112	0xb92f3284	-0.00016708119
113	0xba20a520	-0.0006128121
114	0xba306379	-0.000672869
115	0xb99d2a4e	-0.00029976893
116	0x39a1bfe8	0.00030851294
117	0xb956fa6b	-0.00020501918
118	0xb908a55d	-0.00013031573
119	0x3895fe5d	7.1522525e-05
120	0x36d43424	6.3241623e-06
121	0xb8323499	-4.2487492e-05
122	0xba29f312	-0.00064830587
123	0xba09d211	-0.00052574376
124	0xb92bd3c9	-0.00016386727
125	0x37bbd454	2.239101e-05
126	0x3a631df1	0.00086638244
127	0xb99e6b87	-0.00030216223
