code/logs/epoch=21-step=2200.ckpt (torch, 67921 bytes, 15 tensors)

model.encoder.rnn.weight_ih_l0 f4 [128, 1]
000000 96 ad 92 3e 34 1e ef bc dc 15 a4 3d 97 09 66 3d
       0.2864806 -0.029189207 0.08011982 0.05616149
000010 df 67 8e bd d2 ba 43 3e 48 24 71 bd 30 ce 75 bd
       -0.069534056 0.19114235 -0.05887249 -0.06001109
000020 8a 81 42 3e ca c6 70 bd bb 60 71 3e 92 7d 8e bd
       0.18994728 -0.05878333 0.23572056 -0.069575444
000030 df 77 a3 3e c9 df 16 3e 05 17 62 bc 99 e7 34 3d
       0.31927392 0.14733805 -0.013799434 0.04416618
000040 9b 26 8f 3d c6 43 dc bd c4 ab f3 3d af 24 b1 3d
       0.06989785 -0.10755114 0.11897996 0.08649575
000050 51 e6 45 3e 78 19 13 3c 43 a9 2d bd 2b 78 86 3e
       0.1932614 0.00897824 -0.04239775 0.26263556
000060 f7 b0 33 3e 38 34 b3 bc 50 0b ac 3e b8 bd a6 bc
       0.17547975 -0.021875486 0.3360238 -0.020354137
000070 9a 4b 79 3d 56 1d ed bb ce 9c 8a bd 90 f1 f4 3d
       0.060863115 -0.007236163 -0.06768189 0.11960137
000080 1f 40 5c 3e 45 2b 5f 3e ed b1 d7 3d a3 9f 2a 3d
       0.21508835 0.2179385 0.105319835 0.041656148
000090 99 84 16 3e 82 ea 52 3d d6 b9 92 be ef 64 fc 3d
       0.1469902 0.051493175 -0.28657407 0.12323939
0000a0 f9 7f 3d be 59 c5 fb 3e 3f c4 73 3e 2f f3 59 3e
       -0.18505849 0.49174002 0.2380533 0.21284173
0000b0 60 17 ac 3d 4e 1e af be 7c cb 1e 3e 3f 00 f0 3d
       0.08402896 -0.34202808 0.1550731 0.11718797
0000c0 68 07 d3 3c 43 8e 2e 3e 28 7d 8d 3d ef 7d cc bc
       0.025760368 0.17046456 0.06908637 -0.024962394
0000d0 c3 ff 8f 3e 30 fa 2f 3e 41 0e 2f 3e 68 78 a5 3e
       0.28124818 0.17185283 0.17095281 0.32318425
0000e0 ed 6a 69 3e c5 fa 91 3d 8d c0 ab 3e a3 fe 4a 3e
       0.22794695 0.071279086 0.33545342 0.19823699
0000f0 7b 64 e1 3e 60 76 0d 3e 08 0d 66 be 6e a2 c6 3d
       0.44021973 0.13814688 -0.22465909 0.0969895
000100 fe 89 69 bc 1b 46 57 be 91 b4 9b 3e cd 0c 52 3e
       -0.014254091 -0.21022837 0.304112 0.20512696
000110 cf 1e 8e 3e e4 0a ac bd 2d 69 e5 3c 7f 3e d4 be
       0.2775788 -0.08400515 0.028004253 -0.4145393
000120 33 90 f9 bd 5d c0 bc be da b8 8b be 91 ae a3 be
       -0.12185707 -0.36865512 -0.27289468 -0.3196912
000130 8b ff 42 3e d3 f4 60 3e af e1 60 be ca 63 81 3e
       0.19042794 0.21968393 -0.21961091 0.25271446
000140 98 94 09 be 09 0a 4e 3e 6c cf 3d 3e ec ef 20 be
       -0.1343559 0.20121016 0.18536156 -0.15716523
000150 5b 06 e7 3e 81 ef 69 3e bd 58 a7 3e 42 a4 ef 3d
       0.45122036 0.2284527 0.3268489 0.117012516
000160 ca 28 51 bd 46 1f 25 3e ea d7 ae bd 9c 00 78 3e
       -0.05106429 0.16125211 -0.08537276 0.24218982
000170 ad 06 54 be 45 34 62 be 79 8b 8a 3d 32 75 6e 3d
       -0.20705672 -0.22090252 0.067648835 0.058217235
000180 e7 96 ab 3e 95 c3 6c 3e 93 2f 12 3e 9d d7 2e 3e
       0.33513567 0.23121484 0.1427596 0.17074437
000190 a6 5f b6 3d dc 0b 54 3e d8 23 78 be e2 15 7b 3e
       0.08904962 0.20707649 -0.24232423 0.24520066
0001a0 ec 6a 35 3e 04 4a 45 3e 5d 44 ae 3e 8d 3d ff 3c
       0.17716569 0.19266516 0.34036532 0.03115728
0001b0 e8 39 56 3e 03 9d cd 3d 06 3a 39 3e ff e3 d1 3d
       0.20920527 0.10039713 0.1808854 0.10248565
0001c0 49 20 c6 3d bc e7 68 3e 65 39 51 3e 5b ec ad 3c
       0.09674127 0.2274465 0.2043205 0.021230867
0001d0 a8 47 dc 3d e2 4b 3a 3e cd c1 df 3d 82 c7 db 3e
       0.10755855 0.1819301 0.109256364 0.4292565
0001e0 91 76 9d 3e ab b4 36 3e 18 c8 87 3e dd 61 25 3e
       0.3075452 0.17842357 0.26519847 0.16150613
0001f0 18 39 a1 3e 29 39 29 3e 28 69 1d 3c 23 79 4d 3e
       0.31488872 0.16525711 0.009607591 0.20065741

model.encoder.rnn.weight_hh_l0 f4 [128, 32]
000000 4e 31 f4 3d 55 ce 2c 3d a0 06 19 3e 3f fc 33 3d
       0.119234666 0.04218896 0.14943933 0.043941732
000010 1a f4 0b be cb 85 cf 3d 11 b4 99 3d dd ba f0 3d
       -0.13667336 0.10132941 0.07505048 0.11754391
000020 2c f2 98 3d cc f5 04 3d 77 26 2a bd f9 81 4f 3e
       0.074680656 0.032460973 -0.04154059 0.20264424
000030 af e8 c5 3c 37 1b 0c be 55 ed 8d 3c 2b 27 08 bd
       0.024158804 -0.13682257 0.017325083 -0.03324048
000040 f1 0a 30 3e 8c dc d7 3d ce 19 91 3d 09 00 22 bd
       0.17191674 0.10540113 0.07085 -0.039550815
000050 81 e6 74 bd 22 61 b7 bd a9 95 da 3d 83 23 ed 3d
       -0.05979014 -0.089540735 0.10673077 0.11579039
000060 d4 b4 52 bd bb f4 d4 bc 2e f2 6c 3d 70 43 f3 3d
       -0.051441982 -0.025995603 0.057848148 0.11878097
000070 1b ae 4c bd 5e 9a 25 be 02 49 ec 3d 91 dc 0c 3d
       -0.049970727 -0.16172168 0.11537363 0.034390036
000080 dc 92 c1 bd 04 38 7e be 54 2e 70 3e 6f ba 10 3d
       -0.09451839 -0.24826056 0.23455173 0.035334047
000090 41 15 86 3e 44 bf 31 3c 81 12 9c 3c 66 d0 3b 3c
       0.2618809 0.010848824 0.019051792 0.01146326
0000a0 e4 89 f0 3d b0 40 63 3d 33 d8 8c bd 86 6d f4 bd
       0.117450505 0.055481613 -0.06877174 -0.119349524
0000b0 8c 16 87 ba 07 2c eb 3d 0b b7 20 be d8 3c ff 3d
       -0.0010306402 0.11483007 -0.15694825 0.12462777
0000c0 b7 1b be bd bd 0d 74 bc e9 6c bb 3d cb c1 cd 3d
       -0.0928263 -0.014895854 0.09151632 0.10046729
0000d0 89 b8 3b 3e d1 15 39 bd 68 1b dd 3d 27 be 53 3d
       0.18332113 -0.04518682 0.10796243 0.051695015
0000e0 e8 91 e3 bd bb d4 cc 3d f6 f0 3f be 9c 2f 43 3e
       -0.11111814 0.100015126 -0.18744263 0.1906113
0000f0 f2 eb 0c be 21 e6 88 3c 74 76 a1 bd a3 ff 0b 3e
       -0.13761881 0.016711297 -0.07883921 0.13671736
000100 09 03 a4 be 4d 8b c0 be aa 55 9e 3d df 72 77 3d
       -0.32033566 -0.37606278 0.07731183 0.060412284
000110 3c c9 58 be 69 2b 3f 3e 48 2f 17 3e 52 3d c0 be
       -0.21170515 0.18668903 0.1476413 -0.37546784
000120 bf 80 96 bc ef 51 93 be 63 85 90 be b0 07 16 3d
       -0.018371938 -0.28773448 -0.28226766 0.036628425
000130 f1 9b c0 3e cd db 5c be f6 ac b0 3c 07 4e f6 3c
       0.37618974 -0.21568222 0.02156685 0.030066503
000140 c2 f4 7a 3d 65 fd 81 3c 9f 29 20 3c fd 22 9e 3e
       0.061268575 0.015867898 0.009775548 0.3088607
000150 85 2f da 3e 41 03 3f 3d e3 77 06 3e 9d b2 99 3e
       0.4261438 0.046633963 0.1313167 0.30019084
000160 e1 14 a3 be 49 29 d6 3d 1b 3b a3 be d5 87 40 3e
       -0.31851867 0.10457093 -0.3188103 0.18801816
000170 4f 23 45 be 8a 26 e9 bd f7 89 91 3e 33 cf e9 3d
       -0.1925175 -0.11384304 0.2842557 0.11416473
000180 2b 35 ac bd 0a c0 c1 bd 22 20 11 3e b3 b6 10 bd
       -0.084085785 -0.09460457 0.14172414 -0.035330486
000190 08 ad d6 bd cb f0 0a bd b7 5d 8c 3d 28 50 75 be
       -0.10482222 -0.033921044 0.06853812 -0.23956358
0001a0 f2 45 06 3e 20 a8 e3 bd fb 66 ad bd b9 82 a7 bc
       0.1311262 -0.11116052 -0.084669076 -0.020448076
0001b0 8e 2b d0 3e 8f d9 09 be 3b aa be 3c a8 96 40 3d
       0.4065823 -0.13461898 0.023274532 0.047018677
0001c0 3c b8 8f 3c 7e 60 59 3d ad 26 8e 3c 1b 77 05 3e
       0.017543904 0.053070538 0.017352426 0.13033716
0001d0 7a ed 9d 3e 63 11 ad 3d 6a 66 00 3e d7 33 51 3e
       0.30845243 0.08450582 0.12539068 0.20429932
0001e0 58 89 d0 be 99 b0 0d 3b 73 2f 58 be b7 ef 04 3e
       -0.40729785 0.0021620153 -0.2111185 0.12982069
0001f0 5c c1 a2 be 8a 35 80 be 47 7c 29 3e 0b 1a 84 bc
       -0.31788146 -0.25040847 0.16551314 -0.0161257
000200 ed f9 a4 be ba ea 7c bd 6c c3 28 bd 24 95 38 be
       -0.32221928 -0.06174729 -0.041201994 -0.18025643
000210 5b 2c 39 bc 99 0d 5e bd 4d a5 93 bc 34 8f 05 be
       -0.011302079 -0.054212186 -0.018023157 -0.13042909
000220 27 a7 18 be 65 d1 cb be e9 a1 ac be 9b aa d6 bd
       -0.14907514 -0.39808193 -0.33717278 -0.10481759
000230 4c 14 65 3d 70 de ce bd 5d 9d 00 3e 5a 03 45 3d
       0.05592756 -0.1010102 0.1256003 0.0480989
000240 39 59 96 3d d7 05 bf 3d 8f 1d c0 3d 9c 67 c0 3d
       0.073412366 0.09327286 0.09380638 0.09394762
000250 c3 53 bf 3e 84 a2 4e bd 5d e4 58 3e 76 0d 62 3e
       0.37368593 -0.050447956 0.21180864 0.22075447
000260 30 3f c4 be 57 2f 5d 3e 98 b3 8b be 57 60 18 3d
       -0.38329458 0.2160009 -0.27285457 0.03720125
000270 dc 1d 60 be 0e 32 c6 be b4 fd 1f 3e 07 ec 90 3e
       -0.2188639 -0.38710064 0.15624124 0.28305075
000280 91 6e 27 be 43 fa 84 3d 47 04 03 be e2 d0 c9 3d
       -0.16350771 0.06493046 -0.127946 0.09854294
000290 ad 7a ec 3d 50 71 02 3e 18 1c 57 3e 2d 2a 95 bd
       0.11546836 0.12738538 0.2100681 -0.07283435
0002a0 bc 7c ef 3c 86 53 1f be 08 3b d9 3d 6b 79 c1 3c
       0.029234283 -0.15559205 0.106069624 0.023617467
0002b0 49 cf 87 bc ac 40 8c bd 32 4e e6 3d bc 58 5a bd
       -0.016578333 -0.06848273 0.11245383 -0.05330728
0002c0 21 2c 21 3e b4 3a 74 bd 75 26 22 be b9 d7 66 3b
       0.1573949 -0.059626296 -0.15834983 0.0035223796
0002d0 65 02 85 bd 61 3c 1d be ac c9 27 3e 57 c1 25 3c
       -0.06494597 -0.15355064 0.16385525 0.010116897
0002e0 84 3a 1e be 51 c7 04 3e cd b9 80 be 64 0d 34 bc
       -0.1545201 0.12966658 -0.25141755 -0.010989521
0002f0 58 38 0e be 09 94 8e 3d ff 3b fb 3b 4d c7 17 3e
       -0.13888681 0.06961829 0.007667064 0.14822121
000300 1e f9 c0 3c b5 7d ef 3d f8 88 2f be 56 58 d8 bd
       0.023556288 0.116938986 -0.17142093 -0.10563724
000310 9b 15 8a be 45 3c 9a bc de 57 94 3d 66 dd 09 bd
       -0.2696961 -0.018827567 0.07243322 -0.033658408
000320 0b 60 ea bd 5f 33 42 bb ca 84 4f 3e 09 15 84 3e
       -0.114441 -0.002963267 0.20265499 0.257973
000330 aa d2 13 3d f1 6a 5c 3d 09 90 87 3d 91 6b e6 bd
       0.036089577 0.053812925 0.066192694 -0.112509854
000340 b9 86 9a bc fc cd f9 3c e3 88 29 be 67 d9 9c bc
       -0.018863069 0.030493729 -0.16556124 -0.019146634
000350 ef 09 26 3d ed 91 8c 3d 9a b3 3e be 16 2a 4b ba
       0.040536817 0.06863771 -0.186232 -0.0007750107
000360 33 ca 05 3e f2 ec c3 bd 77 df 5b bd 07 90 58 be
       0.13065414 -0.09566678 -0.05367991 -0.21148692
000370 22 68 71 bb 6d d1 01 3e 13 6d 12 be 13 d6 a3 3d
       -0.003683575 0.12677546 -0.14299421 0.07999816
000380 79 37 9a be 06 1c 74 be ac ff 70 be e4 46 1f be
       -0.30120447 -0.23838815 -0.23535031 -0.15554386
000390 22 d1 61 be 85 36 18 3e dc 39 8f 3e 94 43 14 be
       -0.22052434 0.14864548 0.2797383 -0.14478904
0003a0 0e 97 83 3e 7b 56 2f bd b5 d0 05 bf 89 f0 32 be
       0.25701183 -0.042807084 -0.52271587 -0.1747457
0003b0 96 41 c4 3e 16 9e ce be f5 7d 97 bb 5f 3c 0b 3e
       0.38331288 -0.40354985 -0.0046231695 0.13597248
0003c0 06 19 e2 3d 9a ef 91 3e 73 11 b3 3c f6 c7 ba 3e
       0.11039929 0.28503114 0.021858906 0.36480683
0003d0 fb b4 74 3e 6a 77 cd bd 55 88 af 3e 2b 18 ff 3e
       0.23897164 -0.10032542 0.342837 0.49823126
0003e0 d4 c5 d4 be d5 59 69 be 85 28 52 be e1 d2 89 3e
       -0.4155718 -0.22788174 -0.2052327 0.269187
0003f0 40 3a dd bd ed fe de be 0e 2c 2f 3e 2e 58 b2 3e
       -0.10802126 -0.43553868 0.1710665 0.348329

model.encoder.rnn.bias_ih_l0 f4 [128]
000000 eb 78 10 be fb c4 06 3e 69 41 7f 3e 4c 70 97 bc
       -0.14108627 0.1316108 0.24927296 -0.018486165
000010 2e 55 3c 3c 79 3a bf bd 9b 54 03 3c ff ff 30 3e
       0.011494918 -0.09337325 0.008015777 0.17285155
000020 48 e5 cc 3d 41 80 aa 3e 6b 5c 38 3e 96 97 a4 3c
       0.100046694 0.33300975 0.18004005 0.020091813
000030 de f0 2f 3c 7b 5b 58 3d 3f 83 09 3e 54 87 a4 3d
       0.01073858 0.052821618 0.13428973 0.08033624
000040 4e 41 53 bd 38 fd 37 bd c2 e5 7f 3e 8b f8 74 bd
       -0.05157595 -0.044919223 0.2498999 -0.05980734
000050 92 97 8d bd 5a 88 48 3e b3 15 56 3e 7c ed 38 bd
       -0.06913675 0.19583264 0.20906715 -0.045148358
000060 38 02 a0 3c 5c 9f 39 3e 07 22 de bd 1a 38 64 bc
       0.019532308 0.18127197 -0.10846334 -0.013929391
000070 8a 1c fc 3d 30 f8 11 3e 82 69 8f bc 92 91 a8 bd
       0.12310131 0.14254832 -0.017506365 -0.0823089
000080 f2 8f f0 bc d8 1f d9 3c 8d 2a bd bc 80 89 0a be
       -0.029365513 0.026504442 -0.023091579 -0.13529015
000090 ba cf 88 bd 65 ab 22 3e 29 4d 3f 3c 98 24 b2 3d
       -0.06680246 0.15885694 0.011676111 0.08698386
0000a0 b8 4f 9b bd bb 04 44 be 98 21 42 3d 12 21 c7 3c
       -0.075835645 -0.1914243 0.04739532 0.024307761
0000b0 1c a8 48 3e 40 a9 25 3e a8 f5 88 bc ce 25 13 be
       0.19595379 0.16177845 -0.0167187 -0.1436989
0000c0 aa 9e 66 3e 80 5b 42 3e ec 35 80 bd 23 fd 99 3d
       0.22521463 0.18980217 -0.06260285 0.07518985
0000d0 f0 8f 15 3e 2e 90 83 3c 2e f2 cd 3d bf 8b f2 3c
       0.14605689 0.016059961 0.10055958 0.029607652
0000e0 dc e6 25 3e 8b 34 f0 3d 46 a6 cf bd 00 da 05 be
       0.16201347 0.11728772 -0.10139136 -0.13071442
0000f0 ac d7 40 3e 17 30 13 be 2f ad 62 3d 3b 6e 5a 3d
       0.18832272 -0.14373814 0.055340942 0.05332778
000100 62 fa 25 be d9 65 a6 bd db b8 b0 bd fc d5 a8 bd
       -0.16208795 -0.08124895 -0.086290084 -0.08243939
000110 65 91 ce 3c e5 60 1e 3e 6c 8f 49 3e 6e d4 a1 bd
       0.025215814 0.1546665 0.19683617 -0.07901846
000120 a3 64 4f bd 5a 3a b9 bd 38 a6 1e 3d 38 55 90 bd
       -0.050633084 -0.09044333 0.038732737 -0.07047504
000130 cf 50 75 3d 34 dc 8a 3c 0c 18 1d 3e 7d d0 90 bd
       0.05989152 0.016950704 0.15341204 -0.07071016
000140 b6 07 3f 3e 83 0f 17 be 1a 53 98 3d a6 77 3f 3e
       0.18655285 -0.14752011 0.07437725 0.18697986
000150 b8 eb 93 3d fc 29 ae bd a6 04 0f be 41 5d 71 3e
       0.07222694 -0.08504102 -0.13966617 0.2357073
000160 b0 a3 fc bd 09 c4 62 be d2 d0 da bd 97 4e 51 3d
       -0.123359084 -0.22145094 -0.106843606 0.05110034
000170 7b 43 2a 3d db 49 de bd b3 65 bd 3d 20 e3 a8 3d
       0.04156826 -0.108539306 0.09247913 0.08246446
000180 6a d8 3c 3e 1b b7 63 3d 0e a1 94 3d 12 2c 90 bd
       0.1844193 0.055594545 0.07257281 -0.07039656
000190 d5 cb b6 3d 09 98 86 bc af cb 9d 3c 48 b8 a4 3e
       0.089255966 -0.016429918 0.019262163 0.32171845
0001a0 18 69 17 bd 95 56 9d 3e b1 2d c1 3d ba 43 50 3e
       -0.03696546 0.3073012 0.09432543 0.20338336
0001b0 5b ca 14 3b dd 84 76 3d 32 fb a1 bc ca 8f 5c 3e
       0.002270362 0.060185302 -0.0197731 0.21539226
0001c0 e7 57 1f bd ed 43 30 bd c5 26 56 3e 3c ae f2 bd
       -0.03890219 -0.04303353 0.20913227 -0.11849639
0001d0 bc 1e 9a 3e e8 06 d5 3d 56 83 33 3e 24 22 45 3e
       0.30101573 0.10401708 0.1753057 0.19251305
0001e0 91 ab e2 bd ef af 81 bd 50 aa 36 3e 52 0e 76 3e
       -0.1106788 -0.06332385 0.17838407 0.240289
0001f0 1e 22 60 3d a0 db 60 3e c4 a9 2e be cc f3 0c 3e
       0.054720037 0.2195878 -0.17056948 0.13764876

model.encoder.rnn.bias_hh_l0 f4 [128]
000000 94 f5 e9 3c 2c b0 28 3d 07 4d 8d 3e 02 34 26 bd
       0.028559484 0.041183636 0.2759783 -0.040576942
000010 ef 35 13 3e 4e c1 4d bd 21 26 fe bd 79 f6 97 3e
       0.14376043 -0.050233178 -0.12409616 0.2968023
000020 b4 a8 08 3e 8c 1c ce 3e 34 c3 f3 bc 1c 80 11 3e
       0.13345605 0.40256155 -0.029756166 0.14209026
000030 c6 a1 3d bd e4 9b 6a 3d 8d 35 3e 3d a8 1e 93 3d
       -0.046296857 0.057277575 0.04643779 0.071835816
000040 03 d2 19 3e 33 62 52 3e 7f 70 23 3e 73 83 09 3e
       0.1502152 0.20545273 0.15960883 0.1342905
000050 b4 25 8f 3e 7e 9b 0d 3e 2e 5f f1 3d 9d db 8e bc
       0.27958453 0.13828847 0.11785732 -0.017438704
000060 29 9e 4c bd 04 de 40 3e 25 3c 22 be e5 81 4f bc
       -0.04995552 0.18834692 -0.15843256 -0.012665247
000070 34 57 b5 ba 60 83 7a 3e 7b fc 42 bd db 06 77 3c
       -0.0013835193 0.24464178 -0.047604065 0.015077318
000080 ec 87 18 3d cc 11 9c 3d 66 c4 5f 3e b9 25 d4 bb
       0.037239 0.07620582 0.21852264 -0.0064742235
000090 28 75 b5 3c 7e be 0e 3e 02 09 19 3e 7b 78 48 be
       0.022150591 0.13939855 0.14944842 -0.1957721
0000a0 d2 3d 0b 3e 4e 50 45 be 3f bd f1 3d 53 cf 77 3d
       0.13597801 -0.19268915 0.11803674 0.060500454
0000b0 7c df 21 3d e7 bc 0a 3e 67 28 28 be 5f 8a 01 3e
       0.039519772 0.13548623 -0.16421662 0.1265044
0000c0 44 b6 37 3c e5 e2 42 3e ad dc 95 bd 8b 39 86 bd
       0.011212889 0.19031866 -0.07317481 -0.06553944
0000d0 ae 9f 6c 3c 7b d1 a4 3d 2d b2 a8 bd 7c 6f 0b bd
       0.0144423675 0.08047768 -0.08237109 -0.034041867
0000e0 15 b0 83 3e 98 d0 2b 3e 76 88 8c bc 99 c1 a5 bd
       0.25720277 0.16778791 -0.017154913 -0.080935664
0000f0 89 3f 90 bd ee fe 47 bd 8f d4 88 3c 6a b5 a8 3d
       -0.07043368 -0.048827104 0.016702918 0.08237727
000100 e1 ca bf bd 75 d6 cc 3d b7 f6 ee bd 99 b7 f5 bd
       -0.09364868 0.10001842 -0.11668151 -0.11997909
000110 45 49 d3 bd 71 c2 d4 3d 77 ad 26 3e 4b 33 d0 bd
       -0.103167094 0.10388649 0.16277109 -0.10166033
000120 7a 09 18 3e bf 08 06 be b2 d2 19 be 67 75 aa 3d
       0.14847365 -0.13089274 -0.1502178 0.08323174
000130 65 e1 f6 3d 1b 3f 6b be 0a fb 14 3d 81 03 d5 bd
       0.12054709 -0.22973292 0.036372222 -0.10401059
000140 6e f1 40 3e a0 75 d9 3d 8b 59 17 be 53 84 a2 3d
       0.18842098 0.10618138 -0.14780252 0.07935395
000150 98 19 04 3d e4 3b d2 bd 50 5e 8e 3d e2 52 0c 3e
       0.03225097 -0.102653295 0.069515824 0.13703492
000160 fe 6a ee 3d 56 f6 50 3d 8b 86 3a be f8 32 3b bd
       0.11641501 0.051016174 -0.18215387 -0.045702904
000170 05 77 14 be ae 30 15 be d5 d3 34 3e 98 0c 18 3e
       -0.14498527 -0.14569351 0.17658933 0.14848554
000180 d1 b2 d5 bd e0 2f 91 3d 32 e7 86 3e d1 e7 18 3e
       -0.10434497 0.070892096 0.26348263 0.14932181
000190 12 00 e4 3d 44 15 4e 3e e5 70 25 3e f1 c5 f3 3d
       0.11132826 0.201253 0.16156347 0.11902989
0001a0 c8 e7 13 3e 5f 40 cd 3e 69 2f 3a 3e 65 cb ed 3d
       0.14443886 0.40088174 0.18182148 0.1161106
0001b0 86 fd 20 3e 6e 35 bc 3d f1 8a 7a 3e f5 ff 07 3e
       0.15721712 0.091898784 0.24467064 0.13281234
0001c0 0f 0a 4c 3e b6 61 5e 3d 11 a5 f1 bc ed 8a bd bd
       0.19925712 0.054292403 -0.029497655 -0.092550136
0001d0 52 78 dc 3d 9a 0f 78 bd 97 07 5b 3e dd c0 c2 3b
       0.10765137 -0.060561754 0.21389614 0.0059434013
0001e0 52 dd 31 3e 94 4e 6a 3e cc e5 6c 3d d8 f0 13 3e
       0.17369583 0.22881538 0.05783634 0.14447343
0001f0 78 08 31 bd e8 1a f1 3d 3a c6 3b be d9 96 36 3e
       -0.043220967 0.1177271 -0.18337336 0.17830981

model.encoder.readout.weight f4 [1, 32]
000000 c3 a6 8c be 36 39 56 be cf 74 91 3e 28 b5 66 3e
       -0.2747098 -0.20920262 0.2840943 0.22530043
000010 81 32 fe 3e b7 da 1d be 5a 5b 3f be 77 0d f2 be
       0.49647906 -0.15415464 -0.18687192 -0.47275898
000020 0a 26 86 be e4 13 d9 be b0 d3 38 be d3 4d c1 be
       -0.26200897 -0.42397988 -0.18049502 -0.37754688
000030 7f 7f ae 3e 67 d1 30 3e 40 c9 87 be b0 7d a1 3e
       0.34081647 0.1726738 -0.2652073 0.31541204
000040 86 d9 50 be d6 f1 bf 3e e5 a4 a9 3e ea b2 bd bd
       -0.20395479 0.37489194 0.33133617 -0.09262641
000050 11 1d 83 3e 89 3d 77 3e 0c 8d ba 3e b4 cf 4e 3e
       0.25608113 0.24144568 0.36435735 0.2019642
000060 3b 64 cf be fd c5 7d 3e 6c 55 94 be 9a 07 b6 3e
       -0.40506157 0.24782558 -0.28971422 0.35552675
000070 99 e4 10 bf a9 39 7f be 47 c5 bb bd c3 62 00 3e
       -0.5659881 -0.2492434 -0.09168487 0.12537675

exp_avg f4 [128, 1]
000000 1f e1 f7 b9 3a 36 47 3a 16 9d cf 39 11 63 cd 39
       -0.0004727924 0.0007599328 0.00039599155 0.00039174457
000010 85 84 4a bb 71 21 63 bb b7 03 d7 37 07 b5 95 ba
       -0.0030901742 -0.0034657384 2.5631727e-05 -0.0011421748
000020 65 34 15 bb c3 3b b8 39 c5 a9 b6 b9 76 be d8 39
       -0.0022766825 0.0003513974 -0.00034840233 0.00041340635
000030 02 85 13 3a 53 dd 38 b9 da 65 b8 b9 27 e9 d1 ba
       0.00056274247 -0.00017630057 -0.000351711 -0.0016014919
000040 2c b7 86 39 b5 d9 04 bc c3 99 eb 39 37 12 9e 3a
       0.00025694945 -0.008108546 0.00044937254 0.0012059872
000050 28 09 0c bb 58 4f 5a 39 6e 16 21 39 01 33 07 3a
       -0.0021367762 0.00020819658 0.00015362512 0.00051574415
000060 f6 f5 46 39 8a 25 2a b9 0e 0b 1e 3a 17 17 81 b9
       0.00018974379 -0.00016226448 0.0006028869 -0.00024622
000070 e2 3a b9 3a 45 7d 20 3a c7 d9 3f 38 38 29 8b 3b
       0.0014131928 0.0006122182 4.574077e-05 0.004246857
000080 df db 03 ba 60 6a 75 3a 0f eb 0c 3a 61 da f7 39
       -0.0005030017 0.00093618594 0.00053756026 0.00047274216
000090 7a 69 40 bc 37 79 a9 bb 20 52 51 b9 73 ee 9c bb
       -0.011743898 -0.0051719206 -0.00019962387 -0.0047891675
0000a0 8f 20 25 bb bd 82 1a 3a 75 53 20 ba 87 55 3a bb
       -0.0025196408 0.00058941153 -0.00061159517 -0.0028432326
0000b0 f8 70 12 3b cb 3f 16 b9 4b 62 b9 ba 16 6c 63 bb
       0.0022345167 -0.0001432888 -0.0014143673 -0.0034701875
0000c0 17 2e d1 3a 26 0d 30 bc 46 f0 2d 3b 4a 76 57 3b
       0.001595917 -0.010745322 0.002654092 0.0032876902
0000d0 9d 76 31 bb 98 ad 82 39 7d 32 54 b9 f4 72 42 3a
       -0.0027078756 0.0002492487 -0.00020236704 0.0007417642
0000e0 e4 66 1a 39 45 3a 0a bb d5 fe bf 39 2b 24 ad ba
       0.00014724914 -0.002109186 0.00036620224 -0.0013209631
0000f0 84 45 5b 39 ab a4 9a 3a 17 7d 1d b7 2f 99 8d 3b
       0.00020911364 0.0011798342 -9.387054e-06 0.0043212394
000100 8f 92 88 3a 76 48 8f ba 15 3b 12 bc f1 2f c9 bc
       0.0010419654 -0.0010931629 -0.008925219 -0.024558993
000110 7c b8 88 bd 72 89 d6 3c d1 bc 0d 3a 95 03 9a 3c
       -0.066758126 0.026188586 0.0005406859 0.018800536
000120 3a 28 af 3c 4e de 76 3b da 56 f1 b9 f6 17 7b 3c
       0.021381486 0.0037669125 -0.00046031812 0.015325537
000130 1e 4a 99 3a f4 93 f8 ba 1e e5 3c 3b 58 7f 8c bc
       0.0011695062 -0.0018964992 0.0028823088 -0.017150566
000140 a0 34 ed 3c 11 6e 47 bd 6a 2c a8 bc f4 64 fe 3b
       0.028955758 -0.048688952 -0.02052899 0.0077634994
000150 79 8b 57 3b 3f 9e 08 bc 7a 62 19 3c 30 f0 01 3b
       0.0032889529 -0.00833851 0.009361858 0.0019827
000160 3f 1f c2 b9 9a d8 7d bc af 40 34 bb a6 43 e4 39
       -0.00037025844 -0.015493536 -0.0027504375 0.0004353795
000170 89 b5 02 bc a9 51 04 ba 35 55 c3 38 9c 82 84 3c
       -0.007977852 -0.00050475687 9.3141956e-05 0.01617556
000180 14 28 31 bb 40 a0 35 3a 59 da 06 ba 52 de d3 39
       -0.0027031945 0.0006928481 -0.00051442307 0.00040410698
000190 0d 34 f3 ba 42 bb 53 bb 9b 5e 90 b9 2b 72 f5 b9
       -0.0018554941 -0.003230766 -0.00027536307 -0.00046815103
0001a0 cc 76 3a bb e4 ac 82 39 9f 78 a5 ba 4f 85 21 3a
       -0.0028452156 0.00024924346 -0.0012624449 0.0006161527
0001b0 08 b1 b2 3a 01 1b d2 b7 e9 52 cd b9 6e 46 19 ba
       0.0013633082 -2.5046525e-05 -0.0003916242 -0.00058469817
0001c0 8c 7c 08 b9 4f 69 99 bb fc b7 da b9 f2 94 65 3b
       -0.00013016368 -0.004681743 -0.0004171728 0.0035031405
0001d0 ad f8 cf ba b4 46 17 ba c1 a7 18 3a 2a fb 2e 3a
       -0.0015866958 -0.00057707285 0.0005823337 0.00066749996
0001e0 95 ff 5a ba 2e e0 f7 b9 40 2c 7e 3a b2 96 85 b9
       -0.0008354125 -0.00047278538 0.0009695925 -0.00025480014
0001f0 66 8b 9e 39 35 29 83 3a da 8a 51 38 4a a2 39 3b
       0.00030239968 0.0010006787 4.99588e-05 0.0028325492

exp_avg_sq f4 [128, 1]
000000 c6 67 c1 37 71 55 a8 36 5d c8 4e 36 ae 79 28 37
       2.3055716e-05 5.016737e-06 3.0813019e-06 1.0041911e-05
000010 e3 a6 9d 38 05 b7 47 38 d2 05 4f 38 1e c4 9e 37
       7.5174285e-05 4.7615747e-05 4.9358066e-05 1.8926392e-05
000020 de e0 74 38 4e 1d 03 37 7b 74 7a 37 f2 1f 23 37
       5.8383557e-05 7.8150315e-06 1.4928281e-05 9.722995e-06
000030 b6 de 10 37 39 c0 34 36 bb 06 ae 37 66 c6 0a 38
       8.634923e-06 2.6933978e-06 2.074555e-05 3.3086537e-05
000040 58 94 1b 38 f4 d1 36 39 69 fe 94 37 c2 30 57 37
       3.7093036e-05 0.00017435086 1.7761444e-05 1.2826351e-05
000050 ce 82 c0 37 d1 9c 3d 37 de 52 e7 36 16 14 09 37
       2.2949094e-05 1.13017895e-05 6.8939835e-06 8.170513e-06
000060 62 60 8f 36 b0 3d 0e 37 b7 ef d6 36 60 c6 8c 37
       4.2729525e-06 8.478222e-06 6.4056035e-06 1.6781676e-05
000070 da 3b 00 37 77 c2 ef 36 0c 1b 75 37 08 45 4f 38
       7.64333e-06 7.1453937e-06 1.4609435e-05 4.9416936e-05
000080 dc 76 b4 37 3f 6a aa 36 ce 14 86 38 0e 86 1a 38
       2.151302e-05 5.0787635e-06 6.393493e-05 3.684131e-05
000090 0c 0d d6 39 22 2f 80 38 ce 47 29 38 35 02 16 39
       0.0004082698 6.112295e-05 4.0359613e-05 0.00014305937
0000a0 b6 b2 98 38 ae fd 9c 38 a4 e0 ed 37 3e c6 ff 37
       7.281212e-05 7.485911e-05 2.8357208e-05 3.0490683e-05
0000b0 0a a8 e7 37 5d 61 ce 36 0c 5a f4 37 93 8a a9 38
       2.7615595e-05 6.150613e-06 2.9128998e-05 8.0843594e-05
0000c0 4a b8 a2 38 20 2a c3 39 14 3b e8 38 d1 7e 21 38
       7.7590885e-05 0.00037224684 0.00011073626 3.85035e-05
0000d0 5f bc 50 38 4a e5 3a 38 ed 5d 35 38 cf 0f 91 37
       4.97665e-05 4.4559398e-05 4.3241238e-05 1.7292708e-05
0000e0 01 05 14 36 60 87 db 37 ae 84 32 37 34 d1 ba 37
       2.2056631e-06 2.6169873e-05 1.0640519e-05 2.2270346e-05
0000f0 68 64 3e 38 c7 17 90 37 e4 5d 2e 37 4f c4 57 38
       4.539304e-05 1.717721e-05 1.0393069e-05 5.144282e-05
000100 01 74 12 3a 87 b2 6a 39 ce ec 02 3b ad 92 34 3b
       0.0005586744 0.00022382486 0.0019977572 0.0027553246
000110 d5 a0 00 3d 05 da 2e 3b d6 b7 06 3a 4b bf ad 3b
       0.03140338 0.0026680243 0.0005139088 0.005302345
000120 6b 9e 73 3b e2 2c 07 3b 06 be 6f 39 f2 50 02 3b
       0.0037173282 0.0020626117 0.00022863605 0.0019884673
000130 8b 12 e4 39 cf 5d dd 39 82 95 cd 3a 07 8d 56 3b
       0.00043501364 0.00042222298 0.0015684816 0.0032737867
000140 b6 08 21 3b 8e ba 8b 3c 8d ab 89 3b 65 dc c5 39
       0.0024571843 0.01705673 0.0042013586 0.00037738975
000150 d3 5c 01 3b 5a d3 ee 3a b9 44 b9 3a 25 7a 28 39
       0.0019739165 0.0018220947 0.0014134861 0.00016067231
000160 cc 0a 8a 3a 94 00 28 3b ba 32 6d 39 f1 83 c0 3a
       0.0010531782 0.002563511 0.00022620978 0.0014687759
000170 78 7c 1e 3b 8b 43 75 39 a7 b1 ae 39 05 e5 58 3a
       0.0024183076 0.00023390182 0.00033320228 0.00082738727
000180 c5 d0 c2 38 07 0b b9 36 fb 7a 79 37 9e ef ab 37
       9.289527e-05 5.5147134e-06 1.487019e-05 2.0496369e-05
000190 28 7e 22 38 5d 9a 5b 38 a4 ff cf 38 3a 65 8b 37
       3.8741302e-05 5.235743e-05 9.918146e-05 1.6617229e-05
0001a0 01 a6 fd 38 3c 9c 37 38 ac e3 8b 38 b7 44 91 36
       0.00012094901 4.3776105e-05 6.670444e-05 4.329336e-06
0001b0 25 d8 32 38 24 39 f9 36 2c a8 5d 37 73 7f 99 37
       4.2639807e-05 7.4274303e-06 1.3211782e-05 1.829837e-05
0001c0 90 80 05 39 46 aa 5f 38 cb 4f 9c 38 f6 3e b2 38
       0.00012731762 5.3325923e-05 7.453522e-05 8.499429e-05
0001d0 af 29 3a 38 7a 48 89 37 6f 59 de 36 2a 4b 2b 38
       4.4384677e-05 1.6365422e-05 6.626527e-06 4.083958e-05
0001e0 91 57 52 37 92 9f 1b 37 62 22 c0 37 cb fc 35 37
       1.2537364e-05 9.275873e-06 2.2904194e-05 1.0847299e-05
0001f0 48 23 bf 37 a8 59 69 37 88 13 c3 37 aa aa 19 38
       2.2785403e-05 1.3908757e-05 2.3254906e-05 3.6636986e-05

exp_avg f4 [128, 32]
000000 ae a8 10 3b bb aa 4f 3a 37 47 5d 3b 28 e5 00 3b
       0.0022073197 0.0007921864 0.0033764371 0.0019667838
000010 7e 96 97 39 75 3c cc ba ba 32 11 bb 35 3f ed 3a
       0.0002891309 -0.0015581982 -0.002215548 0.0018100502
000020 4b 46 da ba e2 08 ba ba ad 08 2e 3b e6 a3 22 39
       -0.0016653029 -0.0014193321 0.0026555464 0.00015510581
000030 70 c6 2b bb 01 78 71 3b 9c 79 21 ba 54 40 a9 b7
       -0.0026210807 0.003684521 -0.0006159784 -2.0176325e-05
000040 e0 d2 1c bb 7c 3e 35 b7 4a c6 20 3b 84 b7 ec ba
       -0.0023929402 -1.0802989e-05 0.0024532252 -0.0018060063
000050 f1 76 08 bb ae ce ae 3a c0 fc ab ba e0 53 6e bb
       -0.0020822848 0.0013336742 -0.001312159 -0.0036365911
000060 47 7e 3e ba 9d fb 24 3b 73 12 86 3a 42 4e 73 ba
       -0.00072667416 0.0025174387 0.0010228887 -0.00092813757
000070 d4 55 0d b9 e1 53 d7 3a fb 3d e9 b9 96 c7 94 ba
       -0.00013478781 0.0016428196 -0.00044487402 -0.0011350985
000080 d7 2b 01 3a ca bf e3 38 b5 7e 78 3a 6c 5f e1 39
       0.0004927492 0.00010859927 0.000947933 0.0004298644
000090 36 e0 c7 b8 9b 84 b1 b9 52 ee fd b9 7d f4 0e 3a
       -9.530822e-05 -0.0003385887 -0.00048433483 0.0005453302
0000a0 23 85 02 ba 49 f9 55 ba 4c 7f 24 3a f4 18 92 38
       -0.00049789454 -0.00081624516 0.0006275072 6.9664704e-05
0000b0 81 8e 28 ba c2 61 77 3a d7 a3 17 b9 44 3d d6 b8
       -0.0006429926 0.00094368693 -0.00014461517 -0.00010215727
0000c0 51 3c 0e ba fc 8c 06 b9 ba ce 45 3a 5e e9 d5 b9
       -0.0005425858 -0.00012831757 0.0007545758 -0.00040800398
0000d0 a8 06 10 ba de 61 dd 39 9d 5d 01 ba dd 57 57 ba
       -0.0005494156 0.00042225322 -0.0004934909 -0.0008214692
0000e0 35 f8 02 ba 01 0b 47 3a 1f bc 06 39 27 57 a2 b9
       -0.0004996092 0.0007592887 0.00012849316 -0.0003096398
0000f0 e5 47 2e b9 7e a2 c5 39 2d 49 29 b8 1f b5 f5 b8
       -0.00016620716 0.00037695834 -4.036089e-05 -0.00011716247
000100 a1 0d b6 b9 4b 84 1a b9 97 93 1f ba d5 89 96 b9
       -0.000347239 -0.00014735867 -0.0006087361 -0.00028712922
000110 7e 72 eb 37 46 a8 25 39 c3 cc 8a 39 98 47 b0 b9
       2.8067498e-05 0.00015798313 0.0002647397 -0.00033622677
000120 b9 f7 9c 39 13 50 31 3a 65 28 f3 b9 5f 89 38 b8
       0.00029939206 0.0006763946 -0.00046378668 -4.3996955e-05
000130 55 67 fa 39 db a8 20 ba d7 44 98 37 53 4a 01 39
       0.00047760704 -0.0006128677 1.8151868e-05 0.00012330087
000140 e9 f8 a4 39 6f 76 d8 38 9a 8c 06 ba b7 72 8a 39
       0.0003146597 0.000103217426 -0.00051326456 0.0002640688
000150 8e 04 d2 39 58 e8 77 b9 11 15 bf 39 d5 a4 09 3a
       0.00040057715 -0.0002364231 0.00036446055 0.0005250697
000160 17 55 4b 39 01 24 f3 b9 3c a1 7e b8 dc 7e 92 39
       0.00019391287 -0.00046375397 -6.070848e-05 0.00027941808
000170 ad 8e 16 39 ee 75 7c b9 8c 02 52 b7 e0 7f b4 38
       0.00014358266 -0.00024076525 -1.2517568e-05 8.6068874e-05
000180 c2 6b 86 ba d1 11 ea b9 32 82 ce ba da b9 5e ba
       -0.0010255503 -0.00044645232 -0.0015755354 -0.0008496322
000190 d4 1f d2 36 43 f5 01 3a 03 b9 59 3a 26 a2 74 ba
       6.262193e-06 0.00049575063 0.0008305462 -0.00093320233
0001a0 8d f4 3a 3a 21 fe a0 3a 76 3c a8 ba e7 e1 cd b8
       0.0007131778 0.0012282768 -0.0012835402 -9.817239e-05
0001b0 f0 9b a8 3a a5 c6 d4 ba 1b de 06 39 de 74 38 39
       0.0012863856 -0.0016233517 0.00012861977 0.00017591144
0001c0 1f 53 81 3a be 9e 4f 39 28 69 a0 ba d6 50 4e 3a
       0.0009866691 0.00019800194 -0.001223837 0.0007870322
0001d0 4d b7 92 3a 6f c9 20 ba 86 6e 4d 3a bc cc cc 3a
       0.0011193544 -0.00061335316 0.00078365987 0.001562498
0001e0 b8 bc 8b 39 77 d4 94 ba 57 68 b2 b9 fe e5 34 3a
       0.00026652752 -0.0011354823 -0.00034028545 0.00069007266
0001f0 55 2b 67 39 13 3b 46 ba 8b c0 bc 38 fe 0e da 39
       0.00022046019 -0.00075619033 9.0004025e-05 0.0004159137
000200 05 6f f4 39 bc 5e 1c 3a 05 51 f7 38 d2 a7 21 38
       0.00046622023 0.0005965044 0.00011792969 3.8541686e-05
000210 15 2d 04 ba fd eb 1d 3a bb 41 60 39 7d 8a 0a 3a
       -0.0005042118 0.00060242397 0.00021386791 0.00052849186
000220 61 39 a0 39 3e 4e a7 b9 83 9e 19 3a 4f d5 1a 39
       0.0003056033 -0.00031911017 0.0005860107 0.00014766048
000230 31 c4 f8 b9 ce b2 65 b8 74 15 d1 39 68 a7 a6 b9
       -0.0004744842 -5.476438e-05 0.0003987957 -0.00031786715
000240 6c 14 cf b7 bf e4 4b ba 32 08 22 39 78 c9 52 b9
       -2.4685833e-05 -0.0007777921 0.00015452577 -0.00020102214
000250 04 c2 3d ba 06 94 21 b8 c3 1f d7 b8 82 fa bd b9
       -0.00072386884 -3.852325e-05 -0.00010257915 -0.00036235532
000260 2a 33 95 3a 02 a2 06 ba 32 81 11 39 c4 64 55 ba
       0.0011383046 -0.00051358354 0.00013876407 -0.00081403204
000270 e2 7b 05 b9 30 ed e0 39 5c d0 4e 38 e1 ed a7 b9
       -0.00012730018 0.00042901328 4.9308277e-05 -0.00032029956
000280 ce 3d 28 ba 4f a7 95 39 a0 dd f7 ba a6 c8 83 ba
       -0.0006417901 0.0002854415 -0.0018910654 -0.0010054305
000290 2d ce 10 ba 2b 8d b6 3a 4b f7 b3 3a 8c 4e ec b9
       -0.00055238866 0.0013927569 0.0013730315 -0.0004507195
0002a0 75 32 ae 3a 29 96 48 3a 8c 96 4c ba 96 4c 03 39
       0.0013290184 0.000765177 -0.00078044157 0.00012521664
0002b0 cb e8 52 3a 81 4d 0d bb dd 62 52 3a e6 89 a4 b9
       0.0008045553 -0.0021561089 0.0008025596 -0.0003138326
0002c0 b0 56 a4 3a 49 a8 19 ba 46 69 af ba 9b 34 41 3a
       0.0012538042 -0.0005861563 -0.0013382814 0.00073702045
0002d0 d2 cb ad 39 3f 3c 69 ba 02 ca 0c 3a b1 f6 c4 3a
       0.0003314899 -0.0008897222 0.00053706777 0.0015027133
0002e0 8d 5b cf 3a a6 ce 03 bb 91 04 8a b9 e4 8c b5 b9
       0.0015820131 -0.0020112186 -0.00026324813 -0.00034627982
0002f0 2c f1 17 39 8b 01 b7 b9 6e 35 80 39 cb f5 0d 39
       0.00014490326 -0.0003490563 0.0002445387 0.00013538373
000300 ed b2 3f ba a4 e6 71 b9 08 24 94 ba 1d c7 26 ba
       -0.0007312734 -0.00023069471 -0.0011302242 -0.00063620677
000310 70 2c 31 b8 8a 5d 03 3a 08 02 41 3a 62 dc 2a ba
       -4.2241474e-05 0.0005011192 0.00073626684 -0.0006517825
000320 82 e2 0f 3a 93 9e 0d 3a 81 72 64 ba 3a 15 64 b8
       0.00054887694 0.00054023525 -0.0008714572 -5.4379205e-05
000330 f5 31 61 3a 01 51 9e ba 86 6f 62 39 d2 2d 20 37
       0.0008590513 -0.0012078584 0.00021594585 9.5474115e-06
000340 25 8b 4e 3a 96 37 eb 37 0a 55 55 ba 3b 01 1b 3a
       0.00078790105 2.8040067e-05 -0.0008137977 0.0005912964
000350 d5 de 34 3a 53 ce ef b9 57 ec f5 39 81 fc 9c 3a
       0.00068996596 -0.00045739356 0.00046906128 0.0011977107
000360 87 a9 97 39 18 8d 64 ba e9 90 a9 b9 2e 1d a8 39
       0.00028927272 -0.00087185344 -0.00032342158 0.00032065198
000370 23 9a 86 38 a5 df 10 ba db 1a 18 39 da 18 b4 39
       6.418328e-05 -0.00055264897 0.00014505854 0.0003435079
000380 29 39 16 3a 8f 04 6a 39 ef b2 57 3a b7 60 e9 39
       0.00057305634 0.00022317677 0.00082282623 0.0004451328
000390 1d 6e 0e 38 e8 e8 ac b9 31 cf 14 ba 17 74 f2 39
       3.395799e-05 -0.00032979925 -0.0005676626 0.0004624433
0003a0 d1 70 cc b9 a7 5c f0 b9 60 84 37 3a f3 5d 6e 38
       -0.00038993967 -0.000458454 0.00070006214 5.683112e-05
0003b0 43 5c 36 ba fe 1d 6c 3a 16 6f fa b8 df e8 48 b8
       -0.0006956497 0.0009007155 -0.0001194162 -4.7900594e-05
0003c0 f9 df 0f ba a8 26 71 b8 e7 62 1a 3a 05 91 e4 b9
       -0.00054883916 -5.749488e-05 0.00058893714 -0.00043595597
0003d0 16 d5 03 ba 91 cd a5 39 16 20 bd b9 27 29 73 ba
       -0.00050290057 0.0003162441 -0.00036072795 -0.00092758465
0003e0 aa 40 23 b9 6c 9c 1a 3a 14 42 88 39 db 50 91 b9
       -0.0001556898 0.00058979425 0.00025989173 -0.00027716797
0003f0 e8 37 07 b8 e3 55 e7 39 82 72 d4 b8 5e 4e 99 b9
       -3.2238575e-05 0.00044123744 -0.000101302765 -0.00029240822

exp_avg_sq f4 [128, 32]
000000 5f 23 32 38 e6 47 e1 36 42 20 d0 38 a3 5b 1e 38
       4.247145e-05 6.7138926e-06 9.9242214e-05 3.775548e-05
000010 71 f1 a1 36 93 d1 05 38 f7 06 72 38 7e 8a b2 37
       4.8262814e-06 3.1904852e-05 5.7703783e-05 2.1283744e-05
000020 7c 86 01 38 4a 8f 8a 37 63 16 87 38 e2 5b 03 35
       3.0881245e-05 1.6517606e-05 6.4414715e-05 4.893501e-07
000030 31 c3 4d 38 26 5e 07 39 38 67 11 37 99 46 64 35
       4.9057595e-05 0.00012909676 8.666706e-06 8.503935e-07
000040 c6 ad 73 38 69 45 df 34 a3 3d 69 38 da 12 09 38
       5.8097554e-05 4.158749e-07 5.5608933e-05 3.2680902e-05
000050 06 07 28 38 13 ba 84 37 a9 bc 3c 37 35 65 00 39
       4.0060862e-05 1.5822274e-05 1.1249599e-05 0.00012244734
000060 e6 06 10 37 0c 39 84 38 a2 84 a8 37 19 32 83 36
       8.584675e-06 6.304876e-05 2.0088923e-05 3.9099364e-06
000070 ce 38 94 34 44 f2 b7 37 f7 eb 84 36 0a 9e 62 37
       2.760848e-07 2.1928114e-05 3.9613765e-06 1.3507446e-05
000080 d7 32 9a 36 bd c9 88 35 1c 9e 43 37 56 6c 62 36
       4.595476e-06 1.0191503e-06 1.1659718e-05 3.3739684e-06
000090 33 7b 9f 34 d2 c7 17 36 75 c9 98 36 b7 30 6f 36
       2.9705697e-07 2.2617064e-06 4.5534057e-06 3.564213e-06
0000a0 23 ed 69 36 8e f8 f1 36 fb b8 f9 36 c4 84 2b 34
       3.4857737e-06 7.2112953e-06 7.442313e-06 1.5973916e-07
0000b0 38 34 d8 36 a1 89 65 37 1b c9 f2 34 9d 51 5f 34
       6.4433807e-06 1.3681508e-05 4.5222336e-07 2.0798184e-07
0000c0 c7 20 9e 36 ba 20 bb 34 45 d6 fb 36 49 ed 46 36
       4.7125827e-06 3.4855276e-07 7.505327e-06 2.9642417e-06
0000d0 9b 1c ba 36 79 51 e4 35 fa 16 54 36 42 62 41 37
       5.546562e-06 1.7011035e-06 3.1603836e-06 1.1526574e-05
0000e0 ed 67 ed 35 e3 7e 0b 37 38 1d c3 35 2c 50 c7 35
       1.7688122e-06 8.314589e-06 1.4537136e-06 1.4849988e-06
0000f0 83 0f 9e 34 3b 44 30 36 d1 d1 26 34 06 3e 51 35
       2.944108e-07 2.626576e-06 1.5536286e-07 7.7948823e-07
000100 84 e5 de 35 75 e5 f4 34 b6 86 92 36 a4 cf be 35
       1.6607087e-06 4.5615494e-07 4.3668215e-06 1.4216535e-06
000110 33 98 e4 34 e2 aa 9f 35 ce 8e 0f 36 ee 3a 88 35
       4.257905e-07 1.1896157e-06 2.1391784e-06 1.014994e-06
000120 8a b8 e1 35 d9 fe 78 36 41 e8 54 36 af 72 8b 34
       1.6817514e-06 3.710322e-06 3.1725651e-06 2.597421e-07
000130 5c 75 1e 36 5e 8e b7 36 e4 02 12 35 53 4f 2f 35
       2.3612147e-06 5.4703987e-06 5.4393445e-07 6.530801e-07
000140 38 e3 fa 35 0c 4f 5b 34 f2 c2 5d 36 c3 1f 9b 35
       1.8692581e-06 2.0424721e-07 3.304504e-06 1.1557644e-06
000150 3c 94 16 36 88 8a 6c 35 37 90 d5 35 32 c6 8f 36
       2.2438026e-06 8.811844e-07 1.5911709e-06 4.284805e-06
000160 87 9f 4a 35 6b 5a 41 36 16 04 2d 35 9a 0e 37 35
       7.5483007e-07 2.8811871e-06 6.445347e-07 6.819406e-07
000170 83 ec 63 34 9b 29 62 35 df fe 47 34 b6 33 f0 34
       2.1227065e-07 8.4252105e-07 1.8626041e-07 4.4741108e-07
000180 f8 e9 ff 36 0b e1 e4 35 f4 20 97 37 ac 88 d1 36
       7.6268298e-06 1.705282e-06 1.8015948e-05 6.244596e-06
000190 34 e7 9b 35 a5 fc a2 36 57 84 17 37 8e 8e 8e 36
       1.1615689e-06 4.857388e-06 9.031114e-06 4.2485253e-06
0001a0 45 ba cc 36 23 50 0e 37 8d 14 59 37 c2 aa e1 34
       6.1013584e-06 8.482518e-06 1.2938993e-05 4.2033759e-07
0001b0 f9 cf 22 37 47 51 c2 37 4a c8 c6 35 52 22 45 35
       9.704375e-06 2.316445e-05 1.4810441e-06 7.343816e-07
0001c0 b5 e2 0f 37 04 8f e2 34 e5 8b 47 37 be 6a b2 36
       8.576249e-06 4.2199838e-07 1.1893896e-05 5.31724e-06
0001d0 a7 af 12 37 dd 03 44 36 1f 13 88 36 05 d1 a8 37
       8.743175e-06 2.9208525e-06 4.055342e-06 2.0124493e-05
0001e0 48 ef 23 36 47 8e 45 37 ae a9 4f 36 07 8c fb 35
       2.4428173e-06 1.1775242e-05 3.094417e-06 1.8741711e-06
0001f0 4f 5d c0 34 af 2f 80 36 d9 f2 11 35 7f 94 01 36
       3.5830678e-07 3.8202484e-06 5.43701e-07 1.9308934e-06
000200 b4 d9 5f 37 80 52 32 36 73 1b 02 38 d7 24 67 37
       1.3342524e-05 2.6572088e-06 3.101998e-05 1.377725e-05
000210 b1 34 b7 36 31 7c 79 37 d2 d5 c8 37 57 04 8f 36
       5.459959e-06 1.4870472e-05 2.3941426e-05 4.2622373e-06
000220 cb b9 5c 37 57 e7 c4 36 41 8d c0 37 34 4a c4 35
       1.315628e-05 5.8681867e-06 2.295396e-05 1.4624734e-06
000230 6b 28 5d 37 08 ad 38 38 fe f4 ce 36 62 74 33 36
       1.3182037e-05 4.4030166e-05 6.1677993e-06 2.6740822e-06
000240 d1 e7 b0 37 81 c6 be 35 b6 cc a8 37 f8 08 48 37
       2.1088783e-05 1.4213875e-06 2.0122487e-05 1.1923017e-05
000250 bc f7 6f 37 dc 24 db 36 6a 5e 52 36 b5 bc 2a 38
       1.430319e-05 6.5309996e-06 3.1347395e-06 4.0706906e-05
000260 78 10 9b 36 43 52 97 37 ae 51 14 37 72 c2 2b 36
       4.621277e-06 1.8038909e-05 8.840505e-06 2.5594168e-06
000270 d0 d7 53 35 0a c5 d6 36 44 a7 27 36 ab 50 c7 36
       7.8917674e-07 6.4006354e-06 2.49823e-06 5.940053e-06
000280 09 59 9e 37 8e 9e 5e 36 89 02 41 38 a4 5c 9b 37
       1.8876528e-05 3.3172869e-06 4.6017147e-05 1.8520579e-05
000290 0f 05 88 36 04 9f 92 37 1e 53 f9 37 ec 13 f9 36
       4.0537047e-06 1.7478604e-05 2.9721818e-05 7.4230975e-06
0002a0 36 4e 8b 37 18 b4 0b 37 92 34 00 38 44 c6 76 35
       1.6606511e-05 8.326977e-06 3.0566538e-05 9.1930656e-07
0002b0 76 46 ac 37 28 c9 84 38 99 53 ca 36 36 6b f0 35
       2.0536809e-05 6.331719e-05 6.029801e-06 1.7912596e-06
0002c0 d6 33 e9 37 5f f9 30 35 c8 de e7 37 7b 00 84 37
       2.7799902e-05 6.592799e-07 2.7641086e-05 1.573585e-05
0002d0 7a 05 95 37 c9 af 09 37 79 22 a5 36 e7 92 6f 38
       1.7764734e-05 8.2067645e-06 4.9213963e-06 5.7118854e-05
0002e0 95 7f b5 36 fa ca f5 37 41 45 29 37 03 d5 03 36
       5.409073e-06 2.9300794e-05 1.0089309e-05 1.964451e-06
0002f0 48 b2 c1 34 4d 2f 17 37 88 78 22 36 8b 71 e6 36
       3.6078768e-07 9.011314e-06 2.421004e-06 6.8677523e-06
000300 4f 54 f7 36 b4 71 c4 35 50 2e 8f 37 f7 ef ea 36
       7.3709884e-06 1.463623e-06 1.7068494e-05 7.001679e-06
000310 47 17 d1 35 7c d5 ce 36 6b c2 3b 37 f4 dc 62 36
       1.5578488e-06 6.1641313e-06 1.1191335e-05 3.3805236e-06
000320 5a 9b c2 36 4c aa 83 36 35 0d 40 37 ab e1 49 35
       5.799736e-06 3.9239294e-06 1.1447167e-05 7.5206725e-07
000330 65 0c 03 37 cb a5 b7 37 8c 07 32 36 58 00 c2 35
       7.811094e-06 2.1892503e-05 2.652846e-06 1.4454226e-06
000340 85 88 37 37 6d 1e ad 34 b5 28 2b 37 f1 4b cc 36
       1.0939436e-05 3.22459e-07 1.0201872e-05 6.0885145e-06
000350 7a 88 f8 36 56 52 7f 36 45 d3 0e 36 29 f1 b0 37
       7.406864e-06 3.8045887e-06 2.1282624e-06 2.1093134e-05
000360 ce 52 d8 35 9d 97 32 37 fc b0 86 36 d1 dc 9e 35
       1.6117353e-06 1.0644927e-05 4.014115e-06 1.1836183e-06
000370 29 17 82 34 cb ec 87 36 b0 8a 9a 35 23 7d 39 36
       2.4231238e-07 4.05088e-06 1.1514257e-06 2.7639987e-06
000380 b9 54 32 36 45 84 1a 35 22 f1 c5 36 e5 7c 0b 36
       2.6573382e-06 5.756195e-07 5.899129e-06 2.0785312e-06
000390 1d 28 87 34 d3 1b f1 35 2c ae 67 36 83 be d9 35
       2.5174896e-07 1.7963997e-06 3.4523064e-06 1.6223206e-06
0003a0 62 87 f8 35 f9 42 19 36 d2 bc 8a 36 b8 ed 01 34
       1.8516841e-06 2.283776e-06 4.134702e-06 1.2100543e-07
0003b0 35 ef 54 36 d2 8d f6 36 79 3e 00 35 c3 a2 fb 33
       3.1729699e-06 7.3478814e-06 4.7774626e-07 1.17177045e-07
0003c0 c3 6c 5f 36 61 71 c0 33 d5 07 68 36 35 65 fc 35
       3.3292897e-06 8.96132e-08 3.4575253e-06 1.8804918e-06
0003d0 6e 07 4d 36 ff 26 7f 35 a4 e2 84 35 24 f2 ef 36
       3.0551705e-06 9.505165e-07 9.900727e-07 7.150944e-06
0003e0 41 1d 48 35 3d 3b 83 36 83 32 b0 35 4e ae f4 34
       7.4548376e-07 3.9110005e-06 1.3127723e-06 4.5575365e-07
0003f0 0e 7e 3e 34 2e 70 cf 35 08 4e b6 34 d9 27 55 35
       1.7740987e-07 1.545535e-06 3.3956917e-07 7.940667e-07

exp_avg f4 [128]
000000 f6 ab d7 bb a9 e7 80 ba db 53 48 39 46 f2 f5 3a
       -0.0065817786 -0.0009834665 0.00019104725 0.001876422
000010 15 9c b9 b9 db f9 25 3b cf e3 0f 3b 57 b9 ee ba
       -0.0003540224 0.0025325927 0.0021955853 -0.0018213195
000020 77 70 f6 3b db af 08 3a 59 d8 b2 bb c7 82 2d ba
       0.007520731 0.0005214193 -0.0054579196 -0.00066189136
000030 16 e2 d9 ba 3b b9 e5 b9 58 09 eb 3a 1e 4c 03 bb
       -0.0016623165 -0.0004381629 0.0017931862 -0.0020034383
000040 e4 d3 76 3b 06 95 3f bb df 82 38 3b 9c 02 46 3b
       0.0037662918 -0.0029233112 0.0028154177 0.0030213958
000050 81 81 8c bb ea 64 32 3b b3 a1 c2 ba 65 1a a0 ba
       -0.004287899 0.0027220794 -0.0014849216 -0.0012214897
000060 3f 36 67 39 2e c1 aa 3a 22 7f 9c b8 84 43 73 bb
       0.00022050085 0.0013027543 -7.46234e-05 -0.00371191
000070 10 4e 23 3b f5 8f 81 b9 a1 ca 26 39 4a d1 8d 3b
       0.0024918355 -0.00024712054 0.00015906479 0.0043279277
000080 8c 36 cc bb df 81 a2 ba ec 8a 8b 3b 3c 7f 68 3b
       -0.0062320884 -0.0012398324 0.004258504 0.0035476228
000090 94 7f 16 3a 8b c6 56 3b 8a 94 0b 3b ad 65 05 bc
       0.00057410565 0.003277215 0.0021298253 -0.008141917
0000a0 ab 89 0d 3c f3 03 b0 3b 5d fc ec bb 82 9a 9e ba
       0.00863878 0.0053715645 -0.0072322325 -0.001210049
0000b0 7d 23 f9 ba 54 a6 74 ba 33 31 df 3a b1 3d e9 ba
       -0.0019007769 -0.0009332646 0.0017028212 -0.0017794875
0000c0 9f 6d c1 3b 2b db f9 ba d9 2e fd 3b ab 17 a2 3b
       0.0059029604 -0.001906251 0.007726532 0.004946669
0000d0 31 48 e6 bb 5b ff a1 3b 25 a9 74 bb 07 16 02 bb
       -0.007027649 0.004943771 -0.0037332263 -0.0019849555
0000e0 cc 43 84 3a 0f 16 57 3b 86 a0 6c 39 2e df 91 bb
       0.0010091006 0.0032819544 0.00022566514 -0.004451654
0000f0 51 3e 56 3b 52 cd 78 38 c2 35 01 39 e1 0f 86 3b
       0.0032690952 5.9319027e-05 0.00012322425 0.0040912484
000100 9a ae 38 3c 13 7e 54 3c 5f a4 9f ba 38 4d 52 bc
       0.011272097 0.012969512 -0.0012179724 -0.012835793
000110 cf 3c 3f be 67 1a f0 3c a6 5e 7f 3b fb fd 8f 3d
       -0.1867554 0.029309465 0.0038966327 0.07030865
000120 80 76 25 3d 2e ab 24 bc a9 5c 86 3c 71 b1 35 3d
       0.040396214 -0.010050578 0.016401606 0.044358674
000130 59 e2 fe bb 6f 30 f7 3a 7e 50 0f 3d a2 f5 33 bd
       -0.0077784476 0.0018859039 0.034988873 -0.043935426
000140 d6 8f 9a 3c fd 5b 08 be 1c 42 0a bc b0 58 86 3b
       0.018867414 -0.1331634 -0.008438613 0.004099928
000150 58 9b 42 bd 1c 2a da bc e5 e8 7e bc 5d 41 1a bb
       -0.04751143 -0.026631407 -0.015558456 -0.0023537495
000160 a0 73 5b 3c c7 b2 50 bc 42 92 a2 3a f0 a1 f9 bc
       0.013394266 -0.012737936 0.0012403207 -0.030472726
000170 55 6a 10 3c ca d5 93 3b 67 05 a0 39 dc b0 97 3c
       0.008814414 0.0045115696 0.00030521603 0.01851695
000180 ce ff 40 bc 9b 20 44 ba d8 86 4e 3b 02 60 81 3b
       -0.011779739 -0.0007481665 0.0031513479 0.0039482126
000190 93 9d 2c b9 65 c8 4e 3b fd f9 3b 3b ca 6b ef ba
       -0.00016461899 0.003155255 0.002868294 -0.0018266377
0001a0 a0 28 35 3c 25 b2 bf 39 80 1e 28 bc 7f 22 33 ba
       0.011057049 0.00036563087 -0.010261178 -0.00068334484
0001b0 58 b8 58 bb d8 cd 42 ba 2e f3 8b 3a ae 58 c3 ba
       -0.0033068862 -0.0007431186 0.0010677332 -0.0014903748
0001c0 98 c1 14 3c fb 04 11 bb 9c d6 0e 3c 0d 48 0d 3c
       0.0090793595 -0.0022128213 0.008718159 0.008623135
0001d0 07 c6 8f bb e1 9f 61 3b ff 30 fb ba ee c9 93 bb
       -0.0043876204 0.003442757 -0.0019164382 -0.004510156
0001e0 cd 30 ad 39 9c 92 13 3b 3f 15 da 38 a2 52 29 bb
       0.0003303349 0.0022517806 0.000103990074 -0.0025836607
0001f0 1c fb 86 3b 67 0b 54 b9 67 c4 2b 39 af 7d 63 3b
       0.00411929 -0.00020222143 0.00016380996 0.0034712364

exp_avg_sq f4 [128]
000000 48 c4 de 39 25 05 a9 37 2a 30 3d 37 ac 4d 21 38
       0.0004248938 2.0148766e-05 1.1276492e-05 3.845773e-05
000010 42 69 1a 39 57 82 31 39 c3 a0 bd 38 bb 23 f3 37
       0.00014725796 0.00016928591 9.0421665e-05 2.8984496e-05
000020 a6 9d 3b 3a 21 f5 a7 36 0e 8b 8c 39 3e 84 1a 37
       0.00071569753 5.0055246e-06 0.00026806485 9.209905e-06
000030 d6 b6 77 38 72 1c 09 37 07 25 a5 38 56 83 55 38
       5.905967e-05 8.172459e-06 7.87471e-05 5.0905473e-05
000040 fa dd 1a 39 8e 65 c7 38 17 60 f1 38 63 fd 79 38
       0.00014769277 9.5079755e-05 0.00011509674 5.960221e-05
000050 2f f2 40 39 33 d8 8b 38 f0 27 a1 37 e2 ee 1e 38
       0.00018400767 6.668307e-05 1.9211293e-05 3.7892612e-05
000060 f5 95 c2 37 7d 65 7b 37 72 b1 27 37 10 8f a8 38
       2.3196431e-05 1.4984395e-05 9.99529e-06 8.037512e-05
000070 2c dd c8 37 b4 23 ab 36 fb 44 30 36 ac 7c 65 39
       2.3944849e-05 5.1003535e-06 2.6266196e-06 0.00021885586
000080 8e 1a bd 39 36 48 f5 37 75 d4 3d 39 a4 59 c4 38
       0.00036068674 2.9239902e-05 0.00018103591 9.362705e-05
000090 99 e5 36 3a 50 de 94 39 11 34 cf 38 40 78 bb 39
       0.0006976962 0.00028394395 9.880227e-05 0.00035757013
0000a0 c5 2f 82 3a 4d d2 c2 38 3f d2 eb 39 4e 5a 94 37
       0.0009932449 9.2898124e-05 0.00044979338 1.7685026e-05
0000b0 ab 02 d7 38 a1 79 98 37 c4 2a ef 38 30 91 67 38
       0.00010252496 1.817645e-05 0.00011404374 5.5209908e-05
0000c0 1a 1a 97 39 51 51 d9 38 08 f1 ff 39 78 46 05 39
       0.00028820412 0.00010362513 0.00048816972 0.0001271012
0000d0 d4 f8 f6 39 03 69 40 39 88 0c 03 39 0f f6 99 38
       0.00047106168 0.00018349667 0.00012497802 7.3414405e-05
0000e0 43 d5 4d 37 4c ca ed 38 62 6f da 36 2f 36 d5 38
       1.2268606e-05 0.000113387214 6.509873e-06 0.00010166724
0000f0 e0 29 46 38 a5 d8 d2 36 ca a3 34 36 74 d7 34 39
       4.7245878e-05 6.2837084e-06 2.6917428e-06 0.000172464
000100 e1 4b e1 3a d5 d5 d2 3a c8 b1 e0 3a 3a 99 55 3a
       0.0017188751 0.0016085455 0.0017142827 0.0008148138
000110 0d 70 81 3e 47 e8 99 3b 7e 0a 47 3a 13 a8 3f 3d
       0.252808 0.004696879 0.0007592811 0.046791147
000120 47 01 81 3c 99 78 3e 3b d6 c3 50 3b 5b a0 87 3c
       0.01574768 0.002906358 0.0031855009 0.016555956
000130 33 84 bd 3a 30 e7 f9 39 b6 41 3e 3c 1d 54 c7 3c
       0.0014458954 0.0004766523 0.011612346 0.0243321
000140 73 6e d3 3a 09 a5 35 3e 88 25 52 3b 58 61 8b 39
       0.0016130939 0.17738737 0.0032065827 0.00026584673
000150 71 e2 ce 3c 31 2a 17 3c ef 17 cd 3b 95 62 61 39
       0.02525446 0.009226368 0.0062589566 0.00021494397
000160 f6 b5 6a 3b 5d 6a a5 3a b6 f9 2f 39 d1 e2 2a 3c
       0.0035814024 0.00126202 0.00016782325 0.010430054
000170 e5 0f 5b 3b 79 4a f2 39 85 6b c5 39 cf 0f 7a 3b
       0.0033426222 0.00046213323 0.00037654876 0.0038156395
000180 b2 c1 8d 3a 7c ee 90 37 59 a1 71 38 f1 37 05 39
       0.0010815172 1.727719e-05 5.7609144e-05 0.00012704708
000190 d6 49 05 39 41 9c 62 39 74 51 4f 39 e7 10 e7 37
       0.00012711374 0.00021611249 0.00019771402 2.7545217e-05
0001a0 bb 61 bc 3a b3 2e 3a 37 da 46 6f 3a ba 9e 1b 37
       0.0014372388 1.1097337e-05 0.0009127684 9.275676e-06
0001b0 ac 19 13 39 fe 97 9c 37 ce c4 77 38 f5 64 3c 38
       0.00014028576 1.8667426e-05 5.9072678e-05 4.4916716e-05
0001c0 23 8a 46 3a 21 0a 43 38 b8 3d 27 3a 5f 51 d3 39
       0.00075736846 4.6501056e-05 0.0006379741 0.00040305682
0001d0 f7 6b 4f 39 6c c7 e2 38 ea a4 ce 37 1b a9 9e 39
       0.00019781278 0.00010813665 2.4633908e-05 0.00030262102
0001e0 13 c1 ac 37 fb c6 e6 37 8d d7 2c 37 e1 da 20 38
       2.0593905e-05 2.7510794e-05 1.0302186e-05 3.835082e-05
0001f0 b3 17 89 38 2b cd d6 36 e0 58 82 36 a9 24 1d 39
       6.5370834e-05 6.4015817e-06 3.8846483e-06 0.00014986344
