code/logs/epoch=74-step=29775.ckpt (torch, 217711 bytes, 84 tensors)

model.upscale.weight f4 [32, 1]
00000000: 6056 67be 380e e53e d58a c43d 6de5 313f
00000010: ba74 8e3e bb3b 39bf 4083 a9bf 5a74 34bf
00000020: 2127 863e fcc9 0f3f 2aa5 fd3e 58ae 8fbf
00000030: 1e61 8ebf 6eab 153d ed8c c83e 425a 593f
00000040: 0b3c 063f f85d 803e ea26 0bbf cd3f bd3e
00000050: 8951 43bf d03b 8ebb ce78 213f 8d21 173f
00000060: e276 2fbf 4bcf 1c3f cf30 c8b9 1d8e 203f
00000070: f2cb 3c3e 3850 ea3e b6d6 3e3f 2059 dcbd
-0.22591543 0.4473741 0.095967926 0.694907 0.2782343 -0.72356766 -1.3243179 -0.7049004
0.26201728 0.5616758 0.49540073 -1.122508 -1.1123388 0.03654044 0.39170018 0.8490335
0.5243537 0.25071692 -0.54356253 0.3696274 -0.7629629 -0.0043406263 0.6307496 0.5903557
-0.68540776 0.61253804 -0.00038183338 0.6271685 0.18437174 0.45764327 0.7454637 -0.10759187

model.upscale.bias f4 [32]
00000000: 90ca 2cbf 374d 7d3e 8878 a0bf 5108 5f3e
00000010: b43b f33e e7d6 80bf afbf 25bf 5b73 943e
00000020: 14c2 973d 1ebc f93d 6a51 e43e 3270 c2be
00000030: 4eb9 90be 00a7 89bf 5166 be3d bb25 c33e
00000040: 38b5 54bf 3ff9 703d 4248 693f 14be 133f
00000050: 3d01 a1be 67bc 23bc 21d2 c2be da78 20bf
00000060: 62d4 03bf 1e33 e43e b94e f3bd 5374 ce3e
00000070: 0706 8d3e 9c46 953e e1eb 3fbe 2873 7fbe
-0.67496586 0.24736486 -1.2536783 0.21780516 0.47506487 -1.0065583 -0.6474561 0.2899426
0.07410064 0.12194084 0.44593364 -0.37976223 -0.28266376 -1.0754089 0.09296859 0.38114724
-0.8308902 0.05883145 0.9112588 0.5771191 -0.31446257 -0.009993649 -0.3805094 -0.62684405
-0.51495945 0.4457025 -0.118802495 0.40323123 0.2754366 0.29155433 -0.18742324 -0.24946272

model.spatialSeq1.0.msg_mlp.0.weight f4 [16, 64]
00000000: 94be bf3d f896 59bc 3ba4 773d de47 433d
00000010: fc16 7a3d 804c 52bf c8b1 46be 26ec 54be
00000020: 3bfe 9fbd dfbc df3d faf0 48bd 22ba 7abd
00000030: 2ac2 6d3b 5449 6a3a 39cf e13d 6991 d33d
00000040: 8d91 69bd 91ac 1abd 4284 033e 2e78 e23d
00000050: 47e4 96bd 3693 babd 9b32 64be 1c53 01be
00000060: 065f fdbf c158 bbbd 495b 5b3c 4af2 6ebd
00000070: 5b82 5fbd 62c7 bbbd a16b 133e 286a c53d
00000080: d05e 053c b11b aebd 6f43 4d3e feba 9abe
00000090: 011e babb f1b6 f03e b6bc 27bf bef3 2d3e
000000a0: 951f 883d d18f 1ebe 8e8d 773d bd41 d4be
000000b0: 13e0 d8be 06a2 073e 2dc2 45be 20a9 44be
000000c0: a7bc a13d bcbe 9abe 3295 103e b4f7 14bd
000000d0: e6ac b1be 029c 583d 95e8 17be 070f 5d3b
000000e0: 6e3d 91be d456 403d 62b0 c53d 5b1a 84bd
000000f0: 4648 1d3d a4b9 64bd 601f 41be 9a3f af3d
00000100: fc38 d5bd e9da c73d 5081 7dbe fa05 1ebd
00000110: 5059 e0bd 590f c73e 7a40 f93e ebbb 58bd
00000120: 1124 33bc c146 d53d 5605 c03d 3024 8c3e
00000130: e853 7b3d 0f28 4dbc 2a40 deba f7c9 0b3c
00000140: bb89 2cbe adef 0fbd de74 4f3c 3e0f 16bd
00000150: 7e9f a83e 06dc b63d 85f7 3cbd 3b59 d2bd
00000160: 9083 e2be a495 0abd 0b3e c8bd 352c c13c
00000170: bffa 833d 2256 c33d 3475 f83d c887 85bc
00000180: c847 263d 5712 2c3c 932c 90bc 62e8 d3bd
00000190: d700 e03d aaf4 863d 5fa2 1fbf 2236 d3bd
000001a0: c9be 92bd 2f52 28be 43fa 323c 57b2 0abf
000001b0: 1f13 0cbf 51d6 4bbe f395 85be cdc2 12be
000001c0: 1863 1bbe 7d96 90be ff10 15bd 6b37 723d
000001d0: 873d 33bf 6453 f93b 067d 10bf 0fea 1dbe
000001e0: 5027 28bf ae3b c13d 64f8 54bd e0ae 8d3d
000001f0: 37a8 463d fcf5 9a3d 005f cbbe 4667 cdbd
00000200: 789c 833c 9bf1 4dbe 491e a5bb 1c2f 34be
00000210: eb23 ffbb 08db 873f 6e5c 86be f867 e53d
00000220: 0cdb debd cff2 bbbd 805c b4bd 12d0 203d
00000230: 6aa2 823e f234 2c3e c5d6 cdbd fc8e 6cbe
00000240: c912 c33e de0f 303c 036b 873d a1b0 f9bd
00000250: b1e1 35be b64c 083e 3cb7 093d e013 d73e
00000260: 119b 51bf 25c0 97bd be8d a63d ee1f c5bd
00000270: 1273 c6bd 3101 80bd fc57 883e e445 bb3d
00000280: 2a2f ec3d e614 b7bc 5888 3bbe 4a97 49bd
00000290: 0131 cd3d 3250 953e c9e7 d9be 97c5 213e
000002a0: 7379 eebd 792f 6dbd add4 4fbd 1d83 5dbe
000002b0: dbc0 72bc b7c3 9dbd 264b 19be ca6e 12bd
000002c0: 6e83 333c 1e35 0abe 467b 1b3e d387 9dbd
000002d0: 0317 17bf 41eb 593d 0baf 733e 0546 56bd
000002e0: 0c61 32bf 4ffb 6c3d 8f38 50bd 21b8 203d
000002f0: f7e7 783c f5ea a43d 148b 013e 4c35 c43d
00000300: 500e 79bd 8c5b 5c3d a52a d0bc 7557 013e
00000310: 8d13 143e f199 66be 842f 823e fd85 0dbe
00000320: 7d0b 0a3d 1fb2 083e eed3 fc3d c26c 0b3e
00000330: ffac 3b3e c24e b1bd b128 64bd 5241 7dbd
00000340: e996 9e3d fdf7 273c 5fa7 80bd e356 9f3d
00000350: f716 fb3e 61f1 183d b966 2dbe 7eea 1c3e
00000360: cf2d 783c 905e 42bd fc18 923d 05f0 f13d
00000370: 6aba 083e 6705 23bd 6761 d0bd 3408 efbd
00000380: 4485 89bd 372b 133e 39ff c4bc 57f5 a5bd
00000390: 2cc7 2d3d 0578 26bf b3c9 99bf b90e 1abe
000003a0: 974a 0dbd 12bd 60be 1d19 4abd 3683 5cbf
000003b0: cdb3 4ebf f859 25be 1725 70be 6ca1 ddbd
000003c0: eb69 05bd 130b 10bd 8961 383c bf58 de3d
000003d0: 9619 87bf 3c71 99bd 457e 8cbf dbdc aabe
000003e0: 2a0f 02c0 d287 a23d ead6 23be 4689 693d
000003f0: de0f 803d dc41 23bd 52bf 65bf 005d bb3d
0.09362522 -0.013280623 0.060459357 0.04767596 0.061057076 -0.8214798 -0.19403756 -0.20793208
-0.078121625 0.10924696 -0.04905794 -0.061212666 0.003627906 0.00089373183 0.11025853 0.10330469
-0.057023574 -0.03776223 0.12843421 0.11058079 -0.07367759 -0.091101095 -0.2228493 -0.1262936
-1.9794624 -0.09147788 0.013388463 -0.058336534 -0.054567676 -0.09168889 0.14396526 0.09639388
0.008140281 -0.085013755 0.20045255 -0.3022079 -0.0056798463 0.47014573 -0.65522325 0.16987512
0.06646649 -0.15484549 0.06043773 -0.41456404 -0.42358455 0.13245401 -0.19312353 -0.19205141
0.07897311 -0.30223644 0.14119413 -0.03636904 -0.34702224 0.052883156 -0.14834817 0.003373088
-0.2836718 0.046957806 0.09652783 -0.064503394 0.038399003 -0.055841103 -0.18859625 0.08557053
-0.104112595 0.09758551 -0.2475636 -0.03857992 -0.10954535 0.38878897 0.48682004 -0.052913588
-0.010933892 0.10413886 0.09376018 0.2737136 0.061359316 -0.012521758 -0.0016956378 0.008532039
-0.16849415 -0.035140682 0.012662141 -0.03663563 0.32934183 0.08928685 -0.04613449 -0.102709256
-0.44241 -0.033834115 -0.09777459 0.02358065 0.064443104 0.09537913 0.1213173 -0.016300097
0.0405958 0.010502419 -0.01759938 -0.10347058 0.1093766 0.06589635 -0.62357134 -0.103130594
-0.07165296 -0.164376 0.010923925 -0.54178375 -0.54716676 -0.19905974 -0.26090965 -0.14332123
-0.1517452 -0.28239813 -0.036393162 0.059134882 -0.7001576 0.007608818 -0.5644077 -0.15421318
-0.65684986 0.09435211 -0.051994696 0.069181204 0.048500266 0.07566449 -0.39720917 -0.100294635
0.016065821 -0.20111696 -0.0050390107 -0.17596096 -0.007786264 1.0613718 -0.26242393 0.11201471
-0.108816236 -0.091771714 -0.088067055 0.03926093 0.25514537 0.16817072 -0.1005073 -0.23101419
0.3810027 0.0107459705 0.06612208 -0.121918924 -0.17761876 0.13310513 0.03362201 0.4200735
-0.8187724 -0.074096955 0.08132504 -0.09625231 -0.09689917 -0.06250227 0.26629627 0.0914419
0.11532433 -0.022348832 -0.1831373 -0.049216546 0.100191124 0.29162747 -0.4255965 0.15798031
-0.11644258 -0.0579066 -0.050739933 -0.21632047 -0.014816488 -0.07703345 -0.14970073 -0.035750188
0.010956628 -0.13496825 0.15183744 -0.07691922 -0.5901949 0.05320287 0.23797242 -0.05231287
-0.6967933 0.057856854 -0.05083519 0.0392381 0.0151920235 0.08052627 0.1265071 0.09580478
-0.060804665 0.053798243 -0.02541096 0.12631018 0.14460583 -0.22519661 0.25426877 -0.13820644
0.033702362 0.13349198 0.1234511 0.13615707 0.18327712 -0.086576 -0.05570287 -0.061829872
0.077436276 0.010251996 -0.062819235 0.07780244 0.49040958 0.037339572 -0.16933717 0.15323827
0.01514764 -0.047453463 0.07133672 0.11813358 0.13352361 -0.039800074 -0.10174828 -0.116714865
-0.067148715 0.14371954 -0.02404748 -0.081034355 0.042426273 -0.65026885 -1.2014679 -0.15044679
-0.034494963 -0.21947125 -0.049340356 -0.8613771 -0.80743104 -0.16147602 -0.23451649 -0.108218044
-0.032571714 -0.03516681 0.011253723 0.10856771 -1.0554683 -0.07492301 -1.0976034 -0.33371624
-2.0321755 0.07936062 -0.15999952 0.05701568 0.062530264 -0.03985773 -0.89745057 0.09148598

model.spatialSeq1.0.msg_mlp.0.bias f4 [16]
00000000: 9fe0 f93d 3d39 7a3d 1a46 c93c 9dd2 023e
00000010: 23d3 b1bd 4232 3e3c 1212 803c 3dae eebd
00000020: cbfa 02bd a74c c93c 0b97 1fbb f5f1 a5bd
00000030: 248b 07be 3a20 e73d 61db 7ebc 240e 86bd
0.12201046 0.061089743 0.02456956 0.12775655 -0.08682849 0.011608662 0.015633617 -0.11654327
-0.031977456 0.024572683 -0.0024351503 -0.0810279 -0.13236672 0.112854436 -0.015555234 -0.06545666

model.spatialSeq1.0.msg_mlp.2.weight f4 [32, 16]
00000000: 2ae7 123d 862d 39bd fefa e3bd 1d1d 143c
00000010: 4ed7 453e a535 9dbe 0ef6 1c3e 6aeb ed3d
00000020: 67dc 33be 98cd 6b3d bb90 8a3c b68b 59be
00000030: b7e9 3abc bef9 41be 4bc9 f13d 7fd5 b83d
00000040: 557b 23bd 9580 cebe db1a 45be eaf5 2ebf
00000050: 270f 6abc a7a0 5abe 43fa d43d 432b 24bc
00000060: 9721 db3d bcc1 053d fce9 c9be 736c 24be
00000070: f85d fe3d e30e 90be a085 a8be 81a9 8dbe
00000080: ad50 7a3e e983 52be 8751 e43d 8a47 0e3d
00000090: 3ea4 a1bd f2f4 9a3d 1b16 33be 010c 94bd
000000a0: 0c0a 153e 35f2 99bd ce3b acbd e95b 31be
000000b0: bec3 b93d 829f 82bd 3308 6fbe 2061 dfbd
000000c0: fa00 7ebe d8e6 7fbd ba6a 26be 1015 2fbe
000000d0: 91b0 1cbe accb 623d 677f 4a3d e7e6 ad3d
000000e0: 078f 343e 3694 13bd 64af 573e 9aff b5bd
000000f0: 49c2 8abe af4d 923c 208c 323e 6ddc 51be
00000100: 687b cebe 0e7b 5c3a 1d7e 57be f8a4 e3be
00000110: b5c3 a0be 9414 69bd fd89 263e c601 333e
00000120: e5ed 753d 40a6 3dbe d014 56be a805 3abd
00000130: d5be 09bd a7d7 8cbe 8772 0c3c 6345 dd3d
00000140: 8eae 3bbe 0d15 39bd e60b ae3c 3022 3fbe
00000150: 7ddf 2bbe 04f3 7fbd 7620 bd3d f5cc 11bd
00000160: 50b4 a53b 52d3 2a3d 6c99 ddbd c507 5dbe
00000170: a51c 3bbc aa18 503e e0c9 cc3d 4d49 583d
00000180: 3795 373e 3822 e6bd cd4b 3f3d cc53 61bc
00000190: c672 31be 60cf aabd 5702 83bd 6c47 37be
000001a0: 25bb 45be 015a f1bb 38b7 ee3d 9497 3ebe
000001b0: d628 ee3b 1673 1a3d c2f4 6bbd 4a6b 973c
000001c0: 1729 623e 2257 1cbe c751 a6bd 0eec 623d
000001d0: 6914 8fbd 3cd5 a63d 1dbd 883d 1582 163e
000001e0: d7e8 9ebd 442c eabd 16ff 06bb 9ae4 a8bd
000001f0: 2460 333e 796d 023e b192 193d 811d 06be
00000200: 0716 8abd 774a d43d 4a50 083e 71ac 87be
00000210: e123 06bd 628a 293d 341b 15bd 87b2 9d3e
00000220: 9683 8b3e 03e5 e9bd 65e1 3abd 0958 9b3d
00000230: c6dd 5b3d 16d7 c83d 2581 7c3e c985 24be
00000240: 9da7 1bbd 557e 3bbe 28a8 7abd cdc1 b5be
00000250: bf0e 7d3d 3ef5 10be 9ec9 98bd 5b7d 19bd
00000260: f9c1 083e ccd4 6f3d 4505 06be 00f7 493e
00000270: bb2d 01be 93af 493e 7685 4bbe 3f46 d03d
00000280: 52f0 98bc c109 ec3d ec95 9bbc 41b4 33bd
00000290: 5612 4c3d 6192 8a3d e150 0b3e e3ab d2bd
000002a0: e38c a43d 0a41 b8bd f04c 6a3e 462b d63d
000002b0: 6425 5dbc fa9d 92bd 537f 5f3c 0bd3 e13d
000002c0: 8470 80bd 8126 3cbe 3f6d b3be 96ff 013d
000002d0: 770c 9cbe eeb5 3dbe b34d b73d d863 1bbc
000002e0: 052d 18be 0228 22bd c509 d4be 7559 233e
000002f0: ed0c 4cbd decb fe3c 76bc 4cbe 1089 8abd
00000300: 373d 1b3e 7951 61bd bcfd 033e 6425 0f3b
00000310: cb1d 873d 7ac3 fdbd 175a a3bc 7bbb 753e
00000320: 2bf1 d3bd a707 873d 596c f9bd d392 353e
00000330: b312 93be 5ec0 64bd 3791 17be 0cae 3f3e
00000340: 3c51 b2bd ff1e 403e da32 8f3e 496c 2a3e
00000350: a38e 59bd cd93 703c cc13 0cbd d75a 3f3c
00000360: 6ef1 47be 7bf0 20bd ecb5 5e3c b3a1 313e
00000370: ceb8 823d fb2f efbd 203a 013e 0dcf f2bd
00000380: d8df 2cbd ebab 533c fe23 de3d 4a67 e5bd
00000390: 8b1a 9abe 35a6 28be 6fde 37be 04fb 8f3e
000003a0: f1aa e7bc 7634 36bd 0fa2 25bf ff77 a7bd
000003b0: e04b b43b fe01 31be dbb8 c8bd 0665 9a3c
000003c0: 7781 5cbe 72f0 f6bd ab50 c23d f782 afbb
000003d0: bda8 a4bd 5234 8fbd 41fa cdbd 0a32 1a3e
000003e0: ffcf 31be 9b29 97bb 553c 633d 453c 6bbe
000003f0: 74f5 653d ba06 413e bf86 883d 8eae 9ebc
0.035864986 -0.04520943 -0.11131857 0.009040144 0.19320413 -0.3070499 0.15328237 0.11617167
-0.17564546 0.057569116 0.016914716 -0.21244702 -0.011408261 -0.18942925 0.11805972 0.09025096
-0.03991254 -0.40332475 -0.19248526 -0.68343985 -0.014285839 -0.21350347 0.10399296 -0.01002008
0.10699766 0.032655463 -0.39436328 -0.16056995 0.12420267 -0.28136358 -0.32914448 -0.27668384
0.24444838 -0.20558132 0.111483626 0.034736194 -0.07892655 0.07566251 -0.17488901 -0.07228852
0.14554614 -0.075169004 -0.08409844 -0.17320217 0.09070538 -0.0637808 -0.23342972 -0.10907197
-0.2480506 -0.06247601 -0.1625165 -0.17097878 -0.1530173 0.055370018 0.049437907 0.08491307
0.17632686 -0.036030017 0.21063 -0.08886643 -0.27101353 0.017859308 0.17436266 -0.20494242
-0.40328526 0.00084106706 -0.21044202 -0.444618 -0.31399313 -0.05690439 0.16263576 0.17481145
0.060041327 -0.1852045 -0.20906377 -0.04541555 -0.033629257 -0.2750828 0.008572227 0.1080425
-0.18328306 -0.04518609 0.021245908 -0.18665385 -0.16784473 -0.062487617 0.09234707 -0.035595853
0.0050568953 0.041705437 -0.108202785 -0.21584995 -0.011420404 0.20321909 0.09999442 0.05280428
0.17928015 -0.112369955 0.04670315 -0.013752889 -0.17328939 -0.08340335 -0.06396931 -0.17898339
-0.19309671 -0.0073654656 0.1165604 -0.1861251 0.0072680516 0.03770741 -0.057606466 0.018483777
0.22085987 -0.15267614 -0.081210665 0.0554009 -0.06986315 0.0814614 0.066766955 0.1469806
-0.077592544 -0.11434224 -0.002059882 -0.08246727 0.17517143 0.12737073 0.03749341 -0.13097192
-0.06742483 0.103657655 0.13311878 -0.2649875 -0.03274906 0.041391738 -0.036402896 0.30800268
0.2724883 -0.11420634 -0.04562511 0.07585151 0.053678297 0.098066494 0.2465864 -0.1606666
-0.038001645 -0.1830991 -0.061195523 -0.3549942 0.06178164 -0.14156052 -0.074603304 -0.037473064
0.13355245 0.05855255 -0.13087948 0.1972313 -0.12615101 0.19695882 -0.1987513 0.101696484
-0.018669281 0.11525298 -0.018992387 -0.043873075 0.049822174 0.06766201 0.13605072 -0.10286691
0.080346845 -0.0899678 0.22880912 0.104574725 -0.013497684 -0.07159038 0.013641196 0.110265814
-0.06271461 -0.18374063 -0.35044286 0.031737886 -0.3047826 -0.18526432 0.08950367 -0.009484254
-0.14860924 -0.039588936 -0.41413704 0.15952094 -0.049817014 0.03110307 -0.19993767 -0.06764424
0.1516007 -0.05500934 0.1288976 0.0021842355 0.065974794 -0.123908 -0.01994042 0.239973
-0.103487335 0.065932564 -0.12178869 0.1773179 -0.28725204 -0.05584752 -0.14801489 0.18718737
-0.087069005 0.18761824 0.27968484 0.1664287 -0.053114545 0.014683676 -0.034198567 0.011679373
-0.19525692 -0.03929184 0.013593178 0.1734684 0.06382905 -0.116790734 0.12619829 -0.11855898
-0.04220566 0.012919406 0.10846709 -0.112013415 -0.30098376 -0.16469653 -0.17955945 0.28121197
-0.028279753 -0.044483624 -0.64700407 -0.08177184 0.005502209 -0.17285916 -0.098008834 0.018847
-0.21533762 -0.1205758 0.094880424 -0.0053561884 -0.08039997 -0.06992401 -0.10057498 0.15058151
-0.173645 -0.004613114 0.05547746 -0.2297221 0.056142285 0.18850222 0.06666326 -0.019370344

model.spatialSeq1.0.msg_mlp.2.bias f4 [32]
00000000: 3e52 943d 244a 7abd 8204 b0bd bbd6 b2bc
00000010: 7515 473d 14b0 253d 0c0c afbd 754b 93bc
00000020: 4d80 21be 66f4 0c3d ccba e63d 9067 edbd
00000030: 309f a53d 8282 31be e8fe b93c 8a3c e03c
00000040: 6198 913d aab7 b93d 4302 29be a374 063d
00000050: d43a 96bc c43f b43d 6922 1cbd 182e 61be
00000060: 2585 b4be 41a5 e63d 0629 2c3d a5cd 4cbd
00000070: 656e f4bd 751e 84bd 25b6 223d d713 2fbd
0.07242249 -0.061105862 -0.0859461 -0.021830907 0.048604447 0.040451124 -0.0854722 -0.017980317
-0.15771599 0.034412764 0.112660974 -0.115920186 0.08087003 -0.17334941 0.022704557 0.027372617
0.07109142 0.09068234 -0.16504769 0.032826077 -0.018338598 0.08801225 -0.038118754 -0.2199024
-0.3525783 0.112619884 0.04203131 -0.050000805 -0.119351186 -0.06451122 0.039724488 -0.04274353

model.spatialSeq1.0.gate_mlp.0.weight f4 [1, 32]
00000000: 47c5 7ebe 28e8 da3e 90f8 083d 9668 cebc
00000010: a02d 433f c6f7 1c3b fe19 e33b 739d 083c
00000020: a85b 7e3e 30c0 93bd b03f d9bd 1e6d 383f
00000030: f6e5 f83b d54f 563d 73fd 133f e52a f0bd
00000040: 41a1 b63e af43 80bc b351 123e 1a4b 97be
00000050: 2597 a63c 2071 68be 33cd 9bbd 0c9b af3b
00000060: f1f8 043f 8e33 83be e6e2 af3e 6286 54be
00000070: 801f 303d 4f37 253c 1617 073e e2de 21be
-0.24879943 0.42755246 0.033440173 -0.025196355 0.76241493 0.0023951395 0.0069305887 0.00833832
0.24839652 -0.07214391 -0.106078506 0.720415 0.007595773 0.052322228 0.5780861 -0.117269315
0.35669902 -0.015657274 0.14288978 -0.29549485 0.020335743 -0.22699404 -0.07607498 0.005359059
0.51942354 -0.2562527 0.34352797 -0.20754388 0.04299879 0.010083987 0.131924 -0.1580768

model.spatialSeq1.0.update_mlp.0.weight f4 [32, 64]
00000000: aa50 09bd 4566 f63d 67b4 d9bd 958c 423e
00000010: 9903 993c dc44 943b 4a0c 8fbd 4f97 a93a
00000020: 8c62 503d 0013 d73d 9cf9 513d 7bc1 58bd
00000030: 5adc 49bd 513a 0abe 753f 90bd 116a a53d
00000040: a67d 16bc c903 75bc 7193 22bc a05c bd3d
00000050: 406c 19bd d3a6 693b c9b4 cabc c6e8 b6bd
00000060: 7ea5 1bbd 5700 0f3e bea0 81bd eb85 86bd
00000070: 8e1c 0cbd 3726 66bd 12d4 713d a1c8 da3d
00000080: c45d 9cbd 4db4 79be 6e49 403d 2ffa c6be
00000090: 4c61 c9bd b544 90bf 3bfb bd3e 3314 793e
000000a0: 6e0b 49bd d03f 04bf ee00 1abd 297e a43e
000000b0: 9433 fa3e 6616 d33d 112d c7be 71bc 9cbe
000000c0: e93c 023c 4b77 b0be d061 0f3c 6c83 01be
000000d0: 6c69 063f 846d 253d 3a12 9dbd f5a2 e83b
000000e0: e705 debe e277 79bd 679b d7bc 1d84 55be
000000f0: 9d86 ca3d d4cb 56bd d3f7 6cbe 4810 6a3d
00000100: 01ef 873d 4a91 4dbe 569d a43d 2bb2 bf3c
00000110: b967 f3bd 6c88 30bc 88b1 1a3e 153c 0fbd
00000120: 33c0 eebc 5591 e8bd 6a07 bb3c c4b0 ec3c
00000130: 1e21 03be 2394 9dbb 14c5 59be 5e91 27bd
00000140: 98aa c63c 10ad edbb e2c9 3e3d a29c 863d
00000150: 2b21 b6bd 4663 48be 0b72 013c f4bd 493e
00000160: 9582 563e ccec 55be 1212 50bc 5d41 3abd
00000170: 0099 093e 668c c63c dcb2 2c3d 4258 79bd
00000180: d0c7 f4bd cac2 b83d e565 333c 6de9 053e
00000190: a931 843d 7280 11bf 1069 e8be cf0e 9cbe
000001a0: 462f bc3d dc3a 953c 9ce1 e13d 3178 1ebf
000001b0: 47ba 32bf 0020 7dbc 7215 c6ba 571a 95bd
000001c0: 734d 10be 3386 b13d 0486 74bd ae01 d8bd
000001d0: f73e ccbe 7c74 023e 2fca 3abe 9aca 07be
000001e0: e519 973e 9326 ab3c a70f 903d 8b59 183e
000001f0: 1062 b53d 94a1 83bc 3386 53bd 6800 be3c
00000200: e55d 9b3c c416 a23d 6092 a5bc 70da d23d
00000210: 194b 2e3e d6e7 a73d eedd 6b3e 8772 3fbd
00000220: 0e1d 5abd 67cd d5bd 828a 19be 96ce 763e
00000230: 8c66 2abe 8406 ba3c f56a 93bd cabe 11bc
00000240: 129d 1f3e d6a9 28be 9a71 b13d 8cf4 b33d
00000250: 1f25 8dbd 53dc d6bd b738 17bc 0bb7 27bd
00000260: ce6d ea3d 7ddb 19be fde5 b9bd c92c a7bd
00000270: 0ecf 6a3b dd6d f1bc cd5d 323e 437d c73d
00000280: 0663 febd ca9c 153e 7be0 463e 5be4 be3c
00000290: f081 e93c 24f9 4dbf 8ca1 ce3e 30dd 203e
000002a0: 8079 8b3d a0b6 993c f43c 8bbd af83 de3e
000002b0: f634 a73e c505 05be 8460 343c 38d9 cebc
000002c0: 9c4f fc3c 027c 5e3c a4f1 173e be74 343e
000002d0: d126 bf3e 6829 a93d 4170 b2bd 484e 873d
000002e0: e6e7 a63d 2d7d 3c3d 290c 1dbd f162 ff3d
000002f0: 8a56 01bd be7e 683c ea14 5fbd 5c78 9f3d
00000300: beb5 1ebe aede 9d3d 8755 b83d 1bcb 19be
00000310: 641a 543d 9dca 733c 4b63 803c f9fd 7dbd
00000320: 6a7e d03d 69e1 963d 768e 76bd e7f8 6fbd
00000330: 730d fa3d 6fdd 2bbd 1324 a63c 2f79 3ebc
00000340: e3ca a43d 768d cebd baf9 d13d a65c 853d
00000350: 0138 88bd e5e2 4dbd b083 1a3e 3ecf 23be
00000360: d2ea 163e 27db e5bd bf62 803d 9a3c e6bd
00000370: 082a 6a3d df60 143e fcb2 2c3e c999 a03d
00000380: 92de e8bd db14 213d e3d7 403d d56c a23d
00000390: 2cea 4a3d ebfb 4bbf c41c c3be bb3b 41bd
000003a0: 4e1c a8bd 1c04 dbbd 495e b43d 284e f7be
000003b0: 2e49 0fbf 1213 32bd e23a cfbd ad3d 043c
000003c0: a379 85bd f74e 593d d842 d23d 2606 843d
000003d0: 18b7 3cbf a24a b1bd 250b a4bc 2341 62be
000003e0: 0b59 16bf 24d3 4abd eb8a 4f3b d9a5 993d
000003f0: 66f8 293c 10c6 cd3d 13ed c7bd 76fa b73d
-0.033524193 0.12031225 -0.10630112 0.1899894 0.018678473 0.0045248102 -0.06984766 0.001293877
0.05087523 0.10501671 0.051263437 -0.052918892 -0.04928241 -0.13498808 -0.070433535 0.08076871
-0.00918523 -0.014954516 -0.009922848 0.092461824 -0.03745675 0.0035652413 -0.024744408 -0.08931117
-0.037999623 0.13964973 -0.06329487 -0.065685116 -0.03420692 -0.05618879 0.059040137 0.10682798
-0.07635072 -0.24385186 0.046945028 -0.3886275 -0.09833011 -1.1270968 0.37105736 0.24324112
-0.049083166 -0.5165987 -0.037598543 0.32127503 0.48867476 0.103070065 -0.3890157 -0.3061252
0.007949092 -0.34466013 0.008751348 -0.1264779 0.5250461 0.040387645 -0.07669492 0.007099504
-0.43363878 -0.060905345 -0.026319219 -0.20851178 0.09888957 -0.05244048 -0.23141412 0.057144433
0.06637383 -0.20074955 0.08037822 0.023400387 -0.11885018 -0.010774713 0.15106785 -0.034969408
-0.029144382 -0.11355845 0.022830684 0.028892882 -0.12805602 -0.004808919 -0.21266586 -0.040910117
0.024251267 -0.0072532967 0.04657925 0.06572844 -0.08893045 -0.1956912 0.007900725 0.19701368
0.2094825 -0.20891112 -0.012699621 -0.04547249 0.13437271 0.024236869 0.04216276 -0.060875185
-0.11952174 0.09021528 0.0109495865 0.13077326 0.064547844 -0.56836617 -0.45392656 -0.30480048
0.09188704 0.018216543 0.1102936 -0.6190215 -0.69815487 -0.015449524 -0.0015112592 -0.072804146
-0.14092045 0.086681746 -0.05969812 -0.105471954 -0.39891788 0.12739748 -0.1824119 -0.1326088
0.29511943 0.020892417 0.070342354 0.14877908 0.088565946 -0.016068257 -0.051641654 0.023193553
0.01896567 0.079144984 -0.020211399 0.1029557 0.17020835 0.08198516 0.23033878 -0.04674008
-0.053250365 -0.10439568 -0.14994243 0.24102244 -0.16640681 0.022708185 -0.07198135 -0.008895585
0.15587261 -0.16471037 0.08664246 0.08786878 -0.06891846 -0.10491242 -0.0092298305 -0.040946048
0.11446725 -0.15025134 -0.0907707 -0.08162839 0.003582898 -0.029471332 0.17418595 0.09740689
-0.12421231 0.14610592 0.1942157 0.023302248 0.028504342 -0.80458283 0.40357625 0.15709376
0.06810284 0.01876384 -0.06798735 0.43459842 0.32657593 -0.12990482 0.011009339 -0.025250062
0.03079968 0.01357937 0.14838272 0.17622659 0.37334302 0.08259851 -0.08712817 0.06606728
0.081497 0.046017814 -0.038341675 0.124700435 -0.03157667 0.014190374 -0.054463305 0.077866286
-0.15499017 0.077084884 0.09000688 -0.15018885 0.05178298 0.01487985 0.015672347 -0.062009785
0.101803616 0.07367212 -0.060194455 -0.05858698 0.122095965 -0.041959222 0.020280873 -0.011625572
0.0804651 -0.10085575 0.1025271 0.06511812 -0.06651307 -0.05026521 0.15089297 -0.15997025
0.14738014 -0.112234406 0.06268834 -0.112420276 0.05716899 0.14490078 0.16865152 0.07841832
-0.11370577 0.03932653 0.047080886 0.07930914 0.04953973 -0.7968127 -0.38107884 -0.047176104
-0.08208524 -0.10694143 0.08807046 -0.48301816 -0.5597104 -0.043475218 -0.10118653 0.008071345
-0.06517341 0.053053822 0.10266656 0.06446485 -0.7371688 -0.08656813 -0.020024845 -0.2209516
-0.5872962 -0.049517766 0.0031668495 0.07502336 0.010374164 0.10047543 -0.09762015 0.089833185

model.spatialSeq1.0.update_mlp.0.bias f4 [32]
00000000: 0786 a73c f34d 4a3d 79a7 953d 89a1 8b3d
00000010: 380e cabd 8bf3 363d b5e3 c4bd 8891 79bd
00000020: b1d9 933c ac94 0d3d d42a 57be d2d5 87bd
00000030: 299e 243e d24d eabc bb63 d93d 26f9 1fbd
00000040: a378 5abd 8182 413d d178 79be 01ed 9f3c
00000050: fb15 133c 8656 39be 97e3 8d3d 029f 103e
00000060: e876 113e 3f5d 163e 7745 be3d 1bf5 7ebd
00000070: 20a2 fabd 6fd9 70be 3d3f 74be fc68 813e
0.020449651 0.049390744 0.073073335 0.0681792 -0.09865993 0.044665854 -0.09613744 -0.060929805
0.01804814 0.034565613 -0.21012431 -0.0663258 0.16075958 -0.02860156 0.10614725 -0.039055966
-0.053337704 0.0472436 -0.24362494 0.019522192 0.0089774085 -0.18099412 0.06928175 0.14123157
0.14205515 0.14684008 0.09290593 -0.06224547 -0.12237954 -0.23520444 -0.23852248 0.2527541

model.spatialSeq1.0.update_mlp.2.weight f4 [32, 32]
00000000: 452b 04bf 9a97 93bd 272d 79be fc79 873d
00000010: b325 2dbe dd35 c13c ee34 c7bd a69f 93be
00000020: 41e9 3d3e 7a07 0ebf 7214 7cbe 1dd1 91be
00000030: fede 4abe 2b25 2cbd d7f7 503e d2f4 a93e
00000040: 7a23 15be 705a 913c 1a25 123e 5d6c 8b3d
00000050: 5700 8ebe f452 8c3d 0561 1c3c 16b8 f5bc
00000060: 1b24 88be f1d5 173b 06fe 803c e678 6f3e
00000070: 8b0b 10be b425 8b3c fa5a 00be abb5 5f3c
00000080: 6112 a2bc cceb 08be 0648 b13d 0cc2 623d
00000090: 6f7e 6bbe 1435 4d3e 723b 853e 4e84 563d
000000a0: 0884 553e 5c36 903e eafb 45bd 5556 36be
000000b0: 2ed9 cd3d e11a 1dbe 39c1 0cbe 0145 bdbd
000000c0: 2bec 78bd 7055 f2bd 068b c0bd 067d c9bc
000000d0: a59b 5a3e 3844 81bd 8776 773d 97f0 883d
000000e0: 6d96 10be f1d4 b0bd 4b1e cd3d 82dd b03d
000000f0: 35d8 1abd c362 0dbc 8587 1f3d cda3 43bd
00000100: 647a f73c 3bc0 e0bd 554e 54ba 71a4 203e
00000110: 4073 06be 46e0 39be 6ade 443e 21ba c23e
00000120: b0bb c93d 4562 6b3e a66c ba3e 2507 d8be
00000130: 60e1 abbd e06c 953d c1c0 bebe d0e5 fcbd
00000140: 5a3c 0e3e b6af 213c ee77 9ebe 86a1 82bd
00000150: e71e 653e f1ff c63c 31fe 7fbe 626c dfbd
00000160: 1551 85bd 3331 683e d11b 093e 4220 25be
00000170: e0d9 823d 84d5 f23d 9001 853e 859b 753e
00000180: 26c1 5d3d c675 bfbc 2cef bfbd ea55 a93d
00000190: d9ed 843d 327a 783d b49e 3f3c 160a dfbc
000001a0: c011 2f3c bd38 9ebd b46e 6c3d 2e16 8a3d
000001b0: f518 babc c5a7 7bbd 0b39 f53d f65b 343d
000001c0: 4a8c b03d c6b6 1e3d 2fe3 79bd ef00 5d3d
000001d0: ab1d f8bd 6769 e3bc 90d5 56bd 49d4 9ebc
000001e0: 4374 b13d a309 ebbd cc05 563c cb03 943d
000001f0: c5b4 323c 7418 243c f109 02be 30dd 263e
00000200: 1e15 08be 61d8 88be 39c6 503c 8a18 093e
00000210: 9633 83be 9622 63be 940f dabe b5fc fdbd
00000220: 599b 17be 5f94 413f aa7f b43d e4c8 1e3e
00000230: 9a23 5fbe 5590 853e 11cb 14be 958d f03c
00000240: e497 02bf 4401 26be e875 0bbe 1b36 38be
00000250: 145e 543e 1373 6ebe 144d a43e 88af e2bd
00000260: 2f6b 9cbe 7c96 143e 5966 fe3d 8e43 b7bc
00000270: b5c5 c8be 2375 edbe 98c7 45be 91cf 953d
00000280: 85db c8bd 3126 1d3e 1b05 853d 1a24 303e
00000290: 8e2b c43d 7a76 403d 22d2 1cbe d1d6 a73d
000002a0: 67e4 fc3d 5ead 203e 6e08 15be e74d 65be
000002b0: 705b b4bd 4002 55be 85dc edbd 0178 d7bc
000002c0: 4be6 213e 2203 a13c 1db9 99bb 8640 80bd
000002d0: bb0c d8bd b868 78be 0e1b dfbd 09de a6bd
000002e0: df9d febd 3ee4 fbbd 0f12 263e ba5a c4be
000002f0: aa66 86be 430e 56bd 280b fabc f793 0b3d
00000300: 8331 4d3e dc18 9dbd 21a6 c83d b1cd 94bd
00000310: c379 55be ab83 1bbe d143 503d a2e7 8d3d
00000320: 55d3 11be 59aa 193e dc7f bfbd 6649 2cbe
00000330: 34e2 cd3d e06c 57bd fd02 463e 2470 00be
00000340: 05d2 18be 8e27 dd3d fc6f 41bd 40f4 9f3c
00000350: c9b0 283e 5eeb 2ebd f600 743e b30a 893d
00000360: ec01 203e 0459 a23d ef8c 973e 3888 24be
00000370: d60c 19bc b049 34bc 18d0 abbd a222 ad3c
00000380: 2519 0fbe 7164 203c c62b 403e d923 123e
00000390: 3220 553d 24ce bfbd 7e42 59be 862d e53c
000003a0: f636 01bd 32a7 03be 2958 47be 6bf0 c5bd
000003b0: f235 853a d1c7 25be 5780 8abd 3276 343e
000003c0: 62c6 043d 01c0 1abd 4e2f 7ebe 37a3 96bc
000003d0: 3f2b 1bbe 911d d9be 1b95 1fbe 83d9 d2bd
000003e0: bd2f a6bc ea9c 1ebe 5ecf dbbd d927 f53d
000003f0: e9c1 dabe c83a 64be 4e32 8dbe 8cef ce3d
-0.51628524 -0.0720665 -0.2433363 0.066150635 -0.16908912 0.023585254 -0.097268924 -0.2883274
0.1854601 -0.5548016 -0.24617174 -0.28479853 -0.19811627 -0.042027634 0.20407043 0.33194596
-0.14564314 0.01774332 0.14271966 0.06807778 -0.27734634 0.068517596 0.009544616 -0.029995006
-0.26590046 0.002316829 0.015746128 0.23385963 -0.14066903 0.016985752 -0.12534705 0.013654153
-0.019784154 -0.133712 0.086563155 0.05536084 -0.2299745 0.20039779 0.26021916 0.05237227
0.20851147 0.28166473 -0.048335947 -0.1780637 0.10051189 -0.15342285 -0.13745584 -0.09241677
-0.060772102 -0.11832702 -0.094015166 -0.024595749 0.21348436 -0.0631184 0.06041577 0.06686514
-0.14119883 -0.08634365 0.100155436 0.08635999 -0.037803847 -0.008629504 0.0389476 -0.047763634
0.030209728 -0.10974165 -0.00080988306 0.1568773 -0.13129902 -0.1815196 0.19225469 0.3803263
0.09850252 0.22986706 0.36411017 -0.4219295 -0.08392596 0.07296157 -0.37256435 -0.12348521
0.1389021 0.009868553 -0.30950874 -0.063784644 0.2237507 0.024291964 -0.2499931 -0.10909344
-0.06509606 0.22675018 0.13389517 -0.16125587 0.063892126 0.11857131 0.25977755 0.23985107
0.05413928 -0.023371588 -0.0937179 0.0826834 0.06490678 0.06066341 0.011695553 -0.027226489
0.010685384 -0.07725666 0.057722762 0.06742512 -0.022716979 -0.061439294 0.11973771 0.044033013
0.08620508 0.038748525 -0.061007675 0.05395597 -0.12115034 -0.02776022 -0.052449763 -0.019388335
0.08664753 -0.114764474 0.0130629055 0.07227286 0.010907357 0.010015596 -0.12699105 0.16295314
-0.13289306 -0.26727584 0.012742572 0.13388267 -0.25625294 -0.22181162 -0.4259001 -0.12401716
-0.14805354 0.7561702 0.088134125 0.15506321 -0.21790925 0.2608668 -0.14530589 0.029364387
-0.51013017 -0.1621142 -0.13619196 -0.1798939 0.20739013 -0.23286085 0.32090056 -0.11068636
-0.30550525 0.1451053 0.12421865 -0.02237108 -0.39213338 -0.4637843 -0.1931442 0.07314981
-0.09807495 0.153466 0.064951144 0.17201272 0.0957862 0.046987988 -0.15314534 0.0819527
0.12348252 0.15691134 -0.14553997 -0.22392999 -0.08806503 -0.2080164 -0.116143264 -0.02630234
0.15810506 0.019654814 -0.0046912567 -0.06262307 -0.10549303 -0.24258697 -0.10893832 -0.081478186
-0.12432455 -0.12299393 0.16217826 -0.3835047 -0.262502 -0.052259695 -0.030522898 0.034076657
0.20038418 -0.07670757 0.097973116 -0.07265795 -0.2084723 -0.15186946 0.050845925 0.06928946
-0.14240773 0.15006389 -0.09350559 -0.16824874 0.100529104 -0.052594066 0.19337077 -0.12542778
-0.14923866 0.1079856 -0.047225937 0.019525647 0.16473688 -0.042704932 0.23828492 0.06691494
0.15625733 0.07927135 0.2959971 -0.16067588 -0.009341439 -0.011003897 -0.083893 0.021134678
-0.13974436 0.009789572 0.18766698 0.14271487 0.052032657 -0.0936549 -0.21216771 0.027975809
-0.031546555 -0.12856749 -0.19467224 -0.09664997 0.0010163172 -0.16189505 -0.0676276 0.17623213
0.032415755 -0.037780765 -0.24822733 -0.018388374 -0.15153216 -0.4240537 -0.15584223 -0.10295393
-0.020286435 -0.15489545 -0.107329115 0.11970491 -0.42726067 -0.22288048 -0.27577442 0.10104284

model.spatialSeq1.0.update_mlp.2.bias f4 [32]
00000000: 2fd1 4cbe 7fac 0fbd dea7 cc3c 0c8c 8e3c
00000010: 4a87 bbbe 6788 57bd 3ca8 5e3e a906 74bc
00000020: 33a2 52be 9a47 86bd a11f d5bd 14b7 adbd
00000030: 47a4 61bc d376 e73d ffcf 91be 7891 81bd
00000040: 53ca 29bd 3af6 66be f1f7 c63d a978 05be
00000050: 45bb 413e fd3c b2bd 156f 19be 8227 53be
00000060: 7808 29bd 7b6c 38bc eefe 3a3e 0a03 813c
00000070: 6371 a6be 7326 dbbd 17b4 aabd cfe6 0d3e
-0.20001672 -0.035076614 0.024982389 0.017400764 -0.36626655 -0.052620318 0.21743864 -0.014894166
-0.20569687 -0.06556626 -0.10406423 -0.08482185 -0.013772077 0.11301961 -0.28479 -0.06326574
-0.041452717 -0.22554865 0.0971526 -0.1303431 0.18919094 -0.08703039 -0.1498378 -0.2062054
-0.041267842 -0.0112563325 0.1826131 0.01574852 -0.32508382 -0.10700693 -0.08335131 0.13857578

model.temporalSeq.0.attention.in_proj_weight f4 [96, 32]
00000000: 6e13 093e 5b2d 18be 6727 933a ebc7 6b3d
00000010: 2b17 edbd 3e6a 023d f781 3bbd 6a63 823d
00000020: 95e1 153e e3e9 923c ce3c b33d 8f39 233e
00000030: e4d0 2bbe ad26 45be 3656 65be 1042 dd3c
00000040: 8091 a33c 4d76 233e 1469 a6bc 7fbd 5dbe
00000050: b039 c03d 517b e9bd 500e eebd f466 fa3d
00000060: 3eaf 86be a190 073b 6409 63bd d4a2 5b3c
00000070: e280 b73d 47c4 a03d 6c76 f6bd 2335 093e
00000080: 50c3 b6bd fa55 2b3e a0f0 a03e e9e3 91bc
00000090: 773b 25be df46 243e 88f2 4a3b b2c1 b83e
000000a0: 1aee aa3d 23c6 de3d 4237 e9bd fe4d ccbb
000000b0: 392e 15bd 9f28 c0bd 6d42 de3d adee 1b3c
000000c0: d6b4 6fbb d1c7 c6be 417c 6a3d b015 5dbd
000000d0: ccc7 9e3d 16b7 8b3e 6226 bd3e c2d8 ddbd
000000e0: da43 0e3d fe8c 763d a115 ccbd 2f84 723c
000000f0: 2486 42bd 27b8 0b3e e697 8e3d 8aad 953d
00000100: 2436 af3d 7677 8b3d a7b2 55be ec0d 2f3d
00000110: 944b c63e 66c0 2e3e 4cce d43d 0411 93bd
00000120: d310 7a3e 615b c73d 5daa 283d acb9 ad3d
00000130: 552f a0bd e82e 7bbd 4d42 a53d fc4c c03c
00000140: 7789 73be b6c6 f5bc 865f 8fbd 9b42 923b
00000150: 78fc c83e d95d d5bc e728 23be 0303 6d3d
00000160: 5d15 28be 988a 0dbc 3d6e 98be b87e 9fbd
00000170: 2026 8ebd 0053 7f3b 397d 3cbd 02ab 17bd
00000180: 2b03 c13d a89c 0b3d df9c b4be 12a2 b1bd
00000190: 1364 1c3e f864 1bbe 98a2 c23d b56d 32be
000001a0: 8d25 2fbb e0a0 07bd 1df2 9f3d cd4b 123e
000001b0: bd0a 50bd 1226 f53d c6da 103e a45f 69bd
000001c0: f915 c3bb 3981 d8ba 5606 81bd 3c9d fc3d
000001d0: dde5 63bb 93dc 4a3d e83e 953c 2a08 e53d
000001e0: c4e7 563c fae5 dc3d 738a 833e 5342 af3d
000001f0: 6fce 57bd 02e7 16bd 214f df3d 6597 8fbd
00000200: 104a 9cbd 7ff7 8c3d 8dfe c93d 99d8 96bd
00000210: 9289 353e d80b 043b a7f1 15bd bcbb da3d
00000220: bc8b 9bbc 22ee c33d 8ec9 2cbd d4b7 a53d
00000230: d196 c2bd b153 7ebc 9906 1c3e e48b 963d
00000240: 2efb e53d 8a5e 983c f54a 9cbd 2f89 41be
00000250: 48af 303d 8b5a 74bd 5073 583e 1489 32be
00000260: 5519 b33e 31c3 24be ffa0 3e3e 3595 ad3d
00000270: 0db8 d93d 57ae 1e3e 3496 a73d 44ab 3ebd
00000280: 33a7 4d3b ec90 a33d 2ff1 32bc 27d3 6dbc
00000290: 59cc 513e c338 083e b7de f2bd d38f 913d
000002a0: cf71 48be 6a0a cd3c e068 9bbd e488 5d3d
000002b0: 92e0 0bbd 1513 9ebb f42d c9bd a908 f3bd
000002c0: 13f2 50be 95cb 47be a092 3bbd 7b33 a0be
000002d0: a734 76bd 365a 0cbe d66a c33c ccc7 55be
000002e0: d1b3 833d 60d9 90bd 6e3a 2abc 4dc2 cebd
000002f0: cce1 253d 0847 4a3e 33b5 af3d e024 45be
00000300: 715a 42be 587e 6dbe f1f3 37bd 18f6 9a3d
00000310: 0938 243d 8126 773d a4ae d9bc 163d 22be
00000320: f051 873e d711 2cbd e3a3 953d 4066 8a3d
00000330: a70a 32be a90c 553e 7c83 2b3e fa74 9c3d
00000340: 029d 52bd 6880 f5bd 6e8b b13d 97da 9dbe
00000350: ad19 87be 36c5 123e f9e4 be3b 5264 443e
00000360: 7f9a 873e 7f74 153d 22fa 643e 4b16 09be
00000370: ba2b da3c 91b5 98bc 77af 04be 840f f63d
00000380: 278d 913d 9d3b 893e 74c3 b8bd cd8e 31bd
00000390: 5f6c c1bd 0615 e9bd 5d4e 44be ac3c 223e
000003a0: 3bd1 833e b631 c03c 0a45 a5bb 6a86 9d3d
000003b0: 0a0e db3d 7764 e23d 4218 9c3c 1cd0 b9bc
000003c0: ce27 123e 9933 493b c9d3 c7bd e18d 4ebe
000003d0: e8bb 783e e3e7 0e3e 2712 873e f266 8dbc
000003e0: 69bb 15bf 81b8 543c 6a07 90be e9a2 a13d
000003f0: 12df c4be 9119 113e 64f7 973d 8903 91be
0.13386318 -0.14861052 0.0011226953 0.057563704 -0.115766846 0.0318396 -0.04577824 0.06366618
0.14636834 0.017933792 0.08751832 0.15939926 -0.16778904 -0.19253035 -0.22396168 0.02700904
0.01996684 0.15963097 -0.020313777 -0.21654318 0.09386003 -0.11400474 -0.11623824 0.12226668
-0.26305574 0.002068557 -0.055428877 0.0134055205 0.08960129 0.07849937 -0.12034306 0.13399176
-0.08923972 0.16732016 0.31433582 -0.017808871 -0.16135965 0.1604266 0.0030967314 0.36085278
0.083461955 0.10877635 -0.11387493 -0.0062348833 -0.036421034 -0.09382748 0.108525135 0.009517354
-0.0036576292 -0.38824323 0.057247404 -0.05397576 0.07752952 0.2728812 0.36943346 -0.10832359
0.034732677 0.060193054 -0.09965063 0.014802023 -0.047491208 0.13644467 0.06962566 0.073084906
0.085552484 0.06809895 -0.20868932 0.042737886 0.38729537 0.17065582 0.103909105 -0.0718098
0.2442048 0.09734226 0.041178096 0.0848268 -0.07821528 -0.06132403 0.080692865 0.023474209
-0.23782907 -0.03000198 -0.070006415 0.0044635064 0.39255118 -0.026045727 -0.15933572 0.0578642
-0.164144 -0.008639 -0.29771605 -0.077878416 -0.069408655 0.0038959384 -0.04601786 -0.03702832
0.09424432 0.034084946 -0.35275933 -0.086734906 0.1527255 -0.15175235 0.095036685 -0.17424662
-0.0026725263 -0.033112407 0.07809851 0.14286728 -0.05079149 0.11970152 0.14145955 -0.056975976
-0.005953547 -0.0016518004 -0.063000366 0.123346776 -0.003477446 0.049526762 0.018218473 0.11183198
0.013116781 0.10786052 0.25691566 0.08557572 -0.052687105 -0.0368414 0.109037645 -0.07011298
-0.07631314 0.06883144 0.09863005 -0.073655315 0.1772826 0.002014866 -0.03660741 0.10680339
-0.018987529 0.095669046 -0.042184405 0.08091703 -0.09501422 -0.015522883 0.15236892 0.07350901
0.11229549 0.018599767 -0.076314844 -0.18899988 0.04313591 -0.05965666 0.21137738 -0.17435104
0.34980264 -0.16090085 0.18616103 0.084757246 0.10630808 0.15496193 0.08182946 -0.04655005
0.0031380176 0.07986626 -0.01092176 -0.014515675 0.20488109 0.13302903 -0.11858886 0.071075104
-0.19574665 0.02502938 -0.07588363 0.054085627 -0.034149714 -0.004824052 -0.09823218 -0.11866886
-0.20404844 -0.19511254 -0.04579413 -0.31289276 -0.060108807 -0.13706288 0.023854654 -0.20876998
0.06430782 -0.07072711 -0.010389907 -0.10095654 0.04049854 0.19753659 0.08579483 -0.19252348
-0.18979813 -0.23192728 -0.044910375 0.0756647 0.0400925 0.060339455 -0.026572533 -0.15843615
0.264297 -0.0420092 0.073066495 0.06757784 -0.17386876 0.2080561 0.16749376 0.07639499
-0.051419266 -0.11987382 0.08669172 -0.30830833 -0.26386777 0.14333043 0.0058256355 0.19178894
0.2648506 0.036488052 0.22361043 -0.1338741 0.026632179 -0.018641265 -0.1295756 0.12014678
0.07107001 0.26803294 -0.09021655 -0.043349076 -0.09444498 -0.11380963 -0.19170518 0.15843457
0.25745568 0.023461204 -0.0050436305 0.07691653 0.10696037 0.110543184 0.019054536 -0.022682242
0.14272997 0.003070092 -0.09757192 -0.2017131 0.2429043 0.13955645 0.26381037 -0.017261002
-0.5848909 0.012983442 -0.28130656 0.07892401 -0.3845144 0.14169909 0.07420233 -0.2832301

model.temporalSeq.0.attention.in_proj_bias f4 [96]
00000000: eef7 163e 7ae3 86bd eb74 003e 6723 373d
00000010: ea31 72bd 5e3d 503e b093 a5bd ed70 913b
00000020: f6a3 a33c 312b 043e bb60 013e 2ae5 52be
00000030: 5f6c e839 b65c 70bc ebb5 9a3d fc41 523e
00000040: 0a43 1ebd 122e 6ebe d3d4 153b 4286 0dbe
00000050: 920e f0bd 14df 20be efb5 d33d 07af c4bd
00000060: f310 f73d 2d3d 93be fcb6 11be 23cd 90be
00000070: 5f75 f53d 8be6 093d 3b8a 01bd a9d8 a03c
00000080: 48eb 51bc 19bd 3c3b 52ef 28bd e3f2 54bd
00000090: e0ce d73c 601a 03bd fe1b c43b ef6f 34bd
000000a0: 61c9 20be 9093 273e 612c 3f3e d1fd 213e
000000b0: 80d3 eabd 7257 b0bb 216f 873d e5cb d7bd
000000c0: b4f9 01bd fa53 593c d104 3bbb 36e3 babc
000000d0: 5347 d13b ea27 a0bd e1b8 ffbd 7f6f eb3c
000000e0: 2392 c7bd b338 bc3c 3d3f 9f3d ebf0 9bbd
000000f0: d552 03bc 9bec 19bd 1902 6fbc 35a3 e23a
00000100: ed69 1dbd 895c 37bd 7c81 64bd 2d49 40bd
00000110: 0a32 563d 726d 3b3d 3838 1ebd 2dc1 53bd
00000120: b8ff 77bd 052d ac3c 9785 033d acb2 d93c
00000130: 082a 663d 3365 28bd 80d5 a1bc 1592 e83d
00000140: 2e78 fc3c debb 663d e9d3 b83c 820a 70bd
00000150: 676b 583d 8529 323d 59c8 2d3d aab0 1b3d
00000160: e63a de3d 2312 a53c 6455 c7bd f36b 38bd
00000170: 3837 4c3d f5bb 103d 48d3 d03c 99b2 8cbd
0.14743015 -0.065863565 0.125446 0.044711497 -0.059129633 0.2033591 -0.0808481 0.0044385106
0.019975644 0.12907101 0.12634556 -0.20595232 0.0004433123 -0.0146705415 0.07554229 0.20532984
-0.038638152 -0.23259762 0.0022862449 -0.13820747 -0.11721529 -0.15710098 0.103374355 -0.09603696
0.1206378 -0.2875761 -0.14229959 -0.28281507 0.119852774 0.03366713 -0.031625967 0.019634562
-0.012812443 0.0028799234 -0.04124386 -0.051989447 0.026343763 -0.032007575 0.0059847822 -0.04405206
-0.1570182 0.16364884 0.18669273 0.1581948 -0.11466122 -0.005381518 0.06612993 -0.10536937
-0.031732276 0.0132646505 -0.0028536806 -0.02281342 0.0063866763 -0.07820113 -0.12486435 0.028739689
-0.0974467 0.022976255 0.077757336 -0.07614311 -0.008015354 -0.03757916 -0.014587902 0.0017291071
-0.038431097 -0.044765983 -0.05578755 -0.046944786 0.052293815 0.045758672 -0.038627833 -0.0516979
-0.060546607 0.02101756 0.032109823 0.026574455 0.056192428 -0.041112136 -0.019755125 0.11355988
0.030819025 0.056331508 0.022561984 -0.05860377 0.0528368 0.043496627 0.042427395 0.038010277
0.10851078 0.02015025 -0.09733084 -0.045024823 0.04985735 0.0353355 0.025491372 -0.06870002

model.temporalSeq.0.attention.out_proj.weight f4 [32, 32]
00000000: bb77 033c aa12 0fbe b56b babd 92e0 7bbe
00000010: cb06 04be c461 80be 91de 20bc 2ba7 64bd
00000020: 13c9 c53e f6ec 87be 03e7 4b3d 563e 9fbe
00000030: 2ae4 24be a8b2 893d 107b 5a3d 02ca 103e
00000040: c85c e33e 6cb6 d93e f3f4 3e3e 08dd 67be
00000050: 5f1f 98bd 1ac6 56be 326b 723e 7a7b 033e
00000060: 23f1 93be 647f 36be 7af5 133e 2fc7 8abe
00000070: 54b3 e93d 1b37 9abd 71ae 643e d724 14be
00000080: 1271 3fbe b636 4a3e 3091 9cbd 45bb b93c
00000090: 1f52 ab3e 6ece 00be 6f3c f4bd ff63 01be
000000a0: 5d09 793e 7be8 ffbe 1111 b9be 11b8 3d3d
000000b0: 5432 c93e a8c4 6ebe e176 91bd 216f b4bd
000000c0: 7622 a63d 717f 9dbc 0d25 523e b95a edbd
000000d0: 2e2c a5bd f031 59be f006 f8bd 9f08 2dbe
000000e0: 2dff 63bd 56c6 3c3e 1e24 febc be6e 07be
000000f0: 7a74 debd 8fce 0bbd 10a7 36be b02c 8f3d
00000100: e39e bebd 7cbb 07be 9eca 27bc 365a 44bd
00000110: d7f5 7ebe 8080 5e3e 93dc 07be bdf4 b7bc
00000120: ca9a cebd 6bcb 923d 3527 0f3c d810 303e
00000130: 1ac8 6fbe 3264 6cbc c193 183e 7a9b 3bbe
00000140: 297b 293e e422 debd 64be 6fbd 1aba fd3d
00000150: d8f9 8fbe 0ca5 70bc 4206 ab3c 42cd 20bc
00000160: cf54 8c3c 2e08 823e fe45 643e 2909 1fbe
00000170: c80b b9bd 028d a83c 801f 423e 4daa 0d3e
00000180: e3fb 803d 09a2 8f3e 0ecc 053e b8e5 0d3e
00000190: 5b39 fa3c 67eb 143e ddf5 acbd 9e6a ba3d
000001a0: 8ea0 b5bd 2344 be3d cb3a c43d 5061 d7bb
000001b0: 4908 68be d9a1 423c 7e94 213e ca59 543e
000001c0: 2208 123e 795f 9c3e d499 d2bd bf44 323e
000001d0: b4b1 da3c d04f 0a3d f533 453e bfaa 05be
000001e0: 179b ecbd 9b35 0abd 0000 e2bd ea02 3fbe
000001f0: 7c0d 2dbe ad6e 903e 28ee 00be a0e1 0f3e
00000200: 1284 583e 881a 3f3e bc32 b43e 0670 733e
00000210: a3bc 2cbd 8bb4 eebc 69b0 a03e 9d23 483e
00000220: f342 443d dea7 0cbe f382 103e 375b 9bbc
00000230: c8fa 46be 5321 aa3e 1063 123e 666b 09be
00000240: c927 e9bd 74c4 a0bc 0d2e 93be b830 2f3e
00000250: c123 1fbe e75e 82bd d5a3 79bd 3e22 87bd
00000260: cf08 3abc 531b 093e efdb 6a3e b177 6ebe
00000270: 1608 98bd 2f2c 03be 59e3 8fbd f48c 833d
00000280: 693c a83c f03c df3d 1152 01be d914 b73d
00000290: 0395 ce3c 7fe6 463e cd00 0fbe 0be9 d3bc
000002a0: 427d 37be 2c85 b73d b6e7 9ebe 4e36 fcbd
000002b0: 3d88 603e 3684 b4be bd03 123e cb8e 91bc
000002c0: 1c5e 23be bd7b 3abe 4371 283e da1c 7f3e
000002d0: 2a1b d73c fb6f cdbc ec86 553d 5e4d 893d
000002e0: 2ae4 53bd d57a 4e3e 61e5 533e 5ac4 3f3d
000002f0: 19aa f0bc d375 163e 106e 9abd a6ab 3e3e
00000300: 8501 3a3d efff 75bc 5f19 723b 9ca6 353e
00000310: 20c3 6fba 8c68 a7bd 7ed7 ce3d 9233 5c3e
00000320: bb0a b6be 36eb 0d3f 1941 05be ee6c ef3d
00000330: 969f 963e 8ace 14be 59c2 2fbd 3b36 3f3e
00000340: 917c 97be fcca d5bd ca21 15be 06ce 7fba
00000350: da19 87be 6920 89bb 7de8 58be 96ea 113e
00000360: dd7a 883d eb7b d3bc 7198 003e 7699 6c3c
00000370: ea1a ddbd 5174 2cbe 5be6 6cbe a841 d73c
00000380: 0230 94be a87e 69be 8dd1 94be 2875 69be
00000390: 297a e8bd e307 753e 9a63 b9bd 9058 883d
000003a0: 5dde df3c 86d4 8d3c a365 013e 2b08 c9bd
000003b0: e11f acbe b797 463e ccac 45be 4285 0c3e
000003c0: 2d7f 943d 388a 263e 0c15 1abe 88a9 9ebe
000003d0: 27b9 4a3d 872b 0b3e d351 083e 909c 0c3c
000003e0: 9b17 943e 12b9 1ebe 9621 4fbe f227 243e
000003f0: 2bfe ca3d 1c3b 38bd 3af0 74bd 6ecb aebd
0.008024151 -0.13971964 -0.09102575 -0.24597386 -0.12893216 -0.2507459 -0.009818689 -0.055823486
0.3862997 -0.26547974 0.049780857 -0.31102246 -0.16102663 0.06723529 0.053340018 0.1413956
0.44406724 0.4252199 0.18648128 -0.2264291 -0.074278586 -0.20974007 0.23673704 0.12840071
-0.2889491 -0.17822033 0.1444911 -0.2710509 0.11411157 -0.07530042 0.22332169 -0.14467178
-0.18695477 0.19747433 -0.0764488 0.022672305 0.3346109 -0.12578747 -0.11925589 -0.12635802
0.24319978 -0.49982056 -0.36145833 0.046318118 0.3929621 -0.23317206 -0.071027525 -0.08810259
0.08112042 -0.019225808 0.20521946 -0.115895696 -0.08065067 -0.21210456 -0.12110698 -0.1689782
-0.055663276 0.18435034 -0.031023081 -0.13225839 -0.1086206 -0.034132537 -0.17837167 0.06990945
-0.09307649 -0.13255113 -0.010241179 -0.047937594 -0.24898468 0.21728706 -0.13267736 -0.022455567
-0.100881174 0.07167705 0.008737375 0.17193925 -0.23416176 -0.014428185 0.14900114 -0.18321028
0.16550888 -0.108464986 -0.05853118 0.12389012 -0.28120303 -0.014687788 0.020877007 -0.009814562
0.017130284 0.25396866 0.22292325 -0.15530838 -0.0903545 0.02057505 0.18957329 0.13834496
0.062980436 0.2805331 0.13066122 0.13857162 0.030544927 0.14542924 -0.08445332 0.09102367
-0.08868514 0.0929034 0.09581526 -0.00657288 -0.2265941 0.011879408 0.15779302 0.20737377
0.14260915 0.3054159 -0.10283247 0.17409037 0.026696064 0.03376752 0.19258101 -0.13053416
-0.115530185 -0.03374253 -0.11035156 -0.18653455 -0.16899675 0.2820944 -0.1259085 0.14050913
0.21144131 0.18662465 0.35194957 0.23773202 -0.042172085 -0.029138824 0.3138459 0.19544835
0.04791541 -0.13735911 0.14112453 -0.018964393 -0.19431603 0.3322855 0.14295602 -0.13419876
-0.113845415 -0.019624926 -0.2874607 0.17108428 -0.15540983 -0.063657574 -0.060947258 -0.06598328
-0.011354639 0.1338933 0.2293546 -0.23287846 -0.07423417 -0.12809823 -0.07025785 0.06423369
0.020536618 0.10900295 -0.12628962 0.08939523 0.025217539 0.19423865 -0.13965149 -0.02586796
-0.17918876 0.089609474 -0.31036156 -0.12315045 0.21926971 -0.3525712 0.14259239 -0.017768284
-0.15953869 -0.18211265 0.16449456 0.2491335 0.02625807 -0.02507781 0.052130625 0.0670421
-0.051731266 0.20164044 0.2069297 0.046818115 -0.029377984 0.14693384 -0.07540524 0.18620166
0.045411605 -0.015014633 0.0036941392 0.17739338 -0.00091462024 -0.081742376 0.100996956 0.21504048
-0.35555062 0.5543703 -0.13013114 0.116906986 0.2941863 -0.14531913 -0.042909954 0.18673031
-0.29587224 -0.10439107 -0.14563671 -0.0009758178 -0.2638691 -0.004184772 -0.21182437 0.14249644
0.06664059 -0.025815925 0.12558152 0.014440885 -0.10796149 -0.16841246 -0.23134749 0.026276425
-0.28942877 -0.22802222 -0.29066125 -0.22798598 -0.11351425 0.2392879 -0.090522006 0.06657517
0.02732771 0.017313253 0.12636428 -0.09816011 -0.33618072 0.19393812 -0.19304198 0.13722709
0.07250819 0.16263664 -0.15047091 -0.30988717 0.04949298 0.13590823 0.13312463 0.008582249
0.2892426 -0.15500286 -0.20227656 0.16030863 0.0991176 -0.044978246 -0.05979941 -0.08534895

model.temporalSeq.0.attention.out_proj.bias f4 [32]
00000000: 8c2e 29be e865 823d c9c8 c03d 3a59 ecbd
00000010: 52c0 603d 3246 8e3d bbea 533d eba7 0f3d
00000020: db10 f2ba a8c7 1abd aad3 523e 2259 fd3c
00000030: 8a62 463d 5922 6bbd 9b58 fabd 00e9 c63d
00000040: da5e 48bd ecdf 7d3d 9ec0 c3bc ef7e 923c
00000050: ede1 bdbc 1a14 663c 1757 a2bc 3eef 0bbd
00000060: e964 e1bd 2fa0 de3d a446 243e bf7f 8a3d
00000070: f6e5 0fbd 1d21 de3a e881 96bd f9c1 933d
-0.16521662 0.06367093 0.09413297 -0.11540456 0.05487091 0.069469824 0.05173753 0.03507225
-0.0018468158 -0.037788063 0.20588556 0.03092629 0.048433818 -0.057405803 -0.122239314 0.0971241
-0.048918582 0.061981127 -0.023895558 0.017882792 -0.023179019 0.0140428785 -0.019816918 -0.034163706
-0.11005575 0.10870396 0.16042572 0.06762647 -0.035131417 0.0016947124 -0.073489964 0.07214732
