code/logs/epoch=67-step=1632.ckpt (torch, 243588 bytes, 63 tensors)

model.input_encoder.weight f4 [32, 1]
000000 24 bf 27 bf 0b da 59 be 56 a3 fe bd 85 2f 1e be
       -0.6552603 -0.21274583 -0.124334976 -0.15447815
000010 74 24 c9 3e 40 29 00 bf 23 ed 59 bf e7 5a 09 3f
       0.39285624 -0.5006294 -0.85127467 0.5365433
000020 8a da fb bc 73 44 37 3f c5 75 87 3e 00 cb 03 be
       -0.030743856 0.7158882 0.2645704 -0.12870407
000030 54 fe 3b bf 70 d8 04 bf 54 99 a3 3e fe 68 36 bf
       -0.7343495 -0.5189276 0.31952918 -0.71253955
000040 3a 18 61 3f f7 5f 34 3e be b5 e5 3e c1 21 33 bf
       0.8792759 0.17614733 0.4486522 -0.6997338
000050 e7 33 28 3e 12 3c 24 3f 6b 67 92 be 5c 55 46 3e
       0.16426049 0.6415416 -0.28594527 0.193685
000060 21 a9 76 be 6b c7 12 bf 82 0e 5e bf cf 7e 30 3d
       -0.24087955 -0.5733554 -0.8674089 0.043089684
000070 13 4f ad 3a b9 b1 95 3d 76 cc 7c 3f b3 5a 14 bf
       0.0013222418 0.073092885 0.9874948 -0.57950896

model.input_encoder.bias f4 [32]
000000 b3 ad 96 be 8d 0d 7d be f2 9a e5 be 09 9e 0f bf
       -0.29429397 -0.247122 -0.44844776 -0.5610052
000010 4d 8d 58 bf d2 de ee be fc aa c7 be a4 65 f8 be
       -0.8459061 -0.46654373 -0.38997638 -0.48515046
000020 41 0a 3d 3f 36 a6 0e bf bf 12 6c bf a9 2a 20 3f
       0.7384377 -0.5572237 -0.92216104 0.62565094
000030 0c 11 3c bf 16 8a 69 3e fc 51 f2 be f3 58 04 3f
       -0.7346351 0.22806582 -0.47328174 0.51698226
000040 18 41 56 bf 29 3a de 3d a1 56 2d bf c2 f1 49 bf
       -0.83693075 0.10850937 -0.6771031 -0.7888452
000050 15 ab 5d 3f 85 d0 5b bf 52 c9 44 bf 3f dc b6 3d
       0.86589175 -0.8586505 -0.7686969 0.08928727
000060 8d 65 29 3f e3 ea 59 bf 6a db 85 3e c4 9a 7c 3f
       0.6617058 -0.85124034 0.26143962 0.98673654
000070 11 83 22 3f 01 a9 9b 3e 06 e0 7c 3f 1e 68 52 bf
       0.6348124 0.30402377 0.9877933 -0.8219012

model.convs.0.1.convs.0.conv.weight f4 [32, 32, 1, 2]
000000 04 cd 2a bd 9e bf 16 3c 9d ec 9a 3d 0a 90 89 3d
       -0.041699424 0.009200959 0.07564662 0.067169264
000010 34 94 d9 3b fb 65 02 bd 69 f6 be bc d6 6a d5 bd
       0.0066399816 -0.031835537 -0.023310857 -0.10420768
000020 41 ee 2d 3d 72 55 a4 3d 4f ca ef 3d 15 58 8e 3d
       0.042463545 0.0802411 0.11708509 0.06950394
000030 7a 8d e6 3d 73 b9 0b bd 99 c8 f8 bd 97 a4 ee 3c
       0.11257453 -0.034112405 -0.12147636 0.029131217
000040 3d c2 f3 3c 0c 19 8e 3d e2 44 ec 3d 72 6a a3 3c
       0.029755706 0.06938371 0.11536576 0.019948218
000050 7d 6a a2 bd 69 cd d9 bd 12 c1 4b bd 77 2d 88 bd
       -0.07930467 -0.10634882 -0.049744673 -0.06649297
000060 dc 20 8a bd 09 38 db bd 9f b9 e5 bc 27 f9 08 bb
       -0.06744549 -0.10704047 -0.028042613 -0.002090046
000070 a1 98 92 bd a0 65 83 bd 50 44 b9 bc a4 fd ca 3d
       -0.07158018 -0.06415868 -0.022615582 0.09911659
000080 b7 0c b5 bd 14 7b 33 b9 8b 7c 01 3e d3 7d 17 bd
       -0.08840316 -0.0001711662 0.12645166 -0.03698523
000090 55 4e dd 3d 67 a2 93 bd e8 20 ea 3c e9 9e 4f bd
       0.10805956 -0.0720871 0.028580144 -0.050688658
0000a0 08 e2 e2 bd fd f7 3b 3d 8f bd 3c 3b 19 82 d2 3d
       -0.11078268 0.045890797 0.002879951 0.102787204
0000b0 80 44 02 be 8c 6c 86 3d 9f bd 32 3d f7 69 8e 3d
       -0.12721443 0.065636724 0.043637868 0.06953805
0000c0 6f f3 3b bd 50 c7 aa bd 86 54 9b bc 90 a8 a8 bd
       -0.045886453 -0.08338797 -0.018961202 -0.08235276
0000d0 f1 40 4b 3d b8 a3 1a 3d f1 4b cc bd 02 76 a6 3d
       0.04962248 0.03775379 -0.09975422 0.08127977
0000e0 e5 f7 2a 3c c0 8b e5 3b d6 66 c0 3c 95 ad e4 3d
       0.010435079 0.007005185 0.023486536 0.11165921
0000f0 17 51 4a 3d 5b 29 44 bd 4b 39 b6 3d 5e 1b a8 bd
       0.04939374 -0.047891002 0.088976465 -0.08208345
000100 1a 52 dc 3d 73 4d 91 3d d5 f0 ab bd f6 38 33 bb
       0.10757847 0.070948504 -0.083955444 -0.0027347184
000110 55 d2 ad bd e4 a6 37 bd e6 fd b9 3d b2 3e de 3d
       -0.08487383 -0.044836894 0.090816304 0.10851802
000120 f6 df 6b 3c 3e bf cf bd 11 4f 9a bc b5 7f 46 bd
       0.014396658 -0.101438984 -0.01883653 -0.048461635
000130 51 cf 17 bd d4 f7 bb bd 0b f0 cb 3d bd e4 80 bd
       -0.037062947 -0.09178129 0.09957894 -0.06293628
000140 9d f8 87 bd 6a 93 cd 3d a7 ae cc 3d 2f 9d ef bd
       -0.06639216 0.100378826 0.0999425 -0.11699902
000150 f6 47 ba 3d cf 90 03 3e 13 08 38 3d df 35 b1 bd
       0.09095757 0.12848209 0.044929575 -0.08652853
000160 b6 8d 90 3d cc 08 8c bd 27 d6 2d bd 41 5c 8c 3d
       0.07058279 -0.06837615 -0.04244056 0.068535335
000170 35 7d a1 bd 09 3d f6 3d 07 e0 61 3d 6b 60 2a bd
       -0.078852095 0.1202336 0.05514529 -0.041595858
000180 b7 4f ce bc de 2b a1 3d af d7 80 3c 5b aa b9 bd
       -0.025184495 0.07869695 0.015727846 -0.09065696
000190 6f fe 02 3b c9 c5 d4 3d 72 84 f6 bd 4f ff fa 3d
       0.001998808 0.10389287 -0.12036981 0.122557275
0001a0 01 41 cd bd 44 43 fa bd 0d ad 29 bd ad 60 a5 bd
       -0.10022164 -0.12219861 -0.0414248 -0.0807508
0001b0 e4 eb 5f bc 70 62 b6 bd e9 2e bc 3d ed a1 ae bc
       -0.013667081 -0.08905494 0.09188635 -0.021317447
0001c0 d3 ca 36 3d b3 f2 3d 3d 5f f1 96 bd 77 36 b3 3d
       0.044627022 0.046374034 -0.07370257 0.08750623
0001d0 3f af a3 3d b3 d3 c4 bc 98 01 78 3d 4c 66 51 bd
       0.0799241 -0.024026727 0.060548395 -0.05112295
0001e0 e6 5c e2 bd 98 fc c9 bd ea 15 00 be 59 5a a1 bd
       -0.11052875 -0.098626316 -0.1250836 -0.078785606
0001f0 82 d4 6a bd 60 e9 dd bd e2 a2 d0 3d 42 ad 9b bd
       -0.05733157 -0.108355284 0.101873174 -0.07601406
000200 0a 50 c6 3c 48 43 cf 3d 4c 6a 7f bd 31 1a 45 bd
       0.024208087 0.10120255 -0.062357232 -0.04812068
000210 a7 c9 0f bc 67 11 b8 bd 57 45 f5 bd 12 3f 02 3e
       -0.008776105 -0.08987694 -0.11976116 0.12719372
000220 1f 4e f6 bc c7 c9 07 be d7 98 51 bd 10 e3 a5 3a
       -0.030066548 -0.13260566 -0.05117115 0.0012656171
000230 b1 5c f4 3c cb 10 8a 3d 87 79 8f 3d 97 5e bf 3d
       0.029829355 0.06741484 0.070056014 0.093442135
000240 48 34 c0 3d df 28 e2 3c 59 09 a6 bc 9b da aa 3c
       0.09384972 0.02760738 -0.02026813 0.020856192
000250 3d 1a be bd 2c 4a 8d bd 4d f2 8b 3b df 97 d4 3d
       -0.09282348 -0.06898913 0.004270828 0.103805296
000260 0a 73 54 3d e1 4b 01 3d ab d7 8e 3d 2c 1d db 3d
       0.051867522 0.031566504 0.06974729 0.106989235
000270 21 d7 bd 3d e4 2a 75 bc ba 13 d3 3c db ab d5 3d
       0.09269548 -0.014963839 0.025766242 0.104331695
000280 50 d7 dd bd de d8 82 3d 9e 16 65 bd 6d c5 a2 3d
       -0.10832083 0.063890204 -0.055929773 0.07947812
000290 1b f8 13 3d a6 ea cc bd 34 58 2e 3b f9 a1 02 3e
       0.036125284 -0.10005693 0.0026602866 0.127571
0002a0 fb 00 55 3d 75 22 e8 bd 70 c5 42 bd 86 17 97 bc
       0.05200289 -0.11334697 -0.047551572 -0.018443834
0002b0 c2 0e d1 bd d8 ba f4 3b 64 b0 4c 3c f5 f2 89 bd
       -0.10207893 0.0074685626 0.012493227 -0.067357935
0002c0 05 59 d8 3d 11 04 84 3c d6 a6 ab bb 0e d3 ac 3d
       0.10563854 0.01611522 -0.0052383943 0.08438693
0002d0 b2 d5 10 3e 0b 1e d3 3d dc 81 4b 3d 8b 9a d0 3b
       0.14144018 0.103084646 0.04968439 0.006366079
0002e0 9d 5f a4 bd f3 80 ba bd f2 bf bf 3b a0 a2 c1 3c
       -0.08026049 -0.09106626 0.005851739 0.023637116
0002f0 a9 7a 97 3d c0 8e 30 bd d5 8d 2c 3d d4 01 0e bd
       0.073964424 -0.043104887 0.04212745 -0.034669712
000300 74 07 79 bc 22 4a 1d be 09 ba a3 bd 1d 78 bb 3b
       -0.015199531 -0.1536031 -0.07994468 0.0057211057
000310 7f 44 8b bd 80 5e 9f 3d 47 c1 33 bc 6f cc ae bd
       -0.06800174 0.07781696 -0.010971374 -0.08535086
000320 d4 b5 3d 3c 8e 19 eb 3d 80 42 9e 3d a4 46 05 be
       0.011578996 0.114794835 0.077275276 -0.13015229
000330 b8 66 81 3d bc e6 21 bb 70 e4 80 bd 90 57 ae 3d
       0.0631842 -0.0024704179 -0.06293571 0.08512795
000340 10 b8 f3 3d 47 41 d7 3d 05 87 1e 3c f5 fe 83 3d
       0.119003415 0.105104975 0.009675746 0.064451136
000350 c2 1d d0 bd 46 c2 e2 bd 11 1c ff 3d 5d 48 f5 3d
       -0.10161926 -0.11072211 0.12456525 0.11976693
000360 a7 4a cc bd 6b 4f 12 bc b2 02 9f bd d6 f1 0f bd
       -0.09975176 -0.0089300675 -0.07764186 -0.035142742
000370 c6 6c 56 3d e7 cf a0 3d 18 44 c5 3c c7 dd b5 bd
       0.05234983 0.07852154 0.024080321 -0.08880191
000380 59 3d a7 3d 7f 04 07 3e 21 33 d8 bb 42 37 98 3d
       0.08165998 0.13185309 -0.006597892 0.074324146
000390 49 cb eb ba 36 34 b1 3d cd 29 c7 bd 96 af 0f be
       -0.0017989661 0.086525366 -0.0972477 -0.14031824
0003a0 1a e8 64 3d 32 63 b7 bc 08 b6 e3 3d 93 55 08 3e
       0.05588541 -0.022386167 0.11118704 0.13313894
0003b0 84 38 56 bd 2a 97 fd bd 30 2a a4 3c 98 34 81 bd
       -0.05229999 -0.12382348 0.020039648 -0.063088596
0003c0 99 b4 76 3d 1a b2 0c bd 20 3f 20 3d 16 95 ae bb
       0.060230825 -0.03434954 0.0391227 -0.005327831
0003d0 f0 ec d3 3d 18 a6 3f bd 47 88 c1 bc 27 99 a7 3d
       0.103479266 -0.04678926 -0.023624552 0.08183508
0003e0 ea 51 f3 3d ef 84 96 3d 8a 62 13 bc 18 22 ac bd
       0.11880858 0.07349574 -0.0089956615 -0.0840494
0003f0 2c eb 89 3d bb 73 e9 3d 1b e0 66 3d 9c d3 8b bd
       0.067343086 0.11399027 0.056366067 -0.06827471

model.convs.0.1.convs.0.conv.bias f4 [32]
000000 9a 9f 08 3c a2 1b 3c bd e8 1d 41 bd 0a f3 d7 bd
       0.008338833 -0.04592479 -0.04714766 -0.10544403
000010 cb 42 d5 bd 62 15 ee bd a0 a9 72 3c c0 17 bb 3d
       -0.104131304 -0.11625172 0.01481095 0.09135389
000020 eb 08 de 3c 44 6c 9a bd 14 73 19 bd 79 44 b3 3a
       0.027103862 -0.07540181 -0.037463263 0.0013677023
000030 90 38 0d 3d 77 e1 73 bd 13 14 4a 3d 85 e7 99 3d
       0.03447777 -0.059541192 0.04933555 0.07514862
000040 65 76 43 3d 32 b6 bc 3d 87 eb 35 bc 73 f4 e5 3d
       0.04772033 0.092144385 -0.011103517 0.112282656
000050 25 dc ac 3d 42 cc 9f bd 5a 20 18 3d 60 18 c0 3d
       0.08440427 -0.07802631 0.037140228 0.09379649
000060 53 9c d2 3d a4 37 e7 3d 84 b5 2f 3b 9a 1d c0 bd
       0.10283723 0.112899095 0.0026811073 -0.09380646
000070 69 6a a4 3c 92 1b 4c 3d ad 0c 9d 3d 2b d9 c5 3d
       0.020070272 0.04983098 0.07668433 0.09660562

model.convs.0.1.convs.1.conv.weight f4 [32, 32, 1, 2]
000000 93 66 31 bd 2d 40 90 bd 20 8f 39 bd 12 70 b0 bd
       -0.043310713 -0.070434906 -0.04530251 -0.08615126
000010 1c 6e d1 3d c2 ec d4 3d 1c 86 91 3d 7c 1e bf bc
       0.1022608 0.103967205 0.071056575 -0.023329966
000020 e9 16 fb bc 6d b0 d6 3d d9 23 ae 3d 92 d7 e0 bd
       -0.030650573 0.10482869 0.08502931 -0.10978617
000030 92 61 08 3d 95 64 dc 3c 85 e0 44 bd c9 a0 0f 3d
       0.033296175 0.02690343 -0.04806568 0.035065446
000040 c4 55 99 bd 77 4e 26 3e 3c 03 61 bd c0 90 00 3d
       -0.074870616 0.1624087 -0.054934725 0.031388044
000050 c4 8a db bd 80 2e 81 3c 2c 84 6a bd f6 e2 46 3c
       -0.10719827 0.015769243 -0.057254955 0.012139073
000060 64 3f cb 3d da 73 5b bd 84 64 ba 3d 77 95 2a 3d
       0.099242 -0.05357728 0.09101203 0.041646447
000070 8d 6f db bb 2c 05 96 bd 4d 03 ea 39 50 c2 89 3d
       -0.0066966475 -0.07325205 0.00044634417 0.06726515
000080 23 6d b9 bd 9f c1 87 3d 50 1f 08 bd 5b 16 c2 3d
       -0.09054019 0.06628727 -0.033232987 0.0947692
000090 78 55 f5 bd 06 4f 8e 3d 4b e1 86 bc d6 32 b4 3c
       -0.119791925 0.06948666 -0.01646485 0.021996897
0000a0 d0 ae 30 bd 3c 05 0a be e3 9d 02 bd 6a 06 ad 3d
       -0.043135464 -0.1347856 -0.031888854 0.08448489
0000b0 37 b3 e6 bd 82 0d 2c 3c 3c b7 09 be 2e 78 b8 bd
       -0.11264651 0.010501267 -0.13448805 -0.090072975
0000c0 28 12 c8 3c 55 cc 05 be a5 6d a3 bc ad f9 be 3d
       0.02442272 -0.13066228 -0.019949744 0.093249656
0000d0 c5 ae 1d 3e f0 3a ce 3d 0b ab c0 bd 4d 17 30 bc
       0.153987 0.10069835 -0.09407624 -0.010747743
0000e0 fc ee f5 bd dd 2c 53 3c 97 d1 3d 3d 8b 7b 21 3e
       -0.12008473 0.012889114 0.04634246 0.15769784
0000f0 9f be ab bd 2b a3 8a 3d 31 99 dd bd 0f 72 9f 3b
       -0.083859675 0.06769403 -0.108202346 0.0048658918
000100 3f c6 07 bd 74 ab e7 3d 81 d3 f4 bc bc 8c ea bd
       -0.033148047 0.11311999 -0.02988601 -0.11452624
000110 96 e6 c9 3d ad 13 73 bd e7 72 00 be 98 15 d8 bc
       0.09858434 -0.059344936 -0.12543832 -0.026377484
000120 06 73 ae 3d 61 77 8b 3c 63 21 b3 bd 5f 4d f0 bd
       0.08518033 0.017024698 -0.087466024 -0.11733507
000130 ed 14 e6 3d 81 6d e5 3c f4 fa 9e 3d 30 e8 f2 bb
       0.1123446 0.028006317 0.07762709 -0.007412933
000140 39 96 ea 3d 5c db 38 bd 9f f6 b3 bd c4 b6 71 bd
       0.11454434 -0.045131072 -0.087872736 -0.05901219
000150 11 7e 2f bd 01 3e f1 bb 45 3f f3 3c 70 60 fe 3c
       -0.042844836 -0.007362128 0.029693255 0.031051844
000160 f2 e8 f8 3d 7a 82 f6 bd fd d0 16 bd 50 48 6e bb
       0.12153806 -0.12036605 -0.0368204 -0.003635902
000170 6e 34 03 3e 34 f4 d5 3d 29 69 01 ba b0 02 7b 3d
       0.12812969 0.10446969 -0.00049366296 0.06128186
000180 51 6d 05 3c d3 b3 41 3c b1 3c e8 bd 21 af 6f bd
       0.008143739 0.011822659 -0.11339701 -0.058516625
000190 75 25 0f bd d9 f4 30 3d 2b a1 db 3c 88 51 dc 3b
       -0.03494783 0.043202255 0.02681025 0.0067235865
0001a0 3c 80 b1 3d c9 8e 8c 3d 11 85 c6 bd 54 67 dd bd
       0.08667037 0.068631716 -0.09693349 -0.10810724
0001b0 21 a7 94 bd 8f 15 c1 3c 54 19 92 bd 03 31 c8 3d
       -0.0725844 0.02356985 -0.07133737 0.09774973
0001c0 48 af 8b bd 68 3a 71 bd 82 7a cd 3d ed 48 52 3d
       -0.068205416 -0.05889359 0.10033132 0.05133908
0001d0 e5 a1 26 3e fb 5d e6 bc a1 53 c6 bd 82 97 44 bd
       0.16272695 -0.028120985 -0.0968392 -0.04799605
0001e0 03 d9 a0 3b e0 d0 aa bc b3 fc ff 3d 7a 6e 97 3d
       0.0049086823 -0.020851552 0.124993704 0.073941186
0001f0 96 24 3e bd 7a d7 d4 3d 12 6d 68 3d 9f ee f4 bc
       -0.04642161 0.103926614 0.056744643 -0.02989894
000200 32 79 9f b9 19 b7 03 3e 82 57 bf bd fe a2 3c bd
       -0.0003041714 0.12862815 -0.09342863 -0.04605388
000210 b9 c8 01 bc 1a 89 f9 3d c6 4d e8 bd c7 51 a5 bd
       -0.007921391 0.12184353 -0.11342959 -0.080722384
000220 74 ff 06 3e f7 6a e1 bd f2 5e 6d 3d a5 26 5e 3d
       0.13183385 -0.1100673 0.057951875 0.054236073
000230 84 c0 92 bd fc b4 c8 3d e5 9f c3 bb fd 22 8b 3d
       -0.07165626 0.09800145 -0.0059699886 0.06793783
000240 a2 eb 27 3d ac 69 cb be 46 0d 1e 3d f4 d3 55 bd
       0.0409962 -0.3972906 0.038586877 -0.052204087
000250 d2 7d 2b 3d 6c 60 ac 3c db f5 07 bc 4b b3 6a 3d
       0.04186804 0.021042071 -0.008298363 0.057299893
000260 98 51 6e bd 09 ce aa 3c 70 ca f0 ba a8 f3 ed 3c
       -0.058183283 0.020850198 -0.0018370878 0.029046848
000270 2a b5 69 bd 6b 36 74 3d b9 3c b4 3d f3 6c af 3c
       -0.057057537 0.05962221 0.088006444 0.021414256
000280 8b 13 f1 3c bd ab 69 bc 36 3b 31 bd 98 ca d0 3d
       0.029428264 -0.014262137 -0.04326936 0.10194892
000290 f6 25 b3 3c cb 47 16 3c aa 62 a4 3c 6e 25 f3 3d
       0.021868687 0.00917239 0.020066578 0.118723735
0002a0 36 97 96 bd fc b7 a3 3c f1 f2 fa 39 4e 75 b8 3d
       -0.0735306 0.019985192 0.0004786472 0.09006749
0002b0 18 bc 91 bd d5 30 12 bd 1c e7 c1 3c 1f 93 3e 3b
       -0.07115954 -0.0356911 0.023669772 0.002907939
0002c0 69 d6 a9 bd ee d4 9c bd bb a4 5d bc 09 32 76 3a
       -0.082928486 -0.076578006 -0.013528044 0.0009391611
0002d0 5f 43 85 3d e7 a7 52 bd e2 db 4e 3d 4b 37 4a bd
       0.06506991 -0.051429655 0.050502665 -0.049369138
0002e0 72 ae ce bc a4 57 bf 3d 70 26 ff 3d a3 a2 98 3d
       -0.025229666 0.09342888 0.12458503 0.074528955
0002f0 dd 10 38 3d 94 59 b8 3d bb 8c 8b bd 89 c0 d6 3d
       0.044937957 0.09001461 -0.068139516 0.10485942
000300 cb da ff 3c c3 5b 8c bd 07 ee 42 3d b3 f4 04 3c
       0.031232258 -0.0685344 0.04759028 0.008114981
000310 1e 06 6b 3d 13 81 12 3d 44 5e bc bc f7 4c fd bd
       0.05737888 0.035767626 -0.022994168 -0.123681955
000320 fb 86 73 bc 6f bd 5a 3c 4a a1 0a bc cf 01 4c bd
       -0.014863725 0.013350829 -0.008461306 -0.049806412
000330 8b 6f 7e bd cb 37 77 bd 5c 6b 00 bc 0b 9b 5c bd
       -0.062118094 -0.060355943 -0.0078380965 -0.053858798
000340 15 79 6e bc b6 0a a5 bd 59 6e c3 3d 30 24 9e bd
       -0.014555235 -0.080586836 0.095425315 -0.07721746
000350 74 5d e4 bc 23 9e f7 bd d2 11 08 3d 8f 83 a6 3d
       -0.027876593 -0.12090709 0.03322012 0.081305616
000360 95 fa 61 bb dd 18 9d 3d 7e 5c ae bc 96 f6 7f 3d
       -0.0034481634 0.07670758 -0.021284338 0.062491022
000370 79 5c 85 bc ce 59 d8 bd 20 fa b8 3c c9 e3 8a bc
       -0.016279446 -0.10564004 0.022580206 -0.01695432
000380 a2 7a 8f b9 f1 30 e2 bd 8a bc 9e 3d c9 92 eb 3d
       -0.00027366454 -0.11044491 0.07750805 0.115026064
000390 70 48 93 bd bc bf 9a 3c 21 57 4a 3d ac 95 22 3d
       -0.07191551 0.018890254 0.0493995 0.03969352
0003a0 26 29 6d 3d 1d e3 26 bd 66 89 cf 3d 10 03 fa bd
       0.05790057 -0.040743936 0.101336285 -0.122076154
0003b0 aa 03 54 3d 38 71 bc bb af ae 90 bd 58 29 93 bd
       0.051761307 -0.0057508014 -0.07064568 -0.0718562
0003c0 0b 4d 61 3b 9f 38 68 bc e0 dd 2a bc ec 61 81 bd
       0.0034378197 -0.014173656 -0.010428876 -0.06317505
0003d0 d6 99 cc 3b c8 6c b2 3b 68 2e c0 bc 98 1e c3 bd
       0.0062439246 0.0054450966 -0.023459628 -0.0952732
0003e0 ed 0c af bd 9c c2 36 bb b1 95 8f 3d 1c e3 c0 bd
       -0.08547387 -0.0027886992 0.07010973 -0.09418318
0003f0 e2 7a 78 b8 bf b3 69 3d f0 2a e7 bd 33 2b c6 3d
       -5.924225e-05 0.057056185 -0.112874866 0.09676208

model.convs.0.1.convs.1.conv.bias f4 [32]
000000 e5 3f ae bd 8c bb b4 3d cc 0d 51 bc 29 4d ae 3d
       -0.08508281 0.08824834 -0.012759637 0.08510811
000010 d1 a7 c9 bc 2a 4e b9 bc 8a ab e4 3d 0a aa 99 3d
       -0.024616154 -0.02262028 0.11165531 0.075031355
000020 50 69 96 bd 1e 9e f9 bc 81 82 12 bd 3e 0d 43 3c
       -0.073443055 -0.030470904 -0.03576899 0.011905013
000030 8e a2 d8 bd 8f a1 1a be 28 52 91 bd f6 08 87 bc
       -0.1057788 -0.15100692 -0.07095748 -0.016483765
000040 d3 83 e4 3c 18 81 ef bd 12 9a 42 3d 1d aa 80 3d
       0.02789489 -0.116945446 0.047510214 0.062824465
000050 c7 7a 19 3c 72 2b a6 3b a3 a7 e1 3d d3 4b a5 bd
       0.009367651 0.005071097 0.11018302 -0.08071103
000060 7b c4 86 bd 00 a6 7b bd 52 60 57 bd d6 0b da 3d
       -0.065804444 -0.061437607 -0.052582093 0.10646789
000070 7a 9c 8c bd 2d c9 d6 3d f9 05 88 3c bf a9 c7 bd
       -0.06865783 0.1048759 0.01660441 -0.097491734

model.convs.1.1.convs.0.conv.weight f4 [32, 32, 1, 2]
000000 1b a6 67 bd 8d 26 ba 3d b5 e0 a7 3c c9 48 fb bc
       -0.056554895 0.09089384 0.02049289 -0.030674355
000010 19 00 fb bc 7b a4 6e 3d 53 e3 2f 3d fa 2e 5f 3d
       -0.030639695 0.05826233 0.042941403 0.05448816
000020 27 ef ea 3d 53 9e af 3d ff b4 1c 3e 22 d5 fe 3c
       0.11471396 0.0857512 0.1530342 0.031107489
000030 80 0c 16 be a2 48 2f 3d 6b 9e 24 3e 5b 16 3e bd
       -0.14653206 0.042793877 0.16076057 -0.04640804
000040 0a 70 a7 3d 2b 03 31 3d 8a f4 c0 bd 78 cc ec 3d
       0.08175667 0.04321591 -0.09421642 0.11562437
000050 ac ab b7 3d bb 5f e4 bd 61 1f 4a bc 89 26 b4 bd
       0.08968291 -0.11151072 -0.012336583 -0.087964125
000060 6b 41 af 3d 03 e6 d3 bd 18 0e a0 3d 34 cf 42 bd
       0.08557399 -0.10346606 0.07815188 -0.047560886
000070 7d f4 49 3d 67 62 a7 bd 63 1c f5 bd 07 bb ca 3d
       0.049305428 -0.08173066 -0.11968305 0.09898954
000080 7f e7 cf bd 86 e6 2b bd bf 83 dc 3d 7d e2 f3 3d
       -0.10151576 -0.04196789 0.10767316 0.119084336
000090 12 d1 f0 3d 12 c3 e5 3d 0b 2d 03 be 79 bb 7b 3d
       0.11758627 0.11218847 -0.12810151 0.061458085
0000a0 e7 45 bb 3a e4 bd 99 3d f2 3c d3 3d 89 81 40 bc
       0.00142878 0.07506922 0.10314359 -0.011749634
0000b0 8d 03 ee bd b0 8e d0 bd 8a 5e 30 3d ad df 0a bd
       -0.11621771 -0.101834655 0.04305891 -0.03390472
0000c0 f0 96 90 bc 78 98 ca bd df 29 c3 bd 2f 49 c8 bd
       -0.017650098 -0.09892362 -0.09529471 -0.09779584
0000d0 76 c9 3c bc 45 60 d6 3d d7 ba c4 bd a5 c2 0e 3e
       -0.011522641 0.10467581 -0.09605949 0.13941438
0000e0 7b 24 b2 3d d6 46 52 bc 8a 2a e1 3d 39 13 32 3e
       0.08698364 -0.012834271 0.10994442 0.17390145
0000f0 10 af f4 3d dd 3e 3c 3a 11 bb 9a 3d db 75 94 3d
       0.11947453 0.0007180998 0.07555211 0.07249042
000100 66 1c 9a bc 27 3a f0 3d fb d4 a1 3c d2 36 bf 3c
       -0.01881237 0.11729842 0.019754877 0.02334157
000110 7f 03 f7 bd 3b e5 09 be d5 30 c9 bd c5 06 0d bd
       -0.12061214 -0.1346635 -0.09823767 -0.034430284
000120 8a 5e e8 bd 98 51 ea bd 85 57 a8 bd 5c d9 f5 3c
       -0.11346157 -0.11441344 -0.08219818 0.030010872
000130 63 d5 f5 3c 28 70 bc bd 69 49 12 be bd b4 d9 3d
       0.030008977 -0.092010796 -0.14285816 0.10630176
000140 72 4e eb 3c 63 0e db bd f8 48 ef bd ee 83 e4 bd
       0.02872393 -0.106961034 -0.116838396 -0.11157976
000150 fe 43 8c 3d 1d dc ed bd 62 58 8e bd 25 14 b5 3c
       0.06848906 -0.11614249 -0.069504514 0.022104332
000160 22 cf 2a 3d 25 0d a5 3d 5c 2c f5 3d 94 17 e0 3d
       0.041701443 0.08059148 0.119713515 0.10941997
000170 27 ce 04 3e 32 cc 99 bd 52 c9 8c 3d 35 04 20 3d
       0.12969266 -0.0750965 0.06874336 0.039066512
000180 08 18 1d 3c 8d 12 97 3d f4 04 46 bd 49 7f f6 3d
       0.009588249 0.07376585 -0.048344567 0.120359965
000190 4f 5c a0 bd ee 28 2b 3d 39 b0 e6 bd 3c e3 34 3d
       -0.078301065 0.04178708 -0.112640806 0.04416202
0001a0 6e 85 a7 3d 10 6f ef bd 83 ef d4 bd dc c9 be bc
       0.081797466 -0.11691105 -0.10397246 -0.023289613
0001b0 e7 30 d4 bc 94 08 65 3d 44 23 56 3d 26 93 c4 3b
       -0.025902225 0.055916384 0.052279726 0.005998987
0001c0 38 e5 0e bd a7 f0 35 3c 08 11 ff 3c ed 27 ee 3c
       -0.03488657 0.011104739 0.03113605 0.029071772
0001d0 d4 7b 2f bc 41 f5 17 3d e5 bf e3 bd c3 66 fb bc
       -0.010710675 0.037099127 -0.11120585 -0.030688649
0001e0 db f7 e8 3d c0 38 a0 3c 4d df 99 3d 27 cd 90 bc
       0.113754 0.01955831 0.07513294 -0.01767595
0001f0 bc fa 95 bd 2d 57 a2 bd b3 be 46 bd 30 9b 0a 3d
       -0.073232144 -0.07926784 -0.04852171 0.033839405
000200 af d7 80 bd 8a 95 65 3d 1b 8c 18 3d 40 c2 88 3d
       -0.062911384 0.056050815 0.03724299 0.06677675
000210 b9 c9 e1 3d 27 08 31 3d 44 a2 f2 bb 28 77 47 bc
       0.11024804 0.043220665 -0.0074045975 -0.012174405
000220 0e 03 f2 3c 08 4a c5 3d 21 8f 91 bc ab a8 f3 3c
       0.029542472 0.09633261 -0.017768444 0.029743513
000230 f4 49 3f bd 08 bb be 3d e8 a6 93 bb 52 2f 13 bd
       -0.046701387 0.09313017 -0.0045059808 -0.0359338
000240 df 39 b8 3d 13 83 46 3d f2 24 0f 3d 89 2b 08 3e
       0.08995413 0.048464846 0.034947343 0.13297857
000250 7d a8 de 3d 54 14 d1 3d d5 88 15 be 07 ea 02 be
       0.1087198 0.102089554 -0.14602979 -0.12784587
000260 0e 10 d6 3d 00 c4 30 3d 29 f1 f1 bd 5e 72 b9 3c
       0.10452281 0.04315567 -0.11813576 0.022637542
000270 c2 b5 2f 3e 3e 53 0d 3e 80 05 95 3d ae 70 31 bc
       0.17159179 0.13801286 0.0727644 -0.010830088
000280 8e 85 f2 3c b3 c0 87 3c cb 40 b8 3c c8 a8 81 bd
       0.0296047 0.016571378 0.022491833 -0.063310206
000290 fc 68 f1 3c 4b d0 6a 3d 40 c7 78 bd 3a f2 ba bd
       0.029469006 0.05732755 -0.060736895 -0.09128232
0002a0 c1 99 75 3d 0e d4 dc 3d 51 7b a7 3d 1d 06 ec 3d
       0.059961084 0.10782634 0.081778176 0.115246035
0002b0 62 f0 e7 bd 9f 9c 79 3c ae 7d fd 3d 1c be 1f bd
       -0.11325146 0.015235095 0.12377487 -0.03899966
0002c0 8f 54 b2 bd be 6c 9b 3c 23 3a 87 3d fd 78 84 3d
       -0.087075345 0.01897275 0.066028856 0.06468389
0002d0 81 df 6e bd 84 d5 0a be 80 21 02 be 79 64 85 bd
       -0.05831862 -0.13558012 -0.12708092 -0.06513304
0002e0 ff d1 d9 3d 02 fc 0f be b2 1b cc bd f9 81 45 bc
       0.10635757 -0.14060977 -0.0996622 -0.012054914
0002f0 af b5 a4 bc 3c 37 ba 3c 10 9e 5b 3d 37 d8 65 bd
       -0.020106165 0.022731416 0.053617537 -0.0561144
000300 f1 27 5c bc ca d6 45 3e d1 33 e8 bd 40 1d df 3d
       -0.013437257 0.19320217 -0.11338008 0.10894251
000310 a1 d3 31 3d 3f 29 ab 3d 46 53 d9 3d 85 40 67 3d
       0.043414716 0.083574764 0.10611586 0.056458015
000320 47 02 db 3d 24 80 20 bd 0a f4 1f bb 55 4f 18 3e
       0.10693794 -0.039184704 -0.0024406933 0.14874013
000330 40 a6 18 3d 86 2f 20 3d fe 40 c0 3d 61 0c f7 bc
       0.037267923 0.039107822 0.09387396 -0.03015727
000340 13 df 05 bd d3 c2 60 3d dc 50 7b bc f0 33 16 be
       -0.032683443 0.0548733 -0.015339103 -0.1466825
000350 10 ad 17 3e 6f 47 ac bd 96 23 d4 bd a2 db 02 bd
       0.14812112 -0.084120624 -0.1035835 -0.03194774
000360 5a 73 41 3d 37 3a b9 3d 24 83 0b bd 9e 19 1f 3d
       0.04722915 0.09044307 -0.034060612 0.03884279
000370 2a a2 10 bc 0f e4 00 be 21 c0 33 be eb 1b 65 3d
       -0.008827725 -0.12586997 -0.1755376 0.055934828
000380 ff 41 0f 3d d2 8b ce bd 5f 6a 86 3d 90 0a 17 be
       0.03497505 -0.10085262 0.065632574 -0.14750123
000390 8d ef 18 3e 8d b0 3b 3d da 3b 88 bd bf 29 c7 3d
       0.14935131 0.04582267 -0.06652041 0.09724759
0003a0 71 5b 90 3d d0 ec 77 3d ea 96 0e 3e d8 20 ec bd
       0.07048691 0.060528576 0.13924757 -0.11529702
0003b0 e2 5b 2c 3d 58 47 8f bd c0 20 fd 3d d7 bd 37 bc
       0.042079814 -0.069960296 0.12359762 -0.011214695
0003c0 2a 4b 3c be 00 35 ef 3d 20 bc 07 bd b5 2f 37 3d
       -0.18388048 0.11680031 -0.033138394 0.04472323
0003d0 d3 31 b2 bc af 7b 19 bb c1 85 e8 bd c5 e4 91 bc
       -0.021752274 -0.0023419668 -0.113536365 -0.017809281
0003e0 97 c6 27 bd 73 0d b5 3b bc 5a 88 bd 35 24 ee bd
       -0.040960874 0.005525285 -0.06657931 -0.11628
0003f0 07 21 f8 3d 8d 0d 9d 3d 27 94 08 be 16 f2 47 3c
       0.121156745 0.076686 -0.13337766 0.012203714

model.convs.1.1.convs.0.conv.bias f4 [32]
000000 40 0f c6 bd 78 68 d9 3d c6 de 83 3d bb d3 79 3c
       -0.096708775 0.10615629 0.06438975 0.015248234
000010 0a 67 ac 3d 90 95 8a bd 55 a1 3e bb ff d8 d1 3d
       0.08418091 -0.06766808 -0.002908786 0.10246467
000020 2e d7 1c bd b1 d3 fa 3b 87 8d 9d bd 12 6d f1 bd
       -0.03829115 0.00765463 -0.0769301 -0.11788382
000030 48 1c ef bb 11 2e b4 bd 10 10 aa 3d e3 72 95 bc
       -0.0072970726 -0.08797849 0.08303845 -0.018243259
000040 3f 22 1f bd 07 08 38 3d 49 06 a2 be a1 53 08 3c
       -0.03885102 0.04492953 -0.3164542 0.00832072
000050 97 b4 19 3d b0 d7 13 3d 75 20 05 be 48 6e 5c 3d
       0.03752574 0.036094368 -0.13000663 0.05381611
000060 b7 6a 8e bd 8a 90 a5 3d ee d0 32 bd f8 d5 e3 bc
       -0.06953948 0.08084209 -0.043656282 -0.02781199
000070 3e 1b 7e bd 46 a9 de 3d 42 45 07 be 67 e4 38 bc
       -0.0620377 0.1087213 -0.13210014 -0.011284924

model.convs.1.1.convs.1.conv.weight f4 [32, 32, 1, 2]
000000 6d 46 96 3d 09 7b e4 3c 5e e7 99 3b 55 c0 98 bd
       0.073376514 0.027890699 0.0046967706 -0.074585594
000010 f0 fa 63 bd 64 34 39 3b 8e a6 9f bd ef fc 5b 3c
       -0.055659235 0.0028259987 -0.0779544 0.013427003
000020 bf 94 f3 3d c4 8d bc bd 09 4e c2 bd 63 6a 04 bd
       0.118936054 -0.09206727 -0.0948754 -0.03232802
000030 05 5c 08 be 0c b6 3c bd 7f eb eb bc fd b5 df bc
       -0.13316353 -0.04607205 -0.028798817 -0.027308458
000040 b8 94 b8 3d 1c 8b b5 bd aa a1 02 be 34 a8 12 3d
       0.09012741 -0.08864424 -0.12756982 0.035804942
000050 93 c2 85 3d 5d 0e 41 3e 8b 50 bc bd 86 cd ec bc
       0.06531253 0.18853135 -0.0919505 -0.028906595
000060 4e 2f 74 bc 97 ee 6d bd 04 fb 50 bc 7e 2b 24 be
       -0.014903856 -0.058088865 -0.012755159 -0.16032216
000070 35 ea 6a bd b2 df 70 3d 47 00 ad bc 6e 3b 6c 3d
       -0.057352263 0.058807082 -0.021118296 0.057673864
000080 cc 13 79 3b d4 44 46 3e 1c d0 1e bd d4 63 e9 3d
       0.0038006185 0.19362193 -0.038772687 0.11395994
000090 02 43 40 bd a3 b7 fd 3d f8 27 70 3d b4 6f 0c bd
       -0.046938904 0.123885415 0.058631867 -0.034286216
0000a0 7a 6f bf 3c 8f b5 96 3c b8 29 82 bd 95 f9 9a 3d
       0.023368586 0.01839712 -0.063556135 0.07567135
0000b0 9c 80 ea bc ad ca b0 bd 1b 61 f8 3d 60 8a 35 3d
       -0.028625779 -0.08632407 0.121278964 0.044321418
0000c0 95 e6 38 3d 4d 48 8a 3d af 2c b3 bd 0e 77 04 3d
       0.045141775 0.067520715 -0.08748757 0.032340102
0000d0 1a 52 88 3c f8 f1 05 3e 34 e9 1c bd b1 4d a6 3d
       0.016640712 0.13080585 -0.038308337 0.08120287
0000e0 6f a5 65 3c 97 06 2d bd 8a 53 b2 3c c2 ab 13 bc
       0.014016493 -0.042242613 0.02176835 -0.009013118
0000f0 50 d6 3b 3d 14 9b d2 3a 60 ed ac 3d 61 04 b3 3d
       0.04585868 0.0016067945 0.08443713 0.087410696
000100 14 5f 87 3d 37 73 c5 bd 1a b9 96 3d df 33 e9 3d
       0.066099316 -0.09641116 0.07359524 0.11386847
000110 0c b8 1d be b5 c5 f6 bd 12 b8 3c be c0 b7 04 be
       -0.1540224 -0.120494284 -0.18429592 -0.1296072
000120 9c 2f 36 bd f7 95 84 3d d3 75 8b 3d f4 f4 51 3d
       -0.044478998 0.06473916 0.068095826 0.051258996
000130 d7 12 18 be 44 93 a1 bc 29 0d ee bd f4 71 b8 3d
       -0.14850937 -0.019723542 -0.11623604 0.0900611
000140 20 0d 62 bd 68 5f 48 3d 54 46 d9 bd ed e3 da bd
       -0.0551883 0.04891911 -0.10609117 -0.10688005
000150 74 02 60 bc 84 f8 8c bd 0a ac 8b be cb 28 c2 3c
       -0.01367246 -0.06883338 -0.27279693 0.023701092
000160 22 1a 35 3d be da b7 bd 8c 8c 97 3d 2d df 4b 3e
       0.044214375 -0.08977269 0.07399854 0.19909354
000170 35 5c b3 bd f3 3e 36 3d 4d de f6 bd 60 3d b8 3d
       -0.087578215 0.044493627 -0.12054119 0.08996081
000180 32 bd 62 3e d0 68 3f 3e 54 87 59 3d 90 13 66 3d
       0.22142485 0.18692327 0.053107575 0.056171
000190 7e 50 f2 bc 10 07 46 be 2f e6 3b 3d 2c a4 fb 3d
       -0.029579397 -0.19338632 0.045873817 0.12287173
0001a0 bf b8 04 3e ac 4c cd bd 3a 36 f1 3c 24 b8 59 3d
       0.129611 -0.100243896 0.029444803 0.053154126
0001b0 79 24 8d 3d 4f 47 83 3d 9d 21 6e 3d 00 d6 33 3d
       0.06891722 0.064100854 0.058137525 0.04390526
0001c0 94 c0 29 bd 69 a7 33 3d 14 ec 0d 3c 21 98 f0 bc
       -0.041443422 0.043860827 0.008662242 -0.029369416
0001d0 38 9c 90 bd b3 f0 74 3c ac 15 b2 bd 99 65 e3 3d
       -0.07061046 0.014949965 -0.0869554 0.111033626
0001e0 86 cf 21 bd b6 76 f8 bd 31 56 2b bd c3 a9 23 3c
       -0.03950455 -0.12132017 -0.041830245 0.009989205
0001f0 0f b9 82 3d 3d ba c8 3d 92 5c 84 bd d2 3c 8b 3d
       0.063829534 0.09801147 -0.06462969 0.0679871
000200 16 ef 59 bd 3c 36 9c bd bb 2e 22 3e 35 0e f1 bd
       -0.053206526 -0.07627532 0.15838139 -0.11770288
000210 e5 b1 81 be e9 5d a9 be 83 77 0c bf 14 41 a7 bd
       -0.25331035 -0.3307946 -0.5486986 -0.081667095
000220 ea 17 d9 be 21 a3 f8 3c 65 e9 14 bc 49 bd 7f 3d
       -0.42401057 0.030351223 -0.009088849 0.062436376
000230 5b 73 06 3d b8 0c e5 3d 62 27 a1 3d 97 f1 01 bd
       0.032824855 0.111840665 0.0786884 -0.03172454
000240 d5 97 56 bd 3b 07 8b 39 cb b3 e4 bd 79 d7 eb bd
       -0.052390892 0.00026517533 -0.11167105 -0.115157075
000250 41 f1 ba 3c 23 cc 00 be 55 3c 42 bd 2d 2e 36 be
       0.022820117 -0.12577872 -0.04742082 -0.17791052
000260 31 0f 72 bd f3 e8 92 bd 3b b4 52 bf 7c ed bd 3e
       -0.05909652 -0.07173338 -0.8230626 0.3709525
000270 5e 1b 50 be 66 5e 8a bd e5 85 1f be 3f 06 f2 3d
       -0.2032294 -0.06756286 -0.1557842 0.118175976
000280 9a 65 8e 3e c8 bd fe 3c 75 5c 2f be d8 96 81 3e
       0.2781189 0.031096354 -0.17125113 0.25310397
000290 4b 9b b3 3e c5 aa 2f 3e 2a 73 ac 3c 39 e3 18 3d
       0.35079417 0.17154987 0.021051008 0.03732607
0002a0 cb 07 bf 3e 48 22 e1 be ab ae b8 bc 6d 6a 95 3d
       0.37310633 -0.43971467 -0.022544226 0.0729569
0002b0 bf f7 fb bd 7d e9 03 be e1 92 2b be 28 54 10 3e
       -0.12303113 -0.12882037 -0.16755249 0.14094603
0002c0 8f 41 ab 3d 34 02 be bd b3 1a b4 be ae dc 71 3e
       0.08362114 -0.09277764 -0.3517662 0.23619339
0002d0 62 23 c1 bd 79 7d 18 be a9 15 95 3d 26 5a 2a bd
       -0.09430577 -0.14891614 0.07279522 -0.04158988
0002e0 b9 2a dc bd 08 7c e8 3d 23 ce c0 bd 5c b4 11 3e
       -0.10750336 0.11351782 -0.094143175 0.14228958
0002f0 a6 e3 e3 bd e1 f1 37 bd dd f1 3b 3e a7 7d 82 bd
       -0.11127405 -0.044908408 0.18353982 -0.063716225
000300 49 a6 f4 bd 12 f4 c4 3c e0 17 2e bd 75 cc f3 3d
       -0.11945779 0.024042163 -0.042503238 0.119042315
000310 5c d4 83 bd a0 71 e1 bd 4c 8d 04 be 40 04 07 be
       -0.06436989 -0.110080004 -0.12944525 -0.13185215
000320 43 e2 4c 3d 1a b9 f8 3d 60 0e a1 3d 51 fd cd bd
       0.050020467 0.1214468 0.0786407 -0.10058082
000330 45 a4 05 be b7 13 d8 bc c4 5e 06 bd d7 1c 80 3c
       -0.13050945 -0.026376588 -0.03280522 0.015638752
000340 32 c2 f7 3d a5 a4 97 3d 63 9c d1 bc 4f 41 0c 3d
       0.12097587 0.0740445 -0.025587266 0.03424197
000350 b0 1c de bd 63 89 a8 bd bf 6a 1c be f6 2b 73 bd
       -0.108453155 -0.082293294 -0.15275095 -0.059368096
000360 00 2f df 3c 33 94 03 3e 99 f0 82 3d c8 8d a7 3e
       0.027244091 0.12849502 0.063935466 0.32725358
000370 28 b7 95 bc d4 06 20 3e 67 f9 0d 3e 1a f3 22 bc
       -0.018275812 0.15627605 0.1386467 -0.009945655
000380 f4 bd c5 bd 30 0a 18 3e c0 e9 98 bc 38 cf 08 bc
       -0.09655371 0.14847636 -0.018666148 -0.008350186
000390 62 13 a5 3e e6 46 e7 3d fb 5a fa bd d0 fa dc 3d
       0.3224135 0.1129282 -0.122243844 0.10790026
0003a0 15 59 55 3d 15 0b f5 bd 93 10 07 bd 83 30 d6 3c
       0.05208691 -0.11965004 -0.03297479 0.026146179
0003b0 38 f8 c7 bd 68 69 0d 3e 49 3e 35 3c 11 ec 88 3d
       -0.09764141 0.1380974 0.011062213 0.06685651
0003c0 5b c4 52 bd 62 ae f1 bc a6 2f ec 3d 18 57 69 bd
       -0.05145679 -0.029502098 0.11532526 -0.056967825
0003d0 14 d3 92 bd ee 10 d3 3d 60 d2 b2 bd ab 9b 95 3d
       -0.07169166 0.103059635 -0.08731532 0.07305082
0003e0 ad fe 12 3c 24 cd f4 3d 70 7d 0e bd 38 4f b0 bd
       0.008971852 0.1195319 -0.034787595 -0.0860886
0003f0 65 dd 1b be fc 7d 65 3d f1 98 c5 3d 39 98 19 3d
       -0.15221174 0.05602835 0.09648312 0.037498686

model.convs.1.1.convs.1.conv.bias f4 [32]
000000 c0 26 b8 3c 73 7f e0 3d 69 c8 b7 bd 85 47 0b bd
       0.022479415 0.10961809 -0.08973772 -0.034003753
000010 30 a3 44 bc b0 51 b8 bd 75 31 ff bd ce 55 50 3d
       -0.012001798 -0.08999956 -0.12460605 0.05086308
000020 4f 97 03 bd 7e 9f e7 bc 4e cd b8 3d 47 f4 74 bd
       -0.03212672 -0.028274294 0.09023534 -0.059803274
000030 f9 1d 8c 3d 3c 1e ae bd d6 c5 5a 3d 86 1d 84 3c
       0.06841654 -0.085018605 0.053411327 0.01612736
000040 aa 2a eb bc 36 49 92 bb e9 ee 7a bd 61 23 06 be
       -0.028706867 -0.004464294 -0.061263 -0.13099433
000050 52 fa e8 bd 2b d2 90 3d 46 ac 9d 3d b5 b6 10 3d
       -0.1137587 0.07071336 0.07698874 0.035330493
000060 1d fc ac bd 93 98 b8 bd 44 4c 9b bd a2 b3 af 3d
       -0.08446524 -0.09013476 -0.07582906 0.08579184
000070 d0 64 6a bd b4 02 02 be f3 f9 b5 3c 11 6d be 3d
       -0.05722505 -0.12696344 0.022213912 0.092981465

model.convs.2.1.convs.0.conv.weight f4 [32, 32, 1, 2]
000000 fc 28 32 3d 8a 26 2a 3e 29 90 c0 3d 04 69 e7 ba
       0.043496117 0.16616264 0.09402496 -0.0017655198
000010 12 33 9d bd 5f 77 51 3d 9b 39 ae 3d 84 b2 d1 3d
       -0.076757565 0.05113923 0.08507081 0.10239127
000020 91 4c fe 3d a5 13 2d bd 7a 26 a9 3c 58 c3 fe 3d
       0.12416948 -0.042255063 0.02064823 0.124396026
000030 18 a2 b7 bb c9 4d 58 bd 86 04 86 3d 7f d3 33 bd
       -0.00560404 -0.052808557 0.065438315 -0.04390287
000040 3f 89 3d 3d 6f 4f b2 bc eb a5 80 3c 4e c4 35 3d
       0.046273466 -0.021766393 0.015704116 0.044376664
000050 42 29 e7 3d f3 97 41 3d 6a 2a ac bd a4 d0 86 bd
       0.11287166 0.04726405 -0.08406527 -0.06582764
000060 cd ea cf 3b 41 b5 0e 3e b1 be b0 bd dc 5c 97 bd
       0.006345129 0.1393633 -0.086301215 -0.073907584
000070 17 50 83 bd a7 b4 d4 3c 42 a8 ba 3c 11 b0 e6 3c
       -0.0641176 0.025965048 0.02278531 0.028160127
000080 c8 ee ab 3c cf 1d 64 3d 82 d3 52 3d 7b 80 ef 3c
       0.020987883 0.05569249 0.05147124 0.029236069
000090 85 e7 f9 3c 0a 69 05 3e ea e0 07 3d 59 97 60 3b
       0.030505905 0.1302835 0.03317348 0.0034269898
0000a0 f0 88 b7 3d 68 ca 41 3d 13 a1 0a 3e e1 fc 84 bd
       0.08961666 0.04731217 0.13538007 -0.06493545
0000b0 e2 8c a3 bd 49 23 51 bd 98 12 ae bd 07 80 3d bd
       -0.07985856 -0.05105904 -0.0849964 -0.046264675
0000c0 a6 7e be 3c d9 b0 6e bd 75 1d d3 3c af f2 29 3c
       0.02325375 -0.058274124 0.025770882 0.010372802
0000d0 33 17 ad 3c e1 7b 6f bd ce ca 13 bc 65 97 4c bc
       0.021129226 -0.05846775 -0.00902052 -0.012487267
0000e0 8c 1e 13 be ef 95 2d 3d 1c c8 75 bc e3 49 a9 3d
       -0.14367121 0.042379316 -0.015001323 0.08266046
0000f0 ed 82 3f bd d3 b1 f6 bc 7d 29 dc 3d df a2 6c 3b
       -0.04675572 -0.03011409 0.10750101 0.003610782
000100 39 41 c9 bc 8e 9a 22 3d 73 74 2f bd ef 52 1f 3d
       -0.024567233 0.039698176 -0.042835664 0.03889745
000110 93 c8 17 3e 47 53 37 3d c4 77 94 3d 21 1d fa 3d
       0.14822607 0.044757154 0.07249406 0.12212587
000120 cd 84 e2 3c 08 75 e8 bc c2 d4 c7 bd 9f 34 5f 3d
       0.027651215 -0.028376117 -0.09757377 0.054493543
000130 82 38 a5 bd 28 78 83 bd 26 87 97 bd ee 7a c3 3d
       -0.08067419 -0.06419402 -0.073988244 0.09544931
000140 0b 8a 48 3d 8d ce 0a 3a 55 66 b5 bc 62 53 c9 3c
       0.048959773 0.00052950607 -0.022143522 0.024575893
000150 32 8b 36 bd e8 fb 0d 3e a8 1c b5 bd 93 65 8c 3c
       -0.04456634 0.13865626 -0.08843356 0.017138278
000160 23 34 63 bd 50 75 af 3d ca 8b 27 bc dd c9 92 bb
       -0.055469643 0.085672975 -0.010226199 -0.0044796304
000170 ae b5 db 3d f1 4b cd 3c fe 80 88 3d 7c 7e cb bd
       0.10728012 0.025060626 0.06665228 -0.09936234
000180 c5 69 8e 3d 88 12 b3 3d 68 d4 86 3d e6 46 0a bc
       0.06953768 0.08743769 0.06583482 -0.008439755
000190 84 5b 4f bd 55 c6 db 3d d7 a0 84 3d 87 08 db bc
       -0.050624385 0.10731188 0.0647599 -0.026737465
0001a0 ac 01 40 3d de a3 bc 3d 4e e2 01 3e 0d dc b1 bd
       0.046876594 0.09210943 0.12683985 -0.086845495
0001b0 3b 67 ff 3d ef 4f 3e 3d 93 58 8c bd d4 b6 58 bd
       0.124708615 0.04646295 -0.06852832 -0.052908733
0001c0 cc 8f 22 3e a8 b9 56 3c 64 86 b7 bd ab b5 4d bd
       0.15875167 0.013105787 -0.0896118 -0.05022208
0001d0 e1 56 19 3c f2 57 ef 3d 86 ac de 3a 22 a6 b8 bd
       0.009359092 0.11686696 0.0016988672 -0.09016062
0001e0 0e a0 08 3e 3b d3 99 3a 95 9c c8 3d 26 95 b3 bd
       0.13342306 0.0011735925 0.09795491 -0.08768682
0001f0 ce 33 21 3d c4 09 a0 3d 6c 4e da bd ff 8d ea bc
       0.039356045 0.07814363 -0.10659489 -0.028632162
000200 9f 72 c8 bd 63 c7 a8 3d ff a4 f3 3c cb 14 11 3d
       -0.09787487 0.08241155 0.029741762 0.03542022
000210 44 0b 56 3d e0 e2 f2 bd 52 79 3d bd eb 83 34 3c
       0.052256837 -0.11859679 -0.04625828 0.01101778
000220 35 98 2c 3d 4a be 67 3d 31 4e d2 3d 89 76 ea bd
       0.042137343 0.05657796 0.1026882 -0.1144839
000230 43 17 ea bd 7e 40 8d 3c 46 19 3a 3c aa 40 b6 ba
       -0.11430218 0.017242666 0.011358565 -0.001390477
000240 92 a3 bd 3d 7a 18 6a bd 72 29 01 bd 61 96 12 3e
       0.09259714 -0.05715225 -0.031533666 0.14315178
000250 f0 da ac 3d a9 4a a9 bd b7 fe 8d 3c 40 1c 16 bd
       0.084401965 -0.082661934 0.017333372 -0.036648035
000260 81 4d cd bd 63 bf b6 bd b8 0b c8 3d 30 dd f3 bd
       -0.10024548 -0.08923223 0.0976786 -0.119074225
000270 31 11 98 3d f3 75 a3 bd 9c 97 3f 3d 23 b7 8d bd
       0.07425154 -0.079814814 0.046775445 -0.06919696
000280 70 4a a9 bc b3 32 9e bd 60 7d 19 3d c3 cc 5a bd
       -0.020665377 -0.07724514 0.037473083 -0.053417932
000290 e1 4b b0 3c 9e bf 69 3d 0c c8 63 3d 75 4c c3 3c
       0.021520557 0.057067506 0.0556107 0.023840168
0002a0 98 46 8b 3d 88 a9 07 be ac c3 48 3d 94 60 60 3d
       0.06800574 -0.13248265 0.049014732 0.054779604
0002b0 7a 37 ad bd fc 86 ea bc 15 e2 c0 bb 09 47 60 bd
       -0.08457847 -0.028628819 -0.005886326 -0.054755244
0002c0 9a f0 2e bd 25 85 a9 bd de 05 23 bd 23 93 a2 bb
       -0.042709924 -0.082773484 -0.039800517 -0.0049613877
0002d0 4b dc ad bd 71 3a 70 bd c9 a6 06 be 00 bd 59 3d
       -0.08489283 -0.058649484 -0.13149561 0.05315876
0002e0 10 b4 4b bd b2 bb d0 bd 42 83 0b 3d d8 c9 d2 3d
       -0.049732268 -0.1019205 0.034060724 0.10292405
0002f0 f7 62 9c 3d 72 40 23 3d d1 ad b6 3d a5 0b 9b 3d
       0.076360635 0.03985638 0.089198716 0.075705804
000300 30 83 f3 3c ee b5 22 bd 05 7d 05 3e 91 18 48 3d
       0.029725641 -0.039724283 0.13035972 0.048851553
000310 e4 7c 19 be b0 39 54 3e 06 f9 84 bb d0 a2 ea 3d
       -0.14989048 0.20725131 -0.004058006 0.11456835
000320 79 7b 4b 3a dc 94 2f bd 25 ea 15 3e 58 4c 06 be
       0.00077622343 -0.042866573 0.146401 -0.1311506
000330 de 05 32 3d 4a 12 cc bd b8 64 22 be 8f 6a 92 bd
       0.043462627 -0.09964426 -0.15858734 -0.07149231
000340 e3 55 f9 bd e3 80 fb 3d bc 72 73 3c f6 8c 88 bd
       -0.12174585 0.122804426 0.014858898 -0.06667511
000350 5f 31 13 3d bc 80 d7 bd 29 fa 06 be 28 b0 ed 3d
       0.035935756 -0.10522601 -0.13181366 0.11605865
000360 25 62 31 bd f2 54 db 3c c9 da c5 bd bd 43 94 ba
       -0.04330649 0.026773904 -0.096608706 -0.0011311691
000370 70 7b 66 bd 5d 9c cb 3c 73 dd 92 3d 8e f3 52 bd
       -0.056270063 0.024854833 0.07171144 -0.051501803
000380 8e 78 b9 bd 6a 13 c3 3d ae 7a 57 be b6 44 73 3d
       -0.09056197 0.09525187 -0.21042892 0.0593917
000390 55 fd ff bd e1 a1 f2 bd 57 43 03 3e a1 25 f0 3d
       -0.12499491 -0.11847282 0.12818657 0.11725927
0003a0 9f 42 b6 bd f6 b0 d5 bc 96 4f f0 bd 3f 3f cc 3d
       -0.08899426 -0.026085358 -0.1173393 0.09973001
0003b0 ac 22 88 bc c7 08 f4 3c f6 de cf 3d 96 2c 03 3c
       -0.016618095 0.029789342 0.10149948 0.008006236
0003c0 88 0a 19 3c 1a 92 59 bd b3 6e d0 3c 2c fd ff 3d
       0.00934089 -0.05311785 0.02544341 0.124994606
0003d0 96 81 04 3e a6 b5 83 3c f5 cb a0 bc 0b bb 46 bd
       0.12940058 0.016077828 -0.019628504 -0.04851822
0003e0 bb a4 a0 3d bb d8 a8 3d 1d cb 87 bd b3 22 a6 3d
       0.0784392 0.08244463 -0.06630538 0.08112087
0003f0 a0 94 8c 3d 8b 5e 5e bd bf 08 19 3e 30 65 bc bd
       0.068642855 -0.054289382 0.14944743 -0.091989875

model.convs.2.1.convs.0.conv.bias f4 [32]
000000 27 d4 ac 3d bc 33 b9 3d 90 1f d8 3d 0c 68 e7 bd
       0.08438902 0.09043071 0.10552895 -0.11299142
000010 49 3a 15 be 60 de 9a 3d c3 e9 c1 3d 45 5b c9 bd
       -0.14573015 0.07561946 0.09468415 -0.098318614
000020 e8 c9 f7 bd 13 0a b7 bc e0 15 22 bb 05 b7 55 3d
       -0.120990574 -0.022343671 -0.0024732277 0.052176494
000030 25 f4 7d bc f6 dc c6 3d e4 17 c2 bc 41 3f 96 bd
       -0.015500103 0.09710114 -0.023693033 -0.073362835
000040 3e 45 63 3d 9f e8 87 3d 6c c9 5b 3d 2c e1 e8 3d
       0.055485956 0.06636166 0.053658888 0.11371073
000050 4b f6 c6 3d d0 cc 04 be a6 0d e0 bd 43 c5 31 3d
       0.097149454 -0.12968755 -0.10940103 0.043401014
000060 4d bc dd 3a a5 96 91 3d d5 c6 3b 3d 68 97 da bd
       0.001691708 0.07108811 0.045843918 -0.1067341
000070 cb d5 2f bd 13 77 7c bd 27 88 62 3d 47 87 52 ba
       -0.0429285 -0.061636996 0.055305626 -0.0008031022

model.convs.2.1.convs.1.conv.weight f4 [32, 32, 1, 2]
000000 90 71 fd bc f4 b5 e3 bc b4 23 8f bd b0 71 d5 bc
       -0.03093794 -0.027796723 -0.06989232 -0.026055187
000010 ed 81 a0 3d 59 a1 8c bd c2 c5 74 bd 64 7b ec bd
       0.078372814 -0.06866712 -0.05975891 -0.115469724
000020 14 39 98 3d a3 53 14 3e d3 bd 74 bd 8e 14 e4 bd
       0.07432762 0.1448503 -0.059751343 -0.11136733
000030 cc 57 dc bd d1 9d f0 bd b4 7e 56 3d 66 24 8c bd
       -0.107589334 -0.11748851 0.052366927 -0.0684288
000040 0d 72 33 3e 90 c2 d4 3d a6 13 57 be 39 75 16 be
       0.17523976 0.10388672 -0.21003589 -0.14693154
000050 b0 a3 0b be ed 66 c4 3d a4 0d 89 bc 94 9b ab bd
       -0.1363666 0.09589944 -0.016730137 -0.083792835
000060 b2 6e 6d be 98 f3 0a 3e ff ce 4e 3d ab 16 c9 3d
       -0.23186758 0.13569486 0.050490376 0.09818777
000070 cf b3 96 bd f9 e7 bf bd d6 6b a6 3e ee 2b a2 be
       -0.073585145 -0.09370417 0.32504147 -0.3167414
000080 79 31 a6 3d 81 af 99 bd a1 5a d3 3d 8f f6 7d 3d
       0.08114905 -0.07504178 0.103200205 0.062002715
000090 c1 39 62 3c 7d c6 36 bc fd 6a b8 bc af 45 a8 3d
       0.013807715 -0.011155722 -0.022511953 0.08216416
0000a0 b0 4f a6 3d 0d f2 9f be 96 5f 1d bc 98 ec 74 3d
       0.08120668 -0.31239358 -0.009605309 0.059795946
0000b0 ec 3d fa bd fe f1 df 3d cc 9b 95 bc 3a d0 b9 bc
       -0.12218842 0.10934828 -0.018262766 -0.022682298
0000c0 ba 6a 9c 3d 8c f9 e0 3d 70 c6 6b 3d 79 d7 f0 bd
       0.07637544 0.10985097 0.05756229 -0.11759848
0000d0 7f f2 d9 bc d4 76 01 be e0 38 13 bd 69 3e 81 3d
       -0.026604889 -0.12642986 -0.035942912 0.06310732
0000e0 f4 3b 8d bc 47 67 a2 3d 4c f4 22 be 29 a6 3a 3d
       -0.017240502 0.07929855 -0.15913504 0.04556862
0000f0 0d 9c 04 3d 6a f3 26 bd b8 16 b5 3c 23 4e ea 3d
       0.032375384 -0.04075948 0.02210556 0.11440685
000100 44 5d 06 be 16 17 02 bd 02 df a7 3d cb 8c d3 3d
       -0.13121516 -0.031760298 0.08196832 0.103295885
000110 44 6c 14 3d 57 09 5c bd c7 ba b4 3d 87 ac 06 3e
       0.036236063 -0.053719845 0.088246875 0.13151751
000120 4d 0e 44 be fa 02 e6 3d 7e 76 b3 3d b5 7f 0f 3d
       -0.1914608 0.112310365 0.08762835 0.0350339
000130 96 00 11 be fc d1 11 be e5 cb 1e bd 58 8f a9 bd
       -0.1416038 -0.14240259 -0.038768668 -0.08279294
000140 7d 5a 38 3e df 97 fb 3d 0a 47 97 bd 1e 38 0c 3d
       0.18003269 0.122848265 -0.073865965 0.034233205
000150 45 44 ab 3d 7c 5d 1c be 4d 51 a7 bc b1 48 10 be
       0.08362631 -0.15270036 -0.02042451 -0.1409023
000160 e1 27 89 be 1c 84 2c be 12 e4 f4 bc 3e 08 a9 3d
       -0.26788238 -0.1684727 -0.029893909 0.08253525
000170 7c 92 85 3d 7c dc 4a bd f4 da b8 bc d0 dd d6 be
       0.0652208 -0.049526677 -0.022565342 -0.41966105
000180 c2 13 e0 3d 19 06 d7 3c f6 00 be 3d 41 1c 0a bc
       0.109412685 0.026248025 0.09277527 -0.008429588
000190 55 7e 25 bc 4a 7c 18 be 7e 49 ee bd 00 b4 b7 3c
       -0.010100921 -0.14891163 -0.11635111 0.022424698
0001a0 a7 db a9 3e 17 01 97 be 49 80 fe 3c 11 0b 12 be
       0.33175394 -0.2949302 0.03106703 -0.14262034
0001b0 47 c0 e1 bd f5 fa e0 bd ec 92 07 be b5 36 ac bd
       -0.11023002 -0.10985366 -0.1323964 -0.08408872
0001c0 3a 14 6d 3c 1d 11 5f 3d 14 cf 82 bc 25 12 71 3c
       0.014470154 0.05445968 -0.015967883 0.014713799
0001d0 12 cb a6 3d 37 79 01 be d9 21 bc bd e0 f5 91 bd
       0.08144201 -0.12643896 -0.091861434 -0.07126975
0001e0 f1 f7 c7 bd 9e e9 79 bd 6d 9f bc bd 7b 9d 99 3d
       -0.09764088 -0.06101381 -0.092100956 0.0750074
0001f0 84 bd 53 3d 72 dd 71 bd ec 91 b7 bd 47 52 ae 3c
       0.051694408 -0.059049077 -0.08963379 0.021279467
000200 69 2c 95 bd 2c 21 9c 3d af 05 b5 3d 77 14 90 3d
       -0.07283861 0.076235145 0.08838975 0.07035153
000210 5b 8d d0 bd c2 2e c9 3c 43 38 e9 3c d9 08 13 bc
       -0.101832114 0.024558429 0.02846921 -0.008974277
000220 f9 b7 9d 3d 44 cd ae bd 6b 6a 02 be 1b 37 b2 3d
       0.077011056 -0.08535245 -0.12735908 0.08701917
000230 03 a9 83 bd d3 b3 e2 3d de 97 86 3d 25 4a db 3d
       -0.06428721 0.11069455 0.06571935 0.10707501
000240 ff 63 d5 bd 3e f2 ae bd bf 02 19 3c d1 c9 32 3d
       -0.10419463 -0.08542298 0.009339034 0.0436495
000250 d9 0f cd bd ba b3 de 3d cc 09 ba 3d 61 ce db bd
       -0.10012788 0.10874124 0.090839 -0.10732723
000260 58 7c 82 bd f7 83 86 3e 97 43 ad bd 7f 22 3c 3d
       -0.06371373 0.26272556 -0.08460157 0.045931336
000270 10 ef 0b 3d 3b 3e b3 3c f6 3d c3 bc ca 64 5f 3b
       0.034163535 0.02188026 -0.023833256 0.0034087175
000280 ee 50 8d 3d f4 2f 33 ba 53 bf 87 3d af d3 83 bd
       0.06900202 -0.00068354537 0.06628289 -0.0643686
000290 e4 5f 98 3d 3e 4c aa bd 95 cc 56 bb f5 6c 64 3d
       0.07440165 -0.08315323 -0.003277575 0.055767972
0002a0 05 f6 e1 bd 69 d3 b1 3d 8e 40 ef 3c c9 76 ca bc
       -0.110332526 0.086829014 0.029205587 -0.024714844
0002b0 d5 30 31 3d c0 20 ff 3d b5 45 a9 bd 06 66 85 be
       0.04325946 0.124574184 -0.08265249 -0.260544
0002c0 96 81 d6 bd c1 74 59 3d 97 b3 03 be 23 b1 04 3e
       -0.10473935 0.05308986 -0.12861477 0.12958197
0002d0 41 4d ae bd 52 51 c3 3d 2e 81 f2 3b de b7 c4 3c
       -0.08510829 0.09536995 0.0074006533 0.024013456
0002e0 a1 f9 96 3d 26 2a 89 3c a4 d8 eb 3c 54 ad a1 3d
       0.07371832 0.01674373 0.028789826 0.07894388
0002f0 17 f8 03 3e 92 db ec 3d 74 89 56 bc 62 e8 c3 3d
       0.12887608 0.11565317 -0.013094295 0.09565808
000300 9a d8 41 3d a6 9a ac 3b d1 0f f7 3b dd e2 7e 3b
       0.047325708 0.005267459 0.0075397273 0.0038892545
000310 8a 6a 81 bd c1 0e a1 bc 7f a7 ea bd 13 1c dc 3d
       -0.06319149 -0.019660356 -0.114577286 0.10747542
000320 09 31 63 3d db 5d a8 3b 40 d1 50 bd 75 1b 9f 3d
       0.055466685 0.0051381416 -0.050980806 0.07768909
000330 ac 55 9e 3b 98 4c 8f 3d d8 81 d3 bd dc a7 f8 3d
       0.00483199 0.06997031 -0.103275 0.12141392
000340 d3 9e 53 3e 69 b4 1f be a8 5d 27 bd bf 4b f0 3d
       0.20666055 -0.15596165 -0.040860802 0.117331974
000350 f2 5f 5a bd 55 99 28 ba 37 01 c1 3d 91 80 d5 bd
       -0.053314157 -0.00064315397 0.0942406 -0.10424913
000360 bf f8 1d 3e d4 06 2b bd a2 c2 80 bd 47 09 1b bc
       0.1542692 -0.04175456 -0.06287123 -0.009462661
000370 34 c8 93 bd b2 f8 8c bc 18 68 ca 3d 6f eb b3 3c
       -0.0721592 -0.01720843 0.098831356 0.02196285
000380 8a c0 94 3d 34 2c 2c 3c 70 83 6c 3d 42 f3 b9 3d
       0.072632864 0.010508586 0.057742536 0.09079601
000390 bd 10 91 bd 9a 29 ff 3d bf d9 bc 3d 69 1f b3 bc
       -0.07083271 0.12459107 0.09221219 -0.021865563
0003a0 9e 39 d8 bd 7f 6f dc 3d 35 a2 db bd 6e ff ba bc
       -0.105578646 0.10763454 -0.10724298 -0.022826876
0003b0 35 fb af 3d 12 e5 f5 bc 31 66 b2 bd 55 34 e1 bd
       0.08592836 -0.030016456 -0.08710898 -0.1099631
0003c0 63 2a 7f 3c 9c 6e d8 3c ad a6 4a bd 89 66 f8 3d
       0.015574071 0.02641993 -0.04947536 0.12128932
0003d0 09 f3 5d bd 60 cb 7b 3d 53 30 96 bd 63 64 b8 3d
       -0.054186855 0.06147325 -0.07333436 0.09003522
0003e0 23 4f b1 bd 24 34 76 bd 6b b3 a0 bd 80 fb d8 bd
       -0.08657672 -0.06010832 -0.07846721 -0.10594845
0003f0 1f 88 c8 bd 1b f5 d7 3d 51 e6 ee bd 7a 4a f6 3d
       -0.09791588 0.10544797 -0.11665023 0.12025924

model.convs.2.1.convs.1.conv.bias f4 [32]
000000 49 85 b1 bd db d3 14 3d 5a 3a ca 3c 7d 9d 91 b9
       -0.08668 0.036334854 0.024686027 -0.00027773893
000010 71 e1 68 3d 8e 82 b5 3d 46 44 8c bd b4 c4 0f bd
       0.056855623 0.08862792 -0.068489596 -0.0350997
000020 9b 29 04 be 80 4a 28 3d ec 16 bb 3d 5b ef ac bd
       -0.12906496 0.041086674 0.091352314 -0.08444091
000030 9b d3 4b 3d bd da 9e 3d 46 0a ad 3d 90 82 e5 bd
       0.04976235 0.07756565 0.08449225 -0.112065434
000040 37 bb b5 3c 00 af 98 bd e9 c1 ef bd a6 60 95 bd
       0.022183998 -0.074552536 -0.11706907 -0.07293825
000050 ff ce fb 3b b3 68 a0 bc b8 1c 40 3d f7 f5 dc 3d
       0.007684588 -0.019581174 0.04690239 0.107891016
000060 f2 28 1e bc 1c 76 1c 3d 14 29 93 bd a4 92 56 3d
       -0.009653317 0.038198575 -0.071855694 0.05238594
000070 5d b9 84 3d ed d1 a0 bd d2 73 10 bd 83 e9 a6 bc
       0.06480668 -0.0785254 -0.035266705 -0.020375019
