code/logs/epoch=87-step=17424.ckpt (torch, 67921 bytes, 15 tensors)

model.encoder.rnn.weight_ih_l0 f4 [128, 1]
0	0x3ee6f68d	0.45109978
1	0x3da421c6	0.08014254
2	0x3e6429b4	0.22281533
3	0x3fc9e191	1.5771962
4	0x3db00cc7	0.08596187
5	0x3e7b8d8b	0.24565713
6	0xbe0f47df	-0.1399226
7	0x3d488fb9	0.04896519
8	0x3e3b1f5a	0.18273678
9	0x3d094bab	0.03351943
10	0x3c309657	0.010778031
11	0xbc94efe8	-0.018180802
12	0x3d9640c6	0.07336573
13	0xbe11205f	-0.14172505
14	0x3dae14d5	0.08500067
15	0x3ed9821e	0.42482084
16	0x3e3cea2b	0.18448703
17	0x3dc06ec7	0.09396129
18	0x3de098ae	0.10966621
19	0x3ca64c70	0.02030012
20	0x3f08c751	0.5342913
21	0x3dc2a82a	0.09504731
22	0x3da0e076	0.078553125
23	0xbfce245e	-1.6104848
24	0xbda7099c	-0.0815613
25	0x3e64a66e	0.22329113
26	0xbe5ff075	-0.21869071
27	0x3eb966ac	0.36211145
28	0xbc976f64	-0.018485732
29	0x3d4bd428	0.049762875
30	0x3cc440d1	0.023956688
31	0x3d759977	0.05996081
32	0x3ed3ada7	0.41343424
33	0x3da9fcaa	0.08300145
34	0x3e3bd156	0.18341574
35	0x3e6e010b	0.23242585
36	0x3dcbfd48	0.09960419
37	0x3e6aa49e	0.22914359
38	0x3eac7272	0.33681065
39	0x3e518f69	0.20464863
40	0x3e8b9067	0.27258608
41	0x3da389df	0.07985281
42	0x3e90729b	0.28212437
43	0x3e39dc42	0.18150428
44	0x3dbfb055	0.093598045
45	0xbf0eba61	-0.5575314
46	0x3dbc1795	0.091841854
47	0x3ed90551	0.4238687
48	0x3e2dedab	0.16985194
49	0x3e56d2d8	0.20978868
50	0x3d8e3708	0.0694409
51	0x3e8f58b1	0.27997354
52	0x3ed0647e	0.4070167
53	0x3e28abf5	0.16471846
54	0x3eff4d7d	0.49863806
55	0xbf8042d4	-1.0020394
56	0x3d324648	0.043524057
57	0x3ecc9ef7	0.3996503
58	0x3e9a8199	0.30177
59	0x3d8cb790	0.06870949
60	0x3e085efa	0.1331748
61	0x3f274004	0.65332055
62	0x3e014075	0.12622245
63	0x3e823dac	0.25437677
64	0xbcb65cf0	-0.022261113
65	0xbef382f8	-0.4756086
66	0xbd24189a	-0.040062524
67	0x3eb091ef	0.34486338
68	0x3d316047	0.043304708
69	0xbc8315c7	-0.016001595
70	0xbf188197	-0.5957274
71	0x3f3a08db	0.7266976
72	0x3dff3113	0.12460532
73	0xbda3b103	-0.07992747
74	0xbcde6a36	-0.027150255
75	0xbe52587b	-0.20541565
76	0x3e2bfab6	0.16794857
77	0x3ec9a612	0.39384514
78	0xbc9a41b4	-0.018830158
79	0x3b3cf282	0.002883107
80	0x3d7ff968	0.06249371
81	0xbd922e4a	-0.07137735
82	0x3cc797f2	0.024364445
83	0x3e345516	0.17610583
84	0x3cc44a59	0.023961233
85	0x3d361f55	0.044463474
86	0x3cb03424	0.021509238
87	0xbffb907b	-1.9653467
88	0x3ec1d5b1	0.37858346
89	0xbf2fd50f	-0.68684477
90	0x3f03ea61	0.5152951
91	0xbe047cb2	-0.12938192
92	0xbe895ef9	-0.2683027
93	0x3d1bcaf4	0.038035348
94	0xbe280a91	-0.16410281
95	0xbdb947a8	-0.090468705
96	0x3f4aa0b3	0.7915146
97	0xbc7caac1	-0.01542157
98	0x3e1d6059	0.15368785
99	0x3ede3d88	0.4340632
100	0x3e475fea	0.19470182
101	0x3f991a91	1.1961232
102	0x3dcf3a6c	0.10118565
103	0x3e495f73	0.19665317
104	0x3edd480a	0.43219024
105	0x3e310af5	0.17289336
106	0x3e5e07cc	0.21682662
107	0x3d724028	0.059143215
108	0x3df8e798	0.12153548
109	0xbf16c47b	-0.58893555
110	0x3e299015	0.16558869
111	0x3face44e	1.3507173
112	0x3ee04936	0.43805856
113	0x3e3d0c66	0.18461761
114	0x3e2ed77d	0.1707439
115	0x3e2be920	0.16788149
116	0x3f11573c	0.56773734
117	0x3e516fd3	0.20452814
118	0x3f23636e	0.6382359
119	0xc03d7b30	-2.9606438
120	0x3be82366	0.007084298
121	0x3e11ccb0	0.14238238
122	0x3c81fa13	0.015866315
123	0x3f07a4a3	0.5298559
124	0x3dd5ff28	0.10449058
125	0x3f5dfae5	0.8671096
126	0x3e15f6d7	0.14644943
127	0x3e425f64	0.18981701

model.encoder.rnn.weight_hh_l0 f4 [128, 32]
0	0xbef02848	-0.46905732
1	0xbf81b5f3	-1.0133651
2	0xbf24c5ff	-0.6436462
3	0xbe33765a	-0.17525616
4	0x3e344955	0.17606099
5	0x3e48a583	0.19594388
6	0xbf3ce591	-0.7378779
7	0x3fa8770f	1.3161334
8	0x3f19adf3	0.6003105
9	0xbf45f614	-0.7732861
10	0x3f21d599	0.6321655
11	0xbe57608e	-0.21032926
12	0x3e889f7d	0.2668418
13	0xbeba94d1	-0.36441663
14	0x3f0a321f	0.5398273
15	0x3ebd8e93	0.37022838
16	0x3db54e85	0.08852867
17	0xbeea7d3f	-0.4579868
18	0x3eb3b85d	0.35101596
19	0xbde49656	-0.11161487
20	0xbec9f738	-0.39446425
21	0x3f16ab91	0.5885554
22	0xbe69b98f	-0.22824691
23	0x3d150d08	0.03638938
24	0x3f357c11	0.70892435
25	0xbf2a8f5f	-0.66625017
26	0x3f1736e9	0.5906816
27	0x3cc16bde	0.023611005
28	0x3efab0a8	0.48962903
29	0xbe818f8c	-0.2530483
30	0xbf9e8cb6	-1.2386692
31	0xbe015ee9	-0.12633862
32	0x3ec2b42c	0.38028085
33	0x3eb14f49	0.34630802
34	0x3ef74d62	0.48301226
35	0xbe998ebf	-0.2999172
36	0x3db5303d	0.08847091
37	0xbea64a9e	-0.32478803
38	0x3f0f7e84	0.5605242
39	0xbdf671f1	-0.12033451
40	0xbebb7447	-0.3661215
41	0xbede1928	-0.43378568
42	0xbe6b5aee	-0.22983906
43	0x3cf9b116	0.030479949
44	0xbf624a5a	-0.883947
45	0x3da4fd2e	0.08056103
46	0x3ec0ffb3	0.37695083
47	0x3f41cd6b	0.7570407
48	0xbe7594a5	-0.23982485
49	0xbecf26ac	-0.40459192
50	0x3ec986d1	0.3936067
51	0xbe937889	-0.288029
52	0xbc61603b	-0.013755853
53	0x3da0c99e	0.078509554
54	0x3930f362	0.00016875335
55	0x3ecf77d1	0.405211
56	0x3efe6be4	0.4969169
57	0x3e6af095	0.22943337
58	0xbf478c8d	-0.7794884
59	0x3e733587	0.23750888
60	0x3eecbf2a	0.46239597
61	0x3df43436	0.11924021
62	0x3ed6a588	0.41923165
63	0xbbfc4eaa	-0.007699807
64	0x3ebd2df4	0.36949122
65	0x3eb9b818	0.36273265
66	0xbccc3111	-0.02492574
67	0xbe176fff	-0.14788817
68	0xbe56e9f7	-0.20987688
69	0xbea54789	-0.3228114
70	0xbcd4ab88	-0.025960699
71	0xbe078217	-0.13233219
72	0x3bc8bf24	0.0061263014
73	0x3b1ff8bf	0.0024409739
74	0x3dbbe9ac	0.09175429
75	0xbee1f4a4	-0.44131958
76	0x3e76611f	0.24060486
77	0x3ebe1fe5	0.3713371
78	0xbd907ad0	-0.070546746
79	0x3f0de8d6	0.55433404
80	0x3e4ffb4f	0.2031071
81	0xbdf67635	-0.12034265
82	0xbe2e8f38	-0.17046821
83	0xbda3ab6e	-0.07991682
84	0xbec59ff0	-0.38598585
85	0xbca8603c	-0.0205537
86	0x3e11adba	0.14226428
87	0xbe36d958	-0.17856348
88	0xbdf69d07	-0.12041669
89	0x3e9d4308	0.30715203
90	0xbde3dd1b	-0.11126157
91	0xbc26d06f	-0.01018153
92	0xbd4e4b76	-0.050364934
93	0x3ed1cd16	0.4097678
94	0xbe6b7bce	-0.22996446
95	0xbe01ac41	-0.12663366
96	0x3e7fd834	0.24984819
97	0x3cafadec	0.021445237
98	0xbdb85f23	-0.09002521
99	0x3cff9473	0.031198716
100	0xbe95c730	-0.2925353
101	0xbe3830e1	-0.17987396
102	0xbf00e870	-0.5035467
103	0x3d9a48d3	0.07533421
104	0x3e479191	0.19489123
105	0x3e8b417a	0.27198392
106	0xbcf5f151	-0.030022295
107	0xbf13ed4d	-0.5778397
108	0xbc9ade6a	-0.018904883
109	0xbe6087e3	-0.21926837
110	0xbda5b1bf	-0.08090543
111	0x3f1091c0	0.56472397
112	0x3e32343c	0.17402738
113	0xbea0cfb8	-0.31408477
114	0xbd9b0374	-0.07569018
115	0x3e0eea8c	0.1395666
116	0xbda77312	-0.08176245
117	0xbd837f70	-0.06420791
118	0x3e0b370f	0.13595222
119	0x3c547845	0.012968128
120	0xbda4ddbd	-0.08050106
121	0x3e7567da	0.23965397
122	0x3d21b443	0.03947855
123	0xbe1024ac	-0.14076489
124	0xbe763ac5	-0.24045856
125	0x3f021251	0.508092
126	0xbeafab91	-0.34310582
127	0xbdedd277	-0.116124086
128	0x3dc10bfe	0.094261155
129	0xbcb6cf64	-0.022315688
130	0x3ed6d36e	0.41958183
131	0xbe3fade1	-0.18718673
132	0xbe1c176b	-0.15243308
133	0xbe04faac	-0.12986249
134	0xbe752420	-0.23939562
135	0xbdcba9a1	-0.099444635
136	0x3c432a94	0.011912007
137	0x3e0d4245	0.13794811
138	0xbe49f674	-0.1972292
139	0xbe0fff8a	-0.14062324
140	0xbd943951	-0.07237495
141	0x3d426367	0.04745808
142	0xbd3f1a5c	-0.046655998
143	0xbd1d3778	-0.038382977
144	0xbdb16ed6	-0.086637184
145	0xbd970e98	-0.073758304
146	0xbe3331a7	-0.1749941
147	0x3e2d7fcc	0.16943282
148	0xbde4524e	-0.11148511
149	0x3d506d0d	0.05088525
150	0xbd83bc10	-0.064323545
151	0xbde8f634	-0.113750845
152	0xbe2eb934	-0.17062837
153	0xbdc78cb3	-0.09743633
154	0x3ea254b0	0.31705236
155	0xbdeacbf6	-0.11464684
156	0xbe22afaf	-0.1588733
157	0xbceb44fc	-0.028719418
158	0xbba5efed	-0.005064002
159	0xbe2433fc	-0.16035455
160	0xbe17a8ed	-0.14810534
161	0x394a114a	0.00019270662
162	0x3ef06f75	0.46960035
163	0xbf31f522	-0.6951467
164	0xbe684119	-0.22681083
165	0x3b283caa	0.0025670924
166	0x3ef9933e	0.4874515
167	0xbdcd8314	-0.10034767
168	0xbeaa9e54	-0.3332392
169	0xbd67d87c	-0.05660294
170	0x3dfb05ac	0.12256941
171	0xbea042e9	-0.31301048
172	0xbec117dd	-0.3771352
173	0x3e063ed7	0.13109909
174	0x3e415b96	0.18882594
175	0x3e893c26	0.26803702
176	0xbea48792	-0.32134682
177	0xbe27fa1a	-0.16404
178	0xbc23d0bf	-0.009998499
179	0xbec2566b	-0.37956557
180	0x3d7ff66d	0.06249087
181	0x3d8403e7	0.06446057
182	0xbe3c122c	-0.18366307
183	0x3efe3749	0.49651554
184	0x3dbdda07	0.09270101
185	0x3e700e66	0.23442993
186	0xbe88ddbe	-0.26731676
187	0x3e60c43f	0.21949862
188	0x3e7235b3	0.23653297
189	0xbdbcd492	-0.09220232
190	0x3e543069	0.20721592
191	0x3f5a0f4e	0.85179603
192	0x3e9ee09d	0.3103074
193	0xbee11466	-0.43960875
194	0xbeca5a89	-0.39522198
195	0xbf0fb01e	-0.5612811
196	0x3f16ceaa	0.58909094
197	0xbdc6c6eb	-0.09705909
198	0xbf5be9a5	-0.8590339
199	0x3c09b16f	0.00840412
200	0xbedd74c6	-0.43253154
201	0xbf31555a	-0.6927086
202	0xbe90ff2f	-0.2831969
203	0x3d20a00a	0.039215125
204	0xbf49646d	-0.7866886
205	0x3f894fe8	1.072751
206	0x3f3b8888	0.73255205
207	0x3f0c97a6	0.549189
208	0xbd945887	-0.07243448
209	0xbf5e13ed	-0.86749154
210	0x3e84e234	0.2595383
211	0x3de53e75	0.11193553
212	0xbfca9a42	-1.5828326
213	0x3f2bfea2	0.67185414
214	0xbd583d5a	-0.052792884
215	0x3f4ba148	0.7954297
216	0x3f275300	0.6536102
217	0x3f05da0d	0.52285844
218	0x3eba5b27	0.3639767
219	0x3f4d746a	0.8025576
220	0xbb324183	-0.0027199693
221	0x3df2a51a	0.11847897
222	0xbdc77720	-0.09739518
223	0xbf147a12	-0.57998765
224	0x3eb4f645	0.3534414
225	0x3e2df419	0.16987647
226	0x3db21ab1	0.08696497
227	0xbeb58273	-0.35451087
228	0x3e80d942	0.25165755
229	0xbee817c1	-0.45330623
230	0xbe104501	-0.14088823
231	0x3cbc6735	0.022998432
232	0xbeb47eb6	-0.35252923
233	0xbebf88ab	-0.37408957
234	0xbe1c7aaa	-0.15281168
235	0xbdef5c3b	-0.116875134
236	0xbf2dd3e4	-0.67901444
237	0x3f47c9d4	0.7804234
238	0x3e766c2a	0.24064699
239	0x3f3b4573	0.73152846
240	0xbd974ebc	-0.07388064
241	0xbe8347a1	-0.25640586
242	0x3eb3007b	0.34961304
243	0xbe869779	-0.2628744
244	0xbf3710cf	-0.7151002
245	0x3eef6297	0.46754906
246	0x3d42b762	0.04753817
247	0x3e0e5fae	0.13903686
248	0x3ea4d489	0.321934
249	0x3db536f0	0.08848369
250	0xbeb6bd06	-0.35691088
251	0x3e80b6fa	0.251396
252	0x3e701f26	0.23449382
253	0x3e297a0c	0.16550463
254	0x3e19dc0b	0.15025346
255	0xbe415d7e	-0.1888332

model.encoder.rnn.bias_ih_l0 f4 [128]
0	0x3eaa9e7b	0.33324036
1	0x3e89785c	0.2684964
2	0xbeba5740	-0.3639469
3	0xbe41d746	-0.18929777
4	0xbe6ea9f0	-0.23307014
5	0xbd780c0d	-0.060558368
6	0x3f30a966	0.6900848
7	0x3e040023	0.12890677
8	0xbe67df6e	-0.22643825
9	0xbe75018d	-0.23926373
10	0xbe0f9776	-0.14022622
11	0x3c646557	0.013940177
12	0xbdd778cc	-0.10521087
13	0xbdd85356	-0.1056277
14	0x3e2553b6	0.16145214
15	0xbd12fd6a	-0.035886206
16	0xbdd44476	-0.103646204
17	0xbe6a147e	-0.2285938
18	0x3d317317	0.04332265
19	0xbe8291fe	-0.25502008
20	0x3eb79346	0.35854548
21	0xbd07f50f	-0.03319269
22	0xbdb62ecd	-0.08895645
23	0x3f808cda	1.0042984
24	0x3ee61d18	0.44944072
25	0x3f0b53d8	0.5442481
26	0x3f43170b	0.76207036
27	0xbc63482d	-0.0138721885
28	0x3e2c6f19	0.16839255
29	0x3dcaf9fe	0.099109635
30	0xbea1a17c	-0.31568515
31	0xbe8b2d71	-0.27183107
32	0x3edf36d9	0.43596533
33	0x3e47dda0	0.19518137
34	0xbe8648e5	-0.2622749
35	0xbd4bfa7f	-0.04979944
36	0xbde255c6	-0.11051516
37	0x3e596c02	0.21232608
38	0xbecadb98	-0.39620662
39	0xbe27adbb	-0.16374867
40	0xbed8c350	-0.42336512
41	0xbe6593fb	-0.22419731
42	0xbd895eba	-0.06707521
43	0x3e8cbc3e	0.27487367
44	0xbe77c864	-0.24197537
45	0x3e757cc9	0.23973383
46	0xbe40ca0e	-0.18827078
47	0x3e4aa09c	0.1978783
48	0xbc10e62b	-0.008843939
49	0xbcd0ef6a	-0.025504787
50	0x3d10cecf	0.035353478
51	0x3e1ade4c	0.15123862
52	0xbd2d7f50	-0.042357743
53	0xbbb358a1	-0.005473212
54	0xbd089b98	-0.03335151
55	0xbe8449b8	-0.25837493
56	0x3ed8e191	0.42359594
57	0x3ebb047a	0.36526853
58	0xbdf42de7	-0.11922818
59	0x3d85f7fc	0.0654144
60	0x3ee3e661	0.44511703
61	0xbe9edca4	-0.3102771
62	0xbe809a7c	-0.25117862
63	0x3dd3ec21	0.103477724
64	0x3dd20fb7	0.102569036
65	0xbd057ed6	-0.032591663
66	0xbdcf1c0e	-0.10112773
67	0xbe0da796	-0.1383346
68	0x3e291b51	0.16514327
69	0xbd8c9c82	-0.06865789
70	0x3e0f887b	0.14016907
71	0x3de8bcc6	0.11364131
72	0xbd9829f7	-0.07429879
73	0xbe0ca744	-0.13735682
74	0xbc16ccd2	-0.009204106
75	0xbdd5a1af	-0.10431229
76	0xbdff62d9	-0.124700256
77	0x3e234f1d	0.15948148
78	0x3cddee6f	0.027091233
79	0x3db3f8a9	0.087876625
80	0xbe0cb8d3	-0.1374238
81	0xbe214a17	-0.1575092
82	0x3e29a376	0.16566262
83	0x3c0246c6	0.007951444
84	0xbdbfc719	-0.09364147
85	0x3e84ab3e	0.25911897
86	0xbe0c37dc	-0.13693184
87	0xbdc763ec	-0.097358555
88	0x3e5ffda6	0.21874103
89	0x3deb50bc	0.11490008
90	0x3d8697c9	0.065719195
91	0x3e343f8c	0.17602366
92	0xbdb60fe9	-0.08889753
93	0xbdc3aa86	-0.09554009
94	0x3d895ebb	0.067075215
95	0xbe065e32	-0.1312187
96	0xbc957b2d	-0.018247211
97	0x3e86deaa	0.26341754
98	0xbea1a4fc	-0.31571186
99	0xbeb33502	-0.3500138
100	0xbdc2dfdd	-0.09515355
101	0xbe017e4b	-0.12645833
102	0x3ebc3b85	0.3676416
103	0x3e9eb9df	0.31001183
104	0xbe0de70c	-0.13857669
105	0xbed9ece7	-0.42563555
106	0xbd865d60	-0.065607786
107	0xbb246605	-0.0025085222
108	0xbdd9eae4	-0.10640505
109	0x3ecb7f95	0.39745775
110	0xbde4b232	-0.111668006
111	0xbde6f4e3	-0.11277177
112	0x3c91a15c	0.017777137
113	0xbefe07b8	-0.49615264
114	0xbd91eda0	-0.071254015
115	0xbc8309d4	-0.015995897
116	0xbe2647d2	-0.16238335
117	0x3d46ca58	0.048532814
118	0x3e0f40a1	0.13989498
119	0x3e81f2a4	0.25380433
120	0x3e887656	0.26652783
121	0x3df8d179	0.12149329
122	0x3f3767d8	0.7164283
123	0x3cabf43e	0.020990487
124	0x3e9f6b29	0.31136444
125	0xbcb23a14	-0.02175621
126	0xbe8fdd4f	-0.28098533
127	0xbd599b8a	-0.05312685

model.encoder.rnn.bias_hh_l0 f4 [128]
0	0x3e1b735a	0.15180722
1	0x3e1a1bb1	0.15049626
2	0xbe8f8240	-0.2802906
3	0xbe090fc7	-0.13384925
4	0x3d0371ae	0.032090835
5	0x3de50a2c	0.11183581
6	0x3ecc3b0d	0.39888802
7	0x3ccc0cef	0.024908511
8	0xbe4bdc0c	-0.1990816
9	0xbe3dc576	-0.18532357
10	0xbe48dc60	-0.19615316
11	0xbd2ada36	-0.04171201
12	0xbe5cd0c1	-0.21564008
13	0xbbd7c27e	-0.0065844646
14	0x3e02213e	0.12707993
15	0x3df1f21f	0.11813759
16	0xbe88acab	-0.26694235
17	0xbe42f0c2	-0.19037154
18	0xbd78b06f	-0.060715135
19	0x3dab3920	0.08360505
20	0x3e10acf1	0.14128472
21	0xbdc58d9a	-0.09646149
22	0x3da58521	0.08082033
23	0x3f715649	0.94272286
24	0x3e746b6f	0.23869108
25	0x3e80d227	0.25160334
26	0x3f24c12d	0.6435726
27	0x3d813495	0.06308857
28	0x3e46b2d6	0.19404158
29	0x3ea3a820	0.31964207
30	0xbe546097	-0.20739971
31	0xbebcb428	-0.36856198
32	0x3e1e38f9	0.15451421
33	0x3e01d2cc	0.12678069
34	0xbd043aa3	-0.032282483
35	0x3ca4a2c5	0.020097146
36	0xbd9445f3	-0.07239904
37	0x3e2fe8fb	0.17178719
38	0xbe41d001	-0.18927003
39	0xbd18f2fa	-0.037341096
40	0xbea6e7d2	-0.3259874
41	0xbe3d73e0	-0.18501234
42	0xbe23daf3	-0.16001491
43	0x3e750ef8	0.23931491
44	0xbdc2e39c	-0.09516069
45	0x3d8d2ffb	0.06893917
46	0xbe8f6c7e	-0.2801246
47	0x3e4e5894	0.20150977
48	0x3aa305e6	0.0012437671
49	0xbd930cd1	-0.07180179
50	0x3e1a19d9	0.15048923
51	0x3e2b29c5	0.16715153
52	0xbcc0941e	-0.023508128
53	0x3e2b3a47	0.1672145
54	0x3d76b98e	0.060235552
55	0xbe22ae76	-0.15886864
56	0x3ee0ecb5	0.43930593
57	0x3ecc9b4d	0.39962235
58	0xbed819b9	-0.42207125
59	0x3d8bb8a4	0.06822327
60	0x3ebba1ba	0.36646825
61	0xbe8ed9f5	-0.27900663
62	0xbe0cba02	-0.13742831
63	0xbce2fd21	-0.027708592
64	0xbd312b5f	-0.043254253
65	0xbc6f5afa	-0.014609093
66	0x3e058541	0.13039114
67	0xbe7405ea	-0.23830381
68	0x3db881ea	0.09009154
69	0x3de233e4	0.110450536
70	0xbe13a61a	-0.14418831
71	0x3d43b41e	0.047779195
72	0xbe36810d	-0.17822666
73	0x3d94ee3f	0.07272004
74	0x3cd9ede3	0.026602691
75	0xbbbacc1a	-0.0057006003
76	0xbd159aac	-0.03652446
77	0x3b3d9783	0.002892942
78	0x3dfa26fe	0.122144684
79	0xbdbe6e14	-0.092983395
80	0xbd529967	-0.051415827
81	0xbdb36f7f	-0.087615006
82	0xbbcfa4a2	-0.0063367644
83	0xbd21b6c5	-0.039480943
84	0xbd5dccd2	-0.05415041
85	0x3d9df700	0.07713127
86	0xbdf92a79	-0.12166304
87	0xbd194965	-0.03742351
88	0x3e0b0445	0.13575847
89	0xbdbc14c1	-0.09183646
90	0x3d45c482	0.048283108
91	0x3e749d18	0.23888052
92	0x3dd59f26	0.10430746
93	0xbe56b854	-0.20968753
94	0xbcb967df	-0.022632537
95	0x3da968b9	0.082719274
96	0xbe6906cd	-0.227565
97	0x3e926418	0.2859199
98	0xbd8632d9	-0.06552667
99	0xbe9e4d79	-0.30918482
100	0xbe9cbc46	-0.3061239
101	0xbde1f2e2	-0.11032654
102	0x3ef4604f	0.47729728
103	0x3ea09b8e	0.3136868
104	0xbdf88084	-0.121338874
105	0xbe40b15c	-0.18817657
106	0xbe741e32	-0.23839644
107	0x3d8b6b5f	0.06807589
108	0xbe929ddf	-0.2863607
109	0x3eaa7ad8	0.33296847
110	0xbd0fa0a7	-0.03506532
111	0x3e1e7b79	0.15476789
112	0x3d40f3b4	0.047107413
113	0xbf050026	-0.5195335
114	0xbe84cbc2	-0.25936705
115	0xbd45c395	-0.048282225
116	0xbb8954c9	-0.0041910154
117	0x3e3714ed	0.17879076
118	0xbcf4cee8	-0.029883817
119	0x3e540c8b	0.2070791
120	0x3e57089d	0.2099938
121	0x3e277cb6	0.16356167
122	0x3ee41242	0.4454518
123	0x3dabe228	0.08392745
124	0x3e0b7d50	0.13622022
125	0x3decb689	0.11558253
126	0xbed474d2	-0.41495377
127	0xbe686312	-0.22694042

model.encoder.readout.weight f4 [1, 32]
0	0x3f1d40d0	0.6142702
1	0xbf106924	-0.5641043
2	0xbfc6075c	-1.5470996
3	0x3fc90d82	1.5707247
4	0x3f47eb0a	0.78093016
5	0xbf489eac	-0.78367114
6	0xbf761da1	-0.9613896
7	0x3f1b1e0c	0.6059272
8	0x3fcb2363	1.5870174
9	0xbfa8a2fc	-1.3174739
10	0xbf728012	-0.9472667
11	0xbee33c75	-0.44382063
12	0x3fa985ec	1.3243995
13	0xbe5b62c0	-0.21424389
14	0x3f051b25	0.51994544
15	0x3f3490d4	0.7053349
16	0x3f042937	0.5162539
17	0xc0141ff3	-2.31445
18	0x3f3cc875	0.73743373
19	0x3f14970b	0.58042973
20	0xbf575a66	-0.8412231
21	0x3ed0d95f	0.4079084
22	0x3f1b6c88	0.6071248
23	0xbe371a5e	-0.17881152
24	0x3e646158	0.22302759
25	0xbedc84fb	-0.43070206
26	0x3f5dfd1f	0.8671436
27	0xbece842c	-0.40335214
28	0xbef342f2	-0.47512013
29	0x3f37c581	0.7178574
30	0xc009911e	-2.1494823
31	0xbfb24029	-1.392583

exp_avg f4 [128, 1]
0	0xb89ad653	-7.383213e-05
1	0xb9369d5b	-0.00017415492
2	0x3acc0c52	0.0015567637
3	0xbaaf91eb	-0.0013394927
4	0x3a3ef66d	0.0007284645
5	0xb94466ec	-0.00018730358
6	0x3ba21777	0.004946645
7	0x3b018b0e	0.001976672
8	0xbb1ec3c4	-0.0024225572
9	0x3b5ce950	0.00337084
10	0x3b6f079e	0.0036473046
11	0x3a19513a	0.00058485905
12	0x3b7e11fd	0.0038768046
13	0x3a751e77	0.0009350548
14	0xb9f7db60	-0.00047274958
15	0x3af36bf0	0.0018571597
16	0xbb043d54	-0.0020178156
17	0x3b89dfb4	0.0042075757
18	0x3a20039e	0.00061040546
19	0x3bda54aa	0.006662925
20	0xb9b67bd4	-0.00034806004
21	0x39509a2a	0.00019893856
22	0x38588df4	5.1630617e-05
23	0x38f05c51	0.00011461287
24	0x39f5032a	0.000467324
25	0xb8c1f739	-9.249006e-05
26	0x3b396173	0.0028286844
27	0xbae5d5e5	-0.0017535059
28	0x3b94d34f	0.0045417915
29	0xba30e935	-0.0006748618
30	0x3b534962	0.0032239784
31	0x3bc37b59	0.005965632
32	0x3730b9a0	1.0533637e-05
33	0xba3477d6	-0.0006884312
34	0xbaa010ca	-0.0012212035
35	0xba9eac25	-0.0012105746
36	0xb949ddd5	-0.00019251493
37	0xba7d0f3b	-0.00096534536
38	0x3b937d53	0.004501024
39	0xb96d93af	-0.00022657098
40	0x3bb8b8f6	0.0056372834
41	0x3a5d1504	0.00084336125
42	0x39b04047	0.00033617226
43	0xbbdd8c3f	-0.0067611034
44	0x3aa4538a	0.0012537104
45	0x39f21462	0.00046173023
46	0xb98ee2bc	-0.0002725328
47	0xbb2eb645	-0.0026658934
48	0xbb529de4	-0.0032137567
49	0x3b745b15	0.0037285734
50	0x3a196b77	0.00058525003
51	0x3b19f124	0.0023489678
52	0xb9dd5af4	-0.0004222017
53	0x38d95a2e	0.000103641636
54	0xbad2ee07	-0.0016092666
55	0xb9d90124	-0.00041390315
56	0x39b86b20	0.0003517503
57	0x38cc284f	9.734986e-05
58	0xbb98c5cb	-0.0046622506
59	0xbba95910	-0.005168088
60	0x3a4f23c1	0.0007901751
61	0xbb2e60f0	-0.0026608072
62	0x3ac34012	0.0014896414
63	0xbb0a1e6b	-0.002107526
64	0x3c7be1f0	0.015373692
65	0xbbea4d60	-0.007150337
66	0xbccdd2d6	-0.025124948
67	0x3b9eb41b	0.0048432476
68	0x3b612716	0.0034355572
69	0xbcefefe7	-0.029289199
70	0xbd10a492	-0.035313196
71	0x3b95b54b	0.004568731
72	0x3cadd773	0.021220898
73	0xbca8552f	-0.020548431
74	0xbd290d42	-0.04127241
75	0xbca8fc79	-0.0206282
76	0x3cde089d	0.027103717
77	0xbc118efb	-0.008884187
78	0x3bf260af	0.0073967795
79	0x3d4d38e3	0.05010308
80	0x3ca773a9	0.020440893
81	0xbc546e63	-0.012965771
82	0x3c58521f	0.013203173
83	0x3c8812f0	0.016610593
84	0xbcc18b09	-0.023625867
85	0xbb0184f0	-0.0019763075
86	0x3d3dea45	0.046365995
87	0xbb71b50d	-0.0036881596
88	0x3a9b4f05	0.0011849111
89	0xbbb003fd	-0.005371569
90	0x3d1ed6a3	0.038778912
91	0xbce6e24a	-0.028184075
92	0xbaa9c2a8	-0.0012951689
93	0x3d355d0b	0.044278186
94	0xbc0d6d18	-0.008631967
95	0xbcf71e82	-0.030165914
96	0xba0262f1	-0.000497385
97	0x3ae1c0b3	0.0017223567
98	0x3a98ff72	0.0011672808
99	0x3c15867b	0.009126301
100	0xb8b6ae3a	-8.7108885e-05
101	0xbaa7cdb0	-0.0012802389
102	0x3b9a46a4	0.004708128
103	0x3b0e65eb	0.0021728228
104	0xba907286	-0.0011020459
105	0x3bc019e5	0.005862462
106	0x3bf725c0	0.007542342
107	0xbb29d6f1	-0.0025915469
108	0x3b481d41	0.0030535015
109	0x39f6f2be	0.00047101633
110	0xba70b84a	-0.00091827346
111	0xbb0e355c	-0.0021699285
112	0xbaa64022	-0.0012683908
113	0x3c084982	0.008318307
114	0x3b0fe2a5	0.002195516
115	0x3b639d3e	0.0034731175
116	0xba4ba19e	-0.0007767918
117	0x3910f703	0.00013824929
118	0xba5e2401	-0.0008473993
119	0x3a121b2e	0.0005573508
120	0xbacbd985	-0.0015552497
121	0x3a145161	0.00056578784
122	0x39b7f098	0.00035083736
123	0xbaed2dbf	-0.0018095298
124	0x3b0e0150	0.0021668263
125	0xba9defd9	-0.001204963
126	0xbaecb8b6	-0.0018060419
127	0x3b1b0297	0.0023652667

exp_avg_sq f4 [128, 1]
0	0x35a703b9	1.2443553e-06
1	0x379f7642	1.9009345e-05
2	0x3834e19c	4.312546e-05
3	0x3884c7af	6.3314445e-05
4	0x374a1055	1.2043941e-05
5	0x38073c6c	3.224278e-05
6	0x38eecc9c	0.00011386836
7	0x38a3904c	7.799323e-05
8	0x38f5bdbb	0.000117178504
9	0x3836e815	4.3608325e-05
10	0x3999b968	0.00029320573
11	0x3891bfb6	6.949848e-05
12	0x38b5f38c	8.676117e-05
13	0x36e9770e	6.957801e-06
14	0x372afaed	1.0191213e-05
15	0x3928afdd	0.00016087243
16	0x38024ae7	3.1064174e-05
17	0x3899259e	7.302615e-05
18	0x3740602c	1.1466484e-05
19	0x397297e9	0.0002313551
20	0x36177172	2.2566787e-06
21	0x36ef2388	7.1268914e-06
22	0x3898d8b0	7.288286e-05
23	0x34730c76	2.2635672e-07
24	0x36803474	3.8208036e-06
25	0x369e6461	4.7204526e-06
26	0x38848f1a	6.320905e-05
27	0x3825063c	3.934487e-05
28	0x38a40de6	7.822718e-05
29	0x37a1a53b	1.9269637e-05
30	0x392436b9	0.00015660645
31	0x399c6c22	0.00029835204
32	0x3776067c	1.4664252e-05
33	0x390be35d	0.00013340772
34	0x3945570f	0.00018819816
35	0x37de809e	2.6524354e-05
36	0x36f3883b	7.2578237e-06
37	0x380665ae	3.2042786e-05
38	0x3a018cf2	0.0004941962
39	0x38c0caa8	9.193021e-05
40	0x39c4425f	0.00037433484
41	0x37945d7c	1.7686507e-05
42	0x388175fc	6.173176e-05
43	0x3966c0fb	0.000220064
44	0x39491d68	0.00019179808
45	0x36261141	2.474597e-06
46	0x36a5e701	4.9442756e-06
47	0x3905da8a	0.0001276528
48	0x3926f580	0.0001592245
49	0x3995c112	0.00028563343
50	0x378f1928	1.7058643e-05
51	0x38ba87b0	8.894445e-05
52	0x3708cdde	8.154164e-06
53	0x36bb1e9b	5.5765972e-06
54	0x38896ac5	6.5525564e-05
55	0x3641e2b5	2.8891202e-06
56	0x35a43f7b	1.2237427e-06
57	0x36bf39de	5.69898e-06
58	0x39b83d23	0.00035140765
59	0x39b1e669	0.0003393174
60	0x37c30d27	2.3251936e-05
61	0x38743a76	5.822858e-05
62	0x3a8fa226	0.0010958358
63	0x3914fec0	0.00014209282
64	0x3b91e51c	0.004452361
65	0x3aae74e4	0.0013309983
66	0x3b79c29d	0.0038110383
67	0x39b71c61	0.00034925624
68	0x3a016ecd	0.000493747
69	0x3bc88304	0.006119134
70	0x3cad0fb3	0.02112565
71	0x3a8496a9	0.0010115701
72	0x3bb2ab51	0.0054525514
73	0x3bb59ec5	0.0055426084
74	0x3c49137f	0.012272715
75	0x3b826762	0.0039796093
76	0x3c43c7c9	0.011949488
77	0x3a08fc37	0.0005225571
78	0x39d6c563	0.00040964325
79	0x3c61f93a	0.01379233
80	0x3b91c362	0.0044483403
81	0x3b2fcc63	0.0026824705
82	0x3b0dbcdd	0.0021627464
83	0x3b529125	0.003212997
84	0x3bc48161	0.0059968685
85	0x3a8149e3	0.0009863939
86	0x3c97e545	0.018541941
87	0x398f51e7	0.00027336107
88	0x39804921	0.00024468548
89	0x3b0686ee	0.0020527202
90	0x3c71bf4e	0.014755083
91	0x3ca84dfd	0.020545
92	0x3ace10c8	0.0015721554
93	0x3c2fb6aa	0.010724703
94	0x3cd50643	0.026003962
95	0x3c33b9b1	0.010969565
96	0x38255ef9	3.9427516e-05
97	0x39032760	0.00012507802
98	0x38236a81	3.8961418e-05
99	0x3a2e7fca	0.00066566153
100	0x38a2b6a4	7.7587814e-05
101	0x37d4cd24	2.5367895e-05
102	0x39522bdd	0.00020043501
103	0x390a9806	0.00013217339
104	0x38199785	3.6619156e-05
105	0x39428705	0.0001855158
106	0x3a95751f	0.0011402703
107	0x389c7e4d	7.462185e-05
108	0x38ca9a5a	9.660861e-05
109	0x35d85fc2	1.6121123e-06
110	0x3874f3f6	5.840134e-05
111	0x38710299	5.7461297e-05
112	0x378678de	1.6030328e-05
113	0x3a0b6c56	0.00053185725
114	0x38aa8133	8.130297e-05
115	0x390d14d3	0.00013454565
116	0x38323d48	4.249558e-05
117	0x370c1619	8.349795e-06
118	0x388cff8b	6.723319e-05
119	0x36130cba	2.1912115e-06
120	0x397ac0bd	0.00023913659
121	0x386e3be5	5.6799403e-05
122	0x37a51a35	1.9681736e-05
123	0x3826415d	3.963836e-05
124	0x3822bf6f	3.8802096e-05
125	0x37ee060e	2.837463e-05
126	0x3a2a9fb7	0.0006508785
127	0x38954be1	7.119007e-05

exp_avg f4 [128, 32]
0	0x3877657a	5.8983896e-05
1	0x39a809e5	0.0003205083
2	0x370c80fa	8.37468e-06
3	0x385272fd	5.0174993e-05
4	0xb82504b5	-3.934345e-05
5	0xb870946b	-5.7358684e-05
6	0xb9150fc7	-0.00014215625
7	0xb893c224	-7.045668e-05
8	0x37e07ef6	2.6762002e-05
9	0x36a3d576	4.8826287e-06
10	0xb74d2a7e	-1.2228846e-05
11	0xb93bcf7d	-0.00017911005
12	0x374b2453	1.21082e-05
13	0x38cd52bb	9.7905715e-05
14	0xb8eee701	-0.00011391752
15	0x38cda512	9.8059085e-05
16	0x386e436a	5.6806406e-05
17	0x363755cb	2.7319063e-06
18	0xb80ce27f	-3.3589542e-05
19	0x37bd1e11	2.2544556e-05
20	0x38927532	6.983652e-05
21	0xb8c4f96f	-9.392469e-05
22	0x3933347d	0.00017090324
23	0xb8405c57	-4.5862365e-05
24	0xba2a709e	-0.00065017666
25	0x39a7394d	0.00031895415
26	0x395a9e38	0.00020849041
27	0xb936180d	-0.00017365832
28	0xb88e1016	-6.774084e-05
29	0x39274364	0.00015951466
30	0xb6b7dc9d	-5.4795078e-06
31	0xb71eb627	-9.4599445e-06
32	0x38a27eb5	7.748363e-05
33	0xb9562d51	-0.00020425512
34	0xb836d2c3	-4.358847e-05
35	0x38c8bc9c	9.5718744e-05
36	0x37da2394	2.6004192e-05
37	0x37d59a82	2.5463527e-05
38	0x39b216d2	0.00033967808
39	0x3958e765	0.00020685566
40	0x37be8407	2.2711245e-05
41	0x37b66313	2.1742226e-05
42	0xb8025303	-3.1071726e-05
43	0x3988983e	0.0002605337
44	0x383634d8	4.3441396e-05
45	0xb8e6c3a5	-0.00011003696
46	0x39589f98	0.00020658819
47	0x38ca2a2c	9.639966e-05
48	0x387a2c59	5.9645947e-05
49	0x36624dc5	3.3721892e-06
50	0x389c05f2	7.439767e-05
51	0x392b89ae	0.0001635912
52	0x391cf7db	0.00014969653
53	0xb9599bca	-0.00020752769
54	0x390a5581	0.00013192558
55	0xb9c8f9fc	-0.00038333226
56	0xb87b54f2	-5.9922175e-05
57	0xba597735	-0.00082956563
58	0xba20cee4	-0.0006134345
59	0xb94c722d	-0.0001949749
60	0xb9e27382	-0.0004319214
61	0x39387b1d	0.0001759347
62	0x36433f6a	2.9094176e-06
63	0xb903f860	-0.0001258566
64	0x390b859c	0.00013305846
65	0xb9096344	-0.00013102317
66	0xb8057e0f	-3.1827072e-05
67	0x3831a5a0	4.235434e-05
68	0x37708e75	1.4338283e-05
69	0x38468231	4.732813e-05
70	0x37460827	1.1803618e-05
71	0x38f9d8ab	0.00011913603
72	0xb7893f38	-1.6361111e-05
73	0x37f918eb	2.9694716e-05
74	0x370cc862	8.3913055e-06
75	0x389dad43	7.518616e-05
76	0xb73f835f	-1.1415074e-05
77	0x37180ded	9.063148e-06
78	0x3895e9fa	7.148455e-05
79	0xb8d7a068	-0.00010281877
80	0xb7bfff38	-2.288782e-05
81	0x361d618d	2.3451605e-06
82	0x37e2ec8d	2.7051452e-05
83	0x3898afad	7.280647e-05
84	0xb824822e	-3.9221886e-05
85	0xb7f6e8a1	-2.9433812e-05
86	0xb7ec9629	-2.8203316e-05
87	0xb9132a08	-0.0001403467
88	0x38ed63df	0.00011319643
89	0xb99533a1	-0.0002845796
90	0xb930ba99	-0.00016854181
91	0x388fcb54	6.856644e-05
92	0xb95e9aea	-0.0002122928
93	0xb834b1fe	-4.3081112e-05
94	0x37e8b7ee	2.7742204e-05
95	0xb855a39d	-5.0935534e-05
96	0x363e557a	2.836196e-06
97	0x39207ce0	0.00015305309
98	0xb705ca2b	-7.974489e-06
99	0xb87be0a7	-6.0052287e-05
100	0xb8c38947	-9.3238945e-05
101	0x38559c26	5.0928582e-05
102	0xb95c46e1	-0.0002100724
103	0xb9cb3c46	-0.00038764084
104	0x38445db0	4.6817295e-05
105	0xb624e7da	-2.457286e-06
106	0x38965d7b	7.1699695e-05
107	0xb9daf55f	-0.00041763016
108	0xb7b7824c	-2.1875974e-05
109	0x387c7e7f	6.019929e-05
110	0xb9909575	-0.00027577174
111	0x383e9f53	4.5447912e-05
112	0x381e89da	3.779852e-05
113	0x36e37714	6.7789897e-06
114	0xb912e003	-0.00014007096
115	0xb94fb629	-0.00019808918
116	0xb8659c38	-5.4743345e-05
117	0x3900171e	0.00012215643
118	0xb9067e93	-0.00012826388
119	0x3a17781a	0.00057780894
120	0x38431cc3	4.651841e-05
121	0x3a87a3c6	0.0010348491
122	0x3a0e8219	0.0005436256
123	0x381f4afd	3.7978392e-05
124	0x3a12a182	0.00055935245
125	0xb8e3bb69	-0.00010859111
126	0xb7753aef	-1.46168595e-05
127	0x38e945d2	0.00011123311
128	0xb8e039ec	-0.00010691941
129	0xba170b2c	-0.00057618576
130	0x3692fade	4.380344e-06
131	0xb82e99bd	-4.1628013e-05
132	0x389e874a	7.559227e-05
133	0x3924e854	0.00015726808
134	0x37a0f0a7	1.9185549e-05
135	0x395dad0d	0.00021140669
136	0xb8562f3b	-5.1065563e-05
137	0xb65b6378	-3.2691441e-06
138	0xb64b2792	-3.027239e-06
139	0x39f1eb65	0.00046142485
140	0x36deee5a	6.6438633e-06
141	0xb91dd7df	-0.00015053105
142	0x394f569b	0.00019773321
143	0xb965daa2	-0.00021920589
144	0xb8c77e2e	-9.512562e-05
145	0x36280203	2.5035122e-06
146	0x389db402	7.5198725e-05
147	0x37f7d80c	2.95453e-05
148	0x37d42617	2.5290106e-05
149	0x380a31be	3.294809e-05
150	0xb958618a	-0.00020635701
151	0xb9a4e910	-0.00031454163
152	0x3a81990c	0.000988753
153	0xba39d66d	-0.0007089142
154	0xb94b705e	-0.00019401449
155	0x396b2a22	0.00022427042
156	0xb90c2e86	-0.00013368772
157	0xb98eda84	-0.00027247157
158	0xb498bc30	-2.844913e-07
159	0xb6b5f168	-5.4223237e-06
160	0x39f97bf1	0.00047585325
161	0x3a8904c1	0.0010453687
162	0x37f28fd0	2.8915616e-05
163	0x388f58e2	6.835327e-05
164	0xb8f32497	-0.00011593958
165	0xb9a7beed	-0.00031994973
166	0xb92c576f	-0.0001643577
167	0xb990f45d	-0.00027647885
168	0x37a91dc5	2.0160232e-05
169	0xb664b231	-3.4078369e-06
170	0xb846a9e6	-4.736511e-05
171	0xba015437	-0.00049335085
172	0xb84769c0	-4.7543785e-05
173	0x39cde2e7	0.00039269702
174	0xb9a97248	-0.00032319338
175	0x39b630b0	0.0003475002
176	0x38dc9819	0.00010518748
177	0x35e39577	1.6956318e-06
178	0xb8cf79f7	-9.893247e-05
179	0xb6cfa851	-6.1886753e-06
180	0xb8c5d556	-9.433429e-05
181	0xb8b16b1d	-8.459969e-05
182	0x3a0aa811	0.0005289326
183	0x39cd0db7	0.00039110865
184	0xbada10ac	-0.0016637049
185	0x3a9c80ce	0.0011940242
186	0x3906dcd5	0.00012861502
187	0xb99f2186	-0.0003035182
188	0x37bbd70e	2.239228e-05
189	0x39e5beaa	0.0004382034
190	0x3790fd86	1.7284194e-05
191	0xb7c760df	-2.3767758e-05
192	0x38cbe23d	9.7219345e-05
193	0xba0cc569	-0.00053699926
194	0xb7f70c88	-2.945053e-05
195	0xb86634fe	-5.4885626e-05
196	0x38446e9c	4.6833055e-05
197	0x3828523f	4.013092e-05
198	0x392b30e0	0.00016326038
199	0x394c90a8	0.00019508845
200	0xb89b7ab0	-7.413828e-05
201	0xb728f176	-1.00698e-05
202	0xb8172f23	-3.6045105e-05
203	0x399dbdb1	0.00030086705
204	0xb79db699	-1.8800887e-05
205	0xb9b7d35e	-0.0003506196
206	0x3916aff4	0.00014370662
207	0xb9168e9c	-0.00014358241
208	0xb8b18fac	-8.466779e-05
209	0x3633191f	2.66877e-06
210	0x382574b3	3.944775e-05
211	0x378de8ee	1.6916976e-05
212	0xb911c5ff	-0.00013902037
213	0x3902fa20	0.00012490945
214	0xb930f35d	-0.00016875328
215	0x3910f4c6	0.00013824095
216	0x3a7c915e	0.00096346985
217	0xba0a7e41	-0.00052830955
218	0xb9c081eb	-0.0003671789
219	0x39882ee7	0.00025974886
220	0x3757ba72	1.2858409e-05
221	0xb95b29d3	-0.00020901048
222	0x3721485f	9.613198e-06
223	0x362c568b	2.5680372e-06
224	0xba17c8a3	-0.000579009
225	0xbaf57118	-0.0018725721
226	0xb88e1f8b	-6.776963e-05
227	0xb9131b85	-0.00014029264
228	0x39583c81	0.00020621905
229	0x3a339235	0.00068500947
230	0xb88a75d3	-6.602299e-05
231	0x3a042b51	0.0005041855
232	0xb8ab97cf	-8.182192e-05
233	0xb7d7a6fa	-2.5707752e-05
234	0x38b3a119	8.565392e-05
235	0x3a8c8110	0.0010719616
236	0x3761be6f	1.3455384e-05
237	0xba2143d4	-0.000615177
238	0x39fd4499	0.0004830703
239	0xba716ac6	-0.0009209331
240	0xb9917481	-0.00027743357
241	0xb6ebdb96	-7.029109e-06
242	0x39208d4e	0.00015311429
243	0xb710ba2f	-8.626418e-06
244	0xb8abe99e	-8.19743e-05
245	0x39a90280	0.00032236055
246	0xba8427be	-0.0010082645
247	0xba15b6e2	-0.00057111506
248	0x3b638235	0.003471506
249	0xbaeac758	-0.0017912192
250	0xb8bc082f	-8.966063e-05
251	0x3a57e860	0.00082362257
252	0xb885483a	-6.3553874e-05
253	0xba9183cf	-0.0011101904
254	0x356ed36e	8.896958e-07
255	0x37d5f5a8	2.5505971e-05

exp_avg_sq f4 [128, 32]
0	0x3477351e	2.3022992e-07
1	0x358702db	1.0059115e-06
2	0x30abbd75	1.2495734e-09
3	0x32ebc41e	2.7446784e-08
4	0x320cfdfb	8.206821e-09
5	0x33ed9ea2	1.1065028e-07
6	0x34436090	1.819592e-07
7	0x335967a4	5.061851e-08
8	0x319dc8e0	4.5921382e-09
9	0x303bfc94	6.838914e-10
10	0x32006df3	7.47558e-09
11	0x34c9dda6	3.7600438e-07
12	0x31487713	2.9171516e-09
13	0x349b820b	2.8965619e-07
14	0x338555cd	6.208902e-08
15	0x3411afd5	1.3568145e-07
16	0x32dcb3dd	2.5693163e-08
17	0x2fdea1cb	4.0496526e-10
18	0x31ac3c42	5.0127094e-09
19	0x32addf6b	2.024145e-08
20	0x335d56d4	5.1534542e-08
21	0x33ba36a1	8.671237e-08
22	0x34aff48a	3.2774216e-07
23	0x3538675f	6.8695766e-07
24	0x36948f16	4.427401e-06
25	0x351248a0	5.449492e-07
26	0x34ba3492	3.468345e-07
27	0x348fc353	2.6777943e-07
28	0x3443e24b	1.8243115e-07
29	0x34c44d66	3.656416e-07
30	0x305b10cb	7.96956e-10
31	0x31b5b7d9	5.2886944e-09
32	0x35f95cbe	1.8578937e-06
33	0x36ece3c6	7.0598644e-06
34	0x32b01764	2.0499733e-08
35	0x3492f900	2.737579e-07
36	0x33cc1c7e	9.504673e-08
37	0x3596c502	1.1233208e-06
38	0x350fcfce	5.3574047e-07
39	0x35556aed	7.950428e-07
40	0x33811038	6.009981e-08
41	0x327907d4	1.44954875e-08
42	0x338f97b9	6.6865546e-08
43	0x36279727	2.4972921e-06
44	0x32d21d03	2.446041e-08
45	0x35af8e8e	1.3080005e-06
46	0x34ea9e64	4.370114e-07
47	0x35cfc948	1.5481282e-06
48	0x3493364d	2.7420393e-07
49	0x31f717c4	7.191348e-09
50	0x33784560	5.7805096e-08
51	0x34317f7b	1.6530787e-07
52	0x3529efb9	6.330625e-07
53	0x35576729	8.024386e-07
54	0x36324756	2.656559e-06
55	0x36107deb	2.1530966e-06
56	0x37f4a212	2.9162537e-05
57	0x36952fc1	4.4461053e-06
58	0x35b3be6d	1.339196e-06
59	0x36202001	2.3860487e-06
60	0x35991d56	1.1407926e-06
61	0x366d44b6	3.5355747e-06
62	0x31d9a085	6.33378e-09
63	0x3334546f	4.1986308e-08
64	0x35b83941	1.3725731e-06
65	0x3628a102	2.512767e-06
66	0x334b86d1	4.7387235e-08
67	0x346743f1	2.1538268e-07
68	0x33355cef	4.222687e-08
69	0x3531da6d	6.625549e-07
70	0x352c21eb	6.412435e-07
71	0x354259db	7.240139e-07
72	0x33aacc28	7.953378e-08
73	0x32a3908b	1.9041428e-08
74	0x33dae21c	1.0192545e-07
75	0x355b24e2	8.163753e-07
76	0x3321ef46	3.770335e-08
77	0x34ab241c	3.1877505e-07
78	0x342186e4	1.5043366e-07
79	0x354b8d23	7.5828774e-07
80	0x33e8fd31	1.0849397e-07
81	0x31a831c7	4.8951025e-09
82	0x33137bf7	3.433885e-08
83	0x34865dfe	2.5027833e-07
84	0x34d58913	3.9774076e-07
85	0x348d5a97	2.632921e-07
86	0x359a177e	1.1480731e-06
87	0x34e904d2	4.340314e-07
88	0x3712c3ba	8.747849e-06
89	0x35d52eca	1.5883354e-06
90	0x357ddd5f	9.457198e-07
91	0x3548d49c	7.4815193e-07
92	0x35669575	8.5899165e-07
93	0x35bab967	1.3912039e-06
94	0x3250ab87	1.2146194e-08
95	0x33a84d40	7.837161e-08
96	0x378d13ac	1.681767e-05
97	0x384d7054	4.8980422e-05
98	0x336200cb	5.2620447e-08
99	0x361f21fa	2.3712623e-06
100	0x34b0b10d	3.2911376e-07
101	0x370f8c7b	8.556172e-06
102	0x3570ddd4	8.972977e-07
103	0x3540187c	7.1561203e-07
104	0x341a3610	1.4362035e-07
105	0x33166bc5	3.5022612e-08
106	0x350e8c9f	5.3103753e-07
107	0x3718b8ae	9.102905e-06
108	0x339cc3fb	7.299965e-08
109	0x375ed812	1.3282539e-05
110	0x35a0f18d	1.199123e-06
111	0x371cd596	9.348054e-06
112	0x359bbffd	1.1604276e-06
113	0x31b9340b	5.3901252e-09
114	0x336d92aa	5.5314253e-08
115	0x35c7942b	1.4869778e-06
116	0x3556824d	7.9910825e-07
117	0x36c176fb	5.7656994e-06
118	0x37bae644	2.2280154e-05
119	0x378f2d61	1.706806e-05
120	0x39719eeb	0.00023042753
121	0x36ff1911	7.6025103e-06
122	0x36e0289e	6.6804487e-06
123	0x37754604	1.461944e-05
124	0x37582a8a	1.2884508e-05
125	0x37e1920d	2.68901e-05
126	0x31ac6205	5.0170024e-09
127	0x34cbfbee	3.7995e-07
128	0x3557d37c	8.040149e-07
129	0x364100eb	2.8759775e-06
130	0x319ed94f	4.6231103e-09
131	0x33692254	5.428076e-08
132	0x3344ba4a	4.5804235e-08
133	0x34dc99f7	4.1090217e-07
134	0x3409eec8	1.2845987e-07
135	0x35170e96	5.627311e-07
136	0x336d0302	5.5183598e-08
137	0x31b7c3c5	5.3482574e-09
138	0x3353580a	4.9207337e-08
139	0x35e5a4f8	1.7109842e-06
140	0x320859c5	7.936653e-09
141	0x34b52b77	3.3745502e-07
142	0x348041c2	2.3889703e-07
143	0x3521007d	5.9977884e-07
144	0x3407e075	1.2654512e-07
145	0x2ffefba9	4.6381146e-10
146	0x33367958	4.248554e-08
147	0x33a89a46	7.851172e-08
148	0x33f22b52	1.1276883e-07
149	0x3408c391	1.2737134e-07
150	0x3544dc5c	7.3336355e-07
151	0x350f3e4f	5.336232e-07
152	0x3730fcc2	1.0549267e-05
153	0x364895f5	2.988961e-06
154	0x351c6664	5.8263527e-07
155	0x357314a8	9.0554613e-07
156	0x351a243e	5.742221e-07
157	0x35a375f4	1.2178775e-06
158	0x31991d39	4.4562083e-09
159	0x32787d2c	1.4463961e-08
160	0x3684d942	3.9591987e-06
161	0x37436c3f	1.1648109e-05
162	0x33532640	4.9162054e-08
163	0x348e2ef5	2.6483727e-07
164	0x33cae212	9.44748e-08
165	0x36067f56	2.0041675e-06
166	0x3550d7e2	7.780019e-07
167	0x35ab6d45	1.2772294e-06
168	0x341a7140	1.4383568e-07
169	0x32858a85	1.554623e-08
170	0x3475b742	2.2884072e-07
171	0x3695bf63	4.4628264e-06
172	0x32ed1524	2.7600045e-08
173	0x364bd4d7	3.0373246e-06
174	0x351711f9	5.627804e-07
175	0x36064bc4	2.0011657e-06
176	0x3498d218	2.846507e-07
177	0x31512ae9	3.0437894e-09
178	0x3395d23d	6.976595e-08
179	0x34cbeaa6	3.7982426e-07
180	0x354ef93f	7.710368e-07
181	0x34e82b47	4.3244856e-07
182	0x36569d26	3.1979957e-06
183	0x3622045b	2.4142416e-06
184	0x381fde3e	3.8115533e-05
185	0x370674a6	8.014182e-06
186	0x35a5e005	1.2358656e-06
187	0x361977fe	2.2868621e-06
188	0x35fac836	1.868472e-06
189	0x368af6f3	4.141469e-06
190	0x3221fc53	9.428805e-09
191	0x33a2af46	7.575595e-08
192	0x3609f771	2.055862e-06
193	0x36a84af1	5.0155145e-06
194	0x32815c3a	1.5059516e-08
195	0x3419346d	1.4268308e-07
196	0x33b4a3d9	8.411707e-08
197	0x3531e827	6.6275464e-07
198	0x3529cebc	6.3258244e-07
199	0x35c23398	1.4469142e-06
200	0x33a31b2c	7.5952215e-08
201	0x3268456c	1.3519962e-08
202	0x33fb5e75	1.170528e-07
203	0x365d6add	3.2993769e-06
204	0x32556593	1.2421327e-08
205	0x354f6343	7.7257954e-07
206	0x34f77d7e	4.6098643e-07
207	0x35aba284	1.2787791e-06
208	0x3462c182	2.1118288e-07
209	0x319f80b2	4.64214e-09
210	0x33bcee85	8.797819e-08
211	0x34055f68	1.2421299e-07
212	0x347bb1e8	2.3440919e-07
213	0x345effed	2.0768466e-07
214	0x3596b377	1.1228102e-06
215	0x361c328f	2.327524e-06
216	0x3787eb8c	1.620294e-05
217	0x36d47796	6.332014e-06
218	0x360197fb	1.9310962e-06
219	0x35ccf9cf	1.5271888e-06
220	0x35cacf7b	1.5110558e-06
221	0x360684c7	2.0044843e-06
222	0x31e3dfc4	6.6320087e-09
223	0x32b7cd10	2.1397256e-08
224	0x36a1a3a9	4.8172265e-06
225	0x37ebc2da	2.8104918e-05
226	0x32c1eaf8	2.2575009e-08
227	0x348f87d9	2.6734668e-07
228	0x34dacdbe	4.075536e-07
229	0x3642f372	2.9049957e-06
230	0x35ccdf6c	1.5264209e-06
231	0x370731f7	8.05826e-06
232	0x346ee58c	2.2248986e-07
233	0x32db483d	2.5527806e-08
234	0x3487acff	2.527158e-07
235	0x378693e1	1.6042906e-05
236	0x322d506b	1.008821e-08
237	0x35ad0f07	1.2893878e-06
238	0x36328bd8	2.6605467e-06
239	0x36da2f51	6.5024146e-06
240	0x3588776e	1.0167548e-06
241	0x312a2cb6	2.4763671e-09
242	0x34f446a3	4.5499937e-07
243	0x34879e22	2.5260766e-07
244	0x3504cd52	4.947261e-07
245	0x3527f562	6.2569427e-07
246	0x36a944dc	5.0446088e-06
247	0x37160321	8.941425e-06
248	0x38a33526	7.782345e-05
249	0x381c17a0	3.72153e-05
250	0x36635f0d	3.3880963e-06
251	0x36f7f118	7.3892406e-06
252	0x3696bc2d	4.492255e-06
253	0x372b9d6e	1.0229049e-05
254	0x320d8467	8.237385e-09
255	0x32adf19d	2.0249724e-08

exp_avg f4 [128]
0	0xba79b275	-0.00095251884
1	0xb94bf249	-0.00019449847
2	0x3936c7b6	0.0001743127
3	0xba14172d	-0.00056492054
4	0x3ac22e99	0.0014814913
5	0xbb19fb1c	-0.002349562
6	0x3aa508d5	0.0012591133
7	0x3b9f8d0c	0.004869109
8	0xbaf8f5a0	-0.00189941
9	0x3a1f10db	0.00060678803
10	0x3ab345b2	0.0013677387
11	0xbb459484	-0.0030148337
12	0x3a708c60	0.0009176191
13	0xbaf264d5	-0.0018493185
14	0x397d9161	0.00024182118
15	0xbbfc9b71	-0.0077089597
16	0xbb5106f2	-0.003189501
17	0xb8ce0007	-9.8228506e-05
18	0x3afd3fb1	0.001932135
19	0x3af95ec4	0.0019025435
20	0xbacc7345	-0.0015598318
21	0xbacdb5d9	-0.0015694454
22	0xbbbdbf8c	-0.0057906564
23	0x3873a193	5.8086192e-05
24	0x39cf71fe	0.00039567047
25	0x3b14e2a3	0.0022718094
26	0xba1d0125	-0.0005989245
27	0xbb75ae0d	-0.0037487776
28	0xb9e9c02e	-0.00044584408
29	0xbb3f8c50	-0.002922792
30	0xb9ef8373	-0.0004568357
31	0x3ae555ee	0.0017496923
32	0xbb0ef03d	-0.0021810674
33	0x3a19e1dc	0.00058701425
34	0x3925a09b	0.00015795456
35	0xb9b1b904	-0.00033897918
36	0x3a5e082b	0.0008469845
37	0xbb3549bf	-0.0027662364
38	0x39b7e7e2	0.00035077246
39	0x3b8c7492	0.004286357
40	0xb9ea4227	-0.00044681245
41	0x3816fddd	3.5999215e-05
42	0x38d841ca	0.00010311937
43	0xbba15602	-0.004923583
44	0x39936b65	0.0002811804
45	0xba3a75bd	-0.0007112881
46	0x3a82335f	0.0009933523
47	0xbbe0a343	-0.0068554
48	0xbb07e3af	-0.0020735075
49	0xb7cd5308	-2.4476569e-05
50	0x3ad4dafe	0.0016239581
51	0x3a1098c4	0.0005515928
52	0xba4197e1	-0.00073849974
53	0xbab8433e	-0.0014058126
54	0xbbd90ac7	-0.006623599
55	0x3afdc8b0	0.0019362178
56	0xb92ca105	-0.00016463183
57	0x3ba8fa0e	0.005156762
58	0xbb9b6f7e	-0.0047435155
59	0xbb65b373	-0.0035049587
60	0xbab5cdf7	-0.0013870586
61	0xbb0d8b4f	-0.0021597927
62	0xba005ae5	-0.0004896357
63	0x38aa5cb5	8.1235e-05
64	0x3d75fcf0	0.060055673
65	0x3c457992	0.01205291
66	0xbc381ef5	-0.0112378495
67	0x3c7c416e	0.015396459
68	0x3bc65d8f	0.0060536335
69	0xbc7976ed	-0.015226108
70	0xbddbaa63	-0.10725858
71	0x3d03a934	0.032143787
72	0x3c07ed60	0.008296341
73	0xbc10cd6b	-0.008838038
74	0xbd232746	-0.039832376
75	0x3bc5ba1d	0.0060341493
76	0x3ca6b3b5	0.020349363
77	0x3ce8c54a	0.028414387
78	0x3bcbf346	0.006224069
79	0x3cc8c105	0.024506101
80	0x3c5968fd	0.01326966
81	0xbbd79193	-0.006578633
82	0x3c84aab2	0.016194675
83	0x3d25d5af	0.040486988
84	0xbc4b9e19	-0.01242783
85	0xbbe7a65a	-0.007069391
86	0x3d254ffc	0.040359482
87	0xbb071865	-0.0020613906
88	0x3b2246a9	0.0024761355
89	0xbc5dc7d8	-0.013536416
90	0x3d5cc1b5	0.05389567
91	0xbc637c41	-0.013884605
92	0xbd6a4284	-0.05719234
93	0x3c83d09a	0.01609068
94	0xbc8eba7b	-0.017422905
95	0xbcc0c928	-0.023533419
96	0xbb3c965f	-0.0028776152
97	0x3939637f	0.0001768004
98	0x39573327	0.00020523054
99	0x39ac0085	0.00032806784
100	0x3af1dd38	0.0018452769
101	0xbae54cec	-0.0017494238
102	0x3af223f3	0.0018473848
103	0x3b8ae845	0.0042391145
104	0xbac75124	-0.0015206677
105	0x3a85169a	0.001015383
106	0x3b0037a4	0.0019564414
107	0xbb92b448	-0.0044770576
108	0x3a5feda2	0.0008542185
109	0xba86f461	-0.0010296219
110	0x39c6cf87	0.00037920123
111	0xbbe628a8	-0.0070238896
112	0xbb23ea59	-0.0025011508
113	0x39393f6b	0.000176666
114	0x3b27145c	0.0025494313
115	0x3ad5a1c6	0.0016298823
116	0xbb42a532	-0.0029700515
117	0xbaab82fe	-0.0013085303
118	0xbbb1cdd5	-0.0054261484
119	0x3a8c2456	0.0010691981
120	0xb9eba7dc	-0.00044947758
121	0x3bf135c5	0.007361146
122	0xba747584	-0.00093253725
123	0xbb6d3185	-0.0036192846
124	0xb9c928bd	-0.0003836806
125	0xbb3fc6df	-0.0029262824
126	0xbaab2520	-0.0013057329
127	0x3aad63df	0.0013228616

exp_avg_sq f4 [128]
0	0x37051b95	7.93384e-06
1	0x387c82a8	6.0203165e-05
2	0x378d725b	1.686176e-05
3	0x39ed4050	0.0004525208
4	0x37cb792a	2.4255907e-05
5	0x3898c654	7.284866e-05
6	0x380aae6a	3.30642e-05
7	0x3921ed11	0.0001544247
8	0x389e54e1	7.549837e-05
9	0x36bb1b45	5.576209e-06
10	0x3918834d	0.00014544763
11	0x3875a352	5.8564656e-05
12	0x36db8d83	6.5431827e-06
13	0x3810c472	3.451523e-05
14	0x3784cb85	1.5830397e-05
15	0x3a207ffe	0.0006122588
16	0x38e1012e	0.00010729056
17	0x35a4ba74	1.2273217e-06
18	0x378e86f8	1.6990569e-05
19	0x387b97e2	5.9984515e-05
20	0x375dcdd3	1.3220549e-05
21	0x3732d278	1.065863e-05
22	0x3a0459d2	0.00050487847
23	0x3410373e	1.3431142e-07
24	0x37e04799	2.6736221e-05
25	0x37550761	1.2697507e-05
26	0x37313245	1.0561726e-05
27	0x3982b16d	0.00024927725
28	0x3837cf8e	4.38239e-05
29	0x387969d5	5.946479e-05
30	0x374c9df4	1.2196124e-05
31	0x380bb2b4	3.3306613e-05
32	0x392e0262	0.00016594821
33	0x39421d13	0.00018512113
34	0x36c7301d	5.9362633e-06
35	0x392a8638	0.00016262464
36	0x372ede10	1.0422911e-05
37	0x3913e329	0.00014103636
38	0x38a5effc	7.912514e-05
39	0x392a536e	0.00016243543
40	0x37082cd6	8.116671e-06
41	0x361ee0eb	2.3674754e-06
42	0x3863c420	5.4303673e-05
43	0x3922a0e1	0.00015509456
44	0x36bcda5d	5.6282574e-06
45	0x3784486f	1.5769356e-05
46	0x36b4cb72	5.388102e-06
47	0x3a0dd31a	0.000541018
48	0x383c768d	4.4933102e-05
49	0x35ae6e5d	1.299613e-06
50	0x378d7560	1.6863167e-05
51	0x388f36e4	6.8289955e-05
52	0x37dd6810	2.639371e-05
53	0x36f8f4e3	7.4194845e-06
54	0x3a0e6ef2	0.0005433402
55	0x378be8b9	1.6678461e-05
56	0x36b365b8	5.3464573e-06
57	0x38bc5426	8.9802124e-05
58	0x38e52f9c	0.00010928439
59	0x3953ad4e	0.00020187089
60	0x388e1506	6.7750036e-05
61	0x388ce19d	6.717744e-05
62	0x37155e9d	8.903121e-06
63	0x37ba8365	2.2234113e-05
64	0x3cff3d4a	0.031157155
65	0x3be368f0	0.0069399998
66	0x3b0dc418	0.0021631774
67	0x3ae82f3b	0.0017714271
68	0x3b1c2fa2	0.0023832102
69	0x3b2fae1d	0.002680666
70	0x3e0a922b	0.13532321
71	0x3c527455	0.0128451185
72	0x3a71ce1a	0.0009224132
73	0x3b449084	0.0029993365
74	0x3c988e90	0.018622667
75	0x3a6ac199	0.000895524
76	0x3beb1dd7	0.007175188
77	0x3bb9428d	0.0056536854
78	0x3a7d1e47	0.0009655696
79	0x3b8f7ba2	0.004378752
80	0x3b0da53d	0.0021613382
81	0x3ad908af	0.0016558374
82	0x3c03cd97	0.008044622
83	0x3c73aa44	0.014872137
84	0x3af5c908	0.0018751929
85	0x39ef0061	0.00045585915
86	0x3c4a0b22	0.012331756
87	0x3b324cd8	0.0027206447
88	0x3aa67588	0.0012699822
89	0x3c8e478c	0.0173681
90	0x3d8a05a2	0.067393556
91	0x3af66d97	0.0018800971
92	0x3cbc6399	0.02299671
93	0x3af91c28	0.0019005584
94	0x3ba5a8a6	0.005055505
95	0x3bb83656	0.0056217117
96	0x3934804e	0.00017213935
97	0x38e1d481	0.00010768418
98	0x375576c6	1.2723443e-05
99	0x39d1f4c4	0.0004004595
100	0x381d2087	3.746201e-05
101	0x39165d7b	0.00014339939
102	0x388d69f0	6.743136e-05
103	0x391ec313	0.00015140725
104	0x3880e039	6.14528e-05
105	0x37344e57	1.0747076e-05
106	0x393b7fa0	0.00017881254
107	0x3901b07c	0.00012368144
108	0x370aba6e	8.2688475e-06
109	0x36f894fd	7.4083205e-06
110	0x37b7c292	2.1905904e-05
111	0x3a11c2aa	0.0005560318
112	0x38a0e902	7.6727956e-05
113	0x366b3c6f	3.5052906e-06
114	0x37fadee9	2.9906123e-05
115	0x385c6da5	5.2554202e-05
116	0x384f1a44	4.9377108e-05
117	0x371a0ed3	9.182567e-06
118	0x3a240b63	0.00062578
119	0x36faf6b9	7.479303e-06
120	0x39d7b35b	0.00041141626
121	0x39980708	0.00028996938
122	0x37b6c6bf	2.1788639e-05
123	0x3994e8d6	0.00028402236
124	0x38093022	3.2708173e-05
125	0x39087804	0.0001301468
126	0x3834d945	4.3117692e-05
127	0x37ecc61b	2.8225642e-05

exp_avg f4 [128]
0	0xba79b275	-0.00095251884
1	0xb94bf249	-0.00019449847
2	0x3936c7b6	0.0001743127
3	0xba14172d	-0.00056492054
4	0x3ac22e99	0.0014814913
5	0xbb19fb1c	-0.002349562
6	0x3aa508d5	0.0012591133
7	0x3b9f8d0c	0.004869109
8	0xbaf8f5a0	-0.00189941
9	0x3a1f10db	0.00060678803
10	0x3ab345b2	0.0013677387
11	0xbb459484	-0.0030148337
12	0x3a708c60	0.0009176191
13	0xbaf264d5	-0.0018493185
14	0x397d9161	0.00024182118
15	0xbbfc9b71	-0.0077089597
16	0xbb5106f2	-0.003189501
17	0xb8ce0007	-9.8228506e-05
18	0x3afd3fb1	0.001932135
19	0x3af95ec4	0.0019025435
20	0xbacc7345	-0.0015598318
21	0xbacdb5d9	-0.0015694454
22	0xbbbdbf8c	-0.0057906564
23	0x3873a193	5.8086192e-05
24	0x39cf71fe	0.00039567047
25	0x3b14e2a3	0.0022718094
26	0xba1d0125	-0.0005989245
27	0xbb75ae0d	-0.0037487776
28	0xb9e9c02e	-0.00044584408
29	0xbb3f8c50	-0.002922792
30	0xb9ef8373	-0.0004568357
31	0x3ae555ee	0.0017496923
32	0xbb0ef03d	-0.0021810674
33	0x3a19e1dc	0.00058701425
34	0x3925a09b	0.00015795456
35	0xb9b1b904	-0.00033897918
36	0x3a5e082b	0.0008469845
37	0xbb3549bf	-0.0027662364
38	0x39b7e7e2	0.00035077246
39	0x3b8c7492	0.004286357
40	0xb9ea4227	-0.00044681245
41	0x3816fddd	3.5999215e-05
42	0x38d841ca	0.00010311937
43	0xbba15602	-0.004923583
44	0x39936b65	0.0002811804
45	0xba3a75bd	-0.0007112881
46	0x3a82335f	0.0009933523
47	0xbbe0a343	-0.0068554
48	0xbb07e3af	-0.0020735075
49	0xb7cd5308	-2.4476569e-05
50	0x3ad4dafe	0.0016239581
51	0x3a1098c4	0.0005515928
52	0xba4197e1	-0.00073849974
53	0xbab8433e	-0.0014058126
54	0xbbd90ac7	-0.006623599
55	0x3afdc8b0	0.0019362178
56	0xb92ca105	-0.00016463183
57	0x3ba8fa0e	0.005156762
58	0xbb9b6f7e	-0.0047435155
59	0xbb65b373	-0.0035049587
60	0xbab5cdf7	-0.0013870586
61	0xbb0d8b4f	-0.0021597927
62	0xba005ae5	-0.0004896357
63	0x38aa5cb5	8.1235e-05
64	0x3d75fcf0	0.060055673
65	0x3c457992	0.01205291
66	0xbc381ef5	-0.0112378495
67	0x3c7c416e	0.015396459
68	0x3bc65d8f	0.0060536335
69	0xbc7976ed	-0.015226108
70	0xbddbaa63	-0.10725858
71	0x3d03a934	0.032143787
72	0x3c07ed60	0.008296341
73	0xbc10cd6b	-0.008838038
74	0xbd232746	-0.039832376
75	0x3bc5ba1d	0.0060341493
76	0x3ca6b3b5	0.020349363
77	0x3ce8c54a	0.028414387
78	0x3bcbf346	0.006224069
79	0x3cc8c105	0.024506101
80	0x3c5968fd	0.01326966
81	0xbbd79193	-0.006578633
82	0x3c84aab2	0.016194675
83	0x3d25d5af	0.040486988
84	0xbc4b9e19	-0.01242783
85	0xbbe7a65a	-0.007069391
86	0x3d254ffc	0.040359482
87	0xbb071865	-0.0020613906
88	0x3b2246a9	0.0024761355
89	0xbc5dc7d8	-0.013536416
90	0x3d5cc1b5	0.05389567
91	0xbc637c41	-0.013884605
92	0xbd6a4284	-0.05719234
93	0x3c83d09a	0.01609068
94	0xbc8eba7b	-0.017422905
95	0xbcc0c928	-0.023533419
96	0xbb3c965f	-0.0028776152
97	0x3939637f	0.0001768004
98	0x39573327	0.00020523054
99	0x39ac0085	0.00032806784
100	0x3af1dd38	0.0018452769
101	0xbae54cec	-0.0017494238
102	0x3af223f3	0.0018473848
103	0x3b8ae845	0.0042391145
104	0xbac75124	-0.0015206677
105	0x3a85169a	0.001015383
106	0x3b0037a4	0.0019564414
107	0xbb92b448	-0.0044770576
108	0x3a5feda2	0.0008542185
109	0xba86f461	-0.0010296219
110	0x39c6cf87	0.00037920123
111	0xbbe628a8	-0.0070238896
112	0xbb23ea59	-0.0025011508
113	0x39393f6b	0.000176666
114	0x3b27145c	0.0025494313
115	0x3ad5a1c6	0.0016298823
116	0xbb42a532	-0.0029700515
117	0xbaab82fe	-0.0013085303
118	0xbbb1cdd5	-0.0054261484
119	0x3a8c2456	0.0010691981
120	0xb9eba7dc	-0.00044947758
121	0x3bf135c5	0.007361146
122	0xba747584	-0.00093253725
123	0xbb6d3185	-0.0036192846
124	0xb9c928bd	-0.0003836806
125	0xbb3fc6df	-0.0029262824
126	0xbaab2520	-0.0013057329
127	0x3aad63df	0.0013228616
