code/logs/epoch=8-step=14103.ckpt (torch, 219439 bytes, 87 tensors)

model.upscale.weight f4 [32, 1]
00000000: c823 403f 9bc0 6abf cba9 9a3e 0887 3c3e
00000010: 36ce 533e 3270 273f 2fa7 173f e85c 653e
00000020: 6d24 88bf 2bd9 51bf de16 683f d988 5a3e
00000030: f1d8 8c3e 4a1c 2c3f 150d 99bf 621b 183f
00000040: 5169 88bf ad73 d4bb dbf3 3d3f f14d 913e
00000050: 25aa 33bf c0d2 83bc 189a efbe f193 a03e
00000060: 146a 91bf e982 b6be 96d2 24bf 3658 07bf
00000070: 1198 6f3f 100d 60bf 7839 7cbf ecdd 34be
0.750546 -0.9170014 0.30207667 0.18410885 0.20684132 0.6540557 0.59239477 0.22398722
-1.0636116 -0.81972 0.9065989 0.21341266 0.27509263 0.67230666 -1.1957117 0.5941678
-1.065714 -0.006483516 0.7420022 0.28379777 -0.70181495 -0.016091704 -0.46797252 0.3136287
-1.1360497 -0.35646752 -0.6438383 -0.52868974 0.9359141 -0.8751993 -0.9852519 -0.17662781

model.upscale.bias f4 [32]
00000000: 7255 6dbf 6f4a 2fbd 9721 bf3e f958 2a3f
00000010: f377 04bd 0464 2d3e 58c3 15bd 1188 7cbf
00000020: c3e4 bcbe 9a75 f6bd e7cd 5f3f 196b dc3e
00000030: c8e3 eabd c17f f13e 8412 81bd 4172 c73d
00000040: 4b23 833e 0f13 24bf fb5a c13e 4ac7 12be
00000050: 8e0a 223f 829f 61bf 22ea e53e d166 05bf
00000060: e7a4 d63d 9155 473e 1111 b3be bf5d dc3d
00000070: af9b 1f3f 073c 983e e718 ee3e 59f1 133f
-0.92708504 -0.042795595 0.37330315 0.6654201 -0.032340955 0.16932684 -0.036563247 -0.9864512
-0.3689328 -0.120341495 0.8742356 0.4305046 -0.11469227 0.4716778 -0.0630236 0.09738589
0.25612864 -0.6409158 0.37764725 -0.14333835 0.63297355 -0.88134015 0.44905192 -0.5211001
0.104806714 0.19466235 -0.34973958 0.10760068 0.6234693 0.29733297 0.46503374 0.5779014

model.spatialSeq1.0.msg_mlp.0.weight f4 [16, 64]
00000000: b4a9 dd3d 3b6e 4cbe 83ce 663d 7e3c d73c
00000010: 23f2 ba3b b3f6 10be adf1 45bd 4308 1abe
00000020: f907 aa3e 51ca 51be 5541 ddbd efb9 0e3e
00000030: 48fb 463d df3d 383d a9d3 68bd b4a8 e8bd
00000040: 1046 593c 30a0 3bbe 07b0 e5bd fb7b dabb
00000050: f0ed 013e c0df 3c3d 0867 793d 63a9 553d
00000060: aaad 00be 274e 1bbd 289c fd3e 9a35 e8bd
00000070: 6549 f93d 9b28 19bd 238a 60bd c8e6 7dbd
00000080: 192e ebbe 5252 ccbe e660 1d3d 281e 8c3d
00000090: dea3 3ebd 0608 4c3d b7bc 9ebd daa6 2dbe
000000a0: d250 32bf dde3 20bf 6352 db3d cceb 17bc
000000b0: a5fb a2be 6028 973c a0d4 3ebf 5b5e 52be
000000c0: ceb7 afbe 8cdd 88bc d6e9 45bd 6e4a babe
000000d0: 17b4 303d ee75 a33d 3403 483c 39ff 3cbe
000000e0: 7d0b 91be 9af5 53be cec7 12bf f677 50be
000000f0: a0d0 dc3b 8490 b4be 0f4b 94bd f6e8 253e
00000100: ebe6 08bd 2ae9 483e 425c 03be ee2b 36bc
00000110: 2033 423d cf17 223c cc9e f43d c5bd 99bd
00000120: c433 19be 55c0 443e 63f5 333d 68b6 a23c
00000130: e53c 163e c1a5 75bd a1cf 5e3e 6092 6a3b
00000140: 602a 183d 5b93 3bbc d8a6 b7bd 3774 913d
00000150: 04bb 923d 20e2 da3d 764b cabb a8b6 9e3d
00000160: 61ab 2e3e 9591 4bbd 1f39 7abe 6459 6a3d
00000170: 9fec 08be cf79 123e 381e de3c a038 0cbb
00000180: 1f12 03ba 453d 953e 909d b73d 266a cbbd
00000190: addc d8bd 3c1c e4bd a1dd 2bbe aeda 07bd
000001a0: 3008 353e de0b cf3d b052 d5bc aada acbd
000001b0: eca2 91bd ceb5 35be a570 603e 5999 3abe
000001c0: 270c 123e 75c9 f23d a301 f0bd 59c6 17bd
000001d0: e5fe 99bd 3041 efbc ec8f 0a3e 8686 e8bc
000001e0: 3c65 d63d 85e3 3d3d 653a 6d3e d046 443c
000001f0: 6d5a c93c b2ef 613e b7e7 013c 8a18 abbc
00000200: 11bd 28be 8448 e0bc b17e ce3c 8bff 69bd
00000210: ef9e 4b3d 82c4 f5bd aae6 953d 252b 40be
00000220: 18d4 d73e 8da3 ea3d 8a8c d23b 4409 0e3e
00000230: 6133 0dbe 9049 afbd 94a4 b83d 7d2b 64bd
00000240: 3234 103d c09f 91bd e729 2d3d a593 9a3c
00000250: 5af1 e2bc 801e aabd d85b 74bd adf7 6fbe
00000260: f65c a63d b875 3ebd 84c1 4b3f 7e30 af3d
00000270: d376 8e3d 3c43 26bd bb89 013d 9c69 003e
00000280: e91c e3bc 1791 23be 47d0 983c ac21 58bd
00000290: 8af5 413d 6482 ab3b eb7a ccbd 0c50 22bd
000002a0: 450d 24be 3318 21bd 2791 9b3c b1df 923c
000002b0: a04c 873c 7e4d 29bd 6c7e 48be 4d10 a23d
000002c0: 3c93 09be 3043 0c3c d027 8f3d 93ab a23d
000002d0: 476c f2bd a073 94bc df2d 60bd 61b7 26bd
000002e0: 4a05 35bb f87a 43bd 6075 1ebf 4092 ddbd
000002f0: 1f45 b83b 78eb 3fbe 75bb 2fbe aa36 113b
00000300: 3cc6 2ebe 6d87 c63c ac5a 1cbe 9e34 27be
00000310: c9b4 47be d543 3abe 60fd f3bd 745d 5f3d
00000320: 69ad 66be ada9 40be 2942 46be 8b67 2dbd
00000330: 8caa 8cbe 376c 44bd db9e 5fbe ed59 65be
00000340: e8cd a6bd bb20 dabd 1a51 8dbe 5d7f 79be
00000350: da84 c03d 60ce 643d f034 61bb 0805 41be
00000360: 7688 bb3d 7bf6 55bd f81a 22bf 1f74 bcbc
00000370: e4f0 c8bd 3fc9 b3bd 547a 723d 71f5 2cbd
00000380: a5f6 673e 9c91 9f3e e491 fb3d eb70 d23d
00000390: ad25 583d 5e3f ce3d efd4 6a3e 9b58 2c3e
000003a0: a977 203e 7e4a 573e 5fca 4f3b 567c 20bd
000003b0: 332d 553d 27b4 22bd 300f 3f3e 17d9 443e
000003c0: bfd1 573e ec4c 333e 15f0 aa3c 8ddf 353e
000003d0: 585a 013d 6849 cf3c a3d0 42bd 85b4 c73d
000003e0: 0adb e13d a5e2 bf3d d6a8 16bd 39a0 023e
000003f0: b60a 383e e309 d6bc 6e3d eb3d 141e cb3c
0.10823384 -0.19963925 0.05634929 0.026273962 0.0057051345 -0.14156608 -0.048326183 -0.15042214
0.33209208 -0.20487334 -0.10803477 0.13938116 0.048579484 0.04498088 -0.05684248 -0.113603026
0.013261333 -0.18322825 -0.11215215 -0.0066676117 0.12688422 0.046111822 0.060889274 0.052163493
-0.12566248 -0.03791633 0.495332 -0.11338349 0.12172202 -0.03739224 -0.054819237 -0.06198767
-0.45933607 -0.39906555 0.038422488 0.06841689 -0.046542995 0.04981234 -0.07750838 -0.1695818
-0.6965457 -0.6284769 0.107090734 -0.009272527 -0.31832615 0.01845187 -0.7454319 -0.20543806
-0.3431992 -0.016707204 -0.048318706 -0.3638491 0.043140497 0.07981478 0.012207795 -0.18456735
-0.28329077 -0.20699158 -0.5733613 -0.20358261 0.006738737 -0.35266507 -0.07240879 0.16202149
-0.033423346 0.19620195 -0.12828162 -0.011118872 0.047412038 0.009893372 0.119443506 -0.07506899
-0.14961153 0.19213994 0.04393519 0.019862369 0.14671667 -0.05997253 0.21758892 0.0035792813
0.037149787 -0.0114487065 -0.0896737 0.07102244 0.07164577 0.10687661 -0.0061735464 0.07749683
0.17057563 -0.049699385 -0.24435852 0.057214156 -0.13371514 0.14304279 0.027114019 -0.0021396056
-0.00049999537 0.29148307 0.089655995 -0.099323556 -0.105889656 -0.11138198 -0.16783763 -0.033167534
0.17678905 0.10109685 -0.026040405 -0.08440144 -0.07111153 -0.17745134 0.2191797 -0.1822256
0.14262448 0.11854831 -0.11719062 -0.037054393 -0.075193204 -0.029205889 0.13531464 -0.028384458
0.10468528 0.046359558 0.23166807 0.011979774 0.024579251 0.22064093 0.00792878 -0.020885725
-0.16478373 -0.027378328 0.025206896 -0.05712847 0.049712118 -0.120003715 0.07319386 -0.18766458
0.42154002 0.11456976 0.006425445 0.13870722 -0.13789131 -0.08558953 0.09015766 -0.055705536
0.035206027 -0.07110548 0.04227629 0.01886923 -0.027702976 -0.08306599 -0.0596579 -0.23434325
0.081232 -0.046498984 0.79592156 0.08554171 0.06956258 -0.040591463 0.03162549 0.12540287
-0.027723746 -0.15973316 0.018654002 -0.052766487 0.047353305 0.0052340496 -0.09984382 -0.03962712
-0.16020687 -0.03932972 0.018990112 0.01792893 0.01651603 -0.041333668 -0.19579476 0.079132654
-0.13435072 0.008560941 0.069900155 0.079428814 -0.118370585 -0.01812154 -0.054731246 -0.040702228
-0.002762156 -0.047724694 -0.6189785 -0.108189106 0.0056234743 -0.18742168 -0.17161353 0.0022157826
-0.17067808 0.024234498 -0.15268964 -0.16328666 -0.19502558 -0.18189938 -0.11913562 0.054532483
-0.22527088 -0.18814726 -0.19361176 -0.042335074 -0.27473867 -0.047954764 -0.21837942 -0.22397585
-0.08144742 -0.10650774 -0.27600938 -0.24364991 0.094003394 0.055860877 -0.0034363829 -0.18849576
0.09156887 -0.052237015 -0.633224 -0.02300459 -0.09811571 -0.08778619 0.059198692 -0.04222626
0.22652681 0.3116578 0.12283686 0.10275444 0.052770305 0.1007068 0.2293279 0.16830675
0.15670647 0.2102451 0.0031706316 -0.039181076 0.05204506 -0.039722588 0.18658137 0.19223438
0.21076106 0.17509812 0.020866433 0.17761059 0.0315803 0.025303558 -0.047562253 0.09751228
0.110281065 0.09369401 -0.03678211 0.12756433 0.17972836 -0.026127761 0.11486326 0.024794616

model.spatialSeq1.0.msg_mlp.0.bias f4 [16]
00000000: 5456 d73c dcd5 eabd 516c 08bd 4f80 733d
00000010: 3264 663d 0ea9 1bbe fac0 4a3c 7f4d b63b
00000020: 5354 f63d 0bc0 ddbd 5375 82bc d355 fc3d
00000030: f1e5 c8bb 0771 363d e10e b8bd 4c35 223c
0.026286282 -0.11466572 -0.033306424 0.059448536 0.056247897 -0.15201208 0.012375111 0.0055634375
0.12027802 -0.10827645 -0.015925085 0.12321057 -0.006130927 0.044541385 -0.08987213 0.009900402

model.spatialSeq1.0.msg_mlp.2.weight f4 [32, 16]
00000000: 66d4 d83d b850 fdbd 0e50 ab3d ce6a 61be
00000010: f3a7 b1be 60d6 b43d ca3e 0bbe aab6 3abd
00000020: 19ce 293c 176c 38be eb7d 4d3e fc82 463d
00000030: 38fb 62bd 962b d2bc f57d 0dbe 94e1 4f3c
00000040: 70cf 8ebe bbb4 c2bc 612d 13be 7c8c 17be
00000050: e126 96bd 891c a43d 607e cabe 0d32 af3d
00000060: 683f 46be fcb9 8bbd 74fc b13b 06da 3f3e
00000070: bd73 82be 5d4a 8d3d a037 d1bd 1c13 0dbe
00000080: 4198 263e 2e30 783c 07c2 293e d5d2 07be
00000090: 483b 0f3e 5b90 8b3d b182 76bc 1ad6 f3bb
000000a0: 4f44 ffbc 58da 24bd 59a2 26be b29b 47be
000000b0: cb08 7fbe 65a0 e93d 8db0 1cbe 0001 163c
000000c0: 3302 213d 4bec 95be 2b42 d83d bf9f 64be
000000d0: 180c 17bf 9196 16bd 5419 21be cc35 c53d
000000e0: ac11 0b3e f4f5 38be 35a9 0dbe fa02 e8be
000000f0: 35e6 01be f5f7 89be 6c04 47bd 4a1f 863e
00000100: 6001 9bba 1085 58bd 415e e0bc 0155 49be
00000110: 3222 263d 924b 71be d5bd b1be b1ce 94bd
00000120: 867c a6bd 5100 d1bd 054e 39be 39b3 95bc
00000130: 1307 dd3a 06ff 473e 481f e4ba 7dc9 2cbe
00000140: 5dd6 913d d2b8 463e 9ada 80bd 4a23 a6bd
00000150: caa1 8e3c 1277 f5be 78d4 c6bd caee d2bd
00000160: 0057 03bc 21f1 183d 2316 fc3d 0192 41be
00000170: 7bd5 bbbd c23c 613b 8d4d d03d aac2 d03d
00000180: 8ea1 ef3d 894c 3dbd d900 bebd e203 c93d
00000190: ac29 b33c 0181 99bd 90a4 36bc 4500 063e
000001a0: 13c9 3abe 1371 c03d a74c 9abe 6944 79bd
000001b0: 3b6a f5bd 7cc5 253e 049b 68be 9d14 4f3e
000001c0: 8a1f 113d e6ad cbbc aac0 863d dd2d b23d
000001d0: 8fb2 073d 4eea 79bd 6260 133e f2d5 0ebd
000001e0: f0c9 c1bd b6b3 6f3c f6f2 b7bd 0c6d ba3d
000001f0: 0668 8cbe 0e2d 48be ff7c 15be 39fe 003e
00000200: d93e 41bc 6c63 13bc 96a0 e0bd babb 04be
00000210: 3574 d93c 4994 e6ba 31ba 8cbc 8778 43be
00000220: 61ab 823d 0b53 f6bc 357c b8bd 5296 333b
00000230: 35ba 803e c661 cf3d 3f75 7ebe 3a0f 813c
00000240: d059 833e 3a38 b63d 3149 6e3d 8787 ce3c
00000250: e855 13bd 3f76 d7be 415b 26be 0331 193d
00000260: f59c be3d 1003 3ebb 3aeb bebd e1cd 90bd
00000270: 9710 643d 292d 0f3c ef2f 96be 77b4 bdbe
00000280: 9ae8 28bc b5ff 81bc 3a03 dfbd 03b1 0d3d
00000290: 9634 ae3c 3226 93bd 4cdc 413e 8907 eabd
000002a0: 54c5 67be badb c2bd 2d07 58be 844c 143e
000002b0: 14de 44be eb05 803d 0579 76be 02e6 893e
000002c0: 6c80 8b3d 74c4 693d 1c16 5d3d 17af ab3d
000002d0: 0300 a43d ba47 eebd f6cc c03e ec31 95bd
000002e0: 3d6a 543e b0bf 38b9 cb23 be3d de44 34bc
000002f0: 5237 713d 72e1 80be bacf 4abe 2077 94be
00000300: 1628 9c3d 0f67 d8bd aba1 f03d 3fa4 85be
00000310: 9eaa a7be a6c0 fe3a eba0 ae3d 8220 63be
00000320: 8488 043d fde7 5b3e 5fcc 80bd 514a 3f3d
00000330: 7f69 e63c e052 d73d 5c07 cebc b75e f4bb
00000340: dfea ed3d 73fe 26be 6e3a 643d 65a0 27be
00000350: 3983 2a3e b2de b9be 0608 f6be 3609 b1bc
00000360: fdc2 793e bc8d af3d 8d01 d83c a6fd 3a3b
00000370: bb3f 80bd ab82 3ebd 2762 6e3d 5a62 bcbd
00000380: 4405 cabe c01f 77be d90e 02bd 6331 9cbe
00000390: cb1a 84be 2077 10bd 5989 8bbd 7dee c0bb
000003a0: 948e e1bd 5247 1e3e 95e3 d53d 79b2 40be
000003b0: e9ef cf3c e791 dabd 2426 fd3d 44fd 403e
000003c0: 63d2 233d 8aa4 89bd 2d8c bebc 1fe5 1a3d
000003d0: 052a 5b3e 683e d7bd 55c8 8abe d62f b73d
000003e0: 23be d7bc d937 413e 2a1f 0a3c a7b4 f53d
000003f0: b7e3 2fbe d56a 3dbe b363 70be edc7 8abe
0.10587387 -0.123689115 0.083648786 -0.22013399 -0.34698448 0.08829951 -0.13598171 -0.04558436
0.010364079 -0.18009983 0.20067565 0.04846476 -0.055415362 -0.025655549 -0.1381758 0.012688059
-0.27892637 -0.02376782 -0.1437278 -0.14799684 -0.07331634 0.08013255 -0.3954954 0.08554468
-0.19360125 -0.06822583 0.005431706 0.18735513 -0.25478926 0.06898949 -0.10215688 -0.13776821
0.16269018 0.015148206 0.16577922 -0.1326402 0.13987458 0.06814643 -0.015045808 -0.0074412944
-0.031160502 -0.04024729 -0.16272868 -0.19492987 -0.24905698 0.11407546 -0.15301724 0.009155512
0.039308738 -0.2928184 0.105594955 -0.22326563 -0.5900283 -0.036764685 -0.15732318 0.096294016
0.1358096 -0.18062574 -0.13834079 -0.4531477 -0.12685473 -0.2694699 -0.0485882 0.26195747
-0.0011825971 -0.052861273 -0.027388694 -0.19661333 0.040559955 -0.23563984 -0.34715143 -0.07265986
-0.0812922 -0.102051385 -0.18096168 -0.018273937 0.001686307 0.19530877 -0.0017404342 -0.16873737
0.07120965 0.19406441 -0.06291695 -0.081121996 0.017411131 -0.47942406 -0.09708494 -0.10299452
-0.008016348 0.037339333 0.1230891 -0.18903352 -0.091715775 0.003436849 0.10171042 0.10193379
0.11700736 -0.046215568 -0.092775054 0.09815194 0.021870457 -0.07495309 -0.011147633 0.1308604
-0.18240766 0.09396567 -0.30136606 -0.060856257 -0.119831525 0.16188616 -0.22715384 0.20222707
0.03543047 -0.024863195 0.065797165 0.08700154 0.03312927 -0.061014466 0.14392236 -0.034872003
-0.09462345 0.014630249 -0.08981888 0.0910283 -0.27423114 -0.19548437 -0.14598463 0.12596978
-0.011794769 -0.008995872 -0.10968129 -0.12962237 0.02654467 -0.00175918 -0.017178627 -0.19088946
0.06380344 -0.030068895 -0.090080656 0.002740283 0.25142065 0.10126071 -0.24849413 0.01575433
0.2565446 0.08897443 0.05817527 0.025211109 -0.0359706 -0.42082402 -0.16245748 0.037400257
0.09307281 -0.0028993525 -0.0932221 -0.07070518 0.055679884 0.008738794 -0.29333445 -0.37051746
-0.010309363 -0.015869 -0.10889287 0.03459264 0.02126531 -0.071850196 0.18931693 -0.114272185
-0.22633868 -0.09514566 -0.21096487 0.14482313 -0.19225341 0.06251129 -0.24069603 0.26933295
0.06811604 0.057072118 0.053976163 0.08383005 0.08007815 -0.116347745 0.37656373 -0.072849125
0.20743652 -0.00017619017 0.09284171 -0.011002747 0.05889065 -0.25172 -0.19805804 -0.28997135
0.07624833 -0.10566532 0.11749586 -0.26101872 -0.32747358 0.0019436076 0.085267864 -0.2218037
0.032356754 0.21475215 -0.06288981 0.046701733 0.028126476 0.10513854 -0.025149994 -0.00745758
0.11617064 -0.16308002 0.055719785 -0.1636978 0.1665162 -0.36302716 -0.48052996 -0.021610837
0.24390788 0.085719556 0.026367927 0.0028532534 -0.062621556 -0.046511333 0.058199074 -0.091984466
-0.39457142 -0.24133205 -0.03175244 -0.3050643 -0.2580169 -0.035269856 -0.06813306 -0.005887805
-0.11013523 0.15456894 0.104437985 -0.18818082 0.025382953 -0.1067236 0.1236079 0.18846613
0.039995562 -0.067208365 -0.0232602 0.037816163 0.21402748 -0.1050995 -0.27105966 0.08944671
-0.026335781 0.1886896 0.008430282 0.11997347 -0.1717671 -0.18497784 -0.23475532 -0.27105656

model.spatialSeq1.0.msg_mlp.2.bias f4 [32]
00000000: 0744 6bbe 8f27 4e3d 0cf9 083e 3b25 11bd
00000010: 4e25 acbd 219e 38be 3ef2 ab3d 07f8 3b3e
00000020: 4524 233e 61c3 f03c 7d25 603d e4fc 5c3e
00000030: db08 1a3e e5be 413e 005e e03d 11b3 4c3d
00000040: d482 22bd 8835 903d 8909 f3bd 5a12 7ebd
00000050: 9e79 393e 5392 fcbd 12dc 6cbd 5c61 a43d
00000060: 3aa4 f9bc b76f 4a3e da4e 40be 377d 10be
00000070: 54d8 813d a28c b9bc b201 85bc 11e7 6b3d
-0.22975169 0.050330695 0.13376254 -0.035435896 -0.08405553 -0.18029071 0.083958134 0.18356334
0.15931804 0.029390039 0.05472325 0.21580845 0.1504244 0.18920477 0.10955429 0.04997546
-0.03967555 0.0704146 -0.11867053 -0.06202922 0.181128 -0.12332597 -0.057827063 0.08026382
-0.030473817 0.19769178 -0.1878008 -0.14110266 0.063400894 -0.022650067 -0.01623616 0.05759341

model.spatialSeq1.0.gate_mlp.0.weight f4 [1, 32]
00000000: 1d0e 943e 5e65 d03c 0961 523d a40d 953e
00000010: bc48 64bd 7a79 683d e82c d2bd 3b5f 43bd
00000020: 4e31 b2bd 585d 66be 4277 883c af7b 1dbe
00000030: 1ebe ea3d 3362 0bbe bd8b a73d fce4 863d
00000040: 31f3 b53d c9b7 cebd 9db6 fa3d 9895 6d3d
00000050: 6423 b73d 171c bb3e c51f 9c3e 0a86 763d
00000060: ba3c 4f3d ded9 13bd 6fa9 5f3b f498 e13c
00000070: c2a1 d73a 6750 bdbc 5654 30bd 78ec 673c
0.28917018 0.02543896 0.05136207 0.2911197 -0.055733427 0.056756474 -0.102624714 -0.04769824
-0.087008104 -0.22496545 0.016658429 -0.15379213 0.11462043 -0.13611679 0.0818095 0.06586644
0.08884276 -0.10093648 0.12241862 0.05800399 0.08942297 0.36544868 0.30492988 0.060186423
0.050595023 -0.036096446 0.003412809 0.027538754 0.0016451406 -0.023109628 -0.04304918 0.0141555

model.spatialSeq1.0.update_mlp.0.weight f4 [32, 64]
00000000: 5ac8 433d 6800 d3bd 6f45 01bd cc11 c13b
00000010: 2b9d 013e c682 5bbc 668c 893c 9684 17be
00000020: 78b9 9d3d 3c18 e5bc e4e1 c3bd d82e 31be
00000030: 3a81 c23d a5ff 1bbe 0ffb 273d c91d cfbb
00000040: ad29 d9bd 3ee5 003d 8c18 e03d 566c 0ebd
00000050: fb30 80be 64cb 603d b731 5a3d ef13 a0bd
00000060: dfbf 5abe 01a2 e13d cb74 033b f445 4f3c
00000070: d962 11bd 85fa 273d fd2e 6c3c 933a a0bd
00000080: 646f 773d 9dd1 5ebe 590f 093e ea3e 83bd
00000090: d802 debc 2500 e4bc d597 703d 3bdc dc3c
000000a0: 0352 adbd feff 8ebe 1f6d 4cbc e0ba 02be
000000b0: 6256 3ebd f555 7d3c 445b eabe 7706 adbc
000000c0: 571a 66be 80f0 98bd 0565 223e e434 9abd
000000d0: 9cba f9bd e41a 2abd 731c e7bd effc cdbd
000000e0: 45a5 41be 0ad7 43be f3de 1ebf 4b15 6ebe
000000f0: bc47 5abd 17f5 4abe 2533 11be d885 a5bd
00000100: 83f9 133e c7f2 64bd b0ab 46be 3b5f 3bbd
00000110: d551 15be b04a 133e a458 65bd bde5 cbbd
00000120: 9dd0 92be c818 a6bd 3e16 953d c882 02be
00000130: 7ca9 453a ba0c 2ebe c422 5a3d 8b1a 3abe
00000140: 3253 8bbd cf0c 98be b36a dd3b 8b91 193e
00000150: 88fe aebd 0e19 213e dbbd 663e 4e22 35be
00000160: d0fb 953d 53cd cfbd 3f4e 623e 4ba5 4f3e
00000170: aa66 fa3c 7461 cebe ef81 b5bd 575e 583d
00000180: 330f c5bd dea8 7abe 5c65 af3d 930e 663e
00000190: e21c e53d 9b37 393d 0665 903d ad17 3ebe
000001a0: 3876 8bbe dd63 3fbe 5bc2 693d eef9 163e
000001b0: a602 a2ba ec27 133c f954 cdbd 0e66 9bbd
000001c0: e261 febd 377c f53d 0ac4 243e db00 04bd
000001d0: 6106 c63d 2069 f0bd 4da3 2b3e d51d 58bd
000001e0: 3620 a2bd 2837 dcbd 8a68 7f3b eda1 bcbd
000001f0: 444c d23d 0492 2fbd 9de3 cfbd b0ee 423e
00000200: 6847 fdbd 6eba b1bd 4828 44bd c761 b6bd
00000210: 87cd a43d 98a3 463d 3f37 58bd 3d53 6fbd
00000220: 21a8 f7bc 063b c73d 8df4 bbbc 2231 173e
00000230: 4f4c b53d a9e7 3c3d 51d4 933c c957 0abd
00000240: d51f 273d 60c1 a53d 31d1 3cbe 2876 a8bd
00000250: 5e6c beb9 29cc 11be 0e63 dbbc 4024 f63d
00000260: 821f 1dbe 0475 a63d 4355 cc3d 8c3d 0abe
00000270: 4694 023e 2132 9f3d 9df0 343e 01bb 63bd
00000280: 8fef 813c 2622 5cbd 44d4 07be 806a 8dbd
00000290: 62e2 80bc 6c28 003c fd88 8dbd 5e95 dd3d
000002a0: 492a 69be 05f8 23bd 4169 4dbe dd80 083d
000002b0: ce14 44be 17ee 6cbd 8cbd 23be c819 203c
000002c0: 3124 a5bd 6c7e 8c3d 3455 49be c025 66be
000002d0: ef50 3c3d 0421 45bd 5b02 b23d 7ff3 a1bd
000002e0: 1cd8 4cbe bb35 a1bd acf0 fdbe 8d63 1bbd
000002f0: 0250 58be 9a17 44be 15bc 23be 695c 8e3d
00000300: fe6f f83c 6f1c 46bd f774 b1bd c461 983c
00000310: 3af4 3f3c f3cd 81bd 6090 a13d b1e7 fcbc
00000320: ca6f f6bc 79a6 f1bd 526a 14bd 3c14 e6bc
00000330: 155d a2bd e96b 2cbe 8018 d5bc 40b5 50bc
00000340: 5dae 53be 9955 733d 0c45 31be 8378 4cbd
00000350: 9092 b9bd 09cb f4bc 68da a8bd a6d1 3dbe
00000360: 9e63 9d3d 2fd7 153d 5f9f aabc e7fb ca3d
00000370: 91b5 183e 2316 4dbe 2093 2fbd 8660 b63d
00000380: 610c c13d e57f b3bd a6cb 913d 5461 cc3d
00000390: f7bc 363d feca d23c 863b f2bc bcc1 b9bb
000003a0: de05 90be c471 6bbd 50d2 093d 9ae5 a93c
000003b0: e060 733d 6483 07be d8f0 043d 0d10 25bd
000003c0: c7f6 033d de7c edbb da7d fdbb 98af 053e
000003d0: 5eb3 253d e03a 93bd 7d88 ba3d c709 1c3d
000003e0: 6204 043d 0de5 f73d ab03 45bf 813d 00bd
000003f0: b1d9 653d a3e3 df3d c916 423e cc34 15ba
0.047798492 -0.10302812 -0.031560358 0.005892014 0.12657611 -0.013397878 0.01679058 -0.14796671
0.07701391 -0.027965657 -0.095645696 -0.17303026 0.09497304 -0.1523424 0.041010913 -0.0063206893
-0.10603652 0.031468622 0.10942182 -0.034771286 -0.2503737 0.05488147 0.053270068 -0.07816302
-0.21362256 0.11017228 0.0020058628 0.0126509555 -0.03549466 0.0410104 0.0144155 -0.07823672
0.060408965 -0.21759649 0.13384761 -0.06408484 -0.027100965 -0.0278321 0.05873855 0.026960483
-0.08462908 -0.27929682 -0.012477188 -0.127666 -0.0464691 0.015462388 -0.45772755 -0.021121247
-0.22470985 -0.07467747 0.15858848 -0.07529619 -0.12193796 -0.04152955 -0.11284723 -0.10058009
-0.18910702 -0.19125 -0.62058944 -0.2325031 -0.053291067 -0.19820057 -0.14179666 -0.08082169
0.1445065 -0.055895593 -0.19401431 -0.045745116 -0.14581998 0.1438396 -0.055992737 -0.099559285
-0.28674784 -0.081101954 0.07279633 -0.12745202 0.0007540209 -0.16997042 0.05325581 -0.18174188
-0.068029776 -0.29697272 0.0067571043 0.14996926 -0.08544642 0.15732214 0.22533362 -0.17688867
0.0732342 -0.10146584 0.22100161 0.20277898 0.030566532 -0.40308726 -0.088626735 0.052824344
-0.0962204 -0.2447848 0.08564255 0.22466497 0.111871496 0.045219045 0.07050519 -0.18563719
-0.2723863 -0.18690439 0.057070117 0.14743778 -0.0012360408 0.008981686 -0.10025973 -0.07587825
-0.124210134 0.11986583 0.16090408 -0.03222738 0.096691854 -0.11738801 0.16761513 -0.052762825
-0.079163 -0.10752708 0.0038972222 -0.092105724 0.10268453 -0.04286386 -0.10150836 0.19036365
-0.12367135 -0.08678137 -0.047889978 -0.08905368 0.08047014 0.04849586 -0.05278706 -0.05842899
-0.030231537 0.09728055 -0.02294376 0.14764836 0.08852445 0.046119366 0.018045576 -0.033775125
0.04080184 0.08093524 -0.18439175 -0.082256615 -0.00036320364 -0.14238037 -0.026780631 0.12018633
-0.1534405 0.08127788 0.099772 -0.13500041 0.12751874 0.07773233 0.17669912 -0.055598263
0.0158613 -0.053743504 -0.13264567 -0.06905079 -0.015732948 0.007822137 -0.06910894 0.10819505
-0.22770037 -0.04003145 -0.20059682 0.03332602 -0.19148561 -0.057844248 -0.15990275 0.009771772
-0.080635436 0.068600506 -0.19661409 -0.22475338 0.04597562 -0.04812719 0.086918555 -0.07907771
-0.20004314 -0.078715764 -0.4959768 -0.037936736 -0.2112427 -0.19149628 -0.15989716 0.069512196
0.03032684 -0.04836696 -0.086648874 0.018601306 0.011715943 -0.0633811 0.078888655 -0.030872198
-0.030082602 -0.1179933 -0.036234207 -0.02808582 -0.0792791 -0.1683804 -0.02601266 -0.012738526
-0.20671983 0.059407804 -0.17311496 -0.049919616 -0.09061158 -0.029881971 -0.08244783 -0.18537006
0.07685016 0.03658217 -0.020827947 0.09911328 0.14913012 -0.20027976 -0.04286492 0.08905129
0.09426189 -0.08764628 0.07118921 0.09979501 0.044613805 0.02573156 -0.029569399 -0.005668847
-0.28129476 -0.057481542 0.033647835 0.020739365 0.05941856 -0.13233715 0.03245625 -0.04029851
0.032217767 -0.0072475513 -0.00773595 0.13055265 0.04045426 -0.07188964 0.09108064 0.038095262
0.032230742 0.12104235 -0.7695872 -0.031308655 0.05611581 0.1093209 0.18954004 -0.0005691766

model.spatialSeq1.0.update_mlp.0.bias f4 [32]
00000000: 7515 71bd 1074 6b3d 3ecd febd fec5 90bd
00000010: 72ef 54bd 881f 1dbe 4b92 babd 7df5 b33d
00000020: 4f48 f03d 8426 75bd 5e47 80bd 5676 1d3e
00000030: dde5 0f3e 1a8a 00bd 1613 263e cc27 8abd
00000040: e969 063e d32e b53d f80e 88bb 7cb1 e03d
00000050: cd8e 723d 65d8 7e3d 4369 b93d 729b 15bd
00000060: 946d 94bd 9aac e73d 13fe 0a3e 57d6 d6bd
00000070: 7c6f f8bc b0ab 40bd a65a b73d b541 95bd
-0.058858354 0.057483733 -0.124414906 -0.07069014 -0.051986165 -0.1534406 -0.091099344 0.087870575
0.11732542 -0.059851184 -0.06263612 0.15377173 0.1405253 -0.031381704 0.16218218 -0.06745872
0.13126339 0.08846822 -0.004152175 0.109713525 0.059218217 0.06221809 0.0905328 -0.036525197
-0.07247463 0.11312218 0.13573484 -0.10490101 -0.030326597 -0.047038734 0.08952837 -0.07287923

model.spatialSeq1.0.update_mlp.2.weight f4 [32, 32]
00000000: d855 eebd 0732 af3e 4a1b 5c3e 8515 7fbc
00000010: f730 083e 7ad5 a4bc ef0d 213e 64d1 643d
00000020: 0369 863e 8e85 29bd 6956 8bbb 379b 803e
00000030: 10cf 4ebe 958f 28be 153b 09be 66ee eb3b
00000040: e158 4a3e fb66 813e 18b0 733e bbce 783e
00000050: 4e08 a7bd f808 b23e 36d6 4d3e ea22 d73e
00000060: 62f8 083e 3bbe 1dbe 5eb8 1fbe 7002 063d
00000070: a1eb 373e 985f 43bc 6196 45be 1845 94be
00000080: 4b97 25be c9a4 07bd e718 173e 4fa1 65bd
00000090: 4445 f73c 5a33 62be 0699 713d 6d06 873d
000000a0: d437 33bd b7af d73d beae ba3d 7cdd 87be
000000b0: 04ea 94be e7fe 46be b336 bcbd 6f53 6dbc
000000c0: 7c80 02be cda2 85be f139 823c acbb 413e
000000d0: 11b5 2abe 5b11 2cbd 1c51 84be 9a46 3a3d
000000e0: 6f8d 05be c1e7 8a3d 6d12 66be 9144 263d
000000f0: 4715 56bd c1b8 ffbd 56dd 693e 592b 27be
00000100: bfb5 46be ff02 483e ed44 873d 2f8b 3bbc
00000110: 8121 7fbe 1bbf 14be 44f0 df3b b149 2dbe
00000120: 4859 a03e ecd6 943e 2eef 413d 9a48 3bbc
00000130: a238 69be 994c 343d 77ac 89bd 57ac 8d3d
00000140: 5e43 4b3e da42 16be 2252 353e 8eb5 de3d
00000150: 29f8 34bd e40f 403d 58b9 e33d 1301 bebd
00000160: 04a8 8dbe 9e94 293e df5b e63d 3b75 813c
00000170: d502 d2bd bd75 563e 5d39 843e 6379 883c
00000180: cf69 25be 26af afbd 4df7 8e3d 4133 8c3d
00000190: 1daa 7e3e ff36 8dbd fe2f 403d 559a cdbd
000001a0: 4fba de3d 305a e6bd 1542 67be 33d5 6dbe
000001b0: 5776 7cbe 6fab 27bd 27c3 2ebd a48a 99bc
000001c0: fc4d a53d 48c5 0fbe e4b6 11bd bd9a a8bd
000001d0: 95b5 09be 7351 cebd 1255 16be 7086 00be
000001e0: 898e a23d 6636 9f3c cc94 63be d606 aebc
000001f0: 2ffa 9bbe e261 a33c ac6b 81be 3970 2c3a
00000200: c82b 733d fa64 843d b1b2 0a3d 0ce1 afbd
00000210: 9a36 7d39 6c3f 3bbe be80 8fbd 0233 d1bc
00000220: 7187 9d3e 872b 6dbd 35bd c43c 74ca e03b
00000230: b769 3a3e 5ce2 3dbe dbf0 dc3c a4c8 d4bc
00000240: a939 89bd 83e9 abbb 55fd b2bd 8071 0abe
00000250: ad3f a73d a433 b93d 7f36 b73d 35bd 163c
00000260: 154a 3abd 1acb c03d 1156 843e c4dd 8cbd
00000270: ffbe 833c 9e55 2b3e b44a 4c3e 25fd 6abe
00000280: cb4b 3d3d e57f 88bd 27ad 46be 16b7 88bd
00000290: 8bc6 653d a17b 21be bfb2 a73d 080e 0cbe
000002a0: b48e 91bb 0180 d2bd 6e99 24be 8cd3 b63c
000002b0: 8385 d63d d4fe 573e bfae a7bc c017 94bb
000002c0: 021d 043e 6662 a0bd 1f1a 1dbe a3d9 48be
000002d0: 62cd 9d3d 7a30 823e f76a 293e d848 b83c
000002e0: dff5 7bbd 5873 fd3d 04ce 00bc d2e9 84bc
000002f0: abcd 7f3d 1cf6 423e aa10 06be fbd8 1e3d
00000300: b57c 643d 83fe b43d 957d 80be c9d0 a9bd
00000310: 0840 0f3d 3545 643c 9d18 eb3c 0ced 7e3c
00000320: 6442 433e 3f11 0c3d 8ac2 1c3e 06bc 26be
00000330: 0538 4fbe 1dcf 60bd 29ea 0dbe 7809 92bd
00000340: c37f da3d ef55 91be 61c3 963d 4f03 41be
00000350: eea6 1a3d 59bc f13d cd2b ceba 23f4 843e
00000360: f51c df3c 9cac 0cbd 2bc8 0ebe 3939 8ebe
00000370: c080 1ebe 4abc 5fbe 5b28 673e 06b7 33be
00000380: 8e50 963d be0c 9b3e 6f7e 34be 80ff d83a
00000390: b45f 903d 9a56 e13d b93b 853d 6f23 7fbc
000003a0: f6e8 9a3e 0553 883e 018b 84bc 2c54 2b3e
000003b0: 47b4 5abe 41b5 b73d bc12 823d 60ae be3b
000003c0: 3bb8 a73e 499f 823e d707 c43d d14b af3d
000003d0: 9668 b83d 542c 5a3e 501f e43d c408 2d3e
000003e0: f612 7ebe f20d 8f3d b224 bbbd 1a85 9bbc
000003f0: 61eb 0b3e 99f3 c03d e290 a83e 206e 3d3d
-0.11637467 0.34217855 0.21494785 -0.0155690955 0.13299929 -0.020121325 0.15727971 0.055863753
0.26251993 -0.041387133 -0.0042522443 0.2511842 -0.20196176 -0.16461022 -0.13401444 0.00720005
0.19760467 0.2527388 0.23797643 0.24297611 -0.08155881 0.34772468 0.20101246 0.42018825
0.13376 -0.15404598 -0.15597674 0.03271717 0.17960979 -0.011924647 -0.19295646 -0.28958964
-0.16170995 -0.033116136 0.14755593 -0.05606204 0.030184396 -0.22089902 0.058983825 0.065930225
-0.043754414 0.10531562 0.09115361 -0.26536167 -0.2908479 -0.19433175 -0.091901205 -0.014485224
-0.12744325 -0.2610077 0.01589677 0.18919247 -0.16670634 -0.04200874 -0.25843132 0.045477487
-0.13042234 0.06782485 -0.22467966 0.040592734 -0.052266385 -0.12486411 0.22838339 -0.1632513
-0.19405268 0.19532393 0.066049434 -0.011446758 -0.24915124 -0.14526026 0.006834062 -0.16922642
0.31318116 0.29070222 0.04734724 -0.011430884 -0.2277551 0.04401836 -0.06722348 0.06917637
0.19849917 -0.1467394 0.17707112 0.108744726 -0.044181976 0.046890154 0.11119336 -0.09277549
-0.27667248 0.16560599 0.11247992 0.01580297 -0.102544464 0.20943351 0.25825015 0.016659444
-0.16153644 -0.08578329 0.06980763 0.068457134 0.2486958 -0.06895255 0.04692077 -0.10039202
0.10875379 -0.11247671 -0.22583802 -0.2322586 -0.24654518 -0.040934976 -0.04266658 -0.018742867
0.08071515 -0.140401 -0.03557481 -0.08232639 -0.13448174 -0.10074129 -0.14680889 -0.12551284
0.07937343 0.019435119 -0.2222473 -0.021243494 -0.30464312 0.019944135 -0.2527746 0.0006578002
0.059367925 0.06464572 0.03386182 -0.08587846 0.00024148301 -0.18285912 -0.070069775 -0.025537018
0.30767396 -0.05790284 0.024016002 0.006860072 0.1820439 -0.1854338 0.026970318 -0.02597458
-0.06700451 -0.0052463426 -0.087397255 -0.1351986 0.08166442 0.09043053 0.08945941 0.009200384
-0.045480806 0.094137385 0.25846913 -0.06878236 0.016082285 0.16731879 0.19950372 -0.2294813
0.04621486 -0.06665019 -0.1940199 -0.06675546 0.05609755 -0.15769817 0.0818839 -0.13677227
-0.0044420604 -0.10278321 -0.16074154 0.02231767 0.10474684 0.21093303 -0.020469068 -0.004519433
0.1290169 -0.07831268 -0.15341996 -0.19614272 0.07705189 0.2542761 0.1654471 0.022495672
-0.061513778 0.12375516 -0.007861618 -0.016224775 0.062452 0.19039196 -0.13092294 0.038781147
0.055782992 0.08837607 -0.2509581 -0.08291776 0.034973174 0.013932516 0.02869826 0.015559446
0.19068295 0.034196135 0.15308586 -0.16282663 -0.20236214 -0.05488502 -0.13858856 -0.07130712
0.106689 -0.28385875 0.07361484 -0.18848918 0.037756853 0.118035026 -0.0015729606 0.25967512
0.027235487 -0.0343443 -0.13943546 -0.27778032 -0.15478802 -0.2184917 0.22573988 -0.17550287
0.07339583 0.3028316 -0.17626356 0.0016555637 0.07049504 0.11002846 0.06505532 -0.015572413
0.3025586 0.2662584 -0.016179563 0.16731328 -0.21357833 0.08970118 0.063512295 0.005819127
0.32757744 0.2551215 0.09571808 0.08559383 0.09004323 0.21305972 0.11138785 0.16897875
-0.2481192 0.06985082 -0.091378585 -0.018984366 0.13664009 0.094214626 0.32923037 0.0462476

model.spatialSeq1.0.update_mlp.2.bias f4 [32]
00000000: ed7a 41be a246 f8bc bc79 d1bc 04d7 8abd
00000010: 2941 99bd a31e e0bd f3c5 823d 8c29 71be
00000020: 2664 74be 6cbc 223e 8acb 67bd 369e b33c
00000030: bcce 3cbe 6cfa 9ebe dc0f 96be 9f92 e13d
00000040: 77cb 843d 11ef 02bb 3826 a3bd 0a30 a2be
00000050: 699e 423e 482d 293e 02d4 313e 3d95 11be
00000060: cf94 0f3c 6f9d 06bd 5c6c 973d 048e 563c
00000070: 699f 10be ae9c 81bd 2024 4dbd 4fda 2c3e
-0.18894549 -0.030307118 -0.025570743 -0.06779292 -0.074831314 -0.109433435 0.06385412 -0.23551005
-0.23866329 0.1589219 -0.056590594 0.021926027 -0.18438238 -0.31050432 -0.29308975 0.11014294
0.0648412 -0.001997892 -0.07966274 -0.31677276 0.19005741 0.1652118 0.17366031 -0.14217086
0.008763506 -0.032864984 0.07393715 0.013095383 -0.1412331 -0.063287124 -0.05008328 0.16880153

model.temporalSeq.0.attention.in_proj_weight f4 [96, 32]
00000000: 926e 14be 18ce 9d3d 6bf7 d6bc 94e6 ad3b
00000010: 2ae8 8c3d 5686 b1bd 0291 8d3d efff 10be
00000020: e37a 8cbd a29e 0c3f 0291 08be 6a0d 48bd
00000030: 2ca1 0bbe 7086 43bd 1729 02bf 195f 843e
00000040: 8931 3b3f 0531 a0bd a12c 123d feb7 e33d
00000050: 6329 a53e 9ee1 38bd 4109 5d3f 310f 35bd
00000060: 59ef 873e 1622 3bbe 0fad 153f bf8a 963e
00000070: d8d3 cc3d b93f 9f3e a325 643e ba3a 8d3e
00000080: 826c 5dbd 1629 4f3d e6b8 27be d00e d23d
00000090: c815 a63c 280f 313e 1af6 0fbe 5e72 2c3e
000000a0: e07d 29ba 6ca4 ce3e f551 85bb 61e1 b73d
000000b0: f783 46bc 00e5 febd 4dbc c8be c4ef b83d
000000c0: e8c3 e53e f966 0dbe 2a15 71bd c5f3 6a3d
000000d0: 9c0c 1d3e b6f5 da3b caa5 543f c2a1 03be
000000e0: 66f2 b73e 2f8d 163e 02a4 593e 0108 f23c
000000f0: 6166 9b3d 90a8 873e 290d ed3e db50 943e
00000100: 17e7 453e c42d 953d 8eb1 953e df58 bf3c
00000110: dad6 cf3d b20a 2e3e aba7 0cbd ec05 e5bc
00000120: aa41 5a3e 8e6a 543e c227 513d ac90 473e
00000130: d5ae 75bd ae4f 8f3e 006e c5be 0f1f 093e
00000140: 0d30 153e ccc4 633e b039 dfbc 2cd3 efbd
00000150: 46be 0f3e 440d 683d 5c82 a73e 4a49 5abd
00000160: f334 393e 25a1 aebd fccf 473f 7fc8 7b3c
00000170: 8743 fc3d d813 ce3e f30a de3e f7eb febd
00000180: b152 52be f300 e2bd 09b5 1e3d df91 063e
00000190: 718b 35bd c6e8 a63c a3cb a03d 7298 91be
000001a0: a38d 85be fcc7 4f3e b675 483d c59c 8bbe
000001b0: 10dd 7abd c95a 5e3e d21e 953e 3843 75bd
000001c0: 1ca6 14be ca68 713c 2fa9 fe3d a9b2 b6bd
000001d0: bddd 893d bb80 093f ac1e 97ba ce56 023d
000001e0: e7df d5bd aae7 b43e c4cf 11be d9b3 293e
000001f0: b372 a8bd b34f 513e 1742 6c3c 3658 f83e
00000200: bdb5 ebbc c99c 513e fd70 a73e efd8 2a3e
00000210: 90a0 583e 7f5c 893e b612 6a3e 7f13 14be
00000220: 11e2 0ebc 2c64 d63d be41 443e 0f63 cb3e
00000230: 9139 dabd 0ebb 7f3d 3587 ddbd 8bf3 c23e
00000240: 0102 de3d cb7e a1bd 2492 b2bd dd7c 98be
00000250: 95a5 1a3e 9a6d 52bf 3fee 903e 0e41 8a3e
00000260: 420d b03e dddb 86be 3b32 223f dd83 763e
00000270: d441 06be 85df 8c3e ef2b 313e c3c8 c3bd
00000280: d9df eebc bb88 73be ee9d a5be 9dba d0bb
00000290: f2db 5abe 5b86 b03d dd0c 3fbd 4af0 10bf
000002a0: d540 1b3e 3f56 13be d43c c3bd dff8 f3bc
000002b0: af4f b83e e1ae 983e 1bf2 803d 958a 2abe
000002c0: 591e eebd a29a 803e 9685 433e a598 933d
000002d0: 04e3 87bd 9f6b 363f b527 b93c 647e 2abe
000002e0: 70ec 3bbe 9676 6b3e 7dac fcbe 4095 ce3d
000002f0: f241 983e 0d8c 52be 7dba 95be 5a4f 813e
00000300: fb2f 5bbe 3783 833e b8ad c73e 77f0 ebbd
00000310: 3706 2e3e 7162 d23e 7afa 673e c568 773e
00000320: 7120 943e a1a3 b43c 21ed 99bd 29fa a23e
00000330: a6e2 9dbe 0495 653d bc48 76be 1677 a73e
00000340: 9aae 8cbe b5f6 5e3d 64c3 3cbe 3688 3c3e
00000350: 263c 913d 83b6 6fbf 168b e1be d22c ce3e
00000360: c0b0 f23d 8425 ffbe 4914 f53e 774c 93be
00000370: 9fc8 223e 819c 52bd b84e 14bd fc0a e1be
00000380: 45f0 693e 4af2 323f 4693 873e cb9e a73d
00000390: fc96 62be 6fa8 bb3c 3b79 1f3e e2b1 09bc
000003a0: 8787 703e 5381 493e 36cb c83d 50c1 ab3e
000003b0: 8710 b5bd 99ea bcbd a66a 8bbe 6b56 0f3e
000003c0: c9e5 ef3e 6a54 e0bd 697d 1abe 1282 c8be
000003d0: 0e28 e53e 0dd2 dcbe 6ad2 a23e 9b1e 043d
000003e0: fa54 2b3f e6d4 38bd 1e77 303f 5373 b93e
000003f0: e57a 4f3e 87ef dd3e 3394 483f 91e8 2cbe
-0.14495304 0.07705325 -0.026241025 0.005307028 0.06880219 -0.08668201 0.06912424 -0.14160131
-0.06859376 0.54929554 -0.13336566 -0.048840918 -0.13635701 -0.04773563 -0.5084395 0.25853804
0.7312246 -0.0782185 0.035687093 0.11119078 0.32258138 -0.04513704 0.86342245 -0.04420394
0.26549795 -0.18274722 0.5846719 0.2940273 0.100013435 0.31103304 0.22279982 0.27583867
-0.05405856 0.050576292 -0.16379127 0.102567315 0.020274058 0.17290938 -0.14058724 0.16840503
-0.0006465595 0.4035982 -0.004068608 0.089785345 -0.012116424 -0.12446022 -0.39206162 0.09030107
0.44876027 -0.13808812 -0.058858074 0.057361383 0.15336841 0.006682123 0.83065474 -0.12854674
0.35927123 0.14702295 0.2125397 0.029544832 0.075878866 0.2649579 0.46299103 0.28967938
0.19326435 0.0728412 0.29237026 0.023357807 0.101484016 0.16996267 -0.034339588 -0.027956925
0.21314111 0.20743772 0.051063307 0.19488782 -0.059981186 0.27990478 -0.38560486 0.13390754
0.14569111 0.22243041 -0.027249187 -0.117102 0.14037427 0.056653276 0.32716644 -0.05329255
0.18086605 -0.0852683 0.78051734 0.015367626 0.12317567 0.40249515 0.4336773 -0.124473505
-0.20539357 -0.11035337 0.038746867 0.13141583 -0.044322435 0.020374667 0.078513406 -0.2843662
-0.26084623 0.20291132 0.048940383 -0.27268043 -0.061245978 0.2171432 0.29125077 -0.059878558
-0.1451649 0.014734456 0.12434613 -0.089207955 0.06731746 0.5371205 -0.0011529527 0.031821065
-0.104430966 0.35332996 -0.14239413 0.16572513 -0.08225002 0.20440559 0.014420054 0.485048
-0.028773183 0.20469965 0.3270339 0.16684316 0.21155 0.2682838 0.228587 -0.14460562
-0.008720891 0.10468325 0.19165704 0.39724013 -0.10655511 0.06243425 -0.10816804 0.38076434
0.10840226 -0.07885512 -0.0871928 -0.29782763 0.15102227 -0.8219849 0.28306767 0.27002758
0.34385115 -0.26339617 0.63357896 0.2407374 -0.13111049 0.27514282 0.17301916 -0.09559777
-0.029159473 -0.23782627 -0.32347053 -0.0063699023 -0.21372965 0.08619376 -0.046643127 -0.5661665
0.1516145 -0.14388369 -0.095330864 -0.029781757 0.35998294 0.29820922 0.06296178 -0.16654427
-0.11626882 0.25117975 0.19093928 0.07206849 -0.06635097 0.71257967 0.022601942 -0.16649777
-0.18351912 0.22994456 -0.49350348 0.10087061 0.29737812 -0.20561238 -0.29243842 0.25255853
-0.21405022 0.25686046 0.38999724 -0.115204744 0.16994558 0.4109073 0.22654143 0.2416106
0.28931 0.02205068 -0.07515932 0.31831482 -0.30836982 0.056050315 -0.24051183 0.32708043
-0.2747696 0.054434497 -0.1843391 0.18411335 0.070915505 -0.93637866 -0.44051427 0.4026857
0.11850119 -0.4983331 0.4786704 -0.28769276 0.15896843 -0.051418785 -0.036207885 -0.43953693
0.22845562 0.69900954 0.26479548 0.08184584 -0.22127908 0.022907464 0.1557359 -0.008404227
0.234892 0.1967824 0.098043844 0.33545923 -0.08841043 -0.092244335 -0.27229804 0.1399781
0.46855 -0.10953601 -0.15086903 -0.39161736 0.44757122 -0.43129006 0.31801158 0.03225575
0.6692654 -0.04512491 0.6893176 0.36220798 0.20261724 0.43346807 0.78351134 -0.16885592

model.temporalSeq.0.attention.in_proj_bias f4 [96]
00000000: 10d0 5f3d e28a 35bd 1596 323d 925c e13e
00000010: 676b 12be 8bdd b53e d24f c2be 2501 2cbd
00000020: 76ab f1bd 2356 e33d 486f 773e 86a1 2dbe
00000030: 1e8a df3d b2e5 2dbd 8c48 fcbc 811d 91be
00000040: 9721 3d3e d4a0 323e 3384 3e3d c168 0fbd
00000050: 9746 04be a7b9 fd3e b3f4 283e 8c56 eebd
00000060: 209d 33be baca 593e 3263 1c3e cf44 1ebd
00000070: c9f3 70be 28e9 38be 596a 2abe 36f9 913e
00000080: 64c4 bebc 535d dbbc 600b 43bd 8cd4 d73c
00000090: ca58 f8bc 5f1f a0bc 852b e1bc f7a9 19bd
000000a0: 7902 e73c ad66 b4bc 59c9 0cbd c353 e23c
000000b0: be21 e53a 7f4f a6bc 22fc 72bc e054 29bd
000000c0: 0bdb ba3c 9896 ad3b 4831 363b 34d6 babc
000000d0: 72c5 8bbc bc7f 1a3b ea48 e53b 1c68 36bc
000000e0: ab33 573c 7021 5a3c 1bb7 92ba 7a13 273c
000000f0: 401f bc3c 4bba 0dbd 783c 83bd b31e 523c
00000100: cdbc 1d3c 4800 b7bd fb74 5c3c 58df e8bb
00000110: b5f7 3bbd 10f6 c5bc 7af0 d73c 71a7 cebd
00000120: 1d61 d23d fccb 19bb 5130 15bd 9259 d5bd
00000130: 98cf 703d a89a 2b3d 22e9 da3d e918 cbbc
00000140: 5d10 c33c 7a18 0a3d 454b 6bbd 7da6 b23d
00000150: 34ea c7bb 73cd e739 373b 79bc 8821 f6bc
00000160: 0845 223b 32f3 04bd 0327 373c 6d40 2c3d
00000170: 9bff 2d3d 6020 76bd 6ae9 9d3c 8105 20bc
0.054641783 -0.044321902 0.04360016 0.44015938 -0.14298783 0.35520586 -0.37951523 -0.04199328
-0.11800282 0.11100414 0.24163544 -0.16956148 0.10915016 -0.042455383 -0.030796312 -0.28342822
0.18469845 0.17444164 0.046512794 -0.03501201 -0.12917553 0.49555704 0.16499595 -0.11637601
-0.17540407 0.2126874 0.15272215 -0.03863984 -0.23530497 -0.18057692 -0.16642131 0.28510445
-0.023287006 -0.026777899 -0.04761827 0.026346467 -0.030315775 -0.019546209 -0.027486572 -0.037515607
0.028199421 -0.022021616 -0.034371708 0.027627831 0.001748137 -0.020301579 -0.014830621 -0.04134071
0.022809526 0.005297493 0.002780037 -0.022807218 -0.017061923 0.002357467 0.0069972174 -0.01113322
0.013134877 0.013313636 -0.0011193486 0.010197515 0.02296412 -0.03460149 -0.06408018 0.012824702
0.009627533 -0.089356005 0.013455625 -0.007106703 -0.04589053 -0.024165183 0.026359785 -0.10090531
0.10272429 -0.0023467531 -0.03642303 -0.10417475 0.058791727 0.04189554 0.10688998 -0.024792152
0.023811514 0.03371475 -0.05744483 0.08723161 -0.0061009172 0.00044212825 -0.015211872 -0.030045286
0.0024760384 -0.03245849 0.011178735 0.04205363 0.042480092 -0.06008947 0.01927634 -0.009766937

model.temporalSeq.0.attention.out_proj.weight f4 [32, 32]
00000000: aef8 093e bbc4 acbb e93a c2bd 9695 413a
00000010: bb04 01be fdda 93be f3b9 b13e 8788 44bd
00000020: 11b8 bd3c 34d1 dfbc ed7f 4a3d 9d55 9fba
00000030: 80c5 c2bd 89a9 e3bd 9180 bb3d 2f91 243e
00000040: 82bd 2fbb 430d 59be 9aae bc3e e155 0ebe
00000050: 3564 b2bb dc5a a1bd 1ada 303d c885 ca3d
00000060: e979 a2b9 ba95 ce3d 4f91 483e 3fdb 2bbd
00000070: c0af 3dbe 7037 123e 2d99 57be ef0c e6bc
00000080: 9726 233e c08f 053e c1db 043d 74d4 af3c
00000090: 47c9 ff3d f46a a83d 75b7 0dbe 0187 583c
000000a0: 2f42 03be 051e 56bc deb5 03be ebf3 13be
000000b0: b587 f4bb 6392 12bd 2d40 403d b1cc e23c
000000c0: c865 21bd b41d bebd 6f2d 2d3e 8e11 05be
000000d0: c9f5 8f3d e372 b8bc bfd7 783e b8a3 2d3d
000000e0: 553a ef3b 12c1 e03d dc78 953d 7620 80bc
000000f0: 24ec 0dbe 2d27 7c3e 5b8c e4be b8fe c8bc
00000100: 5e1b b43d 5fb7 813c 626c f63d 5e33 a83d
00000110: d478 f7bd 4a34 0c3c 639c 2ebe 0977 8f3d
00000120: 1e3d 2b3d fbb2 36be b15b f8bc 74b3 83bd
00000130: 117c bc3d 1fc0 863c 8dfb 85bd b36c 803d
00000140: e824 253e c67e 5e3e 098d 8fbe e897 533e
00000150: dac4 0b3e 5d2e a13d 47c1 593e ae13 ccbd
00000160: 0435 a2bd aeac 813d 3857 96bc bdba 2ebd
00000170: 9fed 0a3e 8c9d 943d aeea 443e 02c5 1c3b
00000180: 242f 0e3c 0dfa 0bbe 4a19 40be 941d 7fbc
00000190: be49 883e 3695 2ebe b821 01be 347e ab3e
000001a0: c501 b73d 270b 903d 9bdc 043e 9f75 033e
000001b0: be5e 353d 38fe 843e 0ea0 a6bd 66bd 9abd
000001c0: f979 843e 82c8 103d d9b6 bcbe 8160 13bd
000001d0: 742a 98bd c73d 73bd 368e 123e 8063 f7bd
000001e0: 1ee5 03be 987e b1bd 7e75 8bbb a5cf 17be
000001f0: bf54 803d 51dd b0bd 8db8 263e 61b0 2b3d
00000200: 68a2 363e 3f17 9d3d 3e31 d03d 47ab a9bd
00000210: 1df7 183e 1bc2 b93d 6c2d babd 8ef3 733d
00000220: ee48 99bd 797b 9ebd 5bab d43d 4a9c 033e
00000230: 5188 773d f48e 3bbe cafc 75bd fc67 a5bd
00000240: 3ab7 cbbd 0b84 1f3e a6cc 9fbd 8acb 10be
00000250: f82e b8bd 99c4 03be 94ba acbc 4893 5cbd
00000260: 0259 8dbd 0bfa 02be 484b 97bd 9b33 81bd
00000270: d5c0 ec3d 46f2 993d d5e8 15be b88a 09bd
00000280: a88d eabd aad8 ee3a f115 8ebc 48a0 e6bd
00000290: f6d7 57be f5f2 873e 56f7 1e3e 7d24 11be
000002a0: 0ca4 fcbd 6528 833d 23e4 a83d 12f0 8fbd
000002b0: 7017 923d 01eb 11be 2bda 7cbd 05fc 5ebd
000002c0: 6261 b5bd a1a2 c13d 92df 71be ed11 9c3e
000002d0: ee73 fcbd b056 1ebe 59d9 d33d defd 533e
000002e0: 47fd d4bd c8e7 893d 6d56 d43b 16a0 35bd
000002f0: 6fb5 d4bd 30b3 1ebc 400c dbbc 6687 82be
00000300: 6ff0 3dbe ecd6 063e fb00 1d3e b43d 66bc
00000310: b0ec 1cbe b00a 153e 1430 0d3d a719 7abc
00000320: 8269 393d ceb1 82bd 0b66 0d3e a4fc 4f3e
00000330: b459 383e 6715 56bd 873f 8f3d a689 893d
00000340: 3d87 d7bc 377f 19bd 1a1b 293c 249d f53d
00000350: 3f5a 2c3e e8b6 b93e a246 92bc e947 7dbc
00000360: 8dac d03c 44c6 07be d695 883d 45cc 3f3e
00000370: 4286 f33d f5af 2fbe 40ff 83bc b9a9 10bd
00000380: 5e57 92bd 7490 4bbe 9914 05be c02c b93d
00000390: 9a34 463d 7d2d 88bd dad3 ca3d 7391 e3bd
000003a0: 3474 74bd a3d2 7f3d bb69 8abd 5ad2 84bd
000003b0: 14e9 8b3d 7324 3fbe 39aa 07be 03b1 773d
000003c0: 7589 533d ae2f 14be 93db 2a3e 6264 dc3d
000003d0: 3e65 213e c2fe a83d a07c 25be 12ba 673b
000003e0: 2a4a 013e e9db dfbc e3cb e2bd 4f45 c9bd
000003f0: 3148 9d3e eda5 adbd f18e 95bd c96b 1abd
0.1347377 -0.0052724755 -0.094838925 0.0007384656 -0.12599461 -0.28878012 0.3471218 -0.047981765
0.023159059 -0.027321436 0.049438406 -0.0012156252 -0.095103264 -0.11116321 0.091553815 0.16071008
-0.0026815836 -0.21196465 0.3685196 -0.13899948 -0.0054440745 -0.07878658 0.043176748 0.09888798
-0.00030989878 0.10087152 0.19586681 -0.041957136 -0.18524075 0.1427896 -0.21054526 -0.02808234
0.1593269 0.13043118 0.032436136 0.02146361 0.124895625 0.08223525 -0.13839515 0.013215781
-0.12818216 -0.013068681 -0.12862346 -0.14448516 -0.0074624666 -0.035784137 0.046936203 0.027685495
-0.039403707 -0.09283009 0.16911863 -0.12994978 0.07029302 -0.02251572 0.2430105 0.042392462
0.007300655 0.10974325 0.07298443 -0.015640479 -0.13859612 0.2462432 -0.44638333 -0.024535522
0.087942824 0.015834508 0.12032391 0.082129225 -0.12083593 0.008557389 -0.17051844 0.07005126
0.041806333 -0.17841713 -0.03031716 -0.06430712 0.09203351 0.016449032 -0.0654212 0.06270733
0.1612736 0.21728048 -0.2803729 0.20663416 0.13649312 0.07870171 0.21265136 -0.09964691
-0.07920268 0.06331764 -0.018352136 -0.042658556 0.13567208 0.07256612 0.19230148 0.0023921137
0.008678231 -0.13669606 -0.18759647 -0.015571017 0.2661876 -0.17049107 -0.12610519 0.33494723
0.089358844 0.07033377 0.1297478 0.12837838 0.044279806 0.25975204 -0.08135997 -0.07555656
0.25874308 0.03534747 -0.36858252 -0.035980705 -0.07429972 -0.059385087 0.14312062 -0.12079525
-0.1288037 -0.08666724 -0.0042559495 -0.14825304 0.06266164 -0.08635963 0.16281338 0.041916255
0.1783539 0.076704495 0.10165642 -0.08284622 0.14938016 0.09070226 -0.09090695 0.059558444
-0.07484613 -0.07738394 0.10384246 0.12852588 0.060432736 -0.18316251 -0.06005553 -0.08076474
-0.09947057 0.15577714 -0.078027055 -0.14140144 -0.089933336 -0.12867965 -0.021085061 -0.053851396
-0.069017425 -0.12790696 -0.07387406 -0.06308671 0.11560217 0.07516913 -0.146396 -0.033579558
-0.114528 0.001822253 -0.017344447 -0.1126104 -0.21078476 0.2655255 0.15524039 -0.14174075
-0.12335977 0.06404189 0.082466386 -0.07028212 0.071333766 -0.14249803 -0.0617315 -0.054439563
-0.08856465 0.09454847 -0.23620442 0.30482426 -0.12326799 -0.15462756 0.1034419 0.20702311
-0.10399871 0.06733662 0.0064800293 -0.044342123 -0.10386168 -0.009686276 -0.02673924 -0.25493926
-0.1854875 0.13167924 0.15332405 -0.014052797 -0.15324664 0.14554858 0.03446968 -0.015264905
0.045266636 -0.0638157 0.13808458 0.20311219 0.18002969 -0.052266505 0.06994539 0.067157075
-0.026309604 -0.037474837 0.010321403 0.11992863 0.16831301 0.3627236 -0.017855946 -0.015459039
0.025472904 -0.13259226 0.06669204 0.18730266 0.11890842 -0.17156966 -0.016112924 -0.03531811
-0.0714557 -0.19879323 -0.12996139 0.090417385 0.04839001 -0.06649301 0.09903689 -0.111117266
-0.059681132 0.06245674 -0.06758448 -0.06485434 0.068315655 -0.18666248 -0.13248529 0.060471546
0.05164476 -0.14471313 0.16685323 0.10761334 0.15761277 0.08251716 -0.16160822 0.003535871
0.12625948 -0.027326541 -0.110740446 -0.09827673 0.3071914 -0.084789135 -0.073026545 -0.03770045

model.temporalSeq.0.attention.out_proj.bias f4 [32]
00000000: bb11 67bd c945 e03b 43b6 2dbc 579c 8bbd
00000010: 72fa 6e3d 91cd 93bd e159 00bd 6d6c 0e3d
00000020: 4552 383e 9fd7 513d ae79 e53c 923c d03b
00000030: 5f52 d33c 20c8 aabc 61c0 85bc dee6 0f3d
00000040: a5f9 acbd c447 623d 4a5a 633d f64e 57bd
00000050: 9b9c 093d 204e 17bd 02b2 00bd 71e2 c3bc
00000060: 894e b83d 6223 dfbd af5f babd 2c0c 023d
00000070: a411 08be 36b7 5f3c 6a32 b6bc a207 28bd
-0.056413393 0.0068442565 -0.010602537 -0.06816929 0.058344312 -0.07216943 -0.031335715 0.03477137
0.18000133 0.051231023 0.028012123 0.006354877 0.025796114 -0.02084738 -0.016327085 0.03513228
-0.084460534 0.055244222 0.05550603 -0.052565537 0.033596616 -0.03693974 -0.03141976 -0.023911687
0.089993544 -0.108954206 -0.091002814 0.03174989 -0.1328798 0.013654521 -0.022240836 -0.041022904
