code/logs/epoch=45-step=4600.ckpt (torch, 189047 bytes, 45 tensors)

model.input_encoder.weight f4 [32, 1]
0.08237878 0.21889374 -1.0201873 0.9205541 -0.6713089 -0.7917275 0.73246527 0.7251219
0.7321174 -0.8269467 -0.8678901 0.12560953 -0.36467725 -0.3772604 0.81757164 0.80597407
0.6886469 -0.3351933 -0.009788946 0.7757803 -0.14991091 -0.12392735 -0.9287693 0.89054376
0.5242097 0.25475115 -0.32488808 0.23834667 0.16454276 -0.48137406 -0.09910891 0.27933678
00000000: 35b6 a83d ae25 603e 7f95 82bf 6fa9 6b3f
00000010: e6da 2bbf a7ae 4abf d882 3b3f 97a1 393f
00000020: 0c6c 3b3f c7b2 53bf 0c2e 5ebf c99f 003e
00000030: fab6 babe 4628 c1be 604c 513f 5154 4e3f
00000040: 2a4b 303f 759e abbe d161 20bc 8a99 463f
00000050: 3f82 19be 9fcd fdbd d3c3 6dbf adfa 633f
00000060: 9b32 063f be6e 823e bb57 a6be 2611 743e
00000070: e67d 283e a976 f6be 9df9 cabd 3b05 8f3e

model.input_encoder.bias f4 [32]
0.3571064 0.32381183 -0.4886035 -0.22228372 0.22953482 -0.5985772 0.6154329 -0.5279204
-0.0845327 -0.034401365 0.6081365 -0.2560259 -0.91108334 0.5616182 0.21285136 0.14589758
-0.8571567 0.5037142 0.112363555 0.94573265 0.14552495 -0.17937744 0.4309397 -0.08896714
0.99820065 -0.5239062 -0.6199345 -0.9286524 0.4148334 -0.8520378 -0.8378519 0.750509
00000000: a6d6 b63e aaca a53e 3d2a fabe 589e 63be
00000010: 2d0b 6b3e 5b3c 19bf 038d 1d3f cb25 07bf
00000020: 7b1f adbd 72e8 0cbd d5ae 1b3f d415 83be
00000030: c23c 69bf 36c6 0f3f b5f5 593e 2d66 153e
00000040: 9f6e 5bbf 6af3 003f dd1e e63d 891b 723f
00000050: 7e04 153e b8ae 37be 21a4 dc3e 6734 b6bd
00000060: 148a 7f3f b71e 06bf 07b4 1ebf 2abc 6dbf
00000070: 0b65 d43e 261f 5abf 767d 56bf 5c21 403f

model.encoder.rnn.weight_ih_l0 f4 [128, 32]
0.18300194 0.13823481 -0.056407657 0.1512663 0.042814553 0.10845825 -0.04871081 0.060444657
0.079328105 -0.15026098 -0.1400671 0.0756397 -0.06624486 0.17847133 -0.073226295 -0.042830296
0.09568628 0.06917407 0.02021906 0.0120180175 0.08591528 -0.028046764 0.011712852 -0.08419479
0.00591647 -0.20077497 0.036643703 -0.1768209 -0.05433045 0.09580504 -0.23490761 0.18585885
-0.054422446 -0.06780544 0.005513592 0.0053165755 -0.04260241 -0.099214025 0.1633047 0.014358816
-0.081758454 0.16098018 0.13757479 -0.014190703 -0.17302194 -0.039122704 -0.1942276 0.09270458
-0.04465172 0.030616831 0.28197494 -0.024415575 -0.04439161 -0.04557664 0.14543004 0.033837307
0.24275367 -0.16873018 -0.16452004 -0.2751511 0.00039208727 -0.18224509 -0.050197933 0.25064003
0.1707059 -0.014573359 -0.081321225 -0.068643205 0.05826169 -0.08053731 0.07220832 0.13686949
-0.04808735 0.0022239315 -0.118879765 -0.16353704 0.11680334 0.15998195 -0.1397096 -0.11069852
0.17133468 0.11438375 0.045847848 0.113482974 -0.082578994 -0.0021574462 0.15187702 0.20249386
-0.0830966 -0.012486461 0.046794605 -0.08350558 -0.0033953334 -0.12718138 0.08750943 -0.12077956
0.02969578 -0.1503597 0.11195863 -0.012462186 -0.08155767 0.13570528 0.121931165 0.043383967
0.1438215 -0.05641685 -0.10757804 0.17838536 0.14136694 -0.05938782 0.12775603 -0.093629785
0.10000291 -0.12894762 0.022878809 -0.084530525 -0.0065267077 -0.124238774 0.119422756 -0.042953104
-0.1663349 -0.014728583 0.059910756 0.09531345 -0.013394247 -0.062118102 -0.094755836 -0.03149567
0.10759929 0.20200224 0.06467353 0.13325486 0.016194467 0.10644111 0.06765914 -0.105238706
0.021650376 0.0065153874 -0.08858032 -0.11412299 -0.110221036 -0.08433826 0.035745177 -0.034552634
-0.06123164 0.02328499 -0.07067204 0.18906978 0.022192927 -0.111678615 0.11332209 0.018005576
0.015469293 0.07511937 -0.02608179 -0.088458575 0.11978185 0.03779053 0.04304226 0.010299337
-0.15149173 0.0821554 0.025086505 0.05802867 0.0625976 0.002899216 -0.12167859 -0.0032555833
-0.13506252 -0.19383736 0.018469747 0.1970179 -0.12839335 -0.029775508 -0.0052280324 0.20558357
0.17723894 -0.10682089 0.083749816 -0.1265117 -0.20832837 -0.035744928 -0.13832581 0.09431742
0.07553007 -0.09819365 -0.10272185 0.11465636 -0.123434745 0.114096 -0.017534096 -0.011448054
0.051977355 0.118017524 -0.16275796 -0.08280479 0.06670906 -0.093661755 0.12361397 -0.08601017
-0.14106742 0.07325278 0.058037303 0.039330088 -0.17394708 -0.06723664 0.073995575 0.06690812
0.065027654 0.18444976 0.119161196 0.00042090315 0.1946294 0.1099908 0.16646904 0.06745293
0.14755458 0.13209014 -0.21000452 -0.12098731 -0.035885084 -0.14047186 0.12444274 0.18471274
0.16055366 0.03920952 0.041304573 0.053146742 0.06489103 -0.071446955 0.08192383 -0.007544364
0.0427504 0.06552861 0.08413046 0.041043803 -0.012703274 0.0120738195 -0.0028348088 0.007256538
-0.10129682 -0.029707134 -0.08708171 0.10374493 -0.19073743 -0.113679715 -0.24243142 -0.10296242
-0.0018834091 0.109589584 0.026289685 0.030595431 0.027990872 -0.025172118 0.051371958 -0.01620175
00000000: dc64 3b3e 6d8d 0d3e b70b 67bd 8ee5 1a3e
00000010: 505e 2f3d 5c1f de3d fc84 47bd d194 773d
00000020: c676 a23d 04de 19be c06d 0fbe fde8 9a3d
00000030: 63ab 87bd 30c1 363e abf7 95bd d26e 2fbd
00000040: 2bf7 c33d 23ab 8d3d 71a2 a53c 38e7 443c
00000050: 5af4 af3d 54c2 e5bc 43e7 3f3c 516e acbd
00000060: f3de c13b f497 4dbe b517 163d 8a10 35be
00000070: 9b89 5ebd 6f35 c43d 9f8b 70be c851 3e3e
00000080: 12ea 5ebd 94dd 8abd 5dab b43b ab36 ae3b
00000090: dd7f 2ebd b930 cbbd 5939 273e 3d41 6b3c
000000a0: fa70 a7bd fdd7 243e 68e0 0c3e 1f80 68bc
000000b0: aa2c 31be 213f 20bd 9ae3 46be e6db bd3d
000000c0: b9e4 36bd 26d0 fa3c 055f 903e 2c03 c8bc
000000d0: fad3 35bd 92ae 3abd 9deb 143e fd98 0a3d
000000e0: 6b94 783e 9bc7 2cbe f177 28be 9be0 8cbe
000000f0: 1091 cd39 759e 3abe 599c 4dbd e453 803e
00000100: 87cd 2e3e 19c5 6ebc be8b a6bd cf94 8cbd
00000110: cfa3 6e3d bff0 a4bd f5e1 933d 8427 0c3e
00000120: 3ef7 44bd 61bf 113b 3c77 f3bd 4176 27be
00000130: 9736 ef3d 4fd2 233e 0910 0fbe e8b5 e2bd
00000140: 5c72 2f3e 0742 ea3d f4ca 3b3d c369 e83d
00000150: 2d1f a9bd f163 0dbb a685 1b3e 8d5a 4f3e
00000160: 8d2e aabd 0394 4cbc b3ab 3f3d f904 abbd
00000170: 3e84 5ebb d63b 02be 2538 b33d 465b f7bd
00000180: 9044 f33c e5f7 19be 914a e53d 322e 4cbc
00000190: b507 a7bd 53f6 0a3e 0cb7 f93d 63b3 313d
000001a0: f145 133e 5b15 67bd e051 dcbd a7aa 363e
000001b0: 7fc2 103e a540 73bd 7ad2 023e f9c0 bfbd
000001c0: 53ce cc3d d80a 04be 576c bb3c 571e adbd
000001d0: fedd d5bb e670 febd eb93 f43d 98ef 2fbd
000001e0: b253 2abe 2850 71bc fb64 753d b333 c33d
000001f0: 8b73 5bbc 8d6f 7ebd 590f c2bd 9b01 01bd
00000200: 045d dc3d add9 4e3e 8e73 843d f673 083e
00000210: 42aa 843c ccfd d93d e090 8a3d 6487 d7bd
00000220: 215c b13c 087f d53b 9969 b5bd 50b9 e9bd
00000230: 91bb e1bd 8ab9 acbd 8969 123d 1087 0dbd
00000240: 07ce 7abd 2ac0 be3c 81bc 90bd 829b 413e
00000250: f1cd b53c c2b7 e4bd 6915 e83d 6e80 933c
00000260: eb72 7d3c 2fd8 993d 7aa9 d5bc c529 b5bd
00000270: 3050 f53d 3eca 1a3d 154d 303d 8dbe 283c
00000280: a620 1bbe 1741 a83d 3782 cd3c 78af 6d3d
00000290: 2c33 803d c600 3e3b a032 f9bd a05b 55bb
000002a0: d44d 0abe 4d7d 46be de4d 973c 0fbf 493e
000002b0: 8c79 03be c4eb f3bc ea4f abbb 8084 523e
000002c0: 207e 353e e9c4 dabd 0685 ab3d 488c 01be
000002d0: 0854 55be 4669 12bd 48a5 0dbe 7e29 c13d
000002e0: 82af 9a3d c119 c9bd d55f d2bd f4d0 ea3d
000002f0: 5bcb fcbd 2aab e93d aaa3 8fbc 9e90 3bbc
00000300: 35e6 543d 2cb3 f13d 06aa 26be 8f95 a9bd
00000310: c29e 883d bcd1 bfbd 5229 fd3d 1a26 b0bd
00000320: fa73 10be 8e05 963d 86b8 6d3d 9618 213d
00000330: 2f1f 32be 5db3 89bd fe8a 973d 2007 893d
00000340: 382d 853d 66e0 3c3e c90a f43d aaac dc39
00000350: ee4c 473e db42 e13d dc76 2a3e c324 8a3d
00000360: 8c18 173e a342 073e 6d0b 57be 32c8 f7bd
00000370: 3dfc 12bd dbd7 0fbe d6db fe3d 5625 3d3e
00000380: 2e68 243e 299a 203d fc2e 293d 66b0 593d
00000390: 97e5 843d c852 92bd aec7 a73d b636 f7bb
000003a0: 0b1b 2f3d dd33 863d 974c ac3d 8c1d 283d
000003b0: 6521 50bc 45d1 453c 33c8 39bb 41c8 ed3b
000003c0: b574 cfbd 605c f3bc e557 b2bd 3978 d43d
000003d0: ac50 43be e9d0 e8bd f13f 78be f6dd d2bd
000003e0: b9dc f6ba 8170 e03d 775d d73c 45a3 fa3c
000003f0: 1d4d e53c c235 cebc 676b 523d 88b9 84bc

model.encoder.rnn.weight_hh_l0 f4 [128, 32]
-0.19433078 -0.026486555 -0.064237036 0.09379376 0.07580582 -0.08014321 0.15462397 0.05920528
-0.13844286 0.036330555 -0.13562034 0.06525082 0.04298154 -0.28314686 -0.07598214 0.0016998091
-0.05287849 -0.032317895 0.14056748 -0.21732903 -0.138403 -0.14559634 -0.001583613 -0.052567888
-0.16657084 0.21273008 0.083280526 0.09688914 -0.10977396 0.13112293 0.004842965 0.121463
0.13240714 0.038189385 -0.073895514 -0.09551735 0.10886266 -0.19764367 0.062217135 -0.22564581
-0.11466485 -0.05308495 0.27708334 -0.26477534 0.10529857 -0.39569333 -0.08028674 0.21232156
0.076698385 -0.09183277 0.23501267 -0.22152588 0.19844559 -0.06320214 -0.02233278 0.1127348
-0.23829521 3.4458877e-05 0.19122982 0.18476802 -0.17042422 0.059566505 -0.39724904 -0.10825022
0.12531948 0.031444304 0.11992262 -0.11883273 0.070883475 0.024948219 0.122688286 -0.08937901
-0.08467858 0.0014742943 -0.122605726 0.02134508 0.042903684 -0.044394165 -0.073442765 -0.121466435
0.14366837 -0.01600264 -0.079658456 0.10630561 0.2593466 -0.08122772 0.03061102 0.15738824
-0.1039668 -0.05003474 0.09064646 -0.015505678 -0.13525406 -0.032975733 -0.2585236 -0.20391572
-0.19437589 -0.017551273 0.04557292 0.043424048 -0.19612764 0.019844728 -0.5265325 0.17886059
0.10359103 -0.14959629 -0.20324323 0.09837589 -0.1542361 0.06935407 0.12707978 -0.2638582
-0.20611583 -0.033008248 -0.082227744 0.16115569 -0.11882333 0.29270482 0.20903714 -0.05648419
0.17036925 -0.091939926 -0.29173246 -0.08941198 -0.044640068 -0.30083892 -0.116664514 0.2386808
-0.07194435 -0.16110729 0.052248906 0.032203697 0.16465776 0.14466308 -0.13243952 0.025320724
0.19392577 0.10885242 -0.05395701 -0.11289738 0.12499451 -0.022444457 -0.09229364 -0.08932633
0.21185726 -0.19724947 0.15266523 1.6467997e-05 -0.06769127 0.10186997 0.08113685 -0.007525389
-0.10275358 -0.022691129 0.051227365 0.113979355 -0.25635886 0.057164785 -0.09280088 0.17067233
0.078955814 -0.044323076 0.08747792 0.08040803 0.09898988 -0.104798414 -0.0059355213 -0.04241443
-0.16020434 -0.21886443 0.13695274 0.047017645 0.10157864 -0.15933388 0.21439795 0.02947824
-0.06382286 0.09963338 0.11396443 -0.13459419 -0.17879336 0.14131264 0.30169627 -0.07543824
-0.12492466 0.01721433 -0.032038264 0.05322047 -0.07861549 -0.25770172 -0.0024138624 0.21744154
0.09205425 -0.11609081 -0.06468605 0.13721505 0.089713715 0.09797609 -0.086996004 0.039905746
-0.04162753 0.043294355 0.05752647 -0.056225155 -0.010678703 0.066409305 0.1555942 0.08859077
0.046340022 0.089074835 0.03530213 0.008800911 -0.085535854 -0.053490847 -0.13093078 -0.113166034
0.11430322 0.108790904 0.056022476 -0.008292016 -0.17713927 0.0017808637 0.11708529 0.131659
-0.095814064 -0.20405138 0.0056326324 0.02686032 -0.091969766 0.13545401 0.065505125 -0.08816287
0.26479962 -0.09877233 0.10649944 0.059910115 0.007790932 0.11667114 0.12622438 0.17987809
-0.15758929 0.04156176 -0.02628894 -0.02038882 -0.14584462 0.012926781 0.024560962 0.087444894
-0.088379756 -0.19500683 -0.13625312 0.09032249 -0.23023733 -0.094426095 0.2210016 0.24649069
00000000: a6fe 46be 55fa d8bc b58e 83bd f116 c03d
00000010: 1540 9b3d 2022 a4bd bf55 1e3e 3c81 723d
00000020: f7c3 0dbe 59cf 143d 0fe0 0abe 39a2 853d
00000030: 690d 303d a0f8 90be 869c 9bbd 21cc de3a
00000040: 1e97 58bd c55f 04bd ecf0 0f3e 808b 5ebe
00000050: 84b9 0dbe 3517 15be 3c91 cfba 6d51 57bd
00000060: 8c91 2abe ead5 593e fb8e aa3d d06d c63d
00000070: 2cd1 e0bd 1745 063e bcb1 9e3b 98c1 f83d
00000080: bd95 073e 796c 1c3d 8856 97bd 9a9e c3bd
00000090: 63f3 de3d 1a63 4abe 65d7 7e3d b20f 67be
000000a0: 68d5 eabd 9b6f 59bd dedd 8d3e a290 87be
000000b0: c7a6 d73d 5198 cabe 606d a4bd d36a 593e
000000c0: 0b14 9d3d d212 bcbd 29a7 703e aed7 62be
000000d0: 5235 4b3e 2070 81bd 3cf3 b6bc 81e1 e63d
000000e0: a903 74be f087 1038 c0d1 433e d433 3d3e
000000f0: b083 2ebe 02fc 733d 3a64 cbbe 4bb2 ddbd
00000100: c053 003e becb 003d fe99 f53d 935e f3bd
00000110: 5b2b 913d 3560 cc3c ff43 fb3d 580c b7bd
00000120: f76b adbd 1c3d c13a b618 fbbd e1db ae3c
00000130: c6bb 2f3d a8d6 35bd 2969 96bd 65c3 f8bd
00000140: cd1d 133e f817 83bc f923 a3bd c1b6 d93d
00000150: 14c9 843e b85a a6bd f6c3 fa3c 622a 213e
00000160: 8cec d4bd 3af1 4cbd daa4 b93d 870b 7ebc
00000170: 0a80 0abe 9011 07bd 355d 84be 48cf 50be
00000180: 790a 47be b0c7 8fbc acaa 3a3d 6add 313d
00000190: afd5 48be 6991 a23c d5ca 06bf 3b27 373e
000001a0: 8927 d43d c52f 19be fe1e 50be 4c79 c93d
000001b0: 11f0 1dbe 8209 8e3d 3421 023e 6c18 87be
000001c0: 0710 53be a833 07bd 0567 a8bd ff05 253e
000001d0: a559 f3bd 68dd 953e d50d 563e f75b 67bd
000001e0: 4775 2e3e 004b bcbd f55d 95be a11d b7bd
000001f0: 81d8 36bd 8f07 9abe ceed eebd bd68 743e
00000200: 8f57 93bd 4ff9 24be f302 563d 06e8 033d
00000210: 0b9c 283e 8f22 143e 3a9e 07be 686d cf3c
00000220: 7a94 463e 04ee de3d 0702 5dbd be36 e7bd
00000230: 1ffd ff3d 70dd b7bc 7304 bdbd b9f0 b6bd
00000240: 1cf1 583e c4fb 49be 4654 1c3e c124 8a37
00000250: b8a1 8abd 34a1 d03d 142b a63d 8a97 f6bb
00000260: 7870 d2bd bfe2 b9bc c9d3 513d 026e e93d
00000270: 7841 83be 9f25 6a3d 630e bebd bac4 2e3e
00000280: 96b3 a13d 1d8c 35bd a027 b33d f7ac a43d
00000290: 35bb ca3d 8da0 d6bd c37e c2bb c1ba 2dbd
000002a0: 9b0c 24be ff1d 60be 573d 0c3e 9395 403d
000002b0: 7608 d03d 6c28 23be 238b 5b3e 5a7c f13c
000002c0: 8fb5 82bd 960c cc3d 2f66 e93d 0fd3 09be
000002d0: 9b15 37be 43b4 103e ef77 9a3e 5d7f 9abd
000002e0: 80d8 ffbd 1105 8d3c 8e3a 03bd b5fd 593d
000002f0: 2801 a1bd 7bf1 83be e431 1ebb ffa8 5e3e
00000300: f086 bc3d 05c1 edbd 1f7a 84bd 1a82 0c3e
00000310: d3bb b73d b0a7 c83d f62a b2bd 3574 233d
00000320: a181 2abd 6c55 313d e0a0 6b3d 594c 66bd
00000330: baf5 2ebc 9a01 883d 1654 1f3e 146f b53d
00000340: 09cf 3d3d de6c b63d f798 103d b231 103c
00000350: 6c2d afbd 3819 5bbd b812 06be 98c3 e7bd
00000360: ce17 ea3d c4cd de3d d377 653d 3cdb 07bc
00000370: ff63 35be df6b e93a 6aca ef3d 9ed1 063e
00000380: 2a3a c4bd d8f2 50be f291 b83b 2c0a dc3c
00000390: a55a bcbd 75b4 0a3e 8d27 863d bc8e b4bd
000003a0: d193 873e 2649 cabd 611c da3d 4f64 753d
000003b0: 134b ff3b 47f1 ee3d f740 013e f631 383e
000003c0: 165f 21be aa3c 2a3d e75b d7bc 7406 a7bc
000003d0: 4b58 15be d9ca 533c 1234 c93c 4f16 b33d
000003e0: 7200 b5bd dfaf 47be f085 0bbe fffa b83d
000003f0: 56c3 6bbe 7862 c1bd 3e4e 623e 0e68 7c3e

model.encoder.rnn.bias_ih_l0 f4 [128]
0.18123293 0.009999681 -0.08473178 -0.13352174 -0.06573119 -0.06225022 -0.11243908 -0.003656666
0.11875545 -0.12695503 -0.0036507247 0.15178508 -0.14759435 0.00842755 0.20178823 0.045620393
0.18818282 -0.0285649 -0.14708321 -0.16089626 0.066871494 0.22186507 0.12980661 -0.14137997
-0.111130245 0.18814138 0.005538699 0.03493961 0.1757685 -0.0012666776 0.24732836 0.19934659
0.23814137 -0.13245562 0.04500326 0.21383597 -0.13149041 -0.10464034 -0.06555833 -0.15109606
-0.22444303 -0.054646987 0.16151245 -0.03039047 -0.00033879367 -0.15790927 -0.2590143 0.12276404
0.13312599 -0.13094784 0.12717433 0.03370674 -0.1426148 0.014078733 -0.20026264 0.12560655
0.110538796 -0.08157436 -0.11859472 -0.019964023 0.05792108 0.049594793 -0.05666032 -0.018116111
0.16443628 -0.15399396 -0.060497254 -0.035046756 0.11350037 -0.120244615 0.18832569 -0.1452687
-0.11174654 -0.03713329 -0.050378323 -0.020705229 -0.052378133 0.10055315 0.0820001 -0.008925276
0.08698269 -0.19701353 0.0061254017 0.02373899 0.07236134 -0.17443563 0.058221247 0.07134157
-0.061183304 0.15223785 0.13619187 -0.07319745 0.085303724 0.14103737 0.12657432 -0.078378156
-0.034535106 -0.04213297 -0.020368319 0.15632983 -0.11810999 0.047570877 -0.14984591 0.15786001
0.14324816 0.13840896 -0.03980765 0.3551724 -0.12925048 0.08249114 0.22741978 -0.10192673
-0.027285378 -0.19044875 0.081133865 0.098786265 -0.0047078202 0.21914701 0.25274205 -0.003553687
0.22065003 -0.015295246 -0.10663693 0.07405314 -0.19933666 0.018585576 -0.014679106 -0.048396684
00000000: 2095 393e b4d5 233c db87 adbd ecb9 08be
00000010: 139e 86bd 16fa 7ebd 7646 e6bd ada4 6fbb
00000020: 0f36 f33d 8000 02be ff40 6fbb 8c6d 1b3e
00000030: f922 17be b513 0a3c 93a1 4e3e 73dc 3a3d
00000040: ffb2 403e f000 eabc fb9c 16be fdc1 24be
00000050: ecf3 883d 9930 633e 06ec 043e e9c5 10be
00000060: 4198 e3bd 22a8 403e fa7d b53b d61c 0f3d
00000070: a8fc 333e a606 a6ba a543 7d3e 8321 4c3e
00000080: 55db 733e 72a2 07be 5755 383d d1f7 5a3e
00000090: 6ca5 06be ad4d d6bd 7243 86bd edb8 1abe
000000a0: 65d4 65be 85d5 5fbd 8563 253e 6ff5 f8bc
000000b0: 1ea0 b1b9 f8b2 21be 869d 84be b76b fb3d
000000c0: 2e52 083e 3117 06be fd39 023e 1410 0a3d
000000d0: 9d09 12be 7caa 663c a611 4dbe 019f 003e
000000e0: 2a62 e23d 7510 a7bd cae1 f2bd 978b a3bc
000000f0: a83e 6d3d e923 4b3d a714 68bd 3d68 94bc
00000100: fc61 283e 98b0 1dbe f8cb 77bd 308d 0fbd
00000110: e272 e83d cf42 f6bd 73d8 403e 51c1 14be
00000120: 5fdb e4bd 1419 18bd 8059 4ebd 039e a9bc
00000130: 748a 56bd cfee cd3d abef a73d 523b 12bc
00000140: fb23 b23d eabd 49be 98b7 c83b 4578 c23c
00000150: 2f32 943d 419f 32be 6779 6e3d 871b 923d
00000160: 589b 7abd 3de4 1b3e e275 0b3e 8be8 95bd
00000170: b8b3 ae3d 1a6c 103e b39c 013e ba84 a0bd
00000180: af74 0dbd 9f93 2cbd 76db a6bc ed14 203e
00000190: a7e3 f1bd aed9 423d 3571 19be 0ea6 213e
000001a0: a5af 123e 14bb 0d3e 590d 23bd 28d9 b53e
000001b0: 3d5a 04be 1df1 a83d bbe0 683e f6be d0bd
000001c0: 9685 dfbc ff04 43be 8329 a63d 7450 ca3d
000001d0: 0f44 9abb 1368 603e 6867 813e f9e4 68bb
000001e0: 15f2 613e e998 7abc 7664 dabd 2ca9 973d
000001f0: e91e 4cbe c740 983c a280 70bc 9a3b 46bd

model.encoder.rnn.bias_hh_l0 f4 [128]
0.06150816 0.07711696 0.004888876 0.06718967 0.15847105 0.025384182 0.0765299 -0.041451965
-0.08434677 -0.13211982 0.005910684 -0.08226914 -0.06399423 -0.069243915 -0.030584555 0.18269229
0.13329701 0.09433292 -0.005097624 -0.00593992 0.113771945 0.21469718 0.2614274 0.144438
0.060291655 0.048833683 -0.10641114 -0.042404693 -0.040984765 -0.037697077 -0.08736828 -0.12646887
0.17265111 -0.097414374 -0.0039103604 -0.009508582 0.0035630153 -0.074498504 0.21454976 -0.054388117
-0.02534819 -0.14248957 -0.005276608 0.22526301 -0.021599082 0.0021417178 -0.13805974 0.08625352
0.0044759964 -0.09539929 0.1658232 -0.1103363 0.08096144 0.0057477388 -0.120587155 0.029239826
-0.12739569 0.15705913 -0.019295348 -0.1065555 -0.06656225 0.18526675 0.008661597 0.06816931
0.060777698 0.07498979 0.11538362 -0.12671961 -0.0645948 -0.12222812 0.189251 -0.103216775
-0.057231944 0.113956444 -0.091332845 0.06286422 -0.09706496 0.07838658 -0.028325034 -0.19961943
-0.031470615 -0.17400214 -0.16256696 0.026773078 0.094801046 -0.16555241 0.10546617 0.08058436
-0.06561476 0.14500867 0.035779085 -0.01182669 -0.05392228 -0.01874077 0.14498374 -0.21884869
0.015591794 0.027458178 0.15007593 0.11961697 0.06304245 0.2917549 0.10106949 -0.09435336
0.07504444 -0.094725996 0.08551756 0.199977 -0.0055349628 0.14012621 0.15572175 -0.026230812
-0.014465741 -0.059064902 -0.074578665 0.14071049 -0.016841063 0.0904832 0.17260215 0.076908715
0.12330281 -0.118197426 -0.15114272 -0.10081944 -0.19960596 -0.13795939 0.056229737 0.15022804
00000000: fbef 7b3d 7fef 9d3d dd32 a03b bd9a 893d
00000010: 3c46 223e 7df2 cf3c b5bb 9c3d 89c9 29bd
00000020: 00be acbd 6b4a 07be 69ae c13b b97c a8bd
00000030: 680f 83bd c1cf 8dbd 768c fabc b013 3b3e
00000040: 037f 083e 9e31 c13d f809 a7bb a9a3 c2bb
00000050: 4401 e93d 94d9 5b3e d0d9 853e 8ee7 133e
00000060: 62f4 763d d405 483d 15ee d9bd 8bb0 2dbd
00000070: a4df 27bd 4068 1abd 24ee b2bd 0e81 01be
00000080: 74cb 303e 3081 c7bd 7b22 80bb e2c9 1bbc
00000090: 7a81 693b ac92 98bd efb2 5b3e 13c6 5ebd
000000a0: 02a7 cfbc c9e8 11be 65e7 acbb 59ab 663e
000000b0: 8ff0 b0bc 105c 0c3b 885f 0dbe afa5 b03d
000000c0: 61ab 923b b460 c3bd 8fcd 293e 00f8 e1bd
000000d0: 1dcf a53d 8757 bc3b 66f6 f6bd 5c88 ef3c
000000e0: 0474 02be 1cd4 203e 4711 9ebc c539 dabd
000000f0: ca51 88bd 91b6 3d3e 5fe9 0d3c 5a9c 8b3d
00000100: 09f2 783d 3f94 993d 3f4e ec3d c9c2 01be
00000110: 474a 84bd bd52 fabd 04cb 413e 5163 d3bd
00000120: 0b6c 6abd ff61 e93d b70c bbbd f5be 803d
00000130: fec9 c6bd 2589 a03d e709 e8bc 0969 4cbe
00000140: 55e7 00bd 9e2d 32be f477 26be 3753 db3c
00000150: 0d27 c23d 9286 29be a6fe d73d 6a09 a53d
00000160: 0861 86bd 277d 143e 178d 123d bcc4 41bc
00000170: 9cdd 5cbd 3e86 99bc 9e76 143e df19 60be
00000180: b974 7f3c f9ef e03c 81ad 193e bef9 f43d
00000190: 661c 813d e660 953e 85fd ce3d 563c c1bd
000001a0: e6b0 993d b4ff c1bd d523 af3d c5c6 4c3e
000001b0: a25e b5bb 3f7d 0f3e 8675 1f3e 00e2 d6bc
000001c0: b701 6dbc 0aee 71bd b3bc 98bd 6916 103e
000001d0: 45f6 89bc 424f b93d 9ebe 303e 5182 9d3d
000001e0: 2f86 fc3d 7e11 f2bd 28c5 1abe 6c7a cebd
000001f0: 8165 4cbe 3a45 0dbe 2751 663d 61d5 193e

model.decoder.convs.0.bias f4 [32]
-0.011312669 0.035373732 0.01422601 0.031388175 -0.034356542 0.014950047 0.022710308 0.016478397
-0.01381869 0.002813747 0.04422309 0.021200838 0.023667201 0.00055789226 -0.0064484817 -0.008568471
0.038395636 0.0063947835 0.046346914 0.026415106 -0.0040481715 -0.022517446 0.031632118 0.00091432635
0.026527412 -0.0010262496 0.029789772 0.027971394 0.004376123 0.03392333 -0.015258181 0.02929709
00000000: c658 39bc 0ce4 103d 3614 693c e390 003d
00000010: 72b9 0cbd 0bf1 743c f80a ba3c b4fd 863c
00000020: c967 62bc d766 383b 4523 353d 61ad ad3c
00000030: b8e1 c13c 843f 123a c94d d3bb c662 0cbc
00000040: be44 1d3d 558b d13b 43d6 3d3d 7e64 d83c
00000050: 86a6 84bb 8276 b8bc ae90 013d 67af 6f3a
00000060: 0450 d93c 3983 86ba ae09 f43c 4424 e53c
00000070: 9565 8f3b 31f3 0a3d 73fd 79bc 7300 f03c

model.decoder.convs.0.lin.weight f4 [32, 32]
0.006896985 0.085500024 0.13004972 -0.060388725 0.15374514 -0.17851923 -0.0061384067 -0.17594932
-0.16871968 0.15300982 0.16210805 -0.13955353 -0.04547317 0.0014527896 0.098260336 -0.012428095
-0.17257477 -0.12059169 0.15726162 -0.05983362 0.15675019 -0.047698174 -0.042162932 0.0081681125
-0.08702361 -0.019799085 -0.07353033 -0.043735094 -0.066431634 0.11163051 -0.13540158 0.078539416
0.20719902 0.10540956 -0.11738717 -0.11787026 0.12562126 -0.20763417 0.12567812 -0.08407794
0.09114553 0.031518333 0.05427171 -0.10891464 0.0534084 -0.0149461385 0.07299093 0.08801623
0.08446386 0.005642678 0.03188552 0.0061271484 -0.031815503 -0.098383285 -0.18938614 -0.00073434925
-0.04428438 0.056561507 0.13174723 0.12037194 0.022365533 -0.06405239 -0.075836524 -0.06429718
0.19649947 0.028055642 0.11356844 0.122844756 0.018474441 0.0062102457 -0.05353914 -0.15881373
0.0983957 -0.12579143 0.05620161 -0.006472319 0.16874042 -0.18575405 0.0024579884 -0.15518275
-0.13041756 0.027160125 0.10789275 0.072124474 0.051897988 0.042408627 -0.01038136 -0.029617371
-0.095428325 -0.023290966 0.13518803 -0.12849814 -0.05869667 0.08983881 -0.08197378 0.07606433
-0.083988346 0.031952303 0.123969406 -0.016394263 0.13429989 -0.171282 0.012446798 0.081660844
0.13112153 -0.031022917 -0.087962516 -0.12738447 0.13081707 0.06403241 0.0033483815 0.05075835
0.0075985775 -0.044217996 0.14280768 -0.08601256 -0.19833465 0.20619316 -0.08174654 0.073404916
0.017444987 -0.13977426 0.009379938 0.13681398 0.06603169 -0.093051456 0.17704721 -0.11653803
-0.04206523 -0.042959217 0.15278125 -0.06964986 0.028326383 0.13905644 -0.0079195155 -0.008855872
-0.11831516 -0.03253221 -0.12186704 -0.00024699487 -0.11804118 0.016362369 0.072214805 -0.17356722
-0.07084888 0.1566024 -0.17653461 0.17922923 0.042777564 -0.032745104 0.1580388 -0.0766553
-0.10034085 0.10654069 0.052717295 -0.20986806 0.11359569 0.108597815 0.027870009 0.07378423
-0.013546062 -0.0034687046 0.06669972 0.09182142 -0.13777347 0.022726662 0.1510979 -0.1078601
0.078042336 0.15284976 0.082447775 -0.0015188337 0.025330285 0.42156428 -0.12723185 -0.090628095
0.077914715 0.07495749 -0.022613855 -0.084043466 0.19463603 0.07893116 -0.15844439 -0.1109797
-0.13856757 -0.2680397 0.05117894 0.0063120346 0.07422822 -0.04031568 0.16662447 -0.07528944
0.022413662 -0.110548764 -0.074242726 -0.11074537 -0.038649984 -0.070688464 0.119028166 -0.13976014
-0.0011295613 -0.14811888 0.043712676 -0.051448572 0.074575886 0.08018943 0.013022087 0.045683112
0.002693658 0.14339681 0.1999159 0.04433014 -0.081547014 -0.027491054 -0.08521412 -0.09541403
0.09608194 0.23468313 0.008975542 0.17017534 -0.16408637 0.103010744 -0.15083754 0.10841864
-0.1109379 -0.04058414 -0.019420065 0.11159341 0.12537356 0.008344497 -0.07674497 -0.13485175
0.020647846 -0.16982344 -0.14082722 -0.13903195 0.027710002 -0.15772352 0.19528376 -0.015366224
0.13575724 -0.1970499 0.020289633 0.07750717 0.13854791 -0.15971355 0.13269046 0.16382323
0.0016580067 0.08449944 0.11027989 -0.03931471 -0.0891649 0.040464364 -0.0350287 0.19207372
00000000: 1b00 e23b a31a af3d c12b 053e 2b5a 77bd
00000010: 5e6f 1d3e bfcd 36be b024 c9bb 0f2c 34be
00000020: dac4 2cbe 9bae 1c3e a7ff 253e 1fe7 0ebe
00000030: 1342 3abd 886b be3a b73c c93d 359f 4bbc
00000040: 71b7 30be c7f8 f6bd 3109 213e 1914 75bd
00000050: 1f83 203e 295f 43bd 0ab3 2cbd 8cd3 053c
00000060: 6f39 b2bd b131 a2bc 1297 96bd 9223 33bd
00000070: 4f0d 88bd 899e e43d b6a6 0abe 46d9 a03d
00000080: fb2b 543e f8e0 d73d af68 f0bd f665 f1bd
00000090: dca2 003e 0d9e 54be c4b1 003e 0e31 acbd
000000a0: 82aa ba3d 5e19 013d 034c 5e3d a40e dfbd
000000b0: c4c2 5a3d a6e0 74bc 457c 953d da41 b43d
000000c0: 63fb ac3d 37e6 b83b 649a 023d 3fc6 c83b
000000d0: f950 02bd 2d7d c9bd 71ee 41be 5881 40ba
000000e0: 8a63 35bd 0aad 673d bfe8 063e 9085 f63d
000000f0: ec37 b73c e62d 83bd 2e50 9bbd 3dae 83bd
00000100: 2837 493e f2d4 e53c 9296 e83d 0896 fb3d
00000110: b657 973c 517f cb3b db4b 5bbd 11a0 22be
00000120: af83 c93d 78cf 00be a933 663d bf15 d4bb
00000130: 4aca 2c3e 4f36 3ebe 3416 213b 3ae8 1ebe
00000140: 2e8c 05be e97e de3c e0f6 dc3d ffb5 933d
00000150: fc92 543d abb4 2d3d 9416 2abc 21a0 f2bc
00000160: ed6f c3bd b2cc bebc bb6e 0a3e 0495 03be
00000170: eb6b 70bd 69fd b73d dfe1 a7bd 9ec7 9b3d
00000180: 1502 acbd 6be0 023d ace3 fd3d 434d 86bc
00000190: e985 093e 8c64 2fbe a8ed 4b3c cd3d a73d
000001a0: b944 063e c623 febc b125 b4bd 1371 02be
000001b0: e9f4 053e 6d23 833d 8570 5b3b fde7 4f3d
000001c0: 7dfd f83b ee1d 35bd 2d3c 123e 5a27 b0bd
000001d0: 3d18 4bbe 4d24 533e bb6a a7bd 5155 963d
000001e0: cae8 8e3c fc20 0fbe 50ae 193c f718 0c3e
000001f0: 9f3b 873d c391 bebd dd4b 353e 7eab eebd
00000200: 974c 2cbd 01f6 2fbd b072 1c3e 96a4 8ebd
00000210: bb0c e83c d064 0e3e dbc0 01bc 3818 11bc
00000220: 384f f2bd 7f40 05bd 6d95 f9bd 177f 81b9
00000230: 93bf f1bd 600a 863c 5be5 933d 9bbb 31be
00000240: 3819 91bd 615c 203e 7dc5 34be de87 373e
00000250: 8737 2f3d bb1f 06bd ecd4 213e 74fd 9cbd
00000260: 817f cdbd 0132 da3d 17ee 573d a7e7 56be
00000270: dba4 e83d 8868 de3d a54f e43c 301c 973d
00000280: 4df0 5dbc 3553 63bb dd99 883d de0c bc3d
00000290: 7d14 0dbe 442d ba3c 68b9 1a3e c2e5 dcbd
000002a0: a9d4 9f3d a684 1c3e 61da a83d 9a13 c7ba
000002b0: 7581 cf3c 46d7 d73e 1149 02be 399b b9bd
000002c0: c091 9f3d 5083 993d b140 b9bc fb1e acbd
000002d0: ab4e 473e a9a6 a13d 3f3f 22be 5349 e3bd
000002e0: a8e4 0dbe 803c 89be 02a1 513d 2fd5 ce3b
000002f0: f704 983d 0e22 25bd 9b9f 2a3e 5a31 9abd
00000300: db9c b73c 6467 e2bd 920c 98bd 78ce e2bd
00000310: 724f 1ebd 1dc5 90bd 0ac5 f33d 481d 0fbe
00000320: ca0d 94ba 7aac 17be 100c 333d bdbb 52bd
00000330: 3ebb 983d 5b3a a43d 975a 553c 371e 3b3d
00000340: 1588 303b 9dd6 123e c1b6 4c3e 8593 353d
00000350: 1f02 a7bd eb34 e1bc be84 aebd 6e68 c3bd
00000360: 9cc6 c43d c650 703e 270e 133c 7242 2e3e
00000370: 4206 28be 4cf7 d23d 2875 1abe 980a de3d
00000380: 6933 e3bd 8e3b 26bd d416 9fbc 168b e43d
00000390: ed61 003e 5bb7 083c 782c 9dbd 9416 0abe
000003a0: ac25 a93c 32e6 2dbe 0335 10be 645e 0ebe
000003b0: 1600 e33c 4682 21be 77f8 473e 9dc2 7bbc
000003c0: f203 0b3e 73c7 49be 7236 a63c 14bc 9e3d
000003d0: 81df 0d3e f38b 23be 02e0 073e 47c1 273e
000003e0: 7951 d93a 0b0e ad3d 6cda e13d 7608 21bd
000003f0: 169c b6bd f6bd 253d 417a 0fbd f9ae 443e

model.decoder.convs.0.root_lin.weight f4 [32, 32]
-0.090656094 -0.023494186 -0.115131944 -0.10835049 -0.016115164 -0.015482566 -0.033507355 0.041465852
0.031763367 0.00808783 -0.17078319 -0.08016568 0.03573676 -0.015869504 -0.043222547 0.16858153
0.0675289 0.027214317 -0.11154158 0.18640104 -0.1392005 -0.040100478 -0.03185759 0.09237162
0.13504314 -0.061164744 0.10786749 -0.0881128 -0.14726488 0.034363206 -0.05913074 -0.12449531
-0.08559224 0.063348845 0.05099947 0.03612337 -0.019577859 0.0865966 -0.14868006 0.09881594
0.08955441 -0.20926131 0.036178093 -0.034020413 0.005681882 0.067857474 0.014581932 -0.07909626
-0.04483123 -0.07354025 0.04109945 0.007250658 -0.19919954 0.12666571 -0.15948567 -0.051650055
0.11153311 0.018273568 -0.052681018 0.102386825 0.06924999 0.12756063 0.039474927 0.18199855
-0.16077326 0.18617626 0.08009301 -0.16818723 0.14250614 -0.1623013 0.0011515073 -0.05807966
0.05391755 -0.17280097 -0.114267685 -0.040044144 0.14279938 0.037835762 0.12949423 0.11351092
-0.06713228 0.16408342 -0.053137973 -0.14967577 0.16553304 -0.18729848 -0.10154521 0.082165495
-0.18758176 0.22351682 -0.009500245 0.039342634 -0.024487073 -0.20685597 -0.21555893 -0.05221298
-0.26534247 -0.011260168 0.012570403 0.080687866 0.11845569 0.26354632 -0.21327183 0.18228684
0.055103507 -0.06887802 -0.31533557 0.35130605 0.2483729 0.20208453 0.32272747 0.20470214
-0.22730084 -0.10792109 0.019756865 0.10621923 -0.3384807 0.4221402 -0.2576686 -0.07921583
0.2576462 0.14269191 0.08315002 -0.04384481 -0.096438624 0.13989866 0.20296474 0.5303115
-0.1270439 0.20452659 -0.006965389 -0.13991967 -0.104379855 0.013938148 -0.08931089 -0.09030581
0.083327666 0.07365002 -0.14799666 0.18362711 -0.028933616 -0.09158839 0.113744415 -0.091075584
-0.14553252 0.14944886 -0.008289337 0.15376762 0.045778725 -0.10968608 -0.12916166 0.05670999
-0.11866784 -0.15287517 0.048075084 0.12030277 0.15605684 0.0016773249 0.059945874 -0.027817179
-0.40188184 -0.03820287 -0.24006462 0.09701128 -0.052446906 0.35801128 -0.05255745 0.15626512
0.32002118 -0.17117576 -0.22010419 0.28695342 0.121379934 -0.0064481767 0.46132654 0.01294828
-0.31999308 -0.1505363 0.18890367 0.05035014 -0.18862197 0.39429393 -0.075266555 -0.09783765
0.4588962 0.076143704 0.15690334 0.09388043 0.14403716 -0.010183784 -0.058930162 0.49511686
-0.07428771 -0.20354226 -0.09629342 -0.12078467 -0.08527459 0.0109612895 -0.14914773 -0.05110625
0.22059613 0.067650065 0.10862244 0.13297291 0.061734412 -0.2054789 0.27638775 0.1564293
0.15508151 -0.19272263 -0.085104935 -0.0034680758 -0.19144778 0.2029188 0.039894223 0.060448583
-0.117894605 0.36884022 -0.10321099 0.036652427 -0.18002345 0.008017994 -0.43036586 0.031158296
-0.12045863 0.2143424 -0.09993608 -0.016446605 0.14813083 -0.12598841 0.017220063 0.069042474
-0.19824392 0.06622825 0.0013944692 -0.14137533 -0.04334216 -0.14636135 -0.13700037 0.022737514
0.06957406 -0.081672564 0.1489701 -0.06802808 0.1410111 -0.10929838 0.12340213 0.08589813
0.0061860085 0.06280331 0.18359125 0.090594865 0.1614017 0.056795906 -0.09290072 -0.11672348
00000000: e7a9 b9bd e176 c0bc 4cca ebbd dde6 ddbd
00000010: f303 84bc 97aa 7dbc 023f 09bd 19d8 293d
00000020: 4e1a 023d d182 043c cae1 2ebe e72d a4bd
00000030: b560 123d c300 82bc 200a 31bd a3a0 2c3e
00000040: 984c 8a3d 8ff0 de3c e96f e4bd eadf 3e3e
00000050: 938a 0ebe 6640 24bd 1b7d 02bd 552d bd3d
00000060: c048 0a3e e287 7abd a1e9 dc3d 7c74 b4bd
00000070: 9bcc 16be 6fc0 0c3d 1333 72bd 66f7 febd
00000080: fc4a afbd 0abd 813d d2e4 503d 19f6 133d
00000090: bf61 a0bc 8f59 b13d 963f 18be 0360 ca3d
000000a0: 4d68 b73d 9948 56be 7b2f 143d fd58 0bbd
000000b0: 152f ba3b dcf8 8a3d 0ee9 6e3c 38fd a1bd
000000c0: f4a0 37bd 459c 96bd e657 283d ed96 ed3b
000000d0: f7fa 4bbe a8b4 013e 3650 23be 028f 53bd
000000e0: 796b e43d 73b2 953c 0dc8 57bd 2fb0 d13d
000000f0: f0d2 8d3d 419f 023e 76b0 213d d45d 3a3e
00000100: bfa1 24be fda4 3e3e ce07 a43d 4639 2cbe
00000110: 21ed 113e 5032 26be 2cee 963a f0e4 6dbd
00000120: a6d8 5c3d bdf2 30be 2d05 eabd 5405 24bd
00000130: 003a 123e acf9 1a3d 239a 043e 6a78 e83d
00000140: a67c 89bd 7c05 283e 34a7 59bd 9b44 19be
00000150: 7e81 293e 2ccb 3fbe eff6 cfbd 6246 a83d
00000160: 6f15 40be 98e1 643e eaa6 1bbc be25 213d
00000170: 1d99 c8bc 0dd2 53be 7bbb 5cbe 47dd 55bd
00000180: f8da 87be 917c 38bc 17f4 4d3c ae3f a53d
00000190: e698 f23d 8bef 863e ee63 5abe 67a9 3a3e
000001a0: 37b4 613d eb0f 8dbd aa73 a1be 63de b33e
000001b0: 7755 7e3e 3fef 4e3e 893c a53e 709d 513e
000001c0: 8dc1 68be bc05 ddbd 26d9 a13c 7889 d93d
000001d0: 584d adbe c322 d83e 24ed 83be e93b a2bd
000001e0: 34ea 833e d41d 123e 8f4a aa3d 9e96 33bd
000001f0: 9d81 c5bd 9841 0f3e fdd5 4f3e 7fc2 073f
00000200: cc17 02be 6b6f 513e eb3d e4bb 1a47 0fbe
00000210: 1bc5 d5bd d45c 643c a1e8 b6bd 41f2 b8bd
00000220: b2a7 aa3d d2d5 963d 708c 17be bf08 3c3e
00000230: 3106 edbc b292 bbbd d5f2 e83d d685 babd
00000240: 7a06 15be 1f09 193e 00d0 07bc 4275 1d3e
00000250: 7982 3b3d 18a3 e0bd f442 04be bc48 683d
00000260: 2008 f3bd 4f8b 1cbe 61ea 443d 4c61 f63d
00000270: 5dcd 1f3e afd9 db3a ce89 753d dae0 e3bc
00000280: 75c3 cdbe 9d7a 1cbd 80d3 75be daad c63d
00000290: 91d2 56bd 414d b73e 7b46 57bd f703 203e
000002a0: d1d9 a33e b348 2fbe fe62 61be 8feb 923e
000002b0: 0b96 f83d 3a4b d3bb fe32 ec3e 0625 543c
000002c0: 22d6 a3be 3026 1abe f76f 413e f33b 4e3d
000002d0: 1e26 41be e5e0 c93e 5a25 9abd 1b5f c8bd
000002e0: 71f4 ea3e 3bf1 9b3d 45ab 203e 6244 c03d
000002f0: 7a7e 133e e3d9 26bc c160 71bd f57f fd3e
00000300: 2824 98bd 626d 50be 7c35 c5bd f45d f7bd
00000310: 72a4 aebd fb96 333c 2fba 18be ca54 51bd
00000320: f4e3 613e 1e8c 8a3d 7175 de3d 0d2a 083e
00000330: 39dd 7c3d 1069 52be b282 8d3e 012f 203e
00000340: b0cd 1e3e 1559 45be 7f4b aebd a848 63bb
00000350: e30a 44be f2c9 4f3e 2068 233d ef98 773d
00000360: ba72 f1bd a0d8 bc3e 4960 d3bd db20 163d
00000370: 1158 38be e85d 033c ea58 dcbe af3f ff3c
00000380: 04b3 f6bd 937c 5b3e 4aab ccbd 08bb 86bc
00000390: 9caf 173e 1b03 01be 1711 8d3c 2466 8d3d
000003a0: 7400 4bbe ada2 873d 9fc6 b63a b2c4 10be
000003b0: 8c87 31bd c0df 15be d349 0cbe 0644 ba3c
000003c0: d87c 8e3d f243 a7bd 9e8b 183e 4e52 8bbd
000003d0: 3765 103e d4d7 dfbd 42ba fc3d 5ceb af3d
000003e0: 00b4 ca3b 069f 803d 58ff 3b3e cd89 b93d
000003f0: 7d46 253e d3a2 683d bc42 bebd b80c efbd

model.decoder.convs.1.bias f4 [32]
0.028054193 0.0026035584 -0.024691503 0.02874959 0.011122616 -0.054753393 0.012471103 -0.015477232
-0.011689398 -0.01671855 -0.026554696 0.031384945 0.018991416 0.0 0.04552041 0.0
0.031990603 0.027965395 -0.008799031 0.020011095 -0.0011016012 0.01749753 0.03360432 0.028975708
0.017739484 -0.025307607 0.0099522555 -0.00724921 0.034557026 0.011835999 0.011750304 0.037851106
00000000: e8d1 e53c 76a0 2a3b d645 cabc 4384 eb3c
00000010: a23b 363c 1845 60bd 9953 4c3c 3794 7dbc
00000020: e484 3fbc 57f5 88bc 3c89 d9bc 808d 003d
00000030: e393 9b3c 0000 0000 9c73 3a3d 0000 0000
00000040: 9408 033d af17 e53c d029 10bc 4fee a33c
00000050: 9a63 90ba fb56 8f3c afa4 093d 775e ed3c
00000060: 6552 913c e651 cfbc c90e 233c c88a edbb
00000070: ab8b 0d3d c7eb 413c 5984 403c c309 1b3d

model.decoder.convs.1.lin.weight f4 [32, 32]
0.050684378 -0.017768247 -0.15772614 0.024087742 -0.04633177 -0.3104125 0.13932166 0.04498767
0.13028301 -0.12566535 -0.07500775 -0.053247664 0.15097599 -0.009314738 0.00067622814 -0.04312558
0.028864095 0.032694794 -0.061600428 0.110019125 0.039574057 0.04062469 0.12069284 0.025649404
-0.13978934 0.1378833 -0.027300254 -0.007500977 -0.043387517 -0.020818623 -0.039446637 0.11922265
-0.000121121535 0.07151277 0.105739765 0.14488667 0.09511891 0.3014766 0.12161818 -0.17543913
0.16029923 -0.048496787 0.11439537 -0.106091954 -0.14118105 0.01789436 0.027559096 -0.15062892
-0.088270806 0.26859477 -0.000259279 -0.024464227 0.054211885 -0.08072054 0.04929703 0.14368267
-0.08047817 0.17297953 0.1635577 -0.014762957 -0.02190135 0.15124114 -0.12623696 -0.040427532
-0.049664713 -0.13467076 -0.1311477 -0.14601025 -0.009755209 -0.17139116 -0.1019259 -0.007130183
0.017224 -0.031693093 -0.025338626 -0.02249942 -0.19525856 0.04097065 0.14327355 -0.13568318
0.0024215744 0.10312941 0.12129177 -0.03554044 -0.1658944 0.036862087 -0.13698132 0.13670291
0.03216941 -0.08500868 -0.029743845 0.1265461 0.06232569 0.054238703 -0.15148166 -0.117063046
-0.1440166 0.0027589535 -0.1788941 -0.09009394 -0.014574387 -0.04218321 0.05536899 0.07062475
0.018313596 0.062565595 -0.13198742 0.10089233 0.13427214 0.09397593 -0.12250842 0.056210402
-0.019285738 0.039441504 0.12950355 -0.040541843 0.092056386 -0.11157557 0.12354942 0.07380464
-0.09336732 -0.054413315 0.024313252 -0.0377445 0.13956511 0.18177652 0.08855928 0.15905602
-0.059049416 -0.003638157 -0.09214065 -0.06799055 0.036318745 0.22014578 0.13322969 -0.02659127
0.15272664 0.07911992 -0.097611606 -0.11330081 -0.051062685 0.13324901 -0.07833883 -0.13891907
0.024671102 -0.14883089 0.022857545 -0.009849223 -0.029928908 0.107408464 -0.12365896 -0.0358741
-0.073449515 0.16463718 0.012939475 -0.10656494 -0.1544156 0.012643681 0.0011894265 -0.041915126
-0.12240901 0.0693033 -0.17268308 -0.04096437 -0.05949523 0.43911535 0.04262348 -0.22211236
-0.041327115 0.111010544 0.028695073 -0.22555794 -0.18749359 0.038326062 -0.1286977 0.11438424
-0.17311333 -0.107450075 -0.13288648 0.018512582 0.13113731 -0.035702392 0.028025972 0.10923285
-0.10195452 0.077283464 -0.093177356 0.03875467 -0.16423963 -0.12356206 0.12929593 -0.13033992
0.1292811 0.093471885 -0.03856495 -0.037833173 -0.1584896 0.06307324 0.026801448 -0.0039720302
-0.17252155 0.13732195 0.14033325 -0.14386868 0.18843518 -0.03812085 0.02885276 0.005806159
0.12774432 0.031205468 0.012375694 0.033880178 0.011344406 0.10000758 0.056081057 0.019590419
0.047627285 0.13050814 0.07611005 -0.038044453 -0.2006091 0.0091053285 -0.14695206 -0.03087289
0.037225697 0.16840841 0.035683963 -0.13702986 -0.123648115 0.32179195 -0.17757209 -0.12217847
0.12957218 -0.13443398 0.12867667 0.15770036 0.14220147 0.071916565 0.10573929 -0.11334539
0.055300727 0.053828124 -0.0083799325 -0.13953921 -0.08789297 0.11532597 0.16243406 0.01058959
-0.06594405 0.12096018 0.16446106 -0.12899773 -0.025319962 -0.045632165 -0.15066615 0.11929293
00000000: 6c9a 4f3d b78e 91bc f682 21be a853 c53c
00000010: 62c6 3dbd 63ee 9ebe 56aa 0e3e fe44 383d
00000020: e968 053e 6bae 00be aa9d 99bd 391a 5abd
00000030: 7399 1a3e d89c 18bc e744 313a 73a4 30bd
00000040: 6574 ec3c faea 053d bb50 7cbd b551 e13d
00000050: 6818 223d 1366 263d cf2d f73d b31e d23c
00000060: f024 0fbe 4831 0d3e c8a4 dfbc c1ca f5bb
00000070: 1cb7 31bd d18b aabc cc92 21bd 012b f43d
00000080: a102 feb8 4a75 923d 178e d83d 2c5d 143e
00000090: b4cd c23d 245b 9a3e f412 f93d 51a6 33be
000000a0: 7b25 243e 91a4 46bd 1f48 ea3d bd46 d9bd
000000b0: c491 10be 3197 923c 9dc3 e13c 783e 1abe
000000c0: 53c7 b4bd 4185 893e d7ef 87b9 3469 c8bc
000000d0: 480d 5e3d cf50 a5bd afeb 493d 8d21 133e
000000e0: bdd1 a4bd 8c21 313e ab7b 273e 54e0 71bc
000000f0: 766a b3bc f5de 1a3e 4344 01be 5797 25bd
00000100: 3a6d 4bbd 22e7 09be 954b 06be b683 15be
00000110: 50d4 1fbc 2a81 2fbe 87be d0bd 4fa4 e9bb
00000120: 5919 8d3c 9ed0 01bd f392 cfbc b450 b8bc
00000130: dcf1 47be d7d0 273d 4db6 123e 88f0 0abe
00000140: 47b3 1e3b 8335 d33d d267 f83d da92 11bd
00000150: 39e0 29be b3fc 163d d544 0cbe d9fb 0b3e
00000160: 12c4 033d 0819 aebd 5da9 f3bc 4d95 013e
00000170: 3949 7f3d 6729 5e3d 021e 1bbe c0be efbd
00000180: 1679 13be 8fcf 343b 0430 37be 2c83 b8bd
00000190: 69c9 6ebc 4dc8 2cbd 98ca 623d b5a3 903d
000001a0: 6506 963c 6422 803d b627 07be a3a0 ce3d
000001b0: a37e 093e 7476 c03d b2e5 fabd e13c 663d
000001c0: 20fd 9dbc 6a8d 213d 949c 043e 340f 26bd
000001d0: 0f88 bc3d bc81 e4bd 7a07 fd3d e326 973d
000001e0: 5e37 bfbd 7fe0 5ebd 962c c73c fa99 1abd
000001f0: 28ea 0e3e a023 3a3e 915e b53d 95df 223e
00000200: cddd 71bd 256e 6ebb 3db4 bcbd a13e 8bbd
00000210: f7c2 143d e56d 613e 5d6d 083e efd5 d9bc
00000220: 5f64 1c3e a009 a23d 98e8 c7bd 410a e8bd
00000230: 1b27 51bd 6e72 083e 1c70 a0bd cd40 0ebe
00000240: 0d1b ca3c 2067 18be bf3f bb3c a35e 21bc
00000250: 782d f5bc f8f8 db3d e940 fdbd b8f0 12bd
00000260: b36c 96bd a696 283e 1700 543c b83e dabd
00000270: 1f1f 1ebe 7127 4f3c 88e6 9b3a 32af 2bbd
00000280: 93b1 fabd e3ee 8d3d d5d3 30be 41ca 27bd
00000290: 45b1 73bd bad3 e03e f595 2e3d 6c71 63be
000002a0: 9f46 29bd 7f59 e33d ee11 eb3c a9f8 66be
000002b0: 52fe 3fbe cafb 1c3d 54c9 03be 4942 ea3d
000002c0: 9f44 31be c90e dcbd 6513 08be b3a7 973c
000002d0: dc48 063e ac3c 12bd b996 e53c 79b5 df3d
000002e0: 88cd d0bd cb46 9e3d c5d3 bebd 38bd 1e3d
000002f0: 6f2e 28be 1b0e fdbd 2766 043e d477 05be
00000300: 4462 043e 306e bf3d 48f6 1dbd f5f6 1abd
00000310: 194b 22be 8b2c 813d b68e db3c ce27 82bb
00000320: 7da9 30be 209e 0c3e 85b3 0f3e 5052 13be
00000330: 27f5 403e 9c24 1cbd a05c ec3c 9841 be3b
00000340: 68cf 023e 9ca2 ff3c 6cc3 4a3c f1c5 0a3d
00000350: e3dd 393c c6d0 cc3d 40b5 653d 167c a03c
00000360: d414 433d eda3 053e 96df 9b3d 80d4 1bbd
00000370: 796c 4dbe 842e 153c 9a7a 16be 25e9 fcbc
00000380: f979 183d 4173 2c3e 5929 123d 8e51 0cbe
00000390: 393b fdbd eac1 a43e 75d5 35be b538 fabd
000003a0: 92ae 043e 10a9 09be d1c3 033e 347c 213e
000003b0: 439d 113e fe48 933d d78d d83d a121 e8bd
000003c0: 0483 623d e17a 5c3d fc4b 09bc 5ee3 0ebe
000003d0: 3b01 b4bd 0630 ec3d 1d55 263e f67f 2d3c
000003e0: ad0d 87bd f9b9 f73d 7b68 283e fb17 04be
000003f0: cf6b cfbc cbe8 3abd 3a48 1abe da4f f43d

model.decoder.convs.1.root_lin.weight f4 [32, 32]
-0.12052284 0.011845245 -0.06195104 -0.09452587 0.0024971035 -0.023719134 -0.12260354 0.18259639
0.010778335 -0.1570321 0.1274402 0.15705062 0.048762035 -0.0023653877 -0.12417708 -0.014951656
0.1367738 -0.0022728087 0.1659775 0.2579657 0.10702827 -0.009661986 -0.10122271 -0.17197526
-0.12863718 0.009167516 0.036992848 0.13727032 0.07666756 0.21927315 0.075302765 0.046553038
-0.111313455 0.20199573 -0.18305787 0.41453344 -0.056686554 0.8154253 -0.04871395 -0.17397535
0.038491324 0.23705237 -0.20295274 0.090632476 0.14719644 0.2587846 -0.10347084 0.02407197
0.09279605 0.27602062 -0.06940411 -0.23291296 0.05779976 -0.11199256 -0.18515927 0.5031291
0.03438731 0.21461584 -0.044862654 -0.18647549 0.052898802 0.0694812 0.111096025 0.015558104
0.11766828 0.09888227 -0.02797968 -0.11694835 -0.12324696 -0.11607479 -0.11291904 0.10987358
0.15509298 -0.14821766 0.11878369 0.061947864 -0.08041195 -0.08302127 -0.042195667 0.07950188
0.018298024 -0.17896613 0.12575091 -0.00299213 -0.0868441 -0.010149342 -0.028018601 0.134267
0.12802541 -0.025372291 -0.13004 -0.15593694 -0.031760734 -0.11753994 -0.18010445 -0.07107059
0.17010948 -0.10967945 -0.005222969 -0.2445628 -0.028571097 -0.06301843 0.074857265 0.07223405
-0.09797624 0.12664385 0.10935643 0.112795405 0.014641911 0.1409209 -0.15185975 0.11154277
-0.19804206 0.08635979 0.048148222 0.076100424 -0.0862676 0.13599476 0.045876775 -0.0019061967
0.11386583 -0.14230001 0.13826595 -0.07190336 -0.07889451 -0.048120186 -0.19478302 0.15629092
0.055956427 0.20135614 0.009822802 0.27368686 0.065713145 0.70748204 0.19011405 -0.03628558
0.11499781 0.023832161 0.005660408 -0.042151533 0.18411829 0.1427549 0.14177948 -0.030242337
0.17280228 0.14930122 0.066468276 0.020831281 0.024527397 -0.1293426 -0.14102544 0.38919616
0.015971925 -0.054370064 0.2221746 0.027493564 0.1845375 -0.17850992 -0.10200987 0.105814025
-0.13915715 0.19336325 -0.19795309 0.6011027 -0.06352726 0.7551966 0.12552188 -0.22440651
0.1607359 0.048795287 -0.18122853 -0.24830945 0.03895229 0.28876892 0.15521747 -0.17934331
0.22838335 0.34097648 -0.3371524 -0.12673703 -0.119720526 -0.16290346 -0.31923163 0.75120556
-0.06624576 0.15885627 -0.030967778 -0.08910005 0.29447335 -0.38993552 -0.028520172 -0.0006684518
0.03781709 0.13158964 -0.026976485 0.3273511 -0.07956868 0.6940001 -0.08563824 -0.109354705
0.21027793 -0.06360311 -0.07917622 0.07323558 0.14101386 0.08711408 -0.09890944 -0.011173061
0.21050507 0.13176236 -0.1077907 -0.08595223 0.008991966 -0.15635727 -0.19155283 0.49737403
0.19435656 0.1199312 0.037294287 -0.12350025 0.041124545 -0.0505373 0.16243441 0.1505817
0.026699152 -0.012345978 -0.15709528 0.47938794 -0.05170892 0.56209046 0.0737158 -0.07449469
0.06577087 0.10804395 -0.12607226 -0.13893177 -0.15418418 0.12643066 0.03743563 -0.19147114
0.19831604 0.27246198 0.03711608 -0.058926657 -0.009972892 0.0825906 0.060851265 0.35985857
0.14008589 0.004171874 0.15930192 0.13654928 0.16622072 -0.08807231 0.2136608 -0.032075327
00000000: aed4 f6bd 8f12 423c 60c0 7dbd c896 c1bd
00000010: 72a6 233b a14e c2bc 9117 fbbd 8cfa 3a3e
00000020: 9d97 303c 06cd 20be af7f 023e e1d1 203e
00000030: b3ba 473d 9f04 1bbb 8e50 febd caf7 74bc
00000040: 6e0e 0c3e 67f3 14bb 01f6 293e 1514 843e
00000050: a331 db3d 4e4d 1ebc da4d cfbd 481a 30be
00000060: 77b9 03be 5933 163c d085 173d 9790 0c3e
00000070: e203 9d3d 2489 603e 5638 9a3d 66ae 3e3d
00000080: 4ff8 e3bd f8d7 4e3e 8673 3bbe ba3d d43e
00000090: 2930 68bd b6bf 503f 4788 47bd 9826 32be
000000a0: 14a9 1d3d dbbd 723e d8d2 4fbe 859d b93d
000000b0: aaba 163e 6a7f 843e 85e8 d3bd 9432 c53c
000000c0: db0b be3d 9352 8d3e be23 8ebd bc80 6ebe
000000d0: 71bf 6c3d 5b5c e5bd 649a 3dbe 12cd 003f
000000e0: b5d9 0c3d 41c4 5b3e e7c1 37bd 6ef3 3ebe
000000f0: 6aac 583d 294c 8e3d 5086 e33d 6be7 7e3c
00000100: 11fc f03d ca82 ca3d a435 e5bc 9e82 efbd
00000110: e768 fcbd 9fb8 edbd 1942 e7bd 6605 e13d
00000120: b2d0 1e3e 5fc6 17be dd44 f33d 0bbd 7d3d
00000130: 05af a4bd 0e07 aabd 5dd5 2cbd e2d1 a23d
00000140: bde5 953c e642 37be d9c4 003e 9c17 44bb
00000150: 52db b1bd 6d49 26bc 4487 e5bc 4a7d 093e
00000160: 1819 033e 8dd9 cfbc 3529 05be efad 1fbe
00000170: 8b17 02bd c8b8 f0bd 4d6d 38be 758d 91bd
00000180: 2e31 2e3e 9f9f e0bd 7125 abbb ac6e 7abe
00000190: ef0d eabc ce0f 81bd c44e 993d 72ef 933d
000001a0: c4a7 c8bd edae 013e 44f6 df3d 4701 e73d
000001b0: a0e4 6f3c 924d 103e 1f81 1bbe 8970 e43d
000001c0: 8acb 4abe 67dd b03d 1237 453d 8ada 9b3d
000001d0: 11ad b0bd 3642 0b3e 49e9 3b3d 59d9 f9ba
000001e0: 7d32 e93d 18b7 11be 9795 0d3e 1242 93bd
000001f0: 7293 a1bd ac19 45bd 3375 47be ba0a 203e
00000200: 9132 653d 4e30 4e3e d1ef 203c af20 8c3e
00000210: 9d94 863d 8b1d 353f 42ad 423e 30a0 14bd
00000220: f983 eb3d aa3b c33c f27a b93b 16a7 2cbd
00000230: 8189 3c3e 572e 123e a42e 113e c7be f7bc
00000240: 15f3 303e 6be2 183e 8520 883d 5da6 aa3c
00000250: aeed c83c 6372 04be f968 10be b844 c73e
00000260: 8ed7 823c 25b3 5ebd bd81 633e 2f3a e13c
00000270: 66f7 3c3e 4ecb 36be 8dea d0bd 06b5 d83d
00000280: 367f 0ebe 0401 463e 37b4 4abe dee1 193f
00000290: 951a 82bd 9054 413f cf88 003e d2ca 65be
000002a0: f497 243e 91dd 473d f993 39be d544 7ebe
000002b0: 708c 1f3d 85d9 933e 54f1 1e3e c6a5 37be
000002c0: 53dd 693e 7894 ae3e 3d9f acbe 5ac7 01be
000002d0: 0930 f5bd 2ad0 26be 5472 a3be 024f 403f
000002e0: dbab 87bd 38ab 223e 23b0 fdbc 167a b6bd
000002f0: 36c5 963e a1a5 c7be 23a3 e9bc 0a3b 2fba
00000300: 18e6 1a3d 6fbf 063e cafd dcbc 909a a73e
00000310: e7f4 a2bd fea9 313f 1a63 afbd 5cf5 dfbd
00000320: 1953 573e 5942 82bd 2427 a2bd 89fc 953d
00000330: f065 103e de68 b23d 0891 cabd 370f 37bc
00000340: a48e 573e b6ec 063e 5fc1 dcbd b907 b0bd
00000350: 0a53 133c 1f1c 20be 6d26 44be cfa7 fe3e
00000360: 6805 473e 7d9e f53d e5c1 183d b3ed fcbd
00000370: 3672 283d 3300 4fbd 3555 263e 1732 1a3e
00000380: 2eb8 da3c c946 4abc 96dd 20be 5672 f53e
00000390: bccc 53bd 29e5 0f3f 4ff8 963d ac90 98bd
000003a0: e1b2 863d 2546 dd3d 1619 01be 2144 0ebe
000003b0: 75e2 1dbe 0a77 013e 1a56 193d 0311 44be
000003c0: 5c13 4b3e 2380 8b3e 0807 183d 145d 71bd
000003d0: 5765 23bc 4325 a93d 2d3f 793d 623f b83e
000003e0: ad72 0f3e 37b4 883b 0b20 233e 93d3 0b3e
000003f0: c435 2a3e 415f b4bd e6c9 5a3e 6b61 03bd
