code/logs/epoch=18-step=30134.ckpt (torch, 740911 bytes, 84 tensors)

model.upscale.weight f4 [64, 1]
0.019867145 0.007029369 0.2003064 -0.5516626 -1.0630033 -1.375948 -0.8379926 0.07672458
-0.1940849 6.739574e-05 -0.06817368 -0.48668373 0.043864407 -0.14076301 -0.015519244 -1.3417437
-0.046127558 -0.7390415 -0.57324785 -0.41045123 -0.57295203 0.18637969 -0.78412217 -0.8449443
-0.15820606 -0.17135501 0.24438949 -0.7990836 -0.019426703 0.24408552 0.50134736 -0.008358114
-1.2145398 0.22328757 0.0053942236 0.117230244 -0.26605904 -0.0077751973 -0.004561875 -0.9182997
-1.1017222 0.0057916865 -0.7073388 8.424568e-05 -0.6910429 0.5777993 -0.9698603 0.0076311836
-0.004648971 -0.7008911 -1.0523722 -0.60987395 0.28902864 -1.1590203 -0.8912653 -0.94746095
-0.21539947 -0.0016449739 -0.86986583 0.5182216 -0.03275699 -1.0252302 -0.29612386 -0.16659372
00000000: 6cc0 a23c 9f56 e63b 1f1d 4d3e c339 0dbf
00000010: 7e10 88bf 101f b0bf af86 56bf c721 9d3d
00000020: 31be 46be d056 8d38 a49e 8bbd 9c2e f9be
00000030: 2aab 333d 2e24 10be 6d44 7ebc 42be abbf
00000040: 40f0 3cbd d331 3dbf 5fc0 12bf aa26 d2be
00000050: fcac 12bf 51da 3e3e 3bbc 48bf 454e 58bf
00000060: c500 22be b077 2fbe 3d41 7a3e be90 4cbf
00000070: c024 9fbc 8ef1 793e 4d58 003f 79f0 08bc
00000080: 0a76 9bbf 7fa5 643e 07c2 b03b 6916 f03d
00000090: e438 88be 15c7 febb c87b 95bb b015 6bbf
000000a0: 3c05 8dbf 30c8 bd3b 2814 35bf 0ead b038
000000b0: 30e8 30bf a8ea 133f c448 78bf 020f fa3b
000000c0: 6556 98bb 996d 33bf 22b4 86bf b320 1cbf
000000d0: 90fb 933e c75a 94bf f629 64bf cd8c 72bf
000000e0: ae91 5cbe 2a9c d7ba 87af 5ebf 2caa 043f
000000f0: 322c 06bd be3a 83bf 8c9d 97be 8b97 2abe

model.upscale.bias f4 [64]
0.34259164 -0.7863858 -1.083465 0.26092377 0.073748596 -0.3767452 -0.17681569 -0.7252654
0.47225845 -0.18077369 0.0024500722 0.505442 -0.6967532 0.05331492 -0.6024686 -0.25382382
-0.27727342 0.15014301 0.7270477 0.1076753 0.09723626 -0.95362157 -0.7275026 0.39740372
0.2969849 -0.7318889 -1.2613419 0.62241066 -0.21696234 -0.2505952 0.71171427 -0.010702966
0.60879624 -0.40718532 -0.7468133 -0.7530044 0.117879875 -0.06714617 -0.021974022 -0.55719674
0.010343951 -0.94795865 0.13504225 -0.013315127 -0.03166281 -0.093269095 0.4699809 0.028947596
-0.049152814 -0.34588155 -0.6323623 0.77081025 -1.3684952 0.115122445 -0.03533284 -0.5300131
0.6142127 -0.050952513 0.69175124 0.44147822 0.6048293 -0.42211953 -0.7492776 0.53628045
00000000: 2c68 af3e 9450 49bf fbae 8abf cd97 853e
00000010: 8109 973d bfe4 c0be 2c0f 35be feaa 39bf
00000020: dccb f13e bd1c 39be 6491 203b a664 013f
00000030: 6b5e 32bf bf60 5a3d 623b 1abf 32f5 81be
00000040: c8f6 8dbe 17bf 193e cc1f 3a3f de84 dc3d
00000050: ce23 c73d 8b20 74bf 9c3d 3abf 8078 cb3e
00000060: 680e 983e 125d 3bbf a773 a1bf 4e56 1f3f
00000070: 602b 5ebe 044e 80be e832 363f 7e5b 2fbc
00000080: 12da 1b3f 987a d0be 282f 3fbf e5c4 40bf
00000090: 016b f13d ee83 89bd dd02 b4bc 72a4 0ebf
000000a0: ad79 293c 6bad 72bf 8448 0a3e b127 5abc
000000b0: ddb0 01bd de03 bfbd 56a1 f03e 8223 ed3c
000000c0: 7654 49bd 6317 b1be 7fe2 21bf d253 453f
000000d0: da2a afbf 51c5 eb3d 2bb9 10bd f0ae 07bf
000000e0: 0b3d 1d3f 95b3 50bd 9c16 313f 6f09 e23e
000000f0: 18d6 1a3f 0d20 d8be a8d0 3fbf ad49 093f

model.spatialSeq1.0.msg_mlp.0.weight f4 [32, 128]
-0.075936005 0.05710204 -0.16861102 -0.045851834 -0.014136404 0.017032584 -0.024667922 -0.008884474
-0.14364251 -0.032898694 0.03316584 -0.0729999 -0.08042174 -0.024519578 -0.059969775 -0.059969183
-0.017446129 -0.02807689 -0.09562751 -0.0050684065 0.05880188 -0.034419842 0.32711416 -0.027132979
0.025653467 -0.08815836 -0.035755586 0.01971018 0.012448862 0.09560202 -0.038930908 -0.10219762
0.081623055 -0.044473477 -0.0138871465 0.025393395 0.023655195 0.05232256 0.038548037 0.31594935
-0.08053593 -0.10049178 0.024562743 0.093624935 0.030488437 0.02658917 -0.0352492 0.083350025
0.03342337 0.1776395 0.28376943 -0.09470234 0.062012084 -0.004603424 -0.10430795 0.13555376
-0.13694087 0.0028660635 -0.0124958 0.011682998 0.03342737 0.18265529 -0.03982504 -0.0004815536
0.046716407 0.033335395 0.025053151 0.09236725 -0.0987809 -0.15354551 -0.05357044 0.06637473
-0.017080894 -0.067545444 -0.048999056 -0.083269 0.016519235 -0.03699906 -0.014670624 -0.119113766
0.07917055 0.08027974 0.029453333 0.08946336 -0.053280123 0.10075004 -0.025464486 0.044482406
-0.076036364 0.024303937 0.055539064 -0.043991335 -0.03476943 -0.012900283 0.022298597 0.04619409
0.072562784 0.04910579 -0.052164372 -0.043809224 0.07941116 0.06272317 0.0006651017 -0.92878044
0.03471412 0.057832927 0.066778444 -0.044329885 -0.1129647 0.0718513 -0.01617541 0.028619038
-0.05113719 -0.62353605 -0.9012691 -0.017219575 0.011615769 -0.077131055 -0.04056605 -0.8490509
0.061968207 -0.12677863 0.0127275735 0.09243579 -0.02845733 -0.69826525 0.087612495 0.01015952
0.078731745 -0.107400954 -0.24575223 0.03894999 -0.08972905 0.06225094 0.089251414 -0.14452943
0.04297217 0.043742325 -0.06884836 0.048367642 -0.23445497 -0.065482125 -0.1729436 -0.07370855
-0.009358781 -0.0817315 -0.08178296 0.015317136 0.0046256413 -0.13201573 0.15255119 0.06319079
-0.06380129 0.047628436 -0.12158707 0.020669993 0.01755568 0.057766 -0.043989368 0.011065806
0.013256315 -0.044303875 0.011348949 0.0022994357 -0.107046805 -0.022708986 0.021048501 -0.14871779
-0.12066903 -0.22634836 0.04062946 0.06296818 -0.098624006 -0.01632183 0.008865141 0.05831065
0.06691518 0.034269396 -0.0997049 -0.085279316 -0.10691926 -0.029907921 -0.04609315 -0.07669064
0.021037964 -0.06605276 0.041847542 -0.0024772529 0.05538406 0.09855018 0.073688045 -0.028608665
-0.057797715 0.11755676 -0.19718824 0.0075539565 0.04864476 0.2958459 0.11346264 -0.14656194
0.040525172 -0.048003297 -0.07076226 -0.044043873 -0.05094976 -0.049749397 -0.057193577 0.36173645
-0.07026837 0.10082273 -0.06684227 0.15775739 0.07280781 0.08380208 -0.14243798 -0.0180732
0.021911176 -0.04788217 0.03765366 0.01875589 0.066979885 0.12994379 -0.07227079 0.06661546
0.043253403 0.11057569 0.02901117 0.05424703 0.07845034 -0.004503958 0.090813816 -0.6917802
0.15746744 -0.04502207 0.07187823 -0.008767634 0.2196445 0.06315395 0.053833 -0.06595764
-0.033965517 -0.35618788 -0.7414245 0.061349656 -0.06765341 0.03745017 0.16705227 -0.6580762
-0.05820636 0.068801984 -0.06587222 -0.03335443 -0.00884577 -0.24617131 -0.05869722 -0.004374423
00000000: 5684 9bbd d4e3 693d 5ea8 2cbe 22cf 3bbd
00000010: 609c 67bc eb87 8b3c 6214 cabc 2f90 11bc
00000020: 0617 13be c8c0 06bd e7d8 073d f980 95bd
00000030: 27b4 a4bd 48dd c8bc dea2 75bd 3fa2 75bd
00000040: 2feb 8ebc 8201 e6bc 5bd8 c3bd e014 a6bb
00000050: 3dda 703d d2fb 0cbd 827b a73e fb45 debc
00000060: 3827 d23c 5f8c b4bd 7374 12bd 3e77 a13c
00000070: 50f6 4b3c feca c33d 0476 1fbd fc4c d1bd
00000080: fd29 a73d d229 36bd ea86 63bc cf05 d03c
00000090: 8ac8 c13c 2e50 563d 8ce4 1d3d 1dc4 a13e
000000a0: 06f0 a4bd a2ce cdbd ce37 c93c 6ebe bf3d
000000b0: e3c2 f93c 88d1 d93c 7761 10bd 6bb3 aa3d
000000c0: f2e6 083d 21e7 353e 3a4a 913e 4df3 c1bd
000000d0: 6200 7e3d 52d8 96bb 689f d5bd 9bce 0a3e
000000e0: 3a3a 0cbe 91d4 3b3b 2fbb 4cbc 0c6a 3f3c
000000f0: 23eb 083d fd09 3b3e 951f 23bd 0879 fcb9
00000100: b459 3f3d b28a 083d 443c cd3c 0a2b bd3d
00000110: a44d cabd 093b 1dbe ad6c 5bbd 79ef 873d
00000120: 3bed 8bbc 4455 8abd 3cb3 48bd f088 aabd
00000130: 5953 873c 548c 17bd 0f5d 70bc ebf1 f3bd
00000140: 2b24 a23d b469 a43d 1e48 f13c 9138 b73d
00000150: 423c 5abd 0956 ce3d e69a d0bc 2f33 363d
00000160: f4b8 9bbd 0d19 c73c ee7c 633d 4230 34bd
00000170: 646a 0ebd b55b 53bc 8cab b63c 0436 3d3d
00000180: cc9b 943d 2723 493d 4faa 55bd 4d71 33bd
00000190: 51a2 a23d 0175 803d 385a 2e3a 8ec4 6dbf
000001a0: 6530 0e3d 38e2 6c3d 23c3 883d 4193 35bd
000001b0: 095a e7bd c626 933d 4b82 84bc 7972 ea3c
000001c0: 3b75 51bd 0fa0 1fbf 92b9 66bf 1110 8dbc
000001d0: 1150 3e3c e3f6 9dbd 9628 26bd 665b 59bf
000001e0: 60d2 7d3d 42d2 01be 5087 503c fa4e bd3d
000001f0: 591f e9bc 83c1 32bf 2e6e b33d 1e74 263c
00000200: 1c3e a13d 08f5 dbbd 79a6 7bbe 068a 1f3d
00000210: ddc3 b7bd d7fa 7e3d 72c9 b63d 86ff 13be
00000220: 9603 303d 272b 333d 5e00 8dbd 261d 463d
00000230: f714 70be 7e1b 86bd 2118 31be 82f4 96bd
00000240: 9355 19bc d862 a7bd d37d a7bd baf4 7a3c
00000250: b192 973b 222f 07be 6136 1c3e 2c6a 813d
00000260: 40aa 82bd 0916 433d a402 f9bd 1e54 a93c
00000270: eed0 8f3c 0b9c 6c3d 322e 34bd 5b4d 353c
00000280: 0431 593c fb77 35bd f1f0 393c 21b2 163b
00000290: 5b3b dbbd 3208 babc e86d ac3c 7a49 18be
000002a0: 5321 f7bd ddc7 67be 146b 263d 76f5 803d
000002b0: 62fb c9bd 5cb5 85bc 193f 113c 26d7 6e3d
000002c0: d30a 893d 115e 0c3d 1532 ccbd eca6 aebd
000002d0: 7cf8 dabd 7501 f5bc 2ccc 3cbd fb0f 9dbd
000002e0: cf57 ac3c ab46 87bd 5468 2b3d 6859 22bb
000002f0: 65da 623d add4 c93d c2e9 963d b85c eabc
00000300: 4cbd 6cbd 99c1 f03d b7eb 49be 2e87 f73b
00000310: ba3f 473d 1d79 973e 1a5f e83d 5514 16be
00000320: b9fd 253d 1b9f 44bd ceeb 90bd 5967 34bd
00000330: b2b0 50bd 06c6 4bbd d043 6abd 8535 b93e
00000340: dde8 8fbd 267c ce3d 9ae4 88bd 278b 213e
00000350: 431c 953d 6da0 ab3d 43db 11be 3f0e 94bc
00000360: 117f b33c 1820 44bd b93a 1a3d f4a5 993c
00000370: c02c 893d fc0f 053e b502 94bd b06d 883d
00000380: 7b2a 313d 8275 e23d d5a8 ed3c 2232 5e3d
00000390: 92aa a03d f095 93bb 98fc b93d 8218 31bf
000003a0: 253f 213e 1069 38bd e534 933d 1fa6 0fbc
000003b0: 7dea 603e dc56 813d fe7f 5c3d cd14 87bd
000003c0: 6d1f 0bbd 425e b6be ffcd 3dbf c749 7b3d
000003d0: df8d 8abd 5965 193d c00f 2b3e af77 28bf
000003e0: cb69 6ebd 0ee8 8c3d 04e8 86bd a89e 08bd
000003f0: d9ed 10bc 5514 7cbe 7f6c 70bd 5257 8fbb

model.spatialSeq1.0.msg_mlp.0.bias f4 [32]
-0.02856484 -0.021544764 0.07776082 -0.062707596 0.061991826 -0.02877016 0.06203537 0.08814731
0.004634781 -0.10358148 0.047869027 -0.012960885 -0.23677826 -0.1299891 -0.0620143 -0.0041377936
-0.079832084 -0.0496106 0.020312533 0.05548293 -0.043539245 0.09895118 0.06697964 0.064454004
0.0007873237 -0.041418184 -0.018755622 -0.11846259 -0.055390116 0.002118725 -0.12622036 0.08699143
00000000: d000 eabc a57e b0bc 1141 9f3d d76c 80bd
00000010: 24eb 7d3d 66af ebbc cd18 7e3d 9486 b43d
00000020: 5cdf 973b 8722 d4bd 5012 443d e459 54bc
00000030: 0076 72be dd1b 05be b502 7ebd 5496 87bb
00000040: 017f a3bd 7c34 4bbd 7866 a63c 1242 633d
00000050: 3556 32bd eba6 ca3d 9f2c 893d 7600 843d
00000060: 6664 4e3a 1da6 29bd 64a5 99bc 849c f2bd
00000070: bfe0 62bd 4fda 0a3b e93f 01be 9028 b23d

model.spatialSeq1.0.msg_mlp.2.weight f4 [64, 32]
-0.0858111 -0.047983903 -0.13885263 -0.09205037 0.06859421 -0.12483146 0.02100714 0.031255122
0.06868676 -0.12591182 0.14261009 -0.0004064573 0.046727426 -0.15881164 -0.26804763 0.11013392
-0.17703085 -0.19819795 0.03317359 -0.022659212 -0.0068402127 -0.12583168 -0.010859408 0.062224492
-0.030234417 0.05159212 0.105865195 -0.06400293 0.06604512 -0.1998621 0.015636982 -0.17406394
-0.033365067 -0.06649661 -0.093223915 0.0891558 -0.05520363 0.08518881 -0.034077674 0.017748376
0.06388489 0.054879427 0.07517534 0.099006586 0.025822943 0.033264752 0.02542574 0.064055964
-0.07682823 -0.011148235 0.22040209 -0.013071754 -0.090021476 0.00943528 0.056500204 -0.06180998
-0.04543801 -0.0029073502 0.00869676 -0.03366243 -0.016567 0.07674308 0.0932694 -0.05450704
-0.08108693 -0.010164751 -0.063986644 0.04753157 0.097803414 -0.014472518 -0.14982069 0.07914054
0.008974759 -0.020719115 -0.17350346 -0.0030316405 0.0057169823 0.04769126 -0.019096399 0.092261136
0.060369346 0.016823396 -0.13289075 0.06250694 0.010949053 0.05617628 -0.037566423 0.103165075
0.06275756 0.10654041 0.01495731 -0.084919214 -0.085839115 -0.0046946984 -0.11090388 0.040438242
-0.030723436 -0.028423492 -0.0594465 0.036425605 0.12168214 0.12160255 0.034620367 -0.016795628
-0.02059537 -0.0119832605 -0.0073859612 0.16454929 -0.11106891 -0.0017963016 0.078181796 -0.07862488
0.08604316 0.0667208 -0.04535154 0.043410648 -0.018663105 -0.12122079 0.058850963 -0.03239076
0.033391632 -0.076513454 -0.12192944 0.06620738 0.04320816 0.0027880997 -0.056722358 -0.01016243
-0.015103871 -0.06770821 0.165757 -0.07609516 0.03844507 -0.3792324 -0.08696421 -0.49987185
0.0725945 0.0579573 -0.10994753 -0.09687793 0.109856084 0.06710207 0.17324422 -0.09410894
-0.0604102 -0.31898066 -0.038443502 -0.04683113 0.014673387 0.06295044 0.04883167 -0.01866739
-0.022021193 -0.1550042 -0.17669436 -0.108810715 -0.07241888 -0.13624254 -0.09890861 -0.17044847
0.01549858 0.10122437 -0.1718502 -0.019612202 0.08596063 0.08778102 0.09571715 -0.051557984
-0.030407317 0.024819108 -0.03645938 -0.015028824 -0.0022037798 -0.11938576 0.03509456 -0.09161823
0.0019226288 0.14631319 0.02170775 0.008149397 -0.019041661 -0.039510876 0.03277804 0.039712694
-0.09426999 -0.048970137 -0.08138934 -0.03912201 0.12981497 0.01657862 0.026063895 0.012921145
0.09959767 0.053032722 -0.02727516 -0.22614376 -0.1952144 -0.7408412 0.091249146 -0.5878808
0.019885829 0.10141076 -0.1692484 -0.254831 -0.17285939 -0.032830566 0.0269923 -0.27973697
-0.021414435 -0.052001443 -0.5258474 -0.08891696 0.006548308 0.004258048 -0.06175456 0.05474715
0.009549256 0.050053257 -0.20974168 -0.062460337 -0.053977754 0.09602834 -0.4544694 -0.76946574
-0.11279436 -0.07242846 0.14737579 0.14514384 -0.015162113 -0.25709793 0.034546018 -0.000779433
-0.014066002 0.07713992 -0.09754006 -0.12762178 0.12272184 -0.2175924 0.023680545 -0.17175998
0.03154936 0.05453195 0.04193521 -0.0076601757 0.057722367 0.023457391 0.055104945 0.09726558
-0.072003864 0.08297336 -0.22061168 -0.018675677 0.07825106 0.14790474 0.034983397 -0.17253521
00000000: bbbd afbd c58a 44bd 622f 0ebe e884 bcbd
00000010: 1f7b 8c3d a3a7 ffbd 2a17 ac3c 5f05 003d
00000020: a5ab 8c3d 07ef 00be 6108 123e c619 d5b9
00000030: 4265 3f3d 859f 22be 8a3d 89be e58d e13d
00000040: 9347 35be 67f4 4abe 08e1 073d d09f b9bc
00000050: dd23 e0bb 05da 00be a9eb 31bc 1cdf 7e3d
00000060: 2bae f7bc 4252 533d dacf d83d f813 83bd
00000070: aa42 873d a6a8 4cbe 2119 803c d13d 32be
00000080: cfa9 08bd 602f 88bd 2eec bebd 5197 b63d
00000090: 341d 62bd 7977 ae3d 0895 0bbd 0b65 913c
000000a0: 15d6 823d 40c9 603d 87f5 993d f7c3 ca3d
000000b0: a38a d33c 9f40 083d a449 d03c c62f 833d
000000c0: 1e58 9dbd 16a7 36bc 16b1 613e e92a 56bc
000000d0: 2e5d b8bd 6f96 1a3c c26c 673d 762c 7dbd
000000e0: 351d 3abd 3e89 3ebb db7c 0e3c 9ee1 09bd
000000f0: 84b7 87bc 7a2b 9d3d 0704 bf3d c642 5fbd
00000100: e810 a6bd 0e8a 26bc 6e0b 83bd 77b0 423d
00000110: 284d c83d 241e 6dbc 986a 19be 6f14 a23d
00000120: de0a 133c 22bb a9bc e4aa 31be 7dae 46bb
00000130: 8655 bb3b e957 433d 0d70 9cbc 68f3 bc3d
00000140: d945 773d 38d1 893c 8314 08be a303 803d
00000150: a863 333c 1919 663d 40df 19bd 3648 d33d
00000160: 0987 803d dc31 da3d 810f 753c 20ea adbd
00000170: 6bcc afbd fcd5 99bb 9321 e3bd 92a2 253d
00000180: b7af fbbc 62d8 e8bc 2c7e 73bd 0433 153d
00000190: 7c34 f93d c20a f93d 16ce 0d3d fc96 89bc
000001a0: 9fb7 a8bc 7055 44bc ef05 f2bb 9c7f 283e
000001b0: 1978 e3bd e171 ebba c71d a03d 1506 a1bd
000001c0: 6537 b03d eaa4 883d 89c2 39bd 5dcf 313d
000001d0: 5ee3 98bc 9b42 f8bd b50d 713d 2cac 04bd
000001e0: aac5 083d 16b3 9cbd 24b6 f9bd bc97 873d
000001f0: 0afb 303d 8db8 363b b455 68bd 5280 26bc
00000200: 3a76 77bc 9aaa 8abd 34bc 293e c7d7 9bbd
00000210: 9478 1d3d c02a c2be 4b1a b2bd 34ef ffbe
00000220: 6dac 943d a264 6d3d 2c2c e1bd f067 c6bd
00000230: 3afc e03d cf6c 893d ef66 313e 30bc c0bd
00000240: b070 77bd 6f51 a3be ef76 1dbd 00d2 3fbd
00000250: a568 703c 29ec 803d b803 483d 5bec 98bc
00000260: ca65 b4bc 6cb9 1ebe 5eef 34be 27d8 debd
00000270: 5a50 94bd 2a83 0bbe 9990 cabd 0b8a 2ebe
00000280: c2ed 7d3c b94e cf3d 80f9 2fbe c5a9 a0bc
00000290: 200c b03d 89c6 b33d 5a07 c43d 772e 53bd
000002a0: c418 f9bc 7151 cb3c 6e56 15bd 753b 76bc
000002b0: 4a6d 10bb 8580 f4bd 50bf 0f3d 57a2 bbbd
000002c0: b800 fc3a 20d3 153e 74d4 b13c 0c85 053c
000002d0: 42fd 9bbc 28d6 21bd 4442 063d c7a9 223d
000002e0: a010 c1bd e994 48bd 74af a6bd 673e 20bd
000002f0: 37ee 043e e3cf 873c f383 d53c 36b3 533c
00000300: ddf9 cb3d d738 593d 2870 dfbc 3b92 67be
00000310: 49e6 47be c5a7 3dbf d5e0 ba3d 5b7f 16bf
00000320: 9be7 a23c 72b0 cf3d 744f 2dbe 3579 82be
00000330: 0d02 31be 5879 06bd f51e dd3c af39 8fbe
00000340: 536d afbc 77ff 54bd ef9d 06bf 181a b6bd
00000350: 3093 d63b 1887 8b3b 59f2 7cbd 8c3e 603d
00000360: 7c74 1c3c a504 4d3d 86c6 56be 69d6 7fbd
00000370: c717 5dbd 82aa c43d 37b0 e8be b5fb 44bf
00000380: bb00 e7bd 5f55 94bd aee9 163e 96a0 143e
00000390: 836a 78bc 57a2 83be 2080 0d3d dd52 4cba
000003a0: 1775 66bc 89fb 9d3d 15c3 c7bd 49af 02be
000003b0: 9755 fb3d 8bd0 5ebe b4fd c13c d9e1 2fbe
000003c0: e739 013d e55c 5f3d 41c4 2b3d 3602 fbbb
000003d0: 4a6e 6c3d b729 c03c b9b5 613d 2d33 c73d
000003e0: c376 93bd f0ed a93d 07e8 61be bcfd 98bc
000003f0: 1742 a03d 5774 173e c04a 0f3d 12ad 30be

model.spatialSeq1.0.msg_mlp.2.bias f4 [64]
-0.17316133 -0.029965663 0.038226526 -0.029528355 -0.032127526 -0.06762845 0.18635124 -0.052141853
-0.07629231 -0.08654555 -0.032566093 0.0542902 0.094326384 0.0592803 -0.09368152 0.06318019
-0.0155496225 0.039041664 -0.037350908 -0.04215337 0.07713993 0.017734703 0.059315544 0.07018978
-0.2104948 -0.066427596 0.015044242 0.12949759 -0.03546535 -0.007057339 -0.049650017 0.02139829
0.04257195 0.030552471 0.057950668 -0.050836533 0.015007671 -0.12610883 0.074355826 -0.19333027
0.019287312 -0.00034081138 -0.06373255 0.09798319 -0.0746289 0.04172867 -0.009738644 0.30218443
0.06648496 0.14021884 0.09438529 -0.059611525 0.1806418 0.021129483 -0.65811056 -0.24787751
-0.05368361 0.085074276 -0.16152745 0.0049486896 0.11807935 0.032474346 -0.11635122 0.07504781
00000000: 3451 31be 8d7a f5bc 6b93 1c3d 73e5 f1bc
00000010: 2798 03bd c980 8abd dcd2 3e3e b292 55bd
00000020: 253f 9cbd cb3e b1bd 0664 05bd 675f 5e3d
00000030: 312e c13d e6cf 723d 19dc bfbd 9e64 813d
00000040: d8c3 7ebc 27ea 1f3d 44fd 18bd 03a9 2cbd
00000050: 8afb 9d3d 5e48 913c dbf4 723d a9bf 8f3d
00000060: f38b 57be 310b 88bd 207c 763c 049b 043e
00000070: 1d44 11bd 4041 e7bb d15d 4bbd 774b af3c
00000080: ed5f 2e3d 2d49 fa3c ae5d 6d3d f839 50bd
00000090: bce2 753c ac22 01be de47 983d 5ff8 45be
000000a0: 6d00 9e3c eeae b2b9 3686 82bd 69ab c83d
000000b0: 09d7 98bd afeb 2a3d d58e 1fbc ebb7 9a3e
000000c0: 4429 883d 8795 0f3e 134d c13d 372b 74bd
000000d0: 2afa 383e bd17 ad3c ef79 28bf 9ad3 7dbe
000000e0: 58e3 5bbd 6c3b ae3d 7467 25be 9e28 a23b
000000f0: 96d3 f13d d203 053d 8c49 eebd abb2 993d

model.spatialSeq1.0.gate_mlp.0.weight f4 [1, 64]
0.33667913 0.020653524 0.029975351 -0.025059754 -0.20076036 -0.007857556 -0.4344192 -0.11204631
-0.022256939 -0.034450956 -0.12178609 -0.017797899 -0.48422766 -0.012347511 -0.031426337 -0.034724087
0.003942016 -0.041117482 -0.16780041 -0.0068552704 -0.03470787 -0.01349707 -0.03980751 -0.36585823
0.17575765 -0.041716695 -0.1190906 -0.07188513 0.14646396 0.0030570424 -0.042832483 -0.012069121
0.0016893921 -0.004669659 0.048431147 0.054488 0.00090974127 0.35771546 0.046847984 -0.19434078
0.21264377 -0.070621185 0.41939726 0.06635973 -0.0006376036 0.010942077 0.027101405 -0.17716801
0.07595851 0.044835594 0.02931643 -0.026528705 0.1595782 -0.0046784943 0.72485834 -0.123948574
0.029383462 -0.017482035 -0.29812613 0.032247983 -0.21831833 0.01339331 -0.09593008 0.11659828
00000000: 3561 ac3e 9431 a93c de8e f53c 1d4a cdbc
00000010: 2094 4dbe fbbc 00bc 326c debe 8978 e5bd
00000020: 2f54 b6bc 721c 0dbd fc6a f9bd e6cc 91bc
00000030: b0ec f7be 374d 4abc e7b8 00bd d83a 0ebd
00000040: 072c 813b ce6a 28bd dfd3 2bbe 2da2 e0bb
00000050: d729 0ebd d122 5dbc 330d 23bd c551 bbbe
00000060: d0f9 333e 20df 2abd c6e5 f3bd 8338 93bd
00000070: a6fa 153e a958 483b 1d71 2fbd 90bd 45bc
00000080: 986e dd3a f003 99bb bd5f 463d cf2e 5f3d
00000090: b47b 6e3a 7b26 b73e ace3 3f3d 4501 47be
000000a0: 4abf 593e d7a1 90bd 3dbb d63e 9ce7 873d
000000b0: da24 27ba 6646 333c c403 de3c 886b 35be
000000c0: 2390 9b3d 87a5 373d 0329 f03c ba52 d9bc
000000d0: 7868 233e 0e4e 99bb 5190 393f c0d8 fdbd
000000e0: 96b5 f03c 7c36 8fbc fda3 98be 7616 043d
000000f0: d78e 5fbe 9d6f 5b3c fd76 c4bd 14cb ee3d

model.spatialSeq1.0.update_mlp.0.weight f4 [64, 128]
0.13738881 -0.044740725 -0.156894 0.03807696 -0.14755946 0.08554369 -0.32550225 -0.11979748
-0.017921472 -0.02677274 -0.07577632 0.06915066 -0.35389668 0.02056107 -0.041276757 -0.25121862
0.07321708 0.10973137 -0.23507296 -0.084666945 0.00043245978 -0.16642211 -0.0645701 -0.06844727
0.2332539 0.14665551 -0.2058426 -0.20128956 0.11931722 0.04553669 0.06164396 -0.12418496
0.040797323 -0.1264339 0.12897542 0.09795366 -0.063998245 0.2108952 -0.019269295 -0.11792514
0.118316434 -0.17884511 0.19005646 0.16115959 0.031546474 0.18097553 -0.06356927 -0.21075739
0.059853595 0.041184265 -0.17667852 -0.11848795 -0.02898163 0.24288325 0.2565213 0.071508825
0.047723517 0.02099211 -0.12407937 -0.0035304793 -0.005044231 -0.10598278 -0.06635035 0.08871363
-0.09861278 -0.22816373 0.028783364 -0.1269933 0.08654109 0.1033116 0.045988906 -0.26707336
0.036377203 -0.24184117 -0.05899119 -0.074521445 -0.4843929 -0.14186896 -0.094913974 0.06942569
-0.05513597 0.0007133454 -0.15058307 0.08058307 0.07569218 -0.8994762 0.3146822 -0.01860058
0.057006933 0.056855086 -0.7931361 -0.07506715 -0.01830466 -0.34331343 -0.11426071 -0.09513047
-0.0204876 -0.36730143 -0.041968744 -0.8069677 -0.05120009 -0.2458779 -0.17596848 0.019211384
-0.0144432075 -0.07129417 0.101949126 -0.2836925 0.08806832 -0.28929532 -0.07308282 -0.16892074
-0.09534257 0.24634634 0.11867756 -0.07888812 -0.66336346 -0.07840124 0.07031139 0.0075142873
-0.028434215 -0.2992574 -0.103925 -0.2163269 -0.028575936 0.101950936 -0.048160445 0.0065370407
0.5152411 -0.103150584 0.09235376 -0.015894389 -0.26207978 -0.06341487 -0.35898042 -0.19080007
-0.09692648 -0.11755279 -0.055178855 0.0023955577 -0.3372875 -0.015948953 -0.054645244 -0.12531951
0.04256946 0.0026270407 -0.23375939 -0.020322716 -0.067970596 -0.37594196 -0.21110006 -0.49130452
0.49851573 -0.05154909 -0.21582317 -0.39116114 0.08922546 -0.01168333 0.09190419 -0.06744957
0.03157088 -0.026888207 0.14046253 0.1875071 -0.036006574 0.43200356 -0.2804193 0.04531265
0.28511593 -0.16474201 0.35289603 0.12136523 -0.04895104 0.017396878 -0.025697093 -0.26088125
0.16639754 -0.1062563 -0.053526696 -0.03853999 -0.07799708 -0.018112857 0.59720147 -0.054955907
-0.004379631 -0.04618112 -0.069900066 0.009714027 -0.23453699 -0.08896315 -0.14922327 0.2924924
0.1625507 -0.036477167 -0.15465823 0.08016791 0.11670761 0.10736107 0.06104918 -0.00077059696
0.24843498 0.036953166 0.09712701 0.24761476 -0.018010955 0.07452328 -0.09836587 -0.01864757
-0.053534146 0.100109756 0.3114403 0.12856361 0.045987245 -0.10697049 0.25511026 0.13910018
0.3158601 -0.08699499 -0.13483863 0.19724387 0.047744043 -0.06141672 0.09604057 0.3127349
0.093239635 0.025711898 -0.11037352 -0.1145691 0.06257449 0.08988611 -0.009306027 0.0358077
0.019062126 -0.11321252 0.00576054 0.054201916 -0.025444081 -0.0467771 0.13847294 0.058739744
0.09310975 0.0065796687 -0.069169834 0.27385488 -0.10690326 0.11216076 0.01738975 0.12997773
0.29717737 0.1383641 0.1534225 0.10987947 0.29200292 -0.026720898 -0.08682569 0.41957283
00000000: a7af 0c3e 0d42 37bd d2a8 20be 96f6 1b3d
00000010: d419 17be 8831 af3d 3ba8 a6be 6258 f5bd
00000020: 0dd0 92bc 8152 dbbc 9e30 9bbd dc9e 8d3d
00000030: f231 b5be b06f a83c d111 29bd ba9f 80be
00000040: d6f2 953d d7ba e03d f7b6 70be dd65 adbd
00000050: c5bb e239 8f6a 2abe 543d 84bd 152e 8cbd
00000060: 1cda 6e3e dd2c 163e 67c8 52be da1e 4ebe
00000070: 965c f43d ae84 3a3d 617e 7c3d af54 febd
00000080: 181b 273d e377 01be 2212 043e ee9b c83d
00000090: 8311 83bd e9f4 573e a4da 9dbc bc82 f1bd
000000a0: e34f f23d 2c23 37be 299e 423e 0507 253e
000000b0: e036 013d a651 393e 9b30 82bd c9d0 57be
000000c0: 0b29 753d d5b0 283d 37eb 34be cfa9 f2bd
000000d0: e26a edbc 63b6 783e c356 833e 3873 923d
000000e0: bc79 433d a5f7 ab3c 531d febd 9d5f 67bb
000000f0: 144a a5bb 800d d9bd b1e2 87bd 7eaf b53d
00000100: 7ff5 c9bd c1a3 69be 17cb eb3c 880a 02be
00000110: 743c b13d 0895 d33d dd5e 3c3d d7bd 88be
00000120: 4300 153d 36a5 77be bfa0 71bd b39e 98bd
00000130: 5902 f8be 1946 11be 4262 c2bd 0e2f 8e3d
00000140: 41d6 61bd cdff 3a3a 7332 1abe bd08 a53d
00000150: 8004 9b3d 1244 66bf 061e a13e 3e60 98bc
00000160: 1a80 693d e1e0 683d f80a 4bbf cebc 99bd
00000170: a8f3 95bc c7c6 afbe 8501 eabd c4d3 c2bd
00000180: 9cd5 a7bc ef0e bcbe 6be7 2bbd 6f95 4ebf
00000190: 30b7 51bd 6bc7 7bbe 1531 34be 3161 9d3c
000001a0: 34a3 6cbc ae02 92bd b4ca d03d 2540 91be
000001b0: 2a5d b43d 841e 94be 72ac 95bd 8ff9 2cbe
000001c0: f742 c3bd 3742 7c3e 380d f33d 1890 a1bd
000001d0: 30d2 29bf d490 a0bd 6bff 8f3d 693a f63b
000001e0: dfee e8bc 4438 99be a1d6 d4bd cd84 5dbe
000001f0: 1518 eabc a7cb d03d e343 45bd ac34 d63b
00000200: d7e6 033f 9d40 d3bd f823 bd3d f334 82bc
00000210: 522f 86be a8df 81bd 48cc b7be 1861 43be
00000220: 6481 c6bd 84bf f0bd 3903 62bd cafe 1c3b
00000230: f2b0 acbe 61a7 82bc b1d3 5fbd c253 00be
00000240: 505d 2e3d 6e2a 2c3b 9f5e 6fbe d37b a6bc
00000250: 2b34 8bbd 777b c0be 9d2a 58be 448c fbbe
00000260: 743d ff3e 2325 53bd c000 5dbe 4646 c8be
00000270: d7bb b63d 706b 3fbc 4438 bc3d 0023 8abd
00000280: 7850 013d a844 dcbc 69d5 0f3e dc01 403e
00000290: a17b 13bd 922f dd3e 1e93 8fbe c299 393d
000002a0: b7fa 913e 21b2 28be caae b43e 558e f83d
000002b0: e380 48bd e683 8e3c b682 d2bc 3a92 85be
000002c0: 1e64 2a3e e79c d9bd cf3e 5bbd 1cdc 1dbd
000002d0: efbc 9fbd 6a61 94bc 32e2 183f 7219 61bd
000002e0: 0283 8fbb 6a28 3dbd c427 8fbd 9527 1f3c
000002f0: 772a 70be 5032 b6bd fccd 18be 90c1 953e
00000300: b173 263e 1569 15bd ba5e 1ebe 132f a43d
00000310: 6604 ef3d 1fe0 db3d b40e 7a3d e301 4aba
00000320: bd65 7e3e 345c 173d 87ea c63d b98e 7d3e
00000330: b68b 93bc a99f 983d 0c74 c9bd cac2 98bc
00000340: 9f46 5bbd 5806 cd3d 1a75 9f3e 2ea6 033e
00000350: 1f5d 3c3d 5813 dbbd d09d 823e 4770 0e3e
00000360: 6ab8 a13e 6e2a b2bd 2313 0abe 4cfa 493e
00000370: 428f 433d 1990 7bbd ebb0 c43d ca1e a03e
00000380: 6cf4 be3d c2a1 d23c 830b e2bd 34a3 eabd
00000390: 0e27 803d 3516 b83d 4e78 18bc 18ab 123d
000003a0: 2d28 9c3c f7db e7bd e9c2 bc3b d402 5e3d
000003b0: 1b70 d0bc 5899 3fbd dacb 0d3e 1699 703d
000003c0: 53b0 be3d 439a d73b eaa8 8dbd b536 8c3e
000003d0: 19f0 dabd 8ab4 e53d f374 8e3c e218 053e
000003e0: a227 983e 52af 0d3e ca1a 1d3e 7d08 e13d
000003f0: 6881 953e c9e5 dabc abd1 b1bd 40d2 d63e

model.spatialSeq1.0.update_mlp.0.bias f4 [64]
0.014236371 0.2876826 -0.003971661 0.06761512 -0.074732855 0.064430244 -0.030254794 0.10346061
0.14894725 0.02183757 0.13841535 -0.13493046 0.11541236 -0.22505206 -0.02474208 -0.010503965
0.027650887 -0.13029523 0.0716528 -0.2945155 -0.13766664 0.057323217 -0.078172825 0.06484747
0.16551873 -0.01614645 -0.05775884 -0.003891419 -0.11233433 0.17474155 -0.21293676 -0.09373374
0.09639629 0.12991968 0.29979154 -0.33843347 0.006157721 0.15375307 -0.10137956 -0.027174318
0.024195628 -0.15748695 0.23982635 0.09008501 -0.012711809 -0.07937374 0.1026846 0.14615175
-0.16411714 -0.10275055 -0.1209807 -0.071464255 -0.37054127 0.10438414 -0.18964212 0.02884117
-0.14289765 0.022241548 -0.13582359 -0.14311065 0.02462464 -0.058130953 -0.12497948 -0.18403924
00000000: ab3f 693c 224b 933e b524 82bb cc79 8a3d
00000010: 8a0d 99bd 01f4 833d e7d8 f7bc 28e3 d33d
00000020: a185 183e b4e4 b23c c1bc 0d3e 362b 0abe
00000030: 515d ec3d 0c74 66be e7af cabc d318 2cbc
00000040: 1d84 e23c 1d6c 05be b4be 923d bcca 96be
00000050: 7cf8 0cbe c0cb 6a3d 1319 a0bd c0ce 843d
00000060: be7d 293e 8f45 84bc 8994 6cbd 2d07 7fbb
00000070: 8b0f e6bd 73ef 323e 180c 5abe 7af7 bfbd
00000080: 6b6b c53d aa09 053e 477e 993e 2747 adbe
00000090: b5c6 c93b 7271 1d3e 16a0 cfbd ad9c debc
000000a0: e935 c63c 4244 21be 0a95 753e 7d7e b83d
000000b0: 3145 50bc b38e a2bd 4e4c d23d cea8 153e
000000c0: 530e 28be e16e d2bd bbc4 f7bd da5b 92bd
000000d0: 96b7 bdbe 5ac7 d53d 8b31 42be 5144 ec3c
000000e0: c353 12be e833 b63c 5715 0bbe 998b 12be
000000f0: 9db9 c93c b91a 6ebd 3ef5 ffbd c874 3cbe

model.spatialSeq1.0.update_mlp.2.weight f4 [64, 64]
0.10280683 0.12857182 -0.031684387 0.091526836 -0.022225274 -0.03978767 0.21491042 0.046570532
-0.009175925 -0.017908739 -0.045017287 0.1911611 -0.04275672 0.044818558 -0.027603889 -0.001799081
-0.112269565 -0.038196433 0.044424906 0.17844647 0.11850146 -0.21278493 -0.3066428 -0.09327078
0.18041277 0.0698843 0.114372484 0.10719824 -0.013837133 0.041246146 0.070787966 0.3150346
-0.08331386 0.09972402 0.28675884 0.100815974 0.02756751 0.0075698528 -0.08475884 -0.07234951
-0.08517179 0.050844643 0.03486064 0.09916592 -0.015818993 0.09322119 -0.16017652 0.21449506
0.24079378 0.22784042 -0.12579086 0.10824115 0.024409793 -0.02672966 0.038446903 0.31967986
-0.13764293 -0.01834967 -0.041548148 -0.19046001 -0.047919556 -0.015066111 0.078317754 0.0752493
-0.054460246 1.1020601 -0.1350031 -0.16787544 -0.13879517 -0.11595089 0.030321969 0.1636753
-0.14146467 -0.11723474 0.1369975 -0.028155308 -0.04172461 -0.3358892 -0.12035662 -0.21888398
-0.07964124 -0.113200665 -0.025850043 -0.025583489 -0.09227646 -0.18333204 -0.55873966 -0.105376855
0.07857499 -0.049005296 0.050115544 0.051295478 -0.15183482 0.37403172 0.079052694 -0.047755465
0.13822158 0.2567587 0.7035645 0.032688603 0.08490042 0.013587853 0.10232804 -0.07621534
0.033351224 -0.17517413 0.114858486 0.02062037 -0.050795384 -0.25636202 -0.08416982 0.3093141
0.0048088566 -0.07357285 -0.28035384 0.07693468 -0.14098112 0.061903086 0.014781401 0.33340168
-0.072708294 0.16412832 0.05211737 -0.25592095 -0.0780749 -0.048401613 -0.030027146 0.099852435
0.076933205 0.3939358 0.20725039 0.11256679 0.09793802 0.16360521 0.1293536 -0.01814129
-0.08544969 0.02999248 0.05631401 0.06624599 0.0757985 0.16919884 0.040908556 -0.1884378
0.2871574 -0.022268223 0.039879948 -0.028108126 0.109405935 -0.11099413 -0.21234176 -0.10923517
0.24684896 0.15920734 -0.0032047841 0.3452956 0.026395174 0.25201073 0.1849256 0.3895738
0.17829362 0.25698447 0.24365158 -0.034188844 0.0782613 0.06777326 -0.11447949 0.2773969
-0.012421997 -0.08888227 0.0016670647 0.13418704 0.006483723 0.12822369 -0.11593797 0.16851789
0.408502 0.195429 -0.2790212 -0.0119327335 -0.083247885 -0.18917982 0.07628613 0.5589577
-0.275406 0.18145905 0.14769341 -0.21217556 -0.076885246 0.075852625 0.0030303365 0.16440181
0.062231902 -0.03951432 -0.12105838 -0.081992425 0.12236439 -0.049092103 -0.15153697 -0.054660466
-0.25588694 0.044647854 0.06636339 -0.1756808 0.04524164 0.020765789 0.0627431 0.046464697
-0.41537988 0.09202061 -0.09160331 0.006793919 0.10356862 -0.118360944 -0.19637412 0.049281836
0.108203545 0.088272706 0.10363499 0.16557536 0.07127375 0.16033237 0.006758587 -0.07111935
-0.034656208 -0.107891895 0.074299656 0.13915846 -0.274361 -0.038984355 0.1179908 -0.055608805
-0.056351893 0.11392214 -0.11378661 -0.019488528 0.027763842 -0.0935585 -0.036621578 -0.17881548
0.043117665 -0.005154879 0.060076028 0.016570447 0.07996187 -0.044113725 -0.1915275 0.05801142
-0.009833882 -0.12323732 -0.044977706 -0.035700433 -0.03546533 0.07758311 -0.013803518 -0.026431035
00000000: 638c d23d 55a8 033e 7dc7 01bd 6c72 bb3d
00000010: c711 b6bc 65f8 22bd 7a11 5c3e bec0 3e3d
00000020: 9e56 16bc 59b5 92bc 0c64 38bd bcbf 433e
00000030: ac21 2fbd aa93 373d 8d21 e2bc 24cf ebba
00000040: 96ed e5bd dd73 1cbd e4f6 353d acba 363e
00000050: e5b0 f23d 4be4 59be 4900 9dbe c004 bfbd
00000060: 20be 383e 801f 8f3d 1f3c ea3d c08a db3d
00000070: 24b5 62bc b8f1 283d 48f9 903d 374c a13e
00000080: 75a0 aabd 1b3c cc3d 0ed2 923e 9b78 ce3d
00000090: 42d5 e13c 870c f83b 0b96 adbd fb2b 94bd
000000a0: 8c6e aebd 7942 503d 08ca 0e3d 8017 cb3d
000000b0: d596 81bc c0ea be3d 5005 24be 98a4 5b3e
000000c0: a592 763e 004f 693e 52cf 00be 89ad dd3d
000000d0: 0cf7 c73c 29f8 dabc 807a 1d3d 14ad a33e
000000e0: 45f2 0cbe 0c52 96bc 642e 2abd f307 43be
000000f0: 4c47 44bd dad7 76bc 0f65 a03d 4e1c 9a3d
00000100: b511 5fbd 4e10 8d3f 413e 0abe 8ae7 2bbe
00000110: 5220 0ebe a977 edbd c765 f83c 7f9a 273e
00000120: 1ddc 10be c418 f0bd 1349 0c3e f6a5 e6bc
00000130: 6de7 2abd abf9 abbe 887d f6bd 1f23 60be
00000140: f21a a3bd c0d5 e7bd 78c3 d3bc 7794 d1bc
00000150: 71fb bcbd 65bb 3bbe 9009 0fbf d2cf d7bd
00000160: edeb a03d c7b9 48bd f545 4d3d 351b 523d
00000170: 967a 1bbe 1681 bf3e 61e6 a13d 3c9b 43bd
00000180: f589 0d3e e075 833e ce1c 343f 7ce4 053d
00000190: 45e0 ad3d 969f 5e3c 5d91 d13d ca16 9cbd
000001a0: 4b9b 083d d960 33be ed3a eb3d 0dec a83c
000001b0: d20e 50bd e241 83be 3a61 acbd 6b5e 9e3e
000001c0: 9d93 9d3b 5dad 96bd 8a8a 8fbe ee8f 9d3d
000001d0: 5b5d 10be 178e 7d3d b02d 723c a0b3 aa3e
000001e0: 16e8 94bd 4111 283e 0679 553d 1208 83be
000001f0: bce5 9fbd c540 46bd 7dfb f5bc 6f7f cc3d
00000200: 288f 9d3d f4b1 c93e 7239 543e 6b89 e63d
00000210: bb93 c83d 2088 273e 4575 043e 0b9d 94bc
00000220: 3f00 afbd cab2 f53c 85a9 663d faab 873d
00000230: 3e3c 9b3d 7642 2d3e bb8f 273d d7f5 40be
00000240: 4b06 933e d96b b6bc 2859 233d 0343 e6bc
00000250: 3810 e03d e450 e3bd 1e70 59be b0b6 dfbd
00000260: f9c5 7c3e 4007 233e 5b07 52bb 96ca b03e
00000270: b13a d83c 8d07 813e 235d 3d3e 3876 c73e
00000280: 9a92 363e 7893 833e cd7f 793e 9a09 0cbd
00000290: 7647 a03d b5cc 8a3d 3974 eabd f706 8e3e
000002a0: a285 4bbc e807 b6bd 6981 da3a 5468 093e
000002b0: 6975 d43b 124d 033e e370 edbd f48f 2c3e
000002c0: 2d27 d13e 8a1e 483e dedb 8ebe 8381 43bc
000002d0: de7d aabd 5bb8 41be e73b 9c3d da17 0f3f
000002e0: 0402 8dbe 67d0 393e f13c 173e 8d44 59be
000002f0: 0376 9dbd 9f58 9b3d 9c98 463b f358 283e
00000300: e1e6 7e3d c5d9 21bd 75ed f7bd a5eb a7bd
00000310: 2e9a fa3d cd14 49bd 822c 1bbe a7e3 5fbd
00000320: 9d03 83be abe0 363d 87e9 873d abe5 33be
00000330: 4c4f 393d 041d aa3c 747f 803d c451 3e3d
00000340: acac d4be 4d75 bc3d 849a bbbd 869f de3b
00000350: c91b d43d 3967 f2bd 4c16 49be c0db 493d
00000360: d299 dd3d 52c8 b43d 953e d43d 968c 293e
00000370: f9f7 913d 2b2e 243e 2377 dd3b 06a7 91bd
00000380: abf3 0dbd 6df6 dcbd 6b2a 983d 8e7f 0e3e
00000390: 0c79 8cbe 0fae 1fbd 29a5 f13d 0fc6 63bd
000003a0: 3ed1 66bd 0350 e93d f408 e9bd 68a6 9fbc
000003b0: ff70 e33c 999b bfbd 8200 16bd 681b 37be
000003c0: 269c 303d 42ea a8bb 4812 763d bfbe 873c
000003d0: 0dc3 a33d 98b0 34bd c91f 44be 629d 6d3d
000003e0: 4a1e 21bc d963 fcbd 8b3a 38bd 9e3a 12bd
000003f0: 1844 11bd e5e3 9e3d 2728 62bc e685 d8bc

model.spatialSeq1.0.update_mlp.2.bias f4 [64]
-0.30890036 -0.18550768 -0.3499372 -0.054633334 -0.1275632 -0.35762194 -0.119623944 -0.17411722
0.054183096 -0.36254352 -0.011832564 -0.2624046 -0.30817395 -0.14035016 -0.3218858 0.03727146
-0.25493404 -0.09203482 -0.1838192 -0.0022010573 -0.09024502 -0.2778261 -0.18931654 -0.02935867
-0.11521693 -0.15397504 -0.18822296 -0.09513308 -0.073612824 -0.13385741 -0.21932119 -0.14671828
-0.16079977 -0.42177048 -0.15515384 -0.43181273 -0.06941418 -0.14496079 0.09088879 0.13101166
-0.009196966 -0.3619806 -0.10436845 -0.113555625 -0.24879022 -0.28877828 -0.08566756 -0.037372235
-0.12089268 -0.017218178 0.11493862 -0.058564372 -0.060371917 -0.11263875 -0.12548317 -0.19687742
-0.12452061 -0.1144458 0.04423111 -0.13082455 -0.09160107 -0.059010055 0.08228975 0.016439764
00000000: 3028 9ebe baf5 3dbe f82a b3be 34c7 5fbd
00000010: ed9f 02be 391a b7be 66fd f4bd c94b 32be
00000020: 18ef 5d3d 4e9f b9be 5fdd 41bc e559 86be
00000030: fac8 9dbe f4b7 0fbe 37ce a4be f5a9 183d
00000040: b786 82be c07c bcbd 1a3b 3cbe 9d3f 10bb
00000050: 62d2 b8bd 393f 8ebe 32dc 41be 9881 f0bc
00000060: dbf6 ebbd a2ab 1dbe 85bd 40be 22d5 c2bd
00000070: 52c2 96bd eb11 09be bc95 60be 513d 16be
00000080: b2a8 24be 4df2 d7be a6e0 1ebe 8f16 ddbe
00000090: 0629 8ebd 9a70 14be e723 ba3d ec27 063e
000000a0: dfae 16bc 8555 b9be 20bf d5bd da8f e8bd
000000b0: ddc2 7ebe bfda 93be 7972 afbd a113 19bd
000000c0: 9596 f7bd 230d 8dbc f064 eb3d 32e1 6fbd
000000d0: 8b48 77bd 25af e6bd a97e 00be 3c9a 49be
000000e0: a904 ffbd 8f62 eabd ae2b 353d dff6 05be
000000f0: 5799 bbbd 87b4 71bd 8787 a83d afac 863c

model.temporalSeq.0.attention.in_proj_weight f4 [192, 64]
0.14055657 0.020143444 0.020961488 0.36920026 0.20691158 0.024366917 0.012489137 0.04340391
0.36287558 -0.11312592 0.030210305 0.0063462043 -0.037844725 0.08317733 0.08053972 0.12763396
-0.29531482 0.22982678 0.55770934 0.74163204 0.35850707 -0.07106551 0.0096528465 0.008593483
0.44289216 0.44916525 0.14584877 0.1745872 0.3301332 0.03042854 0.15630108 0.15003566
0.19903828 0.09516617 -0.03931365 0.07844252 -0.14468941 0.11461523 -0.32160145 0.505197
0.463505 0.16230918 0.2982105 0.26899242 0.08278152 0.13517006 0.09373662 0.097705975
0.07765838 -0.007240467 -0.15502931 0.2605965 0.25312677 0.4644863 0.51092017 -0.026460001
0.123076186 0.07904378 0.3320548 0.102422856 0.007661976 -0.0113203935 0.25021684 -0.10443352
0.0290893 -0.56947196 0.09515459 -0.0920206 -0.30348513 -0.48836872 -0.21888274 0.026809804
0.32299685 -0.7618733 0.5090791 -0.06346662 0.051942617 -0.43726888 -0.21781142 -0.11099341
-0.69330394 -0.23158221 0.15849195 -0.3205115 -0.2973103 -0.20461673 0.16260155 0.09906181
0.25575277 -0.25112838 -0.19889678 0.3085355 -0.06978703 -0.058370706 0.25682336 0.16791147
0.061939474 -0.4781346 -0.34586766 0.00019030189 -0.18250906 -0.4191962 -0.0038122125 0.27685264
-0.2804725 0.4469718 -0.21111354 -0.08895598 0.051640805 0.06105532 0.15312706 0.17970651
-0.033210665 0.54960084 0.9385464 0.16157486 -0.023260204 -0.22525012 -0.5739487 -0.18917263
0.2941379 0.36122903 0.011019337 0.25306523 0.34238273 0.18395706 -0.4089556 0.5541533
0.13297205 -0.51815844 0.38994396 -0.1935021 -0.09875943 -0.03351995 -0.06705285 0.28383923
0.13503751 -0.15320529 0.45723295 -0.19867525 0.102531545 -0.14312826 -0.038050205 -0.12722307
-0.06592576 -0.13267069 -0.22119857 -0.56816363 -0.009691963 -0.127172 0.292857 0.20247267
-0.13047473 -0.10775731 -0.014024423 -0.044815816 -0.4190437 0.17982808 0.19449699 -0.1877611
-0.07211194 -0.13188274 -0.056809008 0.11365268 -0.18077148 -0.13904698 0.09023613 -0.16299003
-0.31507698 0.44331053 -0.17748171 -0.15270807 -0.13431072 0.018520672 0.16235963 0.034084644
0.056564745 0.21180922 0.38385814 0.14386742 -0.020388642 -0.345492 -0.56255573 -0.10674204
0.04672641 0.16456614 0.118122 0.03902899 0.09729302 0.07735246 -0.43284026 0.12064595
-0.12336541 -0.030728256 -0.14365892 0.09806579 0.060744856 -0.24550717 -0.20226718 0.12827866
0.38980383 -0.4780351 0.268159 -0.009811144 -0.06553304 -0.06261858 0.06804306 -0.004465752
-0.30411795 -0.14734821 0.29907215 0.003380968 -0.11580735 -0.0876705 0.08127558 -0.118439846
0.113452256 -0.15241982 -0.09626972 0.5513597 -0.1484355 -0.032482006 0.16873617 -0.07928595
0.3563698 -0.062028587 -0.06954725 -0.19983079 -0.12815674 -0.16190247 0.03233341 0.7177709
-0.04144851 0.11005914 -0.07021271 -0.14010753 0.26386517 -0.031237094 0.13058369 0.1528099
-0.06060279 0.01070562 -0.029410675 0.41177404 -0.06291401 -0.09742857 -0.20671026 -0.36184362
0.39008716 0.2451299 0.29236946 -0.1248585 0.56742865 -0.22739838 -0.20935476 0.17651899
00000000: 10ee 0f3e dd03 a53c 6db7 ab3c d107 bd3e
00000010: a1e0 533e 219d c73c 3d9f 4c3c 4cc8 313d
00000020: d4ca b93e 90ae e7bd 9a7b f73c d2f3 cf3b
00000030: 1203 1bbd e058 aa3d 02f2 a43d 7ab2 023e
00000040: 8133 97be b657 6b3e 0ac6 0e3f 99db 3d3f
00000050: 3d8e b73e cb8a 91bd f926 1e3c aecb 0c3c
00000060: c3c2 e23e fdf8 e53e 6159 153e fdc6 323e
00000070: 3807 a93e 4645 f93c 640d 203e f3a2 193e
00000080: b1d0 4b3e 7be6 c23d 5a07 21bd 79a6 a03d
00000090: 7629 14be 64bb ea3d f2a8 a4be 9754 013f
000000a0: 8750 ed3e 6134 263e 0caf 983e 60b9 893e
000000b0: 5c89 a93d 056a 0a3e fcf8 bf3d 121a c83d
000000c0: 5b0b 9f3d 7041 edbb 01c0 1ebe e86c 853e
000000d0: d599 813e 26d1 ed3e aacb 023f a5c2 d8bc
000000e0: 5e0f fc3d b5e1 a13d 1603 aa3e 13c3 d13d
000000f0: 5011 fb3b 2c79 39bc 6c1c 803e 3ee1 d5bd
00000100: af4c ee3c eac8 11bf 69e0 c23d 4c75 bcbd
00000110: 6762 9bbe 770b fabe cc22 60be 3ca0 db3c
00000120: d85f a53e 210a 43bf 0253 023f cafa 81bd
00000130: c8c1 543d b5e1 dfbe f509 5fbe 8350 e3bd
00000140: 5e7c 31bf e323 6dbe b74b 223e 151a a4be
00000150: 0e39 98be 0c87 51be 0581 263e ebe0 ca3d
00000160: 07f2 823e e693 80be 99ab 4bbe 5df8 9d3e
00000170: 81ec 8ebd 1f16 6fbd 5a7e 833e fcf0 2b3e
00000180: 3fb4 7d3d 0fce f4be 9115 b1be c68b 4739
00000190: a8e3 3abe e2a0 d6be 50d6 79bb a1bf 8d3e
000001a0: 179a 8fbe 7dd9 e43e 262e 58be 8e2e b6bd
000001b0: 4f85 533d 2515 7a3d 57cd 1c3e fc04 383e
000001c0: e807 08bd a4b2 0c3f 9444 703f e173 253e
000001d0: 2f8c bebc f8a7 66be 4dee 12bf 78b6 41be
000001e0: 3e99 963e 03f3 b83e 738a 343c c491 813e
000001f0: ca4c af3e 3d5f 3c3e a162 d1be fedc 0d3f
00000200: d329 083e 08a6 04bf bca6 c73e 6a25 46be
00000210: 6242 cabd 374c 09bd 0153 89bd 6053 913e
00000220: 4647 0a3e d9e1 1cbe 701a ea3e 8671 4bbe
00000230: 0ffc d13d 3790 12be 88da 1bbd c446 02be
00000240: 1604 87bd d3da 07be e181 62be 2c73 11bf
00000250: 0acb 1ebc 6039 02be 5af1 953e ff54 4f3e
00000260: 2b9b 05be ddaf dcbd b2c6 65bc ca90 37bd
00000270: e58c d6be da24 383e 382a 473e 7244 40be
00000280: 6daf 93bd 450c 07be 90b0 68bd bcc2 e83d
00000290: 291c 39be 5562 0ebe b8cd b83d dce6 26be
000002a0: c551 a1be 99f9 e23e c4bd 35be 815f 1cbe
000002b0: c088 09be aab8 973c 9a41 263e 579c 0b3d
000002c0: 6fb0 673d 84e4 583e 0e89 c43e fb51 133e
000002d0: 1506 a7bc 54e4 b0be a703 10bf 929b dabd
000002e0: 3164 3f3d 0784 283e f2e9 f13d dddc 1f3d
000002f0: 9041 c73d f76a 9e3d 3d9d ddbe 3915 f73d
00000300: 01a7 fcbd d3b9 fbbc 531b 13be b8d6 c83d
00000310: 99cf 783d 3b66 7bbe 211f 4fbe 7b5b 033e
00000320: 5e94 c73e 04c1 f4be 234c 893e ecbe 20bc
00000330: 3036 86bd 2c3e 80bd 295a 8b3d 7155 92bb
00000340: 59b5 9bbe 73e2 16be fc1f 993e 3b93 5d3b
00000350: 672c edbd 978c b3bd d073 a63d 9790 f2bd
00000360: a859 e83d f113 1cbe 0f29 c5bd e925 0d3f
00000370: 7aff 17be da0b 05bd 2dc9 2c3e ac60 a2bd
00000380: 1a76 b63e b011 7ebd ca6e 8ebd 71a0 4cbe
00000390: 853b 03be c3c9 25be 0a70 043d d5bf 373f
000003a0: eac5 29bd b066 e13d aecb 8fbd 5978 0fbe
000003b0: 5619 873e efe4 ffbc bbb7 053e 337a 1c3e
000003c0: a23a 78bd a066 2f3c a8ee f0bc 0cd4 d23e
000003d0: 0fd9 80bd a188 c7bd dbab 53be 9143 b9be
000003e0: 81b9 c73e 5503 7b3e 73b1 953e d0b5 ffbd
000003f0: 0143 113f 1fdb 68be 1861 56be 65c1 343e

model.temporalSeq.0.attention.in_proj_bias f4 [192]
0.22691363 0.27824238 0.107432164 0.31485155 -0.10075283 0.2059444 -0.3052437 0.29802814
-0.21196143 0.016745722 0.15311134 0.17071441 -0.28815517 -0.1735401 -0.022701114 0.029509775
-0.25948885 0.39660224 0.0186613 -0.22017992 -0.08098766 -0.2505345 -0.38783073 -0.21427862
0.20670618 0.008889225 0.0032618877 -0.17609721 -0.32368493 0.08954048 -0.36737213 0.015364652
-0.25814494 -0.23460427 0.31036484 -0.23542738 0.29753384 0.095474675 0.17707367 0.1661994
0.015501457 0.04283565 -0.05024107 0.054413076 0.04044617 -0.05746568 -0.18491253 0.109269254
0.058490187 0.20543803 -0.19633514 -0.16605021 0.068176754 0.36658135 -0.2931625 -0.20226656
-0.25668433 0.11735514 -0.035334274 -0.25303382 -0.24330713 -0.22057837 -0.1502847 0.1410645
0.023140239 -0.04846503 -0.035536885 -0.01948897 -0.025073148 0.04223312 0.024269007 0.017341955
0.007865491 0.0010124542 0.021090178 0.020815102 -0.019420471 0.027556315 0.030621067 -0.0007279212
0.020416524 0.0039075483 0.06586696 -0.062078346 0.03579527 -0.0042060213 -0.028517496 -0.0019688143
0.018398331 0.029305 -0.025050923 -0.0140481265 0.019571537 0.01714049 -0.023341425 0.028472833
0.01697341 0.024675086 -0.015162192 0.01944459 -0.034681257 -0.007605322 -0.0009109927 -0.017750459
-0.015159594 0.03157261 -0.0122702345 -0.038366966 -0.03862416 -0.003379671 0.015210255 -0.007702948
-0.0037147927 -0.010490333 0.00930077 0.038246807 -0.0108450595 -0.021021988 0.040786836 0.019327207
0.009982394 0.003585642 -0.006805959 -0.005884153 0.0071307677 0.0026654394 -0.007685649 -0.022651061
0.005800726 -0.0072861873 -0.011825328 0.08520682 -0.049789995 -0.038334068 0.046263848 0.008517674
-0.06373543 -0.00070480816 0.049559288 -0.06095233 -0.0076056737 5.3444055e-05 -0.020256462 -0.008327463
0.026634423 0.015996885 0.0142365815 -0.035827734 0.047723386 -0.052607313 0.03539749 -0.042223763
0.004470049 0.10282303 0.05298497 0.04075472 -0.044437982 -0.027545279 -0.07374805 0.10339298
0.035454754 0.106884286 -0.021383809 0.009123399 0.028157074 -0.03240786 0.009885142 -0.0076093697
-0.043558344 -0.0439883 -0.08530226 0.031907994 -0.040549543 -0.10394204 -0.06185661 -0.05738738
0.03761065 0.09294912 0.011222923 -0.027274715 0.026179299 -0.0036521696 -0.09059475 -0.0050989096
-0.054665294 -0.028372472 0.033979654 0.041671764 -0.03099907 -0.025429389 0.052242756 -0.09583
00000000: 0c5c 683e c975 8e3e 6505 dc3d 3934 a13e
00000010: 8057 cebd 17e3 523e e748 9cbe 2597 983e
00000020: 6b0c 59be 532e 893c 38c9 1c3e c2cf 2e3e
00000030: 1389 93be 7fb4 31be b0f7 b9bc 7cbe f13c
00000040: b9db 84be 730f cb3e 95df 983c d876 61be
00000050: dcdc a5bd 0f46 80be c091 c6be db6b 5bbe
00000060: c9aa 533e 1da4 113c 65c5 553b d452 34be
00000070: 08ba a5be 0061 b73d 3318 bcbe 05bc 7b3c
00000080: 932b 84be 1a3c 70be 24e8 9e3e e013 71be
00000090: 5b56 983e 3a88 c33d cd52 353e 2d30 2a3e
000000a0: d3f9 7d3c 6f74 2f3d 95c9 4dbd 3fe0 5e3d
000000b0: e2aa 253d 2261 6bbd b659 3dbe 8fc8 df3d
000000c0: 6893 6f3d 595e 523e 140c 49be 1109 2abe
000000d0: 41a0 8b3d 8db0 bb3e 6519 96be f71e 4fbe
000000e0: 216c 83be e457 f03d acba 10bd a68d 81be
000000f0: 8125 79be 4cdf 61be 3be4 19be 3673 103e
00000100: 9990 bd3c 4483 46bd 208f 11bd 55a7 9fbc
00000110: 3466 cdbc a3fc 2c3d cccf c63c b710 8e3c
00000120: 43de 003c 53b4 843a 4fc5 ac3c 6f84 aa3c
00000130: ae17 9fbc c8bd e13c 08d9 fa3c f7d1 3eba
00000140: 8e40 a73c e40a 803b 42e5 863d dd45 7ebd
00000150: 109e 123d aad2 89bb 869d e9bc 3907 01bb
00000160: 19b8 963c 0a11 f03c 9837 cdbc 1d2a 66bc
00000170: 7d54 a03c 366a 8c3c 8436 bfbc dc3f e93c
00000180: d20b 8b3c 6823 ca3c d86a 78bc 434a 9f3c
00000190: ef0d 0ebd 1136 f9bb afcf 6eba 6969 91bc
000001a0: f25f 78bc 4852 013d 1809 49bc ae26 1dbd
000001b0: 5e34 1ebd 787d 5dbb 6f34 793c 0369 fcbb
000001c0: e173 73bb a5df 2bbc 4262 183c afa8 1c3d
000001d0: 7aaf 31bc 4e36 acbc 1910 273d 1754 9e3c
000001e0: 328d 233c 17fd 6a3b 8604 dfbb dacf c0bb
000001f0: 37a9 e93b a7ae 2e3b e6d7 fbbb b88e b9bc
00000200: 0414 be3b f8c0 eebb 05bf 41bc ea80 ae3d
00000210: 98f0 4bbd 2f04 1dbd 297f 3d3d b78d 0b3c
00000220: b987 82bd e0c2 38ba aefe 4a3d 26a9 79bd
00000230: 0439 f9bb 1e29 6038 e1f0 a5bc e96f 08bc
00000240: 6f30 da3c e60b 833c 8d40 693c 1ac0 12bd
00000250: 9979 433d c47a 57bd f5fc 103d d3f2 2cbd
00000260: 7d79 923b e194 d23d c506 593d 6cee 263d
00000270: 9a04 36bd a3a6 e1bc 3809 97bd b3bf d33d
00000280: 0139 113d 26e6 da3d 192d afbc 4f7a 153c
00000290: aaa9 e63c 1bbe 04bd 4af5 213c 0558 f9bb
000002a0: 3c6a 32bd 132d 34bd f4b2 aebd f5b1 023d
000002b0: 4717 26bd 90df d4bd 5b5d 7dbd 080f 6bbd
000002c0: a00d 1a3d 1c5c be3d 5ae0 373c 396f dfbc
000002d0: f875 d63c 3d59 6fbb be89 b9bd c114 a7bb
000002e0: b7e8 5fbd 636d e8bc 402e 0b3d 03b0 2a3d
000002f0: c3f1 fdbc 4b51 d0bc 80fc 553d 8542 c4bd
