code/logs/epoch=3-step=6176.ckpt (torch, 221167 bytes, 87 tensors)

model.upscale.weight f4 [32, 1]
0	0x3ec14776	0.37749833
1	0xbf859f06	-1.0439155
2	0xbef7068f	-0.4824719
3	0x3f0d3c2f	0.5516996
4	0x3e067283	0.1312962
5	0xbf4aac12	-0.7916881
6	0x3f26bd6a	0.6513277
7	0xbf6dc64a	-0.9288069
8	0xbed02724	-0.40654862
9	0xbf4d275a	-0.8013817
10	0x3eed5f53	0.4636179
11	0x3ee3bbd4	0.4447924
12	0xbf791e26	-0.9731163
13	0x3f64b32c	0.89335895
14	0xbc142846	-0.009042805
15	0xbf824692	-1.0177786
16	0x3e6d5e1d	0.23180433
17	0xbef24ad3	-0.4732271
18	0xbf93295c	-1.1496997
19	0x3f3202dd	0.6953562
20	0xbf1afff9	-0.60546833
21	0x3ee0dc59	0.43918112
22	0x3f644f9f	0.8918399
23	0xbf951a35	-1.1648623
24	0x3ea06772	0.31328923
25	0x3ea46397	0.3210723
26	0x3f3d2b28	0.73893976
27	0xbefec45e	-0.4975919
28	0xbf272bf7	-0.6530146
29	0xbf422876	-0.7584299
30	0xbed1bc24	-0.40963852
31	0x3f34da24	0.70645356

model.upscale.bias f4 [32]
0	0xbe8c429c	-0.2739457
1	0xbe9520b7	-0.29126522
2	0xbe02d0ab	-0.12774913
3	0xbf474884	-0.77845025
4	0x3f3ef7c3	0.74596804
5	0x3f29e7bd	0.6636923
6	0xbf5a3fed	-0.85253793
7	0x3f2b82db	0.66996545
8	0x3ebfbc48	0.37448335
9	0xbf17a07f	-0.5922927
10	0x3d47dafe	0.04879283
11	0xbf3483cc	-0.70513606
12	0x3f57d4c8	0.84309053
13	0xbf0ac8f9	-0.5421291
14	0x3e28b6da	0.16476002
15	0xbbd38ef9	-0.0064562527
16	0x3eb00a9c	0.34383094
17	0xbf382a47	-0.7193951
18	0xbf346c56	-0.7047781
19	0x3e2a6af1	0.16642357
20	0xbf5a9306	-0.8538059
21	0xbe576f5f	-0.21038578
22	0xbf092c4c	-0.53583217
23	0xbe94606f	-0.28979823
24	0x3f1a435d	0.6025904
25	0xbf197bd0	-0.5995455
26	0x3f574a73	0.84097975
27	0x3e93f325	0.28896442
28	0x3f305484	0.6887896
29	0x3d639a29	0.05556694
30	0x3ee95d31	0.45578912
31	0x3f6d1493	0.9260952

model.spatialSeq1.0.msg_mlp.0.weight f4 [16, 64]
0	0x3d25d14c	0.040482804
1	0x3df5da63	0.120045446
2	0x3e0bacca	0.13640133
3	0x3d92045e	0.07129739
4	0xbdce250a	-0.100656584
5	0x3d76b373	0.06022973
6	0xbd9e81cb	-0.077396
7	0x3e1d61c1	0.15369321
8	0x3d71f009	0.059066806
9	0xbeb33988	-0.3500483
10	0xbe55157e	-0.2080898
11	0xbb3f5a59	-0.0029198139
12	0xbd703b1a	-0.058650114
13	0xbe0f6a46	-0.14005384
14	0xbdf146a7	-0.11781054
15	0x3d3fd2e3	0.046831977
16	0xbdcdfe18	-0.1005823
17	0x3e3487af	0.17629884
18	0xbe38961a	-0.18026009
19	0xbdefb74b	-0.11704882
20	0x3c36b604	0.011151794
21	0xbcb1e8ec	-0.021717511
22	0x3dbfa639	0.09357876
23	0x3e027963	0.12741618
24	0x3d3aec77	0.045635667
25	0xbd4765ce	-0.048681073
26	0xbe288a3c	-0.16458982
27	0x3d39d355	0.045367558
28	0xbd0f14e8	-0.034932047
29	0x3e0b33a9	0.13593926
30	0xbd36460f	-0.044500407
31	0xbe352266	-0.17688903
32	0x3d49fce3	0.049313437
33	0xbb971c9d	-0.0046115653
34	0xbceca301	-0.02888632
35	0x3d5b114b	0.05348329
36	0x3d85a9fa	0.06526561
37	0x3dad5d08	0.0846501
38	0x3e698d99	0.22807921
39	0x3de38c9c	0.111108035
40	0xbc6afbba	-0.014342243
41	0xbee14aea	-0.44002467
42	0x3d7dc38e	0.061954074
43	0x3e446062	0.19177392
44	0xbd163c4d	-0.0366786
45	0x3e0bec5c	0.13664383
46	0x3db18058	0.08667058
47	0x3dda3335	0.10654298
48	0xbcff4ab0	-0.031163543
49	0x3df49506	0.119424865
50	0xbea0e09a	-0.31421357
51	0x3d73c9bd	0.059518564
52	0x3dfecaac	0.12441
53	0x3dd2fbf0	0.103019595
54	0x3e47fbb2	0.19529608
55	0x3e1caa62	0.15299371
56	0xbdce9fa3	-0.10089042
57	0x3defd467	0.117104344
58	0x3ce8b2e9	0.028405624
59	0x3bbd7482	0.005781711
60	0x3df0f13b	0.11764761
61	0x3d199541	0.037495855
62	0x3d8d95ad	0.06913314
63	0xbb6d3dfd	-0.0036200278
64	0x3a928eb0	0.001118144
65	0x3e49d223	0.19709067
66	0x3e19e154	0.15027362
67	0x3c744bd3	0.014910656
68	0x3d85b09a	0.06527825
69	0x3d74e8bf	0.059792276
70	0x3bf6f257	0.0075362134
71	0xbd3d31aa	-0.04618994
72	0x3dc367e6	0.095413014
73	0x3f012a36	0.50455034
74	0xbdf31867	-0.11869889
75	0xba2759a2	-0.0006383901
76	0x3cd7b184	0.026329763
77	0xbe02bc35	-0.12767108
78	0xbc1b996f	-0.009497031
79	0x3dac5c22	0.084160104
80	0xbe023eef	-0.1271932
81	0x3e68ee44	0.22747141
82	0x3ee52f1b	0.447625
83	0x3d46595e	0.04842507
84	0x3d9f4975	0.07777683
85	0xbdbac327	-0.091192536
86	0xbe02cd97	-0.12773739
87	0x3dc3af54	0.095549256
88	0x3c1d4943	0.0095999865
89	0xbcc5b93b	-0.024136176
90	0xbd425ad7	-0.047449913
91	0xbda12a41	-0.078693874
92	0x3db89a42	0.09013797
93	0x3e0a5f0f	0.13512824
94	0xbcc67a71	-0.024228306
95	0x3dc19b8b	0.094534956
96	0x3da37db5	0.07982961
97	0xbecd6e55	-0.4012324
98	0xbed27348	-0.41103578
99	0x3c8d7b13	0.0172706
100	0xbd138187	-0.0360122
101	0x3d839e37	0.064266615
102	0x3df3911c	0.11892912
103	0xbd2a3a42	-0.041559465
104	0x3dc762c3	0.09735634
105	0xbe6a1297	-0.22858654
106	0x3ced6702	0.028979782
107	0xbb277d21	-0.002555676
108	0xbbcf137e	-0.0063194623
109	0xbd8d86ad	-0.06910453
110	0xbdf9e511	-0.12201894
111	0xbe88dc60	-0.26730633
112	0x3cac9278	0.021065935
113	0xbc8d449f	-0.017244635
114	0xbefdc2f4	-0.495628
115	0xbe1f0af6	-0.15531525
116	0xbaa8eabf	-0.0012887343
117	0x3dcbe53b	0.099558316
118	0xbc9858b0	-0.018596977
119	0xbec2ae34	-0.3802353
120	0xbdc56d91	-0.09640039
121	0x3e30f122	0.17279485
122	0xbdd3ab08	-0.10335356
123	0xbe2466ff	-0.16054915
124	0x3d95c31c	0.07312605
125	0xbe8b6a3e	-0.27229494
126	0x3de33648	0.11094338
127	0x3dd8c4da	0.105844215
128	0x3de4d37c	0.1117315
129	0xbef4325b	-0.47694668
130	0xbe6c4cbc	-0.23076147
131	0xbd64b5df	-0.05583751
132	0xbdcf3469	-0.10117418
133	0x3e1d004e	0.15332147
134	0x3dead3e5	0.11466197
135	0xbd311c20	-0.043239713
136	0xbd4fb694	-0.05071123
137	0xbe3d53df	-0.18489026
138	0xbe23f292	-0.16010502
139	0x3ca5c294	0.020234384
140	0xbcac9ec4	-0.0210718
141	0xbac31439	-0.0014883346
142	0x3d905c7e	0.070488915
143	0x3b7b2526	0.0038321703
144	0xbde28dc3	-0.11062195
145	0x3d7c1d16	0.061551176
146	0xbdd694d6	-0.10477607
147	0xbe09f8e6	-0.13473853
148	0xbd573afa	-0.05254648
149	0xbdb93680	-0.09043598
150	0xbdd8289d	-0.10554621
151	0xbdc633b3	-0.096778296
152	0x3d9a8950	0.075457215
153	0x3d8c322a	0.068455055
154	0x3d867deb	0.06566986
155	0x3c582412	0.013192194
156	0x3cddbd50	0.02706781
157	0xbc9d7ec1	-0.01922548
158	0x3d92f67a	0.07175918
159	0xbd992d35	-0.07479326
160	0x3d8d5910	0.06901753
161	0xbe3b4330	-0.18287349
162	0xbda26c00	-0.079307556
163	0xbca4952c	-0.020090662
164	0x3c9087e2	0.017642919
165	0xbb89bec3	-0.004203649
166	0x3cc0c63f	0.023532031
167	0x3c21a649	0.009866306
168	0x3d9a5701	0.07536126
169	0xbe6faad3	-0.23405008
170	0x3d938eff	0.07205009
171	0x3e38b5e6	0.18038139
172	0x3d52ba23	0.051447045
173	0x3ccfa295	0.02534608
174	0x3d392826	0.045204304
175	0xbdac961d	-0.08427069
176	0x3d5195d3	0.051168274
177	0x3d9b4efa	0.07583423
178	0xbea09260	-0.31361675
179	0xbde96f70	-0.11398208
180	0x3d8e562a	0.06950028
181	0xbdd92d91	-0.10604394
182	0xbd9af30c	-0.07565889
183	0xbd9753f0	-0.07389057
184	0x3dbc3527	0.091898255
185	0x3e3c7032	0.18402174
186	0xbd248469	-0.04016534
187	0x3d76a904	0.06021978
188	0xbcf051d2	-0.02933589
189	0x3b6716e6	0.0035261451
190	0x3e0e6278	0.1390475
191	0xbe07104a	-0.13189808
192	0xbdcea3b9	-0.10089821
193	0xbd996b2c	-0.074911445
194	0xbdeddb60	-0.11614108
195	0xbdb0eb90	-0.0863868
196	0x3cf40640	0.029788136
197	0xbe08a965	-0.13345869
198	0xbd9ae651	-0.075634606
199	0xbe2031b7	-0.15643965
200	0x3c9b33c4	0.018945582
201	0x3e4d4f4d	0.20049782
202	0xbb9219d5	-0.004458646
203	0x3d5f8cf0	0.054577768
204	0xbe1574cc	-0.14595336
205	0x3d546e6c	0.05186312
206	0x3a06d907	0.0005144034
207	0xbe09c029	-0.1345221
208	0x3c4effc5	0.012634222
209	0xbbe7dc35	-0.0070758113
210	0x3e7c02b0	0.246104
211	0x3db49536	0.08817522
212	0xbe44183a	-0.19149867
213	0xbd1ea39b	-0.038730245
214	0xbdd7f2e5	-0.10544375
215	0xbd806ea3	-0.06271102
216	0x3d7e00ab	0.062012356
217	0xbe11779c	-0.14205784
218	0x3e037f81	0.12841608
219	0xbe3a32cc	-0.1818344
220	0x3cf79105	0.030220518
221	0x3c52328f	0.012829437
222	0x3d1e88db	0.038704734
223	0xbd5b3b7a	-0.05352352
224	0x3cfb6b62	0.030690853
225	0x3e2815ff	0.16414641
226	0xbd8c8252	-0.06860794
227	0x3c814248	0.015778676
228	0xbdc44b41	-0.09584666
229	0xbcfae54b	-0.030626914
230	0xbcd0145c	-0.025400333
231	0xbd2ed844	-0.042686716
232	0x3d2b95f6	0.04189106
233	0x3ea3c982	0.31989676
234	0xbe067746	-0.13131437
235	0xbd367dde	-0.04455363
236	0xbdcb8d89	-0.09939105
237	0x3d654d1c	0.05598174
238	0x3db325f3	0.087474726
239	0xbcefc1fd	-0.029267306
240	0x3df5dffe	0.12005614
241	0xbdc27af0	-0.09496105
242	0x3e7cc52c	0.2468459
243	0x3ddb0eb1	0.106961615
244	0xbdaab43e	-0.0833516
245	0xbe022dfb	-0.12712853
246	0x3b78f926	0.00379903
247	0xbcf5a02e	-0.029983606
248	0x3b948f9e	0.004533722
249	0xbdb593a3	-0.0886605
250	0x3cadc19e	0.021210488
251	0x3be4e5ae	0.0069853878
252	0x3d8d549f	0.06900906
253	0xbde39a08	-0.111133635
254	0xbd86c05e	-0.0657966
255	0xbce46253	-0.027878916

model.spatialSeq1.0.msg_mlp.0.bias f4 [16]
0	0x3dc8ce62	0.098049894
1	0xbda37a27	-0.07982283
2	0xbcf001fc	-0.029297821
3	0xbd25cfbe	-0.04048132
4	0xbbd1cda7	-0.0064026895
5	0x3c8f5f71	0.017501565
6	0x3d06afba	0.03288243
7	0xbd75b3a0	-0.059985757
8	0x3dbfcaa3	0.09364822
9	0xbdb4ee01	-0.08834458
10	0xbd5baf3d	-0.053633917
11	0xba744bf5	-0.000931918
12	0x3d280bfe	0.04102706
13	0xbdfaaf44	-0.122404605
14	0x3dca001f	0.09863304
15	0xbae43b5b	-0.0017412709

model.spatialSeq1.0.msg_mlp.2.weight f4 [32, 16]
0	0x3e698495	0.22804482
1	0x3de871b5	0.11349813
2	0xbe35e83e	-0.17764375
3	0xbe474103	-0.19458394
4	0xbe7ec0a0	-0.24878168
5	0xbe6635e7	-0.224815
6	0x3d9bddd5	0.076106705
7	0xbe458cac	-0.19291943
8	0xbe77a0d2	-0.24182442
9	0x3c97a068	0.018509105
10	0x3d83a2e5	0.06427554
11	0xbdf5997f	-0.11992168
12	0xbd97dc08	-0.074150145
13	0xbd9840ab	-0.074342094
14	0xbe842874	-0.25812113
15	0xbe307fb9	-0.17236222
16	0x3e1e1d48	0.15440857
17	0x3dbc4fab	0.09194883
18	0xbe487926	-0.19577464
19	0x3e1baba7	0.15202199
20	0xbcc031e6	-0.023461293
21	0x3e13f333	0.14448242
22	0xbe00bedc	-0.12572807
23	0x3e3d3997	0.18479
24	0xbc059da4	-0.00815526
25	0xbe751fc9	-0.23937906
26	0x3d438991	0.047738615
27	0x3e48f88a	0.1962606
28	0x3dd21c16	0.10259263
29	0x3d8493f0	0.06473529
30	0x3e46c0ea	0.19409528
31	0xbce1a281	-0.027543308
32	0x3e3a8e05	0.18218239
33	0x3e2df211	0.16986872
34	0x3e01b23d	0.12665649
35	0xbd9759dc	-0.07390186
36	0x3df652d5	0.12027518
37	0xbd7f2090	-0.062286913
38	0x3ddeaf2b	0.108732544
39	0x3dc402d0	0.09570849
40	0x3d9657f3	0.07340994
41	0x3d12ab22	0.035807736
42	0xbe69be76	-0.22826561
43	0xbdc79b9b	-0.09746476
44	0xbe605822	-0.2190862
45	0x3d2b59ef	0.041833814
46	0x3e463fc2	0.19360259
47	0xbe35982d	-0.17733832
48	0xbd8e401b	-0.06945821
49	0x3e93c7d7	0.28863403
50	0x3de30686	0.110852286
51	0xbe0d5984	-0.13803679
52	0xbe85d738	-0.2614076
53	0x3c065fb5	0.008201529
54	0x3e709ba9	0.2349688
55	0xbd3a109a	-0.04542599
56	0x3cf7afa0	0.030235112
57	0xbe59a550	-0.21254468
58	0x3bf010fa	0.0073262425
59	0x3e4444ef	0.19166921
60	0x3c9463a1	0.018113913
61	0xbdee8736	-0.11646883
62	0xbe17a323	-0.14808325
63	0xbd8eedd9	-0.069789596
64	0xbe29b556	-0.1657308
65	0x3c8a8563	0.016909307
66	0xbd9d8cc5	-0.07692865
67	0xbe0036cf	-0.12520908
68	0xbe8eac85	-0.27865997
69	0xbe02f91e	-0.12790343
70	0xbe49d0ac	-0.19708508
71	0x3e4fcbb0	0.20292544
72	0xbe892479	-0.2678564
73	0xbe7debdb	-0.24797003
74	0xbe61c815	-0.22048981
75	0xbdc0a88b	-0.09407147
76	0xbe1ec016	-0.15502962
77	0xbd5db2dd	-0.054125655
78	0xbe6e2870	-0.23257613
79	0x3dffe0cf	0.12494051
80	0xbd7a32df	-0.06108367
81	0x3e0a6de2	0.1351848
82	0x3e1c5bc8	0.15269387
83	0x3db3492f	0.08754193
84	0x3cb38798	0.021915242
85	0xbd8ea1c9	-0.06964452
86	0x3e1b542a	0.15168825
87	0xbe680f31	-0.22662045
88	0x3b9f39f9	0.004859206
89	0xbdf9eba6	-0.122031495
90	0x3d8cacd7	0.06868904
91	0x3e6ee978	0.23331249
92	0x3e44e01c	0.19226116
93	0x3da9f8da	0.08299418
94	0xbd0a2999	-0.033731077
95	0xbd9755c7	-0.073894076
96	0x3e0815cf	0.1328957
97	0xbe1de468	-0.15419161
98	0x3e08b512	0.13350323
99	0xbcf01f25	-0.029311726
100	0x3c79cdf5	0.015246858
101	0x3e2c5112	0.16827801
102	0xbe0483b0	-0.1294086
103	0xbdc8dae9	-0.09807379
104	0x3d23596a	0.039880194
105	0x3e70d08b	0.23517053
106	0x3e5c64c7	0.21522819
107	0xbd4d143b	-0.05006812
108	0xbe94eab8	-0.29085326
109	0xbd89df24	-0.06732014
110	0x3e5480bf	0.20752238
111	0xbe18de58	-0.14928567
112	0xbe6e2d7c	-0.23259538
113	0xbdb7af64	-0.08969
114	0x3d978114	0.073976666
115	0x3d92988f	0.071580045
116	0x3d413b33	0.047175597
117	0xbd46c02a	-0.048523106
118	0xbd85213b	-0.06500479
119	0x3c60c984	0.01371992
120	0x3d6ab8ed	0.057305265
121	0xbd02b8a7	-0.03191438
122	0x3e48fe00	0.19628143
123	0xbdc0173e	-0.09379433
124	0xbe887296	-0.26649922
125	0x3de988e5	0.11403064
126	0x3c4753d6	0.012165984
127	0xbea22167	-0.3166611
128	0x3d9c35cd	0.07627449
129	0xbd7c1852	-0.06154663
130	0xbc91f286	-0.01781584
131	0xbd9d6ee9	-0.0768717
132	0xbe74f415	-0.23921235
133	0x3e0cecf1	0.13762261
134	0xbe05ed88	-0.13078892
135	0x3ccd029f	0.025025664
136	0x3dd83b37	0.10558169
137	0x3e4da1a8	0.20081198
138	0xbe9fc6c6	-0.3120634
139	0xbecba020	-0.39770603
140	0x3cb4594e	0.02201524
141	0x3e37de43	0.1795588
142	0xbdd5105e	-0.104035124
143	0x3d1019db	0.035180908
144	0x3da9fd49	0.083002634
145	0x3e616abf	0.22013377
146	0xbbf018e4	-0.007327186
147	0x3d958342	0.07300426
148	0x3e409f60	0.18810797
149	0xbe1c464d	-0.15261193
150	0x3d57e67b	0.052710038
151	0xbdea4aa6	-0.11440019
152	0x3d97c59a	0.074107364
153	0xbde1cd5a	-0.11025496
154	0xbe958038	-0.29199386
155	0xbe3bb62a	-0.18331209
156	0xbe09f8fa	-0.13473883
157	0xbe308911	-0.17239787
158	0x3e7aae3c	0.24480528
159	0x3e606490	0.21913362
160	0x3e43a5da	0.19106236
161	0x3da4fa0d	0.08055506
162	0x3dade05c	0.08490059
163	0xbe3d88d9	-0.18509234
164	0xbe54832b	-0.20753162
165	0x3d853cbe	0.06505726
166	0x3cecd715	0.028911153
167	0x3d4001da	0.046876766
168	0x3d59cad5	0.05317195
169	0x3e2879ce	0.16452715
170	0xbe178823	-0.14798026
171	0x3e3fe17f	0.18738364
172	0x3dca7fed	0.09887681
173	0xbe0f5990	-0.13999009
174	0x3e0ccadc	0.1374926
175	0xbd582f72	-0.052779622
176	0x3e306281	0.17225076
177	0x3b9d1537	0.004793789
178	0x3d7c880b	0.06165318
179	0xbdae368a	-0.08506496
180	0xbe3e275c	-0.18569702
181	0x3d89cbe9	0.06728346
182	0xbe53e03c	-0.20691007
183	0xbe51187f	-0.20419501
184	0xbd06076e	-0.03272193
185	0x3dd656bc	0.10465762
186	0x3e1ca274	0.15296346
187	0x3e1030b8	0.14081085
188	0xbe372d5f	-0.17888401
189	0x3de1381b	0.109970294
190	0xbe68bb0a	-0.227276
191	0xbdb6740e	-0.089088544
192	0x3ec1481a	0.37750322
193	0x3e37127c	0.17878145
194	0xbe64d559	-0.2234701
195	0x3d2fdaf7	0.04293343
196	0x3e08547d	0.1331348
197	0xbc7bd765	-0.015371178
198	0x3e1137a1	0.14181377
199	0x3dfcb153	0.123385094
200	0xbdd33166	-0.103121564
201	0x3c61edf3	0.013789642
202	0xbe1b6edc	-0.15179008
203	0xbdd50bd1	-0.104026444
204	0xbbdc842c	-0.0067296233
205	0x3e6d64e9	0.23183025
206	0x3d8bea94	0.068318516
207	0xbe2e9756	-0.17049918
208	0xbe4c1c2c	-0.19932622
209	0xbdd6ae63	-0.104824804
210	0x3e91f483	0.2850686
211	0x3e51f87e	0.20504948
212	0xbe8a6b87	-0.27035162
213	0x3d9f1b4c	0.07768878
214	0xbd305f19	-0.043059442
215	0xbd8b38b6	-0.06797926
216	0xbc658b2e	-0.014010234
217	0x3daba6fb	0.08381458
218	0xbe684fc2	-0.22686675
219	0xbe0dc24b	-0.13843648
220	0xbe317fac	-0.17333859
221	0xbe3acb07	-0.18241511
222	0xbe708024	-0.23486382
223	0xbdaa8492	-0.08326067
224	0xbeadcd83	-0.33945855
225	0xbda5fb23	-0.08104541
226	0xbcb8abba	-0.022542823
227	0x3e8135db	0.252364
228	0xbe0f3796	-0.13986048
229	0xbe0ee393	-0.13954
230	0x3e84a3a5	0.259061
231	0x3e182b91	0.1486037
232	0xbeb6739e	-0.35635084
233	0xbe80bd42	-0.25144392
234	0x3c4453a6	0.011982834
235	0x3c0840b5	0.008316209
236	0xbdf1a7d8	-0.11799592
237	0xbe0658df	-0.13119839
238	0xbeae5f4e	-0.34057087
239	0x3d647b6a	0.05578176
240	0x3e2bd94c	0.16782111
241	0x3d95f012	0.073211804
242	0xbd220072	-0.039551206
243	0x3e5e631e	0.21717498
244	0x3ddaf3d2	0.10691036
245	0x3d6445c6	0.055730604
246	0x3e8db04c	0.27673566
247	0xbdd1b941	-0.102404125
248	0xbd844aaa	-0.064595535
249	0xbc99db00	-0.018781185
250	0xbe53de56	-0.20690283
251	0x3e721628	0.23641264
252	0x3c1655ed	0.00917576
253	0x3de24fb2	0.11050357
254	0xbde5b5e8	-0.112163365
255	0xbe5b380f	-0.21408103

model.spatialSeq1.0.msg_mlp.2.bias f4 [32]
0	0xbc6c4261	-0.014420123
1	0xbdb8c8ee	-0.09022699
2	0x3e49782b	0.19674747
3	0xbc0935dc	-0.0083746575
4	0x3dac4467	0.08411484
5	0xbccc723b	-0.024956813
6	0xbe346b0e	-0.17618963
7	0xbdc0a968	-0.09407312
8	0x3e1d54ff	0.15364455
9	0xbd0f2334	-0.03494568
10	0xbe12ceb0	-0.14336658
11	0x3d6fc815	0.058540422
12	0xbdcbe8b1	-0.09956492
13	0x3e0c084d	0.13675041
14	0xbe0b7eaf	-0.13622545
15	0xba9f3aa1	-0.001214821
16	0xbe0f431c	-0.13990444
17	0xbe0495b3	-0.1294773
18	0xbe10556f	-0.1409509
19	0xbe2dd981	-0.16977502
20	0x3d187e8f	0.03723007
21	0xbd936810	-0.07197583
22	0x3d9235a3	0.07139137
23	0x3e5ea9cf	0.21744464
24	0x3d053326	0.032519482
25	0x3e493adc	0.1965136
26	0xbc9b04c5	-0.018923173
27	0xbb6e01db	-0.0036317024
28	0xbd645099	-0.055740926
29	0xbe44c4e7	-0.19215737
30	0xbdd180c3	-0.102296375
31	0x3cab6ebd	0.020926828

model.spatialSeq1.0.gate_mlp.0.weight f4 [1, 32]
0	0x3e424c43	0.18974404
1	0x3d8cb97d	0.068713166
2	0xbe976ea4	-0.295766
3	0x3dc060de	0.09393476
4	0xbc63881f	-0.013887434
5	0x3de272b6	0.110570356
6	0xbe212e0d	-0.15740223
7	0xbd47155e	-0.04860436
8	0xbe6d3ebe	-0.23168465
9	0xbe721598	-0.2364105
10	0x3ca6d233	0.020363903
11	0xbe5119b3	-0.2041996
12	0x3d98e9e1	0.07466484
13	0xbc380aaf	-0.011233016
14	0x3d10d60c	0.03536038
15	0x3db2b032	0.08725013
16	0xbd9fa821	-0.0779574
17	0x3e1a2551	0.15053298
18	0x3d42eba4	0.047588006
19	0xbdf1f778	-0.11814779
20	0xbd69fbd2	-0.05712492
21	0xbe10957f	-0.14119528
22	0xbcba1ff2	-0.02272031
23	0x3dc574ef	0.09641444
24	0xbdd30d64	-0.103052884
25	0xbe1bfd32	-0.15233305
26	0xbe1972e6	-0.14985237
27	0x3d140b54	0.036143616
28	0x3df5b991	0.119982846
29	0x3e4c052c	0.19923848
30	0xbcbc6c54	-0.023000874
31	0xbe2dacc9	-0.16960444

model.spatialSeq1.0.update_mlp.0.weight f4 [32, 64]
0	0xbdbe3af9	-0.09288592
1	0x3a1e0ee1	0.0006029439
2	0x3dcc9f86	0.09991364
3	0xbcbe687a	-0.023243178
4	0xbc15dffa	-0.009147638
5	0xbd07d07f	-0.03315782
6	0xbd9efbe5	-0.07762889
7	0xbde7ca5e	-0.11317895
8	0xbd0962bc	-0.033541426
9	0xbd353a98	-0.044245332
10	0xbd275779	-0.040854905
11	0x3dc5b357	0.09653347
12	0x3d6b5249	0.05745152
13	0xbe282f02	-0.16424182
14	0xbe096f84	-0.13421446
15	0x3c987b2a	0.018613417
16	0xbbb00d6e	-0.0053726947
17	0xbdac3068	-0.0840767
18	0xbd131d39	-0.03591654
19	0x3d1ee623	0.038793694
20	0xbda96625	-0.08271436
21	0x3da93559	0.082621284
22	0x3cbebcdb	0.023283413
23	0xbccb03a0	-0.024782002
24	0xbd5c44e3	-0.053776633
25	0xbdc3fcf7	-0.095697336
26	0xbcdf99e0	-0.027295053
27	0xbdc981d4	-0.09839216
28	0x3d5b26f1	0.053503934
29	0xbd987d2e	-0.07445751
30	0x3db56905	0.088579215
31	0xbd77040e	-0.0603066
32	0xbe053a9d	-0.1301064
33	0x3e403c7c	0.18773073
34	0x3e7dfcf5	0.24803527
35	0x3c65d2b8	0.01402729
36	0x3dddd6e9	0.108320065
37	0x3e122dc5	0.14275272
38	0x3bd54cbc	0.0065093916
39	0x3e313864	0.17306668
40	0xbd272d36	-0.0408146
41	0xbeb5c287	-0.35499975
42	0xbe01f43f	-0.12690829
43	0x3e22015d	0.15820833
44	0xbbd60cb2	-0.006532275
45	0xbe04e46e	-0.12977764
46	0xbcdbd0a3	-0.026832884
47	0x3dce367e	0.10068987
48	0xbce9de73	-0.028548455
49	0xbe1ac4ed	-0.15114184
50	0xbe36c698	-0.17849195
51	0xbdf8ee97	-0.121548824
52	0xbe89ac4b	-0.26889262
53	0xbe0966bb	-0.13418095
54	0xbe0fbb41	-0.14036275
55	0x3e8e85b2	0.27836376
56	0x3ce55bfb	0.027997961
57	0x3dec6ba4	0.11543968
58	0xbe47294f	-0.19449352
59	0x3dae37e5	0.08506755
60	0x3de95982	0.113940254
61	0x3e483cd1	0.1955445
62	0x3b814b38	0.0039457344
63	0xbe2a4265	-0.1662689
64	0xbc91b606	-0.01778699
65	0xbd590e64	-0.05299224
66	0x3d4f79b0	0.05065316
67	0xbe3d8883	-0.18509106
68	0x3dae5894	0.08512989
69	0xbc9f412f	-0.019440262
70	0x3d9784c6	0.073983714
71	0xbcb32e39	-0.021872627
72	0x3d92df18	0.07171458
73	0xbdac1a60	-0.08403468
74	0xbd8f4c2e	-0.06996952
75	0x3de5e4c0	0.11225271
76	0x3d36b6a7	0.044607785
77	0xbdd6aa5d	-0.10481713
78	0x3dc42d06	0.095789
79	0xbd67f75a	-0.056632377
80	0xbd55cbd5	-0.052196342
81	0x3e0799c8	0.13242257
82	0xbdb37eaa	-0.08764394
83	0x3dc994c8	0.09842831
84	0x3d90e191	0.070742734
85	0xbe0755bc	-0.13216299
86	0x3b165439	0.0022938384
87	0xbe229f4e	-0.15881082
88	0xbdb5f711	-0.08885015
89	0x3d812355	0.06305567
90	0x3b9c9f31	0.0047797193
91	0x3d44e99c	0.04807435
92	0xbc87ec2e	-0.016592111
93	0xbd145e14	-0.036222532
94	0xbdae2b3b	-0.08504339
95	0x3deaf896	0.11473195
96	0xbd5d260b	-0.05399136
97	0x3ea08f57	0.3135936
98	0x3e995f8b	0.29955706
99	0x3cb8d90c	0.022564434
100	0x3dae7f59	0.085203834
101	0x3e3e73c6	0.18598852
102	0xbe1dc7c9	-0.15408243
103	0x3e2091f4	0.15680677
104	0x3b2ee3d6	0.0026686094
105	0xbed3761b	-0.41301045
106	0xbe6606ec	-0.22463578
107	0xbca0b48d	-0.019617343
108	0xbc5e0735	-0.013551523
109	0xbe513ecf	-0.20434116
110	0x3cdda458	0.027055904
111	0x3e35ba48	0.17746842
112	0xbe02ba76	-0.12766442
113	0xbe5c6f44	-0.2152682
114	0xbd831682	-0.064007774
115	0xbe474d31	-0.1946304
116	0xbe82855d	-0.25492373
117	0xbe46a4f6	-0.19398865
118	0xbe585213	-0.21125059
119	0x3e6d9728	0.23202193
120	0xbe2a4a5f	-0.16629933
121	0xbcb6f73d	-0.02233469
122	0xbe1c6394	-0.15272361
123	0x3d904ae2	0.07045533
124	0xbc84c0d4	-0.016205229
125	0x3e382d83	0.17986111
126	0xbad0d526	-0.0015932664
127	0xbdff50a4	-0.12466553
128	0x3dcdc911	0.10048116
129	0xbd518ea4	-0.051161423
130	0xbd1d0054	-0.03833039
131	0x3e18a91e	0.14908263
132	0x3d3ca91f	0.046059724
133	0xbd24d459	-0.040241573
134	0xbcfb3e38	-0.030669317
135	0x3e19266a	0.1495606
136	0xbdf2b3ba	-0.11850686
137	0x3c96e4d6	0.018419664
138	0x3deb0c85	0.11476997
139	0x3dbf9335	0.093542494
140	0x3d9c2593	0.07624354
141	0x3d09755a	0.03355918
142	0x3d87e6e5	0.066358365
143	0x3e1c71d8	0.15277803
144	0xbd81e8d0	-0.063432336
145	0xbe17a6e7	-0.14809762
146	0x3cb81105	0.022469053
147	0xbe1eeaeb	-0.15519302
148	0x3d817fa0	0.06323171
149	0x3d6678be	0.056267492
150	0xbe87e2c7	-0.26540205
151	0xbdeeb23b	-0.116550885
152	0xbce01ca6	-0.02735741
153	0x3e206377	0.15662943
154	0xbde2740d	-0.11057291
155	0x3ded520a	0.11587913
156	0x3b6e2eab	0.0036343734
157	0x3d54643a	0.051853396
158	0xbdd63650	-0.10459578
159	0x3e1fd718	0.15609396
160	0x3cb99297	0.022652907
161	0x3db57bde	0.088615164
162	0x3d632c4f	0.055462178
163	0xbd240a88	-0.040049106
164	0x3d83e6de	0.06440519
165	0x3d71e98e	0.059060626
166	0xbd9451b3	-0.072421454
167	0x3d5c2100	0.05374241
168	0x3d9619f8	0.07329172
169	0x3f042b00	0.5162811
170	0x3de771fa	0.11301036
171	0xbdcb0ae5	-0.09914187
172	0xbcbf2614	-0.023333587
173	0x3c369f73	0.011146414
174	0x3e17bfab	0.1481921
175	0xbd911706	-0.070844695
176	0x3daa9168	0.08328515
177	0x3c19d94e	0.009390188
178	0x3eacd973	0.3375965
179	0x3d8e87e9	0.069595166
180	0x3dda7dd5	0.10668532
181	0x3bd0000c	0.006347662
182	0xbc129b1d	-0.008948115
183	0x3c810bbb	0.015752664
184	0x3e15b270	0.1461885
185	0x3bbc3a7e	0.0057442775
186	0xbdd37b52	-0.10326256
187	0x3d280191	0.04101712
188	0x3d36cc35	0.04462834
189	0xbdadcb67	-0.084860615
190	0xbdd71b66	-0.10503273
191	0xbb087e2e	-0.0020827162
192	0xbd0bc8be	-0.03412699
193	0xbd83f9a7	-0.06444102
194	0xbdecb748	-0.115583956
195	0x3e1309d8	0.14359224
196	0x3e06b99e	0.13156745
197	0x3d98e40f	0.07465374
198	0x3d01846f	0.03162044
199	0xbce20f51	-0.027595194
200	0xbbe82d8e	-0.0070855087
201	0x3e532dee	0.2062299
202	0x3a74ae40	0.00093338266
203	0xbe50fbd2	-0.20408562
204	0xbdb61de9	-0.08892424
205	0xbd3e5f86	-0.046477817
206	0x3b204be6	0.0024459301
207	0xbe0ed611	-0.13948847
208	0xbdb4fb43	-0.08836987
209	0xbd5e6ed7	-0.054304924
210	0x3e1a70d5	0.15082105
211	0xbd0fc449	-0.0350993
212	0xbdc46e30	-0.09591329
213	0xbe7f28d4	-0.24917918
214	0xbdd45732	-0.10368194
215	0x3d625066	0.055252455
216	0x3c0343aa	0.008011738
217	0xbdb00fc5	-0.08596758
218	0xbe07498b	-0.13211648
219	0xbe0a7bd4	-0.13523799
220	0x3dcab256	0.09897296
221	0x3e428f90	0.19000077
222	0x3e4301ad	0.19043608
223	0xbc981549	-0.018564837
224	0xbe0886af	-0.13332628
225	0xbedf8d03	-0.4366227
226	0xbe87a8ea	-0.2649606
227	0xbdd7d41e	-0.10538505
228	0xbd13996b	-0.036034983
229	0x3d2b4759	0.04181609
230	0xbd2da942	-0.042397745
231	0x3d96d701	0.073652275
232	0x3dc4ea70	0.09615028
233	0xbee5d2f9	-0.44887522
234	0x3d1746cd	0.036932755
235	0xbe2f870b	-0.17141359
236	0x3de4287e	0.11140536
237	0xbdc58553	-0.0964457
238	0x3d434979	0.04767749
239	0xbe35160d	-0.17684193
240	0x3beb52d6	0.0071815057
241	0xbe5a334e	-0.21308634
242	0xbec65157	-0.38733932
243	0x3e12d70c	0.14339846
244	0xbd8eb959	-0.06968946
245	0xbe128cff	-0.14311598
246	0xbe225f8b	-0.15856759
247	0xbe028cbf	-0.12749003
248	0x3d97c876	0.07411282
249	0x3c4fdf7d	0.012687561
250	0x3d45c3c2	0.048282392
251	0xbcd45491	-0.02591923
252	0xbcb2d2db	-0.02182906
253	0xbdf2a574	-0.11847964
254	0xbdc36199	-0.095401
255	0x3e2703c3	0.16310029

model.spatialSeq1.0.update_mlp.0.bias f4 [32]
0	0xbb0144b3	-0.0019724786
1	0xbc36c019	-0.011154198
2	0xbca7962b	-0.020457348
3	0x3e3443e8	0.17604029
4	0x3ba430c0	0.0050106943
5	0xbd6d1d5f	-0.05788934
6	0x3d36c6b7	0.044623103
7	0x3e11447d	0.14186282
8	0x3d03628d	0.032076407
9	0xbd904fe7	-0.0704649
10	0x3e5b232c	0.21400136
11	0xbc611673	-0.0137382625
12	0xbe1a1860	-0.15048361
13	0x3cbe9901	0.023266317
14	0xbdfef04f	-0.12448179
15	0x3d3bb70b	0.04582886
16	0xbc59e60c	-0.013299476
17	0x3e18632d	0.14881583
18	0xbd8014ac	-0.06253943
19	0x3db9736b	0.09055217
20	0x3cfbec89	0.030752437
21	0xbd5ac2e2	-0.05340851
22	0xbd959a9c	-0.0730488
23	0xbd825a6f	-0.06364905
24	0x3d951377	0.07279103
25	0x3d1be8a9	0.03806368
26	0x3d480bb0	0.04883927
27	0xbd1ce6ec	-0.03830616
28	0x3e310040	0.17285252
29	0x3d8abce0	0.06774306
30	0xbbff9caa	-0.0078006582
31	0x3d0e40ab	0.03472964

model.spatialSeq1.0.update_mlp.2.weight f4 [32, 32]
0	0x3bb28d90	0.0054490045
1	0x3e16becb	0.14721219
2	0x3da0f74a	0.07859667
3	0xbd9340ad	-0.0719007
4	0x3e22661a	0.15859261
5	0xbd7143b7	-0.05890247
6	0x3e566a64	0.20939022
7	0xbe39bd22	-0.18138555
8	0x3d24e38c	0.040256068
9	0xbd8c2955	-0.06843821
10	0x3e4655e9	0.1936871
11	0xbc7c21f3	-0.0153889535
12	0x3e09b121	0.13446476
13	0xbdd778b1	-0.10521067
14	0x3e22ff82	0.15917781
15	0xbd1034e8	-0.035206705
16	0xbca38d06	-0.019964706
17	0xbbd47d77	-0.006484683
18	0x3cd05c69	0.02543469
19	0xbca22205	-0.019791612
20	0x3dd734ae	0.10508095
21	0x3e32f2f8	0.17475498
22	0x3bbb6c41	0.005719692
23	0x3dc365be	0.0954089
24	0x3ce22fd0	0.02761069
25	0x3d6f71a4	0.058457986
26	0x3c99e253	0.018784678
27	0x3e3943db	0.18092291
28	0xbd7784d2	-0.0604294
29	0x3dec1313	0.115270756
30	0x3dde2e4f	0.108486764
31	0xbd5aa213	-0.053377222
32	0xbe8b0981	-0.27155688
33	0xbda8fedb	-0.08251735
34	0x3e0c0e45	0.13677318
35	0xbde7c665	-0.11317138
36	0xbe2cd6c1	-0.16878797
37	0xbdff8119	-0.12475795
38	0xbd247860	-0.04015386
39	0x3d065600	0.03279686
40	0x3ca930d9	0.020653175
41	0x3d9be1cc	0.07611427
42	0x3e46786b	0.19381873
43	0xbe8c9495	-0.2745711
44	0xbda9ce0c	-0.082912534
45	0x3d738915	0.059456903
46	0xbe621d68	-0.2208153
47	0xbe8214f8	-0.25406623
48	0x3b6c76f2	0.003608164
49	0x3e157170	0.14594054
50	0xbdf65adf	-0.12029051
51	0x3d9ba0cf	0.07599031
52	0x3e1c60cd	0.15271302
53	0xbdda4334	-0.10657349
54	0xbe83fc85	-0.25778595
55	0x3e2d68cc	0.16934508
56	0x3da2516d	0.07925687
57	0xbe3393e5	-0.17536886
58	0x3e18d3fd	0.14924617
59	0xbd871d9b	-0.06597444
60	0xbd59155f	-0.052998897
61	0xbda66644	-0.08124974
62	0xbe8564d3	-0.26053485
63	0xbe200214	-0.15625793
64	0x3bb50ead	0.005525431
65	0xbd8e3aa1	-0.06944776
66	0xbd1681de	-0.036744945
67	0x3d5eeec9	0.054426942
68	0x3d13c7d8	0.036079258
69	0xbe0ca8a3	-0.13736205
70	0xbc5f655e	-0.013635008
71	0x3d57f566	0.052724265
72	0xbe1afce8	-0.15135539
73	0xbd91126f	-0.07083594
74	0x3e1ad132	0.15118864
75	0x3e3833cf	0.17988513
76	0x3e0985ea	0.1342999
77	0x3c8b3975	0.016995171
78	0x3e144891	0.14480807
79	0x3e433d63	0.19066386
80	0x3e61e1c4	0.22058779
81	0x3e27be49	0.16381182
82	0xbd7b6e3f	-0.061384436
83	0xbdc23d2f	-0.09484326
84	0x3dd77d7c	0.10521981
85	0xbdb4ffdf	-0.08837866
86	0xbe83f868	-0.25775456
87	0xbdf76faf	-0.12081849
88	0x3d00a591	0.031407896
89	0x3c80e65c	0.015734844
90	0x3dfedab5	0.12444059
91	0xbbcbba3c	-0.006217269
92	0xbe06f6e2	-0.13180116
93	0xbd096953	-0.03354771
94	0xbe2db01a	-0.16961709
95	0x3db2b31f	0.08725571
96	0xbddf473c	-0.10902259
97	0xbe48b8a1	-0.1960168
98	0xbe3f122c	-0.18659276
99	0x3dc2d8e7	0.09514027
100	0x3ba1af70	0.004934244
101	0x3e25cd96	0.16191706
102	0xbe46146c	-0.19343728
103	0xbc0aa86a	-0.008463005
104	0xbdc3a8f8	-0.095537126
105	0x3db33905	0.0875111
106	0xbca3229b	-0.019913962
107	0x3e233a86	0.15940294
108	0x3d5797c9	0.052634988
109	0x3e0d4c8c	0.13798732
110	0xbd11023b	-0.035402518
111	0x3d615020	0.055008054
112	0x3cf18526	0.029482435
113	0x3e0ff347	0.14057647
114	0x3e3d87d2	0.18508843
115	0x3dda8131	0.106691726
116	0xbae76d79	-0.0017656527
117	0x3d4e8151	0.050416294
118	0xbd105fd8	-0.035247654
119	0x3e063799	0.13107146
120	0xbcc8c42b	-0.024507603
121	0xbd7e99ba	-0.062158324
122	0x3e84ca91	0.25935796
123	0x3de7d68e	0.1132022
124	0xbe196706	-0.14980707
125	0x3e61bcfc	0.22044748
126	0x3cbf4ea6	0.023352932
127	0xbe0d1393	-0.13776998
128	0x3dd2bb08	0.1028958
129	0xbcb35c8a	-0.021894712
130	0x3dc8e21c	0.09808752
131	0xbd22ce26	-0.03974738
132	0x3dfeecec	0.12447533
133	0x3d3b1b86	0.045680545
134	0xbcffadc5	-0.03121079
135	0x3ca4fc6b	0.020139894
136	0xbb4ba40a	-0.0031073117
137	0xbdea69f4	-0.1144599
138	0xbe8842b0	-0.2661338
139	0x3e00dbcd	0.12583847
140	0x3d0a2cf2	0.03373427
141	0x3db1ef95	0.08688275
142	0x3e703b73	0.23460178
143	0xbd044687	-0.032293823
144	0xbeb0e4db	-0.34549603
145	0xbe7b3982	-0.24533656
146	0xbe56cb51	-0.20975997
147	0xbde01215	-0.10940949
148	0x3c8da21d	0.017289216
149	0x3d2e9107	0.042618778
150	0x3dd0c6fa	0.10194202
151	0x3d2e8f06	0.042616867
152	0xbe244c9b	-0.16044848
153	0x3d8d8348	0.069098055
154	0xbdb9519d	-0.090487696
155	0x3e5a161a	0.21297494
156	0xbcedade5	-0.029013583
157	0x3d43e5d8	0.047826618
158	0x3e67f5bc	0.22652334
159	0x3d928dec	0.07155976
160	0x3e4808da	0.19534627
161	0xbdf80fc1	-0.1211238
162	0x3aa2e17b	0.0012426818
163	0xbe0d46ce	-0.13796541
164	0x3d9ea9ef	0.07747256
165	0xbbb9f8db	-0.005675418
166	0xbe1fb65d	-0.1559691
167	0x3dbba77e	0.09162806
168	0xbd486f10	-0.048934042
169	0xbd8a2ff3	-0.06747427
170	0x3dbdd65f	0.09269404
171	0x3e05eb73	0.13078098
172	0x3dea2e7a	0.11434646
173	0xbdabfd56	-0.08397929
174	0x3d1e8915	0.03870495
175	0x3dfc91da	0.123325065
176	0xbd89e315	-0.067327656
177	0x3a3130d7	0.0006759292
178	0x3e19336b	0.1496102
179	0x3c9f1f49	0.019424098
180	0xbdc2d24d	-0.09512768
181	0xbd5e07c8	-0.05420664
182	0x3e1af16a	0.15131155
183	0x3bb98ed7	0.00566278
184	0xbd7a54e6	-0.06111612
185	0x3bd8ea50	0.006619729
186	0x3ca93fc3	0.020660287
187	0x3e05a480	0.13051033
188	0xbe369b06	-0.17832574
189	0x3d2f6caa	0.04282824
190	0x3e1a0bfd	0.15043636
191	0xbca95cfa	-0.020674217
192	0xbdc45b5d	-0.09587739
193	0x3e1da741	0.15395834
194	0xbcea1d54	-0.028578438
195	0x3ad909d3	0.0016558714
196	0x3dfbc389	0.12293155
197	0x3d6dad7f	0.058026787
198	0x3e3c1cce	0.18370363
199	0xbc12f9ef	-0.008970722
200	0x3d8dd1ab	0.069247566
201	0xbe145cf6	-0.14488587
202	0x3d55dbb7	0.05221149
203	0x3e16b114	0.14715987
204	0x3d3a7c3b	0.04552863
205	0x3e1964fb	0.14979927
206	0x3df3d65f	0.119061224
207	0x3cbce279	0.02305721
208	0xbe068545	-0.13136776
209	0x3de754a9	0.112954445
210	0xbcc10cf1	-0.023565741
211	0x3de2e7d0	0.11079371
212	0x3d1f332d	0.038867164
213	0x3e1e65f0	0.15468574
214	0xbd75c594	-0.06000288
215	0xbdce5b8c	-0.10076055
216	0xbc534902	-0.012895824
217	0x3d4b1662	0.049581893
218	0xbe095ddc	-0.13414711
219	0xbd174f14	-0.03694065
220	0x3df763f4	0.120796114
221	0xbe4015df	-0.18758343
222	0x3d1640fc	0.036683068
223	0xbc22f83b	-0.009946878
224	0x3e2b51d5	0.16730435
225	0x3d8a8a8f	0.06764709
226	0xbd3da35c	-0.04629837
227	0x3bc5130b	0.006014233
228	0x3dfde421	0.12397028
229	0xbcdc9ef2	-0.02693126
230	0x3da3cef6	0.07998459
231	0xbe424818	-0.18972814
232	0x3e12507e	0.14288518
233	0xbe51ca46	-0.20487317
234	0x3cfa6266	0.030564498
235	0x3db94707	0.090467505
236	0xbdbee821	-0.09321619
237	0x3dd90c9c	0.10598108
238	0xbd4eac4c	-0.050457284
239	0xbc49a791	-0.012308017
240	0xbe7c5eb0	-0.24645495
241	0xbe02fcbe	-0.12791726
242	0xbe7f44ae	-0.24928543
243	0xbe3b3fed	-0.18286105
244	0xbdb85cba	-0.09002061
245	0x3e077479	0.13228025
246	0xbe0bcdf4	-0.13652784
247	0x3d870b97	0.065940075
248	0xbe314359	-0.17310847
249	0x3cae4ac7	0.021275891
250	0x3c269597	0.010167501
251	0xbd8b204a	-0.06793268
252	0x3dbe65a0	0.09296727
253	0xbd88278e	-0.066481695
254	0x3d3a0e0a	0.045423545
255	0x3e2ea063	0.1705337

model.spatialSeq1.0.update_mlp.2.bias f4 [32]
0	0xbda70b60	-0.081564665
1	0x3c8532c5	0.01625956
2	0xbd83fa66	-0.06444244
3	0xbdb05c26	-0.08611326
4	0xbe324201	-0.17407991
5	0xbd31bb21	-0.04339135
6	0xbe301afe	-0.17197797
7	0x3e103fdb	0.14086859
8	0x3d208aa1	0.039194707
9	0x3e4cc376	0.19996437
10	0xbd9a0122	-0.07519747
11	0xbca73606	-0.020411503
12	0x3de9a600	0.11408615
13	0x3d02d093	0.031937193
14	0x3e0acb34	0.13554078
15	0xbddebd64	-0.10875967
16	0xbd6bfbe4	-0.05761327
17	0x3e60144e	0.21882746
18	0xbde60d01	-0.11232949
19	0x3c9e45ce	0.019320395
20	0x3e1796e3	0.14803652
21	0xbdacae1e	-0.08431648
22	0x3e2b00bf	0.16699503
23	0x3dbcdd3c	0.092218846
24	0xbd7a8583	-0.061162483
25	0x3e041cc7	0.12901603
26	0xbdd00542	-0.10157253
27	0x3e03449b	0.1281914
28	0xbd35c166	-0.044373892
29	0x3ca62e6d	0.02028581
30	0x3e0a8fee	0.13531467
31	0x3e2b315c	0.16718048

model.temporalSeq.0.attention.in_proj_weight f4 [96, 32]
0	0xbe8ebd65	-0.27878872
1	0xbe1d1088	-0.15338337
2	0xbcfaee1f	-0.030631123
3	0xbce2b8c5	-0.027675996
4	0x3dfe49b9	0.12416405
5	0x3e8fd9c7	0.28095838
6	0xbe2337b9	-0.15939225
7	0xbdb97f87	-0.09057527
8	0x3d836e98	0.064175785
9	0xbe972100	-0.29517365
10	0x3e21d61e	0.15804335
11	0xbdbd892f	-0.09254681
12	0xbe69c6bb	-0.22829716
13	0x3c34d2b9	0.011036568
14	0xbe209473	-0.15681629
15	0xbee3114f	-0.44349143
16	0xbdbbdf7a	-0.09173484
17	0xbdaf6a13	-0.08565154
18	0xbe931301	-0.28725436
19	0xbae8e702	-0.0017769041
20	0xbda34cb0	-0.07973611
21	0xbde02e57	-0.109463386
22	0x3e483a63	0.19553523
23	0x3e843009	0.25817898
24	0x3e95d1f1	0.29261735
25	0x3e54d611	0.20784785
26	0xbda417bc	-0.080123395
27	0x3e627921	0.2211652
28	0xbe0ec7f4	-0.13943464
29	0xbe1918a0	-0.149508
30	0x3d233872	0.039848752
31	0xbb9719a2	-0.00461121
32	0x3d348405	0.044071216
33	0xbbf1ab09	-0.0073751253
34	0x3e20e4aa	0.15712228
35	0xbccba543	-0.024859076
36	0xbd51f321	-0.051257256
37	0xbe858d27	-0.26084253
38	0x3dcbd66a	0.099530056
39	0xbebec572	-0.37260014
40	0xbea22c1c	-0.31674278
41	0xbf18d6c2	-0.59702694
42	0xbbe22912	-0.0069018686
43	0xbd299101	-0.041398052
44	0xbe88840a	-0.26663238
45	0x3e0f67c6	0.1400443
46	0x3d165c04	0.036708847
47	0xbf1c71f5	-0.61111385
48	0x3e35f471	0.17769028
49	0xbe706132	-0.23474577
50	0xbeaa54d8	-0.33267856
51	0xbe28f897	-0.1650108
52	0xbe96df2d	-0.29467145
53	0xbe2f17be	-0.170989
54	0xbc9171e9	-0.017754512
55	0xbdc5573d	-0.0963578
56	0xbe2d78e4	-0.16940647
57	0xbe0eb96b	-0.13937919
58	0xbe153d77	-0.14574228
59	0xbe33d931	-0.1756332
60	0xbef79584	-0.4835626
61	0xbeeb7f1a	-0.45995408
62	0xbec02a33	-0.37532195
63	0x3e54359a	0.20723572
64	0x3c931d19	0.01795821
65	0x3d1cb3c4	0.038257375
66	0x3e8a87d1	0.27056745
67	0xbc0d39d6	-0.008619746
68	0x3e07e3f8	0.13270557
69	0x3e8187b8	0.25298858
70	0x3dcf538f	0.101233594
71	0x3def3ed7	0.116819076
72	0xbd386d49	-0.045026097
73	0x3de98abf	0.11403417
74	0x3e031acf	0.12803195
75	0x3e43e503	0.1913033
76	0x3d785864	0.06063117
77	0x3c822fbc	0.015891902
78	0xbdbe6415	-0.09296433
79	0xbea61593	-0.32438335
80	0x3d60dfa0	0.054900765
81	0x3d617c6f	0.05505031
82	0x3c6d2b4e	0.014475657
83	0xbe256247	-0.16150771
84	0x3e032f28	0.12810957
85	0xbe450587	-0.1924039
86	0xbe03b4f0	-0.12861991
87	0xbd5542ea	-0.052065767
88	0x3e03d28b	0.12873285
89	0xbe4087c9	-0.18801798
90	0xbe284ba8	-0.1643511
91	0x3e8b9116	0.2725913
92	0x3aa89a6d	0.0012863405
93	0x3d82a371	0.0637883
94	0x3ec5cbe2	0.38632113
95	0x3e70d100	0.23517227
96	0x3b11f5e5	0.0022271809
97	0xbdb79bbb	-0.0896525
98	0xbd61588d	-0.05501609
99	0x3c845418	0.01615338
100	0x3ad63a99	0.0016344368
101	0xbeac44a1	-0.3364611
102	0xbe50a2f0	-0.20374656
103	0xbd4505b5	-0.048101146
104	0xbe917ce6	-0.28415602
105	0xbee631b0	-0.44959784
106	0x3bbbaf54	0.005727688
107	0xbde9b6ca	-0.11411817
108	0xbe85e562	-0.26151568
109	0xbd7b67fd	-0.061378468
110	0xbe238c42	-0.15971473
111	0xbf16ed36	-0.58955705
112	0x3d584592	0.052800722
113	0xbe1fd8b0	-0.15610003
114	0xbeb5a233	-0.3547531
115	0x3e06b6ea	0.13155714
116	0xbebc1b05	-0.36739364
117	0xbdd48804	-0.103775054
118	0xbdb2b64d	-0.08726177
119	0x3d7f3c38	0.06231329
120	0x3e705044	0.23468119
121	0x3e060483	0.13087659
122	0x3d9209f7	0.07130807
123	0x3e082174	0.13294011
124	0xbea615e1	-0.32438567
125	0xbf004e85	-0.5011981
126	0x3d3c2b2e	0.045939617
127	0xbb982e61	-0.0046442007
128	0x3da88b42	0.08229686
129	0x3df28070	0.11840904
130	0x3e1373b4	0.14399606
131	0x3e8e3cf8	0.2778089
132	0x3b0c17e5	0.0021376547
133	0x3e93d15f	0.28870675
134	0xbe0bd82b	-0.1365668
135	0x3e4951e8	0.19660151
136	0x3ce02cb1	0.02736506
137	0x3e4fcf9a	0.20294037
138	0xbcbd3557	-0.023096723
139	0xbdaebe67	-0.0853241
140	0x3ec6aa6c	0.38801897
141	0x3e4520f6	0.19250855
142	0x3dae63bc	0.085151166
143	0x3e9180fe	0.28418726
144	0x3e84068e	0.2578625
145	0x3e20f479	0.15718259
146	0x3dccad41	0.09993983
147	0xbe17566b	-0.1477906
148	0x3e1238be	0.14279458
149	0x390ddf05	0.00013529889
150	0xbe0c9a55	-0.13730748
151	0xbded665c	-0.11591789
152	0xbce7418f	-0.028229503
153	0x3c0a4358	0.008438908
154	0x3e0fd1cc	0.14044875
155	0x3e71437d	0.23560901
156	0x3e98f966	0.29877776
157	0xbb5fabe7	-0.0034129561
158	0x3e945883	0.2897378
159	0x3d886ba1	0.066611536
160	0xbdcf35c6	-0.10117678
161	0x3da44827	0.080215745
162	0xbd52f651	-0.051504437
163	0x3e1ec6a8	0.15505469
164	0xbe9785f8	-0.29594398
165	0xbec769fe	-0.38948053
166	0x3e13ab91	0.14420916
167	0xbea3d747	-0.3200018
168	0xbe2dc671	-0.1697023
169	0xbd8ad6e0	-0.067792654
170	0x3dc6926d	0.09695897
171	0x3c860792	0.016361032
172	0xbd5bed49	-0.05369309
173	0x3e2949f7	0.16532122
174	0xbd49a150	-0.049226105
175	0x3e447cf5	0.19188292
176	0xbbe2df48	-0.00692359
177	0xbe4a9872	-0.19784716
178	0x3df069bb	0.117389165
179	0x3c6e51df	0.014545887
180	0xbdeae487	-0.114693694
181	0x3e1153ad	0.14192076
182	0x3e02cf39	0.12774362
183	0x3da208a9	0.07911808
184	0xbd165b99	-0.036708448
185	0x3e21c46c	0.15797585
186	0xbe3c9cda	-0.18419209
187	0xbf04b6f7	-0.5184168
188	0xbe927742	-0.28606611
189	0xbe15390f	-0.14572547
190	0xbe867cb4	-0.26267016
191	0xbe8970ce	-0.26843876
192	0xbe2bda18	-0.16782415
193	0xbdb1700c	-0.08663949
194	0xbd8e22ce	-0.06940232
195	0xbde2bbcd	-0.110709764
196	0xbe451585	-0.1924649
197	0xbe83e141	-0.25757793
198	0x3d4abb4d	0.04949503
199	0xbe21e1f0	-0.15808845
200	0xbe96f5f1	-0.29484513
201	0xbea736ee	-0.32659096
202	0x3de10c5d	0.10988686
203	0x3d3159fb	0.043298703
204	0xbecc54e5	-0.3990852
205	0x3c2f0e56	0.01068457
206	0xbe64a575	-0.22328742
207	0xbf19d722	-0.6009389
208	0x3c9fbb8f	0.019498615
209	0xbda5f37f	-0.08103084
210	0xbf264938	-0.6495547
211	0x3e0e0302	0.13868335
212	0x3c653c92	0.013991492
213	0xbbf51049	-0.007478748
214	0x3c3fe27f	0.011711716
215	0xbae55787	-0.0017497399
216	0xbdd6ee4d	-0.10494671
217	0xbd21463c	-0.03937362
218	0x3d8bb32b	0.06821283
219	0xbdf06f55	-0.11739985
220	0xbe64bcee	-0.22337696
221	0xbec8eae9	-0.39241722
222	0x3ddd5e1c	0.108089656
223	0xbd83f301	-0.06442834
224	0x3db85a21	0.09001566
225	0xbd0c2a7e	-0.03422021
226	0xbe28b167	-0.16473924
227	0x3e046f8b	0.12933175
228	0x3da35f0c	0.07977113
229	0x3d0f3e29	0.03497139
230	0x3e0db22a	0.13837495
231	0xbd38a4f7	-0.045079198
232	0xbdd1f94c	-0.10252628
233	0xbe19fbc2	-0.15037444
234	0x3d86b725	0.06577901
235	0x3e3e46ff	0.1858177
236	0xbe8a42aa	-0.27003986
237	0xbdbf6424	-0.09345272
238	0xbe32136a	-0.17390218
239	0xbe789e21	-0.24279071
240	0xbb9d3400	-0.0047974586
241	0xbdc7911b	-0.097444735
242	0xbe8d827d	-0.27638617
243	0x3e422ddb	0.18962805
244	0x3dad08ea	0.08448966
245	0x3e48a917	0.19595753
246	0x3dcff2b5	0.101537146
247	0x3ecaf0de	0.39636892
248	0xbdadee1e	-0.08492683
249	0x3e7482a3	0.23877959
250	0x3dc5b820	0.0965426
251	0x3e39daed	0.1814992
252	0xbe1685f3	-0.14699535
253	0xbe5dc5c4	-0.21657473
254	0x3e147d69	0.14500965
255	0x3df4ff10	0.11962712

model.temporalSeq.0.attention.in_proj_bias f4 [96]
0	0x3e6d0ecf	0.2315018
1	0xbcd8bb3c	-0.026456468
2	0x3e5f7c07	0.21824656
3	0x3d32c1e3	0.043641936
4	0x3d7cba10	0.06170088
5	0xbe2b6a9f	-0.16739891
6	0x3c3bae69	0.011455157
7	0x3df1ddbf	0.11809873
8	0xbdfab5b9	-0.12241692
9	0xbb4e733b	-0.0031501788
10	0xbcaec993	-0.021336352
11	0xbce15494	-0.02750615
12	0xbdcf0d44	-0.10109952
13	0x3dac92a9	0.08426411
14	0xbe85ebab	-0.26156363
15	0xbec27a17	-0.37983772
16	0xbb0ac679	-0.0021175428
17	0xbe2af787	-0.16695987
18	0x3c9aa28a	0.018876333
19	0xbe61a0f3	-0.22034054
20	0x3e1200f1	0.14258172
21	0x3e11f11a	0.14252129
22	0x3db2a5ca	0.08723028
23	0x3e0f0538	0.13966835
24	0x3db330fa	0.08749576
25	0x3dbccb7b	0.09218498
26	0x3dc023d0	0.09381831
27	0x3c7b5c02	0.015341761
28	0xbd67ee0f	-0.056623515
29	0x3d882c42	0.066490665
30	0x3de33033	0.11093178
31	0xbd1682f5	-0.036745984
32	0xbba3fcc7	-0.0050044986
33	0xbc5780a9	-0.013153234
34	0x3b84b5df	0.004050001
35	0xbc2ab998	-0.010420226
36	0xbb0a166b	-0.002107049
37	0x3ba29593	0.0049616783
38	0x3b9f1e43	0.0048559024
39	0x3bd12aae	0.0063832616
40	0xbbe70285	-0.007049861
41	0xbbbc1140	-0.005739361
42	0xbacd7ec5	-0.0015678039
43	0xbb3170b9	-0.0027075245
44	0xbb85b8bf	-0.0040808613
45	0xbbccf894	-0.0062552188
46	0x3af11253	0.0018392302
47	0xbbacfd68	-0.005279232
48	0xbb35b159	-0.0027724116
49	0xbc938b24	-0.018010683
50	0x3b6967ef	0.0035614928
51	0xbcb7979e	-0.022411164
52	0xbb0f6b81	-0.0021884146
53	0xbb99f998	-0.0046989433
54	0xba474fca	-0.0007603137
55	0x3aa2dc74	0.0012425319
56	0xbb577aff	-0.0032879708
57	0xbacb6bc0	-0.0015519783
58	0x3af82f33	0.0018934965
59	0xbba16034	-0.0049247984
60	0x3cd5f936	0.02611981
61	0xbc9d16dd	-0.019175941
62	0x3cb46f47	0.022025717
63	0xbd59d2a7	-0.05317941
64	0x3d17b445	0.037037153
65	0x3cb39297	0.021920485
66	0xbd91b7e0	-0.071151495
67	0x3d179276	0.03700491
68	0x3ba3cac1	0.0049985354
69	0xbcad5c8b	-0.021162292
70	0xbb4808fa	-0.0030522929
71	0xbc92573a	-0.017863858
72	0xbd6245e8	-0.05524245
73	0xbd400e30	-0.04688853
74	0x3bc94554	0.0061422978
75	0xbb2c5e86	-0.0026301458
76	0xbcc621f3	-0.02418611
77	0x3c2513fb	0.0100755645
78	0x3d528625	0.05139746
79	0xbd1a9c4b	-0.03774671
80	0x3db20a25	0.08693341
81	0x3d9d3133	0.076754
82	0x3d1839a6	0.037164353
83	0xbc605ac5	-0.013693516
84	0x3b5c639c	0.0033628708
85	0xbc3d209d	-0.01154342
86	0x3c32ffc2	0.010925235
87	0x3bb14de1	0.005410895
88	0xbce81b02	-0.02833319
89	0xbd5af8af	-0.05345982
90	0x3c3acdf4	0.011401642
91	0x3cf137a5	0.029445479
92	0xbc80fa02	-0.015744213
93	0x3d16f3f5	0.03685375
94	0xbc32a86a	-0.010904411
95	0xbca974af	-0.020685522

model.temporalSeq.0.attention.out_proj.weight f4 [32, 32]
0	0x3e359958	0.17734277
1	0xbd8c7aac	-0.06859335
2	0x3d91c77c	0.07118127
3	0x3e4f5a92	0.20249394
4	0xbe20f4c8	-0.15718377
5	0xbe7a1235	-0.24421008
6	0x3cbb7ae5	0.02288575
7	0xbdf3c072	-0.119019404
8	0xbe16fd3c	-0.14745039
9	0xbdbfa80c	-0.09358224
10	0x3e39db09	0.18149962
11	0x3e01ca4d	0.12674828
12	0xbdec048d	-0.115243055
13	0xbcd81dff	-0.02638149
14	0x3e4e888e	0.20169279
15	0xbde5d9ff	-0.1122322
16	0xbcb05fe4	-0.0215301
17	0x3e093e51	0.13402678
18	0xbd62a23c	-0.0553305
19	0x3d4fb6f3	0.050711583
20	0x3e0d27d7	0.13784729
21	0xbd584852	-0.052803345
22	0xbd78aa95	-0.060709555
23	0x3e0f475b	0.13992064
24	0xbdfbb8cf	-0.12291109
25	0xbd80c91f	-0.06288361
26	0x3e74809a	0.23877183
27	0x3e00ff40	0.1259737
28	0xbe2a885d	-0.16653581
29	0xbdc71592	-0.09720911
30	0xbe095635	-0.13411792
31	0xbc53d39b	-0.012928869
32	0xbdea5010	-0.11441052
33	0xbeb90cbc	-0.36142528
34	0x3dedbc97	0.11608236
35	0xbc82727a	-0.015923727
36	0xbdab5f4b	-0.08367785
37	0x3de79300	0.11307335
38	0xbd0ac1f8	-0.03387639
39	0x3da8aac6	0.082356974
40	0x3b5f3c5e	0.0034063081
41	0x3cc54687	0.024081482
42	0x3dee6b3d	0.11641548
43	0x3d0a2703	0.03372861
44	0xbe3917bf	-0.18075465
45	0xbe745e25	-0.23864038
46	0x3d185f89	0.037200484
47	0xbcf24557	-0.02957408
48	0xbe3e146f	-0.18562482
49	0xbd0b0096	-0.033936106
50	0x3d9a1ed3	0.075254105
51	0xbd5ceda7	-0.05393758
52	0xbe33104a	-0.17486683
53	0xbe50c957	-0.20389305
54	0x3c8b310f	0.016991166
55	0xbde7660e	-0.11298762
56	0x3cf785fa	0.030215252
57	0xbdc7ebac	-0.09761748
58	0xbc97fae4	-0.018552251
59	0x3da93939	0.082628675
60	0x3dd28239	0.10278744
61	0xbe0fc16e	-0.14038631
62	0x3e31f476	0.1737841
63	0x3dd0491f	0.10170197
64	0x3bacd32b	0.0052741966
65	0x3df66dfa	0.12032695
66	0xbe3508a5	-0.17679079
67	0x3d93994f	0.07206976
68	0xbc88bc5c	-0.01669138
69	0xbd843ef7	-0.06457322
70	0xbc69ee7e	-0.014278052
71	0x3dfda704	0.12385371
72	0xbc8d5c52	-0.017255936
73	0xbe292589	-0.16518225
74	0xbb24e7a0	-0.0025162473
75	0x3cf4150c	0.029795192
76	0x3de52502	0.11188699
77	0x3db7bff2	0.089721575
78	0x3c0c4101	0.00856042
79	0xbdc8ae0b	-0.09798821
80	0xbc05752c	-0.008145612
81	0x3cf66d69	0.030081468
82	0xbd745c52	-0.059658356
83	0xbe0641db	-0.1311106
84	0xbe083011	-0.13299586
85	0x3c7722ad	0.015083951
86	0xbdf6015b	-0.12011977
87	0xbca85437	-0.02054797
88	0xbcd77114	-0.026299037
89	0x3c720d54	0.0147736855
90	0x3dc09b8a	0.09404667
91	0xbe6f06cd	-0.23342438
92	0x3da15c3b	0.0787892
93	0x3e134de8	0.14385188
94	0x3c889847	0.016674174
95	0x3dad6fae	0.08468567
96	0x3a78e23d	0.00094941613
97	0xbda4f14b	-0.080538355
98	0xbdd960a1	-0.106141336
99	0x3e8eef80	0.279171
100	0x3e0c476b	0.13699119
101	0xbbdcc68e	-0.0067375368
102	0xbdbbe5ec	-0.091747135
103	0x3cd90805	0.026493082
104	0xbc6464c3	-0.013940039
105	0xbd85d3a8	-0.06534511
106	0xbdc9a548	-0.09845978
107	0x3e04e42a	0.12977663
108	0x3cb0f108	0.021599308
109	0xbd9acfd9	-0.07559175
110	0x3e6e7132	0.23285368
111	0x3e0bc41f	0.13649033
112	0xbd0042fc	-0.03131388
113	0xbddd62e1	-0.10809875
114	0x3e15cd8f	0.14629196
115	0x3e05cdf7	0.1306685
116	0xbe0b9f05	-0.1363488
117	0x3da9f9d7	0.08299606
118	0x3e144bd8	0.14482057
119	0x3d420892	0.047371455
120	0x3d9aca63	0.075581335
121	0xbded1644	-0.115765125
122	0xbcf0a0cc	-0.029373549
123	0x3e31c26c	0.17359322
124	0x3d3d9d1b	0.046292406
125	0x3d19239c	0.037387475
126	0xbe0ebad8	-0.13938463
127	0xbd990581	-0.07471753
128	0xbade313d	-0.001695193
129	0xbe208653	-0.1567624
130	0xbdc95447	-0.09830528
131	0xbe143e08	-0.14476788
132	0xbcddd90c	-0.027081035
133	0x3e22ef6f	0.15911649
134	0xbd4d9efa	-0.05020044
135	0x3dd62c10	0.10457623
136	0xbcd16642	-0.025561456
137	0xbd373f02	-0.044737823
138	0x3d873e34	0.06603661
139	0xbd7d10f0	-0.06178373
140	0x3dfe5974	0.124194056
141	0x3e5cb067	0.21551667
142	0xbe643cc9	-0.22288813
143	0x3dcb20d0	0.09918368
144	0xbe2eee65	-0.17083128
145	0xbe0aa210	-0.13538384
146	0xbe476a30	-0.19474101
147	0xbdb2d6cd	-0.08732376
148	0x3ddd5fd1	0.10809291
149	0x3d52a342	0.051425226
150	0x3df57229	0.11984665
151	0x3e0d4101	0.13794328
152	0x3df2b497	0.11850851
153	0x3b95c6e0	0.004570827
154	0x3de4da4e	0.11174451
155	0x3c14882b	0.009065668
156	0xba2c5ccc	-0.0006575107
157	0x3d642065	0.055694956
158	0xbd836092	-0.06414904
159	0x3e248bfc	0.16069025
160	0x3dd33d43	0.10314419
161	0xbbfbf519	-0.00768913
162	0x3e637954	0.22214252
163	0x3cc2f1f0	0.023797005
164	0x3e0f3cf6	0.13988099
165	0x3d3d793e	0.046258204
166	0xbdd92491	-0.106026776
167	0xbb47dce8	-0.003049666
168	0xbcafca65	-0.021458814
169	0xbd4bca68	-0.049753577
170	0xbe0f07b6	-0.13967785
171	0xbe1d3609	-0.15352644
172	0xbc6a1538	-0.0142872855
173	0x3e081b0c	0.13291568
174	0x3d9f0d54	0.07766214
175	0x3d0662b5	0.032808978
176	0xbdbadedc	-0.09124538
177	0x3d408572	0.047002263
178	0xbe7977fe	-0.2436218
179	0xbd991c34	-0.074760824
180	0xbe36fe23	-0.17870383
181	0x3c805189	0.015663879
182	0xbe4b5783	-0.19857602
183	0xbe24386b	-0.16037147
184	0x3c38e76d	0.011285645
185	0x3c21de1d	0.009879616
186	0x3de6a251	0.11261428
187	0xbe2985c5	-0.16554935
188	0xbd1172c0	-0.035509825
189	0xbe49a209	-0.19690718
190	0xbd757c6d	-0.059933115
191	0x3d41ce4a	0.047315873
192	0xbcd9cedf	-0.026587902
193	0x3d83521a	0.06412144
194	0xbd9a0d44	-0.075220615
195	0xbe19e569	-0.1502892
196	0x3e045753	0.12923937
197	0x3d6b742b	0.057483833
198	0x3e4eb4e9	0.20186199
199	0x3dd09e69	0.10186464
200	0x3df53c5b	0.119744025
201	0x3e29a8df	0.16568325
202	0xbdcd0b3e	-0.1001191
203	0xbda87d03	-0.08226969
204	0xbdb87ec6	-0.09008555
205	0x3c670227	0.014099634
206	0xbe187620	-0.14888811
207	0x3d75ec81	0.06004
208	0xbdc6ec40	-0.0971303
209	0xbdc8d03e	-0.09805344
210	0x3dfeb4e8	0.12436849
211	0xbd5375cd	-0.051626015
212	0xbe3b5997	-0.18295895
213	0x3d9060c0	0.070497036
214	0x3dc4e832	0.096146
215	0xba5bdeda	-0.00083873945
216	0x3da95294	0.08267704
217	0x3e03d1b0	0.12872958
218	0xbd0f08ca	-0.03492049
219	0x3c952de3	0.018210357
220	0xbcf5b5e1	-0.029993953
221	0xbe111fae	-0.14172241
222	0x3d37db20	0.04488671
223	0xbda3d7ba	-0.08000131
224	0xbe2e881d	-0.1704411
225	0x3de5cfd5	0.112212814
226	0x3ddb7ede	0.10717557
227	0xbe1d7945	-0.15378292
228	0xbc89faa8	-0.016843155
229	0xbde508d4	-0.111833245
230	0xbd853820	-0.065048456
231	0xbc4619f1	-0.012091146
232	0x3d3f6017	0.046722498
233	0xbd2c3ab2	-0.042048164
234	0xbca13649	-0.019679205
235	0x3dfd9c7c	0.12383363
236	0x3df50578	0.11963934
237	0x3c929b7a	0.017896403
238	0xbdbde925	-0.092729844
239	0x3e075b80	0.13218498
240	0x3d2d5d42	0.042325266
241	0x3e0bae73	0.13640766
242	0x3d619a91	0.055079047
243	0x3e94e9dd	0.29084674
244	0x3d0cca51	0.03437263
245	0xbd80aade	-0.0628259
246	0xba93b269	-0.001126838
247	0x3c614278	0.013748758
248	0x3d41a1c4	0.047273412
249	0xbdfc4bdd	-0.12319157
250	0x3ce6f8c3	0.02819479
251	0xbe922b3d	-0.28548613
252	0xbe188438	-0.14894187
253	0xbe2a0220	-0.16602373
254	0xbd0df44f	-0.03465682
255	0xbc0610ad	-0.008182687

model.temporalSeq.0.attention.out_proj.bias f4 [32]
0	0x3d02d14f	0.031937893
1	0xbd950633	-0.07276573
2	0x3ce63e26	0.028105807
3	0x3c1c8a7e	0.0095545035
4	0xbb04c494	-0.0020258771
5	0xbc156f96	-0.009120842
6	0xbcd389b0	-0.02582249
7	0xbd3d2e21	-0.04618657
8	0x3cb6b34a	0.022302289
9	0xbcdfc384	-0.027314909
10	0xbc4fc79d	-0.012681869
11	0xbc32885f	-0.010896771
12	0xbc952690	-0.018206865
13	0x3ce36fb8	0.027763233
14	0x3ca58a20	0.020207465
15	0x3d49b5fb	0.049245816
16	0x3bfe0dff	0.0077531333
17	0xbb960c84	-0.0045791287
18	0xbc441791	-0.011968509
19	0x3ceddb7d	0.029035324
20	0x3ccfba41	0.025357367
21	0xbc8bafbb	-0.017051568
22	0x3c083532	0.008313464
23	0x3cba4e5f	0.022742448
24	0x3d1ec899	0.038765524
25	0x3cce38b8	0.02517353
26	0x3b5dc215	0.0033837606
27	0xbbb1f248	-0.0054304935
28	0x3aa03461	0.0012222641
29	0xbc91fdf3	-0.017821288
30	0x3d0b5e53	0.0340255
31	0xbbba42ff	-0.005684256
