code/logs/epoch=92-step=9300.ckpt (torch, 194195 bytes, 45 tensors)

model.input_encoder.weight f4 [32, 1]
0	0x3f02e0e3	0.511244
1	0xbf6ebffe	-0.93261707
2	0xbd92a567	-0.07160454
3	0xbe902701	-0.28154758
4	0x3f3df059	0.74194866
5	0x3e524d41	0.20537283
6	0xbd306f96	-0.043075167
7	0xbf593ea2	-0.84861195
8	0xbee1c61b	-0.44096455
9	0xbe534226	-0.20630702
10	0x3b50635a	0.00317975
11	0xbee7debc	-0.4528712
12	0xbf0370b4	-0.51343846
13	0x3e79541f	0.24348496
14	0x3e694352	0.22779587
15	0xbf4d102c	-0.801028
16	0xbed16094	-0.40893996
17	0xbe257af2	-0.16160181
18	0xbf4bfeb3	-0.79685515
19	0x3e2f0ed6	0.17095503
20	0x3d5a027f	0.053225037
21	0x3e687dfe	0.22704312
22	0xbe2db8b2	-0.16964987
23	0xbcc1de3a	-0.023665536
24	0xbee83f6b	-0.45360884
25	0x3dc97ab2	0.098378554
26	0xbe8d4d38	-0.27597976
27	0x3e555493	0.20833044
28	0x3f04b6fe	0.51841724
29	0xbf154cc1	-0.5832024
30	0xbdd311ab	-0.10306104
31	0x3f597f84	0.849602

model.input_encoder.bias f4 [32]
0	0xbd1c5682	-0.038168438
1	0xbd11a08c	-0.0355535
2	0x3eeabf8c	0.45849264
3	0x3e85ef7e	0.2615928
4	0xbf290e8a	-0.6603781
5	0xbede462f	-0.4341292
6	0xbe2dcae3	-0.16971926
7	0xbf2634b8	-0.6492419
8	0x3f3a6bab	0.7282054
9	0x3f383981	0.71962744
10	0xbf4d9cef	-0.80317587
11	0x3f7d31b1	0.9890395
12	0xbeb111aa	-0.3458379
13	0xbec2abff	-0.38021848
14	0xbea8d6bd	-0.32976332
15	0xbf2282fe	-0.6348113
16	0xbdc6f04d	-0.097138025
17	0xbe8c9b22	-0.27462107
18	0xbd7459ed	-0.059656072
19	0xbf2e7435	-0.6814607
20	0xbeb4e9ec	-0.35334718
21	0x3dd05c32	0.10173835
22	0x3f393a60	0.723547
23	0x3f1e93a0	0.6194401
24	0xbe29a7d0	-0.16567922
25	0x3ee6b050	0.4505639
26	0xbeb7c50d	-0.35892525
27	0xbf52cc30	-0.82342815
28	0x3e83bb5b	0.25728878
29	0xbed378d8	-0.41303134
30	0x3ed07565	0.40714565
31	0xbf24dae3	-0.64396495

model.encoder.rnn.weight_ih_l0 f4 [128, 32]
0	0xbc26e49a	-0.010186339
1	0xbeaea04a	-0.34106666
2	0x3e101dae	0.14073822
3	0x3d0b1dbd	0.033963908
4	0xbd600aff	-0.054697987
5	0xba23a3e6	-0.00062423793
6	0x3e1654e5	0.14680822
7	0xbe80633b	-0.25075707
8	0xbcc69c91	-0.024244579
9	0xbca363fd	-0.019945139
10	0xbd8054c3	-0.06266167
11	0xbe0d136c	-0.1377694
12	0xbe845737	-0.2584779
13	0x3daadce7	0.08342915
14	0x3e3d2aa0	0.18473291
15	0xba4c2f65	-0.0007789045
16	0xbe7ba052	-0.24572876
17	0xbe566b28	-0.20939314
18	0xbeae1fb5	-0.34008566
19	0xbbc1eed5	-0.0059183636
20	0xbd37cf54	-0.044875458
21	0x3ec29e9e	0.3801164
22	0xbe04af7f	-0.12957571
23	0x3d8d4a55	0.06898943
24	0xbed18cc2	-0.40927702
25	0xbd312428	-0.043247372
26	0xbdbfa41b	-0.093574725
27	0x3e121fca	0.14269939
28	0x3deaa475	0.11457149
29	0xbe13e6f6	-0.14443573
30	0x3df04039	0.117309995
31	0x3b7daf6e	0.00387093
32	0xbe4ac556	-0.1980184
33	0x3ebfdf57	0.37475082
34	0x3e149c95	0.14512856
35	0x3ec007cb	0.37505946
36	0xbdcf28d3	-0.101152085
37	0xbe1f9978	-0.15585887
38	0xbd011d15	-0.031521875
39	0x3e718bd8	0.23588502
40	0x3cab1b7c	0.020887129
41	0x3dba884c	0.09108028
42	0xbe13848d	-0.14406033
43	0x3e8b94be	0.2726192
44	0x3dcbac6b	0.099449955
45	0xbe85b79d	-0.26116648
46	0xbe0533c8	-0.13008034
47	0xbd98ea33	-0.07466545
48	0x3e3729c9	0.17887034
49	0x3d0c0a74	0.034189656
50	0x3e1351bd	0.1438665
51	0xbd931fb5	-0.07183782
52	0xbd04658b	-0.0323234
53	0xbcec86e5	-0.028872916
54	0x3dc67082	0.09689428
55	0x3e572537	0.2101029
56	0x3dfa8f91	0.12234414
57	0xbd41f1d8	-0.04734978
58	0xbdbba2e7	-0.091619305
59	0xbe8e42e9	-0.27785423
60	0xbe354ab7	-0.17704283
61	0x3cc79004	0.024360664
62	0x3e96bc36	0.2944047
63	0xbe2bae56	-0.16765723
64	0x3da6abbe	0.08138226
65	0xbe0561b8	-0.13025558
66	0xbdfdf2ff	-0.123998635
67	0x3d96b5c7	0.0735889
68	0xbd9acbef	-0.075584285
69	0x3c59dfa1	0.013297946
70	0xbdaa6955	-0.08320872
71	0x3e0314d3	0.12800913
72	0xbe7aac8d	-0.24479885
73	0xbdec0ec2	-0.11526252
74	0xbdf8f778	-0.12156576
75	0x3ca0fbba	0.019651283
76	0xbdc2ba13	-0.09508147
77	0x3e1201da	0.14258519
78	0x3e03e278	0.1287936
79	0xbdec308c	-0.11532697
80	0xbe16e1e1	-0.14734603
81	0xbd81b0fa	-0.06332584
82	0x3c4f1595	0.012639423
83	0x3d3c5224	0.045976773
84	0x3e4b5e50	0.19860196
85	0xbdf7668e	-0.12080108
86	0xbd89a031	-0.06720007
87	0xbca5d6ff	-0.02024412
88	0x3cb0324d	0.02150836
89	0x3d9214ce	0.071328744
90	0xbcc88caf	-0.024481146
91	0xbb3c0ab7	-0.002869291
92	0x3c0af1c2	0.008480491
93	0xbd34726b	-0.04405443
94	0x3d86e002	0.06585695
95	0xbd14008e	-0.03613334
96	0x3e088e34	0.13335496
97	0xbdcbec09	-0.099571295
98	0x3d045cb5	0.032314975
99	0xbc92c223	-0.017914837
100	0x3e5baba8	0.214522
101	0xbdabc722	-0.08387591
102	0x3d1649eb	0.036691587
103	0xbd90e6af	-0.070752494
104	0xbdbd8bee	-0.09255205
105	0x3db8f665	0.09031371
106	0xbd711e49	-0.058866773
107	0xbe2ff440	-0.17183018
108	0xbdef2334	-0.11676636
109	0xbde8e446	-0.11371665
110	0xbd2325a7	-0.03983083
111	0x3e0228ca	0.12710872
112	0xbe675adf	-0.22593258
113	0x3e074769	0.13210835
114	0xbdae032e	-0.084967
115	0x3e33f388	0.17573369
116	0x3d4f1c11	0.050563876
117	0x3e5f716b	0.2182061
118	0xbd3607b8	-0.044440955
119	0x3ddf85c5	0.109141864
120	0x3d4b790d	0.04967599
121	0x3d2ec720	0.04267037
122	0xbc76f57f	-0.015073179
123	0xbe1582b5	-0.14600642
124	0xbdd3926c	-0.10330662
125	0xbe33c243	-0.17554574
126	0xbdf2abb0	-0.11849153
127	0xbd9742a3	-0.07385757
128	0x3e0e6e18	0.13909185
129	0xbe08295a	-0.13297024
130	0xbdd18393	-0.10230174
131	0x3e2d57e1	0.16928054
132	0x3df37b0e	0.11888705
133	0xbe272184	-0.16321379
134	0xbd71c47c	-0.059025273
135	0x3deec666	0.11658935
136	0x3cb9cafe	0.022679802
137	0x3dc8fad0	0.09813464
138	0xbde37e0e	-0.111080274
139	0x3e4154b9	0.18879975
140	0x3dd18d9e	0.102320895
141	0xbdc14f1a	-0.094389156
142	0xbdd8a3ab	-0.10578092
143	0x3c74d09f	0.014942317
144	0xbd15714c	-0.036485
145	0xbe05c528	-0.1306349
146	0x3dca4040	0.09875536
147	0x3e0887de	0.13333079
148	0x3de85798	0.11344832
149	0xbe17e116	-0.14831957
150	0xbd428ac2	-0.04749561
151	0xbd10b56a	-0.03532926
152	0x3e0ae9a6	0.13565692
153	0x3e1b46f6	0.15163788
154	0x3d883df9	0.06652445
155	0xbe3da440	-0.18519688
156	0xbb68cf98	-0.0035524126
157	0x3e0a53a2	0.13508466
158	0x3d04e713	0.032446932
159	0x3dd089d8	0.101825416
160	0xbdce2dcf	-0.10067331
161	0x3d3ca1d8	0.046052784
162	0xbd1900e5	-0.03735437
163	0x3d7d7387	0.061877754
164	0xbc877cbc	-0.01653897
165	0x3dee4add	0.11635373
166	0x3b8c3cb6	0.0042796982
167	0xbdd8f1f2	-0.105930224
168	0x3e0c8ff0	0.13726783
169	0x3e7d8060	0.24756002
170	0xbe73dc51	-0.23814513
171	0x3e466939	0.19376077
172	0xbdb1ee9c	-0.08688089
173	0xbdef6269	-0.11688692
174	0xbd52c6d2	-0.05145914
175	0xbc567468	-0.013089277
176	0x3d98289b	0.0742962
177	0xbe4b460d	-0.19850941
178	0x3e421712	0.18954113
179	0x3cd318eb	0.025768718
180	0x3d311863	0.043236148
181	0xbc4623d3	-0.012093502
182	0x3c9c11b7	0.019051416
183	0x3dab2594	0.08356777
184	0xbdbff556	-0.09372966
185	0x3d91364b	0.07090434
186	0x3caf05c2	0.02136505
187	0xbd7e564b	-0.062094014
188	0xbd147026	-0.036239766
189	0xbe56198a	-0.2090818
190	0xbd83a5a2	-0.06428076
191	0x3d9a6044	0.075378925
192	0x3cb1338b	0.021631023
193	0x3d8fcb0e	0.070211515
194	0x3e7cac30	0.2467506
195	0x3d1187bf	0.03552985
196	0x3d7035e4	0.058645144
197	0x3d9fc93d	0.07802055
198	0xbdaa2bf7	-0.08309167
199	0xbd4fb6d7	-0.05071148
200	0xbdd1dc94	-0.1024715
201	0x3e89ebcd	0.26937714
202	0xbeb13c6c	-0.3461641
203	0x3c3f5c57	0.01167973
204	0x3cf20c57	0.0295469
205	0xbe6718ef	-0.22568105
206	0xbe4ebae6	-0.20188484
207	0xbe87583a	-0.264345
208	0x3d8bfcea	0.06835349
209	0xbbba8e66	-0.0056932447
210	0x3d94858e	0.07252036
211	0xbd2bd5e9	-0.041952047
212	0xbe866283	-0.26247033
213	0x3e87b79d	0.26507273
214	0x3e8a50d2	0.27014786
215	0x3e3599a1	0.17734386
216	0x3d4df4c6	0.050282262
217	0x3e458694	0.19289619
218	0xbe57c66d	-0.21071787
219	0xbe8b3f5b	-0.27196774
220	0x3d9f159f	0.07767796
221	0xbe8570a1	-0.26062492
222	0x3e247b5c	0.16062683
223	0x3de0fa04	0.10985187
224	0x3daf9c25	0.08574704
225	0xbde3deec	-0.11126503
226	0xbe2c8ba3	-0.16850142
227	0xbe15e173	-0.14636783
228	0x3e315e8d	0.17321225
229	0x3db1be0c	0.08678827
230	0x3de79bc2	0.11309005
231	0xbdda91c2	-0.10672332
232	0x3e251c2e	0.16124031
233	0xbda91a5a	-0.08256979
234	0x3e10b345	0.14130886
235	0x3be01b97	0.0068392265
236	0x3db9fffb	0.090820275
237	0xbe271be0	-0.16319227
238	0x3dd1e86e	0.102494106
239	0x3e035ca8	0.12828314
240	0x3db63c87	0.088982634
241	0xbd328a66	-0.04358902
242	0x3d8963d1	0.067084916
243	0xbca518fa	-0.020153511
244	0xbd333ef9	-0.043761227
245	0x3e102fac	0.14080685
246	0x3d10a16d	0.035310198
247	0x3c35cc35	0.01109605
248	0xbdb47b3b	-0.08812567
249	0x3e34a653	0.17641573
250	0x3d93cbd2	0.0721661
251	0x3da5af96	0.08090131
252	0xbb1a2f04	-0.0023526559
253	0x3e007704	0.12545401
254	0x3db36cb8	0.08760971
255	0xbdd37119	-0.10324306

model.encoder.rnn.weight_hh_l0 f4 [128, 32]
0	0x3e43d5e0	0.19124556
1	0x3ed5cffc	0.41760242
2	0xbe7bfe01	-0.24608614
3	0xbd7c85fd	-0.06165122
4	0x3e4f5d4b	0.20250432
5	0xbec17c3f	-0.37790105
6	0x3e5820ad	0.21106215
7	0x3d90a9a9	0.0706361
8	0xbca93791	-0.020656379
9	0x3df62ccd	0.12020264
10	0xbd3f5baa	-0.046718277
11	0x3e50828e	0.20362303
12	0x3dac5045	0.08413748
13	0xbe93e84a	-0.2888816
14	0x3c4110c2	0.0117837805
15	0x3e7aff43	0.24511437
16	0xbe8a8f98	-0.27062678
17	0xbc268b7c	-0.010165092
18	0xbe091093	-0.13385229
19	0x3c3a0d76	0.011355748
20	0x3d07c43e	0.033146136
21	0x3c7616b1	0.0150200585
22	0x3dadb4f7	0.08481782
23	0x3c98827a	0.018616904
24	0xbe454ccc	-0.19267577
25	0xbda8db44	-0.082449466
26	0xbda14235	-0.07873956
27	0x3dced10e	0.10098468
28	0xbd08b6d7	-0.033377495
29	0xbf18726f	-0.5954961
30	0xbdda3958	-0.10655469
31	0x3ea40b81	0.32040027
32	0xbccbbe76	-0.024871092
33	0xbed0d40b	-0.40786776
34	0x3ca0ce41	0.0196296
35	0x3e27c4d5	0.16383679
36	0xbd5d21eb	-0.053987425
37	0x3e9ac3fc	0.3022765
38	0xbcb154c2	-0.021646861
39	0x3dbe7d59	0.09301252
40	0xbd0d1d8c	-0.034452006
41	0xbdab3a84	-0.0836077
42	0xbda74b61	-0.08168674
43	0xbdcffd22	-0.10155703
44	0x3dfe18ee	0.12407099
45	0x3df4e223	0.11957195
46	0xbd69540d	-0.056964923
47	0x3eea6791	0.4578214
48	0x3ee74473	0.4516941
49	0xbd9f87a1	-0.07789541
50	0x3f2a870e	0.6661233
51	0xbf5a5ab4	-0.8529465
52	0xbef8a6f3	-0.48564872
53	0xbd4e352a	-0.05034367
54	0x3daf9625	0.0857356
55	0x3e9b33dc	0.30313003
56	0x3e009d8e	0.12560102
57	0xbe3179fa	-0.17331687
58	0x3d00e201	0.031465534
59	0xbe85a13e	-0.2609958
60	0xbd9cf827	-0.07664519
61	0x3e674c99	0.22587813
62	0xbdf3d8ed	-0.1190661
63	0xbdce8204	-0.10083392
64	0xbef79938	-0.48359084
65	0xbf094dc2	-0.53634274
66	0xbd2bd665	-0.04195251
67	0xbe4dd057	-0.20099007
68	0xbe3ed12e	-0.18634483
69	0x3de8c735	0.11366121
70	0x3e7bae19	0.24578132
71	0x3ea95167	0.33069918
72	0xbe34d73b	-0.17660229
73	0xbe82539a	-0.25454408
74	0x3e8922f2	0.26784474
75	0x3e660b8e	0.22465345
76	0x3b030cd9	0.0019996671
77	0xbbe67c26	-0.0070338426
78	0xbdbda9c1	-0.092608936
79	0x3e0a2647	0.13491164
80	0xbe2d164f	-0.16903041
81	0xbeefae6c	-0.4681276
82	0xbe97efa0	-0.29675007
83	0xbe4670a1	-0.19378902
84	0x3e7c4725	0.24636514
85	0xbbb8bbe8	-0.0056376345
86	0xbe8fe461	-0.28103927
87	0xbe2e7164	-0.17035443
88	0xbedf2a32	-0.4358688
89	0x3def7b9f	0.11693501
90	0xbeca928d	-0.39564934
91	0xbf42b3a6	-0.7605537
92	0x3e8c9992	0.27460915
93	0x3e5a1a43	0.2129908
94	0x3e0c2231	0.13684918
95	0x3c5ad52b	0.013356487
96	0x3e07c24a	0.13257709
97	0xbe3dc35e	-0.18531558
98	0xbe05a5bb	-0.13051502
99	0xbd9953e4	-0.07486704
100	0xbe2a6c2a	-0.16642824
101	0x3e1aa30d	0.15101261
102	0x3dd758bc	0.105149716
103	0x3df37d30	0.11889112
104	0x3c8b958b	0.017039081
105	0xbe09d504	-0.13460165
106	0xbdaf1608	-0.08549124
107	0xbde4256e	-0.11139952
108	0x3c13df07	0.009025342
109	0x3df16487	0.11786752
110	0x3d8d0561	0.068857916
111	0x3cb59b9d	0.022168929
112	0x3db4d72d	0.08830104
113	0x3dd6a54c	0.104807466
114	0xbde797d6	-0.11308257
115	0xbebdd6ab	-0.3707784
116	0xbcb3520b	-0.021889707
117	0xbd392ef1	-0.045210782
118	0xbd8e7ad1	-0.06957019
119	0xbc18a9a2	-0.009317787
120	0xbb8f729f	-0.0043776776
121	0xbe001a0a	-0.12509933
122	0xbe2ee21a	-0.17078438
123	0x3ca1829e	0.019715603
124	0xbcfeac07	-0.031087888
125	0xbb39be58	-0.0028342213
126	0xbccbf87a	-0.024898756
127	0xbdf55a17	-0.11980074
128	0xbc5c3e9f	-0.013442664
129	0xbeb13afc	-0.34615314
130	0x3e9b2e0c	0.30308568
131	0x3d94e7cc	0.07270774
132	0x3e68d815	0.22738679
133	0x3c0b0028	0.008483924
134	0xbdca1020	-0.09866357
135	0xbe2c370d	-0.16817875
136	0xbe6c4eb3	-0.23076896
137	0xbd0a5579	-0.03377292
138	0x3d34cc11	0.044139925
139	0x3dc6921a	0.096958354
140	0x3eb467a6	0.35235327
141	0xbe00626c	-0.12537545
142	0xbd8564a7	-0.065133385
143	0xbeebe3ee	-0.46072334
144	0xbf13a4c2	-0.57673275
145	0xbda909c6	-0.08253817
146	0xbc5eb892	-0.01359381
147	0x3f32cd9f	0.69845
148	0x3ea31206	0.31849688
149	0x3db01c42	0.0859914
150	0xbca5645a	-0.020189453
151	0x3e7b77ac	0.2455737
152	0xbd7b8c73	-0.06141324
153	0xbd8d3653	-0.06895127
154	0x3e99183b	0.299013
155	0xbc4cb711	-0.012494818
156	0xbc0862b7	-0.008324317
157	0xbebd594b	-0.36982188
158	0xbda57162	-0.08078267
159	0x3f1b28b4	0.60608983
160	0xbdbaeb50	-0.091269135
161	0xbdca808a	-0.09887798
162	0x3e31be78	0.17357814
163	0x3ddf0688	0.108899176
164	0x3dff5537	0.12467425
165	0x3dddca55	0.108296074
166	0x3da712f6	0.081579134
167	0xbdfc12ae	-0.1230825
168	0x3d4fff73	0.050780725
169	0x3df62ec3	0.12020638
170	0xbd66e064	-0.05636634
171	0x3e072045	0.13195904
172	0x3ecd3bc0	0.40084648
173	0x3d8adf62	0.06780888
174	0x3e979668	0.29606938
175	0xbd088ce3	-0.033337485
176	0xbe2bca2d	-0.16776343
177	0xbc11825f	-0.008881181
178	0xbe0cc3e5	-0.13746603
179	0xbe1c3258	-0.1525358
180	0x3e5626ec	0.20913285
181	0xbd5cd644	-0.053915277
182	0xbae76a2f	-0.0017655547
183	0xbe687124	-0.2269941
184	0x3e38eac1	0.18058302
185	0x3d34b1a0	0.04411471
186	0xbcd07f00	-0.025451183
187	0x3ef8f5d9	0.48625067
188	0xbe1eade1	-0.15496017
189	0x3e86ad21	0.26303962
190	0xbd98964d	-0.074505426
191	0xbe537fc1	-0.20654203
192	0x3eda057e	0.42582315
193	0x3e8d6e68	0.27623296
194	0xbea394d1	-0.31949475
195	0x3e0ee853	0.13955812
196	0x3e77efdc	0.24212593
197	0xbe9d075b	-0.30669674
198	0xbe166abf	-0.14689158
199	0xbec77306	-0.38954943
200	0x3d937d6b	0.07201656
201	0xb982e6f7	-0.00024967614
202	0xbd0b0e8c	-0.03394942
203	0x3e832f43	0.25621995
204	0x3e567ddb	0.20946448
205	0xbe508e4c	-0.20366782
206	0x3e984b03	0.2974473
207	0x3e48dffb	0.19616692
208	0x3e115c64	0.141954
209	0xbce3298f	-0.027729778
210	0x3e2b5f6d	0.16735621
211	0x3e25e896	0.16202006
212	0x3e4e2806	0.20132455
213	0xbee5d9a7	-0.44892618
214	0x3db4d96b	0.08830532
215	0xbe6e34e3	-0.23262362
216	0x3ed2b743	0.41155443
217	0xbe0e675b	-0.13906614
218	0xbdcb8cb7	-0.099389486
219	0xbdfc304d	-0.123139
220	0xbec41a97	-0.38301536
221	0xbefc664c	-0.49296796
222	0xbe5366c1	-0.20644666
223	0x3e877adc	0.26460922
224	0xbe642131	-0.22278287
225	0x3e1ba579	0.15199842
226	0x3d1f75c0	0.038930655
227	0xbd8ad8c1	-0.06779624
228	0x3de20136	0.11035387
229	0xbe8b3136	-0.27185982
230	0xbdcabcce	-0.09899293
231	0x3c1d27ef	0.00959204
232	0xbcbe22dc	-0.023209982
233	0x3ce8413f	0.028351424
234	0x3b8472d9	0.004042011
235	0xbd5e9b06	-0.05434706
236	0xbe426dd9	-0.18987216
237	0x3dd6002d	0.10449252
238	0xbd8c3b33	-0.06847229
239	0xbe3dd72d	-0.18539114
240	0xbe757ee6	-0.23974189
241	0x3dd46a0f	0.103717916
242	0x3eca50d4	0.39514792
243	0x3ea8b166	0.32947844
244	0xbd87411a	-0.06604214
245	0xbe000339	-0.1250123
246	0x3d23e9de	0.040017955
247	0xbe4ec4f1	-0.20192315
248	0xbd1de5e6	-0.038549326
249	0xbd464355	-0.048404057
250	0xbe162ebc	-0.14666265
251	0x3e020b24	0.12699562
252	0xbc19eb14	-0.009394426
253	0x3d206809	0.039161716
254	0x3da5bb0a	0.080923155
255	0x3ddd8596	0.10816495

model.encoder.rnn.bias_ih_l0 f4 [128]
0	0xbdc30cf7	-0.09523957
1	0x3c724a51	0.014788226
2	0x3d2910fe	0.04127597
3	0x3cb54832	0.022129152
4	0x3ddcbf77	0.107787065
5	0x3e3a7a27	0.1821066
6	0x3ec9fab4	0.39449084
7	0x3e0963d3	0.13416986
8	0xbe07a3b6	-0.13246045
9	0xbd5a2695	-0.05325945
10	0xbcca458b	-0.024691364
11	0x3e4a356f	0.19746946
12	0xbdbb0059	-0.09130926
13	0x3d065eef	0.03280538
14	0xbd977ce5	-0.073968686
15	0xbc8207f0	-0.015872926
16	0x3de234a4	0.11045197
17	0x3e041866	0.12899932
18	0x3cdb2591	0.026751311
19	0x3e926f7a	0.28600675
20	0x3e0ceae0	0.13761473
21	0xbd88932a	-0.06668694
22	0x3c30fc62	0.01080236
23	0x3e23e4d5	0.16005261
24	0x3e59f8d0	0.2128632
25	0xbd674b72	-0.056468435
26	0xbdb27965	-0.087145604
27	0x3da4692c	0.080278724
28	0x3db7569a	0.08952065
29	0x3d71a371	0.05899376
30	0xbdd2adcc	-0.102870554
31	0xbd53a914	-0.051674917
32	0x3d032db8	0.032026023
33	0xbe1de51b	-0.15419428
34	0xbd40ae9d	-0.047041524
35	0x3dbdf8ef	0.09275996
36	0xbd90da25	-0.07072858
37	0x3cb600ce	0.02221718
38	0x3e44ce54	0.19219333
39	0x3e25afe0	0.16180372
40	0xbd624273	-0.055239152
41	0x3d39dcd8	0.04537663
42	0x3dc0d529	0.09415657
43	0xbd9c89d4	-0.07643476
44	0x3e6b50d0	0.22980046
45	0xbe3c5df6	-0.18395218
46	0xbd9da004	-0.07696536
47	0xbd4e21bc	-0.05032514
48	0xbe36e368	-0.17860186
49	0x3e263526	0.16231212
50	0xbe4b544f	-0.1985638
51	0xbe7323ff	-0.237442
52	0xbe227d82	-0.1586819
53	0xbb3190a8	-0.0027094278
54	0xbbfdfbac	-0.007750949
55	0xbdc2b883	-0.09507849
56	0x3d757657	0.05992731
57	0x3c925900	0.017864704
58	0x3e13fae7	0.1445118
59	0xbdec2d81	-0.11532117
60	0xbd262500	-0.04056263
61	0xbe64c529	-0.22340836
62	0xbc954b41	-0.01822436
63	0xbd1c2d83	-0.03812934
64	0xbdfe602f	-0.12420689
65	0x3d3f11f3	0.046647977
66	0xbba5618c	-0.005047029
67	0x3e42cf14	0.19024307
68	0x3e1b5e43	0.15172677
69	0xbe2e660c	-0.17031115
70	0xbe757c8e	-0.23973295
71	0xbde940c7	-0.113893084
72	0x3d530533	0.05151863
73	0xbcce0d26	-0.025152754
74	0xbe5c56bd	-0.21517463
75	0x3e151a58	0.1456083
76	0x3dc33eb0	0.09533441
77	0xbc3a73bd	-0.011380133
78	0x3cbc361f	0.022975026
79	0x3dee6a3c	0.11641356
80	0xbc7c62df	-0.015404432
81	0xbd210efa	-0.039320923
82	0xbd354cc2	-0.044262655
83	0x3d89fc9c	0.067376345
84	0xbd12a3de	-0.035800807
85	0x3c77de5b	0.015128697
86	0x3daac2ef	0.08337962
87	0xbdad4720	-0.08460832
88	0xbd169668	-0.036764532
89	0x3cca133b	0.024667373
90	0x3ea69f86	0.32543582
91	0x3d8ee27a	0.06976791
92	0xbbc54f9b	-0.0060214526
93	0xbe021eec	-0.12707108
94	0xbe737914	-0.23776656
95	0x3d01ee1a	0.031721212
96	0xbcee1633	-0.02906332
97	0xbd78acf5	-0.06071182
98	0x3e7360dd	0.23767419
99	0x3de0f0df	0.109834425
100	0xbd9e55f8	-0.07731241
101	0xbd509728	-0.050925404
102	0x3cdab28d	0.026696468
103	0xbdfee7d4	-0.124465615
104	0x3deca291	0.115544446
105	0x3e5365df	0.2064433
106	0xbd504e7b	-0.050856095
107	0x3e541098	0.20709455
108	0x3c92ba52	0.01791111
109	0x3e1932c0	0.14960766
110	0x3d1fdf58	0.039031357
111	0x3e8a4281	0.27003863
112	0x3de2bc49	0.11071069
113	0xbd45b42a	-0.04826752
114	0x3de35241	0.11099673
115	0x3e304ed6	0.17217574
116	0xbd6e5626	-0.058187626
117	0xbe085977	-0.13315378
118	0x3d491bb6	0.049098693
119	0x3d1e99b9	0.03872082
120	0xbd8225d7	-0.063548736
121	0x3d6480a7	0.055786755
122	0x3e27ebe8	0.16398585
123	0x3da3c1e7	0.07995968
124	0xbe14c455	-0.1452802
125	0x3e559505	0.20857628
126	0x3df1e526	0.11811285
127	0x3d81398c	0.06309804

model.encoder.rnn.bias_hh_l0 f4 [128]
0	0x3e2fbdb4	0.1716221
1	0xbd19e659	-0.037573192
2	0xbdd07e3f	-0.101803295
3	0x3e19813b	0.14990704
4	0xbd41204c	-0.04714994
5	0xbd42d9e8	-0.047571093
6	0x3e8396fd	0.25701132
7	0xbdce7ebf	-0.10082769
8	0x3e193153	0.14960222
9	0x3d9ce7a5	0.0766137
10	0x3d5054db	0.050862174
11	0xbd500523	-0.05078615
12	0x3c74584d	0.014913631
13	0x3d01e701	0.031714443
14	0x3d64c640	0.05585313
15	0x3e84120f	0.25795028
16	0x3e375cf1	0.17906548
17	0x3cff9a54	0.03120152
18	0x3e1cd499	0.15315475
19	0x3ead11f9	0.33802775
20	0x3e36db28	0.17857039
21	0xbc5ac90c	-0.013353597
22	0x3d92bbcf	0.07164728
23	0x3e262968	0.16226733
24	0x3c807357	0.015679998
25	0xbb4fa6fd	-0.0031685226
26	0xbd60330f	-0.054736193
27	0xbe032c2e	-0.12809822
28	0x3d3c5fb6	0.045989715
29	0x3d9b8fc1	0.07595778
30	0x3cf8c840	0.030368924
31	0xbe083989	-0.13303198
32	0x3e49589b	0.19662707
33	0x3cba0287	0.022706283
34	0x3dd1f165	0.102511205
35	0x3da0039b	0.07813188
36	0x3e13a98a	0.14420143
37	0xbe0d07cd	-0.13772507
38	0x3eb13bec	0.3461603
39	0xbdc76319	-0.09735698
40	0xbe088068	-0.13330233
41	0x3d9df21b	0.077121936
42	0x3d8003b7	0.062507086
43	0xbe240046	-0.1601573
44	0x3cba0719	0.022708463
45	0xbdd15929	-0.10222084
46	0x3dc17cf9	0.09447665
47	0xbe0ad72a	-0.13558641
48	0x3d7b0fc4	0.061294332
49	0xbcebe3e7	-0.028795196
50	0xbe4cc64f	-0.19997524
51	0x3d84dbf5	0.06487266
52	0x3d88e0b2	0.06683482
53	0x3dcbc525	0.09949712
54	0xbe0c78dd	-0.1371798
55	0x3cf80993	0.030278003
56	0x3d043a71	0.032282297
57	0xbc8076f7	-0.015681727
58	0x3deca1c4	0.11554292
59	0xbddbbf0d	-0.107297994
60	0x3e2a895c	0.16653961
61	0xbe14260d	-0.1446764
62	0xbc699888	-0.014257558
63	0xbdd5e4d2	-0.10444035
64	0x3e146248	0.14490616
65	0xbdade8b7	-0.084916525
66	0xbdb67b6c	-0.089102596
67	0xbda9c807	-0.08290105
68	0xbdaf746e	-0.08567129
69	0x3df93684	0.12168601
70	0xbecb00be	-0.39649004
71	0xbdf9d7ab	-0.121993385
72	0xbcaf1f32	-0.02137718
73	0x3dcb2a40	0.09920168
74	0x3c4ba227	0.012428797
75	0x3e1dd41a	0.15412942
76	0x3c64bbba	0.013960773
77	0xbb44f12d	-0.0030050979
78	0x3d145783	0.03621627
79	0xbe073747	-0.1320468
80	0x3c7af860	0.015318006
81	0xbcfe210d	-0.03102162
82	0xbd96f931	-0.07371748
83	0x3ddd0da3	0.107936166
84	0x3de39f9e	0.11114429
85	0x3e08be26	0.13353786
86	0x3e954eab	0.2916158
87	0x3d6364bc	0.05551599
88	0x3e0e645f	0.13905476
89	0xbe37bdfd	-0.17943569
90	0x3cfc7312	0.030816589
91	0x3e181559	0.14851893
92	0xbcf25bdc	-0.029584818
93	0xbd9a254f	-0.07526647
94	0xbe2570bc	-0.16156286
95	0xbd9737bf	-0.073836796
96	0xbb4a02b5	-0.0030824367
97	0x3e2e50bf	0.1702299
98	0x3e6eb453	0.23310976
99	0x3d9c836c	0.07642254
100	0xbbabc59e	-0.0052420637
101	0xbdd04352	-0.1016909
102	0x3e0d5074	0.13800222
103	0x3d4cf752	0.05004055
104	0xbdb8f96d	-0.09031949
105	0x3e632ced	0.22185107
106	0x3d96fda0	0.07372594
107	0x3db35e6b	0.08758243
108	0xbe117617	-0.14205204
109	0x3e17799a	0.14792481
110	0xbdc7dced	-0.09758935
111	0x3e8f6685	0.28007904
112	0x3e4af729	0.19820847
113	0x3e292835	0.16519244
114	0x3e0a1f41	0.13488485
115	0xbd29c9c2	-0.041452177
116	0x3dce83e4	0.1008375
117	0xbe03525a	-0.12824383
118	0xbdd96054	-0.10614076
119	0x3e5ddc37	0.21666037
120	0xbe12fa4e	-0.14353296
121	0x3dd3b475	0.10337154
122	0xbe280af2	-0.16410425
123	0x3c17bdf5	0.009261598
124	0x3e328edc	0.17437309
125	0x3e08408f	0.13305877
126	0x3da14707	0.078748755
127	0x3e2364fe	0.15956494

model.decoder.convs.0.bias f4 [32]
0	0xbcbde672	-0.023181174
1	0xbca3c3b6	-0.019990783
2	0x3da7d4b0	0.08194864
3	0x3d8e6230	0.069523215
4	0xbcad5e31	-0.021163078
5	0x3b36fff3	0.0027923554
6	0x3cbab80f	0.022792844
7	0x3ce25b78	0.027631506
8	0xbd629b6d	-0.055324007
9	0x3d4e1df2	0.050321527
10	0xbd657768	-0.056022078
11	0xbd419c65	-0.04726829
12	0xbcdbc7bf	-0.026828645
13	0x3d3009ce	0.0429781
14	0x3b6c31c5	0.0036040407
15	0x3d468006	0.048461936
16	0x3d134eb2	0.03596372
17	0xbd2e8e91	-0.04261643
18	0x3cd0091b	0.025394967
19	0xbc713e2f	-0.014724298
20	0x3d2b7511	0.04185969
21	0x3c94d521	0.018168034
22	0xbcde8480	-0.02716279
23	0xbca97429	-0.020685272
24	0x3cac6ebf	0.021048902
25	0x3d3b52b0	0.045733154
26	0x3ccec5e0	0.025240839
27	0xbd4ba5af	-0.049718555
28	0x3b71658b	0.0036834206
29	0xbd085aa9	-0.033289585
30	0x3c0426ae	0.008065863
31	0x3d9e657a	0.07734199

model.decoder.convs.0.lin.weight f4 [32, 32]
0	0xbcd37ba8	-0.0258158
1	0xbe0dfe2e	-0.13866493
2	0xbd10d5e6	-0.03536024
3	0xbe279118	-0.16363943
4	0xbe21afbf	-0.15789698
5	0x3d1ada20	0.037805676
6	0x3dad9f9a	0.08477707
7	0xbaa9e5e7	-0.0012962193
8	0xbdd2af8e	-0.10287391
9	0xbe0767ac	-0.13223141
10	0x3e0f04e1	0.13966705
11	0x3e19233f	0.14954852
12	0xbd2d1cc4	-0.04226376
13	0x3ddd635c	0.10809967
14	0xbe1fe229	-0.15613617
15	0x3bce35f9	0.006293055
16	0xbd0489dd	-0.03235804
17	0xbcdc372f	-0.026881782
18	0xbcad07ff	-0.021121977
19	0xbbb6938a	-0.0055717872
20	0x3d33d2a3	0.04390205
21	0x3e480b44	0.19535547
22	0xbe167675	-0.14693625
23	0xbe2ea775	-0.17056067
24	0x3e091578	0.13387096
25	0x3e44d418	0.19221532
26	0xbdb0e427	-0.086372666
27	0x3d04a3ee	0.032382898
28	0x3decbcff	0.11559486
29	0x3dff0b6e	0.12453352
30	0xbdbcc355	-0.09216944
31	0x3d068975	0.032845933
32	0xbe561920	-0.20908022
33	0x3d865b60	0.06560397
34	0xbd198051	-0.037475888
35	0xbcb74672	-0.022372458
36	0x3de33568	0.11094171
37	0x3d949b9e	0.07256244
38	0xbd2e66b8	-0.04257843
39	0x3e06b042	0.13153175
40	0x3e1e7a2d	0.15476294
41	0x3e6cbe0c	0.23119372
42	0x3d7a180d	0.061058093
43	0xbd9bedbd	-0.07613704
44	0x3e33a637	0.17543875
45	0x3e38c8db	0.1804537
46	0xbb12195d	-0.002229295
47	0xbe87cb08	-0.26522088
48	0x3c8ace56	0.016944092
49	0xbd0c9c1c	-0.034328565
50	0xbea185f2	-0.31547505
51	0xbdd5a640	-0.104321
52	0x3d8427f3	0.06452932
53	0x3cace592	0.021105561
54	0x3e3fe6d4	0.18740398
55	0x3e846401	0.25857547
56	0x3e392d7d	0.18083759
57	0x3cbc358a	0.022974748
58	0x3dcbe43f	0.09955644
59	0x3e4198a4	0.18905884
60	0xbd34a156	-0.044099174
61	0x3e0a4493	0.13502721
62	0x3e08aa71	0.13346268
63	0xbd3b875d	-0.04578339
64	0x3dd5db8d	0.104422666
65	0xbdf1190c	-0.117723554
66	0xbd82e9a6	-0.06392221
67	0xbd258cca	-0.04041747
68	0xbd11c436	-0.035587512
69	0x3d7fb523	0.062428605
70	0x3d9ba633	0.07600059
71	0xbe451ec2	-0.19250014
72	0xbc097c8b	-0.00839151
73	0xbdf6ad5e	-0.12044786
74	0x3d483253	0.048876118
75	0x3e078659	0.13234843
76	0x3e40f121	0.18841983
77	0xbde47f98	-0.11157149
78	0x3aa02518	0.0012218086
79	0x3d6230a4	0.05522217
80	0x3eaae8b6	0.3338067
81	0xbe24a5a2	-0.16078809
82	0x3e2f5d78	0.17125499
83	0x3e3953f3	0.1809843
84	0x3a15b33c	0.0005710607
85	0xbd1f7f56	-0.038939796
86	0xbd86c6d3	-0.065808915
87	0xbd14d99c	-0.03634034
88	0xbdbd2ab9	-0.09236664
89	0xbdae3280	-0.08505726
90	0xbcbc0f2c	-0.022956453
91	0xbf3f719e	-0.7478274
92	0xbdb408da	-0.08790751
93	0x3d531706	0.05153563
94	0xbe7080d5	-0.23486646
95	0x3e9ddb4e	0.3083138
96	0xbc00ddb1	-0.007865355
97	0xbebbedf3	-0.36704978
98	0x3d90d2bf	0.070714466
99	0xbdd1e206	-0.10248189
100	0x3d5cada7	0.053876545
101	0xbe3563e5	-0.17713888
102	0x3bd98488	0.0066381134
103	0x3bf57020	0.007490173
104	0xbc22fc5e	-0.009947864
105	0x3e0164d7	0.12636124
106	0x3dc7fa74	0.09764567
107	0x3d983e6b	0.0743378
108	0x3e100b35	0.14066775
109	0xbdcf4e36	-0.101223394
110	0x3dcd18f6	0.100145265
111	0x3d1acb19	0.037791345
112	0xbc742bfa	-0.014903063
113	0x3d8921c6	0.06695895
114	0x3d26ae6a	0.040693678
115	0xbdee02fd	-0.11621664
116	0x3b1f17a0	0.0024275556
117	0xbdfc9fb0	-0.123351455
118	0x3e19981f	0.14999436
119	0x3da0f2ca	0.07858808
120	0x3da4895c	0.08034012
121	0xbe659f6e	-0.22424099
122	0xbe78c58b	-0.24294107
123	0xbd076de7	-0.033063795
124	0x3d85d19f	0.06534123
125	0x3de19b13	0.11015906
126	0xbe571bcd	-0.21006699
127	0x3e01a387	0.12660037
128	0xbe8f98e0	-0.28046322
129	0xbe997508	-0.299721
130	0x3e1c5495	0.1526664
131	0xbdc8b9d5	-0.0980107
132	0x3dd742d6	0.10510795
133	0xbd1dd7ab	-0.038535755
134	0x3d9ee58a	0.07758625
135	0x3e3f5c3c	0.18687528
136	0x3e0bdccd	0.13658448
137	0x3d59690a	0.05307869
138	0x3e0c5e1c	0.13707775
139	0x3cddb0e3	0.027061885
140	0xbddb5d20	-0.107111216
141	0x3e8b88eb	0.27252898
142	0x3ea21fe9	0.3166497
143	0x3d1fef88	0.039046794
144	0x3d6c4ac7	0.0576885
145	0xbe1f1f6e	-0.15539333
146	0xbeeeb400	-0.46621704
147	0xbd78a690	-0.06070572
148	0x3e734bdf	0.23759411
149	0x3e014356	0.12623343
150	0x3d21fb22	0.03954614
151	0xbe5278ac	-0.20553845
152	0xbe07492a	-0.13211504
153	0xbe1819df	-0.14853619
154	0x3e38822b	0.18018405
155	0x3cb26645	0.021777282
156	0xbe139cef	-0.14415334
157	0xbdefb58c	-0.11704549
158	0x3db6546d	0.08902822
159	0xbd08e967	-0.033425715
160	0xbe1482e8	-0.14503062
161	0xbda7fa4c	-0.08202037
162	0xbd5bd25f	-0.053667422
163	0x3e0ffda3	0.14061598
164	0x3e2a2dd2	0.16619042
165	0xbd0cf31c	-0.034411535
166	0x3cdd1e4f	0.026991991
167	0x3e2475f0	0.16060615
168	0xbe240ed0	-0.16021276
169	0x3c8f8193	0.01751784
170	0x3dc9b67a	0.09849258
171	0x3e752586	0.23940095
172	0xbe04a45e	-0.12953326
173	0x3dd89e4f	0.1057707
174	0xbd0cdc7a	-0.03438995
175	0xbc13f2ea	-0.009030083
176	0xbe2dc383	-0.16969113
177	0xbdf40187	-0.11914354
178	0xbe06bd8f	-0.13158248
179	0x3e078762	0.13235238
180	0x3e6a39af	0.22873567
181	0xbce29daa	-0.02766307
182	0x3e644b34	0.22294313
183	0xbe295746	-0.16537198
184	0x3e048fdc	0.12945503
185	0x3d106163	0.035249125
186	0x3e4c048b	0.19923608
187	0xbef031e7	-0.46913072
188	0x3dca0c7e	0.09865664
189	0xbe817efe	-0.252922
190	0x3de2c0b6	0.11071913
191	0xbe2e32b4	-0.17011529
192	0xbcb8cd68	-0.022558883
193	0xbe24d393	-0.16096334
194	0xbe3d1961	-0.18466713
195	0x3cddd3b7	0.027078493
196	0x3dc16d43	0.09444668
197	0x3e2a7a71	0.1664827
198	0x3d6c1fd7	0.057647552
199	0xbe2b9df4	-0.16759473
200	0x3dcaf566	0.09910087
201	0xbe237c09	-0.15965284
202	0xbdb35c72	-0.08757867
203	0x3ddef381	0.108862884
204	0xbdf30913	-0.11866965
205	0xbe29937c	-0.16560167
206	0xbcdc28f0	-0.02687499
207	0x3e037669	0.12838139
208	0xbd0dc428	-0.034610897
209	0x3e05a4e5	0.13051184
210	0xbe05f6ac	-0.13082379
211	0xbc84a98e	-0.016194131
212	0xbde21f79	-0.11041159
213	0xbda33d06	-0.07970624
214	0x3e0432ea	0.12910047
215	0xbe8665a5	-0.26249424
216	0x3df70bf7	0.12062829
217	0xbd8186d0	-0.063245416
218	0xbb755ffe	-0.003744125
219	0x3cc995e6	0.02460761
220	0x3a630acd	0.0008660972
221	0x3d989cbb	0.07451769
222	0x3cf4c86f	0.02988073
223	0x3dbb18f0	0.09135616
224	0xbd5675e9	-0.05235854
225	0x3c886506	0.016649734
226	0xbe41209a	-0.18860093
227	0xbdcc2080	-0.099671364
228	0x3c64f683	0.013974789
229	0xbdfc1ca2	-0.12310149
230	0xbdfd8304	-0.12378505
231	0xbe13db0c	-0.14439029
232	0x3d8da10d	0.069154836
233	0x3dc6a0c2	0.09698631
234	0xbd4a691b	-0.049416643
235	0x3d082911	0.03324229
236	0xbc16e813	-0.009210604
237	0xbe2a217c	-0.16614336
238	0xbcfbc71c	-0.030734591
239	0x3d1b5c95	0.03793009
240	0x3e14e184	0.14539152
241	0xbda39e9b	-0.07989236
242	0x3db911b9	0.090365835
243	0xbd44dc60	-0.04806173
244	0x3cfafdaf	0.030638544
245	0xbe1ee977	-0.15518747
246	0xbd67807a	-0.05651901
247	0x3cd80184	0.02636791
248	0xbd0d7a4e	-0.034540467
249	0xbe1bbcda	-0.1520876
250	0xbe2a9032	-0.16656569
251	0x3e037b80	0.1284008
252	0x3c7198a8	0.014745869
253	0x3e04b033	0.1295784
254	0xbe294076	-0.16528496
255	0x3e40da07	0.18833171

model.decoder.convs.0.root_lin.weight f4 [32, 32]
0	0xbda8e154	-0.08246103
1	0xbc020fb9	-0.007938319
2	0x3d6b9d0e	0.057522826
3	0xbd3ac886	-0.04560139
4	0x3d40f17d	0.0471053
5	0xbd53aa39	-0.05167601
6	0x3e227d68	0.15868151
7	0xbd80e282	-0.06293203
8	0x3e0be1c3	0.1366034
9	0xbd374d1e	-0.04475128
10	0x3d2a6f95	0.04161032
11	0xbc92f081	-0.017936947
12	0xbdf66778	-0.12031454
13	0x3d77864e	0.060430817
14	0x3d97f21e	0.07419227
15	0xbdd93dea	-0.10607512
16	0x3ba5ebcf	0.005063511
17	0x3cff834b	0.031190535
18	0xbe005b43	-0.12534814
19	0xbde8fcbb	-0.113763295
20	0xbdb2b0a0	-0.08725095
21	0xbd51fd2b	-0.05126683
22	0xbdb9e5dd	-0.09077046
23	0xbe0726e4	-0.1319843
24	0xbe21d470	-0.15803695
25	0xbd8fc5ac	-0.07020125
26	0x3b007435	0.0019600515
27	0x3cba0445	0.022707114
28	0xbd9b6bd7	-0.07588928
29	0x3d65c445	0.05609538
30	0x3b223cb7	0.0024755427
31	0x3dea6729	0.114454575
32	0x3dddb9c7	0.1082645
33	0x3e200c9a	0.15629807
34	0x3b138227	0.0022507997
35	0xbda5c130	-0.08093488
36	0xbead6f92	-0.33874184
37	0x3eb53388	0.35390878
38	0x3e68dee7	0.2274128
39	0x3d8bf26b	0.06833347
40	0xbed857f7	-0.42254612
41	0xbd2b9330	-0.041888416
42	0x3e199311	0.14997508
43	0xbdcd3a13	-0.100208424
44	0x3ce6d02b	0.028175434
45	0xbe246a98	-0.16056287
46	0x3db95f9f	0.090514414
47	0x3de0b605	0.109722175
48	0x3d2dbeb1	0.042418186
49	0xbdd6ac6a	-0.10482104
50	0x3e2862b9	0.1644391
51	0xbd536355	-0.051608402
52	0xbcb7b97d	-0.022427315
53	0xbda3f09f	-0.08004879
54	0xbda73a3c	-0.08165404
55	0xbee5b4e2	-0.44864565
56	0xbd9a8f79	-0.075468965
57	0x3d8b649c	0.06806299
58	0xbeeb79f5	-0.45991483
59	0xbe2f6d06	-0.17131433
60	0x3eb396bc	0.3507594
61	0x3eba9273	0.36439857
62	0x3e309b35	0.17246707
63	0xbf3cd254	-0.73758435
64	0x3d341520	0.04396546
65	0x3d841cfa	0.06450839
66	0xbe8fa576	-0.28055924
67	0x3e3c68ae	0.18399307
68	0x3e968af5	0.2940289
69	0xbdb6730e	-0.08908664
70	0x3e380982	0.17972377
71	0x3c1418c4	0.009039108
72	0xbe3cf43b	-0.18452542
73	0xbeb62053	-0.35571536
74	0x3e42fe36	0.19042286
75	0x3e5e7006	0.21722421
76	0x3e453858	0.19259775
77	0xbe932048	-0.28735566
78	0xbe02706b	-0.12738197
79	0x3ed0100a	0.40637237
80	0xbd4a9f85	-0.049468536
81	0xbe070587	-0.13185702
82	0x3e98f492	0.29874092
83	0x3ed99797	0.42498466
84	0x3ebd0e39	0.36924914
85	0xbd1997e7	-0.03749838
86	0xbdac227a	-0.084050134
87	0xbe9ecf20	-0.310174
88	0xbd89b5ab	-0.067241035
89	0x3e54672d	0.20742483
90	0xbe28b9f4	-0.16477185
91	0xbf1c71ce	-0.6111115
92	0x3e3f8a06	0.18704996
93	0xbe6d0386	-0.23145875
94	0xbe5b9131	-0.21442105
95	0x3e772619	0.24135627
96	0x3e3151de	0.17316386
97	0xbe72115f	-0.23639439
98	0x3d7e1783	0.06203414
99	0xbd68674a	-0.05673913
100	0x3d07faf6	0.03319832
101	0x3dd1a081	0.10235692
102	0xbe74364b	-0.23848836
103	0x3c765f15	0.015037318
104	0xbe37b5b0	-0.17940402
105	0x3e2bcaca	0.16776577
106	0xbdd930c8	-0.106050074
107	0xbda6a901	-0.08137704
108	0xbd617cf0	-0.05505079
109	0x3db3e5a3	0.08784034
110	0x3e53a6e9	0.2066914
111	0xbe487e84	-0.19579512
112	0xbd68c1f6	-0.0568256
113	0x3d5dfa86	0.054193996
114	0x3dd10d11	0.1020757
115	0x3e347df7	0.17626177
116	0x3d326a9a	0.043558694
117	0x3deb2f31	0.114836104
118	0x3d94ef4e	0.07272206
119	0xba535aaf	-0.0008062524
120	0x3dd33154	0.10312143
121	0xbd3589bf	-0.044320818
122	0x3c3f74b0	0.011685535
123	0x3e132cc2	0.14372543
124	0x3d363a99	0.044489477
125	0x3e0b35c2	0.13594726
126	0xbdade055	-0.084900536
127	0x3e6bd5f5	0.23030837
128	0x3c894a92	0.01675919
129	0x3e0b6125	0.13611276
130	0xbc0720c8	-0.008247562
131	0xbe3cbd62	-0.18431619
132	0x3e58afed	0.2116086
133	0x3d90fc22	0.070793405
134	0xbdb9dcd6	-0.09075324
135	0x3e009162	0.12555459
136	0x3e1876b5	0.14889033
137	0x3e44ea0a	0.19229904
138	0xbdfd1879	-0.123581834
139	0xbde71441	-0.1128316
140	0x3da30685	0.07960228
141	0xbd7390c3	-0.059464227
142	0x3e6aa327	0.229138
143	0xbe31acf0	-0.17351127
144	0xbc7445a5	-0.014909183
145	0x3e190234	0.14942247
146	0x3d3b426f	0.045717653
147	0xbe2b80c6	-0.16748342
148	0x3c84e285	0.016221294
149	0xbe2ebc02	-0.17063907
150	0x3caa3b4b	0.020780226
151	0xbdfdbe46	-0.123898074
152	0xbdc0902f	-0.09402501
153	0x3e1bf7db	0.15231268
154	0x3d6d17f0	0.057884157
155	0x3f397af3	0.7245323
156	0x3e606eb3	0.21917228
157	0xbde91ccb	-0.11382445
158	0x3e12de7c	0.14342684
159	0xbdf85628	-0.12125808
160	0x3ddda339	0.10822148
161	0x3deb1f4e	0.1148058
162	0x3eba08f7	0.36334965
163	0xbe417302	-0.18891528
164	0xbea2306c	-0.31677568
165	0x3dbc2d0f	0.09188282
166	0x3db13fce	0.08654748
167	0xbdcc8f40	-0.0998826
168	0xbd3c553c	-0.045979723
169	0xbdbf55eb	-0.093425594
170	0xbcd90d11	-0.026495488
171	0xbe69cce8	-0.22832072
172	0x3cb52149	0.022110598
173	0x3e2c8fd8	0.16851747
174	0xbc1c2fde	-0.009532897
175	0xbce1b5c1	-0.027552487
176	0xbc14bc9f	-0.009078174
177	0xbc7155e7	-0.014729953
178	0x3eae7bd4	0.34078848
179	0x3d3f41cc	0.04669361
180	0xbe26f05e	-0.1630263
181	0x3d816ff9	0.06320185
182	0x3e3f7578	0.18697155
183	0x3e20ea0f	0.15714286
184	0x3e01bfa1	0.12670757
185	0x3dd1bc70	0.1024102
186	0xbe243b49	-0.1603824
187	0x3da33072	0.079682246
188	0xbe073c3f	-0.13206576
189	0x3eff4674	0.4985844
190	0xbd6ec4a5	-0.058293004
191	0xbd69bb5d	-0.05706345
192	0x3da3abb8	0.07991737
193	0xbc051e14	-0.008124847
194	0x3e12e5ed	0.14345522
195	0xbd03ac36	-0.032146655
196	0xbe505aba	-0.2034711
197	0x3e093385	0.1339856
198	0x3dbc5f92	0.09197916
199	0xbe04bbbd	-0.12962241
200	0x3e01c4a9	0.12672676
201	0x3d8d89fd	0.06911085
202	0x3c509cae	0.012732668
203	0xbd47ab49	-0.048747335
204	0x3cb9beb2	0.022673938
205	0xbbc0e8a0	-0.005887106
206	0x3e1600f9	0.14648809
207	0xbe0f39b6	-0.13986859
208	0x3cafb13d	0.021446818
209	0x3b224d61	0.002476536
210	0x3d492a6e	0.04911273
211	0x3ce2607d	0.0276339
212	0xbd033c6d	-0.03204005
213	0xbdf10604	-0.117687255
214	0x3c673f5f	0.01411423
215	0x3e53ac72	0.20671251
216	0x3e59b1a8	0.21259177
217	0xbdd8da95	-0.10588566
218	0xbdc01aa6	-0.09380083
219	0x3e3d4464	0.1848312
220	0xbe49072b	-0.1963164
221	0xbdac21ea	-0.08404906
222	0xbe0b246c	-0.13588113
223	0x3e28cfef	0.1648557
224	0x3e0624fd	0.13100047
225	0xbe6d29c3	-0.23160462
226	0x3e3059da	0.17221776
227	0x3d2c101d	0.042007554
228	0x3d776a37	0.06040403
229	0x3d371947	0.04470184
230	0xbe081633	-0.13289718
231	0xbd4d99e0	-0.050195575
232	0x3df3c1ab	0.119021736
233	0x3e2dbe4c	0.16967124
234	0xbb0cc503	-0.0021479733
235	0xbe2c7c00	-0.16844177
236	0x3da4f8ea	0.08055289
237	0x3d285c14	0.041103438
238	0x3e30d493	0.1726859
239	0xbe36db86	-0.17857179
240	0x3e70c7e6	0.23513755
241	0xbdba253c	-0.09089133
242	0xbd8a3466	-0.067482755
243	0xbdaac943	-0.08339169
244	0xbdccf01b	-0.10006734
245	0x3e1cab37	0.15299688
246	0xbd95e07b	-0.07318207
247	0x3bfcf36a	0.007719447
248	0x3d3974f7	0.045277562
249	0xbe4f7a24	-0.20261437
250	0xbd7a683b	-0.06113456
251	0x3e089c6a	0.13340917
252	0xbbdc87c4	-0.0067300517
253	0x3e42fa52	0.19040802
254	0xbe02602b	-0.12731998
255	0x3cfd9390	0.030954152

model.decoder.convs.1.bias f4 [32]
0	0xbd5cc58d	-0.053899337
1	0x3d1ac351	0.037783924
2	0x3c7aa3f6	0.01529788
3	0xbd7b60d1	-0.06137163
4	0x3d441bf5	0.047878224
5	0xbcfe3718	-0.03103213
6	0x3d494fc3	0.049148332
7	0xbbe7c836	-0.0070734276
8	0x3d34f491	0.04417855
9	0xbdc13811	-0.09434522
10	0x3b5dc22f	0.0033837666
11	0xbd01c526	-0.031682156
12	0xbc5ca45e	-0.013466923
13	0x3c6540e0	0.013992518
14	0xbc2a0d45	-0.01037914
15	0xbc5c1b27	-0.013434208
16	0xbca4bf2b	-0.020110687
17	0x3d5d6534	0.054051593
18	0x3ce1cd27	0.027563645
19	0xbc3678f1	-0.011137233
20	0x3c5dc886	0.013536578
21	0xbc86d6e2	-0.016459886
22	0x3c8e3aa0	0.017361939
23	0xbd09c869	-0.03363839
24	0xbbeaba66	-0.0071633337
25	0x3d5977ac	0.053092644
26	0xbcf988dc	-0.030460767
27	0x3c4c69f2	0.012476431
28	0x3d0a39b3	0.033746433
29	0x3d48afbc	0.04899572
30	0xbc67773c	-0.014127549
31	0x3c1b78e6	0.009489274

model.decoder.convs.1.lin.weight f4 [32, 32]
0	0x3d2356d3	0.039877724
1	0x3d0d650a	0.034520186
2	0xbc87a7c7	-0.016559495
3	0xbe69ee7f	-0.22844885
4	0xbda6dc21	-0.08147455
5	0xbe3fe8a6	-0.18741092
6	0xbdcf96d7	-0.10136192
7	0x3d947b25	0.072500505
8	0x3df04472	0.11731805
9	0xbe1e3546	-0.1545001
10	0x3e07703d	0.1322641
11	0xbd05ddee	-0.03268235
12	0x3d950743	0.07276776
13	0x3cdbb06c	0.026817523
14	0x3d1c20f7	0.038117375
15	0xbdce38ff	-0.10069465
16	0x3da0f73c	0.07859656
17	0x3d08a3ce	0.03335934
18	0x3d6f3049	0.058395658
19	0x3e1408c0	0.14456463
20	0xbe2dd6b1	-0.1697643
21	0xbd323b69	-0.04351369
22	0x3e2284c3	0.15870957
23	0xbe089659	-0.13338603
24	0x3c796c4a	0.015223572
25	0xbda94227	-0.08264571
26	0xbbede2bb	-0.0072596944
27	0xbd9a2b79	-0.07527823
28	0xbd2ecfab	-0.042678516
29	0xbd0e5cbf	-0.03475642
30	0xbdc52855	-0.09626833
31	0x3db4f4b9	0.0883574
32	0xbe045205	-0.12921913
33	0x3e3ffe21	0.18749286
34	0xbe150ea2	-0.14556363
35	0xbdf21739	-0.118208356
36	0xbd3d9330	-0.046282947
37	0xbddaf4f2	-0.10691251
38	0x3dfa2c92	0.12215532
39	0x3d8f0b37	0.06984561
40	0x3e0922d1	0.13392188
41	0x3e2dfbc3	0.1699057
42	0xbdcbd975	-0.09953586
43	0xbdd46e8b	-0.10372647
44	0xbdc52040	-0.09625292
45	0x3d7d54b2	0.06184835
46	0x3bfcda23	0.0077164336
47	0x3e5b37e3	0.21408038
48	0x3d0b30e9	0.03398219
49	0x3ce2095c	0.027592354
50	0xbe028181	-0.12744714
51	0x3e24c159	0.16089381
52	0xbd4dbfa2	-0.050231583
53	0xbe457a65	-0.19284971
54	0x3e32ba2a	0.17453828
55	0xbd44e6f2	-0.04807181
56	0xbca45d9d	-0.02006417
57	0x3d3e836b	0.04651205
58	0x3de84dae	0.11342941
59	0x3dd3f2f9	0.10349078
60	0xbdfc3878	-0.12315458
61	0xbe3cc990	-0.18436265
62	0x3e47d7e8	0.19515955
63	0x3de6b64a	0.11265238
64	0x3bb8c4f7	0.0056387144
65	0x3ed105b9	0.4082468
66	0x3dd43ec6	0.103635356
67	0xbd991a88	-0.074757636
68	0x3e292d6f	0.16521238
69	0xbe729dec	-0.23693055
70	0x3e1c95e5	0.15291555
71	0xbe051108	-0.12994778
72	0xbe318460	-0.17335653
73	0x3e5e7ac5	0.2172652
74	0x3dbfece8	0.09371358
75	0x3e483c19	0.19554175
76	0x3e02f24b	0.1278774
77	0x3d9c9a2c	0.076465935
78	0x3e1cdc70	0.15318465
79	0x3db15589	0.08658893
80	0x3e06c193	0.1315978
81	0x3d0212b5	0.03175612
82	0xbd808666	-0.062756345
83	0xbc9d9bda	-0.019239355
84	0xbceea9cd	-0.029133702
85	0xbd09580b	-0.03353123
86	0x3e1075e0	0.14107466
87	0xbd93225a	-0.071842864
88	0xbc29c50b	-0.01036192
89	0x3c86416b	0.016388616
90	0xbdde1ecc	-0.10845718
91	0x3c2efe4e	0.010680748
92	0xbed7f780	-0.42181015
93	0x3dc1860d	0.09449396
94	0xbe0c4603	-0.13698582
95	0xbcf57f6f	-0.029967992
96	0x3d91ab4e	0.07112752
97	0x3f57ed7d	0.84346753
98	0xbf3cbb3e	-0.7372321
99	0xbd8ce247	-0.068790965
100	0x3e31c751	0.1736119
101	0x3e910b9c	0.2832917
102	0x3c1de38a	0.009636769
103	0x3da33e0c	0.07970819
104	0xbdbb2b86	-0.09139161
105	0x3e0738f9	0.13205327
106	0xbd9a0177	-0.07519811
107	0xbde7674d	-0.11299
108	0xbe1abab9	-0.15110292
109	0xbe60e1da	-0.21961156
110	0xbde50a77	-0.11183637
111	0xbe203a4a	-0.15647236
112	0xbda8e737	-0.08247226
113	0xbef0b5ec	-0.47013795
114	0xbe84877b	-0.25884613
115	0x3f266359	0.6499534
116	0xbf278459	-0.6543632
117	0xbf9041bc	-1.127006
118	0xbe99e37d	-0.30056372
119	0xbcf08871	-0.029361935
120	0xbda248c4	-0.07924035
121	0xbd074846	-0.03302791
122	0xbf164265	-0.5869506
123	0xbdb66f20	-0.08907914
124	0x3f2b7712	0.6697856
125	0x3df06154	0.11737314
126	0x3d44f34c	0.04808359
127	0xbe393c2d	-0.18089361
128	0xbca47b02	-0.020078186
129	0x3e144693	0.14480047
130	0x3e813a94	0.25240004
131	0x3d8ddc31	0.06926764
132	0x3e5ab9eb	0.21359985
133	0xbeacadf6	-0.33726472
134	0x3ca84870	0.020542353
135	0xbc174307	-0.009232289
136	0xbdfebb54	-0.12438074
137	0x3deea4e4	0.11652544
138	0x3c8e60e5	0.017380187
139	0xbd842622	-0.06452586
140	0xbb034346	-0.0020029112
141	0x3e08f6d1	0.13375403
142	0x3e20ffea	0.15722623
143	0xb9a86733	-0.00032120346
144	0x3e087f11	0.13329722
145	0xbe807fd1	-0.25097516
146	0xbe162b4e	-0.14664957
147	0xbccfaf85	-0.025352249
148	0x3db803e7	0.08985119
149	0x3e3586ea	0.17727247
150	0x3ea1037a	0.31447965
151	0x3d85fe7e	0.06542681
152	0x3e3009b3	0.171912
153	0x3dc776ad	0.097394325
154	0x3e6cdadd	0.23130365
155	0xbdbf42ba	-0.09338899
156	0xbe518122	-0.20459417
157	0x3e262b95	0.16227563
158	0xbb0fc623	-0.0021938167
159	0x3e7445ed	0.238548
160	0x3dd55523	0.10416629
161	0xbe0a0778	-0.13479412
162	0x3e1cf365	0.15327223
163	0xbc60e477	-0.013726345
164	0x3e1945c2	0.14968017
165	0x3d6c671d	0.057715524
166	0xbdc10f86	-0.09426789
167	0xbdc646e8	-0.09681493
168	0xbd836216	-0.06415193
169	0x3dcfffbe	0.10156201
170	0x3e031945	0.12802608
171	0xbe038db6	-0.12847027
172	0x3b870a46	0.0041210977
173	0xbd81d49c	-0.0633938
174	0xbdc455ee	-0.09586702
175	0xbe1ecf7f	-0.15508841
176	0xbe3dc09f	-0.1853051
177	0x3d7f9cd6	0.06240543
178	0xbe22e1b0	-0.15906405
179	0xbde41b98	-0.111380756
180	0xbe328e68	-0.17437136
181	0x3e0471b2	0.12933996
182	0xbc408c4f	-0.011752202
183	0x3d1a40da	0.037659504
184	0xbdf6bb92	-0.12047495
185	0xbd0e72d2	-0.03477747
186	0xbe0493d8	-0.12947023
187	0x3b455f05	0.003011645
188	0xbdb92e9d	-0.09042094
189	0xbdbfaa9d	-0.09358714
190	0xbe1eba2d	-0.15500708
191	0x3df5d9bd	0.12004421
192	0xbe18762f	-0.14888833
193	0xbe2610ca	-0.16217342
194	0x3e43ebf5	0.19132979
195	0x3de1173d	0.109907605
196	0xbe4b81f7	-0.19873796
197	0x3eabee8f	0.33580443
198	0xbd8a9c33	-0.06768074
199	0xbd4acd61	-0.04951227
200	0xbe1c1df1	-0.15245797
201	0x3df87b62	0.121329084
202	0xbd8f906b	-0.070099674
203	0xbe8f929f	-0.2804155
204	0x3dcc1d1e	0.09966491
205	0x3dd94be4	0.10610178
206	0x3c48b547	0.012250251
207	0xbd71b35c	-0.05900894
208	0x3c9bbd8b	0.01901128
209	0x3e9689d1	0.2940202
210	0xbdaeae27	-0.08529311
211	0x3e12fae9	0.14353527
212	0x3e49e043	0.19714455
213	0xbf206054	-0.62646985
214	0xbe46e50d	-0.19423313
215	0x3d0f2a36	0.034952365
216	0xbe35dfe7	-0.17761193
217	0x3dd1ab9f	0.10237812
218	0x3e12438c	0.1428358
219	0xbd885c51	-0.06658233
220	0x3e614b42	0.22001365
221	0xbe3ff1bf	-0.18744563
222	0x3d9ce414	0.0766069
223	0xbcfebe62	-0.031096641
224	0xbe1ae4c7	-0.15126334
225	0xbf20aed5	-0.6276677
226	0x3d85f8de	0.06541608
227	0x3e37dddc	0.17955726
228	0xbe9bdc74	-0.3044163
229	0x3ecd0322	0.40041453
230	0xbbd95846	-0.0066328375
231	0x3d29bbf4	0.04143901
232	0x3e294921	0.16531803
233	0xbe034c6d	-0.12822123
234	0xbc9d3782	-0.019191507
235	0x3cb445bb	0.022005906
236	0xbda8a441	-0.08234454
237	0x3e28e156	0.16492209
238	0xbe668c8d	-0.22514553
239	0xbda9e6a1	-0.08295942
240	0x3e3b41cd	0.1828682
241	0xbed84a56	-0.42244214
242	0xbe0bc882	-0.13650706
243	0xbafd729d	-0.0019336526
244	0xbe3834d6	-0.17988905
245	0xbf7e3dfa	-0.9931332
246	0xbf0eb2ad	-0.5574139
247	0xbb4544a8	-0.0030100737
248	0xbc392860	-0.01130113
249	0xbcbd6330	-0.023118585
250	0x3c0fcf5b	0.008777465
251	0x3db133bf	0.08652448
252	0x3c8adedb	0.016951969
253	0x3da7e32b	0.08197626
254	0xbc066093	-0.008201736
255	0x3e3bdbb2	0.18345526
