code/logs/epoch=37-step=912.ckpt (torch, 382980 bytes, 63 tensors)

model.input_encoder.weight f4 [32, 1]
00000000: 30b5 7cbe 4a02 093e 458e 61bd 794d 283e
00000010: 8492 98be b820 f4be 26b5 503f 0547 2b3f
00000020: 8999 813f d9b8 39bf 3329 fb3e d58c 363f
00000030: 5d15 2c3f f301 74bf fd31 5ebe 91b9 04bd
00000040: 34c9 153f d148 90be c5b4 273f e25c d03e
00000050: afb9 3b3f 4a21 6c3d 4960 04be 261a f1be
00000060: 5b3f e0be 7329 2d3f 4c34 643f 1787 a7be
00000070: afc7 b73e c049 013f e176 31bf f5a1 c2be
-0.24678493 0.1337978 -0.05506732 0.16435803 -0.29799283 -0.47681212 0.8152641 0.6690524
1.012498 -0.7254768 0.4905487 0.7130864 0.672201 -0.95315474 -0.21698757 -0.032403532
0.58510137 -0.28180555 0.6551021 0.40695864 0.73330206 0.057648934 -0.12927355 -0.47090262
-0.43798336 0.6764137 0.891423 -0.32720253 0.35894534 0.5050316 -0.6932202 -0.38014188

model.input_encoder.bias f4 [32]
00000000: c04d 65be c382 2dbf be30 e93d 2bfa 6cbf
00000010: f426 93be 4d44 dfbe 66a3 e6bd c2c8 3cbf
00000020: 26b9 2b3e a798 053f 32e0 55bf 9a23 0a3f
00000030: d622 703d a295 51be 69b0 a03e dcd7 c8bd
00000040: 6aca 193f 72a2 683f 0a06 6fbf 3269 4ebf
00000050: a8db 03bf ee15 e8be 00fd 553f 1c08 e2be
00000060: 34b9 4abf afdf d1be b1c4 213e 62ff 41bf
00000070: 6c41 25bf 1590 97be e056 e1bd 969b fe3e
-0.2239294 -0.6777765 0.1138625 -0.92569226 -0.28740656 -0.43606797 -0.112616345 -0.7374383
0.16769847 0.52186054 -0.8354522 0.53960574 0.058626972 -0.20467237 0.3138459 -0.09806797
0.60074484 0.9087287 -0.9336859 -0.80629265 -0.51507044 -0.4532923 0.8358917 -0.44146812
-0.7918885 -0.4099097 0.15797688 -0.7578031 -0.6455295 -0.29602113 -0.11002898 0.49728078

model.convs.0.1.convs.0.conv.weight f4 [32, 32, 1, 2]
00000000: 3e43 023e f4d8 d73d f91f 3e3e 86e1 b23c
00000010: 144c 843d d64a ff3c 0549 9fbc 0143 b93d
00000020: 989d 153e dcb8 2f3c 4ace 6e3d 6986 4fbd
00000030: c4cf bb3d c043 d6bb 1782 393d 6434 d33d
00000040: 681c 643d a145 f83c 958e 7f3d 1226 773d
00000050: b36b 2f3d c006 1e3e c157 603c 45e5 853d
00000060: 8a9c 8ebd d8f9 bcbb 4658 a43d 7c53 a1bd
00000070: a82e fdbc bfe8 3d3d d701 c13d 5aa1 173e
00000080: 9219 d7bd 6c7d 6a3d f034 00bc 9399 293c
00000090: f2c5 8d3d cbe6 05bc 4ddc 423d 98e4 43bd
000000a0: b7d6 29bd 1f85 c33d b866 5b3e 4a42 753d
000000b0: c4d4 39be d7fd fb3b ba5b 47bd 28a6 9c3d
000000c0: febd 493d 7fd4 8f3d 68b5 e03d ed86 cc3d
000000d0: bb70 f43d 29d6 cdbd b4c4 443d 7800 1d3e
000000e0: 336f 143e da61 383e 640c f93c 750a 8dbd
000000f0: 82b5 e73d 6cbc 333d 6579 133d 222f 223d
00000100: 3458 b73d 8f74 01bd ce25 f6bd 819a 15bd
00000110: 74d1 8b3d 5b8c c83d b0c6 97bc 8554 d33d
00000120: 7019 c2bd ca7a b13d fd1f 10bd 2dcf 9dbd
00000130: 3d68 d4bd f419 ce3c e7a7 013e d01d 953d
00000140: 19e3 afbd 80ba 9fbd 72d2 4ebd 7196 44bd
00000150: 941c 10bd a7cc 7bbd 34ea 2bbd a5d2 e73d
00000160: 7b09 7f3d b12d 38bc 07e4 f23d 8864 cc3d
00000170: 791e 013b 2052 683d 5ab6 c3bd ad98 d53d
00000180: c47e c4bd 97f7 a03d d89b 8abd a2ba cdbd
00000190: 21f5 a93d 7bb1 5a3d b0d4 493d 66b2 aa3d
000001a0: 07e5 e63b 0eda 973d 8622 c5bd 8481 a2bd
000001b0: 82ee 653d 9b58 103d e2b5 353c 5303 c63d
000001c0: 2183 f73b 4291 8a3c d613 5dbc 1645 19bd
000001d0: 6939 b43d a44b f1bd 8e17 f8bd 0912 f4bb
000001e0: 3d86 9bbc 33a4 ab3c 1989 f9bb 1915 25bd
000001f0: d876 d33d 888c 813d 1423 8bbd 3183 15bc
00000200: 41d7 dfbd 462f 98bb 11e6 c4bd 4fa7 eebc
00000210: dd91 b03c 243c 83bd 00cb 77bd 2ca8 b53d
00000220: 413b 01bd 22b0 893d 9d33 80bd 61ee 053e
00000230: 09aa f23d 14dc 7ebd ff88 ad3d b293 f53c
00000240: f8ff 4b3d de5b eb3d 2c01 a83d 03c3 b1bd
00000250: a047 553e 5b1b 26bd b6e7 51bd 0a8f d13c
00000260: a3a2 2bbd ddd8 143a b2cf c0bd de2b b73d
00000270: 5956 14be 277a 853d 4cf4 ad3d 16d9 f93d
00000280: 1b95 9ebd 3f6f bbbc 5ab7 0a3c b7d2 89bd
00000290: 0fc6 373e 3f8e 193a 1ca7 603d a76a 193e
000002a0: 88f8 963d 0d6e debd 51d1 893b e6c9 f43d
000002b0: 922b 473d 25e4 77bd 1532 453d c012 593d
000002c0: e6ef ca3d 1d45 1a3c 4fd2 123e d5fe 82bd
000002d0: 3053 46bd 0a55 fdbc 70f8 b1bd 397c 39bd
000002e0: 13f7 2d3e 18f7 703c a234 d2bc 0890 253d
000002f0: 3193 dcbd 2212 4fbd 3b1e c93a 9b99 39bd
00000300: 8dea 07bd e61e 31bc 03cd 293d 9efb f23c
00000310: bbf5 92bd b4d4 4f3d 0822 cabd 3b91 b73b
00000320: f5d1 29bd 5536 493d cc26 0f3e 4ed6 033d
00000330: 17e2 e7bb b60e fabd d6b3 a73d 595c fbbb
00000340: 2ddc cbbd f28e f93c 9631 043e bbf7 6e3c
00000350: b401 8cbd 386c ab3d 3886 8dbd cff7 28bd
00000360: ba62 08be fc6b c43d fd62 003e a0fb 59bd
00000370: a1ff a4bd b982 a93c c229 ea3d 79f9 3c3d
00000380: e022 31bc 1cd5 a6bd e8d8 c93d bdf1 e73d
00000390: cc26 c13d a555 e9bd 21bf 85bd a90e a33d
000003a0: 9ce3 7ebd a847 56bd 2235 89bd 3bb8 293d
000003b0: 9632 14bd f7bb abbd f477 26bb 6337 c2bc
000003c0: f030 61bc a5a8 9b3d 4505 ccbd 83f7 843d
000003d0: d2ae ccbd e9de dabd d96e 8fbd d9db c3bd
000003e0: d6b8 383b 8da0 eb3c 7cba 82bc c092 a53d
000003f0: 2911 3e3e 293b a4bd b64b 1f3d 8944 9fbd
0.12720963 0.105394274 0.18566884 0.021836054 0.06459823 0.031163614 -0.019443998 0.09045983
0.14610898 0.010725226 0.0583022 -0.050665293 0.091704875 -0.006538838 0.04529008 0.10312727
0.055691153 0.03030664 0.062391836 0.06033904 0.04282732 0.15432262 0.013692797 0.0653787
-0.06963451 -0.0057670884 0.08024649 -0.078772515 -0.030906036 0.046364542 0.09424179 0.14807644
-0.10502924 0.057248518 -0.007825121 0.010351556 0.06922521 -0.008172701 0.047573376 -0.047825426
-0.041464534 0.09546875 0.21425903 0.05987767 -0.1814757 0.007690172 -0.04867146 0.07648879
0.049253456 0.07022952 0.109721005 0.099866726 0.11935564 -0.100506134 0.048039153 0.1533221
0.14495544 0.18006077 0.030401416 -0.0688676 0.11313917 0.043880865 0.036004443 0.03959573
0.0895237 -0.0316053 -0.120189294 -0.0365243 0.068270594 0.09792396 -0.018527359 0.10318855
-0.09477508 0.08665998 -0.035186756 -0.07705531 -0.103714444 0.02515886 0.12661706 0.07281077
-0.08588237 -0.07799244 -0.050493665 -0.047995035 -0.035183504 -0.06147447 -0.0419714 0.11319474
0.0622649 -0.011241362 0.11859899 0.09980112 0.0019702 0.056718946 -0.09556265 0.10429511
-0.09594491 0.07859724 -0.06768006 -0.10045363 0.08298708 0.053391915 0.0492751 0.08334808
0.007046345 0.074146375 -0.096257254 -0.079348594 0.056135662 0.03524075 0.0110907275 0.09668603
0.0075534736 0.016914967 -0.013493499 -0.0374194 0.088000126 -0.117820054 -0.12113868 -0.007448439
-0.018984908 0.02095232 -0.0076152203 -0.040303323 0.10325402 0.06325632 -0.067938 -0.009125517
-0.10929728 -0.0046443073 -0.09614194 -0.029132513 0.021553928 -0.06407955 -0.06049633 0.08869967
-0.03155065 0.06723048 -0.062598445 0.13079216 0.11848838 -0.0622216 0.084733956 0.029977653
0.049804658 0.11492132 0.082033485 -0.08679774 0.20828104 -0.040553432 -0.051246367 0.025580902
-0.04190315 0.0005678067 -0.09414615 0.08943914 -0.14486064 0.06517439 0.084938616 0.12199609
-0.07743283 -0.022880195 0.008466566 -0.06729644 0.17946647 0.0005857683 0.054846868 0.14982091
0.07371622 -0.10860834 0.0042058607 0.119525716 0.048625536 -0.06052031 0.048143465 0.052996397
0.09909038 0.009415892 0.14338039 -0.063962616 -0.048419178 -0.030924339 -0.08689964 -0.045284484
0.16988783 0.014707349 -0.025659863 0.040420562 -0.10770262 -0.050554402 0.0015344092 -0.045312505
-0.03318267 -0.010810589 0.04145528 0.029660996 -0.071757756 0.05073996 -0.09869772 0.0056020296
-0.041459996 0.04912408 0.13979644 0.0321868 -0.0070765126 -0.12209837 0.08188598 -0.007670921
-0.099541046 0.03046367 0.1290954 0.014585431 -0.06836262 0.083702505 -0.06910366 -0.041251954
-0.13318911 0.09590909 0.12537761 -0.053218484 -0.0805657 0.020692216 0.11433746 0.046136353
-0.0108115375 -0.08146116 0.09855825 0.11325405 0.09431228 -0.113932885 -0.065305956 0.079617806
-0.062228784 -0.05231443 -0.066995874 0.04143546 -0.036181055 -0.08385461 -0.0025401087 -0.023708051
-0.013744578 0.07600526 -0.099619426 0.064925216 -0.09994282 -0.10687048 -0.070035644 -0.09563417
0.0028186343 0.02876308 -0.015958063 0.08084631 0.18561234 -0.080190964 0.038890563 -0.07776744

model.convs.0.1.convs.0.conv.bias f4 [32]
00000000: 8d81 0cbe 010f 2bbd 3e89 733d 5ffe 09bd
00000010: 35d5 cb3d 8a15 923d 27ee 7cbd 4731 2bbd
00000020: 734a 0f3d 80f7 bd3d 4c85 ff3c 026b f5bd
00000030: 4c6e c9bc 3502 733c 1cb4 fd3d 282b ad3b
00000040: 3884 0dbd effb a3bd c4bf 95bd 30a6 b3bd
00000050: dc9c 2abe d176 053d 8c53 fbba f883 2fbd
00000060: 0964 5bbb 42ae a6bd fb0d 14bc e6d7 d43d
00000070: 71e5 56bd 2e84 42bd c8eb a1bd fbe3 9c3d
-0.13721295 -0.041762356 0.059457056 -0.033689853 0.099527754 0.071330145 -0.061750557 -0.04179504
0.03498311 0.092757225 0.03119149 -0.11983301 -0.024588726 0.014832069 0.12387869 0.0052846856
-0.03454992 -0.08007037 -0.07311967 -0.08771932 -0.166614 0.032584015 -0.0019174679 -0.042850465
-0.0033476374 -0.08138706 -0.009036536 0.10392742 -0.052464906 -0.047489338 -0.079063 0.07660671

model.convs.0.1.convs.1.conv.weight f4 [32, 32, 1, 2]
00000000: e951 403e 1046 173d 3816 df3c 4b85 d6bd
00000010: 2418 3b3e ade4 b93b b32c 5fbe 3e7c 85bc
00000020: 5411 a0bd 0aaf cabd 17fa 543e bee7 0c3e
00000030: 5f1b 46be e44b cb3d 8dc3 88bd 12ba 2b3e
00000040: bf90 863e 8388 9d3d 67c5 3d3d 811c 723d
00000050: 2f2b 243e da35 693d 7eab 28be 7fc6 99bd
00000060: e5b2 233d c089 f2bd b54a 15bd 3f6b 863d
00000070: 9331 6c3e f8a7 2abc 95a4 7cbd cb96 873d
00000080: 8839 86bc 3015 573e cc5a 8dbe 9bcc 353e
00000090: 5415 4f3c eac7 ddbd 169c 5d3d a528 ad3d
000000a0: 715e 673d 79d7 913d 3a9a 1b3e 5db3 fcbc
000000b0: dddb 713d 35e0 843d c307 96bd e83c 9dbc
000000c0: 31f2 80bd 1e57 2f3e d64f bfbd b891 c63d
000000d0: 901b 2bbe 11f0 b43b 8755 da3c 9e10 67bd
000000e0: 9e42 9ebd a887 ba3d 7cea 2b3d 1bf4 b0bd
000000f0: 1e76 63be ced0 223e 09f0 c43d b5b6 8a3c
00000100: 5908 183d ad1d d6bb f69e a4bd 595d 9abd
00000110: 6483 943d 512f 603d 271f 433d 7e1d b33d
00000120: e724 b33c cd38 c33d 4db5 3e3c 60ff 923d
00000130: 1368 31be 61c4 d4bc 8b4f c7bd c8f9 bbbd
00000140: a42f c6bd b3ed e73d 376b 9ebc b772 c03b
00000150: facc db3d ca46 c43d 5bbc 09bd c506 6cbc
00000160: 882f 513d 8adc 7c3c 8d75 063d c8b0 753d
00000170: 008c 8e3d 69c8 a6bd df42 6f3b 614b 1c3d
00000180: 1c37 21bc 936b aebd 7abf a8bd 949b 7fbd
00000190: f36d 4bbc fdd9 39bd 64f7 dabd 3eeb 573c
000001a0: 5ef2 143e 45af 0c3d d958 163d 61d1 383d
000001b0: b341 803b a955 163c 1834 1fbd ac61 e63d
000001c0: ccbd a53d fe86 ac3c d614 8fbd b0cb c7bd
000001d0: 7d64 c2bd 1459 153e fd35 913d 9338 c8bd
000001e0: 572b 3ebd 0d05 d63d b14f 493d 2a0b 923c
000001f0: 4049 16be 267d 873d 01f4 a63d dd6a 943c
00000200: 90a1 5d3e 40df cfbb 545c 6c3d 5030 93bb
00000210: 6d9d c53c 71d7 acbd ba6f f5bd 3c78 01be
00000220: f602 c93d e9d0 053e d337 833c c014 3abc
00000230: 4f7e 26bd f8bf a93d 8454 a73e d043 2f3e
00000240: 93ef 5b3e 073b 78be c119 363e 74de 09be
00000250: d64b af3d 050f a9bc f918 d3bd 27c6 103e
00000260: f16f be3d 0736 bebc 7cd2 373d 8fbe bc3d
00000270: e613 3abd bf28 943d d9dc 2a3e 0c1e 2ebe
00000280: b58e 92bd b64b 123c ddde 91bc c9f3 983e
00000290: 781e e3bd 784f af3c 52d5 ebbd d809 533d
000002a0: 3dc5 0f3c 3755 bd3b 2da8 07be 16d4 cebc
000002b0: 6b03 943d 6472 cbbd d186 5fbc d421 833d
000002c0: dcd7 cd3d be8c 0bbd 980d dcbd dc3e af3d
000002d0: 9ed1 be3c 28f3 873d 06a4 dcbd a2d1 debd
000002e0: e9e2 be3c d6c1 eabd c657 f7bc 1508 8c3d
000002f0: 8705 e7bd 836b d6bd 19ab b5bd eca2 e7bd
00000300: 5153 163e 73e8 9f3d 7d63 fabd 220e b0bd
00000310: ea56 063e eaf2 9b3d 98d1 36bc e770 383d
00000320: 8309 ad3b 197d 7fbc ee21 8b3d acf8 87bd
00000330: f50e 85bd 8478 413d a4c9 103c ef26 e63d
00000340: fc36 f43d 996d a0bd aaf1 8bbd f366 333c
00000350: a025 c1bd 42a2 e4bd 5f1f 66bc a491 fe3d
00000360: 54d7 d6bc 3d7d 1d3e 1e08 ce3d 078d 323c
00000370: 595c 70bd 49ae 6dbd 850f 383c 4271 a2bc
00000380: a12a debd 98b6 29bd 4d81 28bd 973e 833d
00000390: 3b37 853d 63fa 873d df6d fe3d 8448 283d
000003a0: 9d89 ed3b 43fd 873a 0b20 42bd 9f4c 873d
000003b0: 8c5d f43d 9bfc 35bd 49d7 0dbb 3f17 983c
000003c0: 188d 8fbd b593 a73c c0ba 6fbd fe00 b3bd
000003d0: 119d 793d 3787 013e e903 05bd 1ba3 3abd
000003e0: 3af4 8b3d c815 d93d 21ef 883b f233 3ebd
000003f0: 9f9c b73d 82b0 e53d 3c39 153c 3da9 5b3d
0.18781246 0.03693205 0.027232274 -0.10474642 0.18270928 0.005673012 -0.21794395 -0.016294595
-0.07815805 -0.09896667 0.20798527 0.13760278 -0.19346379 0.09926584 -0.06677923 0.16770199
0.26282308 0.07692053 0.046330836 0.059109215 0.16032098 0.056936122 -0.16471669 -0.07508563
0.03996553 -0.1184268 -0.0364482 0.06563424 0.23065786 -0.010416023 -0.061680395 0.06620558
-0.016384855 0.21004176 -0.27608335 0.17753832 0.012639362 -0.10829146 0.054103933 0.08455018
0.05648655 0.07121176 0.15195552 -0.030847246 0.05904757 0.064880766 -0.07325699 -0.019194081
-0.06296194 0.17123076 -0.09341399 0.096957624 -0.16709733 0.005521782 0.02665211 -0.05641233
-0.0772755 0.091079056 0.04197167 -0.086403094 -0.22213027 0.15899965 0.096160956 0.016932825
0.037117336 -0.0065342993 -0.08038132 -0.07537336 0.07251623 0.054732624 0.04763713 0.087458596
0.021868182 0.09532318 0.011639905 0.07177615 -0.17324857 -0.025972547 -0.097319685 -0.09178501
-0.096770555 0.113246344 -0.019338233 0.00587305 0.107324556 0.095838144 -0.033626895 -0.014405911
0.05107072 0.01543344 0.03282695 0.059983045 0.06960297 -0.08143694 0.0036508364 0.038157824
-0.009839799 -0.08516612 -0.08239646 -0.06240423 -0.012416351 -0.045373905 -0.10691717 0.013178645
0.1454558 0.034346838 0.036705825 0.045121554 0.003914082 0.009175696 -0.03886804 0.11249098
0.080928415 0.021060463 -0.06986396 -0.09755647 -0.09491823 0.14584762 0.070903756 -0.09776416
-0.04642805 0.10450182 0.049148265 0.017827589 -0.1467638 0.06615667 0.08152009 0.018117363
0.21643662 -0.006343752 0.05770524 -0.0044918433 0.024122918 -0.0843953 -0.11984201 -0.12643522
0.09815018 0.13067974 0.01601783 -0.011357486 -0.0406478 0.08288568 0.32681668 0.17115712
0.21478109 -0.24241267 0.17783262 -0.13463765 0.085593864 -0.020637045 -0.103074975 0.14138089
0.09298695 -0.023219122 0.044878468 0.09216034 -0.045429133 0.07234334 0.16685809 -0.1700365
-0.071561255 0.008929184 -0.017806465 0.29873493 -0.11089796 0.021400198 -0.11515297 0.05152306
0.008775053 0.0057779807 -0.13247748 -0.025247615 0.072272144 -0.09933928 -0.013642983 0.064029366
0.100509375 -0.03406977 -0.1074478 0.08556911 0.023293313 0.06638175 -0.107734725 -0.10879828
0.023301559 -0.114627525 -0.03019322 0.06837479 -0.11280351 -0.10469725 -0.08870525 -0.11310372
0.1468022 0.07808008 -0.12226007 -0.085964456 0.13119093 0.076146916 -0.0111583695 0.045029547
0.005280675 -0.01559379 0.06793581 -0.06639227 -0.064969935 0.047234073 0.008837137 0.11237895
0.1192455 -0.07833404 -0.06833203 0.010949838 -0.094310045 -0.11163761 -0.014045565 0.124301225
-0.026225723 0.15379806 0.10060142 0.010897881 -0.05868182 -0.05802754 0.011234169 -0.019829396
-0.108479746 -0.0414339 -0.041138936 0.064084224 0.06504675 0.06639554 0.124233 0.04108478
0.007249071 0.001037516 -0.04739384 0.06606411 0.11931905 -0.044430356 -0.0021643213 0.018565772
-0.07009333 0.020456174 -0.058527708 -0.087404236 0.060940806 0.12649237 -0.032474432 -0.045565706
0.06833692 0.105998576 0.004178897 -0.046436258 0.0896542 0.11215307 0.009107884 0.053628195

model.convs.0.1.convs.1.conv.bias f4 [32]
00000000: ee38 8abd ccc1 32bd faaf 3fbe 20ad 363d
00000010: 2ff8 bbbd b285 f43d d0f9 dfbc dcb6 373d
00000020: 096c 09be 8410 16bb 311a 6f3d 66aa 873d
00000030: d794 dc3d ed06 bc3c ec02 6fbd c421 273d
00000040: 0111 f2bd 71a7 8dbb 3643 9e3d 29c3 243d
00000050: a31f 5a3d 0282 05bd 0adf 833d d99d 62bd
00000060: 12b0 8d3d 323b c4bd 2b10 7bbc 5732 8dbd
00000070: 2682 4f3d 61ba aa3d 7984 1f3d 08b5 003e
-0.0674914 -0.04364185 -0.18719473 0.0445987 -0.09178197 0.11939563 -0.0273408 0.044852123
-0.13420118 -0.0022898028 0.058374587 0.06624298 0.107705764 0.022952521 -0.058352396 0.040803686
-0.118196495 -0.004322939 0.07727663 0.04022518 0.053252827 -0.03259469 0.06439026 -0.055326317
0.06918348 -0.09581603 -0.015323679 -0.06894367 0.05066123 0.0833633 0.038944695 0.12569058

model.convs.1.1.convs.0.conv.weight f4 [32, 32, 1, 2]
00000000: c4fd 0cbe d2b3 bb3d 2f00 e7bd 5a07 493c
00000010: c008 c0bd ba53 f6bd f474 aabd f3ef 0e3d
00000020: 43a2 123e 838c 413d 3e69 8abd be0d 543d
00000030: d164 293d 00a2 613d 94a2 213e 14ca 5abd
00000040: 4284 cabb e9da c03d d694 653c a2b7 27bd
00000050: de8e 133d fd4a 85bd 60ac fa3c 191b f2bd
00000060: f08d dfbd 2be6 9cbd a349 193d bbe6 603d
00000070: d25e e3bd 2093 9bbd b4f8 153c 50b4 febd
00000080: 6446 d23d a731 4b3d 1ab5 9cbd 9640 bfbc
00000090: 681a 90bd b246 d7bd eaa6 9e3d 3075 60bd
000000a0: b62d ce3d c2b6 9bbd d9c9 bc3d ab70 fa3d
000000b0: dcf7 fd3c fb4b 8e3d 0cba f43d c0c2 a7bd
000000c0: 4a77 08bd bdd0 543d 69b0 833c ef8f 3ebd
000000d0: aab1 f93d 7a0e 05be 22c8 223d 01d2 9dbd
000000e0: 5871 9c3d 23f7 9dbd 7ec8 f93b 7a74 e5bd
000000f0: c233 4ebd 4cc6 9d3c 92d0 14be 78cf 703d
00000100: 2093 a9bc 049c 9a3d 8887 fc3d 7fdc a9bd
00000110: b402 06be 28c0 303e 9475 203e 4de6 133e
00000120: 383e 8f3d e48c 923d fcd2 1f3e 2952 b33d
00000130: 6fdb 01be 4a10 68bd c441 e8bd d1f5 a93d
00000140: 3aa8 f8bd 4652 c93d e6e9 38bc 6b47 1dbe
00000150: 0140 58bd 1d8e c63d a271 5abe cd76 f93c
00000160: 5232 69bd f024 f73c c3c2 f13d a35c 943d
00000170: 5ed2 d9bc 0fca 6abd de05 73bd b776 d53d
00000180: 8655 20be b527 09bc 6efc 873d fe23 afbd
00000190: 9edd c5bd 3742 6dbd 5eba bcbd 2894 af3d
000001a0: 0a2b 8bbd 87e3 11bd 06b2 70bd 9c27 1c3e
000001b0: 0fe4 38be 2dd0 25be c7b4 b93e 7a46 093d
000001c0: 6347 4b3e e8fa da3d 6ad5 08be 2075 bd3d
000001d0: 6bf7 dbbc 11a6 b5bd 184b 023d af15 c33d
000001e0: 03dc ba3d 608c de3d 181b 24be 6ff3 593d
000001f0: cc3c 623d fc9d ccbd e321 26be 9eb6 e6bd
00000200: ae1f 243e 39ae ecbd 9a95 d23d 8c52 af3d
00000210: 485f 5abd a131 733d da5c 753c 92b6 0ebe
00000220: 738d 2ebd ee0e f6bd 4d73 13be c613 893d
00000230: 48a3 adbc 2b69 303d 8076 39be 7b8d 8d3d
00000240: 3f09 a53d 0581 b43c 64e4 4ebd 3044 023e
00000250: 3863 143c 8a10 dabd 8612 fc3d 8eb9 dfbd
00000260: a2b9 c8bd 75b9 9fbd 9bba dcbd 9690 ed3d
00000270: d1bf 803d 32a5 023e 3218 043d 1864 e3bd
00000280: f9b5 d13d d222 a73d 6ef8 b9bc 600d 9f3d
00000290: 8f9c b93d f638 10be 4d7e 843b ccdd 6e3d
000002a0: 6655 183c dadf 843d ee48 9bbd da5e c0bc
000002b0: 99f8 fb3d 75c8 b13d 9ccf 30bc 01ea fcbd
000002c0: fcb3 19be 7bd1 1239 bdef dbbd e0a7 df3d
000002d0: 2b91 2f3d fce3 b2bd cfbc 9f3d 4798 eebd
000002e0: c67c cf3d 7bb0 a83d f27c cf3c 6d70 8e3d
000002f0: 4a7b 0cbe 1530 2e3d bf53 0c3e bdf4 abbc
00000300: a5a0 cdbd 29b9 b73d 12ff e33d b424 e7bd
00000310: 2082 273d dc50 713d edcd febd 8d1f 983d
00000320: 2c75 58bd def7 64bd e036 be3d 270b ae3d
00000330: 6a3a 403d d89a 6bbd 92e2 acbd 738c c43d
00000340: 97d6 643d aa13 ab3b 6ada 153d ce90 cc3d
00000350: 9d4c 853d 31cb 91bc 7559 4f3d aaa4 c3bd
00000360: 8c77 b43d bb3c ab3d edc8 933c dcf5 5ebd
00000370: 34ac ac3d 6967 80bd 87d5 bebd 1d99 e03d
00000380: 44cc e8bc e6ce d0bd 5e47 413d 28d1 833d
00000390: 251c f2bd c83c f1bd f41e 8fbd 9738 01bb
000003a0: c9ba 21bd 4bde b3bd 1220 5b3d 8570 cebd
000003b0: 7dcf fbbc 9876 f3bd 3c1f b9bd 1403 e63d
000003c0: 205d 983d 4609 5b3d 6aec cf3d b0fd cbbd
000003d0: 321d edbd 6ad6 21bd 133d 973d 58b0 df3b
000003e0: e691 c5bd 5dbd f13d 8d0a 80bd dda7 6ebd
000003f0: 10c6 a33d 3378 993d 50d6 b9bd b6eb ebbd
-0.13768679 0.091651574 -0.11279332 0.012269819 -0.09376669 -0.12027688 -0.08323088 0.034896802
0.1431971 0.047253143 -0.067583546 0.051770918 0.04135591 0.055086136 0.15784675 -0.053415373
-0.006180317 0.09416754 0.014012536 -0.04094661 0.03602492 -0.065084435 0.030599773 -0.11821575
-0.10915744 -0.076610886 0.03742374 0.05490754 -0.1110207 -0.07596421 0.009153534 -0.12436736
0.10267332 0.0496079 -0.0765173 -0.023346227 -0.070362866 -0.10511531 0.0774668 -0.05479926
0.100673124 -0.07603218 0.09218187 0.12228521 0.031001978 0.06948086 0.11949548 -0.081914425
-0.033316888 0.05195688 0.01607533 -0.046523985 0.1219209 -0.12993804 0.039741643 -0.07706071
0.07638806 -0.07713153 0.0076227775 -0.11203857 -0.05034233 0.019259594 -0.14532688 0.058791608
-0.020700037 0.07549289 0.12330538 -0.082940094 -0.13086969 0.17260802 0.15669852 0.14443322
0.06994289 0.07155779 0.15607828 0.08755905 -0.12681364 -0.05665616 -0.11340669 0.08298839
-0.12141462 0.098301455 -0.0112862345 -0.15359275 -0.052795414 0.09695075 -0.2133241 0.030452156
-0.056932755 0.03016898 0.11804726 0.072442316 -0.026589569 -0.057321604 -0.059331767 0.10423034
-0.15657625 -0.008371283 0.06639944 -0.08551787 -0.09661411 -0.057924476 -0.09215234 0.085731804
-0.067953184 -0.035617378 -0.058763526 0.15249485 -0.18055747 -0.16192694 0.36270735 0.033514477
0.1985145 0.10692388 -0.13362661 0.092508554 -0.026851377 -0.08869565 0.031809896 0.0952562
0.09123995 0.10866618 -0.1602596 0.053210672 0.05523376 -0.09991071 -0.16223864 -0.112653
0.1602771 -0.11556668 0.102824405 0.085606664 -0.053313524 0.0593735 0.014975751 -0.13936833
-0.042615365 -0.12014566 -0.14399453 0.066932246 -0.021196023 0.043069046 -0.1811161 0.06911751
0.08058404 0.022034178 -0.05051078 0.12721324 0.009056859 -0.10647686 0.123082206 -0.109240636
-0.09801032 -0.07799045 -0.1077778 0.11599843 0.06286586 0.1275833 0.032249637 -0.11103076
0.10239787 0.08160938 -0.022701468 0.07766223 0.09063064 -0.14084229 0.0040433765 0.05831699
0.009297704 0.06488009 -0.075822696 -0.023482729 0.123032756 0.08680812 -0.010791685 -0.1234932
-0.15010065 0.00014001683 -0.10739086 0.109206915 0.042863052 -0.08734891 0.07799684 -0.11650138
0.101312205 0.08236786 0.025328133 0.06955037 -0.13718906 0.042526323 0.13703822 -0.020990724
-0.10040406 0.08970863 0.11132635 -0.112862974 0.04089558 0.058915004 -0.12441621 0.07427893
-0.05284612 -0.055900447 0.0928781 0.08498221 0.046930708 -0.057520717 -0.08441652 0.09597101
0.05586871 0.00522085 0.03658525 0.09988557 0.065087534 -0.017797085 0.050622422 -0.095528916
0.08811864 0.08361193 0.018040145 -0.05443369 0.08431283 -0.06269724 -0.09318071 0.10966704
-0.028417714 -0.10195713 0.0471872 0.06436378 -0.118217744 -0.11779171 -0.06988326 -0.0019717568
-0.039484773 -0.087826334 0.05349738 -0.10080055 -0.030738587 -0.11887854 -0.090391606 0.11231056
0.07439637 0.05347564 0.10152514 -0.099604964 -0.11577834 -0.03951112 0.07384696 0.0068264417
-0.096469685 0.11803696 -0.062520124 -0.058265556 0.07996762 0.07493629 -0.0907408 -0.11519568

model.convs.1.1.convs.0.conv.bias f4 [32]
00000000: c02f 043d 686c f1bd d785 f0bb ef99 5bbc
00000010: b625 0cbe 7451 b63c c08f 2f3d 5bec 75bc
00000020: 51aa e8bd 786d b3bd 36ac 19ba d8f9 2d3c
00000030: d3e5 3c3a 8d64 d93d c035 acbd 3b0f 523d
00000040: 17dd 07be 8b06 b9bb db77 0c3e bd22 5a3d
00000050: 4783 50be 2859 3e3d 404c ef3c 6122 0fbe
00000060: ef14 943d 96e2 833d 998e 92bc 4d0e 38bd
00000070: 65ad a1bd 7938 b63d 17a1 9f3d 5281 c6bc
0.0322721 -0.11788255 -0.0073401737 -0.0134034 -0.1368626 0.022255637 0.0428617 -0.015009965
-0.1136061 -0.08761114 -0.0005862148 0.010618649 0.00072058773 0.10614882 -0.084086895 0.051284056
-0.13267933 -0.005646532 0.13717596 0.053255785 -0.20362578 0.046471745 0.029211164 -0.13977958
0.07230555 0.06439702 -0.017890261 -0.044935513 -0.078944005 0.0889749 0.07794397 -0.024231587

model.convs.1.1.convs.1.conv.weight f4 [32, 32, 1, 2]
00000000: 81e3 40bb 8b7e e9bd 6c60 323d d639 ffbd
00000010: f453 adbd 2f73 ce3a 6b43 32bc a034 10bc
00000020: cb71 28bd 3aae 97bd 8afb d53d f933 1fbb
00000030: 14dc 47bd 50d1 033c 9810 b7bd 1e16 833d
00000040: 5c5a b0bd 3ca2 5bbd 17ad 983c 2040 6c3c
00000050: 419b f3bd c936 543d a416 19bd 5015 cc3c
00000060: 64bd 40bd 80f7 ad3d 5524 d9bd d622 ea3d
00000070: cd7b 983c 12a7 58bd 7219 b3bd f57a 403d
00000080: 00e2 f2bb c858 fcbd cae6 5c3c 76b1 a4bd
00000090: 66e1 99bd 5c17 4cbd 2d4a cd3d c937 07be
000000a0: 748b 1bbd 689c 0cbd 5425 b33d 80f0 1abd
000000b0: 1c4b 96bc 9bff eebd d854 6bbd 7813 cf3d
000000c0: 0932 783d dcf4 e83c 4e45 f63d 40b9 8a3c
000000d0: 2342 d83d f650 41bd a956 e7bd 2e8d b2bd
000000e0: b06f 5f3c 60bd 07bd f0c9 ea3d b0ab 04bd
000000f0: 8218 e7bd 444e d7bd ec1d 943d 8dd2 d1bc
00000100: a807 45bd 4fe4 3ebd c13f 3fbe b402 acbe
00000110: a3d6 84bd a105 a2bd 19e8 ad3d 0bae 11be
00000120: c11c 98bd ea76 00be e487 83bd dfec 803d
00000130: 0604 1bbd aedf 9cbc b70e 923d 66f5 9e3d
00000140: 4580 473d d6cb a9bd c37b 863d 3de7 e8bd
00000150: 434a 903d bd69 11bd 9a7d bb3d 4d3b 25bd
00000160: 0094 423d 83e7 99bd 1e9a e2bd d4a8 193d
00000170: af27 86bb ac8d debd 2376 12be 88e5 373d
00000180: 8be4 de3c f432 b2bd 61a1 c8bb 8044 ce3d
00000190: e5e6 69bc 78fa 083e 9367 d13d 171c 90bd
000001a0: f308 72be 7437 f93b 33a2 babd 7e9f 92bd
000001b0: 9a7a a53c aa79 a4bd dd2f 703d 7308 c7bd
000001c0: 87b4 2dbe 7154 61bd 5f8a 62bd 8ae9 0d3d
000001d0: 32c7 c93c a3ed fc3d f518 4b3c 9170 8f3c
000001e0: 45ba b63d cb07 273d e1f9 b9bd 1c78 683d
000001f0: 3a12 3d3d c050 853d 0e95 823c 2554 423d
00000200: c14c d93d 857f 583d 34bd 693e cd7d 183e
00000210: 1d91 f5bd 6ca8 7a3b 9c78 80ba c7cd 13bd
00000220: dc90 36be 5cc4 be3b f1fc 86bd 6534 603d
00000230: e1cf 03be dbe9 64bc c6e1 47bd 3e1e 073e
00000240: c10f febd 7951 01be 6615 5dbc 9bc2 353d
00000250: d2b1 8cbd b411 8abb 0d04 7dbd f8e7 1b3e
00000260: 2341 72bc 08cc 0c3d 4485 883d eb34 593d
00000270: e7bc a0bd 7ae9 b0bd 1a70 183e e6c2 7ebd
00000280: d08f 0ebe 3966 c1bd 7c0b b4bd 7317 243e
00000290: 9953 6c3d fe8f 0a3e 9cfc f03d 9f48 02bc
000002a0: 1c9d 8bbd 4ab4 a43d dc62 503e 425b cd3d
000002b0: 39ad 21bd 042d 5ebd fb1d 7d3d 4e1d 8abd
000002c0: 5e79 2c3d e504 7ebd a064 50bc 830b 2d3e
000002d0: 9f91 6d3e 2d61 93be 65d0 623d d474 063e
000002e0: 0e37 29be b660 77be aee3 e63c e3f8 0d3e
000002f0: b71f bbbd 2c13 ab3b 02aa bfbe 502d 0dbd
00000300: e27e 743c 920e fabc 315a af3c 195e 353c
00000310: b374 923d 12aa 08be 3a9d 573d 26df 7ebd
00000320: e3ea 1a3a e405 e33d 9fb2 da3d 13ec 5ebd
00000330: cb04 c9bd b1e1 76bd 8e45 16bd 9c2e 0abd
00000340: 203f 703e fb41 bb3d b701 f2bd 54b4 443d
00000350: f344 49bc 15cc 983d cd62 98bc 6cae b0bc
00000360: 20bd a8b6 a10c 17be 4017 f83c cd42 cc3d
00000370: d59f 8dbb 0e82 f2bd 4483 7d3d e266 ba3d
00000380: a5ef 843d 2eee f1bd 85c7 083d 4273 01be
00000390: 4fa5 17bd 3d34 7e3b 1cab 923d bc7b c63d
000003a0: f295 35bd 6ff1 8abb 448e 54be 9532 32bd
000003b0: e2e5 12be 392a 19be d6d4 ccbd 466d 673c
000003c0: 4ed2 9dbd 5bee 00be c232 583d c84e 39bd
000003d0: 20c5 883e 6638 0b3d d9fa febc 8217 003c
000003e0: 5dc4 ccbd 640d d53d 8e75 54bd 23c3 72bd
000003f0: 2f6b 04be a766 f5bd 4bfc 93bc bfc0 da3d
-0.0029432478 -0.11401089 0.043548986 -0.12462203 -0.084632784 0.001575088 -0.0108803315 -0.008801609
-0.041124146 -0.07406278 0.10448368 -0.0024292453 -0.048793867 0.008045509 -0.08938712 0.06400703
-0.08610985 -0.053621516 0.018637223 0.0144195855 -0.11894847 0.05181006 -0.037375107 0.024912506
-0.047055617 0.084944725 -0.10602633 0.11432426 0.01861372 -0.052893706 -0.08745088 0.04699226
-0.007412195 -0.12321621 0.013482759 -0.080416605 -0.075136945 -0.049826965 0.100239135 -0.13204874
-0.03797479 -0.034328848 0.08747354 -0.037827015 -0.018346362 -0.116698466 -0.05745396 0.10111135
0.060594592 0.02843707 0.120249376 0.016934037 0.105594896 -0.04719635 -0.11295826 -0.08718334
0.013637468 -0.033139586 0.11464298 -0.032390296 -0.11283971 -0.10512975 0.0723227 -0.025613094
-0.048103005 -0.04660445 -0.18676664 -0.33595812 -0.06486251 -0.0791123 0.08491535 -0.14226548
-0.07427359 -0.12545362 -0.064224035 0.062951796 -0.037845634 -0.019149628 0.07131713 0.0776165
0.04870631 -0.08290832 0.065665744 -0.1137223 0.07045414 -0.03550123 0.09154816 -0.040339757
0.047504425 -0.075148605 -0.11064552 0.037514523 -0.004094086 -0.108668655 -0.14302878 0.044896632
0.027208587 -0.08701125 -0.0061227535 0.10071659 -0.014276241 0.13376796 0.10224833 -0.07036608
-0.23636226 0.0076054875 -0.09112968 -0.07159327 0.020200063 -0.08031018 0.058639396 -0.097184084
-0.16963397 -0.05501217 -0.055307742 0.03464655 0.024631117 0.12350013 0.012396087 0.01750973
0.08922247 0.040778916 -0.09080864 0.05675517 0.04615996 0.065095425 0.015940215 0.047443528
0.10610343 0.052855987 0.22826082 0.14891739 -0.11990569 0.003824736 -0.0009801569 -0.036084916
-0.17828697 0.0058217477 -0.065912135 0.054737467 -0.12872268 -0.013971771 -0.0487993 0.1319513
-0.124053486 -0.12628736 -0.013493871 0.044375043 -0.06869854 -0.004213536 -0.06177144 0.15225208
-0.014786038 0.034374267 0.066660434 0.053028982 -0.0784853 -0.08638282 0.14886513 -0.06219759
-0.13922048 -0.094433255 -0.08791253 0.1602457 0.057696912 0.13531491 0.117669314 -0.0079518845
-0.068170756 0.080422 0.20350212 0.10027172 -0.03947184 -0.05424215 0.06179617 -0.06743871
0.042107932 -0.062016387 -0.012719303 0.16898923 0.23200081 -0.28785077 0.05537452 0.13130504
-0.16524908 -0.24157986 0.028184738 0.13864474 -0.091369085 0.0052207913 -0.37434393 -0.03446704
0.014922829 -0.030524526 0.021405311 0.011069798 0.07151165 -0.13346127 0.052640177 -0.06222453
0.00059096346 0.11085108 0.106786005 -0.054424357 -0.09815367 -0.06027383 -0.036687426 -0.033735856
0.2346158 0.09143444 -0.11816733 0.048023537 -0.012284505 0.074608006 -0.0186018 -0.021567546
-5.028807e-06 -0.14750911 0.030284524 0.09973679 -0.004322032 -0.11841212 0.061892763 0.091016546
0.06491021 -0.11813007 0.0333934 -0.12641624 -0.037022885 0.003878846 0.07161543 0.09691569
-0.044332452 -0.004240207 -0.20757395 -0.04350527 -0.14345506 -0.14957513 -0.10001533 0.014125174
-0.07706128 -0.12590925 0.05278278 -0.045241147 0.26712894 0.033989333 -0.031125473 0.007818105
-0.09998391 0.10402945 -0.05186992 -0.059268128 -0.12931512 -0.1198247 -0.018064639 0.10681295

model.convs.1.1.convs.1.conv.bias f4 [32]
00000000: 7488 d3bd 2e7d d9bd 8870 883d 3111 cc3d
00000010: b46a a2bd 3ab5 97bd 6878 95bd 1218 4c3d
00000020: 9688 003d e4c7 fc3c cc89 debd c6ff fc3d
00000030: bdc6 3fbd e3aa 37bd a910 9a3d b07d cd3d
00000040: c05d 10be 7e26 d03d 29ae 153d b177 67bd
00000050: 99fc 043e dd1d 83bd 0201 d33d 7d58 e2bd
00000060: a8e6 5c3d 6459 5a3d 3db8 833d 31f5 90bd
00000070: 2160 45bd 3fef 80bc 6a12 a9bd 4610 713c
-0.10328761 -0.10619579 0.06662089 0.099642165 -0.07930508 -0.07407613 -0.07298356 0.049827643
0.03138026 0.030857034 -0.108661264 0.123534724 -0.04682039 -0.044840705 0.07522709 0.100337386
-0.14098263 0.10163592 0.036543045 -0.05651063 0.12986983 -0.0640218 0.103029266 -0.11052034
0.05393091 0.053307906 0.06431625 -0.070780165 -0.04818738 -0.015739081 -0.08255465 0.014713353

model.convs.2.1.convs.0.conv.weight f4 [32, 32, 1, 2]
00000000: 97fa 91bd 6d8c 9a3d 345f 253e acee 9f3d
00000010: 087d ea3c 81c8 96bc 08dc 693e 3aea 093e
00000020: 1456 4b3a 0642 f33d 1c2a 88bd e958 ca3d
00000030: 6152 473c 3fc7 c6bd 2f78 ee3d 6d6e 013c
00000040: b150 dbbc ac88 e3bd 0fe1 59bc 96a4 f6bc
00000050: 79b8 163e 1fa2 333d 5b7a 0139 ba8b dfbb
00000060: f125 dfbc 2b5f 163d d316 1cbe 5ee5 60bd
00000070: 4fd6 c4bd 3c1a 9dbd 9abe 53be bba8 f2bd
00000080: dabd c1bd 1163 753d c396 9abd eac7 573d
00000090: 24a3 373e 7dac 17bd fb48 f23d e82a c5bd
000000a0: 7157 88bc d340 933c 63ae 8e3e 242b 7e3e
000000b0: 153e c9bd 4dec e3bd dde1 ddbd 71ef 133e
000000c0: 8bb7 97bd a56e ee3d 7254 0bbc 4e91 53bd
000000d0: feee c23c 6f3d e03c c812 eebc 8b2b 91bd
000000e0: 2918 0ebd 95ef ea3c a41d 1dbd 60c5 05bd
000000f0: 5579 583c 4872 583c ccdb 88bd 69e7 e7bb
00000100: c4bf 8ebd 3320 823c 1a2c ad3c bd8c 95bd
00000110: 8284 f33c 1ec7 8b3d 0a97 d1bd d974 f23c
00000120: 54a8 81bd 26b3 a1bd b442 183d 7502 5fbc
00000130: 02b7 c6bc 89ef c1bc 4b11 a73d 53bf 93bc
00000140: 9f42 aabd 9481 f53d a132 243d 9fde d93d
00000150: e91f 23bd af5c 663d b22f d4bc 31f9 99bd
00000160: 2573 8ebc c497 c73d fac4 083d 0136 c1bd
00000170: 7ec6 593d f855 903c dd95 67be cda5 0d3d
00000180: 2e4e 613d 4f14 b3bd a880 f4bd b72f a8bc
00000190: bf6c a8bd 222a babd aa92 c9bd bc75 f9bc
000001a0: b1ad 55ba 9e71 953d 02f8 e43d 7a91 bcbb
000001b0: 3acf 01be d1cd 9c3d 7ef7 e73c 9952 bd3d
000001c0: 2d6f 413e d7cd b33d fe43 f33d 8661 343d
000001d0: 6594 b43d 62e0 ca3d 9138 d0bd 5a58 893d
000001e0: 991d 10be 40c3 01bd ab39 9f3d a630 a3bd
000001f0: 4a2f a33d aefd 3dbc 1048 c4bd d1d8 c4bd
00000200: a583 eabd 0cc7 3abd 3b65 babd 7f69 a8bd
00000210: f0b6 90be c28d a03d 0c98 b3bc 3dde 2abd
00000220: c9b4 f3bc 1325 c6bd db27 e53d 3679 c83d
00000230: c646 e83d 6af6 f0bc 1ef2 d8bd a6ce 7bbc
00000240: a5a3 063e 21b9 f13c f6c7 ae3b cdaf 43bd
00000250: 2f0c 54bd d419 4dbd 116d 1c3e 59b1 aa3d
00000260: d101 cebd 49f2 edbc 98c0 37bd fa1d be3d
00000270: c1be 8cbd cba3 dbbd d4f1 a43e 5b3e 003d
00000280: fbb6 e13d 7d2b 063d 5533 92bc eafc 9bbd
00000290: 51ee d93d 207e 1ebe e233 0e3d 4294 17bc
000002a0: 5c70 94bc 1e2c dc3b 122f 89bb 5f84 41bd
000002b0: 0ea4 0a3e ea01 e03c 8d30 8c3d 4e70 833d
000002c0: 7e89 55be 91b0 c8bc f635 0b3e 367f 153d
000002d0: e40d 27be f831 ac3d 1122 213c b539 e0bd
000002e0: 9240 203e 91e1 053c cb26 533d 3a36 933b
000002f0: bf5f 9a3c be6b fc3d ee9a f0bc 1c22 b93d
00000300: 59af 433d 7e63 a43d af80 883d d0f6 b43d
00000310: f28c 95bd 2c55 303d 6978 913c fcbd 1f3d
00000320: ebae ac3d 0a4e 58bd c9f8 8e3d d4ff a7bb
00000330: 56d6 bd3d e3fc a63d f7a3 c23d 92de 343d
00000340: c285 a13d cca2 54bc 6a19 f33d 399c 00bd
00000350: d401 8dbd a21f 9d3c 088a a6bd 7e34 4d3d
00000360: 9466 8f3c f9e6 9f3d cf0f 023d c5ba 7f3d
00000370: 0f7f 21be d12b b9bd 44d9 f53d 4088 d7bd
00000380: dc9d f0bd 1ce9 16bd c27c b23d 3e3e 8bbd
00000390: 5215 043e 755c 89bd 8167 153e e89a 183e
000003a0: 949d 023e 0ce0 823d ef1f dc3d 6523 9ebd
000003b0: 422c a9bd 6a99 f73c 20bf 7bbd cc18 edbc
000003c0: c5f7 163d 7138 32bd d819 093d 76d8 e3bc
000003d0: 06c8 dcbd 9651 863d 6c05 e5bd 7e08 e5bd
000003e0: d473 b83c c020 353d 6552 4f3d d360 983d
000003f0: 2a3c b7bd 487f 9fbd f1fa 89bc dc4b ad3d
-0.07127874 0.07546315 0.16149598 0.07809195 0.028624073 -0.018406155 0.22837842 0.13468257
0.0007756662 0.11877827 -0.06648657 0.098802395 0.012165637 -0.09705972 0.11644017 0.007899863
-0.026771875 -0.111100525 -0.013298287 -0.030107778 0.14718808 0.043855783 0.0001234798 -0.0068220766
-0.027239772 0.036711853 -0.15243082 -0.05490624 -0.096111886 -0.076710194 -0.20678177 -0.11848589
-0.094600394 0.05990893 -0.07548287 0.052680887 0.17933327 -0.037029732 0.11830326 -0.09627324
-0.016643258 0.017975247 0.27867422 0.24821144 -0.09826294 -0.11129055 -0.108340956 0.14446808
-0.07408055 0.116421975 -0.00850402 -0.051652245 0.023795601 0.027373044 -0.02906169 -0.07088383
-0.03469101 0.028678695 -0.038358346 -0.032658935 0.013212522 0.0132108405 -0.06682548 -0.007077147
-0.0697017 0.015884494 0.021139193 -0.07302234 0.02972627 0.06825088 -0.102338865 0.029596733
-0.06330934 -0.07895498 0.037172988 -0.013611426 -0.024257187 -0.02367379 0.08157595 -0.018035566
-0.08313488 0.11987606 0.040087346 0.10638165 -0.039825354 0.056240734 -0.02590165 -0.075182326
-0.01738889 0.09745744 0.033390976 -0.094341286 0.053167813 0.017619118 -0.22615762 0.034581948
0.0550062 -0.08744108 -0.11938602 -0.020530565 -0.08223867 -0.090900674 -0.09842427 -0.030451648
-0.0008151187 0.072970614 0.11180116 -0.005754647 -0.12676707 0.07656444 0.028316256 0.0924427
0.18890066 0.08779495 0.11878203 0.044038318 0.088173665 0.09906079 -0.10167039 0.06706305
-0.1407379 -0.031680346 0.07774671 -0.07968263 0.07968004 -0.0115961265 -0.09584057 -0.09611667
-0.114508905 -0.045599982 -0.091013394 -0.08223247 -0.2826457 0.07839538 -0.021923088 -0.04171585
-0.029749291 -0.0967504 0.111892425 0.09788744 0.11341624 -0.029414374 -0.10593055 -0.015369093
0.13148363 0.029507222 0.005333896 -0.04777508 -0.05176943 -0.05007346 0.1527598 0.08334608
-0.1005894 -0.029046195 -0.044861406 0.09283061 -0.06872321 -0.107246004 0.3221575 0.031309467
0.11021229 0.032756317 -0.017846743 -0.07616599 0.10641158 -0.154778 0.034717448 -0.009251656
-0.018119983 0.0067191264 -0.0041865194 -0.04724538 0.13539144 0.027344663 0.06845198 0.06417905
-0.2085323 -0.024498256 0.13594803 0.03649827 -0.16313893 0.08407968 0.009834782 -0.10948507
0.15649632 0.008171455 0.051550668 0.0044925483 0.018844483 0.12325238 -0.029370751 0.09039709
0.047774646 0.08026789 0.066651694 0.08836138 -0.07302274 0.043049976 0.017757611 0.038999543
0.084318005 -0.0528088 0.06981046 -0.0051269326 0.09269397 0.08153703 0.0950393 0.044157572
0.078868404 -0.012978267 0.11870082 -0.031398986 -0.06885114 0.019180123 -0.08131796 0.05009889
0.017504968 0.078077264 0.031753357 0.062433977 -0.15771125 -0.090415604 0.12004331 -0.105240345
-0.11748859 -0.036843404 0.08715202 -0.06798981 0.12898758 -0.06707088 0.14590265 0.14902842
0.12755424 0.0639039 0.10748278 -0.07721595 -0.08260395 0.03022452 -0.061461568 -0.028942488
0.036857385 -0.043510858 0.033471912 -0.027813178 -0.10780339 0.0655853 -0.11182675 -0.111832604
0.022516169 0.044220686 0.050615687 0.07440343 -0.08947022 -0.07787949 -0.016843291 0.08461735

model.convs.2.1.convs.0.conv.bias f4 [32]
00000000: 04f4 19bd a6ec 0e3d ee3a 973d e3c9 353d
00000010: 82dc bbbd ea81 cd3d 2aea 0d3b 0727 6a3d
00000020: fdfc c5bd d9ec d3bd beed b1bd 0b31 7b3d
00000030: 97a1 533c 4990 81bd 45c3 ca3c 066d 393d
00000040: 1650 41bd 0a8f 663d bcb7 863d eb64 183d
00000050: 61ab 78bd 5ec6 bcbd abc5 e0bd 397d c93d
00000060: 5f5e a23b b5ca be3d 137d 8b3c 57af 0f3d
00000070: 5a4b bf3d 8dca 8d3d 71ee 163d ca7e 3e3d
-0.037586227 0.034893654 0.07384287 0.044381987 -0.09172918 0.10034545 0.0021654465 0.057166126
-0.09667394 -0.103479095 -0.08687924 0.061326068 0.012916944 -0.06326348 0.024751315 0.04526999
-0.047195517 0.056288756 0.06578013 0.037205618 -0.060710315 -0.09217523 -0.10975202 0.098383375
0.0049550976 0.09316007 0.017027413 0.035079326 0.09340544 0.06923399 0.03684849 0.046507634

model.convs.2.1.convs.1.conv.weight f4 [32, 32, 1, 2]
00000000: 1364 a03c 6268 eebd 245c 4dbd 4f0b ba3d
00000010: 030a a33d 1f81 cebd 43e5 f5bd c206 7bbd
00000020: 3a7b 333e 7a8f 893d bff7 4e3c 61e8 113e
00000030: 85b4 e63c afe1 643d 935d 38be 708e 78bd
00000040: 5a41 bbbd 08b8 fb3d 8550 923c 765f 68bd
00000050: 44fa af3d 513d e83d fc26 1b3d 8b3d b13a
00000060: 9c92 443d 9972 fcbc d291 013d 9c13 6e3c
00000070: 7add cf3d cee8 613d 20d3 d1bd 4995 30bd
00000080: c44d 19be e2b9 10be 0a9e 3ebd 8396 01bd
00000090: 7b9c bfbd e80d 533d 0371 9d3d f5f6 1d3d
000000a0: 7087 6dbd 75d8 f7bc 76b5 aabc f7bd fdbc
000000b0: 8ee5 a03d 01bd 9bbc ddc8 a13d e221 c73d
000000c0: ba29 fe3d 036f aabd 9ecf 5fbd 1261 903d
000000d0: 62fb 15bd d465 72bd 2d3c 293d c1f3 af3d
000000e0: 2e5b 86bd 117d a13d b495 cfbd 968b b3bd
000000f0: 4d24 223d 1d93 613d a32d e23d a1f4 c83d
00000100: ca18 f6bd ff7f a9bd 8271 eb3c 5a4e 213d
00000110: 583a 973d e1ad b1bd 56f2 9a3c 6bc4 903d
00000120: bc9c 9ebe bfd3 0dbe ee51 c73d 7be7 d03b
00000130: 665d 15be 3021 09be 5369 163e 76ea 1dbd
00000140: 8749 27bd 4f0b 193e 7a7b a8bd b681 0f3d
00000150: a977 40bd 71b1 a1bd b76d bb3d 288d e53d
00000160: 6e8c 52be 7d76 0bbe 1ec0 933d 8823 af3d
00000170: 9a58 efbd e30d 683d 733c babd cb24 1dbd
00000180: 2f06 d83d 0248 ac3d 3c6a e93d 48b2 7ebc
00000190: 582c 0a3d 64d1 173d 7f71 6dbe d37c 83be
000001a0: adce 5b3d 5025 d93d ad79 083e 1836 193e
000001b0: 4ad0 ed3d 4d19 2ebd b093 9d3d 0293 923c
000001c0: ed6d 3bbe b7be 12bd 4c75 6b3e 536e 423e
000001d0: 94b4 84bd 1fdf 79bd e190 a9bd 1f65 d8bc
000001e0: 03f6 15bc 6541 f93d a42f ef3d df24 0f3e
000001f0: ff21 2ebd f1f9 11be d868 c43c cc3f 813d
00000200: c2e6 c03c 242d 46bd 6fa5 2d3e bf06 8dbc
00000210: 19a5 99bd 0922 053e 56b5 13be a851 1f3e
00000220: c756 1a3e 001f 503e 1173 ca3d 21bb 153e
00000230: 48c4 8d3d 795e ac3a b8d0 27be c838 f53d
00000240: b25f 18be 6246 67bd abf5 473c 22ba 7a3b
00000250: 0882 27bd def8 45bd d783 9e3d 1bbc 31bd
00000260: 3d77 353e e7b7 e93d 73b2 2d3d 2a92 e83d
00000270: c3da 133e 77af 89bc db80 47bb deca fd3d
00000280: 48c1 f9bd 0982 debd f5e8 14be 12e0 0f3e
00000290: a703 ecbc 5971 013d 67be 293e 3ecb 103e
000002a0: 03c4 f9bd 6a0e 2cbd 6834 213c e775 85bd
000002b0: 8d83 3d3d 05a7 aebd cd2a 3f3d 5de1 bd3d
000002c0: 15a5 8cbc 0a50 c1bd b4ac 41bd 6d41 dfbd
000002d0: 1339 323d 47f4 a13d 8625 d3bc f831 3d3d
000002e0: ffac c23c 8aa9 8ebd 8fbf 28bd a36b 243d
000002f0: 5817 323d 2503 3a3e f393 2c39 b57e 1dbe
00000300: 9887 4dbd 62cf 0e3e 2011 89bd b657 e9bd
00000310: 4550 b2bc d49b 823d 7ee5 9abc c412 203d
00000320: 3532 043e e0dd d23e d57f c73d 9e6e f33d
00000330: 13bf e03d b81c c73d 0be8 4dbd a524 593d
00000340: bf13 b63d 865d 053e d0d4 01bd acb3 53be
00000350: d859 debc a62d 853d c811 0fbd 65c5 d1bd
00000360: edf8 a73d df41 76bc befe 933d 47fe b83b
00000370: 945e 3fbd 5cd0 30bd bcfe 0e3d ba4e 683d
00000380: 10ea 97bd a7be 6abc d1b2 9fbd 037e 82bd
00000390: e75b 64bd 4ea3 813c de53 963d 4f46 0b3f
000003a0: b160 3fbd 2739 9d3c fd7a 87bd 678b 83bd
000003b0: 2c5a 33bd 3690 d1bc 82d0 70bd 3efc 48bd
000003c0: b231 b8bb b83e 863d c4a5 b9ba a887 51be
000003d0: 8bc1 a1bd 7d6e 1239 cebf a23c 9b25 993c
000003e0: aec0 1e3d 1188 d93d 4235 d83d 3498 853d
000003f0: f5e2 a93c 60d5 943d 054a 9e3c 3c73 b5bc
0.01957897 -0.11641003 -0.0501367 0.09084188 0.07960894 -0.10083222 -0.12006619 -0.06128574
0.17527476 0.06716819 0.012632309 0.14248802 0.02816225 0.05587929 -0.18004446 -0.060682714
-0.09143324 0.122909606 0.01786066 -0.056731664 0.08592656 0.1133982 0.037878975 0.001352237
0.04799138 -0.030816363 0.031633206 0.014531042 0.10149665 0.05515366 -0.10245347 -0.04311112
-0.14971071 -0.14133409 -0.046537437 -0.03163768 -0.09356018 0.051526934 0.07687571 0.038565595
-0.05799049 -0.030254582 -0.02083848 -0.030974371 0.07856284 -0.019011023 0.0789964 0.097232595
0.124103025 -0.08321955 -0.05464136 0.07049765 -0.03661669 -0.059179142 0.041317154 0.08591414
-0.0656036 0.07885183 -0.101359755 -0.08766858 0.0395854 0.05507194 0.11043861 0.09812284
-0.12016447 -0.082763664 0.028740648 0.039381362 0.07384175 -0.08675743 0.018914383 0.07068714
-0.30978954 -0.13850306 0.09732424 0.006375251 -0.1458641 -0.13391566 0.14688616 -0.038553677
-0.040841606 0.1494572 -0.08226676 0.03503581 -0.046989117 -0.078951724 0.09151786 0.11208564
-0.20561382 -0.13619418 0.07214378 0.08551699 -0.11686821 0.05665387 -0.09093561 -0.038365167
0.105480544 0.08412172 0.11397216 -0.015545435 0.033733696 0.037064925 -0.23187827 -0.2568117
0.0536639 0.1060282 0.13327666 0.14962041 0.116119936 -0.042504597 0.07694185 0.017892364
-0.18303652 -0.03582641 0.22993964 0.18987398 -0.06479755 -0.0610038 -0.082795866 -0.026415406
-0.009152892 0.12170676 0.116790086 0.13978909 -0.04251289 -0.14255501 0.023975775 0.063109964
0.023547534 -0.048382893 0.16957639 -0.01721513 -0.07502193 0.13001265 -0.14424643 0.15558493
0.15072165 0.20324326 0.098852284 0.14622165 0.06922203 0.0013150714 -0.16388214 0.11973721
-0.14880255 -0.056463607 0.012204568 0.0038257916 -0.04089549 -0.04833304 0.0773999 -0.043392282
0.17721267 0.1141203 0.04240651 0.113560036 0.1443892 -0.016807301 -0.0030441794 0.123922095
-0.121950686 -0.10864646 -0.14541991 0.1405032 -0.028810335 0.031602237 0.16576539 0.1414003
-0.121955894 -0.042005934 0.009839155 -0.06516629 0.046268035 -0.0852795 0.046671677 0.092715
-0.017168561 -0.09439094 -0.047283843 -0.10901151 0.04351146 0.0790792 -0.025774729 0.046190232
0.023764132 -0.06965931 -0.04119831 0.040141713 0.043479294 0.18165262 0.00016458314 -0.15380366
-0.05017814 0.13946298 -0.066927195 -0.11393683 -0.021766791 0.06377378 -0.018908259 0.039080396
0.12909777 0.41184902 0.09741179 0.11886333 0.109739445 0.097222745 -0.05027012 0.053013463
0.08890485 0.13023958 -0.031697094 -0.20674008 -0.02714245 0.065028474 -0.034929067 -0.10242728
0.08201776 -0.015030353 0.072263226 0.0056455466 -0.046721056 -0.043167457 0.034910902 0.056715705
-0.07417691 -0.014327682 -0.077977784 -0.06371691 -0.055751707 0.01582494 0.07340215 0.5440416
-0.04672307 0.019192291 -0.06615255 -0.06423073 -0.043787166 -0.02558146 -0.0587926 -0.049068682
-0.0056211585 0.065549314 -0.0014163782 -0.20461905 -0.078982435 0.00013964805 0.01986685 0.01869469
0.038757972 0.10621656 0.10557033 0.06523171 0.020738104 0.072672606 0.019322405 -0.022149675

model.convs.2.1.convs.1.conv.bias f4 [32]
00000000: 1686 8ebd 292e efbd 3bad d73d 8d51 c4bd
00000010: 5281 6e3d c8f7 51bc f1d6 633b c5dc 733d
00000020: 1394 b03d 7a5a 1bbd 41d1 b5bc 3be9 7cbd
00000030: cfab c7bd fb97 58bd 15ae f43d f389 8bbb
00000040: 99e8 7a3d 6717 6d3c e3f8 9ebd 79e9 033e
00000050: 87c4 9fbd 7593 c1bd 1f26 a83c 374f b7bc
00000060: bc5c b13c 4e34 97bd 317d f73d 00db 8b3c
00000070: f357 e6bc 195b 823d 9ef3 6f3d 44b4 33bd
-0.069591686 -0.11678726 0.10531088 -0.09585867 0.0582288 -0.012815423 0.0034765566 0.059536714
0.08621993 -0.037928082 -0.022194507 -0.061745863 -0.09749567 -0.052879315 0.11947266 -0.004258388
0.06125698 0.014470912 -0.07762315 0.12882032 -0.078011565 -0.09451953 0.02052599 -0.02237664
0.021650665 -0.07383023 0.12084425 0.0170722 -0.02811811 0.06365032 0.05858194 -0.043873087

model.convs.3.1.convs.0.conv.weight f4 [32, 32, 1, 2]
00000000: 85d0 193d 82d0 203d d43f dfbc ad61 67bc
00000010: 373d 213e 594e dd3d e007 223d 42de 143e
00000020: 764c 883d 4066 c7bb 0f57 4cbc 8ad8 f33d
00000030: f022 dabc 8d41 01bd 2404 8abd a25f 98bd
00000040: 76c2 d93d ed3b afbb 74ad 02be f302 12bd
00000050: 33bf 833d 9637 0a3e 2344 5b3d f051 a93d
00000060: 72a0 f13d db24 2b3d f266 863d 9267 3a3d
00000070: 5d2b 0d3d b39f 07bd 73df 92be 5439 5dbe
00000080: 4530 803d 3843 3c3d 5b19 c03b 3f5b 503d
00000090: 0186 083e cd78 133c ff1e 303d 330b 9b3c
000000a0: b78d 79bd 6e38 dcbd d740 0a3d ab8a 513e
000000b0: dcef 0ebe b6f0 123d e888 64be da9a 96bd
000000c0: e20a 36bd 0480 1c3d 2162 8c3d abaf 833d
000000d0: 924a 83bd e9ed 853d f47c 073e 770a 77bd
000000e0: 80c3 d6bc 3734 9d3d 9f93 f4bd a805 17be
000000f0: f407 833d a63c 333d 0528 e7bd 0c61 1bbc
00000100: 33b8 19be affc 5fbd 64b8 20bc 58bc 303d
00000110: 673c 02be 0984 ed3d 5968 f6bd 6494 b4bd
00000120: 0008 6f3d 5450 9cbd c9b4 66bb 0128 d5bd
00000130: d8d3 bdbd 57e7 d83d 0946 bd3d e031 ccbd
00000140: 791e 5e3b 486d af3d d231 de3d f856 4cbd
00000150: 37f6 d4bd 4850 d2bb c466 7b3d 8d64 e9bb
00000160: 2f8f ccbd 41cb 9ebd 9215 bfbd 2542 d5bd
00000170: 68cc f8bd ab32 20bd 0f5c fa3d 3906 363d
00000180: 45ee 85bd fc08 463d d406 8b3d de02 9f3d
00000190: 4d1d d23d 29df 81bb cbb9 9ebd c25a c83d
000001a0: 2a71 7d3d 9a2c bfbc 4ec0 c5bd 3d13 803d
000001b0: 5865 e03d eb69 c0bd 9ac8 3a3e 2d5e 14be
000001c0: 13b1 813c d38b f73c ece9 fa3c c5b3 9fbb
000001d0: b0af b73c 6eb6 61bd b517 1b3d 1ee5 3cbd
000001e0: 80a6 283d fc1e 5abd 5688 053d 4406 cdbd
000001f0: 4d1f cfbd be83 663c 3791 92bd ecf4 973d
00000200: a0c3 1abd 650a e6bc c6a9 5d3d fdb5 dabc
00000210: 6015 0d3e b2f7 de3c 385b c9bd ebf0 5a3c
00000220: c5d2 29bc d0e2 50bd eab5 cebd 12f7 173d
00000230: 4d3b e1bd ee9d 74bb 90e4 2e3d a69c 3d3d
00000240: 32e9 fcbc 9dc1 b5bd 3930 ebbc 499a edbd
00000250: b4b2 cebd 1129 583c e034 48bc baaf 3a3c
00000260: 3b43 10bd c706 98bd 719e 1bbc 091e db3d
00000270: 9732 d63d ddd6 853d 619d 48be f8fa 83bd
00000280: 4762 adbc ea6f a23d 3869 e03d 451f 023e
00000290: 5521 18bd d574 29bd 7784 43bd 251b a13c
000002a0: 1457 373c 4af4 5e3d fbaa 1e3e 46cc d53c
000002b0: 1c72 0d3d 65cd f73b f253 e13c c7d8 abbd
000002c0: f694 f63d 584c de3d a8bb 3c3d d7df 5fbd
000002d0: 7936 82bd b04c 60bd 7e4b 993d 37e3 2abd
000002e0: 5bc4 b0bd a9c7 7bbd 292f 963d 3703 993c
000002f0: 6ca5 a03d e1c3 ca3d ed8c b4bd f28a b13d
00000300: d192 353c d01d 5ebe c5b0 99bd 0d93 cb3c
00000310: 953f 823d 72b3 e1bd f8a2 4dbd 159a c8bc
00000320: e91f 3fbd ffd6 e7bc f4a4 b63d ee4a 8d3c
00000330: ed6f 383d b1cc 7f3d ef91 f33c 1ae6 4a3d
00000340: 835a d93d 9a96 c4bd 86f2 93bc c182 92bd
00000350: 9918 a13d 3b05 023e e203 85bd 4ebf 23bd
00000360: 20bc bf3d dfa2 f63d 8737 d43d eecc 13be
00000370: 6c49 acbd 46ab fbbd 4c05 a0bd 0462 e63c
00000380: 8fb6 8a3d 4754 543d d96e d63d 3775 86bc
00000390: 764a 62bd fc05 933d a5f2 233e 148d 4fbd
000003a0: 3e34 f4bd 9cd9 9a3d eb9e 41bc 2914 c2bd
000003b0: 4dcc 29bc cceb 41bb fb6a 35bd c372 a93d
000003c0: df5b b23c 178f dbbd 9ee3 27bd befe 58bd
000003d0: fc4d 8b3c bec4 883c 4704 e83d 0999 4bbd
000003e0: 55bd 3c3d a307 a8bd 0168 4bbd f1cc b63d
000003f0: 9a10 02be d084 253b 95a7 9abd 8ce1 053d
0.037552375 0.03926135 -0.027252115 -0.014122409 0.15746008 0.10805959 0.03955829 0.1453791
0.06655209 -0.006085187 -0.012471928 0.11906536 -0.026627988 -0.031556655 -0.06739071 -0.074401155
0.106327936 -0.00534772 -0.1276148 -0.035647344 0.06432953 0.13497767 0.053531777 0.082675815
0.11798181 0.041783195 0.06562604 0.04550893 0.034465183 -0.033111285 -0.28686103 -0.216039
0.06259207 0.045962542 0.0058623976 0.05086827 0.13332368 0.009000969 0.04299831 0.018926239
-0.060926165 -0.107529506 0.033753242 0.20463054 -0.13958687 0.03587409 -0.2231785 -0.07353754
-0.044443972 0.038208023 0.06854654 0.064299904 -0.064107075 0.065395184 0.1323126 -0.060312714
-0.026216269 0.07675975 -0.11942219 -0.14748251 0.06398001 0.04375901 -0.1128693 -0.009483587
-0.15011673 -0.054684337 -0.009809587 0.04314837 -0.12718354 0.11597449 -0.120316215 -0.08817366
0.05835724 -0.07632509 -0.0035202971 -0.10408021 -0.092689216 0.105909996 0.09241874 -0.099704504
0.0033892675 0.085657656 0.10849346 -0.049887627 -0.10398524 -0.0064182617 0.0613773 -0.0071225823
-0.099882476 -0.07753611 -0.09330286 -0.10413007 -0.121483624 -0.03911082 0.1222459 0.04443953
-0.06539587 0.048348412 0.06788412 0.07764219 0.10259495 -0.0039633703 -0.07750281 0.09782936
0.0618755 -0.023336697 -0.0965582 0.062536694 0.1095683 -0.09395202 0.18240586 -0.1448905
0.015831506 0.03021804 0.03062912 -0.004873725 0.022422642 -0.05510562 0.037864406 -0.04611694
0.04117441 -0.053252205 0.032600723 -0.10010961 -0.10113392 0.014069496 -0.07156604 0.07419762
-0.03778422 -0.028081128 0.054116987 -0.026698107 0.13777685 0.02721772 -0.09831852 0.013363103
-0.010365193 -0.050997555 -0.10093291 0.03710086 -0.10997639 -0.0037325579 0.042698443 0.04629197
-0.030872915 -0.088748194 -0.028709518 -0.11601693 -0.10092679 0.013193385 -0.012219638 0.011394436
-0.035220366 -0.07423168 -0.009498225 0.10699088 0.10458868 0.065351225 -0.19591285 -0.06444353
-0.021165026 0.07931502 0.10957569 0.12707241 -0.037141163 -0.041371185 -0.04773375 0.019666264
0.011190195 0.05443219 0.15494911 0.026098382 0.03453265 0.0075623267 0.027505849 -0.08390956
0.12040131 0.10854405 0.0460774 -0.05465683 -0.06358046 -0.054760635 0.07485102 -0.041720595
-0.08631202 -0.061469708 0.07333214 0.01867829 0.07844052 0.09900642 -0.08815942 0.0866908
0.011082367 -0.2169106 -0.07504419 0.024850393 0.063597836 -0.110205546 -0.050204247 -0.024487535
-0.04666129 -0.02830076 0.08918181 0.017247643 0.045028616 0.06245107 0.029732672 0.04953585
0.10612967 -0.095990375 -0.01805998 -0.071538456 0.0786602 0.12697308 -0.06494881 -0.039977364
0.09362054 0.12042784 0.103621535 -0.14433643 -0.084124416 -0.12288527 -0.0781351 0.02812291
0.067731015 0.051838186 0.10470361 -0.016413314 -0.055246793 0.07178876 0.1601053 -0.050671652
-0.11924027 0.07561037 -0.011817674 -0.094765015 -0.0103636505 -0.0029590009 -0.044291478 0.08273842
0.021772323 -0.107206516 -0.040988557 -0.052977316 0.01700496 0.016695376 0.11328941 -0.049706493
0.046079 -0.082045816 -0.049659733 0.08925808 -0.12701645 0.0025256164 -0.07551495 0.0326858
