code/logs/epoch=0-step=1202.ckpt (torch, 230223 bytes, 84 tensors)

model.upscale.weight f4 [32, 1]
0	0xbf2d028b	-0.67582005
1	0x3f36ce9c	0.7140901
2	0x3e5ac0d0	0.21362615
3	0x3f74cd0b	0.9562537
4	0x3e273783	0.1632977
5	0xbf61b31b	-0.8816392
6	0x3ed905b3	0.4238716
7	0x3d9e6b97	0.07735365
8	0xbf5a31ac	-0.85232043
9	0x3f580b03	0.843918
10	0x3f3f2bad	0.7467602
11	0xbd2db038	-0.042404383
12	0x3ee5a465	0.44851986
13	0xbf2c7c9c	-0.6737764
14	0x3ea3e665	0.32011715
15	0x3ec5c48e	0.38626522
16	0x3f015599	0.50521237
17	0x3e3c931f	0.18415497
18	0x3f628b9e	0.8849429
19	0x3f7955ed	0.9739674
20	0xbdf4cfe3	-0.11953714
21	0xbf2fd3ad	-0.68682367
22	0x3f103e9c	0.56345534
23	0xbeb3567f	-0.3502693
24	0xbe2a1750	-0.16610456
25	0x3f14747c	0.5799024
26	0xbf2e88f0	-0.681777
27	0xbf062b99	-0.52410275
28	0x3dd14d9c	0.10219881
29	0x3f2ded98	0.67940664
30	0xbf27083d	-0.65246946
31	0xbf09ebe2	-0.53875554

model.upscale.bias f4 [32]
0	0xbf2a17c0	-0.6644249
1	0xbf29162f	-0.66049474
2	0xbf77307b	-0.9655835
3	0xbea8bb48	-0.32955384
4	0xbf143a40	-0.5790138
5	0xbf57221c	-0.8403642
6	0xbf061169	-0.52370316
7	0xbf81d5bb	-1.014335
8	0x3ebdbd56	0.37058514
9	0x3f33e7f0	0.70275784
10	0x3f48e51d	0.784746
11	0x3d1e60a4	0.038666382
12	0x3f29c250	0.6631212
13	0x3f309f26	0.6899284
14	0x3e9aa11d	0.30201045
15	0x3f5b2102	0.8559724
16	0x3e8575a6	0.2606632
17	0xbf7c0bf8	-0.9845576
18	0xbf1fbbb3	-0.6239578
19	0xbde51b4c	-0.11186847
20	0xbe97c1c5	-0.29640022
21	0xbd50e6be	-0.051001303
22	0xbda01393	-0.078162335
23	0xbdc30052	-0.095215455
24	0xbf1b0c0e	-0.6056527
25	0x3f544966	0.829245
26	0xbf1b3ef9	-0.60642964
27	0xbf50ca6e	-0.81558883
28	0x3f232dbb	0.63741654
29	0x3f1389ef	0.57632345
30	0x3d89866f	0.06715094
31	0x3f79afe4	0.9753401

model.temporalSeq.0.attention.in_proj_weight f4 [96, 32]
0	0x3d94949c	0.072549075
1	0x3ccbd4d6	0.024881762
2	0x3d01734c	0.031604096
3	0x3dd61331	0.10452879
4	0x3e67d4b7	0.22639738
5	0xbd952173	-0.072817706
6	0xbcce0619	-0.025149392
7	0xbcfa9177	-0.030586941
8	0x3e22d3f4	0.15901166
9	0x3e2e4cb7	0.17021452
10	0x3e34c75d	0.17654176
11	0x3e1c415d	0.15259309
12	0x3e7c92de	0.246654
13	0xbdc1d92f	-0.094652526
14	0x3d505521	0.050862435
15	0xbca414b9	-0.020029413
16	0x3e6225bf	0.22084711
17	0xbe50b6fb	-0.20382302
18	0xbd04171f	-0.032248612
19	0x3e8c2883	0.27374658
20	0xbe1829b5	-0.1485966
21	0xbd5e0f02	-0.05421353
22	0x3c7bc34e	0.0153663885
23	0x3d4f8c67	0.050671007
24	0xbd53f455	-0.051746685
25	0x3ba6419d	0.0050737397
26	0xbe482b62	-0.19547799
27	0xbcb84399	-0.02249317
28	0xbd5246de	-0.051337115
29	0x3e03c4fc	0.12868112
30	0xbdd1fddc	-0.10253498
31	0x3ded377b	0.11582848
32	0xbdd29a35	-0.10283319
33	0xbba991d1	-0.0051748534
34	0xbe133dc5	-0.14379032
35	0x3d9f28b0	0.077714324
36	0xbe05fcf5	-0.13084777
37	0xbd0b99e0	-0.034082294
38	0xbde9227c	-0.113835305
39	0xbe08ebc1	-0.13371183
40	0xbd887c1a	-0.066642955
41	0x3dc6838c	0.09693059
42	0x3e5b4042	0.21411231
43	0xbdda2bc2	-0.106528774
44	0x3e51c46d	0.20485087
45	0x3d842466	0.06452255
46	0xbe177ef9	-0.1479453
47	0x3e4049cd	0.18778153
48	0x3e25ea19	0.16202582
49	0x3e4f3b6d	0.20237513
50	0x3e49eb70	0.19718719
51	0x3e5421de	0.20716044
52	0x3d2784da	0.04089818
53	0x3b91d678	0.0044506155
54	0x3d29cc74	0.041454747
55	0x3eae2d60	0.34018993
56	0xbde95ac2	-0.11394264
57	0xbdeb0558	-0.114756286
58	0x3e29a842	0.16568092
59	0xbd007160	-0.031358123
60	0x3cf5bbc5	0.029996762
61	0x3e742655	0.23842748
62	0x3e34bd91	0.17650439
63	0xbe3eca4f	-0.18631862
64	0xbdf7afe4	-0.12094095
65	0x3d7cef00	0.061751366
66	0xbe2d85e4	-0.16945606
67	0x3db08354	0.08618799
68	0xbd8b5865	-0.06803969
69	0xbe4cfe2f	-0.20018838
70	0xbdd59e0f	-0.10430538
71	0x3e4d2827	0.20034848
72	0xbdd0b3e7	-0.10190564
73	0x3cdb3d98	0.026762769
74	0x3da57791	0.08079446
75	0x3cb246d6	0.021762293
76	0x3e229022	0.15875295
77	0xbe1f4b76	-0.1555613
78	0x3b5a9da9	0.0033358133
79	0xbe0372ab	-0.12836711
80	0x3ddd8151	0.10815681
81	0xbc9d1b24	-0.01917798
82	0x3e14b3c7	0.14521705
83	0x3dd38fd1	0.10330165
84	0x3c988ef0	0.018622845
85	0x3dd7e6d3	0.10542073
86	0x3e2d3b38	0.16917121
87	0x3d81ac3a	0.06331678
88	0xbe25e08e	-0.16198942
89	0x3de41b4a	0.111380175
90	0x3d0429fa	0.032266594
91	0xbe1c44b7	-0.15260588
92	0x3dc06138	0.09393543
93	0x3e14880f	0.14505027
94	0xbe2e0a47	-0.16996108
95	0xbdfe7dbf	-0.12426328
96	0xbe0cafeb	-0.13738982
97	0x3df160af	0.11786019
98	0xbc892550	-0.016741425
99	0xbbb7d0d7	-0.0056096124
100	0x3e11ec57	0.14250313
101	0x3e5dca47	0.21659194
102	0xbe3819ae	-0.17978546
103	0xbd9a3682	-0.07529928
104	0xbe5d4748	-0.21609223
105	0xbe3300ef	-0.17480825
106	0x3e29b66c	0.16573495
107	0xbd2a694e	-0.041604333
108	0xbe31507a	-0.17315856
109	0xbe1f8ee2	-0.15581849
110	0xbe0de2af	-0.13856004
111	0xbda24eb6	-0.07925169
112	0x3e1b2af9	0.15153112
113	0xbc8243bc	-0.015901439
114	0xbd0b9ec7	-0.03408697
115	0xbe4f8cb4	-0.20268518
116	0xbdb8e856	-0.090286896
117	0xbe8128a4	-0.2522632
118	0xbe0209f9	-0.12699117
119	0xbe531989	-0.2061521
120	0xbc92a679	-0.017901646
121	0x3da04c81	0.07827092
122	0x3e38a4a8	0.18031561
123	0xbe0927b7	-0.13394056
124	0x3cd6678f	0.026172427
125	0xbcd1c3f2	-0.02560613
126	0x3e1c909c	0.15289539
127	0xbd150cb7	-0.03638908
128	0x3ce7077b	0.02820181
129	0x3dd365ee	0.10322176
130	0x3e1c5ac1	0.15268995
131	0x3e53a330	0.2066772
132	0xbe2deeaa	-0.16985574
133	0x3e9da5ae	0.30790466
134	0x3d41fbdb	0.04735933
135	0xbda04cba	-0.078271344
136	0xbe75216a	-0.23938528
137	0x396db0ad	0.00022667898
138	0xbdceb98c	-0.10093984
139	0xbe525a3c	-0.20542234
140	0xbcc9a4b4	-0.02461467
141	0xbd0f555e	-0.034993522
142	0x3e429d0b	0.1900522
143	0xbe1166b6	-0.14199337
144	0x3dadc7a9	0.08485348
145	0xbe21b66d	-0.15792246
146	0x3c68ec4f	0.014216497
147	0xbe59ee23	-0.21282248
148	0xbe526bf8	-0.20549
149	0xbe154088	-0.14575398
150	0xbc5f69ed	-0.0136360945
151	0xbe42d184	-0.19025236
152	0xbd2a027c	-0.041506276
153	0x3c0313fb	0.008000369
154	0x3dc89b4b	0.09795245
155	0x3dbee372	0.093207255
156	0xbd2c370c	-0.042044684
157	0xbe4164ec	-0.18886155
158	0xbeaafcb5	-0.33395925
159	0xbe912311	-0.28347066
160	0xbdae6765	-0.08515815
161	0xbd905ed5	-0.07049338
162	0xbde0ea24	-0.10982159
163	0xb9fccaf9	-0.00048216412
164	0x3de9cdd4	0.11416212
165	0xbe451698	-0.192469
166	0xbe136bd5	-0.14396603
167	0x3dc4e5d2	0.09614147
168	0x3e871520	0.26383305
169	0x3e2024dd	0.15639062
170	0x3e3e4daa	0.18584314
171	0x3de1282d	0.10993991
172	0x3d86d1db	0.065829955
173	0x3de0f979	0.10985083
174	0x3e1c4cb5	0.15263636
175	0xbe34ad4d	-0.17644234
176	0xbe32fa74	-0.17478353
177	0x3c3cc6a1	0.011521966
178	0xbe5f578b	-0.21810739
179	0xbe2f39e6	-0.1711193
180	0xbd5d84f5	-0.054081876
181	0x3e7d4a17	0.24735294
182	0x3e085583	0.1331387
183	0x3e894016	0.26806706
184	0xbd291d6c	-0.041287825
185	0x3da9de61	0.082943685
186	0xbd3caa25	-0.0460607
187	0x3e12ab97	0.14323269
188	0x3d767e3c	0.06017898
189	0xbdf18887	-0.11793619
190	0x3e915edf	0.28392693
191	0x3e7f2670	0.24917006
192	0xbddfc77f	-0.10926723
193	0xbb6bc01b	-0.0035972658
194	0xbe1d536a	-0.15363851
195	0xbdeeb3da	-0.11655398
196	0xbdde161b	-0.1084406
197	0xbd0c1f70	-0.03420967
198	0xbe160771	-0.14651276
199	0x3bc7f9ec	0.006102791
200	0xbde66bca	-0.11251028
201	0xbd6d65b9	-0.05795834
202	0x3cdab254	0.026696362
203	0xbdb51145	-0.088411845
204	0xbe2f1fdb	-0.17101996
205	0xbea16ff6	-0.31530732
206	0x3e3b49ef	0.18289922
207	0xbe29ab40	-0.16569233
208	0xbd5dafbe	-0.05412268
209	0xbcc03302	-0.023461822
210	0x3c916984	0.01775051
211	0x3e33fbdd	0.17576547
212	0x3e209bfa	0.156845
213	0xbeb93bf1	-0.36178544
214	0xbe1ac955	-0.15115865
215	0xbde5f6d7	-0.112287216
216	0xbe158245	-0.14600475
217	0xbc3ddf99	-0.011588954
218	0x3d9843d4	0.07434812
219	0x3e5edd92	0.2176421
220	0xbe1b94fd	-0.15193553
221	0x3dbd92e8	0.09256536
222	0xbe206f54	-0.15667468
223	0xbeaa0040	-0.33203316
224	0x3b9f39ef	0.004859201
225	0x3dd6853c	0.10474631
226	0xbdf9cfd7	-0.121978454
227	0xbcbbebac	-0.022939526
228	0xbdc8ba4f	-0.098011605
229	0x3b7beca0	0.00384406
230	0x3ce8c412	0.028413806
231	0x3e23f5b3	0.16011696
232	0xbdda4792	-0.10658182
233	0xbdd980ab	-0.106202446
234	0xbe5819ff	-0.21103667
235	0x3c883ec5	0.016631493
236	0xbe6b0805	-0.22952278
237	0xbd730eed	-0.059340406
238	0xbd84ebbd	-0.06490276
239	0xbe7e3ab0	-0.24827075
240	0x3d7cd24f	0.061724003
241	0xbc10eb11	-0.008845107
242	0xbd8651f6	-0.065586016
243	0xbe501f2c	-0.20324391
244	0x3e436b8b	0.19083993
245	0x3dae1072	0.084992304
246	0x3e5df408	0.21675122
247	0xbe6bbae6	-0.23020515
248	0x3e2f293f	0.17105578
249	0x3db20e6c	0.08694157
250	0xbd020487	-0.0317426
251	0x3d93cacf	0.07216417
252	0xbc5adb6c	-0.013357978
253	0x3d60e664	0.054907218
254	0xbea90902	-0.33014685
255	0xbe427af4	-0.18992215

model.temporalSeq.0.attention.in_proj_bias f4 [96]
0	0x3cd277b7	0.02569185
1	0x3c78998e	0.015173329
2	0x3c24ee93	0.010066646
3	0xbd450d06	-0.048108123
4	0xbda7fada	-0.08202143
5	0x3d5b7002	0.053573616
6	0xbd9db7fa	-0.07701106
7	0xbda2573f	-0.07926797
8	0x3e13b385	0.1442395
9	0xbdbac6a7	-0.09119921
10	0x3d7e9734	0.062155917
11	0xbdb93171	-0.09042633
12	0xbdaaf19a	-0.08346863
13	0x3dc08d2b	0.09401926
14	0x3da79ddf	0.081844084
15	0x3dba9d09	0.09111983
16	0xbd185e68	-0.037199408
17	0x3be9c4ab	0.0071340404
18	0x3d8a384b	0.06749018
19	0x3d97a9fc	0.07405469
20	0x3cc4943b	0.023996463
21	0xbc3d3a35	-0.011549522
22	0x3c99b310	0.018762141
23	0xbcfe7394	-0.031060971
24	0xbdc2d79b	-0.0951378
25	0x3d94a87b	0.072586976
26	0x3db3677a	0.08759971
27	0x3da0090e	0.07814227
28	0xbceff243	-0.029290324
29	0x3c8e2e94	0.017356195
30	0xbcc6a394	-0.024247922
31	0x3d1ad4af	0.037800487
32	0x3cce7bf0	0.025205582
33	0x3cd6b8cf	0.02621117
34	0x3caa18ce	0.02076378
35	0xbbe60887	-0.0070200595
36	0xb99dcd30	-0.0003009825
37	0x3a4762ea	0.0007605987
38	0xba032b32	-0.000500369
39	0xb96e1df2	-0.00022708604
40	0xba8cf60d	-0.0010754481
41	0x3a57b522	0.000822859
42	0xba858bca	-0.0010188755
43	0xb97469aa	-0.00023309016
44	0x3969b38c	0.00022287498
45	0xbb05773d	-0.002036526
46	0xba949303	-0.0011335317
47	0xbadc0bbf	-0.0016788169
48	0x3901bd6d	0.00012372965
49	0x3a380a05	0.0007020536
50	0x3a82afbd	0.0009970587
51	0x3940d27c	0.00018388958
52	0xbbffb994	-0.007804105
53	0x3b62827e	0.0034562643
54	0xbb93845b	-0.004501862
55	0x3abdf064	0.0014491198
56	0xb942c06f	-0.00018572969
57	0x3abe19ee	0.0014503577
58	0xba5ab026	-0.0008342288
59	0xbb31d9fc	-0.0027137985
60	0xba9d54cd	-0.0012003422
61	0xba35f7fb	-0.0006941554
62	0xb9dc195e	-0.0004198057
63	0xbb1cd4e1	-0.0023930597
64	0x3b76a64e	0.0037635746
65	0xbb51b38e	-0.0031997892
66	0x3c6a73b1	0.01430981
67	0x3ba11c4d	0.004916704
68	0xbb70953f	-0.0036710051
69	0x3a5fb509	0.0008533751
70	0xbc2e39af	-0.01063387
71	0x3cb5f5fd	0.022212023
72	0x3c8450ab	0.016151747
73	0x3c0df10f	0.00866343
74	0x3c0277f2	0.0079631675
75	0xbb009adc	-0.0019623553
76	0xbaead517	-0.0017916289
77	0xbc294078	-0.010330312
78	0xbd1d72b7	-0.03843948
79	0x3be2dbb9	0.0069231656
80	0xbc24dbe6	-0.0100621935
81	0x3b3fd9fe	0.002927422
82	0xbb77a150	-0.0037785359
83	0x3ababdb4	0.001424721
84	0xbc8aabf5	-0.016927699
85	0xbc31775f	-0.010831683
86	0x3c7f870d	0.015596163
87	0x3b398349	0.0028307012
88	0x3c4e61f9	0.012596601
89	0xbad151e9	-0.0015969846
90	0xbc741721	-0.0148980925
91	0xbc1b9b28	-0.009497441
92	0x3c7df0c0	0.015499294
93	0x3c9d14d7	0.019174976
94	0x3bc19fe2	0.005908952
95	0x3ce12f36	0.027488332

model.temporalSeq.0.attention.out_proj.weight f4 [32, 32]
0	0xbddc2f4a	-0.10751207
1	0x3e11e859	0.1424879
2	0xbd50c9d2	-0.05097372
3	0xbe0e6f8c	-0.1390974
4	0xbde20fa2	-0.11038138
5	0x3d6e3a1c	0.058160886
6	0xbe1f3d8e	-0.15550825
7	0x3e0cd1f6	0.13751969
8	0xbe04ae01	-0.12957002
9	0x3d231f98	0.039825052
10	0x3d1b5b01	0.037928585
11	0x3dead576	0.11466496
12	0xbdc48676	-0.09595959
13	0x3e04b30c	0.12958926
14	0xbd1f5195	-0.038896162
15	0x3dfe2f75	0.124113955
16	0xbe1614c7	-0.14656363
17	0xbd87eda1	-0.06637121
18	0xbe25ca41	-0.16190435
19	0xbdf64d5f	-0.12026476
20	0xbe09512a	-0.13409868
21	0xbddf4984	-0.10902694
22	0x3daad156	0.08340709
23	0xbdb4e736	-0.088331625
24	0x3db83300	0.089941025
25	0x3e251a43	0.161233
26	0xbcf546e1	-0.029941024
27	0x3d7eb711	0.062186304
28	0xbd82075a	-0.063490584
29	0xbda8ddbb	-0.08245417
30	0xbd89b5b3	-0.067241095
31	0x3e14a203	0.14514928
32	0xbda53751	-0.080671914
33	0x3e27424e	0.16333887
34	0xbe0b1fa5	-0.1358629
35	0x3e5b561a	0.21419564
36	0x3e0d0c09	0.13774122
37	0xbe130148	-0.14355958
38	0x3d518481	0.051151756
39	0xbdef8f7f	-0.116972916
40	0x3bfd8adc	0.0077375006
41	0x3d50fdb0	0.051023185
42	0xbc8e8319	-0.017396497
43	0x3e01ab57	0.12663017
44	0xbde105fd	-0.1098747
45	0x3d4cc1ff	0.049989697
46	0xbdd6ef4e	-0.104948625
47	0xbd3f1a0b	-0.046655696
48	0xbe0046da	-0.12527028
49	0xbd960f8c	-0.07327184
50	0xbe401f5d	-0.18761964
51	0x3dfb5125	0.122713365
52	0x3d71f16b	0.059068125
53	0xbd6e3ed7	-0.058165397
54	0xbe523c36	-0.20530781
55	0xbdb53629	-0.08848221
56	0xbe083e8a	-0.13305107
57	0x3de6c17b	0.11267372
58	0xbd40d31c	-0.04707633
59	0xbd1ab759	-0.03777251
60	0xbc0b0416	-0.008484861
61	0x3c3c04d9	0.011475765
62	0xbe0dd118	-0.13849294
63	0xbdd0de40	-0.10198641
64	0x3d041be3	0.032253157
65	0xbcbb1d5c	-0.022841148
66	0xbdf79b0d	-0.120901205
67	0x3b79ff36	0.0038146502
68	0x3d396955	0.045266468
69	0x3df1aae4	0.11800173
70	0xbd49c8bf	-0.049263712
71	0x3e0f6986	0.14005098
72	0x3d9ef106	0.07760815
73	0xbc054863	-0.008134934
74	0x3c14b80e	0.009077085
75	0xbdf5f916	-0.120104
76	0x3dc05a3e	0.09392212
77	0xbe07c7e2	-0.13259843
78	0xbd3e113d	-0.04640316
79	0x3e20d2a0	0.15705347
80	0xbdb49f7b	-0.08819481
81	0xbdeeee7d	-0.11666582
82	0x3df18298	0.11792487
83	0xbbce0848	-0.0062876083
84	0xbd817388	-0.06320864
85	0x3dcb4fb4	0.099273115
86	0x3cbfe0ba	0.023422588
87	0xbc84cac3	-0.016209966
88	0x3d48b105	0.048996944
89	0xbd3f4b30	-0.046702564
90	0xbe1d7059	-0.15374888
91	0xbdf4e8f0	-0.11958492
92	0x3dadaaf4	0.08479872
93	0xbe0164a3	-0.12636046
94	0xbe41217e	-0.18860433
95	0xbcecb657	-0.02889554
96	0x3cbad36f	0.022805898
97	0xbd3a13ae	-0.045428924
98	0xbd987cf6	-0.074457094
99	0xbd2c8a9c	-0.042124376
100	0xbdfe2fa3	-0.1241143
101	0xbda11a55	-0.078663506
102	0xbcb8b6fd	-0.022548193
103	0x3e005e38	0.12535942
104	0xbd437c2f	-0.047725853
105	0x3e488622	0.19582418
106	0xbdd4b9ec	-0.10387024
107	0xbe391197	-0.18073116
108	0xbd6a305f	-0.057175037
109	0xbd23f895	-0.04003199
110	0xbe054260	-0.13013601
111	0x3d4cd086	0.05000355
112	0xbe108fde	-0.14117381
113	0x3dae0edd	0.08498929
114	0x3dbedd36	0.093195364
115	0x3c0f32e1	0.008740158
116	0xbe1dad0f	-0.15398048
117	0x3d858d2e	0.065210685
118	0x3dd96940	0.10615778
119	0x3daf9e41	0.085751064
120	0x3d9c95c5	0.07645754
121	0x3de8c8f6	0.11366455
122	0xbe1bce0f	-0.15215324
123	0x3e45d5a6	0.19319782
124	0xbde7b0c8	-0.11313015
125	0xbcdc3735	-0.026881794
126	0x3e10fbe1	0.14158584
127	0x3c1da353	0.009621459
128	0x3b8f6137	0.0043756026
129	0x3def8749	0.116957255
130	0xbd29a189	-0.041413818
131	0xbd924da2	-0.071437135
132	0xbe0ec4d4	-0.13942271
133	0xbd6aa56c	-0.057286665
134	0x3d974428	0.07386047
135	0x3d1b4276	0.03790518
136	0xbd084f66	-0.033278845
137	0xbd3a44ca	-0.04547576
138	0xbca1d20d	-0.01975348
139	0x3d633a90	0.05547577
140	0xbe1d6c80	-0.1537342
141	0xbd0a4643	-0.033758413
142	0x3d9457f1	0.07243336
143	0xbdfcb998	-0.12340087
144	0xbe1b9bbe	-0.1519613
145	0xbc9196c1	-0.01777208
146	0x3d25b780	0.040458202
147	0xbdd7f7cb	-0.1054531
148	0xbd8ee18c	-0.069766134
149	0xbd93d26a	-0.07217868
150	0x3e115d92	0.1419585
151	0x3ca8e519	0.020617055
152	0xbe1a8cbe	-0.15092751
153	0xbd3133d8	-0.043262333
154	0x3dc736a5	0.097272195
155	0x3e16624f	0.14685939
156	0x3d2fb219	0.042894457
157	0xbe02e468	-0.12782443
158	0x3cdfe024	0.027328558
159	0x3e256721	0.16152622
160	0x3e27985d	0.16366716
161	0x3c6b12d0	0.014347747
162	0xbe1772a8	-0.14789832
163	0x3d926983	0.07149031
164	0xbcda3111	-0.026634725
165	0x3d3ab570	0.04558319
166	0x3e001d2e	0.12511131
167	0xbe074ef3	-0.1321371
168	0x3dbc61af	0.09198319
169	0x3de75cab	0.11296972
170	0xbe2aa6fc	-0.16665262
171	0x3cade262	0.021226112
172	0xbd09a720	-0.03360665
173	0x3d094467	0.0335125
174	0x3d952cd5	0.07283942
175	0xbd8012ff	-0.06253623
176	0xbc320c9f	-0.010867267
177	0x3d43c894	0.047798708
178	0x3d864048	0.065552294
179	0xbbfbcd70	-0.007684402
180	0x3e06b3ce	0.13154528
181	0xbe301aa4	-0.17197663
182	0xbb5c2eff	-0.0033597348
183	0x3ce583f1	0.028017016
184	0x3d89e159	0.06732435
185	0xbdc60eec	-0.09670815
186	0xbe0a48ac	-0.13504285
187	0x3e023713	0.12716322
188	0xbd927f3d	-0.07153175
189	0x3d965ce8	0.07341939
190	0xb99f029b	-0.00030328784
191	0xbde57057	-0.11203068
192	0xbd76340c	-0.06010823
193	0xbdffe5f2	-0.124950305
194	0x3da7f84c	0.08201656
195	0x3dcdfa3d	0.10057495
196	0x3dab2fb9	0.08358712
197	0x3db5b6a1	0.08872724
198	0x3d725611	0.05916411
199	0xbe1c5c68	-0.15269625
200	0xbdad9d27	-0.0847724
201	0xbd4e68cb	-0.050392907
202	0xbc87475c	-0.016513519
203	0x3cff1eec	0.031142674
204	0xbd74e43d	-0.059787977
205	0x3c3a457d	0.011369106
206	0xbe3442d5	-0.1760362
207	0x3e377d4f	0.17918895
208	0x3dee1aa7	0.11626177
209	0x3e0b1187	0.13580905
210	0x3e3c7b66	0.18406448
211	0xbcaaccb1	-0.020849558
212	0x3db520a4	0.08844116
213	0x3e150dfc	0.14556116
214	0xbd3a02b2	-0.045412727
215	0xbd9b68d9	-0.075883575
216	0x3d8d4c9f	0.0689938
217	0xbd1164b8	-0.035496444
218	0xbd2761bc	-0.04086469
219	0x3e06e917	0.13174854
220	0xbd9150ad	-0.07095466
221	0xbd8ee6d4	-0.06977621
222	0x3ca56e1f	0.020194111
223	0xbd3defb6	-0.046371184
224	0xbdffe2ab	-0.12494405
225	0x3d430201	0.047609333
226	0xbdbcab24	-0.0921233
227	0x3d4f9efd	0.050688732
228	0xbd93d703	-0.072187446
229	0xbc753f10	-0.014968649
230	0xbdddd685	-0.10831932
231	0xbd92211b	-0.071352206
232	0x3dbbc60f	0.09168636
233	0xbdf8f1e4	-0.12155512
234	0xbd30af99	-0.043136213
235	0xbe15b934	-0.1462143
236	0xbdd343f0	-0.103156924
237	0xbe2b47b7	-0.16726576
238	0x3e059ac5	0.13047321
239	0x3c701d05	0.014655356
240	0xbe262283	-0.16224103
241	0x3b661996	0.0035110465
242	0x3d2bac35	0.041912276
243	0xbe0a093e	-0.13480088
244	0xbd905ce4	-0.070489675
245	0x3cc9ae9c	0.024619393
246	0xbde73d7f	-0.11291026
247	0x3d9a87af	0.07545411
248	0x3c80a252	0.0157024
249	0x3d955e5a	0.07293387
250	0x3dd4a5fd	0.10383222
251	0xbe17d75c	-0.14828247
252	0xbd105784	-0.03523971
253	0x3dce085f	0.100601904
254	0x3dd9fb8a	0.106436804
255	0x3e103f67	0.14086686

model.temporalSeq.0.attention.out_proj.bias f4 [32]
0	0xbb614a93	-0.0034376725
1	0xbccdbffd	-0.025115961
2	0xbcff33d1	-0.031152638
3	0x3c75c729	0.015001097
4	0x3b12eea9	0.0022420085
5	0x3a83080f	0.0009996908
6	0xbc3ff966	-0.011717176
7	0xbbf968ad	-0.0076113553
8	0x3ba6d7a9	0.0050916267
9	0x3bad2eee	0.0052851355
10	0x3be5fb9e	0.0070185205
11	0x3ba1154c	0.004915869
12	0x3d0cec5e	0.034405105
13	0x3c9ad353	0.018899595
14	0xbb42e78f	-0.002974007
15	0x3d11f9c5	0.03563859
16	0x3bc9f324	0.006163018
17	0x3afea386	0.0019427396
18	0x3c330fa9	0.010929027
19	0xbbf1c62b	-0.00737836
20	0xbb84c54c	-0.00405184
21	0xbbd2e207	-0.006435636
22	0xbbb8b5b7	-0.0056368965
23	0xbc83265a	-0.016009498
24	0xbc8b1768	-0.016978934
25	0x3a55e46f	0.00081593444
26	0x3c0c768c	0.008573186
27	0x3b47f49a	0.0030510784
28	0x3c3e38f0	0.011610255
29	0xbbad828d	-0.005295104
30	0x3c8f4fb4	0.01749406
31	0x3bd4d275	0.006494815

model.spatialSeq.0.msg_mlp.0.weight f4 [16, 66]
0	0x3d13712b	0.035996597
1	0x3db83fe6	0.08996563
2	0x3d44e4d4	0.04806979
3	0x3c8ed8f8	0.017437443
4	0x3dd74ab6	0.10512297
5	0xbdd89e98	-0.10577124
6	0x3d4ca2ff	0.049960133
7	0xbdb33550	-0.08750403
8	0xbc20e100	-0.009819269
9	0xbcf98450	-0.0304586
10	0x3ccfbcbb	0.025358548
11	0x3dc85e9e	0.09783672
12	0xb8d21105	-0.000100167505
13	0x3d4f39ba	0.05059216
14	0x3dd51888	0.104050696
15	0x3d8beb35	0.068319716
16	0xbdb1217c	-0.08648965
17	0x3d69169f	0.05690634
18	0x3d28b5c0	0.041188955
19	0xbe13d72a	-0.14437547
20	0xbd8c100e	-0.06839
21	0xbddf83c9	-0.10913808
22	0x3d1b7dbd	0.03796171
23	0x3d952881	0.07283116
24	0xbcd02396	-0.025407594
25	0x3cdb80b6	0.026794773
26	0xbcfe7b95	-0.031064788
27	0x3dcd5211	0.100254185
28	0xbde0c6f7	-0.109754495
29	0x3d6b5bc7	0.057460573
30	0xbd5e615b	-0.054292064
31	0x3d9fc2d0	0.078008294
32	0x3de9045d	0.11377785
33	0x3db3038f	0.08740913
34	0x3b992d7f	0.004674613
35	0xbd96b411	-0.07358564
36	0x3d8f7054	0.07003847
37	0xbd3c2313	-0.045931887
38	0x3ca02caa	0.019552547
39	0x3cecc197	0.028900905
40	0x3d49c4ab	0.049259823
41	0xbdf18711	-0.1179334
42	0x3dab8853	0.08375611
43	0x3d9947ac	0.074843735
44	0x3d6e3592	0.058156557
45	0xba1c25e4	-0.0005956574
46	0xbd35dd62	-0.04440058
47	0x3de9ca3c	0.11415526
48	0x3cae4a47	0.021275653
49	0xbca0c249	-0.019623892
50	0x3db4a9f6	0.0882148
51	0x3d62f081	0.055405144
52	0xbe199c7c	-0.150011
53	0xbd858699	-0.06519813
54	0xbdb9ca66	-0.090718076
55	0x3d5cb880	0.05388689
56	0xbc862d29	-0.016378956
57	0x3d742c80	0.05961275
58	0x3d40f23f	0.047106024
59	0xbd5d0911	-0.053963725
60	0x3df88c07	0.12136083
61	0x3d952c75	0.0728387
62	0x3d21650f	0.039403018
63	0xbd6330a6	-0.055466317
64	0x3d73fbb8	0.05956623
65	0x3dfbe2ab	0.12299093
66	0xbd3d1e22	-0.046171315
67	0xbd83eab9	-0.06441254
68	0xbd29400c	-0.041320845
69	0x3d86aa76	0.065754816
70	0xbdbf705e	-0.09347604
71	0x3ddb1657	0.1069762
72	0xbd186bac	-0.03721206
73	0xbcaeb657	-0.02132718
74	0x3dc69115	0.09695641
75	0x3d3fb00b	0.046798747
76	0xbd8498d9	-0.06474466
77	0x3e0b1721	0.13583042
78	0x3d10a499	0.035313223
79	0xbd6125c0	-0.05496764
80	0xbd88e156	-0.066836044
81	0x3d2a9f32	0.041655727
82	0xbcc54f97	-0.024085803
83	0xbda9e69d	-0.08295939
84	0x3e0c1cef	0.13682912
85	0x3da7d591	0.081950314
86	0xbda14b47	-0.07875686
87	0xbd34afcb	-0.04411296
88	0xbe0e469c	-0.13894123
89	0xbdb638e0	-0.08897567
90	0x3df26e8b	0.11837491
91	0xbce32851	-0.027729185
92	0xbbdefa49	-0.0068047387
93	0xbdb15a0d	-0.08659754
94	0x3d59711a	0.053086378
95	0x3c0150a7	0.007892764
96	0x3df2f8a1	0.118638285
97	0xbdc74c95	-0.09731404
98	0x3e830388	0.25588632
99	0xbd253ca8	-0.04034105
100	0xbde2f412	-0.11081709
101	0xbba71e3a	-0.005100039
102	0xbcc9ddfa	-0.02464198
103	0xbcd968ff	-0.026539324
104	0xbdc94d82	-0.098292366
105	0xbcef497f	-0.02920985
106	0xb860f352	-5.363237e-05
107	0xbd6d843b	-0.057987433
108	0xbd82b3c2	-0.06381942
109	0x3d81bcb1	0.06334818
110	0x3bf51804	0.0074796695
111	0x3d4c2591	0.049840514
112	0x3d7a2a86	0.06107571
113	0x3c6c6fc2	0.014430942
114	0x3dae8ed0	0.08523333
115	0xbce67872	-0.028133605
116	0x3d92a5bd	0.07160518
117	0x3d9557a3	0.07292106
118	0xbd5fe1e3	-0.05465878
119	0xbdda4b61	-0.10658909
120	0xbe0c114d	-0.13678475
121	0x3db35568	0.08756524
122	0x3d22ce3c	0.03974746
123	0xbdccfe22	-0.100094095
124	0xbdae67eb	-0.085159145
125	0x3da411d9	0.08011217
126	0x3e19906e	0.14996502
127	0xbd4b533c	-0.049639925
128	0xbde3561e	-0.1110041
129	0xbbe4bab8	-0.0069802664
130	0xbd324a8e	-0.043528132
131	0x3e36ebb7	0.17863356
132	0xbce3d2ff	-0.027810572
133	0xbe07fa6f	-0.13279127
134	0x3c765777	0.015035502
135	0xbd2d3b41	-0.042292837
136	0xbc85900f	-0.016304044
137	0x3db6dce3	0.089288495
138	0x3d90fa58	0.07078999
139	0x3d8ab8d5	0.06773535
140	0xbdb1d034	-0.0868229
141	0xba969b5d	-0.0011490394
142	0x3de94e7e	0.11391924
143	0x3dbd0f14	0.092313915
144	0xbd8d049c	-0.06885645
145	0x3d35ba34	0.04436703
146	0xbd614aca	-0.055002965
147	0x3dfe4370	0.124152064
148	0xbd83d339	-0.06436772
149	0xb9676462	-0.00022067272
150	0xbd1f7eba	-0.038939215
151	0xbdc53dd3	-0.09630933
152	0xbdd75c36	-0.10515635
153	0x3b81f784	0.0039662737
154	0x3ddb9998	0.10722655
155	0x3dc2cad7	0.09511345
156	0xbdeab03d	-0.11459396
157	0x3c97885f	0.018497644
158	0x3ccf9048	0.025337353
159	0xbd719d95	-0.058988173
160	0xbd81f84b	-0.06346186
161	0x3db0f7d1	0.08641017
162	0x3d875282	0.06607534
163	0xbd5d1988	-0.053979427
164	0x3b53ed9f	0.0032337678
165	0xbdaf40d5	-0.085572876
166	0xbda4ba1f	-0.08043312
167	0xbdb361ff	-0.08758926
168	0xbdc8f284	-0.09811881
169	0xbcd4837b	-0.025941601
170	0xbcf27cf4	-0.029600598
171	0x3c8a3fa6	0.016876053
172	0xbc593c38	-0.013258986
173	0x3ddba988	0.10725695
174	0xbc7db573	-0.015485155
175	0xbca226d0	-0.019793898
176	0xbd82eab3	-0.063924216
177	0x3da06e68	0.07833558
178	0x3cb665ad	0.02226528
179	0xbd764669	-0.060125742
180	0xbd66e302	-0.056368835
181	0x3cf5bf96	0.029998582
182	0xbde909b4	-0.11378804
183	0xbca88679	-0.020571934
184	0xbdb85b23	-0.09001758
185	0xbd4549e8	-0.048166186
186	0xbd24b327	-0.040209915
187	0x3db2c43b	0.08728834
188	0xbe0007e6	-0.12503013
189	0x3dd3024a	0.10303171
190	0x3d9d1b3c	0.0767121
191	0xbc98bd83	-0.018645054
192	0x3df0158e	0.11722861
193	0xbceedcaf	-0.029157965
194	0x3dc0bfbc	0.094115704
195	0xbc2eec6e	-0.010676486
196	0x3d384042	0.044983156
197	0x3d8f7821	0.07005335
198	0xbdb5c4ce	-0.08875428
199	0xbd7fb61c	-0.062429532
200	0xbdb01d85	-0.085993804
201	0x3dfc8bf5	0.12331382
202	0xbdb3ecc7	-0.08785396
203	0xbde312c1	-0.110875614
204	0x3b067a1f	0.0020519567
205	0x3cef40de	0.029205736
206	0xbd6664a3	-0.05624832
207	0x3dab541b	0.08365651
208	0x3b9bcd96	0.0047547324
209	0xbd48f370	-0.049060285
210	0xbd0289cd	-0.0318697
211	0x3dd5ad49	0.10433442
212	0x3c30dfae	0.010795517
213	0x3db14e01	0.08657456
214	0x3ba5e3be	0.0050625494
215	0xbdad6543	-0.0846658
216	0xbdaaf02c	-0.083465904
217	0xbcb92c80	-0.022604227
218	0xbd9e62d6	-0.07733695
219	0xbc024e73	-0.007953274
220	0x3ca80848	0.020511761
221	0x3b63a1ea	0.003473396
222	0xbd2f5f07	-0.042815235
223	0x3c99076d	0.018680299
224	0x3d5c8d56	0.053845726
225	0x3d27445c	0.040836677
226	0xbda35edc	-0.07977077
227	0xbd90c6a3	-0.07069137
228	0xbd6b4b7b	-0.05744503
229	0x3d0d466d	0.03449099
230	0xbbe3cdd2	-0.006952026
231	0x3da7c16f	0.081911914
232	0xbd751290	-0.059832156
233	0xbd8efd82	-0.069819465
234	0xbd330318	-0.043704122
235	0xbd166af0	-0.036723077
236	0x3d2675b1	0.040639583
237	0x3d0cc7bd	0.034370173
238	0xbc8ade1a	-0.01695161
239	0xbd958573	-0.07300844
240	0x3db1b51f	0.08677124
241	0xbdb475fe	-0.08811568
242	0xbd9ebca5	-0.07750825
243	0xbc565d63	-0.013083789
244	0xbd2d664c	-0.042333886
245	0xbd836c8b	-0.06417187
246	0x3dd69187	0.10476976
247	0xbd4a999b	-0.049462896
248	0x3c10af9a	0.008830929
249	0xbd84a772	-0.0647725
250	0xbdff39d2	-0.124622
251	0xbe07f9a6	-0.13278827
252	0x3d5e2f95	0.054244597
253	0x3d45f16a	0.048325934
254	0xbdeccc94	-0.11562458
255	0x3e0a3455	0.13496526

model.spatialSeq.0.msg_mlp.0.bias f4 [16]
0	0x3a91308b	0.0011077089
1	0x3d4b1a68	0.04958573
2	0x3cd2b962	0.025723163
3	0xbcfa614f	-0.030563978
4	0xbdbd883c	-0.092545
5	0xbd196066	-0.03744545
6	0xbd40166d	-0.046896387
7	0x3d8df38a	0.06931217
8	0x3dc6c8f3	0.09706297
9	0xbdaee151	-0.085390694
10	0xbd47acd4	-0.048748806
11	0x3dc3d7c6	0.0956264
12	0x3c900e42	0.017584924
13	0xbdcfb1ed	-0.101413585
14	0x3cb80355	0.022462526
15	0xbd0a7b03	-0.03380872

model.spatialSeq.0.msg_mlp.2.weight f4 [33, 16]
0	0x3cc7216f	0.024307935
1	0x3d9cd296	0.076573536
2	0x3e1386ec	0.14406937
3	0xbba0e2d8	-0.0049098544
4	0x3dc02b81	0.09383298
5	0x3e132732	0.1437042
6	0xbe704c49	-0.234666
7	0xbe5f4140	-0.21802235
8	0x3e169ee6	0.14709052
9	0x3df6e8ed	0.12056146
10	0xbdde15b6	-0.10843985
11	0x3de211e6	0.1103857
12	0xbd7239c7	-0.059137132
13	0x3d7c9bf3	0.061672162
14	0xbe05fca2	-0.13084653
15	0x3e60c021	0.21948291
16	0xbe01f803	-0.12692265
17	0xbe3eeae3	-0.1864429
18	0xbdf2aaa2	-0.11848952
19	0x3e0f80a6	0.14013919
20	0xbe8b5740	-0.27215004
21	0xbe29c8c5	-0.16580494
22	0xbe1ad2e2	-0.15119508
23	0x3d959d00	0.07305336
24	0xbd075e18	-0.03304872
25	0x3e3febcb	0.18742292
26	0xbe59f9a2	-0.21286634
27	0x3d8adc34	0.06780282
28	0x3e4cead7	0.2001146
29	0x3dba8466	0.09107284
30	0x3cf60fc1	0.030036809
31	0x3b945bad	0.00452753
32	0xbe68abc8	-0.2272178
33	0x3c7955d4	0.015218217
34	0xbe40737d	-0.18794055
35	0xbe3c9096	-0.1841453
36	0xbd5ddd53	-0.05416615
37	0xbdd604bc	-0.10450122
38	0x3e5d9430	0.2163856
39	0x3d001442	0.03126932
40	0xbe36667f	-0.17812537
41	0x3e371865	0.178804
42	0xbccf7ab7	-0.02532707
43	0x3c2c4988	0.010515578
44	0xbd63e2b8	-0.055636138
45	0x3e800520	0.2500391
46	0x3dda08f8	0.10646242
47	0xbd05d908	-0.03267768
48	0xbd8801f8	-0.066410005
49	0x3e8dea2d	0.27717724
50	0x3dc1a2a3	0.094548486
51	0xbdc83e45	-0.09777502
52	0xbe29e305	-0.16590507
53	0xbe1aa6a4	-0.15102631
54	0x3c47c430	0.012192771
55	0x3cad6f4c	0.021171235
56	0x3e086547	0.13319884
57	0xbe611da3	-0.21983962
58	0x3d1ad2b4	0.0377986
59	0x3db63205	0.08896259
60	0x3da11391	0.0786506
61	0xbe05daba	-0.13071719
62	0xbdfee2bf	-0.12445592
63	0x3cf915bc	0.030405872
64	0x3ddab83a	0.1067967
65	0xbe13aa3d	-0.1442041
66	0xbd17973a	-0.037009455
67	0xbd7b9828	-0.061424404
68	0x3c4aeea5	0.012385999
69	0x3df44fca	0.11929281
70	0xbe9d2914	-0.30695403
71	0xbd95837c	-0.07300469
72	0x3e006954	0.1254018
73	0xbe1949a1	-0.14969493
74	0xbcec07c6	-0.0288123
75	0xbe6c8ad1	-0.2309983
76	0x3e14419f	0.14478157
77	0x3e64654c	0.22304267
78	0xbd0cc8f2	-0.034371324
79	0x3da1ef20	0.079069376
80	0x3d88225d	0.06647179
81	0x3db92fb8	0.09042305
82	0xbdf0d074	-0.11758509
83	0x3e80729b	0.25087437
84	0x3e1006c3	0.1406508
85	0xbe7b9e87	-0.24572192
86	0xbe28f5e3	-0.16500048
87	0xbcafd1da	-0.02146237
88	0xbd54a970	-0.0519194
89	0x3e263634	0.16231614
90	0xbe8ec158	-0.27881885
91	0xbe4e90e5	-0.2017246
92	0x3e82cde2	0.255477
93	0xbd5af236	-0.053453647
94	0x3dd9fece	0.10644303
95	0xbe77717d	-0.24164386
96	0x3d36bba5	0.044612546
97	0x3c5da1b8	0.013527326
98	0x3cb1114b	0.021614691
99	0xbe57c3bf	-0.21070765
100	0x3d3801fc	0.044923767
101	0x3ca54dae	0.020178642
102	0xbe122413	-0.14271574
103	0xbe54b8b1	-0.20773579
104	0xbe4acbc5	-0.19804294
105	0x3da810f8	0.082063615
106	0x3da048b0	0.07826364
107	0x3cb230af	0.02175173
108	0xbe136409	-0.14393629
109	0x3c8a5a42	0.016888741
110	0xbe7570e7	-0.2396885
111	0x3dc728d9	0.09724588
112	0x3e4998d6	0.19687209
113	0x3e712e59	0.23552836
114	0xbe2c9e9c	-0.1685738
115	0xbdc3912a	-0.09549172
116	0xbcc1e5b9	-0.02366911
117	0x3e3575b4	0.17720681
118	0xbe11c4bf	-0.14235209
119	0xbd66f240	-0.05638337
120	0x3d56d17a	0.052445866
121	0x3e4e0091	0.20117404
122	0x3e2f49de	0.17118022
123	0xbe355f1e	-0.17712066
124	0x3ca1750c	0.019709133
125	0xbe3fe1ed	-0.18738528
126	0x3e5f9d2c	0.218373
127	0x3e032c94	0.12809974
128	0xbe3dcc05	-0.18534859
129	0xbe28d35e	-0.1648688
130	0xb98506bb	-0.0002537275
131	0x3d569da9	0.05239645
132	0xbe31715c	-0.173284
133	0xbe7642df	-0.24048947
134	0x3d391452	0.045185395
135	0x3e577f4b	0.21044652
136	0x3d1d84bc	0.038456663
137	0xbe0958d4	-0.13412791
138	0xbe616bca	-0.22013775
139	0xbd6367e7	-0.05551901
140	0x3d631199	0.055436704
141	0x3d944f2d	0.07241664
142	0x3d305391	0.043048445
143	0x3e25efff	0.16204832
144	0xbbbf2f28	-0.005834479
145	0x3e9da23c	0.30787838
146	0xbe319835	-0.17343219
147	0xbc8d7400	-0.017267227
148	0xbe7e9993	-0.24863271
149	0xbe51a1b0	-0.20471835
150	0xbdba7ae6	-0.09105472
151	0x3c3be8d5	0.011469086
152	0x3e0c54e6	0.13704261
153	0xbe4a6e13	-0.19768552
154	0xbdb1c71e	-0.08680557
155	0xbe18b7b8	-0.14913833
156	0xbe66cf4b	-0.22540013
157	0xbc82f324	-0.01598508
158	0xbcba6a22	-0.022755686
159	0x3dc6ebc0	0.097129345
160	0xbe82ed3c	-0.2557162
161	0xbe34c6c5	-0.1765395
162	0xbd9ef1a2	-0.077609316
163	0x3e1a2cc1	0.15056135
164	0x3e39246f	0.18080305
165	0xbd157c30	-0.036495388
166	0x3e91cf3a	0.28478414
167	0x3e082b9c	0.13297886
168	0x3e2f0ac6	0.17093953
169	0xbd2ad5e8	-0.041707903
170	0x3e3fe732	0.18740538
171	0x3e7d1595	0.24715264
172	0x3b19cdce	0.0023468616
173	0x3e18603c	0.1488046
174	0xbd20f4f5	-0.03929611
175	0xba82b0e5	-0.0009970932
176	0x3e0f2ce1	0.13981964
177	0xbe3555d3	-0.1770852
178	0x3e6ff10c	0.23431796
179	0xbe03e4cf	-0.12880252
180	0xbe10e2e3	-0.1414905
181	0xbe11f984	-0.14255339
182	0x3d7d0f79	0.061782334
183	0xbd2ca27f	-0.042147156
184	0x3e2f4ee5	0.1711994
185	0x3d8f98fb	0.070116006
186	0xbdf9a6af	-0.121899955
187	0x3d79be1c	0.060972318
188	0xbe258d61	-0.16167213
189	0x3d970971	0.07374848
190	0xbd8a49a3	-0.06752326
191	0xbd26c638	-0.04071638
192	0x3dd85d12	0.10564627
193	0x3e2cca0f	0.16873954
194	0xbd8f61a6	-0.07001047
195	0x3e025561	0.12727882
196	0x3db0995e	0.086230025
197	0xbdd0ca3f	-0.101948254
198	0xbe682393	-0.2266982
199	0x3e13e6b6	0.14443478
200	0xbe492e2c	-0.1964652
201	0x3d5ea45d	0.054355968
202	0xbc492961	-0.012277932
203	0x3d0db070	0.034592092
204	0xbce74da3	-0.028235262
205	0x3e89aaf9	0.26888254
206	0x3e50e577	0.20400034
207	0xbe247c6d	-0.1606309
208	0xbe58ba7f	-0.21164893
209	0x3e51611d	0.20447202
210	0xbd815be1	-0.06316353
211	0x3e5befcc	0.21478194
212	0x3d133f65	0.03594913
213	0x3d8906a9	0.066907234
214	0x3e2f480b	0.17117326
215	0x3d5d7246	0.054064058
216	0x3e09dafc	0.13462442
217	0x3da49bb7	0.08037513
218	0x3d5cb064	0.053879157
219	0x3d62632b	0.055270355
220	0xbe416581	-0.18886377
221	0x3e185939	0.14877786
222	0x3e73b929	0.23801102
223	0x3e602687	0.21889697
224	0xbd51f22a	-0.051256336
225	0xbc2cb212	-0.010540502
226	0x3e5c52c1	0.21515943
227	0x3e295ba5	0.16538866
228	0x3d4b4dc7	0.04963472
229	0x3cf15fad	0.029464567
230	0xbe81ba08	-0.25337243
231	0xbdca6cb1	-0.098840125
232	0xbd950850	-0.07276976
233	0xbe6f8fea	-0.23394743
234	0x3ded19a6	0.11577158
235	0x3d102b29	0.03519741
236	0xbd930991	-0.07179559
237	0xbd03b7bc	-0.032157645
238	0xbe37cc47	-0.1794902
239	0x3cf32bcc	0.02968397
240	0x3e872c39	0.26400927
241	0xbdff653d	-0.124704815
242	0x3c8bf24e	0.017083313
243	0x3d557298	0.05211124
244	0x3ea307e9	0.31841972
245	0xbda45476	-0.08023922
246	0x3e4245fa	0.18972006
247	0xbe132530	-0.14369655
248	0x3e39a2a3	0.18128447
249	0x3e2a237c	0.16615099
250	0x3e1ddae0	0.15415525
251	0x3e92b9c5	0.28657356
252	0x3e79de50	0.24401212
253	0x3e52f5f3	0.20601635
254	0x3d25ea6b	0.04050676
255	0xbe124b34	-0.142865

model.spatialSeq.0.msg_mlp.2.bias f4 [33]
0	0x3e297d2c	0.16551656
1	0x3e25465d	0.16140123
2	0x3d9188ce	0.071061715
3	0x3e6f74d9	0.23384418
4	0xbd52ed8f	-0.051496085
5	0xbda0ccb5	-0.07851545
6	0xbdbba5e8	-0.091625035
7	0x3e561041	0.20904638
8	0x3cfdcb44	0.030980714
9	0xbd85e7f2	-0.06538381
10	0xbd8ed36f	-0.069739215
11	0x3e1f8a59	0.15580119
12	0x3d4be5f3	0.049779844
13	0x3d3b18f4	0.045678094
14	0xbe249890	-0.16073823
15	0xbe32e954	-0.1747182
16	0x3e0d0aef	0.13773702
17	0xbd342b0c	-0.043986365
18	0x3d982f7d	0.07430933
19	0x3d9d5779	0.076827
20	0xbe260d64	-0.16216046
21	0xbd96a5b4	-0.07355824
22	0x3e3467b1	0.1761768
23	0x3dad2970	0.08455169
24	0x3df0f41c	0.1176531
25	0x3e406953	0.18790178
26	0x3d861a74	0.06548014
27	0xbd2adc81	-0.041714195
28	0x3df6ae39	0.12044949
29	0x3cbe24ee	0.023210969
30	0x3dad974b	0.084761225
31	0x3df9fe6f	0.122067325
32	0x3d701d7e	0.058621876

model.spatialSeq.0.gate_mlp.0.weight f4 [1, 33]
0	0x3da82d7e	0.08211802
1	0xbd8229e8	-0.06355649
2	0x3d3a6fcc	0.045516774
3	0x3d366055	0.044525463
4	0xbdc8e3dd	-0.098090865
5	0xbd4108db	-0.047127586
6	0x3e73f9cd	0.2382576
7	0xbe001a65	-0.12510069
8	0x3e043bd2	0.12913445
9	0x3bc61d37	0.006045963
10	0xbe1fff68	-0.15624774
11	0x3d53e5af	0.051732715
12	0x3dbeaf5d	0.09310792
13	0xbc852173	-0.016251301
14	0xbc81bab9	-0.015836107
15	0x3d7a1fdd	0.061065543
16	0xbe2a99e4	-0.16660267
17	0x3c626b69	0.013819554
18	0xbe131f43	-0.14367394
19	0x3df3db5e	0.11907075
20	0x3bd651c0	0.006540507
21	0xbe05526d	-0.13019724
22	0xbd8aedf3	-0.067836665
23	0xbe0a608e	-0.13513395
24	0xbde3c0a3	-0.11120727
25	0x3de8f6a0	0.11375165
26	0x3d5ce228	0.053926617
27	0xbcf701b9	-0.030152189
28	0xbe1b58b5	-0.15170558
29	0xbe41d60c	-0.18929309
30	0xbb7b3815	-0.0038332988
31	0xbd0029f6	-0.031290017
32	0xbddf6c3c	-0.10909316

model.spatialSeq.0.update_mlp.0.weight f4 [33, 66]
0	0x3c15d8f6	0.009145966
1	0x3d55c735	0.05219193
2	0x3c9bdb8b	0.019025585
3	0x3df870cd	0.1213089
4	0x3c958015	0.01824955
5	0x3de1c741	0.11024333
6	0xbdaa05ab	-0.08301862
7	0xbdb312c0	-0.08743811
8	0x3d3c1e16	0.04592713
9	0x3dac8244	0.08423284
10	0x3d39d172	0.04536576
11	0xbdd83e21	-0.10558725
12	0x3c0a7031	0.0084496
13	0xbdb547a7	-0.08851557
14	0x3dc79518	0.09745234
15	0xbcf1521d	-0.0294581
16	0x3dbcb64b	0.09214457
17	0x3cd86879	0.026417004
18	0xbdadc1ef	-0.084842555
19	0x3d24ab2d	0.04020231
20	0x3d84382c	0.064560264
21	0xbcda051d	-0.026613766
22	0xbd18c118	-0.037293524
23	0x3ddb2c41	0.107018
24	0x3d6874a5	0.056751866
25	0x3c15ea0a	0.009150038
26	0x3d4e478c	0.0503612
27	0xbd28bfc7	-0.041198518
28	0x3d804d5c	0.06264755
29	0x3d67cba8	0.056590706
30	0xbd63e8f6	-0.05564209
31	0xbce19c48	-0.027540341
32	0xbde9485a	-0.11390753
33	0x3d5c13e8	0.05372992
34	0xbd154a77	-0.03644797
35	0xbd3af0f9	-0.045639966
36	0x3d53eb69	0.051738176
37	0xbd0b4f80	-0.034011364
38	0xbd2f0c0e	-0.042736106
39	0x3e1413bd	0.14460655
40	0xbdc66fde	-0.09689306
41	0x3dfd00b5	0.123536505
42	0xbc6c1cc3	-0.014411154
43	0xbd3d09f5	-0.046152074
44	0x3bea732c	0.007154843
45	0x3d68a972	0.05680222
46	0xbd6d49f6	-0.057931863
47	0xbe18a28a	-0.14905754
48	0x3d74533c	0.05964969
49	0xbb2ff156	-0.0026846728
50	0xbcdcddb6	-0.026961189
51	0x3e01af59	0.12664546
52	0xbd18205b	-0.03714023
53	0xbd0a0d90	-0.03370434
54	0xbe0f84e2	-0.14015535
55	0xbd170edb	-0.0368794
56	0x3db9309a	0.09042473
57	0x3dc8f189	0.09811694
58	0x3cdee59d	0.027209098
59	0x3dfca0f2	0.123353854
60	0x3d65b8f6	0.056084596
61	0x3da9e2fe	0.082952484
62	0xbddeb8a9	-0.10875065
63	0xbd119a62	-0.03554762
64	0xbdd65ace	-0.10466538
65	0x3e666a06	0.22501382
66	0x3cd97d63	0.026549047
67	0x3d4af4c1	0.04954982
68	0x3dd08d05	0.10183147
69	0xbd75c2df	-0.060000297
70	0xbdaab55e	-0.08335374
71	0xbd6d98a3	-0.058006894
72	0xbaad5df8	-0.0013226857
73	0x3d73f4ff	0.05955982
74	0x3d400d76	0.046887837
75	0x3c9ece8c	0.019385599
76	0x3d9c79a0	0.07640386
77	0xbd1b61b8	-0.03793499
78	0xbca1a055	-0.019729773
79	0x3df44c13	0.119285725
80	0xbd2c8139	-0.042115424
81	0xbbfeb356	-0.0077728434
82	0x3de5dc68	0.1122368
83	0x3c67d678	0.014150254
84	0x3dc054cb	0.09391173
85	0xbd8181c6	-0.063235804
86	0x3dd3264a	0.103100374
87	0xbd7ddfc2	-0.06198097
88	0xbda0a28b	-0.078435026
89	0x3d51c2f1	0.0512113
90	0x3dd6c14e	0.10486089
91	0xbd555736	-0.052085124
92	0xbdbdcf18	-0.092680156
93	0xbdafeebb	-0.08590456
94	0xbe04f965	-0.12985761
95	0xbde7244d	-0.11286221
96	0xbb6c6f18	-0.003607696
97	0xbd8dc475	-0.06922237
98	0xbd9fcaa6	-0.07802324
99	0xbdaf3497	-0.085549526
100	0x3def8536	0.1169533
101	0xbdbe60b2	-0.09295787
102	0x3d3fbd28	0.046811253
103	0xbd87c3b0	-0.06629121
104	0x3e022f68	0.12713397
105	0x3ddbeea4	0.107388765
106	0x3d6ef2b2	0.05833692
107	0x3d414089	0.047180686
108	0xbd2c340f	-0.042041834
109	0xbd8f8981	-0.07008649
110	0xbd483c0d	-0.048885394
111	0x3b50ea5c	0.003187797
112	0xbd7d044a	-0.06177167
113	0x3c9f17e6	0.019420575
114	0xbe036459	-0.12831248
115	0x3db3456a	0.08753474
116	0xba356b40	-0.00069205835
117	0x3dbeeb9b	0.09322282
118	0xbd8e57c2	-0.06950332
119	0xbc8fc1a3	-0.017548388
120	0x3da4f2e8	0.08054143
121	0xbd8e4483	-0.06946661
122	0xbde84e17	-0.113430195
123	0x3cc0fb8c	0.023557447
124	0x3bd34460	0.00644736
125	0xbd5096d3	-0.050925087
126	0xbe1130e7	-0.14178811
127	0xbd5395cd	-0.051656533
128	0xbcf3b140	-0.029747605
129	0xbdea84ac	-0.114510864
130	0xbd2bcc98	-0.041943163
131	0xbd4cf71e	-0.050040357
132	0x3cde4547	0.027132643
133	0x3cfc7f48	0.030822411
134	0xbd4bd5f7	-0.0497646
135	0xbdbf67f1	-0.09345997
136	0x3dc7d1e5	0.09756831
137	0xbc814799	-0.01578121
138	0x3c6e5786	0.014547234
139	0x3d25809c	0.040405855
140	0xbcaf1d93	-0.021376407
141	0x3d8498b3	0.064744376
142	0xbe242b14	-0.16032058
143	0x3da8ed67	0.08248406
144	0xbd803111	-0.06259359
145	0xbced41eb	-0.028962096
146	0x3df0068f	0.11720001
147	0xbad44bcf	-0.0016196909
148	0xba1c40ba	-0.0005960573
149	0xbd66294f	-0.05619174
150	0x3d4dd18e	0.050248675
151	0x3d47579f	0.048667546
152	0xbd5c5873	-0.05379529
153	0x3b7ee188	0.0038891751
154	0xbda706ba	-0.0815558
155	0x3d15ceb2	0.036574073
156	0x3d3cd2ae	0.046099357
157	0xbddee78b	-0.10884007
158	0xbdfa32f2	-0.12216748
159	0x3d4ea575	0.05045076
160	0x3cba5140	0.022743821
161	0xbc3e63b5	-0.011620452
162	0xbcf744d4	-0.030184187
163	0x3db0d40b	0.08634194
164	0xbceeba4d	-0.02914157
165	0x3cfce6e8	0.030871823
166	0xbdb463d7	-0.088081054
167	0xbe1510b0	-0.14557147
168	0xbc9e504f	-0.019325403
169	0xbda4fc45	-0.08055929
170	0x3dae7388	0.085181296
171	0x3df87f10	0.1213361
172	0xbce082f3	-0.027406191
173	0x3cef9b43	0.02924884
174	0xbdd6e9dc	-0.10493824
175	0x3c631b77	0.013861529
176	0xbdbbb0ef	-0.09164607
177	0x3c4bdc87	0.012442715
178	0x3cafb2b4	0.021447517
179	0xbc85e6e1	-0.016345443
180	0xbd654cc1	-0.0559814
181	0xbd5b493c	-0.05353664
182	0xbcd068b2	-0.025440548
183	0xbd3a1092	-0.04542596
184	0x3df09bf8	0.11748499
185	0x3d811a94	0.063038975
186	0x3d27b833	0.04094715
187	0x3cd30f8f	0.025764255
188	0x3d170db3	0.0368783
189	0xbd6041ac	-0.05475013
190	0xbdbacdbe	-0.091212735
191	0xbd4a6c15	-0.04941948
192	0x3ceb0aab	0.02869161
193	0xbd46d4c4	-0.048542753
194	0x3da17d10	0.07885182
195	0xbe04fd6e	-0.12987301
196	0xbdab39c4	-0.08360627
197	0x3df48802	0.11940004
198	0x3dbd0a82	0.0923052
199	0x3db8c7e9	0.09022505
200	0x3d2c2b45	0.042033453
201	0xbe060b43	-0.13090234
202	0x3d154ca4	0.036450043
203	0xbcf7b1aa	-0.030236084
204	0xbd743282	-0.05961848
205	0x3d9f8dad	0.077906944
206	0xbd83dd62	-0.0643871
207	0x3db6c7f0	0.08924854
208	0x3c1918d6	0.0093443
209	0xbdf2a01b	-0.11846944
210	0x3bdc3370	0.006719999
211	0xbc2bd311	-0.010487334
212	0xbc5781f5	-0.013153543
213	0xbd214ffd	-0.039382923
214	0x3c7d176d	0.01544748
215	0x3cf1ec92	0.02953175
216	0xbd2a959c	-0.041646585
217	0x3e04f963	0.12985758
218	0xbdbf405d	-0.09338448
219	0xbd36ea70	-0.04465717
220	0x3d270728	0.04077831
221	0x3dae6047	0.08514457
222	0x3c5015c7	0.012700505
223	0x3bc3dac8	0.0059770085
224	0xbde8d3ac	-0.11368498
225	0x3d5a26ed	0.05325978
226	0xbdfe6823	-0.12422206
227	0x3dcdf498	0.10056418
228	0xbd97cb78	-0.074118555
229	0x3d1da30e	0.03848558
230	0xbbed5ba0	-0.0072435886
231	0xbcb6e147	-0.022324217
232	0xbd27cbce	-0.040965848
233	0xbdb7ce4f	-0.08974897
234	0xbd09e5cd	-0.03366642
235	0xbd48a5e4	-0.04898633
236	0xbddfa43f	-0.10919999
237	0xbd8fd77c	-0.07023522
238	0x3b9a7d9e	0.0047146818
239	0xb930918a	-0.00016838885
240	0x3ca2dd2e	0.019880857
241	0x3dc232ac	0.09482321
242	0x3d6ebf2a	0.058287777
243	0xbcb859d3	-0.022503769
244	0x3cb7fa44	0.022458203
245	0x3d06631d	0.032809366
246	0x3d8bfc59	0.06835241
247	0xbc1fe737	-0.009759716
248	0xbdba37ab	-0.09092649
249	0x3d42850e	0.047490172
250	0xbcb77698	-0.022395417
251	0xbda291f6	-0.07937996
252	0x3c832849	0.01601042
253	0xbd1973fc	-0.037464127
254	0xbd8bd18e	-0.06827079
255	0x3dcee92c	0.10103068

model.spatialSeq.0.update_mlp.0.bias f4 [33]
0	0xbcf5307f	-0.029930351
1	0xbddd487e	-0.108048424
2	0x3dc4005d	0.09570382
3	0x3cb71a8f	0.022351531
4	0xbdc536af	-0.09629571
5	0x3dd9c1e9	0.106326886
6	0xbc95c5c4	-0.018282779
7	0x3dc8a247	0.09796577
8	0x3cdb767f	0.026789902
9	0xbdc1671b	-0.09443494
10	0x3cee70ba	0.029106487
11	0x3c1d25f6	0.00959157
12	0x3da02c31	0.07820929
13	0xbda495be	-0.080363736
14	0xbd22ec02	-0.039775856
15	0x3db94e45	0.09048132
16	0xbe44358b	-0.1916105
17	0xbd67c234	-0.05658169
18	0x3dc1c9b5	0.09462301
19	0x3daa4a81	0.08314992
20	0x3d9860f4	0.07440367
21	0xbd88fe77	-0.0668916
22	0x3ca57296	0.02019624
23	0xbdeb796d	-0.114977695
24	0x3dd2c34e	0.10291158
25	0x3ce462fd	0.027879233
26	0x3da325ec	0.079662174
27	0xbcb6e97d	-0.022328133
28	0xbd0c1573	-0.034200143
29	0x3bd50bc6	0.0065016476
30	0xbe237605	-0.1596299
31	0xbe3d44ed	-0.18483324
32	0x3e1ade54	0.15123874

model.spatialSeq.0.update_mlp.2.weight f4 [33, 33]
0	0xbdfdd893	-0.12394824
1	0x3d29edb3	0.041486453
2	0x3e00b6a5	0.12569673
3	0x3e0a578f	0.13509963
4	0x3d498b5f	0.04920518
5	0xbce83d08	-0.028349414
6	0xbd6020d8	-0.054718822
7	0x3dbf2eb8	0.09335083
8	0xbde906d6	-0.11378257
9	0xbe05ae18	-0.13054693
10	0x3df19872	0.11796655
11	0x3d4e3fea	0.050353922
12	0x3e1193a4	0.14216477
13	0x3e0cff1e	0.13769194
14	0xbd8c0e08	-0.06838614
15	0xbcead3d2	-0.028665457
16	0x3dd7b8bf	0.105332844
17	0xbbfb2efc	-0.007665513
18	0xbd4f4ead	-0.05061214
19	0x3e05a937	0.13052832
20	0xbe366f99	-0.17816009
21	0x3e28c942	0.16483024
22	0xbd9c25be	-0.07624386
23	0x3d801f4b	0.06255969
24	0x3c3dbc4e	0.01158054
25	0x3e1bc180	0.15210533
26	0x3db8a9ea	0.090167835
27	0xbd96dbe4	-0.073661596
28	0xbe008f5e	-0.1255469
29	0xbd452c6c	-0.048138067
30	0x3d4d3b3e	0.050105326
31	0x3e356926	0.17715892
32	0xbbe818ea	-0.007083048
33	0x3dccc3a5	0.09998254
34	0x3c6e8cce	0.014559938
35	0x3e1617a6	0.14657459
36	0x3e000d5f	0.125051
37	0x3df1843d	0.117928006
38	0xba81b28e	-0.0009895132
39	0x3e0cf44d	0.13765068
40	0xbe2071e1	-0.15668441
41	0x3e08af9b	0.13348238
42	0x3d49a6db	0.04923139
43	0xbe01b419	-0.12666358
44	0xbd9e8571	-0.07740296
45	0xbccdaddb	-0.025107315
46	0xbd6e657c	-0.05820225
47	0x3c9d70e4	0.01921887
48	0xbd9395cc	-0.07206306
49	0xbdf2043c	-0.11817214
50	0x3e162a62	0.14664605
51	0x3da44b15	0.08022133
52	0xbc977bb0	-0.018491596
53	0x3e102b8e	0.14079115
54	0x3d2db91c	0.042412862
55	0xbdf0dc62	-0.11760785
56	0xbcb69272	-0.022286627
57	0xbdf3a78f	-0.11897194
58	0xbc9966cf	-0.01872578
59	0xbd6b3c8e	-0.057430796
60	0x3dd3ad63	0.10335805
61	0xbd19a5e9	-0.03751174
62	0x3db0087c	0.08595368
63	0xbc8ca890	-0.01717022
64	0xbde942dc	-0.113897055
65	0xbcbc868a	-0.023013372
66	0x3d9030c0	0.07040548
67	0x3d96d820	0.07365441
68	0x3dd28cf4	0.10280791
69	0xbe3badad	-0.18327971
70	0xbe141d85	-0.14464386
71	0xbe24bf6c	-0.16088647
72	0xbe1f487a	-0.15554991
73	0x3dd56da1	0.10421301
74	0xbdce5d4b	-0.10076388
75	0xbd7e8c7b	-0.06214569
76	0xbe0692eb	-0.13141982
77	0x3d2ccecd	0.042189408
78	0xbd48fad0	-0.04906732
79	0x3d8451eb	0.06460937
80	0x3d86857f	0.06568431
81	0x3e24e87a	0.16104308
82	0x3d32ef20	0.04368508
83	0xbd8da79a	-0.06916733
84	0x3c282730	0.010263249
85	0xbdfdb73c	-0.12388465
86	0xbe41383d	-0.1886911
87	0x3bd453cb	0.0064797155
88	0x3dcd572c	0.10026392
89	0xbe2e031c	-0.16993374
90	0x3e33799f	0.17526864
91	0x3e3163fd	0.17323299
92	0x3c672a93	0.014109272
93	0xbd80c7b3	-0.062880896
94	0xbe36372e	-0.17794487
95	0x3d6d58d6	0.05794605
96	0x3dcfdeb8	0.10149902
97	0xbd7902ed	-0.060793806
98	0x3d82649f	0.06366848
99	0x3e1f8624	0.15578514
100	0xbe0441ff	-0.129158
101	0x3c8ad45f	0.01694697
102	0xbe4191bb	-0.18903248
103	0x3db42ffa	0.08798213
104	0xbda7c655	-0.08192126
105	0x3d1b7c75	0.03796049
106	0x3de47f3d	0.11157081
107	0xbd401eff	-0.04690456
108	0x3e2c4f8b	0.16827218
109	0xbd02ebf5	-0.031963307
110	0x3d7f911d	0.06239425
111	0xbc6676dd	-0.014066425
112	0x3e40adab	0.18816249
113	0x3df5f9ab	0.12010511
114	0x3d63d671	0.05562443
115	0xbd73fce3	-0.059567343
116	0x3e1add96	0.15123591
117	0x3de6839b	0.112555705
118	0xbd9d04f4	-0.0766696
119	0xbe0bb13a	-0.13641825
120	0xbca3fb94	-0.020017423
121	0xbd809d05	-0.06279949
122	0x3df6d927	0.12053137
123	0xbdba70ea	-0.09103568
124	0xbc1357d7	-0.008993111
125	0xbe390d32	-0.1807144
126	0x3dfd43cd	0.123664476
127	0x3e1919ad	0.14951201
128	0x3dd20756	0.102553055
129	0x3c081e7f	0.008308052
130	0xbde73aaa	-0.11290486
131	0x3e2f7ecc	0.17138213
132	0x3d53e08a	0.05172781
133	0x3c92a3e8	0.017900422
134	0xbe14c743	-0.14529137
135	0xbdbaf256	-0.09128253
136	0x3ddeefb9	0.10885567
137	0xbe292320	-0.16517305
138	0xbd4d6e42	-0.05015398
139	0x3d1af8b0	0.037834823
140	0xbe1471a9	-0.14496483
141	0xbe3473e0	-0.17622328
142	0x3a485700	0.00076423585
143	0x3dab0ddb	0.08352252
144	0x3d9be178	0.07611364
145	0xbe0c37cc	-0.1369316
146	0xbbc11c62	-0.005893276
147	0x3d6dc6f1	0.058051053
148	0xbc1cbbf4	-0.009566296
149	0x3e1568bc	0.14590734
150	0xbd8e5484	-0.06949714
151	0xbdf9e9a2	-0.12202765
152	0x3e06adef	0.13152288
153	0x3ca431f9	0.02004336
154	0xbd3f512c	-0.04670827
155	0x3ddad3f5	0.10684959
156	0x3e0d0f45	0.13775356
157	0xbdd26454	-0.10273042
158	0x3e37862a	0.17922273
159	0xbcac3065	-0.02101917
160	0x3d8cfe7a	0.06884475
161	0xbd93c274	-0.07214823
162	0xbd2eb573	-0.042653512
163	0xbcba279d	-0.022723967
164	0x3e448c53	0.19194154
165	0xbd423a49	-0.047418866
166	0xbdab3554	-0.08359781
167	0xbe1ecfd5	-0.15508969
168	0x3d77d1cd	0.060502816
169	0x3e5e2bf9	0.21696462
170	0x3cdbf39b	0.026849559
171	0xbd70845b	-0.058719974
172	0x3db4200b	0.08795174
173	0x3c942d1d	0.018087918
174	0x3dd4f167	0.10397606
175	0xbd9d31cf	-0.07675516
176	0x3e0097e9	0.12557949
177	0xbba6e962	-0.0050937394
178	0x3d211af6	0.039332353
179	0xbe46c140	-0.19409657
180	0xbd7d52f5	-0.061846692
181	0xbd180305	-0.037112255
182	0x3d0e0832	0.034675784
183	0xbca03278	-0.019555315
184	0xbdcc2c64	-0.09969404
185	0xbe4966a4	-0.1966806
186	0x3de8e317	0.11371439
187	0x3db6ce4a	0.08926065
188	0xbc4530ef	-0.012035592
189	0x3e26f2c0	0.1630354
190	0xbd8478db	-0.06468364
191	0xbe284d44	-0.16435724
192	0x3df43f13	0.11926093
193	0xbc18b21f	-0.009319811
194	0x3d9c7cc4	0.07640985
195	0x3d92f6db	0.0717599
196	0xbdf6ad19	-0.120447345
197	0x3dd9b945	0.106310405
198	0x3cd2700b	0.025688192
199	0xbd9f6a0e	-0.077839
200	0xbd1f6e51	-0.038923565
201	0x3d432075	0.047638375
202	0x3e43bbae	0.19114563
203	0xbd898e4b	-0.06716593
204	0xbdd0155c	-0.10160324
205	0xbd66882e	-0.056282215
206	0x3dda1880	0.10649204
207	0x3e16f9ba	0.147437
208	0x3cefea02	0.029286388
209	0xbdbe9a0a	-0.09306724
210	0x3dc30838	0.09523052
211	0xbd9bbcd9	-0.07604379
212	0x3e17d4df	0.14827298
213	0x3db135d6	0.086528465
214	0xbd6e38de	-0.0581597
215	0xbca2594d	-0.019817973
216	0x3c1175d2	0.008878188
217	0xbdf68b0d	-0.120382406
218	0x3da78e23	0.08181407
219	0x3c97fcb6	0.01855312
220	0x3c52ee0f	0.01287414
221	0xbe08ef76	-0.13372597
222	0xbc421a03	-0.011847022
223	0x3d636640	0.055517435
224	0x3e04a588	0.1295377
225	0xbc0034cc	-0.007825088
226	0xbc8d41ad	-0.01724323
227	0x3de64a20	0.11244607
228	0xbe1a3904	-0.15060812
229	0xbe117d3d	-0.14207931
230	0xbe31ccc2	-0.17363265
231	0x3d0407d0	0.032234013
232	0x3decd06c	0.11563191
233	0xbe225d96	-0.15856013
234	0x3dd94700	0.10609245
235	0x3d043d88	0.032285243
236	0xbd19a9ad	-0.03751533
237	0xbced7245	-0.028985152
238	0x3e1cc89c	0.15310901
239	0x3e2182e2	0.15772584
240	0x3dae0b33	0.0849823
241	0x3dc8949c	0.0979397
242	0xbcb8a8b0	-0.022541374
243	0xbd951e3d	-0.07281158
244	0x3e16be19	0.14720954
245	0xbe2f0c0f	-0.17094444
246	0x3e37be9f	0.1794381
247	0xbe0eedaf	-0.13957857
248	0xbb2489d1	-0.002510656
249	0xbdf388d8	-0.11891335
250	0xbd36bd1d	-0.044613946
251	0xbe034065	-0.12817533
252	0xbba6db44	-0.0050920565
253	0xbdaf7b7b	-0.08568474
254	0xbc9c925f	-0.019112764
255	0x3e3f89be	0.18704888

model.spatialSeq.0.update_mlp.2.bias f4 [33]
0	0xbe1d55ee	-0.15364811
1	0xbd8c4fe4	-0.068511754
2	0x3e476bf2	0.19474772
3	0xbd95bb7d	-0.07311151
4	0xbc0b16c2	-0.008489313
5	0x3e30af4b	0.17254369
6	0x3d3caf2a	0.046065487
7	0xbe015b9c	-0.12632602
8	0xbe151012	-0.14556912
9	0x3daa2488	0.08307749
10	0x3d9c4935	0.07631151
11	0xbd710468	-0.058842093
12	0x3d043837	0.032280173
13	0xbe284531	-0.16432644
14	0xbd681836	-0.056663714
15	0xbdc1071a	-0.09425183
16	0x3db55239	0.08853573
17	0xbd93f89b	-0.07225152
18	0x3e04fe31	0.12987591
19	0x3de12fee	0.1099547
20	0x3db765d5	0.0895497
21	0xbcecdb7a	-0.028913248
22	0x3e024b16	0.12723956
23	0xbd7c09f5	-0.061532933
24	0xbe12782a	-0.14303651
25	0x3c645297	0.013935707
26	0xbdc6cec2	-0.09707405
27	0x3e360697	0.17775951
28	0x3d949559	0.07255048
29	0x3dedb019	0.116058536
30	0x3d94a58b	0.07258137
31	0xbcbcf231	-0.023064705
32	0xbd4af49c	-0.049549684
