code/logs/epoch=61-step=24614.ckpt (torch, 217711 bytes, 84 tensors)

model.upscale.weight f4 [32, 1]
-0.22591543 0.48112416 0.1023863 0.7133219 0.31526336 -0.7155338 -1.3215698 -0.68875134
0.2834379 0.623865 0.5180351 -1.11922 -1.1043837 0.09915328 0.41014242 0.8706502
0.5263094 0.24667972 -0.5321097 0.37268367 -0.7579164 -0.0043406263 0.65485656 0.60440004
-0.65834373 0.6289069 -0.00038183338 0.64237714 0.19911574 0.47092128 0.7626373 -0.10759187
00000000: 6056 67be e855 f63e e9af d13d 449c 363f
00000010: 336a a13e 392d 37bf 3329 a9bf 0252 30bf
00000020: c61e 913e 9eb5 1f3f f39d 043f 9a42 8fbf
00000030: 725c 8dbf e010 cb3d 30fe d13e eee2 5e3f
00000040: 36bc 063f 9c99 7c3e 5738 08bf 65d0 be3e
00000050: cf06 42bf d03b 8ebb aea4 273f f6b9 1a3f
00000060: 3789 28bf 0b00 213f cf30 c8b9 d472 243f
00000070: ffe4 4b3e 981c f13e 333c 433f 2059 dcbd

model.upscale.bias f4 [32]
-0.67496586 0.27745533 -1.2052013 0.22369479 0.51020294 -0.96760684 -0.64313394 0.28696728
0.1137263 0.10800972 0.45732832 -0.37725502 -0.2848614 -1.0122952 0.099500164 0.380436
-0.8256627 0.06031511 0.9178476 0.6211488 -0.31275398 -0.009993649 -0.37404925 -0.6873227
-0.4927053 0.49132046 -0.118802495 0.41893798 0.3252329 0.3196036 -0.19257915 -0.24946272
00000000: 90ca 2cbf a00e 8e3e 0944 9abf 3f10 653e
00000010: a99c 023f 15b5 77bf 6da4 24bf 60ed 923e
00000020: 56e9 e83d 3334 dd3d f026 ea3e 9227 c1be
00000030: 5ad9 91be e492 81bf bec6 cb3d 82c8 c23e
00000040: a15e 53bf fa0c 773d 0ff8 6a3f 9c03 1f3f
00000050: 4a21 a0be 67bc 23bc 6283 bfbe 61f4 2fbf
00000060: de43 fcbe 5b8e fb3e b94e f3bd 0a7f d63e
00000070: ed84 a63e 15a3 a33e 7833 45be 2873 7fbe

model.spatialSeq1.0.msg_mlp.0.weight f4 [16, 64]
0.09362522 -0.011111521 0.043410346 0.038462304 0.06303028 -0.69075173 -0.26124388 -0.18145463
-0.08503704 0.09639157 -0.046136208 -0.14123148 -0.064557634 -0.00814939 0.09936859 0.10097244
-0.041422423 -0.04872795 0.1275776 0.112048924 -0.15727527 -0.091101095 -0.15680574 -0.1294338
-1.7521435 -0.08677972 0.013388463 -0.053774633 -0.05315865 -0.086772874 0.12838572 0.09639388
0.008140281 -0.09035592 0.20041269 -0.3001691 -0.009208606 0.47562146 -0.572704 0.17649877
0.06557596 -0.15024552 0.052899394 -0.363221 -0.38421968 0.13225394 -0.1913379 -0.19544418
0.08270204 -0.3025291 0.14065987 -0.040172268 -0.28938884 0.052883156 -0.12540697 0.010515829
-0.19719684 0.038731225 0.09652783 -0.071785 0.03403892 -0.06296831 -0.18419252 0.08557053
-0.104112595 0.09715689 -0.19237077 -0.044171542 -0.11480069 0.3568574 0.47095376 -0.041866
-0.014056823 0.09658348 0.09282298 0.24721964 0.036430925 0.014991402 -0.008277863 0.00526321
-0.13783352 -0.041483548 0.009583938 -0.041715335 0.30479676 0.08928685 -0.02505706 -0.10560012
-0.3931139 -0.03413012 -0.09777459 0.024045873 0.057844654 0.0951042 0.120963015 -0.016300097
0.0405958 0.010431102 -0.017339753 -0.10134499 0.10384805 -0.017113784 -0.54792976 -0.10792145
-0.06864332 -0.16227482 0.0066540875 -0.5309963 -0.54438186 -0.19904873 -0.2593259 -0.1423925
-0.17835702 -0.28156006 -0.047652576 0.053645115 -0.6695904 0.007608818 -0.52374244 -0.123046935
-0.37112647 0.091062985 -0.051994696 0.067079134 0.04201494 0.07343788 -0.38210085 -0.100294635
0.016065821 -0.18668321 0.12283013 -0.1706007 -0.007334174 0.89917517 -0.26640722 0.103098474
-0.10520334 -0.086831816 -0.08071292 0.012779174 0.22718525 0.26755154 -0.09649222 -0.22289534
0.38644734 0.01422333 0.052757714 -0.121655725 -0.20540403 0.13310513 0.052723367 0.41498128
-0.6943401 -0.060849447 0.08132504 -0.0809032 -0.095506355 -0.047210637 0.24295011 0.0914419
0.11532433 -0.027899021 -0.26537463 -0.051096626 0.093729004 0.13079642 -0.34522432 0.14529917
-0.11837049 -0.06300044 -0.05783704 -0.15895227 0.02155799 -0.1680341 -0.1534271 -0.039903354
-0.012891447 -0.13921788 0.14114147 -0.08370687 -0.52399683 0.05320287 0.21086296 -0.084797695
-0.5103113 0.05164002 -0.05083519 0.0329773 0.00980007 0.074766174 0.10383463 0.09580478
-0.060804665 0.056909077 -0.015582816 0.12332533 0.14526068 -0.15386008 0.2431895 -0.11580159
0.035718177 0.1263637 0.12635075 0.11595605 0.15851615 -0.07393397 -0.061530117 -0.062014848
0.09217819 0.006379431 -0.06569254 0.077929966 0.47396868 0.037339572 -0.13293982 0.14271925
0.11247952 -0.042846385 0.07133672 0.12306971 0.13286822 -0.03572116 -0.088309884 -0.116714865
-0.067148715 0.14461109 0.021989739 -0.080572955 0.04152256 -0.5609061 -1.2198513 -0.15222682
-0.030285403 -0.21680853 -0.050960127 -0.8698426 -0.80888414 -0.14201522 -0.23390406 -0.10870025
-0.1516021 -0.033886176 0.005240219 0.10728394 -1.0662868 -0.07492301 -1.0695376 -0.3824467
-2.052319 0.07855988 -0.15999952 0.056363694 0.06060546 -0.04061477 -0.8831214 0.09148598
00000000: 94be bf3d 190d 36bc 0ccf 313d a68a 1d3d
00000010: 0516 813d 1bd5 30bf c2c1 85be 3ecf 39be
00000020: e627 aebd f268 c53d 52f9 3cbd fc9e 10be
00000030: cb36 84bd 0585 05bc c281 cb3d a3ca ce3d
00000040: 8faa 29bd f596 47bd b4a3 023e e879 e53d
00000050: c50c 21be 3693 babd af91 20be 4b8a 04be
00000060: 3d46 e0bf 91b9 b1bd 495b 5b3c ca42 5cbd
00000070: e2bc 59bd fab5 b1bd 8c77 033e 286a c53d
00000080: d05e 053c 860c b9bd fc38 4d3e c4af 99be
00000090: b1df 16bc a884 f33e bb9c 12bf 18bc 343e
000000a0: b04c 863d f6d9 19be 09ad 583d 1af8 b9be
000000b0: 71b8 c4be 946d 073e 15ee 43be 8522 48be
000000c0: b05f a93d 18e5 9abe 2409 103e ad8b 24bd
000000d0: c62a 94be 029c 583d af6a 00be 954a 2c3c
000000e0: f8ed 49be a2a4 1e3d 62b0 c53d 0404 93bd
000000f0: 656c 0b3d 88f5 80bd f79c 3cbe 9a3f af3d
00000100: fc38 d5bd 31fa c63d d8fc 44be 38ed 34bd
00000110: a01c ebbd 03b6 b63e da20 f13e af7b 2bbd
00000120: 974e 66bc 8fcd c53d f919 be3d 2527 7d3e
00000130: 9838 153d 7f9e 753c e09f 07bc 0177 ac3b
00000140: 3b24 0dbe a7ea 29bd f305 1d3c b3dd 2abd
00000150: 520e 9c3e 06dc b63d 7744 cdbc e044 d8bd
00000160: 3a46 c9be 06cc 0bbd 0b3e c8bd dafb c43c
00000170: 84ee 6c3d fec5 c23d 75bb f73d c887 85bc
00000180: c847 263d 36e7 2a3c 190c 8ebc f68d cfbd
00000190: 49ae d43d 3532 8cbc 2045 0cbf ec05 ddbd
000001a0: de94 8cbd 5f2b 26be 880a da3b 60ef 07bf
000001b0: 9c5c 0bbf 6ed3 4bbe 5dc6 84be 57cf 11be
000001c0: 39a3 36be a428 90be 592f 43bd fbba 5b3d
000001d0: 476a 2bbf 6453 f93b fc13 06bf 0800 fcbd
000001e0: 4a04 bebe 3b7f ba3d 64f8 54bd c960 893d
000001f0: dc17 2c3d 9966 963d b9a2 c3be 4667 cdbd
00000200: 789c 833c e229 3fbe 5d8e fb3d f3b1 2ebe
00000210: 8353 f0bb 5830 663f 8766 88be 4b25 d33d
00000220: d974 d7bd e1d4 b1bd d14c a5bd be5f 513c
00000230: 40a3 683e 84fc 883e b79d c5bd ad3e 64be
00000240: 6ddc c53e f808 693c 7918 583d a326 f9bd
00000250: 6f55 52be b64c 083e 75f4 573d 6d78 d43e
00000260: 46c0 31bf 453d 79bd be8d a63d 94b0 a5bd
00000270: d698 c3bd f15f 41bd eac7 783e e445 bb3d
00000280: 2a2f ec3d 7d8c e4bc 2fdf 87be b24a 51bd
00000290: fef4 bf3d 7fef 053e 3ec1 b0be 4ec9 143e
000002a0: 3a6c f2bd 6006 81bd 88e6 6cbd 62c4 22be
000002b0: 629a b03c 2211 2cbe fe1b 1dbe b371 23bd
000002c0: a636 53bc 228f 0ebe 6487 103e 826e abbd
000002d0: a824 06bf 41eb 593d 76ec 573e 6aaa adbd
000002e0: c3a3 02bf 7c84 533d 8f38 50bd 3513 073d
000002f0: 7990 203c 021f 993d 40a7 d43d 4c35 c43d
00000300: 500e 79bd 7e19 693d 114f 7fbc fe91 fc3d
00000310: 37bf 143e 7f8d 1dbe ab06 793e 6229 edbd
00000320: 394d 123d 7c65 013e 1762 013e 5e7a ed3d
00000330: 0f52 223e b16a 97bd 0107 7cbd 4803 7ebd
00000340: ebc7 bc3d 8c0a d13b cf89 86bd bf99 9f3d
00000350: 06ac f23e 61f1 183d 6021 08be ff24 123e
00000360: aa5b e63d b17f 2fbd fc18 923d f90b fc3d
00000370: 9b0e 083e 5a50 12bd d0db b4bd 3408 efbd
00000380: 4485 89bd ee14 143e d323 b43c 6f03 a5bd
00000390: 8f13 2a3d 8b97 0fbf 1624 9cbf 59e1 1bbe
000003a0: 1819 f8bc 0e03 5ebe 91bb 50bd 01ae 5ebf
000003b0: 0813 4fbf 706c 11be 8c84 6fbe 3d9e debd
000003c0: 953d 1bbe 3bcc 0abd 25b6 ab3b afb7 db3d
000003d0: 167c 88bf 3c71 99bd 9ce6 88bf 0ed0 c3be
000003e0: 3259 03c0 01e4 a03d ead6 23be 9edd 663d
000003f0: 6e3d 783d ac5b 26bd 3e14 62bf 005d bb3d

model.spatialSeq1.0.msg_mlp.0.bias f4 [16]
0.119274855 0.052922934 0.014568753 0.12413294 -0.080610126 0.03177256 0.0036592428 -0.11576629
-0.031294715 0.03774495 -0.008855023 -0.08180678 -0.13518234 0.108700946 -0.01660412 -0.08178005
00000000: 6046 f43d b8c5 583d c7b1 6e3c 6939 fe3d
00000010: ec16 a5bd f223 023d e8cf 6f3b e016 edbd
00000020: e32e 00bd 739a 1a3d a914 11bc 508a a7bd
00000030: 3d6d 0abe 9a9e de3d 5d05 88bc 4d7c a7bd

model.spatialSeq1.0.msg_mlp.2.weight f4 [32, 16]
0.056222253 -0.039112154 -0.12281845 0.006600544 0.16782045 -0.3283935 0.19372159 0.10911097
-0.12525834 0.07405494 0.05146461 -0.22936878 -0.015253533 -0.16152188 0.1358847 0.0883906
-0.014944438 -0.4098953 -0.16734964 -0.6340256 -0.00992495 -0.23277868 0.097592406 -0.015911506
0.116156764 0.004283303 -0.37331277 -0.20314042 0.08735831 -0.28793162 -0.30222985 -0.25656927
0.2120722 -0.2129943 0.110901535 0.023360183 -0.076070264 0.088819295 -0.20684247 -0.06957066
0.121752515 0.002999407 -0.10741784 -0.17603539 0.1141919 -0.039684433 -0.23164277 -0.1166943
-0.23874581 -0.048806813 -0.15877303 -0.15113743 -0.12232085 0.07319391 0.035818484 0.068138495
0.15923725 -0.07025765 0.19964857 -0.07347528 -0.2642845 -0.005766133 0.1547811 -0.18814546
-0.3726496 0.042846918 -0.18574585 -0.43366605 -0.31371987 -0.08974828 0.14753644 0.1260902
0.067915626 -0.19026206 -0.21235017 -0.023443038 -0.052562423 -0.27162555 0.0051033506 0.12706114
-0.15892994 -0.04200504 0.07435966 -0.20295982 -0.11128955 -0.077501714 0.09429771 -0.04268013
0.012136251 0.077748604 -0.114837594 -0.21994114 -0.008818331 0.18544528 0.12589163 0.06602165
0.1592952 -0.12801017 0.033577513 0.028731275 -0.16581018 -0.08547925 -0.07024276 -0.16903117
-0.15698452 0.050737247 0.14314295 -0.17408744 0.011375018 0.018281756 -0.041472636 0.019793164
0.19078422 -0.17387168 -0.08843111 0.057337306 -0.055013705 0.076169714 0.06345364 0.17083642
-0.07591464 -0.12505159 0.022748236 -0.1051084 0.21615036 0.08988908 0.009652419 -0.13695353
-0.090105526 0.12048559 0.12801611 -0.26631373 -0.047743205 0.031940695 -0.038187504 0.2941389
0.27334133 -0.13396701 -0.050555933 0.10553592 0.071853705 0.09690311 0.25552732 -0.18678866
-0.03531603 -0.23981835 -0.011585112 -0.32974803 0.07108764 -0.15031712 -0.095605634 -0.02869092
0.14693129 0.10538984 -0.11794261 0.14173466 -0.13835952 0.17612362 -0.15989427 0.10179459
0.0034541627 0.16265857 -0.013829421 -0.025638232 0.06024068 0.08152962 0.14190564 -0.12193499
0.09124166 -0.07121213 0.24045534 0.1281926 -0.011740912 -0.040965915 -0.011020555 0.1261838
-0.064350314 -0.1744888 -0.3349192 0.06440722 -0.28845268 -0.20004655 0.063883215 -0.032604415
-0.14111666 -8.5223845e-05 -0.42129567 0.1468463 -0.028880965 0.050108243 -0.2057852 -0.0804848
0.17769624 0.023422968 0.2094384 -0.010866777 0.10512243 -0.10545548 0.013885627 0.24623287
-0.051954776 0.07777457 -0.118914254 0.2176233 -0.28421342 -0.045251824 -0.11890038 0.1792728
-0.11733856 0.16140638 0.2818756 0.15909265 -0.050304517 0.00504528 -0.042365346 0.018103462
-0.1868257 -0.08291855 0.017224751 0.18800351 0.093310826 -0.1605553 0.13346034 -0.14898415
-0.014949979 0.020512884 0.13776365 -0.075656824 -0.31412518 -0.19720098 -0.18740293 0.2603314
-0.034739975 -0.07105168 -0.6002165 -0.13236119 -0.010700209 -0.17197956 -0.09790246 0.030228455
-0.20765616 -0.09250989 0.09982396 -0.004769 -0.06517104 -0.0693377 -0.07457503 0.16751766
-0.148326 -0.06630792 0.0845333 -0.25388938 0.08828961 0.14431113 0.07989319 0.0031227658
00000000: 4e49 663d 1134 20bd 3d88 fbbd 6049 d83b
00000010: 20d9 2b3e 3123 a8be f45e 463e 9275 df3d
00000020: b943 00be 1eaa 973d 8ecc 523d a6df 6abe
00000030: f4e9 79bc fe65 25be 5c25 0b3e 2206 b53d
00000040: 84d9 74bc ccdd d1be b45d 2bbe 804f 22bf
00000050: 429c 22bc 895d 6ebe 87de c73d d958 82bc
00000060: 99e3 ed3d f35a 8c3b da22 bfbe 0b04 50be
00000070: eae8 b23d c66b 93be dfbd 9abe 0c5d 83be
00000080: 7429 593e 2e1b 5abe 5820 e33d db5d bf3c
00000090: baca 9bbd e4e6 b53d 83ce 53be 107b 8ebd
000000a0: 6259 f93d b391 443b e2fd dbbd 9f42 34be
000000b0: 71dd e93d 258c 22bd c333 6dbe 6cfd eebd
000000c0: c879 74be a7e9 47bd 6695 22be c5c3 1abe
000000d0: 5b83 fabd b0e6 953d 67b6 123d 328c 8b3d
000000e0: 170f 233e 3ee3 8fbd ad70 4c3e 357a 96bd
000000f0: 4c50 87be d4f1 bcbb f07e 1e3e 34a9 40be
00000100: eecb bebe 4080 2f3d 2934 3ebe 7a09 debe
00000110: e49f a0be f2cd b7bd cb13 173e ca1d 013e
00000120: 5917 8b3d 0fd4 42be 5372 59be 9d0b c0bc
00000130: b24b 57bd 8112 8bbe 023a a73b 511c 023e
00000140: 88be 22be 7a0d 2cbd e149 983d b3d4 4fbe
00000150: c7eb e3bd 38b9 9ebd 281f c13d 5cd1 2ebd
00000160: 20d7 463c a93a 9f3d f92f ebbd 4038 61be
00000170: c37a 10bc 5ee5 3d3e bce9 003e 5c36 873d
00000180: 481e 233e 1915 03be 9388 093d da5d eb3c
00000190: 25ca 29be bf0f afbd 70db 8fbd 8216 2dbe
000001a0: 8dc0 20be dcd1 4f3d 1194 123e fa43 32be
000001b0: 495e 3a3c 9fc3 953c 36df 29bd 4625 a23c
000001c0: f05c 433e 6b0b 32be 5f1b b5bd 86da 6a3d
000001d0: 0d56 61bd defe 9b3d fbf3 813d beef 2e3e
000001e0: 2379 9bbd 860d 00be 825a ba3c 1343 d7bd
000001f0: 8556 5d3e c417 b83d 2e25 1e3c 8c3d 0cbe
00000200: 3f89 b8bd 26c1 f63d a816 033e 465a 88be
00000210: 618e 43bd 3fd4 023d 806a 1cbd 6099 963e
00000220: 65f3 8b3e a62e 09be bd13 4fbd 3723 d83d
00000230: 0928 933d 2375 c63d 7ad4 823e 8745 3fbe
00000240: 8ba7 10bd f192 75be 7bcf 3dbc bcd4 a8be
00000250: 6696 913d bbec 19be e3cc c3bd 3809 ebbc
00000260: 2875 163e a1d6 d73d e58b f1bd e422 113e
00000270: 1eae 0dbe c059 343e 53bb 23be af79 d03d
00000280: 3c5f 623b f88f 263e cc94 62bc 4507 d2bc
00000290: eebe 763d 00f9 a63d b64f 113e 0db9 f9bd
000002a0: e8dc ba3d aad7 91bd ed39 763e ec44 033e
000002b0: f45c 40bc e0cb 27bd 8f8f 34bc 5336 013e
000002c0: 19ca 83bd 31ad 32be 887a abbe efe7 833d
000002d0: 12b0 93be 01d9 4cbe 34d5 823d 358c 05bd
000002e0: e380 10be 34ba b2b8 11b4 d7be e05e 163e
000002f0: c697 ecbc 4d3e 4d3d 5bb9 52be 37d5 a4bd
00000300: 01f6 353e 86e1 bf3c 0577 563e 910a 32bc
00000310: 6e4a d73d 0bf9 d7bd 8a80 633c 7824 7c3e
00000320: 88ce 54bd 4648 9f3d 5189 f3bd a4d8 5e3e
00000330: 6c84 91be fa59 39bd 0b82 f3bd 4a93 373e
00000340: 334f f0bd b747 253e 0052 903e 2fe9 223e
00000350: 1c0c 4ebd e052 a53b 4987 2dbd b64d 943c
00000360: 3c4f 3fbe 33d1 a9bd ec1a 8d3c fe83 403e
00000370: bf19 bf3d 9c68 24be d4a9 083e 4d8f 18be
00000380: c2f0 74bc a30a a83c ea11 0d3e f7f1 9abd
00000390: 04d5 a0be 0eef 49be 8ee6 3fbe 284a 853e
000003a0: 814b 0ebd 8b83 91bd caa7 19bf b189 07be
000003b0: ee4f 2fbc 691b 30be 1681 c8bd aaa1 f73c
000003c0: d1a3 54be d375 bdbd 8170 cc3d 4645 9cbb
000003d0: 6578 85bd ed00 8ebd cbba 98bd c089 2b3e
000003e0: c5e2 17be 72cc 87bd cb1f ad3d cafd 81be
000003f0: 2fd1 b43d 4cc6 133e 0a9f a33d 51a7 4c3b

model.spatialSeq1.0.msg_mlp.2.bias f4 [32]
0.085468754 -0.07067635 -0.09531151 -0.029348966 0.057562802 0.044490065 -0.09402369 -0.026299525
-0.14347549 0.042031765 0.11413866 -0.09507865 0.089759596 -0.16388205 0.028747324 0.02399369
0.078325935 0.09946161 -0.16237804 0.03873947 -0.02849217 0.08178166 -0.03797338 -0.21171531
-0.29560694 0.10316746 0.046432942 -0.048025895 -0.12878466 -0.060910773 0.03870367 -0.052300777
00000000: 3e0a af3d c3be 90bd ae32 c3bd 3e6d f0bc
00000010: f9c6 6b3d 373b 363d 7e8f c0bd 1a72 d7bc
00000020: 3deb 12be 8029 2c3d 88c1 e93d 98b8 c2bd
00000030: e1d3 b73d b2d0 27be 827f eb3c 6a8e c43c
00000040: 5969 a03d 87b2 cb3d 6e46 26be 47ad 1e3d
00000050: 6968 e9bc 257d a73d fa89 1bbd e6cb 58be
00000060: cb59 97be 7649 d33d 7830 3e3d cdb6 44bd
00000070: 20e0 03be 937d 79bd bd87 1e3d 5739 56bd

model.spatialSeq1.0.gate_mlp.0.weight f4 [1, 32]
-0.23619677 0.4069712 0.014904225 -0.004124645 0.74376816 0.011942268 0.023362534 -0.014338585
0.20441192 -0.04630226 -0.13078585 0.7109749 0.02616017 0.003554444 0.5732787 -0.14514019
0.34772533 0.020426432 0.124650955 -0.25937775 0.006787801 -0.1684555 -0.07357829 -0.027146995
0.4693115 -0.21352479 0.35319424 -0.18291458 0.034041088 0.03153531 0.11428049 -0.16622055
00000000: 91dd 71be 875e d03e da30 743c 0828 87bb
00000010: 9767 3e3f 81a9 433c c962 bf3c 62ec 6abc
00000020: 5c51 513e 70a7 3dbd baec 05be 7302 363f
00000030: da4d d63c adf1 683b 65c2 123f a19f 14be
00000040: 0e09 b23e 5555 a73c 0049 ff3d 29cd 84be
00000050: 346c de3b 997f 2cbe 37b0 96bd 6063 debc
00000060: 9949 f03e 3ea6 5abe e0d5 b43e f64d 3bbe
00000070: ab6e 0b3d 2b2b 013d e40b ea3d b835 2abe

model.spatialSeq1.0.update_mlp.0.weight f4 [32, 64]
-0.03498766 0.09436797 -0.1260024 0.18619938 0.0018603242 -0.017333906 -0.07028874 -0.021415612
0.051246054 0.08499025 0.053775687 -0.045937747 -0.059976302 -0.12942323 -0.078911334 0.062679835
-0.010909226 -0.008481754 -0.010127648 0.09199878 -0.034840465 -0.0055118306 -0.027594784 -0.07723709
-0.025683755 0.13350326 -0.09067272 -0.06278859 -0.025748443 -0.06260242 0.02046113 0.093695164
-0.07635072 -0.2324306 0.046940785 -0.35235143 -0.09473402 -0.8975987 0.40648413 0.2413105
-0.038087636 -0.48267135 -0.028939888 0.32865217 0.49798664 0.103072956 -0.3537469 -0.28345993
0.118717134 -0.32213053 0.010100856 -0.12172853 0.53441405 0.040387645 -0.060237303 0.05012692
-0.35993308 -0.051125474 -0.026319219 -0.19604535 0.10807766 -0.0422639 -0.26260233 0.057144433
0.057992257 -0.16582221 0.09954596 -0.00598433 -0.09732163 -0.03895806 0.14111166 -0.01989354
-0.05428337 -0.098434106 0.029358042 0.051375967 -0.13525084 -0.016952895 -0.1826809 -0.049267974
0.038808312 -0.046417613 0.055084962 0.06618904 -0.08033953 -0.1209508 0.00328676 0.15954879
0.19123638 -0.18757644 -0.009320384 -0.034741316 0.1065402 0.027173959 0.015827062 -0.066332325
-0.11952174 0.09063949 0.004964954 0.1321439 0.06325744 -0.5022084 -0.47934154 -0.28987685
0.09461485 0.02477717 0.11088247 -0.5742024 -0.6414374 -0.021202557 0.0009649584 -0.072671115
-0.13440561 0.09011601 -0.05537107 -0.10662139 -0.38787532 0.12739748 -0.17881788 -0.13594599
0.34065238 0.021850808 0.070342354 0.14962438 0.08862324 -0.016577374 -0.05635658 0.023193553
0.04442874 0.065452464 -0.042535372 0.14122005 0.16070862 0.061039314 0.1831071 -0.04270212
-0.036589175 -0.10006694 -0.1255488 0.21398611 -0.150756 0.007473574 -0.042943727 -0.04492453
0.121822275 -0.11925628 0.06004905 0.08656954 -0.06261478 -0.1026309 -0.021109074 -0.027776757
0.08249803 -0.16522571 -0.06939573 -0.054374203 0.00838897 -0.051302113 0.12136698 0.09829238
-0.12421231 0.11750567 0.10555349 -0.013760026 0.010076491 -0.7136386 0.4139044 0.14645486
0.037023857 -0.013529155 -0.09705479 0.42661875 0.31549096 -0.20505881 -0.023994518 -0.05546179
-0.027715696 -0.021385955 0.13544853 0.1560412 0.38211972 0.08259851 -0.11818949 0.05166609
-0.0007898924 0.015806023 -0.038341675 0.093567885 -0.051503863 -0.015129298 -0.08300898 0.077866286
-0.1703865 0.071776055 0.09416181 -0.18488182 0.047199372 0.049788438 -0.024689464 -0.12548526
0.12066795 0.10247355 -0.036982164 -0.06880779 0.17167737 -0.030274697 0.06625295 -0.09257456
0.06746345 -0.043022953 0.10055288 0.024439974 -0.024448562 -0.05953362 0.079840444 -0.10989818
0.13924651 -0.10079119 0.13031028 -0.10200466 0.103910014 0.18819536 0.14661244 0.06740252
-0.11370577 0.05879787 0.10558098 0.10918471 0.045187037 -0.66753125 -0.35379928 -0.071448945
-0.052024815 -0.07098782 0.09600267 -0.41610897 -0.50039357 0.0059513166 -0.0667404 0.03038986
-0.014511766 0.087567516 0.06713443 0.05797781 -0.6892018 -0.08656813 0.020941902 -0.17105465
-0.7048912 -0.036482144 0.0031668495 0.09082165 0.005320558 0.11616298 -0.061374083 0.089833185
00000000: 384f 0fbd ff43 c13d c606 01be 0dab 3e3e
00000010: 1fd6 f33a d6ff 8dbc 8bf3 8fbd cb6f afbc
00000020: 62e7 513d 5e0f ae3d e543 5c3d 3829 3cbd
00000030: b6a9 75bd 8687 04be 449c a1bd 495e 803d
00000040: 9cbc 32bc 0ef7 0abc 6fee 25bc db69 bc3d
00000050: e0b4 0ebd 969c b4bb 750e e2bc 7b2e 9ebd
00000060: bd66 d2bc 14b5 083e 9eb2 b9bd 4e97 80bd
00000070: 66ee d2bc b335 80bd 1a9e a73c 40e3 bf3d
00000080: c45d 9cbd 4a02 6ebe fb44 403d 6867 b4be
00000090: e903 c2bd 07c9 65bf b01e d03e 1a1a 773e
000000a0: c801 1cbd b320 f7be 5813 edbc 1945 a83e
000000b0: 1bf8 fe3e ea17 d33d 501e b5be a921 91be
000000c0: f821 f33d 4bee a4be 107e 253c cf4c f9bd
000000d0: 5ccf 083f 846d 253d 64bb 76bd e351 4d3d
000000e0: 2649 b8be f268 51bd 679b d7bc 1dc0 48be
000000f0: d257 dd3d e91c 2dbd d073 86be 4810 6a3d
00000100: 4a89 6d3d 4ccd 29be c1de cb3d 3318 c4bb
00000110: 9050 c7bd 7d92 1fbd 937f 103e c7f7 a2bc
00000120: 3d58 5ebd d297 c9bd 4780 f03c 9b6f 523d
00000130: 327f 0abe cce0 8abc b410 3bbe 37cd 49bd
00000140: 77f5 1e3d 6520 3ebd c5a0 613d 1f8e 873d
00000150: 0d89 a4bd 0eb5 f7bd af66 573b c260 233e
00000160: 78d3 433e 0a14 40be 86b4 18bc e94c 0ebd
00000170: c031 da3d ec9b de3c c1a7 813c 3ed9 87bd
00000180: d0c7 f4bd 32a1 b93d 0eb1 a23b bb50 073e
00000190: 1e8d 813d bb90 00bf 416c f5be bd6a 94be
000001a0: 6ec5 c13d 7ef9 ca3c 5916 e33d eefe 12bf
000001b0: 3e35 24bf fcb0 adbc 43f5 7c3a 98d4 94bd
000001c0: a0a1 09be be8e b83d c6cc 62bd 515c dabd
000001d0: 9897 c6be 7c74 023e 091c 37be 6d35 0bbe
000001e0: fd69 ae3e 7700 b33c a70f 903d 2237 193e
000001f0: 1a80 b53d 46cd 87bc 28d6 66bd 6800 be3c
00000200: e9fa 353d f10b 863d 9239 2ebd fd9b 103e
00000210: cd90 243e 5c04 7a3d 6d80 3b3e 6be8 2ebd
00000220: 88de 15bd e5ef ccbd dd8f 00be 2d1f 5b3e
00000230: c85f 1abe e2e4 f43b c3e5 2fbd c902 38bd
00000240: f57d f93d a33c f4bd fef5 753d 5f4b b13d
00000250: 2e3c 80bd 2630 d2bd f0ec acbc 158c e3bc
00000260: baf4 a83d ee30 29be 591f 8ebd 7cb7 5ebd
00000270: e471 093c 2a22 52bd 408f f83d 844d c93d
00000280: 0663 febd d0a6 f03d 6e2c d83d bb71 61bc
00000290: de17 253c 05b1 36bf 47eb d33e 43f8 153e
000002a0: 54a6 173d 64a9 5dbc a9c4 c6bd c66d da3e
000002b0: 0888 a13e f0fa 51be 2790 c4bc e72b 63bd
000002c0: 070c e3bc 9931 afbc 05b3 0a3e 44c9 1f3e
000002d0: 32a5 c33e 6829 a93d 550d f2bd d29f 533d
000002e0: c810 4fba a27b 813c 290c 1dbd 85a0 bf3d
000002f0: b7f5 52bd e0e0 77bc 9d00 aabd 5c78 9f3d
00000300: cc79 2ebe 53ff 923d e8d7 c03d a951 3dbe
00000310: 2154 413d f6ee 4b3d 8f41 cabc 357f 00be
00000320: c220 f73d a7dd d13d 9c7a 17bd 19eb 8cbd
00000330: 31cc 2f3e a402 f8bc a0af 873d bb97 bdbd
00000340: 472a 8a3d d638 30bd abee cd3d 5736 c83c
00000350: 5a48 c8bc 86d9 73bd 6383 a33d 4c12 e1bd
00000360: a396 0e3e 9d6b cebd 0f70 053e d2e7 d0bd
00000370: c6ce d43d 49b6 403e 9221 163e 550a 8a3d
00000380: 92de e8bd 09d6 703d d73a d83d 3c9c df3d
00000390: 0b16 393d 54e3 2abf 2e25 b5be d353 92bd
000003a0: f917 55bd 1062 91bd 0c9d c43d 3c0c d5be
000003b0: cb19 00bf 4303 c33b 31af 88bd 28f4 f83c
000003c0: c2c2 6dbc 9956 b33d c77d 893d 247a 6d3d
000003d0: 876f 30bf a24a b1bd 5a8e ab3c f328 2fbe
000003e0: c073 34bf 4d6e 15bd eb8a 4f3b b400 ba3d
000003f0: 1358 ae3b dbe6 ed3d 6463 7bbd 76fa b73d

model.spatialSeq1.0.update_mlp.0.bias f4 [32]
0.02276779 0.04499258 0.06484062 0.020058716 -0.09022743 0.045101028 -0.07800152 -0.050842218
0.00072123733 0.022473471 -0.19772714 -0.07790069 0.14652978 -0.020022199 0.10249654 -0.05861864
-0.035911847 0.051055837 -0.20116574 0.015858162 0.022738965 -0.16633162 0.07006353 0.12718989
0.14377028 0.14759462 0.11484579 -0.07207679 -0.10560556 -0.20457752 -0.20612302 0.21031357
00000000: 8483 ba3c 244a 383d 29cb 843d 2d52 a43c
00000010: 29c9 b8bd dbbb 383d 43bf 9fbd ee3f 50bd
00000020: 6b11 3d3a 491a b83c fc78 4abe 668a 9fbd
00000030: e70b 163e 9805 a4bc b5e9 d13d 191a 70bd
00000040: 4d18 13bd ed1f 513d 64fe 4dbe fae8 813c
00000050: 1147 ba3c d652 2abe 787d 8f3d 113e 023e
00000060: 8438 133e 0b23 173e 4534 eb3d ff9c 93bd
00000070: ba47 d8bd c57c 51be ea11 53be 715c 573e

model.spatialSeq1.0.update_mlp.2.weight f4 [32, 32]
-0.4717409 -0.017104452 -0.1906679 0.075460784 -0.15809658 0.014553605 -0.07573273 -0.29199252
0.19463159 -0.52117157 -0.22453408 -0.11745579 -0.18973015 -0.005777715 0.17646688 0.4142619
-0.11075207 0.033990104 0.14820556 0.008248326 -0.29572648 0.042485896 0.024660017 -0.035448294
-0.24437466 0.010144289 -0.035075746 0.21309704 -0.083038725 -0.011083133 -0.12254436 -0.008551595
-0.012440918 -0.14078432 0.08534096 0.009440841 -0.18508999 0.14093715 0.24071379 -0.00639923
0.18214166 0.28212774 -0.033548925 -0.15706596 0.069175296 -0.16661064 -0.12681699 -0.07511712
-0.053071275 -0.08524692 -0.07086092 -0.04706476 0.2050066 -0.07334961 0.018530656 0.027483169
-0.1306496 -0.09693972 0.09693275 0.05290269 -0.043701634 0.011628961 0.03127171 -0.052706625
0.02528411 -0.097601786 -0.091728695 0.12677617 -0.12887885 -0.23048727 0.18250714 0.31690362
0.10279689 0.17917868 0.29271024 -0.3954399 -0.09148855 0.07261988 -0.3868734 -0.16402692
0.15929374 -0.0140703255 -0.3144492 -0.036521837 0.21922678 0.11199866 -0.25354123 -0.103984095
-0.013715403 0.20684472 0.11073141 -0.14443961 0.045798603 0.06123499 0.2470387 0.16918823
0.057079963 -0.051573064 -0.105161294 0.09573857 0.07522609 0.07094633 0.0073403874 -0.037710536
0.0043718196 -0.08603432 0.04244014 0.06943669 -0.025091292 -0.057706818 0.12352477 0.030333221
0.081646614 0.056726206 -0.04137502 0.042199023 -0.119251885 -0.021729745 -0.08511033 -0.035958357
0.089270234 -0.10705806 0.028644904 0.057100832 0.013970279 0.021382794 -0.13288632 0.16005062
-0.105370164 -0.24615669 0.027472582 0.15813427 -0.24399187 -0.25989455 -0.37674466 -0.13967127
-0.16106732 0.73225 0.045021065 0.152792 -0.26253 0.20874608 -0.19296567 0.06703647
-0.38617244 -0.14016764 -0.15605144 -0.22890554 0.25378546 -0.21904977 0.28275433 -0.18274476
-0.29962167 0.10729719 0.15019804 -0.025580566 -0.37611765 -0.4604497 -0.17057317 0.09108094
-0.08933842 0.1702838 -0.028784733 0.13936634 0.10774159 0.0563466 -0.12872653 0.07266146
0.1288815 0.09337053 -0.13619474 -0.19842032 -0.13155133 -0.15881887 -0.0890022 0.021517472
0.13665296 0.03193606 0.024598906 -0.019138254 -0.15324147 -0.1555016 -0.07627844 -0.06876507
-0.13715759 -0.08529766 0.18319541 -0.23125745 -0.24722628 -0.023746237 -0.05076296 0.0076217297
0.2009265 -0.076549254 0.06250035 -0.08005941 -0.19350693 -0.17884225 0.04895772 0.060610402
-0.13183126 0.15519594 -0.115168095 -0.16342503 0.095107555 -0.057509474 0.19439131 -0.13196339
-0.13882713 0.08648021 -0.019225238 0.03401399 0.15444475 -0.053442996 0.23710525 0.075593166
0.16063225 0.0812541 0.27102175 -0.1933343 0.0050399927 -0.015896762 -0.07917036 0.021115314
-0.09859537 0.0030775212 0.17631166 0.118591726 0.08395067 -0.058499835 -0.20413794 0.02331378
-0.05932343 -0.1590485 -0.18768372 -0.08680349 0.00094536826 -0.15073627 -0.051876135 0.142459
-0.0061351564 -0.018434288 -0.21094702 -0.07680267 -0.1763079 -0.38895017 -0.12059178 -0.10137075
0.008975813 -0.1437171 -0.10586337 0.15112877 -0.4049928 -0.20463422 -0.2543854 0.0895913
00000000: 0688 f1be a31e 8cbc 723e 43be 2f8b 9a3d
00000010: 12e4 21be 3e72 6e3c c319 9bbd 0b80 95be
00000020: 814d 473e 806b 05bf 43ec 65be a98c f0bd
00000030: 9f48 42be fc52 bdbb bcb3 343e 231a d43e
00000040: fbd1 e2bd 3539 0b3d 33c3 173e fd23 073c
00000050: 7669 97be b105 2e3d ce03 ca3c 3b32 11bd
00000060: 5a3d 7abe 3b34 263c 96ab 0fbd 1c36 5a3e
00000070: 3510 aabd 0796 35bc 8af8 fabd fd1b 0cbc
00000080: fed4 4bbc c429 10be 3ec7 ae3d c2ad 1a3c
00000090: 3b88 3dbe d451 103e ad7d 763e a2b0 d1bb
000000a0: 5883 3a3e 0c73 903e 996a 09bd e6d5 20be
000000b0: c7ab 8d3d fb9b 2abe 50dc 01be 01d7 99bd
000000c0: 4461 59bd f095 aebd 881f 91bd fac6 40bd
000000d0: 40ed 513e 5238 96bd 9acd 973c 6224 e13c
000000e0: 02c9 05be 5588 c6bd ad84 c63d 7eb0 583d
000000f0: 7c00 33bd 6687 3e3c c416 003d e7e2 57bd
00000100: 9f20 cf3c 72e3 c7bd 41dc bbbd 9dd1 013e
00000110: d1f8 03be db04 6cbe 27e3 3a3e 3141 a23e
00000120: 2d87 d23d 9e7a 373e 1ede 953e 1977 cabe
00000130: 595e bbbd bbb9 943d 4514 c6be acf6 27be
00000140: e61d 233e 3987 66bc 7cff a0be ec97 15bd
00000150: fc7c 603e 8e5f e53d 28d0 81be 9df5 d4bd
00000160: 92b6 60bc 1acf 533e 26c7 e23d fae7 13be
00000170: 5197 3b3d 8ad1 7a3d b7f7 7c3e ae3f 2d3e
00000180: aecc 693d 473e 53bd ce5e d7bd 9512 c43d
00000190: 2310 9a3d 4f4c 913d a287 f03b 5d76 1abd
000001a0: 7b41 8f3b c332 b0bd b6d5 2d3d d334 8e3d
000001b0: 418c cdbc fc5d 6cbd 8efa fc3d 607d f83c
000001c0: 5736 a73d bd59 683d da78 29bd e2d8 2c3d
000001d0: 553a f4bd 9402 b2bc 534e aebd 1249 13bd
000001e0: 50d3 b63d 4241 dbbd b8a8 ea3c 90e2 693d
000001f0: 99e3 643c f82a af3c 5a13 08be 4fe4 233e
00000200: 50cc d7bd 8010 7cbe 2e0e e13c f3ed 213e
00000210: 01d9 79be e610 85be ade4 c0be fc05 0fbe
00000220: d5ee 24be bc74 3b3f 0268 383d 8275 1c3e
00000230: 556a 86be 88c1 553e cb98 45be 6b4a 893d
00000240: 65b8 c5be 1b88 0fbe f3cb 1fbe 3766 6abe
00000250: 2bf0 813e 954e 60be 2dc5 903e 7121 3bbe
00000260: 0368 99be a1be db3d 84cd 193e 568e d1bc
00000270: 7e92 c0be 10c0 ebbe bcaa 2ebe a588 ba3d
00000280: 10f7 b6bd e05e 2e3e f6cd ebbc 0db6 0e3e
00000290: 9fa7 dc3d b1cb 663d e3d0 03be 88cf 943d
000002a0: 83f9 033e 0c39 bf3d a276 0bbe b22e 4bbe
000002b0: 64b5 06be 6aa1 22be c946 b6bd 6945 b03c
000002c0: c1ee 0b3e 63cf 023d a583 c93c d4c7 9cbc
000002d0: 55eb 1cbe d03b 1fbe df37 9cbd b3d4 8cbd
000002e0: 0a73 0cbe 8ab0 aebd 9497 3b3e c1ce 6cbe
000002f0: e328 7dbe 7887 c2bc d2ec 4fbd b4bf f93b
00000300: adbf 4d3e dbc5 9cbd 2f00 803d 30f6 a3bd
00000310: ae26 46be 6c22 37be e487 483d 9d42 783d
00000320: c6fe 06be afeb 1e3e 40dd ebbd e458 27be
00000330: c0c7 c23d 0e8f 6bbd 840e 473e 6921 07be
00000340: b328 0ebe 891c b13d 3f7e 9dbc 4152 0b3d
00000350: c426 1e3e 0be7 5abd b8cb 723e 97d0 9a3d
00000360: c87c 243e 8d68 a63d 5dc3 8a3e 6df9 45be
00000370: 8626 a53b ed39 82bc 1224 a2bd 06fa ac3c
00000380: 5fec c9bd 3db0 493b 0b8b 343e 38e0 f23d
00000390: 54ee ab3d 869d 6fbd 8909 51be 8afc be3c
000003a0: 20fd 72bd 9cdd 22be 2930 40be 07c6 b1bd
000003b0: 97d2 773a 9c5a 1abe 127c 54bd c6e0 113e
000003c0: 6c09 c9bb 8103 97bc 7f02 58be b84a 9dbd
000003d0: 0f8a 34be 7a24 c7be d3f8 f6bd 789b cfbd
000003e0: 4a0f 133c 932a 13be e5ce d8bd 80c1 1a3e
000003f0: 375b cfbe a28b 51be ce3e 82be a57b b73d

model.spatialSeq1.0.update_mlp.2.bias f4 [32]
-0.16602984 -0.017244847 0.059492003 0.030430365 -0.37349325 -0.0043322765 0.21186262 -0.033107787
-0.14023313 -0.041652344 -0.098712824 -0.08278132 -0.010893112 0.13205494 -0.24227017 -0.057798807
-0.043064777 -0.2347371 0.10131744 -0.1212118 0.1770391 -0.10463005 -0.115023844 -0.1591774
-0.026016561 0.0114359325 0.2095661 0.028214395 -0.31813094 -0.093193024 -0.077206805 0.17104237
00000000: ba03 2abe 1145 8dbc e3ad 733d 1a49 f93c
00000010: 823a bfbe c5f5 8dbb 84f2 583e 089c 07bd
00000020: 4699 0fbe a69b 2abd f329 cabd 4189 a9bd
00000030: 0679 32bc 6939 073e ac15 78be 71be 6cbd
00000040: b164 30bd ec5e 70be 857f cf3d e43d f8bd
00000050: bd49 353e 4848 d6bd 9f91 ebbd 66ff 22be
00000060: af20 d5bc c75d 3b3c 7f98 563e e021 e73c
00000070: 0fe2 a2be fcdb bebd 9a1e 9ebd bb25 2f3e

model.temporalSeq.0.attention.in_proj_weight f4 [96, 32]
0.10311618 -0.10350185 0.068151705 0.06503468 -0.16308367 0.0404086 -0.04724716 0.078486115
0.12458222 -0.031092357 0.09347089 0.120309 -0.22317234 -0.15629345 -0.2220917 0.031666756
-0.015275354 0.13274042 -0.040655386 -0.1842988 0.12190898 -0.13779263 -0.06405208 0.0986727
-0.17207442 0.015817946 -0.06943031 0.024061885 0.18578461 0.08416254 -0.11453064 0.1239119
-0.017072832 0.12668422 0.22640008 -0.021660192 -0.2064178 0.0808943 -0.01658547 0.2769116
0.10346961 0.13120814 -0.124252714 -0.059754673 -0.05803063 -0.1177371 0.09573185 0.0027395878
-0.03935043 -0.35001364 0.0181391 -0.08925116 0.016327444 0.22144942 0.2425023 -0.068044044
-0.0789782 0.04909531 -0.076981254 -0.0057476824 -0.02807214 0.1299244 0.07091911 0.05405749
0.08060554 0.09824887 -0.17659935 0.027197476 0.38884813 0.16634217 0.14697737 -0.06847154
0.18882786 0.10606042 0.030895637 0.10384034 -0.086257815 -0.016436292 0.096517906 0.0068449965
-0.24270274 -0.04867754 -0.08456311 0.019258266 0.3722414 -0.092307955 -0.080789894 0.010592808
-0.08607646 0.005471292 -0.29865888 -0.07747157 -0.10169378 0.02014804 -0.056834262 -0.03101699
0.07627808 0.021396348 -0.2933459 -0.09081103 0.13518661 -0.16270097 0.04386636 -0.17726146
-0.06369322 -0.019464694 0.08423732 0.093199275 -0.09211136 0.17270656 0.14615694 -0.06307111
-0.052837916 -0.112589866 -0.092946164 0.11111991 0.029526206 0.08663797 0.11144423 0.07586037
0.0048190756 0.058166094 0.18082124 0.11460727 -0.08173065 -0.07386242 0.1112191 -0.10591949
-0.030594544 0.081779405 0.12198323 -0.112255014 0.12621759 -0.008128364 -0.08085264 0.002822264
-0.018806068 0.11694759 -0.065388255 0.023858009 -0.13734485 -0.048551686 0.15896878 0.04793039
0.014315192 -0.022073912 -0.10588515 -0.18783715 0.06654466 -0.007957565 0.21289775 -0.15681349
0.23342493 -0.13822699 0.15304165 0.11679997 0.10071855 0.18316391 0.042736106 -0.091489084
0.06933283 0.029738823 -0.008786835 0.0054242727 0.24882744 0.14230935 -0.09506647 0.047498867
-0.06458979 -0.0019052608 -0.06763891 0.025239356 -0.026326865 0.029700534 0.016050288 -0.10979606
-0.20194761 -0.18268198 -0.042236816 -0.32280004 -0.06464294 -0.08881837 0.061910827 -0.18611318
0.044913966 -0.043325316 0.040161636 -0.10378071 0.043585762 0.14217298 0.104730695 -0.18915293
-0.24784008 -0.17064302 0.0717715 0.07291762 0.085444346 -0.013548111 -0.032848585 -0.13509707
0.21182342 -0.08620872 0.08177614 0.07607027 -0.20384052 0.24652812 0.17559046 0.082151316
-0.1134813 -0.106932625 0.0873416 -0.2874662 -0.19517688 0.08559208 0.022462936 0.16664459
0.25556463 0.09721249 0.18855046 -0.16244279 -0.015836734 0.04402647 -0.12996782 0.020978436
0.15053414 0.22974539 -0.07965478 -0.051735654 -0.09996681 -0.15519376 -0.17901552 0.08354992
0.2682252 0.02383975 -0.023030743 0.084427044 0.10753392 0.08831918 0.05860449 -0.039885793
0.14233726 0.008072054 -0.088159405 -0.23896071 0.19153124 0.1740638 0.27048716 0.017520534
-0.59199464 0.010455809 -0.3211361 0.076880924 -0.34055856 0.10996738 0.06931407 -0.27528173
00000000: 932e d33d c7f8 d3bd 1f93 8b3d e730 853d
00000010: 68ff 26be 7d83 253d 3d86 41bd 54bd a03d
00000020: f724 ff3d 66b5 febc aa6d bf3d 9164 f63d
00000030: 4a87 64be 640b 20be 026c 63be 00b5 013d
00000040: 7a45 7abc 1bed 073e 4386 26bd d3b8 3cbe
00000050: 6aab f93d 8319 0dbe bd2d 83bd ea14 ca3d
00000060: 4734 30be a394 813c 7a31 8ebd 6e1d c53c
00000070: 523e 3e3e 695d ac3d 0a8f eabd 86c5 fd3d
00000080: 53dc 8bbc 82b9 013e 6cd5 673e b770 b1bc
00000090: 305f 53be e9ab a53d 40de 87bc 5bc7 8d3e
000000a0: e0e7 d33d 6d5b 063e 3578 febd 51c1 74bd
000000b0: 87b1 6dbd 2620 f1bd 0f0f c43d a88a 333b
000000c0: eb2d 21bd fd34 b3be 7398 943c 50c9 b6bd
000000d0: 22c1 853c a3c3 623e 8652 783e ad5a 8bbd
000000e0: 53bf a1bd 2a18 493d 59a8 9dbd 0e57 bcbb
000000f0: 8bf7 e5bc e70a 053e 0a3e 913d 636b 5d3d
00000100: 8414 a53d b436 c93d 76d6 34be 3ecd de3c
00000110: 1a17 c73e 9a55 2a3e 3c81 163e cf3a 8cbd
00000120: 175c 413e 3536 d93d d918 fd3c 3faa d43d
00000130: f0a7 b0bd 67a5 86bc 2eab c53d fe4b e03b
00000140: 1187 78be 1a62 47bd 6c2f adbd 83c3 9d3c
00000150: 6d96 be3e f40b bdbd 2c75 a5bd 758d 2d3c
00000160: db48 b0bd 8648 b33b d1e9 98be 6aa9 9ebd
00000170: d444 d0bd 810d a53c 0bcb 68bd 5817 febc
00000180: af37 9c3d 6547 af3c 6f31 96be 22fb b9bd
00000190: 5c6e 0a3e 159b 26be 36ad 333d 0784 35be
000001a0: 9771 82bd 6c74 9fbc 9e84 ac3d 43df be3d
000001b0: e1a4 bcbd fdd9 303e 2aaa 153e 6d2b 81bd
000001c0: 926c 58bd 8495 e6bd 8f5a bebd d692 e33d
000001d0: f1e0 f13c 3f6f b13d df3c e43d af5c 9b3d
000001e0: 56e9 9d3b 923f 6e3d 3429 393e 37b7 ea3d
000001f0: 6662 a7bd 2e45 97bd d7c6 e33d 51ec d8bd
00000200: 69a1 fabc f67b a73d 58d2 f93d f5e5 e5bd
00000210: 2f3f 013e d42c 05bc 1296 a5bd bcf5 383b
00000220: 2f0f 9abc 3882 ef3d 47ea 85bd df71 c33c
00000230: 21a4 0cbe 22de 46bd b6c8 223e a852 443d
00000240: 448a 6a3c 59d4 b4bc 50da d8bd 6258 40be
00000250: 9148 883d 7260 02bc de01 5a3e b793 20be
00000260: f206 6f3e 608b 0dbe f3b6 1c3e d334 ef3d
00000270: 8745 ce3d 528f 3b3e 0e0c 2f3d a15e bbbd
00000280: 5ffe 8d3d d59e f33c a8f6 0fbc 19be b13b
00000290: 9fcc 7e3e 8bb9 113e 36b2 c2bd 2c8e 423d
000002a0: a747 84bd f2b9 f9ba 4586 8abd c4c2 ce3c
000002b0: 70ab d7bc 894e f33c e57b 833c c2dc e0bd
000002c0: 5bcb 4ebe fc10 3bbe 8300 2dbd 0c46 a5be
000002d0: 8563 84bd 68e6 b5bd 3596 7d3d 7494 3ebe
000002e0: b5f7 373d e375 31bd 8780 243d fb8a d4bd
000002f0: fc86 323d cb95 113e 0c7d d63d 4eb1 41be
00000300: cac9 7dbe 0bbd 2ebe f0fc 923d d555 953d
00000310: 72fd ae3d e5f8 5dbc 3d8c 06bd e356 0abe
00000320: 3de8 583e 338e b0bd 407a a73d bbca 9b3d
00000330: 92bb 50be de71 7c3e fccd 333e f33e a83d
00000340: e268 e8bd 7eff dabd 27e0 b23d c52e 93be
00000350: 73dc 47be e74a af3d 3104 b83c e1a4 2a3e
00000360: 5ed9 823e 5817 c73d 5f13 413e 6757 26be
00000370: 0abc 81bc 1a55 343d 4916 05be f8da ab3c
00000380: 9f25 1a3e 6042 6b3e 0c22 a3bd c4e8 53bd
00000390: 66bb ccbd 1deb 1ebe d84f 37be 381c ab3d
000003a0: d054 893e 944b c33c f8aa bcbc 16e8 ac3d
000003b0: be3a dc3d b0e0 b43d 430b 703d 495f 23bd
000003c0: dcc0 113e a640 043c eb8c b4bd 1eb2 74be
000003d0: c420 443e c83d 323e 4b7d 8a3e 3987 8f3c
000003e0: f68c 17bf d74e 2b3c f36b a4be bf73 9d3d
000003f0: b15d aebe 9436 e13d 89f4 8d3d baf1 8cbe

model.temporalSeq.0.attention.in_proj_bias f4 [96]
0.10867483 -0.11206393 0.08041235 -0.0016412158 -0.037747864 0.18190895 -0.059053607 -0.016580354
0.014634247 0.1235 0.09366944 -0.2134994 0.02693099 0.015650908 0.071062006 0.20051177
-0.053686563 -0.2055525 -0.05042624 -0.12407806 -0.08607965 -0.16952159 0.10242655 -0.062375646
0.11267175 -0.26642206 -0.12912115 -0.2484122 0.13983816 0.06485162 -0.06889164 -0.044706084
0.0030501168 -0.0009765698 -0.041978344 -0.06008269 0.043893408 -0.024339225 0.011393109 -0.017058048
-0.05189431 0.071873195 0.07389705 0.057660084 -0.11967981 0.004691181 0.088905625 -0.08207948
-0.02129756 0.008011591 -0.019998005 -0.021860622 0.0011542331 -0.028618937 -0.09767493 0.014723262
-0.09174179 0.018199416 0.07441546 -0.07813882 0.0005365688 -0.026397144 -0.011156192 -0.005230349
-0.038702715 -0.05008919 -0.0580477 -0.055648804 0.053162087 0.039660633 -0.04034678 -0.052229784
-0.05873114 0.02593146 0.04727832 0.032315765 0.04080246 -0.039083343 -0.016136046 0.10017979
0.033555027 0.056663126 0.019798601 -0.068809286 0.03723229 0.03637087 0.045943093 0.04132923
0.096692264 0.011071449 -0.08412665 -0.03934943 0.047663357 0.032653112 0.026729088 -0.06965358
00000000: e990 de3d c681 e5bd 3baf a43d 101e d7ba
00000010: 819d 1abd 5746 3a3e 32e2 71bd 86d3 87bc
00000020: 7bc4 6f3c 91ed fc3d c3d5 bf3d 969f 5abe
00000030: 619e dc3c 5536 803c f588 913d f552 4d3e
00000040: 71e6 5bbd 5b7c 52be bf8b 4ebd a31c febd
00000050: 874a b0bd 1197 2dbe 03c5 d13d 9b7d 7fbd
00000060: 72c0 e63d 7968 88be 5638 04be c55f 7ebe
00000070: bc31 0f3e edd0 843d 0f17 8dbd ba1d 37bd
00000080: 78e4 473b 3f00 80ba 7cf1 2bbd 4419 76bd
00000090: 93c9 333d 0e63 c7bc 2aaa 3a3c 52bd 8bbc
000000a0: 218f 54bd 4132 933d 5657 973d fb2c 6c3d
000000b0: b01a f5bd 7ab8 993b 2714 b63d 4919 a8bd
000000c0: 3878 aebc 0c43 033c dbd2 a3bc 0c15 b3bc
000000d0: a349 973a 4372 eabc cb09 c8bd d639 713c
000000e0: 1fe3 bbbd f116 953c 2267 983d 3f07 a0bd
000000f0: 86a8 0c3a d33e d8bc 76c8 36bc 5963 abbb
00000100: bd86 1ebd 532a 4dbd 6dc3 6dbd 00f0 63bd
00000110: 7dc0 593d 3073 223d aa42 25bd e6ee 55bd
00000120: 1090 70bd 376e d43c e9a6 413d 895d 043d
00000130: 7b20 273d db15 20bd be2f 84bc 102b cd3d
00000140: ff70 093d 9817 683d ad30 a23c e2eb 8cbd
00000150: e380 183d 9ff9 143d d32e 3c3d d748 293d
00000160: 9806 c63d 0665 353c 984a acbd de2c 21bd
00000170: a73a 433d 45bf 053d f6f6 da3c 89a6 8ebd

model.temporalSeq.0.attention.out_proj.weight f4 [32, 32]
-0.006470012 -0.121495776 -0.08404164 -0.24627957 -0.06074975 -0.22934026 -0.005162967 -0.07063831
0.38699064 -0.2789397 0.09137028 -0.35066962 -0.12636422 0.07266979 0.07726587 0.16701569
0.34778184 0.35600817 0.18073203 -0.2571244 -0.08169925 -0.18491724 0.2684434 0.15797259
-0.2251432 -0.12286842 0.13739583 -0.23587759 0.10057319 -0.09082875 0.20234339 -0.16589618
-0.1957877 0.16461875 -0.103610374 0.022526478 0.3843484 -0.14525974 -0.12739615 -0.11511125
0.23345226 -0.48954055 -0.33663884 0.01377737 0.33679923 -0.2158913 -0.05952288 -0.109840736
0.07082379 -0.06890121 0.15379989 -0.05920575 -0.14515018 -0.23766074 -0.084316544 -0.14218327
-0.06972039 0.15284216 -0.028797628 -0.11624024 -0.0974127 -0.03749163 -0.15999588 0.077966474
-0.09399552 -0.1345025 -0.005348897 -0.04985422 -0.23569605 0.20996888 -0.12501511 -0.024171686
-0.09034092 0.061295033 0.032514863 0.16164856 -0.22053505 -0.0044817873 0.13842548 -0.17129631
0.17171897 -0.09363936 -0.0335954 0.08797868 -0.24812531 -0.023540191 0.0032710375 0.03833444
-0.004129672 0.2456491 0.2293966 -0.16373558 -0.08325843 0.006715498 0.18516588 0.11681328
0.06777257 0.27436206 0.13056207 0.14089906 0.008963454 0.15161268 -0.07708602 0.09670438
-0.07962647 0.07515485 0.06438682 -0.010907051 -0.23600616 0.03769201 0.15785404 0.18884051
0.14871497 0.29629213 -0.11051024 0.1740725 0.019492412 0.0051097395 0.20409098 -0.11177766
-0.12175683 -0.041056804 -0.09624691 -0.2221317 -0.15385096 0.22442235 -0.12740254 0.12550703
0.19207893 0.16158335 0.3335552 0.22529614 -0.06274552 -0.023688419 0.29674613 0.18177475
0.04061998 -0.14638679 0.13469991 -0.03042989 -0.18844183 0.3206486 0.1390529 -0.13063677
-0.12629972 -0.010374671 -0.28037456 0.18162993 -0.14641054 -0.059820537 -0.06613801 -0.072303034
-0.026231648 0.12278316 0.22617437 -0.23444751 -0.05600009 -0.12206494 -0.04720348 0.057661653
0.028610118 0.0978364 -0.1259944 0.08741362 0.0050391094 0.1927571 -0.1393537 -0.025088035
-0.18642232 0.08905261 -0.25422367 -0.12398033 0.20535855 -0.30457923 0.11945745 -0.01202039
-0.15604775 -0.20920013 0.13545498 0.23848985 0.007487555 -0.033404008 0.09437208 0.066085085
-0.058493536 0.21515816 0.22067781 0.036844436 -0.041331746 0.1162729 -0.09674691 0.17634536
0.02343691 0.00038846815 0.006255196 0.1861267 0.01111928 -0.051736407 0.06905378 0.18382609
-0.36517516 0.5374825 -0.07729286 0.19586946 0.27053308 -0.13941821 -0.011832712 0.16804755
-0.2566497 -0.061211277 -0.17681737 0.035336137 -0.27441674 -0.030853806 -0.15351222 0.09886652
0.08014355 0.0042660423 0.113905735 -0.015283422 -0.12525626 -0.13821302 -0.20576634 0.04565402
-0.29660633 -0.21418965 -0.2751286 -0.22721595 -0.067402355 0.22541292 -0.07384424 0.06386419
0.025086608 0.007974337 0.15463969 -0.09825941 -0.29675755 0.13580532 -0.17479669 0.13490623
0.08113074 0.19795136 -0.16606963 -0.2250793 0.04978981 0.10312703 0.078974985 -0.01801559
0.2843012 -0.1458392 -0.16552915 0.13447082 0.06396526 0.0008193369 -0.057248566 -0.09110604
00000000: 6502 d4bb c7d2 f8bd 061e acbd b630 7cbe
00000010: bbd4 78bd 2cd8 6abe 1b2e a9bb d1aa 90bd
00000020: a323 c63e 2fd1 8ebe 5720 bb3d f88a b3be
00000030: 9f65 01be e6d3 943d 923d 9e3d 2906 2b3e
00000040: 7610 b23e b446 b63e d111 393e cfa5 83be
00000050: f051 a7bd f25a 3dbe 6a71 893e 91c3 213e
00000060: f08b 66be 70a2 fbbd 7eb1 0c3e e589 71be
00000070: 51f9 cd3d 6c04 babd 1b33 4f3e b0e0 29be
00000080: 927c 48be d191 283e ad31 d4bd 7389 b83c
00000090: 50c9 c43e f8be 14be 2374 02be 72bf ebbd
000000a0: 1c0e 6f3e 0fa5 fabe ed5b acbe 7aba 613c
000000b0: f370 ac3e 9c12 5dbe 43ce 73bd 2ef4 e0bd
000000c0: 100c 913d 141c 8dbd b87d 1d3e ba81 72bd
000000d0: 40a2 14be 565d 73be 27ae acbd 7e98 11be
000000e0: 90c9 8ebd a882 1c3e 01e9 ebbc 5d0f eebd
000000f0: 4f80 c7bd d390 19bd f6d5 23be e3ac 9f3d
00000100: b980 c0bd 06bb 09be cd45 afbb f033 4cbd
00000110: 4e5a 71be 1502 573e f603 00be b303 c6bc
00000120: a904 b9bd 8010 7b3d 4e2e 053d 3387 253e
00000130: f1d3 61be f5db 92bb 69bf 0d3e 4d68 2fbe
00000140: 19d7 2f3e fec5 bfbd 559b 09bd 2b2e b43d
00000150: 9014 7ebe 5cd7 c0bc e75e 563b 9304 1d3d
00000160: 3352 87bb 708b 7b3e f1e6 6a3e 4daa 27be
00000170: 6583 aabd ae0d dc3b 209c 3d3e cd3b ef3d
00000180: 58cc 8a3d 2f79 8c3e 10b2 053e d847 103e
00000190: 73db 123c 5b40 1b3e 46df 9dbd f20c c63d
000001a0: 3413 a3bd c9ea 993d 3ddd 833d 7db3 32bc
000001b0: 99ab 71be f062 1a3d 7da4 213e 685f 413e
000001c0: bd48 183e 9ab3 973e 3153 e2bd 1040 323e
000001d0: 8dae 9f3c 9a6f a73b 3afd 503e b0eb e4bd
000001e0: a55b f9bd 2e2b 28bd 1a1d c5bd 7e76 63be
000001f0: 1b8b 1dbe f9ce 653e d075 02be ea84 003e
00000200: 57b0 443e 1b76 253e bfc7 aa3e 08b4 663e
00000210: b980 80bd 370e c2bc 1cef 973e 2923 3a3e
00000220: 2361 263d 6be6 15be c6ee 093e 1b48 f9bc
00000230: e5f6 40be 0e2c a43e e263 0e3e a5c5 05be
00000240: b754 01be 86fa 29bc 418d 8fbe 32fd 393e
00000250: a5ec 15be 6106 75bd 5d73 87bd 9d13 94bd
00000260: c1e3 d6bc bd75 fb3d 419a 673e 0213 70be
00000270: 5a60 65bd 2ffd f9bd 7058 41bd a02e 6c3d
00000280: c45f ea3c 735e c83d ad04 01be e905 b33d
00000290: 1d1f a53b 1e62 453e bdb2 0ebe 6c85 cdbc
000002a0: 7ee5 3ebe 3761 b63d 9b29 82be 66e9 fdbd
000002b0: 8349 523e cff1 9bbe 1ca6 f43d 2bf1 44bc
000002c0: fbca 1fbe 8f38 56be b6b4 0a3e af36 743e
000002d0: 2a5a f53b a4d2 08bd 2646 c13d 9e57 873d
000002e0: eb96 6fbd 6c52 5c3e 5df9 613e 31ea 163d
000002f0: 7a4b 29bd 7c20 ee3d 3e23 c6bd e193 343e
00000300: c3fe bf3c 50ab cb39 63f8 cc3b ff97 3e3e
00000310: a42d 363c 8ee9 53bd 116c 8d3d e83c 3c3e
00000320: 3df8 babe 7498 093f b84b 9ebd 0192 483e
00000330: 5083 8a3e a6c3 0ebe fedd 41bc a814 2c3e
00000340: 9767 83be adb8 7abd 9d0f 35be a0bc 103d
00000350: 5a80 8cbe 1fc1 fcbc 4f32 1dbe 887a ca3d
00000360: 4d22 a43d 28ca 8b3b 6947 e93d 5167 7abc
00000370: 2d43 00be b787 0dbe 69b4 52be b6ff 3a3d
00000380: c9dc 97be 8854 5bbe a8dd 8cbe 4cab 68be
00000390: 3f0a 8abd a5d2 663e a63b 97bd 3acb 823d
000003a0: 6e82 cd3c cba6 023c de59 1e3e 3b3c c9bd
000003b0: 9bf0 97be 8d10 0b3e e7fd 32be dc24 0a3e
000003c0: e027 a63d c3b3 4a3e 280e 2abe 307b 66be
000003d0: 66f0 4b3d 4434 d33d a3bd a13d 6e95 93bc
000003e0: ed8f 913e df56 15be 7980 29be b8b2 093e
000003f0: 3800 833d c5c8 563a 797d 6abd ce95 babd

model.temporalSeq.0.attention.out_proj.bias f4 [32]
-0.15016519 0.042286664 0.08799221 -0.09478885 0.03825942 0.057463005 0.07074304 0.058654085
0.00563243 -0.034491844 0.18103185 0.028365804 0.031807017 -0.058182664 -0.10484768 0.09306446
-0.035078697 0.044324476 -0.010123723 0.016425164 -0.0154058365 0.0060108183 -0.029243635 -0.017497517
-0.094449826 0.09143034 0.14046639 0.044870056 -0.032417282 0.0070755063 -0.05720129 0.05273374
00000000: e7c4 19be c834 2d3d 4335 b43d a820 c2bd
00000010: e9b5 1c3d 545e 6b3d bae1 903d 443f 703d
00000020: 3f90 b83b 5247 0dbd 6a60 393e 675f e83c
00000030: 1348 023d f250 6ebd 61ba d6bd 9498 be3d
00000040: aeae 0fbd 958d 353d f9dd 25bc 118e 863c
00000050: c368 7cbc 66f6 c43b 5990 efbc f456 8fbc
00000060: e96e c1bd d53f bb3d 6cd6 0f3e aac9 373d
00000070: fcc7 04bd a6d9 e73b e64b 6abd 56ff 573d
