code/logs/epoch=97-step=9800.ckpt (torch, 67921 bytes, 15 tensors)

model.encoder.rnn.weight_ih_l0 f4 [128, 1]
0.0655651 -0.14630105 0.08870352 -0.041541375 -0.012738194 -0.03893411 0.10725747 0.05021374
0.0016004444 -0.017750632 -0.026462777 -0.11664742 0.007997178 0.23443119 0.7377685 0.09897666
-0.07734096 -1.0780392 -0.043231994 0.1891892 0.16566859 0.0126526365 -0.32285303 -0.016066922
0.020364022 -0.01337123 0.073664196 -0.41030014 0.20367166 0.26576275 0.07597438 0.0028468063
0.08277122 -0.42626083 0.15463264 -0.20900668 0.21254309 0.35888624 0.089052066 0.38078696
0.23158503 0.07887365 0.24012652 0.21537618 0.18858549 -0.4073232 -0.7129088 0.121985994
0.28903463 -0.21093833 0.8341656 0.17806853 0.20298314 0.13331002 -0.32058558 0.4167155
0.15918678 0.28345147 0.32871455 -0.4209456 -0.8761025 0.34180698 0.38517976 0.021271233
0.2522795 0.08942509 -0.019597448 0.20999673 -0.14592476 0.21954624 0.07706799 -0.02185423
0.11231368 0.2903535 -0.22391422 -0.13811596 -0.04035988 0.23799379 0.31863272 -0.0052845925
-0.8215399 -0.7646687 -0.044438034 -0.001609881 -0.04819737 0.15711981 0.152701 0.28932527
-0.2732045 -0.22072037 0.037616935 0.15393963 0.23851784 0.14734755 -0.046576835 -0.06204096
0.20126261 -0.79766446 0.13807274 -0.17098084 0.50848997 0.3466456 0.23869598 0.40255797
0.22655752 -0.0115072485 0.34390715 0.118145496 0.17615438 0.19910151 0.16046318 0.19440036
-0.018660074 -1.31759 0.30157566 0.39684218 0.12157784 0.21360515 -0.2890244 0.16392711
0.003541077 0.28296027 0.33166975 -0.5045224 0.123382054 0.7196736 0.81258345 0.21989027
00000000: ff46 863d f1cf 15be 31aa b53d 4a27 2abd
00000010: dcb3 50bc 6079 1fbd cea9 db3d ecac 4d3d
00000020: 01c6 d13a c669 91bc 77c8 d8bc d8e4 eebd
00000030: 9806 033c bb0e 703e 65de 3c3f 46b4 ca3d
00000040: f064 9ebd 30fd 89bf 0814 31bd d0ba 413e
00000050: 07a5 293e 014d 4f3c fe4c a5be c79e 83bc
00000060: 73d2 a63c 0113 5bbc 41dd 963d dc12 d2be
00000070: 4e8f 503e 0e12 883e 7598 9b3d 7c91 3a3b
00000080: f583 a93d dc3e dabe 0558 1e3e d905 56be
00000090: e5a4 593e f0bf b73e ee60 b63d 82f6 c23e
000000a0: a024 6d3e 8288 a13d bae3 753e 938b 5c3e
000000b0: 8e1c 413e ab8c d0be 3181 36bf cbd3 f93d
000000c0: 59fc 933e 3800 58be e08b 553f 9957 363e
000000d0: d0da 4f3e 6c82 083e cb23 a4be bc5b d53e
000000e0: dc01 233e 8d20 913e 464d a83e 2f86 d7be
000000f0: 4148 60bf 5301 af3e 4836 c53e 0241 ae3c
00000100: c72a 813e 8024 b73d d48a a0bc 6209 573e
00000110: 4d6d 15be bbd0 603e d3d5 9d3d a407 b3bc
00000120: b704 e63d 37a9 943e c549 65be 456e 0dbe
00000130: 6750 25bd a5b4 733e d423 a33e 602a adbb
00000140: 7050 52bf 54c1 43bf a804 36bd a402 d3ba
00000150: 9b6a 45bd 04e4 203e a75d 1c3e 7122 943e
00000160: 76e1 8bbe 8504 62be 3714 1a3d 5aa2 1d3e
00000170: 053e 743e 47e2 163e 5ac7 3ebd a91e 7ebd
00000180: c917 4e3e bd33 4cbf f162 0d3e 9a15 2fbe
00000190: 662c 023f 887b b13e b86c 743e 141c ce3e
000001a0: b2fe 673e e688 3cbc 9914 b03e 44f6 f13d
000001b0: d061 343e 44e1 4b3e 7650 243e e310 473e
000001c0: 03dd 98bc caa6 a8bf 2068 9a3e e62e cb3e
000001d0: cdfd f83d 4fbb 5a3e 02fb 93be 82dc 273e
000001e0: 6a11 683b 2be0 903e 9ed0 a93e 6128 01bf
000001f0: bbaf fc3d 873c 383f 7805 503f ea2a 613e

model.encoder.rnn.weight_hh_l0 f4 [128, 32]
0.12683895 0.066712394 -0.26396182 -0.099887006 -0.07144734 0.50330186 -0.049611844 -0.32599914
0.35498282 0.29543898 -0.34200078 -0.46062297 -0.14480992 -0.12875234 0.106069274 -0.23373924
-0.32760766 0.40283513 -0.5746646 -0.25900617 -0.21218014 0.3227526 -0.19308178 0.06219987
-0.13852695 -0.06929076 0.21162218 0.033990864 -0.16159748 0.4162107 -0.3524306 -0.10297528
-0.23917992 -0.07216593 -0.124936454 0.018869705 0.031080259 0.1335426 0.218002 0.11817483
0.37660307 0.066506155 -0.090525314 -0.38673708 -0.26749456 0.31306255 -0.27834988 -0.3623115
-0.2803198 -0.35407606 0.15254682 0.012581005 -0.11630591 0.09178905 -0.016588457 0.2567468
0.055996858 0.27242157 0.24846531 0.12056167 0.42189682 0.09835986 0.18215941 -0.24110787
-0.030584104 0.03440874 0.16472524 -0.18430379 0.059997983 -0.0057774223 0.012332038 0.010671501
0.079423465 -0.102299 -0.08355642 0.07115772 -0.1836346 0.04185329 0.0805861 0.0036766927
-0.26433265 0.07975006 0.09016955 -0.1596433 0.07979713 0.13644484 0.0382998 0.12505507
-0.07484459 0.229933 0.038879417 0.101201214 -0.19762193 -0.12527657 -0.098977536 -0.040780377
-0.22724521 0.063580975 0.18238975 -0.15462573 0.23647244 -0.019293608 0.087353565 0.14502941
-0.026824832 -0.24094994 0.17140433 0.03162694 0.19701655 0.088014685 0.18052885 0.12171296
0.08005145 -0.15836865 -0.010816966 0.13299468 -0.025294762 -0.04813857 -0.21218637 0.066125266
-0.09994222 0.26254234 0.028801158 0.09626409 0.2242359 0.021243477 0.13031812 0.0074673747
0.14687575 -0.22523595 -0.4027799 -0.074531585 0.0959519 0.22399639 0.3631327 -0.14176996
0.31657812 0.45512807 -0.39087263 -0.4147962 -0.43955487 0.047499586 -0.15147413 -0.24759224
-0.17675354 0.13748062 -0.2052629 -0.272312 -0.34156775 0.33818173 0.015898397 0.14387706
-0.42563945 0.010115911 0.3991596 -0.26892424 0.29829678 0.08927602 0.11532861 -0.22224048
0.15063064 0.3270608 -0.46057984 -0.29397038 -0.37000716 0.016604625 0.14330462 -0.59131634
0.53278184 0.4725339 -0.48867902 -0.98273265 -0.49260303 0.33455113 -0.16034478 -0.63146114
-0.6420366 0.18429734 -0.25265598 0.017482053 -0.22594252 0.39994308 0.13806821 0.77074736
-0.3042035 -0.5085084 0.9769864 0.4381898 -0.09638436 1.0243075 -0.13740915 -0.45146477
0.15731366 0.019056844 -0.2368888 0.15368699 0.11917735 0.2943622 -0.02982627 -0.00078864046
-0.25356507 -0.03212181 0.055205427 0.08255191 -0.030240748 -0.19161306 -0.08912994 0.027183075
-0.11722182 0.3111642 -0.1500504 0.035806503 0.09908887 0.129463 0.21704732 0.0147278365
-0.20062695 0.1652503 -0.026726011 -0.043409232 -0.14082378 -0.21741071 0.04894566 0.17149015
0.08905374 0.01724593 -0.11890016 0.17129266 -0.054734506 0.04017396 0.11157088 -0.16836955
0.2075864 0.18064494 -0.11075775 -0.18338455 0.020922165 -0.046010215 0.0044590128 -0.08105485
0.07105378 0.08009542 -0.25640735 -0.20131384 -0.03253767 0.13993184 -0.16225879 0.07906545
-0.05666059 -0.2251974 -0.042494364 -0.1256826 0.22354583 0.030523498 -0.13117571 -0.1562824
00000000: 12e2 013e 82a0 883d 0126 87be 8f91 ccbd
00000010: fc52 92bd 64d8 003f ca35 4bbd 5ce9 a6be
00000020: 4fc0 b53e c743 973e ba1a afbe c6d6 ebbe
00000030: 0d49 14be a7d7 03be d93a d93d 5759 6fbe
00000040: 31bc a7be 6840 ce3e 381d 13bf 759c 84be
00000050: c045 59be d43f a53e 3bb7 45be 4ac5 7e3d
00000060: 02da 0dbe 50e8 8dbd 7cb3 583e 013a 0b3d
00000070: cf79 25be 9219 d53e c971 b4be b4e4 d2bd
00000080: 95eb 74be bbcb 93bd afde ffbd a494 9a3c
00000090: 079c fe3c 64bf 083e eb3b 5f3e a505 f23d
000000a0: 1ed2 c03e 6134 883d 5665 b9bd 6702 c6be
000000b0: 0cf5 88be bc49 a03e e083 8ebe e580 b9be
000000c0: 1486 8fbe 7549 b5be 3c35 1c3e 8f20 4e3c
000000d0: cb31 eebd e6fb bb3d 84e4 87bc 5174 833e
000000e0: f65c 653d d77a 8b3e b16d 7e3e 09e9 f63d
000000f0: dc02 d83e e570 c93d ff87 3a3e fbe4 76be
00000100: 848b fabc 2ef0 0c3d bcad 283e 22ba 3cbe
00000110: 72c0 753d 8850 bdbb 510c 4a3c 85d7 2e3c
00000120: c5a8 a23d 2382 d1bd a11f abbd 24bb 913d
00000130: b50a 3cbe 5b6e 2b3d 530a a53d abf4 703b
00000140: 9c56 87be 0054 a33d d0aa b83d 8979 23be
00000150: ad6c a33d 32b8 0b3e 40e0 1c3d 700e 003e
00000160: 1f48 99bd 8e73 6b3e 0640 1f3d 9542 cf3d
00000170: 675d 4abe 8048 00be bcb4 cabd 5309 27bd
00000180: f8b2 68be be36 823d 61c4 3a3e 3556 1ebe
00000190: d525 723e a10d 9ebc 6de6 b23d 9782 143e
000001a0: c0bf dbbc 95bb 76be 9e84 2f3e 408b 013d
000001b0: b5be 493e 0b41 b43d 8edc 383e a544 f93d
000001c0: 04f2 a33d 642b 22be a539 31bc c22f 083e
000001d0: f636 cfbc f32c 45bd 6247 59be af6c 873d
000001e0: 82ae ccbd f36b 863e 68f0 eb3c 1b26 c53d
000001f0: 199e 653e cd06 ae3c 1d72 053e e1b0 f43b
00000200: 9966 163e 41a4 66be 2b39 cebe 04a4 98bd
00000210: 6e82 c43d 4f5f 653e 87ec b93e 252c 11be
00000220: 8716 a23e 8c06 e93e 7520 c8be 2b60 d4be
00000230: 560d e1be ed8e 423d 091c 1bbe d288 7dbe
00000240: e1fe 34be b8c7 0c3e 7030 52be 7a6c 8bbe
00000250: f8e1 aebe 2826 ad3e 5b3d 823c 8254 133e
00000260: 6aed d9be 35bd 253c a65e cc3e 70b0 89be
00000270: 5bba 983e 59d6 b63d 6831 ec3d 0293 63be
00000280: eb3e 1a3e 8374 a73e 1fd1 ebbe 4983 96be
00000290: 9471 bdbe 6c06 883c 72be 123e 8260 17bf
000002a0: 6464 083f f7ef f13e 2334 fabe 5e94 7bbf
000002b0: 7736 fcbe 494a ab3e 6c31 24be 70a7 21bf
000002c0: 835c 24bf 71b8 3c3e 205c 81be 8636 8f3c
000002d0: 7a5d 67be 57c5 cc3e c161 0d3e b34f 453f
000002e0: 90c0 9bbe 9b2d 02bf c81b 7a3f 6a5a e03e
000002f0: 2a65 c5bd 821c 833f fcb4 0cbe 6426 e7be
00000300: d516 213e 191d 9c3c fa92 72be 1f60 1d3e
00000310: 4113 f43d a4b6 963e 3956 f4bc c4bc 4eba
00000320: 48d3 81be 2992 03bd 161f 623d fa10 a93d
00000330: 72bb f7bc 3736 44be c289 b6bd 0aaf de3c
00000340: fe11 f0bd ea50 9f3e d0a6 19be d7a9 123d
00000350: 1bef ca3d f391 043e a741 5e3e 064d 713c
00000360: 2771 4dbe 6037 293e 82f0 dabc e1cd 31bd
00000370: 1c34 10be eaa0 5ebe 3f7b 483d 1d9b 2f3e
00000380: cf61 b63d 5647 8d3c ed81 f3bd 5867 2f3e
00000390: 4a31 60bd 738d 243d 467f e43d 1169 2cbe
000003a0: 8791 543e fdfa 383e f6d4 e2bd 29c9 3bbe
000003b0: f664 ab3c 3575 3cbd e91c 923b 1600 a6bd
000003c0: a584 913d 1109 a43d d347 83be 3725 4ebe
000003d0: 3846 05bd 4b4a 0f3e 2b27 26be 11ed a13d
000003e0: ef14 68bd 269a 66be 920e 2ebd f1b2 00be
000003f0: 33e9 643e 6a0c fa3c ed52 06be 7e08 20be

model.encoder.rnn.bias_ih_l0 f4 [128]
-0.03017304 0.013869308 -0.15365303 -0.032440607 0.29465404 -0.2047258 -0.023846999 -0.08390301
0.052525938 0.10950294 -0.12750979 0.112533495 0.06889287 0.020867374 -0.21697015 -0.25939763
0.61177385 0.46062356 0.075547576 -0.011875064 -0.1785905 0.07999517 -0.17280109 -0.03729704
-0.12241818 -0.07118874 -0.044315718 0.012654315 0.04529154 -0.07490014 0.043998975 0.03298492
0.013657674 0.17023847 0.084775165 -0.12579733 -0.06269238 0.069004364 0.09187073 -0.016858438
-0.21023919 0.1964148 -0.02521141 0.28536272 -0.12282668 0.21515396 -0.016511936 0.12897968
-0.21962927 0.047313135 -0.20496042 0.104121245 -0.012417708 0.019951297 -0.23173793 -0.08107808
-0.027146991 -0.012748674 0.123686895 0.12586845 0.2964708 0.2864504 0.07901697 -0.0037620252
-0.21075669 -0.17668055 -0.00044398563 0.057702728 0.25233373 -0.06525457 0.062080637 0.052625097
0.05075999 0.025270402 0.11458688 -0.095884144 -0.17103834 0.17871653 0.0010094699 -0.07953274
0.012747525 -0.023372214 -0.060989138 -0.12515359 0.046868067 0.13558184 0.039675206 0.03688104
0.100001395 0.09933276 0.013254467 0.023838073 -0.027077321 -0.08784541 0.099413246 0.03621744
0.039253827 -0.18115187 0.17221344 -0.052222397 0.25517973 -0.2132961 0.19955108 0.017815148
0.049610253 0.15518318 -0.21511535 0.096684024 0.091971666 -0.029082453 0.11390814 -0.19351824
0.55731034 0.33589524 0.45534658 -0.21016455 -0.12567228 -0.035330355 0.07141888 -0.11687834
-0.009469868 -0.15805398 -0.32357275 0.14668888 -0.08286919 -0.1317153 -0.15181352 0.07572621
00000000: 742d f7bc 183c 633c 3857 1dbe 71e0 04bd
00000010: e5dc 963e a4a3 51be c85a c3bc 57d5 abbd
00000020: 7025 573d 1443 e03d ed91 02be f677 e63d
00000030: b417 8d3d 0ef2 aa3c 6c2d 5ebe c4cf 84be
00000040: 369d 1c3f dad6 eb3e b0b8 9a3d a18f 42bc
00000050: 6ee0 36be 82d4 a33d c5f2 30be c8c4 18bd
00000060: 62b6 fabd 67cb 91bd 6684 35bd 0b54 4f3c
00000070: 9f83 393d 3f65 99bd 4538 343d 321b 073d
00000080: 70c4 5f3c fe52 2e3e 9a9e ad3d 04d1 00be
00000090: dd64 80bd 2952 8d3d b926 bc3d b51a 8abc
000000a0: f148 57be f620 493e 2988 cebc 101b 923e
000000b0: 8e8c fbbd 5251 5c3e 0a44 87bc 4013 043e
000000c0: 7fe6 60be 6bcb 413d 25e1 51be 853d d53d
000000d0: a473 4bbc e770 a33c b54c 6dbe 440c a6bd
000000e0: 5e63 debc d0df 50bc 8e4f fd3d a9e3 003e
000000f0: 05cb 973e a0a9 923e a6d3 a13d 4f8c 76bb
00000100: 9ad0 57be bfeb 34be bec6 e8b9 b259 6c3d
00000110: e331 813e 30a4 85bd 4448 7e3d 6a8d 573d
00000120: b5e9 4f3d e003 cf3c 87ac ea3d e85e c4bd
00000130: ad24 2fbe 7701 373e 3050 843a 10e2 a2bd
00000140: ffda 503c 1677 bfbc bfcf 79bd 4328 00be
00000150: bbf8 3f3d f7d5 0a3e 7882 223d 9310 173d
00000160: 88cd cc3d f96e cb3d 4429 593c 1048 c33c
00000170: 42d1 ddbc 4be8 b3bd 2c99 cb3d bd58 143d
00000180: 9fc8 203d e07f 39be b858 303e 27e7 55bd
00000190: eba6 823e 4b6a 5abe 1e57 4c3e 13f1 913c
000001a0: 1f34 4b3d 57e8 1e3e 3347 5cbe 4602 c63d
000001b0: a45b bc3d 533e eebc ac48 e93d a529 46be
000001c0: e4ab 0e3f 76fa ab3e 3023 e93e 6035 57be
000001d0: 3cb0 00be 90b6 10bd 1044 923d e95d efbd
000001e0: 8127 1bbc e7d8 21be 54ab a5be 9c35 163e
000001f0: 52b7 a9bd 60e0 06be 0175 1bbe 5816 9b3d

model.encoder.rnn.bias_hh_l0 f4 [128]
-0.13273507 -0.028545404 0.022349736 0.18377031 0.031245096 -0.012376012 0.13943043 0.17239958
-0.16194512 0.14858736 -0.18640082 0.12979186 -0.11636663 -0.07070212 -0.06448469 -0.26999593
0.5182928 0.26690412 0.18197711 -0.0800536 -0.03837146 0.07862178 0.09023736 -0.019658428
0.06052674 -0.09088114 -0.21622482 -0.107659325 0.08690123 0.1723634 -0.071292095 0.032618765
0.051611464 0.14393775 -0.09101731 0.19229221 0.06718146 0.119994015 0.0065912334 0.26382673
-0.01969405 0.1273002 -0.165662 -0.030907543 0.07515449 0.3184911 0.048782583 -0.025405401
-0.24226308 0.32171625 -0.36230814 -0.16962636 0.084219724 -0.14427128 -0.025961176 -0.13672169
-0.039769076 -0.06584964 -0.0032934847 -0.14411913 0.13807122 0.38736826 -0.10468784 -0.042233117
-0.23407477 -0.22239308 -0.24488764 0.16857713 0.0976631 0.07478138 0.21933816 0.047222026
-0.07352857 0.1446509 0.05297269 0.10098692 0.15563786 -0.16020618 -0.1276301 -0.07958397
-0.01153331 0.105246656 0.018189363 -0.08569827 -0.19611137 0.15483803 -0.16024376 -0.03336102
-0.15050414 0.053437266 -0.07447575 -0.21011509 -0.02137999 0.06724172 0.19429651 0.03493811
-0.15740213 -0.22305743 -0.12529562 0.09301842 0.011790665 -0.16952112 -0.0032100917 -0.15914372
0.13602176 0.097128294 -0.08206874 -0.1062968 -0.1720021 0.24601322 -0.09403175 -0.22916552
0.5883597 0.23426124 0.24505334 -0.20716399 -0.09473574 -0.10748349 0.15668456 0.07953604
0.017696323 -0.10219885 -0.018225595 0.1469346 0.13826467 -0.1204868 -0.19922017 0.07146571
00000000: b4eb 07be 0dd8 e9bc cb16 b73c 492e 3c3e
00000010: b7f5 ff3c c2c4 4abc dac6 0e3e 8489 303e
00000020: f1d4 25be 4927 183e dbdf 3ebe 28e8 043e
00000030: a151 eebd 46cc 90bd 8d10 84bd e83c 8abe
00000040: d6ae 043f a8a7 883e 3558 3a3e 24f3 a3bd
00000050: 642b 1dbd 7504 a13d 5dce b83d b60a a1bc
00000060: e3ea 773d e41f babd 0a6a 5dbe 7e7c dcbd
00000070: 46f9 b13d 0880 303e 9701 92bd 419b 053d
00000080: 8b66 533d 6b64 133e 4967 babd 40e8 443e
00000090: 6f96 893d 6cbf f53d 46fb d73b 4c14 873e
000000a0: 6b55 a1bc fc5a 023e 4da3 29be d131 fdbc
000000b0: 99ea 993d 4411 a33e 3fd0 473d fd1e d0bc
000000c0: d013 78be feb7 a43e 7480 b9be 88b2 2dbe
000000d0: 647b ac3d dabb 13be 88ac d4bc c500 0cbe
000000e0: e6e4 22bd 2ddc 86bd 81d7 57bb f793 13be
000000f0: 8b62 0d3e 2255 c63e 9466 d6bd a2fc 2cbd
00000100: 4cb1 6fbe 03bb 63be d3c3 7abe 7c9f 2c3e
00000110: 9703 c83d fb26 993d 2f9a 603e e26b 413d
00000120: 2696 96bd 5e1f 143e e4f9 583d 3bd2 ce3d
00000130: 885f 1f3e 170d 24be 77b1 02be ecfc a2bd
00000140: 35f6 3cbc 8f8b d73d dc01 953c 9382 afbd
00000150: 6bd1 48be dc8d 1e3e f116 24be 91a5 08bd
00000160: c21d 1abe 09e1 5a3d be86 98bd 6928 57be
00000170: 1725 afbc 07b6 893d aaf5 463e 431b 0f3d
00000180: 062e 21be 2b69 64be 7f4d 00be 7180 be3d
00000190: a22d 413c f296 2dbe 6760 52bb 92f6 22be
000001a0: 4a49 0b3e 33eb c63d a813 a8bd 23b2 d9bd
000001b0: 5221 30be e4ea 7b3e b893 c0bd 5eaa 6abe
000001c0: be9e 163f 2ee2 6f3e 43ef 7a3e cc22 54be
000001d0: d004 c2bd 4e20 dcbd eb71 203e cbe3 a23d
000001e0: e1f7 903c a14d d1bd d84d 95bc 0676 163e
000001f0: 4195 0d3e c9c1 f6bd 5f00 4cbe 9d5c 923d

model.encoder.readout.weight f4 [1, 32]
0.55685633 0.10818285 -0.44168875 -0.08851415 -0.49141446 0.7178182 0.4008765 -0.53071046
0.8414672 0.633866 -1.3091477 -0.8402872 -0.61562675 0.44483992 0.5275652 -0.7945071
-0.7563135 -0.25167295 -0.60706306 -0.47565123 -0.7650739 0.5563368 -0.13421598 0.6196622
-0.88034254 -0.46381885 1.2845081 0.072397776 0.47711205 0.8055276 -0.42105803 -0.7196889
00000000: 238e 0e3f f88e dd3d 0725 e2be e846 b5bd
00000010: ad9a fbbe efc2 373f af3f cd3e a4dc 07bf
00000020: 656a 573f 0b45 223f 2792 a7bf 101d 57bf
00000030: b799 1dbf 0fc2 e33e 830e 073f d164 4bbf
00000040: c39d 41bf 47db 80be 7c68 1bbf 8f88 f3be
00000050: e2db 43bf 176c 0e3f ea6f 09be 2fa2 1e3f
00000060: 215e 61bf aa79 edbe c36a a43f 4945 943d
00000070: 0848 f43e 0f37 4e3f eb94 d7be 883d 38bf

exp_avg f4 [128, 1]
-0.00061313005 -0.0003631517 0.0005699699 -1.6023163e-05 0.0010126431 0.0012227077 0.00022350717 0.0024067555
0.0018061588 0.0007885777 0.002280245 0.0012911152 0.002346569 0.0005920557 -0.0010539381 0.000611154
0.0014494306 0.0005651355 0.0010710661 -0.00013620984 0.0007191522 0.00049833604 -6.147071e-05 0.002289331
0.00051992916 0.00086997735 0.00065428705 -0.0002656373 -3.0070589e-05 -6.4283345e-06 -0.00084446603 0.0012798996
0.00014737755 -0.0003440175 0.0005967128 2.4309347e-05 0.0016979892 -0.00039928683 0.0002341303 0.0014812417
-0.0007787891 0.00086754997 0.00015630077 0.0023328334 0.0015393147 0.0009821982 -0.00019279648 0.00042411897
0.0015566365 0.00048620466 -0.00031333102 -9.807199e-05 0.0005676986 0.00015419917 -2.0718315e-05 0.00046004695
0.0020179492 -0.00084359647 0.0001003171 -0.00034252816 0.000389899 -4.618329e-05 -0.0007513517 3.3307373e-05
0.0006633994 0.0009259142 -0.0017241776 -0.00014753456 -0.0036158517 -0.0038734388 0.0006846991 -0.024762494
0.0018937764 -0.00014066756 0.0007422196 -0.005189406 -0.0036355446 0.0050914157 -0.0027706954 -0.005297361
-0.0039018726 0.0018667843 -0.0011695673 -0.0037712613 -0.0029974654 -0.005875933 -0.00058344787 0.0026419137
-0.005193546 -0.0017382201 0.0043626167 0.0003363942 0.0039596264 0.0015447052 -0.0033781228 -0.0021531477
-0.00050166505 -7.108556e-05 0.000244564 0.00014935713 -0.00015003384 -0.00077837094 0.00011616306 0.0018543298
0.00023890562 0.0017673706 -0.00016990982 0.0014921319 0.0015058442 0.0005246772 0.0004977037 0.00029485315
0.0016144017 0.00040482488 -0.00068577786 -0.0012907778 0.00038598033 -0.00019271174 1.0540144e-05 0.0005441844
0.0013723511 -0.00017072327 0.00015000738 -0.00027226622 0.0008967236 -0.0023802721 -0.00028658085 -0.00031079256
00000000: 76ba 20ba 6565 beb9 086a 153a 7b69 86b7
00000010: aaba 843a 4343 a03a 405d 6a39 a8ba 1d3b
00000020: a2bc ec3a 8eb8 4e3a 2a70 153b a33a a93a
00000030: e5c8 193b 2f34 1b3a 4b24 8aba da35 203a
00000040: d2fa bd3a 9a25 143a 0463 8c3a 8dd3 0eb9
00000050: 7d85 3c3a c4a2 023a d6e9 80b8 9a08 163b
00000060: db4b 083a 310f 643a 7684 2b3a 3c45 8bb9
00000070: 1940 fcb7 f9b2 d7b6 285f 5dba 4ec2 a73a
00000080: 5c89 1a39 3f5d b4b9 b86c 1c3a edeb cb37
00000090: 108f de3a 5f57 d1b9 e080 7539 3926 c23a
000000a0: a727 4cba 4b6c 633a abe4 2339 73e2 183b
000000b0: d5c2 c93a 1abd 803a 6929 4ab9 495c de39
000000c0: 0e08 cc3a 49e9 fe39 9446 a4b9 00ac cdb8
000000d0: 9cd1 143a 86b0 2139 3ecc adb7 7532 f139
000000e0: 923f 043b cd24 5dba 5561 d238 5a95 b3b9
000000f0: 5c6b cc39 eeb4 41b8 5cf6 44ba 85b3 0b38
00000100: fbe7 2d3a 0db9 723a cdfd e1ba 82b3 1ab9
00000110: edf7 6cbb 85d9 7dbb 617d 333a b7da cabc
00000120: 9738 f83a 2980 13b9 8491 423a e50b aabb
00000130: 5142 6ebb e4d5 a63b 8e94 35bb 7c95 adbb
00000140: 8fb6 7fbb e3ae f43a 2b4c 99ba 4427 77bb
00000150: 2071 44bb e68a c0bb 86f2 18ba f523 2d3b
00000160: 9f2e aabb fdd4 e3ba 48f4 8e3b 115e b039
00000170: c1bf 813b b577 ca3a 7f63 5dbb d31b 0dbb
00000180: 2c82 03ba c513 95b8 d338 8039 c09c 1c39
00000190: 6752 1db9 970b 4cba 919c f338 fc0c f33a
000001a0: bd82 7a39 1ea7 e73a d229 32b9 a393 c33a
000001b0: bf5f c53a 7e8a 093a 5478 023a 8596 9a39
000001c0: 559a d33a ad3e d439 c6c5 33ba 512f a9ba
000001d0: 675d ca39 aa12 4ab9 93d5 3037 99a7 0e3a
000001e0: 76e0 b33a 2e04 33b9 4d4b 1d39 f4be 8eb9
000001f0: 1a12 6b3a 57fe 1bbb 3b40 96b9 dff1 a2b9

exp_avg_sq f4 [128, 1]
5.103489e-05 4.2223737e-06 1.0403664e-05 3.5240041e-06 6.796369e-05 5.7712376e-05 2.9864774e-05 0.00010581024
7.0836155e-05 4.944647e-05 0.00015984783 0.00019526138 0.000102426515 1.0633073e-05 3.8730655e-06 2.0244239e-05
9.163255e-05 7.297534e-06 2.2778755e-05 3.2671187e-06 1.2088422e-05 2.4087738e-05 2.8875638e-06 0.00011450687
0.00014164836 5.0378618e-05 7.227489e-05 3.6005322e-06 6.256766e-06 1.1507629e-05 4.3526066e-05 2.9522853e-05
0.00041433485 5.199202e-06 1.1929684e-05 1.3281254e-06 0.00024090163 0.0002455963 3.9016904e-05 9.709609e-05
0.00011954042 5.849e-05 0.00052836764 7.4827105e-05 5.08697e-05 1.30686085e-05 6.8408203e-06 7.4538593e-06
0.00052361464 1.04465635e-05 1.3414932e-05 2.6663572e-06 1.9443307e-05 1.3919406e-05 1.1663738e-07 3.626286e-05
0.0006792137 4.5091492e-05 1.0044274e-05 4.214014e-06 2.3912294e-06 5.751879e-06 4.5803463e-05 2.0132093e-05
0.0067447866 3.7117214e-05 0.00043730257 0.000100438076 0.016809754 0.008002115 0.00040190402 0.01781344
0.0023373107 0.0010450371 0.012318283 0.009601349 0.001697314 0.0016308465 0.00083136937 0.0008807255
0.018871257 0.00050042133 0.0021729667 0.00048760106 0.0005264416 0.0027454994 3.552521e-05 0.00057905976
0.010575369 0.0015574018 0.00474127 3.5361973e-05 0.001005503 0.0013567989 0.009329306 0.0006482863
4.7544265e-05 1.9608951e-05 9.244021e-06 1.2221113e-05 0.00012076635 8.350553e-05 8.034931e-05 0.0005455293
4.1742835e-05 0.00014658693 4.2305634e-05 0.00024187537 0.00014097434 8.7819335e-06 8.241295e-06 2.924433e-05
0.00015343266 9.898252e-06 4.571429e-05 2.974765e-05 2.0037833e-05 2.7171494e-05 2.2209313e-06 6.5094304e-05
0.00016182283 9.920159e-06 0.00017422791 5.1978236e-06 1.5884105e-05 4.639803e-05 4.8191738e-05 2.334005e-05
00000000: 4c0e 5638 eaad 8d36 668b 2e37 ee7d 6c36
00000010: ba87 8e38 3110 7238 1d86 fa37 71e6 dd38
00000020: df8d 9438 be64 4f38 d39c 2739 14bf 4c39
00000030: d1cd d638 b364 3237 61f5 8136 2cd2 a937
00000040: da2a c038 57dd f436 0115 bf37 ac40 5b36
00000050: 61cf 4a37 0610 ca37 f8c7 4136 6823 f038
00000060: 7187 1439 a14d 5338 4992 9738 aca0 7136
00000070: 36f1 d136 e410 4137 c28f 3638 d8a7 f737
00000080: 153b d939 ce74 ae36 9a25 4837 0b42 b235
00000090: 8a9a 7c39 61c3 8039 15a6 2338 11a0 cb38
000000a0: c6b1 fa38 2953 7538 2782 0a3a 7fec 9c38
000000b0: ed5c 5538 3f41 5b37 338a e536 2a1c fa36
000000c0: 2f43 093a a643 2f37 b210 6137 abef 3236
000000d0: 2f1a a337 6587 6937 147a fa33 f318 1838
000000e0: 430d 323a 9f20 3d38 d483 2837 1b66 8d36
000000f0: 0279 2036 4400 c136 181d 4038 57e1 a837
00000100: 5f03 dd3b 4eae 1b38 c245 e539 48a2 d238
00000110: 9cb4 893c 4e1b 033c a5b6 d239 7eed 913c
00000120: 912d 193b a0f9 883a a0d2 493c fa4e 1d3c
00000130: 6878 de3a 21c2 d53a 41f0 593a 7de0 663a
00000140: e597 9a3c b52e 033a 5568 0e3b b5a4 ff39
00000150: e600 0a3a d6ed 333b e700 1538 0bcc 173a
00000160: 5044 2d3c bc21 cc3a a85c 9b3b a151 1438
00000170: 15cb 833a 9ed6 b13a f2d9 183c c2f1 293a
00000180: 446a 4738 e77d a437 c516 1b37 4809 4d37
00000190: f143 fd38 b11f af38 3581 a838 da01 0f3a
000001a0: 0715 2f38 21b5 1939 5471 3138 ed9f 7d39
000001b0: 83d2 1339 1e56 1337 1844 0a37 b851 f537
000001c0: c4e2 2039 ab10 2637 58bd 3f38 988a f937
000001d0: eb16 a837 57ee e337 4f0b 1536 3d83 8838
000001e0: fcae 2939 c26e 2637 f3b0 3639 f768 ae36
000001f0: db3e 8537 819b 4238 7c21 4a38 60ca c337

exp_avg f4 [128, 32]
0.00016278752 5.140529e-05 0.00013017678 -9.44152e-05 -0.00013753651 0.00019059771 -6.4571956e-05 4.9880007e-05
-0.00012348451 -0.00028395143 -0.00013610782 0.00022256712 0.00020361926 -0.00022621122 0.00011187397 4.5040357e-05
0.00042408847 0.00021339547 -0.00012312943 6.576288e-05 2.815568e-05 -4.3009608e-05 -6.2111794e-05 -0.00013239653
-7.872283e-05 -0.00016361453 -1.6492157e-05 -2.6390055e-05 7.1037066e-06 -0.00025293537 -0.0002071502 0.00034504913
-3.4031567e-07 -0.00014001955 -3.4493074e-05 5.777723e-05 0.00020428555 1.0842837e-05 0.00020366331 9.291367e-05
-2.5945004e-05 7.0919955e-06 1.4047546e-06 6.374677e-05 2.7975502e-05 -7.281792e-05 9.581445e-06 -1.6438466e-06
3.1295425e-05 0.00028061235 6.979268e-05 -1.1572785e-05 -2.1067352e-05 3.6754638e-05 -2.022742e-05 -3.299168e-05
-6.34158e-05 1.3749935e-05 -1.7266942e-05 -0.00024967454 8.9047535e-06 -0.00011183963 4.0146853e-05 9.629621e-05
-8.1410006e-05 -8.755617e-05 -9.8003504e-05 9.14367e-05 0.00016305492 -0.00010294732 0.00018485183 -1.9463765e-05
7.162077e-05 0.00018558768 4.792707e-05 -0.00010503502 -0.00010382954 0.00011596812 -5.690366e-05 -4.2142296e-05
-0.00034091782 -6.7423466e-06 0.00013734295 -4.2207343e-05 -3.7680198e-05 4.5033812e-05 5.124748e-06 9.9491706e-05
-4.8767426e-05 2.9319159e-05 1.2790408e-05 -0.00015157014 9.7543394e-05 7.5903496e-05 0.000107673986 -0.0001360821
4.8187998e-05 6.147207e-05 3.4913923e-05 -5.622387e-05 -8.78137e-05 3.2882992e-05 -6.599132e-05 -6.8362406e-06
-1.9669887e-05 -8.233385e-05 -2.8258377e-05 3.263862e-05 2.5716452e-05 -5.024932e-05 3.5318553e-05 1.5419486e-05
6.949977e-05 7.3889394e-05 -7.747917e-05 1.6164704e-05 1.4914307e-05 -1.4394678e-05 -1.1329215e-05 -3.214854e-05
-2.237605e-06 -2.4897836e-05 -5.076261e-06 3.976238e-05 -4.788095e-05 -5.7226653e-06 -3.3130495e-05 7.089034e-05
0.00023523135 0.0005602884 0.00026785157 -0.00041230352 -0.00089814997 0.0001505179 -0.00078748394 -0.00025738718
-6.362777e-05 -0.00048239273 -0.00015566076 5.405035e-05 9.499517e-05 -0.00013764341 0.0001950975 8.023795e-05
0.000463473 -0.00011978068 -0.00054509874 0.000117557254 0.00012881438 -0.00016278008 -2.688799e-05 -0.000121465106
0.00015070786 -0.00014939728 1.7124175e-05 0.00068228086 -0.00023427258 0.00015670598 -0.00033746468 0.00020015368
2.4634382e-05 -1.6990873e-05 2.4089491e-05 -1.086201e-05 -2.2924956e-05 3.095379e-05 -2.3672601e-05 1.2732093e-05
-2.4028252e-05 -2.8109876e-05 -1.4025362e-05 5.0575854e-05 3.1074484e-05 -2.1583804e-05 1.15158155e-05 9.130808e-06
0.00019015634 4.6050824e-05 -7.29962e-06 1.4152643e-05 2.967039e-06 -2.0784028e-05 -8.971966e-06 -1.4074608e-05
-8.271506e-06 -4.0469793e-05 -3.7274228e-06 1.933328e-05 2.7605165e-06 1.2676523e-05 -2.7850125e-05 -3.742345e-06
6.4811524e-05 3.0322153e-06 1.9926765e-05 -2.9822244e-05 2.2403075e-05 -1.977068e-05 6.93282e-05 -9.5198175e-06
-2.5471095e-06 -3.7067515e-05 -1.8504814e-05 5.8759297e-06 5.271068e-07 -4.768404e-05 3.1590822e-05 4.8318198e-06
-6.764937e-05 0.00011648822 2.5551439e-05 2.5968508e-05 9.276587e-06 -2.173393e-05 -1.7186067e-05 -1.5216505e-05
-4.2591226e-05 -2.9598077e-05 4.2531533e-06 -0.00014433316 3.8333106e-05 -8.1273494e-05 -4.4559685e-05 7.320856e-05
-0.00013014983 0.00059585203 2.5190777e-05 -0.00029954076 -0.0007612225 -0.0001931622 -0.00084780203 -0.00047888828
0.00014564955 0.00015753486 0.00015346907 -0.0004178958 -0.00032552305 0.00035799533 -0.00016503778 -3.5910514e-05
-7.32808e-05 -0.0007108192 -0.00043599398 1.4727082e-05 7.072433e-05 -0.00015738646 0.00012246925 0.00029986014
0.00037279562 -7.223218e-05 7.3308314e-05 0.0010484798 -0.00023401678 0.00088699785 -9.703748e-05 -0.000707372
00000000: f1b1 2a39 039c 5738 1080 0839 c600 c6b8
00000010: ad37 10b9 2fdb 4739 ce6a 87b8 4036 5138
00000020: 9f7b 01b9 51df 94b9 2ab8 0eb9 e860 6939
00000030: a182 5539 1d33 6db9 e19d ea38 b7e9 3c38
00000040: 3158 de39 e9c2 5f39 4e1c 01b9 2dea 8938
00000050: dd2f ec37 3765 34b8 0442 82b8 ecd3 0ab9
00000060: ff17 a5b8 f18f 2bb9 a358 8ab7 3660 ddb7
00000070: 605c ee36 699c 84b9 7536 59b9 b6e7 b439
00000080: a1b4 b6b4 36d2 12b9 a8ac 10b8 d455 7238
00000090: 7c35 5639 a1e9 3537 748e 5539 a6da c238
000000a0: 79a4 d9b7 c7f7 ed36 008b bc35 c9af 8538
000000b0: efac ea37 d3b5 98b8 febf 2037 24a2 dcb5
000000c0: 3543 0338 271f 9339 a95d 9238 bc28 42b7
000000d0: cbb9 b0b7 fe28 1a38 0eae a9b7 8c60 0ab8
000000e0: 19fe 84b8 85af 6637 7ad8 90b7 c0e6 82b9
000000f0: a065 1537 728b eab8 5b63 2838 a2f2 c938
00000100: aaba aab8 5c9e b7b8 3b87 cdb8 b4c1 bf38
00000110: b9f9 2a39 6ce5 d7b8 c9d4 4139 1e46 a3b7
00000120: 1c33 9638 509a 4239 4d05 4938 3f46 dcb8
00000130: 0fbf d9b8 e933 f338 d7ab 6eb8 f2c1 30b8
00000140: 37bd b2b9 513c e2b6 b803 1039 ca07 31b8
00000150: ce0a 1eb8 b0e2 3c38 40f5 ab36 34a6 d038
00000160: a08b 4cb8 6af2 f537 6296 5637 cdee 1eb9
00000170: 3690 cc38 612e 9f38 08cf e138 43b1 0eb9
00000180: 781d 4a38 91ea 8038 8a70 1238 ecd1 6bb8
00000190: 9f28 b8b8 d8eb 0938 d264 8ab8 dc62 e5b6
000001a0: c300 a5b7 a6aa acb8 670c edb7 74e5 0838
000001b0: a9b9 d737 ccc2 52b8 0223 1438 1859 8137
000001c0: 68c0 9138 11f5 9a38 507c a2b8 7099 8737
000001d0: 7638 7a37 ac80 71b7 9c12 3eb7 3bd7 06b8
000001e0: c329 16b6 b2db d0b7 c054 aab6 88c6 2638
000001f0: c7d3 48b8 5205 c0b6 99f5 0ab8 f6aa 9438
00000200: 6fa8 7639 51e0 123a 6e6e 8c39 712a d8b9
00000210: d371 6bba 57d4 1d39 276f 4eba ecf1 86b9
00000220: e66f 85b8 a8e9 fcb9 de38 23b9 1fb4 6238
00000230: 2538 c738 5f54 10b9 1693 4c39 6c45 a838
00000240: 4bfe f239 c332 fbb8 f5e4 0eba 1289 f638
00000250: 5912 0739 f2af 2ab9 858d e1b7 15bb feb8
00000260: 5507 1e39 87a7 1cb9 e3a5 8f37 18db 323a
00000270: 11a7 75b9 7151 2439 beed b0b9 58e0 5139
00000280: efa5 ce37 9f87 8eb7 ca13 ca37 fa3b 36b7
00000290: f84e c0b7 61d4 0138 8694 c6b7 ec9b 5537
000002a0: 4790 c9b7 80cd ebb7 794e 6bb7 6921 5438
000002b0: f955 0238 de0e b5b7 0d34 4137 8630 1937
000002c0: b464 4739 b226 4138 42ef f4b6 2471 6d37
000002d0: 581d 4736 5c59 aeb7 4d86 16b7 fb21 6cb7
000002e0: d9c5 0ab7 1cbe 29b8 a324 7ab6 e72d a237
000002f0: 5041 3936 40ad 5437 b09f e9b7 ff24 7bb6
00000300: 6ceb 8738 107d 4b36 6728 a737 c82a fab7
00000310: 3dee bb37 36d9 a5b7 4b64 9138 4eb7 1fb7
00000320: 02ef 2ab6 f178 1bb8 c93a 9bb7 da29 c536
00000330: 817e 0d35 5900 48b8 6380 0438 0421 a236
00000340: fbde 8db8 234b f438 4c57 d637 f2d6 d937
00000350: a3a2 1b37 4251 b6b7 cc2a 90b7 644a 7fb7
00000360: fba3 32b8 6349 f8b7 4fb6 8e36 2358 17b9
00000370: dcc7 2038 6071 aab8 99e5 3ab8 8c87 9938
00000380: d478 08b9 f432 1c3a c850 d337 ae0b 9db9
00000390: c78c 47ba 958b 4ab9 083f 5eba 4c13 fbb9
000003a0: 81b9 1839 f12f 2539 8aec 2039 0619 dbb9
000003b0: f7aa aab9 52b1 bb39 fe0d 2db9 9f9e 16b8
000003c0: 54ae 99b8 4556 3aba 1f96 e4b9 5614 7737
000003d0: d651 9438 1b08 25b9 176b 0039 8c36 9d39
000003e0: c873 c339 5b7b 97b8 1abd 9938 256d 893a
000003f0: 6762 75b9 6b85 683a 9a80 cbb8 ee6e 39ba

exp_avg_sq f4 [128, 32]
1.5684383e-06 3.2214398e-06 8.407142e-07 1.9337149e-06 4.832231e-06 1.3112841e-06 2.809924e-06 9.902134e-07
4.8825314e-07 5.004445e-06 1.1387003e-06 1.5287524e-06 1.4260808e-06 1.6978262e-06 1.9484432e-06 1.7178688e-07
2.6496527e-06 1.4868245e-06 4.880218e-06 1.886364e-07 1.1886677e-07 9.2081294e-08 1.8831555e-07 1.2878331e-06
7.829468e-07 1.0910152e-06 2.5396115e-08 1.1998129e-06 1.0078048e-06 3.064446e-06 1.4327742e-06 6.761041e-06
1.4919104e-07 1.9024836e-06 3.1643484e-07 8.4000004e-07 4.782924e-06 1.0906675e-08 3.6499382e-06 7.1174725e-07
8.564424e-09 5.187686e-07 3.5919125e-08 8.606508e-08 7.1947857e-09 7.3924774e-08 5.4143577e-08 1.595962e-08
2.920764e-07 1.8739604e-06 1.2732382e-06 1.2851753e-07 8.656728e-08 1.9116307e-07 1.1039566e-08 1.0423004e-08
2.686225e-07 1.1275097e-07 1.9498222e-08 3.2594817e-06 9.5298596e-08 5.022965e-07 4.8936647e-07 9.891907e-08
6.385592e-07 2.8370034e-06 5.253726e-07 1.6345557e-06 5.276147e-06 3.2381564e-07 3.565573e-06 7.9995715e-07
1.352399e-07 2.0763011e-06 3.3014896e-07 3.9496268e-07 3.4459325e-07 4.7353163e-07 6.400973e-07 8.9617174e-08
1.1539169e-06 7.1646787e-07 3.2219236e-06 2.3789218e-07 1.3667277e-07 1.9708446e-07 7.9694225e-08 3.3351577e-07
4.0116154e-07 6.0240745e-07 2.256007e-08 2.2716167e-06 5.7779863e-07 1.2391915e-06 9.283181e-07 1.6443715e-06
2.0269849e-07 3.6731788e-07 1.7369183e-07 2.953079e-07 1.0809757e-06 2.994226e-08 6.311059e-07 1.2479468e-07
1.947499e-08 3.714638e-07 5.2979335e-08 4.7862798e-08 5.7514647e-08 1.0028926e-07 1.12262526e-07 2.7641766e-08
2.5852776e-07 3.220864e-07 2.8996314e-07 1.0959438e-07 3.888098e-08 9.2425495e-08 1.7564393e-08 8.785955e-08
4.044974e-08 1.0581125e-07 7.3681306e-09 3.9243704e-07 4.4842206e-08 1.9584523e-07 1.8667636e-07 3.1268834e-07
3.9954207e-06 3.338666e-05 4.9719206e-06 1.9569668e-05 6.869915e-05 9.040147e-07 4.7581565e-05 9.4242405e-06
4.5722734e-07 1.8280789e-05 1.2763402e-06 8.2748005e-07 5.0652585e-07 2.9715807e-06 2.7639305e-06 3.5489384e-07
1.0466024e-05 7.167518e-06 3.614087e-05 2.2244903e-06 1.4981954e-06 2.314695e-06 5.398321e-07 7.27936e-07
3.2419173e-06 3.5871838e-06 1.1064658e-07 3.1243384e-05 5.542613e-06 8.481815e-06 1.07225505e-05 6.932894e-06
3.1994978e-07 1.8770837e-06 2.5956558e-07 1.1055906e-06 2.9338244e-06 1.6287913e-07 1.7617185e-06 3.3376466e-07
6.84161e-08 1.4814242e-06 1.6253031e-07 8.416816e-08 9.695104e-08 3.9151692e-07 3.063591e-07 2.10664e-08
7.6265803e-07 5.7511477e-07 2.3004955e-06 9.80011e-08 6.795647e-08 7.9630134e-08 4.784255e-08 7.7030926e-08
1.1604706e-07 3.4454305e-07 1.9227961e-09 8.0217114e-07 4.2108607e-07 4.4171023e-07 6.8349476e-07 1.2123518e-06
3.2706004e-07 4.5562e-06 4.877074e-07 2.389242e-06 8.877646e-06 7.9872045e-08 6.8032064e-06 1.5183905e-06
5.314391e-08 1.7883671e-06 7.5263415e-08 2.2178274e-07 1.02148284e-07 3.9525767e-07 2.3236993e-07 5.3357077e-08
1.3935648e-06 1.6393674e-06 5.620993e-06 3.2572694e-07 2.0237563e-07 3.1359954e-07 7.955295e-08 2.2254864e-07
6.596546e-07 5.085135e-07 3.6117765e-08 5.0878875e-06 1.1511862e-06 2.6066627e-06 1.1329724e-06 7.475718e-07
3.8793446e-06 5.5468317e-05 6.964708e-06 2.90531e-05 0.00012199277 1.0967195e-06 9.303379e-05 2.035454e-05
4.7551293e-07 2.0400685e-05 1.4316457e-06 3.1528807e-06 1.5187576e-06 2.409814e-06 2.7683523e-06 4.2377383e-07
1.2294145e-05 1.6831103e-05 5.5219134e-05 3.280686e-06 2.3531154e-06 4.094409e-06 5.8140404e-07 1.3790656e-06
8.405156e-06 3.936519e-06 3.5967545e-07 7.143557e-05 8.007215e-06 2.320172e-05 1.457592e-05 6.1374035e-06
00000000: 2183 d235 ea2f 5836 71ad 6135 f8c4 0136
00000010: 8c24 a236 61ff af35 2092 3c36 79e7 8435
00000020: 8010 0335 dbeb a736 72d5 9835 882f cd35
00000030: c367 bf35 dde0 e335 00c2 0236 6b74 3834
00000040: b0d0 3136 e78e c735 c1c0 a336 fb8b 4a34
00000050: b343 ff33 3abe c533 c933 4a34 9cd9 ac35
00000060: b22b 5235 ff6e 9235 a626 da32 4209 a135
00000070: e943 8735 c8a6 4d36 bf4d c035 e6dc e236
00000080: 5231 2034 d758 ff35 79e2 a934 5d7c 6135
00000090: 017d a036 1060 3b32 76f1 7436 e60e 3f35
000000a0: bc22 1332 8241 0b35 7f45 1a33 c7d2 b833
000000b0: 0136 f731 93c0 9e33 7e8b 6833 9317 8932
000000c0: adce 9c34 ca84 fb35 22e4 aa35 a1fe 0934
000000d0: dee6 b933 8142 4d34 86a8 3d32 db10 3332
000000e0: 3237 9034 8021 f233 0b7d a732 78bd 5a36
000000f0: f5a6 cc33 8dd5 0635 025d 0335 556d d433
00000100: 7469 2b35 5963 3e36 5507 0d35 e862 db35
00000110: c209 b136 e2d8 ad34 1448 6f36 a3bc 5635
00000120: 7636 1134 9556 0b36 543f b134 420b d434
00000130: 8900 b934 b139 fe34 27d3 2b35 9073 c033
00000140: 48e0 9a35 4c53 4035 3a38 5836 4e6f 7f34
00000150: 53c0 1234 2a9e 5334 5d24 ab33 0f0e b334
00000160: 395f d734 20b5 2135 1eca c132 1472 1836
00000170: 051a 1b35 4c52 a635 8931 7935 2db4 dc35
00000180: 56a5 5934 c933 c534 0c80 3a34 cf8a 9e34
00000190: 0b16 9135 dd99 0033 4469 2935 4dff 0534
000001a0: f549 a732 996d c734 658b 6333 b491 4d33
000001b0: 0606 7733 9b5e d733 fa14 f133 e370 ed32
000001c0: c9cb 8a34 38eb ac34 3bac 9b34 265a eb33
000001d0: 17fe 2633 747b c633 82e0 9632 4cad bc33
000001e0: f6ba 2d33 5a3a e333 c32a fd31 23b0 d234
000001f0: 8798 4033 8749 5234 3571 4834 8fdf a734
00000200: 6710 8636 a708 0c38 79d4 a636 8b29 a437
00000210: 9312 9038 6bab 7235 5192 4738 ce1c 1e37
00000220: d978 f534 b259 9937 b74e ab35 ff1f 5e35
00000230: 31f8 0735 5e6b 4736 f77b 3936 3d88 be34
00000240: 3b97 2f37 8380 f036 f795 1738 7448 1536
00000250: 9a15 c935 2856 1b36 fbe8 1035 6267 4335
00000260: b78f 5936 59bb 7036 9a9c ed33 540b 0338
00000270: affa b936 1e4d 0e37 01e5 3337 1ba1 e836
00000280: 90c5 ab34 1bf0 fb35 6c5a 8b34 ce63 9435
00000290: b8e2 4436 e0e3 2e34 3074 ec35 4430 b334
000002a0: 26ec 9233 59d5 c635 fe83 2e34 efbf b433
000002b0: 6633 d033 ad31 d234 ad79 a434 81f5 b432
000002c0: 76b9 4c35 9661 1a35 3662 1a36 ad74 d233
000002d0: 77ef 9133 2101 ab33 717b 4d33 336c a533
000002e0: 8c35 f933 a3f9 b834 3022 0431 c854 5735
000002f0: a111 e234 3124 ed34 6779 3735 17b8 a235
00000300: ca96 af34 76e1 9836 ffea 0235 dd56 2036
00000310: 33f1 1437 1f86 ab33 1947 e436 80cb cb35
00000320: 5940 6433 d307 f035 80a0 a133 2d23 6e34
00000330: 9d5c db33 cd33 d434 5c81 7934 ba2a 6533
00000340: 860a bb35 3c08 dc35 f69b bc36 92df ae34
00000350: 974c 5934 cb5c a834 b2d6 aa33 b4f5 6e34
00000360: 1e13 3135 c880 0835 e71f 1b33 9fb8 aa36
00000370: 7582 9a35 20ee 2e36 a310 9835 beac 4835
00000380: 512b 8236 a7a6 6838 63b2 e936 0fb7 f337
00000390: 5fd6 ff38 ff32 9335 231b c338 0bbf aa37
000003a0: 004a ff34 2322 ab37 f926 c035 1496 5336
000003b0: 1dd8 cb35 4ab8 2136 eec7 3936 0883 e334
000003c0: f342 4e37 8530 8d37 189b 6738 c229 5c36
000003d0: 37ea 1d36 b562 8936 c811 1c35 5518 b935
000003e0: df03 0d37 7116 8436 6b19 c134 aecf 9538
000003f0: ba56 0637 50a1 c237 1a8b 7437 e5ef cd36

exp_avg f4 [128]
-0.00049314747 0.0005426425 0.00054486323 -0.000215903 -0.0023866303 -9.8335695e-05 -0.00019664578 -0.0018197328
0.00026879378 0.0022375304 -3.8369155e-05 4.668893e-05 0.0005792152 0.000434553 -0.0011949574 0.0005448553
0.00063707493 0.00037488167 -0.00021162775 0.000110164394 0.00054136134 0.0005530828 -0.00023476433 0.0007928012
0.0008364538 9.163562e-05 6.685051e-05 7.838029e-05 -6.513874e-05 -0.001110376 -0.0017561924 0.0003351157
-0.0006496768 0.00057572976 0.00051099027 -0.0002701792 -0.0041143005 -0.000489535 -0.00012591436 -0.0025123362
0.00022348207 0.0020660295 4.3763986e-05 0.00026321103 0.00065823604 0.00045158135 -0.0001712236 0.00031270363
0.004268512 5.5245502e-05 -0.00039841156 7.8995974e-05 0.0003764311 0.0006424584 -9.558153e-05 0.00040081926
0.0006782939 -0.0004308355 -0.00032278147 0.0002797184 0.000129126 -0.0018840148 -0.0018145607 -0.0007194898
0.0038472705 -0.001638542 -0.004371253 5.5171062e-05 -0.01569135 0.0027193148 -0.0025071367 -0.029879212
0.010763034 0.011485061 -0.0056744507 -0.032591805 -0.011377279 0.007917977 -6.656072e-05 -0.004278913
-0.052141126 -0.006051425 0.0024791583 -0.0036026412 -0.0032988412 0.0057197376 0.0006910571 0.008109358
-0.0054006423 -0.004107572 0.015823878 1.1093075e-05 -0.00091614586 0.013292244 -0.006490638 -0.011001381
-0.00032173868 0.0004835252 0.00048571976 -0.00037595705 -0.003991347 -0.0005908786 -7.972529e-06 -0.0023701144
0.00047783027 0.0027223583 -0.00044938925 0.00066185655 0.00071782584 0.0001903896 -0.00026358807 0.0006521451
0.0007106542 4.4375036e-05 -0.00082041416 5.6561847e-05 0.00045832348 0.0005042782 -0.00018865553 0.0005866509
0.0012942128 0.00022555853 0.00014844863 0.00028586507 -2.890129e-05 -0.0016386359 -0.0019085428 0.0003477038
00000000: 9146 01ba 1f40 0e3a 27d5 0e3a 0564 62b9
00000010: 0369 1cbb 9339 ceb8 b332 4eb9 1a84 eeba
00000020: e4ec 8c39 88a3 123b 91ee 20b8 dbd3 4338
00000030: 79d6 173a b7d4 e339 1ea0 9cba 9fd4 0e3a
00000040: 6001 273a c48b c439 64e8 5db9 0f08 e738
00000050: 25ea 0d3a c2fc 103a 122b 76b9 fdd3 4f3a
00000060: 7745 5b3a 802c c038 1832 8c38 1960 a438
00000070: 189b 88b8 098a 91ba 0a30 e6ba 78b2 af39
00000080: 124f 2aba 92ec 163a faf3 053a d7a6 8db9
00000090: 41d1 86bb 2354 00ba e107 04b9 02a6 24bb
000000a0: 8356 6a39 3966 073b 398f 3738 96ff 8939
000000b0: 798d 2c3a 39c2 ec39 7c8a 33b9 5ff2 a339
000000c0: e0de 8b3b 68b7 6738 e5e1 d0b9 a4aa a538
000000d0: ba5b c539 a76a 283a f172 c8b8 0d25 d239
000000e0: 88cf 313a c3e1 e1b9 ff3a a9b9 2ba7 9239
000000f0: ff65 0739 0cf1 f6ba 8ed6 edba 259c 3cba
00000100: 7d22 7c3b 59c4 d6ba ba3c 8fbb 7a67 6738
00000110: 258b 80bc 8836 323b c64e 24bb 40c5 f4bc
00000120: 7057 303c d62b 3c3c bef0 b9bb fc7e 05bd
00000130: c467 3abc 67ba 013c 8496 8bb8 2036 8cbb
00000140: ef91 55bd 084b c6bb 6079 223b 4a1a 6cbb
00000150: 5f31 58bb a36c bb3b 0f28 353a 1ddd 043c
00000160: dff7 b0bb d098 86bb 14a1 813c 651c 3a37
00000170: 8229 70ba b6c7 593c 6baf d4bb 233f 34bc
00000180: 09af a8b9 a781 fd39 34a8 fe39 1a1c c5b9
00000190: d8c9 82bb 31e5 1aba c0c1 05b7 ec53 1bbb
000001a0: 4b85 fa39 9869 323b 019c ebb9 7180 2d3a
000001b0: 7a2c 3c3a 52a3 4739 3132 8ab9 b8f4 2a3a
000001c0: 324b 3a3a 551f 3a38 1011 57ba d23c 6d38
000001d0: 234b f039 8a31 043a d5d1 45b9 7ac9 193a
000001e0: 93a2 a93a e883 6c39 e0a8 1b39 29e0 9539
000001f0: 0c71 f2b7 7fc7 d6ba 1228 faba 044c b639

exp_avg_sq f4 [128]
2.1719423e-05 3.4310215e-05 3.440065e-05 1.2764093e-05 0.00041798514 1.8282071e-05 5.252513e-05 0.00072506256
2.7354075e-05 0.00031012585 3.839907e-05 8.355113e-05 3.7328293e-05 1.2402672e-05 1.0044742e-05 1.1234473e-05
4.237236e-05 1.0819698e-05 4.1443404e-06 1.4573291e-05 3.558978e-05 6.092688e-05 1.4505266e-06 2.0690148e-05
7.602699e-05 7.362599e-06 2.1457576e-05 2.5785308e-05 2.0585134e-05 5.225293e-05 0.00014022716 4.4450448e-05
3.4189663e-05 4.285478e-05 2.9480287e-05 8.256418e-06 0.0012792249 3.0943564e-05 9.512557e-05 0.0011261498
1.633684e-05 0.00046849434 4.772168e-05 0.00011740213 2.9460152e-05 1.8379611e-05 3.4106897e-06 6.800056e-06
0.00043449292 3.4221655e-05 1.7864593e-05 1.4002653e-05 2.0618128e-05 5.013042e-05 5.993756e-07 1.5768366e-05
0.000105706305 1.3867423e-05 2.0680442e-05 3.2989683e-05 1.9071049e-05 8.392905e-05 0.00016517204 6.341438e-05
0.0006776178 0.00027228185 0.0026992336 0.0007867021 0.011536958 0.0010096662 0.0006323996 0.04784142
0.012977374 0.013823601 0.0030553164 0.07956454 0.011192323 0.011475038 0.00015260722 0.0019821548
0.20979102 0.0061615095 0.00047260633 0.0013630018 0.0028895075 0.00579079 0.00034028827 0.0049826363
0.005763477 0.00062262156 0.020867007 0.0003057123 0.006148976 0.008002673 0.0025002172 0.009877444
3.053868e-05 0.00014098179 2.9926277e-05 2.3680714e-05 0.0014690986 5.138864e-05 9.160973e-05 0.0013242606
2.454734e-05 0.000560741 5.2731368e-05 0.00013201665 4.733161e-05 9.1037655e-06 3.0578383e-06 1.2817933e-05
9.0143905e-05 1.8216488e-05 1.135782e-05 2.778436e-05 3.5597353e-05 7.942665e-05 1.0944616e-06 1.8785582e-05
7.9742174e-05 9.712739e-06 2.709472e-05 2.9953511e-05 2.1348857e-05 0.00016341766 0.00033496477 4.7297977e-05
00000000: 1b32 b637 50e8 0f38 6b49 1038 5d25 5637
00000010: 0425 db39 735c 9937 6e4e 5c38 2012 3e3a
00000020: 6e76 e537 6398 a239 b00e 2138 2c38 af38
00000030: f390 1c38 1215 5037 d785 2837 b27b 3c37
00000040: fab8 3138 4086 3537 9d0f 8b36 cf7f 7437
00000050: 3c46 1538 bd8b 7f38 b7af c235 c18f ad37
00000060: ae70 9f38 3e0c f736 cbff b337 874d d837
00000070: 3dae ac37 282a 5b38 f109 1339 4e70 3a38
00000080: df66 0f38 f8be 3338 6f4c f737 0c85 0a37
00000090: aaab a73a 66c9 0138 277e c738 519b 933a
000000a0: 190b 8937 3fa0 f539 c428 4838 ca35 f638
000000b0: 3221 f737 ea2d 9a37 34e3 6436 092c e436
000000c0: a7cc e339 3989 0f38 ecdb 9537 f0ec 6a37
000000d0: 18f5 ac37 2143 5238 c7e4 2035 4f46 8437
000000e0: a4ae dd38 21a8 6837 e97a ad37 675e 0a38
000000f0: c4fa 9f37 1103 b038 0832 2d39 56fd 8438
00000100: 29a2 313a 0dc1 8e39 a0e5 303b af3a 4e3a
00000110: 8205 3d3c c756 843a 9ec7 253a 5df5 433d
00000120: 0d9f 543c 637c 623c b43b 483b bcf2 a23d
00000130: 0160 373c cc01 3c3c 3005 2039 0ae7 013b
00000140: 75d3 563e 7de6 c93b 26c8 f739 c0a6 b23a
00000150: e45d 3d3b abc0 bd3b b868 b239 6245 a33b
00000160: 8ddb bc3b 6d37 233a 49f1 aa3c 0348 a039
00000170: 597d c93b a51d 033c afda 233b 01d5 213c
00000180: a816 0038 83d4 1339 310a fb37 f2a5 c637
00000190: c58e c03a 228a 5738 991e c038 d092 ad3a
000001a0: 03eb cd37 b1fe 123a e02b 5d38 f36d 0a39
000001b0: ee85 4638 60bc 1837 4335 4d36 9a0c 5737
000001c0: a40b bd38 9ccf 9837 778d 3e37 7512 e937
000001d0: 5e4e 1538 dc91 a638 6ae5 9235 bb95 9d37
000001e0: 413b a738 e5f3 2237 7849 e337 ad44 fb37
000001f0: 5216 b337 185b 2b39 369e af39 d161 4638

exp_avg f4 [128]
-0.00049314747 0.0005426425 0.00054486323 -0.000215903 -0.0023866303 -9.8335695e-05 -0.00019664578 -0.0018197328
0.00026879378 0.0022375304 -3.8369155e-05 4.668893e-05 0.0005792152 0.000434553 -0.0011949574 0.0005448553
0.00063707493 0.00037488167 -0.00021162775 0.000110164394 0.00054136134 0.0005530828 -0.00023476433 0.0007928012
0.0008364538 9.163562e-05 6.685051e-05 7.838029e-05 -6.513874e-05 -0.001110376 -0.0017561924 0.0003351157
-0.0006496768 0.00057572976 0.00051099027 -0.0002701792 -0.0041143005 -0.000489535 -0.00012591436 -0.0025123362
0.00022348207 0.0020660295 4.3763986e-05 0.00026321103 0.00065823604 0.00045158135 -0.0001712236 0.00031270363
0.004268512 5.5245502e-05 -0.00039841156 7.8995974e-05 0.0003764311 0.0006424584 -9.558153e-05 0.00040081926
0.0006782939 -0.0004308355 -0.00032278147 0.0002797184 0.000129126 -0.0018840148 -0.0018145607 -0.0007194898
0.0038472705 -0.001638542 -0.004371253 5.5171062e-05 -0.01569135 0.0027193148 -0.0025071367 -0.029879212
0.010763034 0.011485061 -0.0056744507 -0.032591805 -0.011377279 0.007917977 -6.656072e-05 -0.004278913
-0.052141126 -0.006051425 0.0024791583 -0.0036026412 -0.0032988412 0.0057197376 0.0006910571 0.008109358
-0.0054006423 -0.004107572 0.015823878 1.1093075e-05 -0.00091614586 0.013292244 -0.006490638 -0.011001381
-0.00032173868 0.0004835252 0.00048571976 -0.00037595705 -0.003991347 -0.0005908786 -7.972529e-06 -0.0023701144
0.00047783027 0.0027223583 -0.00044938925 0.00066185655 0.00071782584 0.0001903896 -0.00026358807 0.0006521451
0.0007106542 4.4375036e-05 -0.00082041416 5.6561847e-05 0.00045832348 0.0005042782 -0.00018865553 0.0005866509
0.0012942128 0.00022555853 0.00014844863 0.00028586507 -2.890129e-05 -0.0016386359 -0.0019085428 0.0003477038
00000000: 9146 01ba 1f40 0e3a 27d5 0e3a 0564 62b9
00000010: 0369 1cbb 9339 ceb8 b332 4eb9 1a84 eeba
00000020: e4ec 8c39 88a3 123b 91ee 20b8 dbd3 4338
00000030: 79d6 173a b7d4 e339 1ea0 9cba 9fd4 0e3a
00000040: 6001 273a c48b c439 64e8 5db9 0f08 e738
00000050: 25ea 0d3a c2fc 103a 122b 76b9 fdd3 4f3a
00000060: 7745 5b3a 802c c038 1832 8c38 1960 a438
00000070: 189b 88b8 098a 91ba 0a30 e6ba 78b2 af39
00000080: 124f 2aba 92ec 163a faf3 053a d7a6 8db9
00000090: 41d1 86bb 2354 00ba e107 04b9 02a6 24bb
000000a0: 8356 6a39 3966 073b 398f 3738 96ff 8939
000000b0: 798d 2c3a 39c2 ec39 7c8a 33b9 5ff2 a339
000000c0: e0de 8b3b 68b7 6738 e5e1 d0b9 a4aa a538
000000d0: ba5b c539 a76a 283a f172 c8b8 0d25 d239
000000e0: 88cf 313a c3e1 e1b9 ff3a a9b9 2ba7 9239
000000f0: ff65 0739 0cf1 f6ba 8ed6 edba 259c 3cba
00000100: 7d22 7c3b 59c4 d6ba ba3c 8fbb 7a67 6738
00000110: 258b 80bc 8836 323b c64e 24bb 40c5 f4bc
00000120: 7057 303c d62b 3c3c bef0 b9bb fc7e 05bd
00000130: c467 3abc 67ba 013c 8496 8bb8 2036 8cbb
00000140: ef91 55bd 084b c6bb 6079 223b 4a1a 6cbb
00000150: 5f31 58bb a36c bb3b 0f28 353a 1ddd 043c
00000160: dff7 b0bb d098 86bb 14a1 813c 651c 3a37
00000170: 8229 70ba b6c7 593c 6baf d4bb 233f 34bc
00000180: 09af a8b9 a781 fd39 34a8 fe39 1a1c c5b9
00000190: d8c9 82bb 31e5 1aba c0c1 05b7 ec53 1bbb
000001a0: 4b85 fa39 9869 323b 019c ebb9 7180 2d3a
000001b0: 7a2c 3c3a 52a3 4739 3132 8ab9 b8f4 2a3a
000001c0: 324b 3a3a 551f 3a38 1011 57ba d23c 6d38
000001d0: 234b f039 8a31 043a d5d1 45b9 7ac9 193a
000001e0: 93a2 a93a e883 6c39 e0a8 1b39 29e0 9539
000001f0: 0c71 f2b7 7fc7 d6ba 1228 faba 044c b639

exp_avg_sq f4 [128]
2.1719423e-05 3.4310215e-05 3.440065e-05 1.2764093e-05 0.00041798514 1.8282071e-05 5.252513e-05 0.00072506256
2.7354075e-05 0.00031012585 3.839907e-05 8.355113e-05 3.7328293e-05 1.2402672e-05 1.0044742e-05 1.1234473e-05
4.237236e-05 1.0819698e-05 4.1443404e-06 1.4573291e-05 3.558978e-05 6.092688e-05 1.4505266e-06 2.0690148e-05
7.602699e-05 7.362599e-06 2.1457576e-05 2.5785308e-05 2.0585134e-05 5.225293e-05 0.00014022716 4.4450448e-05
3.4189663e-05 4.285478e-05 2.9480287e-05 8.256418e-06 0.0012792249 3.0943564e-05 9.512557e-05 0.0011261498
1.633684e-05 0.00046849434 4.772168e-05 0.00011740213 2.9460152e-05 1.8379611e-05 3.4106897e-06 6.800056e-06
0.00043449292 3.4221655e-05 1.7864593e-05 1.4002653e-05 2.0618128e-05 5.013042e-05 5.993756e-07 1.5768366e-05
0.000105706305 1.3867423e-05 2.0680442e-05 3.2989683e-05 1.9071049e-05 8.392905e-05 0.00016517204 6.341438e-05
0.0006776178 0.00027228185 0.0026992336 0.0007867021 0.011536958 0.0010096662 0.0006323996 0.04784142
0.012977374 0.013823601 0.0030553164 0.07956454 0.011192323 0.011475038 0.00015260722 0.0019821548
0.20979102 0.0061615095 0.00047260633 0.0013630018 0.0028895075 0.00579079 0.00034028827 0.0049826363
0.005763477 0.00062262156 0.020867007 0.0003057123 0.006148976 0.008002673 0.0025002172 0.009877444
3.053868e-05 0.00014098179 2.9926277e-05 2.3680714e-05 0.0014690986 5.138864e-05 9.160973e-05 0.0013242606
2.454734e-05 0.000560741 5.2731368e-05 0.00013201665 4.733161e-05 9.1037655e-06 3.0578383e-06 1.2817933e-05
9.0143905e-05 1.8216488e-05 1.135782e-05 2.778436e-05 3.5597353e-05 7.942665e-05 1.0944616e-06 1.8785582e-05
7.9742174e-05 9.712739e-06 2.709472e-05 2.9953511e-05 2.1348857e-05 0.00016341766 0.00033496477 4.7297977e-05
00000000: 1b32 b637 50e8 0f38 6b49 1038 5d25 5637
00000010: 0425 db39 735c 9937 6e4e 5c38 2012 3e3a
00000020: 6e76 e537 6398 a239 b00e 2138 2c38 af38
00000030: f390 1c38 1215 5037 d785 2837 b27b 3c37
00000040: fab8 3138 4086 3537 9d0f 8b36 cf7f 7437
00000050: 3c46 1538 bd8b 7f38 b7af c235 c18f ad37
00000060: ae70 9f38 3e0c f736 cbff b337 874d d837
00000070: 3dae ac37 282a 5b38 f109 1339 4e70 3a38
00000080: df66 0f38 f8be 3338 6f4c f737 0c85 0a37
00000090: aaab a73a 66c9 0138 277e c738 519b 933a
000000a0: 190b 8937 3fa0 f539 c428 4838 ca35 f638
000000b0: 3221 f737 ea2d 9a37 34e3 6436 092c e436
000000c0: a7cc e339 3989 0f38 ecdb 9537 f0ec 6a37
000000d0: 18f5 ac37 2143 5238 c7e4 2035 4f46 8437
000000e0: a4ae dd38 21a8 6837 e97a ad37 675e 0a38
000000f0: c4fa 9f37 1103 b038 0832 2d39 56fd 8438
00000100: 29a2 313a 0dc1 8e39 a0e5 303b af3a 4e3a
00000110: 8205 3d3c c756 843a 9ec7 253a 5df5 433d
00000120: 0d9f 543c 637c 623c b43b 483b bcf2 a23d
00000130: 0160 373c cc01 3c3c 3005 2039 0ae7 013b
00000140: 75d3 563e 7de6 c93b 26c8 f739 c0a6 b23a
00000150: e45d 3d3b abc0 bd3b b868 b239 6245 a33b
00000160: 8ddb bc3b 6d37 233a 49f1 aa3c 0348 a039
00000170: 597d c93b a51d 033c afda 233b 01d5 213c
00000180: a816 0038 83d4 1339 310a fb37 f2a5 c637
00000190: c58e c03a 228a 5738 991e c038 d092 ad3a
000001a0: 03eb cd37 b1fe 123a e02b 5d38 f36d 0a39
000001b0: ee85 4638 60bc 1837 4335 4d36 9a0c 5737
000001c0: a40b bd38 9ccf 9837 778d 3e37 7512 e937
000001d0: 5e4e 1538 dc91 a638 6ae5 9235 bb95 9d37
000001e0: 413b a738 e5f3 2237 7849 e337 ad44 fb37
000001f0: 5216 b337 185b 2b39 369e af39 d161 4638
