code/utility notebooks/logs/epoch=1-step=160-v2.ckpt (torch, 173075 bytes, 48 tensors)

model.input_encoder.weight f4 [32, 1]
000000 73 ed 5a bf 66 51 9f 3e 0b 82 26 bf 60 fe 0e be
       -0.8551857 0.3111679 -0.6504218 -0.13964224
000010 55 a1 74 be 0c 3e c9 be 57 f7 1b 3e b1 63 50 bf
       -0.23889668 -0.3930515 0.15231071 -0.81402117
000020 c1 f4 e2 3d 49 56 10 3f 33 35 14 3f 03 fa 4f 3d
       0.11081839 0.5638166 0.57893676 0.05077554
000030 a9 e2 e9 3d f9 bd 9f be d3 96 b8 bd 86 18 6f be
       0.11420185 -0.31199625 -0.090131424 -0.23349199
000040 6d 71 13 3f 69 7d 4c bf ee 46 89 3e f9 fe 30 bf
       0.5759495 -0.7987886 0.26811928 -0.6913906
000050 a4 fb 01 bf 5b ef 5e 3f 4a b3 6e bf ce 74 51 3f
       -0.507746 0.8708398 -0.93242323 0.81818855
000060 26 33 66 bf 28 76 00 3f c3 c0 53 3f e5 66 f4 be
       -0.89921796 0.5018029 0.82716006 -0.47734752
000070 20 75 72 be 34 d2 d1 be 4f 8d fe bd 4a 4c 09 be
       -0.23677492 -0.40980685 -0.12429296 -0.13408008

model.input_encoder.bias f4 [32]
000000 ba f6 5d bf ee 4b f5 be c9 37 04 bd 11 71 35 3f
       -0.867046 -0.47909492 -0.032279763 0.7087565
000010 a0 83 4a be 8b f7 9d be 67 95 2b bf 37 0c 55 be
       -0.19776773 -0.30852923 -0.67024845 -0.20805441
000020 98 1f c0 3e 0a 0f 84 bf 48 c8 c8 be c1 a8 86 be
       0.37524104 -1.031709 -0.39215302 -0.26300624
000030 83 66 4f 3f 6d f8 79 3f ab a0 b6 bd 0e 17 4f be
       0.81015795 0.9764469 -0.08917364 -0.20223638
000040 96 9d 3a bf 7d 50 6b 3f 9a 8f 40 3f 59 10 49 3f
       -0.7289671 0.9191969 0.7521912 0.7854057
000050 a4 cf 55 bf b8 8c 4d bf 78 ce db bd a6 87 44 bf
       -0.8351996 -0.80292845 -0.1073274 -0.76769483
000060 fd 2f c7 be 87 7e 06 bd 08 5b 0b 3f d8 49 17 bf
       -0.389038 -0.03283551 0.5443578 -0.5909705
000070 fa ce 4d bf 4d 97 bc 3e 12 3e 66 bf bf 72 07 bf
       -0.80393946 0.36834183 -0.8993846 -0.52909464

model.encoder.rnn.weight_ih_l0 f4 [96, 32]
000000 43 78 b1 3d c0 d5 b9 3c eb 72 2c 3e b9 0b 96 3d
       0.08665516 0.022684932 0.16840713 0.07326455
000010 b2 e9 e8 bc 56 d6 40 3e b2 e6 f1 bd 58 84 32 3e
       -0.028431747 0.18831763 -0.1181158 0.17433298
000020 3e 0c 0f bd e7 c0 10 3d d8 5c ef 3d bd 26 25 3e
       -0.034923784 0.035340216 0.116876304 0.16128059
000030 f4 f6 b1 bd 15 2b 8c 3d 39 36 d0 bd eb f3 85 bd
       -0.08689681 0.06844155 -0.10166592 -0.06540664
000040 df 0f bf 3a 37 78 16 3e d4 bd b3 bd fc 34 8e 3a
       0.0014576874 0.14694296 -0.08776441 0.0010849531
000050 ad 06 4a bd 9d 18 26 bd 93 cd 4d 3e 70 7d 22 be
       -0.049322773 -0.040550817 0.20097952 -0.15868163
000060 80 18 6b 3e ac 46 bc bd 8a c3 eb bb bd c6 5e 3e
       0.22958565 -0.09193167 -0.007194941 0.217555
000070 d3 17 ce 3d 46 43 ab 3d 3e cc 3e 3e f1 9b 5a 3e
       0.10063138 0.08362441 0.186326 0.2134855
000080 61 8a 16 bb be 5f 57 be c9 71 e7 3d 82 75 4f 3e
       -0.0022970664 -0.21032616 0.11301 0.2025967
000090 32 59 03 be 92 c0 3a be 7e 21 84 3d 6e 22 83 3d
       -0.12826994 -0.18237522 0.06451701 0.06403051
0000a0 cb 2e 0f 3e b8 86 66 be cd cb 0d be 56 7e 99 3d
       0.13982694 -0.22512329 -0.13847275 0.074948
0000b0 88 df b0 3d 4f a7 77 3e cd 44 f6 bc 8b d5 72 be
       0.08636385 0.24184917 -0.030062104 -0.23714273
0000c0 49 01 2f be 57 2b ab bd 8e 6b f8 3d ee 3b 76 3e
       -0.17090334 -0.08357876 0.121298894 0.24046299
0000d0 f1 97 07 be 08 48 b1 3c 3d ec 3d be b4 8c 59 bc
       -0.13241555 0.021640792 -0.18547149 -0.013278175
0000e0 db 11 44 3d 75 01 66 3c 32 c6 25 bd c0 8e 81 be
       0.04786859 0.014038433 -0.040472217 -0.25304222
0000f0 88 86 a6 3d f7 59 1b 3e 8a 69 83 be d5 f9 5a be
       0.081311285 0.15171038 -0.25666457 -0.21384366
000100 3e 5c 93 3c ac 7c 86 3c 4d 53 35 3e 9b 9e 2e be
       0.01798832 0.01641687 0.17707558 -0.1705269
000110 5c 2a 51 bd d5 2e 5d 3d b5 d7 0d 3d a0 c0 a9 3d
       -0.051065788 0.05399974 0.034629542 0.082886934
000120 86 7e 90 bd 58 01 04 bd a1 58 aa bd 5e 5d 23 bc
       -0.070553824 -0.032227844 -0.08317686 -0.009970991
000130 09 9f 19 be 44 31 85 3d b0 5c 1b bc d1 cb 3f 3e
       -0.15002073 0.06503537 -0.009482548 0.18730094
000140 9f 15 24 3e 86 1b 93 bc 6b 4d ac bd 55 20 99 3c
       0.16023873 -0.01795746 -0.08413204 0.018692175
000150 2a 4f 0f 3e 2c 0a fd 3d c1 1c ba 3d 81 a8 1d 3d
       0.13995042 0.12355456 0.090875156 0.038490776
000160 2a 2d e5 ba db d9 ed 3d d7 15 1f be 3e b8 a0 bd
       -0.0017484773 0.11613818 -0.15535675 -0.078476414
000170 fb 40 f9 3d 15 62 20 be 45 36 57 3d f5 7a 93 bd
       0.12170597 -0.15662415 0.05254199 -0.072011866
000180 07 4f 92 3e 52 b3 a6 3d 2d 56 3c be a7 85 3e be
       0.28575918 0.081396714 -0.18392248 -0.18605672
000190 21 ab 41 bc 44 0d 28 3e c1 3f 5e 3d ef b0 ff bd
       -0.0118205855 0.1641131 0.05426002 -0.12484919
0001a0 25 05 c9 3b e8 80 a8 bd 35 ff 10 3e 1f f1 49 3b
       0.0061346465 -0.08227712 0.14159854 0.0030813885
0001b0 c5 bd 84 bd 06 44 ab bd 02 96 45 3d 67 50 2f bd
       -0.06481508 -0.08362584 0.04823876 -0.042801287
0001c0 2d 0c e7 3b b5 8c 0a bd db 8b 50 bd d3 7f 18 be
       0.007051012 -0.033825595 -0.050914627 -0.14892511
0001d0 63 9e 8e ba f4 a1 a9 bd 29 2f db bd d7 15 68 3e
       -0.0010880943 -0.08282843 -0.107023545 0.22664581
0001e0 d6 31 04 bd 8b b0 07 be 0e d5 4a be 44 e0 61 bd
       -0.03227409 -0.1325094 -0.19807836 -0.055145517
0001f0 8b 2a 5a 3e 67 a0 9f 3d 74 2d b2 3c ff d8 71 3d
       0.21305291 0.07794266 0.02175019 0.059044834
000200 db ba 6b bc 0a 03 ec bc e1 ae 90 bb 28 f2 08 3e
       -0.0143878115 -0.028810043 -0.0044153784 0.13373625
000210 9d 30 17 bd ae 31 74 be 26 7c 51 3c e9 2a 70 3d
       -0.036911596 -0.23847076 0.012785947 0.058634672
000220 ed e1 f5 bd 1b 09 e3 3c 0f c9 01 be a2 24 25 be
       -0.120059825 0.027714303 -0.12674354 -0.16127256
000230 61 03 4d 3d ba 55 a1 3d 14 0e 40 bd bd 64 1f bd
       0.05005205 0.07877679 -0.046888426 -0.03891443
000240 96 bd 15 be 0b 46 af 3d 4f 5c e9 3d b8 87 c0 bd
       -0.14623103 0.085582815 0.113945596 -0.09400886
000250 d5 d7 22 bd cc 98 19 3e af 75 1e be e5 3f 36 3d
       -0.039756615 0.14999694 -0.1547458 0.04449453
000260 cf 20 93 be 42 23 09 3e 4d 4a b3 3e fc 75 82 bd
       -0.28735968 0.13392356 0.35017624 -0.0637016
000270 08 53 ec bd ad 7c 37 3e bd 5f 31 bb ba 1f 48 bd
       -0.115392745 0.17918654 -0.002706512 -0.04885838
000280 06 ba 1b be b3 14 bd 3c d2 db d6 3c ad 48 51 3e
       -0.15207681 0.02308116 0.026227865 0.2043788
000290 33 f5 03 3e 52 b2 30 3d 89 97 02 be b8 92 fe bd
       0.12886505 0.04313881 -0.12753119 -0.12430328
0002a0 67 e3 d9 3d c8 61 0e 3e b6 0b dc bd a3 69 3e be
       0.10639077 0.13904488 -0.10744421 -0.18594985
0002b0 1e f1 5b 3d 86 e3 ae 3d 11 39 df 3c 5f eb f5 bc
       0.053696744 0.085394904 0.027248891 -0.03001946
0002c0 30 19 b3 bd ec 6f c2 bd 5a 9c 32 bd b3 d3 cf 3c
       -0.087450385 -0.09494004 -0.04360614 0.0253695
0002d0 91 e4 82 3d c0 8b 39 be ef 5f e9 3d 9e c3 2e be
       0.06391252 -0.18119717 0.11395251 -0.1706681
0002e0 e6 a8 f7 3d 31 86 c0 bd 6d 5d d4 3c 3f 7f 98 3d
       0.12092762 -0.09400595 0.025923455 0.07446145
0002f0 35 03 f1 3d 10 4d 60 3e 6d bb c7 bd db e2 08 be
       0.1176819 0.21904397 -0.097525455 -0.13367788
000300 57 2f 0e bd 13 e7 46 be 7c e1 94 bb c3 6e fe bd
       -0.034713116 -0.19424085 -0.0045434814 -0.1242347
000310 d2 d2 4d be fc a0 5c bc 69 63 81 bd 2b f8 5b be
       -0.20099953 -0.013466116 -0.06317789 -0.21481387
000320 29 b4 e1 3d 10 a5 3e be 7c 63 01 bd 16 2a 9c 3c
       0.11020691 -0.18617654 -0.031589016 0.019063037
000330 bb b2 11 3e e1 8b 3e 3e ab cf 50 3d b2 55 35 be
       0.14228337 0.18608047 0.050979298 -0.17708471
000340 78 67 7e 3d e8 22 12 bd 60 0e b1 bc e8 71 c7 bd
       0.062110394 -0.03567782 -0.0216133 -0.09738523
000350 c8 33 6b 3b 47 88 9b 3c 12 e9 53 bc f5 9e aa 3d
       0.0035889018 0.01898588 -0.012933986 0.083311
000360 b2 93 3f 3d 76 d8 08 be d2 49 95 3d 7b 33 d8 bd
       0.046771713 -0.13363823 0.07289471 -0.10556694
000370 5e 29 ac 3d 2d 82 76 bd a0 15 25 be 9c 57 7a 3d
       0.08406328 -0.06018274 -0.1612153 0.061118707
000380 d8 ba cf bd 2b 1b bb ba be 7c e6 3d e9 87 71 3d
       -0.101430595 -0.0014275064 0.112542614 0.058967505
000390 24 82 5e 3d 5b 5b 03 be c1 a0 eb bd f5 bd 89 3d
       0.05432333 -0.12827818 -0.11505271 0.067256846
0003a0 73 d1 2d 3e 82 b6 09 be 53 43 a9 bd e6 f5 e0 3c
       0.1697443 -0.13448527 -0.08264794 0.027461004
0003b0 75 01 d6 3d f5 2b 2a bd 82 9f 46 3d a7 73 6d 3d
       0.10449497 -0.041545827 0.048491962 0.057971623
0003c0 8d ea 06 3e 3d 4e 07 be 35 50 1a bd 89 26 c0 3d
       0.13175412 -0.1321344 -0.037674148 0.0938235
0003d0 2b 09 09 3c b9 7e ed bc 16 c3 37 be 42 66 01 be
       0.008364002 -0.02899109 -0.17945513 -0.12636665
0003e0 ba de 08 3c b5 1e 76 bc 6c 7a 06 3e 8b fb 16 bd
       0.008353883 -0.01502197 0.13132638 -0.036860984
0003f0 a8 b4 0c be ff 0a cc bd 41 98 41 be b5 a4 84 bd
       -0.1374079 -0.09963035 -0.18905737 -0.06476728

model.encoder.rnn.weight_hh_l0 f4 [96, 32]
000000 cf 95 01 3b 5c 32 98 bd 55 0c b3 3d 22 a6 88 3d
       0.001977313 -0.0743148 0.087425865 0.06672312
000010 bc 3d 03 3c 4e fa 2c 3c 82 f0 70 bc d6 2f 3e 3e
       0.008010324 0.010557724 -0.014705779 0.18572935
000020 9f fe 84 bd c0 08 02 be 0d f8 2b 3e d9 92 df 3c
       -0.064938776 -0.1269865 0.16793843 0.027291702
000030 6a ba 28 bd 84 88 2f 3e 34 cd 06 be 93 db 10 3d
       -0.041193403 0.1714192 -0.13164216 0.035365652
000040 af 7c c7 3c dd 41 12 3e 81 4a 7b be 1d 36 12 be
       0.024351446 0.14282937 -0.2454014 -0.14278455
000050 b0 63 b5 bd f1 cb b0 bd b5 d0 a1 3c dd ab 24 be
       -0.088569045 -0.08632649 0.01975284 -0.16081186
000060 f5 0b b5 bc 48 5f 15 3e fe 44 2a be 9a 96 05 bd
       -0.022100428 0.14587128 -0.16627881 -0.032614328
000070 94 ee 28 3e 3e 13 3e 3e dd 2a fe bd 35 f4 49 3c
       0.1649726 0.18562028 -0.12410519 0.01232629
000080 a0 d9 5f 3e 32 eb 2f 3e 12 87 f7 3d 4b 28 47 bd
       0.21860361 0.17179564 0.120863095 -0.04862241
000090 86 68 4a bc 3f 31 ea 3d 7e 58 08 bd 78 2a e2 3d
       -0.012354022 0.11435174 -0.033287518 0.110432565
0000a0 6b 17 73 3d 46 da 36 3d 21 91 17 3d 0e 85 67 3e
       0.059348505 0.044641756 0.03700364 0.2260935
0000b0 91 a7 59 3b ec 5b 40 be a3 4e ce bd df a8 bb 3d
       0.003321145 -0.18785065 -0.100735925 0.09163069
0000c0 4e eb 12 3e 01 9f bc bd 3e e7 af 3d 0f af 18 be
       0.14347574 -0.09210015 0.08589028 -0.1491053
0000d0 2d 4d 49 be d3 e0 a8 3c e3 c8 bc 3d 9e 2d 76 3c
       -0.19658346 0.020615017 0.092180036 0.015025524
0000e0 64 65 e6 bc 76 74 90 3e e5 29 7f 3c 5b 3c 7b 3d
       -0.028124519 0.28213853 0.015573953 0.061336856
0000f0 3d 74 76 bd fd e4 14 be a5 e7 48 3e 74 87 15 3e
       -0.060169447 -0.14540477 0.19619615 0.14602453
000100 6f 57 54 be bc cc f2 bc e2 b9 80 bd 26 40 cf bd
       -0.20736478 -0.02963864 -0.06285454 -0.10119657
000110 a2 36 5a be 4d cd 01 3e 7a 57 3c 3e 8e f6 76 bd
       -0.21309903 0.12675972 0.18392745 -0.060293727
000120 20 14 23 3c b8 d3 0a 3c b1 71 0f be db 17 0a be
       0.009953529 0.008473329 -0.14008214 -0.13485663
000130 14 24 fe bd 52 cf 02 3e 1f be f1 3d f2 94 a0 bd
       -0.12409225 0.12774399 0.11803841 -0.07840909
000140 7e 8c 56 bc c1 9b 09 bd 13 51 1a be 96 24 13 3d
       -0.013095019 -0.033595804 -0.1506999 0.035923563
000150 37 9f 8a bd 23 c4 d0 3d 52 94 f9 bd 60 77 4a bc
       -0.06768649 0.1019366 -0.12186493 -0.012357563
000160 d9 a4 93 bd 30 3d f6 3d e8 d2 a2 bd c1 47 8a 3d
       -0.072091766 0.12023389 -0.079503834 0.06751967
000170 5b 2c 08 bc 2f 45 28 be 1c 65 6b 3d 1e e1 cf bc
       -0.008311356 -0.16432641 0.057469472 -0.025375899
000180 da ff 59 be bc 9c a0 3d 18 10 56 be c3 23 a6 bd
       -0.21289006 0.07842395 -0.20904577 -0.0811229
000190 f4 be b5 3c c6 f9 a2 bc d5 4a 25 3e 67 e0 0f be
       0.02218578 -0.019894492 0.16141827 -0.14050446
0001a0 6c 72 d0 bd 6a 5c 89 bb 66 94 ff bd 60 33 0c be
       -0.10178074 -0.004191925 -0.12479477 -0.13691473
0001b0 93 96 fd 3d 95 1c 29 bd 1a 2e f4 bd f0 f8 bd 3d
       0.123822354 -0.041287024 -0.11922856 0.09275997
0001c0 08 e4 eb bc 1a 28 62 3e a9 66 82 bc 02 4b 2a be
       -0.028795257 0.2208561 -0.015918093 -0.16630176
0001d0 8b f6 87 3d ee 74 6d 3e 36 2b 2d be ea 67 b1 bd
       0.06638821 0.23189136 -0.16911015 -0.08662398
0001e0 84 a9 9f bd c7 58 8e bd e7 f6 4e be b9 d2 65 bd
       -0.077960044 -0.06950527 -0.20211373 -0.056109164
0001f0 d4 37 0d 3e d9 fb 2e 3e 60 b1 70 3b 2e c9 57 be
       0.13790828 0.1708826 0.0036726817 -0.21072838
000200 b5 84 35 3e 3a d6 03 be bc 85 26 3d 52 75 fb 3c
       0.17726405 -0.1287469 0.040654883 0.030695591
000210 f7 9d bd bc a9 4c 23 3d c4 4a 3b bb 46 1e 44 be
       -0.023146613 0.03986803 -0.00285785 -0.19152173
000220 24 f6 d3 3c d4 5e ff bd d5 62 c7 3d 04 14 49 3d
       0.025874205 -0.12469259 0.097356476 0.049091354
000230 e6 af f0 3b 8b c6 0b be 7a 93 60 3e 0a 7b ad 3d
       0.0073451875 -0.13649957 0.21931258 0.084707335
000240 f3 c8 83 3c 8d c4 74 be d9 57 a0 bc 92 a2 74 3c
       0.016087031 -0.23903103 -0.019573139 0.014931338
000250 81 b6 43 be c8 49 13 be 22 69 10 3e 50 33 ab bd
       -0.19112588 -0.14383614 0.14102605 -0.083593965
000260 ca b7 f4 bd bc 1a 70 3d 6f c5 3f 3e f2 cd 4e be
       -0.119491175 0.058619246 0.18727659 -0.2019575
000270 fe ce d7 3d 06 f8 d7 bd e2 57 b3 3d f1 45 90 3c
       0.105375275 -0.105453536 0.08756997 0.017611476
000280 35 63 d4 bd 55 46 8d bb 90 15 db 3d c1 fa 56 3e
       -0.10370485 -0.0043113627 0.10697472 0.20994093
000290 8c b1 6a 3e 18 de b0 3d e0 55 0c bd 76 9e 4d be
       0.22919291 0.08636111 -0.034261584 -0.2007998
0002a0 7e ef 31 bc b7 68 b8 bc ad 47 32 3c 63 08 09 3e
       -0.010860322 -0.02251087 0.010881347 0.13382106
0002b0 c2 77 25 be 23 ae 11 3e 22 59 0f be 8d 65 28 be
       -0.16158965 0.14226584 -0.13998845 -0.16444989
0002c0 aa ff 3f 3d cc 8e ea 3d 01 b5 1e be 44 ad de 3d
       0.04687468 0.114530176 -0.15498735 0.108728915
0002d0 fd 8d 37 bc ad 9b 86 bd bc 7f 14 be 29 17 1b 3e
       -0.011203286 -0.065726615 -0.14501852 0.15145554
0002e0 29 b1 3d bd 66 cd c9 bb 41 70 ac 3d 97 4f 83 3d
       -0.04631153 -0.0061585186 0.08419848 0.06411665
0002f0 ff da 15 3e a9 4c 05 3d 29 4c ce 3c be ac 91 bd
       0.14634322 0.032543812 0.0251828 -0.07113026
000300 d5 c6 98 3d 5f 70 f2 bd 21 59 43 3e c8 86 b6 3c
       0.07459799 -0.11837839 0.19076969 0.022281066
000310 08 10 a1 bc d3 58 47 3e 8a 87 4e be 13 2e ac bc
       -0.019660965 0.19467478 -0.20168892 -0.021018064
000320 17 87 24 bd 5e 7d af 3d 1e e8 0c 3d 83 84 75 3e
       -0.040167894 0.08568834 0.03440105 0.2397633
000330 8e c8 aa 3c d3 0a 64 3d b7 4b 09 be f2 e6 93 3d
       0.020847585 0.055674385 -0.13407789 0.07221784
000340 e1 ad 4a 3e 09 24 5f be e5 70 cc 3d b2 60 29 bb
       0.19792892 -0.2179109 0.099824704 -0.0025844988
000350 7d ca 22 be 55 2d 4e be 01 57 02 bd db ee 98 3d
       -0.15897556 -0.2013448 -0.031821255 0.07467433
000360 9f db d4 3d 1b 74 05 be 24 9a 15 3e 15 93 15 be
       0.10393452 -0.13032572 0.14609581 -0.14606889
000370 09 92 0a bd a5 34 0d 3e d5 60 8b 3c 4c 8a 3a be
       -0.033830676 0.13789614 0.017013947 -0.18216819
000380 7d 1a 32 3d 28 70 50 3d ce 26 3d 3e 27 8d 08 3e
       0.043482292 0.05088821 0.18471834 0.13335095
000390 a2 b1 a7 be fd 7c 9e 3d 7d 99 47 be 3b 22 34 3e
       -0.3275271 0.077386834 -0.19492145 0.17591183
0003a0 c9 42 9d 3d b2 7a 1f be 05 bd 67 bd c3 ac cc 3d
       0.07678754 -0.15574148 -0.056576747 0.09993889
0003b0 d9 a0 40 bd d2 c4 7e be f7 79 69 3e 66 87 03 be
       -0.047028396 -0.24879768 0.22800432 -0.12844619
0003c0 b6 62 ca 3d 5a e5 45 be 8e b7 b1 bd b9 e4 26 3b
       0.09882109 -0.19325772 -0.086775884 0.002546592
0003d0 de 2e 6b bd 99 d5 6f 3d 58 13 3e 3e 4b a2 1d 3e
       -0.057417743 0.058553312 0.18562067 0.15393941
0003e0 67 b6 82 3e 22 70 35 be b1 81 07 be 33 45 09 3d
       0.25529787 -0.17718557 -0.13233067 0.03351326
0003f0 7d a2 55 bd 5f c4 de 3c 24 6d 22 3e 27 23 cc 3d
       -0.052156914 0.027193246 0.15861946 0.09967642

model.encoder.rnn.bias_ih_l0 f4 [96]
000000 ac 83 5c be 00 f7 5a 3e 27 cc 02 3d d1 24 02 be
       -0.21534604 0.21383286 0.031932976 -0.12709357
000010 4d c4 ba 3c 57 5f 99 3b 80 de 00 be 67 2c 14 3e
       0.022798682 0.004680555 -0.12584877 0.14470063
000020 17 cf c7 3d b1 f1 6b 3e 0e 75 e3 bc 00 39 43 bd
       0.09756296 0.23041417 -0.027765777 -0.04766178
000030 9d f9 04 bd 64 2a bd bd 4e 1c 2c 3e 5b 8e dc bc
       -0.032464612 -0.09236601 0.16807672 -0.02692335
000040 84 85 57 3e 6e 83 78 3c 19 01 03 be b6 5c 5b bc
       0.21047026 0.015168054 -0.12793387 -0.013388803
000050 8a b9 88 3d 26 38 31 3e ba cf 17 3e 7c 03 3b bc
       0.06676014 0.17306575 0.14825335 -0.011414405
000060 44 a9 14 3e f8 97 02 3e 85 05 39 3e bf 4a 1f 3e
       0.14517695 0.12753284 0.18068512 0.15555857
000070 fd da f6 3d c5 66 d5 3a 1a e6 c0 3d c1 46 0c be
       0.120534874 0.0016281238 0.094188884 -0.13698865
000080 fb 40 85 bd 99 74 97 bd 6a e3 b7 bd b8 94 0c be
       -0.06506535 -0.07395286 -0.08978923 -0.13728607
000090 8c 40 14 be 29 ea 0c be 52 8c 3d 3d 99 49 0f be
       -0.14477748 -0.137612 0.046276398 -0.13992919
0000a0 3e 94 02 be f4 b2 61 3c be 04 cf bd 5d 8d a0 bc
       -0.12751862 0.013775576 -0.101083264 -0.019598657
0000b0 f9 2e 7a bd 76 08 33 be 31 0a 40 3e f0 df 27 3e
       -0.061079953 -0.17483696 0.18753888 0.16394019
0000c0 6e b9 6f 3d 23 1f ac 3d f9 25 66 be 84 c7 88 3d
       0.05852645 0.08404376 -0.22475423 0.066786796
0000d0 09 a6 3e bd 96 b2 19 be 3c bf a5 3c 5d 43 86 3b
       -0.046545062 -0.15009531 0.02023279 0.004097386
0000e0 ab b7 81 be fa bd a1 bc 0f 6c 99 3d fa 94 d8 3d
       -0.2533544 -0.019743908 0.07491314 0.1057529
0000f0 60 d6 47 bc 61 14 54 3d c6 df 3c be 94 ca 42 be
       -0.012197107 0.051777247 -0.18444738 -0.1902259
000100 5d 94 cc 3d 96 06 fe bd 0d c2 19 3e 77 0d 0c bd
       0.099892356 -0.124036 0.15015431 -0.03419253
000110 86 d5 1b be 1a b0 f3 bc 5e fa c6 3d de 78 cd bd
       -0.15218171 -0.029747058 0.097157225 -0.10032819
000120 74 65 12 3d 4f af 16 be 33 f7 fc 3d 87 0b 12 3e
       0.035741284 -0.14715312 0.12351837 0.1426221
000130 45 e1 01 3e f5 5b 0f be 32 0f 8e 3d 3b 41 21 3e
       0.1268359 -0.13999923 0.06936492 0.1574754
000140 76 b2 4c 3e 6b 10 b1 bd cc 72 a1 3d 2b e9 b0 3d
       0.19989952 -0.086457096 0.07883224 0.08638223
000150 e0 c0 f9 3d 59 ce f5 bd 84 68 51 3e ea ac 12 bc
       0.12194991 -0.12002248 0.20450026 -0.008952359
000160 6b 96 b5 bd d4 d8 6e 3d 94 24 2f 3e 2b cc 06 3e
       -0.088665806 0.058312252 0.17103797 0.13163821
000170 77 fd a7 bd d7 f6 bd 3d 10 21 0c 3e 54 e9 13 3e
       -0.082026415 0.092755966 0.13684487 0.14444476

model.encoder.rnn.bias_hh_l0 f4 [96]
000000 1b 8e 91 bd 6f 42 83 3b f1 bd a2 bd 2c c7 21 be
       -0.071071826 0.0040057222 -0.07946385 -0.15798634
000010 a8 16 92 3d 0a 00 3e 3e ef ce 32 3e c6 ff 05 bd
       0.071332276 0.18554702 0.17461751 -0.032714628
000020 41 77 98 bd 6e b1 be 3d 67 9e 13 be 98 d9 7c 3d
       -0.07444621 0.09311186 -0.14415894 0.06173095
000030 f1 88 a0 3c 48 fe 51 3e 16 06 3d 3c 5e 5d 86 bd
       0.019596549 0.20507157 0.0115370955 -0.06560777
000040 0a fd 50 3c 81 08 b1 bd f1 81 37 3c 68 85 68 bd
       0.012755642 -0.086442 0.011200414 -0.05676785
000050 f4 32 01 3d 13 69 1b 3e 06 76 04 3e 43 c5 2d 3e
       0.031542733 0.15176801 0.12935647 0.1696978
000060 d7 d6 f2 bd ca 92 25 3e 88 5b 74 3e 7e 20 37 3c
       -0.11857384 0.16169277 0.23863041 0.01117718
000070 2e 5f 06 3e 01 3f a5 bd 4f 0f 46 3c e5 a2 22 3c
       0.13122246 -0.08068658 0.012088611 0.009926532
000080 85 b5 76 3d bf 69 89 bd 86 5e a2 bd 1a 92 f0 3d
       0.060231704 -0.067096226 -0.07928185 0.11746617
000090 a7 e7 56 bd af 43 8c 3d ee b6 d1 3c dc 49 4a 3d
       -0.052467015 0.06848847 0.025599923 0.049386844
0000a0 05 fb 92 bd 06 76 35 bd 18 5f a4 bb e4 cc 02 3e
       -0.071767844 -0.04430201 -0.005016219 0.12773472
0000b0 b6 18 42 be cb b2 23 be ef 2f 25 3e b3 3b b8 3d
       -0.18954739 -0.15986173 0.16131566 0.08995762
0000c0 33 43 ca bc ab 54 23 3d 28 16 e5 bd ea 10 75 be
       -0.024690246 0.039875668 -0.111858666 -0.23932233
0000d0 09 aa 68 be 3f 98 1a be 98 90 c1 bd aa 40 bd bd
       -0.22721113 -0.1509714 -0.09451407 -0.09240849
0000e0 47 c0 55 3d 3a 6d d2 bc b9 91 4d 3d 8e 34 21 be
       0.052185323 -0.025686849 0.0501878 -0.15742704
0000f0 99 f9 9b 3d a9 1a 47 3d 8a bc 03 3e 17 9e 12 bd
       0.07615966 0.04860941 0.1286489 -0.035795297
000100 1e 80 28 be 65 15 c8 bd b4 89 ea bd 1d 75 9c 3d
       -0.16455123 -0.09769706 -0.11452046 0.07639525
000110 88 0e 13 3e ec 49 0b be 4f 30 e8 bd ca 10 1e be
       0.14361012 -0.13602418 -0.11337339 -0.15436092
000120 4e d8 1f 3e 50 eb 12 be 73 1a 13 3e 1a de 5a 3d
       0.15609857 -0.14347577 0.14365558 0.05343447
000130 a9 0e d7 bd 42 8d 23 be d4 47 bb 3d 57 16 a8 bc
       -0.10500843 -0.15971854 0.091445595 -0.020518465
000140 1f 1f 84 3d 74 9e 78 3d 62 b3 b6 3d 6a 55 36 3d
       0.064512484 0.060697988 0.08920933 0.04451505
000150 8b cd 07 bd 66 79 65 bc 10 25 52 3e 93 0a 5d 3d
       -0.033155005 -0.014005994 0.2052195 0.053965162
000160 88 93 14 3e 7e 0d 6a bd d5 f6 89 bd ed bd 72 bd
       0.14509404 -0.057141773 -0.067365326 -0.05926316
000170 eb 63 16 bd 61 35 82 3d 7f e7 f3 bd fc e0 3d bd
       -0.036716383 0.063578375 -0.11909389 -0.04635714

model.decoder.convs.0.bias f4 [32]
000000 b2 ac 05 3d 12 16 eb 3c ef 9b d5 3c bd b4 f6 3c
       0.0326354 0.028697047 0.026075331 0.03011548
000010 4a 12 13 3d b0 aa 1e 3d ee 5e f8 3c 80 80 0e 3c
       0.035906114 0.038737 0.030318704 0.008697629
000020 45 2f 32 3d d4 f5 7b 3d 9d 2c 29 ba 6d 32 04 3d
       0.04350211 0.061513737 -0.0006453486 0.032274652
000030 44 1b 1a 3c 11 13 61 3c 8a 94 25 3d 32 87 2c 3d
       0.009405915 0.013737456 0.04042486 0.04212112
000040 48 63 23 3d 8c 36 0e 3c 02 c7 45 3d 02 f7 49 3d
       0.039889604 0.008679997 0.04828549 0.04930783
000050 02 42 08 bc b6 15 7c 3c b4 5a e3 3c 72 9b fe 3c
       -0.008316519 0.015386036 0.027753212 0.031079981
000060 89 fc 5e 3d 66 6f 4a 3c f0 dd 1b 3d 32 f8 f1 3c
       0.054440055 0.012355661 0.038053453 0.029537294
000070 e8 1e b9 3b 0e b1 2a 3d a0 18 45 3d fa 6d 9f bc
       0.0056494363 0.04167276 0.048119187 -0.01946162

model.decoder.convs.0.lin.weight f4 [32, 32]
000000 5e ba a8 3d e0 2b ba bd b1 43 25 3d 0f c0 ce bd
       0.08238672 -0.090904 0.04034776 -0.10095226
000010 00 bd 34 3d 83 fe 2c 3e a0 c9 6e bd 21 23 80 3e
       0.044125557 0.16893964 -0.058297753 0.250268
000020 6a 40 14 3d 3e 68 54 3e c0 6f e9 bd 4c 54 ca 3d
       0.036194243 0.2074289 -0.11398268 0.098793596
000030 77 9b 0a bd 61 37 74 3c 3f b4 18 be 00 61 52 3e
       -0.03383967 0.0149057815 -0.14912508 0.20544815
000040 6d ba 43 3e 92 fc b1 3d 0d a5 f1 3b d7 3a e4 ba
       0.19114085 0.08690752 0.007374412 -0.0017412555
000050 a3 1a 36 be 45 54 3b be e7 4e 59 3d d2 3d 52 be
       -0.17783599 -0.18293865 0.053053763 -0.20531395
000060 ef 51 60 3e 65 d7 d8 ba 93 83 36 3e 86 7b ac bc
       0.21906255 -0.0016543685 0.17823629 -0.021054994
000070 4a 8c c9 bd 14 dd 45 3e 7b a0 75 bc d7 68 da 3d
       -0.09841211 0.19322616 -0.014991875 0.10664528
000080 d9 c9 71 3d 6c 1d 56 3c 81 53 21 3e 05 a8 60 3c
       0.059030388 0.013068538 0.1575451 0.013711934
000090 ca fd 69 3c 9d a2 01 be 77 89 fc bd 42 9e e0 3d
       0.014281699 -0.12659688 -0.12330907 0.10967685
0000a0 7e ce 73 bd 25 3e a2 3c d8 86 8e bc 98 38 a3 bd
       -0.0595231 0.019805023 -0.017398283 -0.07969779
0000b0 35 30 af 3d 0c e5 1c 3e 01 02 49 bd 6a 66 da bd
       0.08554117 0.1532175 -0.049074177 -0.10664065
0000c0 64 71 a2 bc b9 c2 18 3e 72 95 e1 bd 62 c2 ac 3d
       -0.01982946 0.14918031 -0.110148326 0.08435513
0000d0 cd bf 48 3d a8 ab c6 3d 9f 83 6f bd 17 65 11 3e
       0.04901104 0.097007096 -0.058475133 0.14198719
0000e0 13 4d df bd f3 ff 4d be 90 17 ea bd b2 7d 35 3e
       -0.109033726 -0.20117168 -0.114302754 0.1772373
0000f0 0f 7e c3 3d 4e d0 1e bd 07 d5 ea bd 60 dc 80 3c
       0.09545528 -0.038772874 -0.11466413 0.015730083
000100 4b 11 49 bd 0c af 3d 3d 3e d6 f0 bd 50 08 05 be
       -0.049088757 0.046309516 -0.117596135 -0.12991452
000110 dd 12 01 bd e4 9f f2 3d 5b 0e 40 be 74 1e 44 3d
       -0.03151213 0.11846903 -0.18755476 0.047880605
000120 07 92 0e 3e 5e 5e 08 bd 21 1d 41 3d 3e 41 b6 bd
       0.13922893 -0.03329312 0.04714692 -0.08899163
000130 46 12 53 be 9b d6 2a be a9 c6 1b be e5 8f 1e be
       -0.2061244 -0.16683428 -0.15212502 -0.15484579
000140 55 98 04 be a5 bb 24 be b0 82 c0 3d 8e 52 35 3e
       -0.12948735 -0.16087206 0.09399927 0.17707273
000150 87 52 ad 3d 1f d6 3c 3e 0e 5a 76 bd 0f 63 22 be
       0.084630065 0.18441056 -0.060144477 -0.158581
000160 e6 33 45 3e 44 62 e1 be e9 ea 86 bd 4d 0d ad 3d
       0.19258079 -0.44020283 -0.06587774 0.084498025
000170 46 d2 2a 3d fa bd 98 bd 26 1d 53 3e 83 94 2e 3e
       0.04170444 -0.0745811 0.20616588 0.1704884
000180 47 04 40 3e a8 9f de 3d 67 f6 fa 3d 15 32 a7 bc
       0.18751632 0.10870296 0.12254029 -0.020409623
000190 59 99 9f bc 7d 44 4c bd 85 82 b5 3d 53 5c c9 bd
       -0.019482302 -0.049870003 0.08862785 -0.098320626
0001a0 d0 63 90 bc bb 41 48 be 3a ce 12 3c ac 6d d4 bd
       -0.01762572 -0.19556324 0.008960301 -0.10372481
0001b0 b2 6b 10 bd 36 5d 2c bd 7c 3b 44 3e fa 38 f3 3c
       -0.035258956 -0.04208108 0.19163316 0.029690254
0001c0 84 06 58 3d 99 34 11 3e 31 b4 42 be e2 4d 37 3c
       0.05274059 0.1418022 -0.1901405 0.011188002
0001d0 0e b0 84 3d 2e 41 b1 bd 05 c3 0d bd 06 7b f8 bd
       0.06478892 -0.0865501 -0.034609813 -0.1213284
0001e0 9d 82 bd bd 7b 49 ab 3d 9f ee 54 3d 4f 4a 29 be
       -0.09253428 0.08363625 0.05198538 -0.16532253
0001f0 fa 73 4d bc 05 3f dc bc b8 1f 24 be 5d e4 46 bd
       -0.012539858 -0.026885519 -0.16027725 -0.048557628
000200 b6 94 38 3e 74 8c fb 3c d5 e3 08 bd 80 0e cd 3d
       0.18025479 0.030706622 -0.033420403 0.10012531
000210 9b fe 36 3e 78 bf 37 3e 45 83 0c be c7 91 71 3e
       0.17870562 0.17944133 -0.1372195 0.23590766
000220 da 63 1a 3e 33 9b a8 bd 04 2b bd bd 75 b0 81 3d
       0.15077153 -0.08232727 -0.0923672 0.06332485
000230 6f af 1b 3d 87 54 02 be bb a8 62 be 48 e0 d2 3d
       0.038009103 -0.12727557 -0.22134678 0.102966845
000240 55 4b 86 bc 14 d0 2d be 46 aa b5 bd 9f a8 6d be
       -0.016393343 -0.16973907 -0.08870368 -0.23208855
000250 32 94 59 be 58 68 05 be 1d 46 00 be 00 a5 c2 bd
       -0.21247938 -0.13028085 -0.12526746 -0.095041275
000260 aa dd 17 3e 3a d1 3a 3e b6 05 df bc d5 67 e4 bd
       0.14830652 0.18243876 -0.027224403 -0.11152617
000270 fd a6 89 3d 9c 83 13 3e 5c 84 c5 bd f8 8c 52 be
       0.067213036 0.14405674 -0.09644386 -0.20561588
000280 92 92 54 3e 7c 1f 83 3c fa 38 a1 3c ae 6b 1b 3e
       0.20759037 0.016006224 0.019680489 0.15177795
000290 38 19 dd bc 4a de bf bd bb 8a 41 3d 7e 23 fc 3d
       -0.026989564 -0.0936857 0.047251444 0.12311457
0002a0 b2 63 4e 3e 39 cd ff 3c a5 3b 12 3e d1 ca 09 3d
       0.20155218 0.031225787 0.14280565 0.033640686
0002b0 73 cc 77 3c 35 e7 2a bd 53 f9 28 bd 2f 3c a3 bd
       0.015124428 -0.041724402 -0.0412534 -0.079704635
0002c0 61 91 b2 3d e0 46 8b 3d f7 44 85 bd bf 02 e7 bc
       0.08719135 0.06800628 -0.065072946 -0.028199552
0002d0 51 79 4a be 47 f6 9b bd 50 73 f6 3c 38 a1 1f be
       -0.19772841 -0.07615333 0.030084282 -0.15588844
0002e0 bf 2b c0 3c 8c 03 27 bd 8c e1 6c bd ae 5b 39 be
       0.02345836 -0.040774867 -0.057832286 -0.1810138
0002f0 7f ac 4f bc 69 0f c1 bd ae 48 0b 3d d6 20 09 bd
       -0.012675404 -0.094267674 0.03400486 -0.03347858
000300 dc d2 bf 3d c2 e4 f6 bd 97 5d ad 3d 55 e3 9f 3d
       0.0936639 -0.12055351 0.084651165 0.07807032
000310 85 b6 44 bd 5c 3b e9 3d 58 82 81 bd 6c 1c 19 3e
       -0.048025627 0.11388275 -0.06323689 0.14952248
000320 0a 27 8b 3d e5 e8 47 bd 5c 20 57 3d 8d 2c 39 3d
       0.067945555 -0.04880609 0.052521095 0.045208503
000330 6f 6c 9c 3d a3 6f ce 3d d8 87 65 bd b9 2c fd bd
       0.076378696 0.10079887 -0.056037754 -0.12362046
000340 8a f9 a8 bd 0f ca 8e 3d 30 ba 25 bd c2 97 e2 bc
       -0.08250721 0.06972133 -0.040460765 -0.027660254
000350 41 92 72 3d 63 3b 1b be f6 d2 90 bd 08 d8 00 be
       0.05922151 -0.15159373 -0.070714876 -0.1258241
000360 9a 0c 60 3e b6 d6 14 3e b4 a2 d1 bd 10 04 9b bd
       0.21879807 0.1453503 -0.10236111 -0.07569134
000370 f1 e3 22 be e0 b2 ed 3d 16 b7 9a 3d 85 f8 c9 3b
       -0.15907265 0.11606383 0.07554452 0.006163659
000380 a2 e4 ad bd 4f 75 31 be 2c 98 96 3d dd fa 19 3e
       -0.08490874 -0.17329906 0.07353243 0.15037103
000390 97 c0 3f 3d 4b 68 46 3e 2e dd 5a be fe eb d9 bd
       0.046814527 0.19375722 -0.21373436 -0.10640715
0003a0 23 ea da bd 70 34 5e 3d 39 63 0f be 97 ed 9b bd
       -0.10689189 0.054249227 -0.14002694 -0.07613676
0003b0 ec 26 78 bd 62 67 ce 3d ab 36 7a 3d 21 40 99 bd
       -0.060583994 0.100783125 0.06108729 -0.07482935
0003c0 2a 88 c3 3c 93 48 af 3d 89 52 38 3d bf fb f0 3d
       0.023868639 0.08558764 0.045000587 0.11766767
0003d0 e9 b4 1f 3e 34 96 e4 3d 43 15 02 be 38 b6 fa bd
       0.15596355 0.111614615 -0.12703423 -0.12241787
0003e0 33 0e b9 bd 94 d5 d6 3d e2 3f d4 3d 62 24 f9 bd
       -0.090359114 0.104899555 0.10363747 -0.121651426
0003f0 a4 7e 29 be 21 08 f1 bb 8f 70 2e 3e 1d 28 16 3d
       -0.16552216 -0.0073557054 0.17035125 0.03665935

model.decoder.convs.0.root_lin.weight f4 [32, 32]
000000 d4 22 3f 3e c7 3d e6 3d 30 42 c8 3c 5e c1 37 3e
       0.1866563 0.11242252 0.024445623 0.17944857
000010 13 cd 95 3d 12 18 e6 3d a0 33 46 bd b1 96 af 3d
       0.073145054 0.1123506 -0.048389077 0.08573664
000020 cd 63 28 3e df 41 49 bd 7e 55 22 3d 54 a6 8c 3e
       0.16444321 -0.049135085 0.039632313 0.27470648
000030 60 bf 98 bd 6b 8a 1c be 7c bb 25 be ac ad cf bc
       -0.07458377 -0.15287177 -0.16184801 -0.025351368
000040 e0 ee 20 3c b9 0f 0c be 4e cf 65 3e 31 59 32 3c
       0.009822577 -0.13677873 0.22442362 0.010885523
000050 7b db 08 be fb 7f 0a be 23 bd 89 3c 99 30 5d be
       -0.13364975 -0.13525383 0.01681382 -0.2160057
000060 df 25 13 3d b5 8a 29 3d 28 4b 30 bd 3e 9f 40 bd
       0.03592479 0.041392047 -0.043040425 -0.047026865
000070 3b f6 00 3e 58 a5 31 3e e1 16 b3 3c b9 8e 0a bd
       0.1259393 0.1734823 0.021861495 -0.033827517
000080 80 3c 0a 3d 8b 35 0a 3e 49 69 47 3e 90 7f e6 bc
       0.033749104 0.13496988 0.19473757 -0.028136998
000090 2a b9 8c 3d fa e3 94 3d 90 bf 0d be 15 04 d6 3d
       0.06871255 0.072700456 -0.13842607 0.10449997
0000a0 fa 24 ca 3b 09 07 0d bd 5b 23 20 3e c4 24 14 3e
       0.0061689587 -0.034430537 0.15638487 0.1446715
0000b0 65 89 3f bd 14 a7 0a 3e cf 1b 32 bd 96 02 8d 3b
       -0.04676189 0.13540298 -0.04348355 0.004303287
0000c0 7b 37 98 bd ee 00 2e be cd aa 4f be 86 ef 42 be
       -0.07432457 -0.16992542 -0.20279999 -0.19036683
0000d0 3c 88 f9 bd 69 fe 40 3d 19 5c 13 3e c7 42 5a 3e
       -0.12184188 0.047117624 0.14390601 0.21314536
0000e0 28 e3 b0 bd 4f 26 09 be 53 1c 44 be 0d 89 06 be
       -0.086370766 -0.1339352 -0.1915143 -0.13138218
0000f0 e3 8e b5 3d 16 45 f4 3d ca fd bf b9 74 87 cc 3d
       0.08865144 0.119272396 -0.00036619446 0.09986773
000100 3b 98 16 bd f4 95 03 3e 39 93 c2 3d 76 8e b0 3d
       -0.036766272 0.12850171 0.09500737 0.08620922
000110 8f 83 28 be 18 ad 9f bd a3 e5 a6 bd 58 fc 82 bd
       -0.16456436 -0.07796687 -0.081492685 -0.06395787
000120 28 9e 21 3d b0 93 16 bd 0f 7b 38 be 06 18 18 be
       0.03945747 -0.03676194 -0.18015693 -0.14852914
000130 87 89 51 be 81 93 08 3d 02 5d a3 bd 03 6e ab bd
       -0.20462619 0.033343796 -0.07976724 -0.083705924
000140 69 0b d8 bd b2 f6 0a 3e 95 67 f6 3d 92 52 af bd
       -0.10549051 0.1357067 0.120314755 -0.08560671
000150 19 29 4a 3e dd 74 50 3e 96 b9 09 3e b1 1c 59 be
       0.1974224 0.2035708 0.13449702 -0.21202351
000160 bc f2 da bc 7d b3 d8 be 70 1f 39 3d 0c ec cd bd
       -0.026727073 -0.4232444 0.045195997 -0.10054788
000170 7b 31 09 bd c8 0f 7c bd a4 ec 3d bd 20 97 b2 3d
       -0.033494454 -0.061538488 -0.046368256 0.08720231
000180 de 88 c9 bd 68 b9 44 be 01 3b 09 3e 5c e7 0a bd
       -0.098405585 -0.19211352 0.13401414 -0.033912048
000190 08 f1 e0 3d 28 85 3f be 26 38 1b bd 33 16 a7 bd
       0.10983473 -0.18703139 -0.037895344 -0.08158531
0001a0 33 de eb bc f3 0a b2 bb c5 42 50 3e 60 9b d5 bd
       -0.028792476 -0.005433434 0.2033797 -0.10430026
0001b0 fb 3d 1c 3e b4 04 24 3d eb 3e 02 be b0 7a 05 3d
       0.15258019 0.040043548 -0.12719314 0.032587707
0001c0 9e 3b e5 bd 9f 3a b3 bd a8 72 51 be c4 34 32 3d
       -0.11193012 -0.087514155 -0.20453894 0.043507352
0001d0 f6 91 8e bd c5 db a5 ba d3 5b ed bd 1c 9f 53 be
       -0.069614336 -0.0012653997 -0.1158978 -0.20666164
0001e0 fa 4d 00 3d 60 55 c1 bd 0f 45 38 3d 78 c6 83 bd
       0.031324364 -0.09440112 0.044987734 -0.06434339
0001f0 05 d7 95 bc ff 12 a5 3d 25 2a c6 3d e3 61 4c be
       -0.018291006 0.08060264 0.09676007 -0.19959216
000200 11 ca 1c 3e a4 b3 99 bd 8c 2c 7a bd 9e 06 ff 3d
       0.15311457 -0.07504967 -0.06107764 0.12452434
000210 93 99 ed 3c 8b 46 6b 3c c9 27 aa 3d 39 8b a7 bd
       0.029003894 0.0143600805 0.0830837 -0.081808515
000220 8c ae 86 bc d5 d5 54 bd db 3a fe 3d a3 fd 69 3e
       -0.016440652 -0.05196174 0.124135695 0.22850661
000230 ec d3 a2 3d 55 07 7e be 2d 40 0a be f0 82 1e 3e
       0.07950577 -0.24807484 -0.13501044 0.15479636
000240 05 74 a6 3d 1e bb 41 be 06 99 61 3e 7a dd 42 3c
       0.08127598 -0.18919036 0.2203103 0.011893624
000250 a2 da 22 be f2 09 de bc ae 02 0c be 73 7e 6c be
       -0.15903714 -0.027104352 -0.13672897 -0.23095112
000260 bb 96 00 bd db c8 96 3d d6 eb fa bd 72 14 10 be
       -0.031393748 0.07362529 -0.122520134 -0.140703
000270 fa 5e 09 3e a0 13 20 3e 1a ea 18 be 79 b4 2b be
       0.13415137 0.15632486 -0.14933053 -0.16768064
000280 3b 78 44 3e 81 a1 51 3d 34 eb b5 3c fc 55 0c 3e
       0.1918649 0.051179413 0.02220688 0.13704675
000290 9d fc 79 3e ea 12 22 3d a7 72 3d be 59 66 a4 bc
       0.2441277 0.03956882 -0.18500768 -0.020068334
0002a0 c4 97 3f 3e 61 b7 17 3e c6 b6 4d 3e 05 f5 3d 3e
       0.18710238 0.14816047 0.20089254 0.18550499
0002b0 e9 64 d9 3b 86 6a 8d 3d ac 41 e0 3c a6 ec 63 3d
       0.006634344 0.06905083 0.027375065 0.055645607
0002c0 85 2f 89 bd 50 b2 29 be 4c 82 c0 3d 0d 46 11 3e
       -0.06698517 -0.16571927 0.09399852 0.14186879
0002d0 2a 0f 81 3d 23 d3 3f bd 32 b7 28 be 91 db 11 be
       0.063017204 -0.046832215 -0.16476133 -0.14243914
0002e0 a5 b5 0d 3e d0 0c 6a 3d 02 7c 34 3c 6e 30 0c 3c
       0.13838823 0.057141125 0.011015894 0.008556468
0002f0 9d 61 00 bd 90 84 31 bd 5c 5c e4 3d a0 d6 c0 3c
       -0.03134309 -0.043339312 0.11150429 0.023539841
000300 90 3f 3f 3e 6c 45 17 be 54 58 57 bd a2 76 25 3e
       0.18676591 -0.14772576 -0.05257447 0.16158536
000310 89 3e 6f 3c 91 de 09 be 82 cf 65 bc 20 87 56 bb
       0.014602312 -0.13463809 -0.0140265245 -0.003273435
000320 96 02 5a 3e 2b 19 ae 3b b8 cb 22 bd bf ce 97 3d
       0.21290049 0.005313059 -0.039745063 0.074124806
000330 0f db 01 3c 23 2d ce bd 9a 7d 54 be 6b 00 9f 3d
       0.007925763 -0.10067203 -0.20751038 0.077637516
000340 44 cc b9 3d 77 13 f3 bd 0d 36 30 bc e0 3b c8 3c
       0.09072164 -0.11868947 -0.010755074 0.024442613
000350 f2 aa 7c 3d 56 e0 c1 bd d0 79 06 bc 66 f0 d6 bd
       0.061686464 -0.09466617 -0.008207753 -0.10495071
000360 46 00 13 3c 06 5a 5f bd 38 c2 18 3d 44 1e 0c bc
       0.008972233 -0.054529212 0.037294596 -0.008552138
000370 5a bf 91 3c 9b aa d0 3d 72 c1 37 3e fd ce b4 3d
       0.017791439 0.101887904 0.17944887 0.088285424
000380 92 49 07 be a5 0c c7 bd df 01 63 bd d8 3e 06 3e
       -0.13211659 -0.09719209 -0.055421706 0.1310991
000390 67 2c c1 bd cd 3f 40 bd 93 67 69 bc f2 99 a4 bd
       -0.09432297 -0.046935845 -0.014245885 -0.08037175
0003a0 af 9c 1a 3e e3 76 21 3e c4 0b 7d be a1 45 71 bd
       0.15098833 0.15768008 -0.2471152 -0.058904294
0003b0 b2 af 87 3c 4c ae b2 3c 76 34 e3 3d 58 a1 2a 3d
       0.01656327 0.021811627 0.110939905 0.041657776
0003c0 27 da 7b bd fa e7 07 3e 1b 4d 7e 3d 37 49 44 3e
       -0.061487343 0.13272086 0.062085252 0.19168554
0003d0 d8 19 71 3e c0 6f 27 3e 30 c0 61 bd 55 4c 91 bd
       0.23545015 0.16351223 -0.055114925 -0.07094637
0003e0 d0 02 d5 bc a9 21 9d bd 2f f4 8c bb ab 88 46 bd
       -0.026002318 -0.07672436 -0.00430157 -0.04847018
0003f0 b2 87 71 bc fe f4 ed bb 7f d3 a3 bd a4 f3 69 3d
       -0.014741825 -0.0072618714 -0.07999324 0.05711712

model.decoder.convs.1.bias f4 [32]
000000 ca b4 42 bd 12 80 8d bb 70 ad 49 3d d7 58 1a 3d
       -0.047535695 -0.0043182457 0.04923767 0.03768238
000010 22 c1 e3 3c 8b f8 e0 3c 80 70 2c bc a0 40 9d bc
       0.027802054 0.027462265 -0.010524869 -0.019195855
000020 27 df b9 3c b2 4a ee 3b d6 be 1d bc 0c b2 17 3d
       0.022689415 0.007272088 -0.009628018 0.037035033
000030 e3 c0 14 3d ff c9 d7 3c 2b 51 5c 3d f0 11 27 3d
       0.036316764 0.026341436 0.053788345 0.04078859
000040 12 aa 13 3d 8f eb 3c 3d 58 af 5c 3d 4c 60 39 bc
       0.036050864 0.046123084 0.05387816 -0.011314463
000050 e4 97 54 3c eb 20 ce 3d 46 1a d5 38 25 a6 65 3d
       0.012975667 0.10064872 0.00010161525 0.05606665
000060 b3 fa b5 3c 4b e5 c4 3c 1d 00 56 3d 9f 16 b6 3c
       0.02221427 0.024035117 0.0522462 0.022227583
000070 d1 bc d3 3d 3a ff ca 3c 75 b8 9e 3b 2f dd 85 3c
       0.10338748 0.024779905 0.0048437663 0.01634082

model.decoder.convs.1.lin.weight f4 [32, 32]
000000 7f 6d a7 3d d3 7b 2d 3d ab cc 85 bd 2d dd 1a 3e
       0.081751816 0.042354416 -0.06533178 0.15123434
000010 07 35 43 3c ff e4 da bd 04 9f 5a be 28 26 08 bd
       0.011914498 -0.10688209 -0.21349722 -0.033239514
000020 27 71 2b be 2e 99 6f bd 63 e9 2f bd d8 bc bb 3c
       -0.16742383 -0.058495693 -0.042947184 0.022917196
000030 1f c1 03 3e ef 9a 00 be ba 35 89 bd a7 40 ec 3d
       0.12866639 -0.12559102 -0.06699701 0.11535769
000040 92 05 70 bc ad d4 c9 3c 1d 44 64 bb 6d ee 34 bd
       -0.014649766 0.024637545 -0.0034830638 -0.044172693
000050 d9 2d 04 bd f9 3d c0 3c 4d f2 4d be fa c3 81 bc
       -0.032270286 0.02346705 -0.20111962 -0.01584052
000060 f5 db 37 be 7c a1 20 be 14 dd 1a be 03 16 81 bd
       -0.17955 -0.15686601 -0.15123397 -0.063030265
000070 e8 5c 04 3d 56 9e be 3d 48 25 68 bc 59 d5 0a be
       0.032315165 0.09307544 -0.014169045 -0.13557948
000080 11 7b bf bc ff 9e cb 3c e2 c6 29 3e c4 cf 9c 3d
       -0.023374112 0.024856089 0.16579774 0.07656816
000090 ae 90 16 be c7 97 a7 bd 91 a1 a0 3d 4d 8e f9 3d
       -0.14703628 -0.08183246 0.07843316 0.12185345
0000a0 72 81 11 be a4 59 c9 3c fe 25 07 3e 9d 48 1d be
       -0.14209536 0.024578877 0.13198087 -0.15359731
0000b0 da 0f 88 bb 1c 62 c0 3d 3c 2d 16 3e 75 12 02 be
       -0.0041522803 0.09393713 0.14665693 -0.12702353
0000c0 dc 1e e9 3d 6e 6e 1c bd a5 5c 11 3d c9 a6 a5 3c
       0.11382839 -0.03819125 0.035488743 0.02022113
0000d0 de 7d 2a be 07 8e 2e 3d f1 60 cd 3d 61 b1 11 be
       -0.16649577 0.042615917 0.10028256 -0.14227821
0000e0 88 d5 2b be c8 3b 21 3e 8f 26 e6 bd c2 e7 d3 3c
       -0.16780674 0.15745461 -0.11237823 0.025867347
0000f0 6a 87 a4 3d b2 ef 31 be b8 71 f8 3d fa 85 bf bd
       0.08033641 -0.17376593 0.12131065 -0.09351726
000100 b6 e9 13 3e f7 51 c0 3e 1f 71 bc 3d af 3f 04 3e
       0.14444622 0.37562534 0.09201264 0.12914918
000110 d3 0c 0c 3e a8 a0 67 bd 2b 8c 1a be 10 10 e5 bd
       0.13676767 -0.056549698 -0.15092532 -0.11184704
000120 40 79 dd 3d 33 af 0c be 66 92 a0 3d 2f ea a5 bd
       0.10814142 -0.13738708 0.07840423 -0.081013076
000130 80 5b 64 3c ca df 4e 3d 75 f8 66 3e 8d 20 05 bd
       0.013937831 0.05050639 0.22555716 -0.032501746
000140 aa 8e 2a 3a fe 98 5e bd 39 b5 16 3e 0d 6a 62 3d
       0.0006506244 -0.054345123 0.14717568 0.05527692
000150 ec 18 24 3e 61 34 fb 3c e2 e6 d8 3d ec 38 1e 3e
       0.16025132 0.030664625 0.105909124 0.15451401
000160 ef f2 5e bd aa 87 75 bc e3 a3 dc bd f2 1f 22 be
       -0.0544309 -0.014985958 -0.107734464 -0.15832499
000170 06 0f c9 3d 05 dd 8d 3d e2 2d f2 bd 75 6c 19 3e
       0.098173186 0.06926922 -0.11825158 0.1498278
000180 b3 a8 49 3e f7 c3 27 3e 1c 3a 54 be 55 89 23 3d
       0.1969326 0.16383348 -0.20725292 0.039925892
000190 df f1 1b bd 81 32 c7 bc 0b f8 d0 bd c0 f9 39 3e
       -0.038072463 -0.024316074 -0.102035604 0.18161678
0001a0 86 f6 12 3c d3 cb a1 bd 39 45 bd bc 84 21 d8 3c
       0.008969909 -0.079002045 -0.023104297 0.026383169
0001b0 1c f1 98 3c 5e 15 0c 3e ef 0a 89 3d c6 b5 e3 bd
       0.018669657 0.13680026 0.066915385 -0.11118655
0001c0 be d5 bd 3d 91 5e 03 3d f5 0e a4 3b 66 17 40 3e
       0.09269284 0.032072607 0.005006666 0.18758926
0001d0 60 2b 0d 3e 79 74 d9 bd b5 d0 23 3e 09 a3 c7 bd
       0.13786077 -0.106179185 0.15997584 -0.09747893
0001e0 97 22 0c bd da c9 49 be e0 1c ab 3d aa 4c 14 3e
       -0.034212675 -0.19705907 0.08355117 0.1448237
0001f0 8c f0 a3 3d 98 43 b3 bb 4e 19 ba 3d b1 31 ec bc
       0.08004865 -0.0054707043 0.09086858 -0.028832288
000200 76 86 51 3c 90 ed 8a 3d 29 cc 1b 3e bf eb 49 3d
       0.012788406 0.06783593 0.152146 0.04929709
000210 5b f7 eb bd 1c 48 a0 3d 34 ca 0b be 0d d8 bb bd
       -0.11521789 0.07826254 -0.13651353 -0.09172068
000220 4f 97 84 bc 94 ad 34 bd 29 bb 19 3e 56 dd 18 3e
       -0.01618543 -0.04411085 0.15012802 0.14928183
000230 a4 08 21 bc dd 4f 97 bc 12 e3 38 3d 02 63 a2 3b
       -0.00982872 -0.018470699 0.045138426 0.0049556503
000240 9a e3 f1 bc e8 cd 88 3e d4 54 be bc f6 5a 12 3e
       -0.029527474 0.26719594 -0.023233809 0.14292511
000250 4b 82 7f bd f8 39 05 be 29 24 2d 3b 4c ab 69 bd
       -0.062380116 -0.13010395 0.0026419258 -0.057048127
000260 be e0 6a bc a9 49 2e 3d 31 bc aa 3d 24 2c 21 bd
       -0.014335809 0.042550717 0.08336676 -0.039348736
000270 0c 1f 10 bd 21 c8 9b bc 1e 3f d4 3d 13 a7 80 bd
       -0.03518586 -0.019016327 0.10363601 -0.06281867
000280 d3 84 db 3d d3 b1 0f 3e b9 3d 31 be a2 15 6c bd
       0.107186936 0.14032678 -0.17308702 -0.05763782
000290 e8 12 0f 3e 50 d4 f2 3d 71 8f 23 3e 83 e8 fa 3c
       0.13972056 0.11856902 0.15972687 0.030628448
0002a0 93 88 35 3e 3c f8 ff bd cf 43 ff 3d cd 3a 19 3e
       0.1772788 -0.12498519 0.12464105 0.14963837
0002b0 ce b3 a9 bd a3 aa a1 bd 58 9f 61 bd 9d 9a 3a 3e
       -0.08286248 -0.078938745 -0.055083603 0.18223043
0002c0 df 7d ef bc fd 8c 0b be f2 9a 55 3e a8 ef 65 bd
       -0.029234825 -0.13628002 0.20859888 -0.056136757
0002d0 96 fb a0 3d d6 5d df bd 03 66 02 be 33 3a 2d bc
       0.07860486 -0.1090657 -0.12734227 -0.010572958
0002e0 eb 74 dc 3d 61 f2 a5 bd 4c f4 0d bd 17 ce dc bd
       0.10764488 -0.08102871 -0.034656808 -0.10781496
0002f0 9c 45 c7 3d 3c 08 eb bc c4 3a 29 3d 8d c2 1f be
       0.09730074 -0.02869045 0.04131581 -0.15601559
000300 7e 63 80 bd 09 03 ba bd 81 9c 24 be 61 ba 50 bd
       -0.06268977 -0.0908261 -0.16075327 -0.050958995
000310 94 c9 1b be dd d3 11 3e 7d b3 99 bd 16 8a 13 3d
       -0.15213615 0.14240976 -0.07504938 0.03602036
000320 bd e8 16 3e 41 c0 ff bb 4e 7d 16 3e 25 3b 1b be
       0.1473722 -0.007804901 0.14696237 -0.1515928
000330 1a f5 b3 bd a8 e2 29 3e 35 07 2c 3d 97 99 c3 bd
       -0.08786984 0.16590369 0.04199906 -0.09550779
000340 a0 7e 28 be 28 d0 30 3d 0b 06 37 3d d3 e9 36 bd
       -0.16454554 0.043167263 0.044683497 -0.044656586
000350 23 b1 fb bd 02 59 bb bd 1b 40 a4 3d f7 42 a2 3d
       -0.122896455 -0.09147836 0.0802004 0.07922929
000360 78 97 1d be 26 4f 31 bd 85 41 27 be c7 13 0c 3e
       -0.15389812 -0.043288372 -0.16333587 0.1367942
000370 de cb 31 3d 34 9e 33 be 03 72 d4 3d 0e 34 32 be
       0.043407314 -0.17540818 0.103733085 -0.1740267
000380 8f ad 12 3e 77 12 17 3e f1 34 92 be cb a4 61 be
       0.1432402 0.14753138 -0.28556016 -0.2203552
000390 45 6d 0a 3e 2c 4a a8 bc 14 04 8b bd 1d e4 dc 3d
       0.13518246 -0.02054318 -0.06787887 0.10785697
0003a0 99 d4 5e 3d a5 69 44 be 11 4a c4 bd 98 7e 03 3c
       0.054401968 -0.19180925 -0.095844395 0.008025788
0003b0 52 eb e4 3d 03 aa b6 3a da 59 56 3e 58 66 37 3e
       0.11177696 0.0013936165 0.20932713 0.17910135
0003c0 80 e2 0e 3e 59 72 2a 3e 5b c9 8f 3d a8 bd 26 3e
       0.1395359 0.16645183 0.070208274 0.16283286
0003d0 ee b7 80 3d 2d 41 8b 3d 4c 8f 27 bd 5f 31 7e bd
       0.06285082 0.06799541 -0.040908143 -0.062058803
0003e0 a5 6c 11 3e 20 0d 6d be cb ba 02 3d ee 5a f7 3d
       0.14201601 -0.23149538 0.03191642 0.1207789
0003f0 56 45 3a bd 84 fb 07 be 60 8e d8 3c 5e b6 ba 3d
       -0.04547628 -0.1327954 0.026435077 0.09116815
