code/utility notebooks/logs/epoch=2-step=240.ckpt (torch, 173075 bytes, 48 tensors)

model.input_encoder.weight f4 [32, 1]
0	0xbf55879a	-0.83410037
1	0x3e8ff1dc	0.28114212
2	0xbf232f2d	-0.6374386
3	0xbe0d4897	-0.13797222
4	0xbe5cce0b	-0.21562974
5	0xbebf41af	-0.373548
6	0x3e121497	0.14265667
7	0xbf469c9d	-0.7758272
8	0x3de54b11	0.111959584
9	0x3f0d4db5	0.55196697
10	0x3f1070b6	0.56421983
11	0x3d0634d2	0.032765217
12	0x3df28956	0.11842601
13	0xbe97d268	-0.29652715
14	0xbda587e7	-0.08082562
15	0xbe5db92b	-0.21652667
16	0x3f0f6a1e	0.56021297
17	0xbf47a053	-0.7797901
18	0x3e811447	0.25210783
19	0xbf30d587	-0.69075817
20	0xbf001499	-0.5003143
21	0x3f5b9c25	0.8578513
22	0xbf6cfc82	-0.92572796
23	0x3f4d845e	0.802801
24	0xbf5d91b6	-0.8655046
25	0x3efe428a	0.4966014
26	0x3f4f59fb	0.80996674
27	0xbeecdedd	-0.4626378
28	0xbe5a18bc	-0.21298498
29	0xbeccc204	-0.39991772
30	0xbdf467d2	-0.11933865
31	0xbe05e88e	-0.13076994

model.input_encoder.bias f4 [32]
0	0xbf5eda61	-0.8705197
1	0xbef09568	-0.46988988
2	0xbd0c0c2b	-0.03419129
3	0x3f342bb7	0.70379204
4	0xbe516418	-0.20448339
5	0xbe9f6443	-0.3113118
6	0xbf2dc841	-0.6788369
7	0xbe5a6ead	-0.21331282
8	0x3ec0f676	0.37688035
9	0xbf850386	-1.03917
10	0xbec848e2	-0.39118105
11	0xbe8777c7	-0.2645857
12	0x3f4fb415	0.8113416
13	0x3f80ce44	1.0062947
14	0xbdcf4814	-0.1012117
15	0xbe52c00a	-0.2058107
16	0xbf3b5430	-0.73175335
17	0x3f6af22f	0.9177579
18	0x3f40b42d	0.75274926
19	0x3f48bd56	0.78413904
20	0xbf5ab499	-0.8543182
21	0xbf4d3be7	-0.8016953
22	0xbdd9f7c5	-0.106429614
23	0xbf44c817	-0.7686781
24	0xbec70e84	-0.38878262
25	0xbd095ae6	-0.033533953
26	0x3f0ba752	0.54552186
27	0xbf17adab	-0.5924937
28	0xbf4e99fa	-0.807037
29	0x3ebfd1e9	0.37464836
30	0xbf663be6	-0.8993515
31	0xbf083712	-0.5320903

model.encoder.rnn.weight_ih_l0 f4 [96, 32]
0	0x3d6bfbbf	0.05761313
1	0x3cc2a6bd	0.023761148
2	0x3e1d0d2a	0.15337053
3	0x3d9a2ab7	0.075276785
4	0xbd775887	-0.06038716
5	0x3e206ba3	0.1566606
6	0xbdf5eaa8	-0.12007648
7	0x3e1dfc82	0.15428355
8	0xbcdbcaa5	-0.026830027
9	0x3d133100	0.035935402
10	0x3dfca18f	0.12335502
11	0x3e22780c	0.15866107
12	0xbda57058	-0.080780685
13	0x3d8e8251	0.0695845
14	0xbe00a366	-0.12562332
15	0xbdc6e326	-0.09711294
16	0x3b5b6093	0.003347431
17	0x3e142bff	0.14469908
18	0xbda0ee5e	-0.07857965
19	0xbaa8a081	-0.0012865217
20	0xbd86eee5	-0.06588534
21	0xbd18d6c0	-0.037314177
22	0x3e3ce6dc	0.18447441
23	0xbe1f462f	-0.15554117
24	0x3e51c841	0.20486547
25	0xbda1d076	-0.07901089
26	0x3caf636a	0.021409709
27	0x3e48b1eb	0.1959912
28	0x3dbd7bdc	0.0925214
29	0x3da3de79	0.08001418
30	0x3e38da05	0.18051918
31	0x3e532264	0.20618588
32	0x3d84c467	0.06482773
33	0xbe228aa6	-0.15873203
34	0x3e205b95	0.15659936
35	0x3e1831bd	0.14862724
36	0xbd7a49b1	-0.061105434
37	0xbde83ae4	-0.113393575
38	0x3df256ec	0.11832985
39	0x3e0db631	0.13839032
40	0x3da38951	0.079851754
41	0xbe32ac74	-0.17448598
42	0xbdcd3dc5	-0.10021547
43	0x3e052b2d	0.13004752
44	0x3ce3a782	0.027789835
45	0x3e3f5ec1	0.1868849
46	0x3d0f4dc7	0.034986284
47	0xbe2e03f4	-0.16993695
48	0xbdfa0a8c	-0.12209043
49	0xbe063251	-0.13105132
50	0x3d786355	0.060641605
51	0x3e45fc92	0.19334629
52	0xbd8d8f89	-0.06912143
53	0x3d864f8c	0.06558141
54	0xbe04a36b	-0.12952964
55	0x3cfe981c	0.03107839
56	0x3df9e10a	0.12201126
57	0xbb512403	-0.0031912334
58	0xbde43ce6	-0.11144428
59	0xbe400313	-0.18751173
60	0x3e107c76	0.14109978
61	0x3ddd9895	0.10820118
62	0xbe4b2a94	-0.19840461
63	0xbe1ddd8e	-0.15416548
64	0x3b880d48	0.004151974
65	0x3be62bef	0.0070242803
66	0x3e24d4c7	0.16096793
67	0xbe22dae2	-0.1590381
68	0xbd86255f	-0.06550097
69	0x3d222ad4	0.039591625
70	0x3cbf4e46	0.023352753
71	0x3d8e71ce	0.069553
72	0xbd6e53d8	-0.05818543
73	0xbd2d3666	-0.042288207
74	0xbdb41687	-0.08793359
75	0xbcac7bb5	-0.021055082
76	0xbe0d8b63	-0.13822703
77	0x3d9b8ca3	0.07595184
78	0xbcbf5dbf	-0.023360131
79	0x3e30e9ab	0.17276637
80	0x3e1b459b	0.15163271
81	0xbc1f8fcc	-0.009738874
82	0xbd932a88	-0.071858466
83	0x3cdb50fd	0.026772017
84	0x3e0224ff	0.12709425
85	0x3deebce8	0.11657125
86	0x3d9a62c8	0.07538372
87	0x3d009569	0.03139249
88	0xbc857240	-0.01628983
89	0x3e037f42	0.12841514
90	0xbe100f3c	-0.14068311
91	0xbdbc3991	-0.091906674
92	0x3de0577e	0.10954188
93	0xbe198d01	-0.14995195
94	0x3d25f050	0.040512383
95	0xbdabfb46	-0.08397536
96	0x3e68b44a	0.22725025
97	0x3d67279f	0.05643427
98	0xbe3cc247	-0.18433486
99	0xbe1ff10e	-0.15619299
100	0xbda41f04	-0.08013728
101	0x3dbbb835	0.09165994
102	0x3ccba3e6	0.024858426
103	0xbe16bf8e	-0.1472151
104	0x3d2f762e	0.042837314
105	0xbddd7bf3	-0.10814657
106	0x3dfaa306	0.122381255
107	0xbcdbe24d	-0.026841307
108	0xbd021029	-0.031753693
109	0xbd62b42d	-0.05534761
110	0xbc160b06	-0.009157902
111	0xbde18609	-0.11011893
112	0xbc87e0c4	-0.016586669
113	0xbc3157e6	-0.010824179
114	0xbc59a31e	-0.013283519
115	0xbe0113e4	-0.12605244
116	0xbd3b34b8	-0.045704573
117	0xbdd5a304	-0.104314834
118	0xbde4af6e	-0.11166273
119	0x3e51ef83	0.20501523
120	0xbdb10f11	-0.08645452
121	0xbe0dbf03	-0.13842396
122	0xbdf22171	-0.11822785
123	0xbdd83bc1	-0.10558272
124	0x3e353f15	0.17699845
125	0x3dcb708c	0.09933576
126	0xbc3aa785	-0.011392479
127	0x3cc19ecf	0.023635296
128	0x3d40c2f2	0.047060914
129	0xbcad6ac7	-0.02116908
130	0x3c75842e	0.014985127
131	0x3df775ec	0.12083039
132	0x3d1abfd9	0.037780616
133	0xbe190c11	-0.14946009
134	0x3cd1457e	0.025545832
135	0x3dc3c312	0.09558691
136	0xbe131a21	-0.14365436
137	0x3d13ca91	0.036081854
138	0xbe006777	-0.12539469
139	0xbe16b1a0	-0.14716196
140	0x3cf72a75	0.030171612
141	0x3d89f6a2	0.067364946
142	0x3bdf3918	0.006812226
143	0x3d0ad750	0.033896744
144	0xbe0f84bf	-0.14015482
145	0x3da436f8	0.08018297
146	0x3db60652	0.08887924
147	0xbdcb1cf4	-0.09917632
148	0xbb9fac41	-0.004872829
149	0x3e1d50b5	0.15362819
150	0xbe06a6e5	-0.13149603
151	0x3d45f0d8	0.04832539
152	0xbe614c34	-0.22001725
153	0x3df5e803	0.12007143
154	0x3e697763	0.22799449
155	0xbc841742	-0.016124371
156	0xbdbd26c5	-0.0923591
157	0x3e3423af	0.17591737
158	0x3c88a70e	0.01668122
159	0xbcda9321	-0.026681485
160	0xbe279367	-0.16364823
161	0x3d78ad76	0.0607123
162	0xbd39e240	-0.045381784
163	0x3e36aaaa	0.1783854
164	0x3de7be19	0.11315555
165	0x3ccc7e74	0.024962641
166	0xbdcf2ff1	-0.10116566
167	0xbe328b79	-0.17436017
168	0x3dc4aae5	0.09602908
169	0x3e30d189	0.17267431
170	0xbd649965	-0.05581035
171	0xbe24d034	-0.16095048
172	0x3d1695ae	0.03676384
173	0x3d68bbba	0.056819655
174	0x3c8f0c82	0.017462019
175	0xbd396ffb	-0.04527281
176	0xbd406e29	-0.046980057
177	0xbe0c2645	-0.13686474
178	0xbd574878	-0.052559346
179	0xbc8b1c87	-0.016981376
180	0x3d84804a	0.06469782
181	0xbe0aa783	-0.13540463
182	0x3d4a48e6	0.049385928
183	0xbe0051c9	-0.12531199
184	0x3dadeaf5	0.0849208
185	0xbc3ae52c	-0.011407178
186	0x3d4c67e4	0.049903765
187	0x3d8cf363	0.0688236
188	0x3e03b108	0.12860501
189	0x3e30d7e2	0.17269853
190	0xbda4747c	-0.0803003
191	0xbdf8f357	-0.121557884
192	0xbca4302e	-0.020042505
193	0xbe3a3405	-0.18183906
194	0xbbac814f	-0.005264438
195	0xbe0c7232	-0.13715437
196	0xbe3f2b4a	-0.18668857
197	0x3ab05f4b	0.0013456134
198	0xbd4dafd7	-0.050216522
199	0xbe4c483a	-0.19949427
200	0x3dc600d9	0.096681304
201	0xbe320e71	-0.17388321
202	0xbca8b85b	-0.02059572
203	0x3d049e5e	0.032377593
204	0x3e03b48b	0.1286184
205	0x3e317a05	0.17331703
206	0x3d858924	0.06520298
207	0xbe26be7b	-0.162836
208	0x3d97d885	0.07414345
209	0xbd42cadc	-0.047556743
210	0xbd10cbe9	-0.035350714
211	0xbddfbe92	-0.1092502
212	0x3c9153b8	0.017740116
213	0x3cf9f429	0.030511932
214	0xbc426e45	-0.011867111
215	0x3dc25265	0.09488372
216	0x3d80cd94	0.06289211
217	0xbe0259a6	-0.1272951
218	0x3d6c67f3	0.05771632
219	0xbdba99c0	-0.09111357
220	0x3dc81988	0.09770495
221	0xbd92ee9b	-0.07174417
222	0xbe1745de	-0.14772746
223	0x3d994d26	0.07485418
224	0xbd592f8a	-0.053023852
225	0x3c47fcb3	0.012206244
226	0x3e1ea003	0.15490727
227	0x3d0bc6e3	0.03412522
228	0x3dd7a03d	0.1052861
229	0xbd9c2fd2	-0.076263085
230	0xbdbdfa58	-0.09276265
231	0x3df13df7	0.11779397
232	0x3e08ed18	0.13371694
233	0xbdf38f4e	-0.118925676
234	0xbdb0efba	-0.08639474
235	0x3d57e0b2	0.05270452
236	0x3d93d903	0.07219126
237	0xbd7d46a7	-0.061834957
238	0x3dc39772	0.0955037
239	0x3ddee39f	0.10883259
240	0x3e11c357	0.14234672
241	0xbe10a39b	-0.1412491
242	0xbd992e68	-0.074795544
243	0x3dae44e6	0.08509235
244	0x3d4d74fe	0.0501604
245	0xbcd5976c	-0.02607318
246	0xbe099629	-0.13436188
247	0xbdfbf7cd	-0.123031236
248	0x3d83a080	0.06427097
249	0xbd53ad17	-0.051678743
250	0x3d9c7d64	0.07641104
251	0x3c04180f	0.008062377
252	0xbdd06f56	-0.10177486
253	0xbdd04677	-0.1016969
254	0xbe209a76	-0.15683922
255	0xbcf6f22c	-0.030144773

model.encoder.rnn.weight_hh_l0 f4 [96, 32]
0	0xbd6c13ad	-0.05763595
1	0xbe031232	-0.1279991
2	0x3dfeb657	0.12437122
3	0x3d344bba	0.04401753
4	0xbd96a6ce	-0.07356034
5	0xbd2693f9	-0.04066846
6	0x3cd8407b	0.026397934
7	0x3dec2d78	0.1153211
8	0xbd8503cf	-0.06494867
9	0xbdf696e5	-0.120404996
10	0x3db162b5	0.08661405
11	0xbc8c7a6f	-0.017148225
12	0xbe22ed77	-0.15910898
13	0x3e751a70	0.23935866
14	0xbd959587	-0.07303911
15	0xbcf36973	-0.029713368
16	0x3d1de022	0.038543828
17	0x3e05a3d4	0.13050777
18	0xbe0ca620	-0.13735247
19	0x3c6517d9	0.0139827365
20	0xbd0fb6eb	-0.035086554
21	0xbc603b8b	-0.013686071
22	0x3d13fb38	0.036128253
23	0xbdd431ef	-0.103610866
24	0xbda3a91d	-0.0799124
25	0x3e0705bd	0.13185783
26	0xbdfcf455	-0.1235129
27	0xbcf07c4b	-0.029356143
28	0x3da4fbe0	0.08055854
29	0x3e1b1873	0.15146045
30	0xbdfbcd5a	-0.12295027
31	0x3de3ee4e	0.111294374
32	0x3ddc3622	0.107525125
33	0x3e1a5ff8	0.15075672
34	0x3dda7c63	0.10668256
35	0xbdf01a75	-0.11723796
36	0xbe02ebb3	-0.12785225
37	0xbd290ab6	-0.04126998
38	0x3de25a32	0.1105236
39	0x3cdab2a4	0.02669651
40	0x3b0fa201	0.002191663
41	0x3d85c705	0.065321006
42	0xbd8f8bdb	-0.07009097
43	0x3d6f2e9d	0.058394063
44	0xbdf51dcb	-0.11968573
45	0xbdc198b2	-0.094529524
46	0xbdeb3bb2	-0.11485995
47	0x3da5c87c	0.0809488
48	0x3dbebd54	0.09313455
49	0xbc4c3404	-0.012463573
50	0x3d6bda7f	0.05758142
51	0xbdb96323	-0.09052112
52	0xbdd72632	-0.10505332
53	0x3d9ac795	0.075575985
54	0x3d817943	0.06321957
55	0x3c92d476	0.017923575
56	0xbe0f939c	-0.14021152
57	0x3e4c7c86	0.19969377
58	0x3d712852	0.058876343
59	0x3dfefed1	0.12450946
60	0xbde8dec1	-0.11370612
61	0xbe05f0d8	-0.13080156
62	0x3e0a9290	0.13532472
63	0x3e3dd604	0.18538672
64	0xbe5675ef	-0.20943426
65	0xbd4b3487	-0.04961064
66	0xbd4fd671	-0.050741617
67	0xbdbc3608	-0.09189993
68	0xbe3e1b3f	-0.18565081
69	0x3dfe2876	0.12410061
70	0x3e36f62b	0.17867343
71	0xbdab724c	-0.0837141
72	0x3cb4307c	0.021995775
73	0x3a850b18	0.0010150401
74	0xbe0301c5	-0.12793644
75	0xbe1c320b	-0.15253465
76	0xbe0dada7	-0.13835774
77	0x3e036427	0.12831174
78	0x3df3b466	0.11899643
79	0xbdb92a02	-0.090412155
80	0x399dc758	0.00030093896
81	0xbd3c261f	-0.045934793
82	0xbe1310e8	-0.14361918
83	0x3d11339e	0.035449617
84	0xbda5773d	-0.080793835
85	0x3debc3c2	0.11511947
86	0xbde63cb0	-0.11242044
87	0xbc0109df	-0.007875889
88	0xbd86e39b	-0.06586381
89	0x3e0cf1f7	0.13764177
90	0xbd74ab24	-0.059733525
91	0x3d6e4be4	0.058177844
92	0xbd0c2f4b	-0.03422479
93	0xbe328d48	-0.17436707
94	0x3d8abfff	0.067749016
95	0xbc9779fd	-0.018490786
96	0xbe38d498	-0.18049848
97	0x3d5a7712	0.05333621
98	0xbe3bd137	-0.18341528
99	0xbd1aaf61	-0.03776491
100	0x3d85bf74	0.065306574
101	0xbbe001b5	-0.006836141
102	0x3e135bf5	0.14390548
103	0xbe033a8b	-0.12815301
104	0xbd8a6893	-0.06758227
105	0xbd370878	-0.04468581
106	0xbd556d39	-0.052106116
107	0xbe318bce	-0.17338488
108	0x3e1497d4	0.14511043
109	0xbdec707f	-0.115448944
110	0xbdc3cb39	-0.09560246
111	0x3d9092c9	0.07059247
112	0xb954c07c	-0.00020289602
113	0x3e4c9c35	0.19981463
114	0x3d0955b3	0.033528995
115	0xbe2e4322	-0.17017797
116	0x3b7981a4	0.0038071657
117	0x3e1e8ae0	0.15482664
118	0xbe110c94	-0.14164954
119	0xbd7ddca6	-0.061978005
120	0xbd0f195e	-0.0349363
121	0xbd263f44	-0.04058768
122	0xbe38d7c4	-0.18051058
123	0xbdb69037	-0.089142255
124	0x3dff1267	0.12454682
125	0x3e130248	0.14356339
126	0x3d149b10	0.03628069
127	0xbe482e65	-0.19548948
128	0x3e3675c5	0.17818363
129	0xbdf5a011	-0.11993421
130	0x3cc9e4e3	0.024645275
131	0x3c5bbf48	0.013412304
132	0xbce19ada	-0.02753966
133	0x3bcb360c	0.0062015112
134	0x3d71294f	0.058877286
135	0xbe3cc3c5	-0.18434055
136	0x3c18d870	0.0093289465
137	0xbddfd54c	-0.10929355
138	0x3d99b9ef	0.07506167
139	0x3d5aefc1	0.053451303
140	0x3c7bafc8	0.015361734
141	0xbe0eadcc	-0.13933486
142	0x3e49579d	0.19662328
143	0x3dc9486b	0.09828266
144	0xbab80c35	-0.0014041724
145	0xbe5538dd	-0.20822473
146	0xbbc705e6	-0.006073701
147	0xbc37768d	-0.011197698
148	0xbe2ec7d0	-0.1706841
149	0xbe040a09	-0.12894453
150	0x3dfbf019	0.12301654
151	0xbdcf9a1d	-0.10136817
152	0xbdee4ca8	-0.11635715
153	0x3d43f141	0.0478375
154	0x3e38b0ea	0.18036237
155	0xbe39d884	-0.18149
156	0x3de5333e	0.11191414
157	0xbdb5a54e	-0.0886942
158	0x3d8dfe96	0.06933324
159	0x3a907e07	0.0011023887
160	0xbdd6e919	-0.104936786
161	0x3a17f869	0.0005797209
162	0x3dc0d7ad	0.09416137
163	0x3e43c2e8	0.1911732
164	0x3e45cd57	0.19316612
165	0x3d82a9a9	0.06380016
166	0xbc024831	-0.007951782
167	0xbe31f000	-0.17376709
168	0xbceef22e	-0.029168215
169	0xbb5624ba	-0.00326757
170	0x3ba6a65f	0.005085751
171	0x3dada6a7	0.08479052
172	0xbe0e1c5a	-0.13878003
173	0x3e17fa3b	0.14841549
174	0xbe12cc7d	-0.14335819
175	0xbe3190e7	-0.17340432
176	0x3d0ab360	0.03386247
177	0x3e02c704	0.12771231
178	0xbdc4dde2	-0.09612633
179	0x3dd71595	0.10502163
180	0xbb4c80f7	-0.0031204799
181	0xbd6feb08	-0.058573753
182	0xbe2442b5	-0.16041072
183	0x3e179e20	0.14806414
184	0xbd4c9306	-0.0499449
185	0xbd50db2e	-0.050990276
186	0x3dd9e2aa	0.10638936
187	0x3da5b927	0.08091956
188	0x3e0e2abc	0.1388349
189	0x3d291764	0.041282073
190	0x3bb830df	0.0056210603
191	0xbd5a23a7	-0.053256657
192	0x3d1be359	0.038058612
193	0xbdf42153	-0.119204186
194	0x3e38d46a	0.1804978
195	0x3bb8ac2c	0.005635759
196	0xbcbed11e	-0.023293074
197	0x3df23365	0.11826209
198	0xbe0b48ef	-0.1360204
199	0xbd04f7e2	-0.032462962
200	0xbd5b087d	-0.053474892
201	0x3dc86732	0.09785308
202	0x3c6afeb3	0.014342952
203	0x3e3072ca	0.17231289
204	0x3b43d2a9	0.0029880202
205	0x3db3a2a5	0.08771256
206	0xbe15e401	-0.14637758
207	0x3d98fdd0	0.07470286
208	0x3e3afa03	0.18259434
209	0xbe403fab	-0.18774287
210	0x3e2ba168	0.1676079
211	0xbbc2d1f3	-0.005945438
212	0xbe0d8c93	-0.13823156
213	0xbe304c22	-0.17216542
214	0xbd39ec43	-0.045391332
215	0x3d83b98a	0.06431873
216	0x3d9475f5	0.07249061
217	0xbe13e38f	-0.14442275
218	0x3e2890f1	0.16461541
219	0xbe051432	-0.12995985
220	0xbd32e760	-0.043677688
221	0x3e185925	0.14877756
222	0x3b064c7a	0.002049236
223	0xbe3ac25f	-0.18238209
224	0xbd9143a5	-0.0709298
225	0x3c24d48d	0.010060442
226	0x3e0a1b67	0.13487016
227	0x3dad112d	0.08450542
228	0xbd8a44f8	-0.06751436
229	0xbd580fbe	-0.052749388
230	0xbd8b811b	-0.06811734
231	0x3d9f2407	0.077705435
232	0x3d6be90f	0.05759531
233	0xbe08a8fe	-0.13345715
234	0xbe084ecb	-0.13311307
235	0xbca43a83	-0.020047432
236	0xbda1f989	-0.07908923
237	0xbe0ecaa5	-0.1394449
238	0x3e044b1c	0.12919277
239	0xbe08fe44	-0.13378245
240	0x3d9fc35d	0.078009345
241	0xbe02186a	-0.12704626
242	0xbcf37304	-0.02971793
243	0xbe32cf27	-0.17461835
244	0x3cca127d	0.024667019
245	0x3e24e065	0.16101225
246	0x3e0dd488	0.13850605
247	0x3da0502b	0.07827791
248	0x3e1010ab	0.14068858
249	0xbceffb9e	-0.029294785
250	0xbbbeaee2	-0.0058191875
251	0x3d9135f7	0.07090371
252	0xbda440f6	-0.08020203
253	0x3da6e0e4	0.08148363
254	0x3e098fd4	0.13433772
255	0x3cb43114	0.021996059

model.encoder.rnn.bias_ih_l0 f4 [96]
0	0xbe582bdb	-0.2111048
1	0x3e210bcc	0.15727156
2	0x3d3349b7	0.04377147
3	0xbdc17975	-0.09446994
4	0x3bcaf914	0.006194243
5	0xbc84a4ef	-0.016191928
6	0xbe0e7e0f	-0.13915275
7	0x3dec928b	0.11551388
8	0x3dbd042a	0.0922931
9	0x3e4ccedf	0.2000079
10	0xbd0b481f	-0.034004327
11	0xbdc17683	-0.094464324
12	0xbd8f21f7	-0.069889
13	0xbdcf6dea	-0.10128386
14	0x3e23680c	0.1595766
15	0xbcb551f9	-0.022133814
16	0x3e45f64e	0.19332239
17	0x3bb8f440	0.0056443512
18	0xbe17636a	-0.14784017
19	0xbd0a0036	-0.033691607
20	0x3d92518d	0.07144461
21	0x3e392cb3	0.18083458
22	0x3e1cc7e8	0.15310633
23	0xbce7060d	-0.028201127
24	0x3e1457ac	0.14486569
25	0x3cfa23ae	0.030534592
26	0x3dfc7af7	0.12328141
27	0x3e283070	0.16424727
28	0x3e0fec8d	0.1405508
29	0x3d062aaa	0.03275553
30	0x3de75ba6	0.112967774
31	0xbe1ebd49	-0.15501894
32	0xbdc235db	-0.09482928
33	0xbdb391cb	-0.08768042
34	0xbde10160	-0.109865904
35	0xbe4c0b5f	-0.19926213
36	0xbe0189a2	-0.12650159
37	0xbe23bf2c	-0.15990895
38	0x3d3e6193	0.046479773
39	0xbe16255d	-0.1466269
40	0xbe1e8d38	-0.15483558
41	0x3c390273	0.011292088
42	0xbd4f2f3f	-0.050582167
43	0xbb3e3fa8	-0.0029029641
44	0xbd87785e	-0.06614755
45	0xbe226e93	-0.15862493
46	0x3dcf6c47	0.10128074
47	0x3dd18e97	0.10232275
48	0x3d6e6a20	0.058206677
49	0x3dc1daa6	0.09465532
50	0xbe2d2ea0	-0.16912317
51	0x3d8a66ec	0.06757912
52	0xbd1a8a5d	-0.03772961
53	0xbe6e013e	-0.23242661
54	0xbd140fcf	-0.03614789
55	0xbd8dcf1a	-0.06924267
56	0xbe6786e8	-0.22610056
57	0x3c14582c	0.009054225
58	0x3dbe70e4	0.09298876
59	0x3deda9b4	0.11604634
60	0xbb9a10c1	-0.0047017043
61	0x3baaf67d	0.005217372
62	0xbe4d341f	-0.20039414
63	0xbe6c485b	-0.23074476
64	0x3dbe7f4e	0.09301625
65	0xbde6a57c	-0.112620324
66	0x3e15ea98	0.14640272
67	0xbd00194c	-0.031274125
68	0xbe1bcf2f	-0.15215753
69	0xbd0886de	-0.033331744
70	0x3dc6a801	0.09700013
71	0xbdca5dbf	-0.09881162
72	0x3d4ea1a8	0.050447136
73	0xbe13a070	-0.14416671
74	0x3e01d3e6	0.12678489
75	0x3e26f0cd	0.16302796
76	0x3e08d2bb	0.13361637
77	0xbe094b59	-0.13407649
78	0x3d942b83	0.07234862
79	0x3e251e9a	0.16124955
80	0x3e52459f	0.20534371
81	0xbda084c1	-0.07837821
82	0x3daa47a4	0.083144456
83	0x3db4f897	0.08836477
84	0x3dfb25ae	0.12263046
85	0xbdfec5b4	-0.12440053
86	0x3e404554	0.18776447
87	0xbc2b08a2	-0.01043907
88	0xbdc44f0c	-0.095853895
89	0x3d9e1c81	0.077202804
90	0x3e30ad5f	0.17253636
91	0x3df91251	0.12161697
92	0xbd8b33c8	-0.06796986
93	0x3dca00a4	0.098634034
94	0x3e16a5bd	0.14711662
95	0x3e16bf61	0.14721443

model.encoder.rnn.bias_hh_l0 f4 [96]
0	0xbd88de70	-0.066830516
1	0xbd574475	-0.05255552
2	0xbd8a7f39	-0.06762547
3	0xbe005f11	-0.12536265
4	0x3d602a50	0.054727852
5	0x3e28a06d	0.16467448
6	0x3e252f60	0.16131353
7	0xbd7d8c50	-0.06190139
8	0xbda3422e	-0.07971607
9	0x3d806bb5	0.062705435
10	0xbe1a01ce	-0.15039751
11	0x3c749623	0.0149283735
12	0xbc920bba	-0.017827857
13	0x3e48dc7a	0.19615355
14	0x3b4708ab	0.0030370157
15	0xbd791c8d	-0.060818244
16	0xbb8fedb5	-0.0043923506
17	0xbdc489b1	-0.09596575
18	0xbc0ea2fe	-0.008705853
19	0xbd9dd73d	-0.07707069
20	0x3d14630d	0.036227275
21	0x3e235da0	0.15953684
22	0x3e096e34	0.13420945
23	0x3e1c94b1	0.15291096
24	0xbdf37a07	-0.11888509
25	0x3d847e99	0.06469459
26	0x3e399382	0.18122676
27	0x3ca2bdd5	0.01986591
28	0x3e1ade3c	0.15123838
29	0xbd4afe82	-0.049559124
30	0x3cfcddd1	0.030867489
31	0xbc04c597	-0.00810375
32	0x3cf9977d	0.030467743
33	0xbda586f3	-0.0808238
34	0xbdcb7c7c	-0.09935853
35	0x3d6349b1	0.0554902
36	0xbd0c0be3	-0.034191024
37	0x3d3d3345	0.046191473
38	0x3cd3616b	0.025803288
39	0x3d2edac2	0.042689092
40	0xbdcaecf4	-0.099084765
41	0xbd3fa22b	-0.046785515
42	0x3d3a4e5b	0.04548488
43	0x3e13e58d	0.14443035
44	0xbe47492d	-0.19461508
45	0xbe1318e8	-0.1436497
46	0x3d99b7bd	0.075057484
47	0x3ce8293d	0.028339976
48	0xbccce1e6	-0.02501006
49	0x3d4ecba9	0.050487194
50	0xbd664ebe	-0.05622744
51	0xbe744138	-0.23853004
52	0xbe5fa320	-0.21839571
53	0xbe6ee6e7	-0.2333027
54	0xbe1a8424	-0.1508947
55	0xbe29b9ff	-0.16574858
56	0x3da2b0f4	0.079439074
57	0x3b4be6c8	0.0031112898
58	0x3d8bcdac	0.06826338
59	0xbe16aa33	-0.14713363
60	0x3dab5349	0.08365495
61	0x3b06519a	0.0020495416
62	0x3de6d059	0.11270208
63	0xbd9c4a9c	-0.07631418
64	0xbe2ce65c	-0.1688475
65	0xbdb1eb69	-0.08687479
66	0xbdf3b5a5	-0.1189988
67	0x3da4c73c	0.080458134
68	0x3e13a63a	0.14418879
69	0xbe0e1877	-0.1387652
70	0xbde274e7	-0.110574536
71	0xbe185290	-0.14875245
72	0x3e28acd3	0.16472177
73	0xbe0ee7cc	-0.13955611
74	0x3e14c93d	0.14529891
75	0x3d9f5842	0.07780506
76	0xbdd06573	-0.101756
77	0xbe157d84	-0.14598662
78	0x3dbc26d0	0.091870904
79	0xbcc90ae9	-0.024541335
80	0x3d910e47	0.07082801
81	0x3d8d0dbd	0.06887386
82	0x3dcb57fd	0.09928892
83	0x3d3cad16	0.046063505
84	0xbcee7945	-0.02911056
85	0xbc381abc	-0.011236843
86	0x3e416faa	0.18890253
87	0x3d4ea547	0.05045059
88	0x3e1213ce	0.14265367
89	0xbd2c70c8	-0.042099744
90	0xbd88e615	-0.0668451
91	0xbd930fe7	-0.071807675
92	0xbcbf832a	-0.023377974
93	0x3d823d63	0.06359365
94	0xbde2cb8d	-0.110739805
95	0xbd306012	-0.04306037

model.decoder.convs.0.bias f4 [32]
0	0x3d10d975	0.035363633
1	0x3c5f7145	0.013637845
2	0x00000000	0.0
3	0xbc451f18	-0.012031339
4	0x3d1391a0	0.03602755
5	0x3d2083e0	0.039188266
6	0x3d4738fe	0.048638336
7	0x3a9c00f3	0.0011902138
8	0x3d426ca5	0.047466893
9	0x3d76d670	0.060263097
10	0x3abcce7c	0.0014404799
11	0x3ca852c4	0.020547278
12	0x3cae0348	0.021241799
13	0x3bd2f293	0.0064376085
14	0x3cda5d56	0.026655834
15	0x3d46ce64	0.048536673
16	0x3d258c0c	0.040416762
17	0xbb798b27	-0.0038077326
18	0x3d45501f	0.048172113
19	0x3d61ce8c	0.05512862
20	0xbc084202	-0.008316519
21	0x3c51e596	0.012811085
22	0x3ce2b34a	0.027673382
23	0x3cf2a303	0.029618746
24	0x3d770e03	0.060316097
25	0x3ca191fc	0.019722931
26	0x3d3826c2	0.044958837
27	0x3d525daa	0.051358856
28	0xbc038d79	-0.008029335
29	0x3d1cf4df	0.038319465
30	0xbc5c183e	-0.013433514
31	0xbc88b694	-0.016688623

model.decoder.convs.0.lin.weight f4 [32, 32]
0	0x3d9fc68d	0.078015424
1	0xbd921132	-0.07132186
2	0x3d1d24d9	0.03836522
3	0xbdc479e8	-0.09593564
4	0xbbb18760	-0.0054177493
5	0x3e38ba79	0.18039884
6	0xbd85efaa	-0.06539853
7	0x3e66339a	0.22480622
8	0x3d21b901	0.039483074
9	0x3e519e0e	0.2047045
10	0xbdef6bf2	-0.11690511
11	0x3dd87f5e	0.10571168
12	0xbd07f9d0	-0.033197224
13	0x3cc7db43	0.024396544
14	0xbe077007	-0.13226329
15	0x3e668da1	0.22514965
16	0x3e44af8b	0.1920759
17	0x3da26260	0.0792892
18	0x3ce18b1a	0.02753215
19	0xbc8334ca	-0.016016383
20	0xbe37ae1d	-0.17937513
21	0xbe2912bf	-0.16511057
22	0x3d74af58	0.059737533
23	0xbe563139	-0.20917214
24	0x3e5baf57	0.21453606
25	0xbc68bf9d	-0.01420584
26	0x3e042a95	0.12906869
27	0xbcd5cd8f	-0.026098995
28	0xbdbb0ae3	-0.09132936
29	0x3e427f44	0.1899386
30	0xbc0fdc8d	-0.008780611
31	0x3db8ce2c	0.09023699
32	0x3d37a215	0.044832308
33	0x3db3c563	0.08777883
34	0x3e174451	0.14772154
35	0x3cd04cfe	0.025427338
36	0x3d8371d2	0.06418194
37	0xbe0243aa	-0.12721124
38	0xbe03a14d	-0.128545
39	0x3df0eb9f	0.11763691
40	0xbd2e73a4	-0.042590752
41	0x3d40a4d5	0.047032196
42	0xbc6d9188	-0.014500029
43	0xbca9367c	-0.020655863
44	0x3dfbdec0	0.122983456
45	0x3e2fa0b7	0.17151152
46	0xbd4314f8	-0.04762742
47	0xbd86ac04	-0.06575778
48	0xbc1711cb	-0.009220551
49	0x3e1618f1	0.14657952
50	0x3c20078e	0.009767426
51	0xbc98c590	-0.018648893
52	0x3d38ca2d	0.045114685
53	0x3dde9a2e	0.10869251
54	0xbd64abc8	-0.055827886
55	0x3de4cfc9	0.111724444
56	0xbdf4e4a1	-0.1195767
57	0xbdd000b5	-0.10156385
58	0xbde83da3	-0.11339881
59	0x3e26cfa6	0.16290149
60	0x3e0f9cdc	0.14024681
61	0xbcf26bf4	-0.029592492
62	0xbdbbcefd	-0.09170339
63	0xbd3034a8	-0.043018967
64	0xbd7a7ec3	-0.061156046
65	0x3d860fef	0.06546008
66	0xbe27a241	-0.16370489
67	0xbe316856	-0.17324957
68	0x3d1f18d7	0.03884205
69	0x3df04c91	0.11733354
70	0xbe2b43e5	-0.16725118
71	0x3d302e7f	0.043013092
72	0x3db0f699	0.08640785
73	0x3d1df3a8	0.038562447
74	0xb9dc0dc8	-0.00041971938
75	0xbd95bd7c	-0.07311532
76	0xbe14bd1f	-0.14525269
77	0xbdc91e31	-0.09820212
78	0xbdf41b36	-0.119192526
79	0xbe34621c	-0.17615551
80	0xbe306c0b	-0.17228715
81	0xbdf87e4c	-0.12133464
82	0x3d52cd70	0.05146545
83	0x3e02d57b	0.12776749
84	0x3de8d8ea	0.11369498
85	0x3e0baa2e	0.13639137
86	0xbda4ceb5	-0.08047239
87	0xbe0f08df	-0.13968228
88	0x3e06df36	0.13171086
89	0xbe276083	-0.1634541
90	0xbd8017e6	-0.06254558
91	0x3e0d2637	0.13784109
92	0x3dd94dcd	0.106105424
93	0xbda770a8	-0.08175784
94	0x3e27f270	0.16401076
95	0x3e166c2c	0.14689702
96	0x3e3c10a9	0.1836573
97	0x3e2e68a6	0.17032108
98	0x3d8ebe11	0.06969846
99	0xbd11f644	-0.035635248
100	0xbd0fb94a	-0.035088815
101	0x3c897391	0.01677874
102	0x3c85842c	0.016298376
103	0xbd6f566f	-0.05843204
104	0xbcfefced	-0.031126464
105	0xbe10816a	-0.14111868
106	0xbd62171d	-0.055197824
107	0xbd090e18	-0.033460706
108	0xbcbf06af	-0.023318617
109	0xbc0402ae	-0.0080572795
110	0x3e23e316	0.16004595
111	0x3d9c22fd	0.07623861
112	0x3d151bdc	0.036403522
113	0x3e216527	0.15761243
114	0xbc485b73	-0.012228834
115	0x3af15609	0.0018412481
116	0x3dde6013	0.108581685
117	0xbe0dbd91	-0.13841845
118	0xbdb7c7c3	-0.089736484
119	0xbe21daef	-0.15806173
120	0xbded7b64	-0.115958005
121	0x3d9f704f	0.07785093
122	0x3b1352ee	0.002247985
123	0xbe1a9d35	-0.15099032
124	0x3cfc8c08	0.03082849
125	0x3ccf992d	0.025341595
126	0xbe2eda63	-0.17075495
127	0xbda5b09a	-0.08090325
128	0x3e332f96	0.17498621
129	0x3d14ff89	0.03637651
130	0xbd0ebd59	-0.034848545
131	0x3dd32c61	0.10311199
132	0x3e087a32	0.13327864
133	0x3e38789a	0.18014756
134	0xbe04f904	-0.12985617
135	0x3e5b7960	0.2143302
136	0x3e1bc798	0.15212858
137	0xbdb7a356	-0.08966701
138	0xbdc614f6	-0.09671967
139	0x3d2cdbfe	0.04220199
140	0x3d19c320	0.0375396
141	0xbdf2f517	-0.118631534
142	0xbe4c32a0	-0.19941187
143	0x3ddbd9b9	0.10734887
144	0xbc8a6af9	-0.016896712
145	0xbe30df5d	-0.17272706
146	0xbd89baac	-0.06725058
147	0xbe7d8bf1	-0.24760415
148	0xbe5a18f4	-0.21298581
149	0xbdef84ca	-0.116952494
150	0xbdf24653	-0.118298195
151	0xbdbcc50a	-0.0921727
152	0x3e10aac8	0.14127648
153	0x3e36ef2a	0.17864671
154	0xbd62e32f	-0.05539244
155	0xbde9974a	-0.11405809
156	0x3d78291d	0.060586084
157	0x3e0d391f	0.13791321
158	0xbdbc644a	-0.09198816
159	0xbe508d10	-0.20366311
160	0x3e4cd3b3	0.20002632
161	0x3ca3fcb2	0.020017955
162	0x3c97c241	0.018525245
163	0x3e1e6f55	0.15472157
164	0xbd48367b	-0.04888008
165	0xbdaed668	-0.085369885
166	0x3d38cf87	0.04511979
167	0x3db58c4d	0.08864651
168	0x3e4f23e8	0.20228541
169	0x3cdedde3	0.027205413
170	0x3e0cd198	0.13751829
171	0x3cd24b53	0.025670683
172	0x3c4f22d6	0.012642583
173	0xbd09c0cc	-0.03363113
174	0xbd10f605	-0.035390873
175	0xbd95272e	-0.072828636
176	0x3db33045	0.08749441
177	0x3d802b36	0.06258242
178	0xbd68849d	-0.056767095
179	0xbd0bb742	-0.034110315
180	0xbe4a6da6	-0.1976839
181	0xbce26628	-0.027636603
182	0x3d07e72e	0.033179455
183	0xbe22512d	-0.15851279
184	0x3cca57d3	0.024700081
185	0xbd4b9803	-0.049705517
186	0xbd9d93e6	-0.07694225
187	0xbe3b665b	-0.18300764
188	0xbc410f20	-0.011783391
189	0xbdc46b1c	-0.09590742
190	0x3d0dd380	0.03462553
191	0xbd29ef14	-0.04148777
192	0x3dbdd444	0.09269002
193	0xbe02258e	-0.12709638
194	0x3dd1ab17	0.10237711
195	0x3dd46c4a	0.10372217
196	0xbd02764e	-0.031851105
197	0x3dee78b0	0.11644113
198	0xbd9b6146	-0.07586913
199	0x3e0d1860	0.1377883
200	0x3db7fcf9	0.089837976
201	0xbd867a5d	-0.06566308
202	0x3dd74757	0.10511654
203	0x3cff9d2a	0.031202871
204	0x3db63fac	0.08898863
205	0x3dd03f5f	0.10168337
206	0xbd16dd90	-0.036832392
207	0xbe0a64ed	-0.13515063
208	0xbd7ec58a	-0.062200107
209	0x3d5653a5	0.052325863
210	0xbdb027a1	-0.086013086
211	0xbd0a8c3f	-0.033825155
212	0x3ca782ba	0.020448077
213	0xbe1e20b5	-0.15442164
214	0xbd4501ca	-0.04809741
215	0xbdeb89e8	-0.11500913
216	0x3e5f5dfe	0.21813199
217	0x3e227ea9	0.1586863
218	0xbdc28b35	-0.09499208
219	0xbdd20d47	-0.10256439
220	0xbe2d3d98	-0.16918027
221	0x3dc48296	0.0959522
222	0x3dccdc50	0.10002959
223	0x3c9756fb	0.018474093
224	0xbde2ec0d	-0.11080179
225	0xbe2f3dc4	-0.17113405
226	0x3d90a048	0.07061821
227	0x3e10cef2	0.14141443
228	0x3d637a69	0.05553666
229	0x3e0f7900	0.14011002
230	0xbd17b1df	-0.037034865
231	0xbdce3593	-0.10068812
232	0xbde35a55	-0.11101214
233	0x3d7024ba	0.058628775
234	0xbe363fdf	-0.17797802
235	0xbdda4fde	-0.10659765
236	0xbd65e98a	-0.056130923
237	0x3e1708c2	0.14749435
238	0x3d71e114	0.05905254
239	0xbd9bc111	-0.07605184
240	0x3c93eca9	0.018057184
241	0x3def6917	0.11689966
242	0x3d9b1410	0.07572186
243	0x3dea93c2	0.11453964
244	0x3e3f1a5e	0.18662402
245	0x3d947403	0.0724869
246	0xbe077919	-0.13229789
247	0xbdfde51d	-0.123972155
248	0xbe09e038	-0.13464439
249	0x3ddd9605	0.108196296
250	0x3deb27a2	0.11482169
251	0xbdef8a17	-0.116962604
252	0xbe2c1900	-0.16806412
253	0xbb2d9ab0	-0.0026489906
254	0x3e2c70c2	0.16839889
255	0x3d2629b4	0.040567115

model.decoder.convs.0.root_lin.weight f4 [32, 32]
0	0x3e4cf612	0.20015743
1	0x3df6b4b5	0.12046186
2	0x3cc9f4a6	0.02465279
3	0x3e40b040	0.18817234
4	0x3d8c4282	0.06848623
5	0x3df251c9	0.118320055
6	0xbd258eed	-0.040419508
7	0x3dd72750	0.10505545
8	0x3e2aefba	0.16693011
9	0xbd6d9f77	-0.058013406
10	0x3d621f19	0.05520544
11	0x3e7c5aec	0.24644059
12	0xbd1dcc77	-0.03852507
13	0xbe25c2c8	-0.16187584
14	0xbe192da3	-0.14958815
15	0xbc7d211f	-0.015449791
16	0x3c385395	0.011250396
17	0xbe124f1e	-0.14287993
18	0x3e4e0590	0.2011931
19	0xbd41d02d	-0.047317673
20	0xbe160ef6	-0.14654145
21	0xbe19a103	-0.15002827
22	0x3cdc6c09	0.026906984
23	0xbe61981b	-0.2203068
24	0x3d389b2b	0.045069855
25	0x3cbdced6	0.023169916
26	0xbd703978	-0.058648556
27	0xbd503031	-0.05082721
28	0x3e1c4be6	0.15263328
29	0x3e28a042	0.16467384
30	0x3cd503cf	0.026002793
31	0xbd55ae02	-0.0521679
32	0x3d4ddfe6	0.050262354
33	0x3dd24db7	0.10268729
34	0x3e52b068	0.20575106
35	0xbd1f373b	-0.03887103
36	0x3dceb61d	0.10093329
37	0x3d9e26c5	0.077222385
38	0xbe0960db	-0.13415854
39	0x3e2314ad	0.15925856
40	0xbc10a1da	-0.008827651
41	0xbbe37ce8	-0.00694238
42	0x3e2cbabd	0.1686811
43	0x3e336298	0.1751808
44	0xbd6030c2	-0.054734
45	0x3dfabca4	0.122430116
46	0xbd5b794d	-0.05358248
47	0xbda0d7cb	-0.07853659
48	0xbd923afd	-0.07140157
49	0xbe260a1a	-0.16214791
50	0xbdff3595	-0.12461392
51	0xbdc6bfe1	-0.09704567
52	0xbe0225bc	-0.12709707
53	0xbbbdad61	-0.0057884906
54	0x3e114a77	0.14188562
55	0x3e6b5f1f	0.22985505
56	0xbda3b1c4	-0.079928905
57	0xbe074a0c	-0.1321184
58	0xbde044d2	-0.109506264
59	0xbde8c1a2	-0.113650575
60	0x3d87f239	0.06637997
61	0x3dc78167	0.097414784
62	0xbca3ddda	-0.020003248
63	0x3e274462	0.1633468
64	0xbaa6a52a	-0.0012714018
65	0x3e2896ea	0.16463819
66	0x3d697f6d	0.05700629
67	0x3d9fc415	0.078010716
68	0xbd51b30a	-0.051196136
69	0xbd846bdf	-0.06465887
70	0xbd72dc30	-0.05929202
71	0x3d2c7ed1	0.04211313
72	0x3bbfe830	0.0058565363
73	0x3cec2388	0.028825536
74	0xbe2669e5	-0.16251333
75	0xbe17292e	-0.14761803
76	0xbd06ea52	-0.03293831
77	0x3d688c61	0.0567745
78	0xbc22e9b0	-0.009943411
79	0xbdd5b912	-0.1043569
80	0xbe083572	-0.13301638
81	0x3e2833b8	0.16425979
82	0xbd2205b1	-0.03955621
83	0xbe2c3936	-0.16818699
84	0x3e347508	0.17622769
85	0x3ca4520c	0.020058654
86	0x3e04e84e	0.12979242
87	0xbe331d5c	-0.17491668
88	0xbd5a9ce5	-0.053372283
89	0xbdfbbe2d	-0.122921325
90	0x3d180114	0.037110403
91	0xbd8c1316	-0.06839578
92	0x3dad3773	0.08457842
93	0xbdb16197	-0.08661192
94	0xbd8275ca	-0.06370123
95	0x3d55f659	0.05223689
96	0xbe0e02a8	-0.13868201
97	0xbe05b365	-0.13056715
98	0x3dcfab99	0.101401515
99	0xbdbae475	-0.09125606
100	0x3d00ee73	0.031477403
101	0xbdf70f06	-0.12063412
102	0xbde0d01d	-0.109771945
103	0xbde18cb4	-0.11013165
104	0xbd96812e	-0.07348858
105	0x3d871549	0.06595857
106	0x3cdfd5a7	0.027323557
107	0xbdab900d	-0.08377085
108	0x3dc40ee3	0.09573152
109	0x3dc3234a	0.09528215
110	0xbd8c868a	-0.06861599
111	0x3bff4f7c	0.0077914577
112	0xbe1b7b90	-0.15183854
113	0xbd175f1b	-0.036955934
114	0x3d1c95f5	0.038228948
115	0x3e045d45	0.12926205
116	0x3d40b257	0.047045078
117	0x3d03a76f	0.0321421
118	0xbde2dac8	-0.110768855
119	0xbe228b8f	-0.1587355
120	0xbd0592a4	-0.03261055
121	0xbe064e2a	-0.13115755
122	0x3d16c3aa	0.036807694
123	0xbc8f4f08	-0.01749374
124	0x3b2425ce	0.0025046947
125	0x3d823d12	0.063593045
126	0x3d633f10	0.055480063
127	0xbe11f174	-0.14252263
128	0x3e25ea42	0.16202644
129	0xbd8ca97b	-0.06868263
130	0xbd746bbc	-0.059673056
131	0x3e04818b	0.12940042
132	0xbca25810	-0.019817382
133	0x3ca44eb8	0.020057067
134	0x3dbb7343	0.09152844
135	0xbd9e6dab	-0.07735761
136	0xbc93ad8c	-0.01802709
137	0xbd777681	-0.06041575
138	0x3e05abbd	0.13053794
139	0x3e50e393	0.20399313
140	0x3dbfab0a	0.09358795
141	0xbe81e623	-0.25370893
142	0xbde14949	-0.11000306
143	0x3e1af16c	0.15131158
144	0x3da2bc26	0.07946043
145	0xbe43fe4d	-0.19139977
146	0x3e636c93	0.22209387
147	0x3ba00e5c	0.0048845243
148	0xbe2af37b	-0.16694443
149	0xbd15b24c	-0.03654699
150	0xbe01e566	-0.12685165
151	0xbe639ded	-0.22228213
152	0xbce3ea55	-0.0278217
153	0x3d571ebe	0.052519552
154	0xbe1045bc	-0.14089102
155	0xbe107e02	-0.14110568
156	0x3e1148cb	0.14187925
157	0x3e13baf8	0.14426792
158	0xbe179778	-0.14803874
159	0xbe233161	-0.15936805
160	0x3e592c34	0.21208268
161	0x3d644d67	0.05573788
162	0x3ca0e57b	0.019640675
163	0x3e12c729	0.14333786
164	0x3e727d1d	0.2368054
165	0x3d2c49a8	0.04206243
166	0xbe30e797	-0.17275845
167	0xbb902097	-0.0043984163
168	0x3e3fcc83	0.18730359
169	0x3e115303	0.14191823
170	0x3e6149e0	0.22000837
171	0x3e24aff1	0.16082741
172	0x3d4efcbb	0.05053399
173	0x3d527d34	0.051388934
174	0x3cea1f5f	0.028579412
175	0x3d8437ae	0.064559326
176	0xbd8ad1cd	-0.067782976
177	0xbe2b7fbb	-0.16747944
178	0x3d9410ab	0.07229742
179	0x3de39d74	0.11114016
180	0x3d4b9a53	0.049707722
181	0xbd2f955e	-0.042867057
182	0xbe25cd4d	-0.16191597
183	0xbe18e71a	-0.14931908
184	0x3e2679e1	0.1625743
185	0x3d331bdb	0.043727737
186	0xbb325222	-0.00272096
187	0x3bdc66eb	0.006726136
188	0xbc9dc5a9	-0.01925929
189	0xbd36b568	-0.044606596
190	0x3de3ecfe	0.11129187
191	0x3c248eda	0.010043824
192	0x3e51b2fa	0.2047843
193	0xbe237469	-0.15962376
194	0xbc9e4292	-0.019318853
195	0x3e3a1997	0.18173824
196	0xbc9266e8	-0.017871335
197	0xbd7bfbfd	-0.06151961
198	0xbdaf8c32	-0.08571662
199	0xbd061c4e	-0.032741837
200	0x3e67e5f3	0.22646312
201	0x3b0fdec6	0.0021952852
202	0x3bb4dcf3	0.0055195033
203	0x3de2b1ad	0.11069045
204	0xbd545e40	-0.051847696
205	0xbdf41886	-0.1191874
206	0xbe2ba240	-0.16761112
207	0x3d3e066a	0.046392836
208	0x3de89cf2	0.1135806
209	0xbe1de8bd	-0.15420814
210	0xbc8f15da	-0.017466474
211	0x3e18da73	0.14927082
212	0x3cd022cc	0.025407217
213	0xbdf3326a	-0.1187485
214	0x3cc26496	0.023729604
215	0xbd9066d5	-0.07050864
216	0x3ca82d5c	0.020529442
217	0xbd509df8	-0.0509319
218	0x3d386e7f	0.045027252
219	0xbce0d466	-0.02744503
220	0xbc1d7958	-0.00961145
221	0x3d84a2f5	0.06476394
222	0x3e48fa3a	0.19626704
223	0x3e07849c	0.1323418
224	0xbdec4613	-0.11536803
225	0xbdb9dcdf	-0.09075331
226	0xbd7f561b	-0.062337976
227	0x3e00fbcb	0.12596051
228	0xbdae7400	-0.08518219
229	0xbd8963d1	-0.067084916
230	0x3d838ae2	0.06422974
231	0xbd6c3600	-0.057668686
232	0x3e13e8a7	0.14444219
233	0x3e24790c	0.160618
234	0xbe2e4758	-0.17019403
235	0xbda7f221	-0.08200479
236	0x3d1fe361	0.039035205
237	0xba5bcdfa	-0.000838488
238	0x3dd5e58c	0.10444173
239	0x3d427d3d	0.047482718
240	0xbd8ae0ea	-0.0678118
241	0x3e185792	0.14877155
242	0x3d445511	0.04793269
243	0x3e39f5e3	0.18160205
244	0x3e5f0e3b	0.21782772
245	0x3dce72ec	0.10080513
246	0xbd7f5466	-0.062336348
247	0xbd9f039a	-0.07764359
248	0xbc8868be	-0.016651507
249	0xbdaa9f68	-0.083311856
250	0xbbc51fc2	-0.0060157487
251	0xbd3792f6	-0.044817887
252	0xbbcffc73	-0.006347233
253	0x3a13b3da	0.0005634405
254	0xbdaf55a4	-0.085612565
255	0x3d5531b3	0.05204935

model.decoder.convs.1.bias f4 [32]
0	0xbce442d2	-0.027863894
1	0xbb8d8012	-0.0043182457
2	0x3d378133	0.04480095
3	0x3d2d7571	0.04234833
4	0x3d0af153	0.03392155
5	0x3cd4c0d4	0.025970854
6	0xbc2c7080	-0.010524869
7	0xbc8a2f54	-0.016868271
8	0x3cdb11a3	0.026741808
9	0xbb47e34e	-0.0030500474
10	0xbc551117	-0.013004563
11	0x3d22a4db	0.039708
12	0x3d0febce	0.03513699
13	0x3d028b70	0.03187126
14	0x3b4ea7f3	0.003153321
15	0x3d1896b0	0.03725308
16	0x3d247bd8	0.04015717
17	0x3d3a0603	0.04541589
18	0x3d816630	0.06318319
19	0xbc39604c	-0.011314463
20	0x3c45184c	0.012029719
21	0x3db7df53	0.089781426
22	0x3b01b4bb	0.0019791562
23	0x3d4bd709	0.04976562
24	0x3c91eaff	0.01781225
25	0x3c0c8cd2	0.008578496
26	0x3d4b613f	0.049653288
27	0x3cb959b6	0.022625785
28	0x3b8c003c	0.004272489
29	0x3d05c07b	0.032654267
30	0x3bc00719	0.005860221
31	0x3cacf78d	0.021114135

model.decoder.convs.1.lin.weight f4 [32, 32]
0	0x3dc80a54	0.09767595
1	0x3d7d1aa1	0.061792973
2	0xbde8bbbc	-0.113639325
3	0x3e2b8dcc	0.1675331
4	0x3cfe9c92	0.031080518
5	0xbe06a4aa	-0.13148752
6	0xbe480077	-0.19531427
7	0xbc6187fe	-0.013765333
8	0xbe0386ad	-0.12844343
9	0xbd15900b	-0.036514323
10	0xbd040115	-0.032227594
11	0x3d2b78eb	0.041863363
12	0x3e1d246a	0.15345922
13	0xbdce3c25	-0.100700654
14	0xbd57108e	-0.052506022
15	0x3ddf8bbb	0.10915323
16	0xbb797c26	-0.0038068383
17	0x3cf39d3a	0.029738057
18	0x3c83e1b5	0.016098836
19	0xbcd2075c	-0.025638275
20	0xbd042dd9	-0.032270286
21	0x3d27d840	0.040977716
22	0xbe3b2188	-0.1827451
23	0x3c6e4d4c	0.014544796
24	0xbe23759f	-0.15962838
25	0xbdf76369	-0.12079508
26	0xbe0869cd	-0.1332161
27	0xbd30ac4f	-0.043133076
28	0x3d97355e	0.07383226
29	0x3dead3a3	0.11466148
30	0xbc86ed30	-0.016470522
31	0xbe22dd55	-0.15904744
32	0xbcbf7b11	-0.023374112
33	0x3ccb9eff	0.024856089
34	0x3e29c6e2	0.16579774
35	0x3d9ccfc4	0.07656816
36	0xbe1690ae	-0.14703628
37	0xbda797c7	-0.08183246
38	0x3da0a191	0.07843316
39	0x3df98e4d	0.12185345
40	0xbe118172	-0.14209536
41	0x3cc959a4	0.024578877
42	0x3e0725fe	0.13198087
43	0xbe1d489d	-0.15359731
44	0xbb880fda	-0.0041522803
45	0x3dc0621c	0.09393713
46	0x3e162d3c	0.14665693
47	0xbe021275	-0.12702353
48	0x3de91edc	0.11382839
49	0xbd1c6e6e	-0.03819125
50	0x3d115ca5	0.035488743
51	0x3ca5a6c9	0.02022113
52	0xbe2a7dde	-0.16649577
53	0x3d2e8e07	0.042615917
54	0x3dcd60f1	0.10028256
55	0xbe11b161	-0.14227821
56	0xbe2bd588	-0.16780674
57	0x3e213bc8	0.15745461
58	0xbde6268f	-0.11237823
59	0x3cd3e7c2	0.025867347
60	0x3da4876a	0.08033641
61	0xbe31efb2	-0.17376593
62	0x3df871b8	0.12131065
63	0xbdbf85fa	-0.09351726
64	0x3de820ce	0.11334382
65	0x3e7a8f69	0.24468769
66	0x3e3113e3	0.17292742
67	0x3dff52e5	0.12466983
68	0x3db4f33a	0.08835454
69	0xbd80d5a1	-0.062907465
70	0xbe140393	-0.14454488
71	0xbde1c644	-0.11024144
72	0x3dfe917b	0.12430092
73	0xbe0b5d21	-0.13609745
74	0x3d9140f1	0.07092465
75	0xbdb07b09	-0.08617217
76	0x3c643c3d	0.013930378
77	0x3c3cbb52	0.01151927
78	0x3e08333c	0.13300794
79	0xbd2ff4eb	-0.04295818
80	0xba05e36e	-0.0005107437
81	0x3d79f3d4	0.06102355
82	0x3e120d06	0.1426278
83	0x3d586a52	0.05283577
84	0x3e2418ec	0.16025132
85	0x3cef2e81	0.02919698
86	0x3de293a8	0.110633194
87	0x3d75d3ce	0.060016446
88	0xbd654f6f	-0.055983957
89	0xbbd9b537	-0.006643917
90	0xbdd87425	-0.10569028
91	0xbe2581b7	-0.16162764
92	0x3d925a31	0.07146109
93	0x3d90eebf	0.07076787
94	0xbdf8cf70	-0.121489406
95	0x3e16dadb	0.14731924
96	0x3e3d61d9	0.18494357
97	0x3e1283a6	0.14308032
98	0xbd7627da	-0.0600966
99	0x3d0bb906	0.034112
100	0xbd3493c1	-0.04408622
101	0xbccc6a04	-0.024952896
102	0xbdc43a0e	-0.095813856
103	0x3e2eeb64	0.17081982
104	0xbcb82742	-0.022479657
105	0xbd76d97c	-0.060266003
106	0xbd84519b	-0.064608775
107	0x3c3aa013	0.011390704
108	0x3a7d07d4	0.00096523506
109	0x3e1abbf3	0.1511076
110	0x3d0c801e	0.03430187
111	0xbdf4c813	-0.11952224
112	0x3dbf70d7	0.09347694
113	0xbcab6904	-0.020924099
114	0xb9a410d7	-0.00031293064
115	0x3e344c4d	0.17607231
116	0x3e0d2b60	0.13786077
117	0xbdd35225	-0.10318402
118	0x3e40d0f2	0.18829706
119	0xbdfbecfd	-0.12301061
120	0xbcb6d897	-0.022320075
121	0xbe145a1e	-0.14487502
122	0x3db4beb0	0.08825433
123	0x3e1e009b	0.15429918
124	0x3d207ac1	0.039179567
125	0x3c25c720	0.010118276
126	0xbc4b43db	-0.012406315
127	0xbd1bec17	-0.03806695
128	0x3cc9377e	0.024562594
129	0x3dfdce10	0.12392819
130	0x3de5759a	0.11204071
131	0x3cc5e680	0.024157763
132	0xbde6750d	-0.112527944
133	0x3dc65d1b	0.09685727
134	0xbdfbf160	-0.12301898
135	0xbd9e1e0b	-0.07720574
136	0x3bb9789a	0.005660129
137	0xbd3eb60d	-0.046560336
138	0x3e213d23	0.15745978
139	0x3e217f84	0.157713
140	0xbd0c456f	-0.034245905
141	0xbc8a11cf	-0.016854195
142	0x3d5912e8	0.052996546
143	0x3d1eba41	0.038751844
144	0xbc931373	-0.01795361
145	0x3e5f1b11	0.21787669
146	0xbbe8f250	-0.007108964
147	0x3e247a30	0.16062236
148	0xbd7f824b	-0.062380116
149	0xbdf990ba	-0.121858075
150	0xbc7fd292	-0.015614169
151	0xbcfeb85b	-0.031093767
152	0xbc2981ab	-0.010345857
153	0x3c823725	0.015895436
154	0x3da95438	0.082680166
155	0xbd1afc11	-0.037838046
156	0xbcb8f83d	-0.022579307
157	0xbcf54bad	-0.029943312
158	0x3d3daa04	0.046304718
159	0xbd0dca11	-0.034616534
160	0x3de512c9	0.111852236
161	0x3df8947a	0.12137695
162	0x3b1fb435	0.0024368886
163	0xbda3bddf	-0.079951994
164	0x3e11b9ce	0.14231035
165	0x3df6e328	0.12055045
166	0x3e29a472	0.16566637
167	0x3d0b76b9	0.03404877
168	0x3e397830	0.18112254
169	0xbdfae658	-0.12250966
170	0x3df4701a	0.11935444
171	0x3e0ec7d5	0.13943417
172	0xbdbed068	-0.09317094
173	0xbdef5b92	-0.116873875
174	0xbdc97eb7	-0.09838622
175	0x3e38b995	0.18039544
176	0xbcd0666e	-0.025439467
177	0xbe4554e5	-0.19270666
178	0x3e5075dc	0.2035746
179	0xbd71b113	-0.05900676
180	0x3da0fb96	0.07860486
181	0xbde63d09	-0.1124211
182	0xbdfb175b	-0.12260314
183	0xbce27ba6	-0.02764685
184	0x3ddd139b	0.10794755
185	0xbd9e6666	-0.07734375
186	0xbd1943a9	-0.03741804
187	0xbde0da17	-0.10979097
188	0x3df6ebfc	0.12056729
189	0xbcf135f9	-0.029444681
190	0xbd43ac71	-0.047771875
191	0xbe2b4e8f	-0.16729186
192	0xbd80637e	-0.06268977
193	0xbdba0309	-0.0908261
194	0xbe249c81	-0.16075327
195	0xbd50ba61	-0.050958995
196	0xbe1bc994	-0.15213615
197	0x3e11d3dd	0.14240976
198	0xbd99b37d	-0.07504938
199	0x3d138a16	0.03602036
200	0x3e16e8bd	0.1473722
201	0xbbffc041	-0.007804901
202	0x3e167d4e	0.14696237
203	0xbe1b3b25	-0.1515928
204	0xbdb3f51a	-0.08786984
205	0x3e29e2a8	0.16590369
206	0x3d2c0735	0.04199906
207	0xbdc39997	-0.09550779
208	0xbe287ea0	-0.16454554
209	0x3d30d028	0.043167263
210	0x3d37060b	0.044683497
211	0xbd36e9d3	-0.044656586
212	0xbdfbb123	-0.122896455
213	0xbdbb5902	-0.09147836
214	0x3da4401b	0.0802004
215	0x3da242f7	0.07922929
216	0xbe1d9778	-0.15389812
217	0xbd314f26	-0.043288372
218	0xbe274185	-0.16333587
219	0x3e0c13c7	0.1367942
220	0x3d31cbde	0.043407314
221	0xbe339e34	-0.17540818
222	0x3dd47203	0.103733085
223	0xbe32340e	-0.1740267
224	0x3dc59639	0.09647793
225	0x3ddd3c77	0.108025484
226	0xbdba4cb5	-0.09096662
227	0xbe481cb8	-0.19542205
228	0x3dd3d525	0.103433885
229	0xbd2af42f	-0.041736778
230	0xbda601d4	-0.081058174
231	0x3dec4f65	0.11538581
232	0x3cb85ef6	0.022506218
233	0xbe32165a	-0.17391339
234	0xbde59e8f	-0.11211883
235	0x3bca18ce	0.0061675077
236	0x3de32054	0.110901505
237	0x3c70d9fc	0.014700409
238	0x3e1ddc19	0.15415992
239	0x3e210eed	0.1572835
240	0x3e06d46a	0.13166967
241	0x3c67a9e6	0.014139628
242	0x3d9ce54e	0.07660924
243	0x3e115513	0.1419261
244	0x3d80b7ee	0.06285082
245	0x3db50181	0.088381775
246	0xbd4372ae	-0.04771679
247	0xbd9632c3	-0.07333901
248	0x3e15355e	0.14571139
249	0xbe36df9b	-0.17858736
250	0xbb9563ce	-0.004559017
251	0x3df07fcc	0.11743125
252	0x3e004eb8	0.12530029
253	0xbe101710	-0.14071298
254	0xbe22b901	-0.15890886
255	0x3dc39e52	0.095516816

model.decoder.convs.1.root_lin.weight f4 [32, 32]
0	0xbe1cc3d1	-0.15309073
1	0xbd838fb1	-0.06423891
2	0x3dab34bb	0.08359667
3	0xbd9ad1b1	-0.07559527
4	0xbdd61ac6	-0.104543254
5	0x3cba6d0e	0.02275708
6	0x3d88873a	0.066664174
7	0x3e0053b3	0.12531929
8	0xbd23cdf3	-0.03999133
9	0xbdba0a11	-0.09083951
10	0xbd597290	-0.05308777
11	0x3dffbe59	0.12487478
12	0x3e0c2f09	0.13689817
13	0x3e3eab0c	0.18619937
14	0x3dae63a8	0.08515102
15	0xbe3f4a4e	-0.18680689
16	0x3dfde626	0.12397413
17	0x3d503243	0.050829183
18	0xbdf5ba00	-0.11998367
19	0x3d8ae828	0.067825615
20	0x3e2e6358	0.17030084
21	0x3ddb82e7	0.10718327
22	0x3d1a2265	0.037630457
23	0x3da4ed3a	0.0805306
24	0xbe063f73	-0.13110141
25	0x3e0ff926	0.14059886
26	0x3deeac30	0.11653936
27	0x3d1776ea	0.03697864
28	0x3c391ec6	0.011298841
29	0xbe2a83e6	-0.16651878
30	0xbd90313e	-0.07040642
31	0x3da72e81	0.08163167
32	0xbe347fe2	-0.17626908
33	0xbd9341f3	-0.07190313
34	0xbe2b3191	-0.16718127
35	0xbded56ef	-0.11588847
36	0xbdc37127	-0.095430665
37	0xbc94f858	-0.018184826
38	0x3e287b08	0.16453183
39	0xbe1759ae	-0.14780304
40	0xbca3773e	-0.01995432
41	0x3d8ff974	0.07030001
42	0x3dec3bd9	0.115348525
43	0xbe077097	-0.13226543
44	0x3ba36366	0.0049862145
45	0xbe0b469e	-0.13601157
46	0x3cbdd061	0.023170652
47	0x3d97c165	0.07409934
48	0xbe007439	-0.12544335
49	0xbdc75f74	-0.09735003
50	0x3e093dc1	0.13402463
51	0x3d7815e6	0.06056776
52	0xbd913deb	-0.07091888
53	0xbe0009b4	-0.12503701
54	0xbd13b8e7	-0.03606501
55	0xbda8ee13	-0.08248534
56	0xbdd56197	-0.104190044
57	0xbe0056ea	-0.12533155
58	0x3d136a31	0.035989944
59	0xbd86468c	-0.065564245
60	0x3c8c30da	0.017113138
61	0xbda7af6a	-0.081877545
62	0xbbd701c7	-0.006561491
63	0x3d2a1cbd	0.041531313
64	0x3db3fea8	0.08788806
65	0x3d7704fa	0.06030748
66	0xbdcd181a	-0.10014363
67	0x3db34828	0.08753997
68	0xbe152d57	-0.14568077
69	0xbd6bbdcc	-0.05755405
70	0x3dbaede8	0.09127408
71	0xbdabb6c8	-0.08384472
72	0xbd98fd8a	-0.07470234
73	0xbd4fb485	-0.050709266
74	0x3e34fc8a	0.17674461
75	0x3d9ae5d5	0.07563368
76	0xbc02c23a	-0.0079808775
77	0xbd154bd7	-0.03644928
78	0xbe6ada28	-0.22934783
79	0xbd7b33fd	-0.061328877
80	0xbd55211b	-0.052033525
81	0x3c041328	0.008061208
82	0x3e352be3	0.17692523
83	0xbd26033e	-0.040530436
84	0xbd9eb409	-0.07749183
85	0x3e20bd00	0.15697098
86	0x3d48eb5d	0.049052585
87	0xbde756aa	-0.11295827
88	0x3ccfcadd	0.025365287
89	0x3e2b3444	0.16719157
90	0x3d60d3f1	0.054889623
91	0xbb442d65	-0.0029934284
92	0x3e8348a6	0.25641364
93	0x3d970b4f	0.07375204
94	0x3dd00022	0.10156275
95	0x3d8b1c15	0.067924656
96	0xbd3837ab	-0.044974964
97	0x3c2f238c	0.010689627
98	0x3d71d56e	0.059041433
99	0x3d24fc2e	0.04027956
100	0x3b90924e	0.004411972
101	0x3d9c4909	0.07631118
102	0x3c8c011f	0.017090378
103	0x3c8dc8cb	0.01730766
104	0x3d24ef08	0.04026702
105	0xbd341119	-0.043961618
106	0x3c3f50c2	0.011676969
107	0x3de7558a	0.11295612
108	0x3e2e4c94	0.170214
109	0x3e1bf4b7	0.1523007
110	0xbe22c498	-0.15895307
111	0x3e13232e	0.14368889
112	0x3e15fdfd	0.1464767
113	0xbe3397a3	-0.17538314
114	0x3d28a489	0.041172538
115	0x3d204743	0.03913046
116	0xbdfcdb1f	-0.123464815
117	0xbd4a45e2	-0.04938305
118	0x3c956782	0.018237833
119	0xbe285295	-0.16437753
120	0x3e5f05cb	0.21779554
121	0x3e0ac430	0.13551402
122	0xbd87e994	-0.06636348
123	0x3e1f41b4	0.15552408
124	0x3dfb0315	0.12256447
125	0x3e2dd763	0.16976695
126	0xbe4dc786	-0.20095643
127	0xbda77a28	-0.08177596
128	0x3c82548b	0.015909454
129	0x3e79280f	0.24331687
130	0xbd04d59b	-0.032430273
131	0xbd99ceec	-0.0751017
132	0x3e1639a0	0.1467042
133	0xbd965171	-0.073397525
134	0x3e253233	0.1613243
135	0xbc6ab0fe	-0.014324425
136	0xbc4f23e1	-0.012642832
137	0x3bc1b630	0.005911611
138	0xbc627ad6	-0.013823232
139	0x3c568cd6	0.013095101
140	0xbd146dde	-0.03623759
141	0x3d271812	0.04079444
142	0x3ea45188	0.32093453
143	0x3c8654c1	0.016397836
144	0x3d9c688a	0.07637127
145	0x3e0a80a9	0.13525642
146	0xbd85b2d6	-0.06528251
147	0x3db26c8c	0.0871211
148	0xbe0e3ada	-0.13889638
149	0x3dfc8806	0.12330632
150	0x3c440f20	0.011966497
151	0x3e790ce4	0.24321324
152	0x3e3fbb6f	0.18723844
153	0x3c05ddaa	0.008170525
154	0x3e246f1a	0.16058007
155	0x3e2fd8e4	0.17172581
156	0x3cc6436a	0.024202067
157	0xbdb09c9b	-0.0862362
158	0xbb27abdf	-0.002558462
159	0x3dcf476c	0.101210445
160	0xbe36e61b	-0.17861216
161	0xbd79739e	-0.060901277
162	0x3e220daf	0.15825532
163	0xbe2add55	-0.16685994
164	0xbe04c535	-0.12965854
165	0x3dd1167a	0.10209365
166	0xbbb76a03	-0.0055973544
167	0x3d680750	0.0566476
168	0x3dd1895f	0.102312796
169	0x3e42d49c	0.19026417
170	0x3d0ae997	0.033914175
171	0x3c8f221d	0.017472321
172	0xbc763726	-0.015027797
173	0x3e5d2042	0.21594337
174	0x3b6023ec	0.0034201099
175	0x3bb069c4	0.005383702
176	0xbe20e388	-0.15711796
177	0xba553eb1	-0.0008134647
178	0x3cb2f440	0.021844983
179	0xbdcb53ff	-0.0992813
180	0x3e2dce76	0.1697329
181	0x3d0b9aba	0.034083106
182	0x3df9d9a9	0.121997185
183	0xbda5c63a	-0.08094449
184	0xbdf090fc	-0.117464036
185	0x3dd6a2a0	0.10480237
186	0xbca15078	-0.01969169
187	0xbdef93c0	-0.11698103
188	0x3d4cb69a	0.04997883
189	0x3cb02fba	0.021507133
190	0x3df8dcaa	0.12151463
191	0x3d6b8a7c	0.057505116
192	0x3da66706	0.08125119
193	0x3c0b6c19	0.008509659
194	0xbc95a552	-0.018267307
195	0xbe1955c4	-0.14974123
196	0x3e201d85	0.15636261
197	0xbe0eb814	-0.13937408
198	0xbe1cd1fc	-0.15314478
199	0xbdb29a1f	-0.087208025
200	0xbe274092	-0.16333225
201	0xbe2b161b	-0.16707651
202	0x3d3944ec	0.045231745
203	0xbd52f61f	-0.05150425
204	0x3de7576b	0.112959705
205	0x3dbe4849	0.09291131
206	0x3dfc91be	0.123324856
207	0xbe28c373	-0.16480808
208	0x3d6c108d	0.05763297
209	0xbdc67e7e	-0.09692095
210	0xbd578ecb	-0.052626412
211	0x3d054d97	0.0325447
212	0xbb36da78	-0.0027901214
213	0x3d837488	0.06418711
214	0xbcaa7043	-0.020805484
215	0xbd19a48d	-0.037510443
216	0xbe2d3812	-0.1691592
217	0x3e19d77f	0.15023611
218	0xbdeaf024	-0.114715844
219	0xbe1a529e	-0.15070578
220	0x3d76483a	0.060127474
221	0xbdc2e960	-0.09517169
222	0xbe18befa	-0.14916602
223	0x3cce8cdf	0.025213657
224	0xbdac8d7e	-0.08425425
225	0x3e2f4b82	0.17118648
226	0xbcb8c94f	-0.022556929
227	0xbcb72903	-0.022358423
228	0xbd6796e3	-0.05654038
229	0x3dee014e	0.116213426
230	0xbddf03ae	-0.10889374
231	0xbe31f98a	-0.17380348
232	0xbdbf3c90	-0.09337723
233	0x3d2d3332	0.04228515
234	0xbbcf825e	-0.0063326797
235	0xbe3c958d	-0.18416424
236	0xbe53b732	-0.20675352
237	0x3dacd6d5	0.084394135
238	0x3e0d63bd	0.13807578
239	0xbdd1cf33	-0.10244598
240	0xbdc95956	-0.098314926
241	0xbd8676c9	-0.06565625
242	0x3dfcce82	0.12344076
243	0x3dca1ced	0.098687984
244	0x3e0d6892	0.13809422
245	0x3e188185	0.14893158
246	0x3d0783f9	0.033084843
247	0x3c8d0bcf	0.017217545
248	0xbbc43f6a	-0.005989005
249	0xbe3cbd46	-0.18431577
250	0xbdea4f9d	-0.11440966
251	0xbcd34a44	-0.025792249
252	0xbd9bbb82	-0.07604124
253	0x3e025048	0.12725937
254	0x3deee47e	0.11664675
255	0xbdbeaa46	-0.09309821
