code/utility notebooks/logs/epoch=2-step=240-v2.ckpt (torch, 172810 bytes, 48 tensors)

model.input_encoder.weight f4 [32, 1]
00000000: e7bd e5be 53d5 cfbe 0ebe 02bf 8412 6b3f
00000010: 35fe 6abf 7fd0 14bf 5493 5c3d 2efc 983e
00000020: 983c 4ebf 1d19 39bf ef28 ed3e c44d 53bf
00000030: 17bc f93d 2dbb 113d 04e8 f4be 9000 18bf
00000040: 6ca6 39be 6527 703f 00ed c8be 9bd2 1fbf
00000050: 1c62 8ebe 9e9c fcbe adfc 41bf 2382 1bbf
00000060: 7619 15bf fa3f 6c3e efee 01bf 51ab 903e
00000070: 4f65 5e3f ed58 123f 344f d0bd a148 e6be
-0.44871446 -0.4059244 -0.5107125 0.9182513 -0.9179414 -0.5813064 0.05385144 0.29879898
-0.8056121 -0.72303945 0.46320292 -0.82540536 0.121940784 0.035578895 -0.47833264 -0.5937586
-0.18129891 0.9381011 -0.39243317 -0.62430733 -0.27809227 -0.4933824 -0.7577618 -0.6074545
-0.58241975 0.2307128 -0.5075521 0.28255704 0.86873335 0.5716694 -0.10171357 -0.44977286

model.input_encoder.bias f4 [32]
00000000: ecf7 1ebf d63e 5cbf ae69 57bf b559 82bf
00000010: cdec 2ebf 39c8 d03d 7697 8bbe b3b8 093f
00000020: 8cc5 b3be f18a b83e 3ccb 11bf 13db 4cbf
00000030: 1b90 8b3e e06f 373f 6eb1 43bf 7941 7bbf
00000040: 8eeb bbbe cd55 673f 1730 babc d8eb 3a3f
00000050: 9c02 b93d f689 063f 0897 c2be 0539 2fbd
00000060: 9297 d23e aad1 483f 84c1 673f e8ad 48bf
00000070: 56ea 563f eeb4 78bf 21ae 723f 3a1b 133f
-0.6209705 -0.8603338 -0.8414563 -1.0183626 -0.6833008 0.101944394 -0.27263993 0.53797454
-0.35111654 0.36043504 -0.56950736 -0.8002178 0.2725838 0.7165508 -0.7644261 -0.9814678
-0.3670315 0.90365297 -0.02272801 0.7301612 0.09033701 0.5255426 -0.38005853 -0.042778987
0.41131264 0.7844492 0.90529656 -0.7839036 0.8395132 -0.97151077 0.9479695 0.5746342

model.encoder.rnn.weight_ih_l0 f4 [96, 32]
00000000: b46b ab3d e46f 963d 909f cebc 7f4c 39bd
00000010: 3c03 8bbd bf4f b9bd b7b2 d2bc 0a03 1d3e
00000020: dadf 143e 3966 d93c 4422 683d c67e 7dbd
00000030: e169 e33d f533 4a3e e8df 043e 44ba c93d
00000040: 3fb7 a4bd 78c7 94bd f5f0 47bd b9d5 403e
00000050: ed55 ee3d 1f38 e6bc c533 783d fbe3 88bd
00000060: 74d1 1e3e 4d9b 19bd 2f19 07be a7a2 3cbe
00000070: 2c76 09bd 10b9 0f3e a994 eebd ffb4 9fbc
00000080: 0f7b 603c 2f3b 0fbe d40a 2f3e 89fa ad3d
00000090: 9f02 5ebd 3b7a 523c 6744 f53b b25a 003e
000000a0: 9c96 0d3e d8df 2c3e 3587 17be 3a7f ac3d
000000b0: 0b4f 763d 6627 ecbd 3dd3 08be d036 50bd
000000c0: d02d 10bd 7b37 743c 16ca da3d e15d 7fbc
000000d0: 9ae0 f1bd 08c9 d0bd 6685 823d 341d 57bc
000000e0: b3cf f03d 7602 49be fd85 293e fc97 90bd
000000f0: 507c 963d 091b 013e 582b e1bd 1c8e 4f3c
00000100: 73a0 1ebe 9f62 75bb 3a95 2fbe b071 9bbd
00000110: 18e4 d83c d85c a23c fb22 82bd 1f9c e13d
00000120: 67bb dbbd 3fb2 943d a475 ecbd 14a1 ef3d
00000130: 9952 ad3d d156 d7bd 1904 583d a47d f53d
00000140: 1007 a0bd b0d8 283d dec6 c7bd a303 2cbe
00000150: 4588 e5bd b083 083e e587 0b3e a7dd 63bc
00000160: 87b5 8abd 1965 0d3e b8ef 4ebc a641 f1bd
00000170: c5d9 3b3e 79a5 043e 8188 58bd 7b1f debd
00000180: a348 123e 5645 84bd 5afc 5abb cbeb 023e
00000190: 2598 1ebc f677 9cbd af70 2bbd eb19 233e
000001a0: 394c 9dbd 70bc 293c 7496 5cbd af7b 263e
000001b0: 0d03 9dbd 023f 363c abbf 1f3e 98ed 993d
000001c0: 1804 33be 24e7 61bd 119d 0cbe cca4 b93d
000001d0: 0ce3 7dbd 0b4e 21be 178e c3bd fd43 f4bd
000001e0: 0a6b bb3d 2d60 033e b446 35bd e017 d0bd
000001f0: 4aec f73c 9ced 1fbe 216f 59bb 478f 953c
00000200: e609 f2bd bc4e 22be 02ad 90bb 9f91 123e
00000210: 7157 17bd e2a8 1abe 60df 36be 7306 3fbd
00000220: 3c94 d8bd b485 0b3d d4e0 3fbe fa8b d6bd
00000230: 5c43 0d3e 1294 10bd e422 b8bd f117 043e
00000240: 7863 44be 28cc b13d 153c b6bd 282b 503d
00000250: 51e3 133e 67a1 083e a7a0 a33d 3c92 6cbd
00000260: d688 383e 896d 69bd dbce 3d3e 079a 2ebc
00000270: bd07 03be d893 0b3d 5553 1fbd b92f 0b3e
00000280: 3b55 0f3e c481 f5bd b919 7e3d a88e 8abd
00000290: faa8 07be 2826 b4bd 307c b33d ec5a 4b3e
000002a0: 6cb4 eebd d4ea 473e 2e1d 1cbe c29e 0ebd
000002b0: 3625 543e 2040 f73d 6052 803d 116e 38be
000002c0: a521 983d b217 8b3d cc36 1cbe 989a f33d
000002d0: 5638 b23c b76c 73bd 6e81 8b3d 6f7c ba3c
000002e0: 6783 f7bd 296f 063e 820b 873d 1b33 c3bc
000002f0: df24 453d 49e6 5ebd 8b44 dabc 4fa7 cebd
00000300: 24a0 273e af91 c13d dca0 0abe 2d06 353e
00000310: 1a62 34be fe20 013e 13ab 6dbd aa73 e1bb
00000320: 339d 1a3e 330a fcbd c3a9 073e 504b 60bc
00000330: 14a3 a2bd 4356 d23d c075 813d eee5 c8bd
00000340: 3bfa 823d c54b d5bd 6550 d33d 1e53 4dbe
00000350: 476e eabd 84ea a73d 697f fbbd 4241 593c
00000360: e6f0 5abd 3ee9 083e c353 633a 324b 25bd
00000370: eed4 ddbd 1703 b3bd a3ce 093e a345 de3d
00000380: d61b 11be 4ef3 d238 6452 4dbd 35c5 ec3c
00000390: c6cb 19bd 4173 a43d 1284 0b3e de39 2f3e
000003a0: a7b3 efbd 1061 40bc cdb5 babd fc9e 943d
000003b0: fdf3 653c 3858 a2bd a6b2 5fbd 8939 43be
000003c0: c5f6 b13d 526c 403b 663b c6bd c1ce 5d3d
000003d0: 4abb ad3c 5f5f 1dbe 21ea 7dbc b257 11be
000003e0: aa9c 38bd e245 8dbd 0232 a53d 1975 3fbe
000003f0: f5e2 ed3d 957c 01be 005e 173e 55b6 5b3d
0.08370152 0.0734556 -0.02522257 -0.045238968 -0.06787726 -0.090484135 -0.025719984 0.1533319
0.14538518 0.026538001 0.056673303 -0.06188848 0.11104179 0.19746383 0.12976038 0.098499805
-0.08042764 -0.07264608 -0.04881378 0.18831529 0.11637483 -0.028102932 0.060596246 -0.06684109
0.15509588 -0.037501622 -0.131932 -0.18421422 -0.033559963 0.1403544 -0.116494484 -0.019495485
0.013701214 -0.1398742 0.17093974 0.084950514 -0.05420172 0.012846525 0.007484961 0.12534598
0.13826984 0.16882265 -0.14797671 0.08422704 0.060133975 -0.11530952 -0.13361831 -0.050833523
-0.03519994 0.014905806 0.10683076 -0.015586347 -0.118104175 -0.10194594 0.063731 -0.013129521
0.117583655 -0.19629845 0.16555019 -0.07060239 0.073479295 0.1260797 -0.10994595 0.012668159
-0.15490894 -0.0037442816 -0.17146769 -0.075900435 0.026475951 0.019819662 -0.06354328 0.11016106
-0.107291035 0.0726056 -0.11545876 0.11700645 0.0846302 -0.10514606 0.052738283 0.11986855
-0.07813847 0.041222274 -0.09754728 -0.16798262 -0.11207632 0.13331485 0.13626058 -0.0139078265
-0.06772905 0.13808097 -0.012630396 -0.117800996 0.18344791 0.12953748 -0.052864555 -0.10845848
0.14285521 -0.06458537 -0.0033414573 0.1278526 -0.009679829 -0.07640068 -0.04185551 0.15927856
-0.07680554 0.010359868 -0.05385442 0.16258119 -0.076665975 0.011123421 0.1560046 0.075160205
-0.1748203 -0.055152074 -0.13731791 0.09064636 -0.061984107 -0.15752427 -0.09548586 -0.1192703
0.091512755 0.12829657 -0.04425688 -0.10160804 0.030264039 -0.15617985 -0.003317781 0.018256797
-0.11818294 -0.15850347 -0.0044151554 0.14313363 -0.036948625 -0.15103486 -0.17858648 -0.04663701
-0.105751485 0.034063056 -0.18738109 -0.10475917 0.13795227 -0.03529746 -0.0899103 0.12899758
-0.1917857 0.08681518 -0.088981785 0.050822407 0.14442183 0.1334282 0.079896264 -0.057756647
0.18020949 -0.056989226 0.1853594 -0.01065684 -0.1279592 0.03407654 -0.03889783 0.13592423
0.13997357 -0.119876415 0.06203625 -0.06765491 -0.13248053 -0.0879634 0.08763921 0.19858903
-0.116555065 0.19523174 -0.15245506 -0.034819372 0.2071732 0.12072778 0.06265712 -0.18010737
0.07428292 0.06791629 -0.15255278 0.11894721 0.021755379 -0.05942985 0.06811796 0.022764413
-0.1208561 0.13128342 0.06593992 -0.02382808 0.048130866 -0.054418836 -0.026644012 -0.10090505
0.16369683 0.09451615 -0.13537925 0.17678137 -0.17615548 0.12610242 -0.058024477 -0.0068802433
0.15099029 -0.12306633 0.13248353 -0.013689831 -0.07941261 0.10270359 0.06321287 -0.098094806
0.06395384 -0.104148425 0.103180684 -0.20051238 -0.11446815 0.08199027 -0.12280161 0.013260188
-0.053452395 0.13370225 0.0008671844 -0.040354915 -0.10831629 -0.08740824 0.13457732 0.10853126
-0.14170775 0.00010058899 -0.050127402 0.02890263 -0.03754785 0.080297954 0.136246 0.17111918
-0.11704188 -0.0117418915 -0.09116707 0.07256886 0.014035222 -0.07926983 -0.05461373 -0.19064917
0.08689646 0.002936144 -0.09679298 0.054152254 0.02120747 -0.15368412 -0.015497715 -0.1419361
-0.04507128 -0.06898095 0.08066179 -0.18697013 0.11615554 -0.1264518 0.14781952 0.053640682

model.encoder.rnn.weight_hh_l0 f4 [96, 32]
00000000: 1c5e e9bd abc0 b4bd f868 95bd e10d be3d
00000010: f085 a5bd 902c 64bd a800 dfbc 7ff2 613c
00000020: 79cf 6a3d e73e 1dbd 2f4d f43d ef39 6bbd
00000030: 8d4c afbc f976 33be a8fa 94bd 2edc aebc
00000040: 907c c9bc 1ad6 7e3d c732 07be e8b8 00be
00000050: a31a 063e 96ba be3c 732c 0cbe 3b12 1d3d
00000060: 2198 0d3e a01c f2bd 72ae 053e 4fc5 4bbd
00000070: d133 48be b189 febd 5a64 253d d5fe 0c3e
00000080: c560 cf3b 30f4 0e3e 7603 81bd 4a7f 11be
00000090: e898 ddbb 8ddc 273e ba6f 4f3e 1971 bb3d
000000a0: dc13 1ebe 5963 5dbd 8ace f0bd 7ef6 62be
000000b0: 2429 fa3d e35b 223d 3947 07bd d9a4 cfbd
000000c0: ac1b c83d 9a60 793d 05d5 e3bd 4946 91b9
000000d0: 435d eabd 4366 633e 646c d0bc c24f c83d
000000e0: c85b 72bc 06bc 3a3d 3073 72bd 3f04 ae3d
000000f0: 6c3c 8b3c 037e 343e 49ee b1bd 4348 67bc
00000100: 57e7 063e c8c8 2f3e 860d 18be c09e 41be
00000110: d54b f6bd b2c5 34be 8799 ec3d 9fce 15be
00000120: ef9b 40bd 3747 9c3c 1741 16bc f6a6 0fbe
00000130: 5263 8ebd b685 9dbc 064e 0c3d 6836 1fbe
00000140: 72d1 d0bd 6c3f a53c f387 6ebd 8df5 b63d
00000150: c77b e13d 9c36 33bd d1d6 f1bd f0f3 7f3c
00000160: 5c49 0d3e 50fb d03c 8647 313e 8214 dabc
00000170: 4b9a aabd 6f12 0cbd 5f90 d2bd 3010 163e
00000180: 37b1 b13d 2a5a 643d 299a 843d 11c2 84be
00000190: e88a e2bc 781f bf3c 147d 613e e810 36be
000001a0: 6429 253d 40b3 59bb 7c94 57bc d9a8 213e
000001b0: 3247 90bd ba9c ce3d 2c7b da3d dcc0 233d
000001c0: 8e16 e2bc 1dc2 8fbc dc3a 0a3e 6553 f7bc
000001d0: f1d1 4dbc 8443 51bd 7fe0 0a3e 9609 39bc
000001e0: d545 9d3d 5add 173e 254d 493e fd86 17bd
000001f0: 55f0 913d 90ab 4a3e fc92 b23d 26ab 4dbe
00000200: e975 31be 7617 9cbd c2d2 bf3c 55bb 753c
00000210: fb13 3abe 167b f5bd 382e e3ba e478 903c
00000220: fa54 cd3d 1220 63bd 06da c13d 70fd a93d
00000230: 7ddb e9bd f881 0f3d 65e0 703d 3182 b63d
00000240: 0fd3 1f3e 2548 1abe 402f 303e 4d4f 45be
00000250: 1228 593d 2c16 0b3e 5107 b3ba 2874 79bd
00000260: 6efc 033e 5997 90bd c639 51bd be53 90bd
00000270: 3ffc 29be 432f b03c 3a66 0e3d 8a17 b0bc
00000280: 6479 aebd ebf8 e73d e42f 1e3e f9d2 013d
00000290: e895 16be dc75 10be 55f0 583e b9b8 c93b
000002a0: 6072 11be 1654 593d 6d02 973d 48b2 a4bd
000002b0: 01cc e4bd e856 f43d f970 083e 31b9 91bd
000002c0: 6669 923d bd60 2cbd a354 c3bd 99b6 67bd
000002d0: 2664 a4bd cb48 87bd f4f6 6c3d 92e6 f0bd
000002e0: 7f4d e3bd 72a3 513e 3a19 49bb 9fb3 973d
000002f0: 2a47 73bd d45b 933d 3d2b 5a3c c03a 33be
00000300: 017e 123c 4774 1bbd 48c9 463d 09fb 8c3d
00000310: 60c7 a13d 8bbe c53d e2c1 a0bd 74a3 343c
00000320: 7252 84bd 34d0 433e 580f be3d 8ac5 3c3d
00000330: 010a 1e3d e739 6c3d c687 27be 89af 643d
00000340: 64d3 22be 8439 17be 492f 883b bea8 273e
00000350: 6824 efbd d3e6 58bd d938 103e 18af 02bd
00000360: bfcc a0bd b7e3 17be d676 99bb 095f 5e3d
00000370: 62cf 4cbc dbef 003d e13e c83b 68d7 0a3e
00000380: 6f0f 8bbc 5dac 27bd ae91 11bd e752 14be
00000390: 1e67 babd ddfa 24be 157d 34be d177 813b
000003a0: 12ad 2cbe 9037 8c3c e72c e33c 9de6 c3bd
000003b0: a4cb f73d ae14 0b3e 70fe b13b 20d8 063e
000003c0: e24b 2f3d 93b4 ae3d 472e 223e d475 0f3e
000003d0: 0b84 4fbe fa9a 933d 1862 6a3d 04a3 3abe
000003e0: 49ae 803d 1afa b93d db8e 20be 68eb ef3d
000003f0: cbc8 eebd b426 8ebd 2b87 363d c150 8a3d
-0.11394903 -0.08825811 -0.07295412 0.09279991 -0.08082187 -0.05570656 -0.027221993 0.013790726
0.057326768 -0.038390066 0.11928784 -0.057428297 -0.021398807 -0.17525853 -0.072743714 -0.021345224
-0.024595529 0.062215902 -0.13202964 -0.12570536 0.13096099 0.02328233 -0.13688831 0.038347464
0.13827564 -0.11821866 0.13054827 -0.049748715 -0.19551016 -0.12428606 0.040378906 0.13769086
0.0063286745 0.13960338 -0.06299488 -0.14208713 -0.0067626126 0.16392727 0.20257464 0.09152431
-0.15437263 -0.054049823 -0.11758144 -0.22164342 0.12214878 0.03963841 -0.033026908 -0.10138864
0.09770903 0.060883142 -0.111246146 -0.00027708922 -0.114435695 0.22206978 -0.02544231 0.097808376
-0.01479239 0.04558947 -0.059191883 0.08496904 0.016996585 0.17626195 -0.086880274 -0.01411635
0.13174187 0.17166436 -0.14848909 -0.18908215 -0.120261826 -0.1765354 0.115527205 -0.14629601
-0.04702371 0.019076927 -0.009170792 -0.14028534 -0.069525376 -0.019228797 0.034254096 -0.15548098
-0.101961985 0.020171843 -0.05823512 0.08933554 0.11009937 -0.04375325 -0.11808551 0.015622124
0.13797516 0.02551046 0.1731244 -0.026621107 -0.0833021 -0.034197267 -0.10281443 0.14654613
0.08676379 0.05575005 0.06474716 -0.2592931 -0.027654126 0.023330435 0.2202037 -0.17779887
0.040322676 -0.0033218414 -0.01315796 0.15787067 -0.070448294 0.10088487 0.106680244 0.039978847
-0.027598646 -0.017548615 0.13499016 -0.030191133 -0.012562261 -0.05108978 0.13562201 -0.011293789
0.07679335 0.14830533 0.19658335 -0.03699397 0.07125918 0.19792008 0.08719441 -0.20084819
-0.17330135 -0.07621662 0.023415927 0.014998277 -0.18171684 -0.119863674 -0.00173325 0.01763577
0.100259736 -0.055450507 0.09465413 0.083002925 -0.11418817 0.035036057 0.05880775 0.08911551
0.15607856 -0.15066583 0.17205524 -0.19268532 0.05301673 0.13582677 -0.0013658797 -0.06090179
0.12889263 -0.07060117 -0.051080488 -0.070472226 -0.1660013 0.021506911 0.03476546 -0.0214956
-0.08519247 0.11326774 0.15447956 0.03169534 -0.14705622 -0.1410746 0.2118543 0.006156054
-0.14203787 0.053058706 0.073735096 -0.08041817 -0.11171723 0.119306386 0.13324346 -0.071154006
0.071490094 -0.042084444 -0.095376275 -0.056570623 -0.08026914 -0.06605681 0.0578527 -0.11762728
-0.110987656 0.20472506 -0.0030685202 0.07407307 -0.05939404 0.07195249 0.013315973 -0.1750288
0.0089411745 -0.037952688 0.0485318 0.06883819 0.07899356 0.09655484 -0.0784948 0.011025298
-0.06461038 0.19122392 0.0928027 0.046086825 0.03858376 0.057672407 -0.16360387 0.055831466
-0.15900952 -0.14768034 0.0041560275 0.16372964 -0.11676866 -0.052954506 0.14084186 -0.031905264
-0.07851552 -0.1483296 -0.004683356 0.05428985 -0.012500616 0.031478744 0.0061110114 0.13558733
-0.016975133 -0.040935863 -0.03553932 -0.1448475 -0.09101699 -0.16111322 -0.1762584 0.003951051
-0.16862896 0.017116338 0.027731372 -0.0956547 0.12099388 0.13582107 0.0054319426 0.13168383
0.042796977 0.085305355 0.15837966 0.14009792 -0.20265214 0.07207294 0.057222456 -0.18226248
0.06283242 0.09080906 -0.15679495 0.11714822 -0.11659392 -0.06940976 0.0445625 0.06753684

model.encoder.rnn.bias_ih_l0 f4 [96]
00000000: fc46 d1bd 9968 0f3e a94f 13be 5790 1e3e
00000010: 755e 4e3e 3525 4b3d 3fb7 d43d 6778 2d3d
00000020: 18f0 893d f79d 4e3c 0bed 223e 4084 9abd
00000030: ca87 253d e30e 0d3e 120f a63d da27 113e
00000040: 06bb 573e 0fbc 933d 1a8c ffbd c2bb e23c
00000050: f5f9 c83d 2863 8fbc 2a23 093e c30b d9bb
00000060: e798 063e 5883 f3bd a62a d1bc 2d97 b13d
00000070: a4d3 fabd 5220 11be 3eef a9bd 762d b83d
00000080: 79a6 e0bd d282 343d 101a d1bd 8e47 3bbe
00000090: 81bc 20be c11a dcbd 8c7e 65be 8d7c 3fbe
000000a0: 3d90 91bd 449d 7cbd d747 5a3d a67e 4f3d
000000b0: 3494 1dbc 6ae1 39bb 852d 3a3e f1e5 81bd
000000c0: d178 26bd a5ce 5abc 1414 9dbd 9e97 a43d
000000d0: bd4c f1bd e522 b33d f67e bdbd a8e8 4fbe
000000e0: 744f 68be 5a38 813d f6cd 6dbd b555 69bd
000000f0: 1eea f2bc 7045 32bd e117 24be 4dc4 8e3d
00000100: 13bb 1ebe adc1 503d 3fed 643d e267 11be
00000110: 1bad a0bd 7816 18be 38aa 7a3d 2d01 acbc
00000120: 4657 c5bc 9e85 13be 0a22 61bd 11e7 ca3d
00000130: c0e6 10be 7608 173d 31ed e7bd 1799 a9bb
00000140: 4595 563e 309a 25be 3497 5cbd f02d d23d
00000150: 3b9e e13c f28c 02be 45ef 71bd 3674 3abd
00000160: 3c0e 9dbd 0813 bc3c f8ed 383e 505e 9bbd
00000170: dd74 663d 1543 d5bd 10d4 f03d 38b7 823d
-0.10218617 0.14004745 -0.14385857 0.15484749 0.2015322 0.04959603 0.10386514 0.042351153
0.067352474 0.012610904 0.15910737 -0.07544756 0.0404127 0.1377521 0.08108343 0.14175358
0.21067438 0.07213604 -0.12477894 0.02767742 0.098133005 -0.017503336 0.1339232 -0.0066237166
0.13144265 -0.11890286 -0.025533032 0.086714126 -0.122473985 -0.14172485 -0.08297585 0.08993046
-0.10969252 0.044070072 -0.10210049 -0.18289015 -0.15696909 -0.107472904 -0.22411555 -0.18699856
-0.071075894 -0.061673418 0.053291168 0.05065789 -0.009617854 -0.0028363117 0.18181427 -0.06342686
-0.040642563 -0.013354932 -0.07669845 0.08036731 -0.11782215 0.0874689 -0.092527315 -0.20303595
-0.22686559 0.06309576 -0.058057748 -0.056966502 -0.029652651 -0.043523252 -0.16024734 0.06971035
-0.1550105 0.050965954 0.055890318 -0.14199784 -0.07845517 -0.14852321 0.06119749 -0.020996654
-0.024089467 -0.1440644 -0.054964103 0.09907354 -0.14150524 0.036873303 -0.113245375 -0.0051757204
0.2095538 -0.16172099 -0.053855136 0.10262668 0.02754127 -0.12749079 -0.059066076 -0.045520984
-0.076687306 0.022958294 0.18059528 -0.07586348 0.056263793 -0.104131855 0.11759198 0.063826025

model.encoder.rnn.bias_hh_l0 f4 [96]
00000000: f311 38bd 6aff 0ebe 37c6 aebd 83ea be3d
00000010: f781 243e fb02 523e 6a21 983c a2aa 023e
00000020: d701 003d 2de4 96bd f2a7 bebd 52e3 9ebc
00000030: 84bd 74bd d86f 1bbe e3a3 81bd cf27 123e
00000040: a671 1b3e fe11 edbd 8456 263d 8dad c8bc
00000050: 9907 b33c f53e dd3c debc 1bbd 6e8b 3b3e
00000060: 9094 18be 099f 243d d989 fb3d 2b3b 033e
00000070: e88f c33d cf29 183e e275 23be 098d 173e
00000080: 0ad8 68be c151 193e 5538 6cbe f608 6a3d
00000090: 65a3 813c 9e71 38bd e01e 97bd 64ff 2fbe
000000a0: e7bd e2bd 430e 2a3e 6b53 1c3d 8742 8e3d
000000b0: 325f b63d 2530 e4bd 33d8 07be 1b76 fc3d
000000c0: b3ae 0fbe cbcb 7fbd 7b75 67bd fa6a 5fbe
000000d0: 180b dabd b9c5 963d 9e11 47bd 91e2 47bd
000000e0: 6590 64be 6e86 ba3d 0f56 023d 2af8 d43d
000000f0: 83b2 f7bd 47a6 b53d bc02 9a3d 5212 5abe
00000100: 0ff3 debd 117e 4c3e e9aa dcbd 76d2 bdbd
00000110: b31d 22bd 1279 46be 7267 aebc a08d c4bd
00000120: c363 27bc 6279 0bbe f8db 8dbd 7d26 393d
00000130: 0ae0 47be da96 183e 9e09 8dbc 5d14 6c3c
00000140: 173e 89bd 8a38 19be c287 2a3e fad0 dc3d
00000150: 7ec2 42be 8886 d43d b586 053e 058d 2d3e
00000160: 0de7 c2bd 9868 b23d d8d0 683c 801e 2c3d
00000170: 6ffb e1bd 0195 083d f6ae 873d 32c6 673c
-0.044938993 -0.1396462 -0.085339 0.09322073 0.16065203 0.2050895 0.01857062 0.12760404
0.031251755 -0.0736774 -0.09309377 -0.019395504 -0.05975105 -0.15179384 -0.06330087 0.14272998
0.15180072 -0.11575697 0.04060985 -0.024496818 0.021854209 0.02700756 -0.038021915 0.18314907
-0.14900422 0.04019073 0.12282152 0.1281554 0.09548932 0.14859699 -0.15962937 0.14799894
-0.22738662 0.14972593 -0.23068364 0.057137452 0.015824983 -0.04503023 -0.07378936 -0.17187268
-0.11071377 0.16607003 0.03816549 0.06946283 0.08904876 -0.11141995 -0.13266067 0.12327214
-0.14031486 -0.06245021 -0.056508522 -0.21818152 -0.10646647 0.07361931 -0.048600785 -0.048800055
-0.22320707 0.09107672 0.031820353 0.10398896 -0.12094595 0.088696055 0.07520053 -0.21296051
-0.108862035 0.19969966 -0.10774786 -0.09268658 -0.039579105 -0.19382122 -0.021289561 -0.09597325
-0.010216656 -0.13620523 -0.06926721 0.04520272 -0.19519058 0.14901295 -0.0172165 0.014409152
-0.06701296 -0.14962974 0.1665335 0.107820466 -0.19019505 0.10377222 0.13039668 0.16948326
-0.09516726 0.08711356 0.0142099485 0.042021275 -0.11034285 0.033345226 0.06625168 0.014146375

model.decoder.convs.0.bias f4 [32]
00000000: 915d 0c3d 8972 d63c b70f 99bc a3b1 b93c
00000010: 8eea b83c 57de 313d e120 da3c 9553 3e3d
00000020: cae7 343d f17c 1e3c ecf2 003d b33d 1d3d
00000030: ace1 e83c 2d23 47bc de81 0c3d 5040 523d
00000040: 1d59 59bc d558 193c 68c3 0a3d 4e82 983c
00000050: a4b6 043d e7d8 c03c 973f 2dbc c2e5 babc
00000060: a1cf 37bc 3527 553d 2faa 343d 1c2f 0fbd
00000070: fc66 6d3c 84c8 733d 15ba 333d 3b31 c93b
0.03426892 0.026177661 -0.018684251 0.022667712 0.022572782 0.04342493 0.026627006 0.04646643
0.044166364 0.009673343 0.03148167 0.03838892 0.028427921 -0.012154383 0.03430354 0.051330864
-0.013265875 0.009359558 0.03387776 0.018616822 0.032400742 0.023540927 -0.010574243 -0.022814635
-0.011218936 0.052039344 0.044107612 -0.034957036 0.014489885 0.0595174 0.043878634 0.006139902

model.decoder.convs.0.lin.weight f4 [32, 32]
00000000: e52d 51be 06ac bd3d 62bb 22be 6117 cb3d
00000010: 1725 0cbe a239 a33d 887a 323e fdce c3bc
00000020: 5f29 673d 959d 0bbe 079d d53d c5e8 0b3e
00000030: 2873 8bbb 2952 e4bd 8444 4c3c f32d f4bd
00000040: 518c 333e 88c0 89bd 5b98 233e 7982 1cbe
00000050: 0f20 20be 55ce a7bc c34f eebd fe29 adbd
00000060: 2563 d83d b179 05be 8de4 1f3e f87f c83d
00000070: 0c63 9abd e191 333e 6048 8ebd 3163 31be
00000080: d19b 0bbe 8171 0a3e 2262 e6bb 2948 c73c
00000090: 73e9 a03d 00fd b03d 081c 003d b469 093e
000000a0: 61be 7d3d 97e7 07bd 6fb4 6e3d de2b 57be
000000b0: 54c4 5d3d ab04 2fbc 8d76 2abe 2633 513d
000000c0: 530f 993d 4b8f 3ebe 14f5 e3bd c456 c73a
000000d0: 6896 10be e811 c73d e1f5 14be ad96 0fbe
000000e0: cbe7 d3bc 859d 793d b402 213e 1e6f 82bc
000000f0: 6ea8 cf3d e13c 3b3a 95ef 323e 4298 05bd
00000100: b420 183e 1f79 df3d 1430 29be e70c 39be
00000110: de63 89ba cda3 b33d f660 b3bd 9378 0dbe
00000120: b426 463d d280 f53d a0fa fc3d 6c5a 2ebe
00000130: acdb de3b 3591 0cbd 4076 29be 3494 ac3d
00000140: 4fd5 bc3d 9fd4 a3bd facf 9b3d 2d6e 5b3c
00000150: ade0 09ba 2e74 debd af74 29bd 194a d8bc
00000160: 668c 92ba 20a2 8f3d 4718 d2bc b770 b13d
00000170: bfc0 1f3e 0331 143d b136 ae3d e2ba edbc
00000180: 93f4 8fbd c19d 90bd 94bd af3d e4a5 0dbd
00000190: adc3 6d3d af54 9fbd 410c 75bd 5f04 e9bd
000001a0: 71bd a3bd 4837 46be 8829 01be 36bc 153d
000001b0: 41d1 893c 16f2 8b3d fe1b 003e a12a 88bd
000001c0: a533 003e ab4c 63bd dd62 94bd 1d9d d8bd
000001d0: 28d2 a3bd 9dad 84bc c1b0 4abb a421 2abd
000001e0: e2c7 acbc cc75 a73d 1bfb a3bd 3959 a7bd
000001f0: 525a d53c 1307 3e3e 1f26 173e 8c33 c9bd
00000200: 9dc6 9fbd 8f3d ec3c 2460 1b3e 6482 14bc
00000210: 06dc 9b3d 237a eb3d 5a87 17be 788e 59bd
00000220: 9a85 353d da1f 71bd f8aa c53d 976a 343e
00000230: ae95 e7bd 8b24 12be d8b2 39be f481 24bc
00000240: 7e44 073e b49b 7a3d 859f 543e 08a7 4ebe
00000250: a216 ad3d 2b85 263d dea2 b33c bab2 73be
00000260: 82f1 113e 2230 333e 7ad5 e6bd 1dd6 383c
00000270: 1adb c3bd f0ca a53d af79 0dbe 538c 1fbc
00000280: 9ffc 293e 28b3 e93c 1c4e bdba 89c6 4a3d
00000290: c28e 3dbe ff0a 30be f371 34be df7e a6bc
000002a0: cd36 3b3e a188 bebd d42e 32bc d1db 4d3d
000002b0: 6b5f c93c d4b8 fe3d 0ab2 23be 4b41 00be
000002c0: f690 2c3e 8760 81bd 4886 253e a3a8 4dbe
000002d0: 016e 07be fd34 b83d 9502 07be 42e8 043d
000002e0: ba01 fabd bc55 963b fdc2 023e b246 a63d
000002f0: 2591 80bd 680f 09be fc46 debd 74ea 273e
00000300: e527 2d3e 72a5 033e fe0f 4c3e 04a3 e73c
00000310: f5bb 80bc 9899 c63d 4eb1 273c ff7e 24bd
00000320: 2cb7 563b e4fd fb3c 30c1 a23d 903f bdbd
00000330: 75be a33d a334 12be 2298 e53d 5297 42be
00000340: 969c 5b3e ee23 bbbd a968 11bc 6801 05be
00000350: 888d 023d 5948 0fbb 77be c2bc 5f81 57be
00000360: b3c6 383d 27c4 08be 35f2 24be 316e c1bd
00000370: 454b f63d a309 033e eec2 813d 860d c43d
00000380: 42a7 34be 363e 523e 7866 fbbd bc12 46be
00000390: ccc2 7b3d ac75 60be 7cee ad3d cb16 a9bd
000003a0: 34af 2bbe 87cb 82bd 3bc4 8bbd d616 d4bb
000003b0: 24e8 113e 269a 48bd f9a1 8a3d a4ec 04be
000003c0: 08c7 ed3d 75be 3fbe 3c2e 263d b71c 69bd
000003d0: 7849 27be 9712 cc3d 5bd4 0cbe a815 02bd
000003e0: 4afa 7d3d d1c9 3b3e 7680 1e3e 292e a03d
000003f0: 955a b5bd 840b 413e d208 7ebd a3aa d13d
-0.20427664 0.092613265 -0.15891793 0.099165685 -0.13686024 0.07969977 0.17429554 -0.02390241
0.05643594 -0.13634332 0.10430341 0.13663013 -0.004255671 -0.11148483 0.012467507 -0.119228266
0.17533995 -0.067261755 0.15976088 -0.15284146 -0.1563723 -0.020484129 -0.11636307 -0.08455275
0.10565785 -0.13034703 0.15614529 0.09790033 -0.07538423 0.17536117 -0.06947398 -0.17322995
-0.13633658 0.13519861 -0.0070307413 0.0243264 0.07857027 0.08642006 0.031276733 0.13419229
0.061949138 -0.033179846 0.058277544 -0.21012828 0.05414231 -0.010682265 -0.16646786 0.05107417
0.07473626 -0.1860935 -0.11130729 0.0015208353 -0.14119875 0.09720212 -0.1454692 -0.14022322
-0.025867363 0.060941238 0.15723687 -0.015922125 0.10139547 0.00071425556 0.17474206 -0.032615907
0.14856225 0.10911774 -0.16522247 -0.18071328 -0.0010482033 0.08771477 -0.08758728 -0.13815527
0.048376754 0.11987461 0.123524904 -0.1702668 0.0068010893 -0.034318168 -0.16549015 0.08426705
0.09220373 -0.07999539 0.07608028 0.013392967 -0.00052596146 -0.10862003 -0.041371044 -0.02640252
-0.0011180758 0.07013345 -0.025646342 0.08664077 0.1560087 0.036179554 0.08506525 -0.029019777
-0.07029071 -0.07061339 0.08581081 -0.034582034 0.05804794 -0.07779824 -0.05982614 -0.11377787
-0.079951175 -0.19357026 -0.12613499 0.036556445 0.016823413 0.068332836 0.12510678 -0.06648756
0.12519701 -0.05549304 -0.07245419 -0.10576842 -0.079990685 -0.016196067 -0.0030928107 -0.04153599
-0.021091405 0.08176765 -0.08006879 -0.08171315 0.026044045 0.18557386 0.14760636 -0.09824285
-0.07801554 0.028837947 0.15173393 -0.009064291 0.076103255 0.11497905 -0.14797726 -0.053114384
0.044316866 -0.058868267 0.0965175 0.17618786 -0.11307846 -0.14271753 -0.1813463 -0.010040749
0.13209721 0.061183646 0.20763977 -0.20180905 0.084515825 0.040654343 0.021928247 -0.23798648
0.14252284 0.1749883 -0.11271186 0.011281517 -0.09563275 0.08095348 -0.1381595 -0.009738046
0.16600274 0.028527811 -0.0014442834 0.049505744 -0.18511489 -0.17191695 -0.17621593 -0.020324169
0.18282624 -0.09303404 -0.0108754225 0.05025846 0.024581632 0.12437597 -0.15985885 -0.12524907
0.16852173 -0.06317239 0.16164505 -0.20083861 -0.13225557 0.08994482 -0.13184579 0.03244806
-0.122073606 0.004587857 0.12769695 0.08118953 -0.06277684 -0.13384783 -0.10853383 0.1639803
0.1690975 0.12856081 0.19927976 0.028275974 -0.015714625 0.096972644 0.010235144 -0.040160175
0.0032762988 0.030760713 0.07947004 -0.09240639 0.07995311 -0.14277892 0.11210658 -0.19003037
0.21446452 -0.091377124 -0.008875051 -0.12988818 0.031873256 -0.002186319 -0.023772461 -0.21045445
0.04511137 -0.13356076 -0.1610802 -0.094448455 0.12026075 0.12796645 0.06336008 0.09572892
-0.17641929 0.20531544 -0.12275404 -0.19343084 0.06146507 -0.21919888 0.08492753 -0.082563005
-0.16766053 -0.06386476 -0.06824537 -0.006472449 0.14248711 -0.048975132 0.06769175 -0.12980896
0.11610228 -0.18724997 0.040571436 -0.05691215 -0.1633662 0.09964483 -0.13752882 -0.031758934
0.062006272 0.18338706 0.15478691 0.07821304 -0.08855168 0.18852049 -0.06202013 0.102376245

model.decoder.convs.0.root_lin.weight f4 [32, 32]
00000000: 1107 fa3c c732 f0bb 0073 ae3d cf34 37be
00000010: 3e10 49be 89ae 0dbe 4f79 bebd 3eeb 9abc
00000020: b14c 8c3d fbd2 953c 1617 51bd 0561 12be
00000030: ced9 2ebe 7c3d b0b9 c810 a13d f0e0 bbbd
00000040: 3208 443e 2090 6cbd ff09 fa3b 6e74 25be
00000050: eaea d13d 3943 ce3c ca23 7e3b 2a31 f43d
00000060: d9a7 e4bd b72c 0cbc 9d78 1b3e 1651 363e
00000070: 0c08 92bd 3ea8 6c3d 9688 73bd 5cca 5abe
00000080: 0651 ee3c 1ca8 963d 0981 8b3d 710a 8cbc
00000090: 109d 13be 695a 823d 118f 1c3e 6acb 07be
000000a0: b154 d7bd 3440 36be 4b6e aebd 3c46 9f3d
000000b0: f543 33bd 8907 8c3c 84cc a03c 0f90 c73d
000000c0: 2502 85bd b1b8 37be 66c1 80bd ef45 a3bc
000000d0: 291b 903d 9dfd 4c3e 3010 0fbe 90ce cb3c
000000e0: 78b3 3dbd 7ba5 08bd c419 aabc 964d 95bd
000000f0: 8781 2dbe 7da9 8cbc 5d47 613e 245a b0bc
00000100: 269e 26bd 7fa9 42be c067 fbbd c519 17bd
00000110: 17e4 9d3d da1a c73d d640 e7bd eee6 84bd
00000120: 5cab aa3c 0781 b8bd 7e26 0abe b567 de3d
00000130: d6d9 303c 2f13 9fbd cbfa 043e a222 01be
00000140: 7519 0fbe 29cb 80bc a3d4 0dbe b73e 693d
00000150: fe9b 11be e6db 293d 0271 183e 0506 8ebc
00000160: 95c9 993d ab0f 10be 96ec e3bc 300a b2bd
00000170: a0f0 953d 6ef3 313e e14d 133e 9dc9 f03d
00000180: 81ce b33b ecbd 913c 6ea8 8ebc 0f28 3cbd
00000190: 2802 f03d 7323 0abe 5193 1fbd 2b59 d5bd
000001a0: 6b4e 253e 94c8 103e 5813 9cbd ac66 cf3d
000001b0: c5f0 3abe 59b5 ce3d 8cec 063e 052d 9bbd
000001c0: 4be4 18bd a3ec 1c3d 9be3 5c3e 2c4d 883c
000001d0: 6cf3 e1bd 3103 1ebe 1aa3 26be a469 5bbe
000001e0: 0f35 9abc 77e4 c6bc 5f3f 2abe 6194 0cbe
000001f0: cf80 8e3d 9123 84be 4b55 77bc 07a6 433d
00000200: 57c5 d63d 9fa4 10be 0a52 733d f5ca 3b3e
00000210: 679f a4bd a761 10be 0f6e 22be b5b8 ac3c
00000220: dc85 3a3e d55a 0cbc 055b 923d 4dfd abbd
00000230: 2f2f c13d 729e f3bb c86f eb3d 93d9 56bd
00000240: 5269 15bd ad5a 1e3e fc0e 9f3d a059 f13c
00000250: ee69 3dbd 091f 943d bb25 4bbc a674 92bd
00000260: 6b3b 303e 8a4e e83b 2696 1cbe f02a 3f3e
00000270: db6e 1e3e e4c8 9c3d 4eca a53d 6d14 afbd
00000280: ac79 58bd 5f4a 3b3c 5436 ea3d 62cc f2bd
00000290: 4051 99bd 7a78 f03d 3b8a 4bbe fb00 19bd
000002a0: 9d34 95bc 5319 a6bd e135 5dbe da29 aa3d
000002b0: 372a 38be ed2c 6b3d ad74 4fbe bd5c 33be
000002c0: de84 e6bd 7d70 9b3d 6ea7 363d 5b67 e4bd
000002d0: ba7e f13d 2fa0 4abe 4f40 89bd 76c6 fcbd
000002e0: 3b1b 9f3d 7bf5 c73d 4736 c1bd 2bcc b4b9
000002f0: 89f3 a73d 72ab 8fbd 9e11 28bd 9f9c 423d
00000300: 02a4 8fbd 4631 0c3e 0c68 f53d 588b 493e
00000310: 920a 023e 383b 26be 8c32 3dbd b028 febd
00000320: 3dd7 97bd e686 44bc 1c4f e7bd fa38 0f3d
00000330: e524 963d 13d3 743d c17f 553d c608 29be
00000340: 1912 c3bd 325b 5d3e 0103 263d e717 5fbe
00000350: 7970 1bbe 596a 7abd c74c 49be fd53 5ebe
00000360: 827d 593e 2c57 cf3d 14b1 1ebe 51e5 14bd
00000370: 7a30 86bd 3d28 b8bb b071 61be 8f88 713c
00000380: f8a8 963c 5e9f 5d3d 34db 0bbd 014e 2c3d
00000390: e972 ad3c 49f8 6abc 8009 c5bd ce76 8cbc
000003a0: a8df 36be a31d 05be 0677 bd3d 8586 523d
000003b0: 98cc 033d bbda 29bd 646f b2bc 6c12 2dbe
000003c0: c994 083e 7134 42be 585e 53ba b4a4 97bc
000003d0: fdaa 28be ebfd 1f3e dc6b c43c e81a 393d
000003e0: dcad 603d 999e ad3d 5ab0 df3d 92ff 973c
000003f0: 7c8f ff3c c87b 4b3e bd86 0e3d eade 41be
0.030520948 -0.007330272 0.08518028 -0.17891239 -0.19635102 -0.13836111 -0.093004815 -0.018911
0.06850565 0.01828908 -0.051047407 -0.14294823 -0.17075273 -0.00033615145 0.07864529 -0.09173763
0.19143751 -0.057754636 0.007630586 -0.16157696 0.102498844 0.025178539 0.0038778656 0.1192344
-0.11164827 -0.008555583 0.15182729 0.1780437 -0.07130441 0.057777636 -0.05945643 -0.21366256
0.02909137 0.07356283 0.06811721 -0.017094823 -0.14415383 0.063649006 0.1528895 -0.1326119
-0.105142005 -0.17797929 -0.085171305 0.07777068 -0.04376598 0.017093437 0.01962877 0.09744274
-0.0649455 -0.17941548 -0.06286888 -0.019930808 0.070364304 0.20018621 -0.13971019 0.02487877
-0.046313733 -0.03336094 -0.02076424 -0.07290189 -0.16943942 -0.017170662 0.21999879 -0.021527357
-0.040678166 -0.1900997 -0.12275648 -0.03688981 0.0770952 0.097219184 -0.11291663 -0.06489359
0.020833664 -0.09008985 -0.13491246 0.10859624 0.010794124 -0.07767331 0.12986295 -0.12610868
-0.13974555 -0.015721874 -0.13850646 0.056944575 -0.14219663 0.041469477 0.14886859 -0.017336855
0.07509152 -0.14068477 -0.027822774 -0.08693349 0.07321286 0.17378017 0.14385177 0.11757205
0.0054872637 0.017790757 -0.017414298 -0.04593664 0.11719161 -0.13490085 -0.03895885 -0.10417398
0.16143195 0.14139014 -0.07620877 0.10127005 -0.18255909 0.10093183 0.13176173 -0.07576946
-0.037327092 0.03831161 0.215712 0.01663836 -0.11032757 -0.15430905 -0.16273156 -0.21427017
-0.018824128 -0.024278862 -0.16625737 -0.13728477 0.06958162 -0.25808385 -0.015096019 0.047765758
0.10486858 -0.14125298 0.05940441 0.1833914 -0.08038216 -0.14099751 -0.15862297 0.021084169
0.18215126 -0.008566578 0.07146267 -0.08397923 0.09432828 -0.0074346596 0.1149593 -0.05245359
-0.036477394 0.15464278 0.0776653 0.029461682 -0.0462436 0.07232482 -0.012399132 -0.07151155
0.17210166 0.0070894407 -0.15291652 0.18668723 0.15471976 0.07655504 0.08095227 -0.08548818
-0.05285041 0.011431306 0.114361435 -0.11855389 -0.074862 0.11741729 -0.1987695 -0.03735445
-0.018213565 -0.08110299 -0.21602584 0.08308764 -0.17984854 0.05741589 -0.20259352 -0.17515846
-0.11255811 0.07589815 0.044593267 -0.11152526 0.11791749 -0.19787668 -0.06701719 -0.12342541
0.07768866 0.097636186 -0.09434181 -0.00034484392 0.082007475 -0.070151225 -0.041032426 0.047512647
-0.07013704 0.13690671 0.11982736 0.19682062 0.12699345 -0.16233528 -0.046190783 -0.12410104
-0.074141 -0.011995053 -0.11294386 0.034966446 0.07331256 0.05977161 0.05212379 -0.16507253
-0.09524936 0.2161682 0.04053021 -0.21786462 -0.15179624 -0.061136577 -0.19658194 -0.21711726
0.21239284 0.101240486 -0.15497237 -0.036351506 -0.06552215 -0.005620031 -0.22016025 0.014742031
0.018391117 0.054107063 -0.034144595 0.042066578 0.021172957 -0.014341422 -0.096209526 -0.017146494
-0.17858756 -0.12999587 0.092512175 0.05139782 0.032177538 -0.041468363 -0.02178163 -0.16901559
0.13338007 -0.18965317 -0.00080630695 -0.018511154 -0.16471477 0.15624206 0.023977213 0.045191675
0.054853305 0.08477516 0.10922308 0.018554483 0.031196348 0.19871438 0.034796465 -0.18932691

model.decoder.convs.1.bias f4 [32]
00000000: 911e ff3c 3913 6b3c 7806 3f3d 20ef 573d
00000010: 3dcb 723c 8496 debc 6987 c5bc 9573 f63b
00000020: 24e5 b3bb bc58 f63b 794e f23c e172 4a3d
00000030: 751f 0e3d 27b1 323d d067 933c d2e2 d53b
00000040: 2913 573d 38ab dd3c 1ef8 9dbc 38ea 253d
00000050: 8895 293d 79e2 413d 997c 86bc 6945 01bc
00000060: 3a9a 9839 1eda 333c bd56 b13c 0930 efbb
00000070: c914 62bb dfa6 33bc cd5c c73c 11b0 363d
0.031142505 0.014347845 0.04663703 0.05271828 0.014818964 -0.02717138 -0.02411242 0.0075211027
-0.005489962 0.007517902 0.029578434 0.049425963 0.03469797 0.043625977 0.017993838 0.006527283
0.052508507 0.027059183 -0.01928335 0.04050657 0.04140237 0.04733512 -0.016416835 -0.007890084
0.00029106607 0.010977296 0.021647805 -0.0072994274 -0.0034497252 -0.010965078 0.024336243 0.044601504

model.decoder.convs.1.lin.weight f4 [32, 32]
00000000: 0cea 5a3d 58b1 59be 5cbd 943d 03cd 2ebd
00000010: a4f9 9ebd 5907 7cbd 6add 683e cb62 0abc
00000020: f4c3 dfbd baf8 23bd 6c4f 273e 71f0 cc3d
00000030: 4e89 573e 079a 613c 129b cfbd aa1d c13b
00000040: 1cd7 d23c db97 87bd 74ab 293e 58f2 16be
00000050: 5d5f 5f3e 2b9a 7bbc 77e3 293e 1d71 c1bd
00000060: 84b8 f23a 5b40 41bd a29f 5d3e 4881 1c3e
00000070: 120c 393e 9eb1 32be bd84 4f3e c5e8 583d
00000080: 2f03 25be adb0 3bbd 1f7f e83c f9ee 253e
00000090: 966c 5fbd 2fec 2abd 900b c53d 6ff9 d2bc
000000a0: 4b6b 973d d128 abbc 50c6 a33c 289e b2bd
000000b0: 3f9e 07be 6f31 a8bd 506e fd3d 49c8 9e3d
000000c0: 470d 94bb 43a2 a83d f8bf d4bb e167 80bd
000000d0: 8c1d bebc f272 c3bd 6c88 cdbd f011 09be
000000e0: b6ca 3ebc 9a28 3d3e 3f8e f1bd 4af8 cabc
000000f0: 582f 923d e55c f0bd 46db c93d 9504 c43d
00000100: e74a 10bd e81c 96bd f6a4 213e 3701 0abe
00000110: 3281 ebbc 1a9a 7a3d 5795 063e eb33 a7bb
00000120: faf4 d43d 3b11 cd3d 6a34 0f3e 1247 2d3e
00000130: 44cf 45be 98f7 c8bd b36d f23d 1cc0 a5bd
00000140: 28e2 dabb c486 f73d 25aa 823d aedf 513d
00000150: 28ba 583d 62df cebd 5a12 a3bd 8354 1c3e
00000160: 110d f7bc 0eb3 d73d d55e 213e 6bfc 05bc
00000170: 0862 9abd 3dbb c23d 3bdc f03c 4756 dabd
00000180: 1b5e 23be 9668 09be eb82 05be c7c0 8bbd
00000190: 4ffb c93d 1b5d ecbd 880b 55bd 7350 0abe
000001a0: e1a3 b43b b686 0dbd f26e d5bd d086 d03d
000001b0: 255b 623e 00c3 0bbe 4345 c6bd 9961 8f3d
000001c0: 1565 21be e440 773d 858c 7fbd 676a 35bd
000001d0: b8ec 66bd f931 b83c b1a8 86bd 8f21 3dbc
000001e0: 1550 8b3d bbe0 c5bd a345 043e 6fad 10bd
000001f0: daf1 b73d cef6 3cbd c2c5 223e 7bff e3bd
00000200: f5bf 38be 3c6b af3c 3eeb 103d 2aca 953b
00000210: 46eb e63d 6ec0 763d a0d1 053e e41d 4cbe
00000220: defa 3abe 5e51 43be 836b 863d 61a2 ee3d
00000230: b5f3 bc3d 36fd bf3d 78d9 f73d 04e6 a2bc
00000240: c3c9 21bd dd3d b93d 2fef 05be 33e4 ca3c
00000250: 7c1a 8b3d f3c3 43be 8694 0dbc 8780 59bd
00000260: 49d5 273d 24e0 39bd 91df 86bd c885 c5bd
00000270: 5aa6 02be f9df e0bd 1f11 8dbd 4fe6 5b3d
00000280: 5daf 22be 9979 c2bd 10fa a93c 2fc5 3dbe
00000290: 4f62 94bd 6432 21be 1a86 90bd d22d 8b3d
000002a0: 7d76 93bc e1cf a5bb 448d f53c 16ac dbbc
000002b0: 55ac 2bbe e6fc d4bd a87c d7bb d4b7 003e
000002c0: bf6e 4abd 5a6d 953d 11f1 14bc cd3c e83d
000002d0: 804b 2abd 5338 21be b99a 2fbe cb90 da3a
000002e0: 40e3 f33b 6767 e83d bc50 a03c 45e8 913c
000002f0: 050e 2fbc ed18 433c 3e9b cd3d 382c 663d
00000300: 40a2 9e3d f24d cabd 36cd ab3d a81c 603d
00000310: f702 a83d f28c c2bd a538 d4bd e871 063d
00000320: e8ee 60bd ce44 cebd 9c7d 053d 5371 ddbd
00000330: 4238 d43d 79eb 47bd 1d3e 4d3c 8c5a 0d3e
00000340: f508 1cbe 54d3 e13d 5e82 183e 1964 7dbd
00000350: 45c9 12be 0228 5cbd 3648 3cbd 38c9 933d
00000360: b62f 0f3e 9f93 00be d4fc 1bbd a9ba cdbd
00000370: ae1c 1d3d b73d 40bd 2835 f53d 280a e6bc
00000380: 7d0e c53d 20cd 23be e8e2 11bc b125 233e
00000390: d951 05be 71c2 d0bd cab4 ea3b be66 3bbe
000003a0: de04 fcbd b494 023e aa47 4d3c a850 143e
000003b0: 32e7 3c3e df85 dabb 3159 45bd 01f4 d7bd
000003c0: b9d5 f1bd 23b9 c33d 22a3 02be cfba 163e
000003d0: 3b78 d73d 399e fb3d 3292 06be 698b a93d
000003e0: 8431 07be 4af9 333c 5d47 1fbe b077 b33d
000003f0: 3825 483e 9dc4 81bc 0b5b ec3d a4b4 9bbd
0.05344586 -0.21259058 0.0726268 -0.042675983 -0.07762459 -0.061530445 0.22740713 -0.008446406
-0.10926047 -0.040032126 0.16338891 0.10006798 0.21048471 0.013769633 -0.10136999 0.005893429
0.025737338 -0.06620761 0.1656931 -0.14740884 0.21813722 -0.015356581 0.16590677 -0.09445403
0.0018518125 -0.047180515 0.21642926 0.15283692 0.1807101 -0.17450568 0.2026548 0.05295636
-0.16114496 -0.045822788 0.028380929 0.16204442 -0.054546915 -0.04172915 0.09621346 -0.025753705
0.073935114 -0.020893486 0.019992024 -0.08721572 -0.1324396 -0.08212554 0.12374556 0.07753045
-0.0045181843 0.08234074 -0.006492611 -0.06269813 -0.023207448 -0.095434085 -0.10035786 -0.13385749
-0.01164501 0.1847252 -0.117947094 -0.024776597 0.07137936 -0.11736468 0.09856276 0.095711865
-0.035227682 -0.07329732 0.15785584 -0.13477026 -0.028748129 0.06118212 0.13142906 -0.0051026247
0.10398288 0.10013052 0.13984838 0.16921642 -0.19317347 -0.0981285 0.1183733 -0.080932826
-0.006679792 0.120862514 0.06380109 0.05123871 0.052911907 -0.10101201 -0.07962485 0.15266614
-0.030157598 0.10532199 0.15758832 -0.008177857 -0.07538229 0.09508369 0.02940189 -0.10660987
-0.15953867 -0.13418803 -0.13038222 -0.06823879 0.098623864 -0.11541196 -0.05201295 -0.13507251
0.0055127 -0.0345523 -0.10421552 0.101819634 0.22105081 -0.13648605 -0.096811794 0.07001037
-0.15761216 0.06036462 -0.06238987 -0.044290926 -0.056378096 0.022484766 -0.06575144 -0.0115436455
0.06802384 -0.096620046 0.1291719 -0.03532165 0.089816764 -0.04613381 0.15895751 -0.111327134
-0.18041976 0.021413438 0.035380594 0.004571219 0.112753436 0.06024211 0.13068247 -0.19933277
-0.1825976 -0.19074008 0.06563475 0.11652065 0.09226171 0.09374468 0.12102026 -0.01988507
-0.039499056 0.090450026 -0.13079523 0.024767017 0.06792161 -0.19117717 -0.008641368 -0.05310109
0.04097489 -0.045379773 -0.06585611 -0.096446574 -0.1275877 -0.109802194 -0.06888031 0.053686436
-0.15887208 -0.09495849 0.020749122 -0.18532251 -0.072453134 -0.15741879 -0.07056828 0.06795849
-0.018000836 -0.0050601815 0.029974587 -0.026815455 -0.16764958 -0.10399799 -0.0065761395 0.12570125
-0.049422022 0.07296248 -0.009090678 0.11339722 -0.04157591 -0.15744142 -0.17148866 0.0016675232
0.007442862 0.113478474 0.019569747 0.01781095 -0.010684495 0.011907798 0.10039376 0.056194514
0.077457905 -0.09878148 0.0838875 0.05471483 0.082036905 -0.094995394 -0.103623666 0.032823473
-0.05491534 -0.10071717 0.032590494 -0.108126305 0.10362293 -0.04880855 0.012527016 0.13804072
-0.15237792 0.11026636 0.14893481 -0.06186304 -0.1433459 -0.053749092 -0.045967303 0.07216114
0.13983044 -0.12556313 -0.038082913 -0.10045368 0.03835743 -0.046933856 0.119730294 -0.028081015
0.09621904 -0.15996218 -0.008904196 0.15932347 -0.13019504 -0.10193337 0.007162665 -0.18300912
-0.12305616 0.12752038 0.012529293 0.14483893 0.18447569 -0.0066687907 -0.048180763 -0.10544587
-0.118083425 0.095567964 -0.12757543 0.147197 0.10520979 0.12286038 -0.13141707 0.082785435
-0.13202482 0.010984728 -0.15554567 0.08763063 0.19545448 -0.015840823 0.115408026 -0.07602814

model.decoder.convs.1.root_lin.weight f4 [32, 32]
00000000: dea8 22be a3a4 44be b91b 673d c8ca c83d
00000010: 40f3 1c3e b78e 363e a5d8 653e c09a 16be
00000020: bcab 98bd cc05 24bb 0c31 313e 2a6c 3f3d
00000030: 19ae 643d 0639 a4bd aaa8 2ebe 8820 32be
00000040: 6058 a93d dbab ddbd da99 fcbd 8299 1a3c
00000050: e06d 3dbd 7b61 95bd 5f7a 26be 243f de3c
00000060: cd71 433e dd95 7fbd 3070 fabd a299 12be
00000070: bf39 4d3d 7378 6c3c 0fb6 fd3d 0fc3 91bd
00000080: 274e 353e f895 933d 1574 b8bd b43f 1ebe
00000090: ca45 0abd 76c9 95bd 0217 39be 8656 93bd
000000a0: 75e6 9d3d 7cbc f9bb 9db7 1e3e 9e2d 43bd
000000b0: 4ae2 9a3d d202 14be aaf8 1cbe c0a1 18be
000000c0: 8e8f 0e3e 30ed 873d f572 2b3d 15e6 b6bd
000000d0: a5a0 80bd 00f2 adbd 455d 31bc ba76 0cbe
000000e0: f865 b0bb 4e4e 14be 157e c43d f2ad 173e
000000f0: 0d46 be3d 783f d9bc e948 afbd 9e01 3abd
00000100: 4bef 17bc e7d9 68bb b1f0 1abe 730e 3d3e
00000110: af3a 8e3d 09fe c5bd 1055 6a3e 6779 0ebe
00000120: 95a1 03be a583 7a3e 3ad7 bc3d 4e1a 5abd
00000130: df75 663e a26f 8dbd 9f48 07be 6375 84bd
00000140: d796 d13d fffc 80bc 388b ef3c 309a cabd
00000150: ebf1 2c3e 1ca6 aa3c e220 c53d 755e 1e3e
00000160: f15b 273d 3b17 853c 9153 4c3e 2d29 68bc
00000170: 6269 933e bba3 7cbd caef a43d bd38 673e
00000180: d4ad e6bd 62d7 a2bd 34de 24bc 06c6 a73d
00000190: 7bae 313e 9ce2 12be ef16 50bd 8a48 933c
000001a0: 3732 083e c94d c9bd 19f3 b93a e52f 65bb
000001b0: 3914 fdbd 7be3 1bbe 29a2 5f3e ee25 7b3d
000001c0: 5e07 96bd 6b5c 4cbd ecc9 c1bd e902 f93d
000001d0: 6517 3b3e 165d 1e3e 379c 59bd 82b0 01bc
000001e0: 29ee 3b3e 86b4 403e b4fb acbd 18c1 283e
000001f0: f7da 5bbe 2953 c8bd 5f0d 253c 32d3 5cbd
00000200: 78fe a9bb 2141 343d f7b3 773d 3222 ca3c
00000210: 2303 c5bd 6f6e 34be dd05 283e 99ae 77bd
00000220: 692b 4f3e b2d0 a63d a7fc 20be ad84 dc3d
00000230: fb1e 1c3e 5707 f6bd 12c9 1fbd 7b21 1c3e
00000240: 8379 463c 1e05 4f3d 49c3 143e 8b42 a5bd
00000250: cf89 903d f5eb f0bd f395 8b3d 42c7 b5bb
00000260: 96f0 74bc 0e65 8ebd b079 94bc f882 1abe
00000270: 342c 1c3d bf03 3cbc bd57 19be 8aa4 6c3e
00000280: ebc4 edbd 62c9 00be a177 dcbd ad51 52be
00000290: 81a8 f83d 5b01 86b9 e982 893d 184b 123e
000002a0: 4aba 38be 3791 2c3d 6d2d 2b3d 33e3 0dbd
000002b0: d342 09be 84ac 09be 9fcb 14be 6438 b7bc
000002c0: 155f b83d 73b7 773d c8b3 45be e875 c8bd
000002d0: de19 ac3c bb16 a5bd 068a 023e bb2f 65bd
000002e0: 1762 093e 1c35 0abe 5dcc cd3d 0725 88bd
000002f0: 1d3a ccb9 d04e 84bd 61ff cdbd 8ef4 123e
00000300: c2d5 bd3d 33de febd 9285 20be fbaf 573d
00000310: 7b5e 933d 7785 d53d 858c 28be 894b f7bd
00000320: 56ce 89bd 12fd debd 818c 26be 1278 a13c
00000330: f464 3a3e 6a09 1e3c f6f7 23be ebae babc
00000340: abfc ab3d 8903 453e 5e07 36be b4f5 9a3d
00000350: 756b e93d e030 b83d 2ceb fb3d 918f 0abe
00000360: 7ec6 19be 88bc 463e b2d0 febd 7ca8 313a
00000370: 5477 babd ba51 04be fd72 01bc 46f3 a53d
00000380: 6172 0cbe 32e0 2abd cbe7 6dbd 4997 0b3d
00000390: 3467 343e 27b6 7c3d c5d3 103d c537 8e3c
000003a0: b5f3 ed3a ef6d ccbd 6863 063e ca76 f3bd
000003b0: 830d c9bc b24a fa3b ee8c 2cbe b101 10be
000003c0: f70f 06be a0dc d1bd 400e c13d b736 b6bd
000003d0: d52a f93d 9231 863d 7f57 9dbc 85bb 7e3d
000003e0: 7d6e 813d 5a65 ecbd 58e2 87ba 680a a4bd
000003f0: ed54 ac3d d73c 7bbc 503f 0f3e 6457 a83c
-0.1588473 -0.19203429 0.056422923 0.098043025 0.15327168 0.17827879 0.22445925 -0.1470747
-0.07454631 -0.002502787 0.17303866 0.046734013 0.055830095 -0.08018689 -0.17056528 -0.17395222
0.08268809 -0.108237945 -0.12334032 0.009436013 -0.046247363 -0.072939835 -0.16257618 0.027129717
0.1908638 -0.06239878 -0.12228429 -0.14316419 0.0501039 0.014433014 0.123882405 -0.071172826
0.17705594 0.07206339 -0.09006516 -0.15453988 -0.033757962 -0.07313816 -0.18075183 -0.071942374
0.07709972 -0.007621346 0.1549973 -0.047650926 0.075626925 -0.14454201 -0.15329233 -0.14905453
0.1392195 0.06637037 0.04185768 -0.089306034 -0.062806405 -0.084934235 -0.01082546 -0.13717166
-0.0053832494 -0.14482996 0.09594361 0.14812449 0.09290705 -0.026519522 -0.085588284 -0.0454117
-0.0092733605 -0.003553027 -0.15130879 0.18462543 0.06944787 -0.09667594 0.22884011 -0.13913499
-0.12854607 0.24464281 0.09220739 -0.053247742 0.22505902 -0.06906058 -0.13211296 -0.06467702
0.102338485 -0.015745638 0.02924119 -0.0989269 0.1688916 0.02083116 0.096254125 0.1546572
0.040859167 0.016246429 0.19953753 -0.014169973 0.28791338 -0.061679583 0.08053549 0.22580238
-0.11263624 -0.07951237 -0.010062743 0.08192067 0.17351715 -0.14344257 -0.05080312 0.017978925
0.13300405 -0.098292895 0.0014186829 -0.0034971174 -0.12357373 -0.15223496 0.21839203 0.06131547
-0.07325624 -0.049892824 -0.09462342 0.12158758 0.18270643 0.15465197 -0.053127494 -0.007915618
0.1835257 0.18818864 -0.08446446 0.1647991 -0.21470247 -0.097814865 0.010073989 -0.05391235
-0.0051878057 0.044007424 0.060474362 0.024674509 -0.09619739 -0.17620252 0.16408487 -0.060469244
0.20231403 0.08145274 -0.15721379 0.107674934 0.15246193 -0.12013119 -0.039010115 0.15247147
0.012113932 0.05054199 0.1452762 -0.08069333 0.07057535 -0.11763755 0.0681571 -0.005547435
-0.014949938 -0.069528684 -0.018124431 -0.15089023 0.038128093 -0.0114755025 -0.14974876 0.23109642
-0.11609825 -0.12576821 -0.10765005 -0.2053897 0.121415146 -0.00025559482 0.06714422 0.14286458
-0.18039814 0.042130675 0.04179137 -0.034640502 -0.13404398 -0.13444716 -0.145308 -0.022365756
0.090025105 0.060477685 -0.19306862 -0.09788114 0.021008428 -0.08060976 0.12747964 -0.055953722
0.13416325 -0.13496822 0.10048745 -0.066476874 -0.0003895321 -0.06460345 -0.10058475 0.14351103
0.09269287 -0.12444725 -0.15675953 0.052658062 0.07195755 0.10425847 -0.16459854 -0.12074954
-0.067288086 -0.10888113 -0.16264535 0.019710574 0.18202573 0.009645799 -0.16012558 -0.022788486
0.08397802 0.1923963 -0.17776248 0.075663954 0.11397449 0.08993697 0.12300715 -0.13531329
-0.15017125 0.19407856 -0.12442149 0.000677712 -0.09104791 -0.12921801 -0.0079009505 0.08103041
-0.13715507 -0.041717716 -0.058082383 0.034079824 0.17617494 0.06169715 0.03535821 0.017360577
0.0018154295 -0.09981906 0.13123858 -0.118878916 -0.024542576 0.007638299 -0.16850635 -0.14063145
-0.13092028 -0.10247159 0.09426546 -0.08897155 0.12166373 0.065524235 -0.01920676 0.06219055
0.06319902 -0.11542769 -0.0010367138 -0.08009797 0.08414636 -0.01533433 0.13988996 0.020549484
