code/utility notebooks/logs/epoch=2-step=240-v1.ckpt (torch, 173075 bytes, 48 tensors)

model.input_encoder.weight f4 [32, 1]
0	0xbdb9a2d3	-0.090642594
1	0xbcb1e3ab	-0.021715006
2	0xbf21044e	-0.62897193
3	0x3f62a587	0.88533825
4	0xbe320478	-0.17384517
5	0xbe857177	-0.2606313
6	0x3f254ccb	0.645703
7	0xbdd0e390	-0.10199654
8	0x3e78e1e4	0.2430492
9	0x3d5f9134	0.054581836
10	0x3ed215d9	0.41032293
11	0xbf07e317	-0.53080887
12	0x3eb349db	0.35017285
13	0xbf5ca60b	-0.8619086
14	0x3f5cb5f1	0.8621512
15	0x3f7f6cfa	0.9977566
16	0x3e665ff4	0.2249754
17	0xbe0aa570	-0.13539672
18	0xbf6a0d12	-0.91426194
19	0x3b924481	0.0044637327
20	0xbf6f5221	-0.93484694
21	0xbf1b758e	-0.6072625
22	0x3e954b03	0.29158792
23	0x3e2383ab	0.15968196
24	0xbf4831f3	-0.78201216
25	0x3eca5aa9	0.39522293
26	0x3d208524	0.039189473
27	0xbd1467c1	-0.03623176
28	0x3e00e86f	0.12588666
29	0x3f119429	0.568667
30	0x3dd68a09	0.10475547
31	0x3f0e3093	0.5554287

model.input_encoder.bias f4 [32]
0	0xbf4b128c	-0.79325175
1	0x3e85b45d	0.2611417
2	0x3f1801d6	0.593778
3	0x3ecf9d19	0.40549543
4	0x3e1d108f	0.15338348
5	0x3e15e5e3	0.14638476
6	0xbf4da9b6	-0.80337083
7	0x3f063624	0.5242636
8	0xbf12e554	-0.57381177
9	0xbf717e5f	-0.9433345
10	0xbede17e8	-0.43377614
11	0xbf776fd6	-0.96655023
12	0xbf097fc9	-0.5371061
13	0xbf270c23	-0.65252894
14	0x3e413610	0.1886828
15	0x3e33b0ae	0.17547867
16	0xbe93af27	-0.28844568
17	0x3f734c4e	0.95038307
18	0x3f3022c0	0.68803024
19	0xbf84fec5	-1.039025
20	0xbf172dca	-0.59054244
21	0x3d8fe0b3	0.0702528
22	0x3d845a1f	0.06462502
23	0xbf81b634	-1.0133729
24	0xbdf0a258	-0.117497146
25	0x3e652647	0.22377883
26	0xbf192f01	-0.5983735
27	0xbf81aaa6	-1.0130203
28	0xbeb5f385	-0.35537353
29	0x3f4ef6ce	0.80845344
30	0x3d22be29	0.039732132
31	0x3e81eacf	0.25374457

model.encoder.rnn.weight_ih_l0 f4 [96, 32]
0	0xbda3da22	-0.0800059
1	0xbdce6b65	-0.10079078
2	0x3daa4986	0.08314805
3	0x3dfd938b	0.12381657
4	0xbe0a6d22	-0.13518193
5	0xbce2a9c0	-0.027668834
6	0xbde962b1	-0.11395777
7	0xbe374611	-0.17897822
8	0x3e1d9757	0.15389763
9	0xbe043de7	-0.12914239
10	0x3d9c62fa	0.07636066
11	0x3b855a0f	0.0040695737
12	0xbde64797	-0.112441234
13	0xbd4ecf17	-0.050490465
14	0xbd410620	-0.047124982
15	0xbe32651e	-0.17421386
16	0x3e08136c	0.13288659
17	0xbbf3bb19	-0.0074380753
18	0xbd5c5231	-0.05378932
19	0xbd47c6fe	-0.048773758
20	0xbdb58b27	-0.08864432
21	0xbcc02923	-0.023457116
22	0x3c46b758	0.0121286735
23	0xbda3a248	-0.07989937
24	0x3d4db47e	0.05022096
25	0xbdda5189	-0.10660083
26	0xbe0308ba	-0.12796298
27	0x3e2efa0f	0.17087577
28	0x3dc308cc	0.09523162
29	0x3e065c67	0.13121186
30	0xbe2f7a36	-0.17136464
31	0x3be0c265	0.006859111
32	0xbe0a654e	-0.13515207
33	0x3e3a0575	0.18166144
34	0xbe0aaf15	-0.13543351
35	0x3e2e1268	0.16999209
36	0xbdbb0fc6	-0.09133868
37	0xbe18a405	-0.14906318
38	0x3d2d3e44	0.04229571
39	0xbdf25107	-0.11831861
40	0x3de5202d	0.11187778
41	0x3dbe81dc	0.093021125
42	0xbe0f6f4e	-0.14007303
43	0xbe182300	-0.14857101
44	0xbc73c9fc	-0.0148797
45	0xbe228a6b	-0.15873115
46	0x3c77951d	0.015111235
47	0x3e27e599	0.16396178
48	0x3dd07b1a	0.1017973
49	0x3dd4b9b4	0.103869826
50	0xbc8a496a	-0.01688071
51	0xbe10f92e	-0.14157555
52	0x3d99234d	0.07477436
53	0x3d0493a9	0.032367382
54	0x3df9ade0	0.12191367
55	0x3ce472b2	0.027886722
56	0x3dabd7ec	0.08390793
57	0x3dd2dfee	0.102966174
58	0x3d02f31c	0.03197013
59	0xbe1172dd	-0.14203973
60	0x3db95baf	0.090506904
61	0x3dc0bc99	0.09410972
62	0x3e1f2b58	0.15543878
63	0x3d8b576a	0.06803782
64	0x3ca1a136	0.019730192
65	0x3d7f8c3b	0.062389594
66	0x3de4c9a0	0.111712694
67	0xbe31dc7d	-0.17369266
68	0xbe1d79f2	-0.1537855
69	0x3dda2bee	0.1065291
70	0x3c283290	0.010265961
71	0x3dee101b	0.116241656
72	0x3e1fecb1	0.15617634
73	0x3da0235c	0.07819244
74	0x3dab35ee	0.08359896
75	0x3d25eb7b	0.040507775
76	0xbd56c77e	-0.052436344
77	0xbd94d285	-0.07266716
78	0xbdc5cb4a	-0.09657915
79	0xbbdbddff	-0.0067098136
80	0xbe392bbd	-0.18083091
81	0x3e3125d5	0.17299588
82	0xbc8a0329	-0.01684721
83	0x3dd763eb	0.10517105
84	0x3e403991	0.1877196
85	0x3d57cba9	0.05268446
86	0x3de7b7a8	0.113143265
87	0x3d06d0b7	0.03291389
88	0x3d5ec4a1	0.05438674
89	0xbdbd5a79	-0.09245772
90	0x3d9ba02b	0.07598909
91	0xbe0d7d85	-0.13817413
92	0xbd8f9047	-0.070099406
93	0xbe3f48cb	-0.18680112
94	0xbe04f939	-0.12985696
95	0xbe49bfe3	-0.19702105
96	0xbd8489e9	-0.06471617
97	0x3e215571	0.1575525
98	0xbabb39f7	-0.0014284243
99	0x3dc75c22	0.0973437
100	0x3bf787f5	0.007554049
101	0x3cea48ad	0.028599108
102	0x3dbe8aa0	0.09303784
103	0x3dd4aed2	0.10384907
104	0x3d687b00	0.056757927
105	0x3c889059	0.016670393
106	0x3dea6953	0.1144587
107	0xbdba5bdf	-0.09099554
108	0xbdeaed3a	-0.114710286
109	0xbde6f145	-0.11276487
110	0xbe2b3ef6	-0.16723236
111	0xbe2edaac	-0.17075604
112	0xbd989b6a	-0.07451518
113	0x3bd606eb	0.0065315864
114	0x3d1e303e	0.038620226
115	0x3d387f82	0.045043476
116	0x3b7266ac	0.0036987467
117	0x3e463d76	0.19359383
118	0x3c1216ef	0.008916601
119	0x3d8e82d3	0.069585465
120	0xbde54ff0	-0.111968875
121	0x3dc2616f	0.0949124
122	0xbcff8f1b	-0.031196168
123	0x3daaa997	0.08333128
124	0xbd7d88c2	-0.061898
125	0x3e2350a1	0.15948726
126	0xbe404ff8	-0.18780506
127	0xbcc8fde2	-0.024535123
128	0xbdf67b72	-0.12035264
129	0xbd28cef3	-0.041212987
130	0x3d8910db	0.06692668
131	0xbd2dbaa1	-0.04241431
132	0xbe16a10a	-0.14709869
133	0xbd91c251	-0.07117141
134	0x3ccdbc98	0.025114343
135	0xbe1467b7	-0.14492689
136	0x3d965229	0.073398896
137	0x3e0fb13e	0.14032456
138	0x3ce1900f	0.027534513
139	0xbd4e78a0	-0.050408006
140	0xbd35ab02	-0.04435254
141	0x3e492668	0.19643557
142	0xbd8802e2	-0.06641175
143	0xbdd61ac9	-0.104543276
144	0xbe2b6d5e	-0.16740939
145	0x3cc3a5aa	0.023882706
146	0xbe1f39fe	-0.15549466
147	0xbe07a4fd	-0.13246532
148	0x3da1e6e8	0.0790537
149	0x3e35f779	0.17770185
150	0x3bf40513	0.007446894
151	0xbc6542a3	-0.013992938
152	0xbcfb1628	-0.030650213
153	0x3d088ecb	0.033339303
154	0xbd39fd3a	-0.04540751
155	0xbcc420cd	-0.023941422
156	0x3d2a9176	0.04164263
157	0xbe28ae3a	-0.16472712
158	0xbe44ef30	-0.19231868
159	0x3d88cc2b	0.06679567
160	0x3e07936f	0.13239835
161	0xbd92fc4e	-0.071770296
162	0xbd183090	-0.037155688
163	0xbdc64471	-0.09681023
164	0x3e036bb7	0.12834059
165	0x3d713d2c	0.05889623
166	0xbdc5e4ab	-0.096627556
167	0x3d314855	0.04328187
168	0x3cb9396b	0.022610387
169	0x3ce89193	0.028389728
170	0x3d0890ab	0.03334109
171	0xbe2528e0	-0.16128874
172	0x3c008633	0.007844496
173	0xbdbc9112	-0.092073575
174	0x3d8130a7	0.06308108
175	0xbd303cf7	-0.04302689
176	0x3df6d6ae	0.12052666
177	0xbdde5d8a	-0.10857685
178	0x3d49565d	0.049154628
179	0x3dd6492f	0.104631774
180	0x3d8b5ba4	0.068045884
181	0xbde55110	-0.11197102
182	0xbcaacfff	-0.020851133
183	0xbd64d1a1	-0.05586398
184	0xbde1c919	-0.110246845
185	0x3e0b3552	0.13594559
186	0x3e03a6dc	0.1285662
187	0xbde760e7	-0.112977795
188	0x3c7ac468	0.015305616
189	0xbcda7292	-0.02666596
190	0x3e409ed0	0.18810582
191	0xbdb6d7f6	-0.0892791
192	0x3e36e839	0.17862023
193	0xbd2c12f0	-0.042010248
194	0x3e2717aa	0.16317621
195	0xbe51c4a1	-0.20485164
196	0xbe0ef340	-0.1395998
197	0xbdc3a5b7	-0.09553092
198	0xbe0e7dc6	-0.13915166
199	0x3cf3028b	0.029664299
200	0x3cead937	0.02866803
201	0x3e35643e	0.1771402
202	0xbe1bb218	-0.15204656
203	0x3df13f9b	0.1177971
204	0x3b474809	0.0030407927
205	0x3e1afdc9	0.15135874
206	0x3e01406d	0.12622233
207	0x3dc8081f	0.09767174
208	0x3dd9972d	0.106245376
209	0xbdd0cf01	-0.10195733
210	0x3da90271	0.08252419
211	0xbd67cb49	-0.056590352
212	0x3e686907	0.22696315
213	0x3dfac554	0.122446686
214	0x3e05f224	0.1308065
215	0xbda76fd2	-0.08175625
216	0xbd1f62b1	-0.03891248
217	0xbe67cfa6	-0.22637805
218	0xbcfd823b	-0.030945888
219	0x3dcc7c42	0.09984638
220	0x3c899e0d	0.016798997
221	0xbd3d9df1	-0.046293203
222	0xbe5bf26c	-0.21479195
223	0xbe647a19	-0.22312202
224	0xbe2ee6a2	-0.17080167
225	0xbd80ff97	-0.0629875
226	0x3cc3b890	0.023891717
227	0x3d9af2cb	0.0756584
228	0x3e018718	0.1264919
229	0xbe2269d7	-0.15860687
230	0x3df390d4	0.11892858
231	0x3d2f6e87	0.042830016
232	0xbd753580	-0.059865475
233	0x3bcbc462	0.006218479
234	0x3de4689d	0.11152766
235	0xbda4b22e	-0.080417976
236	0xbda67f21	-0.08129717
237	0x3d887aa6	0.06664018
238	0xbd5b9181	-0.05360556
239	0x3de3d7a8	0.111251175
240	0xbe0326dc	-0.12807792
241	0x3a490ca4	0.0007669425
242	0xbd59e368	-0.053195387
243	0xbde83e2c	-0.11339983
244	0x3e0a19d7	0.1348642
245	0x3d35f122	0.044419415
246	0xbcd4189f	-0.025890647
247	0xbd4edfcd	-0.0505064
248	0x3aad128e	0.0013204382
249	0xbce93049	-0.028465407
250	0x3dd0b3e5	0.10190562
251	0x3dbc0a32	0.09181632
252	0x3e1d6228	0.15369475
253	0x3ccb4da1	0.02481729
254	0xbdd81090	-0.10550034
255	0xbdc9a510	-0.09845936

model.encoder.rnn.weight_hh_l0 f4 [96, 32]
0	0xbcf48139	-0.029846774
1	0xbd1e1048	-0.038589746
2	0xbe38946b	-0.18025367
3	0xbd872ce9	-0.06600363
4	0xbda8821f	-0.08227944
5	0x3d520e02	0.05128289
6	0xbe006d8f	-0.12541793
7	0x3d097afc	0.033564553
8	0xbc424ed4	-0.011859614
9	0x3ca0862d	0.01959523
10	0x3dcbf78a	0.09959324
11	0xbcf11623	-0.0294295
12	0xbd586463	-0.05283011
13	0x3bdb33f8	0.0066895448
14	0xbe000c74	-0.1250475
15	0xbe7c68b5	-0.24649318
16	0xbcdbfdf8	-0.0268545
17	0xbe20669e	-0.15664145
18	0x3cc8fc50	0.024534374
19	0x3e15e851	0.14639403
20	0x3db9d9b7	0.09074729
21	0x3da6d942	0.081469074
22	0xbdb2ee60	-0.08736873
23	0x3e66e03a	0.22546473
24	0xbd5d7a66	-0.054071806
25	0xbe342029	-0.17590393
26	0x3da36fde	0.07980321
27	0x3c6a85e7	0.014314151
28	0x3e22c239	0.15894403
29	0xbb8a8811	-0.004227646
30	0x3d1bd460	0.038044333
31	0xbd76654e	-0.060155205
32	0x3e01a80c	0.12661761
33	0x3d05ee71	0.0326981
34	0xbe1eb49e	-0.15498587
35	0x3d123579	0.035695527
36	0x3d5707b1	0.05249757
37	0x3da6b622	0.08140208
38	0x3cd9165c	0.02649992
39	0xbd490fd4	-0.04908736
40	0x3d859dd4	0.06524244
41	0x3e10a250	0.14124417
42	0xbd07cfae	-0.033157043
43	0xbdc5b43d	-0.09653518
44	0x3d96e007	0.073669486
45	0x3dd7026b	0.10498508
46	0xbb130bc9	-0.0022437444
47	0x3d327dde	0.043577068
48	0xbdcd5c38	-0.10027355
49	0xbd0a0fea	-0.033706583
50	0x3d6b5449	0.057453427
51	0x3df16082	0.117859855
52	0x3e0d8342	0.13819602
53	0xbe2b8b30	-0.16752315
54	0x3daf282a	0.085525826
55	0xbde41c87	-0.11138254
56	0x3cb7591f	0.022381363
57	0x3dab038e	0.083502874
58	0xbc814ab1	-0.015782686
59	0x3dd25255	0.1026961
60	0xbc7ea083	-0.015541199
61	0xbda030d1	-0.07821811
62	0x3dc6c70d	0.09705935
63	0xbd339245	-0.043840665
64	0x3df3a9f9	0.11897654
65	0x3e23e70e	0.16006109
66	0x3d478c0d	0.048717547
67	0x3c49e024	0.012321506
68	0x3e03dd53	0.12877397
69	0x3e5144da	0.20436421
70	0x3d6cae53	0.057783436
71	0xbd6b1e67	-0.05740204
72	0xbdae93f0	-0.085243106
73	0x3dec6b94	0.115439564
74	0x3dd8e80b	0.10591134
75	0x3d6c13c1	0.057636026
76	0x3e1aee76	0.15130028
77	0x3e364e42	0.1780329
78	0x3de650e6	0.11245899
79	0xbe38bac8	-0.18040001
80	0x3d729cda	0.059231617
81	0x3e1b66f8	0.15175998
82	0x3deb8270	0.11499488
83	0x3d3f43e2	0.046695597
84	0xbde3e9a7	-0.1112855
85	0xbd32fb7e	-0.043696873
86	0xbe263be3	-0.16233782
87	0x3d251993	0.040307593
88	0xbdcbc098	-0.09948844
89	0x3b95e690	0.0045746043
90	0x3e5a28dd	0.2130465
91	0x3d29c028	0.04144302
92	0x3e2d395c	0.16916412
93	0x3de01e44	0.10943273
94	0xbe2952d9	-0.1653551
95	0x3d8c9408	0.06864172
96	0x3da9cbec	0.08290848
97	0x3e1d55cd	0.15364762
98	0x3e3510c8	0.17682183
99	0x3d95e452	0.07318939
100	0x3e15a13e	0.1461229
101	0x3c4885c3	0.0122389225
102	0xbcfe542b	-0.031045994
103	0xbde38585	-0.11109451
104	0x3d9bdf62	0.07610966
105	0x3da7ec4a	0.081993654
106	0xbdc7aa77	-0.097493105
107	0xbe13444a	-0.14381519
108	0xbd9e60aa	-0.07733281
109	0x3dfac62c	0.122448295
110	0xbdeb41ba	-0.11487146
111	0xbe0f9037	-0.14019857
112	0x3d6fa10a	0.05850319
113	0x3dfcb9a0	0.12340093
114	0x3d9020e6	0.07037525
115	0x3e38847c	0.18019289
116	0xbd169d92	-0.036771365
117	0xbdf0d0cf	-0.11758577
118	0x3da0dbd6	0.078544304
119	0xbd91b570	-0.071146846
120	0x3dab4396	0.083625
121	0xbd5ad0cf	-0.05342179
122	0xbdb40510	-0.08790028
123	0xbdf69968	-0.12040979
124	0x3c61fd19	0.013793253
125	0xbdebd566	-0.11515312
126	0xbd9b6898	-0.07588309
127	0xbd0ab22b	-0.03386132
128	0x3e290ce2	0.1650882
129	0xbd481256	-0.04884561
130	0xbdf578f5	-0.11985961
131	0xbe0781f2	-0.13233164
132	0xbcfeb7f5	-0.031093577
133	0x3e1b417e	0.15161702
134	0xbadb8542	-0.0016748088
135	0xbcca68b9	-0.024708139
136	0x3dbf8b4f	0.09352743
137	0x3d1913f0	0.03737253
138	0x3dd447a8	0.1036523
139	0xbe15518d	-0.1458189
140	0x3e433328	0.19062483
141	0x3db6c4d4	0.08924261
142	0xbc08b89e	-0.008344797
143	0xbde7cce2	-0.11318375
144	0xbd1b5e5b	-0.03793178
145	0xbd0621d6	-0.032747112
146	0xbe24bc77	-0.16087519
147	0xbcf70a46	-0.030156266
148	0xbd6c78e9	-0.057732496
149	0xbdbb475a	-0.091444686
150	0x3d89342e	0.066994056
151	0xbd26433f	-0.040591475
152	0x3e2939be	0.16525933
153	0xbe175ff8	-0.14782703
154	0xbc1947a6	-0.009355461
155	0xbddec97d	-0.108782746
156	0xbd820220	-0.063480616
157	0xbcc38ce5	-0.023870895
158	0x3e2a5af0	0.16636252
159	0xbd821196	-0.063510105
160	0x3dccc0ec	0.099977344
161	0xbcb25c11	-0.021772416
162	0xbe1a4eab	-0.15069072
163	0xbd5489eb	-0.05188934
164	0x3d9297cc	0.07157859
165	0x3ddb5edf	0.107114546
166	0x3de08a28	0.10963851
167	0x3dca8d1e	0.09890197
168	0xbc82ab16	-0.01595072
169	0xbca8af33	-0.020591354
170	0x3e004bc8	0.12528908
171	0x3e08245a	0.13295117
172	0x3e30c43f	0.17262362
173	0x3d36e717	0.04465398
174	0xbe14511d	-0.14484067
175	0x3cf04fdb	0.029334953
176	0x3dd4c6dd	0.10389493
177	0x3dc4400b	0.09582528
178	0x3cf2f56d	0.029658044
179	0x3dbee75b	0.09321471
180	0xbd9dbbd2	-0.077018395
181	0x3d970935	0.07374803
182	0x3aeed5f8	0.0018221727
183	0x3e021eec	0.12707108
184	0x3cfd8414	0.030946769
185	0x3e391cd5	0.18077405
186	0x3cd918a5	0.02650101
187	0xbdb9d305	-0.09073452
188	0x3c7d4c25	0.015460049
189	0xbe199df5	-0.15001662
190	0xbc164ed4	-0.0091740675
191	0xbdc4bf9f	-0.09606861
192	0x3d8d6e11	0.06905759
193	0x3e02c919	0.12772025
194	0xbde3b3a1	-0.11118246
195	0x3e13c54f	0.14430736
196	0x3e026d9f	0.1273713
197	0x3dcb03cf	0.09912836
198	0xbd3dd50c	-0.046345755
199	0x3c8c075c	0.017093353
200	0x3e2e1e5a	0.17003766
201	0xba17088c	-0.00057614665
202	0x3deb0ac9	0.114766665
203	0xbe33ae40	-0.1754694
204	0xbe0160a6	-0.12634525
205	0xbde5e441	-0.112251766
206	0xbe0775c2	-0.13228515
207	0xbe20f187	-0.15717135
208	0x3d7f91a0	0.06239474
209	0x3de4f07a	0.1117868
210	0x3e2492f7	0.16071688
211	0x3d8be929	0.06831581
212	0x3e1bbaeb	0.15208022
213	0xbdbf2d3f	-0.09334802
214	0xbdb4bcdf	-0.08825087
215	0x3c59e645	0.013299529
216	0x3e3e8d21	0.18608524
217	0xbcca20d5	-0.024673859
218	0x3e27aeec	0.16375321
219	0x3e20e6b6	0.15713009
220	0x3d382cc4	0.044964567
221	0xbd07ec69	-0.033184443
222	0x3d173844	0.036918893
223	0xbd3c7774	-0.046012357
224	0x3d7cffb3	0.06176729
225	0x3cbdcdcf	0.023169426
226	0x3de9e10d	0.11419878
227	0xbe3bdffd	-0.18347163
228	0xbe080a6c	-0.13285226
229	0xbd655f81	-0.055999283
230	0xbdbdbd3d	-0.0926461
231	0x3d182f60	0.037154555
232	0xbd4e8817	-0.050422754
233	0x3e08bd3f	0.13353442
234	0xbd9aef51	-0.07565177
235	0x3e0dfb2e	0.13865349
236	0x3d797dea	0.060911097
237	0x3e0857bd	0.1331472
238	0x3e1f03e2	0.15528825
239	0xbdd43be5	-0.103629865
240	0x3c9ff929	0.019527989
241	0xbcde1db1	-0.027113767
242	0x3c649cc2	0.01395339
243	0xbdc12929	-0.09431679
244	0x3e25e07a	0.16198912
245	0x3e0b8c72	0.13627794
246	0xbdc2c462	-0.09510113
247	0xbdd3360a	-0.103130415
248	0xbdc79cc9	-0.09746701
249	0xbc9c5f99	-0.019088553
250	0xbde8aafc	-0.11360738
251	0x3d0d5ca6	0.034512185
252	0x3e030822	0.12796071
253	0xbe0c6042	-0.13708594
254	0xbc53d1af	-0.01292841
255	0x3daffbe6	0.08592968

model.encoder.rnn.bias_ih_l0 f4 [96]
0	0x3bb11eb5	0.005405272
1	0x3e07554c	0.13216132
2	0x3c117e90	0.0088802725
3	0xbd966727	-0.073438935
4	0xbe07f0fa	-0.13275519
5	0x3d8b08c7	0.067887835
6	0xbe13bb54	-0.14426929
7	0x3dd7ccdf	0.10537123
8	0x3e39ac46	0.18132123
9	0xbdf8e0b4	-0.12152234
10	0x3d3e4372	0.04645104
11	0xbd3167c0	-0.043311834
12	0xbde0707a	-0.10958953
13	0xbce3195b	-0.027722051
14	0x3e1dea3a	0.15421382
15	0xbdb1edac	-0.086879104
16	0x3d060403	0.03271867
17	0xbcb5bb57	-0.022184057
18	0x3db558c8	0.08854824
19	0x3dba78ff	0.091051094
20	0x3e2c0b99	0.16801299
21	0x3df5335e	0.11972688
22	0xbdf7ac39	-0.12093396
23	0x3c28e1c5	0.010307734
24	0xbbb84e18	-0.005624544
25	0xbe0974b3	-0.13423423
26	0x3e1eb007	0.15496837
27	0xbbbcc673	-0.0057609617
28	0xbc802e69	-0.01564713
29	0x3e1cf32e	0.1532714
30	0x3e1f6a95	0.15568002
31	0xbe42046c	-0.18947
32	0xbe215aae	-0.15757248
33	0xbd6082b4	-0.05481215
34	0x3d0fb2bf	0.035082575
35	0x3bb57d48	0.0055386163
36	0xbd9223b6	-0.071357176
37	0xbdb9414d	-0.09045658
38	0xbe298f08	-0.16558468
39	0x3da009c7	0.07814365
40	0xbd884986	-0.066546485
41	0xbd282814	-0.041053846
42	0xbe73ba9b	-0.23801653
43	0xbe1f7917	-0.15573536
44	0xbd36120d	-0.04445081
45	0xbdddbdb5	-0.10827199
46	0xbd869758	-0.06571835
47	0xbb70ad99	-0.0036724566
48	0x3d705d85	0.058682937
49	0xbc4db317	-0.012554905
50	0xbe681a15	-0.226662
51	0xbe688050	-0.22705197
52	0xbcff6c2f	-0.031179516
53	0xbe30cc76	-0.17265496
54	0xbdd978dc	-0.10618755
55	0xbdad49b4	-0.084613234
56	0xbd14648a	-0.036228694
57	0xbd69d572	-0.057088323
58	0x3e07d834	0.13266069
59	0x3d87e9e9	0.06636412
60	0xbe14cc2b	-0.14531009
61	0x3e0ce43c	0.1375894
62	0xbe245ca1	-0.1605096
63	0xbca133e4	-0.019678064
64	0xbe36531a	-0.17805138
65	0xbe398140	-0.18115711
66	0x3e31740c	0.17329425
67	0xbe35bcf5	-0.17747863
68	0x3d9760ea	0.07391532
69	0x3dd98b05	0.10622219
70	0xbde68715	-0.112562336
71	0xbd5344fb	-0.051579457
72	0x3d6e48ff	0.058175083
73	0xbcd05b60	-0.025434196
74	0x3e0f0170	0.13965392
75	0x3e132bf6	0.14372239
76	0xbdc55ca9	-0.09636814
77	0xbdeff3e5	-0.11716441
78	0x3cad5fbe	0.021163817
79	0x3db61207	0.08890157
80	0xbcee3b6f	-0.029081075
81	0xbd19f720	-0.037589192
82	0xbc7eb575	-0.015546192
83	0xbcc743f8	-0.024324402
84	0x3de33080	0.11093235
85	0xbe449af9	-0.19199742
86	0xbcee96cb	-0.029124638
87	0x3e3d5fb7	0.18493544
88	0xbe0f93d4	-0.14021236
89	0x3e30c35c	0.17262024
90	0xbe43e3a4	-0.19129807
91	0x3d4cc5fe	0.049993508
92	0x3d920bf2	0.07131185
93	0x3defbfa0	0.117064714
94	0x3bb7685b	0.005597157
95	0x3e3952fb	0.18098061

model.encoder.rnn.bias_hh_l0 f4 [96]
0	0xbe14c58d	-0.14528485
1	0x3e299af5	0.16563018
2	0x3dc646f2	0.096815005
3	0xbd9e854e	-0.077402696
4	0x3b689c2b	0.0035493474
5	0x3e357b81	0.17722894
6	0xbe404394	-0.18775779
7	0xbcd6929a	-0.026192952
8	0xbcad019c	-0.021118931
9	0xbd63997a	-0.05556629
10	0xbdd3a853	-0.1033484
11	0xbdded468	-0.10880357
12	0xbe0fcbe5	-0.14042623
13	0x3e0dec2a	0.1385962
14	0x3dc0b860	0.09410167
15	0xbdf7f5f8	-0.12107462
16	0x3c668c8c	0.014071595
17	0x3e5e882c	0.21731633
18	0x3d78fa63	0.060785662
19	0x3d749f32	0.059722133
20	0x3e40c56c	0.1882531
21	0x3db5457b	0.08851143
22	0x3e415ddc	0.18883461
23	0x3d94fc59	0.07274694
24	0x3e12e31f	0.14344452
25	0xbe313b68	-0.17307818
26	0x3db25675	0.087078966
27	0x3de494bf	0.111611836
28	0xbe150ec1	-0.1455641
29	0x3e1bda31	0.15219952
30	0xbdc083ba	-0.09400125
31	0xbe283473	-0.16426258
32	0xbdccca31	-0.099995025
33	0xbd7eafa3	-0.06217922
34	0xbc8946a1	-0.016757311
35	0xbe2a6723	-0.16640906
36	0xbe58ba92	-0.21164921
37	0x3d809ba3	0.06279685
38	0xbe2712d5	-0.16315778
39	0x3ca160cd	0.019699479
40	0xbe58b151	-0.21161391
41	0x3d9b7769	0.07591135
42	0x3bc22320	0.0059245974
43	0xbe1624a5	-0.14662416
44	0xbe446706	-0.19179925
45	0xbd9dc8a9	-0.077042885
46	0x3d60a652	0.054846115
47	0xbe68d72c	-0.22738332
48	0x3d7257c6	0.05916574
49	0xbd34b8e1	-0.044121627
50	0xbb1941da	-0.0023385198
51	0xbde33f04	-0.11096004
52	0xbe28b808	-0.16476452
53	0x3e12c3e5	0.1433254
54	0xbe46d493	-0.19417028
55	0xbd706928	-0.058694035
56	0xbe14ab0c	-0.14518374
57	0x3d0f480e	0.034980826
58	0xbd25d625	-0.040487427
59	0xbdb44e8c	-0.08804044
60	0xbdbe50ba	-0.09292741
61	0x3e038dc0	0.12847042
62	0xbc7a4b1a	-0.015276695
63	0xbe611787	-0.21981631
64	0xbe349c5e	-0.17637774
65	0x3d1e1134	0.038590625
66	0x3dfe4f2c	0.124174446
67	0x3d27d32b	0.04097287
68	0x3d112752	0.03543789
69	0xbe29a3b3	-0.16566353
70	0x3c3f94f1	0.011693225
71	0x3d10354d	0.03520708
72	0xbe088f86	-0.13336
73	0xbc4c24e5	-0.012459968
74	0x3e2358c8	0.15951836
75	0xbd43e8b4	-0.047829345
76	0x3d4ca35b	0.049960475
77	0xbdad1b48	-0.08452469
78	0xbd90fa1b	-0.07078954
79	0x3c7a194c	0.01526482
80	0x3d9083cd	0.07056389
81	0x3da8d13d	0.08243034
82	0x3c942cb2	0.018087719
83	0x3dd39545	0.10331205
84	0x3bddb6f6	0.0067661954
85	0xbde46a9f	-0.11153149
86	0x3d80f4dd	0.06296704
87	0xbe19938a	-0.14997688
88	0xbdf56585	-0.11982254
89	0xbdcc168e	-0.099652395
90	0xbd8aa0e1	-0.067689665
91	0x3de29b4b	0.11064776
92	0xbe2b0a69	-0.1670319
93	0xbde60037	-0.1123051
94	0xbd3b5d7b	-0.045743447
95	0x3dd34479	0.103157945

model.decoder.convs.0.bias f4 [32]
0	0xbbe22ae2	-0.0069020847
1	0xbc013d20	-0.0078881085
2	0x3d542b56	0.05179914
3	0x3c733a71	0.0148454765
4	0x3d81278d	0.06306372
5	0x3c7a8431	0.015290306
6	0x3cab88e3	0.020939296
7	0x3d280994	0.04102476
8	0x3d1f750a	0.038929977
9	0x3c76bc67	0.015059567
10	0xbc8a2c82	-0.016866926
11	0xbc04b330	-0.008099362
12	0x3bb5f94e	0.005553401
13	0xbc5da2ca	-0.0135275815
14	0x3ce55b59	0.02799766
15	0x3d0e889d	0.034798253
16	0x3d2ca751	0.042151753
17	0xbba7c315	-0.005119691
18	0x3d06f9a5	0.032952923
19	0x3c231416	0.009953519
20	0x3bc066a4	0.0058716107
21	0x3c6fe70d	0.014642489
22	0x3d4831b5	0.04887553
23	0xbb638e9c	-0.0034722453
24	0x3d30d951	0.043176
25	0x3d053397	0.032519903
26	0xbbdf30c9	-0.0068112356
27	0x3d0f135b	0.03493057
28	0xbcc090ea	-0.0235066
29	0xbcb93ee4	-0.022612996
30	0x3d39374d	0.045218755
31	0xbc4dc1a5	-0.0125583755

model.decoder.convs.0.lin.weight f4 [32, 32]
0	0xbcd152c9	-0.02555217
1	0x3e34cfea	0.17657438
2	0xbda59959	-0.08085889
3	0xbd05c8a1	-0.032662038
4	0x3d5d65e2	0.05405224
5	0x3c8f526d	0.017495358
6	0xbcfb5da1	-0.030684294
7	0x3d183dbf	0.03716826
8	0x3d0f4986	0.034982227
9	0x3e2bbb61	0.16770698
10	0x3e3b2cc7	0.182788
11	0x3dc7e826	0.09761076
12	0x3db3aedf	0.087735884
13	0xbd96477b	-0.073378526
14	0x3dbff2f5	0.09372512
15	0x3c6eb98c	0.014570605
16	0x3dd4eeac	0.103970855
17	0xbcf4bc0d	-0.029874826
18	0xbd448416	-0.04797753
19	0xbd271ae1	-0.040797118
20	0xbd3915c4	-0.045186773
21	0x3ddb8c08	0.10720068
22	0x3d811dad	0.06304488
23	0xbe26a37c	-0.16273302
24	0xbe3fd99e	-0.18735358
25	0xbdab13f7	-0.08353417
26	0xbe0ab688	-0.13546193
27	0xbd011e66	-0.03152313
28	0x3d0637ea	0.032768168
29	0x3d683d76	0.05669924
30	0xbe267422	-0.16255239
31	0x3de58826	0.11207609
32	0xbe232916	-0.15933642
33	0xbd88afc7	-0.06674152
34	0xbc3fd7e2	-0.011709185
35	0xbd3f8546	-0.04675796
36	0x3c807909	0.015682714
37	0x3caa69d3	0.020802414
38	0x3df5c2a1	0.12000013
39	0xbd40a1af	-0.047029193
40	0x3a4f03a2	0.00078969647
41	0xbcd2ac47	-0.025716914
42	0xbd23dc01	-0.040004734
43	0x3d16b5e1	0.036794547
44	0xbdb54d9f	-0.08852696
45	0x3e359054	0.17730838
46	0x3e01669e	0.12636802
47	0xbdd275a0	-0.102763414
48	0xbb6fa50f	-0.0036566888
49	0xbbf89d4b	-0.00758711
50	0xbe02e273	-0.12781696
51	0xbd2b595f	-0.041833278
52	0x3dbdc2db	0.09265681
53	0x3be34323	0.0069354936
54	0xbe0f51cd	-0.13996048
55	0xbd0e7a8c	-0.03478484
56	0x3e5a8b2f	0.21342157
57	0x3daee488	0.085396826
58	0xbe13c9b9	-0.1443242
59	0x3d80a78a	0.062819555
60	0x3dce67e7	0.100784115
61	0x3e0ca8e6	0.13736305
62	0xbd8eb1ff	-0.06967544
63	0xbd8d98b5	-0.06913892
64	0x3c93018c	0.017945074
65	0xbe027694	-0.12740546
66	0xbdb3e62d	-0.08784137
67	0x3dba24b4	0.09089032
68	0x3db9da5c	0.09074852
69	0xbcb2f40b	-0.021844884
70	0x3e40f07b	0.18841736
71	0xbe4ece82	-0.20195964
72	0x3dc17ca6	0.09447603
73	0x3dc6935d	0.09696076
74	0xbd819980	-0.06328106
75	0x3e3e5bf7	0.1858977
76	0xbdab4a96	-0.083638355
77	0xbd92b9a2	-0.07164313
78	0x3cd543d2	0.026033316
79	0x3e89b080	0.2689247
80	0xbc072b05	-0.008250003
81	0xbe1b6ee1	-0.15179016
82	0x3e13a4d6	0.14418349
83	0x3d050cec	0.032483026
84	0xbd8dc3bd	-0.069221
85	0x3dd7bc14	0.1053392
86	0x3dfc606d	0.12323079
87	0xbe2e56c5	-0.17025287
88	0x3da3f88f	0.08006393
89	0x3c90d2b9	0.017678605
90	0xbd7f786d	-0.062370706
91	0xbdead8ec	-0.11467156
92	0xbce0c9c3	-0.027439957
93	0x3ddcdea4	0.10784653
94	0xbe10ed21	-0.14152957
95	0x3d9813d0	0.07425654
96	0xbe0bbe15	-0.1364673
97	0xbe12e13a	-0.1434373
98	0x3e1baf38	0.1520356
99	0x3e0a7abd	0.13523383
100	0x3e45c5a6	0.19313678
101	0xbe4761de	-0.19470927
102	0x3dcd5764	0.10026434
103	0xbe1c3634	-0.15255052
104	0xbdae8095	-0.08520619
105	0xbe3c272c	-0.18374318
106	0x3dfab008	0.122406065
107	0xbe025c79	-0.12730588
108	0x3da6fdd8	0.081538856
109	0xbdea4fb3	-0.11440983
110	0xbdc7bbee	-0.097526416
111	0xbd1c46fd	-0.038153637
112	0x3e20964a	0.1568233
113	0x3ce8187e	0.028331991
114	0x3d2d28fc	0.042275414
115	0x3e28e098	0.16491926
116	0xbd97d7f9	-0.074142404
117	0xbd617dca	-0.055051602
118	0x3df7371b	0.120710574
119	0xbe3ac174	-0.18237859
120	0x3e1288ba	0.1430997
121	0x3e10e514	0.14149886
122	0xbe2bfdf2	-0.16796091
123	0x3e1c5d05	0.15269859
124	0x3e2095f1	0.15682198
125	0x3da21d96	0.07915799
126	0x3e25f275	0.16205771
127	0x3d87e1e9	0.06634886
128	0xbe2576b7	-0.16158567
129	0x3d10b122	0.035325177
130	0xbb3628b0	-0.0027795248
131	0xbd6b7bb1	-0.05749101
132	0xbc9ab642	-0.018885735
133	0xbcfd4648	-0.030917302
134	0x3e450a85	0.19242294
135	0x3d0e8211	0.03479201
136	0xbc920fdb	-0.017829826
137	0x3d573579	0.05254123
138	0x3dff848b	0.124764524
139	0x3e153fd0	0.14575124
140	0xbd56c947	-0.052438047
141	0xbdd8ad62	-0.10579945
142	0xbe6381d5	-0.22217496
143	0x3c702000	0.014656067
144	0xbde92294	-0.113835484
145	0xbd89748f	-0.06711685
146	0xbe074849	-0.13211168
147	0x3d91a4fa	0.07111545
148	0xbe25e151	-0.16199233
149	0xbd935609	-0.07194144
150	0x3c965556	0.018351238
151	0xbd81b022	-0.06332423
152	0xbe2a0873	-0.16604786
153	0x3e1c5cb9	0.15269746
154	0xbd8fb613	-0.0701715
155	0x3dd785ba	0.10523553
156	0xbcf5e12c	-0.030014597
157	0x3e292057	0.16516243
158	0x3d397a4e	0.045282654
159	0x3de85d3d	0.11345909
160	0x3df93c60	0.12169719
161	0xbe3a24fc	-0.18178171
162	0x3e24cca0	0.16093683
163	0x3bc07451	0.005873241
164	0x3e4b477e	0.19851491
165	0xbd8a7744	-0.06761029
166	0x3de4bcbe	0.11168812
167	0xbdad7966	-0.084704205
168	0x3dbedb3b	0.09319159
169	0xbdaa3861	-0.08311535
170	0x3d41b34d	0.047290135
171	0x3d29253d	0.04129528
172	0xbcd16e91	-0.025565417
173	0x3d443808	0.047904998
174	0x3d3687ae	0.044562988
175	0x3e1d09f3	0.15335827
176	0x3da10d30	0.078638434
177	0xbd947735	-0.072492994
178	0xbdca8654	-0.09888902
179	0xba4ffebc	-0.0007934382
180	0x3bff5298	0.0077918284
181	0x3e2ce81c	0.16885418
182	0xbdf479fe	-0.11937331
183	0xbe3ddccb	-0.18541257
184	0x3e625aa0	0.22104883
185	0xbe0a9ce3	-0.1353641
186	0x3dd01c35	0.1016163
187	0x3e31030f	0.17286323
188	0x3e196441	0.1497965
189	0x39307d93	0.00016831448
190	0x3da7551f	0.081705324
191	0xbca6ba75	-0.020352582
192	0xbe28464b	-0.16433065
193	0x3d0db0e4	0.034592524
194	0x3e019bcd	0.1265709
195	0x3e481361	0.19538642
196	0x3ca234fb	0.019800654
197	0x3e0fbdaf	0.14037202
198	0x3dad4dc4	0.08462098
199	0xbd5f8df6	-0.054578744
200	0x3d764e4d	0.060133267
201	0x3cac9356	0.021066349
202	0x3c0b1698	0.0084892735
203	0x3bfc5981	0.0077010994
204	0xbe25db71	-0.16196992
205	0xbe58b725	-0.21163614
206	0x3cbbdd1f	0.022932587
207	0x3e342414	0.17591888
208	0x3e3d403b	0.18481533
209	0xbd7f3692	-0.0623079
210	0x3e2a998d	0.16660137
211	0xbd855a18	-0.06511325
212	0x3e0e95de	0.13924357
213	0x3d93a0bc	0.07208392
214	0x3e2a3c33	0.16624527
215	0xbe33ead9	-0.17570056
216	0x3e2b1cd4	0.16710216
217	0xbd80c722	-0.062879816
218	0x3de50bd8	0.111839
219	0xbd6e0911	-0.058114115
220	0x3e0e1ae2	0.13877442
221	0xbc9131c2	-0.017723922
222	0x3d9e9779	0.07743735
223	0xbd721d98	-0.059110254
224	0xbdf99c89	-0.1218806
225	0xbe1fe657	-0.15615211
226	0x3d6df44c	0.058094308
227	0x3d6ad7b8	0.05733463
228	0xbe0fabb2	-0.1403034
229	0x3d5405d6	0.051763378
230	0x3dc69931	0.09697188
231	0x3d30f05b	0.04319797
232	0xbc21654d	-0.009850812
233	0x3d0d0700	0.034430504
234	0x3d1d9327	0.038470414
235	0xbdd32abc	-0.10310885
236	0x3d989928	0.07451087
237	0x3db4fd90	0.08837426
238	0xbdbe2557	-0.09284466
239	0x3e0cc297	0.13746105
240	0x3d42b8bd	0.04753946
241	0xbd32ef90	-0.043685496
242	0xbe07f697	-0.1327766
243	0x3e0f29c4	0.13980776
244	0xbe528f9f	-0.205626
245	0x3dee9456	0.116493866
246	0x3e33eb08	0.17570126
247	0xbd2bd69a	-0.041952707
248	0x3e3432b3	0.17597465
249	0x3df38301	0.118902214
250	0xbca0c49c	-0.019625
251	0xbba95ea9	-0.005168755
252	0xbd97d73d	-0.074141
253	0xbdd588fb	-0.104265176
254	0x3e4c5ed8	0.19958055
255	0x3ca3c981	0.019993545

model.decoder.convs.0.root_lin.weight f4 [32, 32]
0	0xbdaa0530	-0.08301771
1	0x3e20d803	0.15707402
2	0xbe04ef6a	-0.12981954
3	0x3e2294de	0.15877101
4	0xbd964a39	-0.073383756
5	0xbe0ef4ef	-0.13960622
6	0xbdf4eed0	-0.11959612
7	0x3d1ffd61	0.03906
8	0x3e160ed7	0.14654098
9	0xbbb6871d	-0.005570306
10	0x3c8ffebe	0.017577525
11	0xbe3b83ba	-0.18311968
12	0xbd8b4af6	-0.06801407
13	0xbbecf89f	-0.0072317864
14	0xbdd2f30c	-0.10300264
15	0xbd9022f7	-0.07037919
16	0x3d538c99	0.051647756
17	0xbe2a0b15	-0.1660579
18	0x3dbda8db	0.09260722
19	0x3cd20fbd	0.02564227
20	0x3de91983	0.11381819
21	0xbd7ad6d2	-0.061240025
22	0xbdb46264	-0.08807829
23	0xbd97acdc	-0.07406017
24	0x3dfb67ab	0.122756325
25	0xbdd1d593	-0.10245814
26	0x3e26dac2	0.16294387
27	0x3d1f7939	0.038933966
28	0xbe091484	-0.13386732
29	0xbd1d851c	-0.03845702
30	0xbe1f2271	-0.15540482
31	0xbd83ee9b	-0.06441995
32	0x3d9a87fa	0.07545467
33	0x3e1d208e	0.1534445
34	0x3cfefe3b	0.031127086
35	0x3df0d875	0.11760036
36	0x3d21cf97	0.039504614
37	0xbd5d473f	-0.054023024
38	0xbd2cccc0	-0.042187452
39	0x3d76de18	0.0602704
40	0x3e360ecf	0.17779087
41	0xbd6ec21b	-0.058290582
42	0xbe180686	-0.14846238
43	0xbe168bc2	-0.14701751
44	0xbb6d3549	-0.003619509
45	0xbdfa3e11	-0.122188695
46	0x3e00d5ef	0.12581609
47	0x3cddb4f4	0.027063824
48	0xbd3f123e	-0.046648256
49	0xbd54516f	-0.051835474
50	0x3db20940	0.086931705
51	0x3ca456b5	0.020060876
52	0x3de1de7e	0.11028765
53	0x3dd83f77	0.1055898
54	0x3c2dc281	0.010605455
55	0xbda500fb	-0.08056828
56	0xbd057663	-0.032583605
57	0xbe27917a	-0.16364089
58	0xbe274c00	-0.16337585
59	0xbd57447b	-0.052555542
60	0xbd914484	-0.070931464
61	0xbd8c9bb0	-0.068656325
62	0xbe1920a7	-0.14953862
63	0x3d741e29	0.059599075
64	0x3d1f9409	0.038959537
65	0xbe177f1d	-0.14794584
66	0xbd4b5c10	-0.049648345
67	0xbe283625	-0.16426904
68	0xbe3b2d17	-0.18278919
69	0x3d942035	0.072327055
70	0xbdac2e3c	-0.08407256
71	0x3c1dd689	0.009633669
72	0xbde8238f	-0.11334907
73	0x3d6f5625	0.058431763
74	0x3d5ef5c9	0.054433618
75	0x3d238376	0.039920293
76	0x3d530a7d	0.051523674
77	0xbd8f5d8d	-0.07000265
78	0xbd7e1b2f	-0.062037643
79	0x3dadd571	0.08487976
80	0xbdd02ae3	-0.1016443
81	0xbe142e45	-0.14470775
82	0xbe22e164	-0.15906292
83	0x3e64ddc5	0.22350223
84	0xbe285fde	-0.1644282
85	0xbe4fdd10	-0.20299172
86	0x3db70817	0.0893709
87	0x3df593d6	0.11991088
88	0x3cc22053	0.023697054
89	0x3e041485	0.12898453
90	0xbd808661	-0.06275631
91	0x3d0fd70b	0.03511719
92	0x3df4a9e4	0.119464666
93	0x3dc3230d	0.0952817
94	0xbdaa2961	-0.08308674
95	0xbc0af544	-0.008481327
96	0x3d264eda	0.040602542
97	0xbe089ae6	-0.13340339
98	0xbd46831b	-0.048464876
99	0xbde9237d	-0.11383722
100	0x3d16f865	0.03685798
101	0xbd13d238	-0.036089152
102	0xbd62958e	-0.055318408
103	0x3d9802cc	0.074224085
104	0xbe44d575	-0.19222052
105	0xbcc20986	-0.023686182
106	0x3ce2b009	0.02767183
107	0x3d97b009	0.07406623
108	0xbe03c979	-0.12869824
109	0xbdfb147b	-0.12259766
110	0x3e00d3a8	0.1258074
111	0x3d812393	0.06305613
112	0x3e02707a	0.12738219
113	0x3e0f9b72	0.14024141
114	0x3d8250ec	0.06363091
115	0x3dd2c7fe	0.10292052
116	0x3bc6827b	0.006058035
117	0xbe292089	-0.16516317
118	0x3e601023	0.21881156
119	0x3d83d2d7	0.06436699
120	0x3e370d4c	0.17876166
121	0xbd06d5fb	-0.03291891
122	0x3d2cc3bb	0.04217885
123	0xbd917dd2	-0.071040764
124	0x3d046d9e	0.0323311
125	0x3da0e9ad	0.0785707
126	0x3db55cab	0.08855566
127	0xbd3bc0c3	-0.04583813
128	0x3d5997f5	0.053123433
129	0xbdadc9fc	-0.08485791
130	0x3d7a3207	0.061082866
131	0xbe648033	-0.22314529
132	0xbd91dbf6	-0.07122032
133	0x3e457f12	0.19286755
134	0xbe7a7785	-0.24459656
135	0x3e76584a	0.24057117
136	0x3d856d99	0.06515045
137	0x3b1f187d	0.002427607
138	0x3e7b7a2e	0.24558327
139	0x3dffd340	0.124914646
140	0x3e493a4e	0.19651148
141	0x3e4fae0e	0.2028124
142	0xb9fa88c4	-0.00047785614
143	0xbc9ab830	-0.018886656
144	0x3e51cbde	0.20487925
145	0xbe49455f	-0.19655369
146	0xbe70f89f	-0.23532341
147	0xbd42c4b3	-0.04755087
148	0xbd5f9bcc	-0.05459194
149	0xbda46cc8	-0.08028561
150	0x3dcd6ddc	0.1003072
151	0x3e17f025	0.14837702
152	0x3d6edf16	0.05831822
153	0x3d494816	0.049141012
154	0xbdd83e22	-0.10558726
155	0xbe1f1f5e	-0.1553931
156	0x3ca67c7c	0.02032303
157	0x3e0bcc18	0.13652074
158	0xbdaffb8a	-0.08592899
159	0x3e744eae	0.23858139
160	0xbc811f46	-0.015761983
161	0xbdbc3d19	-0.09191341
162	0xbde1219b	-0.10992738
163	0xbdcc12e5	-0.09964541
164	0x3e600644	0.2187739
165	0xbe3c778f	-0.18404983
166	0x3e03ddc5	0.12877567
167	0xbd119735	-0.035544593
168	0xbe22bfa5	-0.15893419
169	0x3b0eb54d	0.0021775544
170	0x3c403c3a	0.011733109
171	0x3c1326a5	0.008981382
172	0xbe2bbc21	-0.16770984
173	0xbdccbb98	-0.09996718
174	0x3b0f0585	0.0021823358
175	0xbdf33810	-0.118759274
176	0x3d333515	0.043751795
177	0x3d216585	0.039403457
178	0x3dbe7bf5	0.09300987
179	0x3e456720	0.1927762
180	0x3e08cefa	0.13360205
181	0x3cb1203b	0.021621814
182	0xbd0c90da	-0.03431783
183	0xbd0331b2	-0.032029815
184	0x3db9a9bb	0.09065577
185	0x3e46615a	0.19373074
186	0xbe46bfd3	-0.19409113
187	0xbd16aa51	-0.03678352
188	0x3dad0cd9	0.08449716
189	0x3b8549b5	0.0040676245
190	0xbc3b15e9	-0.011418798
191	0xbe260cad	-0.16215773
192	0xbd96364d	-0.07334576
193	0xbe3eb34d	-0.18623085
194	0x3e0f6df6	0.1400679
195	0x3d6d8594	0.05798872
196	0x3cc826a5	0.02443249
197	0x3c5956f1	0.013265357
198	0x3e481258	0.19538248
199	0x3c18aadb	0.009318079
200	0x3de30ebc	0.11086795
201	0x3c5d5a26	0.013510263
202	0xbd4df79d	-0.05028497
203	0x3df559e2	0.119800344
204	0xbc274c02	-0.010210993
205	0x3cedf663	0.02904815
206	0xbd9071fe	-0.07052992
207	0x3e196ddd	0.14983316
208	0x3db175aa	0.08665021
209	0xbd35339b	-0.044238668
210	0x3e47f1cf	0.19525836
211	0xbdc7a0f4	-0.09747496
212	0x3e18f9ea	0.14939085
213	0x3e344590	0.17604661
214	0xbddaa695	-0.10676304
215	0xbd1327f2	-0.035926767
216	0x3e4c1db0	0.199332
217	0xbd391db8	-0.045194358
218	0xbd422b7c	-0.04740475
219	0x3dff1a58	0.124561965
220	0xbc54d404	-0.012990002
221	0x3c9e7258	0.019341633
222	0x3e810349	0.2519782
223	0xbe8bdc10	-0.27316332
224	0xbdb70f25	-0.089384355
225	0xbe495aa8	-0.19663489
226	0x3d3683f4	0.044559434
227	0x3e1a9c6b	0.15098731
228	0x3e4e7b1f	0.20164154
229	0x3d45b265	0.048265833
230	0x3d82de98	0.06390113
231	0xbe6e8110	-0.23291421
232	0xbe297914	-0.16550094
233	0x3db70627	0.0893672
234	0xba9a0ed6	-0.0011753689
235	0x3e431949	0.19052614
236	0xbda2cfa9	-0.07949764
237	0x3d94402c	0.07238802
238	0xbdc7708f	-0.09738266
239	0xbbbf29d5	-0.005833844
240	0x3db6aa59	0.0891921
241	0x3d1dc288	0.038515598
242	0xbda4e3c1	-0.08051253
243	0x3e45b52c	0.19307393
244	0xbd9d7328	-0.0768798
245	0x3e15d47f	0.14631842
246	0x3e3306fb	0.17483132
247	0xbe72b901	-0.23703386
248	0x3ce82aa0	0.028340638
249	0x3e5387f2	0.20657328
250	0xbe3f6429	-0.18690552
251	0xbdb7b05f	-0.08969187
252	0x3e013326	0.12617168
253	0x3e59db54	0.21275073
254	0x3e20bc0d	0.15696736
255	0xbe0eda79	-0.13950528

model.decoder.convs.1.bias f4 [32]
0	0x3c536a7e	0.012903808
1	0x3d62a1b3	0.05532999
2	0xbd206c7f	-0.03916597
3	0x3ccc2106	0.02491809
4	0x3d286fa9	0.041122112
5	0x3d37c705	0.044867534
6	0x3cf5e5d6	0.03001682
7	0x3d27b23d	0.040941466
8	0x3d18c148	0.037293702
9	0x3d726a86	0.05918362
10	0x3d4dc9f0	0.05024141
11	0x3d2d6dbe	0.042340986
12	0xbc8f0da9	-0.017462568
13	0x3d119d94	0.03555067
14	0x3cd42301	0.025895597
15	0x3abce7dd	0.0014412362
16	0xbbb61d2f	-0.005557678
17	0x3c4b971b	0.012426163
18	0x3ce0298a	0.027363557
19	0xbc679614	-0.0141349025
20	0x3d1aac97	0.03776225
21	0x3c858ec1	0.016303422
22	0x3d2801d9	0.041017387
23	0x3cf03e33	0.029326534
24	0x3ccb385b	0.024807146
25	0x3d28919d	0.041154493
26	0xbc2bdb7e	-0.010489343
27	0x3d38f642	0.045156725
28	0xbc211c4a	-0.009833405
29	0x3d2bf75b	0.041983943
30	0x3d1bcd96	0.03803786
31	0xbd3ab1ea	-0.04557983

model.decoder.convs.1.lin.weight f4 [32, 32]
0	0x3c0018ea	0.00781844
1	0x3da4cb11	0.08046544
2	0x3e0e7b67	0.13914262
3	0x3dfe3409	0.12412269
4	0xbd096954	-0.033547714
5	0x3e0b59f6	0.13608536
6	0xbe094996	-0.13406977
7	0xbd919e2e	-0.071102485
8	0x3ded9929	0.116014786
9	0x3e47f25e	0.1952605
10	0x3d8a769b	0.067609034
11	0x3da1cf7a	0.07900901
12	0xbe28ee83	-0.16497235
13	0x3df148ae	0.11781441
14	0x3e053f05	0.13012321
15	0x3e067d50	0.1313374
16	0x3e21ff65	0.15820082
17	0x3d9cd1a8	0.07657176
18	0x3d75657b	0.059911232
19	0x3e00bc53	0.1257184
20	0x3e2c00e4	0.16797215
21	0xbdeba7bc	-0.11506602
22	0xbdefbfbe	-0.11706494
23	0xbd46bae3	-0.048518073
24	0xbdba45e8	-0.09095365
25	0x3e194776	0.14968666
26	0xbe006ba6	-0.12541065
27	0x3d895227	0.067051224
28	0xbe051c21	-0.12999012
29	0x3db54799	0.08851547
30	0xbdd29f18	-0.10284251
31	0xbe02b04d	-0.12762566
32	0x3dc4ccab	0.0960935
33	0xbe0ef4f1	-0.13960625
34	0x3e4d8c8c	0.20073146
35	0x3e2fba09	0.1716081
36	0xbdba65a5	-0.091014184
37	0x3dce09fe	0.100604996
38	0x3cd3bed4	0.02584783
39	0x3e472c9f	0.19450615
40	0x3e467bd8	0.1938318
41	0x3e35eddf	0.17766522
42	0xbde4b2bf	-0.111669056
43	0x3c2b8c43	0.010470453
44	0xbb2dcc38	-0.002651943
45	0xbd914983	-0.070940994
46	0x3df727d4	0.120681435
47	0x3e68bada	0.22727528
48	0x3ca98c77	0.020696862
49	0x3df9365e	0.12168573
50	0x3c4eafec	0.012615185
51	0x3e4193e2	0.18904069
52	0xbb28ce00	-0.0025757551
53	0x3de1fd97	0.110346965
54	0xbdc0114d	-0.093783
55	0x3e587d51	0.21141554
56	0xbdd6b3f6	-0.104835436
57	0x3c3943da	0.011307681
58	0xbd9c1a95	-0.076222576
59	0x3e21e178	0.15808666
60	0xbd97ec03	-0.074180625
61	0x3c255cf4	0.0100929625
62	0x3e589dec	0.21153992
63	0xbe272940	-0.1632433
64	0x3d37dff1	0.0448913
65	0x3d00fede	0.03149306
66	0xba70759a	-0.00091727974
67	0xbe1fcdaf	-0.15605806
68	0xbe4569d6	-0.19278654
69	0x3e2c0cfd	0.1680183
70	0x3ddaee9e	0.10690044
71	0x3dc0720e	0.09396754
72	0xbdc01715	-0.093794025
73	0xbdce6200	-0.10077286
74	0x3d3791a5	0.04481663
75	0xbe350a28	-0.17679656
76	0x3e2a957c	0.16658586
77	0x3d8c6128	0.068544686
78	0x3e06dbb3	0.13169746
79	0x3e1f2f88	0.15545475
80	0xbdfbc5b4	-0.12293568
81	0xbc4a4ee3	-0.01234791
82	0x3d9baf43	0.07601788
83	0x3d5a5fcf	0.053314026
84	0x3dcd321b	0.100193225
85	0x3d9fffa6	0.07812433
86	0xbe33742b	-0.17524783
87	0xbdc497cf	-0.09599268
88	0xbe22637f	-0.15858267
89	0xbe12e98d	-0.14346905
90	0x3deb13bf	0.11478376
91	0xbd0aa8ec	-0.033852503
92	0x3e250352	0.16114548
93	0xbcc801b4	-0.024414875
94	0x3d2fb871	0.042900506
95	0xbd5a8613	-0.05335052
96	0xbdd2ad82	-0.10287
97	0x3e319ee9	0.17345776
98	0x3de220f5	0.11041442
99	0xbc84a10c	-0.016190074
100	0xbb2d5a1c	-0.0026451414
101	0xbdb6aff5	-0.0892028
102	0xbe23ba8f	-0.15989135
103	0xbe0e1986	-0.13876924
104	0x3e1e9602	0.15486911
105	0x3ded31b3	0.11581745
106	0x3d38560d	0.04500394
107	0xbe227682	-0.1586552
108	0x3e085fc6	0.13317785
109	0x3d908fb9	0.07058663
110	0x3e07ba8a	0.13254753
111	0xbe454410	-0.19264245
112	0x3e268ef6	0.16265473
113	0x3ddbb9d0	0.107288
114	0x3d1a2ca9	0.037640247
115	0xbdec0011	-0.1152345
116	0xbde59078	-0.11209196
117	0xbd2ef868	-0.042717367
118	0x3cd634ca	0.026148219
119	0x3dce9209	0.10086448
120	0x3de1c619	0.11024112
121	0x3e28a97a	0.164709
122	0xbd8ba186	-0.068179175
123	0x3da96539	0.0827126
124	0x3e13a6be	0.14419076
125	0xbd118330	-0.0355255
126	0x3e2e7f23	0.17040686
127	0x3dea7330	0.114477515
128	0x3c37a03c	0.011207636
129	0x3e089ffb	0.13342278
130	0x3e2205f4	0.15822583
131	0x3e425eb6	0.18981442
132	0xbcbb996c	-0.022900306
133	0xbcb0d496	-0.021585744
134	0x3e421d7d	0.18956561
135	0xbae8bb13	-0.0017755948
136	0xbd5516ad	-0.05202358
137	0x3cdf5882	0.027263884
138	0x3dc6c198	0.09704894
139	0x3e278748	0.163602
140	0xbde79f11	-0.113096364
141	0xbd003f8d	-0.031310607
142	0x3ceedfe4	0.029159494
143	0x3e84e676	0.25957078
144	0xbdbb6e02	-0.09151842
145	0x3d418ed1	0.04725534
146	0x3df4288b	0.119217955
147	0xbcd8ea87	-0.026479019
148	0xbda5d137	-0.08096545
149	0x3d8cba37	0.06871455
150	0xbc69ec9a	-0.014277602
151	0x3df7df3b	0.12103125
152	0x3d937b1a	0.07201214
153	0xbdd8ebac	-0.10591826
154	0x3dbc81be	0.09204434
155	0x3d927b96	0.071524784
156	0xbe1d8a32	-0.15384749
157	0xbe0604a3	-0.13087706
158	0x3cea6fac	0.028617702
159	0xbddc5dd6	-0.10760085
160	0xbda22605	-0.07917408
161	0xbc21ef27	-0.0098836785
162	0xbdabf6d3	-0.08396687
163	0x3ca91b97	0.020643039
164	0xbd7aa010	-0.061187804
165	0xbda90813	-0.08253493
166	0x3d6c5c7d	0.05770539
167	0x3e355418	0.1770786
168	0xbd0f28b6	-0.034950934
169	0xbc8532a0	-0.016259491
170	0xbe0cd3cb	-0.13752668
171	0x3dbafb23	0.09129932
172	0xbd80e5d0	-0.06293833
173	0x3cf2e47d	0.029649967
174	0xbe137236	-0.14399037
175	0xbb40ba96	-0.002940809
176	0x3e19f9d2	0.15036705
177	0x3b941349	0.0045189005
178	0x3be65086	0.007028642
179	0xbcf33251	-0.029687079
180	0x3e65656e	0.22401974
181	0xbb6748fc	-0.0035291305
182	0x3d8b8216	0.06811921
183	0x3e3023a4	0.17201096
184	0x3cb62c3b	0.022237888
185	0x3df1afc4	0.11801103
186	0x3dc87f1f	0.097898714
187	0x3dfa45ed	0.122203685
188	0x3e00ba46	0.12571058
189	0x3dc1e69d	0.09467814
190	0x3ded37a1	0.11582876
191	0x3dced658	0.100994766
192	0xbd6405c8	-0.055669576
193	0x3e381eee	0.17980549
194	0xbe077c2b	-0.1323096
195	0x3d17391e	0.036919706
196	0xbcd7339f	-0.026269732
197	0xbde3f885	-0.11131386
198	0xbe1058d0	-0.1409638
199	0xbd64d760	-0.05586946
200	0xbd7bbac4	-0.06145741
201	0xbdad2603	-0.08454516
202	0xbd824628	-0.063610375
203	0x3ca21fe1	0.019790592
204	0xbdc9d971	-0.09855927
205	0xbd236a22	-0.039896138
206	0x3dc09a86	0.09404473
207	0x3e148fe9	0.14508022
208	0x3cfcb5fe	0.0308485
209	0xbe15757e	-0.14595601
210	0xbda15880	-0.07878208
211	0x3d8b8214	0.0681192
212	0xbddb1665	-0.10697631
213	0xbe268b9f	-0.16264199
214	0x3dadb785	0.08482269
215	0x3c2caa92	0.010538714
216	0x3db797c8	0.08964497
217	0x3c5668fa	0.013086552
218	0xbdd43ac8	-0.10362774
219	0x3e47febd	0.19530769
220	0xbd3a3b64	-0.045466796
221	0x3df3f754	0.119124085
222	0x3d13e067	0.03610268
223	0x3d02e810	0.031959593
224	0xbd45f80a	-0.04833225
225	0xbc133b8d	-0.008986366
226	0x3df6746b	0.12033924
227	0xbd24e94c	-0.04026155
228	0x3ddb60c1	0.10711814
229	0x3e0490a2	0.12945798
230	0x3dcaa5ea	0.09894927
231	0xbdbdd5aa	-0.09269269
232	0x3de72c17	0.11287706
233	0xbb2c7d72	-0.0026319888
234	0xbdc453cb	-0.09586295
235	0xbc1d5a76	-0.009604087
236	0xbe107b6e	-0.14109585
237	0xbd3a739e	-0.045520417
238	0x3e2d89ce	0.169471
239	0x3e79b603	0.24385838
240	0x3cafaa65	0.021443555
241	0x3dae7203	0.0851784
242	0x3d0b9aaa	0.034083046
243	0x3e078a03	0.13236241
244	0xbe02a67c	-0.12758821
245	0xbda7131c	-0.08157942
246	0x3d38311d	0.044968713
247	0x3d1b49f4	0.037912324
248	0x3e7d4a16	0.24735293
249	0x3dec994f	0.11552679
250	0x3d2c4f46	0.04206779
251	0x3e303d99	0.17210998
252	0x3b214d9f	0.0024612916
253	0xbdaf8f61	-0.08572269
254	0xbc9d4ac4	-0.01920069
255	0x3e17105b	0.14752333

model.decoder.convs.1.root_lin.weight f4 [32, 32]
0	0xbcb4661e	-0.02202135
1	0x3c071453	0.008244592
2	0x3e545aae	0.20737717
3	0xbdfe3fdf	-0.12414526
4	0x3d6545c2	0.05597473
5	0xbcfaba7e	-0.030606505
6	0x3cb63640	0.022242665
7	0xbd6bbd4f	-0.057553586
8	0xbdf4f852	-0.11961426
9	0x3db39ad9	0.08769769
10	0xbde3cf3f	-0.111235134
11	0xbd55ea44	-0.052225366
12	0xbe294bd1	-0.16532828
13	0x3de5ac9f	0.112145655
14	0xbd88bca6	-0.06676607
15	0xbe4808a3	-0.19534545
16	0x3e1ec508	0.15504849
17	0xbc978175	-0.018494347
18	0x3e1b1131	0.15143277
19	0x3d8d57d0	0.069015145
20	0x3e055053	0.13018923
21	0x3e01f56d	0.12691279
22	0x3e0cb2fa	0.13740149
23	0xbdf0f65f	-0.117657416
24	0x3c194511	0.009354846
25	0xbd97b668	-0.07407838
26	0xbdd5a990	-0.10432732
27	0x3db541d9	0.0885045
28	0x3cad47c2	0.02115238
29	0x3c930439	0.01794635
30	0xbd964662	-0.07337643
31	0x3e3da790	0.18520951
32	0x3daf1a51	0.08549941
33	0x3dfe4c3e	0.12416886
34	0x3e1e6255	0.15467198
35	0xbdbd18c2	-0.09233238
36	0xbcbb214f	-0.022843031
37	0x3e87e792	0.26543862
38	0x3e84ca2f	0.25935504
39	0x3e58b6de	0.21163508
40	0xbd09709c	-0.03355466
41	0xbd7fcdf6	-0.06245228
42	0xbe02b883	-0.12765698
43	0xbcf97ff1	-0.030456515
44	0xbe1321ac	-0.14368314
45	0x3cd2a172	0.025711749
46	0x3e3445c8	0.17604744
47	0xbcf01525	-0.029306957
48	0xbe0b99a0	-0.13632822
49	0x3e1571b4	0.14594156
50	0xbda2fc89	-0.079583235
51	0xbde492ee	-0.11160837
52	0xbdb7993f	-0.08964776
53	0xbcf18c42	-0.029485825
54	0x3d4ee799	0.050513837
55	0x3d4acfc8	0.049514562
56	0x3e25be5e	0.161859
57	0xbdfb292c	-0.12263712
58	0x3e157c82	0.14598277
59	0x3df929e9	0.12166197
60	0x3db073bd	0.08615825
61	0xbdbab940	-0.09117365
62	0x3b5e0efc	0.0033883443
63	0xbe15c36a	-0.14625326
64	0xbe376ad9	-0.17911853
65	0xbe30fa3e	-0.1728296
66	0x3d641799	0.055686567
67	0x3dd2778c	0.10276708
68	0xbe01d6f1	-0.1267965
69	0x3d6c46d3	0.05768473
70	0xbd72a860	-0.059242606
71	0xbdd05725	-0.101728715
72	0xbcf4851f	-0.029848633
73	0x3e23d5af	0.15999483
74	0x3dda54eb	0.10660728
75	0xbdf1a8ea	-0.11799796
76	0xbe0cfca0	-0.13768244
77	0xbd054266	-0.032534026
78	0x3d91acab	0.07113012
79	0x3e26dfb8	0.1629628
80	0xbe0b4d90	-0.13603806
81	0xbda25253	-0.07925858
82	0xbe0839af	-0.13303255
83	0x3dcf2eec	0.101163715
84	0x3e1b34cb	0.15156858
85	0xbe26f0d9	-0.16302814
86	0xbda8882f	-0.082291
87	0x3c2f364c	0.010694098
88	0xbcd1d349	-0.025613444
89	0xbe20cae1	-0.15702392
90	0x3dc7ce3a	0.097561315
91	0xbb44e9ac	-0.0030046506
92	0xbd070574	-0.032964185
93	0xbdab9830	-0.08378637
94	0x3bcb07a8	0.006195981
95	0xbcab2fb1	-0.020896764
96	0x3dddb3d4	0.10825315
97	0xbde64d47	-0.11245208
98	0xbd9e2cb3	-0.077233694
99	0xbdb07e54	-0.08617845
100	0x3e36b530	0.17842555
101	0x3d95a780	0.07307339
102	0xbd9ff17f	-0.078097336
103	0xbd5742ed	-0.05255406
104	0xbb0d843a	-0.0021593706
105	0x3d1ed735	0.038779456
106	0xbcd66450	-0.02617088
107	0xbdd62615	-0.10456482
108	0x3d840e76	0.06448071
109	0x3dce46e3	0.10072114
110	0x3dbc87df	0.09205603
111	0x3d3eed41	0.04661298
112	0x3e3ddc04	0.1854096
113	0x3d8b74a6	0.06809358
114	0x3d75513e	0.05989193
115	0x3d1b1a25	0.03786673
116	0x3e0a2f4b	0.13494603
117	0xbde53de4	-0.11193445
118	0x3db1b9b9	0.08678002
119	0xbd1ce950	-0.03830844
120	0xbd2a1f32	-0.041533656
121	0x3cbac108	0.022797123
122	0xbd59bc79	-0.053158257
123	0xbc6c16d3	-0.014409739
124	0xbe18d7bf	-0.1492605
125	0x3d1d5890	0.038414538
126	0xbc1f3cae	-0.009719057
127	0xbdfb2d93	-0.12264552
128	0x3b7de0ae	0.0038738656
129	0xbde11dfe	-0.10992049
130	0xbcfbebbe	-0.03075206
131	0x3d13912f	0.03602713
132	0xbe20e643	-0.15712838
133	0x3e68500e	0.22686788
134	0x3e136a6b	0.14396064
135	0x3e5c3c1b	0.21507303
136	0x3e0c6a66	0.13712463
137	0x3da87fb3	0.08227482
138	0x3ca9c04b	0.020721575
139	0xbde441bf	-0.111453526
140	0x3ccf8e87	0.025336517
141	0x3d3c7077	0.046005692
142	0x3e57c36c	0.21070641
143	0x3e0d2c4b	0.13786428
144	0xbc0dcbfd	-0.008654592
145	0x3e1c8864	0.15286404
146	0x3e333ed7	0.1750444
147	0x3da75ebc	0.08172366
148	0xbe08cd74	-0.13359624
149	0x3b4d43a8	0.0031320844
150	0x3de30b92	0.11086191
151	0xbbc7d4d5	-0.0060983696
152	0x3c8080db	0.015686443
153	0xbca96631	-0.020678611
154	0x3e0c5033	0.13702469
155	0xbd07d7e1	-0.033164863
156	0xbe42df9e	-0.19030616
157	0x3e3f8d80	0.18706322
158	0x3e688a45	0.22708996
159	0x3e0fc5c6	0.14040288
160	0x3e31f97f	0.17380331
161	0xbd53be24	-0.051695004
162	0x3e1a80ef	0.15088247
163	0x3e07073b	0.13186352
164	0xbcbf4030	-0.023346037
165	0x3e614b84	0.22001463
166	0x3da88051	0.082275994
167	0x3e7da26d	0.24768992
168	0xbdb80a69	-0.089863606
169	0x3b85bb36	0.004081155
170	0xbe2301d3	-0.15918665
171	0x3e2922b8	0.1651715
172	0xbcc11bff	-0.02357292
173	0x392a8c0e	0.00016264638
174	0x3d44a948	0.048013
175	0x3c8b6c2e	0.017019358
176	0xbd05ac95	-0.03263529
177	0xbd97b6f9	-0.07407946
178	0x3d3bceb3	0.04585142
179	0x3daaac6c	0.08333668
180	0x3e1861a5	0.14880998
181	0xbdab6637	-0.08369105
182	0x3e59096b	0.21194999
183	0x3d3fd826	0.046836995
184	0x3d187752	0.037223168
185	0xbde04db7	-0.10952323
186	0xbd82cf82	-0.06387235
187	0x3cd36bb8	0.0258082
188	0xbdeab9d3	-0.114612244
189	0x3e120e76	0.14263329
190	0x3e7edfe0	0.24890089
191	0x3dd351e5	0.103183545
192	0xbde4a9ad	-0.111651756
193	0x3cc6db18	0.024274394
194	0xbd80b8fd	-0.06285284
195	0x3d35b74a	0.04436425
196	0x3e5c21fc	0.21497339
197	0x3bba359f	0.0056826617
198	0xbe1992f8	-0.1499747
199	0xbe1bcb74	-0.1521433
200	0x3e6bc563	0.23024516
201	0xbe1c005c	-0.15234512
202	0x3dbf017a	0.093264535
203	0x3e38292f	0.1798446
204	0xbe111120	-0.14166689
205	0xbdb70321	-0.08936144
206	0x3df48934	0.11940232
207	0x3e01fc5c	0.12693924
208	0xbd2c0a50	-0.042002022
209	0x3cf8e5cb	0.030383011
210	0x3d473e8f	0.048643645
211	0x3da83709	0.08213622
212	0xbad2da01	-0.0016086699
213	0x3dcf35fb	0.10117718
214	0x3e4d3142	0.20038322
215	0x3d0d271c	0.034461126
216	0xbd4b46cd	-0.049628068
217	0x3e0f0bb2	0.13969305
218	0xbe564e55	-0.20928319
219	0x3e06347f	0.13105963
220	0x3e1a656f	0.15077756
221	0x3ddacd7f	0.106837265
222	0x3dc6e871	0.097123034
223	0xbdde992b	-0.10869058
224	0x3dc7e39d	0.09760211
225	0x3cbe2489	0.02321078
226	0x3de8e368	0.11371499
227	0xbb693ff3	-0.0035591095
228	0x3bacf649	0.005278383
229	0x3cec4aea	0.028844316
230	0x3e85d16a	0.26136333
231	0x3cdb81da	0.026795316
232	0x3de49f1a	0.11163159
233	0x3e3536d3	0.17696695
234	0xbcef8255	-0.029236952
235	0x3d9fd29b	0.07803842
236	0x3e0a3046	0.13494977
237	0x3e15e200	0.14636993
238	0x3e1ff560	0.15620947
239	0xbd7f9b65	-0.062404055
240	0x3dcb0b2a	0.09914239
241	0x3db048e7	0.08607655
242	0xbd923779	-0.07139487
243	0xbdaa4c48	-0.08315331
244	0x3de220f7	0.11041444
245	0xbe1d00f4	-0.15332395
246	0x3c8b88cb	0.017033001
247	0x3db7e673	0.089795016
248	0x3e863c6c	0.26217973
249	0xbc4649e8	-0.012102582
250	0x3d9ba96b	0.07600673
251	0xbc4a6900	-0.0123541355
252	0x3cb4e1fe	0.022080418
253	0xbd90d493	-0.07071795
254	0x3d11e185	0.035615463
255	0xbd8ddedc	-0.06927273
