code/utility notebooks/logs/epoch=1-step=160.ckpt (torch, 173075 bytes, 48 tensors)

model.input_encoder.weight f4 [32, 1]
00000000: 0cb1 e4be 7420 4fbf 8fa2 733f 7d30 5f3f
00000010: 77e1 103f 4dc7 45bf 6d21 813f 3a64 81be
00000020: ce17 583f 4aed 723f b50a 423f 5dc6 3d3e
00000030: ca1e 123f c7bb ee3e f9c7 0b3f 8e1d 7abf
00000040: ccaa 803e 24cc 243e 0402 01bf 5941 823e
00000050: 44a4 093f ca6b 423f 2501 e0be 7af9 393f
00000060: 87c0 71be b886 8e3e 9792 07bf 55ff a2bc
00000070: 0863 00bf 38ea 0c3f f136 f3be ca90 f53e
-0.44666326 -0.80908895 0.9516992 0.8718336 0.5659403 -0.77257234 1.0088326 -0.2527178
0.84411323 0.94893324 0.7579759 0.18532701 0.5707823 0.46627638 0.5460201 -0.97701347
0.25130308 0.16093498 -0.503937 0.2544048 0.53766274 0.75945723 -0.43750873 0.72646296
-0.236086 0.27837157 -0.52958053 -0.019897142 -0.5015111 0.5504489 -0.47502854 0.47962028

model.input_encoder.bias f4 [32]
00000000: a192 033f 5f9a 343d 7b22 8ebe 3571 d53e
00000010: 507c 423f 2cb3 84be b280 29bf 71d3 1fbf
00000020: cd5b d93e 5b78 853e 567f 99be 0f85 0ebf
00000030: 4a5e 7bbf 0998 6fbf f47a 1e3e 2442 04bf
00000040: 51eb 32bf 73a6 05bf f56f 6a3e a769 60bf
00000050: 3c54 5d3f 4298 40bf c068 5a3f 8eb5 d4be
00000060: 3a2b 3a3f 2a6f 853e aa92 d9bc b4ec 94be
00000070: 1677 7bbe 1dfb 803f cc8f 8b3e a389 9c3e
0.5139561 0.044092532 -0.27760682 0.41687933 0.75970936 -0.25917947 -0.66212 -0.6243201
0.4245285 0.26068386 -0.29979962 -0.5567178 -0.9819075 -0.9359136 0.1547659 -0.5166342
-0.69890314 -0.52207106 0.2289427 -0.8766121 0.86456656 -0.75232327 0.85316086 -0.41544765
0.7272221 0.26061374 -0.026559193 -0.2908684 -0.24557146 1.0076634 0.27258146 0.30573758

model.encoder.rnn.weight_ih_l0 f4 [96, 32]
00000000: 109a 883d c5d0 c9bc 5d82 28be 000e 37bc
00000010: 0838 f8bd 29e3 4d3e 2f63 cc3d 390c b4bd
00000020: e6f1 34be e068 3fbe ccc0 2ebd ea05 b9bd
00000030: 195a 243e 42be 0bbe 4eb1 34be 8f90 8f3d
00000040: 5b48 1c3d 05f0 143e 38c8 24be 4476 f63c
00000050: b8e4 e2bd 33d8 c73d 38a8 7abd 8876 fb3d
00000060: ea7b b9bd a1a6 53be ad4c b13d e745 c33d
00000070: 3552 113c 228f b0bd 84e0 193e 94cf 98bd
00000080: 16cf dc3c d969 cd3d 5af2 5d3d 99ff 3b3e
00000090: c61b 4e3d f7d2 2abe b996 15be efbc 6fbd
000000a0: 7779 713e ff10 56bd 19a9 ce3d ad56 26be
000000b0: e064 fdbd ca4b 023d 5d5e 353e a787 47bd
000000c0: 1663 e13d b6be cfbd 0d2e 1fbe 12ee 623d
000000d0: d5cb 953d 4065 373e 9858 5e3d 44c5 3d3e
000000e0: 2eca 0cbe 227f 3a3e eef4 c43c e3af 51bc
000000f0: 7c98 f53b 563d fc3d 13c9 b9bd ab1f 583e
00000100: 4e2e ce3d 9def 483d 9a75 3abd 80e4 8d3d
00000110: c9b4 e13d 1e22 40be d0c7 10bd f2a1 d2bd
00000120: e1b0 e03c ab3a 06be d021 69bd cd43 40be
00000130: 4dc6 93bc 6e2f 873d 6db0 8fbd 85d6 7e3d
00000140: 83ae c63c a50c 2c3d 129e f13d 5c6e 27be
00000150: 860f 0ebe 0be3 1dbe d2c3 373e 4ed1 74bd
00000160: 1d95 2a3e 914d d73d fe76 493c 4ae4 093e
00000170: 2f8c 9a3d fd2b d83d eb21 eb3c c8a0 b1bd
00000180: a22a 183e a3bc 45be cfab 183e 570e dbbc
00000190: 00c0 2ebd 848b 88bd 5fac edbd 1ee3 373d
000001a0: 7c74 47bd a51f e2bd d93a f53d 75e0 783c
000001b0: 6525 65bd 014d fdbd 73a2 143e b22d 35be
000001c0: 9efa c73d 5ea9 f2bd 80af c6bd a625 2637
000001d0: 5c53 39bd 6781 be3d f352 4ebb dbef e9bd
000001e0: 9aaf 783d b31c 573c 78c5 5cbe 95fe 25be
000001f0: f76b 45be 5911 263e 3ce3 2abd 1632 523e
00000200: 024b b13d 8e90 33be 82e6 fc3d 8874 033e
00000210: f51f aebd afa0 4f3d 6c90 8abd 2cd2 0abe
00000220: f05d 4abd 919b 193c 002d 16be 0209 d93b
00000230: 7644 52bc 3d09 f9bd 3e76 213e 6f68 593e
00000240: f20e c5bd bc16 f53c 9836 c13d a9cf d33d
00000250: ec9f 5e3d 0eed 043e 1687 37bd 6b2d 243d
00000260: 8986 163e 024a b93c 3cff d3bc 2f29 3abd
00000270: 1942 b0bd 95f9 cabd c6cc 223e 7869 1fbe
00000280: fc19 0ebe 3ec0 413e e6fc 1abd 5da8 e8bd
00000290: 52cd 24be 88c2 5c3e 1bdc dbbd f1ac f93d
000002a0: af55 fb3c a1cd b73d b130 fa3c dec9 42bb
000002b0: cb77 b0bd 962b 243d fd88 e0bc 4dd3 5e3d
000002c0: 1758 20bd 72ac 2a3e 65df 173e 7434 2d3e
000002d0: a145 073e 526a 19be 1eb1 1e3b 022b 16be
000002e0: 9e3a f13d 5c84 e3bd 66b3 22bd c77e ddbd
000002f0: 9629 68bd d23b 4dbd 635e 18be 3dc1 8fbd
00000300: b73a 11bd ec36 27be 64f9 a03b 96b5 843d
00000310: 2260 0e3e 7227 cfbd c5d2 353d 180a 34be
00000320: b6c2 c2bd bfcd abbc 3a8d acbd c257 34bd
00000330: 533b f33d af62 0e3e a92d 9dbb 6b9c 35be
00000340: a2ce b13d a829 d73d 3955 0a3e e683 20be
00000350: fa9d 6b3d 1e31 48be 2642 353e 8ef9 b7bd
00000360: b3c9 153e 9f4b fabc 56b3 0abd 9d72 55bd
00000370: f7a1 963d 873d af3d 26f8 013e 32a3 08bd
00000380: f084 a2bd 1552 10be 7e93 9e3b e11a 32be
00000390: cfc2 edbd ef8a 9d3d 144a c4bc fddf 003e
000003a0: 3960 2bbe bfe6 163e 99d7 353d bcdb 25be
000003b0: 4be2 9a3d 4229 c63d 5408 8a3d 2d0a e23c
000003c0: cd1b 06be a784 58bd fe79 e4bb 791d 1a3e
000003d0: 01b6 8f3d 4bb4 2fbd 44a6 0a3c 50f2 43be
000003e0: aab9 8ebd 5d11 bd3d ca71 43bd 6fe6 adbd
000003f0: a827 9c3b 6457 fa3c 032f e53d cd77 483c
0.0667001 -0.024635682 -0.1645598 -0.011172771 -0.12120062 0.20106186 0.09979855 -0.08791394
-0.17670402 -0.1869235 -0.042664334 -0.09034331 0.16049995 -0.13646796 -0.17645761 0.07009994
0.03815494 0.14544685 -0.16092002 0.03008569 -0.11078781 0.097580336 -0.061195582 0.122784674
-0.09056838 -0.20669033 0.08657203 0.09534817 0.008869697 -0.086210504 0.15027052 -0.074614674
0.026954215 0.100299545 0.054186203 0.18359222 0.050319456 -0.16682039 -0.14608277 -0.05852979
0.23581491 -0.052262302 0.100908466 -0.16244002 -0.12372756 0.03181056 0.17711778 -0.048713353
0.11005227 -0.10143797 -0.1554491 0.055402823 0.073142685 0.17909718 0.05428371 0.18532282
-0.13749 0.1821256 0.024042573 -0.012798282 0.007494984 0.123163864 -0.09071555 0.2110583
0.10067426 0.049056638 -0.04552231 0.069283485 0.1102081 -0.18763015 -0.035346806 -0.10284795
0.027428092 -0.13108318 -0.05691701 -0.18775864 -0.018038893 0.06600843 -0.070160724 0.0622163
0.024253136 0.042004246 0.11797728 -0.16350693 -0.13873109 -0.15418641 0.17945793 -0.05976992
0.16658445 0.105128415 0.012296436 0.13465992 0.07546269 0.10555265 0.028702697 -0.08673245
0.14860013 -0.1931024 0.1490929 -0.026740236 -0.042663574 -0.066672355 -0.11605143 0.04489433
-0.048695073 -0.11041192 0.11974115 0.0151902335 -0.055943865 -0.12368203 0.14515094 -0.17693213
0.09764598 -0.118487105 -0.09701443 9.903137e-06 -0.045245513 0.09302025 -0.0031482547 -0.11422702
0.06071434 0.013129401 -0.21559703 -0.16210397 -0.19279467 0.16217555 -0.041720614 0.20526919
0.08656885 -0.17535612 0.123486534 0.12837422 -0.08502189 0.05069035 -0.067658275 -0.13556737
-0.049405992 0.009375469 -0.14665604 0.0066233883 -0.012833705 -0.12159965 0.15767762 0.21231245
-0.09621991 0.029918067 0.09434241 0.103423424 0.054351732 0.12981054 -0.044806562 0.040082376
0.14699759 0.022618297 -0.025878541 -0.045449432 -0.08606357 -0.09910885 0.15898427 -0.15567577
-0.138771 0.18920991 -0.03783884 -0.11360238 -0.16093948 0.21558583 -0.10735341 0.12191189
0.030680506 0.089747675 0.030540796 -0.0029722373 -0.08616599 0.04008063 -0.027409071 0.05440073
-0.03914651 0.16667345 0.14831312 0.1691454 0.13210155 -0.14981964 0.0024214457 -0.14664844
0.117787585 -0.1110923 -0.03972187 -0.108151965 -0.056680284 -0.050105877 -0.14879756 -0.07019279
-0.035456385 -0.16329545 0.004912542 0.06479947 0.1390386 -0.101149455 0.04439046 -0.17581975
-0.095097944 -0.02097213 -0.08425374 -0.044029005 0.118765496 0.13904832 -0.004796703 -0.1773545
0.0868199 0.10505992 0.13509072 -0.15675315 0.057523705 -0.19549987 0.17701015 -0.08983146
0.14627723 -0.030553637 -0.033862434 -0.052111257 0.07355111 0.08556657 0.12692317 -0.03335876
-0.07935512 -0.14093812 0.00483936 -0.17393066 -0.116094224 0.07692515 -0.023961104 0.12585445
-0.16735925 0.1473646 0.044395063 -0.16197103 0.07562693 0.09675838 0.0673987 0.027592743
-0.13096543 -0.052860882 -0.0069725504 0.15050305 0.07017136 -0.04289655 0.008462492 -0.19135404
-0.06969006 0.092318274 -0.04771594 -0.08491217 0.0047654696 0.03055925 0.111906074 0.012235594

model.encoder.rnn.weight_hh_l0 f4 [96, 32]
00000000: adfa 873a 5d7f d1bd 537c 103e 83dc d5bd
00000010: bda7 b93d ba8a 0f3e 04dd 4dbe 60ca 813d
00000020: 8186 bdbd 6fa5 3c3d be94 55bd 9c09 f63d
00000030: 9a30 943c 9c6a aabd 98c0 213d 1e9c a93b
00000040: cd13 9bbd 390a 8e3d d93b 633d 6868 ef3c
00000050: 69a3 9c3b 4bc2 bfbd 870b a63d 52cf a53d
00000060: a2d0 30be 0ce7 ef3a c26d 383d f9bb 593d
00000070: 540f 01bd fc19 8bbd c2b4 453e 2d5f b13b
00000080: 0ac9 1e3e d769 683d e1bc 123d ce19 2b3d
00000090: ab66 e2bc 49ba 26bd 8a39 c0bd e364 b4bd
000000a0: 9ede 973d 92d6 32bc c733 f9bc 456c 313d
000000b0: f65b 123e d7be 233e f249 2ebd 7ea5 a53d
000000c0: 7c38 eebc 3f13 213d b102 2a3e feef d9bb
000000d0: 124e cc3d 9dd4 04be e472 0c3c 6be3 243e
000000e0: 7447 503d 6831 1fbe 7ad0 1fbe fcbc ee3d
000000f0: 9f9a 80bd 1805 e23b 03dd 183e 87fd d73d
00000100: c8c1 0a3b 4abf e03d d3d9 84bc ca6a 673c
00000110: d04b d4bd 76dc a3bd b31c 443e 8fed 913d
00000120: e449 aa3d d678 4cbd a8d9 c5bc 597c bc3d
00000130: 16db b7bd 431d 363e 3437 033e 1480 293e
00000140: e02a 993d f542 fb3d 2d70 f53d 0645 10be
00000150: 4866 993d 1f5c 8fbd 2228 43bd e4e5 d3bd
00000160: d715 af3d 3e22 06be 33b8 2d3e 0ba5 843d
00000170: ab38 f83b 5fc2 c0bd c9bb b33d 7b9a b4bc
00000180: edb0 6b3d 5587 1f3e 0a10 09be e9be a8bd
00000190: 862f 313d 0829 443d a66b 9a3c 1998 f9bd
000001a0: cb42 ea3d 5b5a 24be 85f9 593d d3ad ac3d
000001b0: 4f8e 2a3e 4a9a 01be cf97 233e 856e a53d
000001c0: efa6 053e bf18 213d 3025 343e ac03 4cbe
000001d0: 0e1b f3bd 8c7b 003e ac33 bd3c c910 cb3d
000001e0: 3119 d7bc 36d0 e73d 34a9 bc3d 96ed f13d
000001f0: 2f1b b23c 5ede e73d 6a67 b53d 1a15 e2bd
00000200: c47a bcbd 4de6 7e3d cca0 c7bd 19b7 b53d
00000210: b316 1dbe 0d8b 0b3e e14a 0bbd dbe4 373d
00000220: fd78 173e 7944 c03d 9584 713d ccc5 f03d
00000230: ad59 123e bd25 c83c 3f53 0dbe b0ee 09bd
00000240: bb38 dc3c ebe9 2a3e 1843 f3bd 484e 6bbd
00000250: 0ec7 103d e039 c93d d758 4bbd 96df fbbd
00000260: e350 99bd 3b64 ae3d 2ae2 a23d 15e0 183e
00000270: 5f95 f63d 3b93 b8bc e798 8f3c ff23 2abe
00000280: edad a4bd e461 57be 3685 2f3e 462e cf3d
00000290: 0cae 81be 95ca 91bd 9f9e 7bbd 2bee bdbc
000002a0: 21c1 89bc 9872 2a3e 8dcd dc3c a289 b93c
000002b0: 6f5e d1bd 1764 0d3e e18c 28be ee7c 76bd
000002c0: 70a3 0d3d 1f7b a3bd 6ab9 3bbd 1006 ec3d
000002d0: 2030 853d ac8c d9ba 9a0c 90bd 4b34 2e3d
000002e0: 6a3f 9c3d 999f db3d 6c38 cabd 0634 27bd
000002f0: 543c 24be bb6c cbbd fb4a 5bbd 31be 06be
00000300: 8257 30be c085 633c 2e85 53bc a0d8 82bd
00000310: 71d3 7f3d 878e 8fbd 342b f6bd 859e b4bd
00000320: c338 87bd bf19 83bc 7710 47be 29d9 593d
00000330: c710 253d 09fd cbbd 7178 043e 9a89 2d3e
00000340: 3385 393e 16da 003d e50a b53c 3f34 1cbe
00000350: a9ba bcbc 32dd b63d 2603 28be 2856 213e
00000360: 7683 373c 92e4 16be 8c0a 09be f91a a7bd
00000370: 9c2e ba3d d7d4 593e a9db 0e3e 9130 a8bc
00000380: 6cf3 35bd cc74 53be 46b2 1bbe 9450 493d
00000390: a0de 7dbd aa48 a0bc 7023 d13d aa22 933d
000003a0: 8f4d 75bc 3a8e 5abd 92c4 f13d 12a9 40bc
000003b0: c7ab 0f3d b96e 1abe 22cd d03d 6cf0 fdbd
000003c0: c662 a1bd 7782 cabd ad6a 05be a168 503e
000003d0: 1671 9a3d 9fb5 97bd a0ec 21bb 7993 60be
000003e0: 7976 55bd 2beb 97bd 505f dfbc ff4a c0bc
000003f0: 2a9d 88bc 7d55 c63d 3000 183e b305 47bd
0.001037439 -0.10229371 0.14109926 -0.1044245 0.09065197 0.14017764 -0.20103842 0.06337428
-0.0925417 0.046056207 -0.052143805 0.120135516 0.018089581 -0.083211154 0.039490312 0.0051760813
-0.07572136 0.069355436 0.055476997 0.02922459 0.004780222 -0.0936323 0.081076674 0.08096184
-0.17267087 0.001830311 0.04502655 0.05315778 -0.03150876 -0.067920655 0.19307235 0.005412957
0.15506378 0.05674156 0.03582466 0.041772656 -0.027636847 -0.040705 -0.09385975 -0.08808305
0.07415508 -0.010915415 -0.030420197 0.043316144 0.14292893 0.15990768 -0.04255099 0.08088206
-0.029079668 0.039324995 0.16602589 -0.0066509238 0.09975828 -0.1297173 0.008572314 0.16102378
0.050849393 -0.1554619 -0.15606871 0.1165714 -0.06279492 0.00689758 0.1492806 0.105464034
0.0021172632 0.109739855 -0.016217148 0.014124582 -0.103660226 -0.08001034 0.19151573 0.07125389
0.08314875 -0.049919926 -0.024151638 0.09203405 -0.08977334 0.177846 0.12814027 0.16552764
0.07478881 0.122686304 0.119842865 -0.1408883 0.07490212 -0.069999926 -0.047645696 -0.103465825
0.085490875 -0.13099 0.16964798 0.06476792 0.0075751147 -0.09412073 0.087760516 -0.022046318
0.057541776 0.15578969 -0.13385025 -0.08239538 0.043258213 0.047890693 0.018850159 -0.121872135
0.11438521 -0.16050093 0.053216476 0.08431592 0.16655849 -0.12656513 0.15975879 0.080777206
0.13051961 0.03933024 0.17592311 -0.19923276 -0.11870395 0.1254713 0.023095928 0.09915311
-0.02625713 0.1131901 0.092119604 0.11812894 0.021741478 0.1132171 0.08857615 -0.11039181
-0.09203103 0.06223135 -0.097474664 0.08872814 -0.1534069 0.13627262 -0.034006957 0.044895988
0.14792247 0.0938806 0.05896433 0.11756477 0.14292021 0.024432058 -0.13801287 -0.033674896
0.02688252 0.16690795 -0.118780315 -0.0574477 0.035346083 0.09825492 -0.04964527 -0.12298505
-0.07486131 0.08515211 0.079532936 0.1492923 0.12040209 -0.022531142 0.017528964 -0.16615294
-0.08040986 -0.21033436 0.1714066 0.10116248 -0.253281 -0.071187176 -0.06143057 -0.023184856
-0.016815724 0.16645277 0.026953483 0.022648636 -0.1022309 0.13807712 -0.16459991 -0.060177736
0.034579694 -0.07982468 -0.04583112 0.11524594 0.0650332 -0.001659771 -0.070336536 0.04253034
0.07629283 0.107238 -0.09874043 -0.040821098 -0.16038638 -0.09932848 -0.053538304 -0.1315849
-0.17220882 0.013886869 -0.0129101705 -0.06388974 0.062457506 -0.07009607 -0.12019959 -0.08819298
-0.06602623 -0.016003488 -0.19439875 0.053185616 0.040299203 -0.09960372 0.1293657 0.16947022
0.18117218 0.031457983 0.022099921 -0.15254305 -0.023038225 0.089289084 -0.16407451 0.15755522
0.011200776 -0.1473563 -0.1338293 -0.081594415 0.09090921 0.21272598 0.13950981 -0.02053097
-0.0444216 -0.20650023 -0.15204725 0.04914911 -0.06197989 -0.019565899 0.10211837 0.07184346
-0.014972105 -0.053358294 0.11805071 -0.0117590595 0.03507593 -0.150813 0.10195376 -0.123993725
-0.07880168 -0.098881654 -0.13028975 0.20352413 0.07541101 -0.07407688 -0.002470769 -0.21931256
-0.052114937 -0.074179016 -0.027267128 -0.02347326 -0.016676504 0.09684274 0.14843822 -0.04858942

model.encoder.rnn.bias_ih_l0 f4 [96]
00000000: 8192 2dbe 604a 8a3d 4521 193d 710b fe3d
00000010: 745c 4b3d 0f92 98bd 3888 0fbe a20d 663d
00000020: 29da e6bb b784 05be a9b6 9cbd 40ad 133d
00000030: 168b 8c3d d08c bebd de87 2a3e fb0b 853d
00000040: 28fa db3d 17ba 0e3e 9ff1 dbbd 6201 ebbc
00000050: 8fb0 00be 946e c73d 988b 16bd e859 af3d
00000060: ce7f 913d 1c05 d23c ef8a 0a3e 00a1 0abe
00000070: f00f ab3d 489b 1abe 042b efbd c9c5 703d
00000080: 231b a3ba d48a 88bd 94a0 81bc 79fd 4c3d
00000090: 5a9b e2bc 317f 01be 9205 c6bd cff0 e13c
000000a0: cccb f0bd 7d17 103d 79c2 c1bd f748 63bc
000000b0: cef2 ef3d a291 d63d d294 15be 8b49 ec3d
000000c0: 5d24 023c 1b46 4c3d d6cd c13d 84dc 50be
000000d0: 1207 16be 1554 953d 1e50 e93d ab0d 0bbe
000000e0: 47fa 39be 1a75 863d 63ae 1f3e b3a4 bc3c
000000f0: 21ff edbc bae1 a7bd 2c55 a0bd 3f83 313d
00000100: 54d9 23be f46a 1dbe 1f19 803d 49cd 893c
00000110: ca34 4d3b 998c 273e 3328 b4bc a872 ec3d
00000120: 4540 373e 5e36 2b3e da0d c53d a325 4fbd
00000130: 6084 0d3e 9aed a73d 8633 84bd 7782 adbd
00000140: 8330 f53d 7833 e93b 82d8 da3d 2809 07bd
00000150: 8328 dfbd e732 b5bd 67a7 2f3e c632 4dbd
00000160: 55d6 f8bd 4a76 823d 1233 d83d bd93 5ebd
00000170: 28eb 6cbd b5d0 91bd 0e10 823d d199 fa3d
-0.16950418 0.06752467 0.037385244 0.12404526 0.049648717 -0.074497335 -0.14016807 0.056165345
-0.0070450497 -0.13038908 -0.07652027 0.036053896 0.06862466 -0.093042016 0.16653392 0.06496426
0.10741073 0.13938175 -0.10739445 -0.028687183 -0.12567352 0.09737888 -0.03675422 0.0856207
0.07104455 0.025637202 0.13529561 -0.13537979 0.08352649 -0.15098298 -0.116781265 0.058782373
-0.0012444 -0.06667104 -0.01582364 0.050046418 -0.027661968 -0.12646176 -0.09669031 0.027580647
-0.11757621 0.03517865 -0.09460921 -0.013872377 0.11716233 0.10476996 -0.14607552 0.11537465
0.00794324 0.049871545 0.09463088 -0.2039662 -0.14651135 0.07291428 0.11392234 -0.13579433
-0.1816188 0.06565304 0.15593867 0.023027753 -0.029052319 -0.08197351 -0.07828745 0.043338057
-0.16000873 -0.1537283 0.062547915 0.01682152 0.0031311982 0.16362227 -0.021991825 0.115453064
0.1789561 0.16719958 0.096217826 -0.050573003 0.13820028 0.08199616 -0.0645514 -0.0847215
0.119721435 0.0071167313 0.10685827 -0.032967716 -0.10896399 -0.088475995 0.17153703 -0.05009725
-0.121502556 0.06370218 0.10556616 -0.054340113 -0.05784145 -0.07119886 0.063507184 0.122363694

model.encoder.rnn.bias_hh_l0 f4 [96]
00000000: 3cd5 0d3e ee7c 87bd c196 0ebe 5d35 1d3e
00000010: f5d4 36be f772 aabb 0e13 0bbe ac68 d4b9
00000020: 5144 f3bc 2fd2 70bd 94e0 b43d 768b df3c
00000030: 46bb d03d 2953 b1bd 9411 15be 1910 c23b
00000040: 41cd 1c3d f00a 24bd fceb 893d 4fb6 023d
00000050: 6fed 283e 14d3 3f3e 2f41 20bd c75c b73c
00000060: c1b4 073d 8752 10be b291 92bc f2cd b33c
00000070: bb42 4dbd 4c7e 24be 755d 093e 134c 7d3d
00000080: 734b 61be 2cd9 aebd bcc7 083e 7fa5 1bbe
00000090: 6843 543d a14d 9a3d d88c 793d 50e0 d7bd
000000a0: 92f8 cabc 5e26 78be ca4b 28be a083 bdbd
000000b0: afb2 50bd b89b 333e 0585 0c3d 57f5 7f3d
000000c0: 401e 9e3d 3592 133d 8c1c a43a 6325 47be
000000d0: 5d22 a3bd 457a 683d e0ed 54be 4034 0abe
000000e0: c1a4 b33d 5e03 ddbd e604 0d3d 1a0d 0a3e
000000f0: b4db a2bd b6c4 8fbd c9d9 4bbe 9d0a 463d
00000100: c4ce bb3d 1618 f93d 532f 0cbe 7bb5 c93c
00000110: 52a0 a5bd b715 423c ab41 17bd fbea a03d
00000120: f98e 1a3b 264f dabd 9206 2fbe addb 2b3e
00000130: 5cf7 11bd 4012 9dbd 0a1b 05be 4cd5 b73d
00000140: c84b 1b3e 2d0b 693d 08c4 ffbd 5064 aa3c
00000150: a57b 20bd bc70 bd3d d906 0f3e f496 543d
00000160: 3125 363d 74ac d03a fa69 af3d 449e bb3c
00000170: 51e8 183d 4549 c33d ddf6 adbd cf5e f4bd
0.13850874 -0.06615625 -0.13924696 0.15352388 -0.17854674 -0.005201693 -0.13581488 -0.00040513778
-0.029695662 -0.058794197 0.088318974 0.02728818 0.101919696 -0.0865844 -0.14557487 0.005922329
0.038281683 -0.040049493 0.067344636 0.031912144 0.16496824 0.18732864 -0.039124664 0.022383107
0.033131365 -0.14093982 -0.017891739 0.021948788 -0.050112467 -0.16063803 0.13414557 0.06184013
-0.22001438 -0.08537516 0.13357443 -0.1519985 0.051822096 0.07534338 0.060925335 -0.10540831
-0.02477673 -0.24233386 -0.16435161 -0.09253621 -0.050951656 0.1753987 0.034306545 0.062489834
0.077206135 0.036028106 0.0012520715 -0.19447856 -0.07965539 0.05675723 -0.20793867 -0.13496494
0.08771659 -0.10791658 0.0344285 0.1348156 -0.07952061 -0.070199415 -0.19907297 0.048349965
0.09170297 0.12162797 -0.13689928 0.02462267 -0.08087219 0.011845998 -0.03692786 0.07857319
0.0023583754 -0.106596276 -0.1709235 0.16783018 -0.03563629 -0.076694965 -0.12998596 0.0897623
0.15165627 0.056895424 -0.12488562 0.020799786 -0.039180417 0.09250018 0.13967456 0.051901773
0.044469062 0.0015920536 0.08565135 0.022902615 0.03733093 0.095354594 -0.08494351 -0.11932146

model.decoder.convs.0.bias f4 [32]
00000000: e171 fe3c 2b26 e83c a4d3 9a3c 8eef a2bb
00000010: 9153 82bc 0bca 033d 0000 0000 f2c5 2c3d
00000020: aa07 e53c 9732 d83c b8c7 74bc 72da d9bb
00000030: 53a7 263d 2117 5ebc 2452 b23b 7316 5bbb
00000040: d14e c43c 8a37 323d 8ddd e93c f028 313d
00000050: f8c0 1bbd 121c 833d a7a7 273c 2406 fd3c
00000060: 8fa5 093d e4dd 3aba 9d29 123c 09e2 6b3c
00000070: 1cbc bd3c 7ba6 fe3c 2179 213d 4d1a 123d
0.031060161 0.028338512 0.018899746 -0.004972405 -0.015908988 0.032175105 0.0 0.042180963
0.027957756 0.02639131 -0.014940195 -0.006648355 0.040686917 -0.013555319 0.005441921 -0.0033430129
0.023963364 0.043509997 0.028548026 0.04325193 -0.038025826 0.06401838 0.0102328425 0.030886717
0.033605155 -0.0007128401 0.008921054 0.014397153 0.023160987 0.031085243 0.03942216 0.035669614

model.decoder.convs.0.lin.weight f4 [32, 32]
00000000: eac5 21be 5e6f f8bd 238c 55bd 14e3 913d
00000010: 6703 bc3c 9030 973d 45cb 603e 517a 75bd
00000020: bc6a c63d b96a 5cbe 251e 033d d523 273e
00000030: c433 b4bd cc74 10bd 8058 003e 4164 df3c
00000040: d2e7 75bd f86e 7bbd 31b8 0a3e 22bb 313b
00000050: 5360 78be 941d 2ebe a6e1 e3bd 6a61 45bd
00000060: c502 1d3e ca94 0cbe d1cb c5bd bb41 5abd
00000070: c87e 283e 7527 73be 5775 e7bd 26a9 0bbe
00000080: 3fd9 f7bd ea5c 49bc a3c6 033e 5cec 453e
00000090: 5e0b 213e 1ae2 713d 4fee 19bc 489c 0f3d
000000a0: 1a2d 293e ecc9 4dbd 4969 12be 503a 33be
000000b0: 9577 5dbd a747 073e bc3b d4bc 8464 d03d
000000c0: 9ba8 ebbd ee56 03bd 5cf9 a9bd c903 1cbb
000000d0: 7d9e 3a3e 5c3c f1bc 4b0d 14be e3b8 5b3d
000000e0: a93f 273c d599 90bd 4f7b e73d f83b 0fbe
000000f0: 1e96 893d 57d8 333e 0739 fc3b a109 fe3d
00000100: 7d5d d7bd 74f3 f4bd dcf3 04be 4e90 49bc
00000110: 859c 02be a15f 35be c562 3f3e 06ee f23d
00000120: dc2e 863d afbf 31be 8576 273e 9545 c63d
00000130: 7e19 43bd 99c1 253e f5da d53c ab11 903d
00000140: 611a 193e 8fbe 1f3e 76ac 9ebc 20ea 06be
00000150: 1477 83bd 69f7 16be 2645 0bbe 6a64 e3bd
00000160: 3fc0 f83d 54d4 a13d 293f c7bc f500 963d
00000170: 6a22 563e 66e7 a5bd 3e62 0abe 5eef 25bd
00000180: 83a9 aa3c b70f 053e f13e 0e3e 1995 0abd
00000190: 2155 4cbe c435 bbbd c4a0 763b 2e1b 94bd
000001a0: ac50 ee3d 578c 323e 55da e83d 338c f5bc
000001b0: 9c6e 60bd 5a0d 5f3d 3393 4a3d cc5e babd
000001c0: 7605 043c 762f 3cbe 5801 b93d 5d8b 0abe
000001d0: b4ae 9c3d 2087 a2bc 2b36 f73d 9cbd 183e
000001e0: f316 07be 7af2 36bd 36f9 b23d a1eb 413e
000001f0: b40d 273e 51b4 1cbe 4fe4 f83d 836b 863d
00000200: 7b8c bfbd a29b ca3d 404c a83d 4796 68bc
00000210: e654 d83d c180 053e 9e3e e33d 1d31 e53d
00000220: 1eed f5bd 7a6b 213e 4d0d 1c3e 92f2 64bc
00000230: 6532 14be 58af 313b 1a6a 173e 3b52 e5bd
00000240: b4bf 773d 9720 dbbd c551 6bbd 84de ed3c
00000250: 8ef0 03be d6b2 dbbd 3926 013e ebe6 54bc
00000260: 0bf5 7cbd 3966 cbbd a771 56bd e7fc ebbc
00000270: 388b b7bc faff a7bd 5f01 ac3d 80b5 043e
00000280: c313 a83d 6e27 c23d 7a8e 21be f654 d53c
00000290: bd1d 14be 7cd2 b53d d6ac b8bd b5e3 1e3e
000002a0: 41d2 c43d ddcb f1bb 1fd9 393d efeb 7cbc
000002b0: 61f5 e33a c584 b4bd aed2 f6bc f653 223e
000002c0: dc37 073e 36c9 8bbd 8871 91bd 6dfa 9c3d
000002d0: abb5 313b cf52 a8bd 46f5 283e 0d34 b3bd
000002e0: 7295 28be ae88 b4bd ee33 333e 47ef ad3d
000002f0: 4c24 dabd 3d82 8ebc 3d1d 0d3e 99ed ca3d
00000300: caf0 79bd 2052 27be 43a1 be3d c570 1bbe
00000310: 3123 a6bc a926 2e3d ae57 353b da42 143e
00000320: 470f 00be be8f bb3d aa06 8f3d dd34 23bd
00000330: 8bfa 13be 2c2c dd3d a67a b1bd afff d53d
00000340: 0c41 b43d df30 08bd 3b82 50bd d429 05be
00000350: 2bf3 48bc b327 06be 5f19 303e 042d 34bd
00000360: 8713 09be 1a7a 88bc 429c bebd d995 813d
00000370: 2587 32be bf01 00be 9ccb 213e 478b 10be
00000380: 4884 a33c 0fb7 a73c 40e2 07be d0af debd
00000390: 8ce2 01be c805 1b3e a017 bd3d 35f5 123e
000003a0: a3a3 22be 091c 193e 659e 28be 13ce b9bc
000003b0: d48d 21be e213 18be 7de8 c73d ae7a bcbd
000003c0: 757f c8bd 6d64 7abd d867 81bd e594 e4bc
000003d0: bb9c 1abe b54c 50bd 86f5 863d d1e8 15ba
000003e0: 0712 5dbd 6fe1 9b3d 81ac 90bd a186 e9bd
000003f0: 8d57 0fbd a572 083e 0130 3b3e 23bc 23be
-0.15798154 -0.121306166 -0.052135598 0.0712339 0.022950841 0.073823094 0.21952541 -0.059931103
0.09688327 -0.21525086 0.03201117 0.16322263 -0.08798936 -0.035267636 0.1253376 0.027269484
-0.060035534 -0.061385125 0.13546826 0.0027119596 -0.24255495 -0.1700347 -0.111270234 -0.048188604
0.15333088 -0.13728634 -0.096580155 -0.05328534 0.16454613 -0.2374552 -0.11301678 -0.13638744
-0.12101983 -0.012290219 0.12868743 0.19328445 0.15726992 0.059053518 -0.009395196 0.03506115
0.16521111 -0.050241396 -0.14297976 -0.17502713 -0.05406912 0.13210927 -0.02590739 0.10175422
-0.11506768 -0.032065324 -0.08299515 -0.0023805967 0.18224521 -0.029447727 -0.14458196 0.05364312
0.010208049 -0.07060591 0.11302816 -0.1398772 0.06718086 0.17562996 0.007697228 0.1240418
-0.10515878 -0.119604975 -0.1298365 -0.012302471 -0.1275502 -0.17712261 0.18690021 0.118618056
0.065519065 -0.17358278 0.16353805 0.096812405 -0.047631733 0.16187133 0.026105383 0.0703462
0.14951469 0.15600036 -0.019369345 -0.13175249 -0.06419197 -0.14742817 -0.13600597 -0.11103137
0.12146043 0.079018265 -0.02432211 0.07324401 0.20911565 -0.081007764 -0.13514039 -0.04051148
0.020832783 0.12994276 0.13891198 -0.033833597 -0.19954349 -0.09141114 0.0037632445 -0.072317466
0.11636481 0.17436348 0.113697685 -0.029974079 -0.054792985 0.054456092 0.049456786 -0.09100112
0.008057943 -0.1837748 0.090334594 -0.13529725 0.076505095 -0.019839823 0.120708786 0.1491608
-0.13192348 -0.044664837 0.087389395 0.18937542 0.16313821 -0.1530316 0.121529214 0.06563475
-0.093529664 0.09892966 0.082176685 -0.014195985 0.10563068 0.13037397 0.11095928 0.11191008
-0.12008117 0.15763655 0.15239449 -0.013973849 -0.14472349 0.002711257 0.14786568 -0.11197325
0.060485557 -0.106995754 -0.05745103 0.029036768 -0.12884733 -0.107274696 0.12612237 -0.012994508
-0.06175713 -0.09931607 -0.05235448 -0.028807117 -0.022405252 -0.082031205 0.08398699 0.12959862
0.08206894 0.09480177 -0.15777007 0.02604149 -0.14464469 0.08878037 -0.09017341 0.15516551
0.09610415 -0.0073790387 0.04537308 -0.01543711 0.0017391854 -0.08814386 -0.030129757 0.15852341
0.13204902 -0.06825487 -0.071017325 0.076649524 0.002711634 -0.082189195 0.16499814 -0.08750162
-0.16463259 -0.08815132 0.17500278 0.08492904 -0.10651454 -0.017396087 0.13780685 0.099085994
-0.06102065 -0.16339922 0.09308102 -0.15179737 -0.020280452 0.042517338 0.002767067 0.14478627
-0.12505828 0.09158276 0.06983693 -0.039845336 -0.14451043 0.10799441 -0.086659715 0.104491584
0.08801469 -0.033249732 -0.050905447 -0.13004237 -0.012265007 -0.13101082 0.17197178 -0.043988243
-0.13386355 -0.016659785 -0.093071476 0.06327409 -0.17434366 -0.12500666 0.15800327 -0.1411563
0.019960538 0.020473031 -0.13269901 -0.10873377 -0.12684077 0.15138924 0.09233022 0.14351352
-0.15882735 0.14952101 -0.16466673 -0.022681272 -0.1577676 -0.14851335 0.097611405 -0.09203087
-0.097899355 -0.06113093 -0.06318635 -0.02790303 -0.1509885 -0.050854404 0.06589799 -0.0005718591
-0.05397227 0.076113574 -0.070641525 -0.114026316 -0.034995604 0.13324983 0.18280031 -0.15989737

model.decoder.convs.0.root_lin.weight f4 [32, 32]
00000000: fe38 113d 3164 d9bc be3f cdbd 5274 df3c
00000010: c9a8 483e b4d5 11be a997 533e a0cd ad3d
00000020: fb26 a4bd 1322 16be e387 683e b8af 853e
00000030: 2ca7 1c3e 59c4 8abd abd8 863e a1ae 8abd
00000040: 3123 ae3d 11d0 3f3e 9025 8a3d 9922 1fbe
00000050: a8b3 83be de34 a73d b981 3f3c d0c4 c83d
00000060: 79b3 853e b031 c1bd bc2a b7bd bab2 6d3e
00000070: acf7 ba3d dc28 0cbd 13fa 043c ca63 733d
00000080: 38fe 08bc 4fdc c93d 45ef 143e 564c fa3c
00000090: 76e8 0b3d a07e 0e3e 8bdd d73d 1c82 e03d
000000a0: 489e 0fbe 1a4a 92bd 63ae 56bc 474c db3d
000000b0: 3db5 213e f25b 5c3e 72db f0bd 6279 ce3d
000000c0: 82a9 ad3d da3a c3bd 3d02 e03d 4663 c23d
000000d0: 8fc5 a53c 231e bc3d 7815 1ebe 4e82 053e
000000e0: a3fa 00be 56a7 813d 7f4d c93d 4e66 193e
000000f0: 3284 ec3d e374 df3b 5a63 9ebd 94f8 88bd
00000100: 9806 7bbd 0a32 473e f0c2 c3bd 99ec b8bc
00000110: 4ace aebd 72d0 0fbe ec9c 14bd af46 3fbc
00000120: c542 0d3e c95d 35be 003a 7c3e 7554 763e
00000130: 2185 c8bd 52ea 843d db41 4cbc a6f3 ddbd
00000140: 2f75 16bd 51db c83d a824 6c3e 5f78 18be
00000150: 206a 223b d7c4 2e3d 3fa4 5abe bd0c 2e3e
00000160: 27f6 053e 110d 31be 8a75 24be c544 c43d
00000170: ced1 4cbd 9103 e1bd 5c2d 6ebe 50ae 82bd
00000180: e85a 0c3e 3d52 913d ac47 a8bd 2be2 2e3e
00000190: 5832 123e db3d fd3d 2faf c33d 951f 81bd
000001a0: fba3 15be c2b5 2ebe 4fab e9bc f8d6 0c3d
000001b0: 8116 7a3d b6e9 273e 3b90 223e d1de a3bd
000001c0: f981 3b3e 588a ad3c 680c 20be bab4 73bd
000001d0: d2ef 3abe fca7 86bd 2c23 043e 72cd 843d
000001e0: cbf4 353e 5db2 2dba cb67 14bd a5fa a93d
000001f0: 9e97 273d c82b 0d3b 5b13 093d e5aa c83d
00000200: 1625 1c3e 6429 23be d882 1e3e 26dd 54bd
00000210: 87b0 d9bd 0be7 823b 08d3 4ebc 369d 0dbd
00000220: cd96 abbd 4bdb 37be 2bba 2c3e 2c7b d4bd
00000230: f83d 1f3e 8473 37be 7760 363e 44a2 27be
00000240: ac60 d5bd e20f 8cbd 08ed bf3d d8f0 003e
00000250: e91a 3b3d da5a 80bd 8dc5 83bd dfb8 8ebc
00000260: 3d5f eabd 2e31 7a3d 2cdb ee3d 68f2 173c
00000270: faa6 463c 486a 2dbe db90 06be e6a5 f53d
00000280: b1d5 7c3e 7cbd 68be 8bfd 733d e261 0abe
00000290: 85f3 49be 391e 1b3e e66a 5bbc 8b56 153c
000002a0: ad47 e63d 7e76 3d3e 7a2f b3bc 8a30 123c
000002b0: 2fef bb3d c151 36be aabc 61be b60b fd3d
000002c0: dfb9 4ebe f9d2 debd e269 aabd 2130 493e
000002d0: 7606 123d 21c8 b93d cc15 4c3d 0ec2 32be
000002e0: 24e7 10bd a57f d03d f7c2 fc3d 837b 0cbe
000002f0: 84d9 52bd 6429 de3d e297 063e ae76 4f3e
00000300: deed 163e 54cb 00bc 1a57 c9bd abfc b3bb
00000310: 4e92 8fbc 299f 0dbe 3934 3cbd 01fd 29be
00000320: 0d87 2dbe 5a80 f4bd be1f 11bb 4e70 2cbe
00000330: 2962 c53d 0dd8 96bd c5d5 243e 7b5d b5bd
00000340: 28d4 acbc 71fe 0fbe cd0f 933d bf5e 9d3c
00000350: abcd eebd 2688 27bb e95a d63d d60a eebd
00000360: a0ef 86bc 7a55 cb3d deb9 08be 77f8 f7bc
00000370: 0b8d 133e 36e2 133e 1124 febd 2278 ebbd
00000380: 73d7 5c3e e4fc 0e3b fe57 08bd 6950 293e
00000390: 64b4 fcbd 7d6e 4d3e 98aa 75bc f64e 3cbd
000003a0: 0182 9a3d 69f6 bd3c f21b 953c c4e6 c93d
000003b0: 8df9 1abd 3b3a 0e3e 62eb 27be e444 21bd
000003c0: be7d 333d 2331 7a3b 149d c33d 681a fe3d
000003d0: 4464 5d3d 2901 483e a02f 283e e348 3fbd
000003e0: da2a 2fbd 285a 343e ba5e da3d fbc0 8d3d
000003f0: 9f2e f3bc a108 1fbd cf4c c03d 4a98 d7bd
0.035454743 -0.026537033 -0.100219235 0.027277146 0.19595636 -0.14241678 0.20663323 0.084864855
-0.080152474 -0.14661436 0.22708087 0.26110625 0.15298146 -0.067757316 0.2633718 -0.06771589
0.08502806 0.18731715 0.06745446 -0.15540542 -0.25723004 0.081643805 0.011688643 0.09803164
0.2611349 -0.09433305 -0.08943698 0.2321271 0.09129271 -0.034218654 0.008116263 0.05942134
-0.008361392 0.09856474 0.14544399 0.030553978 0.03415724 0.13915491 0.10540303 0.109623164
-0.14025223 -0.0714304 -0.0131031005 0.10707908 0.15791793 0.2151945 -0.11760606 0.10081746
0.08479597 -0.095327094 0.10937927 0.09491591 0.020235805 0.091854356 -0.15437877 0.13037989
-0.1259561 0.06330745 0.09829234 0.14980432 0.11548652 0.006819354 -0.077337936 -0.066880375
-0.061285585 0.19452682 -0.09558666 -0.022573756 -0.0853544 -0.1404436 -0.036282465 -0.011674567
0.13795002 -0.17711557 0.246315 0.24055655 -0.09791017 0.064900056 -0.012466873 -0.10837488
-0.03673285 0.09807456 0.23060858 -0.14889668 0.0024782494 0.04266819 -0.21351717 0.16997047
0.13082181 -0.1729014 -0.16060463 0.09583429 -0.050004773 -0.10987008 -0.2325949 -0.06380904
0.13706553 0.07095764 -0.08216795 0.17078464 0.14277017 0.123653136 0.09554898 -0.06304852
-0.14613335 -0.17061523 -0.02852407 0.034384698 0.061056618 0.16397747 0.15875332 -0.08001483
0.183113 0.021184132 -0.15629733 -0.059498526 -0.18255547 -0.06575009 0.12904042 0.06484498
0.17769162 -0.00066260045 -0.036231797 0.0829976 0.040916078 0.0021540988 0.033465724 0.097982205
0.15248522 -0.15933758 0.154796 -0.051968716 -0.10629373 0.0039948276 -0.012623556 -0.034573756
-0.08378372 -0.17954747 0.16867892 -0.10375056 0.15550983 -0.1791516 0.17810236 -0.16370493
-0.10418829 -0.06838967 0.09371382 0.12591875 0.04567996 -0.062673286 -0.06434164 -0.017422138
-0.114439465 0.061082058 0.116628975 0.009274103 0.012124771 -0.16935074 -0.13141195 0.11994533
0.24690892 -0.22728533 0.05956797 -0.13513902 -0.19721802 0.15148248 -0.013392186 0.009114872
0.1124414 0.18502232 -0.021873225 0.008922705 0.0917648 -0.17804624 -0.22044626 0.12355749
-0.20188092 -0.108800836 -0.08320977 0.19647266 0.035650693 0.09071375 0.049825475 -0.17456838
-0.035376683 0.10180596 0.12341874 -0.13718991 -0.05147697 0.108477384 0.13143876 0.20260116
0.14739177 -0.007860977 -0.098310664 -0.005492767 -0.017525818 -0.13830246 -0.04594824 -0.1660042
-0.16946049 -0.119385436 -0.0022144164 -0.16839716 0.09637863 -0.07365427 0.16097172 -0.088557206
-0.021097258 -0.14061905 0.07180748 0.019210218 -0.11660322 -0.0025563329 0.104665585 -0.116231605
-0.016471684 0.09928413 -0.13352153 -0.030269844 0.14409272 0.14441761 -0.12409223 -0.11497523
0.21566562 0.0021818215 -0.03328704 0.1653458 -0.12339094 0.20061679 -0.014994286 -0.04597374
0.075443275 0.023188787 0.018201802 0.09858468 -0.037835646 0.138894 -0.16398385 -0.03937234
0.04382109 0.003817626 0.09551445 0.1240738 0.0540507 0.19531693 0.16424417 -0.04670037
-0.042765476 0.17612517 0.10662599 0.06921574 -0.029685317 -0.03882659 0.0938965 -0.10527094

model.decoder.convs.1.bias f4 [32]
00000000: 9675 62bb 421f 933c 7d22 983c f707 2b3d
00000010: 1894 d23c 36f8 93bc 83ef 083c 5180 463d
00000020: 0000 0000 16ee d13c 95cd 133d ac8e e33c
00000030: c219 b6bb d201 a53c 7b77 dc3c 1e7f c13c
00000040: 1ddd ab3b f05b e03c 4879 343c c2bc c83c
00000050: 4e7f 0f3d f666 cfbc b218 2d3d 42cc 7c3b
00000060: f451 173d 9bef 6a3d 38d8 253d 2228 663c
00000070: 75f0 ad3c da22 853b 948c 813b 0ea7 05bd
-0.003455495 0.01795924 0.018571133 0.041755643 0.025705382 -0.018062692 0.008357885 0.048462216
0.0 0.025626224 0.03608473 0.027777992 -0.00555727 0.02014247 0.026912441 0.023620185
0.0052448646 0.02738759 0.011015244 0.02450407 0.035033517 -0.02531765 0.04225988 0.0038573896
0.03694339 0.05735741 0.040489405 0.014047654 0.021232823 0.0040629925 0.003953526 -0.03263002

model.decoder.convs.1.lin.weight f4 [32, 32]
00000000: 1585 0e3e 554d d93d c3d7 31bd 13a6 a83d
00000010: fe42 36be cbae e9bd 1c67 0d3e a15f 4e3d
00000020: 467d b6bd 3671 13be 06b5 963d 78e0 bfbb
00000030: 9682 85bd e0e2 13be 43b6 e8bd d77e c2bd
00000040: 5a26 6e3d 1000 1bbe 9870 13bd 60c5 b13d
00000050: 432d 5c3d 0da6 373e c5b0 4a3d 11fe 0a3e
00000060: 221a 183e a438 5b3e 0158 0d3e ac69 3abe
00000070: ec32 41bd cbf6 07be 76dd b23d be18 14be
00000080: 91f3 9b3d 5e20 d13d df09 373c b75c f6bd
00000090: 7a4d 01bc 8c9e 903d e5bc b33c 17d8 183e
000000a0: 2145 0a3c 0f6f b63d feef c23d 3f15 f1bc
000000b0: b8aa 7c3d dd8b 24be 800e 3a3e f71d babd
000000c0: 75b1 813d 1772 9c3d de90 1dbd 825d 2b3c
000000d0: 6774 dcbd 04a5 e73d 0d5c 1f3e e7de 2bbe
000000e0: 4154 f4bd bc18 f83d 5695 96bc f5bc b03c
000000f0: c799 3bbe 13f8 21be c62a e13d 1cd8 bcbc
00000100: a87e 433e 4906 833d a1ff 4e3e 0d06 023e
00000110: 508c 3ebd 6078 013c 1959 ac3d 5c53 03be
00000120: ef3f 12be 4a69 fc3d def9 683d f843 71bd
00000130: 7534 8fbd beb1 f5bd afa5 57ba c96a 1abd
00000140: ddbe cc3d 89ec 0ebd f04c 2abd 6e32 923d
00000150: 8608 38bc f098 303e 8367 1b3e 51c4 babd
00000160: 4abe 09be 55da 9b3c 7504 59bd 7fdc aabc
00000170: 9080 a2bd e121 1dbe 901f b53c 6761 4f3c
00000180: 4ba9 433e ec55 0ebe 0ea5 d73d f3db f43d
00000190: 79d6 22be 418d 02be bd1e 2ebe 8b23 86bc
000001a0: 1a81 f63d 90d9 f63d 3f26 1bbe c19b c63d
000001b0: d46f 18bb 7f20 313d 0bd3 09be c0fd 10be
000001c0: a6b8 ae3d 2608 a8bd 7c47 243d c126 e33d
000001d0: db2f 4a3e 4344 6dbb 9876 b63d 499b d63c
000001e0: ee0d 0b3e 27ef e63d 45b7 ad3d 23cc b83d
000001f0: e51e aebd 1698 6f3d 7def 453b 58f1 ea3d
00000200: 3c8c 633e 8c57 173e 1bad 143e 5019 463d
00000210: b6ce 2ebe 5596 46bd bdfd c63d 0e45 86bd
00000220: 98ed b23d f4f8 163e c33b c53d 9efb 1a3e
00000230: 063c 85bc 17bf 05bc 1fa9 f13c 1f1e 2fbd
00000240: 1cb5 eb3d ca49 05be fe1f ba3d 985b 493d
00000250: f0c3 a2bc d0a9 9fbd 9064 033e d5b3 27be
00000260: 0373 33bd 5f5f a7bd 3a0e d2bd c08e 4bbc
00000270: c0ed 8a3c c322 383e 41a2 813d d16a 16be
00000280: fed0 ce3d ad05 163e 11a0 83bd 8833 08be
00000290: 4307 a3bc 7dab 76bc 3a92 373d f9af 29bc
000002a0: ccfd 153e 0629 d93d 87c5 fcbd 8dc3 6e3e
000002b0: 0972 ab3d a044 59bd 6c1c 173e c310 813e
000002c0: ab58 5e3d 4556 c2bc f938 233d 1ccf 36bd
000002d0: 6911 c73d 2216 36bd 53a7 29be 336e 11be
000002e0: f634 093d b6d5 b23d c4de 6a3d ac37 b9bd
000002f0: 06cb 7bbc 269e 023e e1b6 12be aa4f 34be
00000300: 7d3d 2f3e 3dd3 febc d603 713d a4d1 07be
00000310: 7d12 2abe bd90 83bd 0ce5 1cbe be92 0a3e
00000320: 1503 193b 7be8 d13d 1069 6b3d 904f 0bbe
00000330: 9b91 db3d 2b6c 28bd b5c2 cfbd 64a2 d23d
00000340: 64f6 263e 194b 1cbd c5db b33d ab64 e4bd
00000350: 473f 283e 2a41 32be ed41 3ebd 6dc9 1fbe
00000360: 7392 2cbe 8c0f 3ebd 3d15 cbbd d481 efbd
00000370: 8113 093d 18a7 99bd cc7d 5bbd 5e3d 383e
00000380: 8b29 dc3c 9260 2a3b b0e8 e7bb 8c1a 103d
00000390: 39e4 293e 98dd f93d d880 68bd 0caa 1c3e
000003a0: 76fd 153e dcff f13c fbec 673d 5182 183e
000003b0: 10de abbc cfdb 8a3d 447c 8b3d 4608 b0bc
000003c0: 861c afbd 8625 213e d672 f13d 5b04 d13d
000003d0: 8545 1bbd d7e8 4cbe 462a 943d 929d b7bd
000003e0: d7c3 493e 843c 89be 2b8b 513c e055 2c3e
000003f0: 0a64 043e 563f eabd c1c6 663d 9263 223e
0.13917954 0.10610453 -0.043418657 0.08234801 -0.17798993 -0.11410292 0.13808864 0.050384168
-0.08910613 -0.14398655 0.07358746 -0.005855616 -0.06519048 -0.14442015 -0.11362889 -0.09496849
0.058142044 -0.15136743 -0.03599605 0.086802244 0.053754102 0.17934437 0.049484987 0.13573481
0.14853719 0.21408325 0.13803102 -0.18204373 -0.047167704 -0.13277738 0.087336466 -0.14462563
0.07614816 0.10211252 0.011171787 -0.12029403 -0.007892007 0.070614904 0.021940658 0.14926182
0.008439333 0.089079015 0.09518431 -0.029429076 0.061686248 -0.16068979 0.18169594 -0.090877466
0.06332675 0.076389484 -0.038468234 0.010459306 -0.107643895 0.11310771 0.15562458 -0.16784249
-0.11930133 0.12114093 -0.018381756 0.021574477 -0.1832038 -0.15817289 0.109944865 -0.023052268
0.19091284 0.06397683 0.20214702 0.1269762 -0.04652053 0.007902235 0.084154315 -0.12824768
-0.14282201 0.1232477 0.056878917 -0.05890271 -0.06992427 -0.11996792 -0.0008226288 -0.037699495
0.09997342 -0.034893546 -0.04157728 0.07138525 -0.011232501 0.17245841 0.15176205 -0.09119476
-0.13451496 0.019025007 -0.052982766 -0.020857094 -0.079346776 -0.15344955 0.022109777 0.0126575
0.19107549 -0.13899964 0.105295286 0.119560145 -0.15902127 -0.12749197 -0.17003913 -0.01637437
0.12036343 0.120532155 -0.15151308 0.096976765 -0.0023260014 0.04324388 -0.13459413 -0.14159298
0.08531313 -0.08204679 0.040107235 0.11091376 0.19744818 -0.0036204017 0.08909339 0.026197093
0.13579533 0.112760834 0.084822215 0.09023311 -0.085019864 0.05849465 0.003020256 0.11471814
0.22221464 0.1477949 0.1451916 0.048363984 -0.17071041 -0.04848321 0.097163655 -0.0655614
0.08736724 0.14743406 0.09630539 0.15135047 -0.016263973 -0.008163235 0.029499589 -0.042753335
0.11509153 -0.1301643 0.09088133 0.049159616 -0.01986882 -0.07796061 0.1283133 -0.16377194
-0.043810856 -0.081724875 -0.1025662 -0.012424171 0.016959071 0.1798201 0.063297756 -0.14689185
0.10098456 0.14650603 -0.064270146 -0.13300908 -0.019900924 -0.015055534 0.044817187 -0.010356897
0.14647597 0.10603528 -0.12342363 0.23316784 0.0837136 -0.05304396 0.14756936 0.252081
0.05428378 -0.023722777 0.039849255 -0.04463111 0.097201176 -0.0444547 -0.16567735 -0.14202194
0.033497773 0.087321684 0.057341352 -0.09043822 -0.015368229 0.12755641 -0.14327575 -0.17608514
0.171133 -0.031106586 0.05884155 -0.13263565 -0.16608615 -0.06424091 -0.1532175 0.1353254
0.0023347784 0.1024942 0.057473242 -0.1360457 0.107211314 -0.041118782 -0.10144559 0.1028488
0.16304928 -0.038157556 0.08782152 -0.111520134 0.16430388 -0.1740767 -0.04644959 -0.15604182
-0.16852741 -0.046401545 -0.0991616 -0.116946846 0.033465866 -0.07502574 -0.053586766 0.1799216
0.026875278 0.0025997502 -0.007077299 0.035181567 0.16590966 0.12200469 -0.0567635 0.15299243
0.14647469 0.029540949 0.056622487 0.14893462 -0.020979911 0.067802064 0.06810811 -0.02148832
-0.08550362 0.1573697 0.11789481 0.10205909 -0.037908096 -0.20010696 0.072346255 -0.08965601
0.19703613 -0.26803982 0.012789528 0.16829634 0.12928787 -0.114378616 0.05634189 0.15858296

model.decoder.convs.1.root_lin.weight f4 [32, 32]
00000000: 5d20 5fbd 347f 803b 2f6d fabc 31ff fe3c
00000010: 5c21 85bd 03e3 2cba 3aea 2e3e 0cef f13d
00000020: 3c87 aa3d 7d8c 00be 6e0f 0c3e 84b5 0bbc
00000030: 9947 f0bd 5fbc 25be beee debd a2af 763e
00000040: 3a24 443e 347e 433d d799 cb3c 4556 3c3e
00000050: 580a 0abe b8d9 81be e8ff 093e d5ad a93d
00000060: 9c4e 46ba a7f8 c5bc e6f8 3dbe a370 7a3d
00000070: d9d2 893d 1433 f83d 0a74 3d3d e72d be3d
00000080: 0f68 0cbe e342 20be 75b2 57bd e3ae 943d
00000090: 99d1 25be b076 113e 17f3 263e fdf8 4a3e
000000a0: 7557 a73c e6be f9bd 4421 273c 503d 1abd
000000b0: 9d9f 05be 4e1b 323e 71fd f93d b2e4 923e
000000c0: 95d4 1c3e 47cc f43d 429c b53d 8420 afbd
000000d0: e89d b33d afee 37bd dfdb cbbd a30c 1bbe
000000e0: a430 8ebd b7d4 963d 6512 f9bd 91db 1a3e
000000f0: 5247 123e b03e a13d 2461 083e fe69 9a3c
00000100: 4160 823d 012a 9abd 4255 debd c393 bf3d
00000110: e958 0cbc 7365 453e c9fa 773d ffaf c23d
00000120: b8cd 193e 8f1c bc3d 722a 14bd 3be2 123d
00000130: 8659 3e3e 5c29 19bd d5e3 0e3e 3642 bc3c
00000140: 4758 4c3e 1ee8 42be e493 123d 7ede 943d
00000150: 21ae 7bbc d5fd b1bd f246 0fbe 865d 9e3b
00000160: ab2d 04bd f5d6 1ebe 823d bebd 94d0 e83d
00000170: 42e2 c93c cee5 0e3d 42d8 05be dabc 0ebd
00000180: 22f3 673d 4d16 243e 0e46 523e 1bb4 8b3d
00000190: 46c9 e13d 5db2 403e 759d 08be 6d21 6dbd
000001a0: eca3 2d3e 9537 cc3d 0119 1bbd bfce 393d
000001b0: d016 c03d abb0 72bd 9e28 c03c b3ba 30bd
000001c0: a3d2 1cbe 2a04 34bd ad31 6b3e ebbc 93bc
000001d0: 0948 f7bb 58b2 1d3d 5e28 09be a4e3 143e
000001e0: 66ae 7e3e 9f9c 50bc 6683 243e e4e0 f93d
000001f0: 7f8f 08be f74f e83d ab8e 193e 18b6 67bd
00000200: 17df dfbd 1a6a cdbc bcef 8dbd acde fbbc
00000210: 5b19 b7bd c4a4 583e a964 e63b eb76 6e3e
00000220: 5c99 0d3e a196 94bd 65c1 a4bd b102 b5bd
00000230: 0bc8 ee3d edd9 ddbc 76ce 3b3e 0d37 7b3d
00000240: ddde 113e 97de e03d 2b80 80bb 0074 343c
00000250: f808 5b3d cc5e 2dbd 4756 303e 1256 2b3e
00000260: 3122 47bd 9bd6 ae3d db2e 5b3d 4704 8d3d
00000270: b970 b33d cd0b 4d3d c111 173e fbf0 013e
00000280: 1adf b83c 4f5f a33d d480 86bb c120 63bd
00000290: 4002 adbd e4a5 27bd 5ab9 f4bc b4a7 d5bd
000002a0: b983 d0bd 6343 b6bd 8b7e 02bc 987f 443c
000002b0: 4abb bebd f11a 183e 6452 9c3d 808d 663d
000002c0: 1cf1 81bd 08d1 92bc 8a6f debd fec1 efbd
000002d0: 3b8d 42be 8b35 823e 0a62 26be ac8c d0bd
000002e0: 3eba bcbd 4ef8 543e 8460 223e 4fe2 1cbd
000002f0: de98 f6bc 9e0a 5b3d e8ce f33d 0c69 d2bd
00000300: 193e 2abe f781 1ebe b5bd d8bd bf82 34bd
00000310: d8de 9d3c 8aab 07be de1f 2f3e f79b e73d
00000320: 4fef 85bd ffd1 b4bd 9fed 053d 3f77 56bc
00000330: 0ed4 4abe 1c0a cebd 2080 eabd b52f f6bd
00000340: b2b5 943c 410e 313e 4d26 c9bd e47d ac3d
00000350: ebd4 0dbe 6266 143e bb7d b43c 59e6 b2bc
00000360: 6823 3d3d caee 26be dffc bdbd c5fb d43d
00000370: b801 fa3d 010c 43be 4a53 22be ae9d 93bc
00000380: 0104 9d3c aecd 363e a66f 0d3e 2f89 de3d
00000390: 7ed7 913c 845a 32be 2344 72bd e997 513d
000003a0: c836 0fbe 1962 083e dd3d e33d 5272 883e
000003b0: fb6b 51bd fea8 8cbd ad92 23be 269f 10be
000003c0: 4b13 5a3d 286c d33d 4ad5 503e 494b 2a3d
000003d0: 78a5 ba3d 2cea 593e cf14 123e ff2a ae3d
000003e0: 21d5 29bc cb65 4a3d 1efb 783e 4f01 183e
000003f0: b9a3 4bbd 1186 30be 8572 1f3e ce47 d33d
-0.054474223 0.003921414 -0.03056964 0.031127544 -0.065005034 -0.00065951067 0.17081538 0.11813173
0.08326575 -0.12553592 0.13677761 -0.008527163 -0.11732406 -0.16185139 -0.1088538 0.24090436
0.19154444 0.04772778 0.02485363 0.18392284 -0.13480508 -0.2536142 0.13476527 0.08285109
-0.00075648143 -0.024166418 -0.18551978 0.061142575 0.06729669 0.121191174 0.04625324 0.09286099
-0.1371157 -0.15650515 -0.052660424 0.072599195 -0.16193236 0.14205432 0.16303669 0.19821544
0.020427445 -0.12194614 0.010200802 -0.03765613 -0.13049169 0.17393228 0.12206543 0.28690106
0.15315469 0.11953025 0.088676944 -0.08551124 0.087703526 -0.04490536 -0.099540465 -0.1514154
-0.06942871 0.07364791 -0.121617116 0.1512282 0.14285019 0.07873285 0.13318306 0.01884937
0.06366015 -0.07527543 -0.108561054 0.09354355 -0.00856612 0.19276981 0.0605419 0.09506225
0.15019882 0.091851346 -0.03617329 0.03586028 0.18588838 -0.03739296 0.13954099 0.02298079
0.1995555 -0.19033858 0.03578557 0.072689995 -0.01536134 -0.08690993 -0.13991907 0.004832926
-0.032270115 -0.15511687 -0.092890754 0.11367908 0.024644021 0.034887128 -0.13070777 -0.03484807
0.056628354 0.16024132 0.20534536 0.06821462 0.11024718 0.1881804 -0.13341315 -0.057893205
0.16957062 0.09971539 -0.037865642 0.045363184 0.09379351 -0.059250515 0.023456868 -0.0431468
-0.15314727 -0.043949284 0.22968169 -0.018034419 -0.007546429 0.03850016 -0.13394305 0.14539963
0.24871215 -0.012732654 0.1606575 0.122010976 -0.1333599 0.11343377 0.1499583 -0.056570143
-0.10931223 -0.025075007 -0.06930491 -0.030745827 -0.08940383 0.21156603 0.0070310426 0.23287551
0.13828033 -0.07255293 -0.080446996 -0.08838404 0.11659249 -0.027081454 0.18340477 0.061331797
0.14245172 0.10979956 -0.003921529 0.011013985 0.05347535 -0.042326733 0.17220412 0.16732052
-0.04861659 0.085370265 0.05351148 0.068855815 0.087617345 0.050060082 0.14752866 0.12689583
0.02256732 0.07977163 -0.004104713 -0.05545116 -0.08447695 -0.04092969 -0.029873539 -0.104323775
-0.10181374 -0.08899572 -0.0079647405 0.011993311 -0.09313066 0.14854027 0.07632902 0.05628729
-0.06344816 -0.01792194 -0.10861118 -0.11706923 -0.18999188 0.25431475 -0.16248336 -0.10183081
-0.092152104 0.20797846 0.1585713 -0.038301762 -0.03010219 0.053476922 0.119046986 -0.10273942
-0.16625251 -0.15479265 -0.10583059 -0.04407 0.0192713 -0.1324903 0.17102 0.11309045
-0.06539785 -0.08829116 0.032697316 -0.013089954 -0.19807455 -0.10060522 -0.11450219 -0.12020818
0.018153045 0.17290594 -0.098217584 0.08422449 -0.13850753 0.14492181 0.02203261 -0.021838354
0.046176344 -0.16302028 -0.09276747 0.10399584 0.12207359 -0.19047548 -0.15852085 -0.018019523
0.019166948 0.17851898 0.13812122 0.108660094 0.01780295 -0.17417341 -0.05914701 0.051170263
-0.13985741 0.13318671 0.11095784 0.2664972 -0.05112837 -0.0686817 -0.15973921 -0.1412321
0.053241055 0.103233635 0.20393863 0.041575704 0.09113592 0.21280736 0.1426575 0.085042946
-0.010365755 0.049413484 0.24314544 0.14844249 -0.049716685 -0.17238642 0.1557103 0.1031643
